sarl_star_ros/CrowdNav-nowall/crowd_nav/data/sub/output_RR0.8_dgs0008/il_model.pth (torch_old, 349196 bytes, 20 tensors)

mlp1.0.weight f4 [150, 13]
0.1001863 0.23972112 0.18412879 -0.005485732 -0.09130603 -0.10829997 -0.19388737 0.2530675
-0.08579258 0.06359219 0.20421067 -0.067653395 -0.30331314 -0.14924252 0.17160332 -0.28363213
-0.22563258 0.20371073 -0.035619363 -0.22954717 0.21386343 -0.255072 0.29134342 0.24369551
0.06003021 0.08147509 0.1205058 0.14682163 0.0585957 -0.21611357 0.3863523 0.44450942
0.21072906 -0.118936166 -0.16409855 -0.35954556 -0.24677308 -0.2666287 -0.16414708 -0.19175017
-0.05058343 0.0839383 0.16068202 -0.22905171 0.20050417 -0.23413108 0.13971256 0.22810271
0.22766675 -0.1459278 0.061874483 -0.1240141 -0.13898933 -0.22017303 0.03467057 0.19263448
-0.12438953 0.16290832 0.26925984 -0.09313513 0.15433042 -0.03561337 -0.26609093 -0.18012153
0.14237875 -0.018782241 0.036291797 -0.19413921 0.043101016 -0.01606578 -0.36493132 -0.180512
0.1119868 0.31714988 0.23327337 -0.18146709 0.22902803 -0.20835808 0.2856643 0.25256795
-0.17706574 -0.14122069 0.049266692 -0.09354607 -0.27463922 0.14658488 -0.39463234 0.123876475
0.17584088 -0.37867773 -0.12022511 -0.003565597 -0.12129927 -0.034895785 0.06840519 0.28124377
-0.38847867 0.3195273 -0.1782894 -0.38803583 0.17262255 0.12333779 -0.4332378 0.3095966
-0.015498814 0.35406992 -0.050745845 0.035716303 -0.16467655 -0.09406884 0.21439505 0.3324819
0.1283649 0.24330825 -0.33329228 0.17740583 -0.08983872 -0.26935884 0.086970985 0.11919476
0.15770781 0.15693635 -0.26314053 0.07706072 -0.11721474 -0.2015823 0.21062738 0.037788436
0.12661512 -0.21499276 0.08661624 -0.18757634 -0.12546602 0.08472446 -0.005172735 0.22901729
-0.18893981 0.1651363 0.11164169 -0.15635625 0.040449847 -0.029726077 -0.07566835 0.033709146
-0.08824188 -0.012836456 0.20462951 0.20137507 0.121640734 0.02107656 -0.14863922 -0.35672855
-0.19911325 -0.38048854 0.12296022 -0.17683657 -0.04702882 -0.27475518 -0.25219038 -0.004183712
0.19120751 0.16763528 0.09692214 -0.3124109 -0.12759647 0.048782278 -0.11106359 0.071648166
0.20490186 0.126417 0.124458015 -0.009314691 0.19668156 -0.0066098245 -0.14373523 -0.2299143
0.16473544 -0.24675158 0.5542837 -0.39835915 0.10192114 -0.018169137 -0.26495692 0.0042701955
0.22982357 0.18850896 -0.06196427 -0.033796784 0.3859127 -0.11167122 -0.09115824 -0.17779204
-0.07197263 -0.09349604 0.11730558 -0.02116219 0.2795392 -0.20230271 -0.22005078 0.104857765
-0.05395206 0.003096546 0.10393829 -0.31551534 0.21002604 -0.25276968 0.23679519 -0.10600281
-0.01475977 0.07324235 0.0036178483 0.17506336 -0.020208627 -0.30914602 0.050584614 0.3725372
0.06633125 0.2374459 0.06238197 0.16862069 -0.3202899 -0.2962629 0.25174075 -0.17166865
-0.10073889 -0.1270448 -0.23124456 -0.040557373 0.14417604 0.1419172 -0.075516574 0.12736796
0.3410797 -0.108216725 -0.19153646 0.030699156 -0.18746032 0.21410748 -0.11265712 -0.05582286
0.2822544 0.2609725 0.24845344 -0.036312316 -0.18147187 -0.008522071 -0.0749492 0.022925986
0.06376914 0.1927973 0.2163726 0.08548232 0.00042304202 0.013186718 0.10022302 0.17849043
00000000: 7a2e cd3d 7479 753e 428c 3c3e a8c1 b3bb
00000010: a8fe babd 60cc ddbd 698a 46be 1092 813e
00000020: 05b4 afbd 9f3c 823d 9a1c 513e dd8d 8abd
00000030: dc4b 9bbe 08d3 18be c8b8 2f3e 3b38 91be
00000040: 3a0c 67be 8c99 503e 9ce5 11bd 6a0e 6bbe
00000050: 04ff 5a3e cc98 82be f72a 953e 518b 793e
00000060: 3de2 753d 69dc a63d bfcb f63d 6958 163e
00000070: 0b02 703d e04c 5dbe f8cf c53e bd96 e33e
00000080: 5cc9 573e ce94 f3bd 7309 28be 5b16 b8be
00000090: 15b2 7cbe 8f83 88be 2c16 28be 285a 44be
000000a0: 9230 4fbd d8e7 ab3d d489 243e 888c 6abe
000000b0: f750 4d3e 0fc0 6fbe cf10 0f3e c293 693e
000000c0: 7921 693e 196e 15be 1970 7d3d 1bfb fdbd
000000d0: 3853 0ebe 0a75 61be ba02 0e3d f941 453e
000000e0: f0bf febd 70d1 263e 6ddc 893e a2bd bebd
000000f0: cb08 1e3e 53df 11bd 123d 88be c771 38be
00000100: bccb 113e 37dd 99bc b5a6 143d 6ecc 46be
00000110: b18a 303d 629c 83bc 47d8 babe 23d8 38be
00000120: 5659 e53d 7861 a23e 37df 6e3e 82d2 39be
00000130: 5386 6a3e d25b 55be 9742 923e 9650 813e
00000140: b950 35be 289c 10be dfcb 493d 1595 bfbd
00000150: 839d 8cbe 591a 163e 400d cabe f3b2 fd3d
00000160: a20f 343e 0ce2 c1be 9538 f6bd cbac 69bb
00000170: c06b f8bd e2ee 0ebd 0518 8c3d 2fff 8f3e
00000180: ade6 c6be 1599 a33e 7f91 36be a2ac c6be
00000190: f7c3 303e 8698 fc3d 58d1 ddbe 7283 9e3e
000001a0: bdee 7dbc a748 b53e e0da 4fbd 424b 123d
000001b0: f8a0 28be 2aa7 c0bd 608a 5b3e 113b aa3e
000001c0: 1772 033e cc25 793e 49a5 aabe e0a9 353e
000001d0: 5dfd b7bd 67e9 89be d81d b23d 621c f43d
000001e0: 287e 213e ecb3 203e 5bba 86be 03d2 9d3d
000001f0: 480e f0bd 976b 4ebe b4ae 573e 0cc8 1a3d
00000200: 65a7 013e 1027 5cbe db63 b13d 0314 40be
00000210: 2a7a 00be 0584 ad3d 0c80 a9bb 8283 6a3e
00000220: 7079 41be 7d19 293e 66a4 e43d da1b 20be
00000230: bdae 253d 1a84 f3bc 02f8 9abd 9a12 0a3d
00000240: 29b8 b4bd 0050 52bc 668a 513e 4435 4e3e
00000250: c71e f93d c0a8 ac3c e134 18be 20a5 b6be
00000260: 58e4 4bbe 65cf c2be 91d2 fb3d a514 35be
00000270: 4ba1 40bd b6ac 8cbe 191f 81be 8517 89bb
00000280: e7cb 433e 95a8 2b3e 1d7f c63d 52f4 9fbe
00000290: a6a8 02be edcf 473d 4f75 e3bd 46bc 923d
000002a0: cbd1 513e 7573 013e d8e3 fe3d a59c 18bc
000002b0: e466 493e 3a97 d8bb 542f 13be a76e 6bbe
000002c0: 68b0 283e 72ac 7cbe 89e5 0d3f bbf5 cbbe
000002d0: 08bc d03d 71d7 94bc 6fa8 87be ffec 8b3b
000002e0: df56 6b3e 7e08 413e 3fce 7dbd 7f6e 0abd
000002f0: 5996 c53e e1b3 e4bd 2cb1 babd 1e0f 36be
00000300: 6366 93bd da7a bfbd e83d f03d 545c adbc
00000310: c31f 8f3e 7128 4fbe fe54 61be abbf d63d
00000320: d6fc 5cbd 6cef 4a3b 99dd d43d 3a8b a1be
00000330: 1111 573e 076b 81be 707a 723e 0018 d9bd
00000340: f6d2 71bc 1600 963d 6c19 6d3b cf43 333e
00000350: 908c a5bc 6348 9ebe d031 4f3d 32bd be3e
00000360: aed8 873d 0525 733e 3d84 7f3d e7aa 2c3e
00000370: 0afd a3be c5af 97be 2ae4 803e e8c9 2fbe
00000380: 3150 cebd 0818 02be 60cb 6cbe 7d1f 26bd
00000390: e2a2 133e be52 113e 6fa8 9abd bf6c 023e
000003a0: 00a2 ae3e bba0 ddbd 2222 44be cc7c fb3c
000003b0: 99f5 3fbe fe3e 5b3e c7b8 e6bd 83a6 64bd
000003c0: a683 903e 309e 853e 946a 7e3e 39bc 14bd
000003d0: c3d3 39be 28a0 0bbc f77e 99bd 47cf bb3c
000003e0: 6599 823d a86c 453e c790 5d3e 5b11 af3d
000003f0: bdcb dd39 1b0d 583c ba41 cd3d 32c6 363e

mlp1.0.bias f4 [150]
0.2429582 -0.155379 0.04969958 -0.19448058 0.020172788 -0.11917661 -0.118628405 0.04955452
0.016004153 0.19819137 0.20505936 0.2440016 -0.20862177 -0.02906732 0.041084103 0.10405719
0.037902776 -0.13587287 -0.23986435 -0.18770216 -0.17715156 0.09261927 -0.24437562 0.16020468
0.2677195 0.07449492 -0.23553257 -0.09694443 -0.2561408 0.08338273 0.1498906 -0.1143811
0.021021249 0.014412303 -0.055803817 -0.18352225 -0.1955079 -0.15080954 -0.3692069 0.04363627
-0.2401968 0.06806767 0.047270216 0.124757856 0.21909326 0.15731227 0.03625255 -0.08370459
-0.005694649 -0.22275636 0.2221299 -0.03503699 -0.17848349 -0.1462876 0.19058913 -0.3019586
-0.17718871 0.005373615 0.19934715 -0.16924854 0.111509375 -0.27022433 -0.012665202 0.17864828
-0.453616 0.1569161 -0.062044498 0.07427486 -0.13520393 -0.07156499 -0.039714165 -0.15152152
-0.352951 0.19087584 -0.17217124 -0.05284571 0.22195154 0.01919426 0.13961726 -0.04213057
-0.16384129 -0.23557627 0.28844184 -0.19305462 -0.19703573 0.0832241 0.20838279 -0.040852692
0.25838852 0.16589957 -0.01531109 -0.17413963 -0.08124943 0.15668312 0.077420615 -0.03375063
0.119811706 0.034903187 -0.11421679 -0.26707548 -0.051293775 -0.2889908 -0.019942006 0.2226298
0.3158157 -0.11262973 -0.30056196 0.13877377 0.18039632 0.18106101 0.0465952 -0.10647098
0.03159135 0.26441675 -0.08355937 0.14108984 0.1861921 -0.2199218 -0.056814466 0.12266037
0.08572696 0.29673773 0.17485183 0.115611844 0.039702617 0.0578779 -0.1476058 0.35756475
-0.32584152 0.16075364 -0.114213854 -0.20221181 -0.122726455 0.16266237 -0.033493377 0.20282489
0.1771946 0.0038418116 0.15023732 0.10067481 -0.06726257 -0.020611426 0.024901662 -0.1270293
-0.18264005 -0.09302141 -0.18328139 0.057714462 0.06307202 0.23552728
00000000: 09ca 783e ac1b 1fbe c991 4b3d eb25 47be
00000010: 6741 a53c de12 f4bd 73f3 f2bd aef9 4a3d
00000020: 241b 833c aef2 4a3e 15fb 513e 8edb 793e
00000030: f2a0 55be 971e eebc ce47 283d f01b d53d
00000040: f13f 1b3d 4222 0bbe 009f 75be ff34 40be
00000050: 3867 35be 2caf bd3d 9a3d 7abe b20c 243e
00000060: 8812 893e cb90 983d 732f 71be cd8a c6bd
00000070: e324 83be 91c4 aa3d ec7c 193e a340 eabd
00000080: c134 ac3c 9521 6c3c 8b92 64bd 42ed 3bbe
00000090: 3933 48be d16d 1abe b008 bdbe f2bb 323d
000000a0: 26f6 75be 1067 8b3d 6a9e 413d 0c81 ff3d
000000b0: fc59 603e 7816 213e 8e7d 143d 506d abbd
000000c0: 2e9a babb 3e1a 64be 0576 633e f282 0fbd
000000d0: 60c4 36be 6bcc 15be cc29 433e 519a 9abe
000000e0: f570 35be 2615 b03b a921 4c3e 7d4f 2dbe
000000f0: 075f e43d d85a 8abe b581 4fbc 93ef 363e
00000100: 5b40 e8be 9dae 203e 5f22 7ebd 6b1d 983d
00000110: e672 0abe aa90 92bd 52ab 22bd 7528 1bbe
00000120: feb5 b4be f574 433e a84d 30be be74 58bd
00000130: 4447 633e 483d 9d3c d4f7 0e3e 1b91 2cbd
00000140: 03c6 27be e83a 71be a6ae 933e 1cb0 45be
00000150: bcc3 49be 6671 aa3d 4c62 553e 2755 27bd
00000160: 804b 843e 94e1 293e 5edb 7abc a951 32be
00000170: 1a66 a6bd 8a71 203e b38e 9e3d 1a3e 0abd
00000180: d75f f53d a5f6 0e3d 7eea e9bd 1ebe 88be
00000190: 6c19 52bd 9af6 93be 6b5d a3bc 11f9 633e
000001a0: 98b2 a13e 6aaa e6bd 42e3 99be b61a 0e3e
000001b0: d0b9 383e 0f68 393e 9cda 3e3d 750d dabd
000001c0: ee65 013d a261 873e 2d21 abbd db79 103e
000001d0: 24a9 3e3e 2e33 61be 49b6 68bd 5c35 fb3d
000001e0: 9e91 af3d 02ee 973e 5c0c 333e e7c5 ec3d
000001f0: 369f 223d 6011 6d3d fa25 17be ba12 b73e
00000200: b3d4 a6be 9a9c 243e f4e8 e9bd 9d10 4fbe
00000210: 0258 fbbd f790 263e 5a30 09bd 54b1 4f3e
00000220: 8072 353e e7c6 7b3b d0d7 193e 982e ce3d
00000230: f5c0 89bd 4bd9 a8bc 92fe cb3c f813 02be
00000240: fe05 3bbe 0282 bebd 1eae 3bbe 0066 6c3d
00000250: e72b 813d 102e 713e

mlp1.2.weight f4 [100, 150]
0.08172219 -0.0069918917 0.004695401 0.036189996 -0.07359365 -0.007962958 -0.08211535 0.03014329
-0.06402962 0.028763792 0.06522163 -0.040952742 -0.046056397 0.0698104 -0.044897918 -0.023164136
0.06419061 -0.07799374 0.07158538 -0.040706865 0.021771735 -0.043950655 -0.069556154 0.028676013
-0.03675007 -0.027472815 -0.014031476 -0.076464236 0.0076220706 -0.051888473 -0.046292007 -0.05769591
-0.05995646 -0.019419212 0.07375759 -0.07572801 -0.0035687247 -0.0032791265 0.065394536 0.074732326
-0.0070107514 -0.020199142 -0.018940054 0.017761506 0.07335041 0.029074626 -0.05695891 -0.039738085
0.07361613 0.017111111 -0.030263824 0.071639135 -0.03567882 0.043823984 -0.07897422 0.08033083
-0.008931851 0.023521677 0.029345555 -0.036875967 -0.013564024 0.005996322 0.021332277 -0.03693502
0.071486406 0.052684475 -0.007044583 0.020526458 0.013575553 0.07369228 -0.017676983 0.017379275
-0.08040003 -0.011710119 0.0073605627 -0.07107216 -0.053793672 0.059305947 -0.074095935 -0.038377527
0.025093598 -0.078370705 -0.018019453 0.053098418 -0.003053976 -0.046785515 0.012596492 -0.08060503
-0.06396337 -0.076961875 -0.014646423 0.0053752884 -0.07025547 0.060038578 0.024544338 -0.011286494
-0.02069681 0.0016924174 -0.050298832 -0.049943563 0.0674719 0.041919094 -0.065864295 0.03800553
-0.05684297 0.013021674 -0.03110149 0.0066671544 0.018063627 0.0670648 0.06433307 -0.027506853
-0.04224681 -0.035024196 -0.027283937 -0.046755027 -0.00077983737 0.055204846 -0.0036652233 0.06842636
0.030753234 0.04777241 -0.0019848114 -0.061705448 0.071784966 -0.06471961 -0.018462598 0.003278765
-0.072839476 0.043916445 -0.07628597 -0.048293196 0.053798504 0.07763121 -0.013396369 0.036418855
-0.07385936 -0.030176908 0.06834861 0.07125858 0.0052791866 0.048191655 -0.08042306 -0.002603449
-0.022146776 -0.029281624 0.020636877 -0.019110598 -0.051961716 0.079483554 0.027048143 -0.0065954123
-0.04319038 -0.064370476 0.054404687 -0.07022022 0.08350362 -0.011417476 -0.05882757 -0.06139033
0.04815784 0.06296571 -0.01859951 0.08246722 -0.007189212 0.027925825 0.03479796 0.032939505
-0.023326635 -0.00053589634 0.014284506 0.00755667 0.03793792 0.08561223 0.015898816 0.042894453
0.04050923 0.06619351 -0.050374348 -0.008896198 0.05769102 -0.114455715 -0.06431751 0.028659279
0.055400923 0.082980886 0.001679775 -0.027543273 -0.06721934 0.043157425 0.046419624 0.06106414
0.03912061 0.004838513 0.09004554 -0.046652302 0.0013213193 0.04208585 0.02476595 -0.013402942
0.02234905 -0.017128332 -0.07234506 0.049496684 -0.021848992 -0.101867914 0.041845206 0.0034481008
0.10428594 -0.011900312 0.013435437 -0.098243184 0.012853608 0.061456747 -0.12472197 -0.04452247
-0.03489879 0.05623773 0.03522756 -0.021412695 0.0036050128 0.02582572 0.011421695 -0.032086637
0.0019946352 0.035191633 -0.07585887 0.08334613 -0.026433015 0.13566406 0.005620436 0.049802933
0.08541324 0.009194264 0.028767651 -0.072283834 0.103658654 -0.037479214 0.04493684 0.046150893
0.042954978 -0.0038222966 -0.041093696 -0.04389126 -0.0010111334 -0.050093856 0.09293996 0.05086001
-0.06510049 0.0071028136 -0.02039662 -0.03563121 0.10308088 -0.037441008 0.08135251 0.008075818
00000000: f75d a73d 3d1c e5bb e1db 993b f63b 143d
00000010: 44b8 96bd 1177 02bc 182c a8bd 10ef f63c
00000020: f621 83bd 0ba2 eb3c eb92 853d 10be 27bd
00000030: a2a5 3cbd c1f8 8e3d e1e6 37bd b7c2 bdbc
00000040: 5e76 833d 2fbb 9fbd 5b9b 923d 3ebc 26bd
00000050: a35a b23c 9a05 34bd 7573 8ebd f5e9 ea3c
00000060: 3e87 16bd ab0e e1bc 47e4 65bc 4899 9cbd
00000070: 90c2 f93b 0289 54bd b09c 3dbd 8c52 6cbd
00000080: e894 75bd 0a15 9fbc 380e 973d 4917 9bbd
00000090: 44e1 69bb 9de6 56bb 92ed 853d 430d 993d
000000a0: 72ba e5bb ac78 a5bc 2c28 9bbc 9480 913c
000000b0: bd38 963d e92d ee3c bf4d 69bd 67c4 22bd
000000c0: 0ec4 963d 9a2c 8c3c d7eb f7bc 8ab7 923d
000000d0: f423 12bd c780 333d 3cbd a1bd 7d84 a43d
000000e0: e656 12bc 88b0 c03c 1766 f03c 410b 17bd
000000f0: a43b 5ebc cb7c c43b 07c1 ae3c 2d49 17bd
00000100: 7767 923d adcb 573d 3fd6 e6bb 1a27 a83c
00000110: ff6b 5e3c faeb 963d 52cf 90bc fb5e 8e3c
00000120: c5a8 a4bd cddb 3fbc e030 f13b 488e 91bd
00000130: c156 5cbd cbea 723d 9cbf 97bd c131 1dbd
00000140: 1791 cd3c d280 a0bd 889d 93bc ba7d 593d
00000150: 3725 48bb 2ba2 3fbd 8461 4e3c 4014 a5bd
00000160: 3aff 82bd 309e 9dbd 8df7 6fbc 3023 b03b
00000170: 1ae2 8fbd 03eb 753d 3511 c93c fdea 38bc
00000180: 5b8c a9bc 1bd4 dd3a 2606 4ebd 9f91 4cbd
00000190: b52e 8a3d 5bb3 2b3d dce3 86bd b0ab 1b3d
000001a0: 2dd4 68bd dc58 553c 8dc8 febc 2578 da3b
000001b0: 2cfa 933c 4559 893d 0ec1 833d 0d56 e1bc
000001c0: fe0a 2dbd 8875 0fbd 9082 dfbc 3382 3fbd
000001d0: 006e 4cba 7a1e 623d 3e34 70bb 1f23 8c3d
000001e0: 35ee fb3c 01ad 433d 9c13 02bb dabe 7cbd
000001f0: ff03 933d b78b 84bd e03e 97bc 8ce0 563b
00000200: dd2c 95bd bbe1 333d d23b 9cbd 16cf 45bd
00000210: d25b 5c3d 1dfd 9e3d 727c 5bbc f02b 153d
00000220: 9343 97bd 9035 f7bc 5bfa 8b3d 05f0 913d
00000230: 07fd ac3b 9d64 453d d8b4 a4bd a09e 2abb
00000240: 286d b5bc 04e0 efbc ab0e a93c d48d 9cbc
00000250: cfd5 54bd 46c8 a23d 1194 dd3c 541e d8bb
00000260: 65e8 30bd abd4 83bd 73d7 5e3d 9ecf 8fbd
00000270: f203 ab3d 5e10 3bbc 2ef5 70bd 6d74 7bbd
00000280: 2841 453d 2bf4 803d 005e 98bc 93e4 a83d
00000290: 7b93 ebbb b3c4 e43c 4e88 0e3d 93eb 063d
000002a0: 8017 bfbc 657b 0cba 9009 6a3c f19d f73b
000002b0: cb64 1b3d 7755 af3d 3c3e 823c 18b2 2f3d
000002c0: 02ed 253d 7790 873d 5555 4ebd 5cc1 11bc
000002d0: 6b4d 6c3d c267 eabd e6b8 83bd ddc6 ea3c
000002e0: 14ec 623d e2f1 a93d e52b dc3a 6ea2 e1bc
000002f0: 4baa 89bd d7c5 303d 8122 3e3d 641e 7a3d
00000300: ef3c 203d 648c 9e3b cc69 b83d 7c16 3fbd
00000310: 1e30 ad3a 3662 2c3d f6e1 ca3c 0398 5bbc
00000320: 5b15 b73c b750 8cbc a629 94bd 09bd 4a3d
00000330: a8fc b2bc 20a0 d0bd e165 2b3d 88f9 613b
00000340: de93 d53d 87f9 42bc 4f20 5c3c b933 c9bd
00000350: f097 523c 12ba 7b3d 3b6e ffbd 325d 36bd
00000360: 09f2 0ebd 8959 663d c64a 103d ad69 afbc
00000370: 1442 6c3b 7690 d33c 1022 3b3c 476d 03bd
00000380: 6db8 023b 1a25 103d e55b 9bbd 60b1 aa3d
00000390: 0d8a d8bc 85eb 0a3e a22b b83b 29fe 4b3d
000003a0: 23ed ae3d 8aa3 163c 23aa eb3c 8c09 94bd
000003b0: fd4a d43d ce83 19bd b10f 383d b808 3d3d
000003c0: 8ff1 2f3d 7f7f 7abb dd51 28bd 52c7 33bd
000003d0: 0288 84ba 372f 4dbd 4e57 be3d 9652 503d
000003e0: 6853 85bd b8be e83b d016 a7bc 08f2 11bd
000003f0: 121c d33d be5b 19bd 259c a63d 7050 043c

mlp1.2.bias f4 [100]
-0.033911705 -0.015774386 -0.059726395 -0.036601506 0.031010002 0.11634225 0.09092577 -0.03316655
0.03238251 -0.011910974 -0.07157458 0.039207067 0.03703436 -0.107719265 0.008485647 -0.07921564
0.010026712 -0.030917365 -0.06395488 -0.017884653 0.18789276 -0.013338852 0.031773977 0.067956515
0.0174179 -0.030414084 0.005823924 -0.10803011 -0.014159881 0.03371293 -8.482167e-05 0.020213848
0.0038607346 0.09449661 0.002610474 0.03235296 -0.0015797688 0.076938525 0.07337001 0.055368103
0.0040903566 -0.05971318 -0.02264466 -0.0048052417 0.15775262 -0.029542213 0.097740404 -0.09203639
-0.046434667 0.0460178 0.057141297 0.065636575 -0.0039381883 -0.042708676 0.02204949 0.07602203
-0.12919696 0.2549636 -0.0023628934 -0.045876916 0.037338182 0.067048386 0.038142763 0.06719858
-0.12596083 -0.0071352236 -0.13084541 0.061743915 -0.054046795 0.097992264 -0.08202183 0.043895815
-0.06120307 -0.09249934 -0.077012196 -0.0958414 -0.03131971 -0.07221836 -0.114484295 -0.0770528
-0.02454698 -0.047869876 0.07699421 0.15983172 0.11299701 0.06499852 0.03208529 0.037055545
-0.08450378 0.05237191 -0.07671076 0.0217214 0.03754802 -0.032478712 0.04666275 0.028702341
0.0549153 0.07386256 -0.045121565 -0.07092032
00000000: 00e7 0abd 4939 81bc aaa3 74bd 76eb 15bd
00000010: b008 fe3c d844 ee3d 4a37 ba3d a6d9 07bd
00000020: 86a3 043d 3f26 43bc b295 92bd 9797 203d
00000030: 57b1 173d eb9b dcbd 6207 0b3c cf3b a2bd
00000040: 1447 243c 6a46 fdbc c7fa 82bd d682 92bc
00000050: f666 403e 338b 5abc 6e25 023d c92c 8b3d
00000060: fcaf 8e3c f526 f9bc 9ed6 be3b e43e ddbd
00000070: d8fe 67bc 9216 0a3d 4ae2 b1b8 8397 a53c
00000080: 6104 7d3b 7087 c13d 7c14 2b3b 8a84 043d
00000090: 3f10 cfba f291 9d3d 0443 963d aac9 623d
000000a0: 6608 863b cf95 74bd 4b81 b9bc 4a75 9dbb
000000b0: e789 213e 8302 f2bc 1f2c c83d 937d bcbd
000000c0: 4732 3ebd 297d 3c3d fe0c 6a3d 786c 863d
000000d0: eb0b 81bb 4bef 2ebd 22a1 b43c 70b1 9b3d
000000e0: 354c 04be 978a 823e c6da 1abb 6fe9 3bbd
000000f0: ecef 183d aa50 893d 963b 1c3d 699f 893d
00000100: e0fb 00be 98ce e9bb 57fc 05be 30e7 7c3d
00000110: 2c60 5dbd 2bb0 c83d 10fb a7bd 19cc 333d
00000120: 12b0 7abd 4b70 bdbd 92b8 9dbd 7f48 c4bd
00000130: 1949 00bd 38e7 93bd be76 eabd dccd 9dbd
00000140: c016 c9bc 3413 44bd 24af 9d3d edaa 233e
00000150: fa6a e73d f21d 853d dd6b 033d 8ec7 173d
00000160: 5110 adbd ee83 563d 881a 9dbd 14f1 b13c
00000170: f4cb 193d 6608 05bd 7121 3f3d 2c21 eb3c
00000180: deee 603d 4145 973d 64d1 38bd ac3e 91bd

mlp2.0.weight f4 [100, 100]
-0.018006578 -0.093714945 0.077262774 0.09421742 -0.0636383 -0.045008965 -0.07399806 0.053855762
-0.05404434 0.03454338 0.02545116 0.05377244 -0.00763987 0.10027492 -0.026504643 -0.062698014
0.055419832 -0.0151332 0.0387317 -0.03755445 -0.07805933 0.07264186 -0.07246901 -0.009031267
-0.03380232 0.029837918 0.08266203 -0.008570442 -0.05823896 -0.06840911 -0.047993157 0.038505692
-0.09106367 -0.08716621 -0.022194529 -0.08519074 -0.04691791 0.09028848 0.033426277 -0.055696074
-0.046072163 0.06435348 -0.0383583 -0.0608288 0.01294333 -0.08781041 -0.08894989 0.0036524239
0.08615889 0.090987094 -0.03972027 -0.03354413 -0.010435958 -0.06349146 -0.0126202535 0.08665748
0.054879274 0.007818373 -0.013611795 0.09657952 0.07506952 0.022400184 0.096487075 0.018211704
-0.07928486 -0.009096053 0.046384543 0.08985822 0.035176188 -0.015151822 0.091197975 -0.0040443363
0.059329953 -0.041462194 -0.089196 -0.09346871 -0.057339277 -0.04525259 0.037329376 0.045536753
-0.08044559 0.028282829 -0.08250126 0.034950174 0.058973435 0.09687931 -0.08525609 -0.023060594
-0.089670494 -0.057644945 0.089418404 -0.008299574 -0.09620809 -0.01771617 0.007818593 -0.018739402
-0.09860245 0.049378425 -0.0031128402 0.041345865 -0.061289392 0.06102245 -0.12211545 -0.11393405
0.038259216 -0.123508304 0.11777186 -0.057626665 0.025322706 0.012348974 0.09662604 0.096182026
-0.025498934 0.019125106 -0.04570499 0.06080114 -0.0028591554 -0.023961933 0.017437717 0.003295643
0.034138873 0.060668465 -0.03155142 -0.088068366 0.07059899 0.08306145 0.031209912 -0.048614793
-0.03683803 -0.14336932 -0.021583548 -0.003339603 0.070275865 -0.115638785 0.03550993 0.06690904
0.046540886 -0.05824697 -0.13455702 -0.08662996 0.06338949 0.1582193 0.10802133 0.015383263
-0.005689574 -0.08871066 0.17515478 -0.014422119 0.06181439 0.087081924 -0.003116214 -0.10078726
0.06982079 0.07552376 -0.08460395 0.054749366 0.025618007 -0.20929594 -0.10305349 -0.052693486
-0.21054897 0.074326746 -0.007682995 0.091098726 -0.046277225 -0.03801032 0.04054398 -0.050967995
-0.23129748 0.09121609 0.01118732 0.065086946 0.012458248 0.034737658 0.045654975 0.01972324
0.08510384 0.084928945 -0.13755016 0.038769934 -0.0649814 -0.1113082 -0.123464435 -0.1079304
-0.025108911 -0.045669973 0.038725074 0.15697587 0.01407127 0.0522246 -0.016582124 0.008199407
-0.015474813 -0.010922582 0.10557483 -0.065659605 -0.12919149 0.034001227 0.106593244 -0.05412218
-0.08750768 0.07303155 0.0026436823 0.054979995 -0.017764293 0.036768656 -0.049049754 -0.088822804
0.09410386 0.020654123 0.0022294475 0.010186123 0.09254694 -0.033815112 0.0017384212 -0.081770554
-0.07698149 -0.08174963 -0.08900707 0.09757889 -0.010059198 0.020407215 -0.09467264 0.05508798
-0.019448945 -0.10535561 -0.04201773 -0.05359812 0.0079790605 0.064164996 -0.055170264 -0.060500573
-0.035915136 0.02670704 0.06058777 0.046996284 -0.0323104 0.039451484 0.028555028 -0.048895977
0.05009807 -0.04505222 -0.043597434 0.027766215 0.050989706 0.018641822 -0.09773351 -0.03238503
-0.09495013 -0.027349845 -0.066836625 0.073209055 0.020648526 0.0018976008 0.006764921 -0.059247892
00000000: 8882 93bc 9fed bfbd f23b 9e3d 10f5 c03d
00000010: cc54 82bd 525b 38bd 4b8c 97bd dc97 5c3d
00000020: 995d 5dbd 5c7d 0d3d f37e d03c 7d40 5c3d
00000030: e057 fabb f05c cd3d 4420 d9bc d167 80bd
00000040: e8ff 623d 3ef1 77bc 22a5 1e3d b2d2 19bd
00000050: 92dd 9fbd 41c5 943d a26a 94bd e1f7 13bc
00000060: 4d74 0abd a66e f43c b64a a93d 0a6b 0cbc
00000070: fa8b 6ebd 131a 8cbd 7994 44bd 25b8 1d3d
00000080: 977f babd 3384 b2bd 4dd1 b5bc 7c78 aebd
00000090: ff2c 40bd 2be9 b83d fee9 083d 9121 64bd
000000a0: 2ab6 3cbd c2cb 833d 981d 1dbd 9f27 79bd
000000b0: 4310 543c f2d5 b3bd 5c2b b6bd 815d 6f3b
000000c0: 1274 b03d 7157 ba3d b9b1 22bd 9265 09bd
000000d0: 95fb 2abc d007 82bd 2ec5 4ebc 7a79 b13d
000000e0: 17c9 603d a218 003c 0204 5fbc 7ccb c53d
000000f0: 0cbe 993d 9780 b73c 049b c53d b630 953c
00000100: 1a60 a2bd 9d07 15bc b8fd 3d3d 9607 b83d
00000110: e814 103d 593f 78bc 01c6 ba3d 5a86 84bb
00000120: f703 733d 43d4 29bd 64ac b6bd 866c bfbd
00000130: 97dc 6abd c85a 39bd b0e6 183d bf84 3a3d
00000140: a8c0 a4bd 64b1 e73c 6cf6 a8bd ea27 0f3d
00000150: 218e 713d a968 c63d bf9a aebd 92e9 bcbc
00000160: 2aa5 b7bd 1b1d 6cbd ff20 b73d f0fa 07bc
00000170: bf08 c5bd 8021 91bc 8e19 003c 6083 99bc
00000180: 15f0 c9bd 0841 4a3d cb00 4cbb 485a 293d
00000190: 960a 7bbd adf2 793d aa17 fabd 4156 e9bd
000001a0: b2b5 1c3d ecf1 fcbd 5f32 f13d f009 6cbd
000001b0: 9071 cf3c 5a53 4a3c e0e3 c53d 15fb c43d
000001c0: 24e3 d0bc 41ac 9c3c 2835 3bbd 9e0a 793d
000001d0: ab60 3bbb d14b c4bc 8bd9 8e3c b7fb 573b
000001e0: 34d5 0b3d 7f7f 783d 103c 01bd 305d b4bd
000001f0: 3496 903d 1f1c aa3d eeab ff3c 4e20 47bd
00000200: 79e3 16bd 68cf 12be fbcf b0bc 3edd 5abb
00000210: cbec 8f3d 07d4 ecbd dc72 113d 9b07 893d
00000220: a8a1 3e3d 6094 6ebd 51c9 09be 0c6b b1bd
00000230: 59d2 813d 3d04 223e 493a dd3d 150a 7c3c
00000240: 9b6f babb efad b5bd c65b 333e c04a 6cbc
00000250: 1631 7d3d 0258 b23d 6539 4cbb 8d69 cebd
00000260: 34fe 8e3d 33ac 9a3d d644 adbd df40 603d
00000270: dbdc d13c ad51 56be b50d d3bd 20d5 57bd
00000280: 269a 57be 9f38 983d a2c1 fbbb f891 ba3d
00000290: 308d 3dbd b6b0 1bbd 7211 263d d1c3 50bd
000002a0: 3fd9 6cbe 80cf ba3d 054b 373c 4e4c 853d
000002b0: ae1d 4c3c 1349 0e3d b600 3b3d a292 a13c
000002c0: ec4a ae3d 3aef ad3d f3d9 0cbe 39cd 1e3d
000002d0: f814 85bd 8ef5 e3bd ecda fcbd 9d0a ddbd
000002e0: 34b1 cdbc 7010 3bbd 2f9e 1e3d 48be 203e
000002f0: 2f8b 663c 76e9 553d 3cd7 87bc ce56 063c
00000300: 128a 7dbc a1f4 32bc 9e37 d83d 8b78 86bd
00000310: c64a 04be df44 0b3d 8f4d da3d 38af 5dbd
00000320: 3a37 b3bd 9191 953d a141 2d3b b432 613d
00000330: 6c86 91bc bb9a 163d 65e8 48bd bbe8 b5bd
00000340: 86b9 c03d d632 a93c ec1b 123b b2e3 263c
00000350: 4089 bd3d b781 0abd bcdb e33a 5277 a7bd
00000360: 79a8 9dbd 5a6c a7bd 5749 b6bd 71d7 c73d
00000370: 56cf 24bc 082d a73c bbe3 c1bd efa3 613d
00000380: 6553 9fbc afc4 d7bd c91a 2cbd b489 5bbd
00000390: 9bba 023c f068 833d 37fa 61bd 73cf 77bd
000003a0: c01b 13bd b9c8 da3c e22a 783d 2d7f 403d
000003b0: e957 04bd e197 213d 3cec e93c 2647 48bd
000003c0: a233 4d3d ad88 38bd 3993 32bd f975 e33c
000003d0: 95da 503d bcb6 983c 8228 c8bd 2aa6 04bd
000003e0: 3775 c2bd c80c e0bc a4e1 88bd a1ee 953d
000003f0: 1927 a93c ebb8 f83a 45ac dd3b ebad 72bd

mlp2.0.bias f4 [100]
-0.04202684 -0.06338187 -0.029670982 -0.03754662 0.078714885 0.049643826 0.05526382 -0.08614403
0.019589225 -0.07893423 0.004018113 -0.025728112 -0.1084381 -0.05207353 0.017392248 0.058790598
-0.061640304 0.003952275 0.095691726 -0.105308965 0.07849409 -0.072208494 -0.106084466 0.03219099
-0.0056086197 -0.061159432 -0.056900505 -0.0790379 0.07451309 0.063643426 -0.028970404 -0.17369896
-0.019468099 0.044043906 -0.045731336 -0.020089265 0.10753007 -0.016593978 -0.15640417 0.12393373
0.020302722 0.022488246 -0.025750699 -0.0047200383 0.026905179 -0.030294742 0.0008525006 0.05964197
-0.07341653 -0.09773901 -0.13863778 0.0966506 0.015106784 0.030075798 0.09511716 0.03602754
0.0016027628 0.094767645 -0.16952185 -0.032037422 -0.08476256 0.01796224 0.059514035 -0.18436697
-0.09027267 -0.054514926 0.09284118 0.04884426 0.0765188 0.051834997 0.10003659 -0.042602565
-0.025867164 -0.022470688 0.060505014 0.0010326854 -0.029722594 0.029018857 -0.026900925 -0.06283965
0.02276911 0.007128764 0.11779306 -0.08956391 0.113233216 0.057975065 -0.0927985 0.05478477
-0.017923893 -0.019995313 -0.03152166 -0.0493465 -0.1204737 -0.046757955 0.00011990231 0.0032925648
0.0044905515 -0.001033124 -0.14677314 0.033286013
00000000: 5624 2cbd 5bce 81bd 8f10 f3bc 7cca 19bd
00000010: 4535 a13d 5357 4b3d 515c 623d 486c b0bd
00000020: 9579 a03c 45a8 a1bd 60aa 833b c3c3 d2bc
00000030: cb14 debd 0e4b 55bd 307a 8e3c 69ce 703d
00000040: 8b7a 7cbd 1682 813b 06fa c33d 3aac d7bd
00000050: 82c1 a03d 0ce2 93bd d042 d9bd b3da 033d
00000060: 83c8 b7bb 5082 7abd 8110 69bd 9fde a1bd
00000070: 529a 983d 7c57 823d 5753 edbc 24de 31be
00000080: 907b 9fbc 6267 343d c850 3bbd 3e92 a4bc
00000090: ba38 dc3d 18f0 87bc 6a28 20be f8d0 fd3d
000000a0: e551 a63c 4539 b83c 21f3 d2bc 8daa 9abb
000000b0: 4068 dc3c ae2c f8bc 597a 5f3a 234b 743d
000000c0: 685b 96bd 642b c8bd 10f7 0dbe c0f0 c53d
000000d0: 7282 773c 8561 f63c c9cc c23d 9d91 133d
000000e0: cc13 d23a 8a15 c23d 2397 2dbe ac39 03bd
000000f0: fe97 adbd 8c25 933c fdc4 733d b2ca 3cbe
00000100: e1e0 b8bd 0b4b 5fbd 8423 be3d eb10 483d
00000110: e3b5 9c3d ef50 543d fcdf cc3d 0780 2ebd
00000120: 60e7 d3bc 7314 b8bc 1bd4 773d 2c5b 873a
00000130: cc7c f3bc f4b8 ed3c 545f dcbc 13b2 80bd
00000140: 4986 ba3c 6898 e93b 7d3d f13d 496d b7bd
00000150: d1e6 e73d 4377 6d3d 240d bebd ff65 603d
00000160: 21d5 92bc 36cd a3bc db1c 01bd 8e1f 4abd
00000170: eaba f6bd 4585 3fbd 1074 fb38 12c8 573b
00000180: 7a25 933b e469 87ba b34b 16be ea56 083d

mlp2.2.weight f4 [50, 100]
-0.08463036 0.06935035 -0.05363074 0.006553497 0.022660889 -0.07921577 0.048031468 0.02842893
-0.05245462 0.06072007 -0.043322936 0.04785174 0.07214439 -0.046633773 0.022537963 -0.08528799
0.0018092924 0.017971348 0.09761583 0.07064688 -0.030336412 0.0016195155 0.015766516 0.120259896
-0.0066616824 -0.014958459 0.082886815 -0.07449208 -0.017492611 -0.032050427 0.028272683 -0.052636523
0.12921953 -0.05976806 0.046194825 0.05626761 0.061857164 0.082677774 0.058960605 -0.06313279
-0.04163039 0.06667062 -0.049804132 -0.034206033 0.028421838 0.103941664 0.0060116975 0.020605123
-0.022977209 0.009620989 0.03105317 -0.062728405 0.066696 -0.008153546 0.038983487 -0.102778696
0.018148597 0.054475646 0.04673194 -0.0009809078 -0.004500249 -0.08657903 -0.09705132 0.039198175
0.067707375 -0.014989922 0.076191336 0.028682915 0.01333873 -0.05778889 0.0041510714 -0.09037126
0.01287673 -0.026335903 -0.08238061 0.069985725 -0.016090443 0.1002211 -0.063210264 0.0033508497
-0.03623372 0.004280811 0.027041124 0.13816486 0.055115998 -0.052387338 -0.05680244 -0.020509025
0.122662865 -0.053643517 -0.019154457 -0.021899397 -0.04740783 0.13518639 0.082952045 -0.0039665997
0.045161434 -0.010098744 -0.022462396 0.13068521 -0.043913532 -0.029497227 -0.074134335 -0.008985717
-0.003250918 -0.007025902 0.05167926 -0.0290408 -0.047407184 0.04517864 0.09293627 -0.04098975
0.049298838 -9.822193e-05 -0.014775974 -0.03802221 0.077808134 0.06078622 -0.0945491 -0.091456
-0.0036738499 0.059083663 0.047015358 0.012773588 0.10764743 0.05340896 -0.015521278 -0.10020554
-0.070344456 0.035802748 -0.013004447 0.07063077 -0.100692295 0.013817099 0.028531455 -0.005272519
-0.02725859 0.012912213 -0.06887965 -0.0025212597 -8.5060856e-05 -0.10806937 0.055222757 -0.025345271
0.09917225 0.027813686 0.08894156 -0.05538045 0.081543736 0.036943816 -0.027776562 -0.036669254
-0.115461215 0.042091444 -0.090102464 0.0132803675 -0.081092395 0.077264465 0.12182286 -0.010274763
-0.099811904 0.015059525 0.048421025 0.037190054 -0.050752763 -0.022533916 -0.04068288 -0.08872214
-0.06560189 -0.028753864 -0.022716748 0.089502215 -0.024432274 0.034749452 -0.06094525 -0.09631127
0.048295084 -0.06566793 0.05033414 -0.08622631 -0.10232732 0.07016942 -0.03866208 0.10728763
0.10124056 0.021689164 -0.049103413 0.028577643 -0.021641318 -0.123349614 0.030537657 0.09112738
0.06342415 -0.047612004 0.17180727 0.0036153332 0.057959102 -0.04479525 0.10290903 -0.09583828
0.03898315 0.09470868 0.043334167 0.117014766 -0.099270634 0.032632917 0.062215764 0.042372726
-0.006595203 0.001951732 0.030075008 -0.10635542 -0.0316324 -0.07043317 -0.058599662 0.18844765
0.0703697 -0.108272195 0.03146033 -0.026654063 -0.11090751 -0.10696567 -0.04820033 -0.0036909478
0.042940073 0.10914398 -0.06801282 -0.00806805 0.075748645 0.027401991 0.10863873 0.041308362
-0.007977873 -0.11733786 -0.014201032 -0.048495013 0.14799947 0.064837456 -0.061591476 0.0027863954
-0.02291499 -0.066250995 0.0853336 0.013042018 0.0641794 0.05366847 -0.02925935 0.061640423
-0.028396873 0.08234423 -0.03953287 -0.106287286 0.07477468 0.12547849 0.03489436 -0.09815927
00000000: af52 adbd 8e07 8e3d e8ab 5bbd b8be d63b
00000010: 54a3 b93c e13b a2bd a5bc 443d cae3 e83c
00000020: a8da 56bd 9cb5 783d 6473 31bd 3000 443d
00000030: 70c0 933d 0e03 3fbd 89a1 b83c 78ab aebd
00000040: c725 ed3a a638 933c cfea c73d 50af 903d
00000050: 1184 f8bc ec45 d43a c828 813c d24a f63d
00000060: 3e4a dabb 5314 75bc 90c0 a93d 4e8f 98bd
00000070: aa4c 8fbc 4f47 03bd 1d9c e73c 6599 57bd
00000080: 2052 043e 5acf 74bd c936 3d3d de78 663d
00000090: f05d 7d3d f752 a93d ad80 713d c44b 81bd
000000a0: a184 2abd 9b8a 883d 6bff 4bbd a01b 0cbd
000000b0: ead4 e83c 5edf d43d c6fd c43b 13cc a83c
000000c0: b33a bcbc 5aa1 1d3c 3863 fe3c c077 80bd
000000d0: ea97 883d 7396 05bc 26ad 1f3d a37d d2bd
000000e0: 5eac 943c db21 5f3d fe69 3f3d ce91 80ba
000000f0: d376 93bb 5950 b1bd d8c2 c6bd 448e 203d
00000100: 2aaa 8a3d 4a98 75bc 340a 9c3d 6ff8 ea3c
00000110: b08a 5a3c 0bb4 6cbd b605 883b 9114 b9bd
00000120: ecf8 523c 64be d7bc 2ab7 a8bd ad54 8f3d
00000130: 1bd0 83bc b840 cd3d 6274 81bd ee99 5b3b
00000140: cf69 14bd 0c46 8c3b 5985 dd3c 177b 0d3e
00000150: 50c1 613d 1b94 56bd ada9 68bd 8b02 a8bc
00000160: ab36 fb3d 4eb9 5bbd cfe9 9cbc 5d66 b3bc
00000170: b62e 42bd 4d6e 0a3e c3e2 a93d 40fa 81bb
00000180: 32fb 383d 3475 25bc 0f03 b8bc 58d2 053e
00000190: adde 33bd 2ba4 f1bc bed3 97bd d438 13bc
000001a0: 5a0d 55bb 8a39 e6bb a2ad 533d f9e6 edbc
000001b0: 092e 42bd 3d0d 393d 5f55 be3d dee4 27bd
000001c0: 94ed 493d 7ffc cdb8 ed16 72bc 2dbd 1bbd
000001d0: df59 9f3d f9fa 783d f5a2 c1bd 494d bbbd
000001e0: f9c4 70bb b601 723d 2d93 403d 5048 513c
000001f0: 4176 dc3d 5bc3 5a3d f54c 7ebc 9038 cdbd
00000200: c110 90bd e7a5 123d 9b10 55bc dda6 903d
00000210: c337 cebd 1d61 623c ccba e93c 18c5 acbb
00000220: 684d dfbc bf8d 533c c610 8dbd b83b 25bb
00000230: b362 b2b8 7953 ddbd 4231 623d e3a0 cfbc
00000240: d21a cb3d 87d9 e33c fe26 b63d 9cd6 62bd
00000250: 6700 a73d 6652 173d ac8b e3bc 8032 16bd
00000260: ee76 ecbd 1468 2c3d a487 b8bd e695 593c
00000270: c513 a6bd d53c 9e3d 437e f93d 7b57 28bc
00000280: 2f6a ccbd 3abc 763c 2055 463d 9954 183d
00000290: 21e2 4fbd 0c99 b8bc 17a3 26bd f4b3 b5bd
000002a0: 495a 86bd 398d ebbc 7918 babc f04c b73d
000002b0: 3126 c8bc 7155 0e3d baa1 79bd d83e c5bd
000002c0: 11d1 453d e87c 86bd 2c2b 4e3d 6b97 b0bd
000002d0: fc90 d1bd fcb4 8f3d 215c 1ebd 9eb9 db3d
000002e0: 3657 cf3d 79ad b13c a920 49bd a91b ea3c
000002f0: 2249 b1bc b99e fcbd 1c2a fa3c fea0 ba3d
00000300: 85e4 813d ce04 43bd 3fee 2f3e 3aef 6c3b
00000310: 8666 6d3d 397b 37bd f8c1 d23d dc46 c4bd
00000320: ccac 1f3d a0f6 c13d 2b7f 313d 70a5 ef3d
00000330: 674e cbbd 18aa 053d f5d5 7e3d 068f 2d3d
00000340: 931c d8bb 42d1 ff3a dd5f f63c dfd0 d9bd
00000350: fa90 01bd 443f 90bd 3306 70bd 6cf8 403e
00000360: fd1d 903d d0bd ddbd 8cdc 003d 9f59 dabc
00000370: 7a23 e3bd d110 dbbd b66d 45bd d4e3 71bb
00000380: eee1 2f3d e186 df3d 4e4a 8bbd db2f 04bc
00000390: 1b22 9b3d 247a e03c fc7d de3d f532 293d
000003a0: a0b5 02bc d54e f0bd 72ab 68bc b5a2 46bd
000003b0: 2c8d 173e 80c9 843d 5847 7cbd f59b 363b
000003c0: 38b8 bbbc 9aae 87bd 62c3 ae3d 30ae 553c
000003d0: 7d70 833d 78d3 5b3d 4eb1 efbc ab7a 7c3d
000003e0: 8fa0 e8bc 17a4 a83d 38ed 21bd 26ad d9bd
000003f0: 7823 993d 6f7d 003e 63ed 0e3d ba07 c9bd

mlp2.2.bias f4 [50]
-0.057535782 0.024364589 -0.011921957 0.013369331 -0.08463598 -0.055888113 0.0376945 0.11045105
-0.085184164 0.081392564 0.081448294 0.14533335 -0.06735372 -0.05428669 -0.016340125 -0.03289514
0.020678544 0.12703405 -0.018579133 0.06195829 -0.12468805 -0.09467039 0.053515684 0.04026474
-0.07234211 0.17305927 0.10733019 -0.013006247 0.09504253 -0.11506282 0.0830908 -0.022917876
-0.097127795 -0.075027466 0.0793239 -0.08549324 -0.077565506 0.05355535 -0.0366701 0.012788643
-0.025970401 0.0108303195 -0.048884533 -0.01568764 -0.1233085 -0.008989446 0.0424662 0.105403475
0.09208826 -0.08849939
00000000: a4aa 6bbd 3f98 c73c 5054 43bc 0a0b 5b3c
00000010: a155 adbd efea 64bd 8c65 1a3d 2934 e23d
00000020: 0975 aebd 25b1 a63d 5dce a63d 44d2 143e
00000030: bff0 89bd b85b 5ebd badb 85bc 0ebd 06bd
00000040: 0d66 a93c 3715 023e 4433 98bc fac7 7d3d
00000050: 735c ffbd 8de2 c1bd 4333 5b3d a4ec 243d
00000060: 1a28 94bd 7336 313e eecf db3d 2718 55bc
00000070: a8a5 c23d 0ea6 ebbd 822b aa3d 45be bbbc
00000080: f0ea c6bd 00a8 99bd 9274 a23d 1417 afbd
00000090: aada 9ebd db5c 5b3d 6333 16bd 7587 513c
000000a0: e1bf d4bc a771 313c 263b 48bd 5e83 80bc
000000b0: 2b89 fcbd 7848 13bc 0af1 2d3d c7dd d73d
000000c0: c598 bc3d 2b3f b5bd

attention.0.weight f4 [100, 100]
-0.050512962 0.085837655 0.06857769 -0.059549928 -0.0013596267 0.07564276 0.045534022 0.03040669
-0.06947795 -0.03895674 0.05637821 -0.07062714 -0.053987313 -0.037413064 -0.06455238 0.03459249
-0.0012153205 0.05544617 -0.0022433116 -0.005012358 -0.0037398324 -0.04836339 0.05474118 0.024989398
0.025820132 0.069802985 -0.002945488 -0.016481329 0.036812034 0.039855056 0.013929573 0.026147371
0.11535163 -0.072414316 0.10549973 0.06963047 0.00781899 0.023383249 0.03482738 0.03387444
0.048640102 0.05127933 0.014098915 -0.054550387 0.068413526 0.05042606 -0.024014233 0.039343856
0.08917032 0.088518426 0.0035928513 -0.054752197 -0.053282004 0.07402632 0.008778212 -0.09360315
-0.05623419 0.069092944 0.10447553 0.044014752 0.058321763 -0.056023672 0.021281825 0.033894535
0.05075092 -0.05204106 0.079260565 0.09512551 0.09564619 -0.031076605 -0.008662037 0.0915036
-0.05172052 -0.040283836 0.012081455 0.043301813 0.08542899 -0.002592092 0.031955656 -0.033933606
-0.07802682 0.02876162 0.08531911 0.0010737615 0.10812606 0.00029484718 -0.05778587 -0.017773455
-0.0020966297 0.049766254 -0.09894887 -0.055585407 0.043548122 -0.0625485 -0.10436241 -0.038083665
-0.052365128 0.073717564 0.0085525075 -0.09063693 -0.088638976 -0.094319046 -0.10022271 -0.04053236
0.06104175 0.063635975 0.018608283 -0.041913282 0.048193198 -0.030113824 0.08247346 0.07396626
-0.08955758 -0.0475651 -0.07977815 0.021555256 -0.06822572 0.104911394 -0.0065791067 -0.10851323
0.063216515 -0.0029318845 -0.013286911 0.077801056 -0.05684584 0.00176291 -0.054756686 -0.068003714
0.058304343 0.07170212 0.0020756042 0.08295543 0.008589335 -0.014454742 0.025220387 -0.050344028
0.115808204 -0.0014257283 -0.02960462 -0.106161095 -0.10474901 0.064896256 0.015557569 0.059905328
-0.090539634 0.05427075 0.01777955 -0.057450633 0.031409986 -0.053181186 0.09674172 -0.0061424393
0.072528556 0.0033668526 -0.010913401 0.08649638 -0.04543283 -0.058061827 -0.097899154 0.0809885
-0.057639237 0.08514647 -0.080621526 0.03910461 0.09060241 0.041430864 0.04565511 -0.08608563
-0.115250826 -0.0030423622 -0.09023305 0.056001224 -0.008513087 -0.035296492 -0.07636339 -0.060631514
-0.0125728445 -0.021412099 0.02349803 0.048175868 0.022240171 3.118376e-05 0.04131809 -0.023201542
-0.088946335 0.0275886 -0.062941045 0.072356 0.07539659 0.024517145 0.06499187 0.09575534
-0.1012973 -0.017520186 -0.05420892 0.03474061 0.061060403 0.063537486 -0.08275059 -0.039368767
0.022276398 -0.08896718 -0.10653316 -0.031309333 -0.06421681 0.06319887 0.03812666 -0.07730818
-0.08063443 0.08453775 -0.09216196 0.06818377 0.08849445 0.046489775 -0.038461845 0.027216673
0.07091044 0.054456014 -0.054398127 0.006556954 0.058625784 -0.0084530115 -0.089474596 -0.012722331
0.003671145 0.09461151 0.017421076 0.07100716 -0.017208671 0.007727979 0.07936177 0.0014128893
-0.034139965 0.03421677 -0.010505605 -0.020154051 -0.0719824 -0.03870291 0.09038607 0.08563042
-0.029754743 -0.062918834 -0.04773495 0.08078445 0.033947166 0.07870261 -0.039169528 -0.070289
-0.08357978 0.009028647 0.020350972 0.0057914555 -0.048845787 0.00961069 -0.045641325 -0.00042468432
00000000: aee6 4ebd a7cb af3d 7672 8c3d a0ea 73bd
00000010: 8035 b2ba 97ea 9a3d e281 3a3d 7317 f93c
00000020: 754a 8ebd 1a91 1fbd d7ec 663d f6a4 90bd
00000030: cd21 5dbd 713e 19bd 0a34 84bd dbb0 0d3d
00000040: 644b 9fba 861b 633d 8604 13bb b53e a4bb
00000050: fa17 75bb b118 46bd 4a38 603d 91b6 cc3c
00000060: be84 d33c def4 8e3d 1709 41bb da03 87bc
00000070: 37c8 163d 0e3f 233d dd38 643c 0333 d63c
00000080: 7a3d ec3d f54d 94bd 3e10 d83d 6b9a 8e3d
00000090: 391b 003c 3a8e bf3c 28a7 0e3d edbf 0a3d
000000a0: d83a 473d 460a 523d 23ff 663c 3a70 5fbd
000000b0: 641c 8c3d 8e8b 4e3d 7fb9 c4bc 0627 213d
000000c0: ee9e b63d 2649 b53d 0b76 6b3b d743 60bd
000000d0: 3b3e 5abd 1c9b 973d 7dd2 0f3c 02b3 bfbd
000000e0: d255 66bd 9a80 8d3d 44f7 d53d d048 343d
000000f0: cde2 6e3d 1479 65bd 3957 ae3c ffd4 0a3d
00000100: 32e0 4f3d 0229 55bd 5d53 a23d 2ad1 c23d
00000110: 26e2 c33d 5d94 febc 37eb 0dbc 3d66 bb3d
00000120: e5d8 53bd aa00 25bd 4cf1 453c 3e5d 313d
00000130: 65f5 ae3d 16e0 29bb efe3 023d f7fd 0abd
00000140: 87cc 9fbd 7d9d eb3c c9bb ae3d 75bd 8c3a
00000150: 3271 dd3d b895 9a39 e0b0 6cbd a399 91bc
00000160: 9c67 09bb b3d7 4b3d b5a5 cabd 86ad 63bd
00000170: 845f 323d 6e19 80bd f6bb d5bd 9efd 1bbd
00000180: d17c 56bd 3cf9 963d d11f 0c3c db9f b9bd
00000190: 5a88 b5bd 582a c1bd 9041 cdbd 4305 26bd
000001a0: ea06 7a3d 9453 823d 6670 983c 43ad 2bbd
000001b0: 3b66 453d 44b1 f6bc d8e7 a83d 9f7b 973d
000001c0: f769 b7bd 9fd3 42bd ba62 a3bd a694 b03c
000001d0: edb9 8bbd c9db d63d 8c95 d7bb 2f3c debd
000001e0: a977 813d dc24 40bb 58b1 59bc 2956 9f3d
000001f0: 2fd7 68bd 7211 e73a 8c48 60bd 8845 8bbd
00000200: 89d0 6e3d 90d8 923d dc06 083b 89e4 a93d
00000210: 48ba 0c3c 95d3 6cbc fc9a ce3c 8a35 4ebd
00000220: da2c ed3d 81df baba 6385 f2bc fd6a d9bd
00000230: a686 d6bd 54e8 843d 2de5 7e3c 4a5f 753d
00000240: d86c b9bd 024b 5e3d 6ba6 913c 5b51 6bbd
00000250: c2a7 003d 84d4 59bd 8620 c63d 8446 c9bb
00000260: da89 943d 6aa6 5c3b 1fce 32bc 0425 b13d
00000270: c617 3abd 3dd2 6dbd 5a7f c8bd 4cdd a53d
00000280: 1f17 6cbd 4661 ae3d e61c a5bd 282c 203d
00000290: c28d b93d 69b3 293d da00 3b3d aa4d b0bd
000002a0: a008 ecbd 5e62 47bb 1bcc b8bd 8a61 653d
000002b0: 7a7a 0bbc 0e93 10bd 6964 9cbd c058 78bd
000002c0: 55fe 4dbc 6d68 afbc f17e c03c 0f54 453d
000002d0: 0531 b63c 4fcb 0238 283d 293d 2911 bebc
000002e0: 7f29 b6bd 7d01 e23c 3ce7 80bd 622f 943d
000002f0: 8769 9a3d 2ed8 c83c 751a 853d 601b c43d
00000300: f574 cfbd 7e86 8fbc 2c0a 5ebd 2b4c 0e3d
00000310: 791a 7a3d f11f 823d 2479 a9bd 2541 21bd
00000320: fe7c b63c 6d34 b6bd 0f2e dabd 373e 00bd
00000330: 1a84 83bd 696e 813d b32a 1c3d c053 9ebd
00000340: aa23 a5bd 2122 ad3d 69bf bcbd efa3 8b3d
00000350: 943c b53d 106c 3e3d 2b8a 1dbd 80f5 de3c
00000360: 7e39 913d 450d 5f3d 92d0 5ebd b7db d63b
00000370: 9721 703d 807e 0abc 753e b7bd 5371 50bc
00000380: 9897 703b aec3 c13d a5b6 8e3c 346c 913d
00000390: 33f9 8cbc fd3a fd3b 6c88 a23d b330 b93a
000003a0: 59d6 0bbd e226 0c3d b31f 2cbc 1c1a a5bc
000003b0: 826b 93bd f186 1ebd 551c b93d 005f af3d
000003c0: 38c0 f3bc 97db 80bd b985 43bd 5172 a53d
000003d0: 2f0c 0b3d d62e a13d 3a70 20bd aef3 8fbd
000003e0: e02b abbd e4ec 133c 15b7 a63c 40c6 bd3b
000003f0: 8512 48bd 2876 1d3c 66f2 3abd 2aa8 deb9

attention.0.bias f4 [100]
-0.004383569 0.16202322 -0.021331675 0.097867265 -0.038357727 -0.0877964 0.060547955 0.047027096
-0.051545203 0.056728065 0.10693806 0.061736654 -0.0023144516 0.030808972 -0.071504526 0.056699093
0.004742852 0.024787573 -0.06577474 0.109425105 -0.026849907 -0.013479741 0.0713323 0.05652045
0.03276075 0.08160341 -0.023552362 0.097774506 0.11116831 -0.036019534 -0.031412307 0.061085477
-0.04006555 0.034005314 0.11777869 0.048508175 -0.095142044 -0.06258072 0.103582636 -0.09968887
0.021421164 0.10585108 0.07307332 -0.043217536 0.08601682 -0.026006732 0.008670177 0.0795486
-0.07087318 -0.08694916 -0.0730202 -0.030149309 -0.08653199 -0.07730976 -0.0235427 0.14079793
-0.0047465055 -0.043715015 -0.030167194 0.06254066 0.003864297 0.14668664 0.034743156 -0.08948488
0.06615601 -0.026958615 0.06109374 -0.076763295 -0.055911485 0.032195378 -0.010502822 -0.051015265
0.10096327 0.018466419 0.10414382 -0.073090404 0.036813248 0.07613567 -0.028527925 0.08409639
-0.039605953 -0.063758545 0.01833546 0.077443965 0.033279493 0.06660896 0.055866595 -0.02757086
0.09752542 0.056206524 0.07453845 0.10631455 0.0014190177 0.062404428 -0.10528341 0.071901426
0.09037976 0.040244445 0.07190646 0.050812364
00000000: 0ba4 8fbb 6ae9 253e c4bf aebc a26e c83d
00000010: fe1c 1dbd 99ce b3bd 2201 783d 7c9f 403d
00000020: 1021 53bd b05b 683d 5702 db3d 93df 7c3d
00000030: 0eae 17bb 1963 fc3c f770 92bd 4f3d 683d
00000040: ed69 9b3b 4f0f cb3c e8b4 86bd 451a e03d
00000050: 56f4 dbbc 22da 5cbc ab16 923d fd81 673d
00000060: 2330 063d b01f a73d e2f0 c0bc 003e c83d
00000070: 36ac e33d 3889 13bd 31aa 00bd c434 7a3d
00000080: c61b 24bd 2849 0b3d f435 f13d 82b0 463d
00000090: d5d9 c2bd 522a 80bd 2223 d43d ae29 ccbd
000000a0: 707b af3c 73c8 d83d 77a7 953d df04 31bd
000000b0: 9629 b03d 120c d5bc 5c0d 0e3c 60ea a23d
000000c0: f525 91bd 6712 b2bd 9d8b 95bd affb f6bc
000000d0: af37 b1bd 9454 9ebd 9fdc c0bc 552d 103e
000000e0: 9388 9bbb 840e 33bd 3121 f7bc 5115 803d
000000f0: 2540 7d3b 0635 163e d74e 0e3d d943 b7bd
00000100: cd7c 873d 50d8 dcbc 6e3d 7a3d 1336 9dbd
00000110: 7103 65bd 4ddf 033d 0714 2cbc 62f5 50bd
00000120: d5c5 ce3d e346 973c 5b49 d53d 6cb0 95bd
00000130: 7dc9 163d 05ed 9b3d 65b3 e9bc ba3a ac3d
00000140: da39 22bd d793 82bd 3f34 963c f19a 9e3d
00000150: 1450 083d 476a 883d 5fd4 643d 49dc e1bc
00000160: 68bb c73d d038 663d 9da7 983d 71bb d93d
00000170: 55fe b93a c99b 7f3d d49e d7bd 0e41 933d
00000180: 0619 b93d 5cd7 243d b243 933d a020 503d

attention.2.weight f4 [100, 100]
-0.103769444 0.042418383 0.049869113 0.03211698 0.042761274 0.07933364 -0.032472525 -0.009157443
-0.039152805 0.09558979 -0.08088614 -0.034198444 -0.03795854 0.012583502 -0.015781453 0.014448283
0.0812744 -0.0042780703 0.04309073 0.093462355 -0.07820382 -0.045890804 -0.028883513 0.097374775
0.017651744 -0.06231066 -0.08518556 -0.09546102 -0.07079734 0.022258816 -0.040211424 -0.012810273
-0.04161038 0.006742953 -0.022854587 -0.088584244 0.07199395 0.048704978 0.011583644 0.05480882
0.0038299772 -0.040705148 0.01882419 -0.012948723 -0.061356828 -0.005188572 -0.025891325 0.06971114
-0.10429203 -0.077373646 0.03734373 0.046534505 -0.042730942 0.035352655 -0.01615043 0.041061684
-0.058694713 -0.064734176 0.04978446 -0.033394296 -0.030071164 -0.028632075 0.018700136 0.07500723
-0.011080978 0.08179849 -0.049720213 -0.07934279 0.10246222 0.025704697 0.014178132 0.027023068
0.029270492 -0.03249102 0.05257487 0.020394467 -0.07603672 0.098661564 -0.094677575 -0.04524156
0.083008304 -0.02675432 -0.06841704 -0.106260754 -0.01425127 0.04109029 0.030319568 0.08602266
-0.08757214 0.052577678 -0.07288792 -0.011982274 -0.06606061 0.09394051 0.09055 -0.014364196
0.029623521 -0.024644794 0.06709147 0.033607464 -0.02144185 -0.07177019 -0.046882093 -0.05810711
-0.0897977 0.0770677 0.0126704415 0.056971494 0.025490018 -0.06892994 -0.017042838 0.06354658
-0.042853173 -0.029569458 0.08688562 -0.0023256536 0.012739629 0.09270248 0.013419465 -0.07686871
-0.051216174 0.09319659 -0.034327038 0.018202476 0.030950744 0.000809046 -0.072493665 0.013773401
-0.07345143 -0.08221156 -0.060156126 -0.07072018 -0.005551306 -0.049691275 0.10589824 0.019827258
-0.059385847 0.04192154 0.08806358 -0.08672491 0.08379555 0.10662663 -0.03786916 0.05641386
-0.017153377 -0.025266338 -0.06956719 -0.030957507 0.049791798 0.04246324 -0.09617558 0.01110785
0.04898689 -0.019173307 -0.09853025 0.072564565 0.070226416 0.011912545 -0.009742534 -0.0035911335
-0.068349764 0.0873751 0.058304645 0.086624034 -0.057122614 -0.055007156 -0.054007087 -0.021791248
0.08857346 0.0070694266 -0.02624739 -0.07390842 0.018228313 -0.04605914 0.110637 0.06702868
0.026294013 -0.04534751 0.052324906 0.03932391 -0.068885624 -0.06317908 0.03677829 -0.025254367
-0.09701187 0.029585918 -0.05220556 0.08343149 -0.0151065225 -0.008225895 0.09718694 -0.05402133
0.073862195 0.03131346 -0.03189203 -0.023098271 0.015156225 0.019632554 -0.044489034 -0.06646287
0.08371718 0.09699602 0.02061027 -0.06554629 0.060220417 0.058980443 -0.034997195 0.09213786
-0.05739539 0.068616115 0.033629563 -0.02627664 0.08223816 -0.025595238 0.012629005 0.07980159
0.05526548 0.07593727 -0.04316562 0.03455486 0.071040496 0.08152155 -0.062979676 0.06601132
0.02662693 -0.012571039 0.017285408 -0.0005706276 -0.043433476 0.0027442544 -0.08946868 -0.0072162226
0.060296245 0.039552417 0.09942904 0.024994828 0.056372136 0.08725458 -0.040664867 0.084327005
-0.05533873 -0.012615189 -0.04859437 0.029180896 0.003841689 -0.033829734 0.020735048 0.032821137
0.06499992 -0.09500865 -0.07131043 0.08665528 -0.07592953 -0.036515713 -0.08678582 0.05809808
00000000: 1385 d4bd e6be 2d3d 8e43 4c3d 188d 033d
00000010: 7226 2f3d ad79 a23d e901 05bd 1a09 16bc
00000020: b15e 20bd 94c4 c33d a2a7 a5bd ab13 0cbd
00000030: 6a7a 1bbd 082b 4e3c 1b48 81bc 7eb8 6c3c
00000040: 3173 a63d 0e2f 8cbb e87f 303d 3169 bf3d
00000050: 5329 a0bd fff7 3bbd 1e9d ecbc 6d6c c73d
00000060: 649a 903c 7639 7fbd c475 aebd 1181 c3bd
00000070: 32fe 90bd 1f58 b63c bcb4 24bd 2ee2 51bc
00000080: a56f 2abd fdf3 dc3b 8b39 bbbc a86b b5bd
00000090: 9071 933d df7e 473d 53c9 3d3c 377f 603d
000000a0: 5b00 7b3b 71ba 26bd 3035 9a3c e126 54bc
000000b0: 4c51 7bbd e604 aabb 0b1a d4bc b7c4 8e3d
000000c0: 0f97 d5bd 1376 9ebd bdf5 183d f79a 3e3d
000000d0: a406 2fbd f2cd 103d e84d 84bc 4c30 283d
000000e0: de69 70bd 5a93 84bd caea 4b3d 75c8 08bd
000000f0: cd57 f6bc d08d eabc 0731 993c 649d 993d
00000100: fe8c 35bc f785 a73d 6ca7 4bbd 797e a2bd
00000110: b6d7 d13d a892 d23c 654b 683c 7b5f dd3c
00000120: acc8 ef3c 4e15 05bd bf58 573d 4c12 a73c
00000130: 24b9 9bbd 130f ca3d 51e6 c1bd 374f 39bd
00000140: 4200 aa3d e02b dbbc 3c1e 8cbd 3d9f d9bd
00000150: 297e 69bc 4b4e 283d be60 f83c a62c b03d
00000160: 0659 b3bd b15b 573d 4346 95bd 4d51 44bc
00000170: c94a 87bd e263 c03d 4772 b93d ce57 6bbc
00000180: 07ad f23c e1e3 c9bc 4167 893d fba7 093d
00000190: d2a6 afbc 40fc 92bd 7007 40bd b901 6ebd
000001a0: dbe7 b7bd acd5 9d3d af97 4f3c f15a 693d
000001b0: 71d0 d03c 242b 8dbd 6c9d 8bbc b624 823d
000001c0: cf86 2fbd a63b f2bc 17f1 b13d fe69 18bb
000001d0: e0b9 503c ccda bd3d 51dd 5b3c 586d 9dbd
000001e0: 0dc8 51bd dbdd be3d 829a 0cbd 5c1d 953c
000001f0: 6a8c fd3c 2816 543a 8f77 94bd d5a9 613c
00000200: b46d 96bd 895e a8bd 4566 76bd bed5 90bd
00000210: bbe7 b5bb 1489 4bbd 2de1 d83d c66c a23c
00000220: 933e 73bd ecb5 2b3d ae5a b43d d49c b1bd
00000230: 009d ab3d 105f da3d b11c 1bbd 3812 673d
00000240: 3d85 8cbc 5afb cebc 3e79 8ebd 999a fdbc
00000250: 7cf2 4b3d efed 2d3d b4f7 c4bd b3fd 353c
00000260: 7aa6 483d 5711 9dbc 3aca c9bd bb9c 943d
00000270: ded2 8f3d d62c 433c 269f 1fbc 3959 6bbb
00000280: f6fa 8bbd b7f1 b23d dad0 6e3d f167 b13d
00000290: 67f9 69bd 2f4f 61bd 8936 5dbd 8f83 b2bc
000002a0: 0166 b53d a6a6 e73b c404 d7bc 4c5d 97bd
000002b0: 8b53 953c 82a8 3cbd a795 e23d 5546 893d
000002c0: 8b66 d73c 50be 39bd a452 563d 1c12 213d
000002d0: e813 8dbd 0964 81bd d5a4 163d 3fe2 cebc
000002e0: 29ae c6bd 2b5e f23c 7fd5 55bd 21de aa3d
000002f0: 5981 77bc e8c5 06bc f209 c73d 7845 5dbd
00000300: 1045 973d 8b42 003d 38a1 02bd 9638 bdbc
00000310: d151 783c 73d4 a03c 223a 36bd af1d 88bd
00000320: ea73 ab3d d9a5 c63d ded6 a83c 223d 86bd
00000330: afa9 763d 7a95 713d 3859 0fbd c6b2 bc3d
00000340: 6e17 6bbd 9b86 8c3d 27bf 093d 1c42 d7bc
00000350: 7b6c a83d 1bad d1bc e3e9 4e3c 046f a33d
00000360: 0e5e 623d 0085 9b3d 6fce 30bd 6689 0d3d
00000370: ae7d 913d c5f4 a63d 7dfb 80bd f130 873d
00000380: b820 da3c c2f6 4dbc 219a 8d3c 2c96 15ba
00000390: 4de7 31bd f3d8 333b 5b3b b7bd 1076 ecbb
000003a0: 32f9 763d b701 223d 74a1 cb3d f4c1 cc3c
000003b0: 78e6 663d 87b2 b23d 3490 26bd a3b3 ac3d
000003c0: ddaa 62bd f0af 4ebc e40a 47bd c60c ef3c
000003d0: d9c4 7b3b 0c91 0abd 8cdc a93c 756f 063d
000003e0: ae1e 853d e593 c2bd 340b 92bd 5378 b13d
000003f0: f180 9bbd 8091 15bd c4bc b1bd 41f8 6d3d
