sarl_star_ros/CrowdNav/crowd_nav/data/output_alisher_blockpath_3/il_model.pth (torch_old, 349196 bytes, 20 tensors)

mlp1.0.weight f4 [150, 13]
0	0xbc9f2602	-0.019427303
1	0xbe769930	-0.24081874
2	0xbeb001ef	-0.34376475
3	0xbe00379e	-0.12521216
4	0xbe01519a	-0.12628785
5	0x3d5cb68c	0.053885028
6	0xbdcb7572	-0.0993451
7	0x3e35ecfa	0.1776618
8	0x3e7ece80	0.24883461
9	0x3e5cc1ce	0.21558306
10	0xbe3e95f4	-0.1861189
11	0xbeb43cc8	-0.35202622
12	0x3e3e3df5	0.18578322
13	0xbec5bbfe	-0.3861999
14	0x3f6abc27	0.9169335
15	0xbe270301	-0.1630974
16	0x3edceb91	0.43148473
17	0xbfcd9d32	-1.6063597
18	0x3d81ec88	0.06343943
19	0xbe95ac43	-0.29232988
20	0xbf6c189f	-0.9222507
21	0x3f85c745	1.0451437
22	0xbf9ddff3	-1.2333969
23	0xbcb268ca	-0.021778483
24	0xbe9cde87	-0.30638525
25	0x3e5b33e9	0.21406521
26	0xbf431ae1	-0.7621289
27	0x3f5de2c3	0.86674136
28	0xbf8eeace	-1.1165407
29	0x3e9bd467	0.30435488
30	0x3fcae55a	1.5851243
31	0xbf6356f1	-0.8880454
32	0xbd1932d5	-0.037401993
33	0xbe73eb19	-0.23820151
34	0xbf9170f7	-1.1362599
35	0xbf28d702	-0.65953076
36	0xbff5e8cf	-1.9211673
37	0x3f1dd1b4	0.61648107
38	0xbfd924bc	-1.6964335
39	0xbf853579	-1.0406944
40	0xbe8d65d2	-0.27616745
41	0x3f04d287	0.5188374
42	0x3e511e18	0.20421636
43	0xbe9b8ca1	-0.3038073
44	0x3ef6d585	0.48209777
45	0x3f076b0a	0.52897704
46	0x3dd56d02	0.10421182
47	0x3f323b2b	0.69621533
48	0xbc3d2a52	-0.0115457345
49	0xbeec9775	-0.46209303
50	0xbe58840b	-0.2114412
51	0xbd3a85ff	-0.045537945
52	0xbf08eabf	-0.53483194
53	0xbdebe8d0	-0.11519015
54	0x3ec7bf2d	0.39013043
55	0x3e8729cd	0.2639908
56	0x3ecb0cc2	0.3965817
57	0x3e0ba9f8	0.13639057
58	0x3d87c064	0.066284925
59	0x3eaeb2a8	0.3412068
60	0xbd8db9c0	-0.069201946
61	0xbe65bf50	-0.22436261
62	0xbe82bbdd	-0.25533953
63	0xbea00832	-0.31256253
64	0x3dc02883	0.09382727
65	0xbe495aa2	-0.1966348
66	0xbdfd2ce9	-0.123620816
67	0xbc98ac15	-0.018636743
68	0xbe3a693c	-0.18204206
69	0x3e4ca5be	0.199851
70	0xbe41c364	-0.18922192
71	0xbcff83a6	-0.031190705
72	0x3e807d6a	0.25095683
73	0x3e55ca14	0.20877868
74	0xbe9cb857	-0.3060939
75	0xbe2f7faf	-0.17138551
76	0xbe7ffb12	-0.2499812
77	0x3e6e16c6	0.23250875
78	0xbf9dd0f7	-1.2329396
79	0xbedb0590	-0.4277768
80	0x3faccad3	1.3499397
81	0xbeaabb57	-0.33346054
82	0x3ed84a9f	0.4224443
83	0x3f34908c	0.7053306
84	0x3e71f827	0.23629819
85	0xbec0fdd5	-0.37693658
86	0x3d975d55	0.073908485
87	0x402fb7e2	2.7455983
88	0x3fd0a9e3	1.6301845
89	0xbf5df74a	-0.8670546
90	0x3faf199c	1.367969
91	0xbf6d99ca	-0.9281279
92	0xbe23d267	-0.15998231
93	0x3e2d518a	0.16925636
94	0x3dc7f29c	0.09763071
95	0x3f32a644	0.6978495
96	0xbeafc763	-0.34331807
97	0xbf90dc9e	-1.1317327
98	0xbed988ff	-0.42487332
99	0xbf24358e	-0.6414422
100	0x3f1fbea5	0.62400275
101	0xbe1a4965	-0.1506706
102	0x3df0d207	0.117588095
103	0xbf1c4ce6	-0.6105484
104	0xbf1148cd	-0.5675171
105	0x3f29abf1	0.66277987
106	0x3ebbf0bb	0.367071
107	0x3cf8aef2	0.030356858
108	0x3fcc01de	1.593807
109	0x3e2c5aec	0.16831559
110	0xbde3f591	-0.111308224
111	0xbeee4b27	-0.46541712
112	0xbf63e65c	-0.89023376
113	0xc05bec5f	-3.436302
114	0x3cae636d	0.021287644
115	0xbf034b25	-0.51286536
116	0x3e8589d3	0.26081714
117	0xbe135818	-0.14389074
118	0x3d15e68f	0.03659683
119	0xbe4f1033	-0.20221023
120	0xbe51f092	-0.20501927
121	0x3db9f6e0	0.09080291
122	0x3e89a9ee	0.2688746
123	0x3e0e496b	0.13895194
124	0x3d60cbff	0.054882046
125	0xbe8afe8f	-0.27147338
126	0xbd9f46cf	-0.077771775
127	0xbe0e6da6	-0.13909015
128	0xbe39bfc3	-0.18139558
129	0xbd92d9b3	-0.07170429
130	0x3d38f8a7	0.04515901
131	0x3da4f562	0.080546156
132	0xbe0532f5	-0.1300772
133	0x3e58db96	0.21177515
134	0x3dbd5256	0.0924422
135	0xbf28f151	-0.6599322
136	0xbf4d6cfb	-0.80244416
137	0xbf88a6fb	-1.0675958
138	0x3f9c715c	1.2222095
139	0xbf06ea0d	-0.52700883
140	0x3f2f3a1f	0.6844806
141	0xbf6a5d32	-0.91548455
142	0x3ee1c088	0.44092202
143	0xbf8909b0	-1.0706081
144	0xbd7d082a	-0.061775364
145	0x3e4c6f37	0.199643
146	0x3a7b0efd	0.00095771236
147	0xbe91c49e	-0.2847032
148	0x3eac4e96	0.33653706
149	0x3ecd1dd6	0.40061826
150	0xbf95ab02	-1.1692812
151	0xbf7eba50	-0.9950304
152	0x3f639ac0	0.88908005
153	0xbeac2988	-0.33625436
154	0x3d8a38ed	0.06749139
155	0xbe6209e1	-0.22074081
156	0xbe83774a	-0.25676948
157	0xbf1987e3	-0.5997297
158	0xc0056bfe	-2.0847163
159	0xbebae640	-0.36503792
160	0x3f17df72	0.59325325
161	0xbf2ed3f4	-0.68292165
162	0x3fafef1b	1.3744844
163	0x3ff1db72	1.8895094
164	0x40926c3d	4.5757127
165	0x3f31cb06	0.69450414
166	0x3f06477c	0.52452826
167	0xbf2d5488	-0.6770711
168	0x3e0ca086	0.1373311
169	0x3ec28999	0.37995604
170	0xbf9bb415	-1.2164332
171	0xbd823953	-0.0635859
172	0xbeded51a	-0.4352196
173	0xbda0f315	-0.07858864
174	0xc0608606	-3.5081801
175	0x3fb2fd1a	1.398349
176	0x3fd360c6	1.6513908
177	0xbfc19dbe	-1.5126264
178	0xbf578d5f	-0.8420009
179	0x402ea938	2.7290783
180	0xbfbf46a3	-1.4943432
181	0x4026338b	2.596896
182	0xbf4f426b	-0.8096072
183	0xbe700d9f	-0.23442696
184	0x3e0c9538	0.13728797
185	0xbd65149b	-0.055927854
186	0xbe870b61	-0.2637587
187	0xbdeec764	-0.116591245
188	0xbc94a6c4	-0.018145926
189	0x3dee172c	0.116255134
190	0xbe87b003	-0.26501474
191	0x3c254f4f	0.010089709
192	0xbd03c6bf	-0.03217196
193	0x3e8c2023	0.27368268
194	0xbe0bd586	-0.13655671
195	0x3ec2e7b3	0.38067397
196	0xbfc45f3f	-1.5341567
197	0xbeeb4d9b	-0.45957646
198	0xbe90be96	-0.28270406
199	0x3f20928d	0.6272362
200	0xc01cf74a	-2.4525933
201	0x3feaf3d5	1.8355662
202	0x3f1fd6ce	0.6243714
203	0xbec9bc65	-0.39401546
204	0x403e7b82	2.9762883
205	0x4017b712	2.3705487
206	0xbfb40a03	-1.4065555
207	0x3fc96bfd	1.573608
208	0xbf26023f	-0.6484718
209	0xbecb6d37	-0.39731762
210	0x3f2a3358	0.66484594
211	0xbe25761e	-0.1615834
212	0x3f9ba1e6	1.2158782
213	0x3f4dc29b	0.8037507
214	0x3fa8ad7b	1.3177942
215	0xbf44d890	-0.7689295
216	0xbf1c4873	-0.6104805
217	0xbf54d957	-0.83144134
218	0x3f962418	1.1729765
219	0xbf774310	-0.96586704
220	0x3fa4e783	1.2883152
221	0xbd99f09f	-0.07516598
222	0xbe0eb887	-0.13937579
223	0xbe0c80f4	-0.13721067
224	0x3d22baf7	0.039729085
225	0xbe30eb41	-0.17277242
226	0xbe504d89	-0.20342077
227	0x3e3a4613	0.18190794
228	0xbd94ab33	-0.07259216
229	0xbde078ba	-0.10960527
230	0x3d0be255	0.034151394
231	0xbdcd1d70	-0.100153804
232	0xbe4b2741	-0.19839193
233	0x3e7892c2	0.24274734
234	0xbf1acf9b	-0.6047303
235	0x3f5ad3f1	0.85479647
236	0xbf81b1da	-1.0132401
237	0x3ec0bf87	0.37646124
238	0x3fae2fec	1.3608375
239	0xbe74d85a	-0.23910657
240	0x3e9d3f0c	0.30712163
241	0x3f8225a9	1.0167743
242	0xbef4b699	-0.4779556
243	0x3de914c2	0.11380912
244	0xbf694cdb	-0.911329
245	0xbf2c60f5	-0.67335445
246	0xbf36d3f7	-0.7141718
247	0xbece43cf	-0.4028611
248	0xbdd04997	-0.10170286
249	0xc004db24	-2.0758753
250	0xbd74f563	-0.05980433
251	0xbec84e4f	-0.39122245
252	0xbec5063d	-0.38481322
253	0x3f097562	0.53694737
254	0x3f85ffc6	1.0468681
255	0xbff19c6d	-1.8875862

mlp1.0.bias f4 [150]
0	0x3df0d1ee	0.11758791
1	0x3f9c0e26	1.2191818
2	0x3f7b4f1f	0.98167604
3	0xbd63591d	-0.055504907
4	0xbe2865f8	-0.16445148
5	0xbce28c21	-0.02765471
6	0xbe9f533b	-0.31118187
7	0xb70a3aaf	-8.239104e-06
8	0x3f3efbf1	0.7460318
9	0xbe2be8a8	-0.1678797
10	0xbdf977cd	-0.12181053
11	0x3e9ec2a7	0.31007883
12	0xbf815263	-1.0103267
13	0xbfaa285f	-1.329357
14	0x3db0a717	0.0862562
15	0xc005367c	-2.0814505
16	0xbe85de49	-0.26146153
17	0xbe15ed9d	-0.14641424
18	0x3f902862	1.1262324
19	0xbd9b2bab	-0.075766884
20	0x3e56ac4c	0.20964164
21	0xbe4e3260	-0.20136404
22	0xbfa93e59	-1.3222152
23	0x3e21ea16	0.15811953
24	0xbe7ea17f	-0.24866293
25	0xbeb3b924	-0.3510219
26	0xbe9d6e52	-0.3074823
27	0xbfb7fea0	-1.437458
28	0x3cb69f74	0.02229283
29	0x3e584bd2	0.21122673
30	0xbe5665c9	-0.20937265
31	0xbfe3dc67	-1.7801636
32	0x3f37bd22	0.7177297
33	0xbeec3af7	-0.46138737
34	0x3ed6c9fd	0.4195098
35	0xbeede1cb	-0.4646133
36	0x3e3a716f	0.18207334
37	0xbedafc67	-0.42770693
38	0xbf34521f	-0.70437807
39	0xbd81c1e3	-0.06335809
40	0x3eb1573b	0.34636864
41	0x3decd472	0.11563958
42	0xbf23dfa1	-0.64013106
43	0xbf08542b	-0.5325343
44	0x3f83a5a6	1.0284927
45	0x3f5c978e	0.86168754
46	0xbec5e39f	-0.38650224
47	0xbec55478	-0.38541007
48	0xbdbd5f42	-0.092466846
49	0x3e9fc2f0	0.31203413
50	0x3d326d6c	0.043561384
51	0x3f90151c	1.1256442
52	0xbe79cd77	-0.24394785
53	0x3df4f77e	0.11961268
54	0x3f090a66	0.5353149
55	0x3ea46aa7	0.3211262
56	0x3e87064a	0.26371986
57	0xbef38845	-0.47564903
58	0xbe87a6e7	-0.26494524
59	0x3f3a033c	0.72661185
60	0x3e949723	0.29021558
61	0x3e01d1ae	0.12677643
62	0xbf326ba1	-0.6969548
63	0x3c9f52e1	0.0194487
64	0xbf81ad57	-1.0131024
65	0xbe8de06e	-0.2771029
66	0xbe1a93a5	-0.15095384
67	0x3fc4b7c6	1.5368583
68	0xbf90ad02	-1.1302798
69	0x3f549a2d	0.83047754
70	0xbf81aca6	-1.0130813
71	0x3e6fd440	0.2342081
72	0x3bedd623	0.007258193
73	0x3edb743f	0.42862126
74	0x3ce909e4	0.028447099
75	0x3ec978e2	0.3935004
76	0xbd5a3f6c	-0.05328314
77	0xbe4cf0e8	-0.20013773
78	0x3edcd078	0.431278
79	0xbe96cb3d	-0.29451934
80	0x3ec4e9cb	0.3845962
81	0xbe5d1f4e	-0.21593973
82	0x3f04492f	0.5167417
83	0xbf9f83de	-1.2462118
84	0x3f840a1d	1.0315586
85	0x3f5c8f00	0.861557
86	0xbdb60f06	-0.08889584
87	0xbdb4a114	-0.08819786
88	0xbf41e798	-0.7574401
89	0xbd2f4fca	-0.042800702
90	0xbed65ea2	-0.41869074
91	0x3e1115ea	0.14168516
92	0xbe693c72	-0.22776964
93	0xbfb47c89	-1.4100505
94	0x3df88496	0.12134664
95	0xbef7ced6	-0.4839999
96	0xbf9b0c9d	-1.2113224
97	0x3e65e15a	0.22449246
98	0xbe0e010e	-0.1386759
99	0xbfca27e2	-1.5793421
100	0x3e8ef8ce	0.27924198
101	0x3eab3ab3	0.3344322
102	0xbe3fd375	-0.18733008
103	0x3e176728	0.14785445
104	0xbf7e3228	-0.9929528
105	0x3fa2537d	1.2681729
106	0xbedba0cb	-0.42896113
107	0x3e05031a	0.12989464
108	0xba83aa00	-0.0010045171
109	0x3d5443b1	0.051822368
110	0x3e690bd1	0.22758414
111	0xbff6ba94	-1.9275689
112	0xbe02304e	-0.1271374
113	0x3d737d15	0.05944546
114	0xbf0ffe22	-0.5624715
115	0xbe4e7cf0	-0.20164847
116	0xbdc7e64d	-0.09760723
117	0xbed27954	-0.4110819
118	0x3fdbad99	1.7162353
119	0x3ea31c16	0.31857365
120	0x3cd415a0	0.025889218
121	0x3cfa7fc0	0.030578494
122	0xbed08eed	-0.40734044
123	0xbe8407f2	-0.25787312
124	0x3d30dc42	0.043178804
125	0xc01ce0f9	-2.4512312
126	0xbec8bf57	-0.3920848
127	0xbea8f018	-0.32995677
128	0xbe56d168	-0.2097832
129	0xbfe77577	-1.8082722
130	0x3e3096a6	0.17244968
131	0x3f3e3a1e	0.7430743
132	0x3e9c7d54	0.30564368
133	0x3cdf47a2	0.027255837
134	0xbec52ddc	-0.3851155
135	0xbebf8503	-0.37406167
136	0xbe6a1ae7	-0.22861825
137	0xbf08c7dc	-0.5342996
138	0xbff7e9bc	-1.9368205
139	0xbe83cfbf	-0.25744435
140	0xbd7f21ab	-0.062287968
141	0xbf008bb0	-0.50213146
142	0x3e12c0b2	0.1433132
143	0xbf8dc971	-1.10771
144	0xbe43309c	-0.19061512
145	0xbf00ad7c	-0.50264716
146	0x3d30b674	0.04314275
147	0xbda0d6f2	-0.078534976
148	0xbd899add	-0.06718991
149	0xbf2c2c8f	-0.6725549

mlp1.2.weight f4 [100, 150]
0	0xbabf49dc	-0.0014594155
1	0xbea95dbf	-0.33079335
2	0xbe3122f6	-0.17298493
3	0x3b961f80	0.004581392
4	0x3d6b3ecb	0.05743293
5	0x3d0c1c6e	0.0342068
6	0xbc90c057	-0.01766984
7	0xba25a0f7	-0.0006318236
8	0xbf1a66ac	-0.60312915
9	0xbd60f52d	-0.054921318
10	0xbe87a34b	-0.2649177
11	0x3bb4c625	0.0055167847
12	0xbf36ec7f	-0.71454614
13	0xbe338858	-0.1753248
14	0xbd4eaf0c	-0.050459906
15	0xbf38698d	-0.7203606
16	0xbd759600	-0.059957504
17	0x3d7ae210	0.061250746
18	0xbed3ab2b	-0.41341528
19	0xbeac47ee	-0.33648628
20	0xbd042fd4	-0.032272175
21	0xbed5905f	-0.4171171
22	0x3ab9fd71	0.0014189911
23	0x3ecee14c	0.40406263
24	0xbc9b68e0	-0.018970907
25	0xbe17bea9	-0.14818825
26	0xbee184bd	-0.44046584
27	0xbb92ecd8	-0.0044838004
28	0xbb0e0b96	-0.0021674386
29	0xbd3d4d61	-0.046216372
30	0xbc2ab0c9	-0.010418125
31	0xbeb7550a	-0.35807067
32	0xbe3ea3b2	-0.18617132
33	0x3b8e2e7c	0.0043390375
34	0xbf2b3f2a	-0.66893256
35	0xbbd464dc	-0.00648175
36	0xbd17b623	-0.037038933
37	0xbede8309	-0.43459347
38	0xbef4a0de	-0.47778982
39	0x3d303ba1	0.043025617
40	0xbdc91409	-0.098182745
41	0x3c98d0f4	0.018654324
42	0x3c666dbd	0.01406425
43	0xbee6ca86	-0.45076388
44	0x3dbf5c03	0.09343722
45	0xbe083824	-0.13302666
46	0x3e917881	0.2841225
47	0xbe9ca472	-0.30594212
48	0xbe38ac2f	-0.18034433
49	0xbb3a05c3	-0.0028384782
50	0xbe9dc62b	-0.30815253
51	0xbe842e46	-0.25816554
52	0xbc563aa2	-0.013075503
53	0x3e35e327	0.17762433
54	0x3e33365e	0.17501208
55	0xbd277c2e	-0.04088991
56	0xbe9784a7	-0.29593393
57	0xbea854a9	-0.3287709
58	0x3ec8c51c	0.39212883
59	0xbe0dfc26	-0.13865718
60	0x3cfae991	0.030628951
61	0xbc4e7c7a	-0.01260292
62	0xbd2faafa	-0.042887665
63	0xbd96b73e	-0.073591694
64	0x3e12d096	0.14337382
65	0xbdc6180a	-0.09672554
66	0xbe81a1db	-0.25318798
67	0xbe7fb75b	-0.24972288
68	0x3e75174b	0.23934667
69	0xbe58f309	-0.2118646
70	0xbe8b67f8	-0.2722776
71	0x3de3b3bb	0.11118265
72	0x3dd046e5	0.10169772
73	0xbe4367e7	-0.19082604
74	0x3baf054f	0.005341209
75	0x3e960c2d	0.29306164
76	0x3e771ba4	0.24131638
77	0xbd81a9af	-0.06331193
78	0xbe297a7a	-0.16550627
79	0xbceec09e	-0.029144581
80	0x3c837e83	0.016051536
81	0x3d72cd56	0.059277855
82	0xbdfecd0b	-0.124414526
83	0xbe6c8bd8	-0.23100221
84	0xbac5a148	-0.0015077973
85	0xbd0672ae	-0.03282421
86	0x3e0d43ed	0.13795443
87	0x3d221fc2	0.039581068
88	0xbf257335	-0.64628917
89	0xbd0c03c8	-0.034183294
90	0xbeacf0e9	-0.3377755
91	0x3ed7c06c	0.42138994
92	0x3f0b890f	0.5450601
93	0xbf130c58	-0.5744071
94	0xbd9a1bb4	-0.07524815
95	0x3c9f50a9	0.019447641
96	0xbea576c9	-0.32317188
97	0xbbf6cc96	-0.0075317128
98	0xbbb5b871	-0.005545669
99	0x3ee4e8e7	0.4470894
100	0xbccb9c92	-0.024854932
101	0xbe141cee	-0.14464161
102	0xbd8c076c	-0.06837353
103	0xbd76f92f	-0.060296234
104	0xbe84766b	-0.25871596
105	0x3e9a3df8	0.30125403
106	0xbd9615d4	-0.07328382
107	0xbd1f9171	-0.038957063
108	0x3d8c27fa	0.068435624
109	0x3c084501	0.008317233
110	0xbe5bd189	-0.2146665
111	0xbe593906	-0.21213159
112	0x3d1b3c04	0.037899032
113	0xbd96c8e1	-0.07362533
114	0xbe92204c	-0.28540266
115	0xbe16e0f6	-0.14734253
116	0xbb96432f	-0.0045856456
117	0xbe486d9e	-0.19573066
118	0xbe007796	-0.12545618
119	0xbd8aff3f	-0.067869656
120	0xbd989cea	-0.07451804
121	0xbd56957d	-0.052388657
122	0xbb238fe2	-0.0024957587
123	0xbe8f34be	-0.27969927
124	0xbeb78b73	-0.3584858
125	0x3f5437a4	0.828974
126	0xbe4172b3	-0.1889141
127	0xbda0b983	-0.078478836
128	0xbe782b6b	-0.24235313
129	0x3e899daa	0.268781
130	0x3ee78a89	0.4522288
131	0xbedf73f3	-0.4364315
132	0xbd1cb49e	-0.038258187
133	0xbe6cad5a	-0.23113003
134	0xbdac1862	-0.08403088
135	0x3d90db13	0.07073035
136	0x3d8e2be6	0.06941967
137	0x3cd7ed3a	0.026358236
138	0x3d86349f	0.065530054
139	0x3cfca6f4	0.030841328
140	0xbe51875c	-0.20461792
141	0xbe1a9e5c	-0.15099472
142	0xbe1f60b4	-0.15564233
143	0xbf337f6a	-0.70116293
144	0xbe960c07	-0.2930605
145	0xbc15e897	-0.009149692
146	0xbc69b4b4	-0.014264274
147	0x3b05805e	0.0020370702
148	0x3d486036	0.04891988
149	0xbed199f6	-0.40937775
150	0x3d6d7a2f	0.05797785
151	0xbee9021e	-0.45509428
152	0xbe121183	-0.14264493
153	0x3c9ea7f7	0.019367201
154	0x3ba72cd4	0.0051017795
155	0x3ad1063a	0.001594729
156	0xbf0cabfb	-0.5494992
157	0xbd904bc7	-0.070457034
158	0xbe93de72	-0.2888065
159	0x3d108230	0.035280406
160	0xbd84df79	-0.064879365
161	0xbec52202	-0.38502508
162	0xbee55ea3	-0.44798765
163	0x3e70f3b2	0.23530462
164	0x3c4d4c22	0.0125303585
165	0x3f01ea9a	0.507486
166	0xbeec0a80	-0.4610176
167	0xbc5b4edb	-0.0133855
168	0xbf042f9f	-0.51635164
169	0xbedbea0a	-0.42951995
170	0xbea0b657	-0.31389114
171	0xbecc9eec	-0.39964998
172	0xbe787c2a	-0.24266115
173	0xbe5410ce	-0.20709535
174	0xbb97b161	-0.0046292995
175	0xbe3c1c61	-0.183702
176	0x3d130fa6	0.035903595
177	0xbeb33acd	-0.350058
178	0x3ddd2410	0.10797894
179	0xbd997506	-0.074930236
180	0xbe0f1467	-0.13972627
181	0xbe29415e	-0.16528842
182	0xbec1bf15	-0.37841097
183	0xbd5dafbe	-0.05412268
184	0xbebf039b	-0.37307438
185	0xbe76ccef	-0.24101613
186	0xbdb5be5d	-0.088741995
187	0xbee28e19	-0.44249037
188	0x3e20195e	0.15634677
189	0xbcd3c724	-0.025851794
190	0xbd0f61cb	-0.035005372
191	0x3e12b917	0.14328419
192	0xbd8d192f	-0.06889569
193	0x3d460e66	0.048353575
194	0xbf292cd2	-0.66084015
195	0xbe8bf84f	-0.27337882
196	0xbdf32d9b	-0.11873933
197	0xbea690fd	-0.32532492
198	0x3bed21d8	0.0072367005
199	0xbd473b6a	-0.048640646
200	0x3e85ac34	0.26107943
201	0xbeb119ec	-0.3459009
202	0xbed07863	-0.40716848
203	0x3e7296ac	0.2369029
204	0xbf0cd8cc	-0.55018306
205	0x3cf42bef	0.029806105
206	0xbeadb213	-0.33924922
207	0xbda186b1	-0.078870185
208	0xbf0109a8	-0.5040536
209	0xbf44d449	-0.7688642
210	0xbedb2f82	-0.42809683
211	0xbe88a253	-0.26686344
212	0xbf555d70	-0.833457
213	0xbe7b38ab	-0.24533336
214	0xbe3bbbdf	-0.18333386
215	0xbba999a9	-0.0051757884
216	0x3e68e4b6	0.22743496
217	0xbea36e54	-0.3192011
218	0x3d2708ca	0.040779866
219	0xbe3d70fd	-0.18500133
220	0xbc6d5c5f	-0.014487355
221	0x3e844a48	0.25837922
222	0x3d088189	0.03332666
223	0x3e103e4d	0.14086266
224	0x3d8b60c4	0.06805566
225	0x3bde7fbf	0.006790131
226	0xbe883a96	-0.26607198
227	0xbe099942	-0.1343737
228	0x3df161c9	0.11786229
229	0xbebd41d9	-0.369643
230	0x3cfd2ff8	0.030906662
231	0xbe6a5aaf	-0.22886156
232	0x3b6bf045	0.0036001366
233	0x3f0149fa	0.50503504
234	0x3e934d9e	0.28770155
235	0xbebc2d38	-0.3675325
236	0xbe988d98	-0.29795527
237	0xbe86195e	-0.2619123
238	0xbe82e053	-0.2556177
239	0xbf6b17f1	-0.91833407
240	0xbe806d26	-0.25083274
241	0xbead8f8d	-0.33898583
242	0xbe9350b2	-0.28772503
243	0x3de03888	0.109482825
244	0xbe4943a8	-0.19654715
245	0x3d6fa58d	0.05850749
246	0x3ebacad2	0.36482865
247	0xbd368bba	-0.044566847
248	0x3d5b1dcb	0.05349521
249	0xbdcd04c9	-0.10010678
250	0xbe94d893	-0.29071483
251	0xbed73daa	-0.42039233
252	0xbda39f31	-0.07989348
253	0xbd176ce0	-0.036969066
254	0x3df6e924	0.12056187
255	0xbf281db6	-0.65670335

mlp1.2.bias f4 [100]
0	0x3e85f78c	0.26165426
1	0xbee461e9	-0.4460595
2	0x3de2283c	0.1104283
3	0xbf98dc25	-1.1942183
4	0xbfa30c5a	-1.2738144
5	0xbee8de22	-0.45481974
6	0x3e67d066	0.22638091
7	0xbd0af717	-0.03392705
8	0x3f26f420	0.65216255
9	0xbebcb7cd	-0.3685898
10	0xbd8a1a87	-0.06743341
11	0xbe55374a	-0.20821872
12	0xbf570cf2	-0.8400413
13	0xbecf9c01	-0.4054871
14	0xbfbc881f	-1.4729041
15	0xbe286f4d	-0.16448708
16	0xbf0c1a7b	-0.54727906
17	0xbe679bdf	-0.22618054
18	0xbe99c5a7	-0.3003361
19	0xbf2b7024	-0.6696799
20	0x3edb264d	0.4280266
21	0xbe81b942	-0.25336653
22	0xbe481d48	-0.1954242
23	0xbf3a9733	-0.7288696
24	0xbe28bd5e	-0.16478488
25	0xbe4fdf51	-0.20300032
26	0xbda951a7	-0.08267527
27	0xbeefa331	-0.46804193
28	0xbef83bca	-0.48483115
29	0x3dcd2792	0.10017313
30	0xbef547d0	-0.4790635
31	0xbeed2d7a	-0.46323758
32	0xbf0ccd12	-0.5500041
33	0xbd6e084f	-0.058113392
34	0x3ca5a353	0.02021948
35	0x3f013cc3	0.5048334
36	0xbe98dba9	-0.29855087
37	0x3d46c3bb	0.048526507
38	0xbf2168c3	-0.6305048
39	0xbe4865b1	-0.19570042
40	0x3e983b24	0.2973262
41	0xbe6c413b	-0.23071758
42	0x3e5f48b6	0.21805081
43	0xbeff86f3	-0.49907646
44	0xbe9eaca1	-0.3099108
45	0x3f351a7c	0.70743537
46	0x3ea6bcca	0.3256591
47	0x3ec72726	0.38897055
48	0x3fe5096c	1.78935
49	0xbec4feb7	-0.38475582
50	0xbe3b2399	-0.18275298
51	0x3fb5af9e	1.4194219
52	0xbf249988	-0.6429677
53	0xbe3af30f	-0.18256782
54	0xbddbbba3	-0.10729148
55	0xbeac3fe1	-0.33642486
56	0xbd395c66	-0.045254134
57	0xba6c1d5f	-0.0009007062
58	0xbf2cdfe5	-0.67529136
59	0x3ddf4a22	0.109028116
60	0xbf74724b	-0.954869
61	0x3d94b794	0.07261577
62	0xbf127b00	-0.57218933
63	0xbf0228dd	-0.508436
64	0xbd7cfdd1	-0.061765496
65	0xbc91736b	-0.01775523
66	0xbe110ab6	-0.14164242
67	0x3f0b3f04	0.5439303
68	0xbce404f5	-0.027834395
69	0xbfa1d0f6	-1.2641895
70	0x3e9c6d2c	0.30552042
71	0xbefa809c	-0.48926246
72	0xbcabfb73	-0.020993924
73	0xbe7e6768	-0.24844134
74	0xbe7b5b85	-0.2454663
75	0xbf149ea8	-0.5805459
76	0x3b62cf73	0.0034608513
77	0xbed85482	-0.42251974
78	0x3ea4dd90	0.3220029
79	0xbf1d09a7	-0.61342853
80	0x3d80bf47	0.06286483
81	0xbe29174f	-0.16512798
82	0x3f4dc533	0.8037903
83	0xbf33b75e	-0.7020167
84	0x3f000084	0.50000787
85	0x3eadfc5c	0.33981597
86	0x3efe5b0a	0.49678832
87	0xbf7e1af1	-0.9925986
88	0xbefd45df	-0.4946737
89	0xbc0e0246	-0.008667534
90	0xbee45a87	-0.44600317
91	0xbeb3e0ea	-0.35132533
92	0xbe2aabe3	-0.16667132
93	0xbcdccd30	-0.02695331
94	0x3e95ca3a	0.2925585
95	0xbe793b1b	-0.24338953
96	0xbfe47901	-1.7849427
97	0x3bfbeecc	0.007688379
98	0x3d13ef51	0.0361169
99	0xbe2bb800	-0.16769409

mlp2.0.weight f4 [100, 100]
0	0xbec47447	-0.38369963
1	0x3de82706	0.11335568
2	0xbd123574	-0.035695508
3	0xbdc563b0	-0.096381545
4	0xbcba8dfb	-0.02277278
5	0x3e8fec56	0.28109998
6	0x3c744715	0.014909525
7	0x3c6ed0d6	0.014576158
8	0xbe3c9186	-0.18414888
9	0x3ca945bc	0.020663135
10	0x3e32c416	0.17457613
11	0xbdb88569	-0.09009821
12	0x3bdeacb3	0.0067954897
13	0xbe55780e	-0.20846578
14	0xbef1c181	-0.47217944
15	0xbe791d34	-0.24327546
16	0xbe53fbf9	-0.20701589
17	0x3ea455f5	0.3209683
18	0x3e9995fd	0.29997244
19	0xbf145c74	-0.5795357
20	0xbdcf1dd5	-0.10113112
21	0xbda13da7	-0.078730874
22	0x3d886d73	0.06661501
23	0xbe5d19d9	-0.21591891
24	0xbe9706ca	-0.29497367
25	0xbdc22058	-0.09478825
26	0x3d04b565	0.032399554
27	0xbe4c8ead	-0.19976301
28	0xbdedf688	-0.11619288
29	0xbd515cec	-0.051114008
30	0x3e395fee	0.18103
31	0x3d158755	0.036506016
32	0xbe885665	-0.26628414
33	0x3ddc6a11	0.10762418
34	0xbe1d700d	-0.15374775
35	0xbdc884e0	-0.09790969
36	0xbea7f1b8	-0.32801604
37	0xbdc4bc91	-0.09606279
38	0xbe15788c	-0.14596766
39	0x3d1dca98	0.038523287
40	0xbe1eb8b6	-0.15500149
41	0x3ca82c41	0.020528914
42	0x3f000278	0.50003767
43	0xbd4ad92c	-0.049523517
44	0xbe2bcd3c	-0.1677751
45	0x3da0a454	0.07843843
46	0xbdb64432	-0.08899726
47	0xbf009e18	-0.5024123
48	0x3ec4f52a	0.38468295
49	0xbe4a11c2	-0.19733337
50	0xbe735282	-0.23761943
51	0xbe124a5b	-0.14286177
52	0xbdad90ff	-0.084749214
53	0xbc8032e4	-0.015649267
54	0xbe512223	-0.20423178
55	0x3dede8d2	0.116166726
56	0xbe33c366	-0.17555007
57	0xbdbe9348	-0.093054354
58	0xbc1f0537	-0.009705833
59	0xbd80c8f7	-0.06288331
60	0xbe102880	-0.1407795
61	0x3de49749	0.11161668
62	0xbdeed2f7	-0.11661332
63	0x3ec10e07	0.37706015
64	0xbe62ffb4	-0.22167856
65	0x3dd91009	0.105987616
66	0xbe0d0a98	-0.13773572
67	0x3e5f6e1f	0.21819352
68	0xbdfe01ad	-0.124026634
69	0xbd6ff711	-0.05858523
70	0xbe5d2507	-0.21596156
71	0xbe715e53	-0.23571138
72	0xbd672cb6	-0.056439124
73	0xbdd49f6d	-0.103819706
74	0x3e8d54b5	0.2760369
75	0x3de546e3	0.11195161
76	0x3dea97ff	0.11454772
77	0x3deb5d18	0.114923656
78	0xbed22585	-0.4104425
79	0x3d30db02	0.043177612
80	0xbcdde361	-0.027085962
81	0x3e40f746	0.18844327
82	0xbea89e3d	-0.32933226
83	0xbe964784	-0.29351437
84	0x3eb960fa	0.362068
85	0xbc98a973	-0.018635487
86	0xbb0320df	-0.0020008606
87	0xbce208d0	-0.027592093
88	0xbeb005ec	-0.34379518
89	0xbeb83ab3	-0.35982284
90	0x3d129a0a	0.035791434
91	0x3e247339	0.16059579
92	0xbe23129d	-0.15925069
93	0xbd2383ed	-0.039920736
94	0xbe96163e	-0.29313844
95	0x3e1d6eb7	0.15374266
96	0xbdda13c9	-0.10648305
97	0x3deee0a0	0.116639376
98	0xbe359970	-0.17734313
99	0xbc9abda8	-0.018889263
100	0xbd95b2c8	-0.073094904
101	0x3cb5c4a9	0.022188501
102	0x3d1235e9	0.035695944
103	0xbeb8cf6b	-0.36095747
104	0xbefe0080	-0.49609756
105	0xbd87e853	-0.06636109
106	0xbe1bdf16	-0.1522182
107	0xbc517dbf	-0.012786328
108	0xbe2dc54a	-0.16969791
109	0x3e83e6d1	0.25762036
110	0xbc56ce1c	-0.013110664
111	0xbda0c699	-0.078503795
112	0x3e128e70	0.14312148
113	0x3dea0bb8	0.114280164
114	0xbe3d0e7c	-0.18462557
115	0xbf3e0206	-0.7422184
116	0x3dfe5c87	0.12419992
117	0xbd8ff020	-0.07028222
118	0x3d75885b	0.05994449
119	0xbe328f96	-0.17437586
120	0xbdad9e56	-0.08477466
121	0xbda390d2	-0.07986607
122	0xbe2b2b42	-0.1671572
123	0xbcb854cb	-0.02250137
124	0xbdbde132	-0.09271468
125	0xbec46ddf	-0.38365075
126	0x3d090953	0.033456158
127	0xbe813a2b	-0.2523969
128	0xbf33a297	-0.7016997
129	0xbe1078fc	-0.14108652
130	0x3f0af07c	0.542732
131	0xbe3d3956	-0.18478903
132	0xbe05bca2	-0.13060239
133	0x3da1121a	0.07864781
134	0xbe952dc9	-0.29136494
135	0x3d90c118	0.0706808
136	0x3d18964b	0.037252706
137	0xbea2b7bb	-0.317808
138	0xbe168152	-0.1469777
139	0xbd86b7aa	-0.06578
140	0xbc854ab0	-0.016270965
141	0xbe13dd73	-0.14439945
142	0xbee0b946	-0.43891352
143	0xbc2ab609	-0.010419377
144	0xbdb6e541	-0.089304455
145	0x3d64de91	0.05587632
146	0x3ed6ba0f	0.41938826
147	0xbea1b673	-0.3158451
148	0x3e6306f7	0.22170626
149	0xbe181ee5	-0.14855535
150	0x3d40a935	0.04703637
151	0xbe5e56d1	-0.21712805
152	0xbe979883	-0.29608545
153	0xbab2c13b	-0.001363791
154	0xbeb3aee7	-0.35094377
155	0x3c0d17ae	0.008611603
156	0xbdf25733	-0.11833038
157	0xbd751828	-0.05983749
158	0xbe8efd95	-0.27927843
159	0xbdca9d46	-0.09893279
160	0xbeb65dee	-0.35618538
161	0xbe3eea52	-0.18644074
162	0xbe66358e	-0.22481367
163	0xbdc2d1f0	-0.09512699
164	0xbeb15164	-0.3463241
165	0xbe084b34	-0.13309938
166	0xbcdcfd86	-0.026976358
167	0xbcf0220c	-0.02931311
168	0xbdfedcf9	-0.12444491
169	0xbef86352	-0.48513275
170	0xbf2083df	-0.6270122
171	0x3e2eef3c	0.17083448
172	0x3e466322	0.19373754
173	0xbe79a70c	-0.2438013
174	0x3efb296f	0.4905505
175	0x3ea022b5	0.3127648
176	0x3f347d48	0.70503664
177	0xbebd484c	-0.3696922
178	0xbe323606	-0.17403421
179	0xbe93d5bc	-0.28874004
180	0xbc28251a	-0.010262752
181	0xbeae9c25	-0.34103504
182	0xbe8b94e8	-0.27262044
183	0x3e2fab24	0.17155129
184	0xbe3a1700	-0.18172836
185	0xbdcbf32c	-0.09958491
186	0x3e21edc7	0.15813361
187	0x3d889380	0.066687584
188	0xbdef1213	-0.11673369
189	0xbeb3ab83	-0.3509179
190	0xbf1fd9b2	-0.6244155
191	0xbd49e284	-0.049288288
192	0xbdddbd82	-0.10827161
193	0x3e9bd1af	0.30433413
194	0xbf5584d1	-0.83405787
195	0xbf1b2851	-0.6060839
196	0xbee58f9f	-0.44836137
197	0xbe5f25e5	-0.217918
198	0xbd3e8188	-0.04651025
199	0x3d3e120d	0.046403933
200	0x3e21457e	0.15749165
201	0xbe91f34a	-0.28505927
202	0x3d55fc8c	0.0522428
203	0xbea7c4fa	-0.3276747
204	0x3de241a7	0.110476784
205	0xbddc304c	-0.107513994
206	0xbe1d054f	-0.15334056
207	0x3dc012e9	0.09378607
208	0xbb84f228	-0.0040571876
209	0xbead0ce1	-0.33798888
210	0xbc43655b	-0.0119260205
211	0x3de1c363	0.11023595
212	0xbeab738e	-0.334866
213	0xbdf49b0b	-0.119436346
214	0xbd193cdc	-0.037411556
215	0x3e4eeb57	0.20206963
216	0xbeefcf69	-0.4683793
217	0xbe1d01a5	-0.15332659
218	0xbe0fc9b1	-0.14041783
219	0xbe04724b	-0.12934224
220	0xbdb501cb	-0.088382326
221	0xbce18005	-0.027526865
222	0x3e32fcc8	0.17479241
223	0x3e955b67	0.29171297
224	0x3ede52b3	0.4342247
225	0x3e74e6f2	0.23916224
226	0x3d1989ed	0.037485052
227	0xbe769616	-0.2408069
228	0xbe402def	-0.18767522
229	0x3bd8550c	0.0066019353
230	0x3be86057	0.0070915627
231	0x3ea20315	0.31642976
232	0xbe599f9d	-0.21252294
233	0xbe4ed80e	-0.20199606
234	0xbd9884d9	-0.07447214
235	0xbd5f44a2	-0.054508813
236	0xbe832f15	-0.25621858
237	0x3c7c40dc	0.015396323
238	0x3e15fe7a	0.14647856
239	0x3e157cc0	0.1459837
240	0xbe482f86	-0.19549379
241	0xbd528b3a	-0.051402308
242	0x3c9df8d4	0.01928369
243	0xbe6fbead	-0.23412581
244	0xbead70e3	-0.33875188
245	0xbe8bf7cc	-0.27337492
246	0x3e5f00fd	0.21777721
247	0xbea24fe7	-0.31701586
248	0xbdf1b5ce	-0.118022546
249	0xbeb37e76	-0.3505742
250	0xbe964454	-0.29349005
251	0xbe27232a	-0.16322008
252	0xbe86167e	-0.26189035
253	0x3c32331a	0.010876441
254	0x3d754018	0.059875578
255	0xbcc26e61	-0.023734273

mlp2.0.bias f4 [100]
0	0x3d0e232e	0.03470152
1	0x3ee07189	0.4383662
2	0xbe5d73be	-0.21626183
3	0xbe1b97c0	-0.15194607
4	0x3ece3ed8	0.4028232
5	0xbea38a2d	-0.31941357
6	0x3ed9f014	0.42565978
7	0xbde83567	-0.11338311
8	0x3d67217b	0.056428414
9	0x3d50872b	0.050910156
10	0xbeb89af7	-0.3605573
11	0x3d69d285	0.057085533
12	0xbdd9845f	-0.10620951
13	0x3e7a0988	0.24417698
14	0x3ed384ef	0.41312358
15	0xbe9abe84	-0.30223477
16	0xbc46e9df	-0.01214072
17	0xbeb11d1f	-0.3459253
18	0xbed979bb	-0.42475685
19	0xbed24462	-0.41067797
20	0x3f90d3e6	1.1314666
21	0x3def0eb8	0.11672729
22	0x3fac0ae9	1.344083
23	0xbf0829c9	-0.5318876
24	0xbe4c8301	-0.19971849
25	0x3a88782a	0.0010411788
26	0x3fbbf56d	1.4684273
27	0xbeb72d77	-0.35776874
28	0xbad15f74	-0.0015973882
29	0xbd90e4b5	-0.070748724
30	0x3d90f6db	0.07078334
31	0x3fd9335f	1.6968802
32	0xbefa06e6	-0.48833388
33	0x3fb83028	1.4389696
34	0x3f9f684b	1.2453703
35	0xbd8b4cad	-0.06801734
36	0x3e98f635	0.2987534
37	0xbeca74df	-0.3954229
38	0x3f26d234	0.65164495
39	0xbc933bf4	-0.017972924
40	0xbdd91d5a	-0.106013015
41	0x3e86f70f	0.26360366
42	0xbe576941	-0.21036245
43	0x3e8b2b76	0.27181596
44	0x3e993e2b	0.29930243
45	0xbeb45e2a	-0.3522809
46	0xbf273d65	-0.65328056
47	0x3f880bfe	1.062866
48	0xbd9d1907	-0.07670789
49	0xbd8d04c6	-0.06885676
50	0xbe844648	-0.2583487
51	0xbe9c52ca	-0.30531913
52	0xbdb2eb18	-0.08736247
53	0xbeacddec	-0.33763063
54	0x3de0d10a	0.10977371
55	0xbe478365	-0.19483717
56	0xbe7e4f88	-0.24835026
57	0xbf779c6d	-0.9672306
58	0xbed4fd6e	-0.41599602
59	0xbc8880bb	-0.016662946
60	0x3d9896ea	0.074506596
61	0xbe1ac4cc	-0.15114135
62	0xbe6de76e	-0.23232815
63	0x3ee49392	0.44643837
64	0xbf452006	-0.7700199
65	0xbe7228d3	-0.23648386
66	0x3e7e3310	0.24824166
67	0xbe867fcb	-0.26269373
68	0xbe222231	-0.15833355
69	0xbe277ce4	-0.16356236
70	0xbe821d3a	-0.25412923
71	0xbe0a3c04	-0.13499457
72	0x3f8362fa	1.026458
73	0x3e807beb	0.25094542
74	0xbe1e4894	-0.15457374
75	0x3ed58d40	0.41709328
76	0xbe9f36a9	-0.3109639
77	0xbe7e3354	-0.24824268
78	0x3e284af4	0.16434842
79	0xbd2d1512	-0.042256422
80	0x3fe095c6	1.7545707
81	0xbe8a5d48	-0.27024293
82	0xbc0a8f8a	-0.008457074
83	0xbe3a34b0	-0.18184161
84	0x3f84b100	1.0366516
85	0x3ee11718	0.43962932
86	0x3f3238a8	0.696177
87	0x3e893a45	0.2680227
88	0xbe587b58	-0.21140802
89	0x3dfcaa21	0.12337137
90	0xbe9cfde6	-0.3066246
91	0x3e91f2ab	0.28505453
92	0x3f802f3d	1.0014416
93	0xbe4579f6	-0.19284806
94	0xbf4d3895	-0.8016446
95	0x3ff3cd50	1.9047031
96	0x3d869075	0.06570522
97	0xbe94d9d2	-0.29072434
98	0xbd8fe5b6	-0.07026236
99	0xbe66dba3	-0.22544722

mlp2.2.weight f4 [50, 100]
0	0xbd73fdc8	-0.059568197
1	0x3eb30601	0.34965518
2	0xbe077cda	-0.13231221
3	0x3e3b66dd	0.18300958
4	0xbe03dd53	-0.12877397
5	0x3e25c576	0.16188607
6	0x3e3ce4e5	0.18446691
7	0x3dec10ef	0.11526667
8	0x3e37344d	0.17891045
9	0x3ea50ed4	0.32237875
10	0x3edb3518	0.42813945
11	0xbd89fd2e	-0.06737743
12	0xbe60fc8d	-0.2197134
13	0xbe2237f3	-0.15841655
14	0x3c79e1f2	0.0152516235
15	0x3eb8d93b	0.36103234
16	0x3e84d33e	0.25942415
17	0x3c89766c	0.0167801
18	0x3e906827	0.28204462
19	0x3dff8ee6	0.124784276
20	0x3c934ee0	0.017981946
21	0x3e2c5421	0.16828968
22	0xbe36618b	-0.17810647
23	0x3db28e12	0.08718504
24	0x3e42e2b2	0.1903179
25	0x3de3ca3a	0.11122556
26	0xbe7790f1	-0.24176385
27	0xbe0a33bd	-0.13496299
28	0x3de4fadf	0.11180662
29	0xbe6de85f	-0.23233174
30	0xbb2aafac	-0.002604465
31	0xbca20247	-0.019776477
32	0x3d1cd7c0	0.038291693
33	0x3d16d730	0.036826313
34	0xbd8cc55d	-0.068735816
35	0xbd133a72	-0.03594441
36	0xbe06ff6a	-0.1318337
37	0xbd1652ae	-0.036699943
38	0x3e01de52	0.12682465
39	0x3ec86362	0.39138323
40	0x3e19fcac	0.15037793
41	0x3e267fa0	0.16259623
42	0x3e90f0d7	0.28308746
43	0x3dc9ca1a	0.09853001
44	0xbc8665cc	-0.016405962
45	0xbd98f259	-0.07468099
46	0xbe7995f5	-0.2437361
47	0xbdddc1a4	-0.1082795
48	0x3e0d2887	0.13784991
49	0xbc3ab93d	-0.011396703
50	0x3e30eb7a	0.17277327
51	0xbc7ba207	-0.015358455
52	0x3dbc9001	0.09207154
53	0xbe8c4d29	-0.2740262
54	0xbdeab3e3	-0.11460092
55	0x3dbd53ca	0.09244497
56	0xbcc9ef87	-0.024650348
57	0x3d8574b8	0.06516403
58	0x3e860f44	0.26183522
59	0x3dde6555	0.10859171
60	0xbc02e6a9	-0.007989564
61	0x3cbed84d	0.0232965
62	0xbe3d923c	-0.18512815
63	0x3ea36138	0.3191011
64	0xbdcb4c17	-0.09926622
65	0xbde54557	-0.11194866
66	0xbddf1ee4	-0.10894564
67	0x3da791dc	0.08182117
68	0x3d0c43bc	0.034244284
69	0xbe9878bb	-0.2977961
70	0xbd19eb01	-0.037577633
71	0x3e4888c0	0.19583416
72	0xbe3afa04	-0.18259436
73	0x3d8546be	0.065076336
74	0xbe730473	-0.23732166
75	0x3e94db4f	0.2907357
76	0xbea87a5b	-0.3290585
77	0xbd77d11e	-0.060502164
78	0x3f14686e	0.5797185
79	0xbc83400f	-0.016021756
80	0xbd3992d2	-0.045306034
81	0xbe8929aa	-0.267896
82	0x3e752bd8	0.23942506
83	0x3d931e7a	0.07183547
84	0xbeaba28f	-0.3352246
85	0x3e52c9c0	0.20584774
86	0x3e0e3d42	0.13890556
87	0x3e8880cc	0.26660764
88	0xbcd4d84a	-0.02598204
89	0xbeea64c8	-0.45780015
90	0xbb49285a	-0.0030694217
91	0x3ddcf3cc	0.10788688
92	0x3e94bf29	0.29052094
93	0x3f039052	0.5139209
94	0x3dea22aa	0.11432393
95	0xbcfcf13a	-0.030876745
96	0xbb04aa90	-0.0020243265
97	0xbd60de9d	-0.0548998
98	0x3d09ac68	0.033611685
99	0xbe2b0e13	-0.16704588
100	0xbd207fdd	-0.03918444
101	0x3e0af8f7	0.13571535
102	0xbd07466a	-0.033026136
103	0xbd6e6ecf	-0.058211144
104	0xbea8333a	-0.32851583
105	0x3dbfd3a6	0.093665406
106	0x3e770adc	0.24125236
107	0xbcdcdf6d	-0.026962006
108	0xbe4e6f3b	-0.20159619
109	0x3ea6e94e	0.32599872
110	0x3e747184	0.23871428
111	0x3b6283c1	0.0034563395
112	0x3e3aab0e	0.18229315
113	0xbe9bf678	-0.30461478
114	0x3c5849c4	0.013201181
115	0xbd111bce	-0.035426907
116	0xbdcfc60b	-0.101451956
117	0x3d862446	0.06549887
118	0xbe0063eb	-0.12538116
119	0x3da25904	0.07927135
120	0xbe2286fc	-0.15871805
121	0x3dad530c	0.084631056
122	0xbe1f0d5d	-0.15532441
123	0xbe7c2590	-0.24623704
124	0x3cb9d86d	0.022686208
125	0xbe5f9001	-0.21832277
126	0x3e05a772	0.13052157
127	0xbdbb417c	-0.091433495
128	0xbe940267	-0.28908083
129	0x3e203ac6	0.1564742
130	0xbdce0f48	-0.100615084
131	0xbdc51121	-0.09622408
132	0xbdd2567c	-0.10270402
133	0xbda58a2f	-0.08082997
134	0xbd6d1926	-0.05788531
135	0x3e04d3d1	0.12971427
136	0x3e32f899	0.17477645
137	0xbc060e04	-0.0081820525
138	0x3ec8f83d	0.3925189
139	0x3deeb907	0.11656385
140	0x3d36516a	0.044511236
141	0x3de22453	0.110420845
142	0xbdf95ad9	-0.12175531
143	0xbe04356b	-0.12911002
144	0xbb6d0874	-0.0036168369
145	0xbce8e497	-0.028429313
146	0x3e67bede	0.22631404
147	0x3d219451	0.039448086
148	0x3d17354f	0.036916073
149	0xbea1329f	-0.31483933
150	0xbdad1c8f	-0.08452713
151	0xbe8db966	-0.2768051
152	0xbe0e9355	-0.1392339
153	0xba78ce89	-0.00094912254
154	0x3e2c02a3	0.16797881
155	0xbdc80b5f	-0.09767794
156	0x3d8658db	0.065599166
157	0x3c90cc79	0.017675625
158	0xbd692faa	-0.05693022
159	0xbe35ac18	-0.1774143
160	0x3e248e23	0.16069846
161	0xbe18ea50	-0.14933133
162	0xbd4b0152	-0.049561806
163	0xbe95e3e1	-0.2927542
164	0xbdc78b33	-0.09743347
165	0xbdf8db6f	-0.12151229
166	0xbe3aaf7a	-0.18231001
167	0xbc15dda0	-0.009147078
168	0xbdcd1b55	-0.10014979
169	0xbde79a00	-0.1130867
170	0xbd96d59b	-0.07364961
171	0x3d4ef4c1	0.050526384
172	0x3db3f5b3	0.08787098
173	0x3e20a3e0	0.15687513
174	0x3e3a1469	0.18171848
175	0x3e89f347	0.26943418
176	0x3d74ac0a	0.05973438
177	0xbe7447e8	-0.23855555
178	0x3e09bfd2	0.1345208
179	0x3c2d1b2a	0.010565558
180	0x3cffc1e4	0.031220384
181	0xbe7421aa	-0.23840967
182	0x3dce1c37	0.10063975
183	0x3ce17e76	0.027526122
184	0x3e69252f	0.2276809
185	0x3eb16626	0.34648246
186	0x3db9aa3f	0.09065675
187	0xbd636d51	-0.055524174
188	0x3dadc84e	0.08485471
189	0xbbc13f6a	-0.005897452
190	0x3d98874a	0.07447679
191	0x3d3eee36	0.046613894
192	0x3e59f43d	0.21284576
193	0x3e9b6286	0.30348605
194	0xbd0996b4	-0.033590987
195	0x3e9182f8	0.28420234
196	0x3e09a6ae	0.1344249
197	0x3e1ee22d	0.15515967
198	0xbe7a11b6	-0.24420819
199	0x3c4d4edd	0.0125310095
200	0xbb08d3d2	-0.0020878208
201	0x3de90b5e	0.11379121
202	0x3e6f5a42	0.23374274
203	0xbe8120c6	-0.25220317
204	0xbd270297	-0.040773954
205	0xbe041797	-0.12899624
206	0x3e46fc93	0.19432287
207	0x3ce2445f	0.027620493
208	0x3e8e6e55	0.27818552
209	0xbd9edf5e	-0.07757448
210	0xbe1ba6ae	-0.15200302
211	0x3e5f7de2	0.21825364
212	0x3deb7b8b	0.11498173
213	0x3d69f95f	0.057122584
214	0x3e2a971c	0.16659206
215	0x3ce8300c	0.028343223
216	0xbe891b73	-0.26778755
217	0xbce6e1e1	-0.02818388
218	0xbcf5d672	-0.030009482
219	0x3e74fdc6	0.23924932
220	0xbe06a7f6	-0.1315001
221	0xbdc43725	-0.095808305
222	0x3e4bfde5	0.19921072
223	0xbdb34cf1	-0.0875491
224	0x3da3c9d1	0.07997478
225	0xbe7af52b	-0.24507587
226	0xbedd3629	-0.43205383
227	0x3d7fe6fb	0.06247614
228	0x3e1f6265	0.15564878
229	0x3c124ae0	0.008928984
230	0x3cf561db	0.029953888
231	0xbf189155	-0.5959676
232	0x3df53ebf	0.119748585
233	0xbeb805c7	-0.35941908
234	0xbe5512a6	-0.20807895
235	0xbb6ae791	-0.003584359
236	0xbeb78741	-0.35845378
237	0xbd30cf44	-0.043166414
238	0x3b678213	0.0035325333
239	0xbcc2e872	-0.02379248
240	0x3e688b2d	0.22709341
241	0xbdb0c130	-0.086305976
242	0xbe216c1e	-0.157639
243	0x3eca5a45	0.39521995
244	0xbda8d39e	-0.08243488
245	0xbe1bfa38	-0.1523217
246	0xbd770a3c	-0.060312495
247	0xbe8c9c7b	-0.27463135
248	0x3e28d80d	0.16488667
249	0xbde1c484	-0.110238105
250	0x3d6cf073	0.057846498
251	0x3db9d081	0.09072972
252	0x3db5cba5	0.08876733
253	0xbdc9b80b	-0.098495565
254	0xbe3464b3	-0.17616539
255	0x3e401518	0.18758047

mlp2.2.bias f4 [50]
0	0x3e9f4242	0.31105238
1	0x3e1f5eb2	0.15563467
2	0x3f9326e6	1.1496246
3	0x3e277017	0.16351353
4	0xbe4ce425	-0.20008905
5	0x3ddf4db5	0.10903493
6	0x3dbc44dc	0.091928214
7	0xbf9ccd01	-1.2250062
8	0x3e0d5089	0.13800253
9	0x3f12058e	0.57039726
10	0x3da8aedf	0.08236479
11	0x3f0f9674	0.5608895
12	0xbe57e34b	-0.21082799
13	0x3f706249	0.9389997
14	0xbd0d7519	-0.0345355
15	0x3e45adaa	0.19304529
16	0x3f535cff	0.82563776
17	0x3f5aea04	0.8551333
18	0xbe3c1fdb	-0.18371527
19	0x3e759b89	0.23985113
20	0xbf7b9796	-0.98278177
21	0xbdb8f20d	-0.090305425
22	0x3de08a98	0.10963935
23	0x3ec2da5b	0.38057217
24	0xbec5067c	-0.3848151
25	0xbec0fe9d	-0.37694255
26	0x3f8a666a	1.0812504
27	0xbc87d3ff	-0.01658058
28	0x3e307c89	0.17235006
29	0xbe09dc97	-0.13463055
30	0x3f2ad199	0.6672607
31	0x3f61fb7a	0.8827435
32	0xbec43815	-0.38324037
33	0xbf976392	-1.1827261
34	0x3ea0826a	0.31349498
35	0xbf855fd0	-1.0419865
36	0x3eb6cd51	0.3570352
37	0xbf54bfa4	-0.8310492
38	0xbf2302a7	-0.6367592
39	0x3f867eed	1.0507485
40	0xbddac915	-0.106828846
41	0x3f93f2e1	1.1558496
42	0x3f3b2f17	0.7311873
43	0xbe07122d	-0.13190527
44	0x3ef3f69d	0.47649089
45	0x3f48b2e1	0.7839795
46	0x3f17a834	0.5924103
47	0x3def17c0	0.11674452
48	0x3f834df7	1.0258168
49	0xbf21c220	-0.63186836

attention.0.weight f4 [100, 100]
0	0xbe2ff128	-0.17181838
1	0xbdc0fbf6	-0.09423058
2	0x3e1af5c7	0.15132819
3	0xbd3377b5	-0.043815333
4	0xbe0073a9	-0.12544121
5	0xbda50cbc	-0.080590695
6	0x3e656d83	0.22405057
7	0x3cb4c101	0.022064688
8	0xbe76567e	-0.24056432
9	0xbe17ce77	-0.14824854
10	0xbe8025cb	-0.25028834
11	0xbd766dd5	-0.060163338
12	0xbe1abfd3	-0.15112238
13	0x3e24d27f	0.16095923
14	0xbed01924	-0.4064418
15	0x3da5bc7d	0.08092592
16	0xbe0238b1	-0.12716939
17	0xbccfc222	-0.025361124
18	0x3cbfc7d6	0.023410719
19	0xbe6c18b3	-0.23056297
20	0xbe47c3b3	-0.19508247
21	0xbd31e4b2	-0.04343099
22	0xbd8820e5	-0.06646899
23	0xbd0836b8	-0.03325531
24	0x3e2bfc18	0.16795385
25	0xbdbe5588	-0.092936575
26	0xbd9bd680	-0.07609272
27	0xbe3b67ac	-0.18301266
28	0x3ef952c2	0.48695952
29	0xbe71cefb	-0.23614113
30	0xbe3010c9	-0.17193903
31	0xbe5fe34f	-0.21864055
32	0xbb986fa2	-0.0046519795
33	0xbea6c042	-0.32568556
34	0xba44a761	-0.0007501748
35	0x3d5c474c	0.05377893
36	0x3e9d69a4	0.3074466
37	0xbe0d4fba	-0.13799945
38	0xbe3c5320	-0.18391085
39	0x3d749409	0.05971149
40	0xbe28adfc	-0.1647262
41	0xbcea84ea	-0.028627831
42	0x3c971679	0.018443333
43	0xbe733194	-0.23749381
44	0x3cb687ec	0.02228161
45	0xbe363b3a	-0.1779603
46	0x3dccf68d	0.10007963
47	0x3d27c8fe	0.040963165
48	0x3dbc23ea	0.091865376
49	0xbe99292d	-0.29914227
50	0xbdd279f8	-0.1027717
51	0x3e8617c2	0.2619
52	0xbec3012a	-0.38086826
53	0x3df83ae7	0.1212061
54	0xbe0cdc7f	-0.13755988
55	0xbc4da763	-0.012552115
56	0xbc26f4ae	-0.010190172
57	0xbd897e6b	-0.067135654
58	0xbe029a5b	-0.12754194
59	0x3dea1db9	0.114314504
60	0xbcda33f3	-0.0266361
61	0xbd80b539	-0.062845655
62	0x38b5d850	8.671044e-05
63	0x3dfd2555	0.12360636
64	0xbe0eb382	-0.13935664
65	0xbd88623c	-0.06659362
66	0xbc3ddafc	-0.0115878545
67	0xbe4c4630	-0.1994865
68	0x3ce0e692	0.027453694
69	0xbea82c93	-0.32846507
70	0xbe16579f	-0.14681862
71	0x3ce076b6	0.027400356
72	0x3d416572	0.047215886
73	0xbdafdc31	-0.0858692
74	0xbe60fa9d	-0.21970601
75	0xbe15a69e	-0.1461434
76	0xbe8932fd	-0.26796713
77	0xbe564ed5	-0.2092851
78	0x3d3d4a00	0.04621315
79	0xbdd32e63	-0.10311582
80	0xbd67cc74	-0.056591466
81	0xbe87304a	-0.2640403
82	0x3e819b6e	0.25313896
83	0xbe4d62d0	-0.20057225
84	0xbd221115	-0.039567072
85	0xbdce6f6b	-0.10079845
86	0x3e6d23d0	0.23158193
87	0xbd6ea394	-0.05826147
88	0xbea25110	-0.3170247
89	0xbcefbd5d	-0.0292651
90	0xbe5b7b66	-0.21433792
91	0xbe454c3c	-0.19267362
92	0x3da02f28	0.07821494
93	0xbe2869c0	-0.1644659
94	0x3d3b6c3c	0.045757517
95	0xbe1aa6fa	-0.15102759
96	0xbeb93f0b	-0.3618091
97	0xbd916b12	-0.071005
98	0xbd8a138b	-0.06742009
99	0x3e6629a9	0.2247683
100	0xbe027f58	-0.1274389
101	0xbe645590	-0.22298265
102	0x3c97215b	0.018448522
103	0xbe984bec	-0.29745424
104	0xbe8b8e3f	-0.27256963
105	0xbea10bc0	-0.31454277
106	0xbd7c5aa4	-0.06160988
107	0xbd12a3cb	-0.035800736
108	0xbe2683ce	-0.16261217
109	0xbdbcb1df	-0.09213614
110	0xbcfdad7e	-0.030966517
111	0xbc528305	-0.01284862
112	0xbdf71ff1	-0.12066639
113	0xbe2c4970	-0.16824889
114	0xbecd6bfb	-0.40121445
115	0xbdead505	-0.114664115
116	0xbdb81191	-0.089877255
117	0x3e1a7de3	0.15087084
118	0xbc2a5700	-0.010396719
119	0xbe90cfc1	-0.28283504
120	0xbe25a1fd	-0.16175075
121	0xbeaa765e	-0.33293432
122	0x3cc05ee7	0.023482753
123	0xbe93d66c	-0.28874528
124	0xbe0f2af2	-0.13981226
125	0xbd8fd5c3	-0.07023194
126	0x3ce668c2	0.028126124
127	0xbe0eb15b	-0.13934843
128	0x3daf0b96	0.08547132
129	0xbe13bd97	-0.14427792
130	0x3e29cf5a	0.16583005
131	0xbe85928a	-0.26088363
132	0xbacc30a3	-0.001557846
133	0xbdc8ae2e	-0.09798847
134	0xbe80fa2b	-0.25190863
135	0xbe404687	-0.18776904
136	0xbddcb926	-0.10777502
137	0xbd93f7cd	-0.072249986
138	0xbd91fc60	-0.07128215
139	0x3d8d77e9	0.06907637
140	0xbeb46872	-0.35235935
141	0xbd7ec3c1	-0.062198404
142	0xbe495f11	-0.19665171
143	0x3de5ec30	0.1122669
144	0xbe7c8a6e	-0.24662182
145	0xbe06e6fc	-0.13174051
146	0xbe2e5bad	-0.17027159
147	0xbf2691cb	-0.6506621
148	0xbc19968c	-0.009374272
149	0xbe5f4bf0	-0.21806312
150	0x3d94ab3b	0.07259222
151	0xbe380223	-0.17969565
152	0xbe1898aa	-0.14901987
153	0xbbf10f85	-0.0073565864
154	0xbe144539	-0.14479531
155	0xbe249328	-0.1607176
156	0xbd101dee	-0.035184793
157	0x3d70989e	0.058739297
158	0xbd3aefbd	-0.04563879
159	0xbcb3193b	-0.021862617
160	0xbe007798	-0.12545621
161	0x3e2c8a28	0.16849577
162	0xbe6f2104	-0.23352438
163	0x3d9bbddd	0.07604573
164	0x3d0f8cac	0.035046265
165	0xbd6895d3	-0.05678351
166	0xbece5658	-0.4030025
167	0xbeb4828f	-0.35255858
168	0xbc07c950	-0.008287743
169	0x3e7c7028	0.24652159
170	0xbcde02f8	-0.027101025
171	0x3d7f7283	0.062365066
172	0xbec1ff65	-0.37890163
173	0xbcb78540	-0.022402406
174	0x3eb1fe62	0.3476439
175	0xbcc408ef	-0.023930041
176	0xbdd17392	-0.102271214
177	0x3e346edf	0.17620419
178	0xbeb53738	-0.3539369
179	0xbe0dea65	-0.13858946
180	0xbd9eed78	-0.07760137
181	0x3d0a4887	0.033760574
182	0xbf0370de	-0.51344097
183	0x3e91b355	0.28457132
184	0x3cac11c9	0.021004574
185	0xbdf0d27d	-0.117588975
186	0xbe809e6d	-0.2512087
187	0x3e9ebd88	0.31003976
188	0xbe257686	-0.16158494
189	0xbe9fa077	-0.31177112
190	0x3c8d7a5b	0.017270258
191	0xbd4f6d7c	-0.05064152
192	0xbd37bef8	-0.044859856
193	0xbd2f43f4	-0.042789415
194	0xbe4be6bf	-0.19912241
195	0xba83a57f	-0.0010043829
196	0xbe1ca2c2	-0.15296462
197	0x3d9d1078	0.07669157
198	0xbd1d0314	-0.038333014
199	0xbe9e7bc2	-0.30953795
200	0xbe4958ed	-0.19662829
201	0xbf041b20	-0.5160389
202	0x3daf7928	0.085680306
203	0xbf5c2e99	-0.860086
204	0xbd5c55fe	-0.053792946
205	0xbe606709	-0.21914305
206	0xbc3094a3	-0.010777625
207	0xbdb50ad9	-0.0883996
208	0xbec3a613	-0.38212642
209	0xbf4e0444	-0.8047526
210	0x3ebd6af7	0.3699567
211	0xbd52c9b3	-0.051461887
212	0x3dfcae73	0.12337961
213	0xbee9d791	-0.45672277
214	0xbbd8020d	-0.0065920413
215	0xbe8d15ef	-0.27555797
216	0x3e41d33b	0.18928234
217	0xbe73b6ba	-0.23800173
218	0x3dc3d797	0.09562605
219	0xbea3c69d	-0.31987467
220	0x3e9b0afb	0.30281815
221	0xbe348ede	-0.17632625
222	0xbd3eda2a	-0.046594776
223	0xbcbd92f4	-0.023141362
224	0x3d4e75a3	0.050405156
225	0xbda7e114	-0.08197227
226	0x3c83e47a	0.016100157
227	0x3e99a248	0.30006623
228	0x3ddfeeec	0.109342426
229	0xbf2cf1fe	-0.6755675
230	0x3e75a8f6	0.23990235
231	0xbea1dc5f	-0.31613442
232	0xbec2d303	-0.38051614
233	0xbd4cc096	-0.04998835
234	0x3e23ed18	0.16008413
235	0xbe31ff73	-0.17382602
236	0xbe97e9f0	-0.29670668
237	0xbcbbf6d6	-0.022944849
238	0xbd01e40c	-0.031711623
239	0xbe12cd73	-0.14336185
240	0x3c6a087d	0.01428425
241	0x3b93290b	0.0044909767
242	0xbb8a0b23	-0.0042127534
243	0x3cfdc0fe	0.030975815
244	0xbe23795c	-0.15964264
245	0x3eb539d7	0.3539569
246	0x3ecc804b	0.3994163
247	0xbe5bbe8b	-0.21459405
248	0x3ed60e7f	0.41807935
249	0xbec3f2c9	-0.38271168
250	0xbddab304	-0.10678676
251	0xbef8cae7	-0.48592302
252	0xbeb0d91e	-0.34540647
253	0xbd18c75c	-0.0372995
254	0xbd7e9ef3	-0.062163305
255	0xbe9bc14f	-0.3042092

attention.0.bias f4 [100]
0	0xbbb8a8d6	-0.005635361
1	0xbdfa0ff7	-0.12210076
2	0xbf32824c	-0.6973007
3	0x3e91236d	0.2834734
4	0xbf1cffdd	-0.61327916
5	0x3e3339be	0.17502496
6	0xbf22ef20	-0.63646126
7	0xbee0942f	-0.43863055
8	0xbf79b698	-0.9754424
9	0x3f85e371	1.0460035
10	0xbca96e73	-0.02068255
11	0x3e1aae9a	0.15105668
12	0xbf188585	-0.59578735
13	0xbf156163	-0.58351725
14	0xbe1b22dd	-0.15150018
15	0xbea6234a	-0.32448798
16	0xbe872446	-0.26394862
17	0xbeb28d7b	-0.34873566
18	0xbe943723	-0.28948316
19	0xbe472d57	-0.1945089
20	0xbe812eaf	-0.2523093
21	0xbf900980	-1.1252899
22	0xbed91e2c	-0.42405832
23	0xbdc5b70f	-0.09654056
24	0xbeedfe37	-0.46483013
25	0xbe52fd5b	-0.2060446
26	0xbe7f1883	-0.24911694
27	0xbe452583	-0.19252591
28	0xbf3a85e4	-0.7286055
29	0xbd3a662b	-0.04550759
30	0xbf15169b	-0.5823762
31	0xbee611c8	-0.4493544
32	0x3e567aac	0.20945233
33	0xbe3b6bac	-0.18302792
34	0x3f2c0c97	0.6720671
35	0xbe82897a	-0.2549551
36	0xbf5e9f2f	-0.86961645
37	0xbe734a94	-0.23758918
38	0xbcf9261b	-0.030413678
39	0xbedfb631	-0.4369369
40	0xbe415141	-0.18878652
41	0xbf27fcb4	-0.6561997
42	0xbebad120	-0.36487675
43	0xbe330627	-0.17482816
44	0xbf34ac0a	-0.7057501
45	0xbf3f0045	-0.74609786
46	0xbeed4471	-0.4634128
47	0xbf04be26	-0.51852643
48	0xbe307433	-0.17231826
49	0xbf02eddb	-0.5114419
50	0xbf051aff	-0.5199432
51	0xbd0a0edf	-0.03370559
52	0x3eca8eef	0.39562175
53	0xbdbba886	-0.09163003
54	0xbf22311d	-0.6335619
55	0xbdde90ac	-0.10867438
56	0xbf60131b	-0.8752915
57	0xbf3bb4e3	-0.73322886
58	0xbf0afb7d	-0.5428999
59	0xbf390385	-0.72270995
60	0xbd931855	-0.07182375
61	0xbf11c00b	-0.5693366
62	0xbf1f6ffb	-0.62280244
63	0xbe299ccb	-0.16563718
64	0xbf556dc7	-0.8337063
65	0xbe935704	-0.28777325
66	0xbf57a5d9	-0.8423744
67	0xbea68efb	-0.3253096
68	0xbea07119	-0.31336287
69	0xbe1e529b	-0.15461199
70	0xbdc1081b	-0.09425374
71	0xbea9f9ce	-0.33198398
72	0xbf810715	-1.0080286
73	0xbe870056	-0.26367444
74	0xbee8af06	-0.45446032
75	0x3d99f1b5	0.07516805
76	0xbeb8749b	-0.36026463
77	0xbed59650	-0.41716242
78	0xbebf9a2a	-0.37422305
79	0xbf67b618	-0.9051223
80	0xbe0c1285	-0.1367894
81	0x3eef9a3c	0.4679736
82	0xbe9be207	-0.30445883
83	0xbf16d893	-0.58924216
84	0xbed4d506	-0.41568774
85	0xbee7df70	-0.45287657
86	0xbf11f6a2	-0.57016957
87	0xbe103960	-0.14084387
88	0xbe216304	-0.15760428
89	0xbd7e50f3	-0.062088918
90	0xbe1db316	-0.15400347
91	0xbf000ac5	-0.50016433
92	0xbed022bb	-0.40651497
93	0xbe1510e6	-0.14557227
94	0x3d61329d	0.05497991
95	0xbec9bbf5	-0.39401212
96	0x3da7d1d8	0.081943214
97	0xbe86fef2	-0.26366383
98	0xbf21b4cc	-0.631665
99	0x3e1bcec1	0.15215589
