sarl_star_ros/CrowdNav/crowd_nav/data/output_mateo_semicircle_goals_rfor/il_model.pth (torch_old, 349196 bytes, 20 tensors)

mlp1.0.weight f4 [150, 13]
0	0xbd91e1ef	-0.071231715
1	0xbe29366d	-0.16524668
2	0x3edd1e6a	0.43187267
3	0x3eaafaaa	0.33394367
4	0xbe4a626d	-0.19764109
5	0x3e521dd0	0.20519185
6	0xbe62a7dd	-0.22134347
7	0x3e990f76	0.29894608
8	0x3f0bffc3	0.54687136
9	0x3f3763b3	0.71636504
10	0xbc082c5e	-0.008311359
11	0xbeb79ad0	-0.358603
12	0x3ea60802	0.32427984
13	0xbe67ebd5	-0.22648557
14	0xbde3b1c4	-0.111178905
15	0xbdd33780	-0.1031332
16	0x3d96f3c8	0.07370716
17	0x3e71b21e	0.23603103
18	0x3dd529d4	0.10408369
19	0xbc188040	-0.009307921
20	0x3df09a48	0.11748177
21	0xbe7f3088	-0.24920857
22	0x3e100c04	0.14067084
23	0xbe824329	-0.25441864
24	0xbe12632a	-0.1429564
25	0xbddb9778	-0.1072225
26	0xbd6b4f40	-0.057448626
27	0xbd2452af	-0.040117916
28	0x3f113097	0.5671477
29	0xbda40e57	-0.080105476
30	0xbf157d54	-0.5839436
31	0x3f0d518e	0.5520257
32	0x3e9b7a01	0.3036652
33	0xbf08d173	-0.53444594
34	0x3ce858bb	0.028362622
35	0x3f4f7879	0.810432
36	0x3e9fb99d	0.311963
37	0xbf3bd242	-0.733677
38	0x3e045df4	0.12926465
39	0xbea24a50	-0.3169732
40	0xbe92f775	-0.2870442
41	0xbf0de7fa	-0.55432093
42	0xbdf01b57	-0.11723965
43	0xbdca4720	-0.09876847
44	0x3e0b13e2	0.13581803
45	0xbcdbbb7a	-0.026822794
46	0xbccef4bc	-0.025263183
47	0xbde5d549	-0.112223215
48	0xbc76cd90	-0.015063658
49	0xbe5dd256	-0.21662268
50	0x3e8537c4	0.26019108
51	0xbe7e975a	-0.24862424
52	0xbe00ef05	-0.12591179
53	0x3e2507cd	0.16116257
54	0xbe315367	-0.17316972
55	0xbdded1f0	-0.10879886
56	0xbe3a00c5	-0.18164356
57	0x3d7bfc23	0.061519753
58	0xbcb795f4	-0.02241037
59	0x3cbd34ae	0.023096409
60	0x3dc741c4	0.09729341
61	0xbe64e0ae	-0.22351333
62	0x3e87f5d9	0.26554754
63	0xbd29c10b	-0.041443866
64	0xbc353040	-0.011058867
65	0x3d3da9de	0.046304576
66	0x3ea6b260	0.32557964
67	0xbfa3caa4	-1.2796216
68	0x3e94a7d1	0.29034284
69	0x3e584201	0.21118928
70	0xbf16cda0	-0.5890751
71	0xbd428033	-0.04748554
72	0xbecc7a6f	-0.3993716
73	0x3f133b06	0.5751194
74	0xbe90c937	-0.28278515
75	0x3ef5c05d	0.47998324
76	0xbe34efb5	-0.17669566
77	0x3f3cddd8	0.73776007
78	0xbea14802	-0.3150025
79	0xbe35d296	-0.17756113
80	0x3e4f272f	0.20229791
81	0xbe20e745	-0.15713222
82	0xbd7f3bc2	-0.06231285
83	0x3e39f271	0.1815889
84	0x3e0fb7ae	0.14034912
85	0x3ea192bb	0.3155726
86	0x3edd4040	0.4321308
87	0xbce4f381	-0.027948143
88	0xbe0acb49	-0.1355411
89	0x3c8eb116	0.017418426
90	0xbebd8925	-0.37018695
91	0xbdfc25f7	-0.12311929
92	0xbe073dba	-0.1320714
93	0x3c883133	0.016625023
94	0xbe206976	-0.1566523
95	0x3e0126f9	0.12612523
96	0x3e35235c	0.1768927
97	0x3dcbf844	0.09959462
98	0xbe8bcca9	-0.2730458
99	0xbe7b7c2b	-0.24559085
100	0xbdf1bced	-0.11803613
101	0xbdf89deb	-0.121394955
102	0xbdebbd15	-0.11510674
103	0xbdb6a75d	-0.08918641
104	0xbe804928	-0.25055814
105	0x3e83da0e	0.257523
106	0xbe8ac189	-0.2710078
107	0xbe053203	-0.13007359
108	0xbdf10c9a	-0.11769982
109	0x3ddb11c5	0.10696749
110	0xbe5f841c	-0.2182774
111	0x3de8719c	0.11349794
112	0xbb2aa932	-0.002604079
113	0x3e36d70e	0.17855474
114	0x3c5d85f2	0.013520705
115	0xbe4973f6	-0.19673142
116	0x3e62e2a3	0.22156768
117	0x3e9657f7	0.29363987
118	0xbe367afa	-0.1782035
119	0xbf1e5d55	-0.61861163
120	0xbd97c87a	-0.07411285
121	0xbe46b47d	-0.19404788
122	0xbe8c0f15	-0.27355257
123	0xbdd0a809	-0.101883
124	0x3ec2f24d	0.38075486
125	0xbd4b24c9	-0.049595628
126	0xbd326afe	-0.043559067
127	0xbe40e74d	-0.18838234
128	0xbe6ecdf2	-0.2332075
129	0x3e96084c	0.29303205
130	0xbd851b10	-0.064993024
131	0xbf0e17d9	-0.5550514
132	0x3ed0f087	0.40808508
133	0xbee46d55	-0.44614664
134	0xbecfad84	-0.4056207
135	0x3f12207d	0.57080823
136	0xbd975282	-0.07388784
137	0x3d3f578a	0.046714343
138	0xbbd54a7c	-0.0065091234
139	0x3d94b383	0.07260802
140	0xbd057a12	-0.03258712
141	0x3e60919c	0.21930546
142	0xbf4201aa	-0.7578379
143	0xbe14d336	-0.14533696
144	0xbdfc14dc	-0.12308666
145	0xbe81b25e	-0.25331396
146	0xbe118675	-0.14211448
147	0xbec80b98	-0.39071345
148	0x3e2b144c	0.16706961
149	0x3e12a034	0.14318925
150	0x3ef52db8	0.47886443
151	0x3dd2371d	0.10264418
152	0x3eee59df	0.4655294
153	0xbe0ef2d7	-0.13959824
154	0xbdcc6d83	-0.09981825
155	0x3d6d5bab	0.05794875
156	0x3f07ec53	0.5309498
157	0x3c1cf8f6	0.009580841
158	0xbe3cd0dc	-0.18439049
159	0x3ac2346c	0.0014816648
160	0x3f0900d0	0.53516865
161	0x3ecfb701	0.40569308
162	0xbe72bf2c	-0.23705739
163	0x3dcb215f	0.099184744
164	0x3f65435b	0.895559
165	0xbe08ed26	-0.13371715
166	0x3e49e50e	0.19716284
167	0xbe846bab	-0.25863394
168	0xbd44153f	-0.047871824
169	0xbe0e6d51	-0.13908888
170	0x3d154d4e	0.036450677
171	0xbe693cd8	-0.22777116
172	0xbe28d65e	-0.16488025
173	0x3e1a92b7	0.1509503
174	0x3d2afade	0.04174315
175	0xbcc40c2d	-0.023931587
176	0x3ebb8ca9	0.36630753
177	0xbe1359a1	-0.1438966
178	0x3de145cf	0.10999643
179	0xbe7c19ae	-0.24619171
180	0x3d1262e8	0.035738856
181	0xbe0cdc11	-0.13755824
182	0xbe4673a2	-0.19380048
183	0xbe211e5a	-0.15734234
184	0x3dc6cb78	0.09706777
185	0x3e6443c4	0.22291476
186	0x3e8a528d	0.27016106
187	0xbe7417c6	-0.23837194
188	0xbe4a061d	-0.19728895
189	0xb9f128f8	-0.00045997626
190	0x3ea237fa	0.31683332
191	0x3e38d1a5	0.18048723
192	0x3d806efb	0.06271168
193	0xbe83db9f	-0.25753495
194	0x3e842c48	0.25815034
195	0xbe224ab5	-0.15848811
196	0xbe576744	-0.21035486
197	0x3effd879	0.49969843
198	0xbe0a595c	-0.1351065
199	0x3d0c467d	0.03424691
200	0x3ecdde02	0.4020844
201	0xbe3c4a88	-0.18387806
202	0xbe332c51	-0.17497374
203	0xbded009c	-0.11572382
204	0xbe4848b3	-0.19558983
205	0xbeff0eaf	-0.4981589
206	0x3cafa57f	0.02144122
207	0xbf5acdea	-0.8547045
208	0xbed9cfed	-0.42541447
209	0x3cffef1d	0.031241948
210	0xbee95356	-0.45571393
211	0x39a32933	0.00031120479
212	0x3c696285	0.01424468
213	0xbd39ffe7	-0.045410063
214	0xbdfd9a84	-0.12382987
215	0xbe82a446	-0.25515956
216	0xbd07b0a3	-0.03312744
217	0x3e35fbb9	0.17771806
218	0xbecab9b0	-0.39594793
219	0x3e004632	0.12526777
220	0xbede1ae9	-0.43379906
221	0xbe4a3da9	-0.19750084
222	0x3e5a3e37	0.21312796
223	0xbbde8c1e	-0.0067916056
224	0x3e85ada6	0.26109046
225	0x3e9a568f	0.30144164
226	0xbe023353	-0.12714891
227	0xbd73fa7a	-0.059565045
228	0x3e48e4ba	0.19618502
229	0xbd8d3a81	-0.06895924
230	0xbe9744be	-0.29544634
231	0xbd2bcb95	-0.041942198
232	0xbe883145	-0.2660009
233	0x3df56476	0.11982052
234	0x3eb737f2	0.3578487
235	0xbe9fd745	-0.31218925
236	0x3b9df7dc	0.004820807
237	0xbd10f1c8	-0.03538683
238	0xbe6130cc	-0.21991271
239	0x3eb35d17	0.3503196
240	0xbee19beb	-0.44064268
241	0x3d77c99c	0.060495004
242	0x3e350e84	0.17681319
243	0x3e3869c9	0.18009104
244	0xbca52119	-0.020157384
245	0xbe157a41	-0.14597417
246	0xbe810699	-0.25200346
247	0xbe8c0399	-0.27346495
248	0xbe8e024d	-0.2773613
249	0x3e5a1c76	0.2129992
250	0x3e2273cd	0.15864487
251	0x3ea3f266	0.32020873
252	0x3e00c461	0.12574913
253	0x3ef32655	0.47490183
254	0x3de8106d	0.11331258
255	0x3e76db9a	0.24107209

mlp1.0.bias f4 [150]
0	0x3e240711	0.1601832
1	0x3bb8dbc0	0.0056414306
2	0xbe145763	-0.1448646
3	0xbe8fa738	-0.28057265
4	0xbe778df9	-0.24175252
5	0x3ed65c3a	0.41867238
6	0x3de37e19	0.111080356
7	0xbe5c3b68	-0.21507037
8	0x3e98c9cc	0.2984146
9	0xbe6d8bc1	-0.23197843
10	0xbe294819	-0.1653141
11	0x3e3bf11a	0.18353692
12	0x3e73142a	0.2373816
13	0xbe8ce14c	-0.27515638
14	0x3e42f96a	0.19040456
15	0xbee06827	-0.43829462
16	0xbebdf5be	-0.3710155
17	0xbc617a8d	-0.013762129
18	0xbe2e2f71	-0.17010285
19	0xbe4a8af0	-0.19779563
20	0xbe09635d	-0.1341681
21	0x3ce72627	0.028216435
22	0x3e10e44a	0.14149585
23	0xbdbd1b11	-0.09233678
24	0xbdae6238	-0.085148275
25	0xbdf97b7b	-0.12181755
26	0xba9f2638	-0.0012142127
27	0xbd70ccc0	-0.058789015
28	0xbe376ee6	-0.17913398
29	0xbe246824	-0.16055351
30	0xbddc2263	-0.10748746
31	0x3d4c3655	0.049856503
32	0xbe3cc0ee	-0.18432972
33	0x3d0f5d2c	0.035000965
34	0x3d87e362	0.06635167
35	0x3e16ac2c	0.14714116
36	0xbce48368	-0.02789469
37	0x3e61a523	0.22035651
38	0xbd8a8bbc	-0.067649335
39	0xbe517915	-0.20456345
40	0x3d583e01	0.052793507
41	0x3e8023b7	0.25027248
42	0xbe29ce68	-0.16582644
43	0xbcb36233	-0.021897411
44	0xbe367721	-0.17818882
45	0xbd64c618	-0.05585298
46	0x3dd5f62d	0.10447345
47	0xbdc9ed1e	-0.0985968
48	0x3e1fec6b	0.1561753
49	0x3d0dd59d	0.034627546
50	0xbe0e8401	-0.13917543
51	0x3eb43936	0.35199898
52	0xbdd1f721	-0.10252214
53	0x3be0bde6	0.006858575
54	0x3e5837c7	0.21115027
55	0x3e04851a	0.12941399
56	0xbe0c99fb	-0.13730614
57	0x3e8f010a	0.2793048
58	0x3e2c24da	0.16810933
59	0xbe81895b	-0.25300106
60	0xbeb859d3	-0.3600603
61	0xbd1d7308	-0.03843978
62	0xbdf944b1	-0.12171305
63	0x3e89796d	0.26850453
64	0xbe4383f6	-0.19093308
65	0xbd38eb40	-0.045146227
66	0x3ce7e14a	0.028305668
67	0xbe5ad666	-0.21370849
68	0xbe214654	-0.15749484
69	0xbda98ad5	-0.08278433
70	0xbd051b24	-0.032496586
71	0xbe7f01b4	-0.24902993
72	0xbea0f3b1	-0.31435922
73	0x3e145d88	0.14488804
74	0xbe4a6997	-0.19766842
75	0xbe63777a	-0.22213545
76	0xbe4c6886	-0.19961748
77	0x3e9918d5	0.29901758
78	0x3e80a816	0.2512824
79	0xbeadae78	-0.33922172
80	0xbe2fa748	-0.17153656
81	0xbdaa5bc4	-0.08318284
82	0xbe25a4ae	-0.16176102
83	0x3c851c28	0.016248778
84	0xbea6681e	-0.3250131
85	0xbe92b230	-0.2865157
86	0x3c8db8db	0.01730006
87	0x3ea2ee5e	0.31822485
88	0xbe03187a	-0.12802306
89	0xbe4bc660	-0.19899893
90	0xbd67a7a3	-0.056556355
91	0xbe7ce262	-0.24695733
92	0xbdb4d1f8	-0.08829111
93	0x3ecfb203	0.405655
94	0xbe5bcd5c	-0.21465057
95	0xbe633af8	-0.22190464
96	0x3dd24657	0.102673225
97	0x3e806543	0.25077257
98	0x3de51f93	0.11187663
99	0x3e92609f	0.2858934
100	0x3ea7c8d0	0.32770395
101	0xbe6f4c47	-0.23368941
102	0xbe128f7e	-0.1431255
103	0x3e29c8fc	0.16580576
104	0xbe4a9e41	-0.19786932
105	0xbea1b369	-0.31582192
106	0xbd98b032	-0.074554816
107	0xbed07de9	-0.40721062
108	0x3e961390	0.293118
109	0xbd49c150	-0.049256623
110	0x3ebe8849	0.37213352
111	0xbe9f22a7	-0.31081125
112	0x3d9810a7	0.07425051
113	0xbdda8586	-0.10669999
114	0x3d0fe3d3	0.03512938
115	0x3df30d4b	0.1186777
116	0xbe69bad9	-0.22825183
117	0xbddb13f0	-0.10697162
118	0xbddcca32	-0.10780753
119	0x3e0300b6	0.1279324
120	0xbe0a6bf2	-0.1351774
121	0xbe182258	-0.14856851
122	0xbd2d4214	-0.042299345
123	0xbea396c2	-0.31950957
124	0xbd13bab6	-0.036066733
125	0x3db8bd8d	0.09020529
126	0x3e0a0b9d	0.13480993
127	0xbea4c370	-0.32180357
128	0x3d8e20d0	0.06939852
129	0xbe0e0013	-0.13867216
130	0xbe729bb0	-0.23692203
131	0x3e401136	0.18756565
132	0x3e79dd4e	0.24400827
133	0xbda5e78d	-0.081008054
134	0x3e529a2d	0.20566626
135	0xbe977d30	-0.29587698
136	0xbe8188e9	-0.25299767
137	0xbe30e885	-0.17276199
138	0x3d01068b	0.03150038
139	0x3c3eda1c	0.011648681
140	0xbeed7395	-0.46377245
141	0xbe04ab8f	-0.1295607
142	0xbdde534f	-0.108557336
143	0xbe4d0a15	-0.20023377
144	0xbe0c3b2d	-0.13694449
145	0xbead1ab8	-0.33809447
146	0xbc4768e1	-0.012171001
147	0x3de04bc7	0.109519534
148	0x3e01f681	0.1269169
149	0xbeb0f4d0	-0.34561777

mlp1.2.weight f4 [100, 150]
0	0x3dc2ede9	0.09518034
1	0xbd01d9b3	-0.031701755
2	0xbd202264	-0.039095297
3	0x3b7bc214	0.003841524
4	0xbd20ee08	-0.039289504
5	0x3dab0fab	0.08352598
6	0x3c33b4f2	0.010968434
7	0xbd01da96	-0.0317026
8	0x3d253d6c	0.04034178
9	0xbdcfbb08	-0.10143095
10	0xbdac805e	-0.084229216
11	0x3c820b8d	0.015874648
12	0xbcee72a8	-0.029107407
13	0x3ca9c52c	0.020723902
14	0x3d3cf9ab	0.04613654
15	0xbcffb104	-0.031212337
16	0xbd86a235	-0.06573907
17	0x3d364ac1	0.044504885
18	0xbddaf99d	-0.10692141
19	0x3b483d98	0.003055429
20	0xbd6c2700	-0.05765438
21	0xbd3c0a2e	-0.045908146
22	0xbd16b8e8	-0.036797434
23	0x3e1393b6	0.14411816
24	0xbdbabd1b	-0.091181
25	0xbd2451e7	-0.04011717
26	0xbcee7d9a	-0.029112626
27	0xbdc23aef	-0.09483897
28	0x3d8ab140	0.06772089
29	0x3b8c618b	0.004284089
30	0xbd0b36d6	-0.033987843
31	0xbd533ed6	-0.051573597
32	0xbd00aeed	-0.031416822
33	0x3bf59b31	0.007495307
34	0xbd7ad07e	-0.06123399
35	0xbd2c35df	-0.042043563
36	0x3ccd6d55	0.025076548
37	0xbd8c1bd5	-0.06841246
38	0xbc8a867c	-0.01690983
39	0x3dc712d2	0.097203866
40	0x3dbc8cc6	0.09206538
41	0x3c96d89b	0.018413832
42	0x3db378e6	0.08763294
43	0xbab24a3b	-0.0013602445
44	0x3c119df6	0.0088877585
45	0x3c4c8f25	0.0124853
46	0xbbf81256	-0.007570545
47	0xbcdb11e6	-0.026741933
48	0xbe2bb79d	-0.16769262
49	0xbd829e29	-0.06377823
50	0xbe112220	-0.14173174
51	0x3c9c0c0c	0.019048713
52	0x3d85a758	0.06526059
53	0xbdb77b38	-0.08959049
54	0x3d96dac4	0.07365945
55	0x3bed2e19	0.0072381613
56	0x3dd39c02	0.103324905
57	0xbe6f48c7	-0.23367606
58	0x3d7059c7	0.05867937
59	0xbdc680d2	-0.09692539
60	0x3d19e803	0.03757478
61	0x3b813a2f	0.0039437036
62	0x3daf3c19	0.085563846
63	0xbbf1839a	-0.0073704245
64	0x3d344206	0.044008277
65	0xbc9cd22a	-0.019143183
66	0xbd8422ff	-0.064519875
67	0x3a24f177	0.00062920846
68	0x3d9d3cd2	0.07677616
69	0x3bdfa0f0	0.006824605
70	0xbcc5d9ea	-0.024151761
71	0xbda396aa	-0.07987721
72	0xbcb0707c	-0.021538012
73	0xbd17e47d	-0.037083138
74	0xbd94cb02	-0.07265283
75	0xbd139074	-0.036026433
76	0x3d7cd28e	0.061724238
77	0x3d83ed02	0.0644169
78	0xbe0212ba	-0.12702456
79	0xbda36231	-0.07977713
80	0xbde14fbd	-0.11001537
81	0x3d42e5e8	0.047582537
82	0x3c55acdb	0.0130417
83	0xbbe8e438	-0.007107284
84	0xbcee18b5	-0.029064516
85	0xbdfdcf8f	-0.12393104
86	0xbdf3a75b	-0.11897155
87	0xbce15d4b	-0.027510306
88	0x3dbb39ad	0.0914186
89	0x3d759531	0.059956733
90	0xbdd7eec3	-0.10543587
91	0x3d2b6219	0.0418416
92	0x3d4d88b3	0.050179195
93	0xbe5f75dc	-0.21822304
94	0xbc0e33c5	-0.008679335
95	0xbda04634	-0.0782589
96	0x3db27d9e	0.08715366
97	0x3da50428	0.08057433
98	0x3b4ad90a	0.003095212
99	0xbd3c4a42	-0.045969255
100	0xbcaa062a	-0.020754892
101	0x3ca2b9b8	0.019863948
102	0x3cd8e42d	0.02647599
103	0x3d99baa9	0.07506306
104	0x3da85013	0.08218398
105	0x3ce122c9	0.027482407
106	0x3d83e6b2	0.06440486
107	0xbd9f77c3	-0.077865146
108	0xbd7e907e	-0.062149517
109	0xbd6e28ea	-0.058144487
110	0xbdc376e7	-0.09544163
111	0xbd3acfd1	-0.045608345
112	0x3dd3d4df	0.10343336
113	0xbd309116	-0.043107115
114	0x3de53070	0.11190879
115	0x3d304f99	0.04304466
116	0x3d2b52a4	0.04182686
117	0xbb58209b	-0.0032978419
118	0x3df853f3	0.12125387
119	0x3de8f94e	0.11375676
120	0xbdf265a4	-0.11835793
121	0x3d68db63	0.05684985
122	0x3ca820dc	0.020523481
123	0xbe3a05bb	-0.18166249
124	0xbd6a50d8	-0.057206005
125	0xbd7ec705	-0.06220152
126	0xbdb3dff3	-0.08782949
127	0x3d3f06bc	0.04663728
128	0x3db207b6	0.08692877
129	0xbde7945d	-0.11307595
130	0xbb302ab5	-0.0026880924
131	0xbcd3aba2	-0.025838677
132	0xbd5f658a	-0.054540195
133	0x3d1ebd5b	0.038754802
134	0x3c3f2cc2	0.011668386
135	0xbd96b098	-0.07357901
136	0x3cbcf288	0.023064867
137	0xbd664c27	-0.05622497
138	0xbd49cec2	-0.049269445
139	0x3dded0d1	0.10879672
140	0x3e14c01b	0.14526407
141	0xbcad57ad	-0.021159971
142	0xbdf02a55	-0.11726824
143	0x3dc9e164	0.09857443
144	0x3d80405c	0.062622756
145	0x3c17a695	0.009256025
146	0x3e1ebbc1	0.1550131
147	0xbc0cd136	-0.008594802
148	0xbd176a74	-0.036966756
149	0xbd664de4	-0.056226626
150	0xbd325f94	-0.04354818
151	0xbabd8640	-0.0014459565
152	0xbd51997b	-0.05117176
153	0xbc1c8ca9	-0.00955502
154	0x3c847000	0.016166687
155	0xbd2d34ff	-0.04228687
156	0x3c299cd0	0.010352328
157	0xbdc7dd88	-0.097590506
158	0xbd4a5fa0	-0.0494076
159	0xbdbe0c62	-0.092797056
160	0x3c6b39da	0.014357055
161	0xbd978a02	-0.0739937
162	0x3d6392e1	0.055559997
163	0xbdbf78dd	-0.09349225
164	0xbd605e73	-0.054777574
165	0xbd61c272	-0.055117078
166	0x3bcd8aa9	0.006272633
167	0xbd36d51d	-0.044636834
168	0x3ccf6077	0.025314553
169	0x3ca2a69c	0.019854836
170	0xbc7444d0	-0.014908984
171	0x3b11e122	0.0022259434
172	0x3d3c8449	0.046024594
173	0x3c0a7805	0.008451466
174	0x3d1b74eb	0.0379533
175	0x3d5e5c5e	0.054287307
176	0x3babf4ec	0.005247703
177	0x3d072011	0.032989565
178	0xbd4e3dc6	-0.05035188
179	0xbcba5396	-0.022744935
180	0x3c40bb60	0.011763424
181	0x3d88e315	0.066839375
182	0xbd334c77	-0.043774094
183	0xbbde3f16	-0.006782423
184	0xbd04fb3e	-0.032466166
185	0x3c83c6bc	0.016085975
186	0x3cbf2ab3	0.02333579
187	0xba082e83	-0.0005194919
188	0x3ba124b1	0.004917704
189	0x3c63925f	0.013889878
190	0xbcfc8d75	-0.03082917
191	0x3ca444a5	0.020052264
192	0xbc46c95b	-0.012132968
193	0xbd90b19c	-0.07065126
194	0xbd948dad	-0.07253585
195	0x3cb17b1e	0.021665152
196	0xbd23e00e	-0.040008597
197	0x3d030f18	0.031996816
198	0xbd6eefdd	-0.05833422
199	0xbd907563	-0.0705364
200	0x3cb72ae6	0.022359323
201	0x3d31ba65	0.04339065
202	0xbd5313ff	-0.05153274
203	0xbd8f2a15	-0.069904484
204	0xbd78f677	-0.060781922
205	0x3d587ed1	0.052855317
206	0x3d22619c	0.03964387
207	0xbdcc9694	-0.09989658
208	0x3c80d88d	0.01572826
209	0xbda78d91	-0.081812985
210	0x3bf20a1c	0.007386459
211	0xbc4f0f0b	-0.012637864
212	0x3c3eb450	0.01163967
213	0x3d4b302f	0.0496065
214	0xbd853eb0	-0.06506097
215	0xbd326105	-0.043549556
216	0xbbc4e6e4	-0.0060089696
217	0x3c984d3c	0.018591516
218	0x3d1bd31a	0.03804312
219	0xbd311dd2	-0.04324133
220	0xbcb862fc	-0.022508137
221	0xbdb46e77	-0.08810132
222	0x3dbcc438	0.09217113
223	0xbcbc56de	-0.02299064
224	0xbd1d9bbb	-0.038478594
225	0x3d26b354	0.040698364
226	0xbd013988	-0.031549007
227	0x3b16de7e	0.00230208
228	0x3ca70cf8	0.020391926
229	0xbd029c6f	-0.031887468
230	0x3c9b4327	0.01895292
231	0xbd80562b	-0.06266435
232	0x3d2bc411	0.04193503
233	0xbd96fdd2	-0.07372631
234	0xbda3e770	-0.080031276
235	0x3ba50799	0.005036306
236	0xbbc4e9ec	-0.006009331
237	0x3d6202c5	0.055178422
238	0x3c740d53	0.014895755
239	0x3d9ccee6	0.0765665
240	0xbaaca6c3	-0.0013172257
241	0x3d1fcde9	0.03901473
242	0xbd63aca0	-0.05558455
243	0xbdd46b71	-0.10372055
244	0x3d91eb19	0.071249194
245	0xbd8e3f5c	-0.069456786
246	0x3c3957e0	0.011312455
247	0x3d6e8e3e	0.05824112
248	0x3cd599e5	0.02607436
249	0x3d17caaf	0.03705853
250	0xbe241647	-0.16024123
251	0x3d33b1fc	0.04387091
252	0x3d3c4aa0	0.045969605
253	0xbd9479c5	-0.07249788
254	0x3b69acd3	0.003565599
255	0x3c86c55f	0.016451536

mlp1.2.bias f4 [100]
0	0xbe1cea07	-0.1532365
1	0xbda4b5c2	-0.0804248
2	0xbedf70c5	-0.43640724
3	0x3e637331	0.22211911
4	0xbc22b351	-0.009930448
5	0xbd6ee3e6	-0.05832281
6	0x3bae63ad	0.005321941
7	0x3e8ba1a4	0.2727176
8	0xbd5c3388	-0.05376008
9	0x3e0760c7	0.13220511
10	0x3ddcd7b3	0.10783329
11	0x3d5a92ec	0.053362772
12	0xbe6c35be	-0.23067376
13	0x3c8bdb7d	0.017072434
14	0x3e5dcb81	0.21659662
15	0x3ccf9bbd	0.025342816
16	0xbe2434e7	-0.16035806
17	0xbea7a582	-0.3274346
18	0xbe5aa6eb	-0.21352737
19	0xbe9f7aaa	-0.31148273
20	0xbca47daf	-0.020079462
21	0x3cbf9329	0.023385601
22	0xbc09a5e0	-0.008401364
23	0x3dabc52b	0.08387216
24	0x3dfdba1f	0.123890154
25	0xbf32504e	-0.69653785
26	0x3d735e27	0.059415963
27	0x3d3999e8	0.045312792
28	0xbdbdba31	-0.09264029
29	0xbe8b4ca4	-0.2720691
30	0x3c039019	0.008029961
31	0x3eba391e	0.36371702
32	0xbe056f33	-0.130307
33	0xbdcfa247	-0.10138374
34	0xbbeafad5	-0.007171015
35	0x3ea89771	0.3292804
36	0xbe80e5fd	-0.25175467
37	0x3b2a575d	0.0025992014
38	0x3d181ce8	0.037136942
39	0xbe12af09	-0.14324583
40	0xbd5ce070	-0.053924978
41	0x3d0518d8	0.032494396
42	0xbd92892a	-0.07155068
43	0xbd85a952	-0.06526436
44	0x3d0d9f45	0.03457572
45	0x3c8df08a	0.017326612
46	0x39fe85e4	0.00048546412
47	0xbf123f1e	-0.5712756
48	0x3d84b8e8	0.064805806
49	0x3c2f4c0c	0.010699283
50	0xbd790118	-0.06079206
51	0x3efb22c8	0.49049973
52	0xbd2adb21	-0.041712884
53	0x3d479f53	0.048735928
54	0xbd888206	-0.06665425
55	0xbc227ed0	-0.00991793
56	0xbe433328	-0.19062483
57	0x3af56c18	0.0018724231
58	0x3e3a407a	0.18188658
59	0xbe36908d	-0.17828579
60	0x3d8ecc6c	0.06972584
61	0xbd7f4046	-0.062317155
62	0x3d13dd23	0.036099564
63	0xbe275335	-0.16340335
64	0xbc93f244	-0.018059857
65	0xbd5ac301	-0.053408626
66	0x3cd96371	0.026536675
67	0x3db678df	0.08909773
68	0x3ede8ab4	0.43465197
69	0xbe9c3086	-0.3050577
70	0xbe8ca4d8	-0.27469516
71	0xbd3709c6	-0.044687055
72	0x3ccfeff1	0.025382968
73	0x3da02b4a	0.07820757
74	0xbda4dfd7	-0.080505066
75	0x3d5a132b	0.053240936
76	0xbdcd2b53	-0.10018029
77	0x3bc09794	0.0058774445
78	0xbb8c74ff	-0.004286408
79	0x3c8fbc7a	0.017545927
80	0xbe78acc2	-0.24284652
81	0x3d190d57	0.037366237
82	0xbe543940	-0.20724964
83	0xbda9548e	-0.08268081
84	0xbdb0b863	-0.08628919
85	0xbd9290fb	-0.07156559
86	0x3c6490f6	0.013950577
87	0xbe96847d	-0.29397956
88	0xbc72df1d	-0.014823702
89	0xbdf3f499	-0.11911888
90	0xbdb67844	-0.089096576
91	0xbd3e0256	-0.046388946
92	0xbde73e72	-0.112912074
93	0xbdbba7a6	-0.09162836
94	0xbb0502bf	-0.0020295826
95	0xbe3fba07	-0.18723308
96	0x3e7b34bb	0.24531834
97	0x3dc6d134	0.09707871
98	0xbdf5c0a7	-0.11999636
99	0xbd8a5277	-0.0675401

mlp2.0.weight f4 [100, 100]
0	0xbcd8e634	-0.026476957
1	0xbc840594	-0.016115941
2	0xbda9b68b	-0.082867704
3	0xbd9662e6	-0.07343082
4	0xbdc5e883	-0.09663489
5	0xbd86b975	-0.06578342
6	0xbdcf6d7f	-0.101283066
7	0x3d7d508b	0.06184439
8	0x3c92b0ba	0.017906535
9	0xbd0fe1ac	-0.035127327
10	0xbc82914f	-0.01593843
11	0xbd81094f	-0.063006036
12	0xbc86de69	-0.016463475
13	0x3ca68f5b	0.02033203
14	0xbe18eb60	-0.14933538
15	0x3cfab865	0.030605504
16	0xbc2c7f3d	-0.010528383
17	0x3c78a354	0.015175659
18	0x3de81fd5	0.113341965
19	0xbdafacaf	-0.08577859
20	0xbdc8f304	-0.098119766
21	0xbc788cca	-0.0151702855
22	0xbb8cc1e8	-0.0042955764
23	0xbd06ed2d	-0.032941032
24	0x3e2b3ca3	0.1672235
25	0x3d518309	0.051150355
26	0xbcce0357	-0.025148077
27	0x3d50b40d	0.05095296
28	0x3d9a5c0b	0.07537087
29	0xbd826093	-0.06366076
30	0x3d5c2d81	0.053754333
31	0x3ddc6190	0.10760796
32	0xbd315d7a	-0.043302037
33	0xbd3f5bb2	-0.046718307
34	0x3d27aa4d	0.040933896
35	0xba922eb1	-0.0011152831
36	0xbd122b4c	-0.035685822
37	0x3d3c742a	0.04600922
38	0x3daa0cee	0.083032474
39	0xbd484349	-0.048892293
40	0x3d5cb526	0.053883694
41	0xbdd11618	-0.10209292
42	0xbcb4e320	-0.022080958
43	0xbcf0588c	-0.029339097
44	0x3d43beef	0.04778951
45	0xbc8f67df	-0.017505584
46	0x3c39ac17	0.011332533
47	0x3d3a8d11	0.045544688
48	0x3d2cb307	0.04216292
49	0xbd4d474a	-0.050116815
50	0x3c573a43	0.013136449
51	0x3d5da69d	0.054113973
52	0x3d62cfdc	0.05537401
53	0x3c894d38	0.016760454
54	0xbc974bbb	-0.018468728
55	0xbd432392	-0.047641344
56	0xbc869d38	-0.01643239
57	0xbd957afb	-0.07298847
58	0xbcc4a7b4	-0.024005748
59	0xbd2885d1	-0.041143242
60	0x3dc28ee0	0.094999075
61	0xbd7080fa	-0.05871675
62	0xbd24d184	-0.040238872
63	0xbcad2d25	-0.02113969
64	0xbd2dba4a	-0.042413987
65	0xbe061ef6	-0.13097748
66	0x3c865952	0.016400013
67	0x3d063eb9	0.03277466
68	0x3d964af1	0.07338513
69	0xbd0fbc78	-0.035091847
70	0xbd935174	-0.0719327
71	0xbd48ed22	-0.049054272
72	0x3d2b2796	0.0417858
73	0xbd11f2ca	-0.035631932
74	0xbd967a88	-0.0734759
75	0xbd13e67a	-0.03610847
76	0x3c4b63f7	0.01241397
77	0xbd9a303e	-0.07528733
78	0x3cd4cf50	0.02597776
79	0xbd3d6d6e	-0.04624694
80	0x3c94117e	0.018074747
81	0x3c601baf	0.013678475
82	0x3d8ac70d	0.06776247
83	0x3d01916c	0.031632826
84	0xbd4857f8	-0.04891202
85	0x3d98532a	0.07437737
86	0xbbd1b9b5	-0.006400312
87	0xbda1c872	-0.0789956
88	0xba7c9c19	-0.00096362975
89	0x3cda88b0	0.026676506
90	0x3d6e94d5	0.058247406
91	0xbdb9bc83	-0.09069159
92	0x3c96e8f1	0.018421622
93	0xbcf03735	-0.0293232
94	0xbc64da30	-0.013968036
95	0x3d2572c7	0.040392663
96	0x3db219fc	0.086963624
97	0x3d828da1	0.0637467
98	0xbd5a6e38	-0.05332777
99	0x3da1295b	0.07869216
100	0xbca4efb9	-0.02013384
101	0xbdf07e71	-0.11742867
102	0xbd416f10	-0.047225058
103	0xbdf9af74	-0.12191668
104	0xba0c0969	-0.00053419784
105	0xbd297118	-0.04136762
106	0x3cd1b24f	0.02559772
107	0x3e08d1f4	0.13361341
108	0xbddb8eb1	-0.107205756
109	0x3e11cbe9	0.14237942
110	0xbdea08fe	-0.114274964
111	0xbd4fe099	-0.050751302
112	0xbd01b65a	-0.031668045
113	0x3dc385fd	0.095470406
114	0x3c9b9865	0.018993566
115	0x3dcad121	0.099031694
116	0xbde449d7	-0.11146896
117	0xbdb732b3	-0.08945217
118	0xbd9f96e0	-0.07792449
119	0xbd4b10e2	-0.049576648
120	0xbd856bd2	-0.06514706
121	0xbd05c8bc	-0.03266214
122	0x3d8cd214	0.06876007
123	0x3da1ebca	0.07906301
124	0x3dd8d857	0.105881386
125	0xbd85ae3d	-0.06527374
126	0xbd1ff7ea	-0.03905479
127	0x3dac341a	0.08408375
128	0x3d6fd4eb	0.058552664
129	0xbd63a804	-0.055580154
130	0x3d8a0269	0.06738741
131	0xbd6f1808	-0.058372527
132	0xbe09e461	-0.13466026
133	0x3dc0e6f9	0.094190545
134	0x3c779fdc	0.015113797
135	0x3c6878ac	0.014188927
136	0xbd9f46a9	-0.07777149
137	0xbd0678db	-0.0328301
138	0xbe009aac	-0.12559003
139	0x3d8f845f	0.0700767
140	0x3d57bec0	0.052672148
141	0xbc49b75b	-0.012311782
142	0x3da568a6	0.08076601
143	0x3d81ceef	0.063382976
144	0x3dd4ae67	0.10384827
145	0xbd989c39	-0.07451672
146	0x3bec6331	0.007213973
147	0xbe2d9e1a	-0.16954842
148	0xbd4ede4f	-0.05050498
149	0xbd42185a	-0.047386505
150	0xbd7b2e44	-0.06132342
151	0x3d5b278b	0.053504508
152	0x3c6d0a85	0.01446784
153	0xbdb76996	-0.08955686
154	0xbde11fa5	-0.10992364
155	0x3dfcc8e7	0.123430066
156	0x3c3df227	0.011593378
157	0x3dcf9197	0.10135191
158	0x3c5d1f38	0.013496213
159	0x3ce1cbf6	0.027563076
160	0x3c872d9f	0.016501246
161	0xbdb93f1a	-0.09045239
162	0xbd8ac760	-0.06776309
163	0xbd2192e3	-0.039446723
164	0xbdf824de	-0.12116407
165	0xbc87b102	-0.016563896
166	0x3dd62d43	0.10457852
167	0xbc99ac9f	-0.01875907
168	0x3e2c481a	0.1682438
169	0x397bab47	0.00024001031
170	0xbd457e06	-0.04821589
171	0xbdc05f5a	-0.09393187
172	0xbd3921d1	-0.045198265
173	0xbdbafba1	-0.09130026
174	0x3e057254	0.13031894
175	0x3dc0722d	0.09396777
176	0xbcb36cfd	-0.021902556
177	0x3d51d86d	0.05123179
178	0xbd56ea72	-0.05246968
179	0xbd17fa2a	-0.03710381
180	0x3bcb446f	0.0062032263
181	0x3d957ccc	0.07299194
182	0xbc478b4d	-0.012179208
183	0xbd50c3d3	-0.050968003
184	0xbda64611	-0.08118833
185	0xbbc6075c	-0.006043358
186	0x3d00198f	0.031274375
187	0xbe0839e0	-0.13303328
188	0xbe0ce74a	-0.13760105
189	0xbdfb9359	-0.12283964
190	0x3d4757ef	0.048667844
191	0x3da55ad0	0.08073962
192	0xbd8c8184	-0.06860641
193	0xbd6725ef	-0.05643266
194	0x3c97bb59	0.018521952
195	0xbd550a52	-0.052011795
196	0x3ded06ff	0.115736
197	0xba2cf2ff	-0.00065974885
198	0x3c2cd7e1	0.010549516
199	0x3b2c817c	0.0026322296
200	0xbd0aa451	-0.03384811
201	0x3d13fd30	0.03613013
202	0xbdb7ba60	-0.08971095
203	0xbcf3432a	-0.029695112
204	0x3d8c1742	0.068403736
205	0x3d06ab8a	0.032878436
206	0xbd991d1a	-0.07476254
207	0x3d250a90	0.040293276
208	0xbddd5ea8	-0.1080907
209	0xbd704839	-0.058662627
210	0x3d44c321	0.048037652
211	0x3c8a815c	0.016907386
212	0xbc9521d8	-0.018204615
213	0x3d3a3ede	0.04547011
214	0xbdb2b357	-0.087256126
215	0x3cecebf4	0.028921105
216	0xbdecfffa	-0.11572261
217	0xbd4c903c	-0.04994224
218	0x3c406bef	0.011744483
219	0xbc9c7db4	-0.019102909
220	0xbd5d8430	-0.054081142
221	0xb99152a4	-0.00027718127
222	0x3c88a921	0.01668221
223	0xbd9b8f03	-0.07595637
224	0xbd64c491	-0.055851523
225	0x3ceafea3	0.028685873
226	0xbc4f4f20	-0.012653142
227	0x3dbfa6d4	0.09357992
228	0xbd07bc43	-0.033138525
229	0x3cf21817	0.029552503
230	0x3d1027c1	0.035194162
231	0x3da09739	0.078413434
232	0xbdacd070	-0.08438194
233	0xbdee6054	-0.11639467
234	0x393fff49	0.0001831028
235	0xbd901d64	-0.07036856
236	0x3c37ce01	0.011218549
237	0x3cfc6a80	0.030812502
238	0xbd8bafd4	-0.06820646
239	0xbb96a7cb	-0.004597639
240	0xbd6756dc	-0.05647932
241	0x3d8b3291	0.06796754
242	0x3ccc72a9	0.024957018
243	0x3d587ed4	0.052855328
244	0x3d589320	0.052874684
245	0x3dd110ef	0.10208308
246	0xbccdd1e5	-0.0251245
247	0xbdb70eb7	-0.089383535
248	0x3d26cdd1	0.040723626
249	0x3d2da1ad	0.042390514
250	0x3be3c3c0	0.0069508255
251	0xbcdb84c1	-0.0267967
252	0x3d588f49	0.052871022
253	0xbdefdaac	-0.1171163
254	0xbc374f6e	-0.011188371
255	0x3d19bbab	0.03753249

mlp2.0.bias f4 [100]
0	0x3d581863	0.052757632
1	0x3e435c2f	0.19078134
2	0xbd7d0c5a	-0.061779357
3	0x3ce0d3dd	0.027444774
4	0x3df03fcd	0.11730919
5	0xbe9d4c61	-0.30722335
6	0xbe342e8d	-0.17595883
7	0x3e34a37c	0.1764049
8	0x3ea2e30a	0.31813842
9	0x3c81982e	0.015819635
10	0x3e4466a1	0.19179775
11	0xbec8211f	-0.3908777
12	0xbdf589b4	-0.119891554
13	0xbd58bf6d	-0.052916933
14	0xbcf65ae3	-0.030072635
15	0x3ee9cd4f	0.4566445
16	0xbdc7f5e1	-0.097636946
17	0xbd8e4c71	-0.06948174
18	0x3eb0be74	0.34520304
19	0xbd678f2c	-0.056533024
20	0xbc943e87	-0.018096222
21	0xbd8cfdaf	-0.06884324
22	0xbe11b2af	-0.14228319
23	0xbe3600bb	-0.17773716
24	0xbd7ac0ae	-0.06121891
25	0xbede70d3	-0.43445453
26	0xbd8e3e40	-0.06945467
27	0x3e258966	0.16165695
28	0x3e5c191c	0.21493953
29	0x3e8ed3ee	0.27896065
30	0x3e5fda89	0.21860708
31	0xbe4e7736	-0.20162663
32	0xbdfc07da	-0.12306185
33	0x3b34f158	0.0027609672
34	0x3d76f39e	0.060290925
35	0x3e39b9f7	0.18137346
36	0x3de00222	0.10937907
37	0xbe1a62fb	-0.1507682
38	0xbeca1d92	-0.39475685
39	0x3d62a9ac	0.055337593
40	0xbc490b84	-0.012270812
41	0xbdbcb0a8	-0.09213382
42	0xbda03f06	-0.07824521
43	0xbead9e65	-0.33909908
44	0x3d8e1e12	0.06939329
45	0x3f60b7a6	0.87780225
46	0x3c697279	0.014248484
47	0x3ee57abd	0.44820204
48	0x3db1b0eb	0.086763225
49	0x3d63713a	0.055527903
50	0x3e84b6a0	0.25920582
51	0xbc9a3025	-0.018821785
52	0xbdff496d	-0.12465177
53	0x3e176ddd	0.14788003
54	0x3ec1dec3	0.37865266
55	0xbefc5145	-0.49280754
56	0x3e72674c	0.23672217
57	0x3f019aef	0.50627035
58	0x3eb4930d	0.3526844
59	0xbdea8287	-0.11450677
60	0xbd265616	-0.04060944
61	0x3d4a35e0	0.049367785
62	0x3f82f70f	1.0231646
63	0x3f10e7de	0.566038
64	0xbea5f643	-0.32414445
65	0xbdc42648	-0.09577614
66	0xbb8dc89b	-0.0043268926
67	0x3eb766ba	0.35820562
68	0xbea1b3aa	-0.31582385
69	0xbd655cd9	-0.05599675
70	0x3dd4594c	0.103685945
71	0x3edc3bde	0.43014425
72	0x3e91b968	0.28461766
73	0xbe06d2d8	-0.13166368
74	0xbd907510	-0.07053578
75	0x3e05b461	0.1305709
76	0xbdcf392b	-0.10118326
77	0xbe14aa6a	-0.14518133
78	0x3d1fd72e	0.03902357
79	0xbea19b38	-0.31563735
80	0xbcb589d5	-0.02216045
81	0xbe3f8e3e	-0.18706605
82	0x3d991efd	0.07476614
83	0x3e9da53f	0.30790135
84	0x3ea13fb5	0.31493917
85	0xbc999906	-0.018749725
86	0x3e09ab29	0.13444199
87	0x3cef2bbd	0.02919566
88	0xbdb31942	-0.08745052
89	0xbea1069b	-0.31450352
90	0x3d804214	0.062626034
91	0x3d061ed8	0.03274426
92	0xbdee4879	-0.11634917
93	0x3ede0f50	0.43371058
94	0x3e824179	0.25440577
95	0xbdc2a08b	-0.095032774
96	0xbcbad214	-0.022805251
97	0x3ed816dd	0.42204943
98	0x3e3c5dd8	0.18395174
99	0xbd29190e	-0.04128366

mlp2.2.weight f4 [50, 100]
0	0xbde06dcd	-0.10958443
1	0xbd99f47e	-0.07517336
2	0x3d3986cb	0.045294564
3	0x3dc2fc77	0.0952081
4	0xbdbeea2a	-0.09322007
5	0x3cf024fb	0.029314509
6	0xbcad489a	-0.021152783
7	0x3c675c7b	0.01412117
8	0x3bee92b7	0.0072806734
9	0xbdea6899	-0.11445732
10	0x3d562fa6	0.052291535
11	0xbd4dd2e9	-0.050249968
12	0xbce1095f	-0.027470289
13	0xbd450772	-0.048102804
14	0xbcd40f37	-0.025886161
15	0x3dae0099	0.08496208
16	0x3c2d3f2b	0.010574142
17	0x3beda1c0	0.007251948
18	0x3de1d93c	0.11027762
19	0xbd09c589	-0.03363565
20	0xbdb59146	-0.08865599
21	0xbd91900d	-0.07107554
22	0xbd773b10	-0.06035906
23	0xbdf94669	-0.12171633
24	0x3c1aec23	0.009455713
25	0xbd7228ec	-0.059121057
26	0x3c5101e7	0.012756801
27	0x3d8cdced	0.06878076
28	0x3c315419	0.010823273
29	0xbb64fa48	-0.0034939218
30	0xbc03b7c6	-0.0080394205
31	0x3d1c5492	0.03816659
32	0xbb5e5c6a	-0.0033929595
33	0x3cd4345f	0.025903879
34	0x3e083e22	0.13304952
35	0x3bbe4c45	0.005807432
36	0xbde2730c	-0.110571
37	0xbd95ac8e	-0.07308303
38	0x3c11c6ca	0.008897493
39	0x3e4c075b	0.19924681
40	0x3d80d47a	0.06290527
41	0xbb7bc5ea	-0.0038417527
42	0x3cd66ced	0.026174987
43	0x3cbd435c	0.023103409
44	0xbde7bd51	-0.11315406
45	0xbd86a55f	-0.06574511
46	0xbd89cf84	-0.067290336
47	0x3cbdbd1a	0.02316146
48	0xbdc64b7a	-0.09682365
49	0x3d924642	0.07142307
50	0x3e16b641	0.14717962
51	0xbdd13f15	-0.1021711
52	0x3e06273c	0.13100904
53	0xbd9e73a7	-0.07736903
54	0x3c3a5ead	0.0113751115
55	0x3d584b8f	0.052806433
56	0xbdb86b22	-0.09004809
57	0xbe1fe1c0	-0.1561346
58	0xbd356772	-0.044288106
59	0x3cfcd01a	0.03086095
60	0x3ce5ada7	0.028036905
61	0x3d4b3bfe	0.04961776
62	0x3d1aa51e	0.037755124
63	0x3d372b22	0.04471887
64	0x3c025c70	0.007956609
65	0x3c984817	0.018589063
66	0x3c518f74	0.01279055
67	0x3e0d5c8d	0.13804837
68	0x3c3e537e	0.011616586
69	0xbcdc29ba	-0.026875366
70	0x3dd7fa00	0.105457306
71	0x3d3c8ae4	0.046030894
72	0x3dfc41d4	0.12317243
73	0x3d90eaf2	0.07076062
74	0x3d5b6690	0.053564608
75	0x3d166e52	0.036726303
76	0x3d083cdb	0.03326116
77	0x3dadd570	0.084879756
78	0xbd1b106b	-0.037857454
79	0x3e0f6461	0.14003135
80	0xbdab0692	-0.083508626
81	0x3d85acbb	0.06527086
82	0x3ddd9065	0.10818557
83	0x3dc83aef	0.09776866
84	0xbd0b2a1a	-0.033975698
85	0xbd226a7f	-0.039652344
86	0xbe0a52e4	-0.13508183
87	0xbda9384f	-0.08262693
88	0x3dbc91f9	0.092075296
89	0x3e8197a5	0.25311008
90	0xbaa79a40	-0.0012787059
91	0xbd322ba1	-0.04349864
92	0x3ab0b883	0.0013482723
93	0x3cbd85c5	0.023135075
94	0xbdc7f921	-0.097643144
95	0x3d5f37d1	0.05449659
96	0x3d906071	0.07049645
97	0xbda93310	-0.082616925
98	0xbcaa382c	-0.020778738
99	0x3b781847	0.0037856267
100	0xbd83a761	-0.06428409
101	0x3d822e47	0.06356483
102	0x3c5260d0	0.012840465
103	0xbd0c025d	-0.03418194
104	0xbd4aaf6a	-0.049483694
105	0x3d8e71c4	0.06955293
106	0x3d4e0d84	0.05030586
107	0xbdb40cdd	-0.08791516
108	0xbdb0e350	-0.086371064
109	0xbce33e3d	-0.027739638
110	0x38afe47d	8.3872095e-05
111	0x3d09550b	0.03352837
112	0x3dadff96	0.08496015
113	0x3d4575eb	0.04820816
114	0xbd70b3e4	-0.058765307
115	0x3d53d4a1	0.05171645
116	0xbd880a32	-0.066425696
117	0xbda2dfef	-0.07952868
118	0xbe0f656b	-0.14003532
119	0xbd635ade	-0.05550658
120	0x3d12260b	0.03568081
121	0xbd42d42a	-0.047565617
122	0xbd7b5c49	-0.061367307
123	0x3dbfcffc	0.09365842
124	0x3d024d4c	0.031811997
125	0xbd658770	-0.056037366
126	0xbd38b750	-0.045096695
127	0xbd669d99	-0.05630264
128	0xbdcf3ca2	-0.10118987
129	0x3dd55180	0.104159355
130	0xbda363a9	-0.07977993
131	0x3da05ca0	0.07830167
132	0x3d0d6cc4	0.034527555
133	0xbdcdf43f	-0.10056352
134	0xbe29a9f3	-0.16568737
135	0x3d97c6e8	0.07410985
136	0x3d30a013	0.04312141
137	0x3d82d246	0.06387763
138	0xbb7e01ff	-0.0038758514
139	0xbe212eab	-0.15740459
140	0x3d862016	0.06549089
141	0x3d5c1219	0.053728197
142	0xbc490e00	-0.012271404
143	0x3db938ba	0.09044023
144	0xbd98e473	-0.07465448
145	0xbe33702d	-0.1752326
146	0xbd13e50c	-0.036107108
147	0x3d3f16f9	0.046652768
148	0xbd8414ac	-0.06449255
149	0x3d9bb42d	0.07602725
150	0xbdddfecd	-0.10839615
151	0x3de39279	0.11111922
152	0x3da7a2fe	0.08185385
153	0x3d197362	0.037463553
154	0xbdc0fafc	-0.094228715
155	0x3d737b98	0.05944404
156	0x3de54edd	0.111966826
157	0xbd5f43be	-0.054507963
158	0xbd6d42b8	-0.057924956
159	0x3c9d8892	0.01923016
160	0xb9de5144	-0.00042403687
161	0x3dd362c1	0.1032157
162	0xbe15de6f	-0.14635633
163	0x3d8d9a84	0.06914237
164	0x3d81d9de	0.06340383
165	0xbc804467	-0.015657617
166	0xbbbbf6e1	-0.0057362174
167	0xbdb3c3ff	-0.08777618
168	0x3d9eb626	0.07749586
169	0xbc636b1b	-0.013880516
170	0xbd44719b	-0.047959905
171	0x3c22905a	0.009922111
172	0xbc1bfce8	-0.009520747
173	0x3c3b61f2	0.011436926
174	0xbd3afcea	-0.045651354
175	0x3d19c946	0.037545465
176	0x3c108a0d	0.008821976
177	0xbd9a2e7d	-0.07528398
178	0xbc337d4f	-0.010955169
179	0x3dba192f	0.09086835
180	0x3d396874	0.04526563
181	0xbdb31caa	-0.087457016
182	0xbc444d6a	-0.011981348
183	0x3d844afe	0.06459616
184	0xbdff5c2b	-0.124687515
185	0xbcce02c7	-0.025147809
186	0xbc5ebf41	-0.013595403
187	0x3dcc6f64	0.099821836
188	0x3d6359f4	0.055505708
189	0x3ac25a4f	0.001482794
190	0xbd37865e	-0.044805877
191	0xbde5b7b3	-0.112166785
192	0x3de47704	0.11155513
193	0xbd767b5f	-0.06017625
194	0x3e254c12	0.161423
195	0xbdd396f4	-0.103315264
196	0x3da6c230	0.08142507
197	0x3da59e16	0.08086793
198	0xbcc5492e	-0.024082746
199	0xbd697263	-0.056993853
200	0x3da5d6b1	0.0809759
201	0x3dfa11dc	0.12210438
202	0xbd08596c	-0.033288404
203	0x3d95edc5	0.073207416
204	0x3d60b114	0.054856375
205	0xbdbc25b4	-0.09186879
206	0x3d9b1c06	0.075737044
207	0xbd3adeaf	-0.045622524
208	0xbd634006	-0.05548098
209	0x3d17864e	0.036993317
210	0xbcc590b6	-0.024116855
211	0xbe261012	-0.16217068
212	0xbd693f8f	-0.05694538
213	0x3d884aff	0.06654929
214	0xbd887f72	-0.06664933
215	0xbc6fb233	-0.014629888
216	0xbdb9ba12	-0.09068693
217	0xbd4cead5	-0.05002864
218	0x3dc2ac34	0.095055014
219	0xbd55685c	-0.052101478
220	0x3e01c12c	0.12671345
221	0x3cb60de2	0.022223417
222	0xbddc8750	-0.10767996
223	0x3d569c51	0.05239517
224	0xbd34c771	-0.044135515
225	0xbe10c1b4	-0.14136392
226	0x3c2611d6	0.010136088
227	0xbd94fcac	-0.07274756
228	0xbd80037f	-0.06250667
229	0x3bc54dcc	0.006021237
230	0x3d2d18df	0.042260047
231	0xbdfde651	-0.12397445
232	0x3cd73f98	0.026275441
233	0x3d0e615b	0.034760814
234	0x3dd844f1	0.105600245
235	0xbdea4e61	-0.11440731
236	0xbdf97316	-0.12180154
237	0x3c48e924	0.012262616
238	0x3c803485	0.015650043
239	0x3d24f9ea	0.0402774
240	0xbdc55ce3	-0.09636857
241	0xbd2f73a3	-0.04283489
242	0xbdfaa95a	-0.122393325
243	0x3c068761	0.008210988
244	0xbc20945f	-0.009800999
245	0x3e3b387e	0.18283269
246	0xbdb8ddc4	-0.090266734
247	0xbdb68da4	-0.089137346
248	0xbc6ce08b	-0.014457832
249	0xbdc43ced	-0.09581933
250	0x3d77d808	0.060508758
251	0x3d8da1c2	0.069156185
252	0xbd3e7907	-0.04650214
253	0xbc91b726	-0.017787527
254	0xbdb13121	-0.08651949
255	0xbd1306e8	-0.03589526

mlp2.2.bias f4 [50]
0	0xbc9dadd3	-0.019247925
1	0xbe722205	-0.2364579
2	0x3e63f989	0.22263159
3	0xbe62e68e	-0.22158262
4	0x38f6cc79	0.0001176828
5	0xbe6d93fc	-0.23200983
6	0xbefb1b20	-0.49044132
7	0x3eae1d47	0.34006712
8	0xbe9efb0f	-0.31050918
9	0xbe3e1fed	-0.18566866
10	0xbe49b248	-0.19696915
11	0xbea9ad7d	-0.33140174
12	0xbe4f13f7	-0.2022246
13	0x3e02dcb1	0.127795
14	0x3e81b332	0.25332028
15	0xbe6b793f	-0.2299547
16	0x3ec1180a	0.37713653
17	0xbe805acb	-0.2506927
18	0x3ecc606e	0.3991732
19	0xb9a8d4b9	-0.00032201948
20	0x3d8787d5	0.06617705
21	0xbe582456	-0.21107611
22	0x3d0ae735	0.033911902
23	0xbeb9cb9c	-0.36288154
24	0xbdc907eb	-0.09815963
25	0x3e10ab36	0.14127812
26	0xbd90b211	-0.070652135
27	0xbedc22ae	-0.42995209
28	0x3dba5ce1	0.090997465
29	0x3d9e67d6	0.07734649
30	0x3eed4483	0.46341333
31	0xba2aa720	-0.0006509889
32	0xbe4289bd	-0.18997855
33	0x3e225671	0.15853287
34	0xbdca705e	-0.098847136
35	0xbe57b8c6	-0.21066579
36	0x3ed48663	0.4150878
37	0x3f48f43e	0.78497684
38	0x3e808326	0.25100058
39	0xbec20c1a	-0.37899858
40	0xbea59d01	-0.32346347
41	0x3d149dac	0.03628318
42	0x3b83a962	0.0040179947
43	0x3dbb1173	0.091341875
44	0xbe97805f	-0.29590127
45	0x3df6d2bc	0.12051913
46	0x3d224bad	0.03962295
47	0x3de9ad04	0.11409953
48	0x3f21a95e	0.6314906
49	0x3d8caf74	0.068694025

attention.0.weight f4 [100, 100]
0	0x3db26da5	0.08712319
1	0xbb92adba	-0.004476276
2	0xbdd34f6b	-0.10317882
3	0x3df6ddc2	0.12054016
4	0x3ce5bb36	0.02804337
5	0xbe07c9b6	-0.1326054
6	0x3d2a4b0f	0.041575488
7	0xbd612e39	-0.054975722
8	0x3d212f12	0.03935153
9	0x3cdf2675	0.027240017
10	0x3e63fc36	0.2226418
11	0x3d34e057	0.04415926
12	0xbd246094	-0.040131167
13	0x3d3f7010	0.04673773
14	0x3dd8ceb2	0.10586299
15	0xbe003a26	-0.12522182
16	0xba00204f	-0.0004887627
17	0xbdfde806	-0.123977706
18	0x3d0a3890	0.03374535
19	0xbd7fc494	-0.06244333
20	0x3ce0e18d	0.027451301
21	0x3d42758e	0.04747539
22	0xbc5f60b1	-0.013633893
23	0xbdd178eb	-0.102281414
24	0xbe1e2750	-0.15444684
25	0xbd974c3c	-0.073875874
26	0xbd5376ea	-0.051627077
27	0xbe344ca6	-0.17607364
28	0xbdbb71a6	-0.09152536
29	0x3d66f5de	0.05638682
30	0xbdef2e7c	-0.11678788
31	0xbe9fa4aa	-0.31180316
32	0xbd497d6f	-0.04919189
33	0x3d62d52b	0.055379074
34	0xbc03f01b	-0.008052851
35	0x3da0077f	0.0781393
36	0x3cd33483	0.025781875
37	0xbc9567a5	-0.018237898
38	0xbd8a4fd5	-0.06753508
39	0xbcf95157	-0.030434294
40	0x3daebe1d	0.08532355
41	0xbd5ac56e	-0.05341094
42	0x3c40b362	0.011761518
43	0x3cbc947e	0.023020025
44	0x3c7d34bd	0.015454468
45	0xbddc9746	-0.107710406
46	0x3c6c235c	0.014412727
47	0xbe547920	-0.2074933
48	0xbd036d77	-0.032086816
49	0x3d396031	0.04525775
50	0x3db2139f	0.08695149
51	0xbd351146	-0.044205926
52	0x3d1cd960	0.038293242
53	0xbe1925be	-0.14955804
54	0xbdb03fb3	-0.086059
55	0x3cb27be5	0.021787593
56	0xbd863109	-0.065523215
57	0x3d5e65fa	0.05429647
58	0x3db6cbcb	0.08925589
59	0xbcedbed4	-0.029021658
60	0x3dab8a4c	0.083759874
61	0xbce2d9a3	-0.027691668
62	0x3c8c646c	0.017137729
63	0xbe022eb1	-0.12713124
64	0xbd60a307	-0.054842975
65	0xbd8767d8	-0.066116035
66	0xbd2ce2c3	-0.042208444
67	0xbdcafeaa	-0.099118546
68	0xbcc77298	-0.024346635
69	0xbe19beb8	-0.1501416
70	0x3cf722da	0.030167986
71	0xbb687fd2	-0.0035476577
72	0x3d8da4f9	0.06916232
73	0x3c052825	0.008127247
74	0xbd97800d	-0.073974706
75	0x3cc52a93	0.024068153
76	0xbd4cd707	-0.050009754
77	0x3ca8d6ac	0.020610176
78	0xbc793840	-0.015211165
79	0xbd5054a0	-0.050861955
80	0x3d6a86b4	0.05725737
81	0x3d0a3424	0.03374113
82	0xbdf2ad72	-0.11849488
83	0xbd0d19de	-0.034448497
84	0xbd121a72	-0.03566975
85	0xbd4decb3	-0.050274562
86	0x3a1719f2	0.0005764059
87	0xbd7bc649	-0.061468396
88	0x3de25835	0.110519804
89	0x3d9c6fc3	0.07638504
90	0x3cf924d6	0.030413073
91	0x3d859d66	0.06524162
92	0x3c763b67	0.015028811
93	0xbdc87399	-0.097876735
94	0xbdab4b26	-0.08363943
95	0xbd402795	-0.04691275
96	0xbcdd3c67	-0.027006341
97	0xbd14cbd3	-0.036327194
98	0x3b982d6a	0.0046440857
99	0xbd85df22	-0.065367
100	0xbdb7f89d	-0.08982966
101	0xbd7770bd	-0.06041025
102	0x3d04843f	0.032352682
103	0x3cf32b76	0.02968381
104	0xbcb07890	-0.021541864
105	0x3d9d35c8	0.076762736
106	0x3d5e5cf9	0.054287884
107	0x3bca2a81	0.0061696176
108	0x3dc1b465	0.09458236
109	0xbcca17eb	-0.024669608
110	0x3d951e23	0.07281139
111	0xbd660c9a	-0.05616436
112	0xbcb6a9ec	-0.022297822
113	0x3d91f84b	0.07127436
114	0x3da0672c	0.078321785
115	0xbd87b722	-0.06626727
116	0xbd7c9cef	-0.0616731
117	0x3ccea36c	0.02522441
118	0xbd73d993	-0.059533667
119	0xbcfc2649	-0.030779975
120	0xbd3505df	-0.044195052
121	0xbbd08047	-0.006362948
122	0xbd0f5a94	-0.03499849
123	0x3dcbcb09	0.09950835
124	0xbe000ce0	-0.12504911
125	0xbdd95dd8	-0.106136024
126	0xbd6011f3	-0.054704618
127	0xbdd0be0f	-0.10192501
128	0x3ca08bb9	0.019597875
129	0x3d1964db	0.0374497
130	0xbd623cc7	-0.055233743
131	0xbd4ba746	-0.04972007
132	0xbd912e77	-0.070889406
133	0x3d59dc14	0.0531884
134	0x3d469bb0	0.04848832
135	0xbcd9f159	-0.026604341
136	0xbb29811a	-0.0025864304
137	0x3c915ca3	0.017744368
138	0x3d8fa597	0.07014006
139	0x3ca943f9	0.020662295
140	0x3bf7ff4d	0.007568276
141	0xbdbbf395	-0.09177319
142	0xbd9d7b82	-0.07689573
143	0x3dc42646	0.095776126
144	0x3d56eb26	0.05247035
145	0xbdc4af51	-0.096037515
146	0xbcfde952	-0.030995045
147	0xbd6780d5	-0.05651935
148	0xbb267a37	-0.0025402436
149	0xbba0918f	-0.0049001644
150	0x3cd928be	0.026508685
151	0xbdb2fc9c	-0.08739588
152	0x3db0da80	0.086354256
153	0xbddc6f49	-0.107634135
154	0xbd340eb0	-0.04395932
155	0x3c9959d9	0.0187196
156	0xbd64fbaf	-0.055904087
157	0xbd8c43c2	-0.06848861
158	0x3b8b18b6	0.004244889
159	0xbdbb5c7b	-0.091484986
160	0xbdc7be01	-0.09753037
161	0xbdc888a6	-0.097916886
162	0xbb77edd8	-0.0037830975
163	0xbcabe7a0	-0.02098447
164	0xbdb37c58	-0.08763951
165	0x3c54aaea	0.012980202
166	0xbd70725c	-0.05870281
167	0x3c1f2f90	0.00971593
168	0x3d82e66a	0.06391604
169	0xbd5c4969	-0.053780947
170	0xbc171bf0	-0.009222969
171	0xbdcefefe	-0.1010723
172	0xbcf9154d	-0.030405665
173	0xbc8080ff	-0.01568651
174	0xbdb7d174	-0.08975497
175	0x3d00f5e6	0.031484507
176	0x3cab06dc	0.020877294
177	0xbc0f3169	-0.008739808
178	0x3dafc0cf	0.08581697
179	0xbd0fd37f	-0.035113808
180	0xbca04cd0	-0.019567877
181	0x3c5752f8	0.01314234
182	0x3db10f82	0.08645536
183	0xbd794831	-0.060859863
184	0xbb381277	-0.0028087178
185	0x3daca876	0.08430569
186	0xbdb89443	-0.09012654
187	0x3b495573	0.0030721098
188	0x3ddbe468	0.107369244
189	0x3d9a14a7	0.0752347
190	0xba8382df	-0.001003351
191	0xbd58a6ad	-0.05289333
192	0x3d76c06a	0.060242094
193	0xbd826dcb	-0.063685976
194	0xbdf2dd94	-0.11858669
195	0xbdc19a83	-0.09453299
196	0xbd188376	-0.037234746
197	0x3d84f1f5	0.06491462
198	0x3d927ea3	0.0715306
199	0x3d9f6f9c	0.0778496
200	0xbd6bb42f	-0.057544883
201	0xbcb976d5	-0.022639671
202	0xbc0a649c	-0.008446839
203	0x3cb3ca1b	0.021946957
204	0xbc79ee1e	-0.0152545255
205	0x3dd50910	0.10402119
206	0x3ceb78c4	0.028744109
207	0x3d8d6c30	0.06905401
208	0x3cddcc55	0.027074972
209	0x3cbb17e5	0.022838542
210	0x3b11bdea	0.0022238442
211	0xbc0ad9e0	-0.008474797
212	0xbc568fbe	-0.013095794
213	0xbd279044	-0.040909067
214	0x3dca80a1	0.09887815
215	0x3cd81658	0.026377842
216	0x3c3c3aca	0.011488626
217	0xba86fd5e	-0.0010298898
218	0xbbba81d3	-0.005691746
219	0x3d2b1970	0.041772306
220	0x3c8ab3f4	0.016931511
221	0xbcc295ac	-0.02375301
222	0x3ce2a1a1	0.027664961
223	0x3d0677cc	0.03282909
224	0xbc97e52d	-0.018541897
225	0x3d5eb105	0.054368038
226	0x3d5df44e	0.054188065
227	0xbd6748c8	-0.056465894
228	0xbcabf903	-0.020992761
229	0xbdefccfc	-0.117090195
230	0xbdb5448d	-0.08850966
231	0xbd6d5583	-0.05794288
232	0x3d19949f	0.03749525
233	0x3d2e2f86	0.04252579
234	0xbd8a62bb	-0.067571126
235	0xbda135fb	-0.07871624
236	0xbdf0a077	-0.11749356
237	0xbd852aba	-0.0650229
238	0xbc9465e6	-0.018114995
239	0x3d177b69	0.036982927
240	0xbd992458	-0.07477635
241	0x3dcce1d4	0.10004011
242	0x3dade6a3	0.08491256
243	0x3b95b8f9	0.0045691696
244	0xbdc2d4e0	-0.09513259
245	0x3c70acde	0.014689652
246	0xbd42dd2e	-0.047574215
247	0xbd3ed9f8	-0.04659459
248	0xbd91472b	-0.07093652
249	0xbc299196	-0.010349652
250	0xbdbbf0ff	-0.09176826
251	0x3ce63d66	0.028105449
252	0x3b4dfae8	0.003143007
253	0xbdf2a181	-0.11847211
254	0x3cbc729c	0.023003869
255	0x3b9d2a61	0.0047963117

attention.0.bias f4 [100]
0	0x3d8a33ac	0.06748137
1	0xbccae2d2	-0.02476636
2	0x3d948d4e	0.07253514
3	0x3ca5d916	0.020245116
4	0xbd3bceee	-0.04585164
5	0x3d3aabb2	0.045573898
6	0x3dd185b4	0.1023058
7	0x3cb8f5d4	0.022578157
8	0xbd4f0f82	-0.0505519
9	0x3d0779fc	0.033075318
10	0xbb93b126	-0.0045072017
11	0x3d61ee2c	0.05515878
12	0xbd577575	-0.05260225
13	0x3d55ca7d	0.05219506
14	0x3d623664	0.055227652
15	0x3db2e5cb	0.08735236
16	0xbdab35f5	-0.08359901
17	0x3da133d6	0.07871215
18	0x3e0ae04a	0.13562122
19	0x3daf05b0	0.08546007
20	0xbe077be6	-0.13230857
21	0x3de734e9	0.11289389
22	0x3cb27c84	0.02178789
23	0x3da36b68	0.079794705
24	0x3d3bbb9f	0.045833226
25	0xbd2f84fd	-0.042851437
26	0xbda66e80	-0.08126545
27	0x3cd33337	0.025781257
28	0x3db7fc0f	0.08983623
29	0xbe2ae86b	-0.16690223
30	0xbdfcbf2c	-0.12341151
31	0xbc15987e	-0.009130595
32	0xbb4c7ee3	-0.003120356
33	0x3e4d1ff5	0.20031722
34	0xbd820e71	-0.06350411
35	0xbdb3c1e3	-0.08777215
36	0x3d3226aa	0.043493904
37	0xbddefe3c	-0.10888335
38	0x3c543f10	0.012954488
39	0xbd63363c	-0.055471644
40	0xbdb45c95	-0.08806721
41	0x3dd60f25	0.10452107
42	0xbd213c36	-0.039364062
43	0x3db0dab0	0.08635461
44	0x3b7cca89	0.0038572869
45	0xbcb1a610	-0.02168563
46	0x3dab3a88	0.08360773
47	0x3cf23ee4	0.029571004
48	0xbd44766d	-0.047964502
49	0x3b137bd3	0.0022504225
50	0x3b45aa3f	0.003016129
51	0xbdb38b93	-0.08766856
52	0xbbed51e2	-0.007242427
53	0xbe244d7c	-0.16045183
54	0x3d63f6c8	0.05565527
55	0xbdce5223	-0.1007426
56	0xbe13d4f5	-0.14436705
57	0xbc89f523	-0.016840523
58	0xbd00bedb	-0.031432014
59	0xbd9a9cce	-0.07549439
60	0x3df3841c	0.11890432
61	0xbdc184cb	-0.094491564
62	0xbb0c976c	-0.002145256
63	0x3e3c7471	0.18403794
64	0x3daaad37	0.08333819
65	0x3df998cb	0.12187346
66	0xbd1a40eb	-0.037659567
67	0xbd8464e0	-0.06464553
68	0x3d04e033	0.032440376
69	0x3be241df	0.006904825
70	0xbde01aa6	-0.10942583
71	0xbc08fea6	-0.008361494
72	0x3c846cca	0.016165156
73	0x3b452516	0.003008192
74	0xbc99ad78	-0.018759474
75	0x3d58fd46	0.052975915
76	0xbd8471d5	-0.06467024
77	0x3dc28fbb	0.09500071
78	0xbcf9ff46	-0.030517232
79	0x3cb47609	0.02202894
80	0x3d73a0da	0.059479572
81	0xbcbe13ae	-0.023202743
82	0xbd4a6597	-0.04941329
83	0xbc8568ee	-0.016285386
84	0x3e086dd8	0.13323152
85	0xbcf0f3ab	-0.029413065
86	0xbdd4eedd	-0.10397122
87	0x3c6559f3	0.013998496
88	0x3c0121ba	0.007881576
89	0xbd8fdb44	-0.070242435
90	0xbe242f1b	-0.16033594
91	0x3e50cc89	0.20390524
92	0x3cdce0c9	0.026962655
93	0xbd7218ec	-0.0591058
94	0xbb04d540	-0.0020268708
95	0xbda62420	-0.08112359
96	0xbd8ca0c9	-0.06866605
97	0x3c529cbe	0.012854753
98	0x3be299c0	0.006915301
99	0xbd6a1c32	-0.057155795
