sarl_star_ros/CrowdNav/crowd_nav/data/output_mateo_semicircle_goals_rfor/rl_model.pth (torch_old, 349196 bytes, 20 tensors)

mlp1.0.weight f4 [150, 13]
0	0xbe52ff42	-0.20605186
1	0xbe081e4b	-0.13292806
2	0x3f03d4db	0.51496667
3	0x3eb9df0b	0.3630298
4	0xbd31e537	-0.043431487
5	0x3e591046	0.21197614
6	0xbe63009c	-0.22168201
7	0x3e8e4e11	0.27793935
8	0x3f0e4155	0.5556844
9	0x3f24fd90	0.64449406
10	0x3caa2fc1	0.020774724
11	0xbf07dfbc	-0.53075767
12	0x3ec3d0dc	0.38245285
13	0xbe67ebd5	-0.22648557
14	0xbde3b1c4	-0.111178905
15	0xbdd33780	-0.1031332
16	0x3d96f3c8	0.07370716
17	0x3e71b21e	0.23603103
18	0x3dd529d4	0.10408369
19	0xbc188040	-0.009307921
20	0x3df09a48	0.11748177
21	0xbe7f3088	-0.24920857
22	0x3e100c04	0.14067084
23	0xbe824329	-0.25441864
24	0xbe12632a	-0.1429564
25	0xbddb9778	-0.1072225
26	0xbdddd0a1	-0.108308084
27	0xbd4ec597	-0.050481405
28	0x3f1c3dd2	0.6103183
29	0xbdb7294e	-0.08943425
30	0xbf0436e3	-0.5164625
31	0x3f099a25	0.5375083
32	0x3e6b5235	0.22980578
33	0xbee06b76	-0.43831986
34	0xbc960623	-0.018313473
35	0x3f5423cf	0.8286714
36	0x3e9af394	0.3026396
37	0xbf51a666	-0.8189453
38	0x3de28722	0.11060931
39	0xbec10a74	-0.37703288
40	0xbea164e7	-0.31522295
41	0xbf0dab51	-0.55339533
42	0xbe1203e9	-0.14259304
43	0xbdc3b96d	-0.095568515
44	0x3de23367	0.110449605
45	0xbd226173	-0.039643716
46	0xbd2f1794	-0.042747095
47	0xbdf76f6e	-0.120818004
48	0xbc6eee5c	-0.0145831965
49	0xbe77c853	-0.24197511
50	0x3e8e3675	0.27775922
51	0xbe99418b	-0.29932818
52	0xbe004f8e	-0.12530348
53	0x3e25c7a1	0.16189434
54	0xbe316c2b	-0.17326419
55	0xbddd79b9	-0.108142324
56	0xbe3a022c	-0.18164891
57	0x3d7bf36b	0.06151144
58	0xbcb640c4	-0.02224768
59	0x3cc2520b	0.023720762
60	0x3dc7eb21	0.09761644
61	0xbe65ba1e	-0.2243428
62	0x3e884cc2	0.26621062
63	0xbd2854fa	-0.041096665
64	0xbc1fc5d2	-0.009751754
65	0x3dccbad7	0.09996574
66	0x3eb7c9e9	0.35896233
67	0xbfa9e8f9	-1.3274223
68	0x3ea40a8a	0.3203929
69	0x3e5b454c	0.21413153
70	0xbf17df3a	-0.5932499
71	0xbe3b9b19	-0.18320884
72	0xbe8d281d	-0.27569667
73	0x3f08ce40	0.5343971
74	0xbec1abac	-0.37826288
75	0x3f029175	0.510032
76	0xbdd19229	-0.10232956
77	0x3f4c4091	0.7978602
78	0xbe9f9161	-0.31165603
79	0xbe3b14f8	-0.18269718
80	0x3e44c7f0	0.19216895
81	0xbe25a30c	-0.16175479
82	0xbd70b710	-0.058768332
83	0x3e32391c	0.17404598
84	0x3e1269c3	0.14298157
85	0x3eb13fd9	0.34619024
86	0x3edbcd25	0.4292995
87	0xbc896bc7	-0.016775025
88	0xbe0f8710	-0.14016366
89	0x3c8d9d88	0.01728703
90	0xbec244eb	-0.37943205
91	0xbe09718f	-0.13422225
92	0xbe04e0a7	-0.12976323
93	0x3d80b312	0.06284155
94	0xbe1e4abc	-0.15458196
95	0x3e0fa4da	0.1402773
96	0x3e24f720	0.16109896
97	0x3e1ff496	0.15620646
98	0xbeb09f22	-0.3449641
99	0xbe9391b0	-0.28822088
100	0xbe378c5c	-0.17924637
101	0xbdf45f3e	-0.119322285
102	0xbd7d166c	-0.06178896
103	0xbdae2946	-0.08503966
104	0xbe842ceb	-0.2581552
105	0x3e824811	0.25445607
106	0xbe88307c	-0.2659949
107	0xbe08054a	-0.13283268
108	0xbdf5f844	-0.120102435
109	0x3de1ba28	0.110218346
110	0xbe6c641d	-0.23085065
111	0x3dd5170e	0.10404788
112	0xbb5b2d21	-0.0033443647
113	0x3e3e32de	0.18574092
114	0x3c3050af	0.010761424
115	0xbe43f4f9	-0.19136418
116	0x3e5d3b89	0.21604742
117	0x3ead98a7	0.33905527
118	0xbe30dd38	-0.17271888
119	0xbf20c6bd	-0.6280325
120	0xbd8dac05	-0.06917576
121	0xbe39decc	-0.18151397
122	0xbe96c26e	-0.29445213
123	0xbde23ff8	-0.11047357
124	0x3ed83a1f	0.42231843
125	0xbd3803bf	-0.044925448
126	0xbdc7e9bf	-0.097613804
127	0xbe3bd7b5	-0.18344004
128	0xbe905a3e	-0.2819385
129	0x3e9b17e5	0.30291668
130	0xbde58125	-0.11206273
131	0xbf1281c8	-0.5722928
132	0x3eb62033	0.3557144
133	0xbeec5e62	-0.46165758
134	0xbed65ed7	-0.41869232
135	0x3f168979	0.58803517
136	0xbd4ed795	-0.050498564
137	0x3ca45608	0.020060554
138	0x3b344bde	0.002751104
139	0x3dedc456	0.11609714
140	0xbd44ffe5	-0.048095603
141	0x3e3af05f	0.18255757
142	0xbf49f2b7	-0.7888598
143	0xbdbb4c9a	-0.0914547
144	0xbdf186be	-0.11793278
145	0xbe633aa2	-0.22190335
146	0xbe0cc807	-0.1374818
147	0xbec478dd	-0.3837346
148	0x3e2cd17d	0.16876788
149	0x3e363245	0.17792614
150	0x3f157cd5	0.58393604
151	0x3dce3cb0	0.10070169
152	0x3eefc57a	0.4683035
153	0xbe0a3469	-0.13496555
154	0xbcd4826f	-0.025941102
155	0x3d89ad4d	0.067225076
156	0x3ef0fbf0	0.47067213
157	0xbcecdf37	-0.02891503
158	0xbe080b01	-0.13285448
159	0xbd07d77f	-0.033164497
160	0x3f0e2a5d	0.5553339
161	0x3e865d72	0.26243168
162	0xbe1a7861	-0.15084983
163	0x3d9a0936	0.07521288
164	0x3f815c20	1.0106239
165	0xbe46d1c3	-0.19415955
166	0x3e266b2b	0.16251819
167	0xbe89e514	-0.26932585
168	0xbdeff43a	-0.117165044
169	0xbe00fe65	-0.12597044
170	0x3d19552f	0.037434753
171	0xbe69e39f	-0.22840737
172	0xbe27f100	-0.16400528
173	0x3e1b34ee	0.1515691
174	0x3d30c24b	0.043154042
175	0x3cb09a7f	0.021558044
176	0x3ebb0de6	0.3653404
177	0xbe14c4df	-0.14528225
178	0x3ddfa9f8	0.10921091
179	0xbe7b3450	-0.24531674
180	0x3d314383	0.043277275
181	0xbe0b0d02	-0.13579181
182	0xbdc8b2d7	-0.09799736
183	0xbe021f87	-0.12707339
184	0x3c9b8b00	0.018987179
185	0x3e8014d9	0.25015905
186	0x3e96cafa	0.29451734
187	0xbe6a1f50	-0.22863507
188	0xbe563213	-0.2091754
189	0xbd87d86e	-0.066330776
190	0x3ea8e121	0.3298426
191	0x3e3838b0	0.17990375
192	0x3db83a46	0.0899549
193	0xbe6d7fb8	-0.23193252
194	0x3ea0124f	0.31263968
195	0xbe16d648	-0.1473018
196	0xbe5a1259	-0.21296062
197	0x3f008b5e	0.5021266
198	0xbe0cc013	-0.13745145
199	0x3d25245a	0.04031787
200	0x3ed10d40	0.4083042
201	0xbe5d482c	-0.21609563
202	0xbe101715	-0.14071305
203	0xbdea648d	-0.1144496
204	0xbe46ee65	-0.19426878
205	0xbf001fab	-0.5004832
206	0xbcd53ade	-0.026029047
207	0xbf5c0061	-0.8593808
208	0xbee7e38e	-0.45290798
209	0x3ca8a035	0.020584205
210	0xbef2585c	-0.47333038
211	0xbc180f26	-0.009280955
212	0x3c82f7e4	0.015987344
213	0xbd8055b0	-0.062663436
214	0xbd91306b	-0.07089313
215	0xbe940ddc	-0.28916824
216	0xbd2b440a	-0.041812934
217	0x3e1ad74e	0.15121195
218	0xbecfa268	-0.40553594
219	0x3e29a3eb	0.16566436
220	0xbee7edd1	-0.45298627
221	0xbe641b58	-0.22276056
222	0x3e5d3357	0.21601616
223	0xbbc5986b	-0.0060301325
224	0x3e870217	0.26368782
225	0x3e9b1b71	0.30294374
226	0xbdf5cae6	-0.120015904
227	0xbd58328b	-0.052782577
228	0x3e4b0cad	0.19829054
229	0xbd8ddd51	-0.069269784
230	0xbe9894bc	-0.29800975
231	0xbd2127d9	-0.039344642
232	0xbe8ab81e	-0.27093595
233	0x3e00039a	0.12501374
234	0x3ecd8262	0.40138537
235	0xbea98f9e	-0.33117384
236	0xbcc45d73	-0.023970341
237	0xbd56e629	-0.05246559
238	0xbe5c0214	-0.21485168
239	0x3eb32a0a	0.3499301
240	0xbef70948	-0.4824927
241	0xbc53d0b5	-0.012928178
242	0x3e154be7	0.14579736
243	0x3e3a79e0	0.18210554
244	0xbd18858c	-0.037236735
245	0xbd750f33	-0.05982895
246	0xbe9283c9	-0.2861617
247	0xbe05d65b	-0.13070051
248	0xbe8405fa	-0.2578581
249	0x3e9cb05a	0.30603296
250	0x3e346b7d	0.17619129
251	0x3eaee16c	0.34156358
252	0x3df0374a	0.117292956
253	0x3f0d0d94	0.55098844
254	0x3d7776fb	0.060416203
255	0x3eaf9b18	0.34298015

mlp1.0.bias f4 [150]
0	0x3e451f37	0.19250189
1	0x3bb8dbc0	0.0056414306
2	0xbe1ef3c4	-0.15522677
3	0xbe9e14aa	-0.3087514
4	0xbe76ce25	-0.24102075
5	0x3ee773c7	0.4520552
6	0x3dd8fb3e	0.10594796
7	0xbe59de5a	-0.21276227
8	0x3e9737cf	0.29534766
9	0xbe67edfe	-0.2264938
10	0xbe3aed19	-0.18254508
11	0x3e413851	0.18869139
12	0x3e4ba844	0.19888407
13	0xbe8c6311	-0.27419332
14	0x3e61f83d	0.22067352
15	0xbee1bc5c	-0.4408902
16	0xbec36ab8	-0.38167357
17	0xbc32329b	-0.010876323
18	0xbe419e39	-0.18908013
19	0xbe36939c	-0.17829746
20	0xbdde3ce2	-0.10851456
21	0x3d235a15	0.03988083
22	0x3df2ab2c	0.11849055
23	0xbdd36ded	-0.10323701
24	0xbdc6ceaa	-0.09707387
25	0xbe142175	-0.14465888
26	0xb9fca6fa	-0.00048189593
27	0xbd821cc1	-0.063531406
28	0xbe449424	-0.19197136
29	0xbe240175	-0.16016181
30	0xbde71752	-0.11283745
31	0x3d4876d9	0.048941467
32	0xbe327b46	-0.17429838
33	0x3ceae123	0.028671807
34	0x3d929b58	0.07158536
35	0x3e1b9b33	0.15195923
36	0xbd23b2ff	-0.039965626
37	0x3e71fb65	0.23631056
38	0xbcf6f0fe	-0.03014421
39	0xbe549c6e	-0.20762798
40	0x3d6eac7f	0.058269974
41	0x3e80a9d6	0.25129575
42	0xbe3535dd	-0.17696328
43	0xbcb2b468	-0.02181454
44	0xbe24239a	-0.16029206
45	0xbc6e417b	-0.014541979
46	0x3db8b09c	0.090180606
47	0xbd95ab84	-0.07308105
48	0x3e187f7e	0.14892384
49	0x3c9c6358	0.01909034
50	0xbe31b289	-0.17353262
51	0x3eb19179	0.346813
52	0xbdb399c5	-0.087695636
53	0x3c4c63e1	0.012474985
54	0x3e501b6d	0.20322962
55	0x3e0e18ec	0.13876694
56	0xbe168517	-0.14699207
57	0x3e9ab8aa	0.30219012
58	0x3deaf915	0.1147329
59	0xbe89cce4	-0.26914132
60	0xbec642cd	-0.3872284
61	0xbd4b6fc5	-0.04966714
62	0xbe30103b	-0.17193691
63	0x3ea121c8	0.31471086
64	0xbe37b538	-0.17940223
65	0xbd38f50d	-0.045155574
66	0x3d033013	0.03202827
67	0xbe552759	-0.20815791
68	0xbe214654	-0.15749484
69	0xbd8ed941	-0.06975032
70	0xbd0e0175	-0.03466936
71	0xbe621142	-0.22076896
72	0xbea4d593	-0.32194194
73	0x3dfe5ba0	0.1241982
74	0xbe557a64	-0.2084747
75	0xbe835d55	-0.25657144
76	0xbe4c6886	-0.19961748
77	0x3eb12268	0.34596562
78	0x3e70ec12	0.23527554
79	0xbeadd2ae	-0.33949798
80	0xbe393c66	-0.18089446
81	0xbdad8f2c	-0.084745735
82	0xbe1aff50	-0.15136456
83	0x3ccf4082	0.025299314
84	0xbeb32df3	-0.34995994
85	0xbea1fbed	-0.31637517
86	0x3cfaaed2	0.030600939
87	0x3eb6e851	0.35724118
88	0xbe089daa	-0.13341394
89	0xbe505299	-0.20344009
90	0xbce3fad0	-0.027829558
91	0xbe7f11e0	-0.24909163
92	0xbdccb84f	-0.099960916
93	0x3ee60912	0.44928795
94	0xbe5bcd59	-0.21465053
95	0xbe633ee2	-0.22191957
96	0x3d9f59d0	0.07780802
97	0x3e845675	0.2584721
98	0x3deb3b21	0.11485887
99	0x3eb224fe	0.34793848
100	0x3ea9a74e	0.33135456
101	0xbe6f4cd2	-0.23369148
102	0xbe186df2	-0.14885691
103	0x3e23ee1c	0.160088
104	0xbe44f02d	-0.19232245
105	0xbea5a45f	-0.32351968
106	0xbd96839e	-0.07349323
107	0xbee39cc7	-0.4445555
108	0x3ea9a0f5	0.33130613
109	0xbd49c150	-0.049256623
110	0x3ecc0016	0.39843816
111	0xbe98149c	-0.29703224
112	0x3dc0933b	0.09403082
113	0xbdd5f5a5	-0.104472436
114	0x3d63b2e6	0.055590533
115	0x3e3ab989	0.18234839
116	0xbe668dbe	-0.22515008
117	0xbdd8c409	-0.10584266
118	0xbe03ef37	-0.12884222
119	0x3dd9878a	0.10621555
120	0xbe16c4d9	-0.14723529
121	0xbe268985	-0.16263397
122	0xbd2d4214	-0.042299345
123	0xbea396c2	-0.31950957
124	0xbd358855	-0.04431947
125	0x3e2e8015	0.17041047
126	0x3e3d1478	0.1846484
127	0xbea46a9a	-0.3211258
128	0x3da1db01	0.079031
129	0xbe14d277	-0.14533411
130	0xbe6f712d	-0.23383017
131	0x3e401086	0.18756303
132	0x3e7b1302	0.2451897
133	0xbd9c463f	-0.07630586
134	0x3e4e6576	0.20155892
135	0xbe9b0235	-0.3027512
136	0xbe82664b	-0.25468668
137	0xbe30b9cb	-0.17258374
138	0x3d0a9df4	0.033842042
139	0x3bcf13ad	0.006319484
140	0xbeeca117	-0.46216652
141	0xbe047bf3	-0.12937908
142	0xbdde8de0	-0.10866904
143	0xbe51ebdf	-0.20500134
144	0xbe0c3b2d	-0.13694449
145	0xbeafb06b	-0.34314284
146	0x3ca190e8	0.019722417
147	0x3de1c1c8	0.11023289
148	0x3e050826	0.1299139
149	0xbebdb5bc	-0.37052715

mlp1.2.weight f4 [100, 150]
0	0x3dc27599	0.09495086
1	0xbd01d9b3	-0.031701755
2	0xbd202264	-0.039095297
3	0x3dc115b2	0.09427966
4	0xbd20f4f3	-0.0392961
5	0x3e0f215d	0.13977571
6	0x3bf67bec	0.007522097
7	0xbbe823ff	-0.007084369
8	0x3d22f7a9	0.03978697
9	0xbdd57d47	-0.104242854
10	0xbdb222de	-0.08698057
11	0x3ce2d229	0.027688103
12	0xbcca4bdd	-0.024694378
13	0x3c9eaeab	0.019370398
14	0x3d3d2cf2	0.04618544
15	0xbcff6db0	-0.031180233
16	0xbd588b55	-0.052867252
17	0x3d356c25	0.044292588
18	0xbddc1ab7	-0.10747283
19	0xbcd019e4	-0.02540297
20	0xbd7a2435	-0.061069686
21	0xbdb4db42	-0.088308826
22	0xbd1dd160	-0.038529754
23	0x3e1a721b	0.1508259
24	0xbd36cfd9	-0.044631813
25	0xbd34b788	-0.04412034
26	0xbcf89371	-0.030343743
27	0xbdc236c6	-0.094831035
28	0x3ce20956	0.027592342
29	0x3b331dbf	0.0027330962
30	0xbd0b1c2b	-0.03396241
31	0xbd533805	-0.051567096
32	0xbd0ae739	-0.033911917
33	0x3c6ede0d	0.014579308
34	0xbd987896	-0.07444875
35	0xbd38008c	-0.044922397
36	0x3b5a4cf4	0.0033310028
37	0xbd8c3596	-0.06846158
38	0xbd361d50	-0.04446155
39	0x3db84dc9	0.08999211
40	0x3db0bc44	0.08629659
41	0x3c96d80c	0.018413566
42	0x3d9c4c4c	0.0763174
43	0xbd141043	-0.03614832
44	0x3c00e574	0.007867206
45	0x3c4b3f53	0.012405234
46	0xbc05943a	-0.008153016
47	0xbcd9f053	-0.026603853
48	0xbe3a4c72	-0.18193224
49	0xbce109b3	-0.027470445
50	0xbe278454	-0.16359073
51	0x3c9870e8	0.018608525
52	0x3d84eec8	0.064908564
53	0xbdcb3db7	-0.099238805
54	0x3dcd67a2	0.10029532
55	0xbb959ff3	-0.0045661866
56	0x3dd24532	0.10267104
57	0xbe735d7f	-0.23766135
58	0x3d6a3123	0.057175767
59	0xbdce05d2	-0.10059704
60	0x3d7abb57	0.061213817
61	0x39ddbc54	0.0004229272
62	0x3e087cf4	0.13328916
63	0xbc02ee69	-0.007991412
64	0x3d10fcd1	0.035397355
65	0xbc9cd20f	-0.019143132
66	0xbd842302	-0.0645199
67	0x38416215	4.610613e-05
68	0x3d9d3cd2	0.07677616
69	0xbb3d30d9	-0.0028868227
70	0xbcc61268	-0.024178699
71	0xbe00772f	-0.12545465
72	0xbcba005c	-0.02270525
73	0xbba094ae	-0.0049005365
74	0xbd8999e6	-0.06718807
75	0xbd11723d	-0.035509337
76	0x3d7cd28e	0.061724238
77	0x3d83f43b	0.06443068
78	0xbe02b11a	-0.12762871
79	0xbda3617b	-0.07977577
80	0xbd682ed3	-0.05668528
81	0x3d46bba9	0.04851881
82	0x3c47e6c8	0.012201019
83	0x3be47f8e	0.0069732135
84	0xbc1c1f1f	-0.009528904
85	0xbe402793	-0.18765096
86	0xbdf2c233	-0.11853447
87	0xbcf2368d	-0.029567027
88	0x3dc29178	0.09500402
89	0x3d8dfa94	0.069325596
90	0xbdfd2351	-0.12360252
91	0x3d2d2531	0.042271797
92	0x3cb9d599	0.02268486
93	0xbe8dd5cd	-0.2770218
94	0xbc0e327c	-0.008679029
95	0xbda04cf7	-0.0782718
96	0x3da7f223	0.08200481
97	0x3da57153	0.080782555
98	0xbb695c8f	-0.0035608148
99	0xbd780163	-0.060548197
100	0x3cad5bda	0.021161962
101	0x3ca2b898	0.019863412
102	0x3ca8db68	0.020612434
103	0x3dbba838	0.091629446
104	0x3d9e5d7e	0.07732676
105	0x3ce2b247	0.0276729
106	0x3d713635	0.058889586
107	0xbdb543a0	-0.08850789
108	0xbd7ecaf6	-0.062205277
109	0xbd6e28ea	-0.058144487
110	0xbdbfb1cf	-0.09360086
111	0xbd652ae2	-0.0559491
112	0x3dd7ca08	0.10536581
113	0xbd3c6da9	-0.046003018
114	0x3de14ee1	0.11001373
115	0x3d28e3d6	0.041232906
116	0x3d284ef4	0.04109092
117	0xbcb511bc	-0.022103183
118	0x3e2c550b	0.16829316
119	0x3dd763ca	0.1051708
120	0xbdff7831	-0.124740966
121	0x3d6d5572	0.057942815
122	0x3ca820dc	0.020523481
123	0xbe3a05bb	-0.18166249
124	0xbd68e76f	-0.056861337
125	0xbd7959fd	-0.060876835
126	0xbdb6974c	-0.08915576
127	0x3d3f06e3	0.046637427
128	0x3daa0f8d	0.08303747
129	0xbdf3f90b	-0.119127356
130	0xbbc0fb8e	-0.0058893627
131	0xbcd3aba2	-0.025838677
132	0xbd607379	-0.054797623
133	0x3cff1004	0.031135567
134	0x3cf4b4be	0.02987134
135	0xbd23efdb	-0.040023666
136	0x3d1c3586	0.03813698
137	0xbd6693c1	-0.056293253
138	0xbd4f8b8d	-0.050670195
139	0x3dd26781	0.10273648
140	0x3e344998	0.17606199
141	0xbcad57ad	-0.021159971
142	0xbdf02a55	-0.11726824
143	0x3dc3a8ca	0.09553678
144	0x3d80405c	0.062622756
145	0x3bfb1cf1	0.007663362
146	0x3e1d1979	0.15341748
147	0xbc0aa5ba	-0.008462364
148	0xbc0e3fef	-0.008682235
149	0xbdda7370	-0.10666549
150	0xbd2c26c5	-0.04202916
151	0xbabd8640	-0.0014459565
152	0xbd527713	-0.05138309
153	0xbc1d2d9d	-0.009593395
154	0x3c847000	0.016166687
155	0xbd3632f4	-0.044482186
156	0x3c29add1	0.0103563825
157	0xbdc7dd88	-0.097590506
158	0xbd4817a7	-0.04885068
159	0xbdb8cbe2	-0.090232626
160	0x3c64a3b1	0.013955043
161	0xbd978da4	-0.07400063
162	0x3d8bf338	0.068335
163	0xbdbe5cf1	-0.09295071
164	0xbd5da07b	-0.054108124
165	0xbd669f9e	-0.056304567
166	0x3bce51d6	0.0062963767
167	0xbd36d51d	-0.044636834
168	0x3d02ed93	0.03196485
169	0x3ca25db0	0.019820064
170	0xbc228e10	-0.009921566
171	0x3b11e122	0.0022259434
172	0x3d44f458	0.048084587
173	0x3c0a7d42	0.008452715
174	0x3d1b74eb	0.0379533
175	0x3d808420	0.06275201
176	0x3bc46515	0.005993495
177	0x3d03c6ae	0.032171898
178	0xbd4edf5f	-0.050505992
179	0xbcb1b557	-0.021692915
180	0x3c43e669	0.0119567895
181	0x3d860181	0.065432556
182	0xbd1e8ff5	-0.038711507
183	0xbbde3f16	-0.006782423
184	0xbd023cfc	-0.03179644
185	0x3cac2c52	0.021017227
186	0x3ce3d726	0.027812552
187	0x3bd47dfb	0.0064847446
188	0x3ba4539c	0.00501485
189	0x3c907e21	0.017638268
190	0xbce6ba2f	-0.028164951
191	0x3ca444a5	0.020052264
192	0xbb94a719	-0.004536521
193	0xbd8f6ee4	-0.070035726
194	0xbd936ee2	-0.071988836
195	0x3ce04d41	0.027380588
196	0xbd183330	-0.03715819
197	0x3d17f567	0.03709927
198	0xbd56dec0	-0.052458525
199	0xbd907563	-0.0705364
200	0x3cb21c5e	0.021742042
201	0x3d31ba65	0.04339065
202	0xbd3e5cf8	-0.04647538
203	0xbd8f0b45	-0.06984571
204	0xbd78f872	-0.06078381
205	0x3d5e13c7	0.05421808
206	0x3d3a889d	0.04554044
207	0xbdc6e717	-0.09712046
208	0x3cf5ce53	0.03000561
209	0xbda95d7f	-0.08269786
210	0x3bf1cdc2	0.0073792646
211	0xbc26bd6e	-0.0101769995
212	0x3c4b21f3	0.012398231
213	0x3d5e438e	0.054263644
214	0xbd84765d	-0.064678885
215	0xbd326105	-0.043549556
216	0xbbc41196	-0.0059835417
217	0x3ca2a870	0.019855708
218	0x3d1bd31a	0.03804312
219	0xbd1ae222	-0.037813313
220	0xbcb7c06c	-0.022430621
221	0xbda4cf0c	-0.080473036
222	0x3dd3ab7a	0.10335441
223	0xbcbc6bad	-0.023000563
224	0xbd1d9bbb	-0.038478594
225	0x3d2e8a4f	0.04261237
226	0xbd013988	-0.031549007
227	0x3b4ce61a	0.003126508
228	0x3ca0326d	0.019555295
229	0xbd021471	-0.031757776
230	0x3c9b37bb	0.018947473
231	0xbd80562b	-0.06266435
232	0x3d4bc12f	0.04974478
233	0xbd8541be	-0.0650668
234	0xbda3865e	-0.07984613
235	0x3c3c288d	0.011484277
236	0xbbc4e9ec	-0.006009331
237	0x3d66bfc4	0.056335226
238	0x3c73901d	0.014865902
239	0x3d9ccee6	0.0765665
240	0xbaf6e224	-0.0018835706
241	0x3d1fcdad	0.039014507
242	0xbd5b3b8a	-0.053523578
243	0xbdd6ed9e	-0.10494541
244	0x3d91eb19	0.071249194
245	0xbd8e3f5c	-0.069456786
246	0x3c5c3cf1	0.013442264
247	0x3d6fda77	0.058557954
248	0x3cd3ae3a	0.025839914
249	0x3d2ef58e	0.042714648
250	0xbe2407ab	-0.1601855
251	0x3d33b1fc	0.04387091
252	0x3d483015	0.04887398
253	0xbd947584	-0.07248977
254	0x3c1ddf7b	0.009635801
255	0x3c884c2a	0.01663788

mlp1.2.bias f4 [100]
0	0xbe31d947	-0.17368041
1	0xbd9d76f6	-0.076887056
2	0xbeed03a0	-0.46291828
3	0x3e5e990b	0.21738069
4	0xbc05e7f6	-0.00817298
5	0xbd9baac4	-0.0760093
6	0x3be25096	0.0069065792
7	0x3e8616c9	0.2618926
8	0xbd502954	-0.050820664
9	0x3e11d7fa	0.14242545
10	0x3e07e271	0.13269974
11	0x3d9b2dc9	0.07577092
12	0xbe6c35be	-0.23067376
13	0x3ca0252c	0.019548975
14	0x3e4694fc	0.1939277
15	0x3d5e7504	0.054310814
16	0xbe0cd1cb	-0.13751905
17	0xbec5550a	-0.38541442
18	0xbe650d78	-0.22368419
19	0xbe988050	-0.29785395
20	0xbca5c177	-0.020233853
21	0x3ce61969	0.028088288
22	0xbbea4b4b	-0.007150089
23	0x3df0d7a6	0.11759882
24	0x3e022e45	0.12712963
25	0xbf59af12	-0.8503276
26	0x3d55a88c	0.052162692
27	0x3d68f5db	0.05687509
28	0xbdb0a0d3	-0.08624425
29	0xbe8788f7	-0.26471683
30	0x3bb0261e	0.0053756377
31	0x3edb59ca	0.4284194
32	0xbe0681ac	-0.13135403
33	0xbddd5a08	-0.10808188
34	0x3c61796c	0.013761859
35	0x3eceb41e	0.40371794
36	0xbe93a341	-0.2883549
37	0x3bac8889	0.0052652997
38	0x3cb8f324	0.022576876
39	0xbe031fcf	-0.12805103
40	0xbd9ae485	-0.07563118
41	0x3d5610a4	0.052261963
42	0xbd9a4406	-0.07532506
43	0xbd8d6d1f	-0.06905579
44	0x3d1c9a01	0.038232807
45	0x3ca1cb93	0.019750392
46	0x39fe85e4	0.00048546412
47	0xbf166c8d	-0.58759385
48	0x3da041d9	0.078250594
49	0xbc194e53	-0.009357053
50	0xbd699474	-0.05702634
51	0x3efb1d23	0.49045667
52	0xbd31004f	-0.043213185
53	0x3da84c8e	0.08217727
54	0xbcbc3885	-0.02297617
55	0xbc8aef93	-0.016959941
56	0xbe4aeb02	-0.19816211
57	0xbbbc53f8	-0.0057473145
58	0x3e560b41	0.2090273
59	0xbe361ccf	-0.17784427
60	0x3d8fdbe9	0.070243664
61	0xbd690476	-0.05688902
62	0x3d152859	0.03641543
63	0xbe4fc1e8	-0.20288813
64	0xbcc0df82	-0.023544077
65	0xbd85a83c	-0.06526229
66	0x3cd8dba9	0.02647193
67	0x3db09319	0.08621807
68	0x3ed42e6d	0.4144167
69	0xbea7d7a6	-0.32781714
70	0xbe8ca4d8	-0.27469516
71	0xbd39dcc8	-0.04537657
72	0x3ccbac15	0.024862329
73	0x3d9cd448	0.07657677
74	0xbda2d48b	-0.079506956
75	0x3d5b3ecf	0.053526696
76	0xbdef340c	-0.11679849
77	0x3c1d5fc0	0.009605348
78	0xbc9ae692	-0.018908773
79	0x3c811a23	0.015759533
80	0xbe7b094c	-0.24515265
81	0x3cce4f9a	0.025184441
82	0xbe5b6edb	-0.21429007
83	0xbd9c79ca	-0.07640417
84	0xbdb0df48	-0.086363375
85	0xbd7f8fd9	-0.062393043
86	0x3bf911ee	0.0076010143
87	0xbe8f0c4e	-0.27939075
88	0xbc6cf4dc	-0.014462676
89	0xbe007792	-0.12545612
90	0xbdc12e31	-0.094326384
91	0xbd4425db	-0.047887664
92	0xbdec6722	-0.115431085
93	0xbdaf0ccf	-0.08547365
94	0x3c09574f	0.008382632
95	0xbe4bcb99	-0.19901885
96	0x3e91cf79	0.28478602
97	0x3dd062f7	0.10175126
98	0xbdf84f2e	-0.12124477
99	0xbd8a4d5b	-0.06753036

mlp2.0.weight f4 [100, 100]
0	0x3c3c9baf	0.011511727
1	0xbc840638	-0.016116247
2	0xbdf385cc	-0.11890754
3	0xbd994400	-0.07483673
4	0xbdce6c7a	-0.10079284
5	0xbd8591eb	-0.06521972
6	0xbdce62da	-0.10077448
7	0x3d5a67bf	0.053321596
8	0x3d24b9fe	0.04021644
9	0xbd13e843	-0.036110174
10	0xbc82084e	-0.0158731
11	0xbd74d18e	-0.05977016
12	0xbc86de69	-0.016463475
13	0x3ca6762f	0.020320026
14	0xbe25cdfe	-0.16191861
15	0x3b9f3b44	0.00485936
16	0x3c89e3ed	0.016832316
17	0x3d80069e	0.06251262
18	0x3d832a76	0.06404583
19	0xbd32bcd2	-0.043637104
20	0xbdcc8fb4	-0.09988347
21	0xbcd9af98	-0.026572987
22	0xbb8cc1e8	-0.0042955764
23	0xbd2726f5	-0.040808637
24	0x3e1f221a	0.15540352
25	0x3dff2a23	0.12459209
26	0xbd693d3d	-0.056943167
27	0x3dc7194a	0.097216204
28	0x3d997104	0.07492259
29	0xbd8d9129	-0.06912453
30	0x3d5c2e6c	0.05375521
31	0x3dfe95c1	0.12430907
32	0xbd329b89	-0.04360536
33	0xbd333b48	-0.043757707
34	0x3d19396d	0.03740828
35	0xbcd9cc7f	-0.02658677
36	0xbdc5c311	-0.096563466
37	0x3d3c8944	0.046029344
38	0x3daabfbf	0.08337354
39	0xbd4ec760	-0.050483108
40	0x3d6d4ac2	0.057932623
41	0xbdf6b8d6	-0.120469734
42	0xbcaf8b43	-0.02142871
43	0xbcefe700	-0.029284954
44	0x3d43b048	0.047775537
45	0xbd05ae49	-0.032636914
46	0x3c39ac17	0.011332533
47	0x3c93a352	0.018022213
48	0x3da0ac0b	0.078453146
49	0xbd444f24	-0.047927037
50	0x3d233457	0.039844837
51	0x3d8f05f5	0.06983558
52	0x3d477a23	0.048700463
53	0xbc4886f2	-0.012239205
54	0xbdceeac5	-0.101033725
55	0xbd433545	-0.047658224
56	0xbc8dc8ec	-0.017307721
57	0xbd96eee6	-0.07369785
58	0xbcf9e487	-0.030504478
59	0xbd877571	-0.06614197
60	0x3e11299a	0.14176026
61	0xbd75343a	-0.05986426
62	0xbd24b44a	-0.040211
63	0xbc8a56ad	-0.016887033
64	0xbd2e90ee	-0.042618684
65	0xbe1e53cc	-0.15461653
66	0x3c3a17d6	0.011358222
67	0x3c904688	0.017611757
68	0x3d62dec7	0.05538824
69	0xbd156c35	-0.036480147
70	0xbd935174	-0.0719327
71	0xbd062cad	-0.03275745
72	0x3d2b2796	0.0417858
73	0xbd133e2b	-0.03594796
74	0xbd96d9d0	-0.07365763
75	0xbd13e654	-0.03610833
76	0x3db259f7	0.08708566
77	0xbd967e79	-0.073483415
78	0x3c939274	0.01801417
79	0xbd3be886	-0.04587605
80	0x3c93d619	0.018046426
81	0x3cb27f77	0.021789296
82	0x3dd4c829	0.1038974
83	0x3d04a025	0.03237929
84	0xbd4857f8	-0.04891202
85	0x3d99e29e	0.07513927
86	0xbb880690	-0.004151173
87	0xbd8dfa6b	-0.06932529
88	0x3a043223	0.00050428713
89	0xbbcd7954	-0.006270567
90	0x3d703012	0.058639593
91	0xbdb9c04e	-0.09069882
92	0x3c96c2ad	0.018403376
93	0xbcf03372	-0.029321406
94	0xbd1cb35d	-0.03825699
95	0x3d9205c8	0.07130009
96	0x3dbc907a	0.09207244
97	0x3d68d595	0.056844313
98	0xbd5a6e38	-0.05332777
99	0x3da1295b	0.07869216
100	0xbc71ff08	-0.014770277
101	0xbdf0c3b2	-0.11756076
102	0xbd0e21a6	-0.03470006
103	0xbde8f17c	-0.113741845
104	0xbaf8e44e	-0.0018988939
105	0xbd7fd49f	-0.06245863
106	0x3d804c45	0.06264547
107	0x3e1cdc09	0.15318312
108	0xbdccf621	-0.10007883
109	0x3e0e1259	0.13874187
110	0xbdf87f36	-0.121336386
111	0xbd575156	-0.052567802
112	0xbd01b65a	-0.031668045
113	0x3dcd80df	0.10034346
114	0xbcc913af	-0.024545519
115	0x3e04b447	0.12959395
116	0xbdd2bb17	-0.10289591
117	0xbdbf5f85	-0.09344391
118	0xbd9789c0	-0.073993206
119	0xbcc57e58	-0.024108097
120	0xbd790e64	-0.06080474
121	0xbdb2a11c	-0.087221354
122	0x3d8e2420	0.06940484
123	0x3d95de48	0.073177874
124	0x3d9e57fb	0.07731625
125	0xbdc0f605	-0.094219245
126	0xbd244104	-0.040101066
127	0x3d6f1ca8	0.058376938
128	0x3d6ae0dc	0.05734335
129	0xbd3d57a5	-0.046226162
130	0x3d7bd42f	0.06148165
131	0xbdc9e111	-0.09857381
132	0xbe04493b	-0.1291856
133	0x3dc925ee	0.09821688
134	0x3cb43ece	0.022002604
135	0x3cb8a24e	0.02253833
136	0xbda78112	-0.08178915
137	0xbd0790c4	-0.033097044
138	0xbe02a168	-0.12756884
139	0x3dd55a36	0.10417597
140	0x3d53ea5c	0.051737174
141	0xbba410fc	-0.0050069075
142	0x3db2a1ad	0.087222435
143	0x3d8e1065	0.06936721
144	0x3db38c92	0.08767046
145	0xbc486da6	-0.0122331735
146	0x3bec6331	0.007213973
147	0xbe1ecae1	-0.1550708
148	0xbd4bf68e	-0.04979568
149	0xbd1f8df3	-0.038953733
150	0xbdab9b1f	-0.083791964
151	0x3d8549e1	0.06508232
152	0x3c697793	0.0142497
153	0xbdcba830	-0.099441886
154	0xbdeb9d61	-0.11504627
155	0x3e0154e3	0.12630038
156	0x3c475cf3	0.012168157
157	0x3e0540d8	0.13013017
158	0x3cc9baa7	0.024625136
159	0x3d792674	0.060827687
160	0x3c165bcb	0.009177159
161	0xbdb8ab1e	-0.09017013
162	0xbd8a1090	-0.0674144
163	0xbd340b85	-0.0439563
164	0xbdf75305	-0.120763816
165	0xbc4e309c	-0.012584832
166	0x3dd6ed9a	0.10494538
167	0x3cd9dc10	0.026594192
168	0x3e570333	0.20997314
169	0xbb8f3977	-0.004370864
170	0xbd457e06	-0.04821589
171	0xbd98f899	-0.07469291
172	0xbd3904c5	-0.045170564
173	0xbdb6da45	-0.0892835
174	0x3e1577d0	0.14596486
175	0x3dc07675	0.09397594
176	0xbc9aa83f	-0.018879054
177	0x3d51a0e7	0.05117884
178	0xbd56ea72	-0.05246968
179	0xbd1778c4	-0.036980405
180	0x3bb74a50	0.0055935755
181	0x3d97eb03	0.07417872
182	0xbc47235e	-0.012154428
183	0xbc210b3d	-0.00982934
184	0xbda6531e	-0.08121322
185	0xbc0fe981	-0.008783699
186	0x3d27a863	0.04093207
187	0xbe137fa8	-0.14404166
188	0xbe089153	-0.13336687
189	0xbdedfd98	-0.11620635
190	0x3d628103	0.055298816
191	0x3d9e63b0	0.07733858
192	0xbd6c699a	-0.057717897
193	0xbd668d96	-0.05628737
194	0x3d394521	0.045231942
195	0xbce41b30	-0.027844995
196	0x3d921913	0.07133689
197	0xbaafc02d	-0.0013408713
198	0x3ca058ce	0.019573595
199	0x3b2c67fa	0.0026307092
200	0xbc9f4b13	-0.019444978
201	0x3d13fd30	0.03613013
202	0xbdb51964	-0.088427335
203	0xbd0a2b0a	-0.03373245
204	0x3d66c02b	0.05633561
205	0x3cbddd5b	0.02317684
206	0xbde706bf	-0.112805836
207	0x3d2f460b	0.042791408
208	0xbe09a7aa	-0.13442865
209	0xbd963ab2	-0.07335414
210	0x3d4478e5	0.047966857
211	0x3c96323f	0.018334506
212	0xbc9521d8	-0.018204615
213	0x3d4e3277	0.050341096
214	0xbe23564b	-0.15950887
215	0x3cb160fa	0.021652687
216	0xbe3b58d0	-0.18295598
217	0xbd873ac8	-0.066030085
218	0x3c40eac0	0.011774719
219	0xbd105e5c	-0.035246238
220	0xbd6d225a	-0.05789409
221	0xbc9d8228	-0.019227102
222	0x3c8a2bce	0.01686659
223	0xbd78336e	-0.060595922
224	0xbda1d72d	-0.0790237
225	0xbd78facc	-0.060786054
226	0xbc4f14ed	-0.012639266
227	0x3de25953	0.110521935
228	0xbd07bc43	-0.033138525
229	0x3d124930	0.03571433
230	0x3d1b9cec	0.03799145
231	0x3dbe207d	0.092835404
232	0xbdc229e8	-0.09480649
233	0xbe05466c	-0.13015145
234	0x39187d58	0.00014542544
235	0xbcd9c6c4	-0.026584037
236	0xbda2e1b2	-0.07953204
237	0x3cfc6a80	0.030812502
238	0xbd8fcffa	-0.0702209
239	0xbc02195d	-0.007940617
240	0xbd836530	-0.06415784
241	0x3d93d1f3	0.07217779
242	0x3c98fdd0	0.018675715
243	0x3d64586a	0.05574838
244	0x3d7fab71	0.06241936
245	0x3dadc49f	0.08484768
246	0xbccdd1e5	-0.0251245
247	0xbdb3d37d	-0.087805726
248	0x3d0e09b4	0.034677222
249	0x3cf0585e	0.029339012
250	0xbbf3c5c2	-0.007439346
251	0xbd187bee	-0.037227564
252	0x3d589349	0.052874837
253	0xbe1a395f	-0.15060948
254	0x3c8203df	0.015870987
255	0x3d2f326b	0.04277269

mlp2.0.bias f4 [100]
0	0x3c706208	0.01467181
1	0x3e5435d7	0.20723663
2	0xbd310846	-0.04322078
3	0xbd66f967	-0.056390192
4	0x3e14ef8d	0.14544506
5	0xbea14dc7	-0.31504652
6	0xbe398419	-0.18116798
7	0x3e3533e0	0.1769557
8	0x3ec3d06e	0.38244957
9	0x3c0030cc	0.007824134
10	0x3e587a31	0.21140362
11	0xbeb13d7f	-0.3461723
12	0xbe02c6a3	-0.12771086
13	0xbd920a4c	-0.0713087
14	0xbd105695	-0.03523882
15	0x3f05b5fa	0.522308
16	0xbdadc29b	-0.08484384
17	0xbd838ef4	-0.064237505
18	0x3eb19c8a	0.34689742
19	0xbd9ab3e9	-0.075538464
20	0xbdb60dba	-0.08889337
21	0xbcd9cc4a	-0.02658667
22	0xbe2e51b6	-0.17023358
23	0xbe84f4c0	-0.2596798
24	0xbd487c60	-0.04894674
25	0xbed242df	-0.41066644
26	0xbd7b07e2	-0.061286815
27	0x3e2d1997	0.16904293
28	0x3dfbc933	0.12294235
29	0x3e99f499	0.30069426
30	0x3e866082	0.26245505
31	0xbe75045b	-0.23927443
32	0xbd888384	-0.066657096
33	0x3c12fd43	0.008971515
34	0xbc6b9577	-0.014378897
35	0x3e7183c8	0.23585427
36	0x3e21d6da	0.15804616
37	0xbe19129f	-0.1494851
38	0xbec0019f	-0.37501237
39	0x3d6da6bc	0.05802034
40	0x3cab91fb	0.020943632
41	0xbdc03b6f	-0.09386336
42	0xbdafafa9	-0.085784264
43	0xbee96f11	-0.4559255
44	0x3d69cf69	0.057082567
45	0x3f6e13c7	0.9299893
46	0x3c475d1c	0.012168195
47	0x3eef6d1a	0.46762925
48	0x3e075ecc	0.13219756
49	0x3ddf1287	0.10892206
50	0x3e85e927	0.26154444
51	0xbdacb897	-0.08433645
52	0xbdb8c5a1	-0.0902207
53	0x3e22625b	0.15857832
54	0x3ed1fbbb	0.41012368
55	0xbefb9208	-0.4913485
56	0x3e914253	0.28370914
57	0x3f023f8b	0.5087821
58	0x3ead3f11	0.33837178
59	0xbe00a785	-0.12563904
60	0xbd4edf33	-0.050505828
61	0x3d5fa6f5	0.054602582
62	0x3f8ac6ed	1.0841957
63	0x3f119bfd	0.56878644
64	0xbea5c901	-0.32379916
65	0xbda40d4d	-0.080103494
66	0xbc1626d0	-0.009164527
67	0x3eb4d535	0.35318914
68	0xbe94951d	-0.29020014
69	0xbd59644b	-0.053074162
70	0x3dcd83b3	0.10034885
71	0x3ed8816a	0.42286235
72	0x3ea354bc	0.31900585
73	0xbdf197e6	-0.117965505
74	0xbd9fcdf8	-0.07802957
75	0x3e1cbacf	0.15305637
76	0xbde7f8d2	-0.113267556
77	0xbded2d0b	-0.11580857
78	0x3d8dc5f4	0.06922522
79	0xbe9e809d	-0.309575
80	0xbcb83794	-0.02248744
81	0xbe586aeb	-0.21134536
82	0x3dbca22c	0.09210619
83	0x3ed1c58e	0.40971035
84	0x3ea49e60	0.3215208
85	0xbc898f2e	-0.016791906
86	0x3e2af5bb	0.16695301
87	0x3d4255a2	0.047444947
88	0xbda46032	-0.0802616
89	0xbe95fb4a	-0.2929328
90	0x3da34ca1	0.079736
91	0x3d4a4ea3	0.0493914
92	0xbdd48e7d	-0.1037874
93	0x3ee637af	0.44964358
94	0x3e6446ac	0.22292584
95	0xbdc3a667	-0.09553223
96	0xbcd1efb9	-0.025627004
97	0x3efe4dc7	0.49668714
98	0x3e87891f	0.26471803
99	0xbd5141e3	-0.051088225

mlp2.2.weight f4 [50, 100]
0	0xbe104f97	-0.14092861
1	0xbd14c391	-0.03631932
2	0x3d6e0e6f	0.058119234
3	0x3d95ec07	0.07320409
4	0xbdc60a4f	-0.09669935
5	0x3c6349d5	0.013872583
6	0xbc9d7286	-0.019219648
7	0x3cb9ad4f	0.022665648
8	0x3c503526	0.012707984
9	0xbde790fb	-0.1130695
10	0x3da9d9b0	0.08293474
11	0xbd7f1ec0	-0.062285185
12	0xbc9bc050	-0.0190126
13	0xbc8e5eb8	-0.01737915
14	0xbce3a430	-0.027788252
15	0x3d9b5bf3	0.07585897
16	0x3c1d3582	0.009595277
17	0x3bd87ecd	0.0066069127
18	0x3d789ff7	0.06069943
19	0xbcf911ad	-0.030403936
20	0xbde6f46e	-0.1127709
21	0xbd9484a7	-0.07251864
22	0xbd9f580c	-0.077804655
23	0xbdce2323	-0.100652955
24	0x3b8e978e	0.004351563
25	0xbd9fe4b5	-0.07807294
26	0x3cbb9168	0.022896484
27	0x3d6a0694	0.05713518
28	0x3d46b6e4	0.04851426
29	0x3c48acf1	0.012248264
30	0xbcfe23df	-0.031022964
31	0x3cf8d02d	0.030372703
32	0xbb9807f2	-0.004639619
33	0x3d15a010	0.0365296
34	0x3dd66998	0.10469359
35	0x3c0ceb22	0.008600982
36	0xbdefec57	-0.11715
37	0xbd9646bc	-0.0733771
38	0xbcb135cb	-0.021632096
39	0x3e8d8db1	0.27647164
40	0x3d9b8532	0.07593764
41	0xbac02b10	-0.0014661271
42	0x3d3b223e	0.045686953
43	0x3d56bd38	0.052426547
44	0xbe039e0f	-0.12853263
45	0xbd7fbc3f	-0.062435385
46	0xbd8c068d	-0.06837187
47	0x3d319089	0.04335073
48	0xbe03c5ec	-0.1286847
49	0x3dbfc5b3	0.0936388
50	0x3e073c7a	0.13206664
51	0xbda6d97c	-0.081469506
52	0x3e27ac1e	0.16374251
53	0xbdaefcd5	-0.08544318
54	0x3c8e03f5	0.017335871
55	0x3d2a1d15	0.04153164
56	0xbdbd1730	-0.09232938
57	0xbe261ca0	-0.16221857
58	0xbd6df9f4	-0.058099702
59	0x3d32bd29	0.04363743
60	0x3cb47c18	0.022031829
61	0x3d859463	0.06522443
62	0x3cf7d562	0.030253116
63	0x3d766d97	0.060163107
64	0x3b3b0866	0.0028538941
65	0x3cfa3c56	0.030546349
66	0x3a4a9322	0.0007727613
67	0x3e2b3679	0.16719998
68	0x3c3cc66a	0.011521915
69	0xbc4cb394	-0.012493987
70	0x3dd0bd5a	0.10192366
71	0xbbdc0d5b	-0.0067154593
72	0x3e0e9a32	0.13926008
73	0x3da016db	0.07816859
74	0x3d786bf0	0.060649812
75	0x3d672e3e	0.056440584
76	0x3d6902d2	0.056887455
77	0x3df3480a	0.11878975
78	0xbce11acc	-0.027478598
79	0x3e351194	0.17682487
80	0xbdad5662	-0.08463742
81	0x3d96df97	0.07366865
82	0x3e09c24d	0.13453026
83	0x3d936548	0.07197052
84	0xbcc5f3dd	-0.024164135
85	0xbccdf637	-0.025141818
86	0xbe32f477	-0.17476068
87	0xbdbe01d1	-0.0927769
88	0x3dc6f978	0.09715551
89	0x3e884791	0.266171
90	0xbc5c5286	-0.0134474095
91	0xbd3e0093	-0.046387266
92	0xbb1caf10	-0.0023908056
93	0x3cc79c17	0.024366422
94	0xbdc5bd63	-0.09655263
95	0x3d5f12c0	0.05446124
96	0x3d99b58e	0.07505332
97	0xbd7c8da7	-0.061658528
98	0xbc8d8038	-0.017273054
99	0x3a64ca48	0.0008727652
100	0xbd7f5fb9	-0.062347148
101	0x3da9e7de	0.08296178
102	0x3cee77f5	0.029109934
103	0xbd6839e9	-0.056695852
104	0xbd8c6474	-0.068550974
105	0x3d9d0822	0.07667567
106	0x3d0935d7	0.03349861
107	0xbddcb85e	-0.10777353
108	0xbdbf1338	-0.093298376
109	0xbccd5e82	-0.025069479
110	0x3be19cf4	0.0068851653
111	0x3d932fe7	0.07186871
112	0x3d91af7a	0.071135476
113	0x3d75d566	0.060017966
114	0xbd693cf7	-0.056942906
115	0x3d3370ac	0.043808624
116	0xbd7d3dbc	-0.061826453
117	0xbda19a8e	-0.07890807
118	0xbe040818	-0.12893713
119	0xbd7f452f	-0.062321838
120	0x3d1fc46d	0.039005686
121	0xbd904511	-0.07044423
122	0xbd6f700b	-0.058456462
123	0x3d698dba	0.057019927
124	0x3d2f2d19	0.042767618
125	0xbd4256b7	-0.04744598
126	0xbd1a6c1d	-0.03770076
127	0xbd8a4344	-0.06751111
128	0xbda38f65	-0.07986335
129	0x3df3494f	0.11879217
130	0xbd8301b8	-0.06396812
131	0x3df41134	0.11917344
132	0x3cfc5b9b	0.0308054
133	0xbe13378a	-0.14376655
134	0xbe3cba30	-0.184304
135	0x3db0f584	0.086405784
136	0x3cfe5c00	0.031049728
137	0x3d7f341a	0.062305547
138	0x3caf6a48	0.021412984
139	0xbe5931ac	-0.21210355
140	0x3dd200bc	0.10254046
141	0x3d66215d	0.05618416
142	0xbcb77194	-0.022393025
143	0x3dfe733a	0.124243215
144	0xbd9c1806	-0.076217696
145	0xbe52355b	-0.20528166
146	0xbd1b6701	-0.03794003
147	0x3d19ccc2	0.037548788
148	0xbd9a97ba	-0.07548471
149	0x3db6a259	0.08917684
150	0xbdced904	-0.10099986
151	0x3e009c1b	0.1255955
152	0x3e16f290	0.14740968
153	0x3d34ff90	0.044189036
154	0xbe0a1fde	-0.13488719
155	0x3dab137d	0.083533265
156	0x3db66e8d	0.08907805
157	0xbd3d55c0	-0.046224356
158	0x3cffdd15	0.03123335
159	0x3d589594	0.052877024
160	0x3c422146	0.011848753
161	0x3dea9bd9	0.11455507
162	0xbe53223c	-0.20618528
163	0x3dadea2d	0.08491931
164	0x3da6d90d	0.08146868
165	0xbd27f002	-0.041000374
166	0xbcc6fa78	-0.024289355
167	0xbde36b77	-0.11104482
168	0x3e09217a	0.13391677
169	0xbce579d0	-0.028012186
170	0xbd2abefe	-0.04168605
171	0xbc5026f7	-0.012704602
172	0xbd27af86	-0.040938877
173	0x3beb7835	0.0071859607
174	0xbcc818fe	-0.02442598
175	0x3c7c9f10	0.015418783
176	0x3bf30175	0.007415945
177	0xbd7b5d48	-0.061368257
178	0x3d02bdc8	0.03191927
179	0x3e1c75bb	0.15279286
180	0x3d4093b5	0.047015864
181	0xbdb8ac1c	-0.09017202
182	0x3c886223	0.016648358
183	0x3d6d9584	0.058003917
184	0xbe0609cd	-0.13089676
185	0x3ba4dd03	0.0050312295
186	0x3bafd4cc	0.0053659435
187	0x3db13ef5	0.08654586
188	0x3d81cb73	0.06337633
189	0xbcf9af73	-0.030479169
190	0xbcf284da	-0.029604364
191	0xbdfea0ea	-0.12433036
192	0x3e08a738	0.13345039
193	0xbd90eec6	-0.070767924
194	0x3e1d00a6	0.15332279
195	0xbdd3a71c	-0.10334608
196	0x3dab4b7c	0.08364007
197	0x3d9d6dfe	0.07686995
198	0xbc3ff6fc	-0.0117166005
199	0xbccb07cd	-0.024783993
200	0x3d9d00b2	0.07666148
201	0x3dddb54e	0.10825597
202	0xbd7f0c8e	-0.062267832
203	0x3d8a48af	0.067521445
204	0x3d954441	0.07288409
205	0xbdc4414d	-0.09582768
206	0x3db754a7	0.08951693
207	0xbd398c21	-0.045299653
208	0xbd7e94dc	-0.062153682
209	0x3d120155	0.0356458
210	0xbc3a0ee9	-0.011356094
211	0xbe4da2b8	-0.20081604
212	0xbd453df3	-0.048154783
213	0x3d0c2c43	0.0342219
214	0xbd8badd8	-0.068202674
215	0xbc351d86	-0.011054402
216	0xbdb4b6ba	-0.08823915
217	0xbd532060	-0.051544547
218	0x3d694def	0.05695909
219	0xbd2796b9	-0.040915225
220	0x3e13f3a6	0.14448413
221	0x3d748fdc	0.059707507
222	0xbdf2aecf	-0.11849748
223	0x3d1ebd03	0.038754474
224	0xbce7b2fe	-0.028283592
225	0xbe166738	-0.14687812
226	0x3c1a6072	0.009422408
227	0xbd5de791	-0.054175917
228	0xbd8744fe	-0.06604956
229	0x3aa99982	0.0012939426
230	0x3cb86de3	0.022513336
231	0xbe2bd3c3	-0.1678
232	0x3cd48ebb	0.025946965
233	0x3da66591	0.08124841
234	0x3d83fc8d	0.064446546
235	0xbe0fdb24	-0.1404844
236	0xbe207cc2	-0.15672591
237	0x3c2e8293	0.0106512485
238	0x3bcd5066	0.0062656878
239	0x3cfaf403	0.030633932
240	0xbdc5c517	-0.096567325
241	0xbd490d95	-0.04908522
242	0xbdf0f42d	-0.11765323
243	0xbb201c92	-0.0024431092
244	0x3ccad5af	0.024760095
245	0x3e622fe3	0.2208858
246	0xbdb8f607	-0.09031301
247	0xbd99d421	-0.075111635
248	0xbcd00d96	-0.025397103
249	0xbe36a1e6	-0.17835197
250	0x3dc565f8	0.096385896
251	0x3df052a1	0.1173451
252	0xbd49b9bc	-0.049249396
253	0xbc890f1e	-0.016730841
254	0xbd2ff504	-0.042958274
255	0xbd1f8c23	-0.038952004

mlp2.2.bias f4 [50]
0	0xbd0243e2	-0.03180302
1	0xbe364527	-0.17799817
2	0x3e0c3f52	0.1369603
3	0xbe809885	-0.25116363
4	0x3c3cec4c	0.011530947
5	0xbe815d2e	-0.25266403
6	0xbf09057f	-0.5352401
7	0x3ec3c451	0.38235715
8	0xbe9af4d4	-0.30264914
9	0xbe3cafc1	-0.1842642
10	0xbe340ab8	-0.17582214
11	0xbe92b424	-0.2865306
12	0xbe4823d7	-0.19544922
13	0x3e41c88f	0.18924163
14	0x3ea9e22e	0.33180374
15	0xbea6a65a	-0.3254879
16	0x3eedeafe	0.46468347
17	0xbe85d484	-0.261387
18	0x3ebfd1b3	0.37464675
19	0x3ca645e8	0.020297006
20	0x3d88dd38	0.06682819
21	0xbe379d8e	-0.17931196
22	0x3e07465c	0.13210434
23	0xbe8dc5cc	-0.2768997
24	0xbda58aec	-0.08083138
25	0x3e221184	0.15826994
26	0xb96e183b	-0.00022706475
27	0xbee4c5c0	-0.4468212
28	0x3e3ce077	0.18445002
29	0x3bc01239	0.0058615473
30	0x3f1854cc	0.5950439
31	0xbc4360b3	-0.01192491
32	0xbe54977b	-0.2076091
33	0x3e704eb3	0.23467521
34	0xbddcceef	-0.10781657
35	0xbe4ff738	-0.2030915
36	0x3efe6c3d	0.49691954
37	0x3f50d036	0.81567705
38	0x3e913918	0.28363872
39	0xbee42b85	-0.44564453
40	0xbe8e5996	-0.27802724
41	0x3d88837a	0.06665702
42	0x3c0c1dee	0.008552058
43	0x3c4de440	0.012566626
44	0xbe5f3456	-0.21797308
45	0x3e151aa2	0.14560941
46	0x3c30d95b	0.010794009
47	0x3e49a5b3	0.19692115
48	0x3f1fb5df	0.6238689
49	0x3e05b6a4	0.13057953

attention.0.weight f4 [100, 100]
0	0x3db3341b	0.08750173
1	0xbbb240a4	-0.0054398347
2	0xbdea0fb2	-0.11428775
3	0x3da6ec61	0.081505544
4	0xbbc74886	-0.0060816435
5	0xbe4ff466	-0.20308074
6	0x3da54cca	0.08071287
7	0x3c7706fe	0.015077351
8	0x3c05488e	0.008134974
9	0xbd104256	-0.035219513
10	0x3d4a5ddb	0.049405914
11	0x3d5b47f7	0.053535428
12	0xbd246094	-0.040131167
13	0x3d40c897	0.047066297
14	0x3e1891d0	0.14899373
15	0xbe37569b	-0.17904131
16	0x3c536afe	0.012903927
17	0xbe16b0bf	-0.14715861
18	0x3d0bc2fc	0.0341215
19	0xbd4ee980	-0.05051565
20	0x3ce1eced	0.027578795
21	0x3db7d434	0.089760214
22	0xbc636a36	-0.013880303
23	0xbdb49e2c	-0.088192314
24	0xbe6f174b	-0.2334873
25	0xbda33137	-0.07968371
26	0xbd415bb4	-0.047206596
27	0xbe3e99bc	-0.18613333
28	0xbdc56aff	-0.096395485
29	0xbc5dbc57	-0.013533673
30	0xbdf4ab89	-0.1194678
31	0xbe9b1f99	-0.30297545
32	0xbd466c86	-0.04844334
33	0xbc651dd4	-0.013984162
34	0xbc661eec	-0.014045458
35	0x3d631bd2	0.055446453
36	0xbe23097a	-0.15921584
37	0xbd0f14c0	-0.034931898
38	0xbd92cf43	-0.07168438
39	0xbd16991c	-0.03676711
40	0x3df3b72f	0.11900174
41	0xbd24a131	-0.040192787
42	0xbc8a3168	-0.016869262
43	0x3cf2b1a5	0.029625723
44	0x3c7d02ac	0.015442532
45	0xbe5ded24	-0.21672493
46	0x3c6c235c	0.014412727
47	0xbe746710	-0.2386744
48	0xbce1bdd1	-0.027556332
49	0x3e2e6627	0.17031156
50	0x3cb0c705	0.021579275
51	0xbce15ce5	-0.027510116
52	0x3d1cd6fd	0.038290966
53	0xbe80be52	-0.25145203
54	0xbe834c62	-0.25644213
55	0x3cbd1ed2	0.023085985
56	0xbd957caa	-0.072991684
57	0x3dc2e1b0	0.09515703
58	0x3dbe84f5	0.09302703
59	0xbcfad4ef	-0.030619113
60	0x3d776dd5	0.06040748
61	0xbccf91ed	-0.025338138
62	0x3c8c5678	0.017131075
63	0xbe2c7377	-0.16840921
64	0xbd808a3e	-0.062763676
65	0xbcc7bc22	-0.0243817
66	0xbddb8601	-0.107189186
67	0xbdcde2a1	-0.10052992
68	0xbd817f91	-0.063231595
69	0xbe349b98	-0.1763748
70	0x3cf722da	0.030167986
71	0xbd9ffe92	-0.07812227
72	0x3d8dad2f	0.06917798
73	0x3bcbbcd4	0.0062175784
74	0xbe63bd14	-0.22240096
75	0x3cc53921	0.024075093
76	0xbd4b5f04	-0.04965116
77	0x3cb5dad4	0.022199072
78	0xbc7c0461	-0.015381903
79	0xbd4f09c1	-0.05054641
80	0x3d69de4a	0.057096757
81	0x3d0a2f1b	0.03373633
82	0xbdf2adbc	-0.118495435
83	0x3c3650a7	0.011127627
84	0xbd121a72	-0.03566975
85	0xbdb84b6e	-0.08998762
86	0xbc9dc71c	-0.019259982
87	0xbdb6ff42	-0.08935405
88	0x3da02bb5	0.078208365
89	0x3d5c4f8d	0.053786803
90	0x3d2a6b2b	0.04160611
91	0x3d868a51	0.065693505
92	0x3c8376e2	0.016047899
93	0xbde5b48a	-0.11216076
94	0xbdb8462b	-0.089977585
95	0xba510b78	-0.0007974426
96	0xbce094c1	-0.027414681
97	0xb9d14c03	-0.0003992022
98	0x3ba5c15c	0.0050584506
99	0xbd85dd10	-0.06536305
100	0xbdb84fd7	-0.08999603
101	0xbd78e9fa	-0.060770012
102	0x3d3db4b9	0.04631493
103	0xbbb8812c	-0.005630633
104	0xbce2af17	-0.02767138
105	0x3da32fbe	0.079680905
106	0xbc0475c0	-0.008084714
107	0x3d4ce658	0.05002436
108	0x3da02cba	0.07821031
109	0xba05ddd4	-0.00051066023
110	0x3e345890	0.17611909
111	0xbd4e1730	-0.050315082
112	0xbcb6a9ec	-0.022297822
113	0x3d9212c9	0.07132489
114	0x3e43c5c4	0.1911841
115	0xbe0635e3	-0.13106494
116	0xbde9c07c	-0.114136666
117	0x3c60d8c0	0.013723552
118	0xbd741fed	-0.05960076
119	0xbd34d21f	-0.0441457
120	0xbd374609	-0.044744525
121	0x3e1bf1e8	0.15228999
122	0xbd12ab45	-0.035807867
123	0x3df53eff	0.11974906
124	0xbe0c5c18	-0.13707006
125	0xbdd957dd	-0.10612462
126	0xbd6060b1	-0.054779712
127	0xbdcc7e02	-0.099849716
128	0x3ca128bc	0.019672744
129	0x3d11882d	0.035530258
130	0xbd6da4f3	-0.058018636
131	0x3c95b2c7	0.018273724
132	0xbd912e77	-0.070889406
133	0xbc364558	-0.011124931
134	0x3d472466	0.048618697
135	0xbd06f4ab	-0.032948177
136	0xbd8f4039	-0.069946714
137	0x3c52a8a4	0.01285759
138	0x3d8a5116	0.06753747
139	0xbd1759c1	-0.03695083
140	0xbbf5683d	-0.007489233
141	0xbdc06063	-0.09393384
142	0xbde5835a	-0.11206694
143	0x3de2d564	0.11075857
144	0x3d68bb5c	0.056819305
145	0xbe5c30c2	-0.21502975
146	0xbcfde952	-0.030995045
147	0xbd84d9e3	-0.06486871
148	0xbb921049	-0.0044575077
149	0xbd270176	-0.040772878
150	0xbc4b2422	-0.012398751
151	0xbdaf20a4	-0.085511476
152	0x3db0da80	0.086354256
153	0xbe3e7107	-0.18597804
154	0xbde2a226	-0.110660836
155	0x3c9e5f10	0.019332439
156	0xbd7ee2c2	-0.06222797
157	0xbd9b8075	-0.075928606
158	0x3b51e2a6	0.0032025962
159	0xbdbcb6b4	-0.09214535
160	0xbdc890ad	-0.0979322
161	0xbdc821a6	-0.09772043
162	0xbb799c0b	-0.0038087394
163	0xbd2d367c	-0.04228829
164	0xbdb776c0	-0.08958197
165	0xbb8570b9	-0.0040722755
166	0xbe428489	-0.1899587
167	0x3cbf17c2	0.023326758
168	0x3ccf4037	0.025299175
169	0xbd2cb1d3	-0.042161774
170	0xbc171bf0	-0.009222969
171	0xbe4c7c37	-0.19969259
172	0xbcf91541	-0.030405642
173	0x3c35430a	0.011063347
174	0xbe2b235a	-0.16712704
175	0x3d00f995	0.03148802
176	0x3cab06dc	0.020877294
177	0xbbd4b64d	-0.0064914585
178	0x3dafc0cf	0.08581697
179	0xbd0fba4f	-0.035089787
180	0xbca052b0	-0.019570678
181	0x3c5df34a	0.013546774
182	0x3db10f82	0.08645536
183	0xbd0045b9	-0.031316493
184	0xbb381277	-0.0028087178
185	0x3db6bf67	0.08923226
186	0xbdd27b3c	-0.10277411
187	0x3bf3a8fd	0.0074359165
188	0x3dc41108	0.09573561
189	0x3d93b714	0.07212654
190	0xbc2b30a6	-0.01044861
191	0xbd58a6ad	-0.05289333
192	0x3d76c06a	0.060242094
193	0xbd93a295	-0.072087444
194	0xbde77468	-0.113014996
195	0xbd8bf6d7	-0.0683419
196	0x3bcc21bd	0.006229608
197	0x3db0005a	0.08593817
198	0x3d927ea3	0.0715306
199	0x3d9f7046	0.07785086
200	0xbd79253b	-0.06082652
201	0xbcc1eecc	-0.023673438
202	0xbc3a2e90	-0.01136364
203	0xbb9f56eb	-0.0048626564
204	0xbc7f9642	-0.015599789
205	0x3dd1578c	0.10221776
206	0x3cc30317	0.023805184
207	0x3d831d9d	0.06402133
208	0x3d9f0409	0.077644415
209	0xbc29dac9	-0.010367104
210	0x3c0ccbe8	0.008593537
211	0xbbc3beae	-0.0059736585
212	0xbc568fbe	-0.013095794
213	0xbd2c31f4	-0.042039827
214	0x3e2bdb38	0.16782844
215	0x3d10fa4e	0.03539496
216	0x3dc0e3ea	0.09418471
217	0xbcda9b4b	-0.026685378
218	0xbbe4a71b	-0.0069779283
219	0x3cfeb736	0.031093221
220	0x3c8612de	0.016366418
221	0xbc895a81	-0.016766788
222	0x3ce06050	0.027389675
223	0x3cc743f9	0.024324404
224	0xbc387488	-0.011258252
225	0x3d23e91c	0.040017232
226	0x3d5d1aaf	0.053980526
227	0xbd49cb58	-0.04926619
228	0xbc984b0d	-0.018590475
229	0xbdf4f593	-0.11960902
230	0xbdb505e8	-0.08839017
231	0xbcc1e82d	-0.02367028
232	0x3d195fc2	0.037444837
233	0x3d8e55bf	0.069499485
234	0xbd83be33	-0.06432762
235	0xbdae8316	-0.085210964
236	0xbe141dac	-0.14464444
237	0xbd90df83	-0.070738815
238	0xbc8998f1	-0.016796561
239	0x3d80e1e9	0.06293089
240	0xbd82ec97	-0.06392782
241	0x3dc97782	0.098372474
242	0x3ddc21a8	0.10748607
243	0x3b8028a9	0.003911097
244	0xbdc3ea83	-0.09566214
245	0x3c6104bc	0.013734039
246	0xbd42dd2e	-0.047574215
247	0xbd7222ee	-0.059115343
248	0xbd93a679	-0.072094865
249	0x3d0e7ff7	0.034790006
250	0xbd60d3ff	-0.054889675
251	0x3d050308	0.032473594
252	0x3b410b37	0.0029456147
253	0xbdf8aa32	-0.12141837
254	0x3cd83d3c	0.026396386
255	0x3b901828	0.004397411

attention.0.bias f4 [100]
0	0x3d3c4aab	0.045969646
1	0xbcabe8ca	-0.020985026
2	0x3dab0b01	0.08351708
3	0xbd4dc05d	-0.05023228
4	0xbd4284c1	-0.047489885
5	0x3c846d40	0.016165376
6	0x3d9dfc4d	0.07714138
7	0x3c9cc658	0.019137546
8	0xbd5e6f90	-0.054305613
9	0xb9b0af8a	-0.00033700123
10	0x3c20e1e0	0.009819478
11	0x3d686e1a	0.056745626
12	0xbd75eca5	-0.060040135
13	0x3cc1b80d	0.023647333
14	0x3d4e8f3b	0.050429564
15	0x3da76e76	0.081753656
16	0xbdb7afa7	-0.0896905
17	0x3d7e8b76	0.06214472
18	0x3e0fb04c	0.14032096
19	0x3d468a32	0.048471637
20	0xbe1bdefe	-0.15221784
21	0x3e135edf	0.14391659
22	0x3cb4f29b	0.02208834
23	0x3db458fa	0.088060334
24	0x3d1014df	0.035176154
25	0xbc602129	-0.013679781
26	0xbd930305	-0.0717831
27	0x3bdab06b	0.0066738627
28	0x3e01615a	0.12634793
29	0xbe39b2c7	-0.18134604
30	0xbe0b6345	-0.13612087
31	0x3c4b8b7c	0.012423392
32	0xbb209a42	-0.0024506007
33	0x3e0d0e3b	0.1377496
34	0xbd336da6	-0.04380574
35	0xbd9ef5fb	-0.07761761
36	0x3d252744	0.04032065
37	0xbdef9dee	-0.117000446
38	0x3ac7487f	0.0015204101
39	0xbda112bc	-0.078649014
40	0xbdaf7ba7	-0.08568507
41	0x3e0112f9	0.12604894
42	0xbd26ba2b	-0.040704887
43	0x3daf4e21	0.08559824
44	0x3c5c80b4	0.01345842
45	0xbccd5fd8	-0.025070116
46	0x3dd90819	0.10597248
47	0x3cf03aa2	0.029324833
48	0xbd7a72c4	-0.061144605
49	0xbc6a1b79	-0.014288777
50	0x3b723ded	0.003696318
51	0xbdad72a0	-0.084691286
52	0x3b9329dc	0.004491074
53	0xbe0ee21c	-0.13953441
54	0x3d6b8174	0.057496503
55	0xbddb485e	-0.10707162
56	0xbe06edbc	-0.13176626
57	0xbcfbc071	-0.030731412
58	0xbc30b55b	-0.010785426
59	0xbdc62096	-0.09674184
60	0x3dc780ea	0.09741385
61	0xbdc8d37e	-0.09805964
62	0xbc5a724d	-0.0133329155
63	0x3e26d40f	0.16291831
64	0x3db8ca1f	0.090229265
65	0x3deaa02e	0.11456333
66	0xbc5a03f0	-0.013306603
67	0xbd9f6f99	-0.077849574
68	0x3b6b8905	0.0035939824
69	0x3c699f81	0.01425922
70	0xbe12e17d	-0.1434383
71	0xbd13c586	-0.036077045
72	0x3c8c03e0	0.017091691
73	0x3c00ad6f	0.00785385
74	0xbd1634c2	-0.036671408
75	0x3d83dbac	0.064383835
76	0xbd60a93e	-0.054848902
77	0x3dbd4f01	0.092435844
78	0xbd0f390b	-0.03496651
79	0x3d82a90c	0.063798994
80	0x3d6d1e04	0.057889953
81	0xbce5089e	-0.02795821
82	0xbdcf6d06	-0.101282164
83	0xbd081f1a	-0.033232786
84	0x3e103449	0.14082445
85	0xbd110118	-0.035401434
86	0xbde743f6	-0.112922594
87	0x3c6e93a8	0.014561571
88	0x3ba95114	0.005167136
89	0xbda52a54	-0.08064714
90	0xbe34c227	-0.17652188
91	0x3e3254c4	0.17415148
92	0x3d0d225b	0.034456592
93	0xbd6f64d5	-0.05844577
94	0xbcbdac37	-0.023153407
95	0xbdbda052	-0.09259094
96	0xbd84bab2	-0.06480922
97	0xbc495138	-0.01228743
98	0xbc3eefa1	-0.011653812
99	0xbd847303	-0.06467249
