sarl_star_ros/CrowdNav/crowd_nav/data/output_alisher_blockpath_5/rl_model.pth (torch_old, 349196 bytes, 20 tensors)

mlp1.0.weight f4 [150, 13]
-0.15903878 -0.087025724 0.0034357961 -0.29318106 0.21459357 0.6192987 -0.14720835 0.264624
1.0695177 0.8602189 0.11494612 -0.53487194 0.21169998 0.11123122 0.6680328 -0.28031272
0.14563428 1.9448928 1.9594551 -1.3933232 -1.7809732 -2.6583955 -1.2028316 -1.2913276
-0.4210239 -0.6617231 -0.10461654 -0.17606935 -0.22784837 0.14839946 -0.118696086 0.009796096
-0.024802797 0.034335505 0.055325314 0.100883335 0.16385424 -0.23501353 0.080414176 -1.5212504
-0.5725976 0.27100015 -0.22156437 -0.91910505 0.03982115 0.36463898 -1.7396775 0.31569377
0.64782786 -0.7594954 0.7111391 -0.5797935 -0.36613557 -0.1903095 0.53682 -0.08271412
0.62021 -0.01725232 -0.09138173 0.21484426 -0.040371995 0.4757161 -0.24202731 -0.013959197
-0.267971 -1.1582566 -1.0723974 1.6959945 -0.25078255 -1.0829651 -0.69825315 1.8900901
-0.67569137 1.4672875 0.4850278 -0.47501162 -0.7888187 -0.53728795 0.48706296 0.08715564
-1.2064434 0.009422525 2.2650912 -0.32189414 -0.9123191 -0.36697236 -1.1638619 -0.059333846
-1.0538255 -0.11401547 -1.2384417 -0.14854136 -0.1475092 0.32110018 0.09168003 0.2787526
-0.45015466 0.022750426 -0.3928551 -0.25447118 -0.30914888 -0.13065524 -0.3888676 -0.0055384585
-2.3378325 -0.18255636 -0.6968742 -0.3643004 -0.9176726 0.17220925 0.009549692 0.30903947
0.8765135 1.7083949 -0.8924958 1.5575308 -0.5942284 -0.17999043 -0.71838635 1.3533107
0.048687804 0.058553044 0.5840771 0.13880642 2.193194 2.5063 1.1690822 -0.44689554
-1.6024139 -0.46165222 0.48807868 0.21281572 -4.587967 0.12329914 -2.4165008 -2.8467743
1.2077442 0.38845542 -0.27827075 0.8720679 -2.5752957 -0.9387748 -2.4226713 -0.47669274
-0.36687583 1.4624199 -0.20989113 0.66204816 0.3388587 -0.1592907 0.5038969 -0.108350314
0.699556 0.03400637 -0.26436245 -0.35720682 -1.3677466 -0.527751 0.56391656 0.16836096
0.99062645 -0.3177455 -0.9063444 0.8832947 -0.23780523 0.5662817 -0.36088276 0.21520856
-0.59831166 -0.159114 0.07831709 -0.32505524 -0.029913476 -0.18033823 0.113601044 -0.052743282
-0.24877584 -0.1722395 -0.32646045 0.038973887 0.094338715 -0.10830939 0.64591324 0.37578318
-2.8790236 0.1050726 -0.27546626 -1.4791185 -1.221252 -1.7819024 1.6792423 -2.4302154
0.7811206 -2.6874099 0.802861 -0.09346116 -0.15595293 0.07712175 -0.028231427 0.16007644
-0.03513069 0.16645417 0.28818104 0.028409496 0.21545663 0.018039662 -0.472611 -0.19406532
-2.956735 -0.31473532 -1.1477518 -0.1918466 -0.6650913 0.0343524 2.5131044 0.14891155
2.3811498 1.329736 -0.46597487 1.6136572 -0.42589176 -0.5181127 0.71010333 -0.3207493
-0.107404724 0.28207722 0.7192605 -1.3811084 0.6853453 1.3669043 0.6538913 0.34262243
-0.44529957 0.7947909 -0.5156316 0.7477103 0.26140714 0.1608275 -0.41280606 -0.86639726
-0.12967415 -1.0080776 0.32839072 -0.52059114 0.7453193 -0.85005623 0.9834947 -1.262356
-0.23037292 0.22791 -0.1908523 -0.6849541 0.46218166 0.37205294 -1.0018922 -0.63530684
00000000: 10db 22be 8b3a b2bd 182b 613b d41b 96be
00000010: 6bbe 5b3e 5c8a 1e3f c9bd 16be cc7c 873e
00000020: f5e5 883f 4e37 5c3f df68 eb3d 5eed 08bf
00000030: e1c7 583e 32cd e33d 3304 2b3f 2685 8fbe
00000040: 2721 153e 3ff2 f83f 6dcf fa3f 6a58 b2bf
00000050: eef6 e3bf 2723 2ac0 63f6 99bf 394a a5bf
00000060: 7290 d7be af66 29bf 3241 d6bd 864b 34be
00000070: 1551 69be 07f6 173e ef16 f3bd ce7f 203c
00000080: 3c2f cbbc 63a3 0c3d cc9c 623d ec9b ce3d
00000090: 68c9 273e 63a7 70be 30b0 a43d 55b8 c2bf
000000a0: c295 12bf 88c0 8a3e c5e1 62be 784a 6bbf
000000b0: 811b 233d f6b1 ba3e c1ad debf 9da2 a13e
000000c0: 0cd8 253f 4a6e 42bf 360d 363f 596d 14bf
000000d0: 1f76 bbbe 7ee0 42be 096d 093f 0566 a9bd
000000e0: 15c6 1e3f bd54 8dbc 5826 bbbd 2200 5c3e
000000f0: 1b5d 25bd 1091 f33e 02d6 77be 1eb5 64bc
00000100: 7f33 89be c141 94bf 5144 89bf 5916 d93f
00000110: 9266 80be 9a9e 8abf b8c0 32bf 79ee f13f
00000120: 1cfa 2cbf 14d0 bb3f 9055 f83e b934 f3be
00000130: 06f0 49bf b48b 09bf 5160 f93e a87e b23d
00000140: bd6c 9abf ef60 1a3c 41f7 1040 4fcf a4be
00000150: bf8d 69bf cde3 bbbe 6df9 94bf 0c08 73bd
00000160: c1e3 86bf f180 e9bd 4285 9ebf 3a1b 18be
00000170: a70c 17be 3e67 a43e bdc2 bb3d a9b8 8e3e
00000180: ac7a e6be 1a5f ba3c 4e24 c9be 0c4a 82be
00000190: c348 9ebe 7dca 05be a719 c7be f57b b5bb
000001a0: 0c9f 15c0 0ef0 3abe 5966 32bf 9585 babe
000001b0: 97ec 6abf 9f57 303e 5076 1c3c 6c3a 9e3e
000001c0: 3063 603f afac da3f 9b7a 64bf 2b5d c73f
000001d0: 5a1f 18bf 694f 38be 2be8 37bf 4939 ad3f
000001e0: dd6c 473d 51d5 6f3d 1486 153f 4523 0e3e
000001f0: 4a5d 0c40 3867 2040 7ca4 953f 7ecf e4be
00000200: e61b cdbf ae5d ecbe 73e5 f93e 5dec 593e
00000210: a0d0 92c0 4284 fc3d f3a7 1ac0 8d31 36c0
00000220: 5d97 9a3f a1e3 c63e 8179 8ebe d83f 5f3f
00000230: a5d1 24c0 8c53 70bf 0c0d 1bc0 1211 f4be
00000240: 26d7 bbbe 9330 bb3f b3ed 56be fd7b 293f
00000250: e37e ad3e 1a1d 23be 63ff 003f c5e6 ddbd
00000260: 1a16 333f 434a 0b3d 845a 87be d0e3 b6be
00000270: 5212 afbf b11a 07bf d65c 103f d166 2c3e
00000280: b299 7d3f 8aaf a2be 3006 68bf 9a1f 623f
00000290: 3783 73be d6f7 103f a0c5 b8be a25f 5c3e
000002a0: f42a 19bf c8ee 22be b664 a03d a46d a6be
000002b0: 1b0d f5bc 96aa 38be aaa7 e83d 5709 58bd
000002c0: 18bf 7ebe 8d5f 30be d325 a7be 15a3 1f3d
000002d0: a834 c13d 50d1 ddbd 925a 253f a766 c03e
000002e0: ec41 38c0 4e30 d73d ea09 8dbe c153 bdbf
000002f0: fc51 9cbf 6115 e4bf 69f1 d63f a688 1bc0
00000300: 85f7 473f 86fe 2bc0 4c88 4d3f 9168 bfbd
00000310: 20b2 1fbe 02f2 9d3d 9845 e7bc 14eb 233e
00000320: 33e5 0fbd f672 2a3e 778c 933e 08bb e83c
00000330: aaa0 5c3e eac7 933c 12fa f1be 0fb9 46be
00000340: 253b 3dc0 fd24 a1be 88e9 92bf 6f73 44be
00000350: 6c43 2abf 1ab5 0c3d b4d6 2040 457c 183e
00000360: c264 1840 ca34 aa3f 4294 eebe 528c ce3f
00000370: 7c0e dabe 09a3 04bf 55c9 353f 4139 a4be
00000380: 02f7 dbbd 6d6c 903e 7521 383f 29c8 b0bf
00000390: ca72 2f3f b8f6 ae3f 6c65 273f 356c af3e
000003a0: 4efe e3be 6b77 4b3f 6f00 04bf f169 3f3f
000003b0: 28d7 853e f7af 243e 515b d3be 36cc 5dbf
000003c0: 4dc9 04be b008 81bf d422 a83e 7645 05bf
000003d0: 3fcd 3e3f 499d 59bf 4fc6 7b3f e294 a1bf
000003e0: e1e6 6bbe 3d61 693e c96e 43be 2759 2fbf
000003f0: 13a3 ec3e b97d be3e 013e 80bf 78a3 22bf

mlp1.0.bias f4 [150]
-0.031034492 0.72465837 -0.081655905 -0.71740514 -0.0895767 -1.3067485 -0.11114039 0.07843239
-0.507941 -1.060518 0.09017579 -0.3733877 -0.68162805 0.085254386 0.73643625 -0.01730988
-0.28929225 0.8580754 0.39464995 -0.24628866 -0.0921672 -2.0270815 -0.4069831 -0.425657
-0.2972685 -1.2016857 -0.15915631 -0.6401334 -0.15980329 0.9331725 -0.093255624 -0.08004244
0.9574552 0.86145216 0.11464311 -0.16942318 1.2967079 -0.9709462 -0.8621773 -0.81578755
0.5717566 -0.2926875 0.22072354 -0.2328527 0.05154907 -0.2566378 0.18803872 -0.050052725
1.1297262 0.51211387 0.01910668 0.04391477 0.58468145 -0.6106222 0.124788575 -0.18025677
0.31342334 -0.51444393 -1.5551586 0.03206906 -0.107423514 0.3664509 -1.6466556 -0.011777508
-1.1278145 0.16092533 0.054297313 0.45564318 -0.386467 0.8189709 0.40803745 0.453277
-0.12799467 0.22134446 0.61269695 0.5644234 -2.776388 1.7779516 -1.2696353 -0.09980994
0.16540536 -0.08083235 -0.1905296 -0.002158399 -0.04399361 0.879374 -0.9329769 0.8863594
-2.4350333 -0.03447685 0.67129326 -0.22810708 0.21219276 -0.45548978 0.7306071 1.1939118
0.046490617 -0.090048455 -0.17677641 -1.0651104 -0.302214 -0.6400915 -0.3294428 -1.7263114
-0.3342467 0.38334468 -0.38041297 0.12395378 0.8873138 -0.055994827 -0.98839146 -0.09574343
1.1505821 -0.66526884 0.53344357 -0.24476284 -1.3795918 -0.81487286 0.21227182 -0.63787067
-0.39572918 0.24928394 -0.31766614 0.08178598 1.4674015 0.7154982 -0.5100813 -0.006889058
0.323434 -0.1372963 1.5206898 -0.26559356 -0.07673878 -0.62203026 -0.109937094 -0.083407275
-1.3334662 -0.2832018 -0.17805009 -0.21578068 0.55055445 -0.46113375 0.5804471 -1.3588074
1.230719 -0.26120165 -0.4426084 0.56169367 -1.0382903 0.49005976
00000000: 0c3c febc 3683 393f 363b a7bd dda7 37bf
00000010: fd73 b7bd 8943 a7bf 939d e3bd 29a1 a03d
00000020: 6c08 02bf 0ebf 87bf 16ae b83d ac2c bfbe
00000030: 2d7f 2ebf da99 ae3d 1687 3c3f 73cd 8dbc
00000040: 1d1e 94be d4aa 5b3f 8f0f ca3e 1833 7cbe
00000050: 28c2 bcbd b4bb 01c0 1760 d0be b7ef d9be
00000060: 9433 98be d6d0 99bf dff9 22be c8df 23bf
00000070: 79a3 23be 65e4 6e3f cefc bebd 4aed a3bd
00000080: c91b 753f 2188 5c3f 02ca ea3d 457d 2dbe
00000090: 86fa a53f ee8f 78bf a7b7 5cbf 74d7 50bf
000000a0: a45e 123f 23db 95be 5a05 623e f070 6ebe
000000b0: 1e25 533d 0866 83be 398d 403e 1604 4dbd
000000c0: de9a 903f e519 033f 9d85 9c3c f9df 333d
000000d0: afad 153f bd51 1cbf 2791 ff3d 3b95 38be
000000e0: 0679 a03e 99b2 03bf 700f c7bf d95a 033d
000000f0: dc00 dcbd 749f bb3e 9cc5 d2bf 73f6 40bc
00000100: 3a5c 90bf 9cc9 243e dc66 5e3d 104a e93e
00000110: 01df c5be 14a8 513f 49ea d03e ec13 e83e
00000120: 0911 03be 1fa8 623e b5d9 1c3f 0d7e 103f
00000130: 57b0 31c0 eb93 e33f 6983 a2bf 2769 ccbd
00000140: 0660 293e 6e8b a5bd 311a 43be ed73 0dbb
00000150: a532 34bd a81e 613f 93d7 6ebf 73e8 623f
00000160: 96d7 1bc0 9937 0dbd e0d9 2b3f e794 69be
00000170: 0f49 593e f535 e9be 1109 3b3f 1ad2 983f
00000180: f26c 3e3d 536b b8bd e004 35be 8a55 88bf
00000190: cbbb 9abe 09dd 23bf baac a8be c6f7 dcbf
000001a0: 6222 abbe c145 c43e 7dc5 c2be 7bdb fd3d
000001b0: ff26 633f d55a 65bd 3907 7dbf 2215 c4bd
000001c0: 4646 933f 0f4f 2abf c28f 083f 1ca3 7abe
000001d0: 7796 b0bf 829b 50bf c95d 593e 7e4b 23bf
000001e0: 049d cabe 4a44 7f3e 23a5 a2be 687f a73d
000001f0: d0d3 bb3f e42a 373f b094 02bf 9bbd e1bb
00000200: 2499 a53e 6797 0cbe f7a5 c23f e1fb 87be
00000210: 3929 9dbd 603d 1fbf b326 e1bd 6fd1 aabd
00000220: 05af aabf d4ff 90be c352 36be 9cf5 5cbe
00000230: 23f1 0c3f b919 ecbe 2e98 143f 67ed adbf
00000240: 3388 9d3f 39bc 85be 919d e2be 28cb 0f3f
00000250: b2e6 84bf 1de9 fa3e

mlp1.2.weight f4 [100, 150]
0.08452678 0.14263572 -0.026168164 -0.3838091 0.058178943 -0.086066134 0.024837613 0.05594084
-0.54021555 -0.041729942 -0.25934732 -0.03292002 0.010814116 -0.0050265654 0.26022235 0.017446771
-0.64557266 -0.053659365 0.022473024 -0.44546485 0.014851041 -0.81730425 -0.08222422 -0.06299195
-0.064099 -0.12195895 -0.050624803 -0.029470148 0.004599378 -0.8522793 0.0545479 -0.2944056
-0.1732674 -0.07980197 0.022825647 -0.7490533 -0.35225517 -0.2288357 0.41066763 0.3799008
-0.045777008 0.07899311 -0.37600556 0.018964352 -0.59995073 0.046013333 -0.25334916 0.019428266
-0.18160836 -0.10718428 -0.03024889 -0.0031486074 -0.061472278 -0.0482997 0.25215706 -0.00842996
-0.5618132 0.03761758 0.36931345 -0.06263811 0.010104777 0.13250999 0.1481774 -0.0072848885
-0.04411732 -0.15088747 0.0037660059 -0.39882824 -0.07975503 -0.024979431 0.09808958 0.37208247
-0.123011984 -0.09826213 -0.116004646 -0.16333888 0.66646194 -0.12930661 -0.14743389 -0.09031708
-0.11036676 -0.01314783 0.42367506 -0.6187208 -0.15948506 0.26879105 -0.15125993 -0.05231525
-1.5137509 0.06487054 -0.108920835 0.047034256 -0.0323671 -0.064562075 -0.4644075 0.009841434
-0.081524715 -0.5239921 -0.0942604 -0.07620681 -0.2748487 -0.112955876 -0.22883886 0.19566679
-0.25080654 -0.06378755 0.24081615 -0.0076425103 0.3204568 -0.30709675 -0.14434434 -0.045336157
0.19961607 0.0087665245 -0.59354955 -0.06765783 -0.17211217 0.75888735 0.041562065 -0.13563037
-0.033852607 -0.09133683 -0.01850196 -0.20986643 -0.25477052 -0.15417583 -0.1172494 -0.07524149
0.01828004 0.041331492 -0.55263764 -0.03923184 -0.4366905 -0.7196965 0.038971264 -0.09436684
-0.44928548 -0.008893828 0.04900545 0.023622693 0.023163574 -0.010358951 -0.29177064 -0.780482
-0.21682668 -0.36683026 -0.018863104 -0.44708136 -0.5002732 0.014647797 -0.06115758 -0.33516076
-0.07494804 0.35474673 0.02300351 0.30445868 -0.12703533 -0.16304709 0.27881166 0.030961314
-0.0067115435 -0.04804412 -0.15462098 0.03372468 -0.5791617 -0.001132107 0.13366622 -0.21446238
-0.14494523 0.40273738 0.03897717 0.3709539 -0.013388643 -0.4235092 0.7633397 0.3933847
-0.43743905 0.018063044 0.043314748 0.2577981 0.055522647 -0.04045516 -0.1598301 -0.09912566
-0.07613359 -0.17009659 -0.09834339 -0.008931888 -0.38901326 -0.27798462 0.05923867 -0.06240389
-0.15790276 -0.55387074 0.12763615 0.014295747 0.48794243 -0.03068614 -0.43566546 -0.21754225
0.056351405 0.009235678 -0.08689752 0.17791487 -0.18702583 -0.10176088 0.53934044 0.50962764
-0.43619213 -0.03569623 0.00343312 -0.09294875 -0.94082344 -0.0976669 -0.6765097 0.05727436
-0.068171926 -0.15566833 0.051036976 -0.106457636 -0.35824496 -0.17412676 0.0923855 0.0087646125
-0.014992116 -0.22807887 -0.6909426 -0.1350726 -0.046222612 0.354962 0.27887645 -0.13640898
-0.5202996 -0.04203543 -0.0061073503 -0.09563751 -0.41421652 -0.8030704 1.0387074 -0.08070494
-0.24014689 -0.06596777 -0.046681326 1.1040511 0.045043327 -1.0329943 0.030687373 0.5967899
-0.011086179 -0.06739645 -0.45620412 -0.09054668 0.21667172 -0.07791703 -0.5114333 -0.10123847
00000000: 601c ad3d 190f 123e 9e5e d6bc a082 c4be
00000010: 0b4d 6e3d 7143 b0bd 4078 cb3c 3922 653d
00000020: 914b 0abf 04ed 2abd 2cc9 84be 25d7 06bd
00000030: b12d 313c e3b5 a4bb dd3b 853e 88ec 8e3c
00000040: 4044 25bf ecc9 5bbd 5919 b83c f813 e4be
00000050: c851 733c da3a 51bf 2c65 a8bd ec01 81bd
00000060: 5646 83bd 9dc5 f9bd f45b 4fbd 616b f1bc
00000070: 61b6 963b fa2e 5abf 9e6d 5f3d 55bc 96be
00000080: 026d 31be 376f a3bd dafc ba3c f5c1 3fbf
00000090: ca5a b4be e853 6abe 0743 d23e 5c82 c23e
000000a0: ac80 3bbd 24c7 a13d cd83 c0be 215b 9b3c
000000b0: 5f96 19bf 7a78 3c3d fbb6 81be 0728 9f3c
000000c0: 8bf7 39be 6f83 dbbd 85cc f7bc de58 4ebb
000000d0: 5bca 7bbd e8d5 45bd bb1a 813e d11d 0abc
000000e0: fdd2 0fbf e414 1a3d a716 bd3e 6948 80bd
000000f0: 828e 253c b3b0 073e d1bb 173e 13b6 eebb
00000100: 5db4 34bd 3f82 1abe 18cf 763b 3733 ccbe
00000110: 9b56 a3bd aaa1 ccbc 31e3 c83d 9881 be3e
00000120: b5ed fbbd a83d c9bd d893 edbd 4f42 27be
00000130: 409d 2a3f f468 04be e9f8 16be 29f8 b8bd
00000140: f807 e2bd ff69 57bc f0eb d83e 7d64 1ebf
00000150: 0d50 23be fb9e 893e e2e3 1abe 8448 56bd
00000160: 97c2 c1bf d8da 843d e311 dfbd fea6 403d
00000170: 5d93 04bd 1f39 84bd d2c6 edbe f73d 213c
00000180: 6ef6 a6bd 5924 06bf 990b c1bd 5112 9cbd
00000190: f8b8 8cbe 6955 e7bd bc54 6abe e05c 483e
000001a0: b769 80be 0ca3 82bd 8298 763e 066e fabb
000001b0: ea12 a43e c93b 9dbe 01cf 13be 68b2 39bd
000001c0: 2868 4c3e 78a1 0f3c ddf2 17bf 3090 8abd
000001d0: 2c3e 30be 7146 423f fc3c 2a3d b0e2 0abe
000001e0: 08a9 0abd ce0e bbbd 6c91 97bc 3ae7 56be
000001f0: 4871 82be 45e0 1dbe 7420 f0bd 3618 9abd
00000200: 06c0 953c 364b 293d a979 0dbf 91b1 20bd
00000210: e695 dfbe 083e 38bf 55a0 1f3d 6743 c1bd
00000220: bf08 e6be 6bb7 11bc f0b9 483d 6184 c13c
00000230: 89c1 bd3c 97b8 29bc f662 95be abcd 47bf
00000240: d007 5ebe 2dd1 bbbe cc86 9abc d9e7 e4be
00000250: e811 00bf 50fd 6f3c 5f80 7abd 319a abbe
00000260: 5c7e 99bd 5da1 b53e db71 bc3c 02e2 9b3e
00000270: 8d15 02be d1f5 26be 67c0 8e3e 95a2 fd3c
00000280: 82ec dbbb e9c9 44bd f654 1ebe e422 0a3d
00000290: f143 14bf 3563 94ba ccdf 083e 079c 5bbe
000002a0: 866c 14be 9833 ce3e 86a6 1f3d abed bd3e
000002b0: 0a5c 5bbc 33d6 d8be 3b6a 433f b869 c93e
000002c0: 03f8 dfbe f3f8 933c ce6a 313d 1dfe 833e
000002d0: b76b 633d 4fb4 25bd 80aa 23be 6502 cbbd
000002e0: edeb 9bbd cd2d 2ebe 4268 c9bd 0e57 12bc
000002f0: bf2c c7be 0054 8ebe 3fa4 723d 399b 7fbd
00000300: 43b1 21be 79ca 0dbf 0db3 023e b538 6a3c
00000310: 97d3 f93e 8061 fbbc 8b0f dfbe 65c3 5ebe
00000320: bbd0 663d 3e51 173c 54f7 b1bd 512f 363e
00000330: b383 3fbe 0268 d0bd 3712 0a3f f576 023f
00000340: 9354 dfbe 3636 12bd 32fe 603b ea5b bebd
00000350: ced9 70bf 9505 c8bd bd2f 2dbf 8598 6a3d
00000360: b99d 8bbd 8567 1fbe 260c 513d 7606 dabd
00000370: e26b b7be 494e 32be 9c34 bd3d 7399 0f3c
00000380: 7ea1 75bc 828d 69be 9de1 30bf 7950 0abe
00000390: ec53 3dbd 94bd b53e e5c8 8e3e ccae 0bbe
000003a0: 5b32 05bf 582d 2cbd 2b20 c8bb 99dd c3bd
000003b0: 3014 d4be 0696 4dbf 5df4 843f a248 a5bd
000003c0: 11e9 75be 1c1a 87bd eb34 3fbd 8c51 8d3f
000003d0: 5a7f 383d 2839 84bf 1664 fb3c 39c7 183f
000003e0: cea2 35bc 2607 8abd 9693 e9be 8a70 b9bd
000003f0: 31df 5d3e f792 9fbd 4bed 02bf 1d56 cfbd

mlp1.2.bias f4 [100]
-0.20033188 -0.74740124 -0.67440104 0.5031532 -0.0469398 -1.5392662 -1.6083935 -4.109703
-0.36352426 -0.19010364 -1.7563106 0.2963811 0.30910724 0.3201172 -0.032754675 0.5845158
-0.08602968 -0.050872505 -0.41118973 -0.38063508 0.7717213 -0.32352978 -1.7077793 0.8282968
-0.44100952 0.39361513 0.20692419 0.7031431 -1.7694039 -0.05966701 -0.49682823 -0.16314423
0.63134927 0.4780584 -0.866227 -0.24244215 -0.30121583 0.24781887 -0.055805497 -0.82456183
-1.5218307 1.0740682 -0.08179961 -0.38438913 -1.9219108 -0.42500722 0.0021594916 0.060322385
0.07186234 -0.0997986 -0.7802133 0.1447266 -0.016437752 -0.47547626 -0.32515085 -0.34170988
-0.5452378 0.3682651 -1.8983103 -0.4338023 -1.6867846 0.7788589 -0.3959337 0.0051377714
-2.7218716 1.0212367 -0.98221 0.25681788 -0.12219467 2.837956 -0.67246413 -0.33134902
-0.65738076 -0.9526935 0.97741115 0.006573008 -0.6835203 0.22129886 2.5536356 -0.49090734
0.19474323 -0.14196658 1.2265785 -1.6886467 -1.405872 -1.2985512 0.19777605 0.6389517
0.7584558 -0.2749003 -0.09948636 -0.2197788 0.011005526 -0.07250714 -0.54611444 0.8032961
-0.7709974 -0.38482654 -0.05306655 -0.10426377
00000000: cd23 4dbe b055 3fbf 8ca5 2cbf a6ce 003f
00000010: f343 40bd ad06 c5bf d7df cdbf b082 83c0
00000020: da1f babe 87aa 42be c9ce e0bf 43bf 973e
00000030: 4e43 9e3e 67e6 a33e c429 06bd d4a2 153f
00000040: 5430 b0bd b05f 50bd 7687 d2be 9ae2 c2be
00000050: 878f 453f b2a5 a5be 8398 dabf 420b 543f
00000060: 00cc e1be ec87 c93e efe3 533e 3001 343f
00000070: d47b e2bf 6565 74bd 4560 febe 480f 27be
00000080: 1ba0 213f 12c4 f43e 0dc1 5dbf c142 78be
00000090: f638 9abe 3bc4 7d3e 4e94 64bd 7c16 53bf
000000a0: 59cb c2bf 117b 893f 8e86 a7bd a7ce c4be
000000b0: 2c01 f6bf 8c9a d9be 4286 0d3b 9b14 773d
000000c0: 902c 933d 3563 ccbd 0fbc 47bf 3633 143e
000000d0: 77a8 86bc a071 f3be 2c7a a6be 99f4 aebe
000000e0: b494 0bbf 3e8d bc3e d5fb f2bf 561b debe
000000f0: 8fe8 d7bf 4c63 473f d2b7 cabe c05a a83b
00000100: 2533 2ec0 e2b7 823f 1d72 7bbf a27d 833e
00000110: 3341 fabd 12a1 3540 9c26 2cbf 94a6 a9be
00000120: 1b4a 28bf b9e3 73bf 9e37 7a3f 6362 d73b
00000130: 30fb 2ebf 2b9c 623e c46e 2340 3558 fbbe
00000140: c56a 473e b05f 11be 8600 9d3f 9325 d8bf
00000150: 9df3 b3bf ed36 a6bf ce85 4a3e 5792 233f
00000160: 292a 423f bbbf 8cbe 81bf cbbd b20d 61be
00000170: 8650 343c a07e 94bd 28ce 0bbf d0a4 4d3f
00000180: 1660 45bf fc07 c5be 505c 59bd 3e88 d5bd

mlp2.0.weight f4 [100, 100]
0.20503084 0.3053424 0.098442264 0.18018712 0.0361087 -0.26895776 -0.07654319 -0.31145716
-0.361839 -0.29117975 -0.09519704 0.14168453 0.09551296 -0.36497948 -0.04162842 0.09216058
0.019365292 0.14221323 -0.080293596 0.054765638 -0.33070976 0.15377781 -0.34459814 0.072946176
-0.14591683 -0.70233643 -0.05297586 0.26835883 -0.14515457 0.11096341 -0.15858397 -0.17224471
-0.11377023 -0.18989283 -0.5554265 -0.18317768 -0.148009 0.0020540513 0.030561984 0.029798076
-0.21401154 -0.08600421 -0.10835399 -0.06472558 0.26124248 -0.3909407 0.34169972 0.0727093
0.011070963 -0.4023031 -0.23396823 -0.1621931 0.0286641 -0.23665403 -0.007082971 0.10796485
-0.5538776 -0.026253235 -0.048676938 -0.29437712 0.010518929 0.072826914 -0.064093575 0.03239409
-0.28006887 0.1454005 -0.65233606 -0.06713971 -0.16955198 0.72231865 -0.06848393 0.045037284
0.11682061 -0.4816992 -0.15867858 -0.050709233 -0.001410176 0.71497184 0.7505451 0.005655749
-0.03312408 -0.28634852 -0.2024744 0.21251786 -0.116680056 0.36946368 -0.5781466 -0.39940453
0.21716498 -0.4225006 -0.036042616 -0.15805247 0.15536936 0.1508875 -0.2640333 0.0498464
-0.53294253 -0.30933264 0.06710891 -0.00998983 0.05560176 -0.21446858 -0.15531965 -0.11033872
0.0008259422 0.07973512 -0.029516567 -0.10134453 -0.39190498 -0.03504284 -0.34274948 0.029741945
-0.46225142 -0.4011704 -0.3955479 -0.03007951 -0.15955932 0.080351 -0.035959303 0.09260385
0.011300986 0.47060335 0.10479769 -9.087899e-05 -0.1113472 -0.22542575 -0.06926384 -0.08969693
0.18949972 -0.006614316 -0.16894566 -0.9938259 -0.1855149 0.18431108 0.0011238182 -0.013057176
-0.22612889 -0.14964665 0.27624178 -0.22941065 -0.054657735 -0.3668625 -0.48562184 -0.07192399
-0.20896684 0.26007336 0.2944203 0.20679049 -0.3010853 -0.20893976 -0.6189211 -0.18058395
-0.27822733 0.011585389 -0.114255935 -0.031536546 -0.19921173 0.047407366 -0.50201815 -0.43503717
0.032863963 -0.40277064 -0.31844014 -0.09395561 -0.206794 -0.3111971 -0.48422188 -0.34169033
-0.44521374 0.032334406 0.5144895 -0.24450964 -0.37100717 -0.18477015 -0.53791445 0.0068267575
-0.32591024 0.02975158 0.030732406 -0.051663995 0.1247469 -0.17114528 0.1679803 -0.3987892
-0.20015395 -0.24477588 -0.12990618 -0.33269426 0.021710912 -0.12492359 -0.0038245395 -0.13531362
0.009035758 -0.075927295 -0.01871332 0.025432207 -0.66028273 -0.003906325 -0.100073054 0.53421354
-0.10535473 -0.47846526 -0.2978335 -0.24271825 -0.07072639 -1.2121295 -0.4251234 -0.0630131
-0.2347772 0.00075069175 -0.51102245 0.15660581 -0.18996657 -0.3314777 -0.278235 -0.043417547
0.1020555 0.21707118 0.1260056 -0.33405742 -0.5130139 -0.0921017 0.50337815 -0.06262166
-0.37695235 0.12691985 -0.12357358 -0.031517 -0.49224946 0.044549976 -0.24515837 -0.32705718
-0.12809373 -0.46534136 0.07360214 -0.3622461 -0.31656477 0.19834046 -0.06306267 0.015975323
-0.4471517 -1.1561394 -0.17385809 0.36342892 -0.41403243 -0.29383 -0.2188711 0.040342066
-0.4919314 -0.3616689 -0.23721117 -0.63871354 0.03187918 -0.3412545 0.33003518 -0.012840943
00000000: 9bf3 513e d755 9c3e 199c c93d f982 383e
00000010: b7e6 133d d5b4 89be adc2 9cbd 5077 9fbe
00000020: f642 b9be 8315 95be aaf6 c2bd c015 113e
00000030: 4c9c c33d 97de babe 9082 2abd b0be bc3d
00000040: f6a3 9e3c 58a0 113e f870 a4bd ef51 603d
00000050: ca52 a9be ee77 1d3e 2b6f b0be ce64 953d
00000060: 396b 15be 52cc 33bf 37fd 58bd 5466 893e
00000070: 66a3 14be c940 e33d d663 22be eb60 30be
00000080: 5e00 e9bd 4473 42be 6e30 0ebf ee92 3bbe
00000090: ac8f 17be 439d 063b 205d fa3c 181b f43c
000000a0: d725 5bbe fa22 b0bd b2e8 ddbd d88e 84bd
000000b0: 93c1 853e 6129 c8be 44f3 ae3e 9de8 943d
000000c0: fc62 353c acfa cdbe 5e95 6fbe f315 26be
000000d0: fad0 ea3c 6f55 72be 4418 e8bb ad1c dd3d
000000e0: ecca 0dbf 0611 d7bc 7861 47bd 99b8 96be
000000f0: 9657 2c3c 4726 953d 7e43 83bd aaaf 043d
00000100: 3065 8fbe dee3 143e 7fff 26bf 8b80 89bd
00000110: 099f 2dbe e0e9 383f 4d41 8cbd 0479 383d
00000120: a53f ef3d 47a1 f6be a37c 22be 7cb4 4fbd
00000130: a8d5 b8ba 6508 373f b923 403f dc53 b93b
00000140: 1ead 07bd 469c 92be 7355 4fbe 489e 593e
00000150: f4f5 eebd 582a bd3e 6a01 14bf c07e ccbe
00000160: 7f60 5e3e 0052 d8be 6ca1 13bd 82d8 21be
00000170: 2519 1f3e 4182 1a3e 5f2f 87be bd2b 4c3d
00000180: ec6e 08bf d960 9ebe 6570 893d 62ac 23bc
00000190: acbe 633d a79d 5bbe 1d0c 1fbe 44f9 e1bd
000001a0: 0b84 583a 2b4c a33d bacc f1bc b98d cfbd
000001b0: c5a7 c8be 1589 0fbd dc7c afbe 61a5 f33c
000001c0: 38ac ecbe 3566 cdbe 4185 cabe 4e69 f6bc
000001d0: 8563 23be 118f a43d 104a 13bd 16a7 bd3d
000001e0: c527 393c ecf2 f03e 2ca0 d63d 4996 beb8
000001f0: 000a e4bd 02d6 66be 33da 8dbd 06b3 b7bd
00000200: 370c 423e e7bc d8bb 1700 2dbe 606b 7ebf
00000210: 9ef7 3dbe 0bbc 3c3e 154d 933a c4ed 55bc
00000220: 558e 67be f93c 19be 906f 8d3e a0ea 6abe
00000230: cae0 5fbd 67d5 bbbe 6da3 f8be e34c 93bd
00000240: 67fb 55be 5628 853e 42be 963e e3c0 533e
00000250: da27 9abe 4ef4 55be 9d71 1ebf 00eb 38be
00000260: d073 8ebe a5d0 3d3c 04ff e9bd 772c 01bd
00000270: 29fe 4bbe 3a2e 423d 4384 00bf 31bd debe
00000280: 5d9c 063d f437 cebe 960a a3be cd6b c0bd
00000290: cec1 53be 3a55 9fbe eeeb f7be 09f2 aebe
000002a0: 0ef3 e3be 1571 043d 95b5 033f bc60 7abe
000002b0: a7f4 bdbe 6334 3dbe c3b4 09bf feb2 df3b
000002c0: b5dd a6be 96b9 f33c 87c2 fb3c a09d 53bd
000002d0: 4d7b ff3d b540 2fbe 0703 2c3e 192e ccbe
000002e0: 28f5 4cbe 87a6 7abe 2006 05be e756 aabe
000002f0: 15db b13c f0d7 ffbd 20a5 7abb a78f 0abe
00000300: b70a 143c c57f 9bbd ad4c 99bc 3457 d03c
00000310: 4a08 29bf a100 80bb 1af3 ccbd 38c2 083f
00000320: 38c4 d7bd 66f9 f4be a27d 98be 228b 78be
00000330: ffd8 90bd 0f27 9bbf c6a9 d9be 030d 81bd
00000340: 6f69 70be 12ca 443a 5ed2 02bf 465d 203e
00000350: 9986 42be 72b7 a9be d174 8ebe 99d6 31bd
00000360: 7902 d13d e847 5e3e 9d07 013e 9309 abbe
00000370: e154 03bf d19f bcbd 64dd 003f c93f 80bd
00000380: e6ff c0be 47f7 013e 2514 fdbd f817 01bd
00000390: 1f08 fcbe 097a 363d cc0a 7bbe 0a74 a7be
000003a0: 012b 03be 3941 eebe b8bc 963d 5278 b9be
000003b0: c714 a2be c319 4b3e 0027 81bd aede 823c
000003c0: 11f1 e4be 60fc 93bf db07 32be 5b13 ba3e
000003d0: 0ffc d3be e370 96be bf1f 60be b93d 253d
000003e0: 6fde fbbe ab2c b9be 7ce7 72be bb82 23bf
000003f0: be93 023d e9b8 aebe 5ffa a83e d262 52bc

mlp2.0.bias f4 [100]
-0.22383437 -0.101493254 -0.27582195 -0.10399111 -0.61935484 -0.5172876 -0.41641873 0.9512648
0.26946214 -0.2425735 -0.12483267 1.2223314 -0.54301184 -0.40535596 0.5707234 0.18824168
-0.50304985 -0.3471925 1.2583228 0.45170653 1.8591117 -0.17300107 -0.4546453 1.5927157
-0.050324783 0.35636923 0.25723532 1.7724473 -0.22199595 -0.26871273 -0.81486404 1.7094145
0.15537359 0.044736788 -0.6284857 -0.88381445 -0.021416292 -0.4909812 0.1513319 -0.53066343
1.2421014 -0.7888376 0.19900914 0.97254825 -0.5127574 2.8283942 0.5629519 -0.18888302
0.0077434108 0.40224525 0.33707148 -0.27017418 -0.036029734 1.6735269 -0.14141026 -0.41060525
-0.075974025 0.27793628 0.67682165 0.04858117 -0.2691027 -0.21726045 0.38865247 0.5290064
-0.34797898 1.1861371 0.7204498 0.17522438 -0.15039766 0.06262127 0.0531364 0.11966654
-0.42942035 0.36316007 -0.25555524 -0.15121582 -0.93685484 2.798321 -0.66005045 0.29317945
-0.25041512 -0.18157311 -0.3766614 0.292751 -0.4036742 -0.39914644 -0.066716745 0.21888305
1.5629901 -0.25117669 -0.4724077 -0.36250874 -0.18921866 -0.41975462 0.6724218 -0.05401615
0.27649936 -0.1383062 -0.12692171 4.443162
00000000: d634 65be b2db cfbd 8938 8dbe 4bf9 d4bd
00000010: 0a8e 1ebf f66c 04bf d634 d5be 1786 733f
00000020: f1f6 893e 3065 78be 45a8 ffbd 5b75 9c3f
00000030: d302 0bbf d18a cfbe ee1a 123f 6dc2 403e
00000040: e0c7 00bf 37c3 b1be b910 a13f 1446 e73e
00000050: 5ff7 ed3f 3127 31be 45c7 e8be 1cde cb3f
00000060: 5c21 4ebd 0776 b63e 59b4 833e 8edf e23f
00000070: e852 63be b794 89be ee9a 50bf 18ce da3f
00000080: 411a 1f3e ec3d 373d 70e4 20bf aa41 62bf
00000090: 3871 afbc e361 fbbe c0f6 1a3e 8fd9 07bf
000000a0: 2efd 9e3f 43f1 49bf 0dc9 4b3e ecf8 783f
000000b0: 1244 03bf 6904 3540 9e1d 103f 8d6a 41be
000000c0: 70bc fd3b 17f3 cd3e a294 ac3e 4554 8abe
000000d0: ea93 13bd 2136 d63f dacd 10be da3a d2be
000000e0: 4598 9bbd aa4d 8e3e 2f44 2d3f 0dfd 463d
000000f0: d4c7 89be 8679 5ebe 75fd c63e f76c 073f
00000100: 4d2a b2be 57d3 973f 666f 383f 056e 333e
00000110: d801 1abe 953f 803d 8ea5 593d bb13 f53d
00000120: fcdc dbbe 1ef0 b93e 23d8 82be 52d8 1abe
00000130: b8d5 6fbf b117 3340 11f9 28bf 9e1b 963e
00000140: 6936 80be 4dee 39be c3d9 c0be 76e3 953e
00000150: 62ae cebe ec5c ccbe caa2 88bd e122 603e
00000160: 0f10 c83f 3b9a 80be 6cdf f1be bf9a b9be
00000170: 89c2 41be 14ea d6be d623 2c3f 0a40 5dbd
00000180: 5391 8d3e 24a0 0dbe c4f7 01be 622e 8e40

mlp2.2.weight f4 [50, 100]
0.27067846 0.22245753 0.16372092 0.21412136 -0.37952948 -0.16556393 0.061514344 -0.21131779
0.011052002 -0.16231911 0.20178072 -0.16530593 -0.17719693 -0.1096096 -0.19739884 0.16403191
0.24693216 0.072025396 -0.31751624 0.2998005 0.12512335 -0.03252996 0.1040549 0.38903835
0.13271305 0.32031476 -0.24149604 -0.25493014 0.103507966 -0.019373821 0.09466916 0.08268538
0.097251594 -0.36662427 0.18904705 -0.048265472 -0.1594851 -0.16794829 0.25503638 -0.029924106
0.34543997 -0.13807645 0.07893787 -0.005634148 0.08026591 0.044798385 0.14498153 0.08204442
-0.3696876 -0.34107974 0.26619005 -0.052865893 -0.12818126 0.050209828 0.14412981 0.09238693
-0.231044 0.28265613 0.054960176 -0.38460338 -0.03940026 0.06508276 -0.09710856 -0.041448604
0.1339575 -0.0488677 0.010437836 0.19223334 -0.2580852 0.22424921 0.0028864772 0.098604396
-0.0021614688 0.16179803 0.13018928 -0.07102523 0.16214466 -0.06268798 -0.13396615 0.14317395
-0.014709514 0.0046821786 -0.09820675 0.03568432 -0.11293774 -0.13956329 -0.13592365 0.17241524
-0.012880915 -0.01194151 0.091560304 -0.16178066 -0.01776659 -0.070089154 -0.09516727 0.08207526
0.034681574 -0.009342629 -0.24787167 -0.07866638 0.117630355 0.19784203 -0.40139487 -0.09636407
0.1260676 -0.026143903 -0.15274999 0.033820443 0.18068351 -0.22216909 -0.14842048 0.119814605
-0.022609318 -0.028489863 0.43686524 0.008622374 -0.048107777 -0.14088957 -0.014019184 0.079924345
-0.3369289 0.0764047 0.082032695 -0.08438117 0.2114804 -0.3286532 -0.3349112 0.10053182
-0.17386752 0.010559484 -0.04191547 0.12567005 -0.067528434 0.15982108 -0.01217936 0.13136566
-0.19472621 0.083914295 0.011925512 -0.11466126 0.3221333 0.37125477 -0.13895772 -0.07933602
0.042861138 -0.22031872 -0.022448165 0.041714452 -0.10286326 0.05145471 -0.12097384 0.19717042
0.29642045 -0.077989504 -0.26194346 -0.075878106 0.17532589 -0.0757814 -0.08829306 -0.086783454
0.07801512 -0.041445088 -0.25221643 -0.08678685 -0.3634196 0.26474872 -0.06968456 -0.0882529
0.0867296 -0.17610592 -0.0470321 -0.014966033 -0.15627943 0.02646298 -0.06101854 0.053035133
-0.21314286 0.094488285 -0.41805553 0.06514533 -0.18448651 -0.20386708 -0.048293963 0.030731348
0.0046591405 0.3709459 0.041069504 0.18591723 0.20927954 0.07294759 -0.11074066 -0.15916948
-0.026451934 -0.005066071 -0.004943128 0.06774021 0.05678089 -0.30541414 -0.13123055 0.43252835
0.0128747495 0.3552324 0.08506447 -0.11352331 -0.04833341 0.11475627 0.3045468 0.10820567
-0.017915541 -0.120383084 0.3526471 0.002563367 0.07854052 -0.014522338 -0.12399492 -0.34835318
-0.2567336 -0.011496325 -0.24874668 0.120833695 -0.038758554 -0.1185544 0.13582292 -0.11028573
0.001264871 -0.07509136 -0.26454762 -0.19956914 0.09266292 -0.07435395 0.006743753 0.3003228
-0.10706585 0.121014774 0.4271296 0.34431276 -0.08789026 -0.023628805 -0.12532453 0.07957906
0.21774775 -0.017265195 -0.10277354 -0.0936942 -0.027562335 -0.1028054 -0.19963104 -0.05794412
-0.061996005 -0.2938774 -0.13251406 -0.25978827 0.2757341 -0.23910171 0.07092131 -0.2975784
00000000: 5e96 8a3e e8cb 633e 75a6 273e a142 5b3e
00000010: b051 c2be 9789 29be 77f6 7b3d b163 58be
00000020: 7513 353c fb36 26be 9b9f 4e3e f545 29be
00000030: 1d73 35be ff7a e0bd ec22 4abe fbf7 273e
00000040: c9db 7c3e 0d82 933d 7d91 a2be 737f 993e
00000050: 5620 003e 233e 05bd bc1a d53d 0930 c73e
00000060: eee5 073e 4c00 a43e bd4a 77be 3486 82be
00000070: fcfb d33d d9b5 9ebc e8e1 c13d f456 a93d
00000080: d82b c73d 2db6 bbbe 8d95 413e 04b2 45bd
00000090: 1050 23be a3fa 2bbe 2194 823e 6623 f5bc
000000a0: 82dd b03e ea63 0dbe 2eaa a13d a99e b8bb
000000b0: 7462 a43d 837e 373d 0a76 143e e806 a83d
000000c0: b147 bdbe 01a2 aebe 104a 883e e889 58bd
000000d0: f341 03be d2a8 4d3d c496 133e 5c35 bd3d
000000e0: cc96 6cbe 4eb8 903e ec1d 613d bcea c4be
000000f0: 2b62 21bd 1c4a 853d dae0 c6bd 03c6 29bd
00000100: 282c 093e 7f29 48bd 7503 2b3c d1d8 443e
00000110: be23 84be 96a1 653e 0d2b 3d3b 1af1 c93d
00000120: 6ea7 0dbb 62ae 253e 5750 053e ad75 91bd
00000130: 4009 263e 8e62 80bd 6c2e 09be 319c 123e
00000140: 2c00 71bc f66c 993b 9f20 c9bd b929 123d
00000150: e74b e7bd aee9 0ebe 922f 0bbe 9f8d 303e
00000160: 790a 53bc 53a6 43bc f883 bb3d d4a9 25be
00000170: 3d8b 91bc e78a 8fbd 0fe7 c2bd 1317 a83d
00000180: 440e 0e3d d411 19bc 12d2 7dbe d71b a1bd
00000190: 2fe8 f03d 1a97 4a3e a183 cdbe 875a c5bd
000001a0: dd17 013e bd2b d6bc 7e6a 1cbe 4e87 0a3d
000001b0: 1905 393e 4b80 63be 8afb 17be 5c61 f53d
000001c0: 2d37 b9bc 9363 e9bc cdac df3e dc44 0d3c
000001d0: a90c 45bd 5b45 10be b8b0 65bc 60af a33d
000001e0: f281 acbe 117a 9c3d c200 a83d 09d0 acbd
000001f0: 518e 583e 3b45 a8be 7b79 abbe a0e3 cd3d
00000200: 540a 32be b001 2d3c 8eaf 2bbd a6af 003e
00000210: 594c 8abd 23a8 233e f08b 47bc b884 063e
00000220: 4f66 47be 42db ab3d 3963 433c 86d3 eabd
00000230: a8ee a43e 1b15 be3e ef4a 0ebe ec7a a2bd
00000240: 298f 2f3d 3b9b 61be 37e5 b7bc c6dc 2a3d
00000250: f9a9 d2bd 2dc2 523d 22c1 f7bd 0be7 493e
00000260: 6cc4 973e f6b8 9fbd 741d 86be fb65 9bbd
00000270: a188 333e 4733 9bbd fed2 b4bd 86bb b1bd
00000280: 64c6 9f3d 53c2 29bd 8322 81be 4ebd b1bd
00000290: 2212 babe 258d 873e c7b6 8ebd f0bd b4bd
000002a0: 4a9f b13d 1c55 34be bba4 40bd 1834 75bc
000002b0: b707 20be e4c8 d83c 94ee 79bd 5e3b 593d
000002c0: 1f42 5abe 1383 c13d 600b d6be ea6a 853d
000002d0: 08ea 3cbe 88c2 50be e4cf 45bd 4fc0 fb3c
000002e0: b4ab 983b 9fec bd3e 7f38 283d 1661 3e3e
000002f0: 604d 563e 8c65 953d 00cc e2bd 53fd 22be
00000300: bab1 d8bc 4901 a6bb f7f9 a1bb 61bb 8a3d
00000310: 1493 683d 3e5f 9cbe 4d61 06be 5b74 dd3e
00000320: 9df0 523c 05e1 b53e 4836 ae3d e97e e8bd
00000330: 41f9 45bd 5605 eb3d 8fed 9b3e ef9a dd3d
00000340: 9dc3 92bc 688b f6bd 298e b43e 29fe 273b
00000350: dad9 a03d 1aef 6dbc 0cf1 fdbd 595b b2be
00000360: 9672 83be 155b 3cbc 73b7 7ebe a877 f73d
00000370: 4ac1 1ebd a6cc f2bd 2a15 0b3e 7cdd e1bd
00000380: 07ca a53a 80c9 99bd c972 87be da5b 4cbe
00000390: 0fc6 bd3d e246 98bd b3fa dc3b e9c3 993e
000003a0: 5745 dbbd 98d6 f73d bbb0 da3e c349 b03e
000003b0: cfff b3bd 3291 c1bc 1355 00be 59fa a23d
000003c0: 44f9 5e3e bd6f 8dbc ef7a d2bd bfe2 bfbd
000003d0: 68ca e1bc a38b d2bd 146c 4cbe d056 6dbd
000003e0: 86ef 7dbd 1977 96be c4b1 07be f802 85be
000003f0: 052d 8d3e 14d7 74be 313f 913d 325c 98be

mlp2.2.bias f4 [50]
-0.7887501 -2.0605898 0.61627805 0.4134403 0.18409128 -0.2000288 0.1067076 1.9403579
1.2950621 -0.6135365 1.0815483 0.2437856 -1.4749746 -1.1263528 -0.61851543 -0.1621941
0.17151256 -0.096314035 0.18583956 1.0065559 -0.29155874 -0.23817316 0.06774639 -1.0315744
0.26525095 -1.3365369 0.91503984 0.39648655 0.1329715 -0.09983986 1.1912253 -1.1464832
1.8865227 1.3255368 0.21793462 -1.1959627 -0.016526131 0.39318696 -2.175783 0.59177405
0.90126884 -0.7126933 3.2262986 -1.0938112 -0.22116272 1.6392328 0.38028166 0.29268178
-0.8806532 0.67987347
00000000: 87eb 49bf b4e0 03c0 66c4 1d3f 72ae d33e
00000010: 6d82 3c3e 5ad4 4cbe 8489 da3d a65d f83f
00000020: 98c4 a53f ba10 1dbf 2d70 8a3f efa2 793e
00000030: f8cb bcbf 542c 90bf 0757 1ebf 3616 26be
00000040: fda0 2f3e 4b40 c5bd ba4c 3e3e d3d6 803f
00000050: 3047 95be aae3 73be 9fbe 8a3d a10a 84bf
00000060: f9ce 873e a413 abbf 0d40 6a3f 4900 cb3e
00000070: ae29 083e d778 ccbd 127a 983f f6bf 92bf
00000080: 9379 f13f 31ab a93f 412a 5f3e 4e15 99bf
00000090: cf61 87bc cd4f c93e 0740 0bc0 817e 173f
000000a0: 8eb9 663f 1173 36bf ad7b 4e40 0102 8cbf
000000b0: 7b78 62be 61d2 d13f 47b4 c23e 63da 953e
000000c0: 7d72 61bf 300c 2e3f

attention.0.weight f4 [100, 100]
0.00409754 0.2975173 -0.12378302 -0.0089228805 0.074672006 0.03504427 0.20653965 -0.6055214
-0.2520737 -0.03218321 -0.29731092 -0.35866383 0.2188751 0.25205934 0.28397256 0.08651202
0.31980693 -0.029069392 -0.16678156 -0.0829524 -0.23708805 0.033609584 -0.14231794 0.006866062
-0.14710483 -0.15952437 0.020968433 -0.38201076 0.21228063 -0.11339438 -0.08384829 -0.3682985
0.3144481 -0.3830912 0.035085674 -0.1987387 -0.53203124 -0.005542706 0.031792965 -0.25407186
-0.056560196 -0.11510446 -0.0042713643 -0.19630003 -0.5037026 0.07563906 0.47046262 0.021006247
-0.080551736 0.085338086 -0.20748463 -0.29970104 -0.33401194 -0.1294816 -0.110912174 -0.011756395
-0.37576845 -0.04691481 -0.30805537 0.18182512 0.39607623 -0.06300421 0.843629 0.07929008
-0.03399701 0.7138046 0.19378921 -0.027529573 -0.42248407 -0.026096301 -0.32737058 -0.0653168
-0.15797517 0.07403241 0.11916496 0.006040024 0.088999264 0.1431798 0.26527798 -0.03388455
-0.08500233 0.10007632 -0.6116859 0.023698956 -0.12398821 0.33994758 -0.2713166 -0.16327414
-0.09655736 -0.6347961 -0.018860925 -0.26977634 -0.032523274 0.129386 0.42766422 -0.14765643
-0.6864452 0.0122192465 0.13170859 0.26743254 0.45057562 -0.2227056 -0.0945668 -0.050560523
0.03518513 0.13204503 -0.16082583 -0.5217884 0.4050906 -0.14514847 0.07126529 0.0532203
-0.41887614 -0.061436463 -0.08780692 -0.016580686 -0.09283311 -0.13059686 -0.24933192 -0.07419039
-0.015853986 -0.33470848 -0.27170926 -0.037531972 -0.054744527 -0.45990124 -0.32615113 -0.06746162
0.09708104 -0.52110946 -0.017914126 0.003963762 0.12920949 -0.10440418 -0.38469845 -0.22822854
-0.15372889 0.06403514 -0.02512847 -0.2478786 -0.2725677 -0.20471513 0.16519468 -0.0056492086
0.043075725 0.09226582 -0.84135765 0.029810347 -0.11502455 -0.29487917 -0.085325636 -0.08106208
0.07621987 -0.23708443 -0.28709054 -0.1001103 0.21680921 -0.14833415 -0.34081686 0.35846817
0.31658852 0.100920685 -0.16091305 0.07837718 -0.061443076 -0.22998147 -0.056849193 0.20068721
-0.052138954 0.30743334 0.2016878 -0.11623954 -0.09926154 -0.19387588 -0.16136861 0.007282859
0.017825391 -0.088202186 0.19834359 -0.22228245 0.00015448302 -0.1338402 0.26080638 -0.28546456
-0.2167952 -0.13942094 0.09052694 0.3140026 -0.08073401 -0.07549849 0.04509192 -0.100115396
0.031036431 0.0842379 -0.22416389 0.31638727 0.051316798 -0.16829072 -0.033317655 0.42246324
-0.03569465 -0.115851395 -0.1305139 0.13452098 0.05645096 0.18110174 0.2595461 -0.2639165
-0.2142539 0.09854807 0.20300128 -0.02828099 0.022618629 -0.19841388 -0.2926699 -0.06041536
0.026908236 -0.08969014 -0.09757304 -0.28212118 -0.102045156 0.19804108 -0.25710475 -0.092195675
0.03270571 -0.16126134 0.04532401 -0.11475847 -0.10353683 0.06859451 -0.09433566 0.036098327
-0.35171354 -0.03334872 0.035977393 0.13650113 0.023510521 0.06484207 -0.07646093 -0.032830797
-0.10743344 -0.03649527 -0.30602238 -0.17254537 -0.034103975 -0.07311058 -0.25201583 -0.09821876
-0.09717095 -0.120063916 -0.01347474 0.02037399 0.1997514 -0.15040594 0.13621087 -0.12967838
00000000: a844 863b 3054 983e f481 fdbd 4631 12bc
00000010: a3ed 983d 958a 0f3d 217f 533e 7303 1bbf
00000020: ce0f 81be 8bd2 03bd 2339 98be c9a2 b7be
00000030: cb20 603e ec0d 813e da64 913e 372d b13d
00000040: bcbd a33e ef22 eebc c9c8 2abe f3e2 a9bd
00000050: 36c7 72be 34aa 093d cbbb 11be b4fc e03b
00000060: a6a2 16be 5b5a 23be fec5 ab3c ea96 c3be
00000070: 1860 593e 503b e8bd a7b8 abbd 9f91 bcbe
00000080: 57ff a03e 8824 c4be ffb5 0f3d 2882 4bbe
00000090: 3333 08bf 979f b5bb 5739 023d b515 82be
000000a0: aaab 67bd e3bb ebbd cdf6 8bbb e002 49be
000000b0: a7f2 00bf a7e8 9a3d 7ae0 f03e 4b15 ac3c
000000c0: 4ff8 a4bd bcc5 ae3d da76 54be 6a72 99be
000000d0: 9d03 abbe d396 04be ec25 e3bd e59d 40bc
000000e0: b964 c0be be29 40bd 6fb9 9dbe 5d30 3a3e
000000f0: 81ca ca3e 5a08 81bd 12f8 573f d662 a23d
00000100: 7340 0bbd e6bb 363f ae70 463e b385 e1bc
00000110: d54f d8be e9c7 d5bc 1e9d a7be d0c4 85bd
00000120: 3ec4 21be 4e9e 973d c20c f43d 65eb c53b
00000130: 3f45 b63d ba9d 123e 84d2 873e 87ca 0abd
00000140: b415 aebd d0f4 cc3d 7297 1cbf 5024 c23c
00000150: 88ed fdbd 9c0d ae3e 02ea 8abe 5631 27be
00000160: ddbf c5bd ff81 22bf 3a82 9abc 2020 8abe
00000170: 2037 05bd c37d 043e cef6 da3e 3f33 17be
00000180: dfba 2fbf 3c33 483c 9ede 063e ebec 883e
00000190: d9b1 e63e f00c 64be 3dac c1bd 8d18 4fbd
000001a0: 481e 103d d036 073e 87af 24be ed93 05bf
000001b0: 0968 cf3e cda1 14be 89f3 913d 87fd 593d
000001c0: ef76 d6be cda4 7bbd 1dd4 b3bd 38d4 87bc
000001d0: 491f bebd 2fbb 05be de50 7fbe 22f1 97bd
000001e0: 38e0 81bc e95e abbe 7a1d 8bbe 20bb 19bd
000001f0: cc3b 60bd 2d78 ebbe 48fd a6be 5129 8abd
00000200: 6dd2 c63d 6e67 05bf a5c0 92bc 72e2 813b
00000210: 7e4f 043e dcd1 d5bd 32f7 c4be beb4 69be
00000220: 1b6b 1dbe db24 833d 39da cdbc e3d3 7dbe
00000230: fe8d 8bbe d8a0 51be cb28 293e ff1c b9bb
00000240: 2c70 303d ddf5 bc3d 3763 57bf d434 f43c
00000250: fe91 ebbd 67fa 96be 35bf aebd e003 a6bd
00000260: 2a19 9c3d 43c6 72be 88fd 92be a106 cdbd
00000270: 3c03 5e3e e8e4 17be 8c7f aebe 2489 b73e
00000280: e417 a23e 81af ce3d 64c6 24be 3784 a03d
00000290: bcab 7bbd 4380 6bbe b3da 68bd f380 4d3e
000002a0: a88f 55bd e767 9d3e 3f87 4e3e ff0e eebd
000002b0: a249 cbbd 6687 46be d03d 25be 0da5 ee3b
000002c0: 8e06 923c 59a3 b4bd 951a 4b3e 039e 63be
000002d0: b8fc 2139 680d 09be 6a88 853e 6928 92be
000002e0: 90ff 5dbe 5dc4 0ebe 3066 b93d f3c4 a03e
000002f0: df57 a5bd f49e 9abd 4eb2 383d 4d09 cdbd
00000300: 1d40 fe3c ec84 ac3d 388b 65be 83fd a13e
00000310: 9031 523d 6754 2cbe 1878 08bd 1a4d d83e
00000320: 8e34 12bd 7f43 edbd 70a5 05be debf 093e
00000330: 1f39 673d bc72 393e 3ae3 843e 1020 87be
00000340: 6065 5bbe 92d3 c93d 91df 4f3e 89ad e7bc
00000350: b44a b93c 022d 4bbe d4d8 95be 1976 77bd
00000360: a96e dc3c 77af b7bd 60d4 c7bd 3072 90be
00000370: 0dfd d0bd 48cb 4a3e 3ca3 83be 16d1 bcbd
00000380: 6cf6 053d b121 25be aba5 393d 7d06 ebbd
00000390: 1e0b d4bd 477b 8c3d 0e33 c1bd d7db 133d
000003a0: cc13 b4be ab98 08bd 085d 133d f4c6 0b3e
000003b0: 2399 c03c ebcb 843d 8c97 9cbd 9679 06bd
000003c0: 1006 dcbd 107c 15bd f7ae 9cbe bcaf 30be
000003d0: 9cb0 0bbd 00bb 95bd 3808 81be eb26 c9bd
000003e0: 9001 c7bd 12e4 f5bd 28c5 5cbc 5be7 a63c
000003f0: a28b 4c3e 0404 1abe dd7a 0b3e 69ca 04be

attention.0.bias f4 [100]
-0.68105704 -0.7391307 -0.73209053 -0.4729752 -0.04437872 -0.39931774 0.0908459 -0.31932446
-0.14987566 -0.006653624 -0.30448765 -0.5366482 -0.24959539 -0.3045949 -0.22488603 -1.1723155
0.40020207 0.12760726 -0.44015792 -0.14062367 -0.46857837 -0.20893082 -0.07554678 -0.006815906
-0.46056265 -0.023754291 -0.2043866 -0.49367228 -0.18004216 0.8492433 -0.08649356 -0.048374325
-0.22170931 -0.24201344 -0.27311695 -0.32521954 -0.14727052 -0.29276317 -0.72342604 -0.210202
-0.43610027 -0.23162794 0.07282595 -0.7101105 -0.6774402 -0.3330312 -0.03895299 -0.36209783
-0.5996294 -0.6275359 0.49077746 -0.9750875 -0.2661991 -0.006887484 -0.977683 0.095629126
-0.16912876 -0.2974048 0.3412292 -0.04444129 -0.40189785 -0.49183902 -0.2247321 -0.32508212
-1.0633261 -0.2043483 -0.1896068 0.26681182 -0.110593855 -0.5569623 -0.444418 -0.12725978
-0.61185235 -0.51375926 -0.61799145 -0.5577155 0.12518418 0.12336517 -0.17813098 -0.7826062
-0.028086197 -0.2812425 -0.21329442 0.016258609 -0.60247 -0.060302835 -0.21312274 0.22809349
-0.41403824 -0.44843447 0.021639233 -0.8738657 -0.16129093 -0.16813107 -0.7973295 -0.47129357
-0.0027727424 -0.5994689 -0.30146357 -0.4377183
00000000: c159 2ebf ab37 3dbf 496a 3bbf ce29 f2be
00000010: 76c6 35bd 6073 ccbe 6a0d ba3d 7f7e a3be
00000020: 0179 19be a506 dabb cee5 9bbe c761 09bf
00000030: ef95 7fbe ddf3 9bbe 8648 66be 6f0e 96bf
00000040: 49e7 cc3e 7aab 023e 615c e1be a7ff 0fbe
00000050: 81e9 efbe f6f1 55be 45b8 9abd f757 dfbb
00000060: dece ebbe 5c98 c2bc b94a 51be 9dc2 fcbe
00000070: f95c 38be 0268 593f 8923 b1bd 2824 46bd
00000080: c407 63be 5fd2 77be fcd5 8bbe 2d83 a6be
00000090: 15ce 16be 0ee5 95be 7332 39bf 313f 57be
000000a0: 8948 dfbe e02f 6dbe c625 953d cdc9 35bf
000000b0: b96c 2dbf 1183 aabe 2c8d 1fbd e364 b9be
000000c0: 5081 19bf 31a6 20bf 2f47 fb3e 569f 79bf
000000d0: 404b 88be 67b0 e1bb 6f49 7abf 34d9 c33d
000000e0: 1730 2dbe 7145 98be 98b5 ae3e 1208 36bd
000000f0: 8ec5 cdbe 53d2 fbbe 2c20 66be 2a71 a6be
00000100: 121b 88bf ae40 51be 4928 42be 8f9b 883e
00000110: 087f e2bd 1595 0ebf c28a e3be 6350 02be
00000120: 5ba2 1cbf ba85 03bf b034 1ebf 71c6 0ebf
00000130: 4830 003e e1a6 fc3d f867 36be e158 48bf
00000140: 0615 e6bc 04ff 8fbe da69 5abe c630 853c
00000150: 793b 1abf 1b00 77bd d93c 5abe 5791 693e
00000160: d2fc d3be 3499 e5be c344 b13c aab5 5fbf
00000170: 7329 25be 8d2a 2cbe c91d 4cbf 644d f1be
00000180: e6b6 35bb cb76 19bf 6f59 9abe 9d1c e0be

attention.2.weight f4 [100, 100]
0.0573092 -0.2594586 0.039019726 -0.106733076 0.007486831 -0.11525416 -0.120076336 0.042865265
-0.2193504 0.034295034 -0.031361535 0.034407288 -0.16717567 -0.048982166 -0.0997609 -0.053773906
-0.10187917 0.011070333 -0.11334597 -0.1511686 -0.3467849 -0.041460622 0.023808958 -0.016544724
-0.025452262 -0.02354458 -0.12863243 -0.070174165 -0.14158572 -0.0027578818 0.09574477 0.2737618
-0.2899113 -0.16444656 0.16439815 -0.23347488 0.033507455 -0.2666805 0.026166165 0.15080199
-0.022276022 -0.14087956 0.10214035 -0.38335928 -0.0372802 -0.13355066 0.052744605 -0.19385412
-0.17265728 -0.098962575 -0.119160555 0.039584182 0.045778155 -0.113420315 0.005565906 -0.0077054696
0.049327202 -0.061721265 -0.14559777 -0.03442371 -0.1609093 -0.035747867 -0.08262452 -0.05741777
-0.20469753 -0.24790038 -0.037571378 -0.21844076 -0.16978665 0.023264162 0.06535041 -0.010241987
0.09013944 -0.01838387 -0.15612738 -0.07264373 -0.14233781 0.09037212 -0.1290434 -0.12570402
-0.008450614 -0.018830236 -0.08868134 -0.057828326 0.03909509 -0.06824428 -0.040597707 0.18608703
0.124146156 -0.063579194 -0.13608472 -0.097480245 0.08256731 0.021116722 -0.23696087 -0.101265445
0.031099979 -0.0871104 -0.028762778 -0.11220833 -0.0886264 -0.011390613 -0.051892675 0.028109377
-0.06458129 -0.03211385 -0.024240652 -0.1330915 -0.21770673 -0.013974835 -0.00011628802 -0.11025726
-0.015807612 0.04051714 -0.0253293 0.18803683 -0.11480622 -0.0131389 -0.14282063 -0.083760485
-0.24396132 -0.038704637 -0.046012186 -0.04153928 -0.06600641 -0.03332001 -0.17900422 0.106931806
-0.031008178 -0.022734903 -0.13297978 8.4972226e-07 -0.09943136 -0.17088556 -0.18366481 -0.08697048
-0.0478062 -0.024209313 -0.045414172 -0.22522165 0.025216144 -0.021136729 -0.1700995 -0.2757509
-0.11364802 -0.14206596 -0.10256279 0.2710328 -0.2470037 -0.060452633 -0.035595097 -0.11860883
0.040015116 -0.015672902 -0.20445654 -0.107916534 0.065670565 0.0703034 -0.1314132 -0.23163147
-0.20419458 -0.1633859 0.030524682 0.17101277 -0.21587098 -0.11603489 -0.027180374 -0.15393595
0.045721363 -0.02910198 -0.16486792 -0.04127508 -0.16135967 -0.08026035 0.0045514116 -0.14379457
0.019191094 -0.04600603 0.026794724 -0.12820809 -0.022320127 -0.026111385 -0.010790776 -0.0783131
-0.1793711 -0.042671558 -0.027748112 -0.07566734 -0.10988963 -0.017837595 -0.0746674 -0.0357207
-0.123970374 -0.029673573 0.07038216 -0.07784805 -0.12463811 -0.27367666 -0.19952361 -0.2529038
-0.072187155 0.06901381 -0.14113063 -0.10558663 0.041353144 -0.03843522 -0.009011771 -0.00024042158
-0.03072556 -0.0014430574 0.00081130204 -0.03800963 -0.048124805 -0.12964119 -0.10428507 -0.11152347
-0.05210315 -0.07848107 -0.06756571 -0.11039601 -0.1784555 -0.050388496 -0.03958881 0.047914065
0.008798282 0.04688757 -0.12940535 -0.091651574 0.004379771 -0.11778225 0.055820238 -0.0455967
-0.036748774 -0.05535606 -0.12069872 -0.00816828 -0.0023897616 -0.038308427 -0.14816783 -0.14309001
-0.06706001 -0.047504287 -0.013242951 0.013348536 -0.083028615 -0.14553529 -0.04132611 0.04434092
-0.08663659 -0.00095379417 -0.08223952 -0.11604795 -0.042048592 0.014352977 -0.09482938 -0.06056805
00000000: 0dbd 6a3d c2d7 84be 26d3 1f3d df96 dabd
00000010: 1754 f53b 5f0a ecbd 95ea f5bd 7d93 2f3d
00000020: 649d 60be f378 0c3d f474 00bd a8ee 0c3d
00000030: 1930 2bbe 86a1 48bd 714f ccbd 0742 5cbd
00000040: 07a6 d0bd 5860 353c ef21 e8bd f1cb 1abe
00000050: ca8d b1be 9dd2 29bd 010b c33c cd88 87bc
00000060: 4381 d0bc 90e0 c0bc 38b8 03be 79b7 8fbd
00000070: d9fb 10be 94bd 34bb d515 c43d 822a 8c3e
00000080: 416f 94be ae64 28be fd57 283e 0a14 6fbe
00000090: 1d3f 093d 598a 88be 6d5a d63c d66b 1a3e
000000a0: 347c b6bc bb42 10be f62e d13d ab47 c4be
000000b0: 1fb3 18bd 81c1 08be ba0a 583d b281 46be
000000c0: 12cd 30be e4ac cabd 730a f4bd 0623 223d
000000d0: e081 3b3d e948 e8bd 3462 b63b 2a7e fcbb
000000e0: 520b 4a3d 70cf 7cbd 9517 15be e0ff 0cbd
000000f0: 68c5 24be 5b6c 12bd 0b37 a9bd e52e 6bbd
00000100: 3b9c 51be 99d9 7dbe 72e4 19bd efae 5fbe
00000110: 8ddc 2dbe 7c94 be3c 70d6 853d 02ce 27bc
00000120: 079b b83d c599 96bc dbdf 1fbe 3cc6 94bd
00000130: 01c1 11be 0515 b93d f423 04be 8eb8 00be
00000140: 7274 0abc de41 9abc 909e b5bd 65dd 6cbd
00000150: 2c22 203d a8c3 8bbd c849 26bd 998d 3e3e
00000160: 5740 fe3d cf35 82bd cb59 0bbe b9a3 c7bd
00000170: 0d19 a93d fafc ac3c dfa5 72be 4264 cfbd
00000180: 62c5 fe3c f066 b2bd eb9f ebbc 7bcd e5bd
00000190: c281 b5bd b29f 3abc 6a8d 54bd a345 e63c
000001a0: 3243 84bd d089 03bd 5594 c6bc 2349 08be
000001b0: 83ee 5ebe b5f6 64bc a8df f3b8 8fce e1bd
000001c0: f77e 81bc 4df5 253d 647f cfbc ba8c 403e
000001d0: 861f ebbd 8a44 57bc 923f 12be 9e8a abbd
000001e0: ffd0 79be c188 1ebd 4677 3cbd 1825 2abd
000001f0: 5e2e 87bd 907a 08bd e24c 37be 10ff da3d
00000200: dd04 febc 8c3e babc da2b 08be 7818 6435
00000210: aba2 cbbd a0fc 2ebe a112 3cbe 941d b2bd
00000220: 6fd0 43bd 9c52 c6bc 3604 3abd 81a0 66be
00000230: 1692 ce3c ef26 adbc 902e 2ebe 392f 8dbe
00000240: 4bc0 e8bd bd79 11be 710c d2bd d0c4 8a3e
00000250: 8aee 7cbe 2e9d 77bd 2acc 11bd 30e9 f2bd
00000260: e4e6 233d 7564 80bc 0e5d 51be 5803 ddbd
00000270: 4a7e 863d 3bfb 8f3d 2f91 06be cd30 6dbe
00000280: 6218 51be a24e 27be e60e fa3c f91d 2f3e
00000290: 480d 5dbe b3a3 edbd 60a9 debc 63a1 1dbe
000002a0: 5346 3b3d 4767 eebc 23d3 28be 0f10 29bd
000002b0: 783b 25be 8a5f a4bd 0224 953b e23e 13be
000002c0: a436 9d3c d270 3cbd 9c80 db3c fb48 03be
000002d0: b3d8 b6bc 8be7 d5bc cccb 30bc 9e62 a0bd
000002e0: 0fad 37be 5fc8 2ebd 0250 e3bc 7af7 9abd
000002f0: d00d e1bd 2620 92bc 39eb 98bd de4f 12bd
00000300: 2ee4 fdbd fe15 f3bc 8624 903d cc6e 9fbd
00000310: 4442 ffbd 591f 8cbe eb4f 4cbe 9b7c 81be
00000320: dcd6 93bd 1d57 8d3d 8c84 10be ce3d d8bd
00000330: ea61 293d 406e 1dbd 1ba6 13bc ad19 7cb9
00000340: 2bb4 fbbc f924 bdba 8fad 543a fcaf 1bbd
00000350: 841e 45bd a9c0 04be 6993 d5bd 6b66 e4bd
00000360: 1d6a 55bd afba a0bd e45f 8abd 4e17 e2bd
00000370: 0abd 36be 2b64 4ebd e027 22bd 8a41 443d
00000380: ab26 103c 2e0d 403d d682 04be d2b3 bbbd
00000390: 2f84 8f3b d237 f1bd c3a3 643d 9bc3 3abd
000003a0: e285 16bd 09bd 62bd e430 f7bd 40d4 05bc
000003b0: 8c9d 1cbb 4ce9 1cbd 4fb9 17be 3086 12be
000003c0: c256 89bd db93 42bd f6f8 58bc d1b3 5a3c
000003d0: e80a aabd 3407 15be 9145 29bd d39e 353d
000003e0: 866e b1bd 0b08 7aba 326d a8bd 8caa edbd
000003f0: 253b 2cbd c028 6b3c e835 c2bd 3416 78bd
