sarl_star_ros/CrowdNav/crowd_nav/data/output_alisher_curvepath_5_4/rl_model.pth (torch_old, 349196 bytes, 20 tensors)

mlp1.0.weight f4 [150, 13]
000000 38 21 a1 bd 3a e3 76 bd 0a d8 d0 ba 3a 6b 02 be
       -0.07867664 -0.060275294 -0.0015933525 -0.12736216
000010 42 fb 1f 3e ba 72 9a bd b0 da ba be 6d c3 25 3f
       0.15623191 -0.075414136 -0.3649497 0.6475132
000020 94 d3 e1 bd 83 a7 95 3e d0 ac 8d be fa e9 b0 3d
       -0.110266834 0.29229364 -0.27670908 0.086383775
000030 e6 8c d0 be d7 4f f1 3d ba 07 f7 3e 97 17 12 be
       -0.40732497 0.11782806 0.48248082 -0.14266811
000040 8a 6c 76 3e a4 48 2d bf 8f f4 a4 3e 57 27 6c 3e
       0.24064842 -0.67688966 0.32217833 0.23061882
000050 92 04 76 3f 63 ec 58 3f 42 38 4a bf 01 6c a4 3f
       0.96100724 0.847357 -0.7899209 1.284546
000060 cf a0 15 c0 69 e4 d4 3f 3c 84 16 3e 80 da 11 bd
       -2.33794 1.6632205 0.14698881 -0.03560877
000070 2f 44 b7 be 42 cb 97 bc 88 a7 02 3f 45 c8 3d 3f
       -0.35794207 -0.018529538 0.5103688 0.7413371
000080 4d 5b ca 3e 9b 8d ed bf cc fa fe 3e cc ed d1 bf
       0.39522782 -1.855884 0.49800718 -1.6400695
000090 58 ab 76 bd cb d2 db be 0d 2b 53 3d 8e 3c 82 bf
       -0.060222 -0.4293426 0.05155473 -1.017473
0000a0 97 e6 a7 be 68 8c f0 3e 74 9d 72 be d6 ab a4 3d
       -0.32793114 0.4698212 -0.23692876 0.080405876
0000b0 11 a9 e6 3e 6a 8a 03 3f 4d 4d 00 be c2 e0 db bc
       0.45050862 0.5138308 -0.12529488 -0.026840571
0000c0 b8 da 9d bd dc 86 4c bd 9d d2 c0 3e 2c 9a ac 3c
       -0.07707733 -0.0499333 0.37660685 0.021069609
0000d0 04 8c 66 be bd 4e c7 be 4a e2 63 3f 3d 8c c6 3c
       -0.22514349 -0.3892726 0.89017165 0.024236793
0000e0 5d 9f 37 c0 a7 ef 93 40 09 a3 50 3f 48 e8 55 bf
       -2.8691018 4.6230044 0.8149877 -0.8355756
0000f0 b9 9f 1f 40 05 7b 33 c0 b3 77 8f 3f 81 c4 58 bf
       2.4941237 -2.8043835 1.1208404 -0.8467484
000100 5e 45 84 3f 64 94 5e be e7 13 d2 3d 71 56 dc 3e
       1.0333669 -0.21736294 0.10257702 0.430347
000110 e0 6d 20 3d e0 f7 30 bf 87 e5 47 3e 09 31 42 bf
       0.039167285 -0.6912823 0.19521151 -0.7585607
000120 6a 99 dd be dd 33 7a bf 8a 19 a5 3f 21 dc f1 bd
       -0.43281108 -0.9773539 1.2898419 -0.118095644
000130 99 e6 01 be e0 db 1a bc 03 30 62 be d7 f2 73 3e
       -0.12685622 -0.009451836 -0.22088628 0.23823105
000140 6a a6 86 3e 67 c5 52 3d 5d 03 ae bd c3 da 1a bd
       0.2629884 0.05145779 -0.08496735 -0.037806284
000150 cc f2 ed bd 5a e9 72 3e 1f 86 d5 3c b4 49 3a 3d
       -0.116185755 0.23721829 0.02606493 0.045480445
000160 04 2a 4e bb 9f 06 76 be 63 06 69 be ee 9e 79 be
       -0.0031458149 -0.24025963 -0.22756343 -0.24377033
000170 79 85 d0 bd 58 ca 88 3d 6e 47 34 3e 56 80 3c be
       -0.10181708 0.06679219 0.17605373 -0.18408331
000180 b4 d1 a0 bd fd 0c 97 b9 33 35 c2 be ec 74 45 be
       -0.07852498 -0.0002881064 -0.37931213 -0.19282883
000190 38 3c 88 3d 88 c8 4a be 76 50 2b 3e 0f 8b 09 be
       0.06652111 -0.19803059 0.16729912 -0.13431953
0001a0 08 bb 65 3f ed c4 b1 be f3 2a fa 3e 2f 42 14 3c
       0.8973851 -0.34720555 0.48860893 0.0090489825
0001b0 72 96 b1 3f bc e7 d4 bf 09 07 dc 3f 17 59 33 3f
       1.3874037 -1.663322 1.7189647 0.70057815
0001c0 96 75 c5 be 45 1a cd 3f 11 44 54 bf bd 2f 0f c0
       -0.38566273 1.6023642 -0.8291636 -2.2372887
0001d0 c0 e7 59 bf ad 29 dd 3d b9 f7 17 be 76 0f d8 bd
       -0.8511925 0.10798965 -0.14840592 -0.10549824
0001e0 39 98 8c be fb 67 a7 3f 57 ef a0 3e 5e 0b f5 3e
       -0.27459887 1.3078607 0.31432602 0.47860235
0001f0 ee eb 04 40 a2 6f 0b 40 d0 d4 83 bf 2a e1 d9 be
       2.0769 2.1786885 -1.029932 -0.425546
000200 d0 72 4a bf 12 5a c0 be 5c 36 e6 be b2 17 62 3e
       -0.7908144 -0.37568718 -0.44963348 0.22079352
000210 3a 19 b5 bd ef 6a 52 bd 6e e6 15 bf 67 89 85 3e
       -0.08842702 -0.05137151 -0.5855473 0.26081392
000220 94 9e ae be ce 29 ac be bb 0e f6 3c c9 0d 88 3e
       -0.3410536 -0.33625644 0.03003632 0.26573017
000230 2b 0e 7a bd ff c2 83 3c 63 1e 46 3d 34 e8 d1 be
       -0.061048668 0.016084192 0.048368823 -0.4099747
000240 3a e8 05 be ad 5a 4f 3e 57 05 ce bd f5 6b c6 be
       -0.13076869 0.20249434 -0.10059612 -0.3875424
000250 08 f4 05 be 39 96 30 3f 60 1e cf bf 08 14 c8 3e
       -0.13081372 0.6897922 -1.6181145 0.39077783
000260 20 f6 04 be 59 34 7f 3d 9c 61 29 3e a0 27 f2 3c
       -0.12984514 0.062305782 0.16541141 0.02955991
000270 ba e8 d9 3d 70 8d a4 be 74 99 3f 3e 26 4e 48 bd
       0.10640092 -0.32139158 0.18710881 -0.048902653
000280 08 5b 86 3f 35 14 b4 bf bc 23 2e 3f 4c 39 bd 3e
       1.049653 -1.4068667 0.68023276 0.36957777
000290 de 4b 47 bf b0 73 65 3f 3a e0 ca be ab 79 69 bf
       -0.7785014 0.8962965 -0.39624196 -0.91201276
0002a0 a4 4f f6 be 9b a1 6e be ec 91 82 3d ab 35 70 3e
       -0.48107636 -0.23303835 0.06375489 0.23457973
0002b0 f1 d4 e4 3d 26 b3 93 3e 96 42 84 3e 16 bd 0d 3c
       0.11173428 0.28847617 0.2583205 0.008651039
0002c0 dd 9b 61 3d 64 a7 a1 3e 5c 15 65 3e e1 4b b3 3d
       0.055080283 0.3157302 0.22371429 0.08754707
0002d0 80 53 4b be 59 37 63 3d 95 cf 07 bd ec db 02 3e
       -0.19856071 0.055472706 -0.03315695 0.12779206
0002e0 8c 9e 97 3d 6b 5c 00 3e 83 2a 63 be 4c d5 62 be
       0.07403287 0.12535255 -0.22184186 -0.22151679
0002f0 ac a5 a6 3c 6d d7 bd 3d 2f b6 27 3d 9c 44 3a ba
       0.02034267 0.09269605 0.04094523 -0.00071055605
000300 f7 82 72 be 66 95 5f be d8 80 20 be 60 ed ec 3e
       -0.23682772 -0.21834335 -0.1567415 0.46274853
000310 ee 6a d7 be 0b 10 ad bf f0 09 99 be 80 4c 2e bf
       -0.42073768 -1.3520521 -0.29890394 -0.6808548
000320 64 aa 60 c0 1e 3e a4 3e 94 8e 0c 40 d8 01 be bf
       -3.5103998 0.32078642 2.1962023 -1.4844313
000330 43 20 18 40 c8 ab a9 bf b2 7a 1f bf 95 7c b1 bf
       2.376969 -1.3255548 -0.62296593 -1.3866144
000340 79 07 33 be 1a 49 4b 3d 40 9f 61 bd ec e9 75 bd
       -0.1748332 0.049630262 -0.055083513 -0.06003754
000350 a7 a4 58 3d 8a 8f 33 be d5 8f b8 3c 09 c1 2d 3c
       0.0528914 -0.17535225 0.022529522 0.010605105
000360 ab 88 76 3c 35 5c 29 3d 01 89 2b 3e b6 40 69 bd
       0.015047233 0.0413477 0.16751482 -0.05694648
000370 9e 0e ec 3d ce 33 f5 3e 3b 85 60 3e 90 30 00 3f
       0.115262255 0.47891086 0.21925823 0.500741
000380 95 2b c6 bd cc f7 5c bf 36 e8 8e 3f 3f 71 ca bd
       -0.09676281 -0.8631561 1.1164615 -0.09884881
000390 22 35 cf 3f 29 b3 72 bf 37 cc c2 be fd 54 30 3f
       1.618809 -0.94804627 -0.3804643 0.6887968
0003a0 da e7 84 bf 32 31 5a 3f ec fe bf bd 04 de 79 be
       -1.0383255 0.85231316 -0.09374794 -0.24401098
0003b0 f7 71 7a 3e 5d bc 93 bd c6 7b bf 3d 94 a8 4c be
       0.24457537 -0.07213662 0.0934978 -0.19986182
0003c0 b0 f9 a1 bd 18 93 8d be 24 04 a5 be 78 c9 39 3e
       -0.07908952 -0.27651286 -0.32229722 0.1814326
0003d0 4c e5 54 be 96 67 9c bd 52 f8 ac 3d 5f ba 2a bf
       -0.20790595 -0.07636945 0.08445801 -0.6669063
0003e0 df 73 66 be b2 70 81 bd cc 21 08 3e 5c 3d bc be
       -0.22505139 -0.06320323 0.13294142 -0.36765563
0003f0 22 c0 64 3f ef a6 3d 3e fe 5c 27 bf ad 35 2d c0
       0.8935567 0.18520711 -0.6537627 -2.706401

mlp1.0.bias f4 [150]
000000 07 51 ae be 71 70 3d 3f 3b dc 39 3d 52 51 7d be
       -0.34046194 0.73999697 0.045376044 -0.24738052
000010 b9 66 ca be af 20 83 3d b2 58 b4 bc 99 12 ab be
       -0.39531496 0.06402718 -0.02201495 -0.33412626
000020 79 16 8c 3d 1f 18 06 3d f9 43 79 be b0 97 9e be
       0.06840224 0.032737847 -0.24342336 -0.30975103
000030 ae e9 99 be 5c 77 95 3e e8 f0 c1 bd 66 95 37 bf
       -0.30061096 0.29192626 -0.09469777 -0.7171234
000040 62 4c 6c be 66 4e a8 3c 7b cb 11 3b 51 98 db be
       -0.23076013 0.020545196 0.0022246528 -0.42889646
000050 54 c9 d2 3e 87 fe 96 3e 56 ca f6 3e 66 99 97 3e
       0.41169226 0.29491064 0.48201245 0.2960922
000060 e2 6c 3f 3e e0 c8 5c 3e 19 de 33 3d 12 78 ea be
       0.18693879 0.21561003 0.04391298 -0.4579473
000070 55 3b 95 bf 39 86 0e 3f 44 35 bd 3d ec d7 20 bd
       -1.1658732 0.5567356 0.09238675 -0.03926842
000080 52 c1 9b be 07 53 21 be 4d 05 82 3e a0 0b 2e 3e
       -0.3042093 -0.15754329 0.2539467 0.16996622
000090 74 db 89 3d 1f 53 1d 3e d8 30 9d be 7b 2d 22 3e
       0.067313105 0.1536374 -0.30701327 0.15837662
0000a0 85 22 26 bd bf b4 9a 3e f0 dc 12 3e 3c eb 95 be
       -0.040560264 0.30216023 0.14342093 -0.29281032
0000b0 58 12 ed be 7b d1 95 3c 17 7f b4 3d ca 75 e3 be
       -0.46303058 0.018288365 0.08813303 -0.44425803
0000c0 8b 65 1a be 21 19 75 3d 03 f7 5c be 72 d0 d3 bf
       -0.15077798 0.059838418 -0.21578602 -1.6547987
0000d0 6a 57 61 3e 17 b3 39 be 21 a9 5b be 5e e3 db 3d
       0.22006002 -0.18134724 -0.21451236 0.10736726
0000e0 df 37 4a be e8 14 4c 3e a1 f6 d3 bf 00 f9 21 3c
       -0.19747876 0.1992985 -1.655964 0.009886026
0000f0 ae 1a 89 be d0 c7 a3 bd c0 4c 6e 3e 4b 51 35 3e
       -0.26778167 -0.079970956 0.23271465 0.17706792
000100 65 8b 71 3e bd a2 23 bf a2 d2 38 be fd c0 8c be
       0.23588331 -0.63920194 -0.180491 -0.27490988
000110 24 4c df 3e f9 bd f5 be 4f 43 3f bd a0 13 8d be
       0.43612778 -0.479965 -0.04669505 -0.27554035
000120 e8 86 65 be ab b3 06 3f 90 73 d9 be 01 90 4e 3e
       -0.22414744 0.526179 -0.4247098 0.2017212
000130 8b 0c 5c 3f 6e 97 c3 3d 0e c1 65 3f dd e6 01 3f
       0.8595664 0.09550367 0.89747703 0.50742894
000140 3e a3 f4 bc 07 ca 39 be 7f 7b 3c bf 97 d5 9e 3e
       -0.029862996 -0.18143474 -0.7362594 0.3102233
000150 da ce c8 bd 9a 1e 93 bc 00 61 f2 3c 95 30 82 3d
       -0.09805079 -0.017958928 0.029587269 0.063569225
000160 3d e5 d3 bd 7d 86 f9 be 6d 53 5a bd cb 69 12 bd
       -0.10346458 -0.4873542 -0.053302217 -0.035745423
000170 c8 f1 7d be d4 9f 29 be dc 01 0d 3f 66 14 01 3e
       -0.24799263 -0.16564876 0.5508096 0.12605438
000180 85 6b 7f be 10 81 ff 3e 6b 49 8b 3e 00 66 a9 3e
       -0.24943359 0.49903154 0.2720445 0.33085632
000190 a0 27 1c be 98 fc 17 be 38 c4 9d 3f a3 f4 58 3e
       -0.1524949 -0.1484245 1.2325506 0.21187072
0001a0 35 31 60 3e 7f 46 0c bf 83 2d 39 3e d4 b9 ce 3e
       0.21893771 -0.5479507 0.18083768 0.4037615
0001b0 6d ed 90 be 58 b9 5c 3f 15 73 7a 3c 29 f2 37 3e
       -0.28306141 0.8622031 0.015286227 0.1796347
0001c0 6e 17 3e be 1a f3 84 bf 35 8f 6f bd c6 d6 3e 3f
       -0.18563625 -1.0386689 -0.058486182 0.7454647
0001d0 57 8d 2f 3d 3d bd 07 be f2 90 da bd 31 64 56 3d
       0.0428594 -0.13255782 -0.106721774 0.052341644
0001e0 96 86 ee bd 46 fa 59 be 46 31 35 bf e1 7c 09 bf
       -0.11646764 -0.21286878 -0.7077831 -0.53706175
0001f0 0a 81 8f 3f 62 64 6a bd 6a b0 b1 3e 7a a3 d5 3d
       1.1211255 -0.05722464 0.34704906 0.10431571
000200 2d 85 75 be d1 23 3d bd 0d b1 ab be bd 3c a8 3c
       -0.23976584 -0.046176735 -0.33533517 0.020536775
000210 e0 7d 41 bd c5 50 08 bc 6b 40 71 3d ab 84 3b bf
       -0.047239184 -0.008320038 0.058899324 -0.7324931
000220 c4 8b 44 be 29 f2 55 3d 94 9a 38 be 14 ca 4a 3e
       -0.19193941 0.052232895 -0.18027717 0.19803649
000230 c1 2e 01 bf 45 13 99 bf b3 47 8e bf 79 e7 27 3f
       -0.50461966 -1.1959006 -1.1115631 0.65587574
000240 7b 22 38 bf 59 f7 f9 3d ae 3a bd 3e 23 35 eb bd
       -0.71927613 0.12205381 0.36958832 -0.114847444
000250 45 a3 71 be 47 b3 8c 3e
       -0.23597439 0.27480528

mlp1.2.weight f4 [100, 150]
000000 03 37 a2 bc e0 ab 13 bd 8f 4d 25 bd 93 af b1 3b
       -0.019801622 -0.036052585 -0.04035717 0.0054225414
000010 76 94 46 bc d5 9d 1f bd 4b f5 10 bd c4 bd 6d 3c
       -0.012120357 -0.03896888 -0.03539018 0.014510576
000020 ae e4 14 3d 78 71 81 3d 77 45 1a 3d 60 57 0b bd
       0.0363509 0.063204706 0.037663903 -0.034018874
000030 d7 e2 89 bd 9a e1 1c bd 0a a3 8d bd ea ff 8d bd
       -0.067327194 -0.038301088 -0.06915863 -0.06933577
000040 55 db 75 bd ee 3b 92 3d a0 84 a8 3d 73 de b1 bd
       -0.060023624 0.07140337 0.08228421 -0.08685007
000050 d0 1d 37 3d e2 04 32 bd 66 02 8d bd 69 f8 1d bc
       0.044706166 -0.043461688 -0.06885223 -0.009641745
000060 14 8d 87 bd f8 e5 04 3d 58 a0 47 bd fa ab 87 3c
       -0.066187054 0.032445878 -0.0487369 0.016561497
000070 f7 c0 0a 3d bb c4 93 bd 3d 01 cd bc a6 0a 1c 3b
       0.033875432 -0.07215258 -0.025025005 0.0023810058
000080 db af 65 3c 4c 36 8d 3d 81 56 22 bd 72 f1 8c bd
       0.014018978 0.06895122 -0.039633278 -0.068819895
000090 da ff 70 bc 65 c8 86 3d ae d7 e6 3c cd f6 22 bd
       -0.014709437 0.06581191 0.028179016 -0.03978615
0000a0 bc 3b 3e bd a6 fa c1 3c 15 69 9b bd 9d a8 e5 3c
       -0.046443686 0.023679089 -0.07588402 0.028034503
0000b0 60 35 7a bd bc 2b 0e 3d 91 5b 9c bd 9d 89 72 3d
       -0.06108606 0.034709677 -0.076346524 0.05921327
0000c0 ea ed a7 bd 0e 73 dc bc 62 29 dc 3c 29 5c c2 ba
       -0.081996754 -0.026910331 0.026875202 -0.0014828491
0000d0 59 f9 fa 3c d6 6b 3a 3d a8 ba 67 bd de 63 e2 bc
       0.030636476 0.045512997 -0.056574494 -0.027635511
0000e0 c7 b8 7e bd ac b7 7f bd 59 c4 9a bd ad f2 0e bd
       -0.062187936 -0.062431023 -0.075569816 -0.034899402
0000f0 cf 53 30 bd 40 8f 38 bd e7 04 b9 bc e5 e3 77 bc
       -0.043048676 -0.04505849 -0.022585345 -0.015130018
000100 c4 f5 55 bb 2e c2 4f 3b 15 e4 98 3d 38 6b 3e 3d
       -0.0032647708 0.0031701433 0.07465378 0.04648897
000110 56 69 90 3d a1 e7 42 bd 30 34 63 bd b8 62 00 3d
       0.07051341 -0.04758418 -0.05546969 0.031344146
000120 a0 9d b8 bb b3 80 04 3d 03 29 16 bd 1d 91 b5 bd
       -0.0056340247 0.0323493 -0.036660206 -0.08865569
000130 8c 53 03 bd d8 9e 88 3d a6 60 43 3d 1c 27 ec 3b
       -0.0320621 0.06670922 0.047699593 0.0072068106
000140 c5 8c 96 bc ec 70 bb bc 14 f1 78 3c d7 28 8a bd
       -0.018377671 -0.022880994 0.015194196 -0.06746071
000150 69 0d 70 3d 5f cf 96 bc a2 27 08 bd 11 4e 56 3d
       0.05860654 -0.01840943 -0.03324092 0.052320544
000160 2c a1 ef bc b1 d5 94 bd 63 5b 17 bd 39 d4 94 3d
       -0.029251657 -0.07267321 -0.036952388 0.07267041
000170 8f bb 5c 3d 5e 04 09 3d 0b ef 96 bd 27 d4 91 3d
       0.053889807 0.03345143 -0.073698126 0.07120543
000180 4c bc 75 3d 75 e1 87 bc ea 69 8c 3d 86 2d 4e bd
       0.059994027 -0.016586998 0.06856139 -0.050336383
000190 33 79 09 bd 79 2c 31 3d d8 1b 6a 3b 64 ab 43 3d
       -0.03356285 0.043255303 0.0035722163 0.047770873
0001a0 d5 e3 a3 bd f3 f3 1d ba a2 96 6b bd fa 91 2a 3d
       -0.0800244 -0.0006025426 -0.0575167 0.04164312
0001b0 fd 2c bf bc f8 6b 17 3d b6 47 a6 bc 2e 41 85 bd
       -0.023336882 0.0369682 -0.020297866 -0.06506573
0001c0 8b ff ad bc da 29 8c bd 38 89 19 3d 2f 0a 4d bd
       -0.021240016 -0.0684392 0.037484378 -0.05005854
0001d0 66 2d 91 bd 28 0d 97 bd ae e9 09 bd 2b 04 86 3d
       -0.07088737 -0.07375556 -0.03367012 0.06543764
0001e0 d8 e7 5c bd 8a 82 16 bb 64 05 7b bd 0d c3 34 bc
       -0.05393204 -0.002296599 -0.061284438 -0.011032832
0001f0 fb 10 38 bc 5d 1b d4 3b e6 45 7d bd 52 1e 55 3d
       -0.011234517 0.0064729885 -0.06183424 0.05203087
000200 65 74 35 3d b6 b9 ca bc f4 49 7f 3d 71 8f 0b bd
       0.044300456 -0.024746757 0.062326387 -0.034072343
000210 00 b0 18 3a 7e 5c b7 3c fd d5 4d 3d 39 8b 7c bd
       0.0005824566 0.02238297 0.050252903 -0.06165621
000220 c2 0b 63 bd 0d 5b 73 3d 4c e1 07 3d dc f0 77 bc
       -0.055431135 0.059413005 0.033173844 -0.015133109
000230 39 35 61 3c df 57 05 3c be 7d 6c bc 60 2c cd 3c
       0.013745599 0.008138626 -0.014434276 0.025045574
000240 18 41 f4 3b 43 77 3f bd 7b 55 43 bc 54 78 1f ba
       0.007454049 -0.046744596 -0.011922236 -0.0006083299
000250 b5 a3 9b bd 20 fb 5c bd 3c 2b 85 3d 74 89 33 bf
       -0.07599584 -0.05395043 0.06502387 -0.7013161
000260 e9 df 69 3e 1e be 0a bd 11 da 95 3d 32 eb 8e 3e
       0.22839321 -0.033872716 0.073169835 0.27913815
000270 d6 30 91 bd 81 40 9d 3c 57 a2 55 3d 48 88 39 bf
       -0.07089393 0.019195797 0.052156772 -0.72473574
000280 22 99 5e bc 62 59 0d bf 8c de 65 3e ea 6f 52 be
       -0.013586314 -0.5521451 0.22448176 -0.20550504
000290 a0 30 7c 3d c5 a3 82 bf e7 36 e3 bc b1 a7 b4 be
       0.06156981 -1.0206228 -0.02773614 -0.35284188
0002a0 08 40 bd bd 91 f5 4e be ef c3 ff bc 75 b2 fb bd
       -0.092407286 -0.20210864 -0.031221358 -0.12289897
0002b0 48 ba 40 bf dd b3 11 bf 46 f2 b4 3d f1 fc 9a 3d
       -0.7528424 -0.56915075 0.088352725 0.07567776
0002c0 db b1 ae bd 30 80 95 3d 8b aa 9b 3e e0 cf 32 3e
       -0.08530017 0.072998405 0.3040355 0.1746211
0002d0 90 17 ab 3d ac e4 4c 3b 90 27 07 be 0e 06 9b bb
       0.083541036 0.0031264229 -0.13198686 -0.0047309464
0002e0 06 83 61 be 88 68 c9 bd b0 2e 05 3f 72 5b c5 bd
       -0.22022638 -0.09834391 0.52024364 -0.096365824
0002f0 ff 5f 06 bf 35 8c c8 bd d7 a3 2d bc d1 a7 5c bc
       -0.5249023 -0.09792367 -0.0105981445 -0.013467745
000300 a2 14 ea bc 95 4a 24 bd 47 2a 03 bd 6c 52 1d 3d
       -0.028574292 -0.04011019 -0.03202274 0.03840868
000310 25 e5 90 bd 01 3f 47 3e 6c 9f 2a be 80 8d ff 3c
       -0.07074956 0.19457628 -0.16662377 0.031195402
000320 12 60 d9 3e 37 52 84 3e fa d3 99 3e 9e 97 ff 3c
       0.42456108 0.25843975 0.30044538 0.031200226
000330 2b e2 63 bd 47 8f 5e bd fb 4f 15 ba 76 a4 75 3d
       -0.055635612 -0.05433586 -0.0005695817 0.059971295
000340 74 5c bc be c4 fb 17 bd ec 8b 17 3d 18 a8 2c be
       -0.36789286 -0.037105337 0.036998674 -0.16860998
000350 90 fb 14 bf 6a 8b a8 bd cb aa 3d be 8c 07 94 3e
       -0.58196354 -0.08229716 -0.18522184 0.28912008
000360 1a 41 15 bd 73 ab 77 be 8d ca 48 bd 5f a7 96 3d
       -0.03643904 -0.24186496 -0.049021292 0.07356142
000370 55 51 43 3c d3 bf dd bd 2c a6 40 bd 19 06 1a 3e
       0.011921247 -0.10827603 -0.047033474 0.15041389
000380 35 c1 31 3e eb 83 fb 3d 16 11 f4 bd 06 7c 2f bd
       0.17358859 0.12281021 -0.119173214 -0.042842887
000390 cd eb 94 bd d3 c8 0f 3e d4 ae a8 bf b1 ab 7f bd
       -0.07271538 0.14041452 -1.3178353 -0.062419597
0003a0 ce d4 e0 3e ce 38 28 3e 44 d3 23 3c 52 ba e1 be
       0.43912357 0.1642792 0.0099991 -0.44087464
0003b0 4f c7 86 bd 63 f2 8d bc 47 f2 aa bd e5 a2 20 be
       -0.06580984 -0.017327493 -0.08346992 -0.1568714
0003c0 37 5c 61 3d 34 9f d9 bc 35 43 3e bd ad d3 2b 3d
       0.055019584 -0.026565172 -0.046450812 0.041949917
0003d0 ea fc 74 be 35 a8 14 bd 32 11 37 bc 11 d1 f0 3e
       -0.23924604 -0.036293227 -0.011173533 0.47034505
0003e0 a3 a1 c5 3b b3 51 6b bf dd 2f 3d 3f 40 01 ad 3c
       0.0060312315 -0.9192154 0.7390116 0.02111876
0003f0 c8 c3 27 be ee f1 82 bc 33 a4 24 bc 7e 66 c1 bd
       -0.16383278 -0.015984502 -0.010048914 -0.09443377

mlp1.2.bias f4 [100]
000000 15 69 f4 bc c5 5d d2 bf 7a 42 bf 3d df 56 69 3f
       -0.029835263 -1.6434866 0.09338851 0.9114818
000010 ef 1e e1 bc ba 86 af bd 02 9e 8f be c3 ce 3c bf
       -0.02748057 -0.08570619 -0.28050238 -0.73752993
000020 fa d6 2d bb bc 22 c2 bd 53 46 6c 3c 19 52 b7 3e
       -0.002652584 -0.09479281 0.0144210635 0.35804823
000030 01 85 f7 3d f2 e2 a8 bd 02 83 c0 3c c0 b5 23 bf
       0.12085915 -0.082464114 0.02349997 -0.63949203
000040 1c 79 bb bd 7e c3 87 bb 7c cd 5c bd d6 34 54 be
       -0.09153959 -0.0041431775 -0.053906903 -0.2072328
000050 91 69 73 bd 23 82 ab be f2 68 07 be dd 72 a8 bf
       -0.059426848 -0.33497724 -0.13223627 -1.3160053
000060 0f 52 a6 bc 9b a1 d9 be d8 c1 5d bd a9 cb c1 bb
       -0.0203028 -0.42506108 -0.054139942 -0.0059141708
000070 2e 38 4e 3f ed 30 42 bd 71 b4 c9 be a8 05 bc 39
       0.80554473 -0.04740994 -0.39395478 0.00035862369
000080 ae 21 fe 3c 27 cd aa bd 6e c7 e1 3d c7 cf ed bd
       0.03102192 -0.08339911 0.11024366 -0.11611896
000090 d5 11 d5 3e fc e3 2c be 6d c8 c7 bf 28 78 21 3d
       0.41615167 -0.16883844 -1.560804 0.03942123
0000a0 7a 51 bc be 51 bb 15 3d 6d 2f a6 3f 69 c7 1f bd
       -0.36780912 0.036555592 1.2983223 -0.03900853
0000b0 c4 88 4e be 8a e1 43 be cf 04 e9 bc 50 f0 51 bd
       -0.2016936 -0.19129005 -0.028444676 -0.05125457
0000c0 78 62 4b 3b da 3a 23 bf d2 77 06 3f 26 8a c0 3f
       0.0031034034 -0.63761675 0.5252658 1.504216
0000d0 ef 6b 05 3d 96 da 18 bd 86 79 5a bd 1f 28 46 3f
       0.032573637 -0.037317835 -0.05333855 0.7740497
0000e0 f5 ba 32 3d 47 fd 37 bf d4 3f a6 3b 5d 40 ba bf
       0.043635327 -0.71870846 0.005073527 -1.4550892
0000f0 46 90 34 3e 2f ee 63 3c 64 28 d1 bc 72 6c 6c bf
       0.17633161 0.013911768 -0.025531955 -0.92352974
000100 29 62 2d bf f3 38 a7 bd 51 6c e9 bc 33 ef a1 3c
       -0.67727906 -0.08165159 -0.028494032 0.01976738
000110 f6 d5 c3 3f 38 e4 f1 3c 3c 00 84 3e d1 24 ac 3d
       1.5299671 0.029527768 0.2578143 0.0840546
000120 e2 c7 a6 3e 48 ea 22 3c a5 c0 b5 bf c9 49 f0 3d
       0.32574373 0.009943552 -1.4199415 0.117328234
000130 09 31 d2 bd a5 e7 88 3c 9b ab c7 3c bc 05 1d be
       -0.10263259 0.01671202 0.02437382 -0.15334219
000140 34 22 01 3d fa 25 bf bc 61 8c 19 be 4c 65 8c 3c
       0.03152676 -0.023333538 -0.14994957 0.017138146
000150 f1 f6 8a be f6 e7 a3 3c ab 5d a3 bf 2c dd d7 3e
       -0.27141526 0.020008069 -1.276296 0.42160928
000160 7e d2 12 3d 31 eb c4 be 72 ff ef be 8b a4 8a 3d
       0.035845272 -0.38460687 -0.46874577 0.06769665
000170 28 e9 2c bd fb a0 c8 3e 6a 72 54 bb 08 54 6b 3d
       -0.042214543 0.39185318 -0.003241683 0.057453185
000180 31 31 88 be 2b 45 0d 3d dc e6 1e bf 34 74 39 bf
       -0.2660003 0.03448979 -0.62071013 -0.72442937

mlp2.0.weight f4 [100, 100]
000000 47 b4 dc bb c2 73 94 be 52 a7 8a bc 89 76 42 be
       -0.006735358 -0.28994566 -0.016925488 -0.1899053
000010 e4 70 df 3c 4d a8 11 3d 8d 32 64 bd 3f 03 82 be
       0.02727551 0.035560895 -0.05571227 -0.25393102
000020 b8 cd f3 bc 2e e3 86 3d 38 ef 8a 3c 40 2c 26 be
       -0.02976118 0.065863 0.016959772 -0.16227818
000030 3c e1 e7 bc bc 30 4e 3b e4 6b 67 bd 8e ca dd be
       -0.028305642 0.0031462153 -0.056499377 -0.433186
000040 1d ef de 3b 21 2f 87 bb 40 37 91 bd fa 50 a6 3d
       0.006803407 -0.0041254913 -0.07090616 0.08120914
000050 2e b4 ae 3c 2f 7e 60 bd 5e ba 81 bd 54 86 32 be
       0.02132615 -0.054807838 -0.06334375 -0.17434055
000060 6a c6 69 3d 44 f7 91 3d e3 a8 a8 bd 36 fd 74 bd
       0.057073988 0.0712724 -0.082353376 -0.059811793
000070 1b bc 0d be e4 86 a0 bc da c1 95 bb 86 60 ff 3c
       -0.13841288 -0.01959557 -0.004570228 0.031173956
000080 1f 5f b6 bc 3c 5f e7 bd bd 7d a4 bd 22 c3 c0 bd
       -0.022262154 -0.112974614 -0.08031795 -0.09412219
000090 5e 1c ca bd 4a bc 49 3d a5 dd d6 bd e7 92 0d bd
       -0.09868692 0.049251832 -0.10491494 -0.034563925
0000a0 a3 7a 1a bd 70 39 9b bd 10 d6 a4 bd 01 b9 f1 ba
       -0.03771461 -0.07579315 -0.08048642 -0.0018441976
0000b0 30 45 03 be 8e f1 36 3c d2 f7 6a bd a8 76 a9 bd
       -0.12819362 0.01116599 -0.057365246 -0.08274585
0000c0 b8 a4 e2 3b 7f e4 84 be 47 d5 2a 3e 86 c5 9f be
       0.0069166087 -0.2595558 0.16682921 -0.31205386
0000d0 f2 21 18 3c 64 8e d0 bd 56 eb 26 bd b6 99 0a be
       0.009285437 -0.10183409 -0.040751778 -0.13535199
0000e0 d2 64 5d bc 99 76 9e be 41 54 db 3c 55 b7 a7 3c
       -0.013512807 -0.30949858 0.026773574 0.020473162
0000f0 cd de 57 3a 43 ac eb bd 68 99 c9 bd a4 ce 8c be
       0.0008234799 -0.11507466 -0.09843713 -0.27501404
000100 a2 c6 93 3e c8 f5 cc bd 1e 31 89 bd 3b b1 be 3d
       0.28862482 -0.100078166 -0.066988215 0.09311148
000110 25 a1 3d be 93 ea 90 3d 93 8a ba be 84 d3 1e be
       -0.18518503 0.070759915 -0.3643385 -0.15510374
000120 d8 eb a4 3d 4e b2 d3 bc 7f 7c a3 be 53 5a 87 3d
       0.08052796 -0.025841858 -0.3193092 0.06609025
000130 59 fe 06 bd 12 30 95 3d b8 dd 15 3d a4 4e 8b bd
       -0.03295741 0.07284559 0.0365884 -0.06802109
000140 89 b3 c2 3d 16 7d 2a 3d 8c f5 b0 3a 39 c6 f4 bc
       0.095069 0.041623197 0.0013500913 -0.029879676
000150 08 6a 57 be 4c a9 86 3d 2e 37 14 3e 2b 11 c1 3b
       -0.21036541 0.065752596 0.14474174 0.005891939
000160 d8 a4 09 bd 6c 45 39 3e 30 2e 2f be 8f d9 9c be
       -0.033604473 0.18092889 -0.17107463 -0.30634734
000170 45 de 69 3c 18 11 45 be 89 9c 37 bd 4e 2a 72 3e
       0.014274185 -0.19244802 -0.044827018 0.2364895
000180 c2 83 70 3c 96 9e ca bd 78 02 ce 3e f3 85 5a be
       0.014679851 -0.09893529 0.40236259 -0.2134016
000190 61 8f 92 3d 38 c6 82 be c2 34 e8 3b 93 70 6d bd
       0.071562536 -0.25541854 0.0070863673 -0.057968687
0001a0 2c 66 65 bd 95 75 64 bc 9c 9e 0d be e1 13 07 be
       -0.05600564 -0.013944049 -0.13830036 -0.13191177
0001b0 14 b9 3f 3d 23 15 34 3d 47 15 02 3c e3 5a ce bb
       0.046807364 0.04396547 0.007939643 -0.0062974556
0001c0 b6 d9 3d bd ee 46 26 3d b6 71 ad bc 05 bf e5 bd
       -0.046350203 0.040594988 -0.021172386 -0.11218075
0001d0 64 46 d1 bd b4 fa ce bd 4c 0b ed bd 00 ec 50 be
       -0.10218504 -0.101064116 -0.1157442 -0.20402527
0001e0 3a e5 7e bd 25 d0 f7 3d 03 4c 6f 3d 37 df 17 be
       -0.062230326 0.12100247 0.0584221 -0.14831243
0001f0 1d db b4 3c db 68 0a 3c c9 eb 79 bd 07 c5 d2 bd
       0.022077138 0.008447851 -0.061015878 -0.10291486
000200 0d b0 95 3d fd 24 3f be 65 62 fb bd 86 2e 09 be
       0.0730897 -0.18666454 -0.12274627 -0.13396654
000210 c0 b2 2b be e8 d8 8e 3d 7f 06 a5 bd 79 44 a5 bc
       -0.16767406 0.06974965 -0.0805788 -0.020174252
000220 8c ab ca bd 81 ce 07 be 14 d8 80 be 27 e9 b4 bd
       -0.09896001 -0.13262369 -0.25164855 -0.08833533
000230 4f a4 34 bc 9b 1d 82 bc 91 35 ed 3e bb 5b cc 3d
       -0.011025502 -0.015883258 0.4632993 0.09978434
000240 3c 1d 1a 3e 6e 5c f8 3c 9e d8 12 3d 4d f5 62 3d
       0.15050215 0.030317511 0.035851113 0.05540972
000250 c6 98 7e 3d c1 92 4f bd e7 4c c7 be d6 ff 96 be
       0.062157415 -0.050677065 -0.3892586 -0.29492062
000260 c7 06 f5 3c ca da 54 3d 1e ef 73 bd 63 a5 56 be
       0.029910458 0.051966466 -0.05955421 -0.20961528
000270 c2 88 cd bd ef be c7 3e 1a df 80 bd bf 34 37 be
       -0.1003585 0.39012858 -0.06292553 -0.17891215
000280 46 24 04 be 21 f7 f5 bd 78 19 ce bd 49 72 20 be
       -0.12904462 -0.12010027 -0.100634515 -0.15668596
000290 ac b0 6e be 43 f2 c2 bd a1 5a 9a 3d 75 ba 39 bd
       -0.23309582 -0.09518864 0.07536817 -0.045343835
0002a0 4d a1 c3 3e 1a 8b af 3c af cf e9 3c 09 6c 74 3e
       0.38209 0.021428633 0.028541414 0.23869337
0002b0 65 f0 6a be 13 6c 0f be 16 7d aa be 32 9c 07 3d
       -0.22943266 -0.14006071 -0.33298558 0.033107944
0002c0 34 39 98 3d e4 bb c6 bd bf 85 29 3c 95 95 3d bd
       0.07432786 -0.09703806 0.010346829 -0.04628523
0002d0 6d 87 17 be 2d a0 bc 3c f3 e3 7f bd 2f 83 e2 bd
       -0.14797755 0.023025597 -0.06247325 -0.110601775
0002e0 f5 40 e8 bd 28 ec e4 3b 42 d2 79 be b1 bd ad bd
       -0.113405146 0.00698616 -0.24396613 -0.084834464
0002f0 7d d3 2b be 2a 52 2f bc 8b 1c b8 3c be df d8 bd
       -0.16779895 -0.010700742 0.022474548 -0.105895504
000300 66 fc 87 bd 58 48 f6 bc 4c da 19 bd 42 c5 3d ba
       -0.06639938 -0.030063793 -0.0375617 -0.00072391715
000310 5d f1 ca bd ea 24 00 be e7 ec b5 bd 80 33 0e be
       -0.09909318 -0.12514082 -0.08883076 -0.13886833
000320 19 d8 a0 3d 57 64 08 3f 64 51 b9 3c 2d 3f 5f be
       0.07853717 0.53278106 0.022621818 -0.21801443
000330 cf 4c 6d bc b7 e6 a8 bc 19 f0 70 3e da b0 83 be
       -0.014483645 -0.020617826 0.2352909 -0.25720865
000340 87 08 4f bd bf 75 14 3d f4 30 52 3d fb 5f 3b 3d
       -0.05054524 0.036245104 0.051316217 0.04574583
000350 07 50 d3 bd 3a ab b3 bd 16 0e 14 3c 62 47 30 bd
       -0.103179984 -0.08772893 0.0090365615 -0.043036826
000360 d6 ff 3e bd 55 f1 a7 bd 94 b7 12 3d e2 f6 a4 be
       -0.046630703 -0.08200327 0.035819605 -0.32219607
000370 ae 60 4c 3d 56 2e 8c 3e 3c 04 c7 bc d5 90 08 3f
       0.04989689 0.27379102 -0.024294011 0.53345996
000380 13 f7 8e bd f4 e6 14 bf 53 78 b8 3c 5b 17 f7 bc
       -0.069807194 -0.58164907 0.022518313 -0.030162504
000390 76 cb 3b 3e 38 9b 11 bd 9d f1 8a 3e cf dd 5a bd
       0.18339333 -0.03554842 0.2713746 -0.05343419
0003a0 bc d4 1d 3c 75 85 3c be 93 01 b9 bd 59 4a da bd
       0.009633239 -0.18410285 -0.090335034 -0.10658712
0003b0 0c 6b 8c 3d 79 d5 21 bf 62 bc 44 be 22 b8 c2 bd
       0.06856355 -0.6321636 -0.19212487 -0.09507777
0003c0 1a 11 81 be cc d2 17 3d 46 23 93 be 55 b7 44 3d
       -0.2520836 0.037066266 -0.2873785 0.0480264
0003d0 24 9f b3 be 7d a9 c6 bd 30 06 5c 3c 8e 75 d1 3c
       -0.35082352 -0.09700296 0.01342921 0.02556875
0003e0 91 b8 63 bd 67 d4 64 be 82 38 92 bd dd ee 6b 3e
       -0.055595938 -0.2234665 -0.07139684 0.23040338
0003f0 42 58 82 3d 7f c1 a2 be a7 f0 65 3d 8a be a2 bd
       0.0636449 -0.3178825 0.056137707 -0.07946499

mlp2.0.bias f4 [100]
000000 53 d8 1a 3e f8 0a 19 be f5 3f 8d be 9a c6 7f be
       0.15121584 -0.1494559 -0.27587858 -0.24978104
000010 e6 b1 d0 bd 66 8e a2 3f e2 29 13 3e 1d c6 ff 3e
       -0.101901814 1.2699707 0.14371446 0.49955836
000020 0e 81 7c 3f 0f 81 bf bc d6 2f 81 3f 38 ab 4e bf
       0.9863442 -0.02337697 1.0092723 -0.8073001
000030 71 08 dd 3d 21 25 f3 3d ab 34 b4 3e 1d 99 e2 3e
       0.10792626 0.11872316 0.35196432 0.4425744
000040 0f 90 c8 bd 2f ff 2f 3d 6b a9 c2 3f 5d 6a 88 3f
       -0.09793102 0.04296797 1.5207952 1.065746
000050 f9 ff 04 3e 5a e1 33 3f de db 09 be 38 b9 b8 be
       0.12988271 0.70265734 -0.13462779 -0.3607881
000060 6e d4 11 be 57 5a e0 3d 36 b1 e9 bb ec 7a a8 3c
       -0.14241192 0.10954731 -0.007131721 0.020566426
000070 57 da 09 3f 35 ba 48 3d a9 e9 c6 3f ce d1 cd 3f
       0.53848785 0.049005706 1.5540057 1.6079652
000080 fc 71 25 3e 41 99 9d 3d 99 cf 48 be e6 dc d7 3e
       0.16156763 0.076952465 -0.19610442 0.4216072
000090 c3 f9 c2 3f f9 f0 ba bd dd 41 e9 3e 96 22 37 bd
       1.5232471 -0.09127993 0.45558062 -0.044710718
0000a0 52 9c 48 be 94 02 01 3f 79 f2 3f 3f 95 3e 09 3f
       -0.19590881 0.5039456 0.7497936 0.5361112
0000b0 3b 86 88 be e6 0d bd bd b0 59 04 3f a8 34 8d bd
       -0.2666491 -0.092311665 0.5169935 -0.06894809
0000c0 d4 7d 37 be 96 b5 7b be c0 7c 80 3d 68 01 c6 3d
       -0.17919093 -0.24580988 0.06273794 0.09668237
0000d0 47 8d ae bd e3 79 b2 3e 41 05 bf 3f 55 30 46 be
       -0.0852304 0.34858617 1.4923478 -0.19354375
0000e0 72 42 35 3d 39 e9 1d be 51 b1 05 3f 15 31 fe bd
       0.04425282 -0.15420999 0.5222369 -0.124117054
0000f0 c9 39 e0 bd 7a 17 0b be 6c 03 2a 3e f4 5e 7e be
       -0.10948522 -0.13583174 0.16602868 -0.24840909
000100 56 bc 2d 3e 0b e2 30 3e aa b7 a9 bd 0d c6 28 be
       0.16966376 0.17273729 -0.08286984 -0.164818
000110 53 56 11 bf 08 74 1e be 5a ac 54 be 1c e5 33 3d
       -0.56772345 -0.1547395 -0.20768872 0.043919668
000120 38 aa 77 be 7c 62 82 bd b4 ce 11 be 42 55 8d 3e
       -0.24186027 -0.06366441 -0.14239007 0.2760411
000130 d4 af 34 3f d7 5d 02 bd 10 83 43 be b2 27 74 be
       0.7058079 -0.031827774 -0.19092965 -0.23843268
000140 03 d9 ef 3d 9a ce 8c 3c 68 b7 3f 3f 89 26 2c 3f
       0.117113136 0.017188359 0.7488923 0.672463
000150 45 63 fb 3d ed 0a cf bd 92 ba d3 3c 21 99 63 be
       0.122747935 -0.10109506 0.0258458 -0.22226383
000160 ed 20 0d bf 2b 05 17 3e e9 f0 66 3e fe c4 85 3d
       -0.55128366 0.14748065 0.22552837 0.06531714
000170 df 5c 6a 3e 1c 0b 00 bf f9 42 b4 3d e7 3e bb 3d
       0.2288699 -0.5001695 0.088018365 0.09142857
000180 65 bc b0 3e e0 1e 91 3e 92 59 a7 bd 20 79 47 3d
       0.34518734 0.28343868 -0.08171381 0.0486995

mlp2.2.weight f4 [50, 100]
000000 ef d0 fa 3c 00 1d 04 bd 36 34 8f 3e c9 90 0f bd
       0.030617205 -0.03225422 0.2796952 -0.035050187
000010 b2 ae d3 3d 6b 70 98 bc 44 6e ee 3d f0 12 6a 3b
       0.10336055 -0.018608293 0.11642125 0.0035716854
000020 15 59 a2 bc 43 7d d1 bd e3 76 30 be eb 26 7a bd
       -0.019817868 -0.1022897 -0.17232852 -0.06107227
000030 02 28 22 3d a3 af d8 3d 2c b6 45 be 13 62 17 be
       0.039588936 0.10580375 -0.19307774 -0.14783506
000040 78 d5 24 bd 44 d5 be 3e 90 59 92 3e b4 d7 49 bc
       -0.040242642 0.37272084 0.28583956 -0.012319494
000050 55 ff e1 3d ba 02 cc 3d 10 eb d8 3c f3 a1 90 3c
       0.11035029 0.099614576 0.026479274 0.017655348
000060 65 e7 c7 3d ae 0b 01 3e a3 a9 44 3d aa e7 72 be
       0.09760932 0.12602112 0.04801334 -0.23721185
000070 68 22 60 3d e4 4e 25 be dd b7 4d be d4 50 94 bc
       0.054720312 -0.16143376 -0.2008967 -0.018104948
000080 8f 51 df 3c d1 6e 6a 3e 31 22 22 be 4a 78 60 3e
       0.02726057 0.22893836 -0.15833355 0.21920887
000090 4d 93 b0 3e 78 8a f6 bc 33 86 4a be c2 33 db bd
       0.34487382 -0.030095324 -0.19777755 -0.107032314
0000a0 48 64 e4 bd 1c a3 b0 3d 4b 5c 2d be 79 0b fc bd
       -0.1115194 0.08624861 -0.16929738 -0.12306876
0000b0 24 36 b3 be 6a 53 31 3f 96 bf 04 3e c1 c1 cf 3d
       -0.35002244 0.69267905 0.12963709 0.101443775
0000c0 aa ee 03 3e d9 d0 39 3e 0d 07 12 bd 0a a0 03 bc
       0.12884012 0.18146075 -0.035651255 -0.008033762
0000d0 33 bd f1 3d 07 e1 55 be 47 9e c3 be 95 fc 06 bc
       0.11803665 -0.20886622 -0.38206694 -0.008238931
0000e0 5b 3c ce 3d 5c c8 64 bd b9 a0 09 bd 1a fb c5 bc
       0.10070106 -0.05585514 -0.033600543 -0.024167586
0000f0 00 dc 0a be 04 58 74 3e 96 5a 57 be 83 3a a8 bd
       -0.13560486 0.238617 -0.2103065 -0.08214285
000100 d6 e8 41 be 4b 81 df 3e d7 91 1b 3c c1 3b 56 3c
       -0.18936476 0.4365333 0.00949522 0.01307577
000110 a9 89 de 3c 6e a3 1a 3d d9 fb 98 bd c2 2e 04 bd
       0.02716525 0.037753515 -0.07469911 -0.032271154
000120 9f 31 9a 3d 21 19 49 be a6 0f 16 3d 7b 39 ca bd
       0.07528996 -0.19638492 0.036636017 -0.09874245
000130 b9 89 08 be 99 f4 03 bd 9c bf d4 3d 31 51 9d 3e
       -0.13333787 -0.03221569 0.10388109 0.30726007
000140 e6 81 de bd 75 4d 3e 3e 65 7d 80 3e 37 50 dc 3e
       -0.1086462 0.18584235 0.25095668 0.4302995
000150 0f de 28 be 3a 35 2d bd b0 a7 ff bd 90 77 74 3e
       -0.16490959 -0.04228709 -0.12483156 0.23873734
000160 65 bc 11 bd 7f 1e ac be 37 ea 2e be e2 ec 31 be
       -0.035580058 -0.33617017 -0.17081533 -0.1737552
000170 a9 8a 15 bd 42 72 71 bd b4 5d 10 3e c5 6a 2c 3d
       -0.03650919 -0.058946855 0.14098245 0.04209401
000180 d3 2c d2 3d 13 0f 7a be 63 18 64 bd 91 10 35 be
       0.10262456 -0.24419813 -0.05568732 -0.17682101
000190 c9 ae bd 3c ff e4 13 be 37 61 64 bc 65 74 4f be
       0.023154633 -0.14442824 -0.013939193 -0.20259245
0001a0 37 0e fb bc d1 8d 9e 3c 64 86 7e bd 69 80 c1 bd
       -0.030646427 0.019354733 -0.062139884 -0.094483204
0001b0 7b 37 01 3e a6 54 39 bd 51 f5 de 3d 8f ae 58 3d
       0.1261882 -0.045246743 0.10886634 0.052900847
0001c0 7f 6e b5 bc 08 90 b8 3d c6 8c fa bd 94 f1 08 be
       -0.022147415 0.09011847 -0.12233882 -0.13373405
0001d0 9a 22 b8 bd c7 a3 8b be fe 3d 48 3e 01 da 2e be
       -0.08990975 -0.2727339 0.19554898 -0.1707535
0001e0 ad 0f 40 3e 29 5d e1 bd 4b 34 7b 3e 5b 1e ed 3d
       0.1875598 -0.11004097 0.24531667 0.115780555
0001f0 83 e6 ab 3e 47 c0 01 bd 9e 0f ba 3d 02 2c 74 3e
       0.33574304 -0.03167751 0.0908501 0.23844913
000200 e1 da 97 3e cb cd cb be d8 37 3f 3c ff 4f b0 3b
       0.2965918 -0.39805445 0.011671029 0.00538063
000210 ac 89 9d bd ca e5 a0 be 0f ac c1 3d 69 65 e6 3d
       -0.076922745 -0.31425315 0.09456646 0.11249811
000220 59 4d 88 3e 42 bc 37 3d 1b 15 03 3e f3 03 a7 bd
       0.26621512 0.04485727 0.1280102 -0.0815505
000230 a9 50 07 bd fb d4 1c 3c 27 f9 9f be 94 04 e7 bd
       -0.033035908 0.009572263 -0.31244776 -0.1128017
000240 75 04 82 3d dc fa 96 be 0f 2e 95 bd 6f 65 13 3e
       0.06348506 -0.29488266 -0.072841756 0.14394163
000250 45 f7 6b 3d 00 e0 ac 3d a8 b6 2e bd a1 1d 83 3b
       0.05760886 0.08441162 -0.042654663 0.004001335
000260 4d 4c f4 bd a7 3c 2c be 8b 1e a2 3d 7e 4c 1e 3e
       -0.11928616 -0.16820012 0.07915982 0.15458867
000270 11 e0 da 3d 92 ec 8a 3d bd 85 88 3c f8 4e f6 bc
       0.106872685 0.067834035 0.016665334 -0.030066952
000280 db 88 69 bd 73 d5 9c bd 45 84 13 be 12 c7 74 3e
       -0.05701528 -0.076579 -0.14405926 0.23904064
000290 9f 55 86 bd 36 41 06 be 9a 7a 28 3d d1 11 6b 3d
       -0.065593 -0.13110813 0.041132547 0.057390038
0002a0 73 41 cc be de f5 e0 bd 8c 07 c7 3c b1 5a b1 3d
       -0.39893684 -0.109843954 0.02429559 0.08659876
0002b0 f3 74 ca 3d a4 e9 3c 3e 3f e9 c9 bb dd ff 6b bd
       0.098855875 0.18448502 -0.0061618383 -0.057617057
0002c0 0f 9d 19 bd 78 f2 06 be 28 81 80 3e 84 cb 8d 3d
       -0.0375033 -0.13178432 0.25098538 0.06923583
0002d0 f6 60 27 bb 98 5f 95 bd e7 27 e9 3d 8e bf 02 3e
       -0.002553997 -0.07293624 0.11384564 0.12768385
0002e0 5c 61 ef 3d ef 9a da bd e3 dd 02 3e 8e aa 61 3d
       0.11688492 -0.106740825 0.12779956 0.055094294
0002f0 ad d0 ed 3c 64 6d 31 be 07 70 db 3d 4e 64 48 3c
       0.029030168 -0.17326885 0.10714727 0.012230946
000300 a2 cb d1 3d 07 4c dc bd 28 b8 83 be 28 dd 62 bd
       0.10243918 -0.107566886 -0.25726438 -0.055386692
000310 81 b5 4d 3e d4 83 7c 3e d4 94 cd 3d 58 ed 43 be
       0.2008877 0.24659663 0.10038152 -0.19133508
000320 07 84 a1 3d e6 14 94 3e b3 47 a5 be a3 d7 0f bc
       0.0788651 0.28922194 -0.32281265 -0.008779439
000330 b7 09 c7 bd 0c 3f ff 3e 2a ab 4c 3d 8a cb fa bd
       -0.0971865 0.49852788 0.049967922 -0.12245853
000340 18 e4 72 3d 98 5e 11 3d c9 fb 31 3d e3 4b 96 3d
       0.05929956 0.035490602 0.04345301 0.07338693
000350 35 be 9b 3e 54 10 ab 3d 72 d4 37 be 05 6b bb bd
       0.30418554 0.08352724 -0.17952135 -0.09151272
000360 27 c3 24 3d f9 da 82 be 15 cd 87 bd e4 5a 3a 3d
       0.040225174 -0.25557688 -0.06630913 0.045496836
000370 84 ed 48 be 9d 64 9e 3e 98 05 b6 3d c0 15 83 3e
       -0.19621855 0.30936137 0.08887786 0.2560253
000380 0b fd 3c 39 4f 64 40 be ea 5b 93 3b fe 84 fc 3a
       0.00018023343 -0.18788265 0.004497041 0.0019265709
000390 da 64 b0 3d cf 68 7c 3e 0f dc d8 bd 7b 25 44 3e
       0.08612986 0.24649356 -0.10588848 0.19154923
0003a0 12 de 72 3e c7 0c 32 be 98 ec b3 3d 23 49 58 be
       0.23717526 -0.17387687 0.08785361 -0.2112165
0003b0 2f 94 06 3d 23 cf 87 bd 56 78 c9 3d 86 e1 59 3e
       0.032856163 -0.06631305 0.098374054 0.21277437
0003c0 09 46 48 be 5a b6 ed 3d 50 fb d2 3c a4 de 8e 3e
       -0.19557966 0.116070464 0.0257546 0.27904236
0003d0 d0 40 b1 3d 1f f8 96 be b9 8a ae 3e d9 54 d6 bc
       0.0865494 -0.29486176 0.34090212 -0.026163505
0003e0 1f 8a f7 3d d2 b6 a4 bd a9 fa 0a 3e dc b9 5b be
       0.120868914 -0.08042683 0.13572182 -0.21457618
0003f0 7c ca 9a bd 08 63 ad be d5 4d cf 3e 87 bb e8 3c
       -0.07558152 -0.33864617 0.4048907 0.028409733

mlp2.2.bias f4 [50]
000000 24 f4 fb be 2f 06 55 bf 9e 08 46 be 25 1a a5 bc
       -0.49209702 -0.8321256 -0.19339225 -0.020154068
000010 9a ed 8e 3e f7 11 70 bf 87 c6 1b bf 10 9d 59 3f
       0.2791565 -0.9377741 -0.60849804 0.85005283
000020 28 65 5a 3f 62 6d 69 be 13 23 34 3f 66 e6 04 bf
       0.853106 -0.22795632 0.7036602 -0.5191406
000030 c8 16 be be e5 69 dd 3e 04 20 13 3f d2 b7 46 bf
       -0.37126756 0.43244854 0.57470727 -0.7762424
000040 32 e5 57 3f bf da 4f be bb b7 74 be 15 89 84 3e
       0.843341 -0.20298289 -0.23898213 0.25885835
000050 de 49 21 3f c6 9a 80 bf 70 a8 57 be 54 8e 44 3f
       0.6300334 -1.0047233 -0.21060348 0.76779675
000060 d6 b7 2f bf 48 96 77 3e 9f 02 84 3f de cf e9 3e
       -0.68639886 0.24178421 1.03133 0.45666403
000070 a3 04 7d be 33 97 76 bf 73 5c 6b 3d c2 09 9f be
       -0.247088 -0.9632446 0.057461213 -0.31062132
000080 b4 6e 28 3e 5a c7 70 be 57 76 87 3e f6 78 02 3f
       0.1644848 -0.23513547 0.26457474 0.5096582
000090 22 3e a5 bf c7 87 2c 3b 18 9b 83 be 41 32 7a bd
       -1.2909586 0.0026326047 -0.25704265 -0.061083082
0000a0 a9 96 67 3f 30 c5 79 bd 03 53 0f 3f 4e 61 3c 3f
       0.90464264 -0.06097907 0.5598604 0.73585975
0000b0 84 5e d0 be 4a 69 98 be 85 b8 08 3e 58 94 f3 3e
       -0.4069711 -0.2976783 0.13351639 0.47574115
0000c0 25 b0 15 3f 4e 3c 85 bd
       0.584719 -0.06505643

attention.0.weight f4 [100, 100]
000000 24 38 c4 bd ea 7c 0b be 7e 6d 0c be cc 6b e1 bd
       -0.095810205 -0.1362187 -0.13713643 -0.11006889
000010 3f b3 b2 bd f9 fd da b9 34 7a 80 3e 05 b2 a3 3d
       -0.08725595 -0.00041769425 0.25093234 0.07992939
000020 2a ed d2 3d d0 d4 ee bc 4e 6c be 3c 57 2d 5c 3e
       0.10299142 -0.029154211 0.023245003 0.21501671
000030 d7 db 5b be 30 01 86 bd 7b c9 35 bc a9 cb c0 3d
       -0.21470581 -0.06543195 -0.0110954 0.09413845
000040 0c 95 73 bc a5 5d 4a 3c fd 5a 4c bd 5e 79 45 be
       -0.0148670785 0.012351428 -0.04989146 -0.19284579
000050 6e 8d 90 3d 79 52 be be 47 6b 89 3c 44 ce dd 3d
       0.070582256 -0.37172297 0.016774787 0.10830358
000060 4f 95 ab 3d 44 01 22 3e 44 36 d4 3d ec 12 01 3c
       0.08378088 0.15820795 0.10361913 0.0078780465
000070 6e c3 e4 3d e4 fa 3c 3d fe b8 d2 3e 33 23 e3 3d
       0.11170088 0.046137705 0.41156763 0.11090698
000080 a4 81 13 bd 30 53 81 bd d6 61 b8 ba 50 bc 0f bc
       -0.036012307 -0.06314695 -0.0014067243 -0.008772925
000090 1f 7c 6b bc a4 91 be 3d 92 4a dc 39 81 29 ad bd
       -0.0143728545 0.093051225 0.0004201723 -0.08455182
0000a0 bb cc 64 3e ae f5 ec 3d 2e 3d 86 be 77 6b bb 3d
       0.22343723 0.11570297 -0.2621855 0.09151357
0000b0 85 25 60 bd 6c 09 47 bc c1 a7 57 3c 30 68 b1 3a
       -0.05472328 -0.012148242 0.013162554 0.0013535079
0000c0 fe 15 b5 3c 20 36 88 3d 4c 7a 2c 3d fa 6f 48 be
       0.022105213 0.066509485 0.04210882 -0.19573966
0000d0 c7 b1 85 3d d1 76 62 3e 0e 17 bc bd d9 7a 88 be
       0.06528049 0.22115637 -0.09184085 -0.26656225
0000e0 95 8c e4 3b 00 98 61 be 0f 5d 77 bd e1 50 be bd
       0.0069747665 -0.2203064 -0.060391482 -0.0929277
0000f0 e1 a5 ba bb eb 97 bb 3d f2 6b 82 bd 11 75 7c be
       -0.005696044 0.091598354 -0.06368245 -0.24654032
000100 af 48 1c bd 56 2f 48 3c 14 80 ab 3d 94 e2 a1 bc
       -0.038155254 0.012218317 0.08374038 -0.019761361
000110 42 f0 62 be 52 22 8f bd 5c c6 be bd a9 6f e0 bc
       -0.22161964 -0.06988968 -0.09315178 -0.027396994
000120 86 33 cd bd 22 2c e5 3d c2 19 1e 3c 86 c8 34 be
       -0.10019593 0.11190058 0.009649696 -0.17654619
000130 c9 fa 8e bb f8 60 ca bd 46 10 72 bd 54 08 9c bd
       -0.004363392 -0.098817766 -0.05909755 -0.07618776
000140 73 97 73 be 62 f9 78 3c 1b 87 4e be ba 66 94 bd
       -0.23788242 0.015196176 -0.20168726 -0.07246156
000150 74 4d 5c be 6f 56 4e 3d 00 09 38 be 2a dd eb bc
       -0.21513921 0.0503754 -0.17972183 -0.028791983
000160 c5 53 44 3d ba 85 d5 3d c0 a9 bb 3c 1c 86 63 be
       0.04793145 0.10425897 0.022908092 -0.22219127
000170 be fa e3 3c 3b e0 0c be db c9 ab bd 3c cc 0c be
       0.027829524 -0.13757412 -0.0838811 -0.13749784
000180 e9 3f d0 bc c8 e9 c4 3d eb 8e 91 3e 32 f3 62 be
       -0.0254211 0.09614903 0.2842935 -0.22163084
000190 3c 60 cb 3d e1 b9 55 be a5 b5 bb 3c 61 0b f2 bd
       0.099304646 -0.20871688 0.022913763 -0.118185766
0001a0 8b 45 4e bd e1 94 88 3d a4 71 10 bd 2d 20 e8 be
       -0.05035929 0.066690214 -0.035264626 -0.45337048
0001b0 5a 6b bc bd 19 03 04 bc 19 ed 2b 3d 18 19 c5 3d
       -0.09200163 -0.008057379 0.04197416 0.09623927
0001c0 63 e7 77 bd ca 1b 1b 3d 6d f0 55 bd 33 86 26 3d
       -0.060523402 0.0378683 -0.05223124 0.040655326
0001d0 37 5e a5 3d 25 57 49 bd 4f d0 2c bd 19 ee 4c bd
       0.08074611 -0.049155373 -0.042190846 -0.050031755
0001e0 2e fa ea 3c 1c 3e 56 3e 24 98 13 3d d8 69 a1 be
       0.028683748 0.2092213 0.036033764 -0.31526065
0001f0 63 44 41 bc 62 58 42 be 10 59 b6 3d 1b a8 9f bd
       -0.01179609 -0.18979028 0.08903706 -0.077957354
000200 1f 70 cb bc 37 2a 27 bd ae 42 05 be a7 f2 b6 bd
       -0.024833737 -0.040811744 -0.13013718 -0.08933001
000210 48 db 87 bd 90 df 15 bd f3 ba 04 bc df ec b4 3d
       -0.066336215 -0.03659016 -0.008101213 0.08834242
000220 ed aa c4 bc 86 34 9e 3d a4 e2 e9 bd fa b9 07 bd
       -0.024007285 0.07724862 -0.114201814 -0.033136345
000230 13 2a ad be b4 da 98 bc 6c 21 b2 be 47 3c a3 bd
       -0.33821163 -0.018658973 -0.34791124 -0.07970481
000240 1e eb 9c be d8 18 2e bd bd 28 88 bd e8 5a 70 3d
       -0.3064813 -0.04250416 -0.06648395 0.058680445
000250 0c c6 7b 3d e7 7e 6b be 44 c7 2d 3d 0d 9f 1b be
       0.06146817 -0.22997628 0.042426363 -0.15197392
000260 d2 77 72 3d ef 67 64 bd 32 76 b2 3b 36 db af 3c
       0.0591963 -0.05576318 0.005446219 0.021466833
000270 71 6b a3 3d 24 0a 20 be 76 75 ad bd e8 95 4a 3e
       0.07979477 -0.15628868 -0.084696695 0.19783747
000280 87 9a 2c 3d 2a ea b1 be cf ec a3 bd af 15 b7 bd
       0.042139556 -0.34748966 -0.08004152 -0.08939683
000290 e9 2f ce 3e 59 a5 be bd a1 41 33 3d 77 a8 4e 3c
       0.40270928 -0.09308881 0.04376376 0.012613407
0002a0 37 30 1c be 2f ed 09 bc 38 46 c0 bd dc 64 89 3d
       -0.15252768 -0.008418365 -0.09388393 0.067086905
0002b0 c5 87 13 bd fb a0 5a 3d af c5 db 3e a4 b4 8e bd
       -0.03601815 0.05337618 0.42924258 -0.06968048
0002c0 bc e7 30 3d 30 bd a9 bd 5d 06 5d bd 1a aa 26 be
       0.04318975 -0.08288038 -0.053961147 -0.16275826
0002d0 44 5d 54 bd 2f c6 27 3b d0 0f 81 be b1 79 c9 3d
       -0.051846758 0.0025600304 -0.25207376 0.09837664
0002e0 e0 3c de 3d ce 2d a3 bd 77 d0 19 be eb fe a3 bd
       0.10851455 -0.07967721 -0.1502093 -0.08007606
0002f0 5d cc f1 bc 04 1b e6 3d ca 2d 8d bd 03 02 34 be
       -0.029516393 0.112356216 -0.06893499 -0.17578892
000300 8b 44 65 bd 9d 09 56 3d 69 21 2b 3d 69 67 c3 bd
       -0.05597357 0.05225526 0.04177991 -0.09541208
000310 09 f7 d4 bd f2 ed 9c 3d 5a 6d 76 be 0a 09 7b 3e
       -0.10398681 0.07662572 -0.24065152 0.24515167
000320 85 de 8e bc 92 6b b9 be 10 77 c7 bd de 43 e6 3c
       -0.01744009 -0.36214882 -0.09739506 0.028108533
000330 95 2c 6f 3d 51 bd 29 3d aa 26 6f be 7e f5 74 bb
       0.058392126 0.04144031 -0.23354593 -0.003737777
000340 f7 0b a3 bd df e6 a3 bd e3 9d 36 3d f4 1d 91 3d
       -0.079612665 -0.080030195 0.044584166 0.07085791
000350 9b 6f 8f 3d b2 8f 96 3d 40 6c 48 3d 4c fb db bd
       0.07003709 0.073516265 0.04893136 -0.107412905
000360 fd 80 74 bd a4 65 2f bd 9f 03 42 bd bb 2a 07 3d
       -0.059693325 -0.04282154 -0.047366735 0.032999735
000370 47 a7 00 bd 8a 3f b7 bc cd 88 b0 bd 70 b6 1a 3e
       -0.031409528 -0.022369165 -0.08619843 0.15108657
000380 b8 1f 83 3d d2 b8 a5 be 47 5f 51 bd 1b a4 1b bc
       0.06402534 -0.3236757 -0.051116254 -0.009499575
000390 f6 88 34 3d 9b ff 4d 3d 87 ca 1d bd ef 2b 6e 3d
       0.04407593 0.050292592 -0.038523223 0.058147367
0003a0 f3 b8 96 3d 5a c9 73 bc 47 0e 5c 3d 23 cb 8d bd
       0.07359495 -0.014879549 0.053724553 -0.06923511
0003b0 8b 82 c0 bb e6 0e b6 3d cb 6f 11 be 6c fe a4 3d
       -0.005874937 0.088895604 -0.14202802 0.080563396
0003c0 a8 1f d3 bc e5 fc 17 bc 16 20 09 be 1d 79 43 3c
       -0.02577193 -0.009276603 -0.13391146 0.011930731
0003d0 bf 75 ff bd 64 3a 17 be 7a 10 5a 3d db 69 fc 3b
       -0.1247363 -0.14768368 0.05323837 0.0077030486
0003e0 12 59 87 bd 5f ae 62 be 92 ce 3a be a1 29 f3 3d
       -0.06608786 -0.2213683 -0.18242863 0.118731745
0003f0 f1 58 8d bd a4 81 f4 bd 9a 56 3c 3d a0 ba 69 3e
       -0.0690173 -0.119387895 0.045981027 0.22825098

attention.0.bias f4 [100]
000000 42 c8 91 bd 51 08 62 be b7 b4 fa bc aa 84 ac be
       -0.07118274 -0.22073485 -0.03060375 -0.33694965
000010 07 93 87 be c4 29 6f bf f9 ba ac be 7f 70 41 be
       -0.2647936 -0.93423104 -0.337364 -0.1889057
000020 c2 15 df be e4 bf 00 bf 39 c0 45 be 96 9f 10 be
       -0.43571287 -0.502928 -0.19311608 -0.14123377
000030 71 e5 3a be 4f 23 ba bd 7f 6b 74 be 27 24 27 be
       -0.18251587 -0.09088766 -0.23869132 -0.16322385
000040 56 ab c1 bd 9a 82 73 be 53 99 da be 85 81 f7 bd
       -0.09456508 -0.2378029 -0.42695102 -0.12085251
000050 a2 d2 41 3e 87 2b 53 be 1e e3 af bc f2 6a a5 3d
       0.18928006 -0.20622073 -0.021470603 0.08077039
000060 56 2d 3c be 80 3a 54 bd d5 60 21 3c 18 cf b6 be
       -0.1837667 -0.051813602 0.009849747 -0.35704875
000070 60 be ac 3e bf 77 72 bd ff 7a 01 be 93 dd 4f be
       0.33738995 -0.05919623 -0.12644576 -0.20299368
000080 37 15 23 bf 45 fc ef be cb 56 26 be a8 39 74 3e
       -0.63704246 -0.46872154 -0.16244046 0.23850119
000090 c2 eb 98 be d3 1e cc bd 5b f1 52 be 77 78 37 bf
       -0.2986737 -0.09966817 -0.20599882 -0.7166819
0000a0 27 d8 06 bf f4 fe dc 3c 81 68 b7 be ee 4a 04 bf
       -0.5267357 0.02697704 -0.35821918 -0.51676834
0000b0 8f 21 71 be 68 9d e4 be 66 81 bf be a0 28 eb be
       -0.23547958 -0.4465134 -0.3740341 -0.45929432
0000c0 e4 51 ad bc e2 eb 4a bf cf 26 ca be 0e 9c c9 bd
       -0.021157213 -0.7926618 -0.39482734 -0.09844218
0000d0 c2 f4 76 be 00 58 00 bf 3d 15 c2 bd 93 16 d2 bd
       -0.24116805 -0.5013428 -0.09476707 -0.10258212
0000e0 43 7b 01 be 9d 80 c3 be 38 dd 04 be 09 bc df bd
       -0.12644677 -0.38184062 -0.12975013 -0.10924537
0000f0 5e 02 8d be 6b 05 6a 3e 96 1c b9 be 8a cd d7 be
       -0.2754087 0.2285363 -0.36154622 -0.42149
000100 4e 15 81 be 30 ff fd 3e 4b 05 a8 be 8f 8e ca bd
       -0.25211567 0.49608755 -0.32816538 -0.09890472
000110 8d f9 e6 be bc 2c b1 3e ae 8d 8d be 8c 85 b9 be
       -0.45112267 0.34604442 -0.27647156 -0.362347
000120 7a c5 fd bd d6 30 29 be 3b 5c 27 be 63 4b 8b be
       -0.12391181 -0.16522536 -0.16343777 -0.27205953
000130 52 1b f2 3e 43 99 6d 3e 20 06 4b 3e 07 75 bc 3d
       0.4728647 0.23202996 0.19826555 0.09202009
000140 fe fd a5 be 9c cf 79 be 37 f4 2e 3e 97 d6 0f 3e
       -0.32420343 -0.24395603 0.17085348 0.14046703
000150 41 c6 e9 3d 43 9f a7 bc 55 42 ea be 29 92 12 be
       0.11414767 -0.020461684 -0.45753732 -0.14313568
000160 36 3f fc be 65 65 6e bd f5 e7 31 bf 2a 18 88 be
       -0.49266976 -0.058202166 -0.69494563 -0.26580936
000170 d2 6f 19 3f 7c ea 4b be ba d2 10 be ca eb 86 3e
       0.5993625 -0.19913667 -0.14142886 0.26351768
000180 ab d5 00 be 93 bf f9 be 02 86 0b bf fe 24 65 bf
       -0.12581508 -0.48778972 -0.54501355 -0.8950957
