sarl_star_ros/CrowdNav/crowd_nav/data/output_mateo_semicircle_goals/rl_model.pth (torch_old, 349196 bytes, 20 tensors)

mlp1.0.weight f4 [150, 13]
0	0x3e81d146	0.25354975
1	0xbe6f6a58	-0.2338041
2	0xbeaedbdd	-0.34152117
3	0x3d3292c7	0.04359701
4	0x3d2fcd46	0.042920373
5	0xbd9bbf23	-0.07604816
6	0xbf19b5d2	-0.6004306
7	0x3d844ba1	0.064597376
8	0xbe860a5b	-0.26179776
9	0x3e863083	0.26208887
10	0xbe9a8496	-0.3017928
11	0x3e7bed1b	0.24602167
12	0xbc749c33	-0.014929819
13	0xbd5e2ee0	-0.054243922
14	0xbd9d917c	-0.076937646
15	0x3e812d79	0.25230005
16	0xbe0936a5	-0.13399751
17	0xbddb6af5	-0.1071376
18	0x3a1d07ad	0.00059902185
19	0x3e4b3e64	0.19848019
20	0x3ed6bb11	0.41939595
21	0xbdfcc90f	-0.123430364
22	0xbe6f04f1	-0.23341729
23	0xbc9818e9	-0.018566566
24	0xbe70ccf9	-0.23515691
25	0x3e0eb1d2	0.1393502
26	0xbe976138	-0.2956636
27	0x3eb25994	0.34833968
28	0x3f08c5e3	0.5342695
29	0x3d5dc42c	0.054142162
30	0x3e014caa	0.12626901
31	0xbe0e8a84	-0.13920027
32	0xbde03a6c	-0.10948643
33	0xbd857960	-0.06517291
34	0xbebae7e6	-0.3650505
35	0xbd825bf2	-0.063651934
36	0xbe1ab7ac	-0.15109128
37	0xbe037152	-0.12836197
38	0x3e143045	0.14471538
39	0xbe0d7515	-0.13814195
40	0x3e6c3624	0.23067528
41	0xbd0931e6	-0.033494852
42	0xbcf32616	-0.029681247
43	0xbe80f2dd	-0.2518529
44	0xbe4f9acc	-0.20273894
45	0x3dd9c1f8	0.106327
46	0x3e9d7a6f	0.30757472
47	0x3e08fa8e	0.13376829
48	0x3e3d2d18	0.18474233
49	0xbe85ffa1	-0.26171592
50	0xbdceef69	-0.101042576
51	0xbe18909b	-0.14898913
52	0x3f00fb54	0.50383496
53	0xbf2a8cf9	-0.6662136
54	0x3f73bd7f	0.95211023
55	0xbf2cb506	-0.6746372
56	0xbe4e3f1e	-0.20141265
57	0x3f92365c	1.1422839
58	0xbeb74022	-0.35791117
59	0xbe361c2b	-0.17784183
60	0xbf47495e	-0.77846324
61	0x3e0900ec	0.13379258
62	0xbe923c51	-0.28561643
63	0x3e4c8546	0.19972715
64	0xbf86f21f	-1.054264
65	0xbdd65392	-0.104651585
66	0xbe79376f	-0.24337552
67	0xbf0e868a	-0.5567404
68	0x3dcb9dfb	0.09942242
69	0x3d16b6f3	0.036795568
70	0xbea10eff	-0.31456754
71	0x3e300d27	0.17192517
72	0x3ebd3434	0.3695389
73	0x3f6a6955	0.91566974
74	0xbee9ac65	-0.4563934
75	0xbeb1c6ca	-0.34721977
76	0x3e3ab4a3	0.1823297
77	0x3d50b6d2	0.0509556
78	0x3c5a39d9	0.013319456
79	0x3d7385ad	0.059453655
80	0xbd247020	-0.040145993
81	0xbd342b29	-0.043986473
82	0x3e0fd21b	0.14044993
83	0x3bcc15f8	0.006228205
84	0x3f1fd774	0.6243813
85	0xbb38f147	-0.0028219984
86	0xbf098ff7	-0.537353
87	0xbd801d8a	-0.06255634
88	0x3e8fc4bf	0.28079793
89	0xbed684da	-0.41898233
90	0x3d98e1f3	0.074649714
91	0xbdcb3be9	-0.09923536
92	0xbe100e22	-0.14067891
93	0xbf82f96b	-1.0232366
94	0xbe81dddb	-0.25364575
95	0xbe9b8371	-0.3037372
96	0xbe336684	-0.17519575
97	0xbe197c19	-0.14988746
98	0x3eda0c86	0.4258768
99	0x3c589e3d	0.013221321
100	0xbeed6d10	-0.4637227
101	0xbdf26a5f	-0.11836695
102	0x3e2077c6	0.1567069
103	0x3e780cee	0.24223682
104	0x3d779501	0.060444836
105	0x3e6a133e	0.22858903
106	0x3e92ee31	0.2869735
107	0x3e66c7be	0.22537133
108	0xbe4d306e	-0.20038006
109	0xbced5c40	-0.028974652
110	0xbe4dbf30	-0.20092463
111	0x3dca14d3	0.09867253
112	0x3f4ed430	0.8079252
113	0x3f25a0d0	0.64698505
114	0xbe58e2cc	-0.21180266
115	0xbeb62147	-0.35572264
116	0x3d78dbf8	0.060756654
117	0xbebebaa9	-0.37251785
118	0x3d91968b	0.07108792
119	0x3e596f94	0.2123397
120	0xbcba9477	-0.022775872
121	0xbe3ff616	-0.18746218
122	0x3e863dbe	0.2621898
123	0xbdd98593	-0.106211804
124	0x3eb10e49	0.3458121
125	0xbd89d92a	-0.06730874
126	0x3eab3dec	0.3344568
127	0xbdb36be5	-0.087608136
128	0x3cfdea0c	0.030995391
129	0xbe9f1a85	-0.3107492
130	0xbe689c0b	-0.22715776
131	0x3dae7b18	0.08519572
132	0x3e024387	0.12721072
133	0xbe061b53	-0.13096361
134	0xbe348327	-0.17628156
135	0x3da0e686	0.07856469
136	0xbce92507	-0.028460039
137	0xbdd38ecb	-0.1032997
138	0xbe572bf4	-0.2101286
139	0xbe3d8b2d	-0.18510123
140	0xbda9ee75	-0.08297435
141	0xbe3576cf	-0.17721103
142	0x3dd9c488	0.106331885
143	0xbd9b1da3	-0.07574012
144	0xbe85681e	-0.26055998
145	0xbd4af9f7	-0.04955479
146	0x3da5187b	0.0806131
147	0xbe5e3b4c	-0.21702307
148	0x3dc0b832	0.094101325
149	0xbdc591e9	-0.09646971
150	0x3f4a869c	0.7911165
151	0x3d8312eb	0.06400093
152	0x3ecbb664	0.3978759
153	0x3d87a83c	0.06623885
154	0xbda6f921	-0.08152986
155	0x3db1f49d	0.086892344
156	0xbf23343d	-0.63751584
157	0xbe091e5d	-0.13390489
158	0xbed57192	-0.4168821
159	0xbe3ee91c	-0.18643612
160	0xbea3502a	-0.31897098
161	0x3e14c201	0.14527132
162	0x3e8420ce	0.25806278
163	0x3f1c8a0d	0.6114815
164	0x3f05ec44	0.5231364
165	0x3ecdffd6	0.4023425
166	0xbedda688	-0.43291116
167	0x3ea5fa15	0.3241736
168	0xbe0e2fb5	-0.13885386
169	0xbede77ac	-0.43450677
170	0xbd3e8571	-0.04651398
171	0x3f00aa8f	0.5026025
172	0xbdae93f3	-0.08524313
173	0x3e8e7e07	0.27830526
174	0x3a65752e	0.0008753118
175	0x3e88769d	0.26652995
176	0x3eb61349	0.35561588
177	0x3ca5a877	0.020221932
178	0xbec930fa	-0.3929518
179	0x3ade4d2e	0.0016960257
180	0xbd831391	-0.06400216
181	0xbd46c2f1	-0.048525754
182	0x3d8b4a65	0.06801299
183	0x3d3e59aa	0.04647223
184	0xbf436b4a	-0.76335585
185	0x3e81d9db	0.25361523
186	0xbd2a5cab	-0.04159228
187	0xbe52a29f	-0.20569848
188	0x3de685e7	0.112560086
189	0xbd3f384a	-0.04668454
190	0x3f5338e0	0.8250866
191	0xbf2089a5	-0.6271003
192	0x3d99a4d3	0.07502141
193	0xbd982716	-0.0742933
194	0x3f0d44f3	0.55183333
195	0xbecda339	-0.40163592
196	0x3f1afcfa	0.6054226
197	0xbf1de15d	-0.61672
198	0x3eda7553	0.42667636
199	0xbd8d1e25	-0.06890515
200	0xbf066098	-0.5249114
201	0xbda88167	-0.082278065
202	0x3d088243	0.033327352
203	0x3e95b8f8	0.29242682
204	0x3ecf664d	0.40507737
205	0x3ed6d3cf	0.41958472
206	0x3dd3fb17	0.10350626
207	0x3f530edc	0.8244455
208	0xbe3f633f	-0.18690203
209	0xbe7aae75	-0.24480613
210	0x3c3fb6b9	0.011701279
211	0xbd81beb6	-0.06335203
212	0x3dced133	0.10098495
213	0x3eab8435	0.33499303
214	0xbea49304	-0.32143414
215	0xbe2a31a7	-0.16620503
216	0x3dfb3063	0.122650884
217	0xbc0dd87b	-0.00865757
218	0xbdcf403b	-0.10119673
219	0xbdbf01fd	-0.09326551
220	0xbe75e9bd	-0.24014945
221	0xbd8d3a2f	-0.06895863
222	0xbd22a0a4	-0.03970398
223	0xbf830128	-1.0234728
224	0xbda785fe	-0.08179854
225	0x3d755e8f	0.05990463
226	0xbd896c80	-0.06710148
227	0xbc976b98	-0.018483922
228	0x3da3c1ec	0.07995972
229	0x3f72f99c	0.94912124
230	0xbf8fe4bc	-1.1241679
231	0x3e330e68	0.17485964
232	0x3e778f92	0.24175861
233	0x3ed3ec0f	0.41391036
234	0xbd9ab4e0	-0.075540304
235	0xbe53a87c	-0.2066974
236	0x3f031a6f	0.5121221
237	0x3dfba932	0.12288131
238	0x3e886da2	0.26646143
239	0xbebc4188	-0.36768746
240	0x3e7de885	0.2479573
241	0x3f1aafe5	0.60424644
242	0x3f2e89ac	0.6817882
243	0x3f485170	0.78249264
244	0x3e270d30	0.16313624
245	0xbd98abc9	-0.074546404
246	0xbe9be5a9	-0.30448654
247	0xbdf0ed1c	-0.11763975
248	0xbe3998fb	-0.18124764
249	0x3f2622b0	0.6489668
250	0xbeb91a9f	-0.36153123
251	0x3eff05f0	0.49809217
252	0x3eb18579	0.34672144
253	0xbedd7f51	-0.43261197
254	0x3f02226a	0.5083376
255	0xbf21151b	-0.6292283

mlp1.0.bias f4 [150]
0	0xbeb59808	-0.35467553
1	0xbe28f4aa	-0.16499582
2	0x3e27dad9	0.16392078
3	0x3e2bf135	0.16791232
4	0xbf0bebc2	-0.5465661
5	0xbebcec22	-0.36898905
6	0x3eaef342	0.34169966
7	0x3d0339bc	0.03203748
8	0xbe474dd9	-0.1946329
9	0xbeac48d4	-0.33649313
10	0xbd06ccae	-0.03291004
11	0xbe2e8935	-0.17044528
12	0xbec46ce7	-0.38364336
13	0x3e862b63	0.26204976
14	0x3e8a162c	0.2697004
15	0x3ecef256	0.40419263
16	0xbea3635b	-0.3191174
17	0x3eba84de	0.36429495
18	0x3e00eeb6	0.12591061
19	0x3dd59885	0.104294814
20	0xbe1fe030	-0.15612864
21	0x3e4252f7	0.18976961
22	0xbe0e1ca9	-0.1387812
23	0xbdc5b406	-0.09653477
24	0x3e895df1	0.26829484
25	0xbec2690d	-0.37970772
26	0x3ebf3ed8	0.37352633
27	0xbd073ca2	-0.03301681
28	0xbe353d68	-0.17699206
29	0xbe601512	-0.21883038
30	0xbe8920c3	-0.26782808
31	0x3d9ea507	0.0774632
32	0xbceb79de	-0.028744634
33	0xbe7f0b0c	-0.24906558
34	0xbe4d5c1a	-0.20054665
35	0x3c8f9baa	0.017530281
36	0xbe1e3062	-0.15448144
37	0xbe0e714c	-0.13910407
38	0xbd038899	-0.03211269
39	0xbe3f7b73	-0.18699436
40	0x3e444803	0.19168095
41	0xbd9ccdb1	-0.0765642
42	0xbe0ac39e	-0.13551185
43	0xbda1567c	-0.07877824
44	0xbd2cf3aa	-0.042224564
45	0xbe039130	-0.12848353
46	0x3d739424	0.05946745
47	0x3dec2b5c	0.11531708
48	0x3db0cc82	0.08632757
49	0x3ecc34b3	0.39883956
50	0x3d185cda	0.037197925
51	0xbd8c9d06	-0.06865887
52	0xbe253af4	-0.1613577
53	0xbe7952f4	-0.2434805
54	0xbdad50fc	-0.08462712
55	0x3ea91542	0.3302403
56	0x3dda7a7f	0.106678955
57	0xbeb544a6	-0.35403937
58	0xbe4cc182	-0.19995692
59	0x3dd27efb	0.10278126
60	0x3db90796	0.0903465
61	0xbe8572f0	-0.26064253
62	0xbe9cf6b5	-0.30656973
63	0x3f0807e5	0.53137046
64	0xbe422b9f	-0.18961953
65	0xbeb8727d	-0.36024848
66	0xbdd3886a	-0.10328753
67	0x3f2113e2	0.62920964
68	0xbd1c6947	-0.038186338
69	0x3d2967e5	0.041358847
70	0x3e934e06	0.28770465
71	0xbd89e03b	-0.06732222
72	0xbd36ebef	-0.044658598
73	0xbe2cf262	-0.16889337
74	0xbce36371	-0.027757378
75	0xbec09b5e	-0.37618536
76	0x3f26d697	0.6517119
77	0x3e920184	0.2851678
78	0x3e853040	0.26013374
79	0xbe3eff2f	-0.18652032
80	0xbc2c81a4	-0.010528956
81	0xbe28b118	-0.16473806
82	0x3dbef021	0.09323145
83	0x3f329c96	0.6977018
84	0x3da622e8	0.081121266
85	0x3e36ba88	0.17844594
86	0x3eaf9a30	0.34297323
87	0x3e0747c2	0.13210967
88	0xbe646585	-0.22304352
89	0x3d93d477	0.07218259
90	0xbe82893a	-0.2549532
91	0xbe5e917d	-0.21735187
92	0x3d41f08b	0.04734854
93	0xbea3adfb	-0.31968674
94	0xbe11e3fd	-0.14247127
95	0xbea9e1b2	-0.33180004
96	0xbe2e0e67	-0.16997682
97	0x3dd24772	0.10267533
98	0xbe66ff6a	-0.2255837
99	0xbe99ef5e	-0.30065435
100	0xbbf7e964	-0.007565664
101	0x3eddaa62	0.43294054
102	0x3e91e2cc	0.28493345
103	0xbf3d3f52	-0.73924744
104	0xbe5b8a20	-0.2143941
105	0x3e908b53	0.28231296
106	0xbd27d99f	-0.040979024
107	0x3e9db3d3	0.30801257
108	0x3e8efefb	0.2792891
109	0xbeea5fda	-0.45776254
110	0x3dfae88e	0.122513875
111	0x3e968697	0.2939956
112	0x3db664ce	0.08905946
113	0xbe92e00c	-0.2868656
114	0xbe0f299b	-0.13980715
115	0xbf197595	-0.5994504
116	0xbe7437f7	-0.23849474
117	0x3e7d7e9c	0.24755329
118	0xbe391ebd	-0.18078132
119	0xbe16c779	-0.1472453
120	0xbd08f44a	-0.033436097
121	0xbed0cf5c	-0.40783203
122	0x3ec3ac03	0.38217172
123	0xbdfbc25f	-0.12292933
124	0x3e99f809	0.30072048
125	0x3ca66f1f	0.020316659
126	0x3e74dffe	0.23913571
127	0xbee2a889	-0.44269207
128	0x3d8404f8	0.0644626
129	0xbded72fc	-0.11594197
130	0xbe4d6573	-0.20058231
131	0x3e6bad77	0.2301539
132	0xbe9fff27	-0.31249353
133	0xbecec31a	-0.40383226
134	0x3e337f8e	0.17529127
135	0xbdf9a1f0	-0.1218909
136	0x3d52441e	0.051334493
137	0xbd3b7422	-0.04576505
138	0xbef2cf4e	-0.47423786
139	0xbd475766	-0.048667334
140	0xbd9fa9fc	-0.07796094
141	0x3e3cb01b	0.18426554
142	0x3e0ec563	0.13942485
143	0x3ec27dad	0.37986508
144	0x3e1193f8	0.14216602
145	0x3e5b3f98	0.21410978
146	0x3daa9aac	0.083302826
147	0x3e85bdc3	0.2612134
148	0xbe6ed57d	-0.23323627
149	0xbbab990d	-0.005236751

mlp1.2.weight f4 [100, 150]
0	0xbd53fc14	-0.051754072
1	0xbcd2c180	-0.025727034
2	0x3d257322	0.040393002
3	0xbd2ee2f5	-0.04269691
4	0xbd54df82	-0.051970966
5	0xbd356e99	-0.044294927
6	0x3c802d43	0.015646582
7	0xbd8095ef	-0.062785976
8	0xbb4b3c76	-0.003101138
9	0x3c628c74	0.013827432
10	0x3d9ec955	0.07753245
11	0xbc310c47	-0.01080615
12	0xbd5f3fa3	-0.054504048
13	0xbc48e9d4	-0.01226278
14	0xbd3c64a7	-0.045994427
15	0xbc9593f2	-0.018259022
16	0xb9824fdb	-0.0002485503
17	0xbd62ca17	-0.05536851
18	0xbd6b695b	-0.05747352
19	0xba98f531	-0.0011669752
20	0xbba63268	-0.005071927
21	0xbd843782	-0.064559
22	0xbce3d29a	-0.027810384
23	0x3c0cad48	0.008586235
24	0xbd82b70b	-0.06382569
25	0xbd68d122	-0.05684007
26	0xbd9332f0	-0.0718745
27	0x3d53cc9c	0.051708803
28	0x3d0d29d2	0.03446371
29	0xbda7e9fd	-0.081989266
30	0xbc08e58c	-0.0083555095
31	0x3c851f83	0.016250378
32	0x3cab0094	0.0208743
33	0x3d5db420	0.05412686
34	0x3d4d1d41	0.050076727
35	0xbd979f89	-0.07403476
36	0xbc772ad8	-0.015085898
37	0xbcc4d948	-0.024029389
38	0x3d987ad8	0.074453056
39	0xbc7859fd	-0.015158174
40	0xbd86e992	-0.06587519
41	0x3cb1dbde	0.021711286
42	0xbbf64adc	-0.007516248
43	0x3d5e1430	0.05421847
44	0x3d5e0e5c	0.054212913
45	0xbd10eabf	-0.03538012
46	0xbd4427e8	-0.04788962
47	0x3c5d13cf	0.013493492
48	0x3d4ada95	0.049524862
49	0x3c28d92c	0.010305684
50	0xbd387240	-0.045030832
51	0x3bdbdd37	0.0067097205
52	0xbca0dfb8	-0.019637927
53	0x3d3bc155	0.045838673
54	0xbd46091b	-0.048348527
55	0xbcf727d8	-0.030170366
56	0xbc511f53	-0.012763816
57	0xbb3fe6c3	-0.0029281832
58	0x3d382ff7	0.044967618
59	0xbd46aaa2	-0.048502572
60	0x3d03aaf9	0.032145474
61	0xbd9fd2bc	-0.07803866
62	0xbcd154c9	-0.025553124
63	0xbd854fa2	-0.065093294
64	0x3d34cc48	0.04414013
65	0xbcb6e673	-0.022326684
66	0xbc74898d	-0.014925373
67	0x3cdc7aac	0.026913963
68	0xbda21cc2	-0.07915641
69	0xbd3a5a69	-0.045496378
70	0xbd505b0a	-0.05086807
71	0xbd0bd033	-0.0341341
72	0x3d146a92	0.036234446
73	0x3d5d2a42	0.05399538
74	0xbd3f3aac	-0.046686813
75	0xbdb94ff4	-0.09048453
76	0xbd91e811	-0.07124341
77	0x3c8431f6	0.016137104
78	0xbc5a210c	-0.013313543
79	0xbd061ada	-0.03274045
80	0xbd85db28	-0.06535941
81	0x3d6b7f4c	0.057494447
82	0xbda8d217	-0.082431965
83	0x3d90db39	0.070730634
84	0xba5e09d2	-0.0008470091
85	0x3d20b9c5	0.039239664
86	0x3c40662c	0.01174311
87	0xbd578ff4	-0.05262752
88	0xbced05e6	-0.028933477
89	0x3d1ad99f	0.037805196
90	0xbcfd7fab	-0.030944666
91	0xbd78ea0a	-0.060770072
92	0x3d0c7b0e	0.03429704
93	0xbcc89594	-0.024485387
94	0x3dc19b88	0.09453493
95	0xbd057925	-0.032586236
96	0xbceedbc8	-0.029157534
97	0x3d9c0b84	0.07619384
98	0xbd63c658	-0.055609077
99	0x3af945c6	0.0019017986
100	0x3bbb8333	0.0057224273
101	0x3d4566a9	0.048193607
102	0xbd10ec23	-0.035381448
103	0x3bb58a68	0.005540181
104	0xbc2543e3	-0.010086986
105	0xbd82329c	-0.06357309
106	0xbb058c77	-0.0020377913
107	0xbd77ab6c	-0.060466215
108	0xbdc2ecb3	-0.09517803
109	0x3d0a15ee	0.03371232
110	0x3d849fc6	0.06475787
111	0xbd9b8151	-0.075930245
112	0x3d4e0c38	0.05030462
113	0x3ce7201e	0.028213557
114	0xbdc0c6e6	-0.09412937
115	0xbc6b2211	-0.014351384
116	0xbccb2d46	-0.024801861
117	0xbd84d485	-0.064858474
118	0xbd93c174	-0.07214633
119	0x3cdacdd0	0.026709467
120	0xbd9db4eb	-0.07700523
121	0x3d0b67b0	0.03403443
122	0x3cd4fd5d	0.02599972
123	0x3b1ae4a5	0.0023634818
124	0xbd809f8d	-0.06280432
125	0xbd707de4	-0.05871381
126	0x3d80cd06	0.06289105
127	0xbcd782ff	-0.026307581
128	0xbd47772d	-0.04869764
129	0x3d9aabf6	0.0755233
130	0x3d388ad2	0.045054264
131	0x3ceea590	0.02913168
132	0xbd4fe19b	-0.050752264
133	0x3c23c1e8	0.009994961
134	0xbcbd2c6d	-0.023092473
135	0x3c98e5c0	0.01866424
136	0x3cb40ea5	0.02197964
137	0xbc381eb5	-0.01123779
138	0xbd37fab4	-0.044916824
139	0xbd422c53	-0.047405552
140	0xbd8723ff	-0.065986626
141	0xbd17acc3	-0.037029993
142	0xbd837ea5	-0.0642064
143	0x3d5ec107	0.054383304
144	0x3af2d093	0.0018525295
145	0xbd0ed390	-0.03486973
146	0x3cfbd9f1	0.030743571
147	0xbd2b2ea3	-0.041792523
148	0xbd0ab580	-0.0338645
149	0xbd81274e	-0.06306325
150	0x3d824bab	0.06362089
151	0x3d45da47	0.04830387
152	0xbd3da56e	-0.046300344
153	0x3d4d3ced	0.05010693
154	0x3dc57aef	0.09642588
155	0x3c94551b	0.018106988
156	0xbd71092e	-0.058846645
157	0x3d340d44	0.043957964
158	0xbc8bba96	-0.017056745
159	0x3b62a87f	0.0034585295
160	0x3d360066	0.044433974
161	0x3ba68a94	0.005082438
162	0x3c56f24d	0.013119292
163	0x3c5f39a5	0.013624583
164	0x3d324d0b	0.043530505
165	0xbda059b5	-0.0782961
166	0x3d5c81b0	0.053834617
167	0xbc8b8b57	-0.017034216
168	0x3cb4546e	0.022012915
169	0x3e037181	0.12836267
170	0xbc93027a	-0.017945517
171	0x3e3c2648	0.18373978
172	0x3b7a404c	0.0038185297
173	0x3cc9ad2c	0.024618708
174	0xbc9e4be2	-0.019323293
175	0x3db77bc3	0.089591525
176	0xbdccfbf5	-0.100089945
177	0xbc20f124	-0.009823117
178	0x3cec64d0	0.028856665
179	0x3cfbe360	0.03074807
180	0x3d231c2e	0.039821796
181	0x3e155455	0.14582951
182	0xbd9ecf37	-0.07754367
183	0xbd336ea4	-0.043806687
184	0xbd4f1c4d	-0.0505641
185	0xbdeff1e4	-0.11716059
186	0xbd23286d	-0.039833475
187	0xbd0251a2	-0.031816132
188	0x3d60ece6	0.054913424
189	0xbdbc4126	-0.091921136
190	0xbbf8d390	-0.0075935796
191	0x3d8338cd	0.06407318
192	0x3e6ec20f	0.23316215
193	0xbdd92147	-0.1060205
194	0x3e12c2f3	0.1433218
195	0xbc8452bb	-0.01615273
196	0xbc3566f2	-0.011071907
197	0xbd471c11	-0.04861075
198	0xbe5b8bad	-0.21440001
199	0xbce6da02	-0.028180126
200	0xbdcf9739	-0.10136265
201	0x3d9d400e	0.07678233
202	0x3cffa1da	0.031205107
203	0x3cd980c2	0.026550654
204	0x3cf08746	0.029361378
205	0xbd9fd9d4	-0.07805219
206	0x3d110793	0.035407614
207	0xbe3861b0	-0.18006015
208	0x3ceffec4	0.029296286
209	0x3d284f54	0.04109128
210	0xb8fed34a	-0.000121510195
211	0xbc9a0a22	-0.01880366
212	0xbdf39642	-0.11893894
213	0xbdd5163f	-0.10404634
214	0xbd041be7	-0.032253172
215	0xbd88e806	-0.0668488
216	0x3e44f3a6	0.1923357
217	0xbe10d84e	-0.14145014
218	0xbe0c1a22	-0.13681844
219	0xbd994f1a	-0.074857906
220	0xbc7e8247	-0.01553399
221	0xbda71393	-0.0815803
222	0x3dcac7f5	0.0990142
223	0xbc63b321	-0.013897688
224	0xbd2008ae	-0.039070778
225	0x3dd05e96	0.10174291
226	0xbcc625b5	-0.024187902
227	0xbe068691	-0.1313727
228	0x3d465216	0.048418127
229	0xbdf0ec41	-0.11763812
230	0xbe13fb17	-0.14451252
231	0x3da1d228	0.07901412
232	0x3c330e12	0.010928648
233	0xbdcdf402	-0.100563064
234	0x3deda1eb	0.11603149
235	0xbd419b6d	-0.047267366
236	0xbb05b5c5	-0.0020402533
237	0xbdd1a277	-0.10236066
238	0xbc33799e	-0.010954289
239	0x3d00100a	0.031265296
240	0xbd511f2f	-0.05105513
241	0xbdad6fd9	-0.08468599
242	0xbdabcacf	-0.08388292
243	0xbb3b2ece	-0.0028561833
244	0xbe3ccffc	-0.18438715
245	0xbd53d615	-0.051717836
246	0x3c65a692	0.014016764
247	0xbc0d2b90	-0.008616343
248	0xbe1a431a	-0.1506466
249	0xbdc410c6	-0.09573512
250	0xbd9eb32d	-0.07749019
251	0xba6d1c80	-0.00090450794
252	0x3d10879b	0.035285573
253	0xbd939f46	-0.07208113
254	0xbdd4b346	-0.10385756
255	0x3cb6e77b	0.022327175

mlp1.2.bias f4 [100]
0	0x3d727a48	0.059198648
1	0xbd66ba50	-0.056330025
2	0xbe3aaacf	-0.18229221
3	0x3d571c60	0.052517295
4	0xbc65e583	-0.014031771
5	0x3d3fbb72	0.04680962
6	0x3d024778	0.03180644
7	0xbe1321d5	-0.14368375
8	0x3ded7e86	0.11596398
9	0x3ed3df84	0.41381466
10	0x3d2c5bca	0.042079724
11	0xbe9bd6b4	-0.30437243
12	0x3c884202	0.016633037
13	0xbd991fee	-0.07476793
14	0xbd88d197	-0.06680601
15	0xbd93b63c	-0.07212493
16	0xbec523ae	-0.38503784
17	0xbeddc206	-0.4331209
18	0xbc8e1136	-0.017342191
19	0xbd313eed	-0.0432729
20	0x3e1e7a5f	0.15476368
21	0xbe7fd007	-0.249817
22	0xbe5a37ff	-0.21310423
23	0x3dbd7f9f	0.092528574
24	0xbf53034b	-0.824269
25	0xbeb07310	-0.34462786
26	0xb9fc6f39	-0.00048148053
27	0xbe0b34eb	-0.13594405
28	0x3eb3a6e6	0.3508827
29	0x3f26d4d7	0.6516852
30	0xbda88fce	-0.082305536
31	0x3ea849b4	0.3286873
32	0x3ca29ffc	0.019851677
33	0x3c38feed	0.011291248
34	0xbf55c5d2	-0.83504975
35	0x3de4a626	0.11164503
36	0xbdfa1bbb	-0.122123204
37	0xbb2f3ba0	-0.002673842
38	0xbe09a16d	-0.13440485
39	0xbd4bddd6	-0.049772106
40	0xbea3fd27	-0.32029077
41	0xbf3a636a	-0.72807944
42	0xbe2acfe9	-0.16680874
43	0xbedd4a84	-0.43220913
44	0xbd3d20ab	-0.046173733
45	0xbe77c530	-0.24196315
46	0xbe84d879	-0.25946406
47	0xbf188a0e	-0.59585655
48	0xbdd56069	-0.104187794
49	0xbacda802	-0.0015690329
50	0xbe089a2e	-0.13340065
51	0x3e1e8234	0.15479356
52	0x3d18cbfa	0.037303902
53	0xbdffb2c9	-0.124852724
54	0xbde403a9	-0.111335106
55	0x3e4ec896	0.20193705
56	0x3e174b98	0.1477493
57	0x3df43b18	0.11925334
58	0x3e24b050	0.16082883
59	0xbdbb534c	-0.09146747
60	0xbdc4f494	-0.09616962
61	0xbe375f76	-0.17907509
62	0x3ee5249a	0.44754487
63	0xbdb53797	-0.088484935
64	0xbdda73f7	-0.1066665
65	0xbf0343c6	-0.5127529
66	0x3e224842	0.15847877
67	0xbdd87906	-0.105699584
68	0xbe78d5e9	-0.2430035
69	0xbd5da221	-0.054109696
70	0xbd236a46	-0.039896272
71	0xbd817113	-0.06320395
72	0x3ddab814	0.10679641
73	0x3ca0e71c	0.019641452
74	0xbd461331	-0.048358146
75	0x3cd35a8a	0.025800008
76	0x3eaed8a9	0.34149674
77	0xbd07494d	-0.03302889
78	0xbe8e6758	-0.2781322
79	0xbe1a4d2e	-0.15068504
80	0x3d72f7c4	0.05931832
81	0x3ee426a8	0.44560742
82	0xbd202d17	-0.0391055
83	0x3e5c1a5a	0.21494427
84	0x3ca68592	0.020327363
85	0xbe3b8398	-0.18311918
86	0x3d813a83	0.06309988
87	0x3e0cb6a7	0.13741551
88	0xbdcfcb02	-0.101461425
89	0xbdbbf60b	-0.09177788
90	0xbc891a94	-0.016736306
91	0xbc79833f	-0.015229045
92	0x3ec0ba1e	0.37641996
93	0x3c1a1ed9	0.009406769
94	0xbcd20790	-0.025638372
95	0xbea37e71	-0.31932405
96	0xbdd9a4cb	-0.10627135
97	0xbdbd9d7c	-0.092585534
98	0x3d0153e6	0.031574152
99	0x3d14d48b	0.03633551

mlp2.0.weight f4 [100, 100]
0	0xbda8375d	-0.08213685
1	0x3d042ee4	0.03227128
2	0xbcc4feba	-0.024047244
3	0xbdc06293	-0.093938015
4	0xbb84b10a	-0.004049425
5	0x3d16cbba	0.036815383
6	0x3e3f58cb	0.18686216
7	0xbdf85765	-0.12126044
8	0x3dcf8c0d	0.101341344
9	0xbe93e300	-0.28884125
10	0x3cdc0753	0.026858961
11	0xbd0cdafc	-0.034388527
12	0x3cd8d52d	0.026468838
13	0x3e38fcf4	0.18065244
14	0x3c8f3113	0.017479455
15	0x3be3c0f9	0.0069504944
16	0xbe18a200	-0.14905548
17	0xbdc8a94e	-0.09797917
18	0x3c9a3d22	0.018827979
19	0xbceed187	-0.029152645
20	0x3e1a30b7	0.15057646
21	0xbbfe18f7	-0.007754441
22	0xbd5278ae	-0.05138462
23	0x3df59557	0.11991375
24	0xbd17689e	-0.036965005
25	0x3dfaefdd	0.122527815
26	0x3daeff59	0.085447975
27	0xbd91fb62	-0.071280256
28	0xbdc44c40	-0.09584856
29	0x3c2ca590	0.01053752
30	0xbd8ba19c	-0.06817934
31	0x3e031061	0.12799217
32	0xbd7b470b	-0.06134705
33	0x3d8a9571	0.06766785
34	0xbd87ec64	-0.06636885
35	0x3e3c6caa	0.18400827
36	0xbe17dba0	-0.14829874
37	0xbc8e191c	-0.017345957
38	0xbdfa7518	-0.12229365
39	0xbd6531d8	-0.055955738
40	0x3d3e1154	0.046403244
41	0x3d887691	0.0666324
42	0x3d789fca	0.06069926
43	0xbde2896f	-0.1106137
44	0xbe084885	-0.13308914
45	0x3ded4c15	0.11586777
46	0xbcaaf51d	-0.020868832
47	0xbe182ceb	-0.14860885
48	0xbda5d7db	-0.08097812
49	0x3da7bb8d	0.08190069
50	0xbd24af5a	-0.04020629
51	0xbd828cb7	-0.063744955
52	0x3ca4b376	0.020105105
53	0x3d126d9d	0.035749067
54	0x3d539ea1	0.051664952
55	0x3e96c379	0.2944601
56	0x3b737428	0.0037148092
57	0x3e0dbdf7	0.13841997
58	0xbe3ffb26	-0.1874815
59	0xbda8b0c6	-0.08236842
60	0xbd68c125	-0.056824822
61	0xbe4e896a	-0.20169607
62	0x3e1e0754	0.15432483
63	0x3e24883c	0.16067594
64	0xbd17a540	-0.03702283
65	0xbe1c6434	-0.152726
66	0x3cc7c482	0.024385694
67	0x39a7c7b5	0.00032001516
68	0xbccc65e0	-0.024950922
69	0xbd84d6a6	-0.064862534
70	0x3cc0cfb6	0.023536544
71	0xbe56196e	-0.20908138
72	0xbdcf77a4	-0.101302415
73	0x3e49a532	0.19691923
74	0xbd9a7ace	-0.075429544
75	0x3d71662b	0.058935326
76	0xbe013f98	-0.12621915
77	0x3d35569b	0.044272047
78	0xbde7ccdf	-0.11318373
79	0xbd0fd7e3	-0.035117995
80	0xbc90bbe6	-0.017667722
81	0x3d0dec11	0.03464896
82	0x3e472c9d	0.19450612
83	0x3cc615e4	0.02418036
84	0xbd9181b8	-0.0710482
85	0xbe003107	-0.12518702
86	0x3dfdd7ee	0.12394701
87	0xbe149ee9	-0.14513744
88	0xbd98ac51	-0.07454742
89	0x3e24546f	0.16047834
90	0xbd539aba	-0.05166123
91	0xbde321f1	-0.11090458
92	0x3da44cae	0.08022438
93	0x3c2ba31f	0.010475903
94	0x3e0f2c92	0.13981846
95	0xbe5672de	-0.20942256
96	0x3d066185	0.032807846
97	0xbd2958e7	-0.04134455
98	0xbd85b750	-0.06529105
99	0x3d7cbe31	0.06170482
100	0x3d0bdfb5	0.03414889
101	0xbd47f2ec	-0.048815653
102	0x3e16b678	0.14718044
103	0x3de46bbd	0.11153362
104	0x3c8eddad	0.017439688
105	0x3d1df50d	0.038563777
106	0x3d9200a0	0.071290255
107	0x3e2f908c	0.17144984
108	0xbd39717f	-0.045274254
109	0xbd4a4bf3	-0.049388837
110	0xbdbdec68	-0.092736065
111	0xbe0301eb	-0.127937
112	0xbd47e6a2	-0.048803933
113	0x3d82daa8	0.063893616
114	0xbda35b14	-0.07976356
115	0xbd5b563a	-0.05354903
116	0xbe09914a	-0.1343433
117	0xbda38513	-0.07984366
118	0xbdc23d34	-0.0948433
119	0x3e1e7634	0.15474778
120	0x3d41dd4a	0.04733018
121	0x3ce9581f	0.028484402
122	0x3d6070e5	0.054795165
123	0xbdd71ed9	-0.105039306
124	0xbd2b6e05	-0.04185297
125	0xbdafe9c5	-0.0858951
126	0x3d55bd35	0.052182395
127	0x3d57fc1b	0.05273066
128	0x3ddd5186	0.10806565
129	0x3dbffa0c	0.093738645
130	0x3dc0ac4b	0.09407862
131	0xbd74ccf5	-0.059765775
132	0x3ca69202	0.020333294
133	0xbdb62e43	-0.088955425
134	0xbe43a7d7	-0.19106995
135	0x3ccdf03e	0.02513897
136	0x3cf784ff	0.030214785
137	0xbc839541	-0.01606238
138	0x3e3a79d7	0.1821054
139	0xbdaa078e	-0.08302222
140	0x3dfbc95c	0.12294266
141	0xbd6ef7c1	-0.058341745
142	0xbde1915e	-0.11014055
143	0xbd5d9b57	-0.05410322
144	0xbd725802	-0.059165962
145	0xbb4531a9	-0.0030089414
146	0xbd943b77	-0.072379045
147	0x3e01bd08	0.12669766
148	0x3da3622d	0.0797771
149	0xbe29d7ce	-0.16586229
150	0x3c7e7ceb	0.015532712
151	0x3c5cbca0	0.013472706
152	0x3daffd3d	0.08593223
153	0x3debf16e	0.115206584
154	0xbd389160	-0.045060515
155	0x3cd09cb6	0.02546535
156	0xbe22e13e	-0.15906236
157	0xbddb4ff5	-0.1070861
158	0x3d171294	0.03688295
159	0xbdb75e10	-0.08953488
160	0x3d42d139	0.04756281
161	0x3da3b41a	0.07993336
162	0xbdb2a3b3	-0.087226294
163	0xbd9b9af2	-0.07597913
164	0x3d49b3ff	0.049243923
165	0xbe0631f7	-0.13104998
166	0xbd85b2d6	-0.06528251
167	0x3c52e72e	0.0128725
168	0x3c60537a	0.013691777
169	0xbd7c246d	-0.061558176
170	0xbd06c094	-0.0328985
171	0x3cfc0460	0.030763805
172	0xba9ec45a	-0.0012112961
173	0x3d2910ae	0.041275673
174	0x3bd05b6b	0.006358554
175	0xbd24a8f0	-0.040200174
176	0x3dfd48ab	0.12367376
177	0xbd24ff96	-0.04028281
178	0x3dff75bd	0.12473629
179	0x3b2c28ab	0.0026269357
180	0xbd82d403	-0.06388094
181	0x3bd09904	0.006365897
182	0xbdeaeec0	-0.11471319
183	0xbd7c7b87	-0.061641242
184	0xbca42d59	-0.020041155
185	0xbe09c7e8	-0.13455164
186	0xbdaee0a1	-0.08538938
187	0xbe6c1284	-0.23053938
188	0x3d07e937	0.033181395
189	0xbd81bf9b	-0.06335374
190	0x3cdb81b9	0.026795255
191	0x3c40906b	0.011753182
192	0x3d94c775	0.07264606
193	0x3d544945	0.051827688
194	0x3e3219e9	0.17392696
195	0x3cab5e39	0.020918952
196	0xbc2d0b86	-0.010561829
197	0x3d9fe717	0.07807749
198	0xbdec926a	-0.11551364
199	0x3da76b30	0.08174741
200	0xbdbf2077	-0.09332364
201	0x3daccde4	0.08437708
202	0x3e168ebd	0.14702888
203	0x3dba1bbd	0.09087322
204	0xbd9956c6	-0.07487254
205	0xbd5b4ee9	-0.05354205
206	0x3d041c0e	0.032253318
207	0x3cb73f14	0.022368945
208	0xbdaf978f	-0.085738294
209	0x3e5d7de3	0.21630053
210	0xbc9ab959	-0.018887209
211	0xbdd7ef05	-0.10543636
212	0xbd8a76a1	-0.06760908
213	0x3dc7b48f	0.09751236
214	0xbd851c4d	-0.064995386
215	0x3d19135a	0.03737197
216	0x3b249db7	0.002511842
217	0xbd4c2a12	-0.04984481
218	0xbd9f8e2f	-0.07790791
219	0x3d921c56	0.07134311
220	0xbc8209e1	-0.015873851
221	0x3d851320	0.064977884
222	0xbd013c16	-0.031551443
223	0x3d9b806b	0.07592853
224	0xbcbd5089	-0.023109691
225	0x3d408bc4	0.04700829
226	0x3dbf5d2d	0.09343944
227	0xbdd62375	-0.10455982
228	0xbe5385c7	-0.20656501
229	0x3da9504c	0.082672685
230	0xbd63fa4e	-0.05565863
231	0xbdc98be5	-0.09841136
232	0x3d0cdf69	0.034392748
233	0x3d69e9a2	0.057107575
234	0x3e9a4532	0.30130917
235	0xbde77a72	-0.113026515
236	0x3d70bae2	0.058771975
237	0xbd1c6459	-0.038181636
238	0xbd7f45af	-0.062322315
239	0xbe018904	-0.12649924
240	0x3dfd6a58	0.12373799
241	0xbe2b0b88	-0.16703618
242	0x3cb94f6d	0.022620881
243	0x3d2e3b05	0.042536754
244	0xbcf76c3d	-0.03020298
245	0xbcea0504	-0.028566845
246	0xbe1ab681	-0.15108682
247	0x3df7ee42	0.12105991
248	0x3cd6a94e	0.026203778
249	0x3b4fb316	0.0031692437
250	0xbc88f44a	-0.016718049
251	0xbc1bfc01	-0.009520532
252	0x3d11c136	0.03558465
253	0xbddf4315	-0.10901467
254	0xbb830df7	-0.0039994675
255	0xbdcc978b	-0.09989842

mlp2.0.bias f4 [100]
0	0x3db3f1b9	0.08786339
1	0xbead711d	-0.3387536
2	0xbde14b0b	-0.110006414
3	0xbe413776	-0.18868813
4	0x3e48fc11	0.19627406
5	0x3d1e09f7	0.038583722
6	0xbdd4719e	-0.10373233
7	0x3eafcbb3	0.34335098
8	0xbefcd7e9	-0.49383476
9	0xbde80ec7	-0.113309436
10	0x3e81a4dc	0.2532109
11	0xbe8522e9	-0.26003197
12	0x3e45f802	0.19332889
13	0x3f0697bc	0.5257528
14	0x3df2559b	0.11832734
15	0xbddc8956	-0.10768382
16	0xbd9a8a7c	-0.07545945
17	0xbe5d9328	-0.21638167
18	0xbca26d36	-0.019827466
19	0x3f13a531	0.5767394
20	0xbf18a5d5	-0.5962804
21	0xbc1a1262	-0.009403797
22	0x3e9d2d6e	0.30698723
23	0xbda42245	-0.08014349
24	0xbdd9d3c4	-0.10636094
25	0x3f546f80	0.82982635
26	0xbd34b1e8	-0.044114977
27	0xbd129574	-0.03578706
28	0xbe4803f1	-0.19532754
29	0xbece33a0	-0.40273762
30	0x3f69625b	0.91165704
31	0x3e6afe24	0.2294851
32	0x3e1a61e3	0.15076403
33	0xbe9146ef	-0.2837443
34	0xbdab1beb	-0.08354934
35	0xbe20877a	-0.1567668
36	0x3c9d6ec5	0.019217858
37	0x3dc32572	0.095286265
38	0xbd1e6a02	-0.038675316
39	0xbe533b65	-0.20628126
40	0xbdfea7e5	-0.12434367
41	0x3e2268bd	0.15860267
42	0x3ef952a3	0.4869586
43	0xbe2b871d	-0.1675076
44	0xbd76c059	-0.06024203
45	0x3f8d5bf1	1.1043683
46	0x3f47ec40	0.78094864
47	0xbde18a7d	-0.11012743
48	0xbd69e7de	-0.05710589
49	0x3f240abd	0.64078885
50	0xbe19340a	-0.14961258
51	0xbc80bd94	-0.015715398
52	0x3ec92013	0.39282283
53	0xbe6d3821	-0.23165943
54	0x3f5aa705	0.854111
55	0x3f23a072	0.63916695
56	0x3d9df82d	0.077133514
57	0xbe3bb082	-0.18329051
58	0x3ebed29d	0.3727006
59	0x3e3e1bff	0.18565367
60	0x3f4455da	0.766935
61	0x3f828239	1.0195991
62	0x3d73fbe2	0.059566386
63	0x3f19bab2	0.600505
64	0x3cd891ed	0.02643677
65	0xbd92b4d3	-0.07163396
66	0x3e26ed7e	0.16301534
67	0x3eac09d0	0.33601236
68	0x3d57f6e0	0.052725673
69	0xbe3f7fbd	-0.18701072
70	0x3dea9a34	0.11455193
71	0xbd81bbfc	-0.06334683
72	0x3dea62f5	0.11444656
73	0xbcc4316c	-0.023949347
74	0xbeb95d97	-0.36204216
75	0x3e0daff4	0.13836652
76	0xbf10f947	-0.5663037
77	0x3e437d26	0.19090709
78	0xbdfc965a	-0.12333365
79	0x3ebcb9b2	0.36860424
80	0xbda0a636	-0.07844202
81	0xbdcdacf8	-0.10042757
82	0x3f09f23b	0.5388524
83	0x3d527b96	0.051387392
84	0x3e5f6390	0.21815324
85	0xbe34d216	-0.17658266
86	0x3d5ec44d	0.054386426
87	0xbc127f19	-0.008941435
88	0xbe28b9c8	-0.1647712
89	0xbe3f4acc	-0.18680876
90	0x3e3235d8	0.17403352
91	0x3e3660ab	0.17810313
92	0xbd2ca01a	-0.042144872
93	0xbbf22901	-0.007390142
94	0xbe623e7c	-0.22094148
95	0x3e352d37	0.1769303
96	0xbdf2ac63	-0.118492864
97	0x3ccaadfb	0.024741163
98	0xbec7c7e5	-0.39019695
99	0xbd25f6f3	-0.040518712

mlp2.2.weight f4 [50, 100]
0	0x3de9ca2c	0.11415514
1	0x3d41ccd1	0.04731447
2	0xbe0e8894	-0.13919288
3	0x3dbf7cfd	0.093500115
4	0x3d1602d6	0.0366238
5	0x3d8ea6f6	0.06965439
6	0x3dc00120	0.093752146
7	0x3dfb90e7	0.12283497
8	0x3e900c2c	0.28134286
9	0x3d9c807a	0.076416925
10	0x3dea257b	0.1143293
11	0x3de5e87e	0.11225985
12	0xbe283203	-0.16425328
13	0x3cb0266e	0.0215027
14	0xbe38348f	-0.179888
15	0x3e8c8618	0.27446055
16	0x3e0b8a83	0.13627057
17	0x3e202937	0.15640722
18	0xbd887b93	-0.06664195
19	0xbdfbb166	-0.122896954
20	0xbded7b95	-0.11595837
21	0xbe4faadf	-0.20280026
22	0xbdfae6ac	-0.122510284
23	0x3d8bfc26	0.06835203
24	0xbdf9f5cb	-0.122050844
25	0x3dccd77b	0.10002037
26	0xbded2dd4	-0.11581007
27	0xbd262f1a	-0.040572263
28	0x3e13231f	0.14368866
29	0xbdac3e9d	-0.0841038
30	0xbe17ab72	-0.14811495
31	0x3c37b6bb	0.011213
32	0x3e7a09df	0.24417828
33	0x3d0570b2	0.032578178
34	0x3d04ac73	0.032391023
35	0xbcaaa9ad	-0.02083286
36	0x3e4dd5b2	0.2010105
37	0xbc38fdbc	-0.011290964
38	0xbda02c4b	-0.07820948
39	0xbdf5f44c	-0.120094866
40	0xbd4bc7f6	-0.049751244
41	0x3db83da6	0.089961335
42	0xbe0f2bbb	-0.13981526
43	0x3d96886e	0.07350241
44	0x3dcd4a93	0.100239895
45	0x3d8944e6	0.067025945
46	0x3d4227a6	0.047401093
47	0xbd23e990	-0.040017664
48	0x3d1780fc	0.036988243
49	0x3e41f372	0.18940523
50	0x3d542a84	0.05179836
51	0xbd63123e	-0.05543732
52	0x3e0be1cd	0.13660355
53	0xbcf9d198	-0.03049545
54	0x3c688f38	0.014194302
55	0xbe182807	-0.14859019
56	0x3dbc6433	0.09198799
57	0xbdc81a09	-0.09770591
58	0xbe109ccc	-0.14122313
59	0xbd6ad1a4	-0.057328835
60	0x3cb17f6e	0.021667209
61	0xbe422e26	-0.18962917
62	0x3cd659bd	0.026165837
63	0xbdafbc48	-0.08580834
64	0xbdaeca5c	-0.08534691
65	0xbd937d73	-0.07201662
66	0x3de1eb3c	0.110311955
67	0xbe6abd3f	-0.22923754
68	0xbe3280b3	-0.17431907
69	0x3e17dbe6	0.14829978
70	0xbe4c517f	-0.19952963
71	0xbe7d7cae	-0.24754593
72	0xbe1136b1	-0.1418102
73	0x3ce200fb	0.027588358
74	0x3d368a9b	0.04456578
75	0x3d8ddff0	0.06927478
76	0xbd88ad0e	-0.066736326
77	0x3aed200e	0.0018091218
78	0x3d258dbf	0.040418383
79	0xbc7a10a2	-0.015262755
80	0xbbaa496d	-0.0051967413
81	0xbdd65214	-0.10464874
82	0x3e31373e	0.1730623
83	0xbe45e2c3	-0.19324784
84	0xbe1bbfd7	-0.152099
85	0xbe01cca9	-0.12675728
86	0xbd35806a	-0.04431192
87	0x3caede2d	0.021346176
88	0xbdd28635	-0.10279504
89	0x3e2ea3f0	0.17054725
90	0xbe156133	-0.1458786
91	0xbcc5eb3a	-0.024160016
92	0xbdc2afa4	-0.09506157
93	0x3dc3357a	0.09531684
94	0xbdab65e8	-0.083690464
95	0x3db967d7	0.09053009
96	0x3db41ddf	0.0879476
97	0x3d1b280d	0.037879992
98	0x3dd4f903	0.10399058
99	0x3c42385e	0.011854259
100	0xbe0b908c	-0.13629359
101	0x3d6b5322	0.05745233
102	0x3c2794b9	0.010228329
103	0x3e173bf1	0.1476896
104	0xbde153b4	-0.11002293
105	0x3d9509be	0.07277249
106	0x3e620c11	0.22074915
107	0xbda50ffa	-0.08059688
108	0xbe08a554	-0.13344318
109	0xbd16451d	-0.036687005
110	0x3d585ef2	0.052824922
111	0xbda41915	-0.080125965
112	0x3d29f3f7	0.04149243
113	0xbda6303f	-0.08114671
114	0xbe33e668	-0.17568362
115	0x3e020c43	0.1269999
116	0xbb82de8d	-0.0039938153
117	0xbd669110	-0.056290686
118	0xbe192901	-0.14957048
119	0xbe584d2b	-0.21123187
120	0xbda10469	-0.07862169
121	0x3e96a85d	0.29425326
122	0xbe2742f9	-0.16334142
123	0x3e48770a	0.1957666
124	0x3dd276ce	0.102765664
125	0xbd71da2d	-0.05904596
126	0xbcda683d	-0.026661033
127	0xbc0a75a4	-0.008450899
128	0xbd70704d	-0.05870085
129	0x3e3529e3	0.1769176
130	0x3e40e488	0.18837178
131	0x3e6d915c	0.23199981
132	0x3c394ac8	0.011309333
133	0x3d814f3c	0.06313941
134	0x3dda7e02	0.10668565
135	0x3e008ca5	0.12553652
136	0xbd914318	-0.07092875
137	0xbd73742c	-0.059436962
138	0xbd2ca365	-0.042148013
139	0x3d693d09	0.056942973
140	0xbc0ca364	-0.008583877
141	0x3cdbf9d2	0.026852522
142	0x3e53edeb	0.20696227
143	0xbcb2712d	-0.021782482
144	0x3db06182	0.08612348
145	0x3d453f50	0.048156083
146	0xbe930c45	-0.28720298
147	0xbe42e272	-0.19031695
148	0xbe889e7f	-0.26683423
149	0xbe103521	-0.14082767
150	0xbd076452	-0.033054657
151	0x3d61397b	0.05498646
152	0xbe7bfae7	-0.2460743
153	0xbe53a3ef	-0.20668004
154	0x3d95480d	0.07289133
155	0xbe9f3d9b	-0.3110169
156	0xbe80467b	-0.25053772
157	0xbc2a08a5	-0.010378038
158	0xbd30a095	-0.043121893
159	0xbd5c21fa	-0.05374334
160	0xbe3b60be	-0.18298623
161	0xbe3acaa9	-0.18241371
162	0xbdcc8503	-0.099863075
163	0x3e1aaa02	0.15103915
164	0xbe573d01	-0.21019365
165	0x3d325f73	0.04354806
166	0xbdd3dfc1	-0.10345412
167	0x3e961926	0.29316062
168	0xbe09da0b	-0.13462083
169	0x3d1fea78	0.039041966
170	0xbdd984d0	-0.10621035
171	0xbdbcd176	-0.09219639
172	0xbddf0b62	-0.10890843
173	0xbd00eace	-0.031473927
174	0x3d81154b	0.063028894
175	0x3b6b9178	0.003594486
176	0x3cd201bd	0.025635595
177	0x3d439a11	0.04775435
178	0x3e6994fc	0.2281074
179	0x3db68b27	0.0891326
180	0xbad16a38	-0.001597709
181	0x3d1dc291	0.03851563
182	0xbd0e77f9	-0.034782384
183	0x3de99a70	0.1140641
184	0xbe831583	-0.2560235
185	0x3c4ff802	0.012693407
186	0x3e216eba	0.15764895
187	0x3d5d0b69	0.05396596
188	0xbcb2ff4a	-0.021850247
189	0x3d035bd9	0.032070015
190	0x3e628b50	0.22123456
191	0x3d0e9b09	0.03481582
192	0x3e2ba507	0.16762172
193	0x3dec1134	0.11526719
194	0x3d6c8895	0.057747442
195	0x3e33ae6c	0.17547005
196	0x3d52f22f	0.051500496
197	0x3bd5cd7d	0.0065247403
198	0x3dead4f5	0.114663996
199	0x3dd93f52	0.106077805
200	0xbdef9b8f	-0.11699592
201	0xbcdf71b4	-0.027275898
202	0xbcc59f3f	-0.024123786
203	0x3d8a6956	0.067583725
204	0xbe38b692	-0.18038395
205	0x3bd1951b	0.0063959486
206	0xbd78aa8d	-0.060709525
207	0x3d759ae9	0.059962187
208	0xbd00506c	-0.031326696
209	0xbda4cdc3	-0.080470584
210	0xbe0dbb8f	-0.13841079
211	0x3ce7a27b	0.028275719
212	0xbd32671d	-0.043555368
213	0xbc2636b6	-0.01014488
214	0xbb4f9ddc	-0.0031679785
215	0x3d457f96	0.04821738
216	0x3e109457	0.14119087
217	0xbc875b71	-0.016523095
218	0x3d3304e7	0.043705847
219	0xbddd706e	-0.1081246
220	0x3df41a54	0.11919084
221	0x3e2b2f68	0.16717303
222	0x3c348c47	0.011019773
223	0x3c81c250	0.015839726
224	0xbc7ab4bc	-0.0153018795
225	0xbd355aca	-0.044276036
226	0xbda5e04c	-0.08099422
227	0xbd1bcebb	-0.03803895
228	0xbde42b89	-0.11141116
229	0x3e0a97ba	0.13534442
230	0xbded16e7	-0.11576634
231	0x3cf70d4f	0.030157713
232	0xbc5f555f	-0.013631194
233	0x3caa7e87	0.020812286
234	0x3e2ccbc4	0.16874605
235	0x3d83720a	0.064182356
236	0xbe3f90b2	-0.1870754
237	0xbdcc806e	-0.099854335
238	0xbdf97b26	-0.12181692
239	0x3c21b767	0.009870387
240	0x3d0a2561	0.033727054
241	0x3c3e8d30	0.011630341
242	0xbe04cf4f	-0.12969707
243	0xbc3d259c	-0.011544611
244	0x3c36ed30	0.011164948
245	0xbdf18b32	-0.117941275
246	0xbe6ce9b2	-0.23136023
247	0xbea6ca17	-0.32576057
248	0xbdaac5e8	-0.08338529
249	0x3d899d37	0.067194395
250	0xbdabcbda	-0.08388491
251	0x3de1f0c6	0.11032252
252	0x3d565b4a	0.052333154
253	0x3cf05393	0.029336726
254	0xbdb2fad1	-0.08739246
255	0x3be1b7c5	0.006888362

mlp2.2.bias f4 [50]
0	0x3e9e634f	0.3093514
1	0x3cfcaf6f	0.030845372
2	0x3d800fb8	0.06252998
3	0x3e2d7aaa	0.16941324
4	0xbeb68033	-0.35644683
5	0x3da01662	0.07816769
6	0x3de2ea3a	0.110798314
7	0x3edd8357	0.43264267
8	0xbe6cd9e0	-0.23129988
9	0x3b0b9324	0.002129742
10	0x3d885bff	0.06658172
11	0xbf3bf421	-0.73419386
12	0xbcc81dee	-0.024428334
13	0xbd9cdd08	-0.07659346
14	0xbf5d11cc	-0.8635528
15	0xbee4c20a	-0.4467929
16	0xbe411061	-0.18853904
17	0xbe186b5f	-0.14884709
18	0xbd84b8c5	-0.064805545
19	0x3e6a6988	0.2289182
20	0xbec36fae	-0.38171142
21	0x3e5447a9	0.20730461
22	0x3e2cf84e	0.16891596
23	0xbeb706a0	-0.35747242
24	0x3caa6aa7	0.020802809
25	0xbed969d2	-0.42463547
26	0x3e4c5524	0.19954354
27	0xbeda55f9	-0.42643717
28	0xbea59e47	-0.3234732
29	0xbd0f69df	-0.035013076
30	0xbe794fc6	-0.24346837
31	0x3e210432	0.15724257
32	0xbdbbeb78	-0.091757715
33	0x3e892ca0	0.2679186
34	0x3d13be4c	0.036070153
35	0x3ec9b73b	0.39397606
36	0x3e03d443	0.1287394
37	0xbddb5f8f	-0.10711586
38	0x3d31c0b9	0.043396685
39	0xbe3ad62f	-0.18245767
40	0x3e265b88	0.16245854
41	0x3e13f14f	0.1444752
42	0xbf171758	-0.59019995
43	0x3e9a33ca	0.30117637
44	0xbf170978	-0.58998823
45	0x3eb91d6f	0.3615527
46	0x3e90fcb5	0.283178
47	0x3da755df	0.081706755
48	0x3cdb0c50	0.02673927
49	0x3f34b0b5	0.70582134

attention.0.weight f4 [100, 100]
0	0xbdd202ef	-0.10254466
1	0xbd0fadac	-0.035077736
2	0xbdd6260a	-0.10456474
3	0xbd9ca847	-0.07649284
4	0xbdc43738	-0.09580845
5	0xbdebb502	-0.11509134
6	0xbde0ae04	-0.10970691
7	0x3c095d5a	0.008384073
8	0xbd75a3b0	-0.059970558
9	0xbe03e8e1	-0.12881805
10	0xbe27ef75	-0.1639994
11	0xbd2651a7	-0.040605213
12	0x3d7e2853	0.062050175
13	0xbe048b96	-0.12943873
14	0x3e1b7aad	0.15183516
15	0x3c7e2968	0.015512802
16	0xbe059d7d	-0.13048358
17	0xbe498538	-0.19679725
18	0x3d7ea58c	0.062169597
19	0x3c389626	0.011266267
20	0x3e598a9a	0.21244279
21	0xbc0a750b	-0.008450757
22	0x3b723167	0.0036955716
23	0x3e5d334c	0.216016
24	0xbdd1ed11	-0.10250295
25	0xbca4e30c	-0.020127796
26	0xbd8feb65	-0.0702732
27	0x3d489ab2	0.048975654
28	0x3df6892b	0.120378815
29	0x3df20130	0.11816633
30	0x3dac7474	0.08420649
31	0xbd26f4ff	-0.04076099
32	0xbd93e89b	-0.072221
33	0xbcd20f2e	-0.025642004
34	0xbdec3cd1	-0.11535037
35	0x3e1a7c43	0.15086465
36	0xbe20a762	-0.15688851
37	0x3baf8e8c	0.005357569
38	0x3b5d783b	0.0033793587
39	0x3d6b73be	0.057483427
40	0x3d5c277c	0.053748593
41	0xbd08b84b	-0.03337888
42	0xbe50908d	-0.20367642
43	0x3e331811	0.1748965
44	0x3dd98d09	0.106226034
45	0xbe84fcaf	-0.25974032
46	0xbe028dbf	-0.12749384
47	0xbe4b0b3d	-0.19828506
48	0xbd6d0bdb	-0.057872634
49	0xbcd1f453	-0.025629198
50	0x3c195d99	0.009360694
51	0x3e6a8aa0	0.22904444
52	0xbd16d1c6	-0.03682115
53	0x3d9fb484	0.077981025
54	0xbdc982c0	-0.09839392
55	0xbcf9db96	-0.030500215
56	0xbcd68980	-0.026188612
57	0x3d1ac05e	0.037781112
58	0xbdb5b3d3	-0.088721894
59	0xbe9fd9f5	-0.31220976
60	0xbbb7a3d0	-0.005604245
61	0xbca44dca	-0.020056624
62	0x3d6eee79	0.058332894
63	0xbe065a38	-0.13120353
64	0x3d471115	0.048600275
65	0xbe93d0b9	-0.2887018
66	0xbbadeb20	-0.00530757
67	0xbd40fe2e	-0.047117405
68	0x3d323bd5	0.04351409
69	0xbdc20422	-0.094734445
70	0xbe37e112	-0.17956951
71	0xbdf416bf	-0.11918401
72	0xbb722e3a	-0.0036953823
73	0xbe44ce9e	-0.19219443
74	0x3db300f9	0.0874042
75	0x3da49bbe	0.08037518
76	0xbd95e5f3	-0.0731925
77	0xbdbc37b2	-0.091903105
78	0x3d9f5f04	0.07781795
79	0xbd590146	-0.05297973
80	0x3ddbac9a	0.107262805
81	0x3dc6f260	0.09714198
82	0xbdbc68da	-0.09199686
83	0x3d53b9d3	0.051690888
84	0x3d950b92	0.072775975
85	0x3cd6d609	0.026225107
86	0xbd7b6c7a	-0.06138275
87	0xbd832f79	-0.06405539
88	0xbd849012	-0.06472792
89	0xbd08145f	-0.033222552
90	0xbd40398a	-0.046929874
91	0x3db61ccd	0.08892212
92	0x3e957b10	0.29195452
93	0xbe0a4531	-0.13502957
94	0x3d3e4a69	0.04645768
95	0xbbb0c516	-0.005394588
96	0xbd0f6da2	-0.035016663
97	0xbe1799ed	-0.14804812
98	0x3d988279	0.07446761
99	0x3d92e847	0.0717321
100	0xbd0ede24	-0.03487982
101	0x3d202501	0.03909779
102	0x3d868d2a	0.06569894
103	0xbda4314d	-0.08017216
104	0x3d55d0ee	0.052201204
105	0x3dd3f8c8	0.10350186
106	0x3dd6a19b	0.104800425
107	0xbd67f6f4	-0.056631997
108	0x3cef6e51	0.029227408
109	0x3d270744	0.040778413
110	0x3d5a1e69	0.053251658
111	0xbd378992	-0.04480893
112	0x3d515d29	0.051114235
113	0xbe1af329	-0.1513182
114	0xbd9251e6	-0.07144527
115	0x3d79c8e1	0.06098259
116	0xbd880475	-0.06641475
117	0xbdac3f8e	-0.084105596
118	0xbd059248	-0.032610208
119	0x3da837e7	0.082137875
120	0x3b889048	0.0041675903
121	0xbafc23ca	-0.001923674
122	0xbc337c78	-0.010954969
123	0xbd978670	-0.07398689
124	0xbd889480	-0.06668949
125	0xbdfbe787	-0.1230002
126	0xbb4d370d	-0.003131333
127	0x3d88bd4e	0.06676732
128	0xbe08a76c	-0.13345116
129	0x3d164a23	0.036691796
130	0xbbe43a7c	-0.0069649797
131	0xbd27e81e	-0.04099285
132	0x3d00fff2	0.03149409
133	0xbd0bad60	-0.03410089
134	0xbcf9df01	-0.030501844
135	0x3da7e850	0.08198607
136	0xbde79984	-0.11308578
137	0xbcfcfc8a	-0.030882139
138	0x3d780a26	0.060556553
139	0x3af75f2c	0.0018872968
140	0xbd2f1fa7	-0.042754795
141	0xbe3defd2	-0.18548515
142	0xbd955364	-0.07291296
143	0x3e093652	0.13399628
144	0x3cac21f7	0.02101229
145	0x3a51ee8a	0.00080082624
146	0xbccf04ff	-0.025270937
147	0xbe0bb72e	-0.13644096
148	0xbdace270	-0.08441627
149	0x3d40d21c	0.047075376
150	0xbc8121c6	-0.015763175
151	0xbe166152	-0.14685562
152	0x3d1df5a5	0.038564343
153	0x3d2f7232	0.042833515
154	0x3d5e3554	0.054250076
155	0x3d2d96bd	0.042380083
156	0xbe162a89	-0.14664663
157	0x3d897fdd	0.06713841
158	0xbd9dab0c	-0.0769864
159	0x3c43c848	0.011949606
160	0xbdd81cd7	-0.10552376
161	0x3c87204e	0.016494896
162	0x3d88c201	0.06677628
163	0x3a0972fc	0.0005243269
164	0x3cabb09b	0.020958235
165	0xbd2f35dd	-0.042775977
166	0x3d8af28d	0.06784544
167	0x3c7c9e2a	0.015418569
168	0x3cac14cc	0.02100601
169	0x3be56be9	0.0070013893
170	0x3da35a1a	0.0797617
171	0xbdc1f546	-0.0947061
172	0xbdba8399	-0.091071315
173	0xbd1dde18	-0.038541883
174	0x3d13be5f	0.036070224
175	0xbd820e02	-0.06350328
176	0xbdcca214	-0.099918514
177	0xbd8c05c3	-0.068370365
178	0x3d5f03c9	0.05444697
179	0xbdac62d0	-0.084172845
180	0x3d65382c	0.055961773
181	0x3d91cd63	0.071192525
182	0x3c0afc51	0.0084830085
183	0xbd4ecf19	-0.050490472
184	0x3bde1359	0.0067772088
185	0xbc258272	-0.010101901
186	0xbdb955aa	-0.09049542
187	0xbdceaf0a	-0.1009198
188	0xbc2269ce	-0.009912921
189	0xbc882bf3	-0.01662252
190	0x3d85e275	0.06537334
191	0xbe0ef8ca	-0.13962093
192	0x3d6d41f5	0.05792423
193	0x3d8948f0	0.06703365
194	0xbdbcea72	-0.092244044
195	0xbaa2a856	-0.0012409787
196	0x3c07cb06	0.008288151
197	0x3c920416	0.017824214
198	0x3da07eb1	0.078366645
199	0x3c031370	0.00800024
200	0x3d1f393e	0.03887295
201	0x3d8ffac0	0.07030249
202	0xbd3da799	-0.04630241
203	0x3c1cdddc	0.00957438
204	0x3d131a2a	0.035913624
205	0x3dbaa3f7	0.09113305
206	0xbde6ea52	-0.11275162
207	0xbccfb55b	-0.025355032
208	0xbdd3537f	-0.1031866
209	0xbe46b916	-0.19406542
210	0x3da5e7d7	0.081008606
211	0xbc530e40	-0.012881815
212	0xbda19dd0	-0.078914285
213	0xbbf2acd4	-0.0074058566
214	0xbd1b151e	-0.037861936
215	0xbc5b42c7	-0.01338262
216	0x3d50f3cc	0.051013753
217	0x3ae864e9	0.0017730269
218	0xbdd4f322	-0.103979364
219	0x3dad7c2f	0.08470952
220	0xbe1e88c3	-0.15481858
221	0xbdd495c1	-0.10380126
222	0xbc266850	-0.010156706
223	0xba21372a	-0.00061498827
224	0xbe0f3707	-0.13985835
225	0x3b49ff4c	0.0030822335
226	0xbd24844e	-0.040165238
227	0x3dfc0ba1	0.123069055
228	0x3dd23f8d	0.102660276
229	0xbcec0c54	-0.028814472
230	0x3c11412d	0.008865637
231	0xbd417d5d	-0.047238696
232	0xbc05cffe	-0.008167265
233	0x3d4e865b	0.0504211
234	0xbcf0b5ae	-0.029383507
235	0xbe5fabc4	-0.21842867
236	0x3ce809f3	0.028325057
237	0xbd18dc23	-0.037319314
238	0x3ddd6ceb	0.1081179
239	0x3def5510	0.11686146
240	0xbe115f98	-0.14196622
241	0xbe44de75	-0.19225486
242	0x3d0094c2	0.031391867
243	0x3db60c8e	0.08889113
244	0xbda21d92	-0.07915796
245	0xbe2fd79d	-0.17172094
246	0x3e6c3c6b	0.23069923
247	0xbc7822a8	-0.015144981
248	0x3cff3fd8	0.031158373
249	0x3e712c26	0.23551998
250	0x3da17900	0.07884407
251	0xbd98f3cb	-0.07468375
252	0xbdadbff3	-0.08483877
253	0x3e0238f0	0.12717032
254	0xbd9065b2	-0.07050647
255	0x3cffd444	0.031229146

attention.0.bias f4 [100]
0	0x3ed1a86c	0.40948808
1	0x3d299160	0.041398406
2	0xbd431c1b	-0.047634225
3	0x3caf74f1	0.021418067
4	0x3c842f24	0.01613576
5	0xbe4e1157	-0.20123802
6	0x3c1e0271	0.009644137
7	0x3e2bfbe1	0.16795303
8	0x3d9adea3	0.07561996
9	0xbdbc4615	-0.091930546
10	0x3dd181fd	0.102298714
11	0xbe3c2b1f	-0.18375824
12	0xbda2d9e1	-0.07951713
13	0xbdd9da22	-0.10637309
14	0xbc6f6224	-0.014610801
15	0xbda464c7	-0.08027034
16	0xbded519b	-0.11587831
17	0xbd21d9a0	-0.039514184
18	0xbdff40f2	-0.12463559
19	0x3ded56d5	0.115888275
20	0x3e0d6e7f	0.13811682
21	0x3e1d044b	0.15333669
22	0x3be9f3cc	0.0071396586
23	0xbd9b97d5	-0.07597319
24	0x3b877a80	0.004134476
25	0x3d244195	0.040101606
26	0xbdcc0959	-0.099627204
27	0xbdb5c43e	-0.08875321
28	0xbdb3ac0a	-0.08773048
29	0x3ca30630	0.019900411
30	0x3e07a22f	0.13245462
31	0xbcf15ef4	-0.029464222
32	0x3c9a7b50	0.018857628
33	0xbcacd572	-0.021097872
34	0xbdc952a9	-0.09830219
35	0x3e609b81	0.2193432
36	0x3b125d96	0.0022333614
37	0x3d0edc0a	0.034877814
38	0xbc13274c	-0.008981537
39	0x3e25aaeb	0.16178481
40	0xbd779502	-0.06044484
41	0x3c00bd7d	0.0078576775
42	0xbdf14523	-0.11780765
43	0x3d01dc28	0.031704098
44	0x3bc40c96	0.0059829457
45	0xbd56c6f8	-0.052435845
46	0x3c9d10a3	0.019172972
47	0xbd2472ca	-0.040148534
48	0x3d5f7a0f	0.054559764
49	0x3e88bed8	0.26708102
50	0xbcfeef7e	-0.031120058
51	0x3dfe19da	0.124072745
52	0x3da93002	0.0826111
53	0xbde568ed	-0.11201654
54	0x3ddbf9c9	0.10741002
55	0x3da57c24	0.080803186
56	0x3de273ac	0.11057219
57	0x3e0fe397	0.14051662
58	0x3d2aa28a	0.041658916
59	0xbe13c9a7	-0.14432393
60	0xbdf82967	-0.12117272
61	0x3de8754b	0.11350497
62	0x3e13c719	0.14431418
63	0x3d1c0753	0.038092922
64	0x3d754fcb	0.05989055
65	0x3e006caf	0.1254146
66	0xbe01821f	-0.12647294
67	0xbe12b713	-0.1432765
68	0x3c9b0b6e	0.018926349
69	0xbe84d28d	-0.25941887
70	0x3dfb3923	0.12266757
71	0x3d383ae6	0.044978045
72	0xbdbfa274	-0.09357157
73	0xbe0efbbe	-0.1396322
74	0x3d04392e	0.032281093
75	0xbe0a08d4	-0.1347993
76	0x3de8d84b	0.113693796
77	0xbd90d98e	-0.07072745
78	0x3bed3adc	0.0072396826
79	0x3c80d9b6	0.015728813
80	0x3cef479f	0.029208956
81	0x3c862a04	0.016377456
82	0xbd8fbd22	-0.07018496
83	0x3d649135	0.055802543
84	0x3e01737c	0.1264171
85	0x3e17306e	0.14764568
86	0xbd6abfaa	-0.05731169
87	0xbd92bc01	-0.07164765
88	0x3e42adc8	0.19011605
89	0xbd959317	-0.07303446
90	0xbe106218	-0.1409992
91	0xbdb9eaa7	-0.090779595
92	0x3d28dd49	0.04122666
93	0xbc465a85	-0.0121065425
94	0xbb4c71af	-0.003119569
95	0x3dfd1909	0.12358291
96	0xbcb18a7e	-0.021672484
97	0x3e0f8f3b	0.14019482
98	0x3dad0791	0.08448709
99	0x3d4c8c9e	0.04993879
