sarl_star_ros/CrowdNav/crowd_nav/data/output_mateo_semicircle_kmp/il_model.pth (torch_old, 349196 bytes, 20 tensors)

mlp1.0.weight f4 [150, 13]
0	0xbe928d82	-0.28623587
1	0xbd216c02	-0.039409645
2	0x3eea9427	0.45816156
3	0xbe984881	-0.29742816
4	0xbe554853	-0.20828371
5	0x3efcc9d4	0.49372733
6	0xbbb2c6eb	-0.005455842
7	0xbd2419b1	-0.040063564
8	0x3f3bcc94	0.73359036
9	0x3f40dcf4	0.7533715
10	0xbd811c4a	-0.06304224
11	0x3e6016ed	0.21883745
12	0xbd9d8059	-0.07690496
13	0x3ed3b742	0.41350752
14	0xbd353dab	-0.044248264
15	0xbf2487e2	-0.6426984
16	0xbe9071fd	-0.28211966
17	0xbf443a40	-0.7665138
18	0xbdb036ab	-0.08604177
19	0x3efaa510	0.48954058
20	0xbee195d0	-0.4405961
21	0x3ead54b0	0.33853674
22	0xbfbba743	-1.4660419
23	0xbea16202	-0.31520087
24	0xbe02a084	-0.12756544
25	0xbe8c1fe5	-0.27368084
26	0x3fa04077	1.2519673
27	0xc000ccdd	-2.0125039
28	0xbf531eaf	-0.82468694
29	0xbf305b10	-0.6888895
30	0xbe9c8240	-0.30568123
31	0xbdddff10	-0.10839665
32	0xbf330ed2	-0.6994449
33	0xbe39fa94	-0.18161994
34	0x3e9be886	0.3045084
35	0xbf373490	-0.7156458
36	0xbe8a6ae9	-0.2703469
37	0x3f38cd2f	0.72188085
38	0xbf9df752	-1.2341101
39	0xbe33a3cd	-0.17542954
40	0xbebb2072	-0.3654819
41	0xbe9090be	-0.2823543
42	0xbe3b215a	-0.18274441
43	0xbe66ccae	-0.22539017
44	0x3de22c69	0.11043627
45	0xbe695072	-0.22784594
46	0xbd98477e	-0.07435511
47	0xbe866d3d	-0.26255217
48	0xbc92a5f7	-0.017901404
49	0xbc364d2b	-0.011126797
50	0x3dbc47d3	0.09193387
51	0x3c5a0b43	0.013308349
52	0x3eaa49e8	0.3325951
53	0xbc950404	-0.018190391
54	0xbeab5ec2	-0.33470732
55	0x3da3aeb1	0.07992304
56	0xbdf973c9	-0.121802874
57	0xbe6d8e6e	-0.23198864
58	0xbf085182	-0.5324937
59	0xbe0c4869	-0.13699497
60	0xbe06a9cf	-0.13150714
61	0x3dcf898c	0.10133657
62	0x3d8ad0e9	0.06778128
63	0xbf0c4cfe	-0.5480498
64	0x3c93ef05	0.01805831
65	0xbeb27e5c	-0.3486203
66	0x3e617459	0.2201704
67	0xbf4d181e	-0.80114925
68	0xbe817854	-0.25287116
69	0x3de11130	0.109896064
70	0xbebbf43e	-0.3670978
71	0xbdd1f1fe	-0.102512345
72	0x3f77f243	0.9685404
73	0x3d1f56e5	0.03890123
74	0x3eda1e41	0.42601207
75	0xbe5c3e1d	-0.2150807
76	0x3ddab70b	0.10679444
77	0x3dd7311e	0.10507415
78	0xbd461cc7	-0.048367288
79	0xbf5b9900	-0.85780334
80	0xbef532cb	-0.47890314
81	0xbe51b938	-0.20480812
82	0x3e6252cc	0.22101897
83	0xbec23b19	-0.37935713
84	0xbe0f721b	-0.14008372
85	0x400de117	2.2168634
86	0xbee17a72	-0.4403873
87	0xbe4d7f2b	-0.20068042
88	0xbdc60df8	-0.09670633
89	0x3ec8e922	0.39240366
90	0xbe61126c	-0.21979684
91	0xbdc17b28	-0.09447318
92	0x3f066a8c	0.5250633
93	0x3fb2df2c	1.3974357
94	0xbe170e0b	-0.1475145
95	0x3f73d6d4	0.95249677
96	0x3ef9c091	0.4877973
97	0xbf3c6b81	-0.7360154
98	0x3f1bc555	0.6084798
99	0x3e104b63	0.14091258
100	0xbe8d5a74	-0.27608073
101	0x3d066604	0.032812133
102	0xbfa8c51e	-1.3185155
103	0x3eb87b7d	0.36031714
104	0x3e8c5240	0.27406502
105	0xbf207488	-0.6267781
106	0x3f035930	0.51307964
107	0xbce82418	-0.028337523
108	0xbee00b14	-0.43758452
109	0x3e45155c	0.19246429
110	0x3e3336f3	0.1750143
111	0xbf1375af	-0.57601446
112	0xbf364874	-0.71204305
113	0xbf46bd75	-0.7763284
114	0x3e2e8dd4	0.1704629
115	0xbcf68e19	-0.030097054
116	0xbe5f88e1	-0.21829559
117	0xbe2d14c7	-0.16902457
118	0xbd69ea87	-0.05710843
119	0xbc361965	-0.011114453
120	0x3c552e83	0.013011578
121	0x3e18a3ff	0.1490631
122	0x3e99510c	0.29944646
123	0x3dba1162	0.09085347
124	0xbea4556e	-0.32096428
125	0xbd780ca1	-0.06055892
126	0x3e66a9c8	0.22525704
127	0xbe4c2720	-0.199368
128	0xbe4b101a	-0.19830361
129	0x3e5a8b75	0.21342261
130	0x3ebb63c9	0.36599568
131	0xbcd4d2ec	-0.025979482
132	0x3fbd9824	1.4812055
133	0xbe10f084	-0.1415425
134	0x3ddb560f	0.10709774
135	0x3e80c9f6	0.25154084
136	0xbf2c1761	-0.67223173
137	0xbecd4238	-0.40089583
138	0xbf2745de	-0.65340984
139	0xbdefb4c0	-0.11704397
140	0xbe4e7a83	-0.20163922
141	0xbf421431	-0.7581206
142	0x3dbb6262	0.091496244
143	0xbce25621	-0.02762896
144	0xbf0fd66d	-0.5618656
145	0x3c3d9049	0.011570045
146	0xbe724aa8	-0.23661292
147	0x3de9bdfa	0.11413188
148	0xbe057664	-0.13033444
149	0xbe86a78a	-0.26299697
150	0x3fa87693	1.3161186
151	0x3e6476c2	0.22310928
152	0xbe68bd3a	-0.22728434
153	0xbe3cb161	-0.1842704
154	0x3e641ed3	0.22277384
155	0xbe2d1f69	-0.16906513
156	0xbe8d7ce9	-0.2763436
157	0x3df4a430	0.11945379
158	0xbc96da04	-0.018414505
159	0xbe47fc09	-0.19529738
160	0xbeeaedbc	-0.45884502
161	0x3e0c9add	0.1373095
162	0xbebf2cdc	-0.37338912
163	0xbe501f8b	-0.20324533
164	0x3eb67f1f	0.3564386
165	0x3e1000c1	0.14062788
166	0x3e47ccb7	0.19511686
167	0x3def0504	0.116708785
168	0x3dfe5f64	0.12420538
169	0x3ed84a8b	0.42244372
170	0xbebfdbf0	-0.37472486
171	0xbed7ae9c	-0.42125404
172	0x3dc7691d	0.09736846
173	0x3ee1df81	0.44115832
174	0x3d817043	0.0632024
175	0xbed2d54a	-0.41178352
176	0x3f1541a9	0.58303314
177	0x3ea23c87	0.31686804
178	0xbe593b4f	-0.2121403
179	0x3c953d6e	0.018217769
180	0xbe297cf4	-0.16551572
181	0x3dea050b	0.11426743
182	0xbd9ecac0	-0.07753515
183	0xbdebbdf2	-0.115108386
184	0xbede70f4	-0.4344555
185	0xbe9989f4	-0.29988062
186	0x3f24cb70	0.6437292
187	0x3f028d7d	0.50997144
188	0x3ccb003d	0.024780387
189	0xbf0fbfdc	-0.5615213
190	0x3f887e4f	1.0663546
191	0xbfb0446d	-1.3770882
192	0xbe5a1aa1	-0.2129922
193	0x3e4be23f	0.19910525
194	0xbe5ab05a	-0.21356335
195	0x3dd5ccbd	0.10439441
196	0xbdbd8c3d	-0.09255264
197	0x3dd3bc78	0.10338682
198	0x3ddacd8c	0.10683736
199	0xbe38f77b	-0.18063156
200	0x3f324947	0.6964306
201	0x3eb726e1	0.3577185
202	0xbfc143d5	-1.5098826
203	0x3eda1675	0.42595258
204	0x3f468907	0.7755284
205	0x3e181423	0.14851432
206	0xbeb99f4a	-0.3625434
207	0xbe24c9c8	-0.16092598
208	0xbe863fa5	-0.26220432
209	0xbf141638	-0.57846403
210	0xbe85ce02	-0.26133734
211	0x3df6e909	0.12056167
212	0xbee044d7	-0.4380252
213	0xbd2007f1	-0.039070074
214	0x3d4c21b1	0.049836818
215	0x3dd3198f	0.10307609
216	0x3e43b6a1	0.19112636
217	0x3de1e79e	0.110305056
218	0x3dda6891	0.10664476
219	0x3ead7358	0.33877063
220	0xbcbcb407	-0.023035062
221	0xbf86e516	-1.0538661
222	0x3f4e78a9	0.8065286
223	0xbe238ed7	-0.15972458
224	0x3ea1852e	0.3154692
225	0x3e937b96	0.28805226
226	0xbf322bb7	-0.69597954
227	0xbe996719	-0.2996147
228	0xbee32c85	-0.44369903
229	0x3e32ab6b	0.17448203
230	0xbed7c009	-0.421387
231	0x3ea82b19	0.3284538
232	0xbe85980d	-0.26092568
233	0x3e7c38d9	0.2463106
234	0xbe84a8cd	-0.25910035
235	0x3e11c3c1	0.1423483
236	0xbdf286a2	-0.118420854
237	0x3e831017	0.25598213
238	0x3e66d8e9	0.22543682
239	0xbe4d34aa	-0.20039621
240	0xbc675ff1	-0.014121995
241	0xbc0dc2c1	-0.00865239
242	0xbd808c45	-0.06276754
243	0xbcd59350	-0.02607122
244	0xbe376a13	-0.17911558
245	0xbe8323da	-0.2561329
246	0x3e6a577c	0.22884935
247	0xbe048646	-0.12941846
248	0xbd8ba8e8	-0.06819326
249	0x3befd724	0.007319348
250	0xbdf078ac	-0.11741766
251	0x3e6fc930	0.2341659
252	0xbb7c28a5	-0.0038476374
253	0xbd65a628	-0.056066662
254	0x3d8aaea6	0.06771593
255	0x3d603fd6	0.05474838

mlp1.0.bias f4 [150]
0	0x3dc949e3	0.09828546
1	0xbe96ede3	-0.29478368
2	0xbf36c523	-0.71394557
3	0xbde23c1d	-0.11046622
4	0xbd6393f9	-0.05556104
5	0x3e02eca4	0.12785584
6	0xbee01421	-0.43765357
7	0x3eb386ff	0.3506393
8	0xbd8e7569	-0.06955988
9	0xbe8b4f6a	-0.27209026
10	0x3d87fad3	0.06639638
11	0xbe9b1803	-0.30291757
12	0x3c450e37	0.012027315
13	0xbe346caf	-0.17619585
14	0x3e0feac4	0.140544
15	0xbd2ce704	-0.0422125
16	0xbeaaffbc	-0.33398235
17	0xbc46820b	-0.012115966
18	0xbde7128f	-0.11282837
19	0xbd64b3eb	-0.055835646
20	0xbe083f57	-0.13305412
21	0x3db9edd0	0.09078562
22	0x3ddaa72b	0.10676416
23	0xbdce57c2	-0.10075332
24	0xbc988050	-0.018615872
25	0xbe7e33d2	-0.24824455
26	0xbeb4b18c	-0.35291708
27	0xbed39956	-0.41327924
28	0x3d257e77	0.04040381
29	0xbc23aa7c	-0.009989377
30	0x3dd10c8c	0.10207471
31	0xbe26d322	-0.16291478
32	0x3dd3642e	0.10321842
33	0xbe9bf3ff	-0.30459592
34	0xbe638651	-0.22219206
35	0x3eb207ad	0.3477148
36	0x3e1ac180	0.15112877
37	0x3e25f29f	0.16205834
38	0x3e75a2cd	0.23987885
39	0x3d4ffaed	0.05077641
40	0xbdbca85e	-0.09211801
41	0x3e61c687	0.22048388
42	0xbe6241d1	-0.2209542
43	0xbd836b05	-0.06416897
44	0x3e9a83bd	0.30178633
45	0x3e265039	0.1624154
46	0x3e98c4b7	0.29837582
47	0xbe76162f	-0.240319
48	0xbc6e08cb	-0.014528464
49	0x3ddf97b2	0.109176055
50	0xbe836342	-0.25661665
51	0xbe5dae8b	-0.21648614
52	0x3e3a55c2	0.18196777
53	0xbd27cc92	-0.040966578
54	0xbec50461	-0.38479903
55	0xbe4e10fa	-0.20123664
56	0x3e5106ca	0.20412746
57	0x3e996aa7	0.29964182
58	0xbe3c3419	-0.18379249
59	0x3d944bcb	0.07241019
60	0x3ea049b1	0.31306222
61	0x3d0be3a8	0.034152657
62	0xbe66dd00	-0.22545242
63	0xbbe58684	-0.007004561
64	0xbeb2ef45	-0.34948173
65	0xbe240999	-0.16019286
66	0xbc22df8c	-0.009940993
67	0xbeb09aef	-0.34493205
68	0x3daca209	0.08429343
69	0xbe874b61	-0.26424697
70	0xbe531ccb	-0.20616452
71	0x3dba1d24	0.090875894
72	0x3e1f54c4	0.1555968
73	0xbd217eb2	-0.039427467
74	0x3db7e109	0.08978469
75	0xbd05af6a	-0.03263799
76	0x3e582c80	0.21110725
77	0x3d1c67e1	0.038185004
78	0x3e1e3f50	0.1545384
79	0x3e43ce86	0.19121751
80	0xbe81798d	-0.25288048
81	0xbe036834	-0.12832719
82	0xbadaab0b	-0.0016683055
83	0xbe481cf9	-0.19542302
84	0x3d23df2b	0.04000775
85	0xbe76a23c	-0.24085325
86	0xbd3bd42f	-0.04585665
87	0x3d2a545f	0.04158437
88	0x3dc6feea	0.0971659
89	0xbdb2cda6	-0.087306306
90	0xbe307e26	-0.17235622
91	0xbe5716fe	-0.21004865
92	0xbdba5a50	-0.09099257
93	0x3e637cf2	0.22215632
94	0xbca64441	-0.020296218
95	0xbec30aaa	-0.38094074
96	0xbad2df7f	-0.0016088336
97	0xbe4fe485	-0.20302017
98	0x3c95e340	0.018296838
99	0x3db31570	0.08744323
100	0x3e8cd9ca	0.2750991
101	0xbc460e3a	-0.012088353
102	0xbd27fc7b	-0.04101227
103	0xbdf310ea	-0.118684605
104	0x3d5b5206	0.05354502
105	0xbe3f0058	-0.18652475
106	0xbdd69ac3	-0.10478737
107	0xbde7d9ac	-0.113208145
108	0x3dcf7f7a	0.10131736
109	0x3e8791cb	0.2647842
110	0x3d4ef1c8	0.05052355
111	0x3e1a180d	0.15048237
112	0xbe5a774d	-0.21334572
113	0x3e978758	0.29595447
114	0x3e2084b8	0.15675628
115	0xbe1c3c9e	-0.15257499
116	0x3de7952c	0.11307749
117	0x3d915c7c	0.07097718
118	0x3e2c6fd9	0.16839541
119	0x3e4c31fc	0.19940943
120	0xbdb2486c	-0.087052196
121	0x3e7c7bec	0.24656647
122	0x3c6bbeaf	0.014388724
123	0xbcc718df	-0.024303852
124	0x3c87a5ce	0.016558554
125	0xbdfcf15d	-0.12350724
126	0xbd038f7e	-0.032119267
127	0x3e91197c	0.28339756
128	0x3e801635	0.25016943
129	0xbde367db	-0.11103793
130	0x3e43d525	0.19124277
131	0xbdb2a820	-0.087234735
132	0x3e56940d	0.20954914
133	0x3e4eeea9	0.20208229
134	0xbe0f2376	-0.13978371
135	0x3e08c289	0.1335546
136	0xbe56bed4	-0.20971233
137	0x3d566ed6	0.052351795
138	0xbe6d4921	-0.23172428
139	0xbde1d447	-0.11026817
140	0x3e49e1cb	0.1971504
141	0xbe080ac4	-0.13285357
142	0xbddaa6ba	-0.10676332
143	0xbe913f7c	-0.28368747
144	0xbe384e34	-0.17998582
145	0x3e07c21b	0.13257639
146	0xbe364beb	-0.17802398
147	0xbe2dd82f	-0.16976999
148	0xbe37f411	-0.17964198
149	0xbe41296b	-0.18863456

mlp1.2.weight f4 [100, 150]
0	0xbde8e78e	-0.113722906
1	0xbd757312	-0.059924193
2	0xbdb57398	-0.088599384
3	0x3d1700a9	0.036865864
4	0xbc0a68f5	-0.008447875
5	0xbd93a423	-0.07209041
6	0xbc0adcb1	-0.0084754685
7	0xbd93ce18	-0.07217044
8	0xbd3ddeec	-0.046355173
9	0xbcc6e30f	-0.024278192
10	0x3d4c457f	0.049870964
11	0x3d81514d	0.06314335
12	0x3c997741	0.018733623
13	0xbcc1c391	-0.023652824
14	0xbd974a2a	-0.073871925
15	0x3d13388e	0.035942607
16	0xbcd91dc3	-0.02650345
17	0x3ae90c1d	0.0017780099
18	0xbd9a675e	-0.07539247
19	0x3c4fd430	0.012684867
20	0x3d106ab0	0.035257995
21	0xbd9a7d88	-0.075434744
22	0x3d962395	0.073310055
23	0x3bf09619	0.007342112
24	0xbd996c72	-0.074913874
25	0xbcfe609f	-0.031051932
26	0xbc8295a6	-0.015940499
27	0x3c4d31ee	0.012524111
28	0xbd846535	-0.06464616
29	0x3d4d29a2	0.050088532
30	0xbd97ae94	-0.07406345
31	0xbcffdffe	-0.031234737
32	0x3d20baa5	0.039240498
33	0xbce4ca23	-0.027928418
34	0x3d02ee3a	0.03196547
35	0xbd9d0920	-0.07667756
36	0x3ca9badf	0.02071899
37	0xbcf5147a	-0.02991699
38	0x3d31fc31	0.0434534
39	0xbc697b32	-0.014250563
40	0xbcf581fe	-0.029969212
41	0x3d05d985	0.032678146
42	0xbaeeeae7	-0.0018227965
43	0xbb242739	-0.0025047793
44	0xbd5aafa3	-0.053390156
45	0xbdcec334	-0.10095826
46	0x3cd88df3	0.026434874
47	0xbde165ea	-0.11005767
48	0xbd13108a	-0.035904445
49	0x3c29f857	0.01037415
50	0x3cc2fcda	0.02380221
51	0xbbf7969e	-0.0075557968
52	0xbc9d1484	-0.019174822
53	0x3d239de2	0.03994549
54	0x3c7e3bdf	0.015517204
55	0xbd840a20	-0.06447244
56	0x3d3b299d	0.045693982
57	0xbda52915	-0.080644764
58	0xbd035bc2	-0.03206993
59	0xbd01aa8a	-0.03165678
60	0x3c8b782a	0.017025072
61	0x3d7c9db4	0.061673835
62	0x3ca60b44	0.020269044
63	0xbe05bdb2	-0.13060644
64	0xbd5b0f00	-0.053481102
65	0xbd8394a4	-0.06424835
66	0xbd4374ca	-0.0477188
67	0xbd11cde6	-0.03559675
68	0xbd856fe8	-0.06515485
69	0xbc14fa90	-0.009092942
70	0xbd5c2e00	-0.053754807
71	0xbcb03ade	-0.021512445
72	0x3c1586d8	0.009126388
73	0xbc1aeddc	-0.009456124
74	0x3cf32bb9	0.029683935
75	0xbd85505d	-0.06509469
76	0xbd071ae2	-0.03298462
77	0x3d697f86	0.05700638
78	0x3cbef347	0.023309363
79	0xbd847fe4	-0.06469706
80	0xbdb57803	-0.08860781
81	0xbbeddd20	-0.007259026
82	0x3cfb095c	0.030644111
83	0x3b9157d7	0.00443552
84	0x3c6b89a8	0.0143760815
85	0xbb22a8bc	-0.0024819812
86	0xbd7bd908	-0.061486274
87	0xbd738b16	-0.059458815
88	0x3ce3e37e	0.027818438
89	0xbd7f2cd0	-0.062298596
90	0xbd260f83	-0.040542137
91	0xbc97d25a	-0.01853292
92	0x3cb5dbf0	0.022199601
93	0xbc248228	-0.010040797
94	0x3cf81782	0.030284647
95	0xbbd0ab6f	-0.0063680927
96	0xbd115496	-0.035481058
97	0x3ce11964	0.027477928
98	0xbd332805	-0.043739337
99	0x3d5cc0d8	0.053894848
100	0x3cb12369	0.02162333
101	0xbb885614	-0.004160652
102	0xbcde354c	-0.027125023
103	0xbd8a0fa5	-0.06741265
104	0xbdc06593	-0.09394374
105	0xbc23bf96	-0.009994408
106	0xbc1b318e	-0.009472264
107	0xbce3907d	-0.027778858
108	0xbd4856cf	-0.048910912
109	0xbc5709a2	-0.013124855
110	0x3c7fd968	0.0156157985
111	0x3c4d89ed	0.012545091
112	0xbd5ab282	-0.053392895
113	0xbd67853d	-0.05652355
114	0xbdd26a23	-0.1027415
115	0xbda4bd3e	-0.080439076
116	0x3d092123	0.033478867
117	0x3cca969f	0.024730025
118	0xbdb454cf	-0.088052385
119	0xbda807f7	-0.08204644
120	0xbc554007	-0.013015754
121	0x3d35b274	0.04435964
122	0x3d9115ad	0.070842125
123	0xbd3fcda8	-0.04682699
124	0xbce81258	-0.02832906
125	0x3c9d371e	0.019191321
126	0x3cc44a27	0.02396114
127	0xbca836be	-0.020533916
128	0xb9aa0000	-0.00032424927
129	0x3c1d46a3	0.009599361
130	0xbc314525	-0.010819708
131	0x3d403d3b	0.046933394
132	0x3d42d43a	0.047565676
133	0xbddb7805	-0.10716251
134	0xbd096f66	-0.033553503
135	0x3ccef6dc	0.025264196
136	0xbb0ce48f	-0.0021498536
137	0xbdbad1d6	-0.09122054
138	0x3d7ad47a	0.06123779
139	0x3d9004cc	0.07032165
140	0x3c3d97f3	0.011571872
141	0xbd3c30a6	-0.045944832
142	0x3d0ab7ab	0.033866566
143	0x3d5bd643	0.053671133
144	0x3c08d031	0.008350418
145	0x3c8c1eba	0.017104495
146	0x3d9eb5bf	0.07749509
147	0xbcf26e91	-0.029593738
148	0xbb1000f6	-0.002197323
149	0xbd6c5493	-0.057697844
150	0x3d896620	0.06708932
151	0xbd983c0b	-0.07433327
152	0xbdf922f3	-0.12164869
153	0xbda87fb6	-0.08227484
154	0xbd2d1886	-0.042259715
155	0x3c52af02	0.012859108
156	0x3ce0e261	0.027451696
157	0x3e307bf4	0.17234784
158	0x3e8c6456	0.274203
159	0xbcc14e9f	-0.02359706
160	0x3e7d9811	0.2476504
161	0x3daae9dc	0.083453864
162	0x3d3608a9	0.044441853
163	0x3e16e41d	0.14735456
164	0xbe1a8106	-0.15088281
165	0xbd9e624c	-0.077335924
166	0xbd5f97a3	-0.05458797
167	0xbe287fd9	-0.1645502
168	0x3d9e6592	0.07734217
169	0xbd875402	-0.0660782
170	0xbbf7ef30	-0.007566355
171	0x3b92a523	0.0044752522
172	0x3e3addf3	0.1824873
173	0xbd831993	-0.06401362
174	0xbdf876a5	-0.12132005
175	0xbd280cc8	-0.041027814
176	0x3dad32d5	0.08456961
177	0x3d2267b7	0.03964969
178	0x3e642a50	0.22281766
179	0x3dc8a023	0.09796169
180	0xbe21729d	-0.15766378
181	0xbe4afeb3	-0.19823723
182	0xbdd7af7b	-0.10531517
183	0xbeaa2686	-0.33232516
184	0xbda1a4e0	-0.078927755
185	0xbe62ad1a	-0.22136346
186	0xbd3b58fa	-0.04573915
187	0xbe112db8	-0.14177597
188	0x3da8cdd1	0.08242381
189	0x3dec3a51	0.115345605
190	0xbd45ef11	-0.048323695
191	0x3e8d3615	0.27580324
192	0xbd37170b	-0.04469971
193	0xbc85c7ef	-0.016330687
194	0xbd4be43d	-0.04977821
195	0x3e150c5c	0.14555496
196	0x3e936f50	0.28795862
197	0x3d1dc791	0.0385204
198	0xbc9e9fed	-0.019363368
199	0xbe8ec7d7	-0.2788684
200	0xbcb446b4	-0.02200637
201	0x3e625970	0.2210443
202	0xbd008d49	-0.03138474
203	0xbea06c29	-0.3133252
204	0x3ede0eee	0.43370765
205	0xbe14fa55	-0.14548619
206	0xba022373	-0.0004964389
207	0xbde3d089	-0.11123759
208	0xbbb4661d	-0.005505337
209	0x3ddffb49	0.10936601
210	0xbd4ce95f	-0.050027248
211	0x3d4ad5b8	0.049520224
212	0x3d5afeb9	0.05346558
213	0xbe0c6a9d	-0.13712545
214	0xbe07cda1	-0.13262035
215	0x3dfcc935	0.12343065
216	0xbd9568bd	-0.07295368
217	0xbe406671	-0.18789078
218	0x3eda6ec4	0.42662632
219	0x3d3aff94	0.045653895
220	0xbd2e14e6	-0.0425004
221	0xbd9c8bad	-0.076438285
222	0x3d6c6360	0.05771196
223	0xbd09af9e	-0.033614747
224	0xbcb070ce	-0.021538164
225	0x3e72dc36	0.23716816
226	0xbcf4c0d5	-0.029877106
227	0x3e2cb142	0.16864493
228	0x3cb41ae1	0.021985473
229	0x3c86d6ff	0.01645994
230	0xbc4e06f9	-0.012574905
231	0x3dfbd8a4	0.1229718
232	0xbd4c50e1	-0.04988182
233	0xbe633da8	-0.22191489
234	0x3b3f497c	0.0029188087
235	0xbeb9600b	-0.36206087
236	0x3ca0bb09	0.019620435
237	0x3df6f192	0.12057795
238	0xbb5bdbd8	-0.0033547785
239	0x3a0f0900	0.0005456358
240	0xbdd66167	-0.10467797
241	0x3e5379bd	0.20651908
242	0x3d2501c9	0.040284906
243	0x3d58e090	0.052948534
244	0x3e0b9377	0.13630472
245	0xbe11cec0	-0.14239025
246	0x3d734987	0.059396293
247	0xbda62f96	-0.08114545
248	0xbe2221f4	-0.15833265
249	0xbd301ddf	-0.042997237
250	0xbdefea4e	-0.11714612
251	0xbe72f99f	-0.23728035
252	0x3e87f6c9	0.2655547
253	0xbcba4651	-0.022738608
254	0xbec6b3a2	-0.38808924
255	0xbe9911d0	-0.29896402

mlp1.2.bias f4 [100]
0	0xbd49173d	-0.049094427
1	0xbe39810a	-0.18115631
2	0xbd828764	-0.0637348
3	0xbe13e239	-0.14441766
4	0xbda25aa7	-0.07927447
5	0xbe015279	-0.12629117
6	0xbdb97996	-0.09056394
7	0xbd2a62fa	-0.041598298
8	0xbe9206b3	-0.28520736
9	0xbd99419c	-0.07483217
10	0xbde3bfd3	-0.11120572
11	0xbd92d9e6	-0.07170467
12	0xbc8f83cd	-0.017518902
13	0xbdba8308	-0.091070235
14	0xbdc4d3fe	-0.09610747
15	0x3dc95a82	0.09831716
16	0xbca9034d	-0.020631457
17	0xbdc5de60	-0.09661555
18	0xbea61039	-0.32434252
19	0xbec75519	-0.38932112
20	0x3c259b9e	0.010107903
21	0xbed08984	-0.40729916
22	0xbc6ba134	-0.014381696
23	0xbd082ade	-0.033244006
24	0xbdc57a7c	-0.09642503
25	0xbd98494a	-0.07435854
26	0xbc2d4a0b	-0.010576735
27	0x3eae9ba9	0.34103134
28	0xbce79742	-0.028270368
29	0xbf05bc97	-0.5224089
30	0xbe85c6f2	-0.26128346
31	0xbe29b159	-0.16571559
32	0xbe6949a5	-0.22782
33	0x3e0aab06	0.13541803
34	0xbd656cf7	-0.05601212
35	0xbaeae415	-0.0017920757
36	0xbec7c811	-0.39019826
37	0x3f1eb79d	0.6199892
38	0xbf2142e2	-0.6299268
39	0xbe8bf70d	-0.27336922
40	0xbdaddaed	-0.084890224
41	0xbebf70b8	-0.37390685
42	0xbd7efc0f	-0.0622521
43	0xbef942ea	-0.48683864
44	0xbcc51cfc	-0.024061672
45	0x3f543e29	0.8290735
46	0x3d59fc62	0.053219207
47	0x3db3643f	0.08759355
48	0x3d99b6c8	0.07505566
49	0x3f2084f2	0.6270286
50	0x3c79f98e	0.015257252
51	0xbec3f656	-0.38273877
52	0xbd75d631	-0.060018722
53	0xbdf23b93	-0.11827769
54	0xbcc4fcea	-0.02404638
55	0xbb84c10c	-0.0040513333
56	0x3d996a71	0.07491005
57	0xbbf97cfb	-0.007613776
58	0xbd97e8b8	-0.074174345
59	0xbd38df8f	-0.045135077
60	0xbdae5f28	-0.08514243
61	0xbdb1aa28	-0.08675033
62	0xbd32ce91	-0.04365403
63	0x3c076907	0.008264787
64	0x3e568a4d	0.20951195
65	0x3ed0687e	0.4070472
66	0x3d85442f	0.065071456
67	0x3d4d3941	0.05010343
68	0xbda6ca1e	-0.081440195
69	0x3cb78247	0.022400988
70	0x3d08ad24	0.033368245
71	0xbd86566a	-0.06559451
72	0xbeb0721a	-0.34462053
73	0xbd53927a	-0.051653363
74	0xbd1f7cbe	-0.038937323
75	0x3de9ee91	0.11422456
76	0x3d42efb7	0.04759189
77	0xbc82d4e8	-0.015970662
78	0xbdddaaac	-0.10823569
79	0x3d70316b	0.05864088
80	0x3d4e349f	0.050343152
81	0xbe7f31c2	-0.24921325
82	0xbde2447a	-0.11048217
83	0xbd4de878	-0.050270528
84	0xbdaa0a9a	-0.08302803
85	0xbcf4348a	-0.029810209
86	0xbbf625f7	-0.00751185
87	0xbcfe4bd1	-0.031042011
88	0x3ead1a05	0.33808914
89	0xbd99c231	-0.07507742
90	0xbd989e94	-0.074521214
91	0xbdabc3ef	-0.08386981
92	0x3d63b954	0.055596665
93	0xbc2c052e	-0.010499282
94	0xbecc09a1	-0.39851096
95	0xbd66b718	-0.056326956
96	0xbd0c0a12	-0.03418929
97	0xbe445ef5	-0.19176848
98	0x3f122a84	0.57096124
99	0xbe48e3de	-0.19618174

mlp2.0.weight f4 [100, 100]
0	0x3d5381d7	0.051637497
1	0x3e1b8b47	0.15189849
2	0x3dbcb5c5	0.09214357
3	0xbd3601ac	-0.04443519
4	0x3d79ee09	0.061018024
5	0xbd4ac43e	-0.049503557
6	0xbd6dad68	-0.0580267
7	0xbd965d5d	-0.073420264
8	0xbc7e7364	-0.015530441
9	0xbd25c1e2	-0.040468104
10	0x3e04db44	0.12974268
11	0xbdcc799f	-0.09984135
12	0x3bc06603	0.0058715357
13	0xbd2e58f7	-0.042565312
14	0x3d10c069	0.035339747
15	0x3e16924a	0.14704242
16	0x3d6c2911	0.05765635
17	0x3d0efac5	0.03490712
18	0x3e46155a	0.19344082
19	0xbdc16438	-0.09442943
20	0xbd023494	-0.031788424
21	0x3e0c018b	0.13672464
22	0xbe023aed	-0.12717791
23	0xbde7ee21	-0.11324716
24	0xbdc4e69d	-0.096142985
25	0x3d310153	0.043214153
26	0x3da7a65a	0.08186026
27	0xbdb32690	-0.087475896
28	0x3d0a9c2d	0.033840347
29	0xbd2f84f9	-0.042851422
30	0xbde5d664	-0.112225324
31	0xbd98172b	-0.07426294
32	0xbdf6081d	-0.12013266
33	0x3d726aa7	0.059183743
34	0xba3cd338	-0.0007203105
35	0xbcd45b2b	-0.025922379
36	0xbde336a3	-0.110944055
37	0xbe64c0a5	-0.22339113
38	0x3a24d3e7	0.00062876794
39	0xbdcf7025	-0.10128812
40	0xbd524862	-0.05133856
41	0xbca2e111	-0.01988271
42	0xbdb70a17	-0.08937471
43	0x3b786d7d	0.0037907057
44	0x3c0d0810	0.008607879
45	0x3cc84e99	0.02445154
46	0xb7f9d0ee	-2.9780404e-05
47	0x3e038660	0.12844229
48	0x3dad1a51	0.08452285
49	0xbd4beab0	-0.049784362
50	0x3d8b4448	0.06800133
51	0xbd7436ae	-0.05962246
52	0xbdbd3a77	-0.09239667
53	0x3c4efb6f	0.012633189
54	0x3bca1cc8	0.006167982
55	0x3e01f082	0.12689403
56	0x3dab66ac	0.083691925
57	0xbe228247	-0.1587001
58	0x3e8c1168	0.2735703
59	0x3be1920b	0.0068838648
60	0x3c3db0fa	0.011577839
61	0xbe09ff29	-0.13476242
62	0xbde98ca0	-0.11403775
63	0xbd799a03	-0.060937893
64	0xbe86d5a9	-0.26334885
65	0x3de47a67	0.11156159
66	0xbc24af6e	-0.010051591
67	0xbc232564	-0.009957645
68	0x3e03590a	0.12826934
69	0xbd5edd02	-0.05440999
70	0x3d3521b3	0.04422159
71	0x3da29007	0.07937627
72	0x3d640b67	0.055674937
73	0x3c222dab	0.009898583
74	0xbd799f8c	-0.06094317
75	0xbdc22034	-0.094787985
76	0x3c8b118c	0.01697614
77	0x3cc2ffb9	0.023803579
78	0x3cc7f54f	0.024408964
79	0x3d9196d7	0.071088485
80	0x3ca9504b	0.02066817
81	0xbc2ffdf7	-0.010741702
82	0x3d9a06ad	0.075208046
83	0x3d875b37	0.06609195
84	0xbdb691be	-0.08914517
85	0xbd10f242	-0.035387285
86	0x3d724675	0.059149224
87	0x3d4c1f66	0.04983463
88	0xbde2b4bf	-0.11069631
89	0x3d9ba020	0.07598901
90	0x3cc409b9	0.023930417
91	0xbb9de68e	-0.004818744
92	0xbd9bef40	-0.07613993
93	0xbdae6916	-0.08516137
94	0xbe6301e2	-0.22168687
95	0xbe1d53e3	-0.15364031
96	0xbd2bd054	-0.041946724
97	0x3c1b63b7	0.009484223
98	0x3da91780	0.082564354
99	0xbdc17a43	-0.09447148
100	0xbbb1c400	-0.0054249763
101	0xbdf67859	-0.12034673
102	0xbd286260	-0.041109443
103	0xbd2f1523	-0.042744767
104	0x3dccfcd5	0.100091614
105	0x3e4c902e	0.19976875
106	0xbdf6b002	-0.120452896
107	0xbc54aa58	-0.012980066
108	0xbe0e7c69	-0.13914646
109	0xbc826bf8	-0.015920624
110	0x3dc4c440	0.09607744
111	0x3db0e330	0.086370826
112	0x3dbc332d	0.091894485
113	0x3d971243	0.0737653
114	0x3b93beab	0.0045088134
115	0x3d4172bf	0.04722857
116	0x39f04800	0.0004583001
117	0xbe181d62	-0.14854959
118	0xbe1adaa0	-0.15122461
119	0x3d9d349f	0.07676052
120	0x3dc97117	0.09836023
121	0x3d550e06	0.052015327
122	0xbd9e8d09	-0.07741744
123	0xbd30a0fa	-0.04312227
124	0x3d16cbc0	0.036815405
125	0x3d0bd8db	0.034142356
126	0xbd81db45	-0.063406505
127	0x3da7b5c3	0.08188965
128	0x3db48715	0.08814827
129	0xbd666bc3	-0.056255113
130	0xbd44aa79	-0.048014138
131	0xbe8feb3a	-0.2810915
132	0x3bd559f3	0.006510967
133	0xbe542309	-0.2071649
134	0xbbb3405b	-0.0054703183
135	0xbd3aa79e	-0.04557001
136	0x3e135942	0.14389518
137	0xbe4aaa45	-0.19791515
138	0xbe243a3f	-0.16037844
139	0x3e362f03	0.17791371
140	0xbd97937c	-0.07401177
141	0xbe13b5c1	-0.14424802
142	0xbcdb688a	-0.026783247
143	0xbcdb15a7	-0.026743723
144	0xbcc6d812	-0.024272952
145	0xbcf3cc34	-0.029760458
146	0x3da4fdc3	0.08056214
147	0x3db0f952	0.08641304
148	0x3e8eb630	0.27873373
149	0xbb104b01	-0.0022017362
150	0xbda3d3af	-0.0799936
151	0xbd2c8d57	-0.04212698
152	0x3d8a14d7	0.06742256
153	0xbdcc38f9	-0.09971804
154	0xbd887a87	-0.06663995
155	0xbd95d6ad	-0.07316337
156	0x3d1d2b49	0.038371358
157	0xbd7ee7ef	-0.062232908
158	0xbdb0c6ea	-0.0863169
159	0x3d8ca246	0.06866889
160	0x3d3c0cb2	0.045910545
161	0x3e5c6eb5	0.21526606
162	0xbb932eb7	-0.004491653
163	0xbd906b68	-0.07051736
164	0xbe5eda13	-0.21762876
165	0xbdbf2a9b	-0.09334298
166	0xbbea99cd	-0.0071594478
167	0xbd4a003b	-0.049316626
168	0xbb00953b	-0.0019620198
169	0xbc97cf9c	-0.018531613
170	0xbd8c86c2	-0.068616405
171	0xbd87ef97	-0.06637495
172	0xbd360b6e	-0.044444494
173	0xbdc77813	-0.09739699
174	0xbd43b0aa	-0.0477759
175	0xbcaeece6	-0.021353196
176	0x3cb397df	0.021923004
177	0x3d6d4366	0.057925604
178	0x3e04a11a	0.1295208
179	0xbd1fa790	-0.03897816
180	0xbddfc362	-0.10925938
181	0xbe86dfd8	-0.26342654
182	0xbd848ba8	-0.0647195
183	0x3d8f8552	0.07007851
184	0x3c123859	0.008924567
185	0xbd3bf3ca	-0.045886792
186	0xbd91692e	-0.071001396
187	0x3d95d041	0.07315112
188	0x3c9a5efa	0.018844116
189	0xbb89278a	-0.0041856216
190	0xbd83f053	-0.064423226
191	0x3aa09989	0.0012252788
192	0xbdb9a5ed	-0.09064851
193	0x3d69163e	0.056905977
194	0x3cc4a2a6	0.024003338
195	0xbcc9b6e8	-0.02462335
196	0xbda02bce	-0.07820855
197	0x3d83ac0e	0.06429301
198	0x3de9d860	0.114182234
199	0xbdd51c86	-0.10405831
200	0x3d0bbe0f	0.0341168
201	0xbd2f3579	-0.042775605
202	0xbbf4e3f6	-0.007473464
203	0xbd1ad139	-0.037797187
204	0xbd5099ff	-0.050928112
205	0xbd9c7116	-0.07638757
206	0x3dfbf3b4	0.12302342
207	0xbd034598	-0.03204879
208	0x3d8ac86b	0.06776508
209	0xbc1fb4be	-0.009747682
210	0xbdea6e05	-0.11446766
211	0xbda750bc	-0.08169696
212	0x3c9785fb	0.018496504
213	0x3d8d4bdb	0.06899234
214	0x3d135788	0.03597215
215	0xbdba5790	-0.090987325
216	0xbd6ec069	-0.058288965
217	0xbd7db1ca	-0.06193713
218	0x3e000e82	0.12505534
219	0xbd2c943a	-0.042133547
220	0xbd063a89	-0.032770667
221	0xbd487aa4	-0.048945084
222	0xbdbd907a	-0.09256072
223	0xbd82a524	-0.06379154
224	0xbdb74f18	-0.08950633
225	0xbd0ec232	-0.034853168
226	0xbccd1717	-0.025035424
227	0x3dc52ea5	0.09628037
228	0x3d87b139	0.066255994
229	0xbe04d112	-0.12970379
230	0xbdd623f3	-0.104560755
231	0xbda629c0	-0.08113432
232	0x3e3c7d60	0.18407202
233	0xbdc32516	-0.09528558
234	0x3c3f8c56	0.011691174
235	0xbc9b6f07	-0.01897384
236	0xbdc3c0de	-0.09558271
237	0x3dfe9161	0.124300726
238	0xbe318a00	-0.17337799
239	0x3d30b3f3	0.043140363
240	0x3cb9855c	0.022646599
241	0xbda67418	-0.08127612
242	0xbdb5290b	-0.08845719
243	0x3dc65bf7	0.0968551
244	0x3dc04956	0.09388988
245	0xbd16ce41	-0.036817793
246	0x3d87bc94	0.06627765
247	0x3e2cfb29	0.16892685
248	0x3cd9519e	0.026528176
249	0x3daeeeda	0.08541651
250	0x3d4ebfa1	0.05047572
251	0xbd880618	-0.06641787
252	0x3d923459	0.07138891
253	0xbd85b387	-0.06528383
254	0x3cbfb423	0.023401326
255	0x3df54d2c	0.1197761

mlp2.0.bias f4 [100]
0	0xbcf9c121	-0.030487599
1	0x3e396757	0.18105827
2	0x3cb873e3	0.022516197
3	0xbddd42a6	-0.10803728
4	0x3e3af379	0.1825694
5	0xbdd6e4a6	-0.1049283
6	0xbda341c1	-0.07971526
7	0xbdcce072	-0.10003747
8	0x3e019e25	0.12657984
9	0x3da0e590	0.078562856
10	0x3eda777d	0.42669287
11	0x3d80fc60	0.06298137
12	0x3d74f563	0.05980433
13	0xbe769502	-0.2408028
14	0xbdddfd04	-0.108392745
15	0xbe0a35ed	-0.13497134
16	0xbd1b7a8c	-0.037958667
17	0xbe869633	-0.26286468
18	0x3f8b2947	1.0871972
19	0xbd329c71	-0.043606225
20	0x3b8e94b0	0.004351221
21	0x3cb8bbeb	0.022550544
22	0x3db62ee2	0.08895661
23	0xbd8d753f	-0.069071285
24	0x3de0422c	0.10950121
25	0xbcfc39d3	-0.030789291
26	0xbece09e3	-0.40241918
27	0x3d9a4d98	0.07534331
28	0xbd357dae	-0.04430931
29	0xba84e9f8	-0.0010140529
30	0xbd298f08	-0.04139617
31	0xbd29ad46	-0.041425012
32	0xbd96ae76	-0.073574945
33	0x3da47692	0.08030428
34	0xbed009c6	-0.40632457
35	0x381dcfc2	3.7625206e-05
36	0xbd8b111f	-0.06790375
37	0x3b616b17	0.0034396106
38	0xbdb00d2f	-0.085962646
39	0xbc937ed7	-0.018004818
40	0x3b025a00	0.001989007
41	0xbd2f17c2	-0.042747267
42	0xbe219832	-0.15780714
43	0x3cafdaed	0.021466697
44	0x3c59302d	0.013256115
45	0xbd20fc64	-0.0393032
46	0xbe1b1024	-0.15142876
47	0xbdf0b132	-0.11752547
48	0x3d9cfaf9	0.07665057
49	0xbc3362d9	-0.01094886
50	0xbe41fcea	-0.18944135
51	0xbdb8d08e	-0.09024154
52	0xbd9377a0	-0.07200551
53	0xbda8a507	-0.082346015
54	0x3e7c76a3	0.24654631
55	0x3d869354	0.06571069
56	0xbe0b8f90	-0.13628983
57	0xbe03b639	-0.12862481
58	0x3dabeb87	0.08394533
59	0xbd70e54e	-0.058812432
60	0x3c999744	0.018748887
61	0x3f32490e	0.6964272
62	0x3ed0658d	0.40702477
63	0x3ceb5ae4	0.028729863
64	0xbdbce12d	-0.09222636
65	0xbc83aeea	-0.016074616
66	0xbdbf89ad	-0.093524314
67	0xbe90b24e	-0.28261036
68	0x3da13364	0.0787113
69	0x3ed0df72	0.40795475
70	0x3de5b04f	0.11215269
71	0x3d7970f9	0.060898755
72	0x3d83cccd	0.06435547
73	0xbe34c499	-0.17653121
74	0xbd8a1c68	-0.06743699
75	0xbe2ffffe	-0.17187497
76	0x3d7fc109	0.062439952
77	0xbdd37054	-0.10324159
78	0x3e046a2d	0.12931128
79	0xbe116843	-0.14199929
80	0xbd8036a4	-0.06260422
81	0x3d69a174	0.05703874
82	0x3ec05001	0.37561038
83	0xbda1a533	-0.078928374
84	0xbe352b84	-0.17692381
85	0xbcc900c3	-0.024536496
86	0x3e48e29e	0.19617698
87	0x3dd9d997	0.10637205
88	0xbd850152	-0.064943925
89	0x3d766447	0.060154226
90	0x3f92c460	1.1466179
91	0xbc87208e	-0.016495015
92	0xbdf864ad	-0.121285774
93	0xbe865cc9	-0.26242664
94	0xbe4211ab	-0.18952052
95	0xbc0de960	-0.008661598
96	0xbc781d63	-0.015143725
97	0xbd6862ec	-0.056734964
98	0x3d70d291	0.05879456
99	0xbe4c862e	-0.1997306

mlp2.2.weight f4 [50, 100]
0	0x3d3729e9	0.044717703
1	0xbd5f4798	-0.054511636
2	0xbe069222	-0.13141683
3	0xbb708c7c	-0.003670483
4	0x3d99619f	0.07489323
5	0x3d8f8c1a	0.07009144
6	0x3be516a0	0.0069912225
7	0x3e73ef9e	0.23821875
8	0x3e0e7771	0.13912751
9	0x3cfb1251	0.030648382
10	0xbed09531	-0.40738824
11	0xbdddca21	-0.10829569
12	0x3dcef3f4	0.10105124
13	0x3e32f349	0.17475618
14	0x3e357824	0.17721611
15	0x3dcdaf4c	0.10043201
16	0x3d36e870	0.044655263
17	0x3e803680	0.2504158
18	0x3d8e1b7d	0.06938837
19	0x3d30c676	0.043158017
20	0x3e4cd576	0.20003304
21	0x3e235fca	0.1595451
22	0xbd8c77ba	-0.068587735
23	0xbd04cb64	-0.03242053
24	0x3d03a721	0.03214181
25	0xbda30445	-0.07959799
26	0xbc488c02	-0.012240412
27	0xbd043735	-0.032279212
28	0x3e222510	0.1583445
29	0xbd800a03	-0.062519096
30	0x3d1c889f	0.03821623
31	0x3c344807	0.011003501
32	0xbd607ad5	-0.05480464
33	0xbd967925	-0.07347325
34	0xbd40d3d0	-0.047077
35	0xbdee4a42	-0.11635257
36	0x3e6441c6	0.22290716
37	0x3d524568	0.051335722
38	0x3db009e9	0.0859564
39	0x3deafe6b	0.114743076
40	0x3da19c96	0.078911945
41	0x3debb76e	0.11509596
42	0x3dc17c1d	0.09447501
43	0x3baa66da	0.005200249
44	0x3e287895	0.16452248
45	0x3d85403d	0.06506393
46	0x3ce60baf	0.028081743
47	0x3dc35069	0.095368214
48	0xbe2bce8a	-0.16778007
49	0x3e0f6db2	0.14006689
50	0xbe2710d5	-0.16315015
51	0xbe15cae8	-0.14628184
52	0xbdf35050	-0.11880553
53	0xbde7d719	-0.113203235
54	0x3e1dd193	0.15411977
55	0xbd8f337f	-0.06992244
56	0x3e23b03d	0.15985198
57	0xbd98e146	-0.074648425
58	0xbc0d677f	-0.008630632
59	0x3d8a63fd	0.067573525
60	0xbc7e25ff	-0.015511989
61	0xbe758fe0	-0.23980665
62	0x383a63a9	4.443867e-05
63	0x3d8d0e63	0.0688751
64	0x3cc68ef0	0.02423808
65	0x3cc8f6d6	0.024531763
66	0x3aec5693	0.0018031172
67	0x3d9cfe9d	0.07665751
68	0x3dfb45f2	0.122692004
69	0xbcb6b9f2	-0.022305463
70	0xbe8918f7	-0.2677686
71	0xbce33768	-0.02773638
72	0xbdcc39b3	-0.09971943
73	0xbce1d52b	-0.027567467
74	0x3cb17d76	0.02166627
75	0x3dd02e0b	0.10165032
76	0x3ddf3f88	0.109007895
77	0x3d97b90c	0.07408342
78	0x3e036c57	0.12834297
79	0xbdf4b6fc	-0.11948964
80	0x3d91e5e0	0.07123923
81	0xbe18a66a	-0.14907232
82	0xbe64785b	-0.22311537
83	0xbc8906b3	-0.016726827
84	0x3d23b7c4	0.039970174
85	0x3d54b13b	0.051926833
86	0xbe581f5b	-0.21105711
87	0xbc280ffe	-0.010257719
88	0x3dcd4a95	0.10023991
89	0xbe3aa648	-0.18227494
90	0xbe642996	-0.22281489
91	0x3d9641b7	0.07336753
92	0x3db9f1c4	0.09079316
93	0x3df8d4ae	0.121499404
94	0xbb91f8bd	-0.0044547007
95	0x3e136049	0.14392199
96	0xbd8f3161	-0.0699184
97	0x3deaab12	0.1145841
98	0x3df32fdd	0.118743636
99	0xbda853e6	-0.08219127
100	0x3dbb02c3	0.09131386
101	0x3dd35146	0.10318236
102	0x3d27c68d	0.040960837
103	0xbdbe199c	-0.09282228
104	0xbe7668c5	-0.24063404
105	0xbe30d723	-0.17269568
106	0x3c2bdcca	0.010489652
107	0xbc907c05	-0.017637262
108	0xbdf1e19d	-0.118106104
109	0xbd28532c	-0.041094944
110	0xbc7cd24e	-0.015431
111	0xbe28aeec	-0.16472977
112	0xbcbb08ab	-0.022831282
113	0xbd9075a2	-0.07053687
114	0xbdc71b3d	-0.09721992
115	0xbe276cdd	-0.16350122
116	0x3d461e8d	0.04836898
117	0xbce68fc9	-0.028144734
118	0x3e53344f	0.20625423
119	0xbd96450e	-0.0733739
120	0x3c3c1b8a	0.011481175
121	0xbdef5530	-0.1168617
122	0x3dabe390	0.083930135
123	0xbdb81daa	-0.08990033
124	0x3e291b53	0.1651433
125	0x3d87b2fd	0.06625936
126	0x3dda3779	0.10655112
127	0xbc501d5e	-0.012702314
128	0x3bb6f84d	0.005583799
129	0xbd2ad7d0	-0.04170972
130	0x3d065779	0.032798264
131	0xbce688dd	-0.028141433
132	0xbda309a2	-0.07960822
133	0x3b6e8bd2	0.0036399257
134	0xbd892046	-0.06695609
135	0x3da0a39f	0.07843708
136	0xbd82140e	-0.063514814
137	0x3b19e4b2	0.002348226
138	0x3ce4c334	0.027925111
139	0x3d9b2370	0.075751185
140	0x3d6000dd	0.054688323
141	0x3c881645	0.016612181
142	0x3de95ddc	0.113948554
143	0xbe032f89	-0.12811102
144	0xbd1a08bb	-0.037605982
145	0x3d8170d4	0.063203484
146	0x3ce51d00	0.02796793
147	0x3db96cf4	0.09053984
148	0xbe52b965	-0.20578535
149	0x3dc3c82a	0.09559663
150	0xbe1a529c	-0.15070575
151	0x3ce1b76e	0.027553286
152	0x3db8af35	0.09017793
153	0xbe033aa4	-0.12815338
154	0x3d2bb24d	0.041918088
155	0xbda0d885	-0.07853798
156	0xbcf0bba2	-0.029386345
157	0x3d4a5a2b	0.049402397
158	0xbe016b80	-0.12638664
159	0x3d3c40aa	0.045960106
160	0xbd9186bf	-0.07105779
161	0xbcf7d093	-0.030250823
162	0xbcecff44	-0.028930314
163	0xbd56f0bd	-0.05247568
164	0xbd079b1e	-0.033106916
165	0xbd8d1cc3	-0.068902515
166	0x3b80d87f	0.0039320583
167	0xbe55c7dc	-0.20877022
168	0x3d635121	0.055497292
169	0x3cc7356b	0.024317464
170	0x3dbcbc3a	0.09215589
171	0x3b477323	0.0030433617
172	0x3e7541e4	0.23950917
173	0xbe04dd6a	-0.12975088
174	0xbd7734f3	-0.06035323
175	0xbd20e9cf	-0.039285477
176	0xbda996ac	-0.082806915
177	0xbe067c2d	-0.13133307
178	0x3d2eb667	0.04265442
179	0x3d9bca60	0.07606959
180	0xbdb1fd52	-0.08690895
181	0xbe0671ae	-0.13129303
182	0xbbfd9921	-0.0077392017
183	0xbe212bf7	-0.15739428
184	0xbd256d80	-0.04038763
185	0xbcf8d099	-0.030372905
186	0x3d863223	0.065525316
187	0xbda6ca1b	-0.08144017
188	0xbd88bade	-0.06676267
189	0x3e2604c1	0.16212751
190	0x3e2a4765	0.16628797
191	0x3c9cf204	0.01915837
192	0x3d765c77	0.060146775
193	0xbdb09f05	-0.086240806
194	0xbdbc9557	-0.09208172
195	0x3e556f8b	0.20843332
196	0x3e0af88f	0.1357138
197	0xbda502c2	-0.08057167
198	0xbdc1ae34	-0.09457055
199	0x3e3a8b1c	0.18217129
200	0xbd06622e	-0.032808475
201	0xbcbd9aa2	-0.023145024
202	0x3e3484b9	0.17628755
203	0xbc19aea6	-0.009380018
204	0xbd7c785d	-0.061638225
205	0x3d5b2e03	0.053510677
206	0xbe136382	-0.14393428
207	0xbdb8832b	-0.09009393
208	0xbdd4d1dd	-0.10391591
209	0xbc893667	-0.016749574
210	0xbd7211b6	-0.05909892
211	0x3db02a37	0.08601802
212	0x3d88ef23	0.06686237
213	0xba33a8a7	-0.0006853439
214	0xbdac5b50	-0.08415854
215	0x3dd3837c	0.10327813
216	0xbd93e3c8	-0.0722118
217	0x3e30aaf9	0.17252721
218	0xbe1ea317	-0.15491901
219	0x3db0438c	0.086066335
220	0xbcedfa81	-0.029050114
221	0x3df7ef3c	0.12106177
222	0x3db5fe62	0.0888641
223	0xbdba7ec0	-0.09106207
224	0x3cf3e562	0.029772464
225	0x3d5416d1	0.051779572
226	0x3e037c84	0.12840468
227	0xbe1f2687	-0.15542041
228	0x3d45b8ba	0.048271872
229	0x3d572249	0.05252293
230	0xbdcd46b0	-0.10023248
231	0xbdcabdb8	-0.09899467
232	0xbd4418a5	-0.047875065
233	0xbe3152ad	-0.17316695
234	0x3e147012	0.14495876
235	0xbd42713e	-0.047471277
236	0x3d18207d	0.03714036
237	0x3cdab8f6	0.026699524
238	0xbca7fee1	-0.020507278
239	0xbd8ab49b	-0.06772729
240	0x3d149ec2	0.036284216
241	0x3d9b822e	0.07593189
242	0x3e20a22f	0.15686868
243	0xbe834312	-0.25637108
244	0xbbc6a3a5	-0.0060619884
245	0xbdb6bafa	-0.08922382
246	0xbcdb6003	-0.02677918
247	0x3e0bef8e	0.13665602
248	0xbddc5997	-0.107592754
249	0xbce37dc5	-0.027769933
250	0xbb954aa3	-0.0045560165
251	0x3d3dc755	0.046332676
252	0xbd8fd8d8	-0.070237815
253	0xbd55a977	-0.052163567
254	0x3d2fd915	0.042931635
255	0xbc40f6ca	-0.011777589

mlp2.2.bias f4 [50]
0	0xbe8cbe50	-0.27488947
1	0x3e4c1c63	0.19932704
2	0x3e400931	0.18753506
3	0xbde05175	-0.10953037
4	0x3d266600	0.04062462
5	0xbddcc559	-0.107798286
6	0x3e30360a	0.17208114
7	0x3db575c1	0.088603504
8	0xbde70dc2	-0.11281921
9	0xbd70b724	-0.058768407
10	0xbe2eeb9c	-0.17082065
11	0xbd8a631b	-0.06757184
12	0xbd0f12d1	-0.034930054
13	0xbe045583	-0.12923245
14	0x3db4814f	0.08813726
15	0x3d2824d3	0.041050743
16	0x3ea40909	0.32038143
17	0x3d29685b	0.041359287
18	0xbe443b62	-0.19163278
19	0xbdeff0c0	-0.11715841
20	0x3db08356	0.086188
21	0x3e1742e0	0.14771605
22	0xbc5af66e	-0.0133644175
23	0xbd24bd3e	-0.040219538
24	0x3bd37814	0.0064535234
25	0xbd225932	-0.039635845
26	0x3e18d525	0.14925058
27	0x3c799a63	0.015234563
28	0x3e884e85	0.26622406
29	0xbe43826a	-0.19092718
30	0xbc29bb87	-0.010359651
31	0xbd38aebb	-0.04508851
32	0xbde303b8	-0.11084694
33	0x3cc34965	0.023838708
34	0x3dfda4e5	0.12384967
35	0xbdf59e9d	-0.11993144
36	0xbdcdbfc7	-0.10046344
37	0xbcd535b8	-0.026026592
38	0xbdd21c87	-0.102593474
39	0xbdff2a00	-0.12459183
40	0x3c78dc94	0.015189309
41	0x3d9e7f94	0.07739177
42	0xbbcfa0f1	-0.0063363244
43	0x3d5c5738	0.053794116
44	0xbd306bec	-0.043071672
45	0xbd70360a	-0.058645286
46	0x3c418f06	0.011813885
47	0xbc70137e	-0.014653085
48	0xbd68a96c	-0.0568022
49	0xbdc3789e	-0.0954449

attention.0.weight f4 [100, 100]
0	0xbdad0d64	-0.0844982
1	0x3cdc5bb4	0.026899196
2	0xbd31ee75	-0.0434403
3	0xbd82c3c9	-0.06384999
4	0x3ad5c0a3	0.001630802
5	0x3cc820bd	0.024429673
6	0x3d0bdf33	0.034148406
7	0x3dd49f1f	0.103819124
8	0x3d26ca3a	0.040720202
9	0xbd77b796	-0.060477816
10	0xbd751469	-0.059833918
11	0x3d9af2f3	0.0756587
12	0xbcd543e4	-0.02603335
13	0xbdc17026	-0.09445219
14	0xbdad1a0d	-0.084522344
15	0xbdd6a83a	-0.104813054
16	0x3d13b1f6	0.03605839
17	0x3dc05202	0.09390642
18	0xbdd85cd4	-0.105645806
19	0xbdc15a3a	-0.094410375
20	0x3cc2b03a	0.023765672
21	0xbe18da3e	-0.14927003
22	0xbd5670d0	-0.05235368
23	0x3c42d830	0.011892363
24	0x3dcbcc33	0.09951057
25	0xbe0338c1	-0.12814619
26	0xbdb46f86	-0.08810334
27	0x3d90f340	0.07077646
28	0x3da82315	0.08209816
29	0x3c8fb991	0.01754454
30	0x3e051fd8	0.13000429
31	0x3d097d4d	0.03356676
32	0x3de7dcbb	0.11321398
33	0xbce94513	-0.02847532
34	0x3bcc1f03	0.006229283
35	0xbd858fef	-0.06521594
36	0x3d75919a	0.05995331
37	0xbd053a26	-0.032526158
38	0x3c801dfd	0.0156393
39	0xbdbe6a47	-0.092976145
40	0x3d9e79d9	0.07738084
41	0xbe1da752	-0.15395859
42	0xbdcb8928	-0.0993827
43	0x3c7a80ef	0.015289529
44	0xbd314c27	-0.043285515
45	0x3d848e73	0.064724825
46	0x3c7abb8c	0.015303504
47	0xbd212723	-0.039343964
48	0xbdfb256f	-0.12262999
49	0xb9267f51	-0.00015878423
50	0xbdaa03aa	-0.0830148
51	0xbe01bba9	-0.12669243
52	0x384fa64d	4.9507526e-05
53	0x3da95b6a	0.08269389
54	0x3c8b9151	0.017037066
55	0xbda7cd32	-0.08193435
56	0x3dbc735a	0.09201689
57	0x3df60869	0.12013323
58	0xbc0265ae	-0.007958813
59	0x3d156dcf	0.036481675
60	0xbcc74163	-0.024323171
61	0xbc34e1cd	-0.011040163
62	0x3c1b12e9	0.009464958
63	0xbd17aa39	-0.03702757
64	0xbcc8afa0	-0.024497807
65	0xbd44bf22	-0.04803384
66	0xbc92dacc	-0.017926596
67	0xbd91a231	-0.07111014
68	0x3ccfde11	0.025374444
69	0xbd648c5a	-0.055797912
70	0x3d1ed8e3	0.038781058
71	0x3da05ddc	0.07830402
72	0x3dd56dd2	0.10421337
73	0xbd189cff	-0.0372591
74	0xbdb247de	-0.08705114
75	0x3e115b76	0.14195046
76	0x3db8c842	0.09022571
77	0xbca53e63	-0.02017135
78	0x3d6fd472	0.058552213
79	0x3c87ec34	0.016592123
80	0x3c305776	0.01076304
81	0xbd84c001	-0.06481934
82	0xbc8386ed	-0.016055549
83	0x3c5d4a5f	0.013506501
84	0x3da5bde9	0.08092863
85	0xbd8640fa	-0.06555362
86	0x3da131ec	0.0787085
87	0xbc2dd382	-0.010609509
88	0x3d03eb53	0.032206845
89	0xbd95922b	-0.0730327
90	0x3dca35ff	0.0987358
91	0x3de2d95a	0.11076613
92	0xbdd35fc8	-0.10321003
93	0x3ce16ece	0.027518656
94	0x3d09e884	0.03366901
95	0xbda78bf0	-0.08180988
96	0x3d4ca449	0.049961362
97	0x3d61ec9c	0.05515729
98	0x3ca77ccd	0.020445252
99	0xbdeac020	-0.11462426
100	0xbbfbfb0f	-0.0076898406
101	0x3b16a4c2	0.0022986387
102	0xbd9ea563	-0.07746389
103	0xbda7d724	-0.08195332
104	0xbdcea23c	-0.100895375
105	0xbd8d1f0a	-0.06890686
106	0xbcad3929	-0.02114542
107	0xbc6c34dc	-0.0144168995
108	0x3da8de5d	0.082455374
109	0x3c615015	0.013752003
110	0x3d328b2c	0.043589756
111	0x3cae662a	0.02128895
112	0x3c520943	0.012819591
113	0xbcfe1b96	-0.031019013
114	0x3d6c25f9	0.0576534
115	0x3c695d0b	0.014243375
116	0xbdc87be0	-0.09789252
117	0xbdb9be57	-0.090695076
118	0x3d197981	0.03746939
119	0x3c7345e7	0.014848209
120	0x3c856dbd	0.016287679
121	0x3d6fd354	0.058551148
122	0x3db339cf	0.087512605
123	0x3db858cd	0.090013124
124	0x3ca96edf	0.02068275
125	0x3a3b700a	0.0007150179
126	0xbda2ef5d	-0.07955811
127	0xbdd4ba24	-0.10387066
128	0xbd4af463	-0.04954947
129	0xbde5ae8a	-0.11214931
130	0xbd3187a6	-0.043342255
131	0xbc493950	-0.012281731
132	0x3d17dec1	0.03707767
133	0x3e60f2e5	0.21967657
134	0xbcad5d3d	-0.021162624
135	0x3c7f0b41	0.015566648
136	0x3dc4c02d	0.09606967
137	0xbe14385e	-0.14474627
138	0x3e63877f	0.22219656
139	0xbce9df71	-0.028548928
140	0x3d48844c	0.048954293
141	0x3de5e531	0.112253554
142	0xbe0a9f32	-0.1353729
143	0x3aae07b0	0.0013277438
144	0x3d15a536	0.03653451
145	0xbd8c3240	-0.06845522
146	0xbd30ce40	-0.043165445
147	0x3cfdf61c	0.031001143
148	0xbe5e26e0	-0.21694517
149	0xbce2cff5	-0.027687052
150	0x3ceec1a4	0.02914507
151	0x3d2ce385	0.042209167
152	0xbc65b6a8	-0.014020599
153	0xbd149a54	-0.03627999
154	0xbdbfb1a4	-0.09360054
155	0x3d96b107	0.07357984
156	0xbced8329	-0.028993206
157	0x3d9d578d	0.076827146
158	0xbe048859	-0.12942638
159	0x3d1b77e6	0.03795614
160	0x3dcb4fec	0.09927353
161	0x3d9c9710	0.076460004
162	0xbd95b857	-0.07310551
163	0xbd9ab9b6	-0.07554953
164	0x3cd68bf6	0.026189785
165	0x3cf84d4d	0.030310297
166	0xbc049488	-0.008092053
167	0x3d2d3022	0.04228223
168	0x3de3a64e	0.111157045
169	0x3d5053d1	0.050861184
170	0xbd40ced1	-0.047072235
171	0x3d9ed87b	0.07756134
172	0xbd47e646	-0.04880359
173	0xbaf189d3	-0.0018427916
174	0xbd315894	-0.043297365
175	0x3d56b055	0.052414257
176	0xbdf5675a	-0.11982603
177	0xbd6cad7b	-0.05778263
178	0xbd002651	-0.03128654
179	0xbd581afb	-0.052760106
180	0xbba8daf2	-0.0051530534
181	0x3c52287f	0.012827038
182	0x3e06c9c2	0.13162902
183	0x3c8d0590	0.017214566
184	0xbe0740e0	-0.13208342
185	0xbbdae4f3	-0.006680125
186	0xbd3aca2a	-0.045602955
187	0x3c589c29	0.013220825
188	0xbe15034b	-0.14552037
189	0xbdc5dc76	-0.0966119
190	0x3d05eeaf	0.03269833
191	0xbdcae47e	-0.09906863
192	0x3df89340	0.12137461
193	0xbd9b8ecc	-0.07595596
194	0xbe6988d8	-0.22806108
195	0xbd8ed532	-0.069742575
196	0x3ad9e2ec	0.0016623414
197	0xbcf38132	-0.029724691
198	0xbe86229a	-0.26198274
199	0x3d8c1892	0.06840624
200	0xbc922cf9	-0.01784371
201	0xbc5a92c2	-0.013340654
202	0xbd209420	-0.039203763
203	0x3d52214a	0.05130128
204	0x3d6aabba	0.057292677
205	0xbd956709	-0.07295043
206	0x3d8516e2	0.06498505
207	0x3c413fa2	0.011794956
208	0x3e221f5c	0.15832275
209	0xbd85c60d	-0.06531916
210	0xbe337be9	-0.17527737
211	0x3d92a53d	0.07160423
212	0x3cca8ff5	0.024726847
213	0xbd5da6bd	-0.054114092
214	0x3d9d9f56	0.076964065
215	0xbe755644	-0.23958689
216	0xbd3d0f19	-0.046156976
217	0xbdb7a2c1	-0.0896659
218	0xbd1cb00e	-0.038253836
219	0x3aa9ac6a	0.001294506
220	0xbb5fcfe4	-0.0034151012
221	0xbe2afc8e	-0.16697904
222	0x3c978f4d	0.018500948
223	0xbd1cdc45	-0.038296003
224	0xbd58df0f	-0.0529471
225	0xbe47c293	-0.19507818
226	0xbdaf6257	-0.08563679
227	0x3e468522	0.19386724
228	0xbd1ec60c	-0.03876309
229	0xbd9aedac	-0.075648636
230	0xbd1bdfd7	-0.038055267
231	0x3db58c7e	0.088646874
232	0x3e297eb5	0.16552241
233	0x3e20842b	0.15675418
234	0x3de597be	0.11210583
235	0xbd6400ec	-0.05566494
236	0xbdbc61c8	-0.09198338
237	0x3e1054a8	0.14094794
238	0xbda617d5	-0.08110014
239	0x3c0da1cf	0.008644535
240	0x3d9c5685	0.0763369
241	0x3e387f48	0.18017304
242	0xbd999a79	-0.075001664
243	0x3d05613b	0.03256343
244	0xbddb4c5f	-0.10707926
245	0xbc5e0189	-0.013550171
246	0x3d42932d	0.04750364
247	0xbdf73678	-0.12070936
248	0xbdff65a1	-0.12470556
249	0x3de20ff3	0.11038198
250	0x3d6178fe	0.055047028
251	0xbd2b3965	-0.041802783
252	0xbd126824	-0.035743847
253	0xbda858cc	-0.08220062
254	0x3d5adffd	0.053436268
255	0xbd367887	-0.044548538

attention.0.bias f4 [100]
0	0x3ccc8ab5	0.024968484
1	0xbd60f581	-0.05492163
2	0xbd4eaf0d	-0.05045991
3	0xbd24f486	-0.04027226
4	0xbcbe7aa4	-0.023251839
5	0xbdc0cb3e	-0.09413765
6	0x3e2c5bcb	0.16831891
7	0xbd9c0e1b	-0.07619878
8	0xbdbb3782	-0.09141447
9	0x3d7272b7	0.05919143
10	0xbd89712f	-0.06711041
11	0x3e56d527	0.20979749
12	0xbe03b6aa	-0.1286265
13	0xbc430e23	-0.011905226
14	0x3e4ce5d7	0.20009552
15	0xbdd9396c	-0.106066555
16	0x3efe0ed4	0.49620688
17	0x3c67c82c	0.014146846
18	0x3d1eac5c	0.038738593
19	0xbe9fdda5	-0.3122379
20	0xbcf1a2e5	-0.02949662
21	0xbdf0f225	-0.117649354
22	0xbe521332	-0.20515135
23	0xbd9c050a	-0.076181486
24	0xbda23158	-0.07919568
25	0xbe9ecd71	-0.31016114
26	0x3e7146a9	0.23562111
27	0xbe229da0	-0.15880442
28	0x3d36ec9c	0.044659242
29	0x3dbdef47	0.09274154
30	0xbdc946d2	-0.09827961
31	0xbf002719	-0.5005966
32	0xbdf13b9b	-0.11778947
33	0x3cb67f11	0.022277387
34	0xbe3d031b	-0.18458216
35	0xbcfb7156	-0.030693691
36	0xbb0574a7	-0.002036372
37	0xbc91c632	-0.017794702
38	0xbe20003b	-0.15625088
39	0xbe1c4621	-0.15261127
40	0xbc47a051	-0.0121842185
41	0x3dce482a	0.10072358
42	0x3e30a544	0.17250544
43	0xbe8bb20c	-0.27284276
44	0x3cf4f9de	0.029904302
45	0x3ce38f94	0.027778424
46	0xbd5c08b6	-0.053719245
47	0xbdbbb00d	-0.091644384
48	0xbdc44003	-0.09582522
49	0xbdd9d33a	-0.106359914
50	0xbe313ab7	-0.17307554
51	0xbdded172	-0.10879792
52	0x3ccac504	0.024752147
53	0xbd962f27	-0.07333212
54	0xbe532b48	-0.20621979
55	0xbe2b97e2	-0.16757157
56	0xbe57c258	-0.2107023
57	0xbe5d4a0b	-0.21610276
58	0x3cfc9e83	0.030837303
59	0x3c46064e	0.012086464
60	0xbe16c68b	-0.14724176
61	0xbeb23a3e	-0.3481006
62	0xbb45976b	-0.0030150067
63	0x3e15f58e	0.14644453
64	0x3db48ab3	0.08815517
65	0xbc19418e	-0.009354008
66	0xbe79cb1d	-0.24393888
67	0xbd8f58b8	-0.06999344
68	0xbf45ca5f	-0.7726192
69	0x3c54aa4c	0.012980055
70	0xbd4d7df2	-0.05016894
71	0x3e0cdace	0.13755342
72	0x3d57d3f8	0.052692384
73	0xbe69ca79	-0.22831143
74	0xbdc1c889	-0.09462077
75	0xbe81e093	-0.2536665
76	0x3bd767d6	0.0065736575
77	0xbe039fbb	-0.12853901
78	0xbdeb949c	-0.11502954
79	0xbef7bb02	-0.48384863
80	0x3c3c3f62	0.011489721
81	0xbd5d17a1	-0.053977612
82	0xbda125ee	-0.07868563
83	0xbef1ecb2	-0.47250897
84	0xbe1c3024	-0.15252739
85	0xbd9cba82	-0.07652761
86	0xbe7f05e6	-0.24904594
87	0x3e0ece00	0.1394577
88	0x3cf6cf17	0.030128045
89	0x3e12a8b2	0.14322165
90	0xbe6763c3	-0.2259665
91	0x3cee3f0e	0.029082801
92	0xbd12a50d	-0.035801936
93	0x3dd92e44	0.106045276
94	0xbdb34f07	-0.08755308
95	0xbe303e75	-0.17211325
96	0xbd3a2ce8	-0.045452982
97	0xbe198083	-0.1499043
98	0xbe827656	-0.25480908
99	0x3e24523c	0.16046995
