sarl_star_ros/CrowdNav-nowall/crowd_nav/data/sub/output_11_dgs001/il_model.pth (torch_old, 349196 bytes, 20 tensors)

mlp1.0.weight f4 [150, 13]
0	0xbe047e12	-0.12938717
1	0x3e936c7a	0.287937
2	0xbdd9a21d	-0.10626624
3	0x3e535388	0.20637333
4	0xbe2c0064	-0.16797024
5	0x3e4dd939	0.20102395
6	0x3e7eb9ab	0.24875514
7	0xbdf261e8	-0.118350804
8	0x3dc999e3	0.09843805
9	0xbe24bfd3	-0.160888
10	0xbd6850dc	-0.05671774
11	0x3d4cf174	0.050034955
12	0xbe1cd217	-0.15314518
13	0x3e29a9f7	0.16568743
14	0xbd970c3f	-0.07375383
15	0x3ea1f4d6	0.31632107
16	0x3e807e20	0.25096226
17	0x3e4ea709	0.20180906
18	0xbe7d027e	-0.24707982
19	0x3e6d42b8	0.23169982
20	0xbe786569	-0.24257435
21	0x3de5ff45	0.112303294
22	0xbcc4a4ba	-0.024004329
23	0xbe62447e	-0.2209644
24	0xbd4ef01a	-0.050521947
25	0xbdccd9db	-0.1000249
26	0xbdc2b043	-0.095062755
27	0x3bf718fa	0.0075408192
28	0x3e89d025	0.26916614
29	0x3e44afe0	0.19207716
30	0xbe7ba3fd	-0.24574275
31	0xbd624f50	-0.05525142
32	0xbe8af4db	-0.27139935
33	0x3d2483af	0.040164646
34	0xbe57ecc0	-0.21086407
35	0xbe8bd1f7	-0.27308628
36	0x3e7574cf	0.2397034
37	0x3bbe133b	0.0058006323
38	0x3e52d880	0.205904
39	0x3df2d937	0.11857837
40	0xbe2fb6ae	-0.1715953
41	0x3d21e96a	0.03952924
42	0x3ddf5dfb	0.10906597
43	0xbe8cfccf	-0.27536628
44	0x3e4d9678	0.2007693
45	0x3d0d607c	0.034515843
46	0x3df733c8	0.12070423
47	0xbd969dfa	-0.073543504
48	0xbe1131d6	-0.14179167
49	0x3e647f46	0.22314176
50	0x3e7c441f	0.24635361
51	0x3c396eca	0.011317918
52	0xbe5c6f6f	-0.21526884
53	0xbd7fcff8	-0.062454194
54	0xbe8c3936	-0.27387398
55	0x3e36abd6	0.17838988
56	0x3cce96ac	0.02521833
57	0xbdf1be18	-0.11803836
58	0x3e4463ce	0.19178697
59	0xbd683c06	-0.056697868
60	0xbd8e032a	-0.06934197
61	0x3e64fc40	0.2236185
62	0xbe37f119	-0.17963065
63	0x3c378d59	0.0112031335
64	0xbd31893b	-0.043343764
65	0xbe5a957f	-0.2134609
66	0x3b32d543	0.0027287758
67	0xbe172e61	-0.14763786
68	0x3cba3f20	0.022735178
69	0xbdb6ca3f	-0.08925294
70	0x3d9c0640	0.076183796
71	0xbe83db66	-0.25753325
72	0xbd4c0fd7	-0.049819794
73	0x3de03b17	0.109487705
74	0xbdfe18b7	-0.12407058
75	0x3e322aa1	0.17399074
76	0x3e6d5774	0.23177892
77	0xbde98a9e	-0.11403392
78	0x3d056842	0.03257013
79	0x3e1c6858	0.15274179
80	0xbe5ddf17	-0.21667133
81	0xbcfe37a2	-0.031032387
82	0x3d0cd372	0.034381337
83	0xbdea8943	-0.11451962
84	0xbe578981	-0.21048547
85	0xbe295f70	-0.16540313
86	0xbcfdab86	-0.030965578
87	0x3dce6778	0.10078329
88	0xbd533cae	-0.05157154
89	0xbe58f69c	-0.21187824
90	0xbd94d17a	-0.07266517
91	0x3e2cbe4b	0.16869466
92	0xbe5722a0	-0.21009302
93	0xbe858efc	-0.2608565
94	0x3e862cf1	0.26206163
95	0xbe61e5cc	-0.22060317
96	0x3e96273d	0.2932681
97	0x3d8d8675	0.06910411
98	0x3ded47ad	0.11585937
99	0x3ed2919c	0.41126716
100	0xbe05bf17	-0.13061176
101	0x3ded5b8b	0.11589726
102	0x3e4e3be4	0.20140034
103	0xbe700dbc	-0.23442739
104	0xbe813e34	-0.2524277
105	0x3e5b1834	0.21395952
106	0xbe848a5b	-0.25886807
107	0xbe4bcf06	-0.19903192
108	0x3dd20670	0.10255134
109	0x3defa566	0.11701469
110	0xbe87945a	-0.2648037
111	0x3dc2291b	0.094804965
112	0xbd7168da	-0.058937885
113	0x3d80d846	0.06291251
114	0x3e635087	0.22198687
115	0x3e617ccc	0.22020262
116	0xbe4a6097	-0.19763409
117	0x3e16a623	0.14711814
118	0xbdd7e436	-0.10541575
119	0xbe7b1d1f	-0.24522828
120	0x3c615b92	0.013754742
121	0xbe641fb4	-0.22277719
122	0xbd3c0a68	-0.04590836
123	0xbd7faaf4	-0.062418893
124	0xbe967c09	-0.29391506
125	0xbd5d9a42	-0.05410219
126	0x3bfabe44	0.007652076
127	0xbd41810c	-0.04724221
128	0x3dc845df	0.09778952
129	0x3e49da6b	0.19712226
130	0x3d7847a6	0.060615204
131	0x3e247a0f	0.16062187
132	0xbea34b42	-0.31893355
133	0x3e70f90a	0.23532501
134	0xbe2562c4	-0.16150957
135	0xbd4542ef	-0.048159536
136	0xbd2a2573	-0.04153962
137	0xbe1a1ecf	-0.15050815
138	0x3e74410b	0.23852937
139	0x3cdd4552	0.027010594
140	0xbd72a81d	-0.059242357
141	0xbdccde51	-0.10003341
142	0xbcb60811	-0.022220643
143	0x3c0a47e6	0.0084399935
144	0x3e8ded32	0.27720028
145	0xbe3f123f	-0.18659304
146	0x3c564f59	0.013080441
147	0x3ded4655	0.115856804
148	0xbbb1a65e	-0.005421444
149	0xbb861b39	-0.0040926007
150	0xbe33e154	-0.17566425
151	0xbce11a62	-0.0274784
152	0xbe9afb3d	-0.30269805
153	0xbe6211b4	-0.22077066
154	0x3dec2117	0.11529749
155	0xbe07653f	-0.13222216
156	0xbd9ec54f	-0.077524774
157	0x3e9d7a53	0.30757388
158	0xbe37b1eb	-0.17938964
159	0xbd5d0cbc	-0.053967223
160	0x3dcf029b	0.10107919
161	0xbe1a1b1d	-0.15049405
162	0xbe7060ed	-0.23474474
163	0x3e8907ec	0.26763856
164	0x3e7dde4f	0.24791835
165	0xbe2e6d47	-0.17033873
166	0xbe0fc1ec	-0.14038819
167	0x3e20f426	0.15718135
168	0xbe0e6858	-0.13906991
169	0xbe272393	-0.16322164
170	0x3e2d7d89	0.16942419
171	0xbe71538f	-0.23567031
172	0x3e12f5d2	0.14351586
173	0x3dde3ec3	0.108518146
174	0x3e05baa3	0.13059478
175	0xbc967be7	-0.018369628
176	0xbe565004	-0.20928961
177	0x3df7e2c6	0.121038005
178	0xbe868394	-0.2627226
179	0xbe1ee666	-0.15517578
180	0xbe2c6878	-0.16836727
181	0xbe45fee3	-0.19335513
182	0xbd909ed1	-0.07061542
183	0x3ddf2ce9	0.10897238
184	0x3beb0fbd	0.007173507
185	0xbe337d39	-0.17528237
186	0xbdc36d15	-0.0954229
187	0xbe38ae4a	-0.18035236
188	0x3d1f7309	0.038928065
189	0x3e723e7f	0.23656653
190	0xbe4f816b	-0.20264213
191	0xbe1a78a4	-0.15085083
192	0x3e1d267c	0.15346712
193	0xbda5c10b	-0.08093461
194	0x3d4535f8	0.04814717
195	0x3db02528	0.08600837
196	0x3e2a3163	0.16620402
197	0xbe38410d	-0.17993565
198	0x3e7bf99d	0.24606939
199	0x3e3bd27e	0.18342015
200	0x3c86569c	0.01639872
201	0xbe63762d	-0.22213049
202	0x3e53e589	0.2069303
203	0x3e84e938	0.25959182
204	0xbe9c3e3a	-0.30516225
205	0x3e502f81	0.20330621
206	0x3e075d0d	0.1321909
207	0x3dd9a2e1	0.1062677
208	0xbe656841	-0.22403051
209	0xbcf0f54e	-0.029413845
210	0x3d4209c7	0.047372606
211	0xbe8373a3	-0.2567416
212	0x3b82a898	0.003987383
213	0xbe7e600b	-0.24841325
214	0xbc73206d	-0.014839274
215	0x3e8888a9	0.26666763
216	0xbe15e707	-0.14638911
217	0x3e5895f6	0.21150956
218	0xbe57295c	-0.21011871
219	0x3ea13949	0.31489018
220	0xbbc417bb	-0.005984274
221	0xbe2be37b	-0.16785996
222	0x3e66e65b	0.22548811
223	0xbe915122	-0.28382212
224	0x3e44e117	0.1922649
225	0xbe1f1ad9	-0.15537585
226	0xbe087ec1	-0.13329603
227	0xbdf84378	-0.12122244
228	0x3e83f31d	0.25771418
229	0xbe1cf040	-0.15326023
230	0xbe4528ea	-0.19253889
231	0xbdb55d47	-0.08855682
232	0xbe23c9f6	-0.1599501
233	0x3e88d6e6	0.26726454
234	0x3e62e53f	0.22157763
235	0xbe1cd562	-0.15315774
236	0xbe660229	-0.22461762
237	0xbd805574	-0.06266299
238	0xbd092d99	-0.03349075
239	0xbe6c310b	-0.23065583
240	0xbea548c4	-0.32282078
241	0xbdd3d7d7	-0.103439026
242	0x3bd10ab9	0.006379452
243	0x3ce1b5a2	0.02755243
244	0xbe89c888	-0.26910806
245	0xbe5f8c4f	-0.21830867
246	0xbe36ed81	-0.17864038
247	0x3d798e44	0.06092669
248	0xbdf3cd37	-0.11904376
249	0xbe4fc43c	-0.20289701
250	0xbe87974f	-0.26482627
251	0xbe05a2b0	-0.13050342
252	0xbe436d9b	-0.1908478
253	0xbc16e8e9	-0.009210804
254	0xbe54179b	-0.2071213
255	0xbd33fe33	-0.043943595

mlp1.0.bias f4 [150]
0	0x3e90c8ed	0.28278294
1	0xbe814a07	-0.2525179
2	0xbc010ba6	-0.007876312
3	0xbe8b1c69	-0.27170113
4	0x3e45f5e9	0.19332089
5	0x3e29646b	0.16542213
6	0x3e54ea6d	0.20792551
7	0xbda700e6	-0.08154468
8	0x3dcc7018	0.09982318
9	0xbe27e623	-0.16396384
10	0x3e28d7f7	0.16488634
11	0xbe5a34a8	-0.2130915
12	0xbe53b0f6	-0.20672974
13	0xbe29f9e7	-0.16599236
14	0xbdab6820	-0.0836947
15	0xbe5df6c3	-0.21676163
16	0x3dff6254	0.124699265
17	0x3e8c91a9	0.2745488
18	0x3e34101a	0.17584267
19	0xbc2dbd23	-0.010604176
20	0x3e7694d8	0.24080217
21	0xbd554685	-0.052069206
22	0xbd30a42a	-0.04312531
23	0xbe6cc3db	-0.23121588
24	0xbdb19742	-0.08671428
25	0xbe1f1277	-0.15534388
26	0x3e5cb906	0.21554956
27	0x3e2af16e	0.1669366
28	0x3e6aa30d	0.22913761
29	0xbeaa1988	-0.33222604
30	0xbe203f9e	-0.15649268
31	0x3e8f192a	0.27948886
32	0x3b8cf916	0.0043021543
33	0x3dcc77b8	0.09983772
34	0x3e3d787b	0.18502991
35	0x3e7aafcd	0.24481125
36	0xbe39ae75	-0.18132956
37	0xbe1b0c10	-0.1514132
38	0x3e99225e	0.29909033
39	0xbe994e18	-0.29942393
40	0xbe01eddc	-0.12688392
41	0xbe6cb85e	-0.23117206
42	0xbe176b30	-0.14786983
43	0x3c251e04	0.010077957
44	0x3ce4fe7d	0.02795338
45	0x3df094a5	0.11747102
46	0xbdcafa34	-0.09911004
47	0x3e4ea3b2	0.20179632
48	0xbe30ecd9	-0.1727785
49	0xbdceef39	-0.10104222
50	0x3e749870	0.23886275
51	0xbe6a4166	-0.2287651
52	0x3e6b2243	0.22962289
53	0x3ca29e77	0.019850953
54	0x3ddbedea	0.10738738
55	0xbe8b1874	-0.27167094
56	0xbe227fdb	-0.15869085
57	0xbd560a9e	-0.05225622
58	0x3cf6a5ca	0.030108351
59	0xbe3cda37	-0.18442617
60	0x3db5d579	0.08878607
61	0xbd9354bb	-0.071938954
62	0x3e06c3bb	0.13160603
63	0x3e240aa3	0.16019683
64	0x3e3289f7	0.17435442
65	0x3e3ac890	0.18240571
66	0xbe2b545d	-0.16731401
67	0xbdc8b9b5	-0.09801046
68	0x3d8e43e7	0.06946545
69	0x3d0808e3	0.0332116
70	0xbdf00228	-0.11719161
71	0x3e036d45	0.12834652
72	0xbde9cc31	-0.114158995
73	0xbd48a53a	-0.048985697
74	0x3e873237	0.26405498
75	0x3e59132a	0.21198717
76	0x3e660923	0.22464423
77	0x3e4c16ee	0.19930622
78	0xbdf91687	-0.121625
79	0x3df95832	0.12175025
80	0xbe2fbb52	-0.17161301
81	0x3e212d29	0.15739883
82	0xbe08e65b	-0.13369124
83	0x3dfc356b	0.12314876
84	0xbe12bb41	-0.14329244
85	0xbe2f3aa5	-0.17112215
86	0xbe094ff2	-0.13409403
87	0xbe75e585	-0.24013336
88	0xbd412483	-0.04715396
89	0xbd91e519	-0.07123775
90	0x3d946450	0.072456956
91	0x3e67167f	0.22567175
92	0xbdda9942	-0.10673763
93	0xbe94673d	-0.28985015
94	0xbc1ccc0d	-0.009570134
95	0xbe8dba28	-0.27681088
96	0xbd2110af	-0.03932255
97	0x3e3e3b22	0.18577245
98	0xbd533239	-0.051561568
99	0xbcae10e1	-0.021248283
100	0xbe7d362a	-0.24727693
101	0x3e6f2ca0	0.23356867
102	0x3e4f92a5	0.20270784
103	0x3cd48ce6	0.025946092
104	0xbe3aa5c5	-0.18227299
105	0x3e578ccc	0.21049803
106	0xbe055133	-0.13019256
107	0x3e3b2562	0.18275979
108	0x3e83ff92	0.25780922
109	0x3d96f8a5	0.07371644
110	0xbd394088	-0.045227557
111	0x3d0b98eb	0.03408138
112	0x3e50eaae	0.20402023
113	0xbd245803	-0.040122997
114	0x3e70fbd1	0.2353356
115	0xbd6f7c75	-0.0584683
116	0xbdd2f56d	-0.103007175
117	0x3dffba26	0.12486677
118	0x3d9a6edd	0.07540677
119	0x3d99c105	0.07507519
120	0x3e2545ce	0.1613991
121	0xbe223c25	-0.15843256
122	0xbdfc4b4f	-0.123190515
123	0x3df9374d	0.12168751
124	0x3e7bc93d	0.24588485
125	0xbdca867a	-0.098889306
126	0x3cf1f61b	0.029536298
127	0x3e220f32	0.15826109
128	0xbdd378e9	-0.10325796
129	0xbd1a7191	-0.03770596
130	0xbd96fcef	-0.07372462
131	0xbe5454bf	-0.20735453
132	0x3d9ace3d	0.07558868
133	0x3e8214b6	0.25406426
134	0x3de6b5ab	0.11265119
135	0xbe2f0143	-0.17090325
136	0x3e798f09	0.2437097
137	0x3e65cc16	0.22441134
138	0xbc8a0430	-0.0168477
139	0xbe78b076	-0.24286065
140	0x3d91f108	0.07126051
141	0x3e891d5c	0.26780212
142	0x3e3d6610	0.18495965
143	0xbdd7294f	-0.10505926
144	0xbda5c691	-0.08094514
145	0xbe8e064f	-0.27739188
146	0x3e7bff16	0.24609026
147	0x3e4bc624	0.19899803
148	0xbd29a3e8	-0.04141608
149	0xbda20369	-0.07910807

mlp1.2.weight f4 [100, 150]
0	0x3dadef00	0.08492851
1	0xbd0a062b	-0.03369729
2	0x3c35d825	0.011098896
3	0x3dabc8db	0.083879195
4	0xbd271f61	-0.04080141
5	0x3d81fe7a	0.06347366
6	0xbd539c36	-0.051662646
7	0x3dfeb92f	0.12437665
8	0xbd1bf9c6	-0.03808
9	0x3d25fc36	0.04052373
10	0x3d17e593	0.037084173
11	0x3c844009	0.016143816
12	0xbca89f61	-0.02058381
13	0x3d05d9c9	0.0326784
14	0x3d746d86	0.059674762
15	0x3ce54dd0	0.027991205
16	0x3de67d1a	0.1125433
17	0xbc86ca38	-0.016453847
18	0x3d7df04f	0.061996754
19	0xbdb85fbc	-0.09002635
20	0x3da90039	0.082519956
21	0x3d96338f	0.07334053
22	0xbbf0b171	-0.0073453714
23	0xbdb91cb6	-0.09038679
24	0x3d6f3cc0	0.058407545
25	0xbcd0030a	-0.025392074
26	0x3ca37739	0.01995431
27	0xbda001b4	-0.07812825
28	0x3c15e33f	0.009148418
29	0x3a4c4ab8	0.00077931164
30	0x3d9d4e97	0.076810054
31	0xbd1d1e85	-0.038359184
32	0xbd298d84	-0.041394725
33	0x3cf9641e	0.030443247
34	0x3bf44203	0.0074541583
35	0x3cf949ce	0.0304307
36	0xbd419f9e	-0.047271363
37	0x3da49ca0	0.08037686
38	0xbd98a548	-0.074534
39	0x3d77e84d	0.060524274
40	0xbd689b8d	-0.05678897
41	0x3d73ba77	0.059504
42	0x3cd02ecc	0.02541294
43	0xbcd9eb13	-0.02660135
44	0xbd8a9de8	-0.067683995
45	0x3b08f525	0.002089807
46	0x3cf94f17	0.03043322
47	0xbd6a6721	-0.057227258
48	0x3dd35459	0.103188224
49	0xbd4fca2f	-0.050729927
50	0x3d6a58a2	0.057213433
51	0xbd9c93fa	-0.07645412
52	0x3d405f16	0.04696568
53	0x3d8036e8	0.062604725
54	0xbd4564a8	-0.048191696
55	0xbc8d663e	-0.017260667
56	0x3dc4ab0a	0.096029356
57	0xbdd3043b	-0.10303541
58	0xbd7ca5f4	-0.061681703
59	0xbd594a98	-0.053049654
60	0x3d7f4fc0	0.062331915
61	0x3d6b0b07	0.057383563
62	0xbb2448d6	-0.0025067828
63	0x3d36c630	0.0446226
64	0xbcd7f847	-0.026363505
65	0xbbd48dca	-0.006486629
66	0xbdcaa1f2	-0.0989417
67	0xbd62036f	-0.055179056
68	0x3d8e5fdb	0.06951877
69	0x3d1aff38	0.03784105
70	0xbbf6d903	-0.007533194
71	0x3c1fcb0a	0.009752998
72	0x3cc32bcd	0.023824597
73	0x3cddf856	0.027095955
74	0xbbed3942	-0.0072394917
75	0x3d953809	0.072860785
76	0xbd4134e1	-0.04716957
77	0x3d114dd3	0.03547461
78	0x3d3a1b37	0.04543611
79	0xbd0c071b	-0.034186464
80	0xbd23f5eb	-0.040029448
81	0xbd8b9e4b	-0.06817301
82	0x3cad523b	0.021157375
83	0x3dc71dde	0.097224936
84	0x3c9f2433	0.01942644
85	0x3c4b96b7	0.01242607
86	0xbd881f67	-0.066466145
87	0xbd480f38	-0.04884264
88	0xbb204540	-0.0024455339
89	0xbe151d20	-0.14561892
90	0x3c5194c8	0.01279182
91	0x3b2ce1b2	0.0026379642
92	0xbce624de	-0.028093752
93	0x3c8ce573	0.017199254
94	0xbd80ee02	-0.062953964
95	0x3c349a07	0.011023051
96	0xbd602824	-0.05472578
97	0x3d176012	0.036956854
98	0x3d247ecd	0.04015999
99	0x3acfda64	0.0015857932
100	0xbcf907f3	-0.030399298
101	0xbd50d5ff	-0.050985333
102	0xbb8e3517	-0.004339825
103	0x3b905556	0.004404704
104	0x3d06793f	0.032830473
105	0x3cfe60b1	0.031051965
106	0x3df219c9	0.118213244
107	0x3d880ac7	0.066426806
108	0x3d3091fa	0.043107964
109	0x3d3c277a	0.045936085
110	0xbd206790	-0.039161265
111	0xbd22c974	-0.039742902
112	0x3d8f50a1	0.069978006
113	0x3da3c64b	0.07996806
114	0x3db8981f	0.0901339
115	0xbdbd19f7	-0.09233468
116	0x3d7b4707	0.061347034
117	0xbd993921	-0.074815996
118	0xbc3cfe32	-0.011535214
119	0xbcb1d329	-0.021707134
120	0xbda88657	-0.08228748
121	0x3d99f428	0.07517272
122	0x3d91e2c5	0.07123331
123	0xbdf4e34a	-0.119574144
124	0x3d00fb52	0.031489678
125	0x3b271660	0.0025495514
126	0x3db7a303	0.08966639
127	0x3d8a8b59	0.0676486
128	0xbbc69d04	-0.006061198
129	0xbca3d18b	-0.019997379
130	0xbd9ac108	-0.07556349
131	0xbafb4e98	-0.0019173203
132	0x3d9ed33b	0.07755133
133	0x3c95c71d	0.018283421
134	0xbca212dc	-0.019784383
135	0x3d99e3bc	0.0751414
136	0x3d2d7ab0	0.042353332
137	0x3be14790	0.006874986
138	0xbd98ea07	-0.07466512
139	0x3d87ed59	0.06637067
140	0xbda44150	-0.0802027
141	0x3da3af9c	0.07992479
142	0xbdedf193	-0.11618342
143	0x3d333f6a	0.04376165
144	0x3d102158	0.03518805
145	0xbc7079f9	-0.014677518
146	0x3bf78073	0.007553154
147	0x3c2f15b4	0.010686327
148	0xbd7954e6	-0.06087198
149	0x39ad41cb	0.0003304615
150	0xbcd308af	-0.025760977
151	0x3da47c65	0.08031539
152	0xbd058cdf	-0.03260505
153	0xbceb4276	-0.028718214
154	0x3d10c418	0.03534326
155	0xbcc7b217	-0.024376912
156	0xbc45e5f3	-0.01207875
157	0xbd3223e9	-0.043491278
158	0xbd22005a	-0.039551117
159	0xbbcb7b51	-0.006209769
160	0x3cb4be88	0.022063509
161	0x3be04458	0.0068440847
162	0xbc0d1c08	-0.00861264
163	0xbd59dee0	-0.053191066
164	0xbc9196f1	-0.01777217
165	0x3d452ae9	0.048136625
166	0xbcce0b33	-0.025151825
167	0x3d214134	0.039368823
168	0xbc60824e	-0.013702942
169	0xbd111001	-0.035415653
170	0x3d197d0d	0.037472773
171	0x3c9e17f5	0.019298533
172	0x3d56f439	0.052479003
173	0xbd325a31	-0.043543044
174	0x3d26ab7a	0.040690877
175	0xbd7e14d0	-0.062031567
176	0x3c597a72	0.013273822
177	0xbd4eec3a	-0.050518252
178	0x3bac627d	0.005260764
179	0x3ca70ffc	0.020393364
180	0xbbfd16e0	-0.007723674
181	0xbda94815	-0.08265702
182	0xbced20b4	-0.028946258
183	0xbd7156ac	-0.058920547
184	0xbd9f9221	-0.07791544
185	0x3d41c7f9	0.04730985
186	0xbd41907f	-0.047256943
187	0x3da642af	0.08118188
188	0xbce1fdc1	-0.02758682
189	0x3b8685c6	0.0041053025
190	0xbd314fef	-0.04328912
191	0xbc9fa186	-0.0194862
192	0xbd283b96	-0.04107245
193	0xbd9f5016	-0.07778947
194	0xbd51d91b	-0.05123244
195	0x3ce3a295	0.027787486
196	0x3c511e36	0.0127635505
197	0x3ce38f4b	0.027778288
198	0x3d820a32	0.06349601
199	0x3d709591	0.058736388
200	0x3cd5cf58	0.026099846
201	0xbd4005fd	-0.04688071
202	0xbd8d5c6a	-0.06902392
203	0x3d1311c2	0.035905607
204	0xbcf54226	-0.029938769
205	0x3d81cc47	0.06337791
206	0xbd9745b0	-0.07386339
207	0xbd69c54c	-0.057072923
208	0xbd8a5815	-0.067550816
209	0xbcd09147	-0.025459899
210	0x3d1c7360	0.038195968
211	0xbceb6322	-0.028733794
212	0x3d36bbb4	0.0446126
213	0xbd595109	-0.053055797
214	0x3d7ae8b6	0.061257087
215	0x3d7c6f3d	0.061629523
216	0x3d321ee0	0.043486476
217	0xbd58384a	-0.052788056
218	0x3ba9dc38	0.005183723
219	0x3c3469d6	0.011011561
220	0xbcfb390b	-0.030666849
221	0xbd820e32	-0.06350364
222	0x3c2d4855	0.010576327
223	0x3cef0e8a	0.029181737
224	0xbcc6cddf	-0.024268089
225	0xbd973c90	-0.07384598
226	0xbd5d1eac	-0.05398433
227	0x3d9ed7c0	0.07755995
228	0xbd97259c	-0.0738022
229	0xbd71c49d	-0.059025396
230	0xbc0a4e06	-0.008441454
231	0xbcd23de6	-0.025664281
232	0xbd6fe99a	-0.05857239
233	0xbcb028f7	-0.021503909
234	0x3d469797	0.04848441
235	0xbcd404fa	-0.02588128
236	0x3d21834e	0.039431863
237	0x3d4c7f9e	0.049926393
238	0xbc1913f7	-0.009343139
239	0x3cc82575	0.024431923
240	0xbd1816d5	-0.03713115
241	0xbdaa2442	-0.08307697
242	0xbd2e4aa9	-0.04255167
243	0x3cdce492	0.02696446
244	0xbd603593	-0.054738592
245	0xbd53a08c	-0.05166678
246	0xbc649276	-0.013950935
247	0xbd21232f	-0.039340194
248	0xbbcca289	-0.0062449616
249	0x3d00abec	0.031413957
250	0xbc87dd29	-0.01658495
251	0xbd79703b	-0.060898047
252	0xbc43e406	-0.0119562205
253	0x3d8cda86	0.068776175
254	0x3b37b017	0.0028028542
255	0x3d53df3f	0.051726576

mlp1.2.bias f4 [100]
0	0x3ceab6a6	0.028651547
1	0x3cef9494	0.029245652
2	0x3d944350	0.07239401
3	0x3d0b7452	0.03404648
4	0xbd40dc36	-0.04708501
5	0x3d2cf6b7	0.042227473
6	0xbd2dfe76	-0.042479
7	0x3d5d939b	0.054095846
8	0xbd2759f3	-0.040857267
9	0xbe06236d	-0.13099451
10	0xbd1c8a5a	-0.03821788
11	0xbd259c19	-0.04043207
12	0x3d59ab35	0.05314179
13	0xbbf0102c	-0.0073261466
14	0xbc8e4900	-0.017368793
15	0xbdbdfd39	-0.09276814
16	0x3c44f697	0.012021682
17	0x3d19fb5c	0.03759323
18	0x3c91dc21	0.017805161
19	0x3d7f0b2e	0.06226652
20	0xba0e5de9	-0.0005430864
21	0x3c3b96a6	0.011449492
22	0x3d8083b8	0.06275123
23	0xbd698308	-0.057009727
24	0x3d9b5a93	0.07585635
25	0xbbf2c819	-0.0074091074
26	0x3d77de0b	0.06051449
27	0x3dcb9fe8	0.09942609
28	0x3d6b1c72	0.057400174
29	0x3d41d9d8	0.047326893
30	0x3d72a794	0.059241846
31	0x3c442a4f	0.011972978
32	0xbc6ee507	-0.014580972
33	0xbb0e90c0	-0.0021753758
34	0x3d1798c5	0.037010927
35	0xbcec06b3	-0.028811788
36	0x3d1a6b00	0.0376997
37	0x3d4adad0	0.049525082
38	0xbd0920c7	-0.033478525
39	0x3d890e83	0.06692221
40	0xbdb21f15	-0.08697335
41	0xbc3d4e6b	-0.011554341
42	0xbd04f9d9	-0.032464836
43	0xbc979d74	-0.018507697
44	0x3bd366c0	0.0064514577
45	0x3d6358ff	0.055504795
46	0x3cf01e6d	0.029311383
47	0xbd6e6ee6	-0.05821123
48	0xbcf40a95	-0.029790202
49	0x3d6e9411	0.058246676
50	0x3bbc5882	0.0057478556
51	0x3d74921e	0.05970966
52	0xbd1e8872	-0.038704343
53	0xbd29d495	-0.0414625
54	0xbd7cb8be	-0.06169962
55	0x3d613a3d	0.05498718
56	0xbe0403ad	-0.12892027
57	0xbae17fb0	-0.0017204192
58	0x3d4089d8	0.047006458
59	0x3d0a04be	0.03369593
60	0xbd7d8618	-0.06189546
61	0xbcbb001d	-0.022827202
62	0x3db23e87	0.087033324
63	0x3d9d7837	0.07688945
64	0x3cf52236	0.02992354
65	0xbcf1ae7f	-0.029502152
66	0xbd3e0229	-0.04638878
67	0xbc8c4a9f	-0.017125426
68	0xbccce5bd	-0.025011891
69	0xbd06d333	-0.03291626
70	0x3d98774d	0.0744463
71	0x3d267b37	0.04064485
72	0xbada057c	-0.0016633715
73	0xbda7d380	-0.08194637
74	0x3d21f155	0.039536793
75	0xbd0ae33c	-0.033908114
76	0xbcf3f0a2	-0.029777829
77	0x3ca71ed8	0.02040045
78	0x3cd5c790	0.026096135
79	0xbd9f1dc1	-0.07769347
80	0x3c73f8e7	0.014890886
81	0xbd918e1d	-0.07107184
82	0xbcd8a37a	-0.02644514
83	0x3d21c870	0.039497793
84	0x3d5c28d4	0.053749874
85	0xbd609ead	-0.054838825
86	0xbd80ac2e	-0.06282841
87	0x3d11e4ee	0.035618715
88	0xbd9cee5f	-0.07662653
89	0xbc7bc27b	-0.015366192
90	0x3a0a9afb	0.0005287376
91	0xbc04c430	-0.008103415
92	0x3d80188d	0.06254683
93	0xbcc10bf3	-0.023565268
94	0x3d74ee5d	0.059797633
95	0x3dbccd36	0.092188284
96	0x3d961df3	0.07329931
97	0xbcf47234	-0.029839613
98	0x3d7d4d64	0.061841384
99	0xbdaf13f0	-0.08548725

mlp2.0.weight f4 [100, 100]
0	0xbda57e2c	-0.08080706
1	0xbdaa5e60	-0.08318782
2	0x3da7bdcf	0.081905
3	0xbcb14ba7	-0.02164252
4	0x3dc33ff2	0.09533681
5	0xbd94f3ea	-0.072730854
6	0xbd6c1643	-0.057638418
7	0xbd2258cf	-0.039635476
8	0x3db5ac08	0.08870703
9	0x3d2dfad1	0.042475525
10	0x3d18c29b	0.037294965
11	0xbc769948	-0.015051194
12	0xbdbea130	-0.09308088
13	0xbd476340	-0.048678637
14	0x3dd41466	0.10355453
15	0x3d003e61	0.03130949
16	0x3d73d5e5	0.059530158
17	0xbd158240	-0.03650117
18	0x3dbd4142	0.092409626
19	0xbbffeaf2	-0.00780999
20	0xbc31dcc9	-0.010855862
21	0x3dc44b77	0.09584706
22	0xbdb71a23	-0.08940532
23	0xbd7119fa	-0.058862664
24	0xbcfbf22f	-0.03075513
25	0x3d2704f7	0.04077622
26	0x3d355f03	0.044280063
27	0x3db2da36	0.08733027
28	0xbdafb13f	-0.08578729
29	0x3d2e2110	0.042512
30	0xbdc3cf9c	-0.09561083
31	0xbce63bea	-0.028104741
32	0xbd995168	-0.0748623
33	0x3d9759c1	0.07390166
34	0xbdbd66f6	-0.09248154
35	0xbd8bd8a8	-0.06828433
36	0xbd987c0b	-0.07445534
37	0x3dadd0fa	0.08487125
38	0xbd9568c8	-0.07295376
39	0x3dca2f0f	0.09872257
40	0x3bf28a31	0.0074017276
41	0x3d505e17	0.05087098
42	0x3dc8f76f	0.09812819
43	0x3d57a97d	0.05265187
44	0xbda99538	-0.08280414
45	0xbdcaa4e8	-0.098947346
46	0xbda8265d	-0.08210442
47	0xbdcdc331	-0.100469954
48	0xbdd0df5a	-0.10198851
49	0x3c22111b	0.009891774
50	0x3d89a8c2	0.06721641
51	0x3dadbc8c	0.08483228
52	0x3d4d4325	0.050112862
53	0xbd8b96af	-0.0681585
54	0x3d9aea37	0.07564204
55	0xbd43617f	-0.0477004
56	0xbd5d9c78	-0.0541043
57	0x3d0c2a33	0.03421993
58	0xbd02b4d6	-0.03191074
59	0x3d47696c	0.048684523
60	0x3ccf0ced	0.025274718
61	0xbd6850b4	-0.05671759
62	0xbcb6c504	-0.022310741
63	0xbd9d1851	-0.076706536
64	0x3c030744	0.007997338
65	0x3c3c65b9	0.011498862
66	0xbd06e679	-0.03293464
67	0x3c0c521a	0.008564496
68	0xbdc34963	-0.09535482
69	0xbd9e730a	-0.07736786
70	0xbb3ae8a6	-0.0028520017
71	0xbd7be4c9	-0.061497483
72	0x3dc27f08	0.094968855
73	0x3dbf4fab	0.09341367
74	0x3cb37478	0.021906123
75	0xbd13f667	-0.03612366
76	0xbbaa47d2	-0.00519655
77	0xbcdde492	-0.02708653
78	0xbd2f8ef2	-0.042860933
79	0xbccfce5f	-0.02536696
80	0x3da4c5e5	0.08045558
81	0x3cf5f29e	0.030022915
82	0xbd070d54	-0.032971695
83	0xbd86ef71	-0.065886386
84	0xbdbba520	-0.091623545
85	0x3d2f9ee5	0.042876143
86	0xbda2a907	-0.07942396
87	0x3dbfa7a5	0.093581475
88	0xbdb4207e	-0.0879526
89	0x3d250dd1	0.04029638
90	0x3d4137f3	0.047172498
91	0x3d5befd6	0.053695522
92	0x3cc49deb	0.024001082
93	0xbd3d022f	-0.04614466
94	0x3d10c8d7	0.035347786
95	0x3db6e531	0.089304335
96	0xbdbbfbbf	-0.09178876
97	0xbd946da0	-0.07247472
98	0xbd8223c7	-0.0635448
99	0xbceddeb1	-0.029036852
100	0xbd350942	-0.044198282
101	0xbdcc6a74	-0.09981242
102	0x3d4b1319	0.04957876
103	0x3d9736a7	0.07383471
104	0xbda0b504	-0.07847026
105	0xbbce2736	-0.0062912954
106	0x3dc337e1	0.095321424
107	0x3d8282a8	0.06372577
108	0xbd68dc7a	-0.056850888
109	0xbdf6d37e	-0.12052058
110	0xbd801b05	-0.062551536
111	0x3c9572df	0.018243251
112	0xbc461982	-0.0120910425
113	0xbca73b10	-0.020413905
114	0x3d8082dd	0.0627496
115	0x3d8ae94f	0.06782781
116	0x3db08bc3	0.086204074
117	0xbc8735b2	-0.016505096
118	0xbdc778a7	-0.097398095
119	0x3d510112	0.05102641
120	0xbd34a227	-0.044099953
121	0x3c75f942	0.015013041
122	0xbd01ec32	-0.031719394
123	0x3d664372	0.056216665
124	0x3d817283	0.063206695
125	0x3d52aaa2	0.05143226
126	0x3ca120d5	0.019668976
127	0x3c9c31b9	0.019066678
128	0x3dc09856	0.09404056
129	0x3c5ef1d0	0.013607457
130	0xbd87cb22	-0.066305414
131	0xbd990494	-0.07471576
132	0xbd48c8b4	-0.04901953
133	0x3dc58c0b	0.09645852
134	0x3c53be80	0.012923837
135	0xbd03cf3a	-0.03218005
136	0x3d207003	0.039169323
137	0x3d2871e9	0.04112426
138	0x3d2cbe9b	0.042173963
139	0x3db0aae6	0.08626346
140	0xbda6e1a3	-0.081485055
141	0xbd90e7dc	-0.07075474
142	0xbd812d94	-0.063075215
143	0x3d3d1442	0.046161897
144	0xbd01f9d5	-0.0317324
145	0xbd930a6e	-0.07179724
146	0x3d7707b3	0.060310077
147	0x3d06b08c	0.032883212
148	0x3dadb92e	0.08482586
149	0xbcb8dc6c	-0.022566043
150	0x3d33721e	0.043810003
151	0xbd732975	-0.05936571
152	0x3cffcbbf	0.031225083
153	0xbc86b807	-0.016445173
154	0x3dd99370	0.106238246
155	0xbda4c1cf	-0.080447786
156	0xbe137e42	-0.14403632
157	0xbdab72d0	-0.08371508
158	0xbc03fe67	-0.00805626
159	0xba9e32a8	-0.001206954
160	0x3dbbf752	0.09178032
161	0x3c93888f	0.018009452
162	0xbda1c58f	-0.078990094
163	0xbcae57cb	-0.021282097
164	0xbd0f4101	-0.034974102
165	0x3d84ee7f	0.06490802
166	0x3cd5c28e	0.026093747
167	0x3c816354	0.015794434
168	0x3dbe4f1c	0.09292433
169	0x3c5b22e9	0.013375022
170	0x3d87e447	0.06635337
171	0xbd8e94f3	-0.069620036
172	0xbc88e5db	-0.016711166
173	0x3c3810a9	0.011234441
174	0xbd5185ff	-0.05115318
175	0x3c9c8966	0.019108485
176	0xbd6a5f81	-0.057219986
177	0x3d377192	0.044786043
178	0xbd8d2879	-0.06892485
179	0x3d644b66	0.055735968
180	0xbcaaddc0	-0.020857692
181	0xbbbd2350	-0.005772032
182	0xbd25d506	-0.040486358
183	0x3c7f8e4a	0.015597889
184	0x3c6e23d8	0.014534913
185	0x3d269cb0	0.040676773
186	0xbdedd9d8	-0.11613816
187	0x3cadaf99	0.021201896
188	0xbd9ffc9d	-0.07811854
189	0x3dbca212	0.092106
190	0x3dc52d2c	0.096277565
191	0xbd6dd0a0	-0.05806029
192	0x3d6f4feb	0.058425825
193	0x3dafbdd9	0.085811324
194	0xbd32f01c	-0.043686017
195	0x3db5cc9a	0.08876915
196	0x3bd38fbb	0.006456343
197	0x3c8a4fdd	0.016883785
198	0x3d8b1b0d	0.06792269
199	0xbd06c722	-0.03290475
200	0xbd970b9f	-0.073752634
201	0x3d196a80	0.037455082
202	0xbc2b097c	-0.010439273
203	0xbd293e94	-0.041319445
204	0xbd80fd17	-0.06298273
205	0xbc671df7	-0.014106265
206	0xbc8d587c	-0.017254107
207	0xbd8a53bc	-0.06754252
208	0x3d96d762	0.073653
209	0x3d35e5a0	0.04440844
210	0xbdaba0b4	-0.08380261
211	0xbdb12459	-0.08649511
212	0x3d8d35ce	0.06895028
213	0x3c9cc610	0.019137412
214	0x3bd1bded	0.0064008147
215	0x3dfef817	0.12449663
216	0x3df7e55d	0.121042944
217	0xbd3d2e98	-0.046187013
218	0xbdba94af	-0.091103904
219	0x3d4c77bf	0.049918886
220	0x3db18b7f	0.08669185
221	0x3d806c2c	0.06270632
222	0xbc9403cf	-0.018068222
223	0x3d3e1e3b	0.04641555
224	0x3da7f7f9	0.08201594
225	0x3d86631e	0.06561874
226	0x3db5b9a2	0.08873297
227	0x3dc752ea	0.097326115
228	0xbc835e42	-0.016036157
229	0xbb277da0	-0.0025557056
230	0xbd81e8ec	-0.063432544
231	0xbdcb9e6a	-0.099423245
232	0xbdd95f15	-0.106138386
233	0x3ca14b4c	0.019689225
234	0x3d9a74c2	0.07541801
235	0x3ce2443b	0.027620425
236	0xbd70e0f9	-0.0588083
237	0x3db81d8e	0.08990012
238	0xbcc003b2	-0.023439262
239	0xbdb73d7e	-0.089472756
240	0xbd402785	-0.04691269
241	0xbd97b874	-0.074082285
242	0xbd87fdca	-0.06640203
243	0xbd912e0f	-0.07088863
244	0x3cd6c152	0.02621523
245	0x3d251f85	0.040313262
246	0xbc82d194	-0.015969075
247	0xbd74018b	-0.059571784
248	0xbc961080	-0.018318415
249	0xbd9a4072	-0.07531823
250	0xbda59e58	-0.08086842
251	0xbd718997	-0.058969107
252	0x3d83fe1b	0.06444951
253	0xbd41ff9c	-0.04736291
254	0xbc47a4d3	-0.012185293
255	0xbae314e5	-0.0017324953

mlp2.0.bias f4 [100]
0	0x3ca74dbc	0.020422809
1	0xbd8d57d3	-0.06901517
2	0x3ce5cfce	0.02805319
3	0x3d64de40	0.055876017
4	0xbd920c16	-0.071312115
5	0xbd68b3d6	-0.05681213
6	0xbdbf501d	-0.09341452
7	0x3d60e84f	0.054909047
8	0xbd4089b2	-0.047006316
9	0xbde27cc5	-0.11058954
10	0x3be39f53	0.006946483
11	0x3d72f12a	0.059312023
12	0xbd0752f2	-0.033038087
13	0x3be02781	0.0068406467
14	0x3dafb573	0.085795306
15	0x3cfe8369	0.03106852
16	0x3d954450	0.0728842
17	0xbd6a5036	-0.0572054
18	0x3ceb67b4	0.028735973
19	0xbd93e0ef	-0.07220637
20	0x3cdcc48c	0.02694919
21	0xbc9bce25	-0.019019196
22	0xbd8a8eb0	-0.06765497
23	0xbaded944	-0.0017002006
24	0x3d7b0540	0.061284304
25	0x3dda0220	0.106449366
26	0xbd714828	-0.058906704
27	0x3c52c4aa	0.012864271
28	0xbc35112e	-0.011051459
29	0xbc0793a1	-0.008274944
30	0x3d95e872	0.07319726
31	0x3e1c5815	0.15267976
32	0x3d69b703	0.0570593
33	0xbca9faee	-0.020749535
34	0xbd3529a2	-0.044229157
35	0x3dda50fa	0.10659976
36	0xbb2ac848	-0.0026059318
37	0x3d61c177	0.055116143
38	0x3d666be1	0.056255225
39	0xbdd674b5	-0.10471479
40	0xbd1ead2c	-0.03873937
41	0xbbe11d06	-0.006869915
42	0x3db47d96	0.08813016
43	0x3c8f83b7	0.017518861
44	0x3d316ad7	0.04331478
45	0xbd552050	-0.05203277
46	0x3d0350f8	0.03205964
47	0xbc92455d	-0.01785534
48	0x3cadaceb	0.021200618
49	0x3cf9e417	0.03050427
50	0x3d5a1635	0.053243835
51	0xbc0eb000	-0.008708954
52	0x3d7e5314	0.06209095
53	0xbcea67ec	-0.028614007
54	0x3d96301d	0.07333396
55	0x3cc8803c	0.02447521
56	0xbd9a5bc2	-0.07537033
57	0x3db875ed	0.090068676
58	0x3d953c49	0.07286889
59	0xbd195a7d	-0.037439812
60	0x3c5f041f	0.013611822
61	0x3d181db4	0.037137702
62	0x3d47de7d	0.048796166
63	0x3cffc73e	0.031222936
64	0xbd3eae31	-0.04655284
65	0x3d5376fe	0.05162715
66	0xbda58747	-0.08082443
67	0x3df148a9	0.11781437
68	0xbd6c64f7	-0.057713475
69	0x3ddbbcdf	0.10729384
70	0xbd14d3d9	-0.036334846
71	0x3d175741	0.036948446
72	0xbb7377d3	-0.0037150278
73	0x3d66c065	0.056335825
74	0xbd4565ac	-0.048192665
75	0x3d430b4c	0.047618195
76	0xbc2c207c	-0.010505792
77	0x3d65326c	0.05595629
78	0x3d85cb39	0.06532902
79	0x3dddf36d	0.108374454
80	0xbd0f0161	-0.034913424
81	0x3cc505e7	0.024050666
82	0xbdbc3c17	-0.09191149
83	0x3ca29678	0.01984714
84	0x3d305791	0.04305226
85	0xbd0a2857	-0.033729877
86	0x3d695de4	0.056974307
87	0x3d52820b	0.05139355
88	0xbd238f56	-0.039931618
89	0x3d421104	0.04737951
90	0x3c9690e9	0.018379645
91	0xbb4d4d25	-0.00313265
92	0x3df59634	0.119915396
93	0x3ccd4c4e	0.025060799
94	0x3cbcdb1d	0.0230537
95	0xbda3f548	-0.08005768
96	0xbe16097d	-0.14652057
97	0x3d3bfc7f	0.045895096
98	0x3c8b1785	0.016978988
99	0x3e0a731e	0.13520476

mlp2.2.weight f4 [50, 100]
0	0x3cdc3c0a	0.026884098
1	0xbdd5a245	-0.10431341
2	0xbc5cf1cf	-0.013485386
3	0xbcf5f7f5	-0.030025462
4	0x3d6a78f6	0.057244264
5	0x3beff279	0.007322606
6	0x3c5deda5	0.013545428
7	0xbda5007c	-0.08056733
8	0xbd995bbe	-0.074882016
9	0x3dacf17e	0.084444985
10	0xbaa5e054	-0.0012655356
11	0xbcda48c7	-0.026646031
12	0x3d954460	0.07288432
13	0x3c0e3595	0.008679767
14	0x3c4a77b3	0.01235764
15	0xbca8fffb	-0.020629873
16	0x3da0c47a	0.07849975
17	0x3db8fa08	0.09032065
18	0x3d798a84	0.060923114
19	0x3b570859	0.0032811372
20	0xbdcf6091	-0.101258405
21	0x3dd47655	0.103741325
22	0xbcf352cc	-0.029702567
23	0xbd4647e0	-0.04840839
24	0x3d68b9bc	0.056817755
25	0xbdc75564	-0.09733084
26	0x3d3d82ac	0.046267197
27	0x3d89718f	0.06711113
28	0xbd438b35	-0.04774018
29	0x3e0009e3	0.12503771
30	0x3c24be44	0.0100551285
31	0x3cb85647	0.022502078
32	0xbdcbbcb0	-0.09948099
33	0xbd45c65e	-0.04828488
34	0xbd29c401	-0.04144669
35	0xbaf41544	-0.001862206
36	0xbc53d86a	-0.012930015
37	0x3da08fd4	0.07839933
38	0x3bebe156	0.007198493
39	0xbc7fb104	-0.015606169
40	0x3dc03b7e	0.09386347
41	0x3cf8ab4c	0.030355118
42	0xbda2990f	-0.0793935
43	0xbdbf2732	-0.09333648
44	0xbca239f2	-0.019803021
45	0x3a82caac	0.0009978614
46	0xbd172521	-0.036900643
47	0xbd476523	-0.048680436
48	0x3e1cfc60	0.15330648
49	0xbd704003	-0.058654796
50	0xbcebac5a	-0.028768707
51	0x3d34e67c	0.04416512
52	0x3d473a12	0.048639365
53	0xbd87fcfb	-0.06640049
54	0x3d29bb13	0.041438174
55	0xbd54d629	-0.05196205
56	0xbc970eb2	-0.018439624
57	0x3ccdcceb	0.025122127
58	0x3da93a7c	0.08263108
59	0x3c5a6fa3	0.01333228
60	0xbdb9ab66	-0.09065895
61	0xbd937d31	-0.07201613
62	0xbc9976f0	-0.018733472
63	0x3dde4365	0.10852698
64	0x3d09a0ab	0.03360049
65	0xbd390624	-0.04517187
66	0xbd0ac718	-0.033881277
67	0x3d18fa67	0.037348177
68	0x3d686ee0	0.056746364
69	0xbcc190d5	-0.023628632
70	0x3d9c757d	0.076395966
71	0xbba4fb7b	-0.0050348616
72	0x3d32e16f	0.04367202
73	0xbd8350a7	-0.064118676
74	0xbd81476e	-0.06312452
75	0xbc879092	-0.016548429
76	0x3c38d233	0.011280584
77	0x3b46b539	0.003032042
78	0x3d8d5a5d	0.06902001
79	0xbd6c5ffe	-0.057708733
80	0xbd9969d0	-0.07490885
81	0xbd48cc9b	-0.049023252
82	0xbd1a811e	-0.037720792
83	0x3c633c23	0.013869318
84	0xbd6d5617	-0.05794343
85	0x3d906560	0.07050586
86	0x3a577905	0.00082196324
87	0x3c4fb58b	0.012677561
88	0xbd4e2e69	-0.05033723
89	0xbcdde467	-0.02708645
90	0x3e0f2ac3	0.13981156
91	0xbdbf99ad	-0.09355483
92	0xbc7394d0	-0.014867023
93	0xbd86041c	-0.065437526
94	0xbdb6a0d3	-0.089173935
95	0xbdcbe3f4	-0.09955588
96	0x3cf072ba	0.02935158
97	0x3d0cb8d1	0.034355942
98	0xbd815164	-0.06314352
99	0x3daea2e1	0.085271604
100	0xbdaaf83a	-0.08348127
101	0xbbd52476	-0.0065045906
102	0xbdbc73d4	-0.0920178
103	0x3dbacd62	0.09121205
104	0xbdcee82f	-0.10102879
105	0xbbffbe62	-0.007804678
106	0xbd698fd7	-0.057021942
107	0xbdc1e194	-0.09466854
108	0x3d827384	0.06369689
109	0xbd1f345c	-0.038868293
110	0x3d82bf78	0.06384176
111	0xbd5b7364	-0.053576842
112	0x3d9f1086	0.077668235
113	0x3dd40f38	0.10354465
114	0x3d6def32	0.058089443
115	0xbd2e54c3	-0.042561304
116	0x3d3d0371	0.04614586
117	0x3d94b4cb	0.07261046
118	0xbd96d1b0	-0.073642135
119	0xbd7d6b64	-0.061869994
120	0xbd20f10d	-0.039292384
121	0xbd3dc9c6	-0.046335004
122	0xbdf38c1b	-0.11891957
123	0x3dc37006	0.09542851
124	0xbb025e8b	-0.0019892778
125	0x3c7328c8	0.014841266
126	0x3dc9cb0b	0.098531805
127	0x3d947a39	0.072498746
128	0xbd68af4b	-0.056807797
129	0xbd41d6c8	-0.047323972
130	0x3b433f91	0.0029792527
131	0x3df41c80	0.119194984
132	0x3c014253	0.007889348
133	0xbbc9e0f1	-0.0061608483
134	0xbda1af89	-0.07894809
135	0xbd34c38b	-0.044131797
136	0x3cc3cbe6	0.023900937
137	0x3d9c95dc	0.07645771
138	0x3d8c5ff9	0.06854243
139	0xbd215913	-0.03939159
140	0x3c7c72e1	0.015408249
141	0x3cce9890	0.025219232
142	0x3cae722e	0.02129468
143	0xbd881cab	-0.06646093
144	0x3d523116	0.051316343
145	0x3c01755f	0.007901519
146	0xbd13d2d0	-0.03608972
147	0x3d2cb0ec	0.042160913
148	0xbc663d9e	-0.014052777
149	0xbd18ec54	-0.037334755
150	0x3df7a2b1	0.12091578
151	0xbcbd38ad	-0.023098314
152	0xbd2d99b8	-0.042382926
153	0xbd987d94	-0.07445827
154	0xbc3843ae	-0.011246605
155	0x3d877ffa	0.066162065
156	0x3d4fba27	0.050714638
157	0x3d8fcfc9	0.07022054
158	0xbd981946	-0.074266955
159	0xbd080ce9	-0.033215437
160	0x3dd091a5	0.101840295
161	0xbc9831f2	-0.018578503
162	0x3d95f20f	0.0732156
163	0x3e0f6c3e	0.14006135
164	0x3d4186e2	0.047247775
165	0xbd5012c0	-0.05079913
166	0xbd81897c	-0.06325051
167	0xbcb734ad	-0.022363985
168	0xbd049f2f	-0.03237837
169	0x3b52d8de	0.003217272
170	0x3d01d46c	0.031696722
171	0xbd834bd8	-0.064109504
172	0xbd5b1eb5	-0.05349608
173	0xbdd20f8d	-0.10256872
174	0xbc018718	-0.007905744
175	0x3ced37a1	0.02895719
176	0xbd901f9b	-0.07037278
177	0xbd2a7277	-0.04161307
178	0x3d87c7dd	0.06629918
179	0xbd894761	-0.067030676
180	0x3b9ef9ff	0.004851579
181	0x3bb0d8a4	0.0053969193
182	0x3bd4489f	0.0064783837
183	0x3df80a6b	0.12111362
184	0xbd4e6be1	-0.05039585
185	0xbd523ae5	-0.051325697
186	0x3d103db1	0.035215084
187	0xbd43f02f	-0.04783648
188	0xbc485404	-0.012227062
189	0xbd291686	-0.041281246
190	0x3d85bfa7	0.065306954
191	0xba11005b	-0.0005531364
192	0x3d8bdf6e	0.06829725
193	0x3e088546	0.1333209
194	0xbda50757	-0.080580406
195	0x3d324111	0.043519083
196	0x3d239731	0.03993911
197	0x3d0aaa13	0.0338536
198	0xbd4d6ae3	-0.050150763
199	0xbb60f5eb	-0.0034326266
200	0xba8328c7	-0.001000666
201	0xbb182b98	-0.0023219343
202	0x3dd39816	0.103317425
203	0xbd85c7cc	-0.06532249
204	0xbc56726c	-0.013088804
205	0x3d92529a	0.07144661
206	0x3c6e25f1	0.014535413
207	0x3db3aa11	0.08772672
208	0x3d9e9bb9	0.077445455
209	0x3da7f44e	0.08200894
210	0xbd4b54f5	-0.04964157
211	0xbdc63df4	-0.09679785
212	0xbb36461e	-0.002781279
213	0xbd9f161f	-0.07767891
214	0xbd20cf93	-0.03926046
215	0xbd189aa9	-0.03725687
216	0xbd09a95c	-0.03360878
217	0x3d9b5295	0.07584111
218	0xbdad78cc	-0.08470306
219	0x3b964e7f	0.004586994
220	0x3d77fdf4	0.060544923
221	0xbd90c946	-0.0706964
222	0xbd4ce6ae	-0.05002468
223	0xbd92b076	-0.071625635
224	0x3d4fe26f	0.050753053
225	0x3c3ed6eb	0.01164792
226	0x3da3d433	0.07999458
227	0xbb9a09ed	-0.0047008903
228	0xbd420a2a	-0.047372974
229	0xbd91e4ac	-0.07123694
230	0xbdb4e246	-0.08832221
231	0x3d7ba83c	0.061439738
232	0x3d45b00e	0.048263602
233	0x3bbde064	0.0057945717
234	0xbca9b3e1	-0.020715656
235	0xbd8e9f8b	-0.06964024
236	0x3cc544cf	0.024080662
237	0x3deccfed	0.11563096
238	0xbcb798f9	-0.02241181
239	0x3c448e6a	0.011996845
240	0x3d95fddb	0.0732381
241	0x3dc9b569	0.09849054
242	0xbd537f8d	-0.051635314
243	0x3dadc436	0.0848469
244	0x3d57661b	0.05258761
245	0xbd92b945	-0.071642436
246	0xbd6384c0	-0.055546522
247	0x3c561949	0.013067552
248	0xbd4f3992	-0.050592013
249	0xbdbfe0b4	-0.093690306
250	0xbd0b62a4	-0.034029618
251	0x3d388096	0.045044504
252	0x3d2eee7b	0.0427079
253	0x3c82a935	0.015949825
254	0x3dbb3d68	0.09142572
255	0x3d1d1ad0	0.03835565

mlp2.2.bias f4 [50]
0	0x3d72e75d	0.059302676
1	0xbd96ecca	-0.07369383
2	0xbd9aed21	-0.0756476
3	0x3d14088a	0.036140956
4	0xbda6d199	-0.08145446
5	0xbde5a9a2	-0.112139955
6	0xbd640a25	-0.055673737
7	0xbdec73a0	-0.11545491
8	0x3c87e137	0.016586883
9	0xbca7ef1b	-0.020499757
10	0xbc73ef84	-0.014888648
11	0x3c24e4ee	0.010064347
12	0xbc89fb2f	-0.016843406
13	0xbc84529c	-0.016152672
14	0xbd85690d	-0.065141775
15	0x3d21e315	0.039523203
16	0xbddd9a3d	-0.10820434
17	0xbc0dda65	-0.008658026
18	0x3c9052fc	0.017617695
19	0xbe0195df	-0.12654828
20	0xbd364489	-0.044498954
21	0x3df3cee0	0.11904693
22	0xbd259d58	-0.040433258
23	0xbdcee782	-0.1010275
24	0x3ca66fdd	0.020317012
25	0xbda42bec	-0.0801619
26	0xbd0628ec	-0.03275387
27	0xbd2a36f2	-0.041556306
28	0xbdaf7e00	-0.085689545
29	0x3d068931	0.03284568
30	0xbcf060bb	-0.029343
31	0x3d8de028	0.0692752
32	0x3cb3b6ac	0.02193769
33	0x3d9882df	0.07446837
34	0xbdad0afd	-0.084493615
35	0x3c393128	0.011303224
36	0x3dbe1871	0.092820056
37	0xbccbe2d0	-0.024888426
38	0xbd9a9d22	-0.07549502
39	0xbc9ba0cb	-0.01899757
40	0xbc9db14d	-0.019249583
41	0x3d3d8cd0	0.046276867
42	0xbd9cea22	-0.07661845
43	0xbe06472f	-0.13113092
44	0xbd381bb0	-0.04494828
45	0xbc951b0d	-0.018201375
46	0x3da45fa8	0.080260575
47	0x3c570f82	0.013126256
48	0xbc641b6d	-0.013922554
49	0x3d4b9ebc	0.049711928

attention.0.weight f4 [100, 100]
0	0x3d4da3fa	0.05020521
1	0xbd800a1b	-0.062519275
2	0xbbd8fae6	-0.0066217063
3	0xbdc55d99	-0.09636993
4	0x3c6df273	0.014523136
5	0xbdb7efb2	-0.08981265
6	0xbd6aacb0	-0.057293594
7	0x3d0614a3	0.032734524
8	0x3bef2e02	0.0072991857
9	0xbdb8032c	-0.0898498
10	0x3ba3d7f7	0.0050001102
11	0xbd95791c	-0.072984904
12	0x3b98359b	0.004645062
13	0x3d3c87c3	0.04602791
14	0x3d92b52b	0.07163461
15	0x3ab8cf30	0.0014099833
16	0xbdab1993	-0.08354487
17	0xbda3f773	-0.080061816
18	0xbd4eddf1	-0.05050463
19	0xbc66513e	-0.014057456
20	0xbd983082	-0.07431127
21	0xbcb24cfe	-0.021765228
22	0x3d8b095a	0.06788893
23	0x3c176af0	0.0092418045
24	0xbc86b0b4	-0.01644168
25	0xbd924b3c	-0.07143256
26	0xbca04f2a	-0.019568998
27	0xbd72d6aa	-0.05928675
28	0x3cb36e6b	0.021903237
29	0xbd9f7f49	-0.077879496
30	0xbd494614	-0.049139097
31	0x3dc2ab23	0.09505298
32	0xbd9213fb	-0.07132717
33	0xbcc4fe98	-0.024047181
34	0xbbe806f5	-0.0070809075
35	0xbd8110fa	-0.06302066
36	0xbd4e31be	-0.050340407
37	0xbd1ac80e	-0.037788443
38	0x3d96da4c	0.073658556
39	0x3d879e64	0.066220075
40	0xbcf64702	-0.030063156
41	0x3da16795	0.07881085
42	0x3cbbc3e4	0.022920556
43	0xbdbefe98	-0.09325904
44	0xbb2db162	-0.0026503433
45	0xbd540893	-0.05176599
46	0x3d6619fe	0.05617713
47	0xbbe8b9f3	-0.007102245
48	0xbdc21f11	-0.09478582
49	0xbc73d870	-0.014883146
50	0x3d384d54	0.04499562
51	0x3ab122c4	0.0013514389
52	0xbdaf6010	-0.08563244
53	0xbb9c99e0	-0.0047790855
54	0xbcb918bf	-0.022594808
55	0x3d662146	0.056184076
56	0xbbaf86ad	-0.005356631
57	0xbc9ed9d0	-0.01939097
58	0x3d978d3b	0.073999844
59	0x3da8c051	0.082398064
60	0xbdbd13c2	-0.09232284
61	0xbd065252	-0.03279335
62	0x3c7685d3	0.015046555
63	0xbd3c78a3	-0.046013486
64	0x3c35c56d	0.011094433
65	0xbc1b0bd8	-0.009463273
66	0xbd66f37e	-0.056384556
67	0xbd87da05	-0.06633381
68	0x3d9bd683	0.07609274
69	0x3da1048e	0.07862197
70	0xbdc01c55	-0.09380404
71	0x3d721e50	0.05911094
72	0xbcae7d58	-0.021300003
73	0xbd1b6abd	-0.03794359
74	0xbdc0bcc4	-0.09411004
75	0xbd4bc745	-0.049750585
76	0xbcb8dc72	-0.022566054
77	0x3cbd4b85	0.0231073
78	0xbdc27953	-0.09495797
79	0x3c5c13d4	0.013432462
80	0x3d34dbe8	0.04415503
81	0x3d0904e2	0.033451922
82	0x3d27a4b4	0.040928558
83	0x3db76c53	0.08956208
84	0xbd19a82a	-0.03751389
85	0x3db7f5d9	0.089824386
86	0x3da0d96e	0.078539714
87	0xbbfed02e	-0.007776282
88	0xbd0a1c2d	-0.033718277
89	0x3d95f4ab	0.07322057
90	0x3d97f80b	0.07420357
91	0x3daf57eb	0.08561691
92	0x3cb4285e	0.021991905
93	0x3d689ba2	0.056789048
94	0x3d9356e0	0.071943045
95	0x3d6f3d29	0.058407936
96	0xbda73a0b	-0.08165368
97	0x3c29d4ce	0.010365678
98	0x3dac6592	0.084178105
99	0x3dc537f6	0.09629814
100	0xbd8daf3f	-0.06918191
101	0x3dbb740e	0.09152995
102	0x3d823801	0.06358338
103	0xbd894a9d	-0.067036845
104	0x3dbedd81	0.09319592
105	0x3d173acc	0.036921307
106	0x3d0866f3	0.033301305
107	0xbcec07ed	-0.028812373
108	0xbcaa0bca	-0.020757575
109	0xbcd142c2	-0.025544528
110	0x3cb7e3bf	0.022447465
111	0xbd1ff353	-0.03905041
112	0x3dabbfdb	0.08386203
113	0x3d1e4ef0	0.0386495
114	0xbc7d4248	-0.015457697
115	0xbd3b8ad2	-0.045786686
116	0x3cc972c1	0.024590852
117	0x3d6e8ba2	0.058238633
118	0x3c4f09a1	0.012636573
119	0x3da4b471	0.08042229
120	0x3d056b27	0.03257289
121	0xbd6f12df	-0.058367606
122	0x3d84740b	0.06467446
123	0xbd94cd72	-0.07265748
124	0x3c108c79	0.008822554
125	0x3db7972e	0.08964382
126	0xbdb93876	-0.09043972
127	0x3d5458b5	0.05184241
128	0x3dc78cd4	0.09743658
129	0xbd2eacb3	-0.042645168
130	0xbc14cf02	-0.009082558
131	0xbd939660	-0.07206416
132	0x3bdb6ad3	0.006696084
133	0x3c9abf28	0.018889979
134	0x3d8e73bb	0.069556676
135	0x3d908464	0.070565015
136	0x3c3914b6	0.011296442
137	0xbd4e9b93	-0.050441336
138	0xbc9471bc	-0.018120639
139	0x3dc7a853	0.09748902
140	0xbdb1dd3a	-0.08684774
141	0x3c3b3b8e	0.011427773
142	0x3dc852a0	0.097813845
143	0x3d827d5f	0.06371569
144	0x3c409eab	0.011756579
145	0xbdba2685	-0.09089378
146	0x3dc65a73	0.096852206
147	0x3d798928	0.060921818
148	0x3d9e8254	0.07739702
149	0xbd482b07	-0.04886916
150	0xbcc1404e	-0.023590233
151	0x3daf7215	0.08566681
152	0x3dbcf09a	0.092255786
153	0xbcacc8a9	-0.021091776
154	0xbcca1f92	-0.024673257
155	0xbd5f9bec	-0.054592058
156	0xbc96e3a6	-0.018419098
157	0x3d890961	0.06691242
158	0x3db6afe1	0.08920265
159	0x3da57b6d	0.08080182
160	0x3d8816ba	0.0664496
161	0xbd7485bd	-0.059697855
162	0x3d83e7d4	0.06440702
163	0xbdac0247	-0.08398872
164	0x3d2930e9	0.04130641
165	0x3d03695c	0.0320829
166	0x3daaf74c	0.083479494
167	0xbd1c8522	-0.038212903
168	0x3d30cbd4	0.043163136
169	0x3cb436eb	0.021998843
170	0xbd06868a	-0.03284315
171	0x3c2621e8	0.01013992
172	0xbdb6f8fd	-0.089342095
173	0xbd520896	-0.05127772
174	0xbd3dcc1b	-0.04633723
175	0xbc27f689	-0.01025165
176	0xbdc73de9	-0.09728605
177	0x3d40b5d6	0.047048412
178	0x3d351c39	0.04421637
179	0xbd5d597b	-0.054040413
180	0xbd77f24e	-0.060533814
181	0x3d1d3240	0.038378
182	0xbdab70b4	-0.08371106
183	0x3ca50561	0.020144166
184	0x3c4ee0af	0.012626811
185	0xbc965a7a	-0.01835369
186	0xbdb86a8a	-0.09004696
187	0x3d5e0a61	0.054209117
188	0xbd1dd923	-0.038537156
189	0xbcaaeb5c	-0.020864181
190	0xbdadf294	-0.08493534
191	0x3db00dfd	0.08596418
192	0x3cb6245a	0.02223413
193	0x3dc4ee0c	0.09615716
194	0x3d8ae743	0.06782391
195	0xbd2754b4	-0.040852264
196	0x3d98a13c	0.07452628
197	0x3d982e2f	0.07430684
198	0x3c60c514	0.013718862
199	0xbd1c90ac	-0.038223907
200	0xbc5ee64e	-0.013604714
201	0xbdb0bd89	-0.08629901
202	0xb8409b1e	-4.592083e-05
203	0x3dc2ab1b	0.09505292
204	0x3cec7b0a	0.028867263
205	0x3c0d593e	0.008627234
206	0xbd173772	-0.03691811
207	0xbdbc7d9b	-0.09203645
208	0x3d0f2249	0.034944806
209	0xbda6c9f7	-0.081439905
210	0x3caf11aa	0.021370728
211	0xbd7c755d	-0.061635364
212	0x3d3424be	0.043980353
213	0x3d3394be	0.043843023
214	0xbd2ebc54	-0.042660072
215	0xbd886daa	-0.06661542
216	0x3bb18230	0.005417131
217	0x3d9527ad	0.07282958
218	0x3d5fea4a	0.054666795
219	0x3d72f532	0.059315868
220	0xba5ce11a	-0.0008425877
221	0xbdb418f0	-0.08793819
222	0x3d1b07c4	0.037849203
223	0x3d9d834d	0.07691059
224	0x3d31775c	0.04332672
225	0x3d0f812a	0.03503529
226	0xbd8b92f4	-0.068151385
227	0x3dd437df	0.10362219
228	0xbd938065	-0.07202224
229	0x3d3b5582	0.045735843
230	0x3d491ae4	0.04909791
231	0xbabb5d80	-0.0014294833
232	0x3c7474c4	0.014920417
233	0x3cc8e668	0.024523929
234	0x3d26f622	0.040762074
235	0x3a9e29dc	0.0012066918
236	0x3d8b9695	0.068158306
237	0xbd4590b0	-0.048233688
238	0xba09d1fa	-0.0005257424
239	0xbc333c46	-0.010939663
240	0x3db52fe5	0.08847026
241	0x3ccde6a7	0.025134398
242	0xbd9f42e6	-0.07776432
243	0x3bbc1258	0.0057394914
244	0x3d75ea8e	0.060038142
245	0xbd1da850	-0.038490593
246	0xbd2185c6	-0.039434217
247	0xbd54990d	-0.051903773
248	0xbdaa0f36	-0.083036825
249	0x3d89c707	0.067274146
250	0x3d28feb6	0.041258536
251	0xbcfe8600	-0.031069756
252	0xba0e7111	-0.00054337183
253	0x3c64822e	0.013947053
254	0xbd0106a3	-0.03150047
255	0xbd0afa7f	-0.033930298

attention.0.bias f4 [100]
0	0x3c90e87f	0.017688988
1	0x3d92b086	0.071625754
2	0x3d81e856	0.06343143
3	0x3b140f85	0.0022592258
4	0xbdb531dc	-0.088474005
5	0xbb51602f	-0.00319482
6	0x3be21dfc	0.006900547
7	0xbcfedd0e	-0.031111266
8	0x3d8c9c8e	0.06865798
9	0x3da7f696	0.082013294
10	0xbd047e24	-0.03234686
11	0x3d9bccf2	0.076074496
12	0xbc287d02	-0.01028371
13	0x3d91f3c3	0.07126572
14	0x3d7b359a	0.061330415
15	0xbdb6f6ff	-0.089338295
16	0x3d9504cf	0.07276308
17	0x3d93e4da	0.07221384
18	0x3d991eb2	0.07476558
19	0xbd44f28c	-0.048082873
20	0x3ba4f67c	0.005034266
21	0xbd8186f2	-0.06324567
22	0xbd0c3107	-0.034226444
23	0x3d7bb9ff	0.061456677
24	0xbbf3975b	-0.0074338145
25	0xbd259a06	-0.04043009
26	0x3be15a70	0.006877236
27	0xbd2e8a51	-0.042612378
28	0x3bafff52	0.0053710127
29	0x3be553ac	0.0069985
30	0x3bda8868	0.006669093
31	0xbd21bbba	-0.03948567
32	0xbd09bcff	-0.033627506
33	0xbdc471ed	-0.09592042
34	0x3d56e3ce	0.052463345
35	0xbcc302f7	-0.023805125
36	0x3cea1766	0.02857561
37	0xba08ea0b	-0.00052228634
38	0x3c05c176	0.0081638
39	0x3cf8e423	0.030382222
40	0xbd7d4270	-0.061830938
41	0xbb2251c0	-0.0024767965
42	0xbdc5c801	-0.09657288
43	0x3da9049a	0.08252831
44	0x3da0d716	0.078535244
45	0x3d9857da	0.07438631
46	0xbcd93165	-0.026512811
47	0xbbb288ee	-0.005448452
48	0xbcaf9609	-0.021433847
49	0x3dc0e6e1	0.09419037
50	0x3a4ed495	0.00078899536
51	0x3da2daac	0.079518646
52	0x3d8e1262	0.069371
53	0xbdc6138d	-0.09671698
54	0xbc9ed6d0	-0.01938954
55	0xbb9d7b2f	-0.0048059444
56	0x3bba781c	0.0056905877
57	0x3d3b456a	0.045720495
58	0x3cecbe92	0.028899465
59	0x3d6d85f1	0.057989065
60	0xbd9e5ed8	-0.07732934
61	0x3d75a7ac	0.059974357
62	0xba0bf00e	-0.00053382
63	0x3db95187	0.09048753
64	0x3ca1ba29	0.019742088
65	0x3c16a705	0.009195094
66	0x3dbd5f9a	0.0924675
67	0xbc8c60c6	-0.017135989
68	0x3d8508aa	0.06495793
69	0xbab11b72	-0.0013512208
70	0xbcbbe7ed	-0.02293774
71	0xbdad1d53	-0.08452859
72	0x3de39994	0.11113277
73	0x3d61aa7f	0.05509424
74	0x3dbd6462	0.09247662
75	0xbd371534	-0.044697955
76	0xbdbfeef9	-0.09371752
77	0xbd2e8d21	-0.04261506
78	0x3b972b97	0.0046133506
79	0xbd8b643a	-0.06806226
80	0xbd823987	-0.06358629
81	0xbd2ed03e	-0.042679064
82	0x3d144a59	0.036203716
83	0x3da6e6ec	0.081495136
84	0x3da08f6e	0.07839857
85	0xbc9af989	-0.018917816
86	0x3c82db1a	0.015973616
87	0xbdcd0669	-0.10010988
88	0x3d892e1a	0.06698246
89	0x3ccd35cf	0.025050072
90	0x3cb59f31	0.022170635
91	0xbd9bc45c	-0.07605812
92	0xbdb7ad18	-0.08968562
93	0x3c14adcc	0.0090746395
94	0xbd9bf016	-0.07614152
95	0x3db9d1b9	0.090732045
96	0xbc22089d	-0.009889749
97	0xbda5622b	-0.08075365
98	0x3cb1213e	0.021622296
99	0x3dd04f2b	0.1017135
