sarl_star_ros/CrowdNav-nowall/crowd_nav/data/sub/output_11_dgs001/rl_model.pth (torch_old, 349196 bytes, 20 tensors)

mlp1.0.weight f4 [150, 13]
00000000: 2885 17be 4703 943e b4f3 03be 71af 533e
00000010: 7619 2abe 39ac 353e 3744 853e a51e 3abe
00000020: 78cd d33d 53fc 1ebe 25e3 66bd 820a 823d
00000030: ed18 1cbe a469 123e a11d a5bd 9055 bb3e
00000040: 34e0 7e3e 737f 653e e4b1 6dbe 3de4 663e
00000050: bc53 80be 41e9 b43d f624 febc 9460 64be
00000060: fa42 38bd 124c d5bd 5856 17be bafc bc3c
00000070: f6f0 a13e 7175 493e 196e 6ebe 8da3 23bd
00000080: 898e 94be 3ede de3c d73a 38be 5772 75be
00000090: 643a 7a3e c647 e73c 2963 5c3e f51b 273e
000000a0: 271f 25be 0f10 213d 5bba e53d 538e 83be
000000b0: 835e 303e a35a 953c 9a52 c73d e851 84bd
000000c0: b1c6 1cbe 80ab 673e 61d4 9e3e bf8d 8f3c
000000d0: 9784 5bbe 2a66 7abd 73bb 8cbe 968b 373e
000000e0: a02a a33c e514 f4bd 0a4a 4c3e aa12 6fbd
000000f0: 1de6 82bd 2d6c 673e 5911 37be 3a4c 853c
00000100: a548 2ebd 2553 67be e319 4cbc 8aa7 0fbe
00000110: 0eeb 943c 78c9 c7bd 1eed 9c3d a065 87be
00000120: 1e8e 23bd 4a4a d13d 5f06 02be 0865 2d3e
00000130: 4668 5c3e d332 fcbd 89d0 633d 79f3 1f3e
00000140: e7f2 80be a3b3 f5bc 4634 183d 220f eabd
00000150: 7d0c 43be c3bb 29be 07e9 80bd 3f89 ff3d
00000160: b3f9 4ebd e48f 87be 7f8e 90bd a8ae 213e
00000170: b500 71be 7fb6 83be 584c 823e d9a6 13be
00000180: 9f33 903e 6caf 8f3d 5759 033e 0d81 d33e
00000190: 38f3 15be 42d5 dd3d db20 6a3e 0594 7fbe
000001a0: bec8 64be 0ce9 7d3e 5a1c 6abe a05b 41be
000001b0: bc09 ee3d 8ac5 023e f43c 9dbe 118e b83d
000001c0: 27ef 36bd a44e 8f3d eec3 6d3e b65b 863e
000001d0: e97c 35be 5222 223e 1bbc cabd c32e 7fbe
000001e0: 2578 803c 9626 60be a913 1cbd 91e5 d2bd
000001f0: 9588 a6be 0258 7abd ed64 16bd ac99 39bd
00000200: 49e3 e33d 5ecd 4d3e 28e3 1f3b 3228 173e
00000210: 84f7 a2be b6f9 6c3e 24b3 22be 3fa6 46bd
00000220: c69e 6abd de1a 0cbe 0a97 903e 4f77 71bc
00000230: 6652 81bd 2446 d1bd 0bf9 f5bc fc5d b9b9
00000240: 19f0 943e 67a9 30be 96d0 8c3c e931 043e
00000250: 21f9 9cbb c522 ce3c 062a 0cbe 3b8e f6bc
00000260: 5106 b4be 51dc 5dbe dbd0 fe3d 1bf7 fdbd
00000270: 6c00 c0bd 3af5 9a3e 67af 31be 8a16 63bd
00000280: c492 c33d aed1 0fbe 8087 6fbe 258f 873e
00000290: 0b74 823e c6d8 27be b148 11be 14e1 293e
000002a0: 056e 11be 08e7 31be 2d47 273e 127f 65be
000002b0: cee9 103e 09b8 dd3d bba7 063e 6256 abbc
000002c0: 4fbe 56be db88 f93d 041a 84be 69f2 20be
000002d0: 9e45 2ebe 2de4 49be 69f3 20bd c6ec f23d
000002e0: 343e a63d 2d88 30be 17ef d4bd 3fe2 40be
000002f0: f981 fc3c 8b39 743e 598b 71be 5a7c febd
00000300: 871b 203e 8595 a3bd 1dec 5c3d ee95 ee3d
00000310: 0008 1d3e 7867 4fbe f006 783e 6b38 503e
00000320: 33d6 5f3b 270b 4ebe 2751 673e b3fb 863e
00000330: 3437 9cbe d33c 4c3e ce37 0b3e 5ad8 c93d
00000340: 92ef 8abe 61d1 42bd 0d7f 523d 09fb 85be
00000350: bc52 dbba fcad 80be f432 e4bc 1fe5 843e
00000360: 7da6 14be e37d 553e f1a1 5cbe 1e99 943e
00000370: 443b 8abc 5fe2 ddbd fd1d 873e 31a2 8bbe
00000380: e3af 503e 060c 27be 3ede f8bd 2223 09be
00000390: d410 753e ad5e 1bbe 7f20 4bbe a0be 9dbd
000003a0: 54ee 1cbe b2a5 943e 5328 5f3e 9c8d 1cbe
000003b0: bc6b 42be dd29 80bd d412 8bbd 1979 6cbe
000003c0: 642d b3be a286 e9bd f360 8ebb 655c 3b3d
000003d0: 61c0 89be c7b3 8dbe e7c3 36be 4b0c d23d
000003e0: d083 ccbd edce 1ebe 32a4 84be acd9 0ebe
000003f0: aa1d 1cbe 45ad 79bd 92f5 76be 0476 33bb
-0.14796889 0.2890875 -0.12885934 0.20672394 -0.16611275 0.17741479 0.26028606 -0.18175752
0.103419244 -0.15525942 -0.056368966 0.063496605 -0.15243883 0.14298111 -0.08062292 0.36588717
0.24890214 0.224119 -0.23212391 0.22548003 -0.25063884 0.08833552 -0.031023484 -0.22302467
-0.04498575 -0.104149 -0.14779031 0.023069728 0.3162915 0.19673707 -0.23284186 -0.039950896
-0.29014996 0.027205583 -0.17991196 -0.23969398 0.24436337 0.028232466 0.21522202 0.16319259
-0.16125165 0.039321955 0.11217185 -0.25694522 0.17223553 0.018231696 0.09732552 -0.06460935
-0.1531017 0.22624016 0.31021407 0.017523644 -0.21437298 -0.061132587 -0.27486762 0.17924342
0.019917786 -0.11918048 0.19950119 -0.05836741 -0.06391547 0.2259986 -0.17877711 0.0162717
-0.042549748 -0.22590311 -0.012457344 -0.14028755 0.018178489 -0.09755224 0.07662414 -0.2644472
-0.039930455 0.10219248 -0.12697743 0.16933072 0.21524152 -0.123143815 0.055618796 0.15620221
-0.2518532 -0.029992884 0.037159227 -0.114286676 -0.19047733 -0.16575532 -0.062944464 0.124773495
-0.0505311 -0.26476967 -0.07058429 0.15789282 -0.23535426 -0.2572517 0.2544887 -0.14419116
0.28164384 0.07015881 0.12827049 0.41309395 -0.14643562 0.10831691 0.22864096 -0.24958809
-0.22342202 0.24795932 -0.22862378 -0.18882608 0.116229504 0.12770668 -0.30710566 0.09011472
-0.044661667 0.069974214 0.23219272 0.26241845 -0.1772343 0.15833405 -0.098991595 -0.24920182
0.01568229 -0.2188972 -0.038104687 -0.102976926 -0.3252608 -0.061119087 -0.036717344 -0.04531257
0.111273356 0.20097873 0.002439687 0.14761427 -0.31829464 0.23142132 -0.15888649 -0.04849839
-0.057280324 -0.13682124 0.28240234 -0.014737918 -0.063145444 -0.102184564 -0.03002598 -0.00035355974
0.2908943 -0.17252122 0.017189305 0.12909664 -0.0047904407 0.025163064 -0.13687906 -0.030097118
-0.3516107 -0.21666075 0.1244218 -0.12400647 -0.093750805 0.30265218 -0.17352067 -0.055441417
0.09549478 -0.1404483 -0.23391533 0.26476398 0.2547916 -0.16391286 -0.14187886 0.16589767
-0.14202125 -0.17373288 0.16335745 -0.22411755 0.1415169 0.108261175 0.13149922 -0.020915214
-0.20971034 0.12184306 -0.25801098 -0.15717472 -0.17018744 -0.19715948 -0.039294634 0.11861567
0.08117333 -0.17239447 -0.10397165 -0.18836306 0.030823695 0.23850076 -0.23588313 -0.12426062
0.15635501 -0.07987503 0.053936113 0.116496906 0.15335083 -0.20254314 0.24221396 0.20334022
0.0034154772 -0.20121442 0.22589551 0.26363906 -0.30510867 0.19945078 0.13595507 0.09855719
-0.27135903 -0.04756296 0.051390696 -0.26168087 -0.0016733031 -0.2513274 -0.027856328 0.25956056
-0.14516635 0.20848803 -0.2154615 0.2902307 -0.016873963 -0.108341925 0.26390067 -0.2727218
0.20379595 -0.1631318 -0.12151764 -0.13392308 0.239322 -0.15172835 -0.19836615 -0.077023745
-0.1532529 0.29032665 0.21792726 -0.15288395 -0.1898641 -0.06257985 -0.067907006 -0.2309307
-0.34995568 -0.11402632 -0.0043450533 0.04574241 -0.26904586 -0.27676222 -0.17848168 0.10256251
-0.09986079 -0.15508623 -0.2590652 -0.13950223 -0.15245691 -0.06095626 -0.24117115 -0.0027383575

mlp1.0.bias f4 [150]
00000000: b95f 913e e8cc 84be f2c4 fa3b c0cf 85be
00000010: 7658 473e 59d9 193e 9075 583e 04c1 dabd
00000020: 910a 093e 3454 21be 1886 1b3e 3d2d 4cbe
00000030: 40b9 58be 4330 30be 11a8 97bd 2320 6bbe
00000040: 8936 da3d 283c a03e e057 343e 9194 0c3c
00000050: 3a64 6e3e f830 4bbd dede 40bd 76e6 75be
00000060: cc1f b7bd 6888 1fbe a1b0 703e 6ae1 453e
00000070: 6983 8a3e b949 b5be a50b 22be 3741 903e
00000080: 60f3 1ebb 453d d93d 1c54 563e 4661 803e
00000090: e9c0 31be 35b2 ecbd ce4e a13e 82d4 9abe
000000a0: 4da9 08be 51cc 6ebe f07b 0ebe d5a2 783c
000000b0: 8e24 5e3d 325e 0a3e a3bf eabd 0b0a 423e
000000c0: 640d 2dbe cac8 c3bd 9a3b 773e 429d 60be
000000d0: 488a 723e 23df 5c3c d779 d23d 66eb 8cbe
000000e0: 2341 2ebe 3a7b 41bd a804 403d 4d37 3cbe
000000f0: 6a86 c93d ba36 8fbd f191 1d3e 6e22 303e
00000100: 2d53 383e f85b 363e 631d 1cbe e585 f8bd
00000110: 9b77 953d 0b87 f53c 36a5 e6bd dae6 023e
00000120: 091c dfbd 7f7d 7abd e93c 7e3e 1299 503e
00000130: 4002 7a3e 5fbd 4e3e cc8c 08be eba4 1d3e
00000140: 580a 3ebe f2a8 133e 1ca9 06be d6a1 f83d
00000150: 150f 17be 463a 28be 3f58 03be 67c2 7dbe
00000160: f557 6cbd b44a 8bbd 55c1 9d3d a420 543e
00000170: 78a0 bbbd 809f 91be d385 afbc 9fb4 92be
00000180: 722e 4cbd c18e 453e a170 35bd 348e e9bc
00000190: 8129 86be db96 7e3e d27c 333e 92e7 183d
000001a0: 6afc 2cbe e2e8 6b3e f182 05be b210 553e
000001b0: ca7a 863e 4701 053e 7a3d 01bd 5df2 043d
000001c0: 5079 583e 6275 46bd b617 8a3e d447 66bd
000001d0: 8253 d3bd 594e fc3d faf5 ca3d b0da 703d
000001e0: f9bc 293e e6bf 1fbe c158 f5bd 1d88 103e
000001f0: b580 823e 1e7a bfbd d319 453c 7cac 3f3e
00000200: 8258 d3bd 95fa 10bd cebb 96bd 79ce 68be
00000210: e2e8 a03d 628d 8a3e 79b2 003e 8f15 2fbe
00000220: 9744 853e 3c62 6e3e 12c9 bc3c 3d94 7dbe
00000230: 5549 823d df63 823e e3a9 503e 9dca abbd
00000240: 52ea b1bd 17be 95be 0e2e 873e 84e4 4e3e
00000250: b13a 15bd 2237 8fbd
0.28393343 -0.2593758 0.0076528722 -0.26135063 0.19467339 0.15024318 0.21138597 -0.10681346
0.13382937 -0.15754777 0.15187871 -0.19939132 -0.21164417 -0.1720591 -0.07405103 -0.22961478
0.10654933 0.31295896 0.17611647 0.008580343 0.23280421 -0.049607247 -0.047087543 -0.24013695
-0.08941612 -0.15579379 0.23504879 0.1932427 0.27053383 -0.35407808 -0.15824755 0.28174755
-0.002425395 0.10607389 0.20930523 0.25074214 -0.17358746 -0.11557428 0.31505436 -0.30240256
-0.13345833 -0.23320128 -0.13914466 0.015175541 0.05423408 0.13512495 -0.11462333 0.18949144
-0.1689964 -0.09559782 0.2414383 -0.21934989 0.23685563 0.013480934 0.10277145 -0.27523345
-0.17017035 -0.04723666 0.04687944 -0.1838047 0.098400906 -0.0699286 0.15387703 0.17200634
0.18000479 0.17808521 -0.15245585 -0.12134913 0.072982036 0.02997162 -0.1126198 0.12783375
-0.10894019 -0.06115484 0.24827923 0.20370892 0.24414921 0.20189427 -0.1333496 0.15394942
-0.18558633 0.14419916 -0.13150448 0.12140243 -0.14751847 -0.1642848 -0.12826632 -0.2478119
-0.05770107 -0.06801358 0.07702891 0.20715576 -0.09161466 -0.28442 -0.021426117 -0.28653428
-0.04984898 0.19292738 -0.044296864 -0.02851019 -0.2620354 0.24862234 0.17528084 0.037330218
-0.16893163 0.23038056 -0.13038231 0.2080715 0.26265556 0.12988769 -0.03155277 0.032457698
0.21140027 -0.04845179 0.26971215 -0.056220844 -0.10318662 0.12319631 0.099101976 0.058802307
0.16575994 -0.15600547 -0.11979819 0.14114423 0.2548882 -0.09349464 0.012030083 0.18718141
-0.10319616 -0.035395224 -0.0736004 -0.22735013 0.07856919 0.27060992 0.12568082 -0.17098068
0.26028892 0.23279661 0.023045097 -0.2476358 0.06361643 0.2546682 0.20377307 -0.08388255
-0.08687271 -0.2924659 0.26402324 0.2020436 -0.036432926 -0.069929376

mlp1.2.weight f4 [100, 150]
00000000: 87b1 943d c9be 23bd b7fc a23c c894 a63d
00000010: dbd7 1cbd f084 803d 2cda 5abd 7f42 b93d
00000020: c122 3bbd 4ddb 053d 6819 c83c cb30 013c
00000030: 08aa bcbc 26cc 043d ecc0 833d b672 693b
00000040: cf88 003e f728 03bd 19ca 823d b6e0 d8bd
00000050: 9ad2 b03d e6e7 9e3d ef63 c6ba 77fb acbd
00000060: 63e0 6e3d 0f1f c4bc 574e cf3b ee6c a3bd
00000070: 822c fe3b 270c 9dbc 8809 9f3d d42b 15bd
00000080: 4cd8 2cbd 9f4f bb3c 6291 af3c 2ae3 143d
00000090: 4ce7 4ebd 6964 be3d b989 81bd e51b 363d
000000a0: 7785 73bd de78 8a3d 0125 683b 4089 9bbc
000000b0: c8f2 41bd 6a88 2bbc d39e e93c a7f3 73bd
000000c0: 934b a93d b67f 50bd 46ad 543d f069 a0bd
000000d0: ae76 8a3d 03dc 8d3d a04d 68bd 3cd7 8dbc
000000e0: 02dd a23d 8ca5 e4bd 86a6 88bd 5b72 3cbd
000000f0: 2507 a03d 3d69 703d 0b9a ccbc 4905 973d
00000100: 7687 92bc 6527 90bb 22fb dabd ef4c 3dbd
00000110: f8e5 823d 5031 c23c 361e 983b 0455 203c
00000120: 6ed1 c83c 810c f63c d788 86bc 49c2 b63d
00000130: ea2e 67bd ac06 bf3c 33b6 523d 9ab9 2abd
00000140: ee52 02bd fb2b 8fbd 6f54 ab3c e81d cf3d
00000150: e7f7 a13c a4be 9a3b 6c2e 78bd 24d7 5fbd
00000160: b246 aaba 4352 26be beae f03b cc37 bcbc
00000170: cb53 19bc 97d8 143c 524f 3ebd 905a f73b
00000180: 7cda 62bd 9fb1 453d 783a af3c 9951 54bc
00000190: edd1 b7bc a60e 5ebd 9faa 0ebc 7c08 c23b
000001a0: b36a 263d 935c c53c ff9c d53d 7c26 bb3d
000001b0: 4c50 2c3d fcc4 333d 7c99 20bd 8553 dfbc
000001c0: 0795 973d 8942 8c3d 75c6 913d 42de d5bd
000001d0: c11f 6d3d 2931 97bd 8367 9dbc adbd 88bc
000001e0: d709 aabd 7f70 983d d8e7 993d 2327 f7bd
000001f0: a74b f03c c854 f93a 9c03 be3d bc4b 843d
00000200: 1e16 ca3b 49af bdbc 1d1b 9abd 8eb1 853b
00000210: bbc5 9f3d 6947 e73c 71ed 6dbb f157 9b3d
00000220: 5256 673d c04e 0ebc a9cb b8bd 068b 873d
00000230: f405 bdbd ab80 a93d f0ab eabd 9efd e03c
00000240: 6b4e d93c 6328 a8bc e4e8 c43b 0d6c 1a3c
00000250: 4185 91bd b694 d4bb deb8 a1bc bdb6 b03d
00000260: 02b0 02bd 279b aebc 9d5f 153d 2630 d1bc
00000270: f424 83bc 0719 1dbd a6f6 2bbd c5e7 74bc
00000280: 52bc 903c e416 ae3b 82bb 00bc 8a15 5abd
00000290: c193 85bc 9054 573d 3c4b c0bc ba57 1f3d
000002a0: ac81 b8bc 9584 19bd b8fc 2c3d 48cf a13c
000002b0: 5fbc 563d 08c4 2fbd 7aab 263d d014 7ebd
000002c0: ed32 9a3c 0791 4fbd 6470 243c 4ccb bd3c
000002d0: 31fd fcbb 93b4 9dbd b420 edbc 6a33 28bd
000002e0: 6903 a1bd 772b 623d 3c5f 42bd 45c2 c93d
000002f0: ddd7 b4bc 8520 d83b b111 5dbd cb87 06bc
00000300: 36fb 25bd 359b a1bd 74f8 4cbd 5f18 cd3c
00000310: e3f6 a53c 3345 d63c 5c5d 8b3d 50ae 773d
00000320: ae3f d43c 4a26 40bd be69 87bd 1def 143d
00000330: 9746 b9bc 360f 843d a242 9bbd 4ba9 52bd
00000340: cfdf 8abd c30d cebc 5b5f 0f3d ba99 e5bc
00000350: 7f0b 263d 10b9 34bd b14f 863d 3004 953d
00000360: efff 083d a60e 4ebd ca79 913c b26c a43c
00000370: eb09 06bd 320e 82bd 0a72 2b3c 30ee f43c
00000380: 54ac c7bc 85d0 95bd 88e7 50bd 01fe 9c3d
00000390: 3a11 8ebd 4e61 62bd c561 62bb ce98 0bbd
000003a0: e965 70bd e0ef 26bc 6d16 413d 0500 fdbc
000003b0: 8ef3 2a3d c34d 563d 902b 13bc 8624 f83c
000003c0: 945a 17bd b021 b7bd 4722 1cbd 9441 dd3c
000003d0: 1368 32bd 955e 4bbd a476 9cbc d9f7 2cbd
000003e0: 3c82 e73a 779f 0b3d a7d7 a2bc 6cd3 6ebd
000003f0: efe2 4ebc 6961 8c3d 26d5 033c 9d4d 5f3d
0.07260423 -0.03997687 0.019895894 0.081338465 -0.038291793 0.06275356 -0.05343072 0.09045886
-0.04568744 0.032679845 0.024426177 0.007885168 -0.023030296 0.032421254 0.06433281 0.0035621352
0.12552188 -0.03202149 0.06386203 -0.10589735 0.08633919 0.07759075 -0.0015135984 -0.084464006
0.05831946 -0.023940591 0.0063264775 -0.07979761 0.0077567706 -0.019170834 0.0776549 -0.03641875
-0.042198464 0.022865115 0.021431629 0.036349453 -0.05051355 0.092964955 -0.06325097 0.044460196
-0.059453454 0.06761335 0.0035422447 -0.018986344 -0.047350675 -0.010469535 0.028518116 -0.059558537
0.08266368 -0.050903045 0.05192306 -0.07832706 0.067609176 0.069267295 -0.056714654 -0.017314546
0.0795231 -0.11164388 -0.06672387 -0.046007495 0.07813863 0.058694113 -0.024975797 0.07374055
-0.017886858 -0.0043992274 -0.10692431 -0.046215948 0.06391519 0.023705155 0.0046422733 0.009785894
0.024513926 0.03003526 -0.016422672 0.08923776 -0.056441225 0.023318611 0.05144329 -0.04168091
-0.03181737 -0.069908105 0.020914285 0.10113126 0.01977153 0.004722433 -0.060591146 -0.054648533
-0.001299104 -0.16242318 0.0073450496 -0.022975825 -0.009358357 0.009084842 -0.046462364 0.0075486377
-0.055384144 0.048265096 0.021390185 -0.0129589075 -0.022438968 -0.05421319 -0.008707671 0.0059214216
0.0406291 0.024091994 0.10430335 0.091382 0.042068765 0.04388903 -0.039208874 -0.027261505
0.074014716 0.06848628 0.07117931 -0.10442783 0.05789161 -0.073824234 -0.019214397 -0.016692007
-0.08302658 0.07443332 0.07514924 -0.120680116 0.029332949 0.0019022459 0.09278032 0.06459758
0.0061671874 -0.023154872 -0.07524703 0.004080004 0.07801386 0.028232293 -0.0036304856 0.07585133
0.056478806 -0.008685768 -0.0902322 0.066183135 -0.09229651 0.082764946 -0.11458576 0.027464684
0.02652665 -0.02052707 0.006009208 0.009425175 -0.07105494 -0.0064874543 -0.019741472 0.086286046
-0.031906135 -0.021314217 0.036468137 -0.025535654 -0.016008832 -0.038353946 -0.04198327 -0.014947836
0.017667923 0.0053127874 -0.007857205 -0.053243198 -0.016305806 0.05257088 -0.023473375 0.038902022
-0.02252277 -0.037479956 0.0422332 0.01975216 0.05242574 -0.04291156 0.040690877 -0.062031567
0.018823111 -0.05067542 0.010036562 0.023168229 -0.0077206125 -0.077004574 -0.028946258 -0.041064657
-0.078619786 0.055217233 -0.047454104 0.09851507 -0.022075588 0.0065956735 -0.05397195 -0.0082110865
-0.040522777 -0.078909315 -0.05004163 0.025036035 0.020259326 0.026156044 0.06804916 0.06046897
0.025909271 -0.046911515 -0.066119656 0.03636085 -0.022616668 0.06448214 -0.075810686 -0.05143098
-0.06780969 -0.025153046 0.035003047 -0.028027404 0.040538307 -0.0441218 0.06558169 0.07276189
0.033447202 -0.05030694 0.017758269 0.020071361 -0.032724302 -0.06350364 0.010464201 0.029898733
-0.024374165 -0.073151626 -0.051002055 0.07665635 -0.069368795 -0.05526858 -0.0034543138 -0.034081273
-0.05869094 -0.010189027 0.047140528 -0.030883798 0.041736178 0.052320253 -0.008982554 0.030290853
-0.036951616 -0.08941972 -0.038118627 0.02700881 -0.043556284 -0.049650747 -0.019099541 -0.042228553
0.0017662714 0.034087624 -0.019878222 -0.058307096 -0.012627347 0.06854517 0.008046424 0.054517377

mlp1.2.bias f4 [100]
00000000: cee2 923c 2960 153d bd26 803d a6dd 313d
00000010: adf8 53bd d06c 053d 2dd2 18bd be13 963d
00000020: 72ba 28bd 19bc f2bd b1f3 15bd af83 2bbd
00000030: 71b5 883d be7f b7bb fde3 83bc c829 a3bd
00000040: 0766 153d 07b0 233d e3e4 813c 62f4 933d
00000050: 58e1 8fbb c91b 263c 7bf2 853d 3590 5ebd
00000060: 0454 b93d 921e 033c b204 953d 4c4d d93d
00000070: 84de 603d dea7 693d 59c2 643d 0edb 393c
00000080: ae49 b3bc c090 0ebb 9b5f 303d 5fad 0bbd
00000090: c4bb 2b3d 05e9 593d 96d7 8ebc 4fce 773d
000000a0: faeb 90bd fc59 2abc c938 5fbc bd07 84bc
000000b0: 5cf5 ca3a 0355 1e3d 27ea 0f3d 9014 45bd
000000c0: 8751 ebbc ba96 623d b20a e23a d089 b73d
000000d0: 26db bebc e84c 51bd 2a6b 9bbd f1e1 7a3d
000000e0: f63f 1cbe c85a 98bc 75e2 3e3d 4937 e93c
000000f0: 39ff 7cbd fcc4 0fbd 6145 b93d ef25 c83d
00000100: 2a83 e13c abc8 e5bc df9b 6bbd 4975 04bd
00000110: b05c c4bc 9d95 8ebc f6ea 4f3d 3f44 4c3d
00000120: 13d3 623c 4dcd 9abd bff1 a73d c654 21bd
00000130: 73ef dbbc 0990 4e3d d2c1 df3c ac97 a3bd
00000140: 6e6e 723c 621c 94bd 2c1e 08bd 2182 bb3c
00000150: f729 9a3d dc52 6ebd a187 18bd bcbe 5f3c
00000160: 9222 8ebd 9e78 b8bb 2cd0 8cbc fac9 04bc
00000170: 4f09 ad3d 072f 63bc 436a 7d3d 5d4a a83d
00000180: deb1 933d bae2 8abc 189f 0b3d 4347 a7bd
0.017930415 0.03646866 0.06257389 0.04342427 -0.051750828 0.032574475 -0.037309814 0.07327984
-0.041193433 -0.11852283 -0.036609355 -0.04187363 0.06675232 -0.005599945 -0.016099924 -0.079669535
0.036474254 0.039962795 0.015856212 0.07224347 -0.0043908767 0.01013846 0.0654039 -0.054336745
0.09049228 0.008002894 0.07276286 0.10610446 0.054899707 0.057044856 0.055849407 0.011343731
-0.02188572 -0.0021753758 0.043059926 -0.034100886 0.041927114 0.05320074 -0.017436784 0.060499486
-0.07076259 -0.0103974305 -0.0136243785 -0.016116971 0.00154845 0.038655292 0.035135414 -0.048115313
-0.028725399 0.055319525 0.0017245619 0.089618325 -0.023297857 -0.051098734 -0.07588799 0.06125063
-0.15258774 -0.018597975 0.046602685 0.028468745 -0.061766837 -0.03509997 0.09046436 0.0977286
0.027528364 -0.028049788 -0.057521697 -0.032338414 -0.023969978 -0.017405326 0.050761186 0.049869772
0.013844269 -0.07558689 0.08200406 -0.039387487 -0.026847577 0.05043033 0.0273141 -0.079879135
0.014796836 -0.07231976 -0.0332319 0.022889199 0.075275354 -0.05818449 -0.03723872 0.013656314
-0.069401875 -0.005629613 -0.017189108 -0.008104796 0.08449041 -0.013866193 0.061868917 0.08217309
0.0721166 -0.016953815 0.03408727 -0.08167889

mlp2.0.weight f4 [100, 100]
00000000: fc5b a9bd a26a abbd af90 983d 8567 53bc
00000010: e8db ae3d 9327 95bd ccf8 6dbd 1420 11bd
00000020: 56ac b53d 908d 4c3d d9a9 123d 7d6b 1fbc
00000030: d343 b5bd c045 47bd 2bc5 e23d e586 1e3d
00000040: ab67 813d 9abe 18bd 80f2 d23d 3284 aabb
00000050: 1c98 88bc de09 c83d 42be 9dbd 9419 71bd
00000060: 88b7 00bd 5a3f 373d 8523 2a3d df19 bb3d
00000070: ef6e b6bd 6969 233d fccc bfbd 7569 e6bc
00000080: a1c2 a0bd c159 973d 9d6e bdbd bd22 8fbd
00000090: 2b85 8cbd 2dab ab3d 8c79 99bd 2eab cd3d
000000a0: 232b b0ba b17c 3e3d 3c10 de3d 473b 3d3d
000000b0: 805a a1bd 58b0 d2bd 6384 acbd 58fa d5bd
000000c0: 52b5 f6bd 70e8 683c 1632 a93d d414 a83d
000000d0: 4772 613d b89d 8bbd 2feb 953d b2e8 4fbd
000000e0: e763 6abd 5edb 083d effe adbc eb83 353d
000000f0: c0a0 c83c 443c 8cbd 9bae b3bc 9bb1 a7bd
00000100: ce4f b13b a3d5 303c 8f1c e1bc 55be 793c
00000110: d956 c3bd 120e b2bd 4486 273c f01c 85bd
00000120: 8b71 e13d e161 dc3d 41ce ae3c ae7b 2cbd
00000130: 6459 a4bb 3351 97bc 41ff 28bd 5300 b8bc
00000140: e5c5 a43d 652d 043d 3488 0bbd 2721 a0bd
00000150: 6a1b bcbd 21d6 2e3d 95c9 a9bd 27b1 c53d
00000160: b259 bdbd d46f 333d e6a2 423d d6ef 5b3d
00000170: c22f d33c af7b 3bbd 7d82 163d 448c bf3d
00000180: 0d95 a9bd 740e 99bd 9f8d 44bd 648f f3bc
00000190: 5fdd 29bd 407f c8bd bf3e 313d 8dcc a63d
000001a0: 9f23 78bd 2601 ffbb e9ab c63d 0491 833d
000001b0: 7adc 68bd c991 00be d407 85bd 1402 ce3c
000001c0: 5ca4 fbbb 0c48 a6bc cdb0 413d be6d 7e3d
000001d0: 28ea b13d 8041 9bbc 6c72 efbd 41b4 4f3d
000001e0: 76b8 72bd 08f5 833c 7061 2dbd 6852 673d
000001f0: 6722 8e3d 149a 683d 4c35 713c 574c 173c
00000200: 0fd6 af3d 914b 1ebc 0af7 88bd 2705 99bd
00000210: bca4 5fbd 0b8c c53d 8100 923c e62f 2fbd
00000220: 03e8 373d a68b 283d fe96 103d f223 b73d
00000230: aec8 a0bd 2169 97bd 98fd 8ebd a5c7 283d
00000240: 459a 0bbd 1bd8 b4bd 2528 073d df79 c33c
00000250: 9216 a43d a36e 9cbc 2d72 3a3d 2d47 94bd
00000260: 41e5 933c 389e 68bc 829d fa3d d6d7 c8bd
00000270: eb25 17be 7491 b3bd 856a bbbc 9aed 00bc
00000280: 83d4 ba3d cd0a b23c 2142 a4bd 6e44 3bbd
00000290: 28e7 e8bc 44ba 803d 6f4b 533c 503b 3d3a
000002a0: 1a4f be3d 7706 033c 04e2 593d 1b06 78bd
000002b0: 6e05 10bd 556d 4b3c f68f 96bd 1549 033d
000002c0: 8e7b 6abd ed40 e53c 5cf4 8abd 17d6 673d
000002d0: c0dd aabc 8b78 d8bc 5a44 2abd 1f9b 193c
000002e0: 8f3d f03a 003d 2a3d f694 fabd 501d 023c
000002f0: 066b abbd 5268 cc3d a72e b53d a0d0 6dbd
00000300: 684f 7d3d a807 b23d 7e40 59bd b3ed a03d
00000310: 8105 2d3a f5cf ac3b d879 4c3d 8931 02bd
00000320: 3e0f 6bbd 852d 243d c7a6 02bc 9f73 74bd
00000330: 2b8e ddbc faad 5ebc accf 56bc 6184 aebd
00000340: 92d6 963d 30ba 3d3d d233 c0bd 92a0 a8bd
00000350: a75d 8d3d 2ff8 9c3c 5e68 a73b ca4a 0c3e
00000360: 72c1 fa3d 6ffc 52bd c1dc dcbd e966 893d
00000370: 42dc ca3d eb1f 8c3d c4fa b7bc dfa7 413d
00000380: 34de c33d a66c 573d 420a d43d dde9 c93d
00000390: 2eed e7bc ab39 d8bc 070a 75bd d7a0 cbbd
000003a0: f08a eebd 4c4b a13c 51cb c43d 820b 333d
000003b0: 95da 76bd d330 ba3d 8fb9 89bc 3cb7 bcbd
000003c0: 5fa4 0ebd 52ce 96bd ec75 8dbd 2b70 8ebd
000003d0: 456c b73c 12eb 243d 8cdc 4bbd 53fd 3fbd
000003e0: 4d95 05bd 6fbb 97bd 71f6 e3bd 2d37 89bd
000003f0: dc9d 753d 9fd9 3bbd db8e 383c e3d1 143b
-0.08269498 -0.08369948 0.07449471 -0.012903099 0.085380375 -0.07282939 -0.0580986 -0.035430983
0.08870761 0.049939692 0.03580651 -0.009730217 -0.08850827 -0.048650503 0.11072763 0.038702864
0.06318601 -0.037291147 0.103001595 -0.005203747 -0.016674094 0.09767507 -0.077023044 -0.058862284
-0.03142503 0.04473815 0.04153778 0.09135794 -0.08907878 0.03989545 -0.093652695 -0.028126458
-0.078496225 0.07390166 -0.092496134 -0.06989048 -0.06861337 0.083822586 -0.07493886 0.100424156
-0.001344059 0.046505634 0.1084294 0.04619911 -0.0787859 -0.10287541 -0.08423688 -0.1044814
-0.12046303 0.014215574 0.08261506 0.08207098 0.055040624 -0.06817192 0.07320248 -0.050759025
-0.05722418 0.03341233 -0.021239726 0.04431526 0.024490714 -0.06847432 -0.021933844 -0.081881724
0.005411125 0.010793122 -0.027479438 0.015243133 -0.09538049 -0.0869409 0.0102248825 -0.0649966
0.11007985 0.107608564 0.021338584 -0.042110138 -0.005015539 -0.018471336 -0.041259054 -0.022461092
0.08045558 0.032269854 -0.03406544 -0.07818823 -0.09184916 0.042684678 -0.08290402 0.0965293
-0.09245624 0.04380782 0.047518633 0.053695522 0.025779609 -0.04577225 0.036745537 0.093529254
-0.08280382 -0.0747346 -0.047986623 -0.02973146 -0.04147088 -0.09789896 0.04327273 0.08144484
-0.060580846 -0.0077821193 0.09700758 0.06424144 -0.056850888 -0.12555613 -0.06495634 0.025147475
-0.0076795053 -0.020298027 0.04728775 0.062116377 0.0868724 -0.018952131 -0.11691746 0.050709013
-0.059257947 0.016108051 -0.04232925 0.056475073 0.069401555 0.056787565 0.01472218 0.009234509
0.0858575 -0.009661571 -0.06687744 -0.07471686 -0.054600462 0.09645852 0.017822506 -0.04277029
0.044898998 0.041148804 0.035300247 0.08942403 -0.078507766 -0.073930986 -0.06981963 0.04120602
-0.03408267 -0.08830281 0.03299727 0.023861824 0.080121174 -0.019095724 0.045519043 -0.07240138
0.018053653 -0.014197879 0.122370735 -0.098067924 -0.14760558 -0.08767977 -0.02287794 -0.007869149
0.09122565 0.021733666 -0.080204256 -0.045719557 -0.028430536 0.06285527 0.012896403 0.0007218616
0.09292431 0.007997147 0.05319406 -0.060552698 -0.03516143 0.0124162035 -0.07351677 0.03205212
-0.057246737 0.02798506 -0.06784889 0.056600656 -0.020857692 -0.026424667 -0.04156909 0.009375363
0.0018328893 0.04156208 -0.12235443 0.007941559 -0.083700225 0.09980835 0.08846789 -0.05806029
0.061843306 0.086928666 -0.05304002 0.078578375 0.00066002464 0.005273814 0.049920887 -0.03178552
-0.057387583 0.040082473 -0.007974333 -0.059680577 -0.02704533 -0.013591284 -0.013111036 -0.08521343
0.07365145 0.04632014 -0.09384884 -0.08233751 0.069026284 0.019161312 0.005108877 0.13700405
0.12243928 -0.05151027 -0.10784293 0.06709082 0.09905292 0.06842025 -0.022458442 0.047279235
0.09563866 0.05259385 0.10353519 0.09859059 -0.028311338 -0.026394686 -0.059824016 -0.09942787
-0.11647594 0.019689225 0.09609092 0.043712147 -0.06026705 0.09091344 -0.016812114 -0.09214637
-0.034824725 -0.07363571 -0.069072574 -0.06954988 0.022390494 0.040263243 -0.049770877 -0.04687245
-0.032613087 -0.07408797 -0.11130989 -0.06699977 0.059965 -0.045861837 0.011264528 0.002270811

mlp2.0.bias f4 [100]
00000000: 075e f23c 29b8 adbd db72 9e3c 507d 8c3d
00000010: c10e 9abd 75b1 6dbd 7d07 babd 8933 0c3d
00000020: 5061 e9bc 60fd c7bd 1bd3 d739 0313 2b3d
00000030: eaae 32bd 0c3c 6ebc bf6e 1d3d 42ae 383d
00000040: 0f47 833d 9d44 6ebd 0f31 413d 9368 6abd
00000050: 6272 183c 9c1d eabc 75e0 c3bd 9f51 c339
00000060: 8e77 313d d94c f13d f8fd 8fbd 012e 8e3c
00000070: cf93 51bc 4b54 0cbd 9d3e c23d e064 313e
00000080: 1a5e 543d 1da6 46bd eda7 2abd b408 eb3d
00000090: 7d32 293c 2c19 343d a228 313d 66d5 e5bd
000000a0: 9f7b 81bd 53d0 f5bb 8029 8f3d a7af ee3c
000000b0: e4ac 573d 4b78 81bd f6b3 393d 6c1a 71bc
000000c0: 0a6e 7ebc 4175 f23c 8528 523d 16aa 01bc
000000d0: 7295 5a3d 7f03 1abd bb76 9d3d be47 c63c
000000e0: 9d30 85bd d811 623d 32aa 7c3d 9695 daba
000000f0: 6f22 20bc e584 9d3b 1069 5e3d afa9 663d
00000100: b95d 7ebd d02e 543d 4c51 b9bd 62e3 e53d
00000110: a158 59bd a099 c93d 5efd 59bc 55bd 363d
00000120: 8673 1dbc 0269 523d 6845 cebc 63aa 1a3d
00000130: d5af 6fbb ff10 753d b5e8 933d eb7e 083e
00000140: 0842 23bd 51b1 c13c c89c b6bd eb77 5f3d
00000150: 781d 8dbb d4f2 bfbc 8f7a 3a3d 02a9 523d
00000160: 8a54 3dbd f8f9 2c3d eb64 d2bc 7075 5cba
00000170: 7a81 9a3d 1205 843c 69b8 033c e96a 9ebd
00000180: cdbc 35be a52e a23b 2ee8 d53c 3316 893d
0.029585851 -0.084823914 0.019341877 0.06859839 -0.07522345 -0.058030564 -0.090834595 0.034228835
-0.028488785 -0.09765124 0.0004116528 0.041766178 -0.043623842 -0.0145406835 0.038435694 0.04508806
0.06410038 -0.058170903 0.047165927 -0.057228636 0.009304615 -0.028578572 -0.09564296 0.0003725411
0.043326907 0.11782236 -0.070308626 0.01735592 -0.012791588 -0.034260076 0.09484599 0.17323637
0.051847555 -0.04849826 -0.041664053 0.11476269 0.010326979 0.04396932 0.04325164 -0.11222343
-0.06322407 -0.007501641 0.06990337 0.029136492 0.052655116 -0.06321772 0.04533764 -0.014715772
-0.015529165 0.029596927 0.051308174 -0.007914087 0.05336518 -0.03760099 0.07688662 0.024204131
-0.06503413 0.0551928 0.06168575 -0.001667666 -0.009773835 0.004807102 0.054299414 0.056314167
-0.0621011 0.051802456 -0.09048709 0.112250105 -0.05306304 0.09843755 -0.013305036 0.044614155
-0.009610062 0.051369675 -0.02517958 0.03776015 -0.003657331 0.059830662 0.0722212 0.13329665
-0.039857894 0.023644121 -0.089166224 0.054557722 -0.0043064915 -0.02343122 0.045527037 0.05143071
-0.0462232 0.042230576 -0.025682887 -0.00084098335 0.07544227 0.016115699 0.008039572 -0.07735235
-0.17747803 0.004949408 0.026111688 0.06693687

mlp2.2.weight f4 [50, 100]
00000000: e3cf d93c 1aae dbbd 63a1 42bc 726a 07bd
00000010: e5fc 7c3d e60b d53b 9059 4d3c 9dc4 a6bd
00000020: 3a1c 8fbd 674a ad3d d346 4cbb 45a8 c9bc
00000030: 0cf9 943d 8b8c 593c a43c 463c 2dc3 98bc
00000040: f85a a63d 6e59 bc3d 1ec8 853d 87f6 cb3b
00000050: a213 bfbd c995 ca3d 341d 01bd e37f 4abd
00000060: 3927 4d3d 2362 bcbd e535 3e3d a385 923d
00000070: 78ab 3cbd 1c5e f63d 4f0f 2f3c 0155 863c
00000080: a5a4 d0bd bd93 36bd 3c5e 34bd 8661 cd3b
00000090: 8e77 13bc 9ce4 a13d 30ef d73b 60a9 56bb
000000a0: 0c78 b03d 76f4 113d 4c03 9cbd 0d83 c6bd
000000b0: 5b9a c0bc d776 b53a c8d5 29bd a5e9 44bd
000000c0: 62db 133e 2b69 5dbd 29f1 ebbc 56ac 333d
000000d0: 7fe8 3a3d aa32 82bd acb7 153d a3e9 53bd
000000e0: 66de 26bc b923 c33c d438 bb3d 895e 8b3c
000000f0: 30c9 c7bd 198e 93bd f33f 9dbc 5e72 dd3d
00000100: 7537 083d e715 3fbd 01f5 e6bc 50b2 133d
00000110: 00ac 723d b966 b5bc 0d47 a23d f415 ebbb
00000120: 7847 333d dac3 86bd a4b6 6ebd caa1 8bbc
00000130: edee 643c cb7d 4f3c 5c0e a13d ff2c 66bd
00000140: 99ae a2bd e8ca 48bd 8c16 31bd 2e25 613b
00000150: a19b 56bd 9f80 8a3d 07b0 333b 59d3 4f3c
00000160: 2954 31bd ed69 bebc ca59 133e f127 c0bd
00000170: 814a 9abc 8853 86bd 500f b9bd b357 cdbd
00000180: bbb9 c43c e1ce f93c f2b8 80bd 1190 b03d
00000190: 781a a1bd 0542 5ebb 9545 afbd 4d41 ba3d
000001a0: 881c ccbd dd0c 0bbc 97b8 78bd 769f bcbd
000001b0: 055e 873d 8f0b 35bd 4c58 8d3d 4538 55bd
000001c0: f268 9a3d ea5a de3d af9f 843d 21c2 25bd
000001d0: 5c82 483d 32b1 983d 0d3f 8abd b4fc 72bd
000001e0: 049c 2dbd 5614 82bd 221b f1bd be5b b73d
000001f0: fd7c bdbb e307 553c 03f0 cb3d 0144 933d
00000200: ccfc 5ebd 53f8 4dbd c9e5 373b ff63 f13d
00000210: 4fb2 323c 34f0 3bbc f6d4 98bd 3568 2ebd
00000220: e321 8d3c c695 a13d c8ac 983d 3232 1dbd
00000230: bea5 de3b 4673 ed3c 3b3b 8f3c 9e52 8abd
00000240: 78b2 5c3d cbff 303c a4c0 17bd 29e2 253d
00000250: 0707 a1bc be5b 11bd 601a ff3d 104c bfbc
00000260: 432e 1fbd ec67 8abd c2bc 14bc e5c7 853d
00000270: 8cf9 563d 406a 933d afdc 98bd 79a2 12bd
00000280: f90e d53d f090 24bc d098 853d 4af5 083e
00000290: c92f 383d 08f2 35bd 3765 85bd b4a1 90bc
000002a0: 0840 1cbd 3b89 843b 6491 1b3d d7dd 83bd
000002b0: 61b1 58bd 0694 cebd 93c9 2abc 384b d73c
000002c0: 261b 94bd b5c2 21bd 0c1b 8f3d e2ab 8dbd
000002d0: 9f50 cb3b 8bc1 b03b c90f 553b 31e6 fb3d
000002e0: 5f6a 43bd 5d0c 2fbd 19ab 093d 7de8 43bd
000002f0: b875 46bc 95c1 1dbd 6ad8 843d 457b d2bb
00000300: d9b1 973d d442 043e 120f a0bd 3c5e 323d
00000310: 2c4c 233d 51ac 163d 1ee4 54bd 795f d239
00000320: 0973 783b 1778 6a3a b2de e03d 7500 84bd
00000330: 43f1 f8bb d2fb 913d 9463 073c bbe6 b73d
00000340: 0ee5 a73d 72fb a53d 0b12 23bd 35a6 c9bd
00000350: 618b 0bbb 28be 95bd 80bd 10bd 8222 03bd
00000360: 4453 18bd cd1e a03d 6676 abbd 6ce3 003c
00000370: bac1 873d c49f 99bd 3378 54bd f2ec 96bd
00000380: 83f1 6c3d 283d 4c3c 5a8e 9e3d 6cc4 f5bb
00000390: 2421 3fbd 1aeb 95bd fe67 afbd 69fc 6d3d
000003a0: 8c01 553d 4c33 aa3a f4c5 b8bc 6693 81bd
000003b0: 7a7a c33c 344d f93d 8e0b acbc d927 7b3c
000003c0: 94b5 933d 08da d13d de72 55bd 955a a13d
000003d0: dafe 543d a85c 8fbd 1762 6ebd 4632 3a3c
000003e0: 5c02 5fbd 9194 c1bd 2350 f3bc aec4 3a3d
000003f0: 9f45 4c3d dcdc 753c 0a39 c23d c039 1a3d
0.026588386 -0.107265666 -0.011879298 -0.0330605 0.061764617 0.0065016625 0.01253356 -0.0814297
-0.06987806 0.08461457 -0.0031170144 -0.02461637 0.072740644 0.013278137 0.012099419 -0.018647755
0.0812282 0.09196745 0.0653231 0.0062244567 -0.093299165 0.098918505 -0.03152199 -0.04943837
0.050086234 -0.091984056 0.046438117 0.071543954 -0.046061963 0.12029669 0.010684802 0.016397955
-0.101876535 -0.044574488 -0.04403518 0.006267729 -0.009000672 0.07904932 0.0065897927 -0.0032754764
0.08616647 0.035633527 -0.07617816 -0.09692965 -0.023511102 0.0013844621 -0.041463643 -0.048074383
0.14439157 -0.054055374 -0.028801518 0.043865524 0.04563188 -0.0635732 0.036552116 -0.051736485
-0.01018486 0.023820745 0.091416985 0.017012851 -0.0975517 -0.07204837 -0.019195532 0.108128294
0.033256013 -0.046651747 -0.028192999 0.036058724 0.059246063 -0.022143709 0.07923708 -0.007174248
0.04376933 -0.065803245 -0.05827965 -0.01704492 0.01397298 0.012664269 0.07864067 -0.056195255
-0.07943458 -0.04902163 -0.043234393 0.0034354436 -0.052394513 0.06762814 0.0027418153 0.012684667
-0.043293152 -0.023243869 0.1438972 -0.09382618 -0.018834354 -0.06558901 -0.09036124 -0.10026493
0.024014344 0.030494155 -0.062852755 0.086212285 -0.07866377 -0.0033913862 -0.085581936 0.090944864
-0.099663794 -0.008486954 -0.060722914 -0.09210102 0.0660973 -0.044200476 0.06901607 -0.052055616
0.07539548 0.10857184 0.0647577 -0.04046834 0.048952445 0.07455672 -0.06750307 -0.059323028
-0.042385116 -0.06351535 -0.11772753 0.08953045 -0.005782722 0.013002369 0.09957888 0.07190705
-0.054440305 -0.05028565 0.0028060547 0.11786651 0.01090677 -0.011470843 -0.07462494 -0.04257985
0.017228073 0.07889895 0.074548304 -0.038377948 0.0067946604 0.02898563 0.017484298 -0.06754039
0.05388114 0.010803173 -0.03704895 0.040498886 -0.019656671 -0.035487883 0.124562025 -0.0233517
-0.038862478 -0.06758103 -0.0090782065 0.065322675 0.05248408 0.07198 -0.07463967 -0.035799477
0.104032464 -0.010044321 0.06523287 0.1337482 0.044967446 -0.044420272 -0.06513446 -0.017655231
-0.038147002 0.0040446795 0.037980452 -0.06438797 -0.052903537 -0.10086827 -0.010424036 0.026280984
-0.07231741 -0.039492328 0.06987581 -0.0691755 0.006204679 0.005394166 0.003251063 0.12299765
-0.047708865 -0.0427364 0.033610437 -0.04782914 -0.012113027 -0.038514692 0.0648659 -0.0064233863
0.074069686 0.12916118 -0.078153744 0.0435469 0.039867565 0.036785427 -0.051975362 0.00040125454
0.0037910363 0.00089442864 0.10979976 -0.064454 -0.00759712 0.07128109 0.008263487 0.08979555
0.081979856 0.081046 -0.03981213 -0.098461546 -0.0021292793 -0.0731166 -0.03533697 -0.03201533
-0.037188783 0.07818375 -0.08372192 0.007866722 0.06628747 -0.07501176 -0.051872443 -0.073694125
0.05784751 0.012465753 0.07741995 -0.007500222 -0.046662465 -0.07320233 -0.08564757 0.058102045
0.05200343 0.0012985258 -0.022555329 -0.06326942 0.023862112 0.121729285 -0.021001603 0.015329325
0.07212368 0.10246664 -0.0521115 0.07878605 0.052000858 -0.07000095 -0.058199015 0.011364525
-0.05444561 -0.09452165 -0.029701298 0.045597725 0.049871083 0.01500627 0.094835356 0.03765273

mlp2.2.bias f4 [50]
00000000: 66af 8f3d 91cf 8abd 7f4b 87bd 03a9 a53c
00000010: 2c1d a1bd f403 d0bd b19b 3bbd 0d88 e7bd
00000020: 2feb 7f3c 882d b8bc a26a babc 6e36 113c
00000030: fa2c cb3b 36ef 94bc 0af1 8abd 5c91 3f3d
00000040: 1fba eabd 7c01 1ebc ff5a a23c a84e 01be
00000050: c87b 14bd 894a df3d d90b 5cbd 3381 d2bd
00000060: 81c7 0d3c 8fb6 a8bd f6c3 33bd 05ab 25bd
00000070: 8392 adbd 60b8 b63c 8a12 afbc 63cd 363d
00000080: 8584 113d 0606 c23d dba9 93bd d378 053d
00000090: 8480 f03d 23bc bbbc 483b bbbd 404f c4bb
000000a0: 5c63 69bc 42dd 483d cf14 b8bd df61 1cbe
000000b0: 6454 1bbd c34e a1bc f3cb a53d 53f3 f13b
000000c0: b0e6 c13a eb3c 573d
0.070158765 -0.067778714 -0.066061966 0.020222193 -0.07866892 -0.10157004 -0.045802776 -0.113052465
0.015620037 -0.022482648 -0.022755925 0.008863075 0.00620043 -0.01818047 -0.06784256 0.046769485
-0.11461281 -0.009643909 0.019818781 -0.12627661 -0.03625086 0.10902888 -0.053722236 -0.10278549
0.0086535225 -0.08237945 -0.043888055 -0.0404463 -0.084752105 0.022304714 -0.021371145 0.044629466
0.03552677 0.09473805 -0.07210132 0.03258593 0.117432624 -0.022916859 -0.091421664 -0.0059908926
-0.0142448805 0.049039133 -0.08988344 -0.1527171 -0.037922278 -0.019690877 0.08095541 0.007383743
0.0014793482 0.05254833

attention.0.weight f4 [100, 100]
00000000: ae2f 4e3d 6155 7fbd 9d5c d7bb c4f6 c4bd
00000010: 0307 683c e51b b8bd b3aa 6abd a7a2 033d
00000020: fe2d ef3b 0e86 b6bd ac98 a73b 38b0 95bd
00000030: fa6d aa3b b184 3c3d e267 953d 933d c23a
00000040: 1acd abbd 75d9 a3bd 0910 4abd e48a 55bc
00000050: c83a 9abd 5e30 b1bc e3e6 8a3d f06a 173c
00000060: 1467 85bc 1e19 93bd 11a2 99bc d32e 77bd
00000070: 2daa ad3c a018 9ebd 64b4 48bd 23ab c23d
00000080: 8411 91bd 98fe c4bc 6db9 dcbb 76d2 81bd
00000090: fdb8 4bbd b66b 19bd 84bc 973d 60e2 883d
000000a0: 1861 e7bc ba6d a33d 57c9 c43c ca3c c0bd
000000b0: 2f3a 5dbb 0586 53bd 9aee 673d a167 f0bb
000000c0: c0f9 c1bd fe02 72bc 45b2 383d 225a b53a
000000d0: 241d afbd 9ea6 99bb 2f79 babc 405e 603d
000000e0: dac4 d3bb 2245 9ebc c762 973d 67f2 a73d
000000f0: c213 bdbd 56b4 01bd 9060 723c e025 40bd
00000100: e35b 333c 94d5 1abc 5987 68bd ebbc 89bd
00000110: c7d2 9b3d 1c79 a13d ff4b c0bd 386d 713d
00000120: da9c aebc ec30 1ebd e2dd bebd 8d76 4dbd
00000130: 40d7 b8bc cb89 c93c 5379 c2bd 11d8 5a3c
00000140: e8db 343d aea9 063d 75ac 273d 9d20 b93d
00000150: e6c5 17bd d9f5 b73d 82f5 9f3d d871 04bc
00000160: 940f 0abd d693 963d 30f8 973d eb57 af3d
00000170: ef8b b23c a849 683d c6bb 923d 797e 6f3d
00000180: 7558 a9bd aa40 0c3c 5f3e ae3d f637 c53d
00000190: 1cc9 8cbd ce1d bd3d eb23 823d 5259 6ebd
000001a0: 5b52 c93d 28c9 223d e294 0c3d da3d b0bc
000001b0: 130a aabc 9852 07bd 7ead b63c 89d4 1cbd
000001c0: fa14 ac3d 5955 1e3d 38b9 cdbc 69c2 23bd
000001d0: 32a6 ec3c b696 703d 9fc0 0c3c c068 a03d
000001e0: 4a14 fb3c f6d6 6bbd c4af 823d aa93 94bd
000001f0: b665 173c 1f90 c13d a5e3 bcbd 7abe 823d
00000200: 79a2 c03d 0655 34bd 399f 0bbc 4690 93bd
00000210: 55d6 8e3b 28bf 9a3c 5ae6 993d ba25 973d
00000220: d76a 8d3c 5c3d 4fbd 5044 93bc a4c7 cb3d
00000230: a70e b9bd fa67 533c 565e c13d e1cf 833d
00000240: b68c 2f3c 608e b3bd 07d3 ac3d 5570 723d
00000250: a2e1 893d 640b 4cbd edfe 29bc 186a a33d
00000260: 3d68 b03d d30b c6bc 5443 b3bc dd44 53bd
00000270: 4ce6 94bc efee 933d b00c b73d e64b a13d
00000280: 5dbd 883d 2ddc 84bd bbc3 853d fa71 91bd
00000290: 09eb 233d 775f 063d 136f b63d 71a5 16bd
000002a0: b3d6 303d 0dbb b03c b5dc c7bc 6d06 663c
000002b0: f29b bcbd 07cc 2fbd 371f 61bd 8dba 09bc
000002c0: 1939 c7bd 7571 3f3d 69bb 373d cdc1 5fbd
000002d0: 73f2 77bd 797a 1d3d 7e55 abbd d3b6 893c
000002e0: 5c7f 803c e592 95bc a3ee b7bd 19f5 693d
000002f0: a7b9 2cbd dc6b a2bc 0ac6 a5bd fd0d b03d
00000300: dba0 223d 6b47 c63d dd36 973d 1ac5 25bd
00000310: a50f ac3d 5b12 953d 2799 113c 5df9 1cbd
00000320: 5433 c8bc d4b4 adbd e995 153b a813 f53d
00000330: 2bb2 4d3d 8080 8c3c 0c39 09bd d5af acbd
00000340: d320 0f3d bfc0 9dbd 2fa1 a93c 1382 78bd
00000350: 2ab6 113d d7ba 333d 4c32 45bd 048f 46bd
00000360: 905f c03c 02bc 933d 0f21 763d f26e 793d
00000370: 8d2f d6ba 23e5 b7bd cda2 223d 278f 9e3d
00000380: 01ec 3e3d e605 3f3d 55a0 89bd 644f f83d
00000390: 230c b3bd bcaf 2d3d 4a76 463d 422c bbba
000003a0: 6925 a33c 68e6 c83c 605b 803d 5003 423c
000003b0: 944a c33d 15e3 39bd 814e 34bb ce76 18bc
000003c0: 42bf 8e3d 57a8 ea3c 5138 c3bd 8f36 c83b
000003d0: c393 693d 3b7d 16bd c778 55bd 5312 58bd
000003e0: 3522 b8bd 6e84 953d da33 a23d 1ac9 2dbd
000003f0: 1be7 033a 269d 2c3c 9522 83bc 2a3f f9bc
0.05033844 -0.062337283 -0.0065723197 -0.09617379 0.014161828 -0.089896955 -0.057291698 0.03213754
0.007299184 -0.08912288 0.0051146355 -0.07309002 0.0052010985 0.046024982 0.07295205 0.0014819376
-0.083887294 -0.08000461 -0.0493317 -0.013033602 -0.07530743 -0.021629509 0.067823194 0.0092418045
-0.016284503 -0.07182525 -0.018754037 -0.06034739 0.02119931 -0.077195406 -0.04900016 0.09505298
-0.07083419 -0.024047181 -0.0067359717 -0.0633897 -0.049736965 -0.037456237 0.074090034 0.066838026
-0.02824454 0.07979913 0.024021788 -0.093865946 -0.0033756604 -0.051641483 0.056624033 -0.0073365723
-0.09471464 -0.014771221 0.045091886 0.0013836066 -0.0855048 -0.004689052 -0.022762863 0.054777384
-0.0064626755 -0.019320074 0.07391887 0.082005315 -0.09232284 -0.031666122 0.01479353 -0.04691112
0.0109472005 -0.009450335 -0.056769703 -0.06725486 0.07608562 0.07884428 -0.09389495 0.05894205
-0.021315027 -0.038620874 -0.093196645 -0.050161887 -0.022563577 0.024601838 -0.09495797 0.013357178
0.04415503 0.032876663 0.040935952 0.090394236 -0.037053965 0.089824386 0.07810499 -0.008083783
-0.033706263 0.07352416 0.07420385 0.08561691 0.021795241 0.05671087 0.07164721 0.058470223
-0.08268825 0.008560339 0.0850799 0.09629814 -0.06874296 0.092342004 0.06354507 -0.05819065
0.09830161 0.03974262 0.034321673 -0.021513868 -0.020756757 -0.033037752 0.022299524 -0.038288627
0.084024385 0.038655613 -0.025112733 -0.039980326 0.028887842 0.05873748 0.008590846 0.078324795
0.030649323 -0.05757805 0.06381181 -0.07254727 0.009240558 0.09451317 -0.09223107 0.06383987
0.09405989 -0.044026397 -0.008521848 -0.07205252 0.0043590465 0.018889979 0.07514639 0.07380243
0.01726286 -0.050595626 -0.01797691 0.09950188 -0.09035998 0.012903208 0.09441821 0.06436134
0.0107147 -0.0876739 0.08438688 0.05918916 0.06732489 -0.04981555 -0.01037572 0.0797922
0.08613632 -0.02417556 -0.02188269 -0.051579345 -0.01817622 0.07223307 0.08937967 0.078758046
0.06676743 -0.06487308 0.06531473 -0.071018174 0.04001907 0.032805886 0.089079045 -0.03677887
0.043173503 0.021573568 -0.024397234 0.014039618 -0.09209432 -0.042919185 -0.05496141 -0.008406294
-0.097276874 0.04673906 0.044856463 -0.054628182 -0.060533952 0.038446877 -0.08365916 0.01681081
0.01568573 -0.018258521 -0.08981063 0.05711851 -0.04216924 -0.019826822 -0.080944136 0.08596418
0.039704185 0.09681591 0.07383511 -0.040471174 0.084014215 0.07278892 0.008886612 -0.03832375
-0.024438538 -0.08481756 0.002282495 0.1196664 0.050218742 0.017151117 -0.03350167 -0.08431975
0.034943413 -0.07702779 0.020706741 -0.060670923 0.035574116 0.043879356 -0.04814367 -0.048476234
0.023483068 0.07213594 0.06009012 0.06089682 -0.0016341076 -0.08979251 0.03970604 0.07742148
0.04661179 0.046636485 -0.06720034 0.121245176 -0.08742549 0.04240392 0.048452653 -0.0014280158
0.0199153 0.024523929 0.062674284 0.01184161 0.09535709 -0.045382578 -0.0027512612 -0.009305669
0.06970073 0.028644724 -0.09532226 0.0061100195 0.057025682 -0.036740523 -0.052117135 -0.05275185
-0.089908995 0.073006496 0.07920046 -0.042428114 0.0005031691 0.010535514 -0.016007701 -0.030425627

attention.0.bias f4 [100]
00000000: 59f0 883c 8292 a63d 9cea 983d 424a 653b
00000010: f02b b7bd 332d 323c e98b 013c 2f06 02bd
00000020: a3f4 ac3d 7c11 a13d eb88 05bd aa49 a73d
00000030: ba9f 29bc a097 a83d 7cd4 8c3d 8009 c0bd
00000040: 3a79 9d3d 372e 9d3d a851 953d cb0c 21bd
00000050: 2812 43bb d81e 7abd 764b 00bd ccea 8d3d
00000060: 3a34 18bc ca66 16bd 291b 643c 6a8e 0dbd
00000070: d903 e83b bbc0 f53c 4f06 4c3c 6852 efbc
00000080: c4d9 70bc 7e05 d0bd 3470 7c3d f705 8bbc
00000090: 450f 173d 4bd1 05bc 9a0b 973b 9a70 063d
000000a0: 7042 7dbd 6046 b8bb 0e4e d4bd 3781 c73d
000000b0: 93e2 b83d 7c0a cf3d 4c5c f1bc 38e3 5bbb
000000c0: fa9d 89bc bfef ce3d 6382 b7bb 7671 b03d
000000d0: 39cc 9b3d 63c9 c9bd 94df 38bc b288 e5bb
000000e0: df1a 2a3c 7305 803d a201 b53c 8ce4 513d
000000f0: 17b8 80bd 7a9b 743d ae61 213b 9ea5 d33d
00000100: 22b6 2c3d e632 4a3d df16 d13d f6cd 8dbc
00000110: 6a7b a33d 2c03 023c 71b2 d2bc 433b adbd
00000120: 8465 e43d 987e 513d 3e51 b53d 3db9 18bd
00000130: 706d c3bd fbc6 30bd 2d0b 9b3a 5110 99bd
00000140: 4844 82bd c4fb 38bd a16f 273d fa5f b23d
00000150: 04f4 963d c129 8fbc fd22 ca3c 90da dabd
00000160: dee2 7c3d 5c3d c83c 5294 f83c 8330 acbd
00000170: 806a bebd fa35 7c3c d587 72bd 9d7d c83d
00000180: 3213 11bc bf21 94bd e75a da3c 3a64 df3d
0.01671617 0.08133413 0.07466623 0.0034986888 -0.08943927 0.010875034 0.007906892 -0.03174418
0.08445098 0.07864663 -0.03260128 0.08168347 -0.010353023 0.08232045 0.06876466 -0.09376812
0.07689138 0.076748304 0.07290965 -0.03931884 -0.002976546 -0.06106457 -0.031321965 0.069295496
-0.0092897955 -0.03671912 0.013922491 -0.034559645 0.007080537 0.029999128 0.012452676 -0.029214099
-0.014700357 -0.101572976 0.061630443 -0.016970618 0.036879797 -0.008167575 0.0046095373 0.03282223
-0.061830938 -0.0056236237 -0.1036645 0.09741443 0.090275906 0.101094216 -0.029462956 -0.003355218
-0.016798962 0.10104322 -0.00560026 0.08615391 0.07607312 -0.098528646 -0.011283774 -0.0070048207
0.010382383 0.06251039 0.022095505 0.05124335 -0.06285112 0.059718587 0.0024624872 0.10334323
0.042165883 0.049364947 0.102094404 -0.017310124 0.07982524 0.007935327 -0.025719853 -0.08458569
0.11152175 0.05114612 0.08853386 -0.037286032 -0.09542358 -0.043158513 0.0011828892 -0.07473815
-0.0636068 -0.045161977 0.040877942 0.08709712 0.07370761 -0.017475965 0.024674887 -0.10686219
0.061739795 0.02444332 0.030344162 -0.084076904 -0.09297657 0.015393728 -0.05921157 0.09789584
-0.008854674 -0.07232999 0.026654674 0.109077886

attention.2.weight f4 [100, 100]
00000000: fcc8 d13c eec1 223d 6542 d3bc a4d0 3e3d
00000010: 9463 2a3c 6e76 8abc 1099 c1bd 6d8c 54bd
00000020: 3161 91bd 9c12 8ebd 5ed8 633d c8a8 44bc
00000030: 7c13 b8bd a3ae 833d d5bd b83a 7e9c 1ebd
00000040: 9bc1 dfbc 4045 2f3a 4b87 283d b504 bd3c
00000050: 3a4f 9e3d 5f04 083d 9e09 163d a307 5f3d
00000060: 5075 23bd b22a 0d3d c1b1 b3bc 5c4a c3ba
00000070: 0d17 0fbc 4441 06ba 1a7e fcbc 2241 a3bd
00000080: 8e6e cc3c e55e c3bd ee63 c83c 7525 ba3d
00000090: ad35 02bd dc13 be3c 6a83 d2bd 1ee9 233d
000000a0: 68a2 f8bc 5e40 a43d 4657 b23c 04c7 933d
000000b0: f049 753c 0a63 ff3c 5be5 dc3d fb4c 7b3d
000000c0: ee80 df39 943a 933d 9ada afbd d38d f2bb
000000d0: 8de5 1a3d 291b 313d 5f21 86bd 58b5 19bb
000000e0: 1e59 93bd af9a 44bc 2bc2 973c 2fa1 cb3d
000000f0: 0019 40bc 46d2 b2bc 41f3 b83d a702 cf3d
00000100: 123b 53bd d908 d7bb 3145 8abd a791 a03d
00000110: aea8 96bd aa3a b93d 81e2 c53d 4a92 453b
00000120: f8f3 bcba fc54 89bd 5438 663c fbb6 d63d
00000130: 01d0 913d 7560 1e3c bb0f 27bd 53ea 743d
00000140: f290 243d 55d8 203d 8f43 a9bc c307 443d
00000150: 0d65 ba3d eeb8 67bc daa4 3d3d 44fa 723d
00000160: 90bb 413d a78e 603d b5b5 d63d 5e16 c93d
00000170: 138b 8bbd 7fff 9ebd 42b4 54bd b533 0abc
00000180: 08a9 96bd 9f86 73bd 52f1 b1bd 3b2e 863d
00000190: 9c5d 0cbd 3184 bb3d 983c 363c 5e20 acbd
000001a0: 5d8f b8bd 919b c43d b83e 943c 4ca5 a63c
000001b0: 983f eabc 500a f43b 3067 ac3b 8359 3abd
000001c0: ddef 51bd 2a65 89bd 22e2 c1bd 5da1 afbd
000001d0: 31f5 bb3d 5088 a0bd 3d13 79bd a60c 5a3d
000001e0: 37c5 43bd 80b0 3cbc b726 c73d 6090 f3bc
000001f0: 003a 0239 4775 1dbd 2322 c1bd 5831 c1bc
00000200: e03b 86bd 5626 193d 3015 68bc 68ad 11bc
00000210: 60d6 ccbb 8458 12bd 363e 053d 9020 5f3c
00000220: e0b5 a3bc 947d f4bc 809f d03b 0047 553c
00000230: 5f54 983d fddf 843d 3ade 00bd 01ed 893d
00000240: 084b e4bc 14ed b93c 9b62 bebd 4ef2 143d
00000250: 2164 9e3d 0d4f 35bd e26c 163d ec8f 923c
00000260: 69ed a13d c221 5d3d 00bb 6dbb 4b98 953d
00000270: b81a c83c 4770 24bd a098 3cbd aeca 203d
00000280: ddba a6bd 8e7d 4e3d 6aa7 a0bd 0f3d b9bd
00000290: 446e fa3c 979a 24bd f5ae c93d 403f 0dbc
000002a0: 2bd8 babd 17bf 22bd 8093 383c 10d4 31bc
000002b0: edef 66bd b70f cabd 8ceb dc3c 382c 97bc
000002c0: 5488 89bc 9ddf c43d 9087 c0bd 8046 0d3a
000002d0: 7585 993d 30a6 0c3c 00e5 613c 50aa bebd
000002e0: c05c f7ba f0e6 02bd d439 8cbd d032 193c
000002f0: 1487 9fbc e7d9 8c3d ad1c 53bd 70f3 75bd
00000300: 50cb 61bc cd96 3cbd 50d9 ebbb d2fc 9ebd
00000310: 58d3 46bc 9234 0b3d 14b1 a03c 405d d83a
00000320: d9be fdba 0d7b 7f3d 6ad6 a93d 18ef 963d
00000330: fd4c 873c 6b42 9bbd 5f0e 84bd 64b8 9dbd
00000340: 83c6 40bd 2807 a43c da9c d33c 4f37 c3bd
00000350: 765d 5b3d 422a c43d a2be cf3d 76c3 d33d
00000360: 75a4 183d 081d c4bd 013c 8c3d c45c a4bd
00000370: ca6f 353a 7a1b a3bc 6fab 383c 2013 9ebd
00000380: 7fa3 bcbd f3bf 0b3d 98bc b83d 18b9 9d3c
00000390: cc3f c23d a26b f0bd d5f0 eb3d 4eae 49bc
000003a0: 3658 de3c da56 58bd fc47 0f3d c406 92bd
000003b0: 4f8a 2cbd 5d4c 543d 2278 f4bc 932a 403d
000003c0: 6039 0dbd 5bdb 3bbd e989 1b3b 74e8 6fbd
000003d0: 45cd ed3b 1160 903d f7fd 863b 5b0b 883d
000003e0: c1d1 d5ba ea17 a0bc 6615 b6bc 854d cbbd
000003f0: f3bd 9c3c 6de2 8abd 2b8b ccbd adf4 4fbd
0.025608532 0.039735727 -0.025788495 0.046585694 0.010399718 -0.016902175 -0.094530225 -0.051891733
-0.07098616 -0.06937143 0.055626266 -0.012003131 -0.08988091 0.06429794 0.001409466 -0.03872346
-0.027313998 0.0006686039 0.04114465 0.023073534 0.07729955 0.033207294 0.036630265 0.054450642
-0.0399068 0.034464546 -0.021935346 -0.001489948 -0.008733523 -0.00051214197 -0.030821849 -0.079714075
0.02495506 -0.09539584 0.024461713 0.090891756 -0.03178947 0.023202829 -0.102789715 0.04001724
-0.030350879 0.080200896 0.02177013 0.072156936 0.014971241 0.031175155 0.107859336 0.06135271
0.00042629935 0.07188907 -0.08586617 -0.0074021607 0.037816573 0.043238793 -0.06549334 -0.0023454037
-0.07194732 -0.01199977 0.018525204 0.09942853 -0.01172471 -0.021828782 0.09030772 0.10107928
-0.051570006 -0.006562334 -0.067514785 0.07840281 -0.07356392 0.090443924 0.09662343 0.003014701
-0.001441597 -0.067056626 0.014051516 0.104841195 0.07119752 0.009666552 -0.040786486 0.05979378
0.040177293 0.03926881 -0.020662097 0.047858965 0.09101305 -0.014143212 0.046299793 0.059320703
0.047298014 0.054823544 0.104838766 0.09818719 -0.06813636 -0.07763576 -0.05192972 -0.0084351795
-0.07356459 -0.059454557 -0.08688606 0.065517865 -0.03426896 0.09156073 0.011122845 -0.08404611
-0.090117194 0.095999844 0.018096313 0.020342492 -0.028594777 0.0074475184 0.0052613243 -0.04549552
-0.051254142 -0.06708749 -0.094669595 -0.085756995 0.09177626 -0.078384995 -0.060809363 0.05323472
-0.0477955 -0.01151669 0.09724181 -0.02973193 0.00012419373 -0.038441923 -0.09430339 -0.0235831
-0.06554389 0.037390076 -0.014165208 -0.008891441 -0.0062511414 -0.035728946 0.032530032 0.013618603
-0.019984186 -0.029845037 0.00636667 0.013017416 0.074379675 0.06488035 -0.03146193 0.06734658
-0.027867809 0.022696055 -0.09296151 0.036363892 0.07733942 -0.04426484 0.036724932 0.017890893
0.079066105 0.053987272 -0.003627479 0.07304438 0.024426803 -0.04014614 -0.046043992 0.03925579
-0.0814111 0.050412707 -0.07844432 -0.09044849 0.030570157 -0.04018649 0.098478235 -0.008621037
-0.09123262 -0.03973302 0.0112656355 -0.010853782 -0.056381155 -0.098662786 0.026967786 -0.018453702
-0.01678864 0.09612963 -0.094008565 0.00053892285 0.07496158 0.008584544 0.013787508 -0.09309828
-0.0018872246 -0.03195852 -0.06846967 0.009350494 -0.01947359 0.06877499 -0.05154102 -0.060046613
-0.013781384 -0.046042252 -0.0071975365 -0.077630654 -0.012135349 0.03398568 0.019615687 0.0016507283
-0.0019359245 0.06237321 0.08292849 0.07369822 0.016516203 -0.075810276 -0.064480536 -0.07701185
-0.047064316 0.020022944 0.025831629 -0.09532034 0.05355593 0.095783725 0.10143782 0.103400156
0.037266213 -0.0957585 0.06847382 -0.08025506 0.000692126 -0.019910563 0.011271342 -0.077184916
-0.09210872 0.034118604 0.090203464 0.019253299 0.094848245 -0.11739279 0.115205444 -0.012309624
0.027141672 -0.052817203 0.03498076 -0.07130197 -0.04212409 0.05183064 -0.02984244 0.046915602
-0.034478545 -0.04586349 0.0023733324 -0.058571294 0.007257136 0.07049573 0.0041196304 0.06642791
-0.0016313122 -0.019542653 -0.022227 -0.09926895 0.019133544 -0.067814685 -0.09987482 -0.05077045
