sarl_star_ros/CrowdNav-nowall/crowd_nav/data/sub/output_RR0.5_dgs001/rl_model.pth (torch_old, 349196 bytes, 20 tensors)

mlp1.0.weight f4 [150, 13]
0	0xbe3bfed4	-0.18358928
1	0x3e4aac10	0.19792199
2	0xbe799fdf	-0.24377392
3	0x3da6789f	0.081284754
4	0x3e8bd960	0.2731428
5	0x3d9fe6d3	0.07807698
6	0xbdc2e7d5	-0.09516875
7	0xbe466ae0	-0.19376707
8	0xbe41e6b9	-0.1893567
9	0xbe57f4f0	-0.2108953
10	0xbd51d508	-0.051228553
11	0xbe30afe5	-0.17254598
12	0xbd0c2cff	-0.0342226
13	0x3e04aa6d	0.12955637
14	0xbe8e5ebd	-0.27806655
15	0x3d0244a1	0.03180373
16	0xbdd5b48a	-0.10434826
17	0x3e16e92b	0.14737384
18	0x3ddcb673	0.10776987
19	0x3eca9a93	0.39571056
20	0xbdb52042	-0.08844043
21	0x3ee413c1	0.4454632
22	0xbdadd4b7	-0.08487838
23	0xbcc85ca3	-0.024458235
24	0xbd578e24	-0.05262579
25	0xbc29b3cb	-0.010357807
26	0xbe2fd338	-0.17170417
27	0x3d8b6db4	0.068080336
28	0x3e916037	0.2839372
29	0x3dd8a740	0.105787754
30	0xbe3064ad	-0.17225905
31	0xbe8eec6a	-0.27914745
32	0xbe43ff94	-0.19140464
33	0xbe2cdee2	-0.16881898
34	0x3ac11a54	0.0014732578
35	0x3d288af6	0.04114815
36	0x3e24fb42	0.16111472
37	0x3d3f0dc3	0.046643984
38	0xbd6ec469	-0.05829278
39	0xbda3a1d3	-0.0798985
40	0xbe35ee4b	-0.17766683
41	0x3e84ccf8	0.2593763
42	0x3e73846d	0.23780985
43	0xbdca0cc4	-0.09865716
44	0xbd42a492	-0.047520228
45	0xbd343cd8	-0.044003338
46	0x3e8b0aa3	0.27156553
47	0xbd5629ac	-0.052285835
48	0x3e2fc95e	0.17166659
49	0xbe7af599	-0.2450775
50	0xbe5682a5	-0.20948274
51	0xbd02c5f3	-0.03192706
52	0x3d346895	0.04404505
53	0x3e0c24c0	0.13685894
54	0x3dace2b6	0.08441679
55	0xbddfb93f	-0.10924005
56	0x3df00c5c	0.11721107
57	0xbe54693e	-0.20743272
58	0xbe2af376	-0.16694435
59	0xbea3fb87	-0.32027838
60	0xbe8024ea	-0.25028163
61	0x3e889985	0.26679626
62	0x3d99ba93	0.07506289
63	0xbb29df18	-0.0025920328
64	0xbe029669	-0.1275269
65	0x3c3a74e3	0.011380407
66	0x3e1b670a	0.15176025
67	0xbe5fa5c1	-0.21840574
68	0xbdab94ed	-0.08378015
69	0xbecf32f6	-0.40468568
70	0xbdeb65ba	-0.11494012
71	0xbe95eb46	-0.29281062
72	0xbccc1316	-0.024911445
73	0x3e9af870	0.30267668
74	0x3e6c50f6	0.23077759
75	0xbe83d4c0	-0.25748253
76	0x3db1d526	0.08683233
77	0xbe050a36	-0.12992176
78	0xbcb4cbc2	-0.022069816
79	0xbe6d644a	-0.23182788
80	0x3caa384c	0.020778798
81	0x3e3b1e4d	0.18273278
82	0x3d83136c	0.06400189
83	0x3d84e049	0.064880915
84	0xbe66eb4f	-0.225507
85	0xbded7d3c	-0.11596152
86	0x3e5b9ea7	0.2144724
87	0xbc893ab7	-0.01675163
88	0xbe631203	-0.2217484
89	0x3db06c79	0.086144395
90	0x3e3e017f	0.18555258
91	0x3e1084ca	0.14113155
92	0xbe9228a3	-0.28546628
93	0xbe4efa64	-0.20212704
94	0x3e0a87cb	0.13528363
95	0xbe8e97f4	-0.27850306
96	0xbe4d16c6	-0.20028219
97	0x3d088547	0.03333023
98	0x3d164615	0.03668793
99	0xbc1e3a86	-0.009657508
100	0xbe69b1ea	-0.22821775
101	0xbe980103	-0.29688272
102	0x3dfdfc44	0.124016315
103	0x3d9f403f	0.07775926
104	0xbe898500	-0.26859283
105	0x3e13c6ca	0.14431301
106	0x3e559ba2	0.2086015
107	0x3e0b3894	0.13595802
108	0x3e14e784	0.14541441
109	0x3e7ba923	0.2457624
110	0x3c4be51f	0.012444763
111	0xbdeff823	-0.1171725
112	0x3dca408c	0.098755926
113	0xbdcecdae	-0.10097824
114	0x3e8142fc	0.25246418
115	0x3c7a4bd4	0.015276868
116	0xbdc7cda4	-0.0975602
117	0x3e104f0e	0.14092657
118	0x3e47ddd6	0.19518217
119	0x3b55465c	0.0032543158
120	0xbe8452b4	-0.25844347
121	0xbdc872ae	-0.097874984
122	0xbe15cd83	-0.14629178
123	0x3e7a05bd	0.24416251
124	0x3db69661	0.08915401
125	0xbe373b02	-0.17893603
126	0x3ec17893	0.37787303
127	0xbd42a731	-0.047522727
128	0x3dee1f54	0.11627069
129	0x3e2ad0db	0.16681235
130	0x3e7060e7	0.23474465
131	0x3e325157	0.17413841
132	0xbd802156	-0.06256358
133	0xbe60835c	-0.2192511
134	0x3e21a2a8	0.15784705
135	0x3e5d9296	0.2163795
136	0xbea7ee6e	-0.32799095
137	0xbe863030	-0.2620864
138	0xbe3c66c0	-0.18398571
139	0xbeb2f57d	-0.34952918
140	0xbbee13e3	-0.0072655543
141	0xbd1bdc3d	-0.038051832
142	0xbea418b2	-0.3205009
143	0xbe5cfbd1	-0.21580435
144	0x3e65f6ab	0.22457378
145	0xbe2f683d	-0.17129607
146	0x3e125aec	0.14292496
147	0x3d004efc	0.031325325
148	0xbe45c03b	-0.19311611
149	0xbd23edf9	-0.04002187
150	0xbda7bab1	-0.081899054
151	0x3e6246fb	0.2209739
152	0x3e748ef5	0.23882659
153	0xbe2c8349	-0.16846956
154	0xbd40d923	-0.047082078
155	0xbdcbc8d6	-0.09950416
156	0x3c8a5ada	0.016889025
157	0x3dbdb50d	0.09263048
158	0x3cf6fceb	0.030149898
159	0x3b9ace15	0.004724274
160	0x3ec064ba	0.37576848
161	0xbeba6203	-0.36402902
162	0x3e28dbe8	0.16490138
163	0xbcf1ce8d	-0.029517436
164	0xbe92a6e1	-0.28642944
165	0x3ef98510	0.4873433
166	0xbdbbee81	-0.091763504
167	0x3dab6503	0.08368876
168	0xbe4da3ad	-0.20081969
169	0xbe672a97	-0.2257484
170	0x3e77d2bc	0.24201483
171	0x3d5ebebf	0.05438113
172	0x3e0795c8	0.13240731
173	0xbd7884cd	-0.060673524
174	0x3da0d9a1	0.078540094
175	0xbe882e86	-0.26597995
176	0xbc8059aa	-0.015667755
177	0x3da9ebe7	0.08296948
178	0xbe0ca66d	-0.13735361
179	0x3d160e15	0.036634523
180	0x3dd65949	0.104662485
181	0x3c60ac48	0.01371295
182	0xbe1ab79b	-0.15109102
183	0xbe091c5a	-0.13389722
184	0x3e41390a	0.18869415
185	0xbe1215dd	-0.14266153
186	0xbd190a10	-0.037363112
187	0x3e045ae9	0.12925304
188	0x3db318e0	0.08744979
189	0x3e80621e	0.25074857
190	0x3d37c97a	0.044869877
191	0x3d139147	0.03602722
192	0xbe80cea5	-0.25157657
193	0x3e6c99db	0.23105566
194	0x3e39b9ae	0.18137237
195	0x3d45a5b4	0.04825373
196	0xbe87eb90	-0.26546907
197	0x3de5e416	0.112251446
198	0xbe44e917	-0.19229542
199	0x3db4aa1d	0.08821509
200	0x3c0ea1d1	0.008705572
201	0x3de087db	0.109634124
202	0x3e2e7bb2	0.17039374
203	0x3e3e427e	0.18580052
204	0x3e7a0e86	0.24419603
205	0x3e1a3141	0.15057851
206	0x3da99724	0.08280781
207	0x3e816268	0.2527039
208	0xbe302c63	-0.17204432
209	0xbe3e8f70	-0.18609405
210	0xbe5f9189	-0.21832861
211	0xbdda830e	-0.10669528
212	0xbe67502d	-0.22589178
213	0x3e8805cb	0.2656692
214	0x3d6ecc9d	0.058300603
215	0x3df7899f	0.12086796
216	0x3cf0d02b	0.029396137
217	0x3df77c1a	0.12084217
218	0x3e76d0aa	0.24103037
219	0xbe476dfb	-0.19475548
220	0xbdf43009	-0.119232245
221	0x3da57fdb	0.08081027
222	0xbdde63aa	-0.10858853
223	0x3e59f777	0.21285807
224	0xbe15c3a0	-0.14625406
225	0xbe0cee02	-0.13762668
226	0x3db3c6b7	0.08778136
227	0xbd9b7b19	-0.075918384
228	0x3eb34313	0.3501211
229	0xbd701f2a	-0.05862347
230	0xbe137326	-0.14399394
231	0xbc6d6f88	-0.014491923
232	0xbe2f223d	-0.17102905
233	0x3e0670fa	0.13129035
234	0xbb85bb42	-0.0040811608
235	0x3e37e67b	0.17959015
236	0x3ca69dbd	0.020338887
237	0xbe4937e6	-0.1965023
238	0x3d6d3002	0.057907112
239	0xbd9e6865	-0.077347554
240	0xbe4c83d9	-0.19972171
241	0x3db4a9c6	0.08821444
242	0xbe8afe6d	-0.27147236
243	0xbe5bde92	-0.21471623
244	0xbe6b62d9	-0.22986926
245	0xbdd4729e	-0.10373424
246	0x3e807a70	0.25093412
247	0xbe66155b	-0.22469084
248	0xbe19c602	-0.1501694
249	0xbbc89ea6	-0.006122428
250	0xbe7a5f9f	-0.24450539
251	0x3e644497	0.2229179
252	0x3e8e2814	0.27764952
253	0x3e65da8c	0.2244665
254	0xbe3f0ffd	-0.18658443
255	0x3db137c0	0.086532116

mlp1.0.bias f4 [150]
0	0x3e5fd320	0.21857882
1	0xbe73a758	-0.23794305
2	0x3e5d1590	0.21590257
3	0xbd496b4b	-0.04917459
4	0x3e5a1c27	0.21299802
5	0xbdd608bf	-0.10450887
6	0x3e2a62ef	0.16639303
7	0xbda93e6d	-0.0826386
8	0xbe8b2e69	-0.27183846
9	0xbe8d95ba	-0.27653295
10	0xbe823084	-0.2542764
11	0x3db56b72	0.08858384
12	0xbca6999f	-0.020336924
13	0x3e03d0e4	0.12872654
14	0xbe4c0f9d	-0.19927831
15	0xbdb0dd1c	-0.08635923
16	0x3e487f8f	0.1957991
17	0xbe19787c	-0.14987367
18	0x3dcabc23	0.098991655
19	0x3e84506b	0.25842604
20	0xbe4c9c36	-0.19981465
21	0x3e0f3076	0.1398333
22	0xbc9cb9ba	-0.01913153
23	0xbe76df8a	-0.24108711
24	0x3e8a06b8	0.2695825
25	0x3c1ad6d5	0.009450634
26	0x3e24fc54	0.1611188
27	0xbe29d125	-0.16583689
28	0x3dd5fa55	0.10448138
29	0x3e00375c	0.12521118
30	0xbe7afe90	-0.2451117
31	0x3da0bbaf	0.07848298
32	0xbe662a20	-0.22477007
33	0x3e917bb4	0.2841469
34	0xbe020ef8	-0.12701023
35	0x3e5ec328	0.21754134
36	0xbe809893	-0.25116405
37	0x3e0f72d8	0.14008653
38	0x3e66aa7e	0.22525975
39	0xbd8f96ce	-0.070111856
40	0x3e1e9135	0.1548508
41	0xbe416302	-0.18885425
42	0x3e65ddf4	0.2244795
43	0x3dbbcc50	0.09169829
44	0xbd9f1994	-0.077685505
45	0x3dfb2353	0.12262597
46	0x3e50c1c1	0.20386411
47	0x3e45ee1b	0.19329111
48	0x3d96fff7	0.0737304
49	0x3c9dd28a	0.019265432
50	0xbe200244	-0.15625864
51	0xbe2d7e71	-0.16942765
52	0x3e22f6da	0.15914479
53	0x3e7ac18f	0.24487899
54	0x3d655b87	0.05599549
55	0xbd9517c0	-0.072799206
56	0xbe29c6c9	-0.16579737
57	0x3e91e4ec	0.28494966
58	0x3d26e16e	0.04074233
59	0xbe83ad1b	-0.25718006
60	0xbe0db2d1	-0.13837744
61	0xbe45dd14	-0.19322616
62	0xbdc8651f	-0.09784912
63	0xbe9237aa	-0.28558093
64	0xbe8428b7	-0.25812313
65	0xba35283b	-0.0006910597
66	0xbde381e6	-0.111087605
67	0xbe310394	-0.17286521
68	0x3e027017	0.12738071
69	0x3d91f3f4	0.071266085
70	0x3d49b404	0.049243942
71	0xbe82dbba	-0.25558263
72	0x3e17ec0f	0.14836143
73	0xbe63e6b7	-0.2225598
74	0xbd332e5d	-0.043745387
75	0xbea065f8	-0.31327796
76	0x3cf4fcba	0.029905666
77	0x3ddadc6e	0.10686575
78	0xbe207553	-0.15669756
79	0xbd680aae	-0.05665081
80	0x3c26654b	0.010155986
81	0xbe3a4b46	-0.18192777
82	0xbd98d553	-0.07462563
83	0xbe275531	-0.16341092
84	0xbe6da12d	-0.23206015
85	0x3da61e6c	0.08111271
86	0x3d86ed60	0.065882444
87	0xbdd3bfb8	-0.10339302
88	0xbe072417	-0.13197361
89	0xbd7dab22	-0.061930783
90	0xbe07e109	-0.13269438
91	0xbe2d4f86	-0.16924867
92	0xbe7b7091	-0.2455466
93	0xbe795ba7	-0.24351369
94	0x3d23b6ed	0.039969373
95	0x3e0adca9	0.13560738
96	0xbd9967a9	-0.07490475
97	0xbe0e0e25	-0.13872583
98	0xbd8ed3e0	-0.06974006
99	0x3da1621c	0.07880041
100	0x3e311d9d	0.17296453
101	0x3e67d2d5	0.2263902
102	0x3e2b86e3	0.16750674
103	0xbde0c0c1	-0.10974265
104	0x3cbd8335	0.023133853
105	0xbe1e3266	-0.15448913
106	0xbdf07fba	-0.11743112
107	0x3d146a8d	0.036234427
108	0xbdecdfa1	-0.11566091
109	0xbd4b5749	-0.04964379
110	0x3ebeb620	0.37248325
111	0xbd7a5606	-0.061117195
112	0x3e9d7837	0.3075578
113	0xbe165217	-0.14679752
114	0xbe8f8ae8	-0.28035665
115	0x3c938831	0.018009277
116	0x3e367179	0.17816724
117	0xbe8551de	-0.26039022
118	0xbcd5b281	-0.026086094
119	0xbc38a101	-0.011268855
120	0x3cb4d7ec	0.022075616
121	0xbd147600	-0.036245346
122	0x3e6b9ad2	0.23008278
123	0xbe3e871b	-0.18606226
124	0x3dabc327	0.08386832
125	0x3c2c1ef5	0.010505428
126	0x3e44c79f	0.19216774
127	0x3b9d9343	0.0048088147
128	0xbbe40a6f	-0.0069592516
129	0xbe24c809	-0.16091932
130	0xbd7cbccf	-0.0617035
131	0xbe873097	-0.2640426
132	0xbab268b3	-0.0013611525
133	0x3dfdb18a	0.123873785
134	0x3e0ba74d	0.13638039
135	0x3d4ff2a7	0.05076852
136	0x3e20d765	0.15707166
137	0xbe9c49a5	-0.30524936
138	0x3d36bb1e	0.044612043
139	0x3d948c8b	0.07253369
140	0xbe567dc0	-0.20946407
141	0xbe69a52c	-0.22816914
142	0xbe5173c9	-0.20454325
143	0x3da15e49	0.078793116
144	0xbe2ddcd6	-0.16978773
145	0xbe0d6cf6	-0.13811097
146	0xbd340006	-0.043945335
147	0x3e0bd07d	0.1365375
148	0x3e617b82	0.2201977
149	0xbdf6d2ba	-0.12051912

mlp1.2.weight f4 [100, 150]
0	0xbd2470e2	-0.040146716
1	0xbd23078d	-0.039802123
2	0xbb247f91	-0.002510045
3	0xbca30c33	-0.019903278
4	0xbd78b499	-0.060719106
5	0x3e1f0f6b	0.15533225
6	0x3d3593eb	0.04433052
7	0xbd81104a	-0.06301935
8	0x3d3fe872	0.046852536
9	0xbadd9a5a	-0.0016906962
10	0xbe22ff78	-0.15917766
11	0xbd52335c	-0.05131851
12	0x3e00d3e7	0.12580834
13	0x3cccc858	0.024997875
14	0xbde124a6	-0.10993318
15	0x3d88d46a	0.0668114
16	0xbd69a4b8	-0.057041854
17	0x3cede218	0.029038474
18	0x3c2ac159	0.010422074
19	0x3b0f29b3	0.0021844923
20	0x3da8e8cf	0.0824753
21	0x3e05fc5b	0.13084547
22	0xbb06598c	-0.0020500151
23	0xbd8711d5	-0.06595198
24	0xbd2be27a	-0.04196403
25	0xbd481b7a	-0.04885433
26	0x3d88b3a6	0.0667489
27	0xbd2557ff	-0.040367123
28	0x3c99c992	0.018772874
29	0x3cc438eb	0.023952922
30	0xbe47bdbb	-0.1950597
31	0x3d28c915	0.04120739
32	0x3d6281a8	0.05529943
33	0xbd1c4922	-0.038155682
34	0xbcecbdb9	-0.02889906
35	0xbd6eeab5	-0.058329303
36	0x3d237e58	0.039915413
37	0x3d9983e0	0.07495856
38	0x3d06e526	0.032933377
39	0xbdbfddb6	-0.0936846
40	0x3ce30ee4	0.027717061
41	0xbc27df53	-0.010246116
42	0xbe4b93fc	-0.1988067
43	0xbb1bb100	-0.0023756623
44	0xbe0883ad	-0.1333148
45	0x3c05e120	0.00817135
46	0x3bfb9f4a	0.007678901
47	0x3da7a44c	0.08185634
48	0xbd342cef	-0.043988165
49	0x3ba76186	0.0051080612
50	0x3d71ca77	0.059030976
51	0xbd4419a3	-0.04787601
52	0x3dd87df7	0.10570901
53	0xbdd852d5	-0.10562674
54	0x3dc09ac0	0.09404516
55	0xbcbed55e	-0.0232951
56	0xba628aa7	-0.00086418766
57	0xbc1ba1d3	-0.009499031
58	0x3e213615	0.15743287
59	0x3a31fa40	0.00067893043
60	0x3d69493f	0.05695462
61	0xbd7806ae	-0.060553245
62	0x3d24ddc5	0.04025056
63	0xbe161b9f	-0.14658974
64	0x3ca69917	0.02033667
65	0xbe02d452	-0.12776306
66	0x3dcd20c6	0.10016017
67	0xbcbc3f80	-0.022979498
68	0xbcbff976	-0.023434382
69	0xbbb6f2d0	-0.0055831447
70	0xbe143224	-0.14472252
71	0xbb197b90	-0.0023419596
72	0xbb0237de	-0.0019869725
73	0xbd824624	-0.063610345
74	0xbd8565c9	-0.065135546
75	0x3e087d01	0.13328935
76	0xbd9b6986	-0.075884864
77	0x3e30a85c	0.17251724
78	0x3d774827	0.060371544
79	0x3d0614b0	0.032734573
80	0xbd7a7b82	-0.061152942
81	0xbe00288c	-0.12515467
82	0xbdd0c088	-0.101929724
83	0x3d30ab6b	0.043132227
84	0xbd608469	-0.054813776
85	0xbe32ea63	-0.17472224
86	0xbce11eb0	-0.027480453
87	0x3d277204	0.04088022
88	0x3dc71efa	0.09722705
89	0xba1c1b93	-0.00059550366
90	0x3c5a7c28	0.013335265
91	0x3d0a6532	0.033787914
92	0x3e0244ba	0.1272153
93	0xbd500527	-0.050786164
94	0xbd8423ae	-0.06452118
95	0x397a5945	0.00023875113
96	0xbd1addea	-0.03780929
97	0xbcfc4190	-0.030792981
98	0xbd02f53e	-0.031972162
99	0x3d4945ad	0.049138714
100	0x3dd78f3d	0.105253674
101	0x3d20a77c	0.039222226
102	0x3d9bbf7d	0.07604883
103	0x3d79c52b	0.06097905
104	0x3e020dac	0.12700528
105	0xbd973433	-0.07383003
106	0x3db8075a	0.08985777
107	0xbdef5ab2	-0.11687221
108	0x3e15ca97	0.14628063
109	0xbe0afd54	-0.135732
110	0xbb539119	-0.003228253
111	0x3dbe5487	0.09293466
112	0xbc829b47	-0.015943183
113	0xbddc40a4	-0.10754517
114	0x3d7eeb52	0.062236138
115	0xbdf835d6	-0.121196434
116	0xbb0a9d8e	-0.0021151039
117	0xbda67feb	-0.08129867
118	0x3c8c09d0	0.017094523
119	0x3de6ea14	0.112751156
120	0x3c058351	0.008148984
121	0x3dae988a	0.08525188
122	0x3d130799	0.035895918
123	0xbc843bb8	-0.016141757
124	0xbd07836f	-0.03308433
125	0x3d2904d4	0.04126437
126	0xbe1c7b98	-0.15281522
127	0x3daed62b	0.08536943
128	0xbd8fda6b	-0.07024082
129	0x3e0021c1	0.12512876
130	0x3d0d7248	0.034532815
131	0x3d53a4d1	0.051670853
132	0xbde84637	-0.113415174
133	0xbdb5d164	-0.08877829
134	0xbd0f0d54	-0.03492482
135	0xbcffc362	-0.031221095
136	0xbc3ecf6e	-0.011646135
137	0xbd3c23ba	-0.04593251
138	0xbc9ad011	-0.018898042
139	0xbd6e7930	-0.058221042
140	0xbd07aa97	-0.03312167
141	0xbb80a3dd	-0.003925784
142	0x3d809e63	0.0628021
143	0xbd9120c9	-0.070863314
144	0xbda4d956	-0.08049266
145	0xbd7cae57	-0.0616897
146	0xbdbb9d3b	-0.09160849
147	0x3d80e4be	0.06293629
148	0xbd31704e	-0.043319993
149	0x3d848511	0.06470693
150	0xbc9002fe	-0.017579552
151	0x3cd20389	0.025636451
152	0xbdd151cd	-0.102206804
153	0x3d81cf16	0.06338327
154	0x3bc13e25	0.005897301
155	0xbd2395f1	-0.039937917
156	0x3d9c782a	0.07640107
157	0xbae74088	-0.0017643133
158	0x3d45a4ce	0.048252873
159	0x3def8547	0.116953425
160	0x3dd8ecf1	0.10592068
161	0x3da36298	0.0797779
162	0x3e058373	0.13038425
163	0xbbc63e80	-0.006049931
164	0x3d9cdda1	0.0765946
165	0x3d122f25	0.03568949
166	0xbc9cf540	-0.019159913
167	0xbd383a7d	-0.044977654
168	0x3d7282a6	0.059206627
169	0xba978084	-0.0011558686
170	0xbdb8b18b	-0.09018239
171	0x3da2c46f	0.07947623
172	0xbd39394e	-0.045220666
173	0xbdb076e9	-0.0861643
174	0x3c2041ae	0.009781284
175	0x3d93cad3	0.0721642
176	0x3d0bdc83	0.034145843
177	0x3c92b764	0.017909713
178	0xbd939af7	-0.072072916
179	0x3d807c80	0.062737465
180	0xbe456ff9	-0.19280995
181	0x3d2d5be9	0.04232398
182	0xbcf7478e	-0.030185487
183	0xbd0b0b77	-0.03394648
184	0xbca8ce29	-0.020606117
185	0xbd97c8a9	-0.0741132
186	0x3dc23bdd	0.09484074
187	0x3ce20a2e	0.027592745
188	0xbd174daa	-0.0369393
189	0x3cf643dc	0.030061655
190	0x3d5223d5	0.051303703
191	0x3d79ba5e	0.06096875
192	0xbe158dc3	-0.14604859
193	0x3d2190d8	0.039444774
194	0xbdcb8f95	-0.099394955
195	0x3e0982ff	0.13428877
196	0xbd181bc7	-0.037135866
197	0xbc322ba4	-0.010874663
198	0xbda788dd	-0.081804015
199	0xbb02725f	-0.0019904596
200	0x3c94a530	0.018145174
201	0xbe03c1ec	-0.12866944
202	0xbc871f00	-0.016494274
203	0xbdb9fad2	-0.09081043
204	0xbd8f7afa	-0.07005878
205	0x3c3081f0	0.010773167
206	0xbe0c92e7	-0.13727914
207	0xbc9ee791	-0.019397529
208	0x3d5b15c3	0.05348755
209	0x3c8a024f	0.016846804
210	0x3e0fc3e8	0.14039576
211	0x3d24e26f	0.040255006
212	0x3c8cca14	0.017186202
213	0xbe51b50d	-0.20479222
214	0xbd496d6f	-0.04917663
215	0x3d806f0f	0.06271183
216	0x3d4feec7	0.050764825
217	0xbd15bd7f	-0.03655767
218	0x3d2dce15	0.042432863
219	0xba8f7980	-0.0010946244
220	0xbcb5ea0b	-0.022206327
221	0x3c7c90bd	0.015415368
222	0xbd41fab9	-0.04735825
223	0x3b9b57e3	0.0047407015
224	0xbc2f71b6	-0.010708263
225	0x3d218e1c	0.039442167
226	0xbd21d89b	-0.03951321
227	0x3dd5819b	0.10425111
228	0xbdecfb50	-0.115713716
229	0xbd9e1f9d	-0.077208735
230	0x3d50bca0	0.050961137
231	0x3d787f64	0.060668364
232	0xbcad7b87	-0.021177066
233	0x3d3e230b	0.04642014
234	0x3cfe8e49	0.031073706
235	0xbdf4a292	-0.1194507
236	0x3d868cc9	0.065698214
237	0x3d0e9d3a	0.03481791
238	0x3d959ebd	0.073056675
239	0x3dcd9b87	0.1003943
240	0xbd0a6cdb	-0.03379522
241	0x3d4b7244	0.04966952
242	0x3d1ad4a3	0.037800442
243	0x3e0ba884	0.13638502
244	0x3d7f857c	0.06238316
245	0xbdd03f64	-0.10168341
246	0x3d182ec6	0.03715398
247	0x3b758be3	0.0037467412
248	0xbbbd9edb	-0.0057867593
249	0xbb85ffec	-0.004089346
250	0x3d07e840	0.033180475
251	0x3d1fc61a	0.039007284
252	0x3c1531d5	0.009106119
253	0x3deec2ac	0.116582245
254	0x3ca5f4b6	0.020258289
255	0x3d85dbce	0.06536065

mlp1.2.bias f4 [100]
0	0xbd85f232	-0.06540336
1	0xbc88ab7a	-0.016683329
2	0xbd7cd475	-0.061726052
3	0xbc2f6350	-0.01070483
4	0x3d8849d5	0.06654707
5	0xbba0b11a	-0.0049039247
6	0xbdc6ad37	-0.09701007
7	0xbdad30dc	-0.08456585
8	0xbd87771e	-0.06614517
9	0x3bdd4886	0.0067530302
10	0xbbfaf102	-0.007658125
11	0x3dcbcb77	0.09950917
12	0x3c91a4f5	0.017778853
13	0x3c063537	0.008191398
14	0xbccdf996	-0.025143426
15	0xbd31d85a	-0.04341922
16	0xbd5343ab	-0.051578205
17	0x3c2cae8c	0.010539662
18	0xbd9062e3	-0.07050111
19	0x3c62a37f	0.013832926
20	0x3dceb3ae	0.10092865
21	0x3e45b1b8	0.19306076
22	0xba5a972a	-0.0008338565
23	0xbcda6d81	-0.026663544
24	0x3d0b1885	0.03395893
25	0xbbfb72c2	-0.0076735923
26	0x3d80e775	0.06294147
27	0x3a5bc2a0	0.00083831884
28	0x3da5c241	0.080936916
29	0xbb3b29e9	-0.0028558916
30	0xbd1d3bd3	-0.03838713
31	0x3d1f9e02	0.038969047
32	0x3c9a471b	0.018832734
33	0xbcf4c339	-0.029878246
34	0xbc33ed03	-0.010981801
35	0xbd9c23e8	-0.07624036
36	0xbccfb9b8	-0.025357112
37	0x3dddfe89	0.10839564
38	0x3d3c1fce	0.04592877
39	0xbd556ad9	-0.05210385
40	0xbd74ab2f	-0.059733566
41	0x3e034edf	0.12823056
42	0x3b6af362	0.0035850634
43	0x3d826634	0.0636715
44	0x3d5611aa	0.05226294
45	0x3d6d5300	0.057940483
46	0xbd0b1b0d	-0.033961345
47	0x3c4059ee	0.011740191
48	0x3e1cac70	0.15300155
49	0x3e2cfe99	0.16893996
50	0x3daf526f	0.08560645
51	0x3ca6e840	0.020374417
52	0xbda8498e	-0.082171544
53	0x3cefe43b	0.029283633
54	0xbd82b723	-0.06382587
55	0x3cf5e916	0.03001837
56	0x3d8a9f02	0.067686096
57	0x3d173628	0.03691688
58	0xbda5d513	-0.08097281
59	0x3cd5ff7a	0.026122797
60	0xbbe52047	-0.006992373
61	0xbce0eb0e	-0.027455833
62	0xbd026929	-0.03183857
63	0xbc88189d	-0.016613299
64	0x3d079b0c	0.03310685
65	0xbdcc3d49	-0.09972627
66	0xbd864b48	-0.065573275
67	0x3d25822e	0.040407352
68	0x3d67500b	0.05647282
69	0xbd9bd179	-0.07608313
70	0xbc1c8ecb	-0.009555529
71	0xbd5a93fe	-0.053363793
72	0x3b20b776	0.0024523414
73	0xbc68c899	-0.014207982
74	0xbdac4e60	-0.08413386
75	0xbcba5dd6	-0.022749823
76	0xbd7b9537	-0.0614216
77	0xbc040077	-0.008056751
78	0xbd19eaa7	-0.037577298
79	0x3dcfe78a	0.101515844
80	0x3e1856c3	0.14876847
81	0xbd30748a	-0.04307989
82	0x3a09b0ff	0.000525251
83	0x3db3ae3d	0.08773468
84	0xbbba80ca	-0.0056916224
85	0x3d246e4b	0.040144246
86	0x3cc054c0	0.023477912
87	0xbd257ec7	-0.040404107
88	0x3dae747c	0.085183114
89	0xbd8e348d	-0.06943617
90	0x3d01bad6	0.03167232
91	0xbe13409e	-0.14380118
92	0x3e116a28	0.14200652
93	0x3d928b77	0.07155507
94	0xbaf9b528	-0.0019051181
95	0x3cb3182e	0.021862116
96	0x3d3e417a	0.046449162
97	0x3cdca5bf	0.026934503
98	0xbaf2e26b	-0.0018530613
99	0x3cf5f66c	0.03002473

mlp2.0.weight f4 [100, 100]
0	0x3b683113	0.003542964
1	0x3e194816	0.14968905
2	0xbd6e535b	-0.058184963
3	0x3d4baa22	0.0497228
4	0xbda115f7	-0.078655176
5	0x3cffb30f	0.031213311
6	0xbc69d909	-0.014272937
7	0x3db83e7c	0.08996293
8	0xbd49a36b	-0.049228113
9	0xbde42e6f	-0.11141669
10	0xbc408a5f	-0.01175174
11	0xbe455a11	-0.19272639
12	0xbd627274	-0.055284932
13	0x3dabfc82	0.083977714
14	0x3e0076d6	0.12545332
15	0xbe17513b	-0.1477708
16	0x3d5dc334	0.05414124
17	0x3bf04904	0.007332923
18	0xbd8aa577	-0.06769841
19	0xbc29439c	-0.010331061
20	0xbde5878b	-0.112074934
21	0xbd2ce754	-0.0422128
22	0x3d898e3b	0.067165814
23	0xbda5805a	-0.08081122
24	0xbd5f9cea	-0.054593004
25	0x3d284e32	0.041090198
26	0xbdc44a30	-0.09584463
27	0xbd2b99df	-0.04189479
28	0xbd6498c7	-0.055809762
29	0x3e015d1e	0.12633178
30	0xbd460340	-0.048342943
31	0x3d0b166a	0.033956923
32	0xbce5c992	-0.028050218
33	0xbdf9fc62	-0.12206341
34	0xbd455fbe	-0.04818701
35	0x3d761b43	0.060084593
36	0xbd886265	-0.06659392
37	0x3e01280d	0.12612934
38	0xbdb3cdd6	-0.087794945
39	0xbd85d040	-0.06533861
40	0x3d912ae4	0.07088259
41	0x3d12eeef	0.035872396
42	0xbd99d29b	-0.07510873
43	0xbe2dd48f	-0.16975616
44	0xbdb84c23	-0.08998897
45	0xbcb319ff	-0.021862982
46	0x3cf0d12a	0.029396612
47	0x3cc3d73d	0.023906345
48	0x3c3f3bd4	0.011671979
49	0xbe35598a	-0.17709938
50	0x3e348575	0.17629035
51	0x358cbb44	1.0485314e-06
52	0xbdcc7c2c	-0.099846214
53	0xbd842479	-0.06452269
54	0x3d5f5059	0.054519985
55	0x3d864635	0.0655636
56	0x3ca7ba8c	0.020474695
57	0x3b86ddf3	0.004115814
58	0xbdcf5777	-0.101241045
59	0x3d93ea28	0.07222396
60	0x3db2a2c1	0.08722449
61	0xbdbd131f	-0.09232163
62	0x3b4de864	0.0031419033
63	0x3dd34076	0.10315029
64	0xbb92affd	-0.004476546
65	0x3e11f56b	0.14253776
66	0x3c94463e	0.0180999
67	0xbd9d11ec	-0.07669434
68	0xbd2d5e9e	-0.042326562
69	0xbddd1da3	-0.107966684
70	0xbd9bf74c	-0.076155275
71	0xbe3d202b	-0.18469302
72	0xbd31db99	-0.043422315
73	0x3db10825	0.086441316
74	0xbe8749c8	-0.26423478
75	0x3db8e786	0.090285346
76	0x3d15a357	0.036532726
77	0x3dc3b859	0.09556646
78	0xbd882665	-0.06647948
79	0x3d8ace63	0.067776464
80	0x3cf8ccd7	0.030371113
81	0xbd116087	-0.035492446
82	0xbd0ceb7b	-0.03440426
83	0x3deb18f2	0.11479367
84	0x3d083406	0.03325274
85	0x3db7a7bf	0.08967542
86	0xbd1d3643	-0.038381826
87	0x3d8e8280	0.06958485
88	0x3d48d06b	0.049026888
89	0x3c99ba53	0.018765604
90	0x3c004b9a	0.007830525
91	0xbd7d929f	-0.061907407
92	0x3d8d29ca	0.06892736
93	0xbd101248	-0.035173684
94	0x3d582144	0.0527661
95	0x3dbff4e7	0.09372883
96	0xbcb57699	-0.022151278
97	0x3c2d8e09	0.010592946
98	0x3d4eedd6	0.050519787
99	0x3ddd1610	0.10795224
100	0x3e12caea	0.14335218
101	0xbd22641b	-0.03964625
102	0x3d4e605a	0.050384857
103	0x3e3bc7e6	0.18337974
104	0xbda35862	-0.07975842
105	0xbe04c2d3	-0.12964945
106	0x3d8fcfb2	0.070220366
107	0x3da661b5	0.08124105
108	0xbb2a709d	-0.0026007064
109	0xbd14efaf	-0.036361393
110	0xbd8305b5	-0.06397573
111	0xbdd79122	-0.10525729
112	0x3c8bdfd2	0.0170745
113	0x3df32a01	0.11873246
114	0x3d8bebaf	0.068320625
115	0xbe04cf08	-0.12969601
116	0x3dc23b48	0.09483963
117	0x3d1c529b	0.038164716
118	0xbd9a76df	-0.07542204
119	0xbb8689fb	-0.004105804
120	0xbdb3b46d	-0.08774648
121	0x3c3b4814	0.011430759
122	0x3d061ce4	0.032742396
123	0x3d866184	0.065615684
124	0xbe0003ae	-0.12501404
125	0xbdcc8ad8	-0.0998742
126	0x3c142379	0.00904166
127	0x3e023bb7	0.12718092
128	0xbd69e9a6	-0.05710759
129	0x3d8f48bb	0.06996294
130	0xbd25b9d2	-0.040460415
131	0x3d44b1dc	0.048021182
132	0xbcce133d	-0.025155658
133	0xbc57eb1f	-0.013178616
134	0xbd43c35c	-0.04779373
135	0xbcfaa451	-0.03059593
136	0x3dc162a5	0.09442643
137	0xbce8aec3	-0.028403645
138	0xbe409eec	-0.18810624
139	0xbc08bb90	-0.0083455
140	0xbd338d2d	-0.043835808
141	0xbe077e8d	-0.13231869
142	0xbd87b77a	-0.06626792
143	0xbe508c00	-0.20365906
144	0xbda3ed44	-0.08004239
145	0xbe0db6d1	-0.1383927
146	0x3daf8b07	0.08571439
147	0xbd50efd2	-0.05100996
148	0x3d35950d	0.0443316
149	0xbe591e74	-0.21203023
150	0x3e2c7e67	0.16845094
151	0x3db2aff0	0.08724964
152	0x3d9c2606	0.0762444
153	0x3d9052f3	0.07047071
154	0xbcc64783	-0.024204021
155	0xbdca75da	-0.0988576
156	0xbd973caa	-0.073846176
157	0xbce5b5d9	-0.028040813
158	0xbd028f92	-0.0318752
159	0xbb8048c6	-0.0039149253
160	0xbcb5971f	-0.022166787
161	0xbe2b55a9	-0.16731896
162	0x3d906da2	0.07052161
163	0x3da962e0	0.08270812
164	0xbc3452e8	-0.0110060945
165	0x3da07fd8	0.07836884
166	0xbc41548e	-0.011799945
167	0xbdea0cd2	-0.114282265
168	0xbc57240a	-0.013131151
169	0x3d348339	0.044070456
170	0x3da803f4	0.08203879
171	0xbe74cf9f	-0.23907326
172	0x3db9da5a	0.090748504
173	0x3d87c97c	0.06630227
174	0xbe26f5eb	-0.16304748
175	0x3d85eb8b	0.06539067
176	0x3dea9ef8	0.11456102
177	0x3d22f622	0.03978551
178	0xbbf3a672	-0.0074356133
179	0x3d7d39e0	0.061822772
180	0xbd8e5182	-0.0694914
181	0xbd522d8f	-0.05131298
182	0xbdcaea5a	-0.0990798
183	0xbdcc08ef	-0.099626414
184	0x3c901b52	0.017591152
185	0x3dc12b81	0.09432126
186	0x3cdc3e01	0.026885035
187	0xbcc355e1	-0.023844661
188	0xbdb8a16a	-0.09015162
189	0xbbc855e0	-0.0061137527
190	0xbd4515ee	-0.048116617
191	0x3dc3d24c	0.09561595
192	0x3d90355c	0.070414275
193	0x3dba4fd0	0.09097254
194	0xbbca1af7	-0.0061677652
195	0x3d64e4c0	0.055882215
196	0xbbd4c11c	-0.006492747
197	0xbdee67e4	-0.11640909
198	0xbcd6ee75	-0.026236752
199	0x3dea1456	0.1142966
200	0x3d3d29b4	0.04618235
201	0x3d6666a3	0.056250226
202	0xbdab0d95	-0.083522
203	0x3dbdc1ca	0.09265478
204	0xbc6657ab	-0.014058988
205	0xbd298309	-0.04138473
206	0x3dbddab5	0.09270231
207	0xbc998822	-0.018741671
208	0x3d72adf2	0.05924792
209	0xbc601de3	-0.013679001
210	0xbd03a70d	-0.032141734
211	0x3d4552ce	0.04817467
212	0xbd0505ea	-0.032476343
213	0xbca31265	-0.019906232
214	0xbc8768ed	-0.016529525
215	0xbc44070b	-0.01196457
216	0xbd783e4f	-0.060606297
217	0x3dc6f4f0	0.09714687
218	0xbd948886	-0.07252602
219	0xbd855dff	-0.06512069
220	0xbdb59f60	-0.08868289
221	0xbdbc3572	-0.091898814
222	0xbd18d859	-0.0373157
223	0x3daa1641	0.08305026
224	0x3c913712	0.017726455
225	0xbdcb7a5f	-0.0993545
226	0xbd1a74a6	-0.0377089
227	0x3cf54e72	0.029944632
228	0x3cf6d8c6	0.030132663
229	0x3c9ac433	0.018892383
230	0xbd8feb82	-0.070273414
231	0xbd1bce17	-0.03803834
232	0xbdaad490	-0.08341324
233	0xbd3467f7	-0.04404446
234	0x3d35a45b	0.044346195
235	0x3d7533e8	0.059863955
236	0xbd13283a	-0.035927035
237	0xbc8590ee	-0.01630446
238	0xba887c1f	-0.0010412968
239	0x3c45ddb0	0.01207678
240	0x3cee9255	0.02912251
241	0xbda59ae2	-0.08086182
242	0x3d5e4d8f	0.054273184
243	0xbd955530	-0.07291639
244	0xbd680ab8	-0.056650847
245	0x3d9ac2b2	0.075566664
246	0x3dcc06c5	0.09962229
247	0x3d970705	0.07374386
248	0x3d8a4947	0.06752258
249	0x3d3b0cbc	0.04566644
250	0xbda0f6b7	-0.07859557
251	0xbd0d8810	-0.034553587
252	0xbd23ad63	-0.039960276
253	0xbc17ca55	-0.009264548
254	0x3d444685	0.047918815
255	0xbd94a1f1	-0.0725745

mlp2.0.bias f4 [100]
0	0x3d85287f	0.06501865
1	0x3d67f2c6	0.05662801
2	0xbd54ce66	-0.05195465
3	0x3d8ac66e	0.06776129
4	0x3d9ea6e0	0.07746673
5	0x3def04bd	0.11670826
6	0x3d6242b9	0.055239413
7	0xbd9a50e9	-0.07534964
8	0xbd846ee4	-0.06466463
9	0xbd847a1d	-0.06468604
10	0xbe173183	-0.14764981
11	0xbc6cb967	-0.0144485
12	0x3dbf3ed5	0.09338156
13	0xbda9ad85	-0.08285049
14	0x3d9184ee	0.071054325
15	0x3db8c171	0.09021271
16	0x3de26d68	0.11056024
17	0x3c69ee85	0.014278059
18	0x3c4c3b7f	0.012465357
19	0xbdc42873	-0.095780276
20	0xbdc07f6e	-0.09399305
21	0x3ded13d3	0.11576047
22	0xbcd24056	-0.025665443
23	0x3c46aae6	0.012125706
24	0xbda84c7c	-0.08217713
25	0xbd2103a8	-0.039310127
26	0xbc1860cb	-0.009300421
27	0x3c0698da	0.008215154
28	0xbdccdcba	-0.10003038
29	0x3d6c44a8	0.057682663
30	0x3d94b720	0.07261491
31	0x3d99350f	0.07480823
32	0x3d763902	0.06011296
33	0x3d62c725	0.0553657
34	0xbbb83d57	-0.0056225467
35	0xbe052ccc	-0.1300537
36	0x3d95033e	0.07276009
37	0x3d1e96f2	0.03871817
38	0x3c6d0e33	0.014468717
39	0x3da267d0	0.07929957
40	0xbd3e3c53	-0.04644425
41	0xbdbc5e91	-0.091977246
42	0xbc298cf3	-0.010348546
43	0xbe303428	-0.17207396
44	0x3c68f92d	0.014219564
45	0xbd45e8fd	-0.048317898
46	0xbe14f198	-0.14545286
47	0x3dff8d5a	0.124781325
48	0xbcac49ce	-0.021031287
49	0x3d13b65b	0.03606258
50	0x3d5bee34	0.053693965
51	0x3d3a9370	0.045550764
52	0x3dc1c092	0.09460558
53	0x3cac54b7	0.021036489
54	0xbd8352bd	-0.064122654
55	0x3cf4faeb	0.029904803
56	0xbd1489d2	-0.03626425
57	0xbbdeb913	-0.006796965
58	0x3d6fc5c9	0.058538232
59	0xbb036eba	-0.0020055012
60	0x3c918df5	0.017767886
61	0xbb66bd14	-0.0035207914
62	0x3c34918e	0.011021031
63	0x3b2c1fc2	0.0026264046
64	0x3d8d1094	0.06887928
65	0xbe138e0a	-0.14409652
66	0xbd20471d	-0.03913032
67	0xbd3c2972	-0.045937963
68	0xbda85c3f	-0.082207195
69	0xbd526934	-0.05136986
70	0xbd605ad2	-0.054774113
71	0x3c2f34d3	0.010693747
72	0x3d0b1f8b	0.03396563
73	0x3d953ffa	0.07287593
74	0x3cc8e828	0.024524763
75	0xbd9a3ddb	-0.07531329
76	0xbddfdec7	-0.10931163
77	0xbbb288ae	-0.0054484224
78	0xbd4a3f28	-0.049376637
79	0x3dde2048	0.10846001
80	0xbbd63a6e	-0.006537727
81	0x3dc741c8	0.09729344
82	0x3d02aed8	0.031905025
83	0x3d1d59e3	0.0384158
84	0xbd514a4f	-0.051096257
85	0xbd546320	-0.051852345
86	0x3dd0c863	0.10194471
87	0xbdc44508	-0.09583479
88	0x3c7a1f18	0.015266202
89	0x3d9381f5	0.07202522
90	0xbd658e36	-0.056043826
91	0x3d32b20c	0.04362683
92	0x3d177659	0.0369781
93	0x3b875a21	0.0041306172
94	0xbcaf28a3	-0.021381682
95	0xbda5f693	-0.08103671
96	0xbd64a264	-0.05581893
97	0xb9b77b60	-0.00034996402
98	0xbc124b1f	-0.008929043
99	0xbd37dd65	-0.044888873

mlp2.2.weight f4 [50, 100]
0	0x3dbc41fc	0.09192273
1	0x3d5ad5dc	0.05342661
2	0x3d5533f8	0.052051514
3	0x3ce563d0	0.028001696
4	0xbd9ff4c8	-0.0781036
5	0x3d5b8995	0.053598005
6	0xbdb77e2a	-0.08959611
7	0xbdb1c6f7	-0.08680528
8	0x3da5aaad	0.080891944
9	0xbd38540b	-0.045002025
10	0xbc9cd02f	-0.019142238
11	0xbc92c665	-0.017916868
12	0xbd522a40	-0.051309824
13	0x3d91b988	0.071154654
14	0x3d3ea9c7	0.04654863
15	0x3d9d7a64	0.0768936
16	0x3da1a456	0.07892673
17	0xbd0afe3b	-0.03393386
18	0x3d6c6e5a	0.057722427
19	0x3afc7f57	0.0019264024
20	0x3c9969f3	0.018727278
21	0xbcd611dc	-0.026131563
22	0xbd537f48	-0.051635057
23	0xbd00dc2c	-0.031459972
24	0xbda0f3e8	-0.078590214
25	0xbe3b4781	-0.18288995
26	0x3c6b0a38	0.014345698
27	0x3cfdb1f0	0.030968636
28	0xbc0886ba	-0.008332903
29	0x39af5efd	0.00033449373
30	0xbbb88e4d	-0.005632198
31	0x3da6e673	0.081494235
32	0xbceea7ef	-0.029132811
33	0xbdbfba43	-0.093616985
34	0xbdc8f07b	-0.09811493
35	0xbd2d762c	-0.042349026
36	0xbe08face	-0.13376924
37	0xbcf38994	-0.029728688
38	0xbd8640e5	-0.065553464
39	0x3e2e80fc	0.17041391
40	0x3c807540	0.01568091
41	0xbdfb1949	-0.12260682
42	0xbda730dd	-0.08163617
43	0xbd4787bc	-0.04871343
44	0x3d83fa8f	0.06444275
45	0x3db6675d	0.08906434
46	0x3bcc0ec3	0.0062273457
47	0x3d6d8627	0.057989266
48	0xbdda9e0c	-0.10674676
49	0x3d83f02d	0.06442294
50	0x3dcdc314	0.10046974
51	0xbd16ae75	-0.03678747
52	0xbd55762e	-0.052114658
53	0xbd8ce56b	-0.068796955
54	0xbc1ddfca	-0.009635875
55	0x3d85ab8c	0.065268606
56	0x3ce2b297	0.027673049
57	0xbddd873d	-0.1081681
58	0x3d182b9e	0.03715097
59	0xbdff2d2f	-0.1245979
60	0xbb913565	-0.004431414
61	0xbdddaf32	-0.108244315
62	0xbd3bc9e8	-0.04584685
63	0xbcb9a21c	-0.022660308
64	0x3d9d0555	0.07667033
65	0x3e2a9543	0.16658501
66	0xbd3f6d4d	-0.046735097
67	0xbc1a3a64	-0.0094133355
68	0x3e1c7698	0.15279615
69	0x3c78a21a	0.015175367
70	0xbd5a3049	-0.053268705
71	0x3d5356c5	0.05159642
72	0xbdc0e9d0	-0.09419596
73	0x3d186719	0.037207697
74	0x3cdb8bee	0.026800122
75	0x3c8d7b09	0.017270582
76	0xbd91eaeb	-0.07124885
77	0xbd43d781	-0.047812942
78	0x3e2828ed	0.16421862
79	0xbe1dfa2a	-0.15427461
80	0xbc71a225	-0.014748131
81	0xbcf0763e	-0.029353257
82	0x3c888658	0.016665623
83	0x3de696ee	0.11259256
84	0x3d146a19	0.036233995
85	0xbd9b329d	-0.07578013
86	0xbe6b7023	-0.22991996
87	0x3c945c12	0.018110309
88	0x3cfd7c94	0.030943193
89	0xbd56f4e3	-0.052479636
90	0xbdcf7b23	-0.10130908
91	0x3ca5dab9	0.020245897
92	0xbda1536b	-0.07877239
93	0x3d5eea5b	0.054422718
94	0xbd381e73	-0.044950914
95	0x3cf5e351	0.03001562
96	0x3d151971	0.036401216
97	0x3d868855	0.06568972
98	0xbe192f63	-0.14959483
99	0xbb81401e	-0.003944411
100	0xbca52498	-0.02015905
101	0x3e390b69	0.18070759
102	0xbc750fa8	-0.014957346
103	0x3c66090a	0.014040241
104	0xbe009b99	-0.12559356
105	0xbd913751	-0.07090629
106	0xbd8c502f	-0.06851231
107	0xbd75eb4d	-0.060038853
108	0x3d20131e	0.03908073
109	0xbdab66ac	-0.083691925
110	0xbb7e9c72	-0.0038850573
111	0xbd530d2a	-0.051526226
112	0x3be6b5e5	0.0070407265
113	0xbc359e67	-0.011085129
114	0xbdc48cda	-0.09597178
115	0x3d28752e	0.041127376
116	0xbbf0223a	-0.007328299
117	0xbc352f70	-0.011058673
118	0x3dd77c8e	0.10521804
119	0x3d8a0cbb	0.067407094
120	0x3d9bf6d2	0.076154366
121	0xbe360779	-0.17776288
122	0xbda91dba	-0.08257623
123	0x3d4f51a8	0.050614983
124	0x3d78887d	0.06067704
125	0xbe1e1c34	-0.15440446
126	0x3da4b97e	0.08043192
127	0xbd427e32	-0.04748363
128	0xbc3b9689	-0.011449465
129	0xbd1b3a68	-0.037897497
130	0xbd8deed5	-0.06930319
131	0xbd50d1e1	-0.050981406
132	0x3ddbe51b	0.10737058
133	0x3bd48485	0.006485524
134	0xbda77ea6	-0.08178453
135	0xbc642ee0	-0.0139271915
136	0xbca7b24f	-0.020470766
137	0x3d3da9db	0.046304565
138	0x3c6dd092	0.014515059
139	0x3df46d1e	0.11934875
140	0xbcc92898	-0.02455549
141	0xbbf74bc3	-0.0075468733
142	0xbdf0ad3b	-0.11751791
143	0xbe17fa04	-0.14841467
144	0x3d0b8d8a	0.03407053
145	0x3bcab242	0.006185801
146	0xbdea1710	-0.1143018
147	0x3d2b69fb	0.041849118
148	0x3d75fb9f	0.060054418
149	0x3dd465a9	0.10370953
150	0xbdb18919	-0.086687274
151	0xbe16cb3e	-0.14725968
152	0xbd30e783	-0.043189537
153	0xbca6f02f	-0.0203782
154	0x3d8e3421	0.069435365
155	0x3d60c26a	0.054872908
156	0x3dd89fd9	0.105773635
157	0xbbcb82f4	-0.006210679
158	0x3bbf6ff7	0.0058422047
159	0x3d8f1a58	0.069874465
160	0xbd6d1c00	-0.05788803
161	0xbdc3f534	-0.09568253
162	0xbd5e1a59	-0.054224346
163	0x3db7f7cd	0.08982811
164	0x3d9821e1	0.07428337
165	0xbdc6491e	-0.09681915
166	0x3d06a9a2	0.03287662
167	0x3d7e1d79	0.062039826
168	0xbd8cc736	-0.06873934
169	0x3c101e62	0.008796306
170	0x3ccdec7c	0.025137179
171	0x3c00b44b	0.007855485
172	0xbd386114	-0.045014456
173	0x3dc7850d	0.09742174
174	0x3d4119e8	0.047143847
175	0x3d8c3e28	0.06847793
176	0x3d0bd4d2	0.03413851
177	0x3a62cae5	0.00086514495
178	0x3ceb026e	0.028687682
179	0xbdd5a1ad	-0.10431228
180	0x3d5083c3	0.050906908
181	0x3d059f5c	0.03262268
182	0xbd594921	-0.053048257
183	0x3da2224c	0.07916698
184	0x3b988276	0.004654224
185	0xbd0a5f7b	-0.033782464
186	0xbd745c55	-0.059658367
187	0xbdc48b88	-0.09596926
188	0xbdfced07	-0.12349897
189	0xbe161bc5	-0.1465903
190	0xbd9154f7	-0.07096284
191	0xbdd0f586	-0.1020308
192	0xbd927c7b	-0.07152649
193	0xbd8e3855	-0.06944338
194	0xbd12e987	-0.03586724
195	0x3d323a12	0.04351241
196	0xbdef4144	-0.1168237
197	0x3de18d7e	0.110133156
198	0x3e040355	0.12891896
199	0x3d914192	0.07092585
200	0x3baac70e	0.0052117174
201	0x3daa07dd	0.08302281
202	0xbda46354	-0.08026758
203	0xbda4b54d	-0.08042393
204	0xbccd3aaf	-0.025052397
205	0x3d1cc25b	0.03827129
206	0x3caa4aa1	0.020787539
207	0xbd7e087f	-0.06201982
208	0xbcacac00	-0.02107811
209	0xbcac9a27	-0.0210696
210	0xbdd9ae5b	-0.10628959
211	0xbd866e43	-0.065639995
212	0xbd479e0d	-0.048734713
213	0xbc37a6a5	-0.011209165
214	0xbdad1722	-0.08451678
215	0xbd2b3b51	-0.041804615
216	0x3d924890	0.071427464
217	0xbdfe5d52	-0.12420143
218	0x3da121c9	0.07867772
219	0xbacd2121	-0.0015650132
220	0x3da9a698	0.08283728
221	0xbd96ac8b	-0.07357129
222	0x3b2e8d14	0.0026634382
223	0x3b3ada49	0.0028511456
224	0x3bf59fdc	0.0074958634
225	0x3d271089	0.040787254
226	0x3c2b95fb	0.01047277
227	0xbda0609d	-0.078309275
228	0xbb566316	-0.0032712868
229	0x3d74662b	0.059667747
230	0x3db8d20c	0.09024438
231	0x3d9c085d	0.07618783
232	0x3cea47c4	0.028598674
233	0xbdac0ede	-0.08401273
234	0xbd7d09dd	-0.061776984
235	0xbdcc1f0d	-0.0996686
236	0xbd64942c	-0.05580537
237	0xbdc1f803	-0.094711326
238	0xbc80826d	-0.015687192
239	0x3cfbee2d	0.03075322
240	0xbdad5192	-0.08462824
241	0x3c73e892	0.014886992
242	0x3d83d346	0.064367816
243	0xbdc26587	-0.09492021
244	0x3d86bc5e	0.06578897
245	0x3dc0e38e	0.094184026
246	0xbd909519	-0.07059688
247	0x3d98c616	0.07459657
248	0xbd3f5966	-0.046716116
249	0xbc56c5de	-0.013108699
250	0x3de0db7f	0.109793656
251	0xbd9144da	-0.070932105
252	0xbdbb0b43	-0.091330074
253	0x3af65b43	0.0018795509
254	0x3d8f56a6	0.06998949
255	0x3d2b4e64	0.041822806

mlp2.2.bias f4 [50]
0	0xbddb7501	-0.10715676
1	0xbdd2bc05	-0.10289768
2	0x3dbb5d94	0.09148708
3	0x3b63fa04	0.0034786472
4	0xbd6a2384	-0.057162777
5	0xbbc6652a	-0.00605454
6	0xbde5e075	-0.112244524
7	0xbe0a24ab	-0.1349055
8	0xbc99e092	-0.018783841
9	0x3cb182f8	0.021668896
10	0xbdbbee06	-0.09176259
11	0x3e02b6a9	0.12764992
12	0xbd5eca66	-0.05439224
13	0xbad81f32	-0.0016488789
14	0xbd33ff6d	-0.043944765
15	0x3c428def	0.01187466
16	0xbc3c2f61	-0.011485905
17	0x3ddfdaff	0.10930442
18	0xbd5e7e5e	-0.054319732
19	0x3d5ecb63	0.054393183
20	0x3c2e899a	0.010652924
21	0xbcccf919	-0.025021123
22	0x3d6ce100	0.057831764
23	0xbdd75e62	-0.10516049
24	0xbd23edb5	-0.040021617
25	0x3d8bb433	0.0682148
26	0x3e45e0d9	0.19324054
27	0xbccf1e07	-0.025282873
28	0x3d3eaefc	0.046553597
29	0xbe0cfd7a	-0.13768569
30	0xbd8b8fc3	-0.0681453
31	0xbe0f887e	-0.14016911
32	0xbc77d38a	-0.015126118
33	0xbdcc0ad5	-0.099630035
34	0xbd43a894	-0.04776819
35	0xbcfde262	-0.030991737
36	0xbd946069	-0.07244951
37	0x3d3fb866	0.046806715
38	0x3d0ed2e8	0.034869105
39	0x3e2e15ba	0.17000476
40	0xbe1e326a	-0.15448919
41	0xbd992767	-0.074782185
42	0x3e0919a1	0.13388683
43	0xbe022c04	-0.12712103
44	0xbdb6f1b2	-0.089328185
45	0x3d1e4e28	0.038648754
46	0x3d7df8d4	0.06200488
47	0xbbeb3798	-0.007178258
48	0x3d71fd9b	0.059079748
49	0x3e27956d	0.16365595

attention.0.weight f4 [100, 100]
0	0x3d906942	0.07051326
1	0x3c8a52b1	0.016885133
2	0xbdf3ccc6	-0.11904292
3	0x3d622be9	0.055217657
4	0x3d342496	0.043980204
5	0xbc626a5b	-0.013819302
6	0xbd372019	-0.044708345
7	0xbd56afb2	-0.05241365
8	0x3d030ae0	0.031992793
9	0xbca8a83e	-0.020588037
10	0x3daf2f9b	0.08554002
11	0x3de3a4cd	0.11115418
12	0x3db08890	0.08619797
13	0xbdd1c103	-0.10241892
14	0x3dd926c1	0.10603095
15	0xbdcb5918	-0.09929103
16	0x3db8db09	0.09026153
17	0x3d4cd743	0.050009977
18	0xbd4e4958	-0.050362915
19	0x3c0cbbae	0.008589668
20	0xbc0a98c9	-0.008459278
21	0x3d21368e	0.039358668
22	0xbcadc035	-0.021209816
23	0x3d2fab69	0.04288808
24	0xbd4e51dc	-0.050371036
25	0x3db42c26	0.08797483
26	0x3c1015da	0.008794272
27	0x3d6be131	0.057587806
28	0x3d943e8c	0.07238492
29	0xbd06e7dc	-0.032935962
30	0x3cfa27c9	0.03053655
31	0x3db37276	0.08762066
32	0x3d153d82	0.03643561
33	0xb949773a	-0.00019213269
34	0x3d7bd2ed	0.06148045
35	0x3de196e6	0.1101511
36	0x3db957d2	0.090499535
37	0x3d5137d7	0.051078644
38	0xbd9cf939	-0.07664723
39	0xbdad54d3	-0.084634446
40	0xbd8f4e8a	-0.06997402
41	0x3cdb99e3	0.026806777
42	0x3ccafacb	0.02477779
43	0xbd319474	-0.043354467
44	0xbcf2425b	-0.029572656
45	0x3d88f4a5	0.06687287
46	0xbcf297e2	-0.029613439
47	0xbc22409c	-0.009903099
48	0x3debba18	0.11510104
49	0x3d2414fe	0.040059082
50	0xbdb812c5	-0.08987955
51	0x3d15636e	0.036471777
52	0x3d9f0e69	0.077664204
53	0x3bfa703b	0.0076427734
54	0xbd0b2fa2	-0.033980973
55	0x3d657926	0.05602374
56	0x38cf4c00	9.884685e-05
57	0x3ca46c76	0.02007125
58	0xbd6eb623	-0.058279168
59	0x3c8cc5d8	0.017184183
60	0x3d1a9f98	0.037749857
61	0xbcc33ddc	-0.023833208
62	0x3d5491b7	0.051896777
63	0xbc939409	-0.018014925
64	0xbdcaf668	-0.099102795
65	0xbde11a97	-0.109914
66	0xbd7c93c6	-0.061664365
67	0x3d90e88c	0.07075605
68	0xbccb243f	-0.024797557
69	0xbdf4e52d	-0.11957774
70	0x3c5f50de	0.01363012
71	0x3dc71b04	0.0972195
72	0xbcc724c6	-0.024309527
73	0x3db565c8	0.08857304
74	0x3daa84fe	0.083261475
75	0xbc34bc7e	-0.011031268
76	0xbde0b1e4	-0.1097143
77	0x3cdfbd79	0.027312027
78	0x3ac33505	0.001489312
79	0x3daf22d1	0.085515626
80	0x3e1232a0	0.14277124
81	0xbdaefc9e	-0.08544277
82	0xbd5faad5	-0.054606277
83	0xbcfb55a3	-0.030680483
84	0xbdbf494d	-0.09340153
85	0x3c964f44	0.018348344
86	0x3d85190b	0.06498917
87	0x3da29204	0.079380065
88	0xbd27c530	-0.040959537
89	0xbdbea423	-0.0930865
90	0xbd93cbe7	-0.07216626
91	0xbd2bb9fe	-0.041925423
92	0x3d411a2a	0.047144093
93	0x3d632f57	0.05546507
94	0xbd2c8e38	-0.042127818
95	0xbd6f3925	-0.058404107
96	0x3dc31d56	0.0952708
97	0x3b9c781e	0.0047750613
98	0x3dec1ade	0.11528562
99	0xbd312eb4	-0.04325743
100	0xbba19c64	-0.0049319733
101	0xbce73ea7	-0.028228117
102	0xbd8d5bf2	-0.06902303
103	0x3d737a53	0.05944283
104	0x3de1f79b	0.11033555
105	0xbccd9d02	-0.025099281
106	0xbd2842e4	-0.041079417
107	0xbdb6a4bb	-0.089181386
108	0x3d558c47	0.052135732
109	0xbd1f66bb	-0.03891633
110	0xbdac55b9	-0.08414788
111	0x3e09e112	0.13464764
112	0x3d8cddec	0.06878266
113	0xbd5dbd90	-0.05413586
114	0xbdc42bbb	-0.095786534
115	0xbc90acb5	-0.017660478
116	0x3d729187	0.059220817
117	0xbdc954f3	-0.09830656
118	0x3d6ca3e7	0.057773497
119	0xbe158b16	-0.14603838
120	0x3ba9c272	0.0051806504
121	0x3e2d48c6	0.16922292
122	0xbdb87b5a	-0.090079024
123	0xbdaa477a	-0.08314414
124	0xbcea21f1	-0.028580638
125	0x3da0ed68	0.07857782
126	0x3d57d9eb	0.052698057
127	0x3de0c27f	0.10974597
128	0x3c46c231	0.01213126
129	0x3d5404fb	0.051762562
130	0xbda01ac2	-0.07817604
131	0xbd2a18ab	-0.04152743
132	0xbdb57848	-0.088608325
133	0x3c51e7e3	0.012811634
134	0x3dc7d0ff	0.0975666
135	0x3da6783f	0.08128404
136	0x3d81fb1b	0.06346723
137	0x3dacf7b4	0.08445683
138	0xbdb4bead	-0.08825431
139	0x3db492ac	0.08817038
140	0xbc66048e	-0.014039172
141	0x3dfd7f6e	0.12377821
142	0xbc0ef16e	-0.0087245535
143	0x3d5e78f4	0.05431457
144	0xbc8cce4d	-0.017188216
145	0xbd0b89e8	-0.034067065
146	0xbd3d88a5	-0.046272893
147	0x3dc10d5e	0.09426378
148	0xbd179ecb	-0.03701667
149	0x3d670baf	0.056407627
150	0xbc6244dc	-0.013810363
151	0xbe7b0bf2	-0.24516276
152	0xbd8d4b5a	-0.06899138
153	0xbd815277	-0.06314557
154	0xbd994db5	-0.074855246
155	0xbbd748ab	-0.006569942
156	0x3c0c1b00	0.008551359
157	0x3dc40333	0.09570923
158	0x3d91e41f	0.07123589
159	0x3b8f2eff	0.004369616
160	0x3d82b45e	0.063820586
161	0x3d3a4166	0.045472525
162	0x3c5d6b26	0.013514316
163	0xbd0541a3	-0.0325333
164	0xbcfd4d7c	-0.030920736
165	0xbd010a17	-0.031503763
166	0xbd9d8d2b	-0.07692941
167	0x3debfdb3	0.11522999
168	0x3d19cfd1	0.037551705
169	0xbd5dab42	-0.054118402
170	0x3bd51140	0.0065023005
171	0x3d7eb7ea	0.062187113
172	0xbdb89f57	-0.09014767
173	0x3d418dc1	0.047254328
174	0xbd30ab77	-0.04313227
175	0xbd013924	-0.031548634
176	0xbcf2b181	-0.029625656
177	0xbdb3ce43	-0.08779576
178	0xbda64a88	-0.081196845
179	0xbc1c3b56	-0.009535631
180	0x3de87452	0.11350311
181	0x3dc93024	0.09823635
182	0xbc05b346	-0.008160418
183	0x3d75101a	0.05982981
184	0x3a5966bf	0.00082932034
185	0x3dcf2870	0.10115135
186	0x3b7bc947	0.0038419531
187	0xbd8b740a	-0.06809242
188	0x3de5813e	0.112062916
189	0xbcfd2d66	-0.030905437
190	0xbdc2004d	-0.094727136
191	0x3d74bce8	0.059750468
192	0xbd946d62	-0.072474256
193	0xbdc90d8f	-0.09817039
194	0xbd019483	-0.031635772
195	0x3dad5f8e	0.08465491
196	0x3cedf50f	0.029047517
197	0x3dc3c299	0.09558601
198	0xbc9cd721	-0.01914555
199	0x3dee99c8	0.11650425
200	0x3e01cf8e	0.12676832
201	0xbca53cfc	-0.020170681
202	0x3cb94ef3	0.022620654
203	0xbce05a27	-0.027386738
204	0x3b0a9905	0.0021148336
205	0xbb7adcec	-0.0038278652
206	0x3dae9c9a	0.08525963
207	0xbc8a4dfa	-0.016882885
208	0xbbf1ef30	-0.0073832497
209	0x3cdfa5a7	0.027300669
210	0xbdb4a08b	-0.08819684
211	0xbd6d860e	-0.057989173
212	0x3d19373a	0.037406184
213	0x3d9d964e	0.07694684
214	0x3ad7b8e9	0.0016458306
215	0xbd2980f0	-0.04138273
216	0x3da5a87f	0.08088779
217	0x3bb1e8d8	0.0054293685
218	0xbd576461	-0.052585963
219	0xbc13df2c	-0.009025376
220	0xbd667731	-0.056266014
221	0xbcf2fb92	-0.029660974
222	0x3c92c04d	0.017913962
223	0xbdbdfe08	-0.09276968
224	0x3dcd609d	0.10028193
225	0x3dafed37	0.08590167
226	0xbd9fe7df	-0.07807898
227	0xbd1bc195	-0.03802641
228	0xbd85e03c	-0.0653691
229	0xbb5f784d	-0.0034098804
230	0xbd4f2409	-0.050571475
231	0x3c0e504a	0.008686135
232	0x3d08d7f5	0.033409078
233	0xbdaaf42e	-0.08347355
234	0xbd6875e1	-0.056753043
235	0x3cea3784	0.028590925
236	0xbd7b5cc1	-0.061367754
237	0xbc1e419b	-0.009659196
238	0x3ddf6b2d	0.10909114
239	0x3d919262	0.071079984
240	0x3d13dd97	0.036099996
241	0x3d9274f2	0.07151212
242	0x3d1686e7	0.036749747
243	0xbd754c69	-0.059887324
244	0xbc2c970f	-0.010534062
245	0x3d93559e	0.071940646
246	0xb9c53e0c	-0.00037620997
247	0xbcddaa96	-0.02705888
248	0xbe0ebe61	-0.13939811
249	0x3cb5cb73	0.022191739
250	0x3cd94d70	0.026526183
251	0x3cf3654f	0.029711394
252	0xbd997593	-0.07493129
253	0xbdb8c57b	-0.090220414
254	0xbdb50003	-0.08837893
255	0x3ce27ec2	0.027648333

attention.0.bias f4 [100]
0	0x3c91cfb8	0.017799243
1	0x3911508a	0.0001385828
2	0xbd63c41b	-0.055606943
3	0x3d5fd0e9	0.05464259
4	0xbdc51433	-0.09622993
5	0xbc4fa993	-0.012674707
6	0x3dc86fa4	0.09786919
7	0x3d615773	0.05501504
8	0x3db4060b	0.08790215
9	0xbca9d2f1	-0.020730468
10	0x3d7a7a8b	0.061152022
11	0x3ca1d532	0.01975498
12	0xbca83b2c	-0.020536028
13	0xbcfca3d0	-0.03083983
14	0xbd723a8c	-0.059137866
15	0xbca633dd	-0.020288402
16	0xbd7d0b25	-0.061778206
17	0x3d321adb	0.043482643
18	0x3d1ea333	0.038729858
19	0x3d52ab60	0.051432967
20	0x3d0c5bc0	0.034267187
21	0xbc3ccefe	-0.01152396
22	0x3ccb8ec8	0.024848357
23	0x3acaec9c	0.0015481892
24	0xbd33def0	-0.04391378
25	0x3dad73fc	0.08469388
26	0x3d11567a	0.03548286
27	0xbc7e5ba0	-0.015524775
28	0x3d7e01d5	0.062013466
29	0xbdb63f0b	-0.08898743
30	0x3d8ef8a5	0.06981019
31	0xbd37df49	-0.044890676
32	0xbdcca24b	-0.099918924
33	0x3d0b85fa	0.034063317
34	0xbcc6371f	-0.024196206
35	0xbb9ec318	-0.0048450343
36	0xbc80961a	-0.015696574
37	0x3cef17f2	0.029186223
38	0x3da37a0d	0.07982264
39	0x3c8b52df	0.01700729
40	0x3d3080a5	0.043091435
41	0x3dcd2db7	0.10018485
42	0xbcce4de3	-0.025183624
43	0xbd03ec05	-0.032207508
44	0x37fbee94	3.0032628e-05
45	0x3dbbf497	0.09177511
46	0xbd01f56d	-0.031728197
47	0x3d836031	0.064148314
48	0x3d7760f0	0.06039518
49	0x3b420bbf	0.0029609052
50	0xbda16677	-0.07880872
51	0xbdc4ced6	-0.09609763
52	0xbc048aa9	-0.0080897
53	0xbcf0a0c5	-0.029373536
54	0x3d90211b	0.07037564
55	0x3daf5372	0.08560838
56	0x3cb083ef	0.021547286
57	0x3d9f1d81	0.07769299
58	0x3ddc6532	0.10761489
59	0xbd7a43cd	-0.061099816
60	0x3c902d55	0.017599741
61	0xbdc60ef0	-0.09670818
62	0x3d9e1082	0.07717992
63	0x3c8fd673	0.017558312
64	0x3c8993ff	0.016794203
65	0xbd1237f4	-0.035697892
66	0xbd21552e	-0.039387874
67	0xbdc4bac2	-0.09605934
68	0xbd8ea93c	-0.06965873
69	0xbbc0bd03	-0.005881907
70	0x3b1f9d81	0.0024355354
71	0x3dc2e831	0.09516943
72	0xbda62340	-0.08112192
73	0xbd6ded14	-0.058087423
74	0x3d877ef0	0.06616008
75	0x3d0da606	0.03458216
76	0x3d5045fa	0.050847985
77	0x3da67221	0.08127237
78	0xbd4d70dd	-0.050156463
79	0x3d8f45d0	0.069957376
80	0xbda7d3c1	-0.08194686
81	0xbdb2ddfe	-0.08733748
82	0x3e0fe03c	0.14050382
83	0xbda1e34c	-0.079046816
84	0x3d743f9b	0.05963097
85	0x3d98f377	0.07468312
86	0x3d0a58bf	0.03377604
87	0x3ddfb090	0.109223485
88	0xbd26e708	-0.040747672
89	0x3db82e35	0.08993188
90	0x3dca0106	0.098634765
91	0xbd9ccdfd	-0.07656477
92	0xbdbd3457	-0.09238499
93	0x3cfe71eb	0.03106018
94	0xbb91fcab	-0.004455169
95	0x3d54a7c7	0.051917817
96	0xbd5d37c5	-0.054008264
97	0x3d631ab6	0.055445395
98	0xbc140308	-0.009033926
99	0x3cb9212c	0.022598825
