sarl_star_ros/CrowdNav-nowall/crowd_nav/data/output_new1_0.4_f1/il_model.pth (torch_old, 349196 bytes, 20 tensors)

mlp1.0.weight f4 [150, 13]
0.5427533 -0.96791804 0.9647824 -0.5888229 -0.63257027 0.39717233 1.917809 2.2771065
2.874054 -4.3621926 -0.66165674 -1.9572887 -1.5890903 0.046480857 0.10615738 0.103959695
-0.21643919 -0.07967547 0.12009344 -0.8858033 -0.41386694 0.1742836 0.24315944 -0.124809556
-0.15206522 -0.062386956 -2.4747968 -0.20521463 -0.4557085 -0.20784388 0.12597807 0.19292262
-0.36507693 0.041545983 -0.15195982 -0.34712803 -0.22582757 1.7720902 -0.40002045 -0.25157523
-0.058395326 0.44861263 0.048127044 -0.22617996 0.022601787 1.1365397 -0.4985087 -0.8574393
-1.118934 -0.25738037 -0.24738023 -0.8635202 -1.1379901 -0.28604645 -1.1093676 -0.37223858
0.5165017 -0.2794283 0.48329988 -0.60185003 2.313342 3.1657717 0.8114542 1.2364901
0.42205617 -0.6457265 0.9177961 -0.13561668 0.53370273 -2.20422 -0.90159243 -0.7360057
0.5345302 0.5001929 1.0961419 0.59731215 -0.36109683 0.86526495 -0.17520177 0.19964112
-0.19319525 -0.24492823 0.00674672 -0.18749836 -0.009537781 0.08526356 0.18354033 -0.61903065
0.22303674 -0.29850397 -0.047266375 -1.2703992 -0.66616905 1.849802 -0.30823547 -0.062366117
1.5111464 1.033597 0.8095963 -0.3810852 1.9309053 0.0964046 1.2849687 -0.43332022
0.959839 -0.38373515 0.764687 -0.06575417 2.8265424 0.38186666 -2.5226007 2.2297304
-2.5396466 -4.142576 -0.057367425 -3.1417737 0.13125026 -0.6956961 0.41854718 -1.0855767
0.011737269 0.5016903 0.003088485 -0.08546349 0.95104456 -0.7357187 -0.1463806 0.4638379
-0.23824415 0.63595945 0.44583032 -1.32391 -1.11776 -0.9277348 -2.2893286 1.0483826
2.4506006 0.05936881 -2.0085816 7.964576 0.40248758 -1.3784752 -0.31746006 -0.27511486
-0.11525009 -0.6924499 0.27139768 2.8733797 -1.6416719 -1.8405774 -2.1102395 -0.7615453
0.61304384 0.9126723 -1.2589067 0.44931218 -0.32186162 -0.13320382 0.14503129 0.07285192
-0.2932399 -0.35515997 0.006065769 -0.054134957 -0.08266313 0.56545246 -0.11924468 -0.006555261
0.22279686 -0.18124624 0.17959914 0.13100101 0.25084922 -0.2179004 0.026026033 -0.120347045
-0.06536657 -0.28738618 -0.49228668 0.15912957 -0.15510845 -0.24090578 -0.14008982 0.5718988
-2.3858669 0.36009112 2.0218904 -0.7868803 -2.2306914 2.5587132 -0.86604613 3.2647016
-0.8601491 -1.373684 -0.68212956 -0.21121389 -0.10081793 0.9196047 0.33393028 1.3353567
1.4569765 -2.1723592 -0.108162254 2.1387427 -0.50088286 0.019619059 -0.55615604 0.12353714
-0.0398949 0.042993587 1.9453956 0.12004191 2.7570143 2.0980697 -0.060347382 -2.997922
-1.9819047 3.490204 -1.0186132 -1.7841015 -0.6973289 -0.79208726 0.04239804 0.21721756
-0.14233588 0.22190017 -0.10116597 0.665914 0.5763262 1.0704969 0.39892074 -0.14439856
0.38768426 -0.34812775 -0.20588794 -0.22102971 -0.0006072995 -0.21240313 -0.7933465 -0.56174034
0.66465914 -1.0140971 0.6161585 0.5440914 -0.34402606 -0.4407922 -0.34225777 0.13864489
0.11746006 0.655435 -0.20087604 -0.6866918 0.7702237 0.57905835 0.12809812 -1.5455824
00000000: e1f1 0a3f 7ac9 77bf fbfb 763f 19bd 16bf
00000010: 20f0 21bf 2c5a cb3e c47a f53f 1dbc 1140
00000020: 80f0 3740 1597 8bc0 5662 29bf 7088 fabf
00000030: 5067 cbbf b662 3e3d 0a69 d93d d2e8 d43d
00000040: 3ca2 5dbe e52c a3bd 8df3 f53d 01c4 62bf
00000050: 5ee6 d3be 6677 323e cafe 783e 279c ffbd
00000060: fcb6 1bbe 7789 7fbd 1263 1ec0 c923 52be
00000070: a052 e9be 07d5 54be 6500 013e 828d 453e
00000080: 5deb babe 1f2c 2a3d 5b9b 1bbe c4ba b1be
00000090: 583f 67be dad3 e23f 7bcf ccbe 78ce 80be
000000a0: f02f 6fbd 8eb0 e53e dd20 453d b89b 67be
000000b0: 6227 b93c 227a 913f 883c ffbe 2481 5bbf
000000c0: 3b39 8fbf 5cc7 83be 3e51 7dbe a90f 5dbf
000000d0: a9a9 91bf ae74 92be c2ff 8dbf 0e96 bebe
000000e0: 7539 043f 3a11 8fbe 1573 f73e d812 1abf
000000f0: cc0d 1440 019c 4a40 76bb 4f3f 4f45 9e3f
00000100: bf17 d83e 554e 25bf aff4 6a3f 19df 0abe
00000110: bea0 083f f111 0dc0 c3ce 66bf df6a 3cbf
00000120: f9d6 083f a40c 003f 614e 8c3f 73e9 183f
00000130: afe1 b8be 0182 5d3f 1868 33be b96e 4c3e
00000140: fad4 45be 77ce 7abe 9713 dd3b 92ff 3fbe
00000150: 5a44 1cbc a99e ae3d fff1 3b3e cb78 1ebf
00000160: be63 643e 83d5 98be 639a 41bd 719c a2bf
00000170: 0e8a 2abf 50c6 ec3f 0ad1 9dbe 9d73 7fbd
00000180: 3f6d c13f e84c 843f b441 4f3f 991d c3be
00000190: e827 f73f c66f c53d db79 a43f 26dc ddbe
000001a0: 02b8 753f ef78 c4be 87c2 433f 1faa 86bd
000001b0: 12e6 3440 0784 c33e 4a72 21c0 e7b3 0e40
000001c0: 9289 22c0 fc8f 84c0 1bfa 6abd d212 49c0
000001d0: 7866 063e 2419 32bf d14b d63e 2df4 8abf
000001e0: ad4d 403c c76e 003f 2e68 4a3b 7b07 afbd
000001f0: a877 733f 1058 3cbf cce4 15be 297c ed3e
00000200: 46f6 73be 3dce 223f df43 e43e e275 a9bf
00000210: c212 8fbf 0780 6dbf 5c84 12c0 6731 863f
00000220: a4d6 1c40 b62c 733d 9a8c 00c0 cedd fe40
00000230: da12 ce3e e071 b0bf 208a a2be dbdb 8cbe
00000240: 3d08 ecbd 6644 31bf a3f4 8a3e 74e5 3740
00000250: 4e22 d2bf 0a98 ebbf 2a0e 07c0 a2f4 42bf
00000260: 71f0 1c3f e4a4 693f db23 a1bf 3f0c e63e
00000270: 0ccb a4be 9566 08be 1583 143e 6333 953d
00000280: 8a23 96be 87d7 b5be 5cc3 c63b 9ebc 5dbd
00000290: 494b a9bd 7ec1 103f 8e36 f4bd 84cd d6bb
000002a0: dc24 643e 9d98 39be d6e8 373e 2125 063e
000002b0: 4f6f 803e 4821 5fbe 8c34 d53c 8378 f6bd
000002c0: e9de 85bd 4824 93be 000d fcbe ddf2 223e
000002d0: c0d4 1ebe 01b0 76be b573 0fbe f667 123f
000002e0: 0bb2 18c0 dd5d b83e a766 0140 fd70 49bf
000002f0: a6c3 0ec0 f5c1 2340 33b5 5dbf dff0 5040
00000300: bb32 5cbf e1d4 afbf 0ba0 2ebf 7448 58be
00000310: a279 cebd 376b 6b3f e9f8 aa3e f8ec aa3f
00000320: 357e ba3f ef07 0bc0 2c84 ddbd 29e1 0840
00000330: dc39 00bf 26b8 a03c 3e60 0ebf 0a01 fd3d
00000340: d668 23bd 0b1a 303d b902 f93f 88d8 f53d
00000350: ec72 3040 c646 0640 d12e 77bd f4dd 3fc0
00000360: 0eaf fdbf 815f 5f40 eb61 82bf 705d e4bf
00000370: 2684 32bf 3bc6 4abf 91a9 2d3d 486e 5e3e
00000380: 7fc0 11be cc39 633e 1b30 cfbd 5779 2a3f
00000390: 1d8a 133f 0b06 893f 573f cc3e 37dd 13be
000003a0: 8d7e c63e cd3d b2be 4ad4 52be 9d55 62be
000003b0: 2e33 1fba 3580 59be c218 4bbf 37ce 0fbf
000003c0: 1a27 2a3f efcd 81bf 90bc 1d3f 9349 0b3f
000003d0: 2f24 b0be 84af e1be 693c afbe edf8 0d3e
000003e0: e68e f03d 97ca 273f 73b2 4dbe 09cb 2fbf
000003f0: 612d 453f 2b3d 143f 272c 033e a5d5 c5bf

mlp1.0.bias f4 [150]
-2.7803702 -0.40894172 -0.31012776 -0.47278908 -1.3580598 1.7841352 -0.24885713 -1.3716633
-0.8798785 0.51595944 -3.4580321 0.33717278 -0.082466155 0.016654287 1.7738283 0.45413727
-0.21938984 0.0031940155 -0.09220204 0.35620657 -0.48979166 0.67332447 0.21469371 -1.7472193
-0.39429197 0.4515591 1.0748422 0.2693093 -0.17234132 -0.19911212 -0.95021194 -0.23545325
-0.62816405 0.064933844 0.8163347 0.01918263 0.5888846 -0.2879767 1.9449561 -2.7754421
-0.2564585 0.2077093 -0.4469839 -0.19054079 0.22362025 -0.33768335 -0.30678153 0.46429354
0.92063683 1.1001505 1.8490572 2.4814224 -0.20063856 -0.39317665 -0.93938947 -0.21458028
-0.12236963 -0.17720874 -0.24892555 0.18637453 0.7439789 -0.2116014 -0.0071761105 0.1928702
-0.11905876 -0.6045632 -1.2732252 -0.31222913 0.11500073 -0.11526746 0.13783348 -1.4579233
-0.25393197 0.046552144 0.073861465 0.4233679 0.22672656 -0.3821318 -2.4379103 0.26380205
-0.5076044 -1.6813699 -0.19179916 -0.16848756 -0.14304237 -1.4483582 0.36145973 -0.16515881
-0.041802943 -1.0044634 1.7264103 -0.81911874 1.4269965 1.1564325 -0.039757643 -0.7442383
-0.23689634 -0.069943994 -0.4124463 0.16184708 0.6663513 2.723399 0.15454376 -1.9349132
0.14905751 -2.0584278 0.25977835 -0.5903249 -0.1910556 -0.6293908 -0.058517125 -0.20720199
-1.1183529 1.4163698 -0.52700305 -0.9804365 0.4378267 -0.32956794 -1.5717989 -0.1031107
-0.6098039 0.22522224 1.0449399 -1.866623 -0.93463075 -0.040493578 -0.1205152 0.8459235
-0.09157791 1.5343962 -0.047528528 -0.5994595 -0.6045935 0.49073425 0.90953666 0.07298933
1.060938 0.052454233 0.9884205 -2.2830408 0.6108454 0.54043734 -0.10630881 2.2666006
0.24894325 0.03302939 3.293515 0.22604184 1.6222993 1.1311122
00000000: 96f1 31c0 cf60 d1be 11c9 9ebe 6911 f2be
00000010: e7d4 adbf 8b5e e43f 67d4 7ebe aa92 afbf
00000020: b83f 61bf eb15 043f 6650 5dc0 e9a1 ac3e
00000030: 04e4 a8bd 926e 883c ce0c e33f ae84 e83e
00000040: bba7 60be b052 513b 6cd4 bcbd b560 b63e
00000050: f9c5 fabe fe5e 2c3f abd8 5b3e e2a4 dfbf
00000060: a3e0 c9be c132 e73e 6e94 893f e9e2 893e
00000070: 3e7a 30be 0ce4 4bbe 1741 73bf a81a 71be
00000080: 5ccf 20bf 09fc 843d 50fb 503f e424 9d3c
00000090: 24c1 163f af71 93be 52f4 f83f d8a0 31c0
000000a0: 874e 83be bfb1 543e 13db e4be 201d 43be
000000b0: b5fc 643e d5e4 acbe 7812 9dbe e2b7 ed3e
000000c0: dbae 6b3f bbd1 8c3f e8ad ec3f a0cf 1e40
000000d0: 3274 4dbe 734e c9be d47b 70bf efba 5bbe
000000e0: ee9c fabd 3576 35be 57e6 7ebe f7d8 3e3e
000000f0: 6775 3e3f 0aae 58be 9425 ebbb c47f 453e
00000100: 14d5 f3bd a7c4 1abf 0bf9 a2bf 7fdc 9fbe
00000110: 8185 eb3d 5911 ecbd 3824 0d3e 3b9d babf
00000120: 5f03 82be 76ad 3e3d ae44 973d adc3 d83e
00000130: 022b 683e c7a6 c3be b906 1cc0 1011 873e
00000140: 5df2 01bf 2137 d7bf 0067 44be 0188 2cbe
00000150: b379 12be cd63 b9bf 4011 b93e 641f 29be
00000160: 9039 2bbd 4292 80bf 03fb dc3f c4b1 51bf
00000170: d2a7 b63f fb05 943f e9d8 22bd 6786 3ebf
00000180: f494 72be cc3e 8fbd 292c d3be 3ebb 253e
00000190: 0096 2a3f 2b4c 2e40 b840 1e3e 3cab f7bf
000001a0: 88a2 183e 48bd 03c0 ab01 853e 881f 17bf
000001b0: 14a4 43be c11f 21bf a7af 6fbd c22c 54be
000001c0: 3026 8fbf 9b4b b53f ace9 06bf e3fd 7abf
000001d0: d22a e03e 21bd a8be b530 c9bf b42b d3bd
000001e0: 1c1c 1cbf a9a0 663e 97c0 853f 81ed eebf
000001f0: f643 6fbf 98dc 25bd acd0 f6bd 718e 583f
00000200: 338d bbbd 1867 c43f 46ad 42bd 2e76 19bf
00000210: a4c6 1abf 8541 fb3e 65d7 683f 6e7b 953d
00000220: d1cc 873f 40da 563d 2009 7d3f 571d 12c0
00000230: 5d60 1c3f 1a5a 0a3f 6fb8 d9bd fc0f 1140
00000240: fbea 7e3e d349 073d f3c8 5240 8377 673e
00000250: 81a7 cf3f 49c8 903f

mlp1.2.weight f4 [100, 150]
-0.39452478 0.097866535 -0.1907856 -0.18995152 -0.21235864 0.5457952 -0.015186258 -0.78625524
0.37209198 0.30538616 -0.47731733 -0.13978936 0.019648246 -0.036279194 0.7834285 -0.7658293
-0.021974342 -0.09104111 -0.21383098 -0.17315497 -0.3294733 0.11872819 0.21713822 -0.31450298
-0.54504156 -0.15267639 -0.33944085 0.023030357 -0.07428512 0.008904651 -0.12532051 -0.005155389
-0.72414577 -0.036265496 -0.1776395 0.05551302 -1.1901377 0.083213754 -0.018179374 -1.4071414
-0.5908923 -0.19505644 -0.27677682 -0.07413648 -0.02251583 -0.23572287 -0.044185765 0.4955823
-0.21503699 -0.012642065 0.35444328 -0.17517813 -0.30156684 -0.05872956 -0.23359561 0.07539083
0.08927517 -0.4286716 -0.06155637 -0.0813872 -0.80518246 -0.068289995 -0.4241156 0.02453952
-0.06513697 -0.03816639 -1.1824843 -0.009309402 -0.27926028 0.5908941 0.007968468 0.43001896
-0.17145306 0.03221461 0.29918903 0.1911022 0.36161587 -0.058981173 -0.48765862 0.26053557
-0.35155302 -0.16759942 0.071221076 0.0074682697 -0.44466949 -0.04352224 -0.09492957 -0.4773734
0.14117718 0.38148814 0.16903225 -0.09669178 -0.91955453 -0.1218247 -0.19180863 -0.06349532
-0.14682096 -0.050224952 -0.23855092 -0.03596698 0.25270548 -0.5078047 -0.17433222 -0.65654707
0.019728223 -0.8495674 -0.71213794 -0.23939073 -0.0092386985 0.044908833 -0.17594294 -0.091870956
-0.60107905 -0.105205975 -0.42295912 -0.19575046 -0.13779958 -0.54111713 0.44792464 -0.13367873
0.39412996 -0.07970256 -0.5453401 -0.2411305 -0.2401795 0.008888459 -0.0020280182 -0.40103653
-0.07928381 0.27420944 -0.13218081 -0.14243919 -0.054032087 0.40490288 0.3501877 -0.19483705
-0.53400517 0.044042345 -1.0300418 -0.26437843 0.23566867 0.6302751 -0.077914014 -0.1886577
-0.0670647 -0.05419444 -0.31364885 -0.070578486 -0.24930793 0.9868463 -1.0191656 -0.09076342
-0.5404935 -0.19619593 0.7921337 0.17304191 -0.07126284 0.11551204 -1.2674569 0.16562589
0.448281 -0.2811314 0.023372605 -0.13931957 0.7528003 -0.30291235 0.9625392 -0.3171471
0.17477725 -0.2992312 -0.31981364 0.36925545 -0.016766703 0.0109724505 -0.36116737 -0.044461504
-0.29528046 0.017562559 0.009833759 -0.20529674 0.09279913 0.02607228 0.12602127 -0.086298384
-0.22709918 0.06466557 -1.1086053 -0.20100538 0.8615737 -1.0169148 -0.54848707 0.43501934
0.9468131 0.14931928 -0.29551157 0.30847213 -0.26246476 0.3618836 1.1174814 -0.15395084
0.24678068 0.2984322 -0.08708974 -0.36020216 -0.08408553 0.05309786 -0.34476852 -0.49417427
0.10849666 0.021210743 -0.3305317 -0.114178486 -0.48263675 -0.49513662 -0.16566156 -0.34548563
-0.4236814 -0.48014316 -0.13468732 0.036154296 0.040579397 0.10948112 -0.31264493 -0.1336323
0.103664584 -0.020365264 -0.0004051769 -0.13167892 0.79809105 0.41259858 -0.41910896 -0.23083124
0.106057875 0.024548907 -0.46114945 -0.54417497 -0.29128712 -0.809322 0.45917407 -1.0824118
-0.1259188 -0.5231253 -0.7314377 0.32808742 -0.20579882 -0.5067992 -0.22604993 0.02632304
0.3493923 -0.31518283 -0.29900974 -0.15196232 -0.207857 -0.14269672 0.045029517 -0.35277742
00000000: 27ff c9be 406e c83d 4d5d 43be a782 42be
00000010: 8b74 59be 3cb9 0b3f c8cf 78bc 0648 49bf
00000020: d782 be3e 935b 9c3e f062 f4be f124 0fbe
00000030: 5cf5 a03c 7e99 14bd c58e 483f 640d 44bf
00000040: 8903 b4bc c373 babd 82f6 5abe 894f 31be
00000050: b9b0 a8be c427 f33d 7b59 5e3e 8906 a1be
00000060: d887 0bbf 3357 1cbe 31cb adbe 29aa bc3c
00000070: cc22 98bd d0e4 113c 0554 00be 8aee a8bb
00000080: 9e61 39bf 218b 14bd 21e7 35be 9f61 633d
00000090: 6f56 98bf f96b aa3d e9ec 94bc 361d b4bf
000000a0: b844 17bf e0bc 47be b1b5 8dbe ded4 97bd
000000b0: 1e73 b8bc 5661 71be 22fc 34bd f7bc fd3e
000000c0: a832 5cbe aa20 4fbc 9779 b53e e561 33be
000000d0: f866 9abe 688e 70bd b033 6fbe 8266 9a3d
000000e0: e6d5 b63d d87a dbbe 8822 7cbd 55ae a6bd
000000f0: 7020 4ebf a0db 8bbd ae25 d9be 1a07 c93c
00000100: 8866 85bd 5c54 1cbd a55b 97bf 7686 18bc
00000110: 34fb 8ebe d644 173f 2d8e 023c 722b dc3e
00000120: 6491 2fbe 78f3 033d 4e2f 993e 4cb0 433e
00000130: b725 b93e 3e96 71bd 64ae f9be eb64 853e
00000140: c2fe b3be 2f9f 2bbe 5bdc 913d 63b8 f43b
00000150: b8ab e3be 6044 32bd 6f6a c2bd 496a f4be
00000160: c090 103e 6a52 c33e ca16 2d3e 5706 c6bd
00000170: ed67 6bbf 3a7f f9bd 7b69 44be d609 82bd
00000180: 3c58 16be aeb8 4dbd b146 74be 1d52 13bd
00000190: 9d62 813e 7dff 01bf 2584 32be 7813 28bf
000001a0: 159d a13c 407d 59bf ac4e 36bf d822 75be
000001b0: e95d 17bc 53f2 373d 632a 34be d726 bcbd
000001c0: 51e0 19bf 3b76 d7bd 198e d8be cf72 48be
000001d0: 551b 0dbe a786 0abf 6156 e53e 14e3 08be
000001e0: 67cb c93e 193b a3bd 699b 0bbf eaea 76be
000001f0: 9df1 75be e6a0 113c 80e8 04bb a954 cdbe
00000200: 8d5f a2bd 2e65 8c3e 685a 07be 94db 11be
00000210: c050 5dbd 6e4f cf3e cd4b b33e 5d83 47be
00000220: 90b4 08bf bf65 343d 69d8 83bf 9c5c 87be
00000230: 2153 713e b559 213f 6291 9fbd 7c2f 41be
00000240: 3859 89bd fdfa 5dbd 9596 a0be 748b 90bd
00000250: 944a 7fbe f6a1 7c3f 0574 82bf 2ce2 b9bd
00000260: c85d 0abf 96e7 48be 46c9 4a3f e631 313e
00000270: 40f2 91bd 9491 ec3d 073c a2bf d599 293e
00000280: 1685 e53e 74f0 8fbe e877 bf3c caa9 0ebe
00000290: 85b7 403f 5417 9bbe f868 763f 1b61 a2be
000002a0: cff8 323e d534 99be 9dbe a3be 0d0f bd3e
000002b0: 535a 89bc cbc5 333c eeea b8be 441d 36bd
000002c0: 002f 97be 5bdf 8f3c c61d 213c 4f39 52be
000002d0: 780d be3d 8995 d53c b80b 013e 35bd b0bd
000002e0: b08c 68be 626f 843d c7e6 8dbf 5bd4 4dbe
000002f0: 1890 5c3f 442a 82bf a669 0cbf dbba de3e
00000300: 5862 723f 27e7 183e 4b4d 97be 0ff0 9d3e
00000310: c861 86be cf48 b93e a109 8f3f 4aa5 1dbe
00000320: 13b4 7c3e 1bcc 983e 1b5c b2bd 6b6c b8be
00000330: 0935 acbd 247d 593d 8085 b0be 6904 fdbe
00000340: 7f33 de3d 27c2 ad3c 733b a9be 69d6 e9bd
00000350: 2a1c f7be 8c82 fdbe 2fa3 29be 7ee3 b0be
00000360: c5ec d8be 53d5 f5be 79eb 09be 8716 143d
00000370: 9536 263d a337 e03d ff12 a0be e8d6 08be
00000380: 194e d43d 0ed5 a6bc ec6d d4b9 d7d6 06be
00000390: b24f 4c3f 1f40 d33e 7395 d6be 065f 6cbe
000003a0: df34 d93d ca1a c93c c81b ecbe 0d4f 0bbf
000003b0: 9623 95be ba2f 4fbf dd18 eb3e 788c 8abf
000003c0: dcf0 00be 8aeb 05bf 803f 3bbf 13fb a73e
000003d0: edbc 52be 98bd 01bf a279 67be 6aa3 d73c
000003e0: 8ce3 b23e a55f a1be ce17 99be 039c 1bbe
000003f0: 77d8 54be 171f 12be df70 383d 3e9f b4be

mlp1.2.bias f4 [100]
0.5502304 -2.1007922 -0.2983453 0.012850805 0.09391448 1.3294257 -1.3267691 -0.6972997
-0.73558146 -0.050922524 0.08013766 0.093590826 0.18761304 0.036849566 -0.19176237 -0.015285352
-0.08517932 0.4360384 0.5747235 -1.4354018 0.57096 -0.36247474 -1.8470132 0.14091825
0.04953794 1.455942 -0.5345133 -0.54211956 0.35022983 -1.2633834 -0.37530953 0.6126245
0.052730344 -1.589444 -0.38802242 0.8653691 -0.43933022 -0.6469112 -0.05647679 -0.098231226
-0.4100381 -0.7034371 -0.19110109 1.022254 0.3374173 -1.698135 -0.10197846 -1.8083748
-0.5382933 0.5685572 0.09636152 -0.15513334 0.1534799 -1.3029819 1.0412331 -1.1999954
-0.6397668 -0.276098 -0.10999049 -0.36199194 0.73705566 -2.3130696 0.019041631 -0.2628421
-0.018960727 0.059210245 -0.150081 -0.06533017 -0.27263924 -0.013107591 -0.0686993 -0.706348
-0.13537523 -0.28007415 -0.26710686 1.4251829 -0.34109074 -0.18159635 -0.1636736 -0.22555001
-1.0265961 -1.3872353 -0.8811793 -0.8298535 1.3927789 -0.6985213 1.9906174 -0.92261344
0.8905744 -1.2056824 -0.35632893 -0.22294371 0.51842433 0.012306291 0.2750068 -0.28294888
-0.027453348 -0.8190425 -0.4634454 0.14961354
00000000: e6db 0c3f 6173 06c0 b7c0 98be 2f8c 523c
00000010: 3c56 c03d 9f2a aa3f 92d3 a9bf 3c82 32bf
00000020: 114f 3cbf 2394 50bd 371f a43d 8cac bf3d
00000030: a21d 403e 92ef 163d 5b5d 44be 6a6f 7abc
00000040: 7f72 aebd 6d40 df3e 1421 133f 3fbb b7bf
00000050: 6f2a 123f 4a96 b9be ee6a ecbf e04c 103e
00000060: 4ce8 4a3d 4f5c ba3f ddd5 08bf 59c8 0abf
00000070: 5351 b33e 8cb6 a1bf 9228 c0be f6d4 1c3f
00000080: c6fb 573d e772 cbbf e0aa c6be d488 5d3f
00000090: e4ef e0be f99b 25bf 3554 67bd 742d c9bd
000000a0: 84f0 d1be 7414 34bf 01b0 43be 38d9 823f
000000b0: f6c1 ac3e 7d5c d9bf 15da d0bd d378 e7bf
000000c0: 97cd 09bf f78c 113f 3059 c53d 46db 1ebe
000000d0: d629 1d3e 1cc8 a6bf 2047 853f 7399 99bf
000000e0: c2c7 23bf b85c 8dbe b242 e1bd 0257 b9be
000000f0: aeaf 3c3f 5509 14c0 32fd 9b3c 3d93 86be
00000100: 8753 9bbc 7186 723d d5ae 19be d3cb 85bd
00000110: 5f97 8bbe 39c1 56bc 38b2 8cbd 39d3 34bf
00000120: ce9f 0abe e165 8fbe 3bc2 88be 656c b63f
00000130: 72a3 aebe 65f4 39be 0d9a 27be 95f6 66be
00000140: 8067 83bf ed90 b1bf f794 61bf 4771 54bf
00000150: 9446 b23f 4bd2 32bf 8dcc fe3f 6530 6cbf
00000160: affc 633f cd53 9abf bf70 b6be 5b4b 64be
00000170: 75b7 043f 53a0 493c b1cd 8c3e adde 90be
00000180: d8e5 e0bc c5ac 51bf b748 edbe 4b34 193e

mlp2.0.weight f4 [100, 100]
0.14114876 -0.30845913 -0.11981363 0.02480602 0.22291213 -0.41616032 -0.029367115 -0.07318972
-0.20611058 -0.14597529 -0.0070800637 0.018659575 0.2527065 -0.052542966 -0.51818097 -0.05345169
0.017961625 0.2877654 -0.5965185 -0.09412823 -0.05313179 -0.26278993 0.18795918 -0.28138772
-0.16230887 -0.5276859 -0.40095073 -0.47009805 -0.2868646 -0.21192458 -0.3960484 0.70082927
-0.014364596 -0.4687266 -0.039339818 0.19154403 -0.6400333 0.51536626 0.03506503 -0.31842846
-0.50516874 0.21132034 0.62214273 -0.11576333 0.34490356 0.07378666 -0.10908257 0.5756462
-0.44652876 -0.1419671 0.31851345 0.06076602 -0.32843736 -0.009583408 -0.600785 -0.24481301
-0.99850714 -0.3420872 -0.19394936 -0.42993596 -0.59523684 -0.38074285 0.03986104 -0.06904734
-0.265602 -0.24905327 -0.24932615 -0.078021705 0.39280322 0.12331458 -0.10885231 -0.12601519
0.40741166 -0.634059 0.27647755 0.17985567 -0.24446717 -0.32463196 -0.26979932 -0.8096398
-0.29671562 -0.5050838 -0.8128464 -0.1036678 -0.52318364 -0.48278233 -0.110754 -0.53664315
0.2473351 -0.3336207 0.19173726 -0.07957793 -0.08594561 -0.22064589 -0.07005818 -0.22198986
0.14502685 -0.19695467 -0.23679204 0.72455275 -0.8160566 -0.09108944 0.05904076 -0.025164722
-0.13363078 -0.719632 0.08890549 -0.29064578 -0.08434251 -0.22368686 0.0179015 0.08883188
-0.09304604 -0.08115121 -0.004861987 -0.5434172 -0.015633712 0.6190278 -0.21595025 0.40983772
-0.44247147 -1.0356572 0.32442296 -0.38485742 -0.16307063 -0.23723002 -0.01884686 -0.17187203
-0.54776067 -0.07325414 -0.0729187 -0.20831582 -0.09612459 -0.16609648 -0.31911653 -0.37144256
-0.14475779 -0.09481652 -0.04383233 -0.07643891 -0.15461245 -0.082992285 -0.135867 -0.5968679
-0.050641336 0.008288504 -0.0034456432 -0.018826563 -0.21889162 0.045013092 -0.2025265 -0.12430873
0.023838766 -0.16172895 -0.115427494 0.12752783 -0.41121408 -0.12504183 0.037589185 -0.1195933
-0.25693616 0.27016175 0.058977474 0.06588487 -0.056221347 -0.17168424 0.8397878 -0.06009301
-0.2852436 -0.25618744 0.057233173 -0.21621713 -0.008951055 -0.45923954 -0.12426355 -0.095676415
-0.15280394 -0.063001126 -0.043993555 0.14603937 -0.5881977 -0.3085496 -0.01506297 0.59513074
-0.45628554 -0.018016027 -0.32128313 -0.08439544 -0.44503224 0.2661596 -0.18972552 0.0023214754
-0.28518826 -0.058482032 -0.00487047 -0.012291833 -0.060070198 -0.057836328 -0.15285666 -0.011021495
-0.33951887 -0.3733728 0.13810785 0.10012527 0.06824908 -0.07494322 -0.04990915 -0.08965743
0.08711896 -0.30942878 0.19039468 0.21809216 -0.13276455 -0.05845415 -0.055856112 -0.09505167
0.043370217 -0.37143224 -1.138862 -0.09283482 -0.14686404 0.2541506 -0.23217006 -0.1617739
-0.22525895 -0.10851903 -0.6808223 0.043084435 -0.16992335 -0.11132371 -0.25051847 0.0052911337
0.11532475 -0.11539817 -0.0041136597 0.6334946 -0.1358299 -0.3258942 0.08247219 -0.25326076
-0.3585738 -0.5672541 0.2684239 0.122582406 0.9560381 -0.71070594 -0.054173637 -0.33364326
-0.62678885 -0.06889843 -0.093217626 -0.070780255 -0.37261245 -0.6044035 0.5101174 -0.93137485
00000000: 4d89 103e 5bee 9dbe d960 f5bd ff35 cb3c
00000010: 1443 643e f712 d5be 4e93 f0bc 7ee4 95bd
00000020: a70e 53be 8c7a 15be e1ff e7bb f7db 983c
00000030: bf62 813e 4b37 57bd 82a7 04bf 29f0 5abd
00000040: 4224 933c fd55 933e 70b5 18bf 4dc6 c0bd
00000050: b8a0 59bd 678c 86be 5f78 403e 0d12 90be
00000060: 4c34 26be 6c16 07bf 6a49 cdbe b1b0 f0be
00000070: ebdf 92be c202 59be dbc6 cabe 8c69 333f
00000080: 7c59 6bbc effc efbe ca22 21bd 1e24 443e
00000090: 39d9 23bf 0bef 033f 59a0 0f3d 0e09 a3be
000000a0: bd52 01bf 5c64 583e bf44 1f3f 5315 edbd
000000b0: 3397 b03e 761d 973d af66 dfbd 8d5d 133f
000000c0: 6b9f e4be d35f 11be 3214 a33e cae5 783d
000000d0: f128 a8be ba03 1dbc 0ccd 19bf 43b0 7abe
000000e0: 2a9e 7fbf 0e26 afbe a99a 46be 9120 dcbe
000000f0: 7161 18bf baf0 c2be 5445 233d b168 8dbd
00000100: fcfc 87be d207 7fbe 5b4f 7fbe d8c9 9fbd
00000110: 811d c93e 5b8c fc3d f6ed debd 200a 01be
00000120: 4398 d03e b151 22bf 778e 8d3e 162c 383e
00000130: 9a55 7abe 2936 a6be 2323 8abe 8e44 4fbf
00000140: 1ceb 97be 2c4d 01bf b416 50bf c94f d4bd
00000150: 5def 05bf 3f2f f7be fed2 e2bd 7261 09bf
00000160: 6a45 7d3e 55d0 aabe c656 443e c1f9 a2bd
00000170: 4104 b0bd fff0 61be aa7a 8fbd 4f51 63be
00000180: eb81 143e 7cae 49be 9d79 72be 4a7c 393f
00000190: 16e9 50bf 1a8d babd b9d4 713d 3f26 cebc
000001a0: 82d6 08be ce39 38bf 1514 b63d 86cf 94be
000001b0: c4bb acbd 2b0e 65be 2ba6 923c 7ded b53d
000001c0: ec8e bebd 9b32 a6bd 4e51 9fbb 641d 0bbf
000001d0: 4512 80bc 9b78 1e3f 1022 5dbe 40d6 d13e
000001e0: 9f8b e2be 6a90 84bf c41a a63e 080c c5be
000001f0: fdfb 26be 6dec 72be bb64 9abc 39ff 2fbe
00000200: 0b3a 0cbf 4406 96bd 6656 95bd be50 55be
00000210: f8dc c4bd 3215 2abe 3e63 a3be b82d bebe
00000220: 633b 14be 2a2f c2bd 8789 33bd 018c 9cbd
00000230: ba52 1ebe dcf7 a9bd b820 0bbe 56cc 18bf
00000240: 4a6d 4fbd 81cc 073c 4dd0 61bb 2a3a 9abc
00000250: 2025 60be a65f 383d 1b63 4fbe 9395 febd
00000260: 8449 c33c 469c 25be 4065 ecbd a896 023e
00000270: a78a d2be f70a 00be 1ef7 193d 55ed f4bd
00000280: 238d 83be a452 8a3e 5d92 713d a6ee 863d
00000290: 5b48 66bd fecd 2fbe 55fc 563f 1724 76bd
000002a0: 730b 92be 002b 83be 556d 6a3d 0668 5dbe
000002b0: 72a7 12bc 7221 ebbe e37d febd fff1 c3bd
000002c0: a378 1cbe bc06 81bd 9632 34bd 588b 153e
000002d0: 2094 16bf 37fa 9dbe adca 76bc 7d5a 183f
000002e0: 429e e9be 5996 93bc 397f a4be 84d7 acbd
000002f0: 44db e3be 1246 883e 6847 42be e523 183b
00000300: 3204 92be db8a 6fbd 7798 9fbb af63 49bc
00000310: 2b0c 76bd c9e5 6cbd 7586 1cbe 8093 34bc
00000320: 6bd5 adbe b82a bfbe 256c 0d3e 7a0e cd3d
00000330: 2cc6 8b3d d57b 99bd 896d 4cbd 519e b7bd
00000340: 6d6b b23d 736d 9ebe d3f6 423e 8d53 5f3e
00000350: 6ef3 07be 9e6d 6fbd 61c9 64bd 73aa c2bd
00000360: f8a4 313d 5e2c bebe 3bc6 91bf 2f20 bebd
00000370: 8763 16be 0720 823e fdbd 6dbe 0fa8 25be
00000380: 48aa 66be 3a3f debd 5f4a 2ebf 4e79 303d
00000390: 6300 2ebe affd e3bd f543 80be 3f61 ad3b
000003a0: 622f ec3d e055 ecbd e1cb 86bb b42c 223f
000003b0: fe16 0bbe 9bdb a6be 2ee7 a83d 65ab 81be
000003c0: fc96 b7be 9137 11bf db6e 893e 7c0c fb3d
000003d0: eabe 743f d3f0 35bf 2de5 5dbd 4ad3 aabe
000003e0: 3c75 20bf 9f1a 8dbd e2e8 bebd 3df5 90bd
000003f0: 0fc7 bebe 30ba 1abf 0e97 023f 956e 6ebf

mlp2.0.bias f4 [100]
1.3944869 -0.7849115 0.4266058 -0.18768036 -0.41530538 -0.057915065 1.1393358 0.39063725
0.48576564 -0.72373915 1.0762771 -0.7606278 0.2089813 -0.3807167 -0.6222253 2.4565465
0.44017056 0.22135876 0.56898737 -0.15574281 1.388481 1.4845517 1.3103321 0.025764422
-0.24991633 0.049111288 -0.45390508 -0.4653108 0.17124069 0.7595685 -0.52106297 -0.3993814
-0.1875284 0.44652635 0.49572736 -0.2250289 0.8600836 1.6155231 0.1983725 -0.14989029
-0.6336337 0.95456696 -0.061331134 0.021716863 -0.4001441 -0.24531427 -0.4769898 0.61566645
-0.2943956 -0.471481 -0.2505153 0.6656888 0.7932001 0.7951866 -0.61167353 -1.0273507
-0.02396038 0.6261919 -0.32534006 0.3197017 -1.1166575 -1.0515593 -0.46983126 -0.23542583
-0.29763585 0.71912163 1.9685417 -0.634467 0.6386649 -0.13149776 1.5044597 1.0433375
-0.33769548 -1.2626587 1.3856778 -0.5756063 -0.47386226 0.10002947 0.09385602 -0.16455118
0.003295466 -0.047628578 2.4169815 -0.19579296 0.11182918 -0.22751321 0.32185614 0.099942334
2.343552 1.6738465 -0.2038533 -0.3371715 -0.12994279 -0.29525596 0.059022307 1.381251
-0.3725572 0.2538364 -0.95275724 -0.30964595
00000000: 8c7e b23f f6ef 48bf 136c da3e 482f 40be
00000010: e8a2 d4be 5938 6dbd c1d5 913f 9b01 c83e
00000020: 46b6 f83e f846 39bf 73c3 893f 81b8 42bf
00000030: 32ff 553e 4ded c2be 284a 1fbf 0f38 1d40
00000040: 095e e13e dfab 623e 28a9 113f 0b7b 1fbe
00000050: bfb9 b13f ca05 be3f f6b8 a73f e90f d33c
00000060: 11ea 7fbe eb28 493d 3f66 e8be 383d eebe
00000070: b859 2f3e 1573 423f 6264 05bf b87b ccbe
00000080: 7207 40be 1a9f e43e facf fd3e fa6d 66be
00000090: 702e 5c3f 76c9 ce3f 2922 4b3e d77c 19be
000000a0: d135 22bf 805e 743f 5b36 7bbd 90e7 b13c
000000b0: b0df ccbe aa33 7bbe 0238 f4be 519c 1d3f
000000c0: 05bb 96be f565 f1be 8b43 80be 956a 2a3f
000000d0: 290f 4b3f 5991 4b3f a396 1cbf 3a80 83bf
000000e0: 8f48 c4bc 1d4e 203f f992 a6be f1af a33e
000000f0: a2ee 8ebf 7f99 86bf b98d f0be 7813 71be
00000100: ba63 98be 5b18 383f 2df9 fb3f 6e6c 22bf
00000110: 8b7f 233f 59a7 06be 2392 c03f 158c 853f
00000120: 6ce6 acbe cd9e a1bf e45d b13f ef5a 13bf
00000130: 139e f2be 40dc cc3d 9637 c03d 1b80 28be
00000140: bff8 573b 2f16 43bd d3af 1a40 f37d 48be
00000150: b206 e53d 39f9 68be 54ca a43e 91ae cc3d
00000160: c2fc 1540 9a40 d63f ebbe 50be bea1 acbe
00000170: b90f 05be ca2b 97be 60c1 713d d5cc b03f
00000180: d1bf bebe d8f6 813e e6e7 73bf ea89 9ebe

mlp2.2.weight f4 [50, 100]
-0.37136024 -0.48135254 -0.37099436 0.32374454 0.44360498 0.074330606 0.16730005 0.38374197
-0.054232705 -0.07566945 0.2709558 0.12775898 0.39361086 0.21589522 0.10314763 -0.032103613
0.22697286 -0.13024555 0.26050153 0.39299226 0.46323463 -0.14100854 0.74178183 0.5818439
-0.043743636 -0.1097399 -0.46694073 -0.017889492 0.65645134 -0.20810589 -0.24869104 -0.027026597
0.23695749 -0.28230903 0.047920153 0.32159615 -0.02618231 -0.42536616 0.16876777 -0.2608647
-0.12226463 0.3495005 -0.6014186 -0.28948557 -0.11192364 0.104341485 0.17896676 -0.0029014512
0.120062016 0.33640444 -0.11754554 -0.27377006 0.280026 0.13166726 -0.25704423 0.053667616
-0.5196666 0.26127312 0.57372594 -0.29078314 0.20594087 0.08548098 0.13220328 0.04717715
-0.16509493 -0.24838683 0.25565043 0.17211838 -0.15717825 0.05864153 0.1344889 0.17907034
0.07626999 0.453118 0.6164649 0.079689614 0.27418151 -0.102488995 0.22907513 0.149332
0.49163443 0.24279878 0.31368935 -0.16702452 0.1288815 0.07293481 0.38377556 0.27534756
-0.06694089 0.26010233 0.13192387 0.05264295 -0.03978656 0.069628224 0.13974229 0.06534938
-0.13714603 -0.18423836 -0.10277239 0.04276241 0.0849888 0.00012418219 -0.23152623 0.22181724
-0.18429713 0.01995969 0.3319818 -0.11831594 0.080738485 -0.11871196 -0.112238236 -0.1842729
0.002486034 0.43701804 0.024814116 0.37780038 -0.029516172 0.3436139 0.2102829 -0.09731918
-0.25652584 -0.43146327 0.35555038 0.12018931 0.17720912 0.6946312 -0.21199149 0.36508754
0.16907461 -0.021112131 0.22497621 0.23968561 0.0081158765 -0.07153654 0.22051468 0.130024
0.6368468 -0.4576252 0.4074311 0.011541024 0.21909791 -0.41559553 -0.38212657 -0.033607624
-0.19941145 0.23973182 -0.1508392 0.038973995 0.23704852 -0.002381228 0.4714319 -0.26000658
0.18359283 0.40243882 0.3034971 -0.20174439 -0.060800996 -0.2792145 0.64196247 -0.3365878
-0.20273653 0.35104066 -0.004678398 -0.12368634 -0.593542 0.06369305 -0.6556377 -0.04003059
-0.017878544 0.08180707 -0.2768618 0.06102325 0.33008936 0.38585973 0.0010979379 0.20646599
-0.46706963 -0.17002654 -0.37833282 0.15786836 0.5984302 0.32347605 -0.5608606 0.28913066
0.2451443 0.11671958 0.17623375 0.2249177 -0.026877135 -0.40696177 0.19841078 0.11344446
0.38139892 0.047932003 0.16791794 0.2461608 0.1275994 0.064613625 -0.0062871324 0.08008524
-0.11400908 -0.22828531 -0.26075342 -0.3745099 0.018172575 -0.09419231 0.19698285 0.30715445
-0.26444623 0.33632278 0.7391553 0.16963169 0.8005376 0.14509791 0.066435896 -0.2252312
0.18879654 0.23685384 -0.077777095 -0.1770179 0.107699074 0.11713375 -0.4074058 0.24525924
-0.21379562 0.58481413 -0.1117722 -0.21946494 0.587447 -0.2409154 -0.2335715 0.05147629
0.23018311 0.019431395 -0.064283326 -0.21360604 0.42734072 -0.13463743 0.15528052 -0.039822243
-0.14579351 0.413601 0.08825784 0.06841442 -0.2184144 -0.22354689 -0.01985465 -0.1581416
0.33750257 0.07380238 -0.0044809347 0.33191845 0.029428529 0.83195835 0.5615465 0.5030346
00000000: ee22 bebe d773 f6be f9f2 bdbe d8c1 a53e
00000010: 3120 e33e a53a 983d b450 2b3e d479 c43e
00000020: 1d23 5ebd 96f8 9abd b8ba 8a3e 40d3 023e
00000030: 5d87 c93e a313 5d3e 113f d33d 147f 03bd
00000040: 936b 683e 175f 05be 7560 853e 4836 c93e
00000050: 172d ed3e 8b64 10be 6ae5 3d3f b9f3 143f
00000060: 872c 33bd 50bf e0bd db12 efbe fc8c 92bc
00000070: 320d 283f b619 55be dda8 7ebe e266 ddbc
00000080: fca4 723e cf8a 90be ec47 443d 40a8 a43e
00000090: 497c d6bc 98c9 d9be 75d1 2c3e 0f90 85be
000000a0: e165 fabd bbf1 b23e 92f6 19bf 7437 94be
000000b0: 3938 e5bd fdb0 d53d 1043 373e 4626 3ebb
000000c0: 13e3 f53d 343d ac3e b7bb f0bd 972b 8cbe
000000d0: 915f 8f3e c8d3 063e 4d9b 83be 93d2 5b3d
000000e0: df08 05bf 97c5 853e b4df 123f 87e1 94be
000000f0: 2ae2 523e a710 af3d 4c60 073e d43c 413d
00000100: a50e 29be 1e59 7ebe 9de4 823e cd3f 303e
00000110: 56f3 20be 1a32 703d 75b7 093e 375e 373e
00000120: 7133 9c3d 15ff e73e a5d0 1d3f 4f34 a33d
00000130: 8561 8c3e c0e5 d1bd ac92 6a3e 7dea 183e
00000140: 82b7 fb3e 3ea0 783e e49b a03e 7a08 2bbe
00000150: 83f9 033e d85e 953d 3b7e c43e 5bfa 8c3e
00000160: 4e18 89bd 222c 853e 0d17 073e 22a0 573d
00000170: 3bf7 22bd 3e99 8e3d 9a18 0f3e e5d5 853d
00000180: 0270 0cbe fba8 3cbe 557a d2bd a327 2f3d
00000190: 9c0e ae3d e736 0239 3615 6dbe 0f24 633e
000001a0: 63b8 3cbe 8182 a33c 85f9 a93e a14f f2bd
000001b0: 385a a53d 421f f3bd 29dd e5bd 09b2 3cbe
000001c0: bbec 223b d4c0 df3e f946 cb3c 0d6f c13e
000001d0: e6cb f1bc 29ee af3e 6754 573e 474f c7bd
000001e0: 5b57 83be c1e8 dcbe b30a b63e d025 f63d
000001f0: 4f76 353e 5ad3 313f 4c14 59be c1ec ba3e
00000200: e521 2d3e 59f3 acbc 2a60 663e 2570 753e
00000210: 74f8 043c c081 92bd 9ace 613e 0325 053e
00000220: 6408 233f da4d eabe cf9a d03e 9016 3d3c
00000230: 345b 603e f0c8 d4be 18a6 c3be 26a8 09bd
00000240: 8432 4cbe 427c 753e 9775 1abe 32a3 1f3d
00000250: d9bc 723e 600e 1cbb 865f f13e 951f 85be
00000260: c2ff 3b3e 760c ce3e f963 9b3e 1596 4ebe
00000270: 770a 79bd 34f5 8ebe a757 243f 3c55 acbe
00000280: 2a9a 4fbe 9abb b33e 3f4d 99bb 444f fdbd
00000290: 5ef2 17bf 8071 823d dfd7 27bf 1ef7 23bd
000002a0: 0676 92bc 778a a73d d4c0 8dbe 84f3 793d
000002b0: 7901 a93e 688f c53e afe8 8f3a d26b 533e
000002c0: c023 efbe 701b 2ebe d7b4 c1be 3ea8 213e
000002d0: b932 193f a79e a53e 8f94 0fbf ef08 943e
000002e0: 1b07 7b3e ad0a ef3d 9f76 343e d350 663e
000002f0: 702d dcbc 4b5d d0be 322c 4b3e 9255 e83d
00000300: b846 c33e 5954 443d aef2 2b3e 9411 7c3e
00000310: 6ba9 023e 2654 843d 4a04 cebb bb03 a43d
00000320: 987d e9bd a0c3 69be 7981 85be c3bf bfbe
00000330: a7de 943c e6e7 c0bd dfb5 493e 5943 9d3e
00000340: 7f65 87be 8032 ac3e 4839 3d3f eeb3 2d3e
00000350: 08f0 4c3f 8c94 143e 8b0f 883d 02a3 66be
00000360: e153 413e d089 723e 9949 9fbd 2e44 35be
00000370: 5591 dc3d d2e3 ef3d 7e97 d0be 3d25 7b3e
00000380: 3ded 5abe 61b6 153f d3e8 e4bd 6bbb 60be
00000390: ed62 163f 87b2 76be 5e2d 6fbe cdd8 523d
000003a0: 1fb5 6b3e 972e 9f3c faa6 83bd 8bbb 5abe
000003b0: 67cc da3e 65de 09be db01 1f3e a61c 23bd
000003c0: e54a 15be 83c3 d33e 87c0 b43d dc1c 8c3d
000003d0: 06a8 5fbe 7ae9 64be 38a6 a2bc dfef 21be
000003e0: 23cd ac3e b425 973d ced4 92bb 37f1 a93e
000003f0: 1914 f13c 39fb 543f 83c1 0f3f e0c6 003f

mlp2.2.bias f4 [50]
0.27503756 0.13600719 -0.46445996 -1.9771303 -1.5763575 0.76733214 0.28924462 1.1241513
1.096602 -0.044557806 -0.8069305 -0.064360455 1.5713123 -0.69468224 -0.6018864 -0.23969498
1.0636098 0.20254767 0.8238434 0.08035364 -0.076432616 -2.4905543 -1.6806787 -0.34040934
0.32373077 -0.36472154 -2.2699416 -0.28137657 2.1773655 1.4772451 0.85197955 -1.5335501
0.062496576 -0.26867643 0.8854577 0.7703687 0.41800377 0.59919685 2.1494288 -0.24615474
-1.3473995 0.1524444 0.42606872 1.7995138 1.2494959 0.1485463 0.7994236 0.31156588
1.0082659 -0.094854675
00000000: b9d1 8c3e 7845 0b3e b2cd edbe 9b12 fdbf
00000010: 15c6 c9bf e16f 443f df17 943e 31e4 8f3f
00000020: 745d 8c3f 3f82 36bd ff92 4ebf 6acf 83bd
00000030: c320 c93f b2d6 31bf 3a15 1abf 9a72 75be
00000040: 5e24 883f a868 4f3e 67e7 523f 7390 a43d
00000050: b488 9cbd 3e65 1fc0 7b20 d7bf 224a aebe
00000060: 0ac0 a53e c8bc babe b946 11c0 9710 90be
00000070: f559 0b40 5e16 bd3f 551b 5a3f 5f4b c4bf
00000080: 69fc 7f3d f58f 89be 5bad 623f e236 453f
00000090: 9704 d63e f764 193f 3e90 0940 fd0f 7cbe
000000a0: 9677 acbf 631a 1c3e ae25 da3e 7856 e63f
000000b0: 7bef 9f3f 851c 183e 06a7 4c3f 9085 9f3e
000000c0: db0e 813f 2b43 c2bd

attention.0.weight f4 [100, 100]
-0.10832619 0.024862288 0.0074818777 -0.045968786 -0.21489179 -0.1738581 -0.041685075 -0.05302496
-0.092284046 0.184289 -0.011613545 0.18548669 -0.099104024 0.0314107 0.18411148 -0.2366567
0.02826739 -0.30766112 0.004957926 0.0067900685 -0.0928717 0.048921544 -0.07790386 -0.005893413
0.07904145 -0.22808023 -0.049764194 0.0552419 0.1103853 -0.09832605 0.008852037 -0.066291034
0.024705507 -0.13044064 -0.11622327 0.36319807 -0.16099535 -0.37202546 0.07057849 -0.009856129
0.03500985 -0.29666153 -0.10751619 -0.13810524 0.07838116 -0.10472358 -0.06216579 -0.21763624
-0.102686994 0.07248977 -0.07856811 -0.028647516 0.11740814 -0.07916541 -0.14883222 0.04510182
-0.09097646 0.101821736 -0.020648565 -0.060252514 -0.15743253 -0.13151596 0.013093691 -0.14681208
0.03306948 0.13019174 -0.029196955 -0.085665524 -0.098184176 -0.09310143 0.0723877 -0.081001714
-0.10518678 0.23703238 -0.28251335 -0.1537702 -0.094096795 0.0035606816 -0.0049218517 -0.0008510171
-0.05559645 0.0067986073 -0.08400695 -0.27648243 -0.09903512 -0.12242983 -0.15991205 0.046044204
0.012818934 0.10973164 -0.24929005 0.058726538 0.22231525 -0.034699153 -0.29455703 -0.21486212
-0.102613784 -0.027881637 -0.04794455 -0.2275029 -0.048668105 -0.26115143 0.012282091 -0.0879806
-0.15786177 -0.03664629 -0.07446233 -0.16727552 0.0065432265 0.026766175 -0.053814128 0.06961402
-0.0096347295 -0.05268904 -0.046134368 0.012608908 0.0751972 -0.06574383 -0.12091091 -0.12032183
0.040442802 -0.021798132 -0.13832505 -0.0702158 -0.027784666 -0.081550844 -0.069236495 -0.030855639
-0.20212364 -0.06993411 0.048724074 -0.037347734 0.086510256 -0.08210576 0.01448756 -0.091159366
-0.04595933 -0.13730879 -0.09457955 -0.0018745646 0.022764625 0.01263997 -0.07939883 0.18530491
-0.03079887 0.027297858 -0.09765066 -0.10504271 0.022237878 0.11498377 -0.047431074 -0.007960099
-0.115490705 -0.0621339 0.04351955 -0.04435881 -0.047349244 -0.09572318 0.029123796 -0.072220944
-0.119379364 -0.011185769 0.05937394 0.05357156 0.078569256 -0.040564273 0.048045803 -0.0556379
0.00011199606 -0.09930718 -0.048648134 -0.053015534 0.0887707 -0.08257505 -0.07117097 -0.014516873
-0.12563172 -0.04468699 0.0028382526 -0.0015993229 -0.106902085 -0.14616358 -0.037574347 -0.13653311
-0.08740158 -0.10077538 -0.13079949 -0.1307278 0.035450377 0.026959412 -0.036271952 -0.058850877
-0.17881073 -0.04808336 -0.019025924 -0.09804028 0.054148734 0.014833692 -0.018294998 -0.08223148
-0.0941034 -0.08061585 -0.113460295 0.008047217 -0.08955879 -0.115101345 -0.040808495 -0.18577792
0.017519232 -0.040311605 -0.018021872 -0.048979722 0.057285335 -0.099646665 0.03433913 0.043114282
0.041973937 0.051397957 -0.025309086 -0.1449651 0.042911988 -0.068639584 -0.034596793 0.03687419
-0.008084582 -0.081918605 0.048926614 -0.17394057 -0.077489056 -0.08530466 -0.15161985 -0.10006053
0.032756902 -0.23647676 -0.085909136 0.015765104 -0.094195545 0.01217169 0.009929075 -0.06120379
-0.11007382 -0.06659653 -0.075614125 0.053707052 -0.07971581 -0.07850294 0.05693821 -0.02712945
-0.08774299 -0.05310018 0.07538329 0.049711462 -0.01816631 -0.08577667 -0.060696654 -0.027363854
00000000: 1fda ddbd ffab cb3c 8a2a f53b c449 3cbd
00000010: 980c 5cbe dc07 32be f8bd 2abd b330 59bd
00000020: 6bff bcbd 41b6 3c3e bd46 3ebc 39f0 3d3e
00000030: 0df7 cabd 82a8 003d b887 3c3e 2256 72be
00000040: 0391 e73c c285 9dbe 1976 a23b 397f de3b
00000050: 8533 bebd f561 483d 0f8c 9fbd 881d c1bb
00000060: 7ce0 a13d dd8d 69be 8ad5 4bbd 5545 623d
00000070: b011 e23d 2b5f c9bd 2208 113c 98c3 87bd
00000080: 3463 ca3c 3b92 05be 7706 eebd 19f5 b93e
00000090: f7db 24be 1f7a bebe 758b 903d 9a7b 21bc
000000a0: 7d66 0f3d 05e4 97be 7331 dcbd 766b 0dbe
000000b0: 4d86 a03d 5179 d6bd 8ea1 7ebd 09dc 5ebe
000000c0: 8f4d d2bd 8475 943d 51e8 a0bd 32ae eabc
000000d0: ae73 f03d 7921 a2bd 7967 18be b0bc 383d
000000e0: de51 babd ea87 d03d 2e27 a9bc 57cb 76bd
000000f0: fe35 21be 1fac 06be ec86 563c e855 16be
00000100: dd73 073d fc50 053e 742e efbc 6871 afbd
00000110: c914 c9bd f6ab bebd 0140 943d 3ae4 a5bd
00000120: 2b6c d7bd 9eb8 723e 97a5 90be ef75 1dbe
00000130: d2b5 c0bd 535a 693b 7c47 a1bb ca16 5fba
00000140: 1ab9 63bd dac6 de3b d60b acbd 1b8f 8dbe
00000150: edd2 cabd 7ebc fabd fcbf 23be d998 3c3d
00000160: 8206 523c fbba e03d e445 7fbe 3d8b 703d
00000170: 9ca6 633e b320 0ebd 2ed0 96be d104 5cbe
00000180: 2d27 d2bd 0868 e4bc 8161 44bd 85f6 68be
00000190: 3558 47bd a4b5 85be d33a 493c 2c2f b4bd
000001a0: 84a6 21be 6c1a 16bd b57f 98bd 464a 2bbe
000001b0: 9068 d63b bd44 db3c 346c 5cbd cc91 8e3d
000001c0: fcda 1dbc 76d0 57bd 64f7 3cbd 9895 4e3c
000001d0: fd00 9a3d b3a4 86bd 24a0 f7bd 4b6b f6bd
000001e0: 5aa7 253d ff91 b2bc 15a5 0dbe 4dcd 8fbd
000001f0: ab9c e3bc 2104 a7bd ddcb 8dbd f7c4 fcbc
00000200: 80f9 4ebe 9d39 8fbd e592 473d f0f9 18bd
00000210: 4a2c b13d 1127 a8bd 3b5d 6d3c c3b1 babd
00000220: da3f 3cbd ad9a 0cbe ecb2 c1bd f3b3 f5ba
00000230: e17c ba3c e017 4f3c db9b a2bd 92c0 3d3e
00000240: e94d fcbc c29f df3c 12fd c7bd a220 d7bd
00000250: 362c b63c 9c7c eb3d 1647 42bd 136b 02bc
00000260: 6486 ecbd 1e80 7ebd 8e41 323d 95b1 35bd
00000270: 48f1 41bd 840a c4bd 0795 ee3c 93e8 93bd
00000280: 2b7d f4bd 8444 37bc 1732 733d da6d 5b3d
00000290: ebe8 a03d b926 26bd adcb 443d 91e4 63bd
000002a0: 6ddf ea38 9061 cbbd 4443 47bd d126 59bd
000002b0: 6acd b53d 1c1d a9bd 16c2 91bd 2ed8 6dbc
000002c0: 9aa5 00be b509 37bd fa01 3a3b 5fa0 d1ba
000002d0: 7bef dabd e8ab 15be 8fe7 19bd 56cf 0bbe
000002e0: 99ff b2bd 5363 cebd 4df0 05be 82dd 05be
000002f0: 6a34 113d fcd9 dc3c e691 14bd 9e0d 71bd
00000300: 291a 37be 0ff3 44bd 41dc 9bbc 58c9 c8bd
00000310: 10cb 5d3d 0409 733c 64df 95bc fa68 a8bd
00000320: 49b9 c0bd ec19 a5bd df5d e8bd 79d8 033c
00000330: 996a b7bd 41ba ebbd cf26 27bd 913c 3ebe
00000340: 7e84 8f3c c81d 25bd 9ba2 93bc f69e 48bd
00000350: 07a4 6a3d 8d13 ccbd 30a7 0c3d 9a98 303d
00000360: ddec 2b3d aa86 523d 0055 cfbc bb71 14be
00000370: 7bc4 2f3d e992 8cbd 5eb5 0dbd 6409 173d
00000380: 3275 04bc f1c4 a7bd 4667 483d 7a1d 32be
00000390: 95b2 9ebd 36b4 aebd 3c42 1bbe 89ec ccbd
000003a0: 1a2c 063d f726 72be 21f1 afbd d225 813c
000003b0: 98e9 c0bd c56b 473c 8fad 223c d3b0 7abd
000003c0: 626e e1bd c363 88bd 94db 9abd edfb 5b3d
000003d0: 0b42 a3bd 26c6 a0bd 0a38 693d 953e debc
000003e0: 99b2 b3bd 937f 59bd 8e62 9a3d 3f9e 4b3d
000003f0: 83d1 94bc aeab afbd 0e9d 78bd 292a e0bc

attention.0.bias f4 [100]
-0.42687806 -0.0013505876 0.0025374445 -0.4401166 -0.33570796 -0.26584724 -0.4815106 -0.55363196
-0.002103923 -0.53378934 0.23341992 0.084666185 -0.25178352 -0.15184489 -0.3137777 0.095695294
-0.027220033 -0.04198056 -0.46967685 -0.18269566 -0.05859797 -0.6351191 -0.0066125793 -0.23366812
-0.0071086204 -0.1159875 -0.79812205 -0.22274336 -0.20625475 -0.25408718 -0.12688754 -0.024310164
-0.76255596 -0.41517425 -0.17841831 -0.37796682 0.068971984 -0.4380374 -0.060321186 -0.29066664
-0.08993855 0.06784861 -0.23331974 -0.29544997 -0.2803571 -0.8302495 -0.031658262 -0.23111583
0.0009505209 -0.06291998 -0.3855976 -0.18102883 -0.4232345 -0.21360888 0.08145327 0.26322824
-0.21834241 -0.042233452 -0.13062105 0.08149394 -0.087655045 -0.08753051 0.0451 -0.10694891
-0.2513809 -0.111226 -0.7678256 -0.3776186 -0.22289929 -0.113077775 -0.61464685 -0.09716134
-0.28992403 -0.1263305 -0.3342243 -0.26910385 -0.10201238 -0.20252723 -0.05031203 0.09315875
-0.1883002 -0.18381414 0.03861897 -0.15630093 0.25194302 0.29635265 -0.036768675 0.14046451
0.16353531 0.032362003 -0.29968083 0.12239296 -0.11701256 -0.10902845 -0.516045 -0.26186866
-0.051358737 -0.2851967 -0.1764894 0.18168376
00000000: c38f dabe 3306 b1ba 414b 263b f756 e1be
00000010: eae1 abbe 211d 88be 8f88 f6be d3ba 0dbf
00000020: f8e1 09bb 6ba6 08bf a205 6f3e 7765 ad3d
00000030: c5e9 80be 3a7d 1bbe 78a7 a0be e5fb c33d
00000040: 8cfc debc cff3 2bbd 7c79 f0be 9214 3bbe
00000050: 6d04 70bd 2a97 22bf 56ae d8bb b246 6fbe
00000060: 6eef e8bb db8a edbd ba51 4cbf d616 64be
00000070: 7234 53be b717 82be cfee 01be 1c26 c7bc
00000080: de36 43bf b891 d4be 4ab3 36be de84 c1be
00000090: 2f41 8d3d 7046 e0be 5913 77bd 42d2 94be
000000a0: b431 b8bd 36f4 8a3d 5feb 6ebe 3845 97be
000000b0: f78a 8fbe 3b8b 54bf 18ac 01bd a1a9 6cbe
000000c0: 612c 793a 31dc 80bd 0c6d c5be 9f5f 39be
000000d0: 31b2 d8be 49bc 5abe f9d0 a63d dac5 863e
000000e0: 2795 5fbe fcfc 2cbd 86c1 05be 4be6 a63d
000000f0: 7d84 b3bd 3243 b3bd c7ba 383d 0808 dbbd
00000100: ffb4 80be 75ca e3bd 3890 44bf 3a57 c1be
00000110: b63f 64be 5295 e7bd 7f59 1dbf 86fc c6bd
00000120: ec70 94be c85c 01be 731f abbe fbc7 89be
00000130: deeb d0bd 4c63 4fbe fd13 4ebd 04ca be3d
00000140: c5d1 40be c639 3cbe ed2e 1e3d 5a0d 20be
00000150: adfe 803e 89bb 973e c09a 16bd eed5 0f3e
00000160: cd75 273e 058e 043d c46f 99be 29a9 fa3d
00000170: 48a4 efbd 4f4a dfbd 861b 04bf a613 86be
00000180: 8a5d 52bd 4d05 92be a3b9 34be 4f0b 3a3e

attention.2.weight f4 [100, 100]
-0.11081321 -0.04056028 -0.06654371 -0.12324632 -0.094582446 -0.06366676 -0.0072615175 -0.31307408
0.018579837 -0.08413103 0.04690634 0.034408793 -0.19183056 -0.36210474 -0.2185004 -0.059161067
0.024280787 0.0015105988 -0.056490365 -0.08318601 -0.059625864 -0.37046757 -0.058229934 -0.071240306
-0.06912642 -0.020676248 -0.18176953 -0.09808003 -0.13174771 -0.050131377 -0.010447347 0.0047168434
-0.123660855 -0.16491307 -0.1305185 -0.016374089 -0.107181095 -0.0039237775 0.018376812 -0.11894936
-0.12150298 -0.019940175 0.035120517 0.04137899 -0.06254748 0.04518887 -0.13776264 -0.21568058
-0.19098812 -0.07386545 0.050774634 -0.12968755 0.01664691 -0.1892446 0.0776298 0.120367475
-0.029793764 0.11701993 -0.15952282 -0.17936803 -0.075152494 0.026185242 0.08050891 0.01947561
0.018604651 -0.036240514 -0.11624295 -0.18787737 -0.12266515 0.057288613 0.055949952 -0.18119341
0.047115564 -0.12670839 0.07081146 0.055072747 -0.09492212 -0.05732679 -0.2291862 -0.067701206
-0.29372543 -0.18838583 -0.04932175 -0.032859977 0.13763139 -0.004174211 -0.051849667 0.02818569
0.13425907 -0.023622451 -0.008892829 -0.016955609 0.017541964 -0.13752183 -0.14266008 -0.025335047
0.098716825 -0.16593781 0.025086826 0.024156362 -0.08728644 -0.013031216 0.08014626 -0.116104014
-0.051994815 -0.03591457 -0.028522553 -0.04361496 -0.044692405 -0.04970755 -0.08033981 0.012339124
-0.02203598 -0.04680147 -0.09240271 0.07562701 0.013419606 -0.019172566 0.0049173227 -0.053817444
-0.021198666 -0.14182052 -0.03237034 0.080598004 -0.09846885 0.06553832 -0.14247912 -0.057875775
-0.011982344 -0.08732178 -0.029794188 -0.051565673 0.034996495 -0.036464352 -0.0728559 -0.1501872
-0.012786117 -0.054096557 -0.03995652 0.009307578 -0.06697211 -0.017205723 -0.04276626 0.028464414
-0.08729089 -0.008123589 -0.083099134 -0.053650066 -0.06100142 -0.026432905 -0.12065308 -0.013821455
-0.0009330354 -0.043368407 -0.02654861 0.03709519 0.043983646 -0.0063931476 -0.04282169 -0.066917785
-0.081609696 -0.019099096 -0.0032782366 0.023795502 0.048169207 -0.024357539 -0.08097957 -0.059636857
0.031594194 0.09260721 -0.035857245 0.03820135 -0.07109468 -0.06269237 0.04457928 0.051989928
-0.055042773 -0.025998946 -0.022903588 -0.075281344 -0.06781139 -0.1558297 0.008691944 -0.012183054
0.01493668 -0.035365548 0.04018668 -0.099150956 -0.0721398 -0.07674002 -0.0008581151 0.025539067
-0.04686425 -0.0057697254 -0.042837024 -0.020811798 -0.061688032 -0.013647521 -0.055762317 -0.07215401
-0.12131863 0.022122696 -0.026676644 -0.03707427 -0.09110987 0.08738282 -0.029257145 -0.08562789
-0.06578284 -0.1275219 0.010599752 0.08985245 -0.08442026 -0.08696873 -0.027519034 0.036853913
-0.00024967207 -0.012308774 -0.10150561 -0.08759885 -0.056058846 -0.042778913 -0.09406708 0.069972575
-0.052975412 -0.007935913 -0.17936534 -0.13068719 -0.03206893 -0.037199352 0.074162535 -0.03036842
-0.22014421 -0.16518253 -0.1796617 -0.11929509 -0.0037323306 -0.097156785 -0.053373255 -0.1092821
0.02091109 -0.04075675 -0.056642387 0.014166489 -0.068802446 -0.055944357 -0.121016264 -0.06326755
-0.005576954 -0.14478698 -0.10877964 -0.025987776 -0.16322038 -0.09704019 0.061458323 0.01651442
00000000: 09f2 e2bd 8922 26bd 1248 88bd 9168 fcbd
00000010: 71b4 c1bd b863 82bd 06f2 edbb 3f4b a0be
00000020: be34 983c e44c acbd dd20 403d 3cf0 0c3d
00000030: 3b6f 44be cb65 b9be 92be 5fbe e052 72bd
00000040: 80e8 c63c 49ff c53a 7162 67bd 6d5d aabd
00000050: 403a 74bd edad bdbe 8382 6ebd 70e6 91bd
00000060: 2792 8dbd 3c61 a9bc cb21 3abe 2fde c8bd
00000070: dfe8 06be 8f56 4dbd 592b 2bbc c08f 9a3b
00000080: e741 fdbd f9de 28be a4a6 05be f422 86bc
00000090: c381 dbbd 0893 80bb f88a 963c b99b f3bd
000000a0: 8ed6 f8bd 9459 a3bc 88da 0f3d 047d 293d
000000b0: e518 80bd f717 393d a611 0dbe 5fdb 5cbe
000000c0: 6492 43be c546 97bd 10f9 4f3d d0cc 04be
000000d0: 1a5f 883c 56c9 41be 5ffc 9e3d 3983 f63d
000000e0: 0d12 f4bc 25a8 ef3d f359 23be 41ac 37be
000000f0: 8de9 99bd 6f82 d63c dbe1 a43d 518b 9f3c
00000100: c868 983c ef70 14bd c910 eebd ed62 40be
00000110: de37 fbbd 77a7 6a3d c72b 653d c48a 39be
00000120: 40fc 403d d8bf 01be 9905 913d f693 613d
00000130: 8766 c2bd 7fcf 6abd caaf 6abe eea6 8abd
00000140: 2e63 96be 37e8 40be 9a05 4abd 2f98 06bd
00000150: 3eef 0c3e d2c7 88bb 5160 54bd ade5 e63c
00000160: 367b 093e df83 c1bc 3ab3 11bc 7de6 8abc
00000170: 2ab4 8f3c 86d2 0cbe 7c15 12be 728b cfbc
00000180: 0c2c ca3d 9aeb 29be e382 cd3c 90e3 c53c
00000190: 3cc3 b2bd e280 55bc b923 a43d f1c7 edbd
000001a0: 84f8 54bd 281b 13bd 21a8 e9bc 9aa5 32bd
000001b0: 620f 37bd 259a 4bbd 3389 a4bd 0a2a 4a3c
000001c0: cd84 b4bc e6b2 3fbd a23d bdbd 55e2 9a3d
000001d0: e8dd 5b3c c90f 9dbc 7e21 a13b ae6f 5cbd
000001e0: d3a8 adbc 6639 11be c396 04bd 9110 a53d
000001f0: 09aa c9bd f438 863d 0ce6 11be 260f 6dbd
00000200: 9851 44bc c3d5 b2bd f112 f4bc 8736 53bd
00000210: 7c58 0f3d a55b 15bd 7935 95bd acca 19be
00000220: dd7c 51bc 5a94 5dbd 73a9 23bd d07e 183c
00000230: ac28 89bd 04f3 8cbc ad2b 2fbd 342e e93c
00000240: 91c5 b2bd cd18 05bc e12f aabd 2cc0 5bbd
00000250: a0dc 79bd d289 d8bc f618 f7bd 6273 62bc
00000260: f296 74ba 12a3 31bd 787c d9bc 20f1 173d
00000270: 3228 343d 9c7d d1bb cc65 2fbd 310c 89bd
00000280: fc22 a7bd b575 9cbc afd7 56bb c9ee c23c
00000290: 134d 453d 7689 c7bc 9ed8 a5bd c745 74bd
000002a0: ea68 013d d9a8 bd3d 0cdf 12bd 0579 1c3d
000002b0: 169a 91bd db64 80bd c398 363d 64f3 543d
000002c0: 8874 61bd befb d4bc 4ea0 bbbc 1b2d 9abd
000002d0: b3e0 8abd d291 1fbe a868 0e3c 6f9b 47bc
000002e0: fab8 743c 77db 10bd ca9a 243d a80f cbbd
000002f0: 08be 93bd df29 9dbd 21f3 60ba 4e37 d13c
00000300: baf4 3fbd f70f bdbb e075 2fbd 817d aabc
00000310: 97ac 7cbd da99 5fbc 0767 64bd 7bc5 93bd
00000320: e775 f8bd a83a b53c fa88 dabc 31db 17bd
00000330: d097 babd c4f5 b23d aeac efbc ad5d afbd
00000340: 27b9 86bd 1a95 02be 95aa 2d3c 9004 b83d
00000350: 87e4 acbd a91c b2bd 996f e1bc 21f4 163d
00000360: 6be6 82b9 bdaa 49bc 2ce2 cfbd 0767 b3bd
00000370: f69d 65bd f138 2fbd 3ea6 c0bd c84d 8f3d
00000380: bffc 58bd a205 02bc 8cab 37be ddd2 05be
00000390: b65a 03bd 595e 18bd 87e2 973d 31c7 f8bc
000003a0: 7c6d 61be 9c25 29be 3df9 37be fc50 f4bd
000003b0: 1e9a 74bb 23fa c6bd ea9d 5abd 4bcf dfbd
000003c0: bc4d ab3c 8df0 26bd d901 68bd 901a 683c
000003d0: 4ce8 8cbd e925 65bd 60d7 f7bd 6b92 81bd
000003e0: e2be b6bb 0a43 14be dcc7 debd 51e4 d4bc
000003f0: 3e23 27be 02bd c6bd b9bb 7b3d 4049 873c
