sarl_star_ros/CrowdNav-nowall/crowd_nav/data/output_new1_0.8_f1/il_model.pth (torch_old, 349196 bytes, 20 tensors)

mlp1.0.weight f4 [150, 13]
0	0xbb4c663d	-0.0031188868
1	0x3f827611	1.0192281
2	0xbe89d9e6	-0.26924056
3	0x3f2931a2	0.6609136
4	0x3ffd74b1	1.9801236
5	0xbe1c5329	-0.15266098
6	0x3fd5b611	1.6696187
7	0x401876cc	2.3822508
8	0xbf8dcbe6	-1.107785
9	0x40193704	2.393983
10	0xbc98b381	-0.018640282
11	0xc0331b67	-2.7985475
12	0x3f5e718a	0.86891997
13	0xbdb56f16	-0.088590786
14	0x3de0aa20	0.10969949
15	0x3d09da06	0.03365519
16	0xbd5e2c70	-0.054241598
17	0x3e8cce91	0.27501348
18	0x3bcecf3b	0.006311325
19	0xbe4979a1	-0.19675304
20	0x3ec0b84a	0.376406
21	0x3d8feaa9	0.0702718
22	0xbedfe7b6	-0.4373147
23	0x3e4b0c56	0.19828925
24	0xbd70eea5	-0.05882134
25	0xbe8b9c37	-0.2726762
26	0x3f1f445b	0.6221368
27	0xbea846ba	-0.3286646
28	0xbc28788c	-0.010282647
29	0xbda3a2e0	-0.0799005
30	0xbf35fbf9	-0.71087605
31	0x404139a2	3.0191426
32	0x3f5f8ca5	0.8732398
33	0xbf63e85c	-0.8902643
34	0x3f8c0a88	1.0940714
35	0xc052d3e3	-3.2941825
36	0xbf3fb26a	-0.74881613
37	0xbf781559	-0.96907574
38	0xbf299478	-0.6624217
39	0x3e5ad55b	0.21370451
40	0x3ef707aa	0.48248035
41	0x3f0a2ac7	0.53971523
42	0xbe31bc2e	-0.17356941
43	0x3f0251a3	0.5090582
44	0x406217e1	3.5327075
45	0x3e6a9a17	0.22910343
46	0xbf449b7c	-0.7679975
47	0xbf6bc7a6	-0.92101514
48	0xc07122c1	-3.7677462
49	0xbf5bd434	-0.8587067
50	0xbe23539c	-0.15949863
51	0xbf55f272	-0.8357307
52	0x3d6bd49f	0.05757582
53	0xbf146f28	-0.5798211
54	0x3f2ce65a	0.6753899
55	0xbe9976a5	-0.2997333
56	0xbed6b5a5	-0.4193546
57	0x3f2b6133	0.6694519
58	0xbf06de5e	-0.52683055
59	0x3e76117d	0.24030109
60	0x3f9666a9	1.1750079
61	0xbfa362be	-1.2764509
62	0x3e2753c3	0.16340546
63	0x3e931844	0.2872945
64	0x3df7c9a9	0.120990105
65	0xbe971d0a	-0.29514343
66	0x3eb8a8d7	0.36066315
67	0xbe0df5ce	-0.13863298
68	0xbe4d7bd4	-0.20066768
69	0x3ed384ed	0.41312352
70	0x3e6fa779	0.2340373
71	0xbd95885d	-0.073014
72	0xbdcee5c1	-0.10102416
73	0x3ef5938b	0.4796413
74	0xbe7fdaf6	-0.2498587
75	0x3dd4de4e	0.10393964
76	0xbd1f8238	-0.038942546
77	0xbe355d0a	-0.17711273
78	0xbe195236	-0.14972767
79	0x3dd9f697	0.106427364
80	0xbe8ca7d6	-0.274718
81	0x3dc6d22d	0.097080566
82	0xbd7d3f4a	-0.061827935
83	0x3cd10301	0.025514128
84	0xbe6dd8aa	-0.23227182
85	0xbe174014	-0.14770538
86	0xbe880a9f	-0.26570603
87	0x3e52e67c	0.20595735
88	0x3d029fb0	0.03189057
89	0x3e217492	0.15767124
90	0xbdb08380	-0.08618832
91	0xbe8259c4	-0.2545911
92	0x3e400bff	0.18754576
93	0xbdd23925	-0.10264806
94	0xbde523bf	-0.11188459
95	0x3dda2e2d	0.106533386
96	0xbe428a29	-0.18998016
97	0xbe56a115	-0.20959885
98	0x3e47ab25	0.1949888
99	0xbe5dbd2b	-0.21654193
100	0x3e443696	0.19161448
101	0x3e39b313	0.18134718
102	0xbe17764b	-0.14791219
103	0xbe8b24fd	-0.27176657
104	0xbf0a1da3	-0.5395147
105	0x3e62fe1f	0.22167252
106	0xbf4e9394	-0.80693936
107	0xbe371af3	-0.17881374
108	0xbeafaa71	-0.34309724
109	0x3d152288	0.036409885
110	0x3e9d6588	0.30741525
111	0x3e756dad	0.23967619
112	0xbe11b910	-0.14230752
113	0xbe3c8d05	-0.1841317
114	0x3e2ecfd5	0.17071469
115	0x3c9be9ed	0.019032443
116	0x3e168da4	0.14702469
117	0xbd9d7478	-0.0768823
118	0xbef955e5	-0.48698345
119	0xbfa7aaa2	-1.3098948
120	0xbe6e6254	-0.23279697
121	0x3f460590	0.7735224
122	0xc062b59e	-3.542335
123	0x3fbc0f9f	1.4692267
124	0x3f19ec0e	0.60125816
125	0x3f516a9e	0.8180331
126	0x40395bfa	2.8962388
127	0x3e1c152b	0.1524245
128	0xbf3beba6	-0.73406446
129	0x3e29f4af	0.16597246
130	0x3e2c69da	0.16837254
131	0x3ea1badd	0.31587878
132	0x3eec7faa	0.4619115
133	0x3d7814e9	0.060566816
134	0x3c82de28	0.015975073
135	0x3ea7020a	0.32618743
136	0xbdc7409f	-0.09729122
137	0xbe22be6c	-0.15892953
138	0xbe9c2abd	-0.30501357
139	0xbed01f80	-0.40649033
140	0x3f35f926	0.71083295
141	0xbfa76746	-1.3078392
142	0x3f45a36e	0.772025
143	0xbf0849a7	-0.53237385
144	0xbd267342	-0.040637262
145	0xbe96657e	-0.29374307
146	0x3d819b2a	0.06328423
147	0x3ec092f9	0.3761213
148	0x3eb821a2	0.3596316
149	0xbf30dfe3	-0.69091624
150	0xbd1a02f8	-0.037600487
151	0x3ee85e5e	0.45384496
152	0x3e78a41a	0.2428135
153	0xbe5e3cce	-0.21702883
154	0x3ee2de5e	0.44310278
155	0x3e5b2272	0.21399859
156	0xbeadfb51	-0.33980802
157	0x3bdde630	0.0067718253
158	0xbfb5a5e5	-1.4191252
159	0x3e9cfe8d	0.30662957
160	0x3eecd59a	0.46256715
161	0x3b7aa744	0.003824667
162	0xbf18534c	-0.595021
163	0x3f34e3d3	0.7066013
164	0xbf222b23	-0.6334707
165	0xbf3f9dfb	-0.74850434
166	0x3e7a306c	0.24432534
167	0xbf4724c5	-0.7779048
168	0x3f06fd1a	0.5272995
169	0x3f4545a8	0.7705941
170	0xbf39058b	-0.7227408
171	0x3d9a9462	0.07547833
172	0xbecbd61d	-0.39811793
173	0xbf25c5c1	-0.64754874
174	0xbe293263	-0.16523127
175	0xbfba2e9a	-1.4545472
176	0xbf56acfd	-0.8385771
177	0x4050f928	3.2652073
178	0x3f23b16a	0.6394259
179	0x3d53f64a	0.05174855
180	0xbecfc47b	-0.4057959
181	0xbeed742d	-0.46377698
182	0x3f87b0ab	1.060079
183	0xbf6dd235	-0.92898875
184	0x3ff95b40	1.9480972
185	0xbeb4f954	-0.35346472
186	0xbf3de86f	-0.7418279
187	0xbec9f386	-0.39443606
188	0x3f974221	1.1817056
189	0x3f193334	0.59843755
190	0x3fd88d56	1.6918132
191	0xbf6e27e7	-0.93029636
192	0x3f35eece	0.7106751
193	0xc012bdca	-2.2928338
194	0x3f04bbd6	0.51849115
195	0xbf9e6567	-1.2374696
196	0x3eb62e13	0.35582027
197	0xbecbbc6e	-0.39792198
198	0xbdfd817d	-0.123782136
199	0x3e341588	0.17586339
200	0xbf9430eb	-1.1577429
201	0xbcc4b53f	-0.024012206
202	0xbf250bd0	-0.6447115
203	0x3f51d2be	0.8196219
204	0x3f60a169	0.8774629
205	0x3e93e802	0.28887945
206	0x3fb2d871	1.3972303
207	0x3edae3e3	0.4275199
208	0xbd98cdce	-0.07461129
209	0x3e67fc5e	0.22654864
210	0xbf1eba96	-0.6200346
211	0x3ed25e19	0.41087416
212	0xbe7d5be8	-0.2474209
213	0x3eb9a181	0.3625603
214	0x3eaba588	0.33524728
215	0x3f25c664	0.64755845
216	0x3eff7fb5	0.4990212
217	0x3eb5fa25	0.35542408
218	0x3f2fd4da	0.6868416
219	0xbfb6b3ac	-1.4273582
220	0x3f7f5ced	0.9975117
221	0xbc9082ec	-0.017640553
222	0xbe09fc50	-0.13475156
223	0x3f8211e5	1.0161711
224	0xbe85cea7	-0.26134226
225	0x3f15ac29	0.5846582
226	0xbda29ac3	-0.07939675
227	0xbfbd8b87	-1.4808205
228	0x3f478d99	0.77950436
229	0x3f9a7d06	1.2069404
230	0xbf24761f	-0.6424274
231	0xbf3bd852	-0.73376954
232	0x3e3192d4	0.17341167
233	0xbf375dee	-0.716277
234	0xbe69cb19	-0.22831382
235	0xbc7ae5df	-0.015313595
236	0x3f5cfd26	0.86323774
237	0x3e1a4561	0.15065528
238	0x3e4a7a05	0.1977311
239	0x3d953327	0.07285147
240	0xbe4ece8a	-0.20195976
241	0x3e0a3e6f	0.13500379
242	0x3df9c8c5	0.12196497
243	0xbe0a1810	-0.13485742
244	0x3e3a2506	0.18178186
245	0xbe5efa8e	-0.21775267
246	0x3e0087f7	0.12551866
247	0xbead574a	-0.3385566
248	0xbed34544	-0.41263783
249	0x3e59d9e2	0.21274522
250	0xbdd365a5	-0.103221215
251	0xbde9ca0e	-0.11415492
252	0xbe4a74ee	-0.19771168
253	0xbe0474a4	-0.1293512
254	0x3ed373d0	0.41299295
255	0xbf4653d7	-0.7747168

mlp1.0.bias f4 [150]
0	0x3fd078c2	1.6286852
1	0xbe61fae8	-0.2206837
2	0xbecc1627	-0.3986065
3	0x3f015140	0.505146
4	0xbf3debf2	-0.7418815
5	0x3eaa59e5	0.3327171
6	0x3dd04888	0.10170084
7	0x3e83c515	0.257363
8	0x3ead9713	0.33904323
9	0xbe7e9c76	-0.24864373
10	0x3d863424	0.06552914
11	0xbda8561f	-0.08219551
12	0x3e3e9f24	0.18615395
13	0xbf95d5fb	-1.1705927
14	0xbf9dbcae	-1.2323205
15	0x3e58139f	0.21101235
16	0x3f0dee3f	0.5544166
17	0xbeca7702	-0.3954392
18	0x3ea2d0ba	0.3179987
19	0xbef3c41f	-0.47610566
20	0xbd45db17	-0.048304643
21	0x3edc1fd9	0.42993048
22	0x3e346bf9	0.17619313
23	0x3e1d8b92	0.15385273
24	0xbe20366c	-0.1564576
25	0x3dabe9c1	0.083941944
26	0x3f715dc9	0.9428373
27	0xbe191d74	-0.14952642
28	0x3f460099	0.7734466
29	0x3f64d31a	0.89384615
30	0xbec11502	-0.3771134
31	0xbdb5bf7f	-0.088744156
32	0xbdd0e512	-0.10199942
33	0xbf9020f6	-1.1260059
34	0xbf47ddc5	-0.7807277
35	0x3e0fdff3	0.14050274
36	0xbdb46d52	-0.08809914
37	0x3e3fdf8e	0.18737623
38	0xbfab0785	-1.336167
39	0x3f208e95	0.6271756
40	0xbf8ad0a1	-1.0844918
41	0x3ea30d83	0.31846246
42	0x3ecd07fb	0.4004515
43	0x3da27e3c	0.079342335
44	0x3efe6565	0.49686733
45	0xbee4269f	-0.44560716
46	0xbec5b2d0	-0.38612986
47	0x3e32ed7c	0.17473406
48	0x3f14e368	0.58159494
49	0xbdd2245e	-0.10260843
50	0xbe00d319	-0.12580527
51	0xbe5f7583	-0.21822171
52	0xbf929b3f	-1.1453627
53	0xbe3cd7b6	-0.18441662
54	0x3efa55a9	0.4889348
55	0x3f869557	1.0514325
56	0xbf5e5188	-0.86843157
57	0xbf1f01c3	-0.62112063
58	0x3e29bfb9	0.16577043
59	0xbfd1df92	-1.6396353
60	0x3e3e4902	0.18582538
61	0x3d918f2e	0.071073875
62	0x3d3846b3	0.0449893
63	0x3f0fa5f2	0.5611259
64	0x3da6c7bf	0.08143567
65	0xbec4075b	-0.38286862
66	0x3f2255ac	0.63411975
67	0xbf688a89	-0.9083639
68	0x39fc3d97	0.00048111074
69	0xbef68efe	-0.4815597
70	0xbef44b59	-0.47713736
71	0xbddfb30b	-0.109228216
72	0xbfbd34a2	-1.4781687
73	0x3f51482d	0.81750757
74	0xbdcd2f18	-0.10018748
75	0xbe5adf76	-0.21374306
76	0xbefa06f3	-0.48833427
77	0xbd088177	-0.033326592
78	0xbef81ec5	-0.48460975
79	0xbd4e5d22	-0.050381787
80	0xbedfe666	-0.43730468
81	0x3d8058cb	0.06266936
82	0xbe2b6fcc	-0.16741866
83	0xbe61f465	-0.22065885
84	0xbd948a21	-0.072529085
85	0x3e04864f	0.1294186
86	0x3e6591c5	0.22418888
87	0x3fc1539d	1.5103642
88	0xbf170883	-0.5899736
89	0x3ec1fd05	0.3788835
90	0xbf2ec7dd	-0.6827372
91	0xbd909b73	-0.070608996
92	0x3dbe3924	0.092882425
93	0x3f210ff9	0.62915
94	0xbe64c2ae	-0.2233989
95	0x3dee0978	0.116229
96	0xbe0d9e1f	-0.1382985
97	0xbe358189	-0.17725195
98	0x3ef095b2	0.46989208
99	0x3df1cf31	0.11807097
100	0xbe833bc5	-0.25631538
101	0x3ed41450	0.41421747
102	0x3e351454	0.17683536
103	0xbcab7906	-0.020931732
104	0xbde4e645	-0.11176733
105	0x3e55e151	0.20886733
106	0x3e88d737	0.26726696
107	0xbe2e8332	-0.17042235
108	0xbe242375	-0.16029151
109	0x3cb36efe	0.021903511
110	0x3dcc2b72	0.09969224
111	0xbecb297a	-0.39680082
112	0x3dd86373	0.105658434
113	0x3e256d75	0.16155036
114	0x3e3e2d4c	0.18571967
115	0x3e7635cc	0.2404396
116	0x3e4cd6ea	0.20003858
117	0x3f1edb92	0.6205379
118	0xbee3fd0a	-0.4452899
119	0x3e179fd0	0.14807057
120	0x3d71ad45	0.059003133
121	0x3f48a496	0.7837614
122	0x3f1b4b05	0.60661346
123	0xbe8d01bb	-0.27540383
124	0x3e58143c	0.21101469
125	0x3d88ede4	0.06685999
126	0xbe94e95b	-0.29084286
127	0x3ed178f1	0.40912583
128	0x3f7d9d0b	0.99067754
129	0xbde47426	-0.11154966
130	0x3e4d949e	0.20076224
131	0x3f282fb4	0.6569779
132	0xbf3682fb	-0.7129361
133	0xbd91b876	-0.07115261
134	0x3f585c05	0.8451541
135	0xbe551767	-0.20809709
136	0xbe4eb2fa	-0.20185462
137	0xbf960ad7	-1.1722058
138	0xbf33394a	-0.7000929
139	0xbe8e77f2	-0.27825886
140	0xbf0c713e	-0.54860294
141	0xbd3e02e4	-0.046389475
142	0xbf79124e	-0.97293556
143	0x3f32b5df	0.69808763
144	0x3e739c9d	0.23790212
145	0xbfa75770	-1.3073559
146	0xbe28bdbc	-0.16478628
147	0x3f163ff7	0.5869135
148	0x3f7bc9be	0.9835471
149	0xbe0c6dc8	-0.13713753

mlp1.2.weight f4 [100, 150]
0	0xbf36aeb6	-0.7136034
1	0x3dbb23ef	0.09137713
2	0xbf014c95	-0.5050748
3	0xbedeee11	-0.43541005
4	0xbe49b2e1	-0.19697143
5	0xbe0fdf31	-0.14049985
6	0xbcd7c087	-0.026336921
7	0x3d134f5c	0.035964355
8	0x3cde6bd6	0.02715103
9	0xbe12e206	-0.14344034
10	0xbdaf65ee	-0.085643634
11	0xbe452510	-0.1925242
12	0x3d9cfedc	0.07665798
13	0x3eb31740	0.34978676
14	0xbe82f7b0	-0.25579596
15	0xbed46797	-0.41485283
16	0x3debfa05	0.11522297
17	0xbee26951	-0.44220975
18	0x3aadc159	0.0013256475
19	0xbde82c79	-0.113366075
20	0x3d2675a2	0.040639527
21	0xbe240648	-0.16018021
22	0xbc86bf52	-0.01644865
23	0x3dc144a1	0.09436918
24	0x3b58997f	0.0033050475
25	0x3d3f9696	0.04677447
26	0xbebb49e8	-0.36579823
27	0xbdb97a38	-0.090565145
28	0xbe0dc089	-0.13842978
29	0x3d160b1b	0.036631685
30	0x3dc05d18	0.09392756
31	0x3d395777	0.04524943
32	0xbc586c4c	-0.013209414
33	0xbc9a1462	-0.018808547
34	0x3e38cbeb	0.18046539
35	0xba58c3a6	-0.00082689
36	0x3ed9691d	0.42463008
37	0xbe348ab1	-0.17631032
38	0x3de3e387	0.11127382
39	0x3e06f5c8	0.13179696
40	0x3d5dffb2	0.05419893
41	0x3df03c95	0.11730305
42	0xbeb35d52	-0.35032135
43	0xbde10e53	-0.1098906
44	0x3d222d47	0.03959396
45	0xbbc3b1b4	-0.0059721116
46	0xbc9f135a	-0.019418407
47	0xbe8d98f2	-0.2765575
48	0x3d85286e	0.06501852
49	0xbdfdbfa3	-0.123900674
50	0x3d7ede37	0.06222364
51	0x3cd7271e	0.02626377
52	0xbf05c451	-0.5225268
53	0xbd228769	-0.03967992
54	0xbde05d17	-0.109552555
55	0xbda900ca	-0.082521036
56	0xbe116c52	-0.14201477
57	0xbc016d7c	-0.007899638
58	0x3c52038e	0.01281823
59	0xbe8643b0	-0.26223516
60	0x3d3d1b06	0.04616835
61	0xbd1837cf	-0.0371626
62	0xbd0cc587	-0.034368064
63	0x3dc62767	0.09675484
64	0x3b71e3de	0.00369095
65	0x3d898ff2	0.067169085
66	0xbe9320f7	-0.28736088
67	0xbea72f00	-0.32653046
68	0x3d5a8433	0.05334873
69	0xbe2c82c5	-0.1684676
70	0xbe4c14d5	-0.19929822
71	0xbdc68e44	-0.09695104
72	0xbe5329ab	-0.20621364
73	0x3e0b87ac	0.13625973
74	0xbcc9eae4	-0.024648137
75	0x3d72c701	0.059271816
76	0xbd3f6953	-0.046731304
77	0xbe088921	-0.1333356
78	0xbf12290a	-0.5709387
79	0x3d9f0202	0.07764055
80	0x3d30c18d	0.043153334
81	0x3d3e2c06	0.046428703
82	0xbdab4f53	-0.08364739
83	0xbe2ca5e9	-0.16860165
84	0xbd9e85cb	-0.07740363
85	0xbdac95b7	-0.08426993
86	0x3c967e11	0.01837066
87	0xbf41f139	-0.757587
88	0xbead7505	-0.3387834
89	0x3e3748f1	0.17898919
90	0xbe52b08c	-0.2057516
91	0xbea3f0ad	-0.3201956
92	0xbc7675f9	-0.015042775
93	0xbe137cd8	-0.14403093
94	0x3c6c9da3	0.01444188
95	0xbd176007	-0.036956813
96	0x3c089961	0.00833735
97	0xbd806d4c	-0.06270847
98	0xbe2da780	-0.16958427
99	0xbe659534	-0.22420198
100	0x3de7841c	0.11304495
101	0xbdb18ca7	-0.086694054
102	0x3e0992ee	0.13434955
103	0xbe43f03a	-0.19134608
104	0xbd5df18e	-0.054185443
105	0xbd2a3b3d	-0.0415604
106	0xbe07c6e2	-0.13259462
107	0xbe2f24ca	-0.17103878
108	0xbe659e5a	-0.22423688
109	0xbc360e34	-0.011111785
110	0x3e06d8b2	0.131686
111	0xbef8d073	-0.48596534
112	0xbe76c2ea	-0.24097791
113	0xbc83a911	-0.016071828
114	0xbe65c1de	-0.22437236
115	0xbda563be	-0.08075665
116	0xbf80df1a	-1.0068085
117	0xbe65b9f6	-0.2243422
118	0xbd159391	-0.036517683
119	0x3d2155f1	0.0393886
120	0xbda98d81	-0.08278943
121	0x3eb6994c	0.3566383
122	0x3d9e726b	0.07736667
123	0x3e22c666	0.15895995
124	0xbe2632b4	-0.16230279
125	0x3e13789e	0.1440148
126	0x3d1378c7	0.036003854
127	0xbe2e7617	-0.17037235
128	0xbedd5c67	-0.4323456
129	0xbd28bd1d	-0.041195977
130	0xbb8a668d	-0.004223651
131	0xbf512853	-0.81702155
132	0xbd70a2cd	-0.05874901
133	0xbcb2cbb1	-0.021825643
134	0xbd245e96	-0.040129267
135	0xbd3f5e32	-0.04672069
136	0xbd87b72a	-0.06626733
137	0x3dd366b5	0.10322324
138	0x3e695ef0	0.22790122
139	0xbdc179d3	-0.09447064
140	0xbd73a61c	-0.059484586
141	0xbe22c411	-0.15895106
142	0xbdcebe9d	-0.1009495
143	0x3e9beb7a	0.30453092
144	0xbeb02a19	-0.34407118
145	0x3f1581fa	0.58401453
146	0xbd52f1e1	-0.051500205
147	0x3d463a58	0.048395485
148	0x3e9b09db	0.30280957
149	0x3e0fa85d	0.14029069
150	0xbe608a7a	-0.21927825
151	0xbc96ff79	-0.018432366
152	0xbe8fe057	-0.28100845
153	0xbe6d8c85	-0.23198135
154	0x3d54a724	0.05191721
155	0x3d7acfc5	0.0612333
156	0x3b61c307	0.003444852
157	0xbd96f985	-0.07371811
158	0x3d728531	0.059209052
159	0xbee0b089	-0.43884686
160	0xbdac470b	-0.08411988
161	0xbe3944c2	-0.18092635
162	0x3e806e1b	0.25084004
163	0x3e8c9aa1	0.27461722
164	0xbe971b2e	-0.29512924
165	0xbe826e41	-0.25474742
166	0x3e32624f	0.17420314
167	0x3d2a2b2f	0.04154509
168	0xbda065ec	-0.0783194
169	0x3cebbd35	0.028776744
170	0x3da66e3b	0.081264935
171	0xbf7fd65a	-0.9993645
172	0xbe39e91c	-0.1815533
173	0xbe9affe6	-0.3027336
174	0xbcb7d1f0	-0.022438973
175	0x3afd1e47	0.0019311392
176	0x3e22b3b7	0.15888868
177	0xbdab298e	-0.08357535
178	0xbe33f204	-0.1757279
179	0xbf13cc29	-0.577334
180	0xbe566a96	-0.20939097
181	0xbe782020	-0.24231005
182	0xbbe66697	-0.0070312726
183	0x3eac636a	0.33669597
184	0x3e0dfc88	0.13865864
185	0xbe15c94a	-0.14627567
186	0xbedd4510	-0.43216753
187	0x3d123110	0.03569132
188	0xbf1ddb8b	-0.6166312
189	0xbe2d8d1a	-0.16948357
190	0xbead8575	-0.33890882
191	0xbd3f7a30	-0.046747386
192	0xbf3a8371	-0.72856814
193	0xbece07f9	-0.40240458
194	0x3e090726	0.13381633
195	0x3f03d221	0.51492506
196	0xbd12cad8	-0.035837978
197	0xbf09894b	-0.5372512
198	0xbe2b01f9	-0.16699971
199	0xbdf35aef	-0.118825786
200	0xbe105003	-0.14093022
201	0xbe30caaa	-0.1726481
202	0x3ebde974	0.37092173
203	0x3ca38852	0.019962464
204	0xbefe66c3	-0.49687776
205	0xbe12f78a	-0.14352241
206	0x3ea9b61b	0.33146748
207	0xbea12eec	-0.3148111
208	0xbd0adc35	-0.033901412
209	0x3eaed294	0.34145033
210	0xbd142a10	-0.036172926
211	0xbf4fa180	-0.81105804
212	0xbe0317fb	-0.12802117
213	0xbd21fc01	-0.03954697
214	0xbd25e705	-0.04050352
215	0x3ee1c147	0.4409277
216	0x3c2003b1	0.009766505
217	0xbe5d8c61	-0.21635582
218	0xbe20d24a	-0.15705219
219	0xbe3b25f7	-0.18276201
220	0x3e932cd7	0.28745148
221	0x3cf49a49	0.029858725
222	0x3ecdd361	0.40200332
223	0xbecec90b	-0.4038776
224	0xbe30fa23	-0.1728292
225	0xbd6f2a5b	-0.058390003
226	0xbe122d6d	-0.14275141
227	0x3d57e5b1	0.052709285
228	0x3f09ff0a	0.53904784
229	0xbd4c6c55	-0.049908
230	0x3df05286	0.1173449
231	0xbd0cf188	-0.03441003
232	0xbe098d35	-0.13432772
233	0xbf00d4da	-0.50324786
234	0xbe21c860	-0.15799093
235	0xbca48604	-0.020083435
236	0xbd06d03c	-0.03291343
237	0xbf3b3101	-0.7312165
238	0x3e5984f3	0.21242122
239	0x3d59c7ae	0.053168945
240	0xbe86febf	-0.2636623
241	0x3e89dd95	0.26926866
242	0xbdf1f0e1	-0.11813522
243	0xbde487d2	-0.11158718
244	0x3d720732	0.059088893
245	0x3daf6b68	0.08565408
246	0x3d84bf93	0.064818524
247	0xbd8d3088	-0.06894022
248	0xbebe6315	-0.3718497
249	0x3d714717	0.058905687
250	0x3e95c971	0.2925525
251	0xbd3a85a8	-0.04553762
252	0xbe10cac4	-0.14139849
253	0x3d2fe34f	0.042941388
254	0x3d2b34cf	0.04179841
255	0x3d140f4c	0.0361474

mlp1.2.bias f4 [100]
0	0xbe16a316	-0.1471065
1	0xbf361a22	-0.71133626
2	0xbdf22d86	-0.11825089
3	0x3dba8993	0.091082714
4	0xbf58a716	-0.8462995
5	0xbefc1950	-0.49238062
6	0xbf22a806	-0.63537633
7	0x3b205660	0.0024465546
8	0xbe0ab747	-0.13546477
9	0xbf4cdffc	-0.80029273
10	0x3fab9935	1.340613
11	0xbdb35e00	-0.087581635
12	0x3f5ab7b1	0.8543654
13	0xbe704f69	-0.23467793
14	0xbe16389a	-0.1467003
15	0xbdc98eb3	-0.09841671
16	0xbec76282	-0.38942343
17	0xbeee5f42	-0.4655705
18	0x3dc37ef2	0.09545697
19	0x3d35c1c5	0.044374246
20	0x3eaed136	0.3414399
21	0x3db718b1	0.089402564
22	0x3daffc3d	0.085930325
23	0x3dff931f	0.12479233
24	0x3edff3ec	0.43740785
25	0x3d4ddd69	0.05025998
26	0xbdedeedd	-0.11617825
27	0xbe75010d	-0.23926182
28	0xbee47e10	-0.44627428
29	0xbeddb46b	-0.4330171
30	0xbe2022cd	-0.15638275
31	0xbe7cdce1	-0.24693634
32	0xbe524feb	-0.20538299
33	0xbf8c5a28	-1.0965014
34	0x3e8d333b	0.27578148
35	0x3eb6d61d	0.3571023
36	0xbf291d35	-0.6606019
37	0x3cc444a9	0.023958521
38	0xbee8ec0b	-0.45492586
39	0xbe8b10ea	-0.27161342
40	0x3e065d32	0.13121489
41	0x3f536f34	0.8259156
42	0x3dee07aa	0.116225556
43	0x3ef0d9c1	0.47041133
44	0xbedccd7f	-0.4312553
45	0xbde59444	-0.1120992
46	0x3ec3e539	0.3826082
47	0xbea1be75	-0.3159062
48	0xbede759a	-0.43449098
49	0xbd581877	-0.052757706
50	0xbd8783e8	-0.06616956
51	0x3d942902	0.07234384
52	0xbe20c69d	-0.15700765
53	0x3cb3d395	0.021951476
54	0x3f098f95	0.53734714
55	0xbb32d8fd	-0.002728998
56	0x3c8407f7	0.01611708
57	0xbdca8dfc	-0.098903626
58	0xbe0bdd15	-0.13658555
59	0xbf53db83	-0.82756823
60	0x3c136c36	0.0089979675
61	0xbf291703	-0.6605074
62	0x3e975843	0.29559526
63	0xbed44017	-0.41455147
64	0x3e15f9b6	0.14646038
65	0xbd8ca6ff	-0.068677895
66	0x3e985506	0.29752368
67	0xbcb717d1	-0.022350224
68	0x3e64f39f	0.22358559
69	0xbf4d07ce	-0.80090034
70	0xbe5b7360	-0.21430731
71	0xbf1db8cb	-0.61610097
72	0x3edd1bfc	0.43185413
73	0xbdaed36c	-0.08536419
74	0xbf0823c1	-0.53179556
75	0xbde5d5c9	-0.11222417
76	0xbd7a494c	-0.061105058
77	0xbed91517	-0.42398903
78	0xbe6bb343	-0.23017602
79	0xbb5e4692	-0.0033916575
80	0x3cf9140b	0.030405065
81	0xbf95dbe9	-1.1707736
82	0x3f4e5d65	0.8061126
83	0xbeacd8ec	-0.33759248
84	0x3f02e815	0.5113538
85	0xbea024d6	-0.31278104
86	0xbf0a921a	-0.54129183
87	0xbe50f5ff	-0.2040634
88	0xbdcd7e82	-0.10033895
89	0xbdd9daf2	-0.10637464
90	0xbdb8be76	-0.090207025
91	0xbf40f3e8	-0.7537217
92	0xbc4a9ded	-0.012366754
93	0x3d5ab1ac	0.053392097
94	0xbdc8cb79	-0.09804434
95	0xbdd67202	-0.10470964
96	0xbf8decfd	-1.1087948
97	0xbd2f7943	-0.042840254
98	0xbd53414a	-0.051575936
99	0xbc91e508	-0.017809406

mlp2.0.weight f4 [100, 100]
0	0x3d5ec2f2	0.054385133
1	0x3d70ef31	0.05882186
2	0x3e888cf7	0.26670048
3	0xbd2d2896	-0.042275034
4	0xbf3565e9	-0.7085863
5	0xbd9f1c85	-0.077691115
6	0xbe84dbb0	-0.25948858
7	0xbd975929	-0.07390053
8	0xbe1f047e	-0.15529057
9	0xbe3d7fff	-0.18505858
10	0x3e572e0e	0.21013662
11	0xbe0f4ff3	-0.13995342
12	0xbe7274f0	-0.2367742
13	0xbdf8a755	-0.12141291
14	0x3e3ee8d4	0.18643504
15	0xbca9f923	-0.02074868
16	0xbe38d64d	-0.180505
17	0x3eb52900	0.35382843
18	0x3d853034	0.06503335
19	0xbe60e010	-0.21960473
20	0xbdfa1ee1	-0.12212921
21	0xbdbda5b1	-0.09260119
22	0x3ccecdb1	0.025244566
23	0xbe7f8c73	-0.24955921
24	0xbefb2533	-0.49051818
25	0x3e64f4b0	0.22358966
26	0xbe14ac1f	-0.14518784
27	0xbe8187fb	-0.25299057
28	0xbdf866dd	-0.121289946
29	0x3d3db230	0.04631251
30	0x3f10d9b6	0.565822
31	0x3edb8a83	0.42879114
32	0xbeb33a48	-0.35005403
33	0xbeee0331	-0.4648681
34	0x3e6d7e9a	0.23192826
35	0x3eeded57	0.46470138
36	0xbd5320d5	-0.051544983
37	0xbdc19d1d	-0.09453795
38	0xbe18ce18	-0.14922369
39	0xbbf2a255	-0.0074046054
40	0x3e9f7903	0.31147012
41	0xbee57d0e	-0.44821972
42	0x3e9af603	0.30265817
43	0xbf298ffc	-0.6623533
44	0xbe6457f8	-0.22299182
45	0xbdc2ca6e	-0.09511267
46	0x3d3468e2	0.044045337
47	0x3dbe61e9	0.09296019
48	0x3d31abd1	0.043376748
49	0x3d94aaba	0.07259126
50	0xbdd7d9c1	-0.1053958
51	0x3e892d00	0.26792145
52	0xbea944b0	-0.33060217
53	0xbdc661ae	-0.096866
54	0x3e02a651	0.12758757
55	0x3e431e09	0.19054426
56	0xbccae41b	-0.024766972
57	0x3c759bd1	0.014990763
58	0xbb19badd	-0.0023457326
59	0xbdd22df4	-0.10262671
60	0x3c805c2c	0.015668951
61	0xbd1c430e	-0.038149886
62	0xbd8ac57d	-0.06775949
63	0x3da5e3ec	0.08100113
64	0x3cb45ce8	0.022016957
65	0xbcea967f	-0.028636215
66	0xbf0c4f95	-0.5480893
67	0xbeb2891d	-0.34870234
68	0xbec77cb0	-0.38962317
69	0x3e86b422	0.26309305
70	0xbeba39c0	-0.36372185
71	0x3d491ec6	0.049101613
72	0xbebdab96	-0.37044972
73	0xbe216ba5	-0.1576372
74	0xbeed2407	-0.4631655
75	0x3d3c0980	0.045907497
76	0xbdc83da2	-0.097773805
77	0xbdbaac58	-0.09114903
78	0xbefbefab	-0.4920629
79	0xbf4689eb	-0.77554196
80	0xbc62c1a4	-0.013840113
81	0xbec60612	-0.38676506
82	0xbd6772ec	-0.056506082
83	0xbc777b37	-0.01510506
84	0xbd9c8c23	-0.076439165
85	0xbe544164	-0.2072807
86	0x3e1bbbfb	0.15208428
87	0xbe339f2c	-0.17541188
88	0xbe8e6511	-0.27811483
89	0x3dce8ba6	0.100852296
90	0xbdc81e26	-0.09771375
91	0x3dcb6abd	0.09932468
92	0x3d561bc1	0.052272562
93	0xbdcd35fa	-0.10020061
94	0xbdb31f10	-0.08746159
95	0x3d1b52ee	0.037920885
96	0xbf0ac786	-0.542107
97	0xbe4b44e7	-0.19850503
98	0xbdf5f3b5	-0.12009374
99	0xbd174a21	-0.03693593
100	0x3c771571	0.015080796
101	0xbe64fc0d	-0.22361775
102	0x3dc93853	0.09825196
103	0x3da81f0f	0.08209049
104	0x3e88d00c	0.26721227
105	0x3d5d7ab0	0.054072082
106	0xbd903c75	-0.07042781
107	0xbd13167b	-0.03591011
108	0xbd8ea431	-0.06964911
109	0xbc958033	-0.018249607
110	0x3e08e748	0.13369477
111	0x3d9cfd8c	0.07665548
112	0x3e035f34	0.12829286
113	0xbd43938e	-0.04774814
114	0xbd194a99	-0.037424657
115	0xba8cf715	-0.0010754789
116	0xbde66560	-0.112498045
117	0xbe79107c	-0.24322695
118	0xbdf06a16	-0.11738984
119	0xbe100dd0	-0.14067769
120	0x3ef23d87	0.47312567
121	0xbdbddff6	-0.09271233
122	0x3e0d4171	0.13794495
123	0xbe629bb5	-0.2212971
124	0xbdeef703	-0.116682075
125	0x3dc708be	0.09718464
126	0x3d28c288	0.041201144
127	0xbc88ba9e	-0.016690549
128	0xbd8fd6ea	-0.070234135
129	0xbe153ac6	-0.14573202
130	0x3d90a10a	0.07061966
131	0xbcabff33	-0.020995712
132	0x3c71e1dd	0.014763323
133	0xbe666d2f	-0.22502588
134	0x3e6751d4	0.22589809
135	0x3e04200b	0.12902848
136	0xbdb7c7e1	-0.08973671
137	0xbdcfae83	-0.10140707
138	0xbd71d9bd	-0.059045542
139	0xbb2e9eb5	-0.002664489
140	0x3e0875f0	0.1332624
141	0xbdf83b1c	-0.12120649
142	0xbdae4dc5	-0.08510927
143	0x3c788699	0.015168809
144	0xbe63cc75	-0.22245963
145	0x3d6c0b19	0.05762777
146	0xbde945a0	-0.11390233
147	0x3cce45ed	0.025179828
148	0xbdb01966	-0.08598594
149	0x3daba3c5	0.08380846
150	0xbd26123c	-0.040544733
151	0xbdd255bf	-0.10270261
152	0xbd1632aa	-0.03666941
153	0xbe09b3f8	-0.13447559
154	0x3d6019c3	0.05471207
155	0xbd9d03a2	-0.076667085
156	0x3c29f45d	0.010373202
157	0xbdc60047	-0.09668022
158	0xbd5ec943	-0.054391157
159	0xbdb61e39	-0.08892483
160	0x3d8841e7	0.06653195
161	0xbe1a247a	-0.15052977
162	0xbdd091b8	-0.10184044
163	0x3e820e60	0.25401592
164	0xbe76c081	-0.24096872
165	0x3db052d0	0.08609545
166	0xbe5d3ce4	-0.21605259
167	0xbdd29ae1	-0.10283447
168	0xbdff6a59	-0.12471456
169	0xbe97b62c	-0.29631174
170	0xbe0fa98f	-0.14029525
171	0x3db2cd83	0.087306045
172	0xbe19d51c	-0.15022701
173	0xbd121c37	-0.03567144
174	0xbee73e92	-0.45164925
175	0x3d587ba7	0.0528523
176	0x3da7e823	0.081985734
177	0xbcc4bd19	-0.02401595
178	0xbe815046	-0.25256556
179	0xbeba4e75	-0.36387983
180	0xbe0f42fc	-0.13990396
181	0xbdb6ebda	-0.08931704
182	0xbea98c64	-0.33114922
183	0xbddb74e0	-0.107156515
184	0x3daa601b	0.08319112
185	0xbdd5defe	-0.10442923
186	0x3d4dcc28	0.050243527
187	0xbe1e8c0a	-0.15483108
188	0xbbf7f98c	-0.00756759
189	0xbd4ac6cd	-0.049505997
190	0xbe0abc1d	-0.13548322
191	0xbd945cf5	-0.07244293
192	0xbc84c86e	-0.016208854
193	0x3dc61fb7	0.09674018
194	0x3dba3d60	0.090937376
195	0xbe278cd9	-0.16362323
196	0xbe90e45e	-0.2829923
197	0xbdd2884b	-0.10279902
198	0x3ca4561e	0.020060595
199	0xbd998e17	-0.074978046
200	0xbe399c55	-0.18126042
201	0x3d5dbd1d	0.05413543
202	0x3e230813	0.15921049
203	0xbd73330a	-0.059374847
204	0xbefcbea7	-0.49364206
205	0x3d64139c	0.055682763
206	0x3d824ab6	0.06361906
207	0x3cb21186	0.021736871
208	0x3dd8056f	0.105479114
209	0x3d981963	0.07426717
210	0x3ee4154b	0.44547495
211	0xbcd3c0cd	-0.02584877
212	0x3dd9b288	0.10629755
213	0x3d51fd3c	0.051266894
214	0x3e7b4be2	0.24540666
215	0xbb123ecb	-0.002231526
216	0x3cd169f7	0.025563223
217	0x3d440359	0.047854755
218	0xbe1cd6cd	-0.15316315
219	0xbd33586b	-0.043785494
220	0x3df4e0a4	0.11956909
221	0xbda96a46	-0.08272223
222	0x3e22bdad	0.15892668
223	0x3e287d1e	0.16453978
224	0x3ed04eac	0.40685022
225	0xbc335b73	-0.010947096
226	0xbc8528c7	-0.016254796
227	0x3d92a020	0.07159448
228	0xbef5238b	-0.4787868
229	0xbe78d6a9	-0.24300636
230	0xbe859809	-0.26092556
231	0xbe5b7210	-0.2143023
232	0x3dc11c00	0.09429169
233	0xbea16322	-0.31520945
234	0xbe7e0c28	-0.24809325
235	0xbe38c9cf	-0.18045734
236	0xbea3933e	-0.31948274
237	0x3dc3ebdb	0.0956647
238	0xbd3c27a8	-0.045936257
239	0xbea64f4d	-0.32482377
240	0xbdffe067	-0.12493973
241	0x3d7d6159	0.061860416
242	0x3eb6325b	0.35585293
243	0xbe8d3bb3	-0.2758461
244	0xbe216243	-0.1576014
245	0xbcd6979c	-0.02619534
246	0xbe6708bf	-0.2256193
247	0x3d5cb30a	0.053881682
248	0x3e45e32d	0.19324942
249	0x3d839499	0.06424827
250	0xbc56999d	-0.013098148
251	0xbde019cb	-0.109424196
252	0xbc98ba53	-0.018643534
253	0xbe82c9b3	-0.2554451
254	0x3de7e41e	0.11322807
255	0xbe2a6374	-0.16639501

mlp2.0.bias f4 [100]
0	0xbef560c6	-0.47925395
1	0x3c983420	0.018579543
2	0xbd3d9309	-0.0462828
3	0xbe02b123	-0.12762885
4	0xbeedf566	-0.46476287
5	0xbe4af3ed	-0.19819613
6	0x3f8ba8de	1.0910909
7	0xbe526913	-0.20547895
8	0xbded487a	-0.115860894
9	0x3d6d18e0	0.05788505
10	0xbec63a3b	-0.387163
11	0xbf701232	-0.93777764
12	0xbefc185e	-0.4923734
13	0xbf03074c	-0.5118301
14	0xbe97c60f	-0.29643294
15	0x3f33ecf2	0.70283425
16	0xbee65fc4	-0.44994938
17	0xbe7279cf	-0.23679279
18	0x3f0c15ff	0.54721063
19	0xbea1698c	-0.31525838
20	0x3fd379ca	1.6521542
21	0xbe09af30	-0.13445735
22	0x3fc29ed0	1.5204716
23	0xbe01aeff	-0.12664412
24	0xbe8b51f2	-0.27210957
25	0xbdcc45e4	-0.09974268
26	0xbebc38fc	-0.36762226
27	0x3e3202e8	0.17383921
28	0xbf3284a6	-0.69733655
29	0x3f023fe5	0.50878745
30	0x3f773ae0	0.9657421
31	0xbd2f2d32	-0.04276771
32	0x3e19f98e	0.15036604
33	0xbe6b8f99	-0.23003997
34	0xbe1ebe4a	-0.15502277
35	0xbe68cb34	-0.22733766
36	0xbe910907	-0.283272
37	0xbe9c1dfa	-0.3049162
38	0xbe3be2e7	-0.18348275
39	0xbebb990e	-0.3664021
40	0xbc6109fc	-0.013735291
41	0xbe34c60e	-0.17653677
42	0xbc8280f5	-0.015930632
43	0xbc9b4d78	-0.018957838
44	0x3eb92e1e	0.36167997
45	0xbeb5d543	-0.35514268
46	0x3f1aa871	0.6041327
47	0xbd1ae2f5	-0.0378141
48	0xbe1ed234	-0.15509874
49	0x3d2b20ca	0.041779317
50	0x3e923f78	0.28564048
51	0x4040b65d	3.0111306
52	0xbe2950f5	-0.16534789
53	0x3de936ed	0.113874294
54	0x3f707bfb	0.9393918
55	0xbf007e7f	-0.5019302
56	0x3fbd43f1	1.4786359
57	0xbde33471	-0.11093987
58	0xbec68d8b	-0.38779864
59	0x3e4aedbb	0.1981725
60	0xbd8977ab	-0.06712278
61	0x3ea91386	0.33022708
62	0xbd9a6dbd	-0.07540462
63	0xbeab4e58	-0.3345821
64	0xbe99cb22	-0.3003779
65	0xbf213aac	-0.6298015
66	0xbc5fc8b3	-0.01365869
67	0xbe925d09	-0.28586605
68	0xbd829b7c	-0.063773125
69	0xbebd94fe	-0.37027735
70	0xbe833d1c	-0.2563256
71	0xbe3d8f8a	-0.18511787
72	0xbe94da12	-0.29072624
73	0xbd7c5f2a	-0.061614193
74	0xbe515603	-0.20442967
75	0xbf1828fe	-0.5943755
76	0xbef9ffd6	-0.48828
77	0xbdc82d0e	-0.097742185
78	0xbeb1cf0e	-0.34728283
79	0x3dd4f78c	0.10398778
80	0xbd1eac66	-0.03873863
81	0xbd13a589	-0.03604654
82	0xbecd8752	-0.40142304
83	0x3e97c01e	0.2963876
84	0xbf2b5fce	-0.6694306
85	0x3e6e0d1a	0.23247185
86	0x3d21300a	0.039352454
87	0xbd6c04ab	-0.05762164
88	0x3c7b487e	0.015337108
89	0xbd038e6c	-0.032118246
90	0xbd72a0f2	-0.05923552
91	0x3dbf54f4	0.093423754
92	0xbe840e89	-0.2579234
93	0xbe9a4a6e	-0.3013491
94	0x404ee3c3	3.2326515
95	0xbdaaab82	-0.08333494
96	0x3f337b71	0.7011023
97	0x3da351c0	0.07974577
98	0x3f192dc1	0.5983544
99	0x3fbd0150	1.4766026

mlp2.2.weight f4 [50, 100]
0	0x3d890ba3	0.06691673
1	0x3e140a68	0.14457095
2	0x3d23d237	0.0399954
3	0x3e096c0b	0.13420121
4	0x3cf330b7	0.029686315
5	0x3c72077f	0.014772295
6	0x3e8da68c	0.27666128
7	0x3e018b8f	0.12650894
8	0x3e0f6767	0.14004289
9	0xbd5ce62e	-0.053930454
10	0x3e24d2be	0.16096017
11	0xbe0c137d	-0.13679309
12	0x3ce956df	0.028483806
13	0x3d5bd411	0.05366904
14	0x3deb1673	0.11478891
15	0xbe3776cc	-0.17916411
16	0x3df59797	0.11991804
17	0xbd9415ed	-0.072307445
18	0xbb530bd7	-0.0032203102
19	0xbe7b421f	-0.24536942
20	0x3e94ff6e	0.29101127
21	0x3e01be58	0.12670267
22	0x3e2e11f5	0.16999038
23	0x3cc4c41f	0.0240193
24	0xbda4b7e8	-0.0804289
25	0xbc86b886	-0.01644541
26	0x3e1c3ed3	0.1525834
27	0xbd8c27b9	-0.06843514
28	0x3db649c7	0.08900791
29	0xbea19d47	-0.31565306
30	0xbe2691dd	-0.1626658
31	0x3dafe954	0.08589426
32	0x3d99fa71	0.07518471
33	0xbd9550e9	-0.07290823
34	0x3d42a123	0.047516953
35	0xbd4b45d4	-0.04962714
36	0xbda2d05f	-0.079499
37	0x3dbc8894	0.09205738
38	0xbe86a225	-0.2629558
39	0xbeb33604	-0.35002148
40	0x3e52180b	0.20516984
41	0x3c7a2f7d	0.015270111
42	0x3d85bd9b	0.06530305
43	0xbe7edef8	-0.24889743
44	0x3e527d95	0.20555718
45	0x3d6b1239	0.057390425
46	0xbeb18f78	-0.3467977
47	0x3e6753e7	0.225906
48	0x3d443da4	0.047910348
49	0xbbffc7d3	-0.0078058033
50	0xbe33ec6e	-0.1757066
51	0x3e67c1b2	0.22632483
52	0x3ea5edc3	0.3240796
53	0xbbc9b86a	-0.006156017
54	0x3d815f50	0.063170075
55	0x3cf93e1a	0.03042512
56	0x3e7a1e6c	0.24425668
57	0xbcfd2f30	-0.03090629
58	0x3deeae1b	0.11654302
59	0xbebf8dd5	-0.37412897
60	0xbd9ba859	-0.07600469
61	0xbe7d10ac	-0.24713391
62	0xbde6f843	-0.11277821
63	0xbda311d5	-0.079623856
64	0xbdcf2338	-0.10114139
65	0xbd641f07	-0.055693652
66	0xbe116a6a	-0.1420075
67	0xbe2bfbe2	-0.16795304
68	0xbd07fa21	-0.033197526
69	0x3de55876	0.11198513
70	0xbe032657	-0.12807594
71	0x3e0e3a66	0.13889465
72	0xbde29346	-0.110632464
73	0x3c3be8d2	0.011469083
74	0xbde730a9	-0.11288578
75	0x3e0efbef	0.13963293
76	0xbe3b102a	-0.18267885
77	0x3d331864	0.043724433
78	0x3e50fa23	0.2040792
79	0xbe0c0c9a	-0.13676682
80	0xbd9432e8	-0.07236272
81	0xbdc972d5	-0.098363556
82	0x3cb336a0	0.021876633
83	0xbe1b4a0d	-0.15164967
84	0x3e19de4d	0.15026207
85	0xbdcb5326	-0.09927969
86	0xbbf65a58	-0.007518094
87	0x3c9f9b85	0.019483337
88	0x3e2ede63	0.17077021
89	0x3b7d8a18	0.0038687047
90	0x3e5dc726	0.21658
91	0x3dc5fa38	0.09666866
92	0xbc938fba	-0.01801287
93	0xbde4f78b	-0.111800276
94	0x3e2452c6	0.160472
95	0xbd91244f	-0.070870034
96	0xbc7e7666	-0.015531158
97	0x3da9588c	0.08268842
98	0x3e36188f	0.17782806
99	0xbd8e9989	-0.06962878
100	0x3bc8e9f7	0.0061314064
101	0xbe028dbf	-0.12749384
102	0x3e8630d2	0.26209122
103	0xbef6992e	-0.48163742
104	0x3e71634b	0.23573034
105	0x3d2a3eaf	0.041563686
106	0x3e3c9e69	0.18419804
107	0x3cfbbebf	0.030730603
108	0xbc766f05	-0.015041118
109	0x3df9f0ce	0.12204133
110	0xbedaabd4	-0.4270922
111	0x3e352ebb	0.17693608
112	0xbde37cda	-0.11107798
113	0x3ea2822d	0.3173994
114	0x3ed32067	0.4123566
115	0x3f00e126	0.5034355
116	0x3d28e056	0.04122957
117	0x3d966e6a	0.073452786
118	0xbe005568	-0.1253258
119	0x3e93f9c1	0.28901485
120	0xbeb040cc	-0.34424436
121	0xbd1ccbf6	-0.03828045
122	0x3eb7c012	0.35888726
123	0x3e96d9f0	0.29463148
124	0x3d2dd83b	0.04244254
125	0xbdb2bba7	-0.08727198
126	0x3e0b6840	0.13613987
127	0xbde6deb8	-0.11272949
128	0xbe98aaf4	-0.29817927
129	0xbeb51a81	-0.35371783
130	0x3ee81eeb	0.4533609
131	0xbce20d73	-0.027594304
132	0x3e25bde7	0.16185723
133	0xbd3424af	-0.043980297
134	0x3e076e17	0.1322559
135	0xbd59e9ae	-0.05320137
136	0xbd703ce6	-0.058651827
137	0xbcabaee7	-0.020957423
138	0xbe0aa161	-0.13538124
139	0x3dd425c2	0.10358764
140	0x3c9f90db	0.019478252
141	0x38b1e43c	8.48253e-05
142	0xbd78132e	-0.060565166
143	0xbd7e9b4e	-0.06215983
144	0x3df31d5a	0.11870833
145	0x3c04e709	0.008111724
146	0x3f069261	0.52567106
147	0x3c236c9b	0.009974624
148	0xbe342eb5	-0.17595942
149	0x3dac2c6d	0.08406911
150	0x3e83112d	0.25599042
151	0xbeb983f2	-0.3623348
152	0xbe62b6ba	-0.22140017
153	0x3cf6a520	0.030108035
154	0x3ec79555	0.3898112
155	0x3dc3e82e	0.09565769
156	0xbe8366b0	-0.25664282
157	0xbe3604b9	-0.17775239
158	0x3d832577	0.0640363
159	0xbe282f48	-0.16424286
160	0xbce2945d	-0.027658636
161	0x3e8e260c	0.27763402
162	0xbe890e5f	-0.26768777
163	0xbe643c43	-0.22288613
164	0xbe6871c4	-0.22699648
165	0xbc441488	-0.011967786
166	0xbe0d3f6f	-0.13793729
167	0xbd6beb1b	-0.05759726
168	0xbd0ddf3a	-0.034636714
169	0xbe28bafe	-0.16477582
170	0x3e1bfc1b	0.1523289
171	0x3e45cb2d	0.19315787
172	0xbb64f8be	-0.00349383
173	0x3d4fc13e	0.0507214
174	0x3e27dc33	0.16392593
175	0x3c92671e	0.017871436
176	0x3cfb9ed2	0.03071538
177	0xbd6f7d43	-0.05846907
178	0xbcd07200	-0.025444984
179	0x3e43e7e0	0.19131422
180	0x3d31500d	0.043289233
181	0xbdb8acce	-0.09017335
182	0x3e1d3a28	0.15354216
183	0x3dbeff17	0.09325998
184	0x3e077f91	0.13232256
185	0x3bad657a	0.005291638
186	0x3e4dd072	0.20099047
187	0xbe208aff	-0.15678023
188	0x3d50ed7f	0.051007744
189	0x3dee7ed3	0.116452836
190	0x3e8def4e	0.27721637
191	0x3daeda96	0.08537786
192	0xbea3b2fc	-0.31972492
193	0xbd1e5c7e	-0.038662426
194	0x3eed5acc	0.46358335
195	0x3db0027b	0.08594223
196	0x3e4d03e7	0.2002102
197	0xbcd01465	-0.02540035
198	0xbd964dc2	-0.0733905
199	0xbd5a3762	-0.053275473
200	0xbe35f66e	-0.17769787
201	0xbdd6c656	-0.10487048
202	0xbc2abdc0	-0.0104212165
203	0xbd2f7ad3	-0.042841744
204	0x3db9837c	0.09058282
205	0xbc05b51c	-0.008160856
206	0xbd4f0522	-0.050542004
207	0xbd61192a	-0.05495564
208	0xbb88e7f6	-0.0041780425
209	0x3d9f559c	0.077800006
210	0xbda266c5	-0.07929758
211	0xbe55258a	-0.20815101
212	0x3da52969	0.08064539
213	0xbe6b2d5c	-0.22966522
214	0xbdb9996d	-0.09062467
215	0xbd6020fa	-0.05471895
216	0xbddac518	-0.10682124
217	0x3e84cfda	0.25939828
218	0xbdd5f513	-0.10447135
219	0x3db353c0	0.087562084
220	0xbdd54c7f	-0.10414981
221	0x3e9fde56	0.31224316
222	0xbe0f36e7	-0.13985787
223	0xbe3aa987	-0.18228732
224	0x3da3868b	0.079846464
225	0xbdec0f20	-0.11526322
226	0xbc44a228	-0.012001552
227	0xbd02d741	-0.031943563
228	0x3d7f1818	0.062278837
229	0x3d51f404	0.051258102
230	0xbe98a673	-0.2981449
231	0x3e7a0a88	0.2441808
232	0x3d9a0325	0.07520131
233	0x3df0c8c6	0.117570445
234	0xbd1260db	-0.0357369
235	0x3e19af7a	0.15008345
236	0xbda0cc6b	-0.0785149
237	0xbea4f5d1	-0.32218793
238	0x3d72c728	0.05927196
239	0x3e31cab6	0.17362484
240	0x3cc8ad1d	0.02449661
241	0x3e5886c7	0.21145163
242	0xbe4bf7ee	-0.19918796
243	0xbcd055e7	-0.025431586
244	0x3d7c63ea	0.061618723
245	0x3d57d0ca	0.05268935
246	0xbe4fd05e	-0.2029433
247	0x3e6b0756	0.22952017
248	0x3d1c3fa6	0.038146637
249	0xbdbe939d	-0.09305499
250	0x3e173aaf	0.1476848
251	0xbeb0e1ad	-0.34547177
252	0xbe22df76	-0.15905556
253	0xbc9a65b6	-0.018847328
254	0x3c382a4d	0.011240554
255	0xbdb79c48	-0.08965355

mlp2.2.bias f4 [50]
0	0xbd14a9e9	-0.03629485
1	0xbe808560	-0.25101757
2	0x3ec96aaa	0.3933919
3	0xbef65dcb	-0.48118433
4	0xbe93235a	-0.2873791
5	0x3e334a43	0.17508797
6	0x3eeea66e	0.4661135
7	0x3f36f2d3	0.7146427
8	0xbe871f53	-0.26391086
9	0x3f35c050	0.7099657
10	0x3e9e26fe	0.30889124
11	0x3e2557c3	0.1614676
12	0xbe7ad50e	-0.24495336
13	0x3f858669	1.0431644
14	0xbed5c385	-0.41750732
15	0x3e483039	0.19549645
16	0x3f8e74dc	1.1129413
17	0xbeb421f4	-0.35182154
18	0x3dea9334	0.11453858
19	0x3dfe7838	0.12425274
20	0xbf8eb0c9	-1.11477
21	0x3e9827ca	0.29717857
22	0x3eafad15	0.3431174
23	0x3fdd8893	1.7307304
24	0xbefd9e00	-0.49534607
25	0xbe8787f1	-0.26470903
26	0x3f05c583	0.52254504
27	0x3ebab6cf	0.36467597
28	0x3dcc97e3	0.099899076
29	0x3f3b6aff	0.7321014
30	0xbe35a1bd	-0.1773748
31	0xbf22af2d	-0.6354855
32	0xbdb869b1	-0.09004534
33	0xbdd1b189	-0.1023894
34	0xbec525da	-0.3850544
35	0x3e9fc277	0.31203052
36	0x3f487de8	0.7831712
37	0xbf30587e	-0.6888503
38	0xbf427d68	-0.75972605
39	0x3e39d88b	0.18149011
40	0xbf16fd63	-0.5898039
41	0xbea42d64	-0.3206588
42	0xbe90c5dd	-0.28275958
43	0x3ebe865d	0.37211886
44	0xbf0e900d	-0.55688554
45	0x3ee3c14c	0.4448341
46	0x3c937e5f	0.018004594
47	0xbf174cf0	-0.5910177
48	0xbf0e9cd1	-0.5570803
49	0x3ee30c27	0.4434521

attention.0.weight f4 [100, 100]
0	0xbe1adb6f	-0.1512277
1	0xbe4b46a0	-0.1985116
2	0x3dd5840d	0.10425577
3	0xbd19c063	-0.03753699
4	0x3d3d132b	0.046160858
5	0xbd4e383f	-0.05034661
6	0xbe0259b7	-0.12729536
7	0x3dbe9b9e	0.093070254
8	0x3c82f9d7	0.015988274
9	0xbebb10d3	-0.36536273
10	0x3e3bf5d3	0.18355493
11	0xbe1dc0c4	-0.15405566
12	0x3e927206	0.28602618
13	0x3a94f0bd	0.001136325
14	0x3da1c2e2	0.07898499
15	0xbda95158	-0.08267468
16	0xbe33bf6f	-0.17553495
17	0x3d2dcc69	0.04243127
18	0x3da97860	0.08274913
19	0x3e8ac085	0.27100006
20	0x3e0d25b0	0.13783908
21	0x3d61787a	0.055046536
22	0x3e59d392	0.21272114
23	0x3e6e18fa	0.23251715
24	0xbee0d2ed	-0.43910924
25	0xbc0fb758	-0.00877174
26	0xbe200650	-0.15627408
27	0xbd8b70da	-0.06808634
28	0xbdfc9090	-0.123322606
29	0x3cb86ecf	0.022513775
30	0x3e03fea0	0.128901
31	0x3c1ed2d1	0.009693817
32	0xbd316d66	-0.04331722
33	0xbe900eec	-0.28136384
34	0x3ebc794a	0.36811286
35	0x3e6b74c1	0.22993757
36	0xbd507f11	-0.05090243
37	0x3da65abe	0.081227764
38	0xbe84013d	-0.25782195
39	0xbe108e3a	-0.14116755
40	0xbe7130ca	-0.23553768
41	0xbdf80f87	-0.121123366
42	0x3e2b73fc	0.16743463
43	0x3c51ea3f	0.012812196
44	0xbe55b70b	-0.20870607
45	0xbd53c504	-0.05170156
46	0x3e03c864	0.12869412
47	0xbdf4853f	-0.11939477
48	0xbddc9e54	-0.10772386
49	0x3b933011	0.004491814
50	0xbd973fba	-0.07385202
51	0x3d04e443	0.03244425
52	0xbe810ac7	-0.25203535
53	0x3ded37c7	0.11582904
54	0x3e8144e0	0.2524786
55	0x3e1b7a99	0.15183486
56	0x3cfa550f	0.030558137
57	0x3d309e1d	0.04311954
58	0x3d4c466a	0.04987184
59	0x3dd66c74	0.104699045
60	0xbd4dec7f	-0.05027437
61	0xbe262840	-0.16226292
62	0x3d86d539	0.06583638
63	0x3de41e0c	0.111385435
64	0xbe04be07	-0.12963115
65	0xbd970274	-0.07373515
66	0xbd906a1c	-0.07051489
67	0xbe22c87c	-0.15896791
68	0xbe6f7df4	-0.23387891
69	0xbc9a8352	-0.018861447
70	0xbdd9c24c	-0.10632762
71	0xbd4291cb	-0.04750232
72	0xbc321550	-0.010869339
73	0xbcd96cea	-0.026541192
74	0xbe5e6f76	-0.21722206
75	0xbcad002d	-0.021118248
76	0x3c6711d1	0.014103369
77	0x3dac12da	0.08402033
78	0x3c670b67	0.01410184
79	0xbe9ceafa	-0.30648023
80	0xbe7b31cf	-0.24530719
81	0xbe42619b	-0.18982546
82	0xbdf0b8fb	-0.11754032
83	0xbd18c888	-0.037300617
84	0xbe2ba24d	-0.16761132
85	0x3c8e33f2	0.017358754
86	0xbdf1fb74	-0.11815539
87	0xbd065fe2	-0.032806285
88	0xbe30d796	-0.1726974
89	0xbd887574	-0.066630274
90	0xbe3377e5	-0.17526205
91	0xbe0aa388	-0.13538945
92	0x3c3b85d1	0.011445479
93	0xbcc74eec	-0.024329625
94	0x3d0f5880	0.03499651
95	0xbe212911	-0.15738322
96	0xbe9a8aaa	-0.30183917
97	0xbe81ab10	-0.25325823
98	0xbd80f26a	-0.06296237
99	0x3dbe82c0	0.09302282
100	0xbd17d14b	-0.03706483
101	0xbeadc0f3	-0.3393627
102	0xbc31625f	-0.010826676
103	0x3dd1c80c	0.10243234
104	0xbe005f92	-0.12536457
105	0x3ed17608	0.40910363
106	0x3de1c895	0.11024586
107	0xbd0eeac5	-0.034891862
108	0x3ccb4222	0.024811808
109	0x3d5a28eb	0.05326168
110	0xbd2c5bf6	-0.04207989
111	0xbde909fb	-0.11378857
112	0xbda065d6	-0.07831924
113	0x3dbda91d	0.092607714
114	0xbe0af312	-0.13569286
115	0x3d49b191	0.049241606
116	0xbca628f0	-0.020283192
117	0xbe6689ee	-0.22513554
118	0xbe10bc8d	-0.14134426
119	0xbdddd8b2	-0.10832347
120	0xbcde3aa8	-0.027127579
121	0x3e09fbf0	0.13475013
122	0xbd7f9c5f	-0.062404986
123	0x3ec7b6ae	0.3900656
124	0x3996581d	0.0002867588
125	0xbe2145d6	-0.15749297
126	0x3b1500bd	0.0022736036
127	0x3d5f85f5	0.05457111
128	0xbdde57fa	-0.10856624
129	0xbd85e5f1	-0.065379985
130	0xbe06b037	-0.13153158
131	0x3dc85cf6	0.09783356
132	0x3bf920b0	0.0076027736
133	0xbe9ec34b	-0.31008372
134	0x3e7eafee	0.248718
135	0xbd0e54fb	-0.034749012
136	0xbd8ec034	-0.069702536
137	0xbdca2856	-0.09870975
138	0xbe5ab038	-0.21356285
139	0x3d95037e	0.07276057
140	0xbe3ebb29	-0.18626083
141	0xbe31e530	-0.17372584
142	0xbddf4ec9	-0.10903699
143	0xbe198397	-0.14991604
144	0xbe1d0be0	-0.15336561
145	0xbd7c369f	-0.06157553
146	0xbda9b2d4	-0.08286062
147	0xbd2d2114	-0.042267874
148	0x3e8a84ff	0.27054593
149	0x3da16dc1	0.07882262
150	0xbd2cb695	-0.04216631
151	0xbcc99fc5	-0.024612317
152	0x3dc12dc0	0.09432554
153	0xbd2559a2	-0.040368684
154	0xbe816de6	-0.25279158
155	0x3e14428a	0.14478508
156	0xbe01ffcd	-0.12695237
157	0x3dc99c58	0.09844273
158	0xbbf6f7a8	-0.007536847
159	0x3e7cc853	0.24685793
160	0xbdb481f8	-0.08813852
161	0xbd355641	-0.04427171
162	0xbc377c31	-0.011199043
163	0xbda2e007	-0.07952886
164	0x3e05bd8b	0.13060586
165	0x3c791d7e	0.015204785
166	0xbdd86b4b	-0.105673395
167	0xbddc748b	-0.10764416
168	0x3d83ddad	0.06438766
169	0xbd1e5ed1	-0.038664643
170	0xbc6f4f1a	-0.014606262
171	0x3c089a11	0.008337514
172	0xbe291cc4	-0.1651488
173	0xbd381941	-0.04494596
174	0xbdd457c0	-0.103682995
175	0xbd3906c8	-0.045172483
176	0xbd63f415	-0.055652697
177	0xbce6e0ed	-0.028183425
178	0xbe0a002b	-0.13476627
179	0xbdb7568f	-0.089520566
180	0xbe5cd3fc	-0.2156524
181	0xbe11ea16	-0.14249453
182	0xbead7a8c	-0.33882558
183	0xbd0b30fe	-0.03398227
184	0x3c89cb6a	0.016820628
185	0xbc1c6537	-0.009545616
186	0xbd16915e	-0.036759727
187	0xbdd8bc7f	-0.10582828
188	0xbe939c8b	-0.2883037
189	0x3dd5490f	0.104143254
190	0x3d85a5d7	0.06525772
191	0xbd62d089	-0.055374656
192	0x3ce9f9f6	0.028561573
193	0xbdc8c448	-0.09803063
194	0xbc869cd9	-0.016432213
195	0x3cfd6a37	0.030934436
196	0xbe125247	-0.14289199
197	0xbd719bf2	-0.05898661
198	0x3cb68b4f	0.022283224
199	0xbdb9018a	-0.09033497
200	0xbe2ee303	-0.17078786
201	0x3e199545	0.14998348
202	0x3e673f7e	0.22582814
203	0xbcd6335e	-0.02614754
204	0xbe7c0ee6	-0.24615058
205	0xbd03d013	-0.032180857
206	0x3e808cc4	0.25107396
207	0x3d1d7d9f	0.03844988
208	0x3d2ceb89	0.04221681
209	0xbdedb3ad	-0.11606536
210	0xbe59f326	-0.2128416
211	0xbe3f8372	-0.18702486
212	0x3dac0e2b	0.0840114
213	0xbd9b6584	-0.07587722
214	0xbe595bda	-0.21226445
215	0x3d591096	0.052994333
216	0x3cc28d4f	0.023749022
217	0xbc90e25f	-0.017686067
218	0xbc2e17f1	-0.010625825
219	0x3d636be3	0.05552281
220	0xbdfe2a5a	-0.12410422
221	0x3b946941	0.004529149
222	0xbd03bb85	-0.032161254
223	0xbca8deab	-0.020613989
224	0xbeb664da	-0.3562382
225	0xbe3f0b96	-0.18656763
226	0xbd630a7c	-0.05542992
227	0xbdf48542	-0.119394794
228	0xbea489a1	-0.32136253
229	0x3d5cbfa0	0.053893685
230	0xbd134a8b	-0.03595976
231	0xbe91e7bd	-0.28497115
232	0xbe4e8519	-0.2016796
233	0xbc84a20f	-0.016190557
234	0x3d89492b	0.06703409
235	0xbe926c17	-0.2859809
236	0xbdfdc1e9	-0.12390501
237	0x3d8e2d33	0.06942215
238	0xbea8cc35	-0.32968298
239	0xbd5b5ece	-0.05355721
240	0xbf33b0cf	-0.70191664
241	0x3d21bb41	0.03948522
242	0xbd98f73e	-0.07469033
243	0xbeb6f4be	-0.35733598
244	0x3ce7dc75	0.028303364
245	0x3d86b77d	0.06577966
246	0x3d8e9068	0.06961137
247	0xbd38dfe3	-0.04513539
248	0xbe3ce362	-0.18446115
249	0xbdba0b3a	-0.090841725
250	0x3ca93ea1	0.020659747
251	0xbe14c7f5	-0.14529403
252	0x3e7a451a	0.24440423
253	0x3bcf194b	0.006320154
254	0x3d39e4b1	0.045384113
255	0xbdd99ad4	-0.10625234

attention.0.bias f4 [100]
0	0x3b04f4dc	0.002028755
1	0xbe9e42f6	-0.30910462
2	0xbf1f732e	-0.62285125
3	0xbe78e58f	-0.2430632
4	0xbd516504	-0.051121727
5	0xbcce079f	-0.025150118
6	0xbe39d12e	-0.18146202
7	0xbdf9373c	-0.12168738
8	0xbd02edd9	-0.03196511
9	0x3c8305ac	0.015993915
10	0xbd0c93fd	-0.03432082
11	0xbec756d5	-0.38933435
12	0x3b9b0e74	0.0047319476
13	0x3d7b4c0b	0.061351817
14	0xbefbd28d	-0.49184075
15	0x3cc75275	0.02433131
16	0xbe46325d	-0.1935515
17	0xba6df1d9	-0.00090768706
18	0xbcccb201	-0.024987223
19	0xbe996a24	-0.2996379
20	0xbda275e3	-0.07932641
21	0xbe5683a0	-0.20948648
22	0xbe99e6c1	-0.30058864
23	0xbe23eac9	-0.16007532
24	0xbe85c6f8	-0.26128364
25	0xbd4c27a6	-0.0498425
26	0xbec14cfb	-0.37754044
27	0xbe08d702	-0.13363269
28	0xbe3ee8eb	-0.18643539
29	0xbe2dd54e	-0.169759
30	0xbea3051a	-0.3183983
31	0xbe0f2230	-0.13977885
32	0xbee457c8	-0.44598222
33	0xbe1e81f5	-0.15479262
34	0x3eb3333e	0.35000032
35	0xbe80a5d6	-0.25126523
36	0xbc052731	-0.00812702
37	0x3d095253	0.033525776
38	0xbea2dc4d	-0.318087
39	0xbdf028fb	-0.117265664
40	0x3dca39e6	0.098743245
41	0xbddb1e0e	-0.10699092
42	0xbdf9bd3b	-0.12194296
43	0x3aa6fded	0.0012740471
44	0xbe173644	-0.14766794
45	0xbe075653	-0.13216524
46	0xbd060185	-0.032716293
47	0xbea0cd75	-0.3140675
48	0xbe7dee4d	-0.24797936
49	0xbe959485	-0.29214874
50	0xbe871a2d	-0.26387158
51	0xbd6c65d6	-0.057714306
52	0x3dbd05b5	0.09229604
53	0xbd994bac	-0.074851364
54	0xbe7da743	-0.24770837
55	0x3e6a70e6	0.2289463
56	0xbe4c570d	-0.19955082
57	0xbed172c5	-0.40907875
58	0xbe1ee6df	-0.15517758
59	0xbe1a3b3e	-0.15061662
60	0xbea96547	-0.3308508
61	0xbd403a6e	-0.046930723
62	0xbdf928bb	-0.12165972
63	0xbee162c0	-0.44020653
64	0x39dd2c44	0.00042185385
65	0xbe36246b	-0.1778733
66	0xbdb44dde	-0.088039145
67	0xbd9c6484	-0.07636359
68	0xbf08a580	-0.5337753
69	0xbdd23dca	-0.102656916
70	0xbdeb9075	-0.11502162
71	0xbe096f79	-0.1342143
72	0x3c11b14b	0.008892368
73	0xbe897bc1	-0.2685223
74	0xbe0f17f6	-0.13973984
75	0xbd800ab9	-0.06252045
76	0xbe3747eb	-0.17898528
77	0xbea23db1	-0.31687692
78	0xbe418e1f	-0.18901871
79	0xbe127bce	-0.1430504
80	0x3e162e76	0.14666161
81	0xbe753945	-0.23947628
82	0xbd0a970b	-0.033835452
83	0xbe19108f	-0.14947723
84	0xbdd0c2ad	-0.101933815
85	0xbe51458b	-0.20436685
86	0xbebc288a	-0.3674968
87	0xbe1b845b	-0.15187208
88	0x3d8c2796	0.06843488
89	0xbefa06f1	-0.4883342
90	0xbeb5d0f3	-0.35510978
91	0xbe57d384	-0.2107678
92	0xbe8f1c9b	-0.27951512
93	0xbeaa05e6	-0.33207625
94	0xbe4a5e87	-0.19762622
95	0xbd7c99b8	-0.061670035
96	0xbd776be2	-0.06040562
97	0xbecd07a9	-0.40044907
98	0xbec8bd0c	-0.3920673
99	0x3e136355	0.14393361
