sarl_star_ros/CrowdNav-nowall/crowd_nav/data/sub/fail/output_R0.5/il_model.pth (torch_old, 349196 bytes, 20 tensors)

mlp1.0.weight f4 [150, 13]
000000 7d 0a e3 bf e7 b9 08 bf 41 de 58 3f 5e a7 e2 be
       -1.7737576 -0.53408664 0.8471413 -0.44268316
000010 84 4f f0 bd e0 ef 31 bd e1 07 d3 be 01 df 92 3e
       -0.117339164 -0.043441653 -0.4121695 0.28685763
000020 fb 10 86 bc 96 31 6a be 1d 74 eb be 1f c2 9d 3f
       -0.016365519 -0.22870478 -0.45987025 1.2324866
000030 76 06 40 bf 2a 39 ba bd 7b 81 d8 3f 0e 0d 10 3d
       -0.7500986 -0.090929344 1.6914514 0.0351687
000040 73 29 a9 3f ec b6 d4 bd 6f 34 c6 be 44 ef 9d 3d
       1.3215774 -0.10386452 -0.3871188 0.07711652
000050 2e 8f 90 3d 7a f8 01 3e e4 56 f4 bd ba bc 8e c0
       0.07058559 0.12692443 -0.119306356 -4.460538
000060 c4 95 c1 bd 24 ba 4b c0 09 86 f4 be 78 82 a0 bd
       -0.09452394 -3.1832361 -0.4775851 -0.07837385
000070 82 63 07 3c f8 06 91 3e bb 97 f3 be 4c 6d c5 be
       0.008263471 0.2832563 -0.475767 -0.3855995
000080 91 f5 04 3e 9e e3 d9 bf d6 b8 6e be 44 d2 d2 3c
       0.12984301 -1.7022588 -0.23312697 0.025735028
000090 fd 66 5b bf 4b db 52 3e ca 50 1e bf 83 33 e0 be
       -0.8570402 0.20591466 -0.61842024 -0.437893
0000a0 93 1a 87 be 86 57 c0 3e 3f 86 8f be 76 7b 8c 3e
       -0.26387462 0.37566775 -0.2803211 0.27437943
0000b0 0c 86 43 3e 78 8e 09 bd f0 a0 cd be 82 fa c7 3d
       0.19094104 -0.033583134 -0.40161848 0.097645774
0000c0 22 bf 24 3e 9a 99 00 3e df 9c da bd 7b 18 81 be
       0.16088536 0.12558594 -0.10674452 -0.2521399
0000d0 31 c7 15 3f 44 00 ab 3e 9f 61 0c 3f f5 be 8a 3e
       0.58507067 0.3339864 0.5483646 0.27098814
0000e0 c9 72 89 bd 01 3f df 3e a8 29 ce 3f e1 9e 03 c0
       -0.06711347 0.43602756 1.6106462 -2.0565722
0000f0 f4 3e 44 bf 57 78 0d 3f 10 0a 0f c0 bf da 98 bf
       -0.7665856 0.5526175 -2.2349892 -1.1941756
000100 61 38 16 c0 92 b0 cf be ea 7d 47 3e 6d 51 26 3f
       -2.347191 -0.405644 0.19481626 0.64967996
000110 66 92 90 bd 5b 2b a6 bd f4 f6 df be 39 c3 93 bf
       -0.07059173 -0.08113738 -0.43743098 -1.1543952
000120 71 12 22 3f c3 e4 a6 bc 08 ec 7b be 89 99 0b be
       0.6330939 -0.020372754 -0.24601758 -0.13632788
000130 be 34 98 be 26 9d 86 be 63 e8 8a 3d e9 13 9a bf
       -0.2972774 -0.2629177 0.067826055 -1.2037326
000140 73 4d cf 3d 0c d5 31 bf 83 4a 8a 3e e4 d1 4a bd
       0.10122194 -0.6946571 0.27009973 -0.049516574
000150 24 e8 d8 3d a5 9a 90 be e4 e4 9e 3e e5 01 9f be
       0.10591152 -0.28242984 0.31034005 -0.31056133
000160 e8 44 87 40 28 d0 1e be f4 41 58 40 21 fd f6 3e
       4.2271614 -0.15509093 3.3790255 0.48239997
000170 9b ad 1f bf 62 70 6e 3d 9f 4b 8c be 39 9f 89 be
       -0.62374276 0.058212645 -0.27401444 -0.2687929
000180 31 0d fd 3e fa 1b fd be 23 a1 ec 3e 90 06 20 be
       0.49424127 -0.49435407 0.46216688 -0.15627503
000190 d8 12 f5 bf 7d 6a b9 3d 9e b4 b1 ba 4e 32 bb be
       -1.9146376 0.09053514 -0.0013557856 -0.36561817
0001a0 61 58 8c bf 0c bd d5 bd 72 83 90 3e c2 f9 d0 bd
       -1.0964471 -0.104364485 0.28225285 -0.102038875
0001b0 d7 cd 85 bb 68 8b 8f bd da 38 40 be d9 5a 04 bd
       -0.004083376 -0.070090115 -0.18771687 -0.0323132
0001c0 6f 65 94 be 6d f7 4e be 5e 77 24 3c c5 97 24 3f
       -0.28983638 -0.20211573 0.010038225 0.6429408
0001d0 f1 a8 fd 3d 26 3c 83 3f 4c ed 56 3e 72 24 83 c0
       0.12385739 1.0252731 0.20988959 -4.098199
0001e0 3e c9 57 be 3f 7a 6a bf 21 84 1f c0 0a 86 c0 3d
       -0.21072862 -0.9159278 -2.4924395 0.09400566
0001f0 b5 b2 57 3c f2 b1 29 3d 41 ad 58 3f ca b8 c7 bf
       0.013165166 0.041429467 0.84639364 -1.5603268
000200 ec 2e 82 bf 7b dd c5 bf 8f f5 73 be 29 e2 29 bd
       -1.017057 -1.5458215 -0.23824142 -0.04147545
000210 38 ee 51 3e 42 54 46 3e 1b 05 a2 3e 1e ac bb 3e
       0.2050103 0.1936808 0.3164452 0.36654752
000220 4d cb ee bc 6c dc b1 be 96 d7 1d 3e 7f 69 68 3e
       -0.029149676 -0.3473848 0.15414271 0.22696494
000230 01 ea 1b 3e ca 31 c8 be 25 7a a7 bc ea 95 26 bf
       0.15225984 -0.39100486 -0.020443985 -0.650725
000240 35 11 be be 19 91 04 bf 1c 0e 2d 3e 80 7b 90 bf
       -0.37122503 -0.517839 0.16899914 -1.1287689
000250 16 5f 1f be 89 ca 9a 3f 16 c6 98 3f 30 b6 23 bf
       -0.15563616 1.2093059 1.1935451 -0.6394987
000260 4e 5d ec be bc 2c 05 be df 65 9f 3e 2f b4 02 3e
       -0.46164936 -0.13005346 0.3113241 0.12764047
000270 e0 01 9a bd e2 69 d5 be 37 db ef be d0 bb a1 be
       -0.07519889 -0.41682345 -0.46846935 -0.31588602
000280 18 c7 86 3f 9e ac 38 3f d6 7e 1b 3f d9 1a 32 bf
       1.0529509 0.7213839 0.6074041 -0.69572216
000290 b0 66 5c 40 4f 81 23 40 78 f8 5e 3f 99 fb 66 bf
       3.4437675 2.5547674 0.87097883 -0.9022766
0002a0 75 61 de 3e 9a 4b ba be 86 7e be 3d c6 a8 07 3f
       0.4343373 -0.36385804 0.09301476 0.529919
0002b0 62 31 10 be 2a 48 11 bc 1d bb c1 3e 5f ca 12 3e
       -0.14081338 -0.008867303 0.3783807 0.14335011
0002c0 dd 16 bf 3f fa 0e 1b 3f 08 98 d7 3e 6b aa cd be
       1.4928852 0.6056973 0.42108178 -0.4016908
0002d0 a6 c3 8e be 54 75 43 be c5 5a 84 be f1 6d 55 be
       -0.27883643 -0.19087726 -0.25850502 -0.2084272
0002e0 a5 93 bc be 33 d6 c4 bd c5 1a d8 bd 76 16 58 3e
       -0.36831394 -0.09611168 -0.10551981 0.21102318
0002f0 22 d1 2e bd a8 4d 9c be ca c7 ea bc 0d 6d ec 3d
       -0.042679913 -0.30527997 -0.02865972 0.11544237
000300 aa 13 79 be dc 19 01 be e2 ee 48 be ca 04 4e 3e
       -0.24323907 -0.12607521 -0.19622377 0.20119014
000310 7a 22 e9 3e 45 55 32 bc f0 29 a0 3e 2b c7 4f bf
       0.45534116 -0.010884588 0.31281996 -0.8116328
000320 be d3 2b 3e 01 41 05 3f 6c f1 f0 bf 4c 34 00 3f
       0.16779992 0.52052313 -1.8823676 0.500798
000330 91 e6 a7 3e 57 af b6 bf 5d bb 94 bf 59 62 44 bf
       0.32793096 -1.427226 -1.1619679 -0.76712567
000340 1e b3 8c 3e b2 8b e7 3e ae c0 83 3e 03 03 ee bd
       0.27480406 0.45223767 0.2573294 -0.11621668
000350 ba 7a c3 3d 12 fa 03 3f 14 7d a1 bf 57 15 4a 3f
       0.095448926 0.5155345 -1.2616296 0.7893881
000360 9f 48 ac bf 58 4e e8 3e db d2 f3 3e fd 69 04 c0
       -1.3459662 0.45372272 0.47621807 -2.068969
000370 30 94 62 3f a5 bc ff 3e 4f 76 23 be 91 30 f8 3e
       0.88507366 0.49948612 -0.159631 0.48474553
000380 ff 88 9b 3d d7 1e 1c bd ae 7f 08 bf 55 53 f0 be
       0.07594489 -0.03811535 -0.53319824 -0.46938577
000390 b8 04 c2 3e 6c 38 9e 3f c3 f5 e9 be b7 ce 6e 3f
       0.37894225 1.2360969 -0.45695314 0.9328417
0003a0 c5 15 e9 bf db 51 02 3f ef 40 07 bf 1b 0d aa be
       -1.8209769 0.5090615 -0.52833456 -0.33213124
0003b0 84 47 bf be 47 b7 1b be 7e b7 97 bf 7f a2 df bd
       -0.3735925 -0.15206634 -1.1852872 -0.109196655
0003c0 12 af ba 3e ea 1d 24 be 4d a3 09 c0 90 b4 59 3f
       0.36461693 -0.16027036 -2.150592 0.8504114
0003d0 ba 6e 44 40 69 f0 59 bd 21 16 30 40 68 1d 00 3f
       3.0692582 -0.05320779 2.7513506 0.5004487
0003e0 62 a6 02 bf c9 fa 66 c0 80 63 df be a0 16 1e be
       -0.5103513 -3.6090567 -0.436306 -0.15438318
0003f0 9a 4a 4e bf 45 c7 d2 bd da 02 23 bd a5 37 92 bf
       -0.8058258 -0.10291914 -0.03979764 -1.1423231

mlp1.0.bias f4 [150]
000000 5a 3c d1 be f9 8f 71 40 de e2 4b 3e 8c 6d a1 be
       -0.40866357 3.7744124 0.19910762 -0.3152889
000010 1f c9 1a 3e fb 7d 83 be 15 8d 2c c0 1d b7 88 bf
       0.15115784 -0.25682053 -2.696111 -1.0680882
000020 ce b5 3f be 6b a3 b0 bd 08 ca 49 3e 76 0e fd be
       -0.18721697 -0.086249195 0.19705975 -0.49425095
000030 b5 a0 89 bf ba 05 8d 3e 48 4e 3f 3e 27 02 46 3f
       -1.0752169 0.27543432 0.18682206 0.77347034
000040 05 83 1b 3f b7 15 42 bf 24 93 2f bf b7 f2 67 bf
       0.60746795 -0.75814384 -0.68583894 -0.9060473
000050 c6 9d 8b bd d1 43 29 be d8 cc d3 bd fd 23 62 be
       -0.06817202 -0.16529776 -0.10341805 -0.22084041
000060 ca d4 fd bf b5 4e ed bf c0 6b 6b 3e f4 12 44 3e
       -1.9830563 -1.8539644 0.22990322 0.19147855
000070 00 cd a2 3f be 97 b7 3e 01 ef 2a bf 85 97 af bf
       1.2718811 0.35857958 -0.6677094 -1.3718115
000080 f9 2b 63 3f 6d 85 e1 be 68 0c 5f 3d 20 3f 88 be
       0.8873897 -0.44047108 0.05445519 -0.2661066
000090 a4 fc 8c bf 78 09 90 bf 93 b0 e0 3e 7b 46 ff 3e
       -1.10146 -1.125289 0.43884715 0.4985846
0000a0 f7 f0 37 3f 7c 4c 41 be 65 11 74 be e9 a4 1c 3e
       0.7185206 -0.18876833 -0.2383476 0.15297283
0000b0 57 83 c2 3b 85 a2 5f 3c 1d 24 62 bd 64 12 8a 3e
       0.005936067 0.0136495875 -0.05521022 0.26967156
0000c0 07 28 31 bf 90 56 ac bf 99 ae 07 3f 68 2e 25 3e
       -0.692017 -1.3463917 0.5300079 0.16130984
0000d0 0e 0b 97 3d a0 80 bb bf b3 3d 7d 40 79 06 6b 3e
       0.073751554 -1.4648628 3.9568908 0.22951688
0000e0 1e 60 1c be e4 c6 98 be fd d5 8a bd f4 67 d1 be
       -0.15271041 -0.29839242 -0.06779096 -0.40899622
0000f0 5e d2 99 be d1 d6 f8 3c eb e0 09 be a8 f0 b3 bf
       -0.3004331 0.03037587 -0.13464706 -1.4057817
000100 67 0f 1a bf ba a5 b2 bd 50 fd fd 3e 68 15 b7 be
       -0.6017975 -0.08723016 0.49607325 -0.3575852
000110 65 79 a6 b8 a3 fb 91 bf 79 3c bb bf d9 92 84 bd
       -7.938108e-05 -1.1404918 -1.462783 -0.064733215
000120 d1 d8 d3 bf b4 01 61 3f f7 94 2b bd 0b e0 a9 be
       -1.6550542 0.87893224 -0.04189011 -0.33178744
000130 8b 1a 6a 3f 29 2c 84 be fb 37 a1 bf 4e 20 69 bf
       0.9144675 -0.25814942 -1.2595209 -0.9106492
000140 3f e6 85 be b6 d4 29 3e 6f be dd bf a2 39 27 3f
       -0.26152226 0.16585049 -1.7323741 0.65322316
000150 e9 7a ce bf 3c cd 41 bf 69 b3 65 3f 43 de 09 bf
       -1.6131259 -0.7570379 0.89726883 -0.5385477
000160 1c fe 21 bd 61 24 35 bd 03 1d d7 bd 83 a0 16 3f
       -0.03954898 -0.044224147 -0.105035804 0.5883867
000170 70 5e 0b 3f b4 d0 80 3e db 6d 3a be 5a 06 0e be
       0.54440975 0.25159228 -0.18205969 -0.1386961
000180 b6 18 4e bf 4a 21 b2 3e 9b 57 9f 3e 8d 21 05 bd
       -0.80506456 0.34791023 0.31121525 -0.0325027
000190 d4 f2 8c be 8b 73 1b 3e 18 15 a9 be 5e a4 44 3e
       -0.27529013 0.15180795 -0.33023906 0.19203326
0001a0 0f 8f f2 3d b9 8e d1 3e c2 6a a7 3f a3 dd 3a bf
       0.118436925 0.409292 1.3079455 -0.7299444
0001b0 60 2e f0 3e 09 df e4 3e 51 1e 34 bf 79 f5 b9 bf
       0.4691038 0.44701412 -0.7035876 -1.4528037
0001c0 b6 58 dc bf c3 70 6c be 21 66 89 be 0e 77 c9 bf
       -1.7214572 -0.2308989 -0.2683573 -1.5739458
0001d0 66 28 ff 3e 2e 62 a2 bf a4 c7 4f bf 36 b0 d0 be
       0.4983551 -1.2686212 -0.81164 -0.40759438
0001e0 55 87 21 c0 c6 bd 05 be ee e7 ff be 6e 3b a8 be
       -2.523885 -0.13060674 -0.49981636 -0.3285784
0001f0 9f e5 4f be 73 f4 2e bf 2f 06 7e bd 95 59 2c 3f
       -0.20302437 -0.6834175 -0.062017616 0.6732419
000200 1a 65 14 c0 83 a6 8e 3f 5f 42 07 be b0 90 18 40
       -2.3186707 1.1144565 -0.13208912 2.383831
000210 9b ee 79 3e 82 c3 25 bf 2c ae 81 bf b7 9e 69 3e
       0.24407427 -0.64751446 -1.0131278 0.22814451
000220 ca 5f 44 bf ad 83 ac bf 63 3d 10 3e 05 a3 75 be
       -0.7670866 -1.3477684 0.14085917 -0.23987968
000230 da fa 58 bb e0 8d 48 3f d8 5b 99 bf 58 d8 87 bf
       -0.0033108504 0.78341484 -1.1981153 -1.0612898
000240 8d 61 c7 be df ff 1e 3f 64 c5 f8 bd 61 29 54 be
       -0.38941613 0.6210918 -0.12147024 -0.2071891
000250 66 ff 60 bf 6a 9f 81 3f
       -0.8788971 1.0126774

mlp1.2.weight f4 [100, 150]
000000 f6 9c 3d 3e 46 dc f7 3c 4c c2 d1 be 84 6a 68 3d
       0.18516907 0.030256402 -0.4096855 0.056742206
000010 bb 4d 8a bf 69 df f8 3e ec 9d 23 be e7 f2 09 be
       -1.0804971 0.48607948 -0.15978211 -0.13471566
000020 3f 86 7e 3e c3 6b a5 3e 32 6d fb bd 80 9a b0 bd
       0.24855898 0.32308778 -0.12276687 -0.086232185
000030 af 30 97 be d5 5f 6b be 56 7c 4d bd cd 3c f8 be
       -0.2952933 -0.22985776 -0.050167404 -0.48483887
000040 79 9f 12 3f d1 c9 51 3e 71 d0 2a bd 9b 0c bf be
       0.57274586 0.20487143 -0.04170269 -0.37314305
000050 54 73 c5 3d 8b cf 2e 3c c7 d0 b3 be 6e f0 0d bd
       0.09641138 0.010669599 -0.35120222 -0.03465312
000060 4e f7 b0 be 33 1e 21 be 26 38 04 bf e1 d0 e8 3c
       -0.34563679 -0.15734176 -0.51648176 0.028419914
000070 a3 36 73 3e c9 c8 b1 3d 3f 31 a4 bd a3 bc 67 be
       0.23751311 0.08680875 -0.080172054 -0.22630553
000080 97 1c bc be 1e 6d 00 bd 1e a8 8d 3e ce 80 09 3f
       -0.36740562 -0.031354062 0.27667326 0.53712165
000090 db 3e 95 3e 72 9b 58 3e 3d 74 01 3e 4b 6d ab be
       0.29149517 0.21153048 0.12641998 -0.3348182
0000a0 1b 29 a9 be 30 f2 a3 bd 52 d3 90 bd d6 9f af bd
       -0.33039173 -0.08005178 -0.07071556 -0.08575408
0000b0 09 76 41 bb 85 3b e6 bc f1 cd a4 bc cb a3 83 3e
       -0.0029519817 -0.028104553 -0.020117732 0.25710902
0000c0 9b e1 89 3e d6 3f 72 bd 88 87 dd 3e e3 5d a7 be
       0.26929936 -0.05914291 0.43267465 -0.32688817
0000d0 fb d1 ff 3c 27 2f 45 bd 1e e4 49 3e 6f f7 df 3d
       0.031228056 -0.04814067 0.19715926 0.10935866
0000e0 c9 ee 7d bc 3f e6 2d 3e 40 b1 2b bc 29 f3 45 bd
       -0.015498825 0.16982363 -0.010479271 -0.0483276
0000f0 b5 8c 8d 3e 46 26 a5 bd 42 99 4d 3b cf 50 f7 be
       0.27646413 -0.08063941 0.0031371866 -0.4830384
000100 ae 48 e8 3d 91 7f 2f 3e 0a 53 47 3e d5 c4 0c 3e
       0.113419876 0.17138506 0.1946527 0.1374696
000110 16 b4 6b be 7b 32 28 3e 8a 0e be be e0 e2 04 3e
       -0.23017916 0.16425507 -0.37120467 0.12977171
000120 83 0e 1e bf ce f6 3e bf 02 5e 08 bd eb 89 bc 3d
       -0.61740893 -0.74595344 -0.033292778 0.09205993
000130 ec 8c a3 be 2d 8e 3b bd 37 6d 56 bd ae cc f5 3c
       -0.31943452 -0.045789886 -0.05235025 0.030004825
000140 5f ff a1 3d 73 d2 dd be d5 14 ce bc 56 61 93 3d
       0.07910036 -0.43324623 -0.025156418 0.071963
000150 16 e1 b1 be c4 0b a5 bc c9 ca 16 3c 98 99 05 bf
       -0.3474204 -0.020147212 0.009203621 -0.5218749
000160 84 54 9d 3d 7b 94 c3 3e 14 a6 5a bf be 5d c4 3e
       0.07682136 0.3819922 -0.85409665 0.3835277
000170 60 c6 4e 3e 1b b7 9c 3c 0a b0 17 be a8 22 80 3c
       0.20192862 0.01913028 -0.14813247 0.015641525
000180 f5 0c d7 3c aa 95 ae 3d 43 0a f3 bd b6 9e 67 bc
       0.026251296 0.0852464 -0.11867192 -0.014136961
000190 af 2e b0 3e 86 dd ec 3c 75 b7 c5 3d 8f 0c 13 bf
       0.34410617 0.028914224 0.09654132 -0.5744104
0001a0 82 01 e4 bd e7 4c 50 bd ed 9b 14 3f 11 0a 4a 3e
       -0.111331 -0.05085459 0.58050424 0.19730403
0001b0 ae 26 81 3e c5 72 4a 3e 60 7e 10 3d 91 a0 5f be
       0.25224823 0.19770344 0.03527677 -0.21838595
0001c0 6e a7 78 3e 11 d7 11 3e 8b 46 0f be 6a cd bb 3d
       0.2428262 0.14242198 -0.13991754 0.09170039
0001d0 a7 d4 d2 3d 76 45 54 bf 88 50 b6 3d be b9 b1 bd
       0.102944665 -0.8291849 0.08902079 -0.08678006
0001e0 9f f9 8a 3e 3e 0f 36 bb 12 d4 05 3f 7f 22 0d be
       0.2714357 -0.002778008 0.5227672 -0.1378269
0001f0 22 dd 9d be a7 4f e4 be d0 78 c1 3c 19 ba 2b bf
       -0.30832773 -0.4459202 0.023617178 -0.6708084
000200 39 c0 48 be 1f a1 3d 3e 37 a0 4c bd 55 23 74 be
       -0.19604577 0.18518494 -0.04995748 -0.23841603
000210 a7 b8 70 3e 63 4f 67 be 8b 6c 43 bf 2a ca f1 3d
       0.2350794 -0.22588877 -0.763375 0.11806138
000220 9a 67 f1 bc 5c b2 4a 3e 98 94 c4 be 5a bc 48 3c
       -0.029468346 0.19794601 -0.38394618 0.012251938
000230 a0 1d 62 bd 7e ee cb 3d e6 89 00 3d e4 27 16 bf
       -0.055204034 0.09957598 0.03138151 -0.5865462
000240 21 60 b4 3c f1 d8 6e 3e 7a ac 04 3f 74 ff f0 3c
       0.022018494 0.23324944 0.5182568 0.029418685
000250 d6 95 af 3e bd d3 89 3d d7 e1 82 3d da 2a 33 3d
       0.34294003 0.06729839 0.06390732 0.04374204
000260 01 ac 78 3d 28 79 1a be b1 d1 da 3e bd 87 79 be
       0.06071091 -0.1508528 0.42738107 -0.24368186
000270 5c f0 08 3e 5f 10 89 bd 9f b7 9c bd 65 13 b8 be
       0.1337294 -0.06692576 -0.076522104 -0.35952297
000280 de ab db bd 1d 07 63 be 13 45 83 3e 11 75 4d be
       -0.107261404 -0.22170682 0.25638637 -0.20064189
000290 0a ab 2a 3d a8 d2 f7 3d 75 5a 81 be bd c4 2f be
       0.04166702 0.12100726 -0.25264326 -0.17164893
0002a0 e1 96 11 3e ae a5 d6 be 00 93 5c 3d 63 0f 81 bd
       0.14217712 -0.4192328 0.053851128 -0.06301763
0002b0 ed fb 26 bf 5f c6 81 3e 86 ea 0f bf 1a 94 4c be
       -0.6522816 0.25346658 -0.5621723 -0.19978371
0002c0 a5 9c d8 3e 2e a1 1f 3e 42 a8 53 be b4 c8 59 be
       0.4230701 0.15588829 -0.20669654 -0.21267968
0002d0 e1 5b 25 bf fe cf 96 be 90 ab 8b 3e 30 55 38 bf
       -0.6459332 -0.2945556 0.2727933 -0.72004986
0002e0 61 35 01 bd 83 de 30 3e 26 da ca be ab e6 28 3e
       -0.031545047 0.17272381 -0.3961956 0.16494243
0002f0 2e f1 e3 bd 0f 27 70 be 4c c1 ff bd 69 40 2e 3d
       -0.11129986 -0.234524 -0.1248804 0.042541895
000300 9c ab 9f 3d 9b f9 d2 bd 57 83 96 3e 87 2b a2 bd
       0.07796404 -0.10301515 0.2939708 -0.079184584
000310 fa c0 3c 3e aa c9 8d be d5 ae cd be 41 c1 54 bd
       0.1843299 -0.2769292 -0.4017245 -0.051942114
000320 50 e0 dd be 25 fb fd 3c 85 9f 3f be 7f 5b 08 3f
       -0.433352 0.031003544 -0.18713196 0.5326461
000330 d5 18 1c be d3 fe 0d bd cc e7 5c 3d 8d 9a 13 3e
       -0.15243848 -0.034666847 0.053931996 0.14414425
000340 36 ab 4a bd d3 3d 82 be f7 f2 90 bd 8e 58 1b bd
       -0.049479686 -0.25437793 -0.07077592 -0.03792625
000350 8d ff 25 bd 4c 49 03 bf eb 84 77 bd 9c 0d e5 3d
       -0.040526915 -0.5128372 -0.060429495 0.111842364
000360 79 26 97 3e f6 51 33 bd e3 50 c0 bc 15 6f 5e be
       0.2952154 -0.043779336 -0.02347607 -0.21722062
000370 11 29 99 be 66 0e 25 be 38 08 16 bf 93 b7 b7 3d
       -0.29914144 -0.16118774 -0.5860629 0.08970561
000380 fe e8 18 3d e4 83 a0 3c e9 6e 10 3e 48 e1 7d 3c
       0.037331574 0.01959414 0.14104809 0.015495606
000390 ee d6 68 bc 05 c0 96 3e ea cc 5c be 95 fe 86 3e
       -0.0142113995 0.29443374 -0.21562544 0.26366106
0003a0 8d 33 d1 be 96 bc 85 3d e5 f5 b5 bd 52 20 e1 bd
       -0.40859643 0.065301105 -0.08884791 -0.10992493
0003b0 ed ba 60 be 8c 9f 5e bd 69 ab 07 be 98 56 8a be
       -0.21946307 -0.054351375 -0.13248982 -0.2701919
0003c0 ac f6 71 3d f2 93 98 3d 27 c6 39 bf 5e db c8 be
       0.059073135 0.07450093 -0.7256798 -0.39229864
0003d0 e7 53 74 be a8 fb 49 3c 21 ff 9a be 7f 6b 4b bb
       -0.23860131 0.012328066 -0.30272773 -0.0031039414
0003e0 d0 4b a3 bc 4e 5d 31 be 57 3e 44 3d 19 db b5 bb
       -0.019933611 -0.17320749 0.047911014 -0.0055498
0003f0 7a 21 8e bd 7e bb 49 be 25 a7 3b 3e b4 1c 23 bf
       -0.06939979 -0.19700429 0.1832548 -0.6371567

mlp1.2.bias f4 [100]
000000 10 4b 85 3d b7 40 ac 3e 79 c4 19 3f 0a e0 bb bd
       0.06508458 0.33643124 0.6006542 -0.091735914
000010 30 d8 80 3c fc 6b fe 3f 63 df 32 3e 42 e0 dd 3e
       0.015728086 1.9876704 0.17468028 0.43335158
000020 22 9f 12 bf 92 73 d9 bf 2e 2b b9 3e a6 24 a3 3d
       -0.5727407 -1.6988394 0.36165756 0.079659745
000030 1a 9d 82 bb 79 32 a7 3f 19 c8 fa be c4 9c 6e bf
       -0.003986013 1.3062278 -0.48980787 -0.93207955
000040 05 97 64 bf 28 a7 d2 3d 6e a0 81 3e 93 2e 3c bf
       -0.8929294 0.10285789 0.2531771 -0.73508567
000050 4d b6 1a 3f ba 0e c7 3d f0 aa da 3e a7 fd 3f be
       0.6043442 0.09719606 0.4270854 -0.18749104
000060 af e0 0e 3f 26 ab 32 3f c0 44 9e be cc aa 10 bf
       0.5581159 0.697924 -0.30911827 -0.56510615
000070 a0 89 13 bf 68 db ca be a9 fa 1a 3f 15 4e 84 3f
       -0.57631874 -0.3962052 0.6053873 1.0336329
000080 3b cf 4e 3e c2 f5 2e c0 01 d0 43 bf c9 8e 33 bf
       0.2019624 -2.7337499 -0.76489264 -0.7013975
000090 59 b3 e5 bf 0e 49 1e bf 2d 15 50 3d 0f 48 01 3e
       -1.7945358 -0.6183022 0.050801445 0.12625144
0000a0 82 2e 6f be 3c 17 00 be 87 35 0f be b0 b5 58 3f
       -0.23357585 -0.12508863 -0.13985263 0.84652233
0000b0 99 95 bd 3e 18 08 4f 3e 49 73 cb bb 61 72 88 be
       0.37028196 0.20217931 -0.0062088114 -0.26649764
0000c0 87 73 5c bf 56 ac 9b be 7e 2f c2 3e 75 4c 73 bf
       -0.8611378 -0.3040492 0.3792686 -0.9503854
0000d0 3b a7 5a bd f0 37 09 3d e9 28 3c bf b8 5e 58 bf
       -0.05338214 0.03350061 -0.73499924 -0.8451953
0000e0 f9 5c b6 3c 91 45 3e be 82 38 c3 be d8 9d eb be
       0.02226113 -0.18581225 -0.3812905 -0.46018863
0000f0 78 3e 14 3e 1e 4b 04 bf c2 17 f3 3f ca 95 4b bf
       0.14476955 -0.5167712 1.8991625 -0.79525435
000100 15 7b 15 bf 1f 88 80 3f d2 07 c3 be b3 d1 0b bf
       -0.58390933 1.0041541 -0.38091904 -0.5461685
000110 6e f0 f5 be 1e 49 57 3d b0 11 8a bd fb ec a3 3d
       -0.48034996 0.052559964 -0.06741655 0.08004185
000120 e6 36 36 bf 81 d8 f6 be 3f 7a 9c 3f bf 3e d4 3f
       -0.7117752 -0.48212054 1.2224807 1.6581649
000130 18 dc 19 3e 19 2b 97 be 10 3e 0a c0 16 3d d1 bd
       0.15025365 -0.29525068 -2.160038 -0.10216729
000140 4e 8c 23 c0 34 5f 4a bf 01 41 3e bf bd 00 05 bf
       -2.5554385 -0.7905152 -0.7431794 -0.5195425
000150 7d ad a8 3c f3 f9 85 3f 69 4f f4 be d4 4f 81 be
       0.020590538 1.0466903 -0.47716835 -0.25256217
000160 13 02 6d bf 99 6e 13 be 0a dd b9 3e 68 ec df 3d
       -0.9258129 -0.14397658 0.36301452 0.10933763
000170 8d 23 94 3f 1f 2a 57 bf 6d 52 50 3e 59 86 06 bf
       1.1573349 -0.84048647 0.20343943 -0.5254875
000180 75 3b 81 3f a4 47 d2 bf 9b 6c 82 be ef 47 31 bf
       1.009627 -1.6428113 -0.25473484 -0.69250387

mlp2.0.weight f4 [100, 100]
000000 a2 22 b6 be 48 19 b4 3e 88 c1 dd be 23 7c 7c 3e
       -0.35573298 0.35175538 -0.43311715 0.2465673
000010 2e 22 9f be ee a1 59 3e ad d9 f0 3c ca cd 47 be
       -0.31080765 0.21253178 0.02940067 -0.19512096
000020 44 3b b6 3d 60 53 62 3e b0 76 a3 3e ef ae 7f be
       0.08898023 0.22102118 0.3192649 -0.24969076
000030 6d 8a 8f be 36 e6 48 3e 48 19 be be 3b a0 f6 3d
       -0.28035298 0.19619069 -0.37128663 0.1204228
000040 9a d8 83 be 0c eb cc bd 3a 4c dc 3d 72 eb 6c bc
       -0.2575119 -0.10005769 0.107567266 -0.014460431
000050 15 76 09 bd 30 cd cd bd 03 df e8 be ce 15 05 be
       -0.033559877 -0.10048902 -0.45482644 -0.12996599
000060 e8 21 19 bf 5b 23 8f be e1 d0 38 3e b4 4d 55 be
       -0.5981736 -0.27956662 0.18048431 -0.20830423
000070 fe c9 a9 be ba eb 0e 3e 53 be d2 3e 13 36 3d 3e
       -0.3316192 0.1395711 0.4116083 0.18477659
000080 fa eb 4a be fb 87 4f be 0c 1a 07 3e d2 58 80 be
       -0.1981658 -0.20266716 0.1319353 -0.25067765
000090 ae 9a 9a 3b e4 4c 3f 3e 38 31 e3 3d e0 4e 1b 3e
       0.0047181463 0.18681675 0.11093372 0.15166807
0000a0 88 ac b7 be 0b c9 10 3e 50 c9 c7 be 31 0e 4c 3e
       -0.35873818 0.14139192 -0.39020777 0.19927289
0000b0 66 f6 66 bd 32 b9 74 be 2c 3f b0 3d 68 62 ac bd
       -0.056387328 -0.23898771 0.08605799 -0.08417207
0000c0 c8 34 65 3e c8 8a 88 bd e6 da f2 be 2b 0b 85 be
       0.22383416 -0.066670954 -0.4743263 -0.25985083
0000d0 29 9d 93 3e d8 7a cb be da 6c f8 be ba d6 81 3e
       0.2883084 -0.3974216 -0.48520547 0.25359136
0000e0 b8 34 81 3c a1 bb 38 be ea ca 7e be aa 46 cf be
       0.015772209 -0.18040325 -0.24882093 -0.404836
0000f0 3d ae 9d 3e 32 6e e9 be ca 42 a0 be 91 91 96 be
       0.30796996 -0.45591885 -0.31300956 -0.29407933
000100 61 e5 c6 bd 9e 78 da 3e 47 ed dc 3d a8 f2 b5 be
       -0.09711719 0.4267015 0.107874446 -0.35536695
000110 f9 c6 88 3d ce d7 e6 3d ba 2a 05 be 99 7a 41 3e
       0.06678576 0.1127163 -0.1300458 0.18894424
000120 d0 dc a7 be da 4c a4 bd 18 bf 70 bc 6d 86 ad 3e
       -0.32785654 -0.08022471 -0.014693998 0.3389162
000130 ca 72 5b be 98 59 aa be a0 67 b1 be 2c f7 12 be
       -0.21430507 -0.3327148 -0.34649372 -0.14352101
000140 b5 66 c7 be 55 8e 5e 3d cf 7a 19 bf 09 79 ae be
       -0.38945547 0.054334957 -0.59953016 -0.34076717
000150 95 09 58 3d ea e4 03 be 7d 26 0a bf 6c b9 0c 3e
       0.052743513 -0.12880293 -0.5396498 0.13742608
000160 0d f7 f0 3d 86 b1 97 bd 99 df 3a be aa ca 9e 3d
       0.11765871 -0.07406907 -0.18249358 0.07753499
000170 7a f0 6c be f7 9a c7 be 07 b3 07 3d f4 c1 a6 3d
       -0.2313861 -0.38985416 0.03312972 0.081424624
000180 e4 38 93 bc f0 a6 77 bd 54 44 59 be 00 27 2c 3e
       -0.017971464 -0.06046194 -0.21217471 0.16811752
000190 4e d4 58 3d 9e 8c 5d be fd 05 d6 3e ca 99 9a 3d
       0.052936845 -0.21635672 0.41801444 0.07548864
0001a0 7a e4 d4 be c8 b6 68 be 42 59 c4 bd f7 25 b5 be
       -0.41580564 -0.22725976 -0.09587337 -0.35380527
0001b0 62 a3 04 bf 7f 1a a9 be c1 7c 10 3e 0a 2c 87 3e
       -0.518118 -0.33028027 0.1411009 0.26400787
0001c0 c4 46 6e 3e 27 88 0d 3e a8 93 07 bf a6 be 7b be
       0.23269182 0.13821469 -0.5295968 -0.24584445
0001d0 49 c6 fd be ea c8 9e 3e e5 b0 b2 3e d7 fd 52 be
       -0.49565342 0.3101266 0.34900585 -0.20604645
0001e0 24 58 ac bd cc 30 c9 be f6 5c 1c 3e 88 15 79 be
       -0.08415249 -0.39295042 0.15269837 -0.2432462
0001f0 14 76 36 3e eb 45 09 3f 2b 7c 9f be d9 74 ef 3d
       0.1781848 0.5362231 -0.3114942 0.11692209
000200 6a 2e 1b bf 50 11 c9 3e a2 26 a9 3e 55 9c b6 bd
       -0.606177 0.3927102 0.33037287 -0.08916537
000210 96 cf 37 bd 35 a1 d1 be 10 21 29 bf 4b 36 fc 3d
       -0.044875704 -0.40943304 -0.66066074 0.12315043
000220 4d 79 da bd 85 00 10 be 61 93 87 bd 07 43 15 bf
       -0.106676675 -0.14062698 -0.06619907 -0.583054
000230 fe 72 bb 3d 98 14 55 3d 7a ca bf bd 80 32 e4 3c
       0.091527924 0.052021593 -0.09364791 0.027856112
000240 64 20 f9 3d 04 d3 8f 3d 7f 9d 4f bd 1c 1e 7b be
       0.12164381 0.0702267 -0.05068731 -0.24523205
000250 15 3e 93 3d a9 86 f7 be 24 c7 e2 3e c2 65 15 3f
       0.071895756 -0.48344925 0.44292557 0.58358395
000260 84 ea 79 be de 8e 4f 3d 6a 85 de 3e 66 9b 9a be
       -0.24405867 0.05067336 0.43461162 -0.30196685
000270 6b 14 15 bf 38 23 71 bb b4 56 69 be d9 81 e1 be
       -0.5823428 -0.0036794674 -0.22786981 -0.44044378
000280 3c 35 00 be 0c fa e3 be 07 78 e0 3c 5d 6f d7 3e
       -0.12520307 -0.44526708 0.027400983 0.4207715
000290 29 93 c1 3e c2 37 a0 3e ae 9b c3 3e 42 06 24 3d
       0.37807587 0.3129254 0.38204712 0.04004503
0002a0 2b ef 82 bd f0 3d 21 3e de f2 f6 be 2e 25 cf 3d
       -0.06393274 0.15746284 -0.48232168 0.10114513
0002b0 7e 80 dc be 76 92 7f bd f6 f0 c5 3c e3 4d 42 3c
       -0.43066782 -0.062395535 0.02416275 0.01185939
0002c0 59 32 b1 3e b1 b5 b8 3d 8c 83 46 bf 26 03 b0 3e
       0.34608725 0.0901903 -0.77544475 0.34377402
0002d0 e3 60 44 bf a6 84 37 bf 03 73 8a bd b4 df 19 bf
       -0.7671034 -0.7168678 -0.06760218 -0.6010697
0002e0 75 c6 19 3e c8 fd d3 3e 1f 6a fa be 45 2e c6 be
       0.15017112 0.41404557 -0.4890909 -0.38707176
0002f0 35 8c 1b bd c1 88 10 bd b4 fe 7d 3e f3 1a 0d 3f
       -0.03797551 -0.03528667 0.24804193 0.55119246
000300 ce 8a a1 3d 96 72 31 be 16 04 4e be bc 3e d4 bd
       0.07887803 -0.17328867 -0.20118746 -0.10363528
000310 bb cb af bc ef 6d c5 be ec d9 a3 be 3e 48 ed 3e
       -0.021459451 -0.38560435 -0.320022 0.4634418
000320 59 4b 6e be 25 46 93 be c5 dc 4e be 0a 22 21 be
       -0.2327093 -0.28764454 -0.20201404 -0.15735641
000330 0e 71 af 3e 6f e1 21 3d e3 69 2f 3e 4f eb b1 3e
       0.3426594 0.03952163 0.17130236 0.3474984
000340 b8 c3 8f bd 3a 02 c5 3e 69 90 8e be 83 7f e9 be
       -0.07019752 0.3847826 -0.2784455 -0.45605096
000350 d4 f7 58 3f dd 7c b5 3e 67 b0 94 be 26 e3 00 bf
       0.84753156 0.35446826 -0.29040834 -0.503466
000360 9c d4 07 bf be de 86 bd 71 39 80 be 23 c5 8b 3e
       -0.5305879 -0.065854535 -0.25043824 0.2729884
000370 7b fe 32 ba f2 08 05 3e e6 d7 71 bd 42 f9 90 bd
       -0.00068280817 0.12991694 -0.059043787 -0.07078792
000380 3a 1d 24 3e 0b da 0a bf 44 ca 8e 3e 6e 81 ee be
       0.16026774 -0.5423896 0.2788869 -0.46583122
000390 cd c7 cb bd 51 01 df 3e 2c 0a ce be 9e 20 7a 3e
       -0.09950218 0.43555692 -0.40242136 0.24426505
0003a0 4a 9e 30 3f 45 82 3c bf f5 53 f3 be b1 93 52 3e
       0.6899153 -0.73636276 -0.47524992 0.20564152
0003b0 9a 58 bc be b9 a3 92 be 2c a8 04 3e 27 fb eb 3d
       -0.36786348 -0.28640535 0.12954777 0.11522513
0003c0 87 35 0f bf 81 4c 1e bd 92 c1 a4 3e 07 73 34 bf
       -0.5594105 -0.03864718 0.32178932 -0.7048802
0003d0 08 76 39 be db 76 72 3e ee 0c db bd 3d 94 d3 bc
       -0.18111432 0.23678152 -0.106958255 -0.025827521
0003e0 5e aa af 3e 87 1c 32 3e b1 a6 9d 3e 49 17 0c bf
       0.34309667 0.17393695 0.30791238 -0.5472303
0003f0 6d f5 48 bf 15 e0 bf be 55 04 4b 3e d2 5b 88 3d
       -0.7849949 -0.3747565 0.19825871 0.06658138

mlp2.0.bias f4 [100]
000000 aa 09 c8 3e 5d 0e 83 3f 86 01 02 3f 00 1c 00 be
       0.39069873 1.0238758 0.50783575 -0.12510681
000010 77 8b d4 3e f5 d0 68 3f af f4 1f 3f 51 fc 44 bf
       0.41512653 0.90943843 0.6248273 -0.76947504
000020 34 12 4c be 50 62 28 3e 2f b4 c1 3d 3e cf 1e be
       -0.19928819 0.16443753 0.094581954 -0.15508744
000030 e8 b3 35 3e 58 47 58 3f a5 d4 a8 be 94 c2 d0 bd
       0.1774441 0.8448386 -0.32974735 -0.10193363
000040 c3 7c 54 be 57 2e 52 bf 1c 03 3e 3e 9a 5f 2c 3e
       -0.20750718 -0.8210196 0.18555874 0.16833344
000050 25 df b7 3e 36 9f 89 be bc 3e 19 3f 63 9a ee be
       0.35912433 -0.2687928 0.5986135 -0.46602163
000060 83 0e cd bd b7 9b f6 be e2 08 e6 be cb 0b 9c 3e
       -0.100125335 -0.48165676 -0.44928652 0.30477747
000070 7e 8c 22 bd f2 a4 25 3f 13 1e 4d bd 61 6c 78 be
       -0.039684765 0.6470481 -0.05007751 -0.24260093
000080 60 13 0a 3f 15 24 53 3f ab ce 06 bd b6 05 9b be
       0.53935814 0.8247693 -0.032911938 -0.30277795
000090 3f 26 99 3e 63 da 7f be 23 63 27 3e b2 10 63 3e
       0.29911992 -0.24985652 0.16346411 0.22174338
0000a0 17 28 68 3f 85 29 00 3f 35 db ab bd 92 df 31 bf
       0.9068617 0.50063354 -0.0839142 -0.69481766
0000b0 7c 4c 7e be f4 ce 05 bf 29 fd af 3e d0 35 03 bf
       -0.24833864 -0.5226891 0.34372833 -0.51253986
0000c0 30 ae 36 bf 72 5e fa be bf 38 9e be 24 f3 ec 3b
       -0.7135954 -0.4890018 -0.3090267 0.007231133
0000d0 f6 61 22 3f 3f 0b 95 3c 1c b9 c2 3e a9 0a f0 3d
       0.63430727 0.01819384 0.38031852 0.11720783
0000e0 30 e8 24 be 92 02 56 3e 80 f6 1d 3f ee 56 41 3d
       -0.16104198 0.20899418 0.61704254 0.047202043
0000f0 17 c3 19 bf 91 0e 83 3f f3 8a 34 be 8e 40 29 3f
       -0.6006331 1.023882 -0.1763113 0.6611413
000100 fd c6 0e 3f 7c 60 f9 3d 22 1e d7 3d 27 b4 6c 3f
       0.5577238 0.12176606 0.10503794 0.9246239
000110 b6 ed 92 bf d6 b5 81 be 81 71 cb be 6c c3 b8 be
       -1.1478794 -0.25334042 -0.39735034 -0.36086595
000120 00 18 3f bd f1 3f 77 be 2c 94 35 bc 4d 90 dc be
       -0.046653748 -0.24145485 -0.01108269 -0.43078843
000130 62 2b dd be 57 07 b8 3d d9 50 f1 be 7f 82 2d be
       -0.4319716 0.08985775 -0.47131994 -0.16944312
000140 5e 41 97 3d 5d 3e ab 3e 26 2f 0b bf e3 b4 ab 3c
       0.07385515 0.33446017 -0.5436882 0.020960277
000150 9a a7 aa bd 1f e7 9a be 01 43 1f bf 2c 2f 07 bf
       -0.08332749 -0.30254456 -0.62211615 -0.52806354
000160 68 ff 80 be d2 0b 9c 3f 28 1b e4 bd c2 8f 4c 3f
       -0.2519486 1.2191107 -0.11137992 0.79906857
000170 62 e9 15 bf b1 fc bc be d2 54 a1 be 12 93 22 bf
       -0.5855924 -0.36911538 -0.31510025 -0.6350566
000180 a4 10 1f 3d 3c e8 2e 3e a2 59 19 3f 8a 3b 98 3e
       0.03883423 0.17080778 0.59902394 0.29732925

mlp2.2.weight f4 [50, 100]
000000 1f 2d b9 bc b2 28 8f be 4a 33 0b bf 73 6f 67 3e
       -0.022604523 -0.27960736 -0.54375136 0.22601108
000010 f3 0c a0 3d c4 82 a2 bc 0a 13 23 bb 15 56 87 be
       0.0781497 -0.019837745 -0.0024883174 -0.26432863
000020 1b f7 0c 3e 8d 6e 77 bd a6 07 8b be 65 be fc 3d
       0.13766138 -0.060408164 -0.27154273 0.123410024
000030 5f 84 6d 3d 86 69 8b be 54 0d 8f be d2 13 77 3d
       0.057987567 -0.27228945 -0.27939856 0.060321636
000040 88 bc b2 3e 04 51 35 3e 9e 07 7d bc 15 0b 9d 3e
       0.34909463 0.17706686 -0.015443711 0.30672517
000050 0b 32 21 bd 81 60 a6 bd 79 09 19 bf 7a 56 7b 3c
       -0.039354365 -0.081238754 -0.5978008 0.015340442
000060 03 5d 2a 3e 7e 65 f4 bd 0a 80 0c be c7 7d 88 3e
       0.16637044 -0.119334206 -0.13720718 0.2665846
000070 50 c6 66 bd 1d 7b 2a 3e d3 70 e8 bc ed 5f 33 bd
       -0.05634147 0.16648526 -0.028374111 -0.043792654
000080 9c 29 23 3e 89 6c b4 3d f7 73 e8 bd e4 ac 2f be
       0.15933841 0.08809764 -0.113502435 -0.17155796
000090 7c b1 99 be 7a 86 4c 3e 51 e4 14 3e ad e8 39 3d
       -0.30018222 0.19973174 0.14540221 0.045387913
0000a0 c8 b9 23 be 30 f3 94 bd 59 7b 01 3e c1 90 02 3e
       -0.15988839 -0.07272947 0.1264471 0.12750532
0000b0 5c db b8 3e e7 3b 09 bd 77 a2 0e 3f 27 4e 2c 3f
       0.36104858 -0.033504393 0.5571665 0.6730675
0000c0 9b 8a ce 3e c1 2d a6 bd 43 b4 64 3e 0c 9a c5 3d
       0.40340123 -0.081141956 0.2233439 0.09648523
0000d0 1a f8 b6 be e1 ee 6d 3d f0 be 89 bd f0 51 81 3d
       -0.3573616 0.05808914 -0.067258716 0.063144565
0000e0 a0 51 6e be f5 50 bc 3e 50 c2 2b 3f e1 a9 cc 3c
       -0.23273325 0.36780515 0.6709337 0.024983348
0000f0 d7 67 8f 3b 50 98 0f 3d 2a 23 88 3e ac f4 77 be
       0.0043763923 0.035057366 0.26589328 -0.24214429
000100 1f 16 b9 3d c3 96 63 bf b6 cc 2d 3e ce fe c9 3e
       0.090374224 -0.8890192 0.16972622 0.39452213
000110 1c cc 9e bc bc d8 bd 3e 9c 05 bc 3d 61 05 a4 bd
       -0.019384436 0.37079418 0.091807574 -0.080088384
000120 9e 96 16 3e d0 6c ba 3e 6a 39 fc 3d ce b6 9e be
       0.14705893 0.36411142 0.12315638 -0.30998844
000130 f3 42 71 3e d9 54 88 3e 8c 3d 9c 3e 87 35 32 3c
       0.23560695 0.26627234 0.30515707 0.01087702
000140 1b 39 89 3e 09 5f be 3e a3 56 3e bd f0 bb 3c be
       0.2680138 0.3718188 -0.046469342 -0.18431067
000150 b8 5a 48 bd e0 41 24 3d 97 f9 3c be f1 9e b3 3e
       -0.04891464 0.040101886 -0.18454586 0.350822
000160 78 bb ce 3d d3 a4 d5 3e 14 f0 15 3d c5 6a 6b be
       0.100943506 0.41727313 0.03660591 -0.22989948
000170 ca 8a 8b bd 92 b5 48 be 53 17 9a 3e e6 09 1f be
       -0.06813581 -0.19600514 0.3009592 -0.1553112
000180 b0 f4 d8 3e 03 a6 12 3e 80 2f 17 be 49 38 2d bf
       0.42374182 0.14321141 -0.14764214 -0.6766401
000190 78 22 8b be 8b 22 82 3e 3d 4f ca bd 09 b3 22 be
       -0.27174735 0.2541698 -0.09878395 -0.15888609
0001a0 11 11 6a be 47 d3 b7 bd c5 ad b7 3e 1e a3 77 3e
       -0.22858073 -0.08975845 0.35874763 0.24183318
0001b0 73 7c 5c bd 0c 11 33 3e d8 80 ad be 61 3f 1c 3d
       -0.05382962 0.17486972 -0.33887362 0.03814638
0001c0 3c db 7a be 1b 3d 6b 3e 20 cd 80 be 59 4b 2d be
       -0.24497694 0.22972529 -0.25156498 -0.16923274
0001d0 cc 75 c2 be b5 f8 9c 3c 84 29 a2 be f3 41 53 be
       -0.37980497 0.019161562 -0.316723 -0.20630626
0001e0 9b 33 8a bc 0b fa 8e 3e 2b c4 21 bd e9 73 8c 3e
       -0.01687031 0.27925143 -0.03949372 0.27432182
0001f0 c9 67 fd bd 75 8d 11 3f b1 a3 16 3e c0 2f c4 3e
       -0.12373311 0.5685647 0.14710881 0.3831768
000200 75 14 69 be 04 4d 28 3f a6 a1 b9 3d 6b 88 9a be
       -0.2276171 0.65742517 0.09064035 -0.30182204
000210 31 7e 56 3e 7b 07 b7 3e f9 6a b1 be 2c 15 5d b9
       0.20946576 0.35747895 -0.34651926 -0.0002108409
000220 ac 60 82 3d 74 04 8e 3e 77 4d 58 3e 22 c2 34 3e
       0.06366095 0.27737772 0.211233 0.17652181
000230 9e 0c 7f be 7a 94 a6 be 8e e5 b5 bd 18 44 23 bd
       -0.24907157 -0.32535154 -0.08881675 -0.03985986
000240 3f f0 b4 3e 5d 37 e3 bc 61 05 82 3e 95 8e e1 bc
       0.35339543 -0.02773636 0.2539473 -0.027533809
000250 2f fe b8 bd 00 0d 80 3d 30 f3 13 3d 27 2c b3 3e
       -0.09032857 0.062524796 0.036120594 0.34994623
000260 45 72 0c bc a1 c6 bb bd 4d 9e 9b bc 22 5a 66 3d
       -0.008572166 -0.09168745 -0.018996382 0.0562383
000270 0c d6 55 3e d9 cd 10 3e 65 6a dc 3c c8 88 1e 3e
       0.20882434 0.14141025 0.026906202 0.15481865
000280 87 e1 49 3e 8f a4 9d 3d 07 f0 66 3e 87 9b 1e bd
       0.19714938 0.07697403 0.225525 -0.03872254
000290 49 1d b2 3e 59 df 16 be 1b 22 43 be 64 d5 c9 3e
       0.34787968 -0.14733638 -0.19055979 0.39420617
0002a0 e4 80 a4 3e f2 e7 e3 bc e6 6b 44 bc 03 bd dd be
       0.32129586 -0.027820561 -0.011988616 -0.43308267
0002b0 61 a4 2b 3e fb 26 17 be 16 4f 58 bd df fb 62 be
       0.16761924 -0.14760964 -0.052809797 -0.22166394
0002c0 cf d1 09 3f 57 59 12 bd ec f2 58 3d fb 55 e2 3d
       0.5383577 -0.035729732 0.052966043 0.11051556
0002d0 54 b0 c1 3d be ad 36 be f1 4b 5b be fc 65 09 3e
       0.0945746 -0.17839715 -0.21415688 0.1341781
0002e0 5b 28 66 3e 53 09 97 bc ac 64 0a 3e ca e7 99 be
       0.22476332 -0.018437063 0.13514966 -0.30059654
0002f0 51 b7 1e be 01 4e ae bd 9c 3b 41 3d a8 1e 2e 3d
       -0.15499617 -0.08510972 0.04717599 0.042509705
000300 07 87 82 3e 13 0a 51 3d 0a 6d 38 bd a0 6c 24 3e
       0.25493643 0.051035 -0.045025863 0.16057062
000310 f3 54 9e 3e 29 0d f7 bd c6 09 1c be d5 3a 69 3c
       0.30924186 -0.12063057 -0.15238103 0.014235218
000320 3e bf 79 3d 13 dd 12 be 87 4b 95 3e 73 45 eb bd
       0.0609734 -0.14342146 0.29159185 -0.11487856
000330 b5 26 ef bd 35 f0 81 3e 49 58 46 3e 07 88 35 bf
       -0.11677305 0.25378576 0.19369616 -0.70910686
000340 94 37 75 be db 41 89 be d4 ea 92 3d a8 c1 ae bd
       -0.23946983 -0.26808056 0.07173696 -0.08533031
000350 5e 0d e2 bd c6 31 ac 3e 4e 5d 31 be 75 4b eb 3b
       -0.11037706 0.33631724 -0.17320749 0.007180626
000360 ba 41 73 bd 50 fb 93 be df 95 a6 3e 10 2f c1 bd
       -0.059388854 -0.28902674 0.32536218 -0.094328046
000370 f8 d5 47 bd 28 d2 9d be a4 b5 b5 3e 3d 57 03 be
       -0.04878804 -0.308244 0.35490143 -0.12826248
000380 c7 8d 13 3e 9b 7d a3 be 1c 3e ae be 7a 24 da 3b
       0.14409553 -0.31931767 -0.3403176 0.0066571804
000390 3e 59 46 3d c5 8d ac 3e d7 63 3c 3e cf 2a 76 be
       0.04842495 0.33701912 0.18397461 -0.24039768
0003a0 63 91 cf 3e 89 8a 7b bd f8 47 fc be 3f 58 0e 3e
       0.4054061 -0.061411414 -0.49273658 0.1390085
0003b0 e8 d5 71 be c3 58 f6 3e 68 20 01 bd 03 b1 e4 3e
       -0.23616755 0.48114595 -0.031525046 0.446663
0003c0 2f 0d 81 3e 26 f0 a9 3e e5 9d 00 be c6 28 b4 bd
       0.2520537 0.3319103 -0.12560232 -0.087968394
0003d0 43 8c 64 3e b1 45 28 bf 25 98 a0 3e 49 e2 2b be
       0.2231913 -0.6573134 0.31366077 -0.1678554
0003e0 7c 8c 3f bf e6 f8 d2 bd a1 32 b3 be 83 d1 e4 be
       -0.7482374 -0.1030138 -0.34999564 -0.44691095
0003f0 99 20 a9 3e 63 6a be be 08 f2 7d be 06 a1 b4 be
       0.33032683 -0.37190542 -0.24799359 -0.352791

mlp2.2.bias f4 [50]
000000 8b b9 95 bf d0 7e 41 bf c4 57 1d bd 79 52 5e bf
       -1.1697248 -0.75584126 -0.038413778 -0.86844593
000010 91 6e 49 3b 24 9f 7f be 29 c2 eb 3d 98 23 77 bf
       0.0030736069 -0.24963051 0.115116425 -0.96538687
000020 f2 37 1a 3f 67 b0 de 3e 2d e4 49 3c d4 5c c1 3e
       0.60241616 0.4349396 0.012322468 0.37766135
000030 4c 1f 49 3f bb 4d 0f 3f d8 db ba bf 88 ed 31 bf
       0.7856338 0.5597798 -1.4598341 -0.6950307
000040 7a f2 d2 3f 20 67 7c 3f 6e c5 65 be 55 39 db 3e
       1.6480248 0.98594856 -0.22438595 0.42817178
000050 e0 9b 9e be c0 b6 e3 be a0 f7 93 bf 40 2a 0c be
       -0.30978298 -0.44475365 -1.1559944 -0.13687992
000060 08 41 3b bf 84 9a ab 3f 4b d4 b8 3e 60 0b a2 3e
       -0.73146105 1.340653 0.36099467 0.31649303
000070 fa 1c 68 3f 9e 05 be bf e3 8b ee be 1d 5e c7 be
       0.90669215 -1.4845464 -0.465911 -0.3893899
000080 e1 d1 22 3f 7c 37 cf be a4 df 41 3f e5 f9 f8 be
       0.636015 -0.4047202 0.75731874 -0.48628154
000090 c5 f9 a7 3f e8 bc 8f bf 70 f4 1b 3f d1 83 37 bf
       1.3123099 -1.1229525 0.6091986 -0.7168551
0000a0 55 87 99 be c5 e8 82 bd bd d7 14 3f b9 ab 94 3f
       -0.29986063 -0.063920535 0.5814169 1.1614906
0000b0 24 05 7a bf cd 36 03 3e 5a 74 fd 3e b3 7f d1 be
       -0.97664094 0.12813874 0.49502832 -0.4091774
0000c0 9e 14 95 bc 26 0c ed be
       -0.018198308 -0.4629833

attention.0.weight f4 [100, 100]
000000 9d 3f e1 bd 18 dd 50 bd 9e b1 f8 be 5e 97 72 be
       -0.109984614 -0.0509921 -0.4857301 -0.23690554
000010 d2 9d b0 bd ec 0d 38 3c 8c f6 3d 3d 4c a2 47 be
       -0.08623852 0.011233788 0.046377704 -0.19495505
000020 4c 3c 55 be c4 4c fc bc f8 30 cf 3d ea 94 ed bd
       -0.20823783 -0.030798323 0.10116762 -0.11600669
000030 62 f3 23 be 18 f2 1a 3e 21 ad b3 bd b0 cd f8 be
       -0.16010812 0.15131414 -0.08773256 -0.48594427
000040 43 ac a6 bd bc d9 0d 3e 68 30 f1 3c ab 9b bd bd
       -0.08138325 0.1385259 0.029442027 -0.09258207
000050 62 73 28 be 3d 8a c3 3d 5c bc 07 3e 93 a2 79 3e
       -0.16450265 0.09547851 0.13255447 0.24378423
000060 54 cb 00 3d 55 93 37 bd 1f 64 5f bd f3 2a 2a be
       0.03144391 -0.04481824 -0.054538842 -0.16617946
000070 e8 3b 17 bd cd f6 c1 3d 26 56 2d bd bd df 69 be
       -0.036922365 0.09470902 -0.042318486 -0.22839256
000080 ee 7e d0 be 63 6d 29 be 1b d6 06 be 00 e6 9e be
       -0.4072184 -0.16545634 -0.13167612 -0.3103485
000090 f0 4c 52 3c 54 e6 9d 3d 86 f5 64 bd 2e 88 38 bd
       0.012835726 0.07709947 -0.055898212 -0.045051746
0000a0 d4 de 01 3e 23 24 26 bc 7a 14 6c 3d b8 8b 49 3c
       0.12682658 -0.010140452 0.057636715 0.012301378
0000b0 fe d1 0c 3e d0 38 c9 bd 1e 18 f3 bc 25 69 85 3e
       0.1375198 -0.09825289 -0.029674586 0.2605678
0000c0 03 30 82 bd 79 cc ec bd d0 aa a1 3d 87 c4 af be
       -0.06356814 -0.115624376 0.07893908 -0.34329626
0000d0 72 53 98 bd 26 96 5d bd 56 e7 68 be 6c 61 bd 3e
       -0.07437791 -0.05409827 -0.22744498 0.3698839
0000e0 51 76 91 3d 27 ca d7 bd e1 9a 1b be c0 10 86 be
       0.07102645 -0.105366044 -0.151958 -0.26184654
0000f0 de 4a 4c 3e be 05 d6 bd a8 c3 51 3e 75 0c 9f 3d
       0.19950435 -0.10450314 0.20484793 0.07766048
000100 de 9a 71 be 92 f4 b7 3d 8b 93 3d 3d 75 6c 34 bd
       -0.23594233 0.08982195 0.046283286 -0.044048745
000110 c8 f2 fe bd 01 7e 6a 3d 75 f0 01 be 71 80 9c 3e
       -0.124486506 0.057249073 -0.12689383 0.30566743
000120 15 74 29 be 6b 45 0e 3e 1f 11 df 3d bf 64 dc 3d
       -0.16548188 0.13893668 0.108919375 0.10761403
000130 65 c8 34 be b8 5b 0f bd b2 4c ba be da 8b 9d bd
       -0.1765457 -0.03499958 -0.3638664 -0.0769269
000140 e6 70 69 be 95 10 59 bd 2f 1e ff bd 3f d2 75 bd
       -0.22796974 -0.05299433 -0.12456929 -0.06001496
000150 c9 22 e1 bd 30 cd 98 3e c1 37 f7 3c fd a3 b5 bd
       -0.10992963 0.29844046 0.030177953 -0.08869169
000160 61 76 92 be 26 32 f5 3b 5f 03 33 3e ae 29 e9 3c
       -0.2860594 0.007482785 0.17481755 0.028462257
000170 b7 8d 48 3e db ba 33 be 5a e9 b6 be 0f f7 9a be
       0.1958531 -0.17551748 -0.35724908 -0.30266616
000180 94 e3 9b 3e a8 7e 27 be b5 1a 51 bc 6f 5a a2 bd
       0.30447066 -0.1635691 -0.012762715 -0.07927405
000190 f5 9f a3 be 33 16 c2 be 5b b9 b2 3e 74 7b 26 3b
       -0.31957975 -0.37907562 0.3490704 0.0025403174
0001a0 a4 c4 fc bd 9e 01 3f be 2c 1b 37 3e d3 0a 46 3e
       -0.12342194 -0.1865296 0.17881459 0.19340067
0001b0 ab 2c 75 3e 35 36 94 be bd 75 06 3e 70 23 28 be
       0.2394282 -0.28947607 0.13130851 -0.16419768
0001c0 e3 51 09 3d 24 81 71 be 90 8a 1e bb fa 4e ba 3d
       0.03352536 -0.2358442 -0.0024191476 0.09097095
0001d0 52 d7 1f be 3c b2 ff bd 54 dd 4b 3d 72 2a 6a 3e
       -0.15609482 -0.124851674 0.04977162 0.22867754
0001e0 16 fa b5 be 7b d9 77 3d c5 50 b4 3d ef 02 ab be
       -0.35542363 0.06051014 0.08804468 -0.33400676
0001f0 76 d1 f7 3e 7c 4d 1c bf 06 63 b3 bd 8f 0e 22 3e
       0.48401994 -0.6105573 -0.087591216 0.15825866
000200 02 13 cb bd 5f 26 79 be 63 48 55 be 48 5f b1 be
       -0.09915735 -0.24331044 -0.20828395 -0.34643006
000210 24 08 1a 3e 36 fe 73 3e 14 bc c1 bd de fc 63 be
       0.15042168 0.23827443 -0.09459701 -0.2226443
000220 51 9c b2 3e 5e f1 bf 3d eb ab 7b be 22 6b bf bd
       0.34884885 0.09372209 -0.245773 -0.09346606
000230 6f 07 c3 3e a7 b6 2d be 78 59 c2 3e 18 a0 2a be
       0.3809161 -0.16964208 0.37958884 -0.16662633
000240 7d 63 2a be 2d 51 44 3e 56 4e d5 3b a3 5a 1a bd
       -0.16639514 0.19171591 0.0065095825 -0.037684094
000250 c6 a8 fe bd 20 84 69 be 65 43 8a 3e 5b 61 3c be
       -0.12434535 -0.22804308 0.27004543 -0.18396513
000260 a7 14 40 be 44 bc 3b be 31 19 da 3e f5 fd 5e be
       -0.18757878 -0.18333536 0.42597345 -0.21776564
000270 4e 4f 24 bd 64 a6 6f b9 d1 64 38 3e c9 6a e8 3e
       -0.040114693 -0.00022854802 0.18007208 0.4539397
000280 6c 92 0e be 92 c5 90 3e e7 9b c1 be 07 42 dd bd
       -0.13923043 0.28275734 -0.37814257 -0.10803609
000290 d9 96 ab be fe 55 d4 be c7 4b 9e bd db 65 e5 be
       -0.33513525 -0.41471857 -0.07729297 -0.44804272
0002a0 3c de 62 3e d8 5e ca 3c 9c eb d6 bd 3f 9f 06 be
       0.22155088 0.024703428 -0.10494158 -0.13146685
0002b0 70 b0 f3 3d d7 62 81 bd 33 5b 5d be 52 7b 5b be
       0.11898887 -0.0631768 -0.21616821 -0.21433762
0002c0 0d 3f 8e 3c 45 7e 46 bc f3 72 c3 3d d0 b0 11 be
       0.01736405 -0.012115066 0.09543409 -0.14227605
0002d0 2e 98 c5 3d f2 5f 6d 3e 3c be 5c be a7 fa 25 3e
       0.096481666 0.23181131 -0.21556944 0.16208898
0002e0 15 47 e0 bc c9 fe b6 be ae 1c 40 3d 77 50 9b 3e
       -0.027377645 -0.3574126 0.04690235 0.30334827
0002f0 1c 03 4a 3e 96 a7 25 bd 76 c5 7a bd 36 d3 8b bd
       0.19727749 -0.040443026 -0.06122347 -0.06827395
000300 fa 8d 0e be 62 1e 5a be 4c 0a 66 bc e3 19 34 bd
       -0.13921347 -0.21300653 -0.014040541 -0.04397
000310 d9 95 43 bd 6e 57 82 3e e5 9c 84 3c 23 c5 81 3b
       -0.047750328 0.2545733 0.016188094 0.003960268
000320 e4 f5 93 bd 4b ba 47 3c 21 c7 08 3d 22 e7 6e 3d
       -0.07224634 0.012190412 0.03339303 0.058325894
000330 53 5e 8a bd e1 ca ff bd dd 48 e1 bd 05 d1 27 be
       -0.06756272 -0.12489868 -0.11000226 -0.16388328
000340 fd 50 93 be d2 05 3e 3e 2f d1 b9 3d f1 58 4a bc
       -0.28772727 0.18556908 0.09073102 -0.012350307
000350 ca 41 29 bd bb b9 02 be 38 b0 56 bd 4d 6b c8 be
       -0.041322507 -0.12766163 -0.05241415 -0.39144364
000360 ae 14 34 be ee 0b cf bd bb 77 f7 bd a8 32 fc bc
       -0.17586014 -0.10109697 -0.12083384 -0.030785874
000370 55 4d 08 be 7a b3 1d 3d 8d f4 ae bd 0f 39 16 be
       -0.1331075 0.03850124 -0.08542738 -0.14670204
000380 5e 3e 65 bd 4e 9c 09 be 0f c2 19 bc 5d 47 d4 bd
       -0.05596768 -0.13438532 -0.009384646 -0.10365174
000390 e8 15 72 3d 02 75 03 3e d2 69 0e bd c6 8d a1 be
       0.059102923 0.12837604 -0.034768887 -0.31553477
0003a0 e0 09 fc bd 7d fe 89 bd 65 3c f2 bd 65 ed 0a 3c
       -0.12306571 -0.06737993 -0.118279256 0.008479451
0003b0 20 b7 31 be 23 5b ed 3d 39 39 98 bd db c4 89 be
       -0.17355013 0.115896486 -0.07432789 -0.26908
0003c0 11 e2 b5 bd 24 f9 0e 3e b7 ab 3c be ee d5 08 3e
       -0.08881009 0.13962227 -0.18424879 0.13362858
0003d0 03 f0 c0 3d 77 b6 74 bc 7c 6b ac 3d da 70 b1 be
       0.094207786 -0.014936081 0.084189385 -0.3465641
0003e0 f8 e6 75 3c f4 16 b4 bd 3b 59 8b bd 07 2c 5c 3e
       0.0150086805 -0.087934405 -0.06804129 0.2150117
0003f0 a1 7d 2c 3e 98 4d e1 bd 92 81 b6 3d a6 95 1a 3a
       0.16844799 -0.11001128 0.08911432 0.0005896933

attention.0.bias f4 [100]
000000 85 a7 ee be e6 7f f9 bf 30 7e cc be b6 90 b9 3e
       -0.46612182 -1.9492157 -0.39940023 0.36243218
000010 c1 22 0c bf 50 42 37 3d 51 4b ec 3d 83 26 84 3d
       -0.5474053 0.044740975 0.11537803 0.06452658
000020 9d 4e 16 be a4 53 e5 bf 37 a9 5c bf cc a3 c6 bf
       -0.14678426 -1.791615 -0.861957 -1.5518737
000030 74 00 0f be 37 e9 c9 be fa b3 b9 bc 00 6d c7 be
       -0.13965017 -0.3943574 -0.022668827 -0.38950348
000040 c2 11 c6 bc 62 2c 9f bd fc ed 54 be 19 e9 34 be
       -0.02417839 -0.07772137 -0.20793909 -0.17667045
000050 f5 34 cf be 1d a1 be bd a5 6b 13 3e 75 59 45 bf
       -0.4047009 -0.09308074 0.14396532 -0.77089626
000060 d2 f1 21 be 87 ed bd bc 7b b4 bb be 41 86 f7 3d
       -0.15814903 -0.02318455 -0.36661133 0.12086154
000070 c1 35 b5 3d 72 2f 9e be 12 54 89 bd e3 65 a6 3d
       0.08848143 -0.30895573 -0.06705488 0.08124902
000080 47 e9 d3 be ab 83 0d bf 2e 4c fd 3d 9a ed b4 be
       -0.41388914 -0.55279034 0.12368046 -0.35337526
000090 a5 81 00 bf 49 94 4a bf 01 71 81 be 47 fd 9e be
       -0.5019782 -0.79132515 -0.25281528 -0.3105261
0000a0 bd e5 d9 be c1 03 a1 be 5b 5e a2 be 8e 8f ca bd
       -0.4255809 -0.31448177 -0.31712613 -0.09890662
0000b0 eb 27 53 be f8 ea b6 be 47 31 e9 3c 9b cc c6 be
       -0.20620696 -0.35726142 0.02846588 -0.38827977
0000c0 1e 4f 3d bd e1 ab cc bc 11 92 b1 be a7 2b ce be
       -0.04621803 -0.024984302 -0.34681752 -0.4026768
0000d0 38 9e 50 be bf 17 66 bf 12 5b 24 bf 03 6a 67 bf
       -0.20372856 -0.89879984 -0.6420146 -0.90396136
0000e0 5c 50 55 be 28 74 82 3e bc 88 07 be 3d ba 1e bf
       -0.20831436 0.25479245 -0.13235754 -0.6200293
0000f0 e5 51 a9 bc 0c a4 98 3d 56 65 3a bf 14 b3 fc be
       -0.020668933 0.074531645 -0.72810876 -0.49355376
000100 45 f8 8d be 5d 16 9d be 7e db 14 3e 5c 44 47 be
       -0.27728477 -0.30681124 0.14536855 -0.19459671
000110 0c b7 fe be 24 76 2b bf d7 9b 27 bf 94 0e a0 be
       -0.4974903 -0.66977143 -0.6547217 -0.31261122
000120 1f e5 0d be dd a1 6d 3d 23 a7 92 bd 84 00 3e bf
       -0.13856934 0.058015693 -0.07160785 -0.74219537
000130 60 39 8b bf 7e c0 5b be 12 e9 f2 3d 76 3a c6 be
       -1.0876884 -0.21460149 0.11860861 -0.38716477
000140 98 bd 85 3b 06 78 84 3e f0 96 95 be d9 5e be 3e
       0.004081439 0.2587282 -0.2921672 0.37181738
000150 c3 d7 dd be 8a b5 7f be 86 8d c3 be 33 7a 8b be
       -0.43328676 -0.24971595 -0.3819391 -0.27241668
000160 b6 dc 27 bf 90 68 a7 3c 72 4f fa bd 19 37 33 be
       -0.65571153 0.020435601 -0.12222184 -0.17501487
000170 cf f5 10 3d 7e e1 0c bf b4 03 39 bf 99 fb d3 be
       0.03539067 -0.55031574 -0.72271276 -0.4140289
000180 0b cd c6 be e8 cc 20 bf 88 1d 91 3d 54 3b 8a bf
       -0.3882831 -0.6281266 0.07085711 -1.0799356
