sarl_star_ros/CrowdNav-nowall/crowd_nav/data/sub/fail/output_11_f3/il_model.pth (torch_old, 349196 bytes, 20 tensors)

mlp1.0.weight f4 [150, 13]
-0.23999037 -0.049150147 0.033093654 -0.2656875 -0.06068644 1.243655 0.16232394 -0.5008499
-0.36455128 0.44242108 -0.11424886 0.2528618 0.11367263 -0.021936683 0.13420159 -0.19727705
-0.0316779 0.28667167 -0.5743207 0.032874383 -0.5999019 -0.2759266 0.25642714 -0.10999313
-0.28994367 -0.18738145 -0.06849663 -0.14389454 -0.06628225 0.17661169 -0.03268134 0.114435636
-0.34389833 -0.12978409 0.06373175 -0.09229788 -0.052993413 -0.011317814 -0.011463402 -0.35624197
0.16791742 0.20922448 0.23883775 0.48111832 -0.37384325 0.23787877 -0.75361925 -0.77785283
0.75409746 -0.18220004 -0.5843011 0.28572014 -0.2391245 0.26703426 0.49509552 0.16579364
0.04855861 -0.13393687 -0.23823552 0.2032769 0.49759564 -0.20813462 -0.03186136 0.058110934
0.15245445 0.65785456 -0.29091653 -1.0194427 -0.08605482 -0.33559477 -2.0231907 -0.054481093
0.22627686 -1.9463668 1.2527305 -0.13214509 -0.8139054 -0.3265729 -0.15318546 -0.11970322
-0.1605485 -0.13348472 -0.095692456 0.22253045 0.05512971 -0.088455625 0.2440829 0.05056168
0.12589642 -0.05512615 -0.0653245 -0.06294283 -0.24999835 -0.26078466 -0.07518476 0.21747306
-0.20396498 0.02594623 0.0594005 -0.032075197 0.124963105 -0.08889325 -0.20637307 -0.22206157
-0.44885427 0.2670583 -0.46368656 0.17818029 0.5503211 0.2122267 -0.20495488 -0.9294374
0.44095188 -0.61557615 0.22514062 0.37201315 -0.21581838 -0.14170177 0.16944274 0.022753268
-0.14833237 -0.06918821 -0.10439834 -0.097415835 0.002947092 -0.029868156 0.07036582 0.23662701
-0.2443358 -0.004736632 -0.02527891 0.69458526 -0.44152936 0.18096551 -0.10499407 0.026291858
-0.69918835 0.82692945 0.5265054 -0.11537462 0.17700273 -0.6725267 0.37931538 0.05077127
-0.4073571 0.77149034 -0.109848924 0.29735693 -0.32544798 -0.9015861 0.9405298 -0.83573896
0.48328668 -0.14956492 0.5453738 -0.48215973 -0.1485829 0.090338185 0.12728731 -0.24470016
-0.05658123 -0.0865023 -0.023578783 -0.14230567 0.197284 0.00437034 -0.2050212 -0.095356
0.157273 0.34381256 0.70955193 0.2181116 0.01862812 -0.47302073 -0.25480852 -2.0471914
-0.6197879 -0.5553614 0.024412232 0.3161944 -1.6785479 0.2788042 0.27811918 -0.3300039
0.6141936 -0.078950845 0.01937058 0.7277654 -0.5156545 -0.62203 -0.6494325 0.30464163
-0.27590597 -0.25142455 -0.1601679 -0.9901098 0.014277435 -1.1353433 -0.0039281556 -0.7214394
0.2573855 0.31511825 -0.23814355 -0.26400024 -0.11256401 0.23787093 0.89819247 -0.19859582
0.38718078 0.096818484 0.751796 0.1164072 0.012468428 1.1331288 -0.9392845 1.0972728
-1.1009103 1.1091897 0.084531374 -0.31409928 -0.17937458 -0.11735308 0.030675802 0.29652655
-0.18347873 0.18874967 -0.08830578 -0.10022205 0.009679838 -0.13332845 -0.1641215 0.23476954
-0.17494252 -0.041597735 -0.1905998 0.30745593 0.016044805 -0.07111058 0.57739633 -0.16021876
-1.1118828 0.9481161 0.56012326 0.005111886 0.079120785 -0.49656054 0.20504059 0.029553518
-0.099920236 -0.012939332 0.087908015 0.31399104 -0.2920034 -0.5920394 0.2730899 0.7815014
00000000: 09c0 75be aa51 49bd 368d 073d 3108 88be
00000010: 5892 78bd 1630 9f3f 3f38 263e b337 00bf
00000020: 77a6 babe 0485 e23e 4efb e9bd 1a77 813e
00000030: 32cd e83d 8fb4 b3bc 246c 093e ff02 4abe
00000040: b0c0 01bd a1c6 923e ae06 13bf 4aa7 063d
00000050: 2c93 19bf 4046 8dbe 6b4a 833e 1444 e1bd
00000060: 7f73 94be ece0 3fbe f647 8cbd 1759 13be
00000070: fdbe 87bd b2d9 343e dedc 05bd 3b5d ea3d
00000080: 7113 b0be 1fe6 04be cb85 823d ac06 bdbd
00000090: 9f0f 59bd 5a6e 39bc fed0 3bbc 5965 b6be
000000a0: 8bf2 2b3e f13e 563e e291 743e 2455 f63e
000000b0: 6268 bfbe 7e96 733e 31ed 40bf 5d21 47bf
000000c0: 880c 413f a692 3abe c294 15bf e949 923e
000000d0: 0edd 74be b7b8 883e 297d fd3e cfc5 293e
000000e0: 65e5 463d bf26 09be 03f4 73be d227 503e
000000f0: dbc4 fe3e 3e21 55be 0f81 02bd bb05 6e3d
00000100: 051d 1c3e 2869 283f 03f3 94be 197d 82bf
00000110: 823d b0bd 14d3 abbe f57b 01c0 9127 5fbd
00000120: 1fb5 673e 8c22 f9bf 7959 a03f 0b51 07be
00000130: 1b5c 50bf 9034 a7be a6dc 1cbe f626 f5bd
00000140: d366 24be 38b0 08be 68fa c3bd 06df 633e
00000150: b1cf 613d 3928 b5bd def0 793e c419 4f3d
00000160: feea 003e f5cb 61bd dac8 85bd 2ce8 80bd
00000170: 91ff 7fbe 9185 85be 78fa 99bd 42b1 5e3e
00000180: 32dc 50be 308d d43c f04d 733d 4861 03bd
00000190: a8ec ff3d aa0d b6bd 7653 53be 1c64 63be
000001a0: 3ad0 e5be debb 883e 5368 edbe e574 363e
000001b0: d8e1 0c3f f551 593e b1df 51be 9cef 6dbf
000001c0: 72c4 e13e 6696 1dbf 438b 663e 8278 be3e
000001d0: 7eff 5cbe 451a 11be 6682 2d3e 1065 ba3c
000001e0: 71e4 17be 8cb2 8dbd ccce d5bd f481 c7bd
000001f0: 0024 413b 10ae f4bc f41b 903d 5a4e 723e
00000200: 2a33 7abe c035 9bbb b715 cfbc 57d0 313f
00000210: 2310 e2be 064f 393e 2207 d7bd 0662 d73c
00000220: 02fe 32bf a6b1 533f 0fc9 063f 8749 ecbd
00000230: 3440 353e b62a 2cbf a035 c23e 89f5 4f3d
00000240: 1c91 d0be 6480 453f 79f8 e0bd 2b3f 983e
00000250: 1ea1 a6be 59ce 66bf 90c6 703f fdf2 55bf
00000260: 5a71 f73e 8c27 19be 9e9d 0b3f a4dd f6be
00000270: 1e26 18be 3a03 b93d 9b57 023e ae92 7abe
00000280: b8c1 67bd 1e28 b1bd 4b28 c1bc 94b8 11be
00000290: d104 4a3e 1235 8f3b 14f1 51be 024a c3bd
000002a0: 2c0c 213e 3308 b03e 32a5 353f a658 5f3e
000002b0: 009a 983c c62f f2be 4376 82be 2f05 03c0
000002c0: 6baa 1ebf 2a2c 0ebf 29fc c73c 3be4 a13e
000002d0: a8da d6bf 6dbf 8e3e a365 8e3e 45f6 a8be
000002e0: cb3b 1d3f fbb0 a1bd 0daf 9e3c d54e 3a3f
000002f0: ef01 04bf 5c3d 1fbf 3541 26bf fdf9 9b3e
00000300: 8c43 8dbe b8ba 80be 0e03 24be d677 7dbf
00000310: e7eb 693c ee52 91bf c2b7 80bb 41b0 38bf
00000320: 08c8 833e 2e57 a13e e7db 73be 0a2b 87be
00000330: f687 e6bd 7094 733e f1ef 653f b45c 4bbe
00000340: 8f3c c63e c548 c63d b475 403f e666 ee3d
00000350: 6148 4c3c 5d0a 913f f374 70bf 6f73 8c3f
00000360: a1ea 8cbf eef9 8d3f c91e ad3d 9fd1 a0be
00000370: f8ad 37be d056 f0bd d24b fb3c 54d2 973e
00000380: d9e1 3bbe 9847 413e a9d9 b4bd 3841 cdbd
00000390: 2f98 1e3c 4187 08be 770f 28be 6d67 703e
000003a0: 2224 33be 6362 2abd 982c 43be dd6a 9d3e
000003b0: 6570 833c 6ca2 91bd 3fd0 133f 6310 24be
000003c0: 2d52 8ebf bdb7 723f 3d64 0f3f 9c81 a73b
000003d0: 140a a23d 2f3d febe 29f6 513e 381a f23c
000003e0: fba2 ccbd 7eff 53bc 1e09 b43d 6fc3 a03e
000003f0: 7881 95be e58f 17bf 70d2 8b3e 7a10 483f

mlp1.0.bias f4 [150]
0.10965618 -0.017804692 -0.024124045 0.40376997 -0.029545922 -0.33061692 -0.11175272 -0.14029202
0.15566275 -0.25946102 0.33528897 -0.38329527 0.0019018338 0.7175618 0.16737284 0.28103268
-0.23001587 -0.12386183 0.32433915 -0.10846437 -0.07960642 0.1582747 0.17901231 0.024863416
0.4382095 -0.51769745 -0.67212534 0.7634336 0.1340828 0.2275087 0.38180348 -0.22018728
-0.2183306 0.50235885 -0.43540034 0.21523333 -0.40863046 -0.12422238 -0.17235492 0.35699192
0.5052266 -0.18587175 0.24723442 0.09493307 -0.44983697 0.23859973 -0.18122056 -0.11117457
0.040309314 0.5817498 -1.5199935 -1.0148585 -0.012231599 -0.32967833 0.38286343 -0.034031313
-0.38217223 -0.412615 -0.9295173 -0.12282928 0.30786678 -0.46215972 -0.40505925 0.048232537
-0.022561474 -0.8748977 -0.23661344 -0.04509716 -0.027928606 -0.1419401 0.37540513 0.057169273
-0.059810333 0.4491644 -1.469813 -0.16855383 0.03834605 0.26455203 0.6088833 -0.26103735
0.4422676 0.17082086 0.21916988 -0.19578335 -0.3000697 -0.17913195 0.7903628 0.0862131
-0.27112198 -0.12167715 0.23183943 -0.13733461 -0.46625468 0.48223808 -0.9107669 -0.7982626
0.16251971 0.43672463 0.28255945 -0.25000238 -0.046756834 -0.04529286 -0.68633324 -0.43375835
0.22096577 0.028815888 0.29716358 0.0861961 -0.13930885 0.22344528 0.034197092 0.22320046
0.14815478 -0.23923455 0.2819858 -0.48117617 0.10789074 0.007949866 0.7417266 0.07375297
-0.008625732 0.010613891 -0.16247395 0.31701243 -0.015999107 0.32472566 0.102686554 0.024941955
0.0414652 -1.1467584 -0.0014863902 0.04564554 -0.18339379 0.19063734 0.2785163 0.21955405
-0.6643898 0.01212513 0.029098215 -0.2986327 -0.1501856 -0.23303446 -0.21968013 -0.29781502
-0.48253414 -0.029560013 0.22486573 -0.53833264 -0.74034643 -0.09932322
00000000: 6b93 e03d 25db 91bc ca9f c5bc f0ba ce3e
00000010: 4a0a f2bc 9f46 a9be 9cde e4bd b6a8 0fbe
00000020: 0e66 1f3e 13d8 84be ffaa ab3e 473f c4be
00000030: f446 f93a 21b2 373f c963 2b3e 84e3 8f3e
00000040: 4889 6bbe 45ab fdbd c80f a63e 9122 debd
00000050: b108 a3bd c312 223e 014f 373e 5dae cb3c
00000060: ff5c e03e d287 04bf 6810 2cbf 6270 433f
00000070: 004d 093e 0af8 683e bf7b c33e c678 61be
00000080: 0f92 5fbe 979a 003f cbec debe 2066 5c3e
00000090: 0338 d1be 4e68 febd cf7d 30be a5c7 b63e
000000a0: 8856 013f 2a55 3ebe 052b 7d3e 456c c23d
000000b0: 0851 e6be 7d53 743e e291 39be 7eaf e3bd
000000c0: 611b 253d 8eed 143f 268f c2bf e2e6 81bf
000000d0: 0b67 48bc 99cb a8be ad06 c43e 6b64 0bbd
000000e0: 14ac c3be 4642 d3be d9f4 6dbf eb8d fbbd
000000f0: b7a0 9d3e 33a0 ecbe ed63 cfbe 7b8f 453d
00000100: d7d2 b8bc 4cf9 5fbf cb4a 72be cdb7 38bd
00000110: 88ca e4bc bf58 11be 1a35 c03e 542a 6a3d
00000120: aefb 74bd e0f8 e53e d522 bcbf 6099 2cbe
00000130: bf10 1d3d 5d73 873e c7df 1b3f b0a6 85be
00000140: e670 e23e aaeb 2e3e 126e 603e 6e7b 48be
00000150: bca2 99be 5e6e 37be 3755 4a3f 7e90 b03d
00000160: 80d0 8abe df31 f9bd 5167 6d3e 72a1 0cbe
00000170: efb8 eebe e9e7 f63e 0528 69bf f05a 4cbf
00000180: 916b 263e 5f9a df3e a2ab 903e 5000 80be
00000190: 1884 3fbd 0285 39bd 89b3 2fbf 9315 debe
000001a0: da44 623e 4c0f ec3c d325 983e 9587 b03d
000001b0: fba6 0ebe d7ce 643e 4012 0c3d a98e 643e
000001c0: e3b5 173e e7f9 74be 7160 903e b95c f6be
000001d0: d2f5 dc3d 2840 023c cbe1 3d3f cc0b 973d
000001e0: f152 0dbc e3e5 2d3c 925f 26be 744f a23e
000001f0: 8f10 83bc 7142 a63e 544d d23d 1253 cc3c
00000200: 6ad7 293d fbc8 92bf fbd2 c2ba d1f6 3a3d
00000210: 95cb 3bbe 6f36 433e b099 8e3e c7d2 603e
00000220: 7315 2abf 7ba8 463c 615f ee3c 63e6 98be
00000230: 41ca 19be 96a0 6ebe d4f3 60be 367b 98be
00000240: b70e f7be d727 f2bc 3443 663e 2bd0 09bf
00000250: 5887 3dbf f969 cbbd

mlp1.2.weight f4 [100, 150]
0.09033779 -0.13122009 0.03351746 -0.0275984 0.06127296 -0.09260936 0.07656769 -0.04463059
-0.5297088 -0.053095743 0.20540218 -0.50985414 -0.08357584 -0.21399179 -0.3414403 0.36013967
-0.67629755 0.008389603 -0.0042058625 0.06329994 -0.004044206 0.2916281 0.043910407 -0.0473279
-0.043609515 -0.24188288 0.28827578 -0.089321345 -0.04484546 0.35988176 -0.35480678 -0.10521822
0.19325054 0.42286235 0.13380155 -0.102224275 0.04247732 0.37573797 -0.031309195 -0.28926656
-0.56605154 -0.22534928 0.04261715 0.13600096 0.28936115 0.21920486 -0.06628641 -0.07785505
-0.03691749 -0.024791455 -0.28899702 -0.20062813 -0.2983629 -0.30337772 0.062296957 0.23211417
-0.27890578 -0.24871174 0.17619228 -0.020354642 0.16329652 0.07865916 0.35570404 0.22657244
-0.048616033 0.010289371 0.40343547 -0.2852043 -0.029636454 -0.066096924 -0.20879437 0.20483957
-0.0024181283 -0.18158667 -0.5740734 -0.3414272 -0.23646855 -0.13673663 0.14018297 -0.2593892
0.04035694 -0.12529358 0.040057987 0.30711395 -0.1976617 -0.15288095 -0.14865991 -0.038582373
0.029473469 -0.13865383 -0.069358654 0.037931845 -0.20932889 0.27118102 -0.28445405 -0.7670131
-0.048289735 0.051306404 0.26521197 0.12873806 -0.058263052 -0.012389639 -0.37854758 0.16234231
-0.023729315 -0.55681205 0.3152036 -0.28123832 -0.014578664 -0.059034083 -0.047135632 0.07651529
-0.034668103 -0.27068257 0.28650844 -0.06003766 -0.17365439 -0.11253006 0.33787632 -0.25253016
0.09946263 0.019747242 -0.18419167 0.0860167 -0.0729438 -0.071083255 -0.015103324 -0.039876133
-0.43810186 0.2412186 0.23715964 -0.10242697 -0.421741 0.07094181 -0.34899378 0.2074442
0.28651354 0.05879952 -0.052470755 -0.071729615 -0.07231849 0.07683122 -0.04792567 -0.17036289
0.299482 -0.0074924887 -0.12681489 -0.24944998 -0.24933536 0.035662852 -0.03757652 -0.052226685
0.026513161 0.06229139 -0.022628553 -0.19577312 -0.07468222 -0.036584027 0.13250479 -0.025594614
-0.15565473 0.12732753 -0.05585673 -0.27535647 0.0052593187 0.13661778 0.05245858 -0.011281141
-0.08589809 -0.11474694 -0.03402346 -0.049582485 -0.020794705 -0.0021766403 0.000698664 0.081369326
-0.17898966 0.32163966 -0.1758894 -0.19121495 -0.2568656 0.13473552 -0.01987074 -0.0717918
-0.10802122 0.065335035 -0.015740901 -0.090430945 0.1382016 -0.06477553 -0.064655475 -0.12458825
0.059057172 -0.14774424 0.007440297 -0.11931438 0.03204283 0.037579354 -0.008866137 0.14641255
-0.21899216 -0.100060865 0.055361234 -0.0064124763 0.04246134 -0.15502359 -0.17080903 -0.108815655
-0.16206923 -0.01127709 -0.1642756 -0.16328697 -0.13559711 0.16733111 0.0868955 -0.18947834
-0.083255395 0.010087399 -0.023240376 -0.30543035 -0.0404177 -0.05291266 0.02448908 -0.19068564
-0.036040016 0.00945164 -0.07316735 0.014490485 -0.18447699 0.2016201 -0.13267943 -0.030233625
0.03642963 0.08926017 -0.15673101 -0.29443854 0.11943442 -0.07743817 -0.19376817 -0.0428987
-0.3475214 -0.011247319 -0.043710034 0.19667703 -0.24523152 -0.16259027 0.093112916 0.21496716
-0.13815205 -0.104878455 0.1768976 -0.062158313 0.014906876 -0.14501828 -0.11293204 0.058127657
00000000: 0503 b93d 8f5e 06be 9b49 093d 0a16 e2bc
00000010: 5bf9 7a3d faa9 bdbd 85cf 9c3d 91ce 36bd
00000020: ff9a 07bf ec7a 59bd f354 523e cd85 02bf
00000030: cf29 abbd aa20 5bbe 43d1 aebe 3a64 b83e
00000040: d621 2dbf 8c74 093c 55d1 89bb 66a3 813d
00000050: 4285 84bb 4750 953e 66db 333d e6da 41bd
00000060: e49f 32bd 25b0 77be e298 933e 1cee b6bd
00000070: e0af 37bd 6c42 b83e 3ca9 b5be a67c d7bd
00000080: 78e3 453e 6a81 d83e 4603 093e f65a d1bd
00000090: b3fc 2d3d ba60 c03e 123e 00bd bf1a 94be
000000a0: c1e8 10bf f6c1 66be 528f 2e3d d643 0b3e
000000b0: 2527 943e 3d77 603e 2bc1 87bd 7872 9fbd
000000c0: cb36 17bd 7317 cbbc 6bf7 93be 7671 4dbe
000000d0: 06c3 98be 5354 9bbe 182b 7f3d 56af 6d3e
000000e0: bdcc 8ebe 4aae 7ebe c06b 343e c7be a6bc
000000f0: 3437 273e 0e18 a13d d71e b63e 9b02 683e
00000100: 9b21 47bd c094 283c 188f ce3e 4c06 92be
00000110: 26c8 f2bc d35d 87bd 31ce 55be 77c1 513e
00000120: 7679 1ebb dbf1 39be 79f6 12bf 8ccf aebe
00000130: d024 72be b004 0cbe 208c 0f3e a9ce 84be
00000140: 524d 253d f64c 00be d813 243d 0a3e 9d3e
00000150: d467 4abe d38c 1cbe 4e3a 18be 8d08 1ebd
00000160: 5872 f13c 45fb 0dbe e90b 8ebd 6c5e 1b3d
00000170: 505a 56be 3dd8 8a3e f6a3 91be f85a 44bf
00000180: 75cb 45bd aa26 523d ddc9 873e e9d3 033e
00000190: 3da5 6ebd eafd 4abc fdd0 c1be 103d 263e
000001a0: fb63 c2bc 3c8b 0ebf 5e62 a13e 78fe 8fbe
000001b0: 59db 6ebc b9cd 71bd 4b11 41bd 0cb4 9c3d
000001c0: 2400 0ebd e896 8abe 3cb1 923e 0dea 75bd
000001d0: 75d2 31be 2976 e6bd 20fe ac3e a24b 81be
000001e0: 10b3 cb3d f8c4 a13c be9c 3cbe 8629 b03d
000001f0: 8f63 95bd 1994 91bd ef73 77bc 2855 23bd
00000200: e34e e0be 0202 773e fad9 723e 3bc5 d1bd
00000210: 70ee d7be f149 913d 50af b2be 416c 543e
00000220: e7b1 923e c4d7 703d 93eb 56bd fae6 92bd
00000230: b71b 94bd b059 9d3d b54d 44bd 9c73 2ebe
00000240: b455 993e 8d83 f5bb c3db 01be d16f 7fbe
00000250: c551 7fbe 3613 123d d6e9 19bd a6eb 55bd
00000260: 2132 d93c 4225 7f3d 845f b9bc c078 48be
00000270: fef2 98bd 22d9 15bd 56af 073e ccab d1bc
00000280: f463 1fbe 2662 023e 07ca 64bd 86fb 8cbe
00000290: 5d56 ac3b 88e5 0b3e cfde 563d 89d4 38bc
000002a0: 56eb afbd 7200 ebbd 2f5c 0bbd 0117 4bbd
000002b0: a859 aabc f7a5 0ebb 8c26 373a f6a4 a63d
000002c0: 1149 37be f4ad a43e 5a1c 34be dacd 43be
000002d0: e383 83be 1cf8 093e f6c7 a2bc 9407 93bd
000002e0: 3b3a ddbd 60ce 853d 10f3 80bc dc33 b9bd
000002f0: b884 0d3e 08a9 84bd 176a 84bd 2028 ffbd
00000300: efe5 713d 444a 17be bccd f33b 195b f4bd
00000310: 583f 033d cfec 193d 4643 11bc 2ced 153e
00000320: 7b3f 60be b6ec ccbd 76c2 623d c01f d2bb
00000330: f1eb 2d3d 81be 1ebe 90e8 2ebe beda debd
00000340: 7af5 25be 8bc3 38bc dd37 28be b334 27be
00000350: f8d9 0abe d958 2b3e 45f6 b13d 9c06 42be
00000360: ce81 aabd 9e45 253c 9a62 bebc 5e61 9cbe
00000370: 088d 25bd f2ba 58bd 539d c83c 1943 43be
00000380: b29e 13bd 0ddb 1a3c c3d8 95bd 8069 6d3c
00000390: 89e7 3cbe 8075 4e3e 1edd 07be 82ac f7bc
000003a0: 3c37 153d 09ce b63d 187e 20be a6c0 96be
000003b0: 089a f43d e797 9ebd 2a6b 46be 8cb6 2fbd
000003c0: 53ee b1be ad46 38bc 4b09 33bd b465 493e
000003d0: f91d 7bbe 107e 26be fcb1 be3d 5a20 5c3e
000003e0: bb77 0dbe 84ca d6bd a524 353e b799 7ebd
000003f0: f83b 743c ac7f 14be ea48 e7bd 4417 6e3d

mlp1.2.bias f4 [100]
-0.047307137 -0.097469695 -0.0108121075 -0.05270781 -0.04668761 0.4815469 -0.16073309 -0.04970037
0.058012508 0.23697984 0.025897767 -0.7023092 -0.24633488 -0.51776403 -0.15093143 -0.23892385
-0.2180872 -0.2274583 -0.0611897 -0.878134 0.09342 -0.38783902 -0.076593734 -0.22335057
-0.17086767 -0.09952603 -0.13737245 -0.016886774 -0.258113 0.12328235 -0.31153622 -0.16929345
-0.088557646 0.023841523 -0.02956264 0.04150288 -0.1062641 0.17055045 0.26396146 0.15708713
-0.5633758 -0.67220867 -0.33054096 -0.13269924 -0.08454348 -0.2160776 0.006848314 -0.09271458
-0.1376757 0.17615102 0.039243348 -0.17148282 0.07138191 -0.07555435 -0.30607617 0.046627153
-0.36425322 -0.06881913 0.013618529 -0.27273047 0.014470148 -0.11538381 -0.17481953 0.022808362
0.032338716 -0.5028423 0.0973502 -0.7911627 0.66312945 -0.3333846 -0.20169693 -0.10114593
0.054813933 0.013647275 -0.8030786 0.3195063 -0.22105241 -0.005307473 -0.16071513 -0.11212026
0.44104367 -0.30402285 -0.24186166 -0.3766118 0.39749902 -0.53612316 -0.16768254 -0.5430852
-0.18592215 -0.031074414 -0.05014649 -0.3210082 0.20698242 -0.68266976 -0.030134508 -0.42076713
-0.30642027 -0.043872323 -0.5689176 -0.3615133
00000000: 21c5 41bd 319e c7bd 4425 31bc 25e4 57bd
00000010: 823b 3fbd 518d f63e 3797 24be 9d92 4bbd
00000020: 869e 6d3d d8aa 723e 8e27 d43c 89ca 33bf
00000030: 363f 7cbe 2f8c 04bf c58d 1abe 74a8 74be
00000040: 4052 5fbe d4ea 68be 0da2 7abd 64cd 60bf
00000050: fc52 bf3d d692 c6be 2ddd 9cbd 03b6 64be
00000060: eff7 2ebe 4ed4 cbbd 5dab 0cbe 2256 8abc
00000070: 6327 84be 757b fc3d ad81 9fbe 435b 2dbe
00000080: b65d b5bd 4c4f c33c 592d f2bc edfe 293d
00000090: fea0 d9bd c7a4 2e3e f525 873e 73db 203e
000000a0: 6539 10bf de15 2cbf aa3c a9be 4fe2 07be
000000b0: 2225 adbd 7243 5dbe d267 e03b 24e1 bdbd
000000c0: dcfa 0cbe ef60 343e a2bd 203d 3199 2fbe
000000d0: ae30 923d 3dbc 9abd 04b6 9cbe 1dfc 3e3d
000000e0: 667f babe 0bf1 8cbd 4020 5f3c 54a3 8bbe
000000f0: 3314 6d3c 594e ecbd e403 33be 9ad8 ba3c
00000100: 9a75 043d 46ba 00bf 8b5f c73d a489 4abf
00000110: dac2 293f 63b1 aabe a489 4ebe 9925 cfbd
00000120: 9384 603d d298 5f3c 8f96 4dbf 5496 a33e
00000130: 905b 62be 4fea adbb 8292 24be 4f9f e5bd
00000140: 7ad0 e13e e2a8 9bbe 95aa 77be 43d3 c0be
00000150: fe84 cb3e 5e3f 09bf f9b4 2bbe a207 0bbf
00000160: 6062 3ebe c58f febc 6866 4dbd 305b a4be
00000170: 33f3 533e 72c3 2ebf a5dc f6bc ca6e d7be
00000180: 1ee3 9cbe 77b3 33bd 95a4 11bf 4518 b9be

mlp2.0.weight f4 [100, 100]
-0.44160277 -0.331644 0.28309473 -0.006397698 0.066762365 0.019530954 -0.29750538 0.28322077
-0.022807773 0.04507825 0.09123294 -0.57970035 0.16282445 -0.12332228 -0.5209909 -0.0057900795
-0.2672308 -0.057480607 -0.027022552 -0.35239375 0.02467512 -0.2947331 -0.2303188 -0.21711603
-0.27443886 0.012852335 -0.36414665 -0.18586245 -0.16026655 -0.38170102 -0.056048736 -0.5648132
-0.26445577 0.029956954 0.08945936 0.006404835 0.09253366 0.18983948 0.11422336 0.120635286
-0.13647068 -0.03942242 -0.06681262 0.24530008 -0.07403616 -0.17612584 -0.11233326 0.14762545
-0.025489377 -0.00037226954 -0.011495513 -0.16684125 -0.040206242 0.23817039 0.2569733 0.23421118
-0.35048148 0.031639073 -0.11866937 -0.06432212 0.06523198 0.33413804 0.40532765 0.24616262
-0.026830854 0.109717086 -0.20180516 0.56446576 -0.12589979 0.23296927 0.0027384483 0.25161994
-0.24586026 -0.33705387 -0.91252613 -0.015481104 -0.2255511 0.0040447856 -0.5093698 0.20916411
-0.44160014 -0.024629084 -0.0033745319 0.058262136 -0.5826818 -0.077476375 0.4189647 -0.42933765
-0.08722391 0.3115158 -0.037981775 0.11825826 -0.12593658 -0.48330998 0.036481507 -0.342185
-0.0051639457 -0.36692446 -0.26714042 -0.2932108 0.33276862 0.17142919 0.30475026 -0.08942397
-0.08072082 -0.11103936 0.13016103 0.055434823 -0.11616544 0.039310433 -0.076002344 -0.26695678
-0.18973047 0.047718816 -0.30612278 -0.24939834 -0.13908182 0.019199928 0.020746218 -0.14473616
-0.121207185 0.15745562 -0.1908134 -0.17991184 -0.023516482 -0.0953473 0.15319304 0.03472087
-0.06762956 -0.06601452 0.08255132 -0.16370597 -0.0012455345 -0.06434698 0.072553106 -0.042830613
-0.013624124 0.14991185 -0.009430757 0.0030205671 -0.15836293 0.017702635 -0.20023823 -0.17380893
-0.21317677 -0.2187952 0.05814033 0.09973787 -0.37928534 -0.01435315 -0.22227263 -0.03631731
0.07797221 0.14166278 -0.06156137 0.05132399 -0.44090715 -0.014215103 0.06186999 0.046569824
-0.06301614 0.14031455 -0.10712593 0.04130807 0.07700183 0.107672244 -0.22547999 -0.098097205
0.025757339 -0.10384248 -0.03234653 0.03082053 -0.10241553 0.05387905 -0.1483609 -0.18433149
-0.026073221 0.027504267 -0.01310221 0.0050366917 -0.11803215 0.28748956 0.0951718 0.03517358
0.16284978 0.22569656 -0.20028308 0.018523335 0.047220346 0.064839646 -0.0072705233 0.053721808
-0.12405147 -0.10925619 -0.08692294 -0.09477076 0.1074513 0.19589578 -0.19028898 -0.24201487
-0.29610267 0.024920175 -0.26571694 -0.006729164 -0.117882475 -0.017120868 0.0497067 -0.1366851
-0.4831685 -0.094117716 -0.17474651 0.18171188 -0.13541812 0.26166797 0.04933725 -0.13719594
-0.13748115 -0.19244696 -0.37263703 -0.29312077 0.039816007 -0.23963195 -0.20342666 -0.19502449
-0.10958042 0.006033931 -0.13895954 -0.23147696 -0.23852745 -0.016124094 -0.29567814 -0.32829717
-0.297687 0.023740876 -0.19637059 0.08955749 -0.2436812 0.10095844 -0.35929212 -0.23288175
-0.09150245 0.017573321 -0.40992624 0.32922488 -0.06924746 -0.0030007933 -0.5526243 -0.079158776
0.061775427 0.031183241 0.31571546 0.052781314 -0.1153404 0.14966355 -0.04162424 -0.11918683
00000000: c219 e2be 3ecd a9be cbf1 903e c8a3 d1bb
00000010: b5ba 883d 61ff 9f3c a052 98be 5002 913e
00000020: 5ed7 babc f9a3 383d 56d8 ba3d 3e67 14bf
00000030: 74bb 263e 6490 fcbd a95f 05bf b5ba bdbb
00000040: 7ad2 88be c970 6bbd 665e ddbc f46c b4be
00000050: 7a23 ca3c 42e7 96be b1d8 6bbe aa53 5ebe
00000060: 4083 8cbe 9a92 523c 6e71 babe ba52 3ebe
00000070: ea1c 24be 516e c3be 5c93 65bd 9997 10bf
00000080: bf66 87be 4968 f53c 7836 b73d a6df d13b
00000090: 4a82 bd3d 4865 423e f0ed e93d a20f f73d
000000a0: f8be 0bbe 6779 21bd 0ed5 88bd f22f 7b3e
000000b0: 45a0 97bd 555a 34be fb0e e6bd 202b 173e
000000c0: 19cf d0bc 2c2d c3b9 ad57 3cbc 6fd8 2abe
000000d0: 4daf 24bd f0e2 733e 0192 833e 0ed5 6f3e
000000e0: 4f72 b3be f997 013d ed08 f3bd 51bb 83bd
000000f0: 5898 853d 2414 ab3e 1b87 cf3e 0e12 7c3e
00000100: 61cc dbbc 5ab3 e03d 03a6 4ebe d480 103f
00000110: e0eb 00be 7f8f 6e3e 8a77 333b 54d4 803e
00000120: cbc2 7bbe 5392 acbe 509b 69bf 75a4 7dbc
00000130: def6 66be 1f8a 843b 0f66 02bf 1e2f 563e
00000140: 6a19 e2be efc2 c9bc 4027 5dbb 47a4 6e3d
00000150: a22a 15bf efab 9ebd 8b82 d63e 25d2 dbbe
00000160: 73a2 b2bd 007f 9f3e c792 1bbd 6331 f23d
00000170: 85f5 00be 6874 f7be a26d 153d df32 afbe
00000180: 5136 a9bb 86dd bbbe a1c6 88be ba1f 96be
00000190: a660 aa3e 228b 2f3e 3a08 9c3e ea23 b7bd
000001a0: f550 a5bd 9b68 e3bd ef48 053e a00f 633d
000001b0: 25e8 edbd fa03 213d 1ea7 9bbd 8fae 88be
000001c0: b448 42be ce74 433d 20bc 9cbe 4762 7fbe
000001d0: 776b 0ebe 2b49 9d3c f9f3 a93c b735 14be
000001e0: 793b f8bd 0c3c 213e 9764 43be cf3a 38be
000001f0: a3a5 c0bc 7245 c3bd a3de 1c3e 7937 0e3d
00000200: 5e81 8abd 9f32 87bd ab10 a93d 8aa2 27be
00000210: 3441 a3ba 59c8 83bd b996 943d 276f 2fbd
00000220: b837 5fbc 7e82 193e 7683 1abc b5f4 453b
00000230: e429 22be 1e05 913c 400b 4dbe f8fa 31be
00000240: 034b 5abe d90b 60be 8e24 6e3d 5e43 cc3d
00000250: b031 c2be 7929 6bbc 709b 63be 76c1 14bd
00000260: e5af 9f3d 0c10 113e c627 7cbd 1b39 523d
00000270: 95be e1be 77e6 68bc 636b 7d3d 00c0 3e3d
00000280: 9b0e 81bd 9eae 0f3e d764 dbbd a732 293d
00000290: 23b3 9d3d 4483 dc3d 3ae4 66be 30e7 c8bd
000002a0: 0e01 d33c 5eab d4bd cc7d 04bd 567b fc3c
000002b0: 3cbf d1bd 47b0 5c3d ebeb 17be 65c1 3cbe
000002c0: 8297 d5bc a150 e13c a7aa 56bc d50a a53b
000002d0: d7ba f1bd d531 933e 6fe9 c23d 2c12 103d
000002e0: 18c2 263e 001d 673e 0217 4dbe 40be 973c
000002f0: 1f6a 413d a6ca 843d 923d eebb 660b 5c3d
00000300: b20e febd b6c1 dfbd a804 b2bd 2c17 c2bd
00000310: 6d0f dc3d e798 483e 1ddb 42be bfd2 77be
00000320: c59a 97be 6525 cc3c 0d0c 88be 5280 dcbb
00000330: 5e6c f1bd 1041 8cbc 4199 4b3d 2ef7 0bbe
00000340: dd61 f7be cac0 c0bd c0f0 32be ae12 3a3e
00000350: 0cab 0abe 58f9 853e db15 4a3d 187d 0cbe
00000360: dcc7 0cbe d110 45be 48ca bebe ed13 96be
00000370: 1c16 233d 1462 75be 144f 50be 80b4 47be
00000380: b36b e0bd 48b8 c53b 694b 0ebe 4c08 6dbe
00000390: 8a40 74be ad16 84bc 2063 97be 9116 a8be
000003a0: 6e6a 98be 3a7c c23c 5f15 49be eb69 b73d
000003b0: 9187 79be 4cc3 ce3d 23f5 b7be 8e78 6ebe
000003c0: a365 bbbd edf5 8f3c dae1 d1be 2a90 a83e
000003d0: 9dd1 8dbd f5a8 44bb c978 0dbf ff1d a2bd
000003e0: 3b08 7d3d ff73 ff3c 75a5 a13e 3831 583d
000003f0: 9637 ecbd 6741 193e 2e7e 2abd 3a18 f4bd

mlp2.0.bias f4 [100]
1.2899216 -0.07637112 1.0735562 0.16886574 0.10748844 -0.17022054 -0.8662453 -0.17481288
-0.013156586 -0.36118093 -0.5204462 -0.58416414 -0.3820824 -0.20580055 -0.020208756 -0.19415486
0.093628086 -0.123101585 -0.20421176 1.3405035 -0.23275742 0.1391784 -0.15215346 -0.27826917
0.19124451 -0.2817461 0.2888945 -0.36440018 0.57685316 -0.14657404 -0.7769416 -0.18889014
-0.116733655 0.501469 0.1332178 0.36499837 0.28749084 -0.53365237 -0.03466565 -0.14830732
0.23460916 -0.21781418 -0.4260464 -0.1381037 0.03615622 -0.25526828 0.29897478 1.607573
0.5772289 -0.14961274 0.010765196 -0.74362 0.5948887 2.2357328 -0.009202598 -0.7054069
-0.19275188 0.7975026 -0.093862236 -0.039760135 -0.02131181 -0.8500959 -0.04324514 0.08616052
-0.08406424 -0.017997608 0.48716283 -0.06522238 0.019603634 -0.051044717 -0.13584805 0.3094859
-0.13861473 -0.037777677 -0.1081476 -0.26959613 -0.49287936 -0.462235 -0.21151409 0.043051455
-0.38609412 -0.35798672 -0.1656808 0.016381014 -0.26417872 -0.0816941 0.3317561 1.1447605
0.0333465 0.3568709 -0.17315416 -0.15904957 -0.80996275 0.60801697 -0.4071932 -0.0845799
-0.20101365 0.04743048 0.87941384 -0.7946579
00000000: 271c a53f 7668 9cbd 4a6a 893f 24eb 2c3e
00000010: e622 dc3d 4b4e 2ebe 41c2 5dbf 2602 33be
00000020: b98e 57bc b5ec b8be f63b 05bf c88b 15bf
00000030: 4ea0 c3be 61bd 52be d58c a5bc 88d0 46be
00000040: 15c0 bf3d af1c fcbd e31c 51be 9e95 ab3f
00000050: f657 6ebe c884 0e3e 1ece 1bbe 4c79 8ebe
00000060: 9ad5 433e 0641 90be fbe9 933e a992 babe
00000070: a6ac 133f 8117 16be a5e5 46bf 6b6c 41be
00000080: 0e12 efbd 4660 003f 3f6a 083e 11e1 ba3e
00000090: 0032 933e 719d 08bf 92fd 0dbd e0dd 17be
000000a0: 623d 703e ae0a 5fbe c122 dabe 0e6b 0dbe
000000b0: 8b18 143d 86b2 82be 3913 993e f4c4 cd3f
000000c0: 46c5 133f 1534 19be 8160 303c e15d 3ebf
000000d0: a04a 183f 3f16 0f40 7ec6 16bc 8c95 34bf
000000e0: c060 45be 2129 4c3f d83a c0bd 86db 22bd
000000f0: 1b96 aebc e39f 59bf d121 31bd ed74 b03d
00000100: df29 acbd b86f 93bc 686d f93e 5093 85bd
00000110: cd97 a03c 4414 51bd c01b 0bbe f074 9e3e
00000120: 05f1 0dbe c4bc 1abd 7d7c ddbd 8108 8abe
00000130: af5a fcbe 11aa ecbe 2697 58be b956 303d
00000140: 21ae c5be 094a b7be 3aa8 29be 7a31 863c
00000150: 6f42 87be 3c4f a7bd efdb a93e 8387 923f
00000160: 5796 083d c8b7 b63e 534f 31be e4dd 22be
00000170: b859 4fbf 00a7 1b3f a17b d0be 3a38 adbd
00000180: 86d6 4dbe 7746 423d 4421 613f b36e 4bbf

mlp2.2.weight f4 [50, 100]
0.4542282 -0.14990997 -0.03067871 -0.0625371 -0.20724294 -0.11157256 -0.24531938 0.21510856
0.40279537 -0.06520411 -0.038034845 0.23577909 -0.15968063 -0.26789042 0.07625099 -0.10777307
-0.069730714 0.023807924 -0.18125574 0.3799871 -0.095832236 -0.24403206 -0.13797688 -0.036906198
0.1481952 -0.053982243 -0.29042315 -0.12754832 0.09201685 0.36477572 0.038719226 0.012343027
0.09164818 -0.030637916 0.0845008 0.097043686 -0.1456195 -0.14692765 0.0176134 0.2867693
-0.023146847 0.11211895 -0.055273637 0.030768473 0.12139229 0.14850897 0.109956734 0.36636564
-0.21376479 -0.15597507 -0.15448673 0.11794113 0.1027835 -0.031498842 -0.15115643 0.11995204
-0.24142392 0.07844767 0.022375606 -0.15827045 -0.18076861 -0.1731218 -0.04792173 0.15362856
0.019927496 -0.022523105 0.016593497 0.18898015 0.07873043 -0.08059647 -0.062071495 0.051797144
0.123458564 0.0034226815 -0.050221205 -0.13810155 0.09643568 -0.21495016 0.09234297 0.03420025
0.034446567 -0.08928338 -0.19835994 -0.09426087 -0.044733144 -0.06288074 0.067865096 -0.10588291
-0.09376528 -0.07294044 -0.0770117 0.24182345 -0.18870138 0.042931024 -0.07682253 -0.05710795
-0.2524454 0.24548662 -0.087676 -0.49406937 -0.35653234 0.19213368 -0.3057538 0.15144569
-0.05977216 0.02647863 0.2287375 0.123632565 0.43365702 -0.07744051 0.25916278 0.1159313
-0.16116112 -0.060351774 0.0046737944 -0.060849033 0.025288867 0.39057973 0.14504977 -0.21833462
0.022182975 -0.043354057 -0.23718971 -0.20462932 -0.18269795 0.027757375 -0.10236037 0.1531941
-0.027535446 -0.1818022 0.34601733 0.54494745 -0.10301577 -0.109138556 -0.08119039 0.0002355044
-0.16322723 0.013386261 -0.0422358 -0.32081676 -0.09148355 -0.24662553 0.07936509 0.050310247
-0.0056164484 -0.34462562 0.036116526 -0.2721687 0.091435716 0.21023984 -0.23689234 0.35471106
-0.17894782 -0.09200415 0.02523924 0.16522357 -0.14505532 0.055788793 0.014485432 0.08806445
-0.20431115 0.15601823 0.002851749 -0.024274789 -0.21450119 0.11183057 0.1820002 -0.077766076
-0.20756546 0.09825916 0.04348558 0.015404221 -0.07332085 -0.02332152 -0.02288913 0.35521206
-0.13777982 -0.17437015 0.40356258 0.10127698 0.07179921 -0.053189255 -0.09454371 -0.16354021
-0.04972013 -0.09100248 -0.10450552 -0.20135188 0.07559387 -0.23670022 0.013724783 -0.059457663
0.049282696 0.17027241 -0.039778464 0.0031415746 -0.08253233 -0.2555901 -0.066607095 0.3352786
0.112028755 -0.14532168 -0.44220844 -0.38213864 -0.01851388 0.09394365 0.004363351 0.022003563
0.28591344 -0.21406926 -0.045673978 -0.053535633 -0.1397665 -0.14380357 -0.008551331 -0.11315227
0.39473593 0.18748133 0.23001452 -0.4905301 -0.014363479 -0.023174284 -0.24654728 -0.048778176
-0.036648314 -0.23974897 -0.116712205 0.1185885 -0.001222793 0.31029272 -0.18814506 0.23924446
0.15611257 0.026761068 -0.3308663 0.15922964 -0.19264995 -0.058091197 0.097887695 -0.23754089
0.0628342 -0.027061231 0.25010452 -0.24048716 -0.00090502715 0.03658922 -0.15663433 -0.29371452
-0.03237964 -0.073352315 -0.1025611 0.24778906 -0.082447805 -0.16606908 0.34709898 0.21102186
00000000: 9990 e83e 0082 19be eb51 fbbc 7313 80bd
00000010: 7e37 54be 2880 e4bd 0135 7bbe 6b45 5c3e
00000020: 323b ce3e bc89 85bd 6dca 1bbd 1370 713e
00000030: 5283 23be ef28 89be 7b29 9c3d 21b8 dcbd
00000040: face 8ebd d608 c33c 1b9b 39be ab8d c23e
00000050: b143 c4bd 8ae3 79be d049 0dbe f42a 17bd
00000060: 7cc0 173e 7c1c 5dbd 58b2 94be 079c 02be
00000070: 5573 bc3d e2c3 ba3e 0d98 1e3d 683a 4a3c
00000080: 0ab2 bb3d 5efc fabc c10e ad3d d7be c63d
00000090: 471d 15be 3474 16be fa49 903c 6dd3 923e
000000a0: 759e bdbc 9f9e e53d 9c66 62bd 2a0e fc3c
000000b0: 859c f83d bc12 183e ff30 e13d 4794 bb3e
000000c0: 28e5 5abe eeb7 1fbe c531 1ebe 1f8b f13d
000000d0: 2880 d23d ee04 01bd c0c8 1abe 6aa9 f53d
000000e0: d537 77be 2ca9 a03d 0c4d b73c a611 22be
000000f0: 681b 39be d746 31be 9349 44bd ce50 1d3e
00000100: fd3e a33c 6082 b8bc 16ef 873c 0384 413e
00000110: 6b3d a13d c30f a5bd ae3e 7ebd 3e29 543d
00000120: d8d7 fc3d 114f 603b c0b4 4dbd 7e6a 0dbe
00000130: 1280 c53d e51b 5cbe 501e bd3d 9015 0c3d
00000140: d817 0d3d 34da b6bd de1e 4bbe d80b c1bd
00000150: 1a3a 37bd 9ec7 80bd dbfc 8a3d 24d9 d8bd
00000160: 0308 c0bd cc61 95bd 4fb8 9dbd 91a0 773e
00000170: ef3a 41be 71d8 2f3d 2155 9dbd 07ea 69bd
00000180: 8640 81be d860 7b3e 7a8f b3bd a9f6 fcbe
00000190: 688b b6be b1be 443e c38b 9cbe 9414 1b3e
000001a0: a7d3 74bd b6e9 d83c 2a3a 6a3e 1233 fd3d
000001b0: 4b08 de3e 2199 9ebd fcb0 843e 646d ed3d
000001c0: 6c07 25be 6c33 77bd a126 993b d63c 79bd
000001d0: 992a cf3c 11fa c73e ed87 143e 1c93 5fbe
000001e0: 12b9 b53c 0694 31bd dce1 72be 598a 51be
000001f0: 2c15 3bbe 6f63 e33c 50a2 d1bd eade 1c3e
00000200: 0492 e1bc 5b2a 3abe 2f29 b13e ad81 0b3f
00000210: eff9 d2bd 0984 dfbd 2647 a6bd bbf1 7639
00000220: 0a25 27be 0c52 5b3c 72ff 2cbd 1842 a4be
00000230: ba5b bbbd 678b 7cbe 2a8a a23d 1e12 4e3d
00000240: 2f0a b8bb c572 b0be ecee 133d b259 8bbe
00000250: a642 bb3d 1d49 573e e893 72be b09c b53e
00000260: 193e 37be ac6c bcbd 86c2 ce3c 5e30 293e
00000270: 6289 14be ca82 643d 4e54 6d3c 225b b43d
00000280: f136 51be 3ec3 1f3e 69e4 3a3b ecdb c6bc
00000290: 33a6 5bbe 6d07 e53d 435e 3a3e d243 9fbd
000002a0: 0a8c 54be 193c c93d ef1d 323d fc61 7c3c
000002b0: 3e29 96bd c60c bfbc fc81 bbbc 5bde b53e
000002c0: 2716 0dbe 178e 32be c19f ce3e 4e6a cf3d
000002d0: 770b 933d fadc 59bd 22a0 c1bd 1677 27be
000002e0: 56a7 4bbd 825f babd fd06 d6bd 302f 4ebe
000002f0: f5d0 9a3d 8b61 72be eadd 603c e189 73bd
00000300: a7dc 493d e45b 2e3e beee 22bd e0e2 4d3b
00000310: b606 a9bd b5dc 82be 4d69 88bd a3a9 ab3e
00000320: 556f e53d 35cf 14be 2569 e2be ada7 c3be
00000330: 6caa 97bc 8765 c03d 71fa 8e3b d140 b43c
00000340: 3f63 923e f934 5bbe a314 3bbd 2e48 5bbd
00000350: f31e 0fbe 3e41 13be e21a 0cbc 61bc e7bd
00000360: d41a ca3e 1bfb 3f3e ed88 6b3e c326 fbbe
00000370: cc54 6bbc ffd7 bdbc e476 7cbe a0cb 47bd
00000380: 8b1c 16bd c180 75be cf06 efbd 87de f23d
00000390: 2046 a0ba b0de 9e3e 19a9 40be 80fc 743e
000003a0: f9db 1f3e 073a db3c 4f67 a9be 180d 233e
000003b0: 0746 45be 09f1 6dbd 5879 c83d eb3d 73be
000003c0: 38af 803d 84af ddbc b30d 803e 4442 76be
000003d0: 583f 6dba 94de 153d c064 20be c061 96be
000003e0: 83a0 04bd bd39 96bd 8e0b d2bd 6abc 7d3e
000003f0: 65da a8bd 030e 2abe f5b6 b13e 1d16 583e

mlp2.2.bias f4 [50]
0.11310793 0.048955973 0.050164875 0.9184491 0.36573356 -0.20927124 -0.44435668 -0.112629
0.23890421 0.22663544 -0.2561676 0.32298476 -0.882713 -0.29225373 0.49737868 -0.28813943
0.35892949 0.2518408 -0.5479633 -0.19583827 0.72010666 -0.39905107 0.73397845 -0.32660994
0.4435908 -0.10619438 0.15771694 -0.06478189 0.45795453 0.7516636 0.28656527 -0.20386034
0.5902334 -0.4867296 0.12051731 -0.062151436 0.5093437 -0.15680835 -0.24422014 0.23591961
0.8440383 0.27821517 0.56562066 0.45153663 -0.343478 -0.06983125 0.45816118 -0.7111837
0.015215483 -0.47334233
00000000: 21a5 e73d 0f86 483d af79 4d3d 7b1f 6b3f
00000010: 6e41 bb3e 334b 56be b882 e3be 08aa e6bd
00000020: 4ea3 743e 1f13 683e 6628 83be 425e a53e
00000030: 7bf9 61bf 48a2 95be 6ba8 fe3e 0387 93be
00000040: 9bc5 b73e 47f1 803e 5347 0cbf d489 48be
00000050: e958 383f 6c50 ccbe 03e6 3b3f 6b39 a7be
00000060: 551e e33e 707c d9bd 8d80 213e 5eac 84bd
00000070: 0479 ea3e 076d 403f afb8 923e c4c0 50be
00000080: 8919 173f 9f34 f9be c8d1 f63d 8192 7ebd
00000090: 5964 023f 5e92 20be d814 7abe e994 713e
000000a0: e512 583f 3872 8e3e 84cc 103f cf2f e73e
000000b0: 59dc afbe b003 8fbd 1a94 ea3e 2310 36bf
000000c0: 5c4a 793c ed59 f2be

attention.0.weight f4 [100, 100]
-0.31932083 0.010173552 -0.13068646 -0.042067558 -0.08945943 -0.4452989 -0.17594686 -0.016974756
-0.1795253 -0.16787617 -0.11000959 0.29258323 -0.14628261 -0.12457056 -0.22123456 -0.31628045
-0.2935076 0.025375977 -0.02145785 0.23888278 -0.091840036 -0.06962759 -0.016071767 0.09099557
0.13186531 0.059212342 -0.039857965 -0.07998822 0.15957905 -0.0012781377 -0.063139886 -0.09936899
0.0101012895 0.0150853945 -0.047128316 0.02371859 0.045922905 -0.055534735 -0.08570791 0.19833726
0.030671878 -0.025247486 -0.18060434 0.2795009 0.024870973 -0.12305953 -0.10715431 0.06262109
-0.1719018 0.0775994 0.23301329 0.10365185 -0.023154972 0.30528316 -0.07224258 0.027257541
0.017793862 -0.009873246 -0.023965577 -0.22866593 0.17236589 -0.0008945003 0.019157903 0.11405594
-0.065707676 -0.0642955 0.001743006 0.0011288184 -0.50790274 0.0883638 -0.06728575 -0.11946146
0.09821514 -0.053911116 -0.20678698 -0.3289705 0.15932736 -0.100232676 -0.020188013 -0.010122562
-0.13820614 -0.025098527 0.03772193 -0.106009565 -0.3919789 -0.39035746 -0.3488192 -0.043184843
-0.017878959 0.017361283 0.09145478 0.034884773 -0.27648443 0.25346854 -0.14589311 0.25917095
-0.028217696 -0.28774863 0.08288553 0.21969984 0.1386527 0.024940101 -0.106769584 0.0046254396
-0.031755537 -0.36683726 0.112932004 -0.044637505 -0.08625921 -0.039545212 0.091031685 0.12202305
0.10595766 0.23758653 -0.04534397 -0.4427702 -0.061332285 0.004442399 0.0872595 -0.04560954
-0.019604173 0.3197164 -0.20156409 0.16639756 -0.076357804 -0.04303033 0.1435531 0.1932183
-0.13935514 -0.1951192 0.10825976 0.10569887 -0.05974769 -0.036707696 -0.049710836 -0.037748255
-0.022718314 -0.042790137 -0.05276902 0.06289135 0.2527672 -0.036166735 -0.07408417 -0.09879826
0.1118024 0.05771547 -0.07272076 -0.08885089 0.13760817 -0.06431394 -0.32116228 0.14875084
-0.0937544 -0.031782478 0.11517486 0.21945189 -0.20906246 -0.05918759 0.060115963 0.10688578
-0.042323496 0.09583496 -0.059975993 -0.007174721 0.06625459 -0.15859066 -0.06600938 -0.41606122
-0.24549499 -0.1680357 -0.0011278584 -0.10014309 0.008308281 -0.06887454 -0.12858649 -6.823885e-05
0.09815712 -0.024389775 -0.008387205 -0.11516926 -0.009557414 -0.0842156 0.0079861125 0.13104491
0.047402065 0.22102344 -0.17081714 0.07883066 -0.024385534 -0.3239726 -0.09748227 0.0012282985
0.04666144 -0.023339896 0.102279164 -0.3638021 0.065665305 0.12525499 -0.0111820875 -0.054588966
-0.17270845 -0.07641173 -0.14488398 -0.0075863716 -0.061569363 -0.3466155 -0.021802876 0.029744664
0.09783885 0.056251984 -0.1266592 -0.2072331 -0.074862204 -0.093207635 0.02911817 0.12343192
-0.21184574 0.0128831845 0.029536786 0.037439916 0.124773316 -0.076446824 0.07544728 0.076184966
-0.07907272 -0.07470506 0.04254127 -0.014165893 -0.26617712 0.13084726 -0.15719777 0.112822756
-0.06249867 0.028621104 0.018547984 0.08754735 0.1081419 0.04598677 0.102218404 0.15232456
0.069872364 -0.053094935 0.07339229 0.08387844 -0.16765355 0.12067456 -0.21394256 0.05317761
0.05392816 0.012838688 -0.15075727 0.047461342 -0.09875313 -0.10094202 0.074391775 -0.19002752
00000000: 057e a3be f8ae 263c acd2 05be 084f 2cbd
00000010: 8136 b7bd 38fe e3be 6a2b 34be a50e 8bbc
00000020: 7bd5 37be bbe7 2bbe b54c e1bd 78cd 953e
00000030: 1ccb 15be da1e ffbd 508b 62be 83ef a1be
00000040: a146 96be 48e1 cf3c 5fc8 afbc b09d 743e
00000050: a116 bcbd e998 8ebd f0a8 83bc e35b ba3d
00000060: b307 073e a488 723d 1b42 23bd ddd0 a3bd
00000070: b168 233e 2f87 a7ba 7c4f 81bd f881 cbbd
00000080: e17f 253c bb28 773c 9f09 41bd 7d4d c23c
00000090: a819 3c3d 6478 63bd a187 afbd ec18 4b3e
000000a0: 9743 fb3c d1d3 cebc 58f0 38be be1a 8f3e
000000b0: 36be cb3c a306 fcbd b873 dbbd 7c3f 803d
000000c0: 0707 30be 6fec 9e3d 099b 6e3e 6c47 d43d
000000d0: 7faf bdbc 134e 9c3e ebf3 93bd 354b df3c
000000e0: 6fc4 913c 65c3 21bc 7553 c4bc 6727 6abe
000000f0: af80 303e e67c 6aba 09f1 9c3c 2996 e93d
00000100: bf91 86bd 5cad 83bd 9475 e43a dcf4 933a
00000110: ea05 02bf 14f8 b43d 1ccd 89bd 36a8 f4bd
00000120: 0525 c93d e7d1 5cbd f7bf 53be d26e a8be
00000130: b626 233e ca46 cdbd 5561 a5bc 1ad9 25bc
00000140: e985 0dbe 6d9b cdbc 4f82 1a3d 8b1b d9bd
00000150: 75b1 c8be efdc c7be 6e98 b2be 97e2 30bd
00000160: e576 92bc 4039 8e3c a54c bb3d 56e3 0e3d
00000170: 5e8f 8dbe a1c6 813e 0165 15be 0eb2 843e
00000180: cc28 e7bc ca53 93be e4bf a93d fff8 603e
00000190: f9fa 0d3e 2f4f cc3c 03aa dabd 0091 973b
000001a0: 1812 02bd 18d2 bbbe e548 e73d d1d5 36bd
000001b0: aba8 b0bd 29fa 21bd d26e ba3d 39e7 f93d
000001c0: 5400 d93d e249 733e 99ba 39bd c7b2 e2be
000001d0: 9037 7bbd 8b91 913b 1cb5 b23d 12d1 3abd
000001e0: ee98 a0bc deb1 a33e d166 4ebe 1f64 2a3e
000001f0: 7b61 9cbd 9240 30bd 95ff 123e 05db 453e
00000200: 1db3 0ebe 54cd 47be 4bb7 dd3d a678 d83d
00000210: feb9 74bd cf5a 16bd 979d 4bbd ea9d 1abd
00000220: c21b babc b644 2fbd 5424 58bd 2ecd 803d
00000230: b46a 813e 9223 14bd 71b9 97bd be56 cabd
00000240: a8f8 e43d 0f67 6c3d 9fee 94bd 75f7 b5bd
00000250: 28e9 0c3e 07b7 83bd 626f a4be 2452 183e
00000260: 4f02 c0bd 582e 02bd cce0 eb3d ffb7 603e
00000270: 7814 56be b06e 72bd 283c 763d efe6 da3d
00000280: 675b 2dbd 1f45 c43d 63a9 75bd ec19 ebbb
00000290: 7db0 873d 9765 22be ed2f 87bd fa05 d5be
000002a0: 0a63 7bbe 8d11 2cbe a6d4 93ba d217 cdbd
000002b0: 751f 083c 180e 8dbd 2dac 03be 741b 8fb8
000002c0: 9a06 c93d 11cd c7bc 7d6a 09bc dcdd ebbd
000002d0: b396 1cbc 3a79 acbd 2fd8 023c a330 063e
000002e0: ab28 423d f853 623e b0ea 2ebe f871 a13d
000002f0: 2cc4 c7bc bddf a5be c9a4 c7bd dcfe a03a
00000300: 1120 3f3d 4f33 bfbc bd77 d13d 4544 babe
00000310: 887b 863d d842 003e 1335 37bc ae98 5fbd
00000320: 7cda 30be c17d 9cbd 775c 14be 1997 f8bb
00000330: 2830 7cbd 9677 b1be f29b b2bc 15ab f33c
00000340: bc5f c83d 7b68 663d f3b2 01be ea34 54be
00000350: 5b51 99bd a5e3 bebd 3a89 ee3c e0c9 fc3d
00000360: 17ee 58be fe13 533c 21f7 f13c 995a 193d
00000370: 2789 ff3d 2790 9cbd 1b84 9a3d dd06 9c3d
00000380: e1f0 a1bd f7fe 98bd c13f 2e3d 1018 68bc
00000390: 5e48 88be d3fc 053e 74f8 20be 9e0f e73d
000003a0: 9bfe 7fbd ce76 ea3c f1f1 973c 064c b33d
000003b0: 8079 dd3d a05c 3c3d e257 d13d f8fa 1b3e
000003c0: 3e19 8f3d 137a 59bd b24e 963d 76c8 ab3d
000003d0: 5fad 2bbe 3924 f73d c213 5bbe c4d0 593d
000003e0: c6e3 5c3d 5c59 523c 1d60 1abe d366 423d
000003f0: 153f cabd b1ba cebd b75a 983d 9396 42be

attention.0.bias f4 [100]
-0.659634 -0.4761065 0.060401954 -0.2900218 -0.089024745 0.0733976 -0.26530594 -0.6032304
-0.68154836 -0.20630226 -0.031992536 -0.3110113 -0.50500727 -0.109228775 -0.004431701 -0.10530875
0.19590765 -0.20369321 -0.008044967 -0.77873564 -0.12839633 -0.20943078 0.18116853 -0.26925138
-0.11484202 -0.28369927 -0.02388981 -0.13733147 -0.43212816 -0.31002635 -0.5452249 -0.122004226
-0.2009046 -0.058997706 -0.25813395 -0.12044314 -0.2035442 -0.20854266 -0.58020943 -0.6256147
0.048158012 -0.18276227 0.018596034 -0.103517115 -0.22221597 -0.08492855 -0.08082069 -0.43366885
0.048394494 -0.14288846 -0.1878735 -0.019203587 -0.05988383 -0.23093162 -0.17514925 -0.23655319
0.22643681 0.063285105 0.16606757 0.3459424 0.004883115 -0.14243482 -0.41645446 0.03914797
0.07981674 0.19063282 -0.054016728 -0.15191549 -0.19996072 -0.020049402 -0.36829585 -0.03790435
-0.22476767 -0.32059503 -0.010279759 0.09242462 -0.14632952 -0.46648464 -0.15004537 -0.14192456
-0.4778546 -0.24279447 -0.08546195 -0.07698033 -0.23494817 -0.21938114 -0.30182466 -0.23874353
0.121922635 -0.26638573 0.08566583 -0.37325364 -0.15753195 -0.23623116 -0.26029426 -0.38017023
-0.16464932 0.030832918 -0.35116655 0.14498824
00000000: c6dd 28bf 3bc4 f3be 0a68 773d bd7d 94be
00000010: 9b52 b6bd 7b51 963d 2ed6 87be 4f6d 1abf
00000020: f479 2ebf e640 53be 9b0a 03bd e03c 9fbe
00000030: 2848 01bf 56b3 dfbd cd37 91bb 1dac d7bd
00000040: 049c 483e f494 50be 0acf 03bc 385b 47bf
00000050: 547a 03be 0675 56be 3e84 393e 51db 89be
00000060: 4b32 ebbd 0841 91be 90b4 c3bc 9fa0 0cbe
00000070: e73f ddbe c6bb 9ebe dc93 0bbf 5add f9bd
00000080: efb9 4dbe 94a7 71bd 222a 84be e5aa f6bd
00000090: e46d 50be 358c 55be 9b88 14bf 4928 20bf
000000a0: 5641 453d 0826 3bbe b656 983c c800 d4bd
000000b0: 958c 63be 05ef adbd 5185 a5bd d809 debe
000000c0: 4e39 463d 5a51 12be e961 40be d750 9dbc
000000d0: bf48 75bd 5779 6cbe 535a 33be 003b 72be
000000e0: 0ddf 673e 9f9b 813d 9e0d 2a3e 5d1f b13e
000000f0: 8a02 a03b 6fda 11be 8539 d5be 9f59 203d
00000100: f576 a33d 4035 433e a540 5dbd bc8f 1bbe
00000110: 81c2 4cbe a53e a4bc 4691 bcbe 9741 1bbd
00000120: 7f29 66be 0825 a4be 6f6c 28bc 1f49 bd3d
00000130: 68d7 15be 13d7 eebe 7ea5 19be ac54 11be
00000140: 5ca9 f4be 1d9f 78be ad06 afbd dda7 9dbd
00000150: 4196 70be 73a5 60be c388 9abe 2f79 74be
00000160: 93b2 f93d b663 88be 9171 af3d 1a1b bfbe
00000170: 0e50 21be 95e6 71be 4a45 85be aca5 c2be
00000180: d599 28be 5195 fc3c 1acc b3be cc77 143e

attention.2.weight f4 [100, 100]
0.018815897 0.011403558 0.0004338605 0.033539023 0.035396535 -0.09879976 0.05437654 -0.031413708
0.02119582 -0.09491898 -0.0007560158 0.009489773 0.013543552 0.08264024 -0.01477028 0.008123699
0.025707817 -0.06302002 0.004029188 -0.039971214 -0.02661103 0.07002468 -0.08626732 -0.0117219435
0.022885604 0.047410212 -0.04274615 -0.012254253 -0.101119675 -0.018107163 -0.021307036 0.042530507
0.05138023 0.07248994 0.016553018 0.08381086 0.016913861 0.022531275 -0.081407055 -0.07091965
0.03890238 -0.101779975 -0.11332156 -0.031710096 -0.03479109 0.038860586 0.054567438 -0.08514272
0.06376318 0.04755742 -0.016119132 -0.039246712 0.005859267 -0.04584353 -0.08485757 0.052665547
0.06783935 -0.06454002 -0.054175045 -0.0026090476 0.0070498334 0.055871893 -0.017158218 0.06051582
-0.04135632 -0.04433934 0.016328705 0.027258173 -0.09668962 -0.10526302 -0.048400044 -0.037039183
-0.0043105665 -0.047241773 -0.017762544 -0.016730923 -0.0064209173 -0.022920093 0.037340473 -0.003648424
0.0015242427 -0.022483619 -0.053900346 0.08460985 0.01735681 -0.028212426 -0.027032683 0.09036397
0.036353163 -0.06688155 0.024786867 0.013546419 -0.099713616 0.06116652 0.009326836 0.03461092
-0.0796458 0.05652375 -0.018491603 -0.034396026 0.059558757 -0.043194905 -0.10781437 0.07324302
0.000710853 -0.025790913 0.060229834 -0.09769018 -0.03852729 -0.07474945 -0.01119322 0.104635164
-0.03253342 0.14776325 -0.036967903 -0.0049292184 0.07092377 0.060961287 0.039802812 -0.052398816
-0.023431348 0.040016245 -0.06488 0.004955259 -0.038549192 -0.02814787 -0.0024470359 -0.028433107
-0.11557433 -0.0884679 -0.07784361 0.10797288 -0.074772835 -0.109536864 -0.094653785 -0.063695155
-0.021141855 -0.058569383 -0.1044329 0.003220775 0.09579765 -0.010803963 -0.10723474 0.031101739
-0.026707588 -0.056266412 0.03918532 -0.028120434 0.0870069 0.08885608 -0.04828971 0.109704345
0.07038169 -0.054388877 -0.08493696 0.024373138 -0.09458862 0.1246405 -0.08783278 -0.019375177
0.04329134 -0.09506284 -0.069745414 -0.069368795 0.0044846474 0.06274224 0.020705312 0.01443616
0.06582478 -0.056257427 0.017762193 -0.044019725 -0.06295914 0.040726982 0.08612036 0.03448371
-0.08400576 0.046237852 -0.045369785 0.059160482 -0.022642344 -0.05463943 0.055806715 -0.09634332
-0.0898859 0.012550338 -0.0021575273 0.0036157484 0.04656266 -0.01608134 -0.08055754 0.010461273
-0.056916147 -0.03366255 0.047513194 0.058778543 0.06397165 -0.12947227 0.0672556 0.048717808
-0.025220005 0.068188295 -0.10757793 -0.04302327 -0.056854956 -0.06234941 0.0035946763 -0.11977692
-0.014457179 -0.09863998 0.054126497 -0.022679394 0.022069097 -0.103084326 -0.0729623 -0.031836305
-0.06830239 -0.14063294 -0.023241425 -0.029421078 -0.07070518 0.0070886468 -0.07407997 -0.026423644
-0.027674321 -0.05336347 0.059375565 -0.105403766 -0.007592191 -0.027889414 -0.018817717 -0.088123396
-0.05063067 0.086315334 0.069689125 -0.07388455 -0.11150647 0.0045939144 -0.053556297 -0.15197629
0.013427501 -0.037067816 0.009892248 -0.050030183 -0.12755874 -0.06741233 -0.09171158 0.10779334
-0.06813051 0.052263454 -0.15521894 -0.1329004 -0.0070267194 0.040255744 0.009313959 -0.12318336
00000000: cc23 9a3c fdd5 3a3c c577 e339 3760 093d
00000010: f5fb 103d 8757 cabd efb9 5e3d a9ab 00bd
00000020: dba2 ad3c e264 c2bd 5d2f 46ba fe7a 1b3c
00000030: c6e5 5d3c 493f a93d 0bff 71bc 4319 053c
00000040: 3399 d23c a410 81bd 4707 843b dbb8 23bd
00000050: 60ff d9bc 1969 8f3d ecac b0bd 650d 40bc
00000060: 977a bb3c 3631 423d 9616 2fbd 10c6 48bc
00000070: d517 cfbd 7955 94bc 188c aebc 7834 2e3d
00000080: 1374 523d 9b75 943d 329a 873c 07a5 ab3d
00000090: f08e 8a3c 8293 b83c beb8 a6bd 523e 91bd
000000a0: 1a58 1f3d 0572 d0bd 2215 e8bd 72e2 01bd
000000b0: 1a81 0ebd 472c 1f3d 1b82 5f3d 4e5f aebd
000000c0: 4596 823d 92cb 423d 450c 84bc 29c1 20bd
000000d0: 18ff bf3b 6dc6 3bbd cec9 adbd d4b7 573d
000000e0: 5bef 8a3d 8f2d 84bd a7e6 5dbd 8efc 2abb
000000f0: 4a02 e73b edd9 643d 648f 8cbc 70df 773d
00000100: 3f65 29bd 2b9d 35bd c7c3 853c 884c df3c
00000110: 3505 c6bd 2394 d7bd 203f 46bd 66b6 17bd
00000120: a73f 8dbb 9780 41bd c182 91bc 4a0f 89bc
00000130: 8f66 d2bb ebc2 bbbc 53f2 183d 661a 6fbb
00000140: 19c9 c73a 912f b8bc 9cc6 5cbd ee47 ad3d
00000150: de2f 8e3c bf1d e7bc a573 ddbc bf10 b93d
00000160: 0ee7 143d 32f9 88bd d40d cb3c cdf1 5d3c
00000170: a736 ccbd bf89 7a3d 96cf 183c 2ec4 0d3d
00000180: 561d a3bd 7385 673d b47b 97bc d9e2 0cbd
00000190: e2f3 733d 24ed 30bd c8cd dcbd 7000 963d
000001a0: 8a58 3a3a 7747 d3bc 8fb3 763d ca11 c8bd
000001b0: cbce 1dbd 3d16 99bd c463 37bc f64a d63d
000001c0: c341 05bd 404f 173e a86b 17bd 4885 a1bb
000001d0: 7b40 913d 8bb2 793d 4608 233d 24a0 56bd
000001e0: 19f3 bfbc 13e8 233d cedf 84bd ba5f a23b
000001f0: c2e5 1dbd 5d96 e6bc 735e 20bb 8cec e8bc
00000200: 3cb2 ecbd a92e b5bd 786c 9fbd e320 dd3d
00000210: 8022 99bd dd54 e0bd d8d9 c1bd 9b72 82bd
00000220: af31 adbc 73e6 6fbd ebe0 d5bd a313 533b
00000230: 8f31 c43d 1b03 31bc e39d dbbd 13c9 fe3c
00000240: dfc9 dabc 9c77 66bd c980 203d d35c e6bc
00000250: ac30 b23d 2dfa b53d 6ecb 45bd acac e03d
00000260: 4724 903d dfc6 5ebd 6ef3 adbd 2daa c73c
00000270: aeb7 c1bd 8543 ff3d ace1 b3bd b1b8 9ebc
00000280: 4352 313d 4eb0 c2bd afd6 8ebd 3a11 8ebd
00000290: f3f3 923b 017f 803d 309e a93c a585 6c3c
000002a0: 24cf 863d 306e 66bd 0582 913c 074e 34bd
000002b0: b9f0 80bd 56d1 263d df5f b03d ca3e 0d3d
000002c0: 360b acbd e763 3d3d abd5 39bd 4352 723d
000002d0: 707c b9bc 98cd 5fbd 9595 643d a64f c5bd
000002e0: 1916 b8bd ef9f 4d3c 4d65 0dbb 31f6 6c3b
000002f0: 7db8 3e3d 04bd 83bc 5afb a4bd c265 2b3c
00000300: e820 69bd bee1 09bd 329d 423d c5c1 703d
00000310: 9203 833d 6194 04be 4ebd 893d 538c 473d
00000320: 2f9a cebc 4ea6 8b3d d151 dcbd 2b39 30bd
00000330: bee0 68bd 1862 7fbd a994 6b3b 9a4d f5bd
00000340: cedd 6cbc c203 cabd bfb3 5d3d 23ca b9bc
00000350: 40ca b43c e01d d3bd 426d 95bd c966 02bd
00000360: 20e2 8bbd 1502 10be cd64 bebc 7904 f1bc
00000370: e1cd 90bd e147 e83b 3db7 97bd 6676 d8bc
00000380: 42b5 e2bc a793 5abd cb33 733d eedd d7bd
00000390: eac7 f8bb 5778 e4bc 9d27 9abc 0a7a b4bd
000003a0: 1b62 4fbd 18c6 b03d 2cb9 8e3d c850 97bd
000003b0: 815d e4bd 8c88 963b d95d 5bbd ac9f 1bbe
000003c0: 05ff 5b3c 6cd4 17bd 1813 223c 73ec 4cbd
000003d0: c29e 02be 7a0f 8abd 48d3 bbbd c1c2 dc3d
000003e0: 0288 8bbd 3412 563d b7f1 1ebe 0b17 08be
000003f0: 6540 e6bb 35e3 243d 9399 183c 8f47 fcbd
