sarl_star_ros/CrowdNav-nowall/crowd_nav/data/sub/fail/output_new_0.4_f1/il_model.pth (torch_old, 349196 bytes, 20 tensors)

mlp1.0.weight f4 [150, 13]
000000 72 89 e2 3e 1c ca 21 3f 3f d4 29 3f 19 ac 7a 3e
       0.44245487 0.6319902 0.66339487 0.24479713
000010 a8 d0 b4 3f d4 3a c0 3f 2d c7 ed bd 47 ff ae be
       1.4126177 1.5017953 -0.116102554 -0.34179136
000020 95 ea 0e c0 3d 9c 72 c0 4d bd f2 be 26 6a 2b bf
       -2.2330678 -3.790786 -0.4741005 -0.66958845
000030 a2 53 ec be 74 5d 96 3d c9 09 bf bd 3b 20 0e bd
       -0.46157557 0.073420435 -0.09328038 -0.034698706
000040 a4 d8 e0 3d 34 28 13 bf ac e0 70 3e 78 e2 1b bf
       0.10978821 -0.5748322 0.23523206 -0.6089244
000050 07 66 37 bd 23 00 24 3f 5d 81 37 3e b3 c7 8f be
       -0.044775035 0.6406271 0.17920442 -0.28082046
000060 3b b2 e0 bd 4d a5 a6 be 46 57 a9 3e c8 2e b3 3d
       -0.10971495 -0.3254799 0.33074397 0.08749157
000070 f5 31 fd 3d 4f d8 44 3e fb c6 a5 3e c0 f1 93 3e
       0.12363044 0.1922314 0.32378373 0.28895378
000080 4a 65 f5 bd b4 c0 dd 3d dc 1b 01 c0 22 58 74 3e
       -0.1198221 0.10827771 -2.0173254 0.23861745
000090 83 e5 3b 3e ff c6 c3 be cf f1 62 3e 39 11 c7 be
       0.1834927 -0.3823776 0.22162555 -0.38880327
0000a0 64 06 44 3e 03 69 39 3d 2d 1d 71 be a5 11 84 3e
       0.19143063 0.045266163 -0.23546286 0.25794712
0000b0 93 07 31 bc 8b 63 1b bf 29 a1 26 3f 6d 9a d3 be
       -0.0108050285 -0.60698766 0.6508966 -0.41328755
0000c0 01 fb 6c 3e 04 10 31 3e 16 bd e4 3e a6 e5 cc 3d
       0.23142625 0.17291266 0.4467551 0.100047395
0000d0 0e c9 6c be f4 30 a5 bd a0 06 f3 3e 5a 5a 87 3d
       -0.23123571 -0.08065978 0.47465992 0.0660903
0000e0 6c 89 e0 be 19 4b 85 3f 9e e3 0b 3f 91 fe 34 bf
       -0.43854845 1.0413543 0.5464419 -0.7070094
0000f0 90 da 56 3f 92 88 b0 3e 70 07 c1 be fa 39 33 3d
       0.8392725 0.34479195 -0.37700987 0.043756463
000100 b5 84 0f be 07 a1 c5 3d f3 58 80 bd 27 b9 7b bf
       -0.14015467 0.09649854 -0.06266966 -0.98329395
000110 22 b4 e4 bd 9c 63 88 bf 54 89 cf bf 07 0b 99 bf
       -0.1116717 -1.0655398 -1.6213784 -1.195649
000120 04 f0 aa bd 59 c1 ff 3f 9d 2e 42 3f 9e a2 76 3e
       -0.083465606 1.998088 0.75852376 0.24085471
000130 92 b8 18 bf 95 84 5a 3e 81 f1 eb 3d a4 98 96 bd
       -0.5965663 0.21339639 0.115206726 -0.07353333
000140 24 5b ee 3d 02 41 6b bd 53 2d 0f be 2a 11 43 3f
       0.116384774 -0.057435043 -0.13982134 0.76198065
000150 24 52 1c 3f f8 bd ec 3e 0c dc 95 3d 6c 83 84 3f
       0.61062837 0.46238685 0.07317361 1.0352607
000160 3b b7 d1 3e 51 14 89 bf ef 42 92 3e f5 ce c9 bd
       0.40960106 -1.0709325 0.2856669 -0.09853927
000170 a2 87 5e be ca 70 9b 3d e9 2f 96 bd 6a 79 7b bd
       -0.21731427 0.07589872 -0.07333357 -0.061395086
000180 1a 8d 3a be 36 28 ef bd 45 bd 8c 3c 3a f4 a1 bd
       -0.18217888 -0.116775915 0.017180094 -0.07907911
000190 18 3b 76 3e a6 70 42 3e 88 bd 76 be 60 3d 80 3e
       0.2404598 0.18988284 -0.24095738 0.25046825
0001a0 dc 8b 24 bf 5d 10 39 3e 45 08 d1 3d 80 63 8b be
       -0.6427591 0.18072648 0.102066554 -0.2722435
0001b0 7d 5b 94 be e8 e5 80 3d 53 94 e1 3e e3 58 1d 3f
       -0.2897605 0.06293851 0.44058475 0.61463755
0001c0 d1 a9 7f be 04 f5 22 be 48 72 e9 3d ee 8e c9 3e
       -0.24967124 -0.15913779 0.113987505 0.3936686
0001d0 c7 17 e5 bd 39 e6 9a be e8 a8 eb 3d f8 62 4f 3e
       -0.11186176 -0.3025377 0.11506826 0.20252597
0001e0 5c b3 58 be 05 61 97 3e f5 9c fc bd ac 2c 45 3f
       -0.2116217 0.29566208 -0.12334625 0.7702129
0001f0 f4 08 72 3e 93 2d 04 3f c7 20 39 3e 92 0f 0d 3c
       0.23636228 0.5163204 0.1807891 0.008609669
000200 50 d0 9d 3e d6 4a 91 be d6 b7 f4 3d 01 b8 cd 3d
       0.30822992 -0.28377408 0.119491264 0.100448616
000210 50 03 2e be b5 51 b4 3e 35 c1 9e 3d 97 79 eb be
       -0.16993451 0.35218588 0.07751695 -0.45991203
000220 4a 8b 80 3f 80 51 1c be 46 6a 4a 40 ca 7b 99 bf
       1.0042508 -0.15265465 3.1627364 -1.1990902
000230 0e af f7 3d d2 cd e8 be a4 e8 ef bd 52 b5 6e 3e
       0.12093936 -0.45469528 -0.117142946 0.23311356
000240 be e0 51 bd 27 56 ed be e1 fd 6e be 39 5f 68 bf
       -0.05123972 -0.46354792 -0.23339035 -0.907703
000250 8c 4e 25 be 21 40 a9 3f b7 61 eb be 1b 16 eb 3e
       -0.16143245 1.3222696 -0.45972988 0.45915303
000260 8a 17 d7 3f d5 5c d1 bd c1 32 b1 be fe d6 58 be
       1.6804059 -0.102227844 -0.34609035 -0.21175763
000270 20 35 fc 3e 4b 5c ed be 3c 26 f1 3e 1c dd 07 be
       0.4925928 -0.46359476 0.47099483 -0.1326794
000280 53 48 1c bf 2c 86 61 3f f4 c4 a9 3e e7 c1 39 be
       -0.6104786 0.88095355 0.33158076 -0.18140374
000290 75 ae a7 3f d1 2b c5 bf ae 61 52 bf c0 b5 31 be
       1.3100115 -1.5403997 -0.821803 -0.17354488
0002a0 e7 df 49 bf b0 b7 6e 3e cf ac 75 bc 15 aa a7 bf
       -0.7885727 0.23312259 -0.014994814 -1.309878
0002b0 84 ae 3a 3e b3 d5 19 bf bd 56 b0 bf 79 a1 1d bf
       0.18230635 -0.60091704 -1.377647 -0.6157451
0002c0 b7 8b 9e bf ec 3c 34 3f 48 43 db 3f fa cb 28 3f
       -1.2386388 0.7040546 1.7129908 0.65936244
0002d0 e1 2d a3 bf 7a 67 0b 3f 71 7c 6c be b7 3f 41 be
       -1.2748376 0.5445477 -0.23094346 -0.18871962
0002e0 d0 ad b8 bd 29 d5 14 be 08 31 fd bd 94 bd 60 3e
       -0.09017527 -0.14534439 -0.123628676 0.21947318
0002f0 49 4f 8b be c0 79 0b 3c d8 62 a3 3c 1e 04 0c be
       -0.27208927 0.008512914 0.019944593 -0.13673446
000300 24 ab e8 bd 58 e1 b4 bd bd 68 03 3d 5d aa 8a be
       -0.113607675 -0.088320434 0.032082308 -0.27083102
000310 a4 f0 1b be b7 24 72 3e 59 f8 32 3e 52 90 d6 3d
       -0.15228516 0.23646818 0.1747755 0.10476746
000320 08 47 0a bd 01 fc 02 3e 0a 84 9b bd 1e 26 cc 3b
       -0.033759147 0.12791444 -0.07593544 0.00623013
000330 a8 26 a0 3d f8 eb 07 3d e0 86 46 bd 91 4c cd bd
       0.07819873 0.03318402 -0.04846847 -0.100243695
000340 37 48 e5 bd c7 7b f2 3d 46 82 74 be a4 cb 10 3e
       -0.111954145 0.11840015 -0.2387782 0.14140183
000350 12 e4 c1 bd 0f 24 01 be ee db 3b 3e 9a 32 c0 bc
       -0.09467329 -0.12611412 0.18345615 -0.023461629
000360 34 fc 0d 3e f8 e5 31 3d c0 99 1b 3e f9 24 87 be
       0.13865739 0.043432206 0.1519537 -0.26395395
000370 84 90 4e be 62 e7 97 bd b8 e4 91 bd a4 ba 53 be
       -0.20172316 -0.0741718 -0.07123703 -0.20676666
000380 46 a1 71 be 47 38 3f 3e c8 65 bd bc 8c 6e 7a be
       -0.23596677 0.18673812 -0.023119822 -0.24456233
000390 30 4b 95 bd e9 92 2b be 2e 92 3a 3e 19 e6 87 be
       -0.072897315 -0.1675526 0.18219826 -0.26542738
0003a0 b2 bf 47 be 3b 5f 75 be 22 bc 96 3e dd c5 93 bd
       -0.1950672 -0.23962109 0.2944041 -0.07215474
0003b0 c0 5f 0b bf 67 d2 ff bd 43 4d f4 bd 37 c6 78 bd
       -0.5444298 -0.12491303 -0.11928799 -0.060735907
0003c0 2d d6 cc 3f d1 7b b3 be 32 29 99 bf d3 9a 89 3f
       1.6002861 -0.35055402 -1.1965697 1.0750374
0003d0 db 93 8d be b9 36 52 bf ca 2b d7 be 1b 61 9f be
       -0.27651867 -0.8211475 -0.42025596 -0.31128773
0003e0 2d 40 97 3d ed f6 b2 3e 0c cc 9a be 3e 7c ef bd
       0.073852874 0.34954014 -0.302338 -0.11693619
0003f0 7c 18 27 3d 64 f3 96 bf 91 fe ec be d7 6d e2 be
       0.040794834 -1.1793027 -0.4628797 -0.44224426

mlp1.0.bias f4 [150]
000000 37 a8 9d 3f 2c 32 e1 be d6 e6 a4 3e 67 dc 1b 3e
       1.231696 -0.4398359 0.32207364 0.15220796
000010 a2 f3 48 bd 2a f0 f5 be 76 94 3b be 46 70 61 3e
       -0.04906047 -0.48034793 -0.18318352 0.22015485
000020 74 f5 95 be 25 a3 29 3e c6 2a 01 3f ba e4 f6 be
       -0.29288828 0.16566141 0.5045589 -0.4822138
000030 24 fe 1b bf c7 04 da 3e 51 18 c2 3d b4 5b c8 3c
       -0.6093466 0.4258177 0.09477294 0.02445779
000040 28 d1 3d 3d 70 89 7d bd e3 92 1d bf dd a0 46 be
       0.046342045 -0.06189865 -0.61552256 -0.19397302
000050 2e cd 18 bd 2f 4b d5 3e ea 3a 85 bf b2 81 97 bd
       -0.03730505 0.41658923 -1.0408604 -0.07397784
000060 8a f5 42 be 2f d5 a4 be 4e 6c 88 3e 73 bb b6 bf
       -0.19038978 -0.32193896 0.2664513 -1.4275955
000070 23 03 21 3f a6 79 e7 be bd 68 49 3d 56 1b ea 3d
       0.6289541 -0.45209998 0.04917215 0.11430995
000080 da 43 7a 3f 07 11 35 3e 5c 53 90 3f 48 a1 78 bf
       0.97759783 0.17682277 1.1275439 -0.97121096
000090 f0 bc 6e be 37 7e 67 be b4 9c 93 3e 74 5b 98 3f
       -0.23314261 -0.22606741 0.28830492 1.1902909
0000a0 1b c7 53 3d 65 ff 34 3e dc a8 81 be 3f ab 13 3e
       0.051703554 0.1767555 -0.25324142 0.14420794
0000b0 78 f1 94 bf b3 f9 f7 3e 09 23 4a be e5 b5 70 3e
       -1.163619 0.48432693 -0.19739927 0.23506887
0000c0 e0 06 3d bf e1 7a a0 3e d8 2f 8e 3f bd c3 81 3e
       -0.73838615 0.3134375 1.1108351 0.2534465
0000d0 cc e8 26 bd 51 3c ad bd d4 77 ce be d9 6e ee 3b
       -0.040749356 -0.0845877 -0.40325797 0.0072763977
0000e0 0b b3 61 3d 93 3e 3b 3e 77 53 de be b2 91 a0 be
       0.05510239 0.18285589 -0.43423054 -0.31361157
0000f0 00 04 6a 3d dd 80 84 bd de d6 0e 3f 90 57 aa bf
       0.05713272 -0.06469891 0.5579661 -1.3307972
000100 c1 b0 03 be 00 71 3e be 62 7d 1f 3e 04 b6 f7 3e
       -0.12860395 -0.18597794 0.15575173 0.48381054
000110 4c ee 66 bd 06 36 1d be 84 a5 a6 bd 6f f4 31 3d
       -0.0563796 -0.1535264 -0.08137038 0.043446
000120 e4 91 19 bf 29 70 0a be 1e c6 8a be fc 3f 3e 3f
       -0.59988236 -0.13519348 -0.27104276 0.7431638
000130 c1 b0 2e be 59 c2 25 be 84 75 26 3e d7 cd b7 3d
       -0.17059614 -0.16187419 0.16255766 0.08974808
000140 bc 4a 42 be 84 d1 f8 3e d8 82 0f be 76 e8 25 bf
       -0.18973821 0.48597348 -0.14014757 -0.6480783
000150 21 88 a8 3e 17 75 66 be d5 44 60 bd 53 f0 24 bf
       0.32916358 -0.22505604 -0.054753143 -0.64429206
000160 19 58 20 be 56 a3 fc 3e 88 e5 96 3e 48 b6 84 bd
       -0.15658607 0.49343365 0.29471993 -0.0648008
000170 84 0f 20 3e b1 1e a3 3e 56 60 1a 3e 41 54 e1 bd
       0.15630919 0.31859353 0.15075812 -0.11002398
000180 b9 67 17 3e 88 31 08 be fc 51 66 be 6b 66 16 3e
       0.14785661 -0.13300145 -0.22492212 0.14687507
000190 66 fd 66 bf 31 95 0d 3e d4 b7 d5 bd 27 9b 8e be
       -0.90230405 0.13826443 -0.10435453 -0.27852747
0001a0 69 27 3e 3e 0a 0d a0 3d 13 18 e8 bd 87 c5 10 3d
       0.18569721 0.07814987 -0.11332717 0.035344627
0001b0 97 c9 da bd 22 5b f6 bd 65 f4 c6 bb b0 23 a7 3c
       -0.106829815 -0.12029101 -0.0060716146 0.02040276
0001c0 23 d0 3d 3f c6 d9 f3 bd f4 3a 8a be e8 f7 e0 3d
       0.74145716 -0.11906771 -0.26998103 0.10984784
0001d0 15 4a 07 3f b3 5f cd 3d d0 13 79 bf 94 d9 fb bd
       0.52847415 0.10028019 -0.97295856 -0.12297359
0001e0 6c ff b5 3e 82 2c 1b bf 62 86 8a bf ba 2e bc bd
       0.35546434 -0.6061479 -1.082226 -0.091886
0001f0 89 39 7f 3f 63 95 6a 3e 6a 5b 74 be 5d 16 d0 3d
       0.99697167 0.22908549 -0.23862997 0.101605155
000200 1d 5b 12 bd 8c 7c ae be 2b 55 f1 3e 48 ab 92 3e
       -0.035731424 -0.34079397 0.4713529 0.28646302
000210 b5 0f 22 bc 8e ee 90 be b0 11 14 3d 0c 03 2e 3f
       -0.00989144 -0.28307003 0.03614968 0.679734
000220 4e 63 23 bf 08 d9 01 be ff 17 a8 be 27 ba 1f bf
       -0.638234 -0.12680447 -0.32830808 -0.6239342
000230 73 16 8a bf 6f 40 89 3d 66 7f 1d 3e 2d 18 13 be
       -1.0788101 0.06701743 0.1538063 -0.14364691
000240 e0 08 1e be 2f 9e 36 3f 2b 89 67 bd f0 65 fd 3d
       -0.15433073 0.7133512 -0.056527298 0.12372959
000250 81 94 7b 3e 33 d0 a3 bf
       0.24568368 -1.2797912

mlp1.2.weight f4 [100, 150]
000000 61 22 44 bf 01 19 9c 3c ae 20 fa be 5d 5b 1f be
       -0.7661496 0.019054892 -0.48853058 -0.15562196
000010 71 8c e5 bc 7e 31 b6 3e 9d 8d 1f 3e 41 c3 75 bd
       -0.02802107 0.35584635 0.15581365 -0.06000066
000020 7b 82 6c bd 6b 73 03 be 63 9b 46 3e 6f 01 9a bd
       -0.057741623 -0.12836997 0.19395213 -0.07519805
000030 09 eb 37 be fb 29 5c 3e c1 98 25 3d 23 f2 2f bd
       -0.17960753 0.2150039 0.04042888 -0.04295553
000040 33 e9 17 3c f7 6b 93 3d ca 12 e4 be 1f e9 a6 3d
       0.009271908 0.07198327 -0.44545585 0.08149933
000050 ca 11 c8 3c 06 9f 25 3c 38 8d 8e bd 0d 10 36 be
       0.024422545 0.010108715 -0.06960529 -0.1777956
000060 98 22 97 3d 11 84 03 3c 78 c4 e2 bd d6 32 73 3d
       0.07379645 0.008027093 -0.1107263 0.059374653
000070 87 b0 25 be 4e 99 33 3e 42 02 91 bd ab 68 92 3d
       -0.16180621 0.1753895 -0.07080509 0.0714887
000080 92 b3 8c be 6a 34 1a 3d 22 6f cd 3d 7b f6 99 be
       -0.2748075 0.037647642 0.100309625 -0.30070862
000090 08 1c 94 ba cb 3b 99 3d 2f 33 91 bd a6 de 29 3e
       -0.0011299858 0.07482108 -0.070898406 0.1658884
0000a0 bd 4e f3 b9 22 22 54 3d c4 af e6 be 27 9a 03 be
       -0.00046407236 0.051790364 -0.45055974 -0.12851773
0000b0 d3 d2 f5 bd b2 eb b9 3d c0 29 94 bc e9 a9 8a 3c
       -0.12003102 0.090781584 -0.018086314 0.016926723
0000c0 13 08 50 be 6a 00 11 be ce 16 a0 be c0 0a e9 3d
       -0.2031558 -0.14160314 -0.312674 0.113790035
0000d0 d8 2e 38 bc 5c c4 67 3d 4f 52 4a bd 63 08 b9 bd
       -0.011241637 0.056583747 -0.0493949 -0.09034803
0000e0 00 0e 40 bd 80 db 35 bd fd 61 30 be b4 d4 06 3e
       -0.04688835 -0.044398785 -0.1722488 0.13167077
0000f0 e4 69 83 bc 60 7a 24 3e 5f eb 81 3e 01 06 9e bd
       -0.016041704 0.16062307 0.25374886 -0.07715989
000100 58 5e 1a bc 10 64 71 bd b3 f0 16 3b a1 d8 0a 3e
       -0.009421907 -0.058933318 0.0023031652 0.135592
000110 29 b6 79 bd 0c 32 87 3c b2 f7 0a be 75 f0 8e bd
       -0.060964737 0.016503356 -0.13571051 -0.06979457
000120 a4 0e 85 be b4 40 29 3d 53 c4 54 bd 69 86 9b be
       -0.25987732 0.04132147 -0.051945042 -0.30375984
000130 25 fc 41 3d 99 a4 3a be 72 38 89 3d 53 b5 93 bc
       0.047359604 -0.18226852 0.06700219 -0.018030798
000140 6c a1 cb bd ed 6c 4f 3e 1f 44 0b bd c7 3c 43 be
       -0.09942898 0.20256396 -0.034000512 -0.19066153
000150 e5 ec 14 3e b4 49 5e bd b0 c5 f7 3c 77 51 66 3e
       0.14543493 -0.054269508 0.030245632 0.22492014
000160 0c 12 31 3d 56 b8 10 3e fc 9b 9c bd 50 5e 3a bc
       0.0432301 0.14132819 -0.07646939 -0.011375025
000170 a5 4a 19 3a 3f b4 15 bd c1 0e 1c bb c3 ab 4e bd
       0.000584761 -0.03654885 -0.0023812505 -0.050456773
000180 2c 76 c4 bc 10 81 a4 bd ae 2f 83 3a 5c 1b 43 bd
       -0.02398213 -0.08032429 0.0010008716 -0.047633514
000190 50 0f e7 be 94 d4 6d 3c aa 31 0a 3d 2b 30 b7 3d
       -0.4512887 0.014516015 0.03373877 0.08944734
0001a0 b1 fd 5c 3e 1c 37 a0 3d dc f4 a2 bd ef 03 87 bd
       0.2158115 0.07823011 -0.079568595 -0.06592547
0001b0 45 43 95 3c 18 db 98 be 3e de 2e 3d 02 ba 55 bd
       0.018220553 -0.29854655 0.042692415 -0.052179344
0001c0 5e 2f 11 be d1 4f 1e be 43 32 2b bb 88 61 14 bc
       -0.14178225 -0.15460135 -0.0026122488 -0.009056456
0001d0 f1 96 89 3e 17 af 93 3d 2f 40 a4 be 9c bb dc be
       0.26872972 0.0721113 -0.32080218 -0.43111885
0001e0 cf cc 9b be 9b 93 cf 3c 4c 67 11 be 83 02 55 be
       -0.30429694 0.025338938 -0.14199561 -0.2080174
0001f0 15 0b c8 3e 83 84 52 bd ce c4 a6 bd 23 5f a5 bc
       0.39070955 -0.051395904 -0.08143006 -0.020186966
000200 70 c4 2b be 03 3c 14 bf 2b b0 0d bd 22 de c4 3d
       -0.16774154 -0.5790407 -0.034591835 0.09612681
000210 12 c4 bb 3c 8f 88 d1 bd c6 c6 35 bd 60 7b c1 3e
       0.022920642 -0.102311246 -0.04437902 0.3778944
000220 4e be 45 3e a5 97 8e be b2 6e 72 3e 94 89 d9 be
       0.19310877 -0.2785007 0.2367504 -0.42487776
000230 de e1 64 be f8 e1 4a be 2c 98 ab 3d 58 18 18 bd
       -0.22351786 -0.19812763 0.08378634 -0.03713259
000240 2d 6f 3b 3d dc 3b 18 bd 2a ac 16 3d 67 bf f4 bd
       0.045760322 -0.03716646 0.036785282 -0.119505696
000250 13 b2 87 bc 46 92 c0 be 72 93 12 bf 64 92 2f 3e
       -0.016564405 -0.37611598 -0.57256234 0.17145687
000260 94 5c c9 be 5f 2b 86 be e2 a9 63 3e 1b 14 af be
       -0.39328444 -0.26204965 0.22232774 -0.34195027
000270 37 d3 bc 3c 96 0f 1f 3d 5b 8b a2 be 61 c3 bc be
       0.023049934 0.038833223 -0.31746945 -0.36867812
000280 7e ca 71 3e 17 3b 3b 3e 18 83 81 3e 80 e5 6b 3e
       0.23612401 0.1828426 0.2529533 0.23036766
000290 fd b8 0d 3d 11 a1 85 3a 6a 88 49 bd 33 f0 a5 bd
       0.034600247 0.0010195096 -0.04920236 -0.08102455
0002a0 f0 89 48 be 36 88 a0 be e8 c9 08 bd af 31 e2 3d
       -0.19583869 -0.3135392 -0.033395678 0.11044633
0002b0 ac 60 c1 3e 86 3a ec be 22 a3 9e bc 62 a1 46 be
       0.37769067 -0.461384 -0.019364897 -0.193975
0002c0 21 92 87 be c0 6e 03 3f ef 2d e2 be 12 22 9d 3e
       -0.26478675 0.51340866 -0.4417567 0.30690056
0002d0 be 4a 9b be af d3 93 bd f2 04 2e bf 98 8e 47 3c
       -0.3033046 -0.0721811 -0.67976296 0.012179993
0002e0 db 53 9e be 04 54 60 bd 4a fa 51 be ea eb e5 3c
       -0.30923352 -0.054767624 -0.20505634 0.028066594
0002f0 6f 49 15 3d 74 c4 27 bf 9c ff 7a 3e b9 d7 98 bd
       0.036446985 -0.6553414 0.2451157 -0.07463021
000300 06 d6 1f 3e f4 9a cb be 24 8f cc 3e 28 e8 76 3e
       0.15608987 -0.39766657 0.39952958 0.24111998
000310 e2 70 e7 3d 59 e0 b6 be de 77 05 3f a5 7a 1a be
       0.113008276 -0.3571804 0.5213603 -0.15085848
000320 f2 79 41 bf a3 90 86 bd 40 d1 8e bd e2 77 57 3e
       -0.755767 -0.06570556 -0.06973505 0.21041825
000330 72 b1 67 bd 9e 54 4c be dc 79 18 bd 5c 34 a5 be
       -0.05656571 -0.19954154 -0.03722559 -0.3226651
000340 e6 23 99 3e e4 ed 54 be 0f c5 0c bd 68 27 4c bf
       0.299102 -0.20793873 -0.034367617 -0.7974763
000350 48 b6 5f be 2f a6 be 3d e0 47 de 3c 65 dc bc bd
       -0.21846879 0.09309041 0.027133882 -0.092217244
000360 f4 c6 fa be a9 76 ef be 39 93 82 bd 34 50 98 bd
       -0.48979914 -0.46770218 -0.06375737 -0.074371725
000370 18 c2 61 be 09 89 23 3b 5c 70 5e 3e a7 c4 89 be
       -0.22046697 0.0024953505 0.21722549 -0.26907846
000380 1a 15 67 bc ed 1f 71 bf c3 ea 43 be 6f 3d 2a bc
       -0.014104152 -0.9418934 -0.19132523 -0.0103906235
000390 ee f8 6f bc ea 1d aa bc cc fa 4a 3d f0 e9 e0 bd
       -0.014646752 -0.020766217 0.049555585 -0.1098212
0003a0 46 96 e7 3d 9f 5e f9 3e 04 67 48 bc d8 bc 66 bc
       0.11307959 0.48705003 -0.012231592 -0.01408311
0003b0 c6 a4 1d 3d 84 70 ab 3e e0 62 24 bd 42 fc 7b be
       0.03848722 0.3348428 -0.040133357 -0.24607947
0003c0 8b 92 8a bd c4 39 e4 bc ec 1b 13 bd 17 40 ca be
       -0.06766232 -0.027859576 -0.0359153 -0.39502022
0003d0 cb c3 9a 3d 16 6f 9a 3d 20 99 42 3d 8f cc 35 be
       0.07556876 0.07540719 0.047509313 -0.17753814
0003e0 56 95 39 3d 13 68 02 3d df 08 9c 3e df 92 a9 be
       0.045308433 0.031837534 0.30475518 -0.33119866
0003f0 f2 3c 87 bd 0f a9 0f be 97 9f f2 bd 66 30 c9 3c
       -0.06603421 -0.14029334 -0.118468456 0.024559211

mlp1.2.bias f4 [100]
000000 d6 0d 5a 3e d0 2a 83 bf 60 f4 a3 bc 96 a9 e2 3e
       0.2129434 -1.024744 -0.020013988 0.4427001
000010 db 3a 1d 3e 8f 38 61 3e f7 2f d8 bd 7b a0 f3 3c
       0.15354483 0.21994232 -0.105560236 0.029739609
000020 dc ac dd 3d 26 32 ba bd 46 63 9b bd b1 a3 85 3e
       0.10823986 -0.09091596 -0.07587294 0.2610145
000030 f2 c5 9c bb d2 c4 84 3e 5f e1 65 be f6 cb 9d 3e
       -0.004784339 0.25931412 -0.22449253 0.30819672
000040 a6 8e 24 3e 99 c3 a9 be ed a5 b8 3d e0 a5 72 be
       0.16070041 -0.33157042 0.09016023 -0.23696089
000050 07 bc 81 bd 46 ff f5 be d5 02 e8 bb 55 28 8d 3e
       -0.063346915 -0.4804632 -0.0070804157 0.27569833
000060 f8 cd 0f 3c 34 75 5f 3f ed f7 1d 3d 39 b2 39 3d
       0.008777134 0.8728821 0.03856652 0.045335982
000070 f3 36 84 be a6 fe be bd df 0f 73 be 74 b4 f7 bb
       -0.25823173 -0.09325914 -0.23736523 -0.0075593535
000080 fd 62 17 be 17 f1 ce 3d c5 45 b7 be ed 0e 02 3e
       -0.14783855 0.10104578 -0.35795417 0.12701006
000090 5e 81 ae 3c 2c 18 a0 3e 16 90 0a 3e 79 5e 5e be
       0.021301921 0.31268442 0.13531527 -0.21715726
0000a0 a6 34 d3 3c ec 93 c8 3c ce 4e 2e 3e 8c d2 a5 bd
       0.02578194 0.024484597 0.17022249 -0.08096799
0000b0 7b ee ff bd 13 36 89 bd dd 45 fc bc c4 16 55 3e
       -0.124966584 -0.06699767 -0.030795032 0.20809466
0000c0 c1 dd 28 3d c3 e0 f1 3e 46 92 65 bc 15 cc 8b bd
       0.041227106 0.47241792 -0.014011925 -0.06826035
0000d0 8c 10 b4 3d 53 27 86 be b7 f0 f8 3c 8a a7 11 be
       0.087922186 -0.26201877 0.03038822 -0.14224067
0000e0 ff 7c ab 3d 41 f4 e5 bd 76 9b 72 3c e5 ed 99 3d
       0.083734505 -0.11228228 0.014807573 0.07516078
0000f0 71 03 33 bc d8 6e 1f be 8a 8c 43 bd 0d 05 6e bd
       -0.010926113 -0.15569627 -0.04774145 -0.058110286
000100 9c 1d aa be fd 29 fa 3b 6c a5 d5 be 87 4a c1 3e
       -0.33225715 0.0076344 -0.4172777 0.37752172
000110 d2 74 3e bf 86 3c 96 be db 5f 8c bd 33 fb 84 bc
       -0.74397004 -0.2934305 -0.068542205 -0.016233062
000120 95 1e 02 3f 9b a9 cd 3d 03 45 c3 bb d4 2f ca bd
       0.50827914 0.10042115 -0.0059591546 -0.09872404
000130 e2 f2 6c 3e 99 72 fc 3c a2 68 cc bd 31 ac 64 bd
       0.23139527 0.030816363 -0.099808946 -0.055828277
000140 da 35 fc bc 10 8c 1a bf 8f 27 83 be ae b2 ab 3e
       -0.030787397 -0.6036997 -0.25616118 0.3353476
000150 10 41 51 be 5f b7 92 be 50 43 f6 bd 48 0b 6d 3e
       -0.20434976 -0.28655526 -0.120245576 0.23148835
000160 68 02 52 3e 6b 75 95 3d 3c 45 cb 3e 2c a8 49 3b
       0.2050873 0.07297786 0.3970126 0.0030770404
000170 4f cc c2 bd fe e8 ec bc c4 3d d4 bb af bd 82 bd
       -0.09511625 -0.028919693 -0.0064770896 -0.063838355
000180 c3 5b fe bd a5 30 bc be 08 71 84 bd be 31 f2 bd
       -0.12419846 -0.36755863 -0.064668715 -0.11825894

mlp2.0.weight f4 [100, 100]
000000 1d 2e 4b bc c4 a3 6e be ee 66 63 bb bd 13 48 3d
       -0.012401131 -0.23304659 -0.0034698802 0.04884695
000010 d1 bf 92 bc fb 9b b9 3d c0 d3 98 3d d1 a9 cd bd
       -0.01791373 0.09062954 0.07462263 -0.100421555
000020 e5 95 05 be 63 91 c0 3d bf 11 46 bd 4f c2 3c 3d
       -0.13045461 0.0940273 -0.048356768 0.046083745
000030 fa 5e 95 3d 46 f5 b0 3d 45 71 dc bd cb 80 a1 bd
       0.07293506 0.08640532 -0.10763792 -0.078858934
000040 7e 6a 9b bc ec a2 22 bc 37 3c 90 bd 29 95 6e 3e
       -0.018971678 -0.009926539 -0.07042735 0.23299088
000050 28 82 f2 bc a2 05 d1 bd d2 10 9e bd ac f7 8c bd
       -0.029603079 -0.102061525 -0.07718052 -0.06883177
000060 91 99 26 3d c6 7d 1c bc f3 bf 57 bd ea 9b 08 be
       0.040673796 -0.009551471 -0.05267329 -0.13340726
000070 19 60 c4 bd db 6b af bd f6 02 17 3e 2b 1a f8 3d
       -0.09588642 -0.08565494 0.14747223 0.12114366
000080 be 64 de bd c1 86 b0 bd 88 89 ab 3d cc d6 c6 bd
       -0.10859059 -0.08619452 0.083758414 -0.09708938
000090 84 47 01 be a3 07 1e 3d 7b d9 08 3b 27 9c d2 3d
       -0.12624937 0.0385815 0.0020881582 0.1028369
0000a0 d6 ab 2b 3d c2 ba 21 bd ad d0 9f bd fd d7 f1 bc
       0.041911922 -0.039484747 -0.078034736 -0.029521937
0000b0 88 d8 81 3d 2e 10 b7 3d 3c 05 5d 3b e9 ca 8c 3d
       0.06340128 0.08938633 0.0033725044 0.068746395
0000c0 a8 5c 08 3a ad 4b 6b bd ec 6d 80 bd cf f1 05 3c
       0.0005201795 -0.057445217 -0.06270966 0.008175327
0000d0 11 9d 54 bd 80 13 6a bd 45 75 f0 3c b1 51 e5 bd
       -0.051907603 -0.057147503 0.029352793 -0.11197222
0000e0 9d ff 75 3b 2b 45 e5 bc ec 81 c2 3d f3 89 a8 bc
       0.003753639 -0.027987083 0.09497437 -0.020573592
0000f0 52 28 ac bd 91 1f 80 3c c0 db a1 3d 76 ba fa bd
       -0.08406128 0.015640052 0.07903242 -0.12242596
000100 66 6c d4 bd a9 94 19 be 5a 4b 1a 3d c2 a0 55 3d
       -0.10372238 -0.14998116 0.037669517 0.052155264
000110 d6 de 9a bc f2 15 de bd 9c 74 64 3d 00 96 59 3d
       -0.018905085 -0.108440295 0.05577527 0.053121567
000120 9c 80 58 be 51 93 af bd a5 ab 91 3d 05 0c 81 3c
       -0.2114281 -0.0857302 0.07112817 0.015752802
000130 70 e4 8d bd f2 71 c3 3c b6 ec 8e 3b 84 64 ec bd
       -0.069283366 0.023858044 0.0043617142 -0.11542609
000140 df d7 b1 3d 3d 01 35 be 1a f0 51 3c 36 c6 2f bd
       0.08683752 -0.17676254 0.012813592 -0.042913638
000150 79 62 d8 bd 7b 1d e3 bc 82 16 c6 bb 7f af c3 bd
       -0.10565657 -0.027724018 -0.0060451636 -0.095549576
000160 9d 2d 16 bc 68 75 a1 3d 95 2e 36 3d 6e 81 2c bb
       -0.0091661485 0.078837216 0.044478018 -0.0026322263
000170 61 d7 03 3e 44 16 a5 bd 8b fc c7 3d 58 5b 98 3d
       0.1287513 -0.080608875 0.097649656 0.074392974
000180 e0 52 9f bb c5 5e f3 3a 39 a3 d3 3c 5f 93 ef bd
       -0.0048621744 0.0018567672 0.025834667 -0.11698031
000190 bf 1b 49 3e 29 90 1e 3e 40 77 2d 3a 47 93 9a 3d
       0.1963949 0.1548468 0.0006617196 0.07547622
0001a0 e0 41 a7 be a2 57 01 3e 3e 5b 98 bd eb 0f 8a 3c
       -0.32667446 0.12631086 -0.07439278 0.016853293
0001b0 ac b8 37 bc 29 ea 2c bd af f6 cf 3e d9 1e 75 3d
       -0.011213463 -0.0422155 0.40617892 0.05984387
0001c0 b6 fe 40 3c ad 05 b3 3c 7f 9b b3 bc 84 ba 88 be
       0.011779478 0.021853292 -0.021924732 -0.267048
0001d0 80 3a 15 be fc 33 db bd 76 ed 66 3e 65 58 9a bd
       -0.14573097 -0.107032746 0.22551522 -0.07536391
0001e0 93 c7 b5 bd f7 a5 6a be 2d b9 d3 bd c3 4f 7b bd
       -0.088759564 -0.22914873 -0.10338054 -0.061355364
0001f0 20 73 34 bd 9e 32 a6 be b0 bf c9 3c cd 75 80 bd
       -0.044055104 -0.32460493 0.024627537 -0.06272469
000200 32 22 7e be 24 4c 93 bd 25 07 7e be 65 94 bf 3c
       -0.24817732 -0.07192257 -0.24807413 0.02338619
000210 cb ca 88 3e aa b2 c9 bc 36 a0 f3 be 08 c6 59 be
       0.2671722 -0.024621326 -0.4758317 -0.21266949
000220 29 85 b6 3d 16 87 7a bd 7d 66 3b bd 58 1f 7d 3d
       0.08912117 -0.061163984 -0.045752037 0.06179747
000230 92 6f 06 be 6f 6d d8 bd 76 b5 a0 bd 69 2c 1d be
       -0.13128498 -0.10567748 -0.07847111 -0.15348972
000240 fa 69 f5 bd 3b d4 9c 3c 63 50 9c bd e0 1a 36 3d
       -0.11983104 0.019144168 -0.0763252 0.044459224
000250 84 d8 40 be b2 56 20 be 76 52 3c bd d9 62 9e bd
       -0.18832594 -0.15658072 -0.04597708 -0.077336974
000260 14 96 62 3d e3 94 80 bd 2c d2 8a bd af 87 c4 bc
       0.055318907 -0.06278398 -0.06778368 -0.02399048
000270 30 84 3a 3e b4 57 3c 3e 12 87 58 bd 48 45 ef bc
       0.18214488 0.18392831 -0.052863188 -0.02920784
000280 a1 94 95 bd 29 05 31 bd 7f 72 3f bd 82 dd 18 be
       -0.07303739 -0.04321781 -0.04674005 -0.14928249
000290 12 fb 0d be e2 85 8d 3d 5b f3 0b 3e 18 be 14 be
       -0.13865307 0.06910302 0.13667051 -0.1452564
0002a0 1d c3 83 3e 54 84 a6 3d ff ff f7 bc 87 94 87 bd
       0.25734797 0.08130708 -0.030273436 -0.06620126
0002b0 37 84 24 be 77 0c 5f 3e d7 c8 35 bd ec bf b2 3d
       -0.16066061 0.21782099 -0.04438099 0.087280124
0002c0 3e 74 ac bd 29 be 23 be 78 09 97 3d b2 75 9f bd
       -0.08420609 -0.15990509 0.07374853 -0.077861205
0002d0 bc f1 76 bd e4 db 1a bd a9 c4 09 3e d8 de 27 be
       -0.06028913 -0.03780736 0.13453926 -0.16393602
0002e0 2b 16 5f 3d 4c eb 04 be 38 5f 83 3e 68 39 08 be
       0.0544645 -0.12980384 0.25658584 -0.13303149
0002f0 d7 e8 1c 3e d7 67 02 bf bf e7 b6 bb 9d 4f 0d 3d
       0.15323196 -0.509397 -0.0055818255 0.034499753
000300 85 c9 c5 bc 52 da 9b bc 60 fb 91 bd b1 d1 5b be
       -0.024143944 -0.019025002 -0.07128024 -0.2146671
000310 3e 9a 8e bc 78 b6 3e be 8a 5d ad 3c 33 1c a2 bd
       -0.017407533 -0.18624294 0.021162767 -0.07915535
000320 de 62 97 bd 9d d1 7e bc 16 7c 96 3d ab f4 e8 bd
       -0.07391904 -0.015552905 0.07347886 -0.11374792
000330 fc 3d 9b 3d c3 84 75 be 28 20 40 3e dc 47 8c bc
       0.07580182 -0.23976426 0.18762267 -0.017124109
000340 b0 82 e9 bd fd 84 3c 3d 24 0d 10 be 05 23 8f bd
       -0.1140188 0.046025265 -0.14067513 -0.06989101
000350 1b 48 90 bd 4b 27 28 be 6b 74 af 3c de 1a ba bc
       -0.07045003 -0.16421239 0.021417817 -0.02271789
000360 99 6a 8d 3c 30 e9 d4 be 18 6e 05 be 82 d8 15 3d
       0.017262744 -0.41584158 -0.13030279 0.03658343
000370 85 2c b5 bd e6 c9 af 3e 78 f8 97 3d 3b 40 ea bd
       -0.08846382 0.34333724 0.074204385 -0.11438032
000380 d6 fa d0 bd 93 3f 4d be a4 51 19 3e 37 9f 65 bd
       -0.10204093 -0.20043783 0.1497255 -0.056060042
000390 f7 31 0d be ca 09 38 3e 25 5d 0e be 29 d5 2b be
       -0.13788591 0.17972484 -0.1390272 -0.16780533
0003a0 11 34 08 be f8 8a 8c bd 05 86 7d 3d f2 3a 80 3d
       -0.13301112 -0.06862444 0.06189539 0.06261243
0003b0 9d 16 b6 bd 12 26 aa bd e5 8e 7a bd 38 ca 1c be
       -0.08891032 -0.083080426 -0.06117143 -0.15311515
0003c0 c5 8b ce 3c ba 24 ba 3d 98 06 f8 bd 0f 08 0b 3e
       0.025213132 0.09089036 -0.12110633 0.13577293
0003d0 fe 2b 5f 3d c0 ef 6a 3d 6d 1d fe 3d 1c b0 94 bd
       0.054485314 0.05735755 0.12407956 -0.07260153
0003e0 e0 b7 de bc 3e af 24 bd 92 73 99 bd c8 75 a9 bc
       -0.027187288 -0.040206186 -0.074927464 -0.020686045
0003f0 fc 4c a7 3a 0a ea b7 bb 3f 42 21 bb c5 c7 16 3e
       0.0012764032 -0.0056126164 -0.0024606136 0.14724644

mlp2.0.bias f4 [100]
000000 ca b0 df bd d1 d7 83 be 7e c3 32 be 58 4e ac 3d
       -0.10922392 -0.25750592 -0.17457387 0.084133804
000010 3a 21 08 3f 8f a8 94 3e aa fe 98 bc d1 cf 8b bd
       0.531757 0.2903485 -0.01867612 -0.06826747
000020 f7 ea 5e 3e 6a 7a 7b 3e 22 07 8d 3d c4 cc 7f bd
       0.2176932 0.24558416 0.06886126 -0.06245114
000030 5d 18 15 be 06 aa 16 bd a0 af 0c be 7d 8c 2d 3e
       -0.14560075 -0.03678324 -0.1373887 0.16948123
000040 6c d3 8f 3d c6 96 db bd 24 f0 48 be 8c 84 31 3f
       0.070227474 -0.10722117 -0.19622856 0.69342875
000050 12 54 6f 3e 38 33 8e bd ab fa 8b 3e 8f 4d fc 3d
       0.23371914 -0.06943363 0.27339682 0.12319481
000060 25 76 d9 3e d5 fc 68 3c e7 f7 4b bd ef 46 39 bd
       0.4247295 0.014220436 -0.049796965 -0.045233663
000070 52 15 53 3e 98 df c0 3e 70 c3 b1 3d 5e 66 59 bd
       0.20613602 0.37670588 0.08679855 -0.05307614
000080 20 b5 d2 bd 9b bb f7 bd b3 e8 1f be c0 ce 5b be
       -0.10288453 -0.1209633 -0.15616111 -0.21465588
000090 89 e0 0e be ad 66 31 3f b7 0b af 3e bb b8 ce 3e
       -0.13952841 0.69297296 0.34188625 0.40375313
0000a0 25 fb 61 bd da 2f 1f 3f 8a 05 0c 3f 5c 35 3d 3f
       -0.05517115 0.6218239 0.5469595 0.73909545
0000b0 92 d2 02 be 39 06 60 be bc 6a 7f be c9 90 a7 3d
       -0.12775639 -0.21877374 -0.2494306 0.081819125
0000c0 d0 f4 69 be c2 50 d0 3d f5 61 d1 3e 1b b4 af be
       -0.22847295 0.10171653 0.40895048 -0.34317097
0000d0 81 1e 63 be 83 ca 2f bd 40 f1 22 3e 17 6f 27 be
       -0.22179605 -0.04291774 0.15912342 -0.16350971
0000e0 7a b6 f2 bd 2a a3 32 bd c0 7f 7d 3e 57 63 ac bd
       -0.11851211 -0.043612637 0.24755764 -0.08417385
0000f0 6f b9 16 3d cb 6a 9e 3e 8d 65 a5 ba 7e ba 03 bd
       0.036797937 0.30940852 -0.0012618765 -0.032160275
000100 fc 21 e8 bd 7f b1 cd 3d c0 34 fe 3d 39 93 ca be
       -0.11334607 0.1004362 0.12412405 -0.39565447
000110 95 6f 93 3e b0 db 0c be 7b 2a a4 bd c2 cd 49 be
       0.28796068 -0.13755679 -0.08015915 -0.19707397
000120 83 0b af 3d df 8f 99 3d a2 36 f4 3e 62 3c 96 be
       0.085471176 0.07498144 0.47697932 -0.29342943
000130 b1 5c 4c 3e 6d a1 18 3c 51 81 ed bd fc 23 c7 bd
       0.19957234 0.009315831 -0.11596931 -0.0972366
000140 7f 14 14 3e ef 54 cb bc 35 a0 33 3f 43 47 50 3e
       0.14460944 -0.024820773 0.7016633 0.20339684
000150 88 b9 00 3f f5 95 22 be ef 5e ee bd 70 a4 9e be
       0.502831 -0.15877517 -0.11639201 -0.3098483
000160 e9 95 ad 3e 2c aa 0d bd 75 57 f0 bd 58 28 74 bd
       0.33903435 -0.034586117 -0.11735431 -0.059608787
000170 ab 04 93 bd 50 72 53 be 36 81 b6 bd ef 59 7e 3e
       -0.07178625 -0.20649076 -0.08911364 0.24838994
000180 63 1e 1f be 52 5f a9 bd 52 d3 c1 3e 44 e1 19 3d
       -0.15538935 -0.08270134 0.37856537 0.037568346

mlp2.2.weight f4 [50, 100]
000000 25 48 8f 3c 88 36 d7 bc 99 cf 97 bd b5 ab 14 be
       0.017490456 -0.02627112 -0.07412643 -0.14518626
000010 35 5c b4 3d 08 7c 26 bd 85 56 21 bd 61 69 6c 3d
       0.088066496 -0.04064563 -0.039389152 0.057717685
000020 ba 2f 1a 3e 51 85 25 3d 49 0a 70 3d 05 e5 e6 38
       0.15057269 0.040410344 0.05860356 0.00011009913
000030 76 d0 68 3d 95 68 e3 bd 3b 41 54 bd aa 58 d9 3d
       0.05683943 -0.11103932 -0.05182002 0.106126145
000040 df b5 e3 3d a1 08 fe 3d 46 72 85 3d 34 61 54 bd
       0.111186735 0.124039896 0.065159366 -0.051850513
000050 e1 70 34 bd dd c5 58 bd 87 eb 32 be 2b 03 d2 bb
       -0.044052962 -0.052923072 -0.17472659 -0.006409069
000060 86 c0 73 bb a8 e1 59 3d ae 20 18 be 04 86 d5 bd
       -0.003719361 0.05319372 -0.14856216 -0.10425952
000070 ae e1 24 be 82 1f b7 bd a2 f7 f9 bd 5f 4f 8d 3d
       -0.16101715 -0.089415565 -0.12205435 0.068999045
000080 09 35 d0 bd 55 f8 8c 3d 6a 61 00 be c2 9d 91 bc
       -0.10166366 0.06883303 -0.1253716 -0.01777542
000090 9b f3 52 3d f6 80 64 3e da 16 01 be f7 e7 d2 3d
       0.05150185 0.2231482 -0.12606373 0.1029815
0000a0 0c 19 d4 3d 73 cd 2e bc 63 8a dc bd 94 bc 10 3e
       0.1035634 -0.0106691 -0.10768583 0.14134437
0000b0 1f 58 67 3d 91 4a c3 b9 b9 8b c0 3e 8c 1e 8c 3d
       0.056480523 -0.00037248855 0.376066 0.06841764
0000c0 cb b5 21 be 78 8d ae bd fb 20 51 3d f2 d8 ce 3d
       -0.15792005 -0.08523077 0.051056843 0.10099973
0000d0 17 94 0e be d2 3e 64 bd fb 5c ba 3c ae ec 08 bd
       -0.1392368 -0.055723973 0.022749415 -0.03342884
0000e0 b0 df 35 bb 5e 4b d8 3d 05 57 f7 3d af f4 b8 3d
       -0.0027751736 0.1056125 0.120771445 0.09031045
0000f0 e8 3a d2 bd 67 88 2f 3d 7e 00 76 3d 82 95 5f ba
       -0.10265142 0.042854693 0.060059063 -0.00085290533
000100 c1 5e 54 bd 64 81 28 bb 04 df 3f bc 3f 95 1d be
       -0.051848177 -0.0025711888 -0.011710886 -0.15388964
000110 16 f2 9a bd 2a ca a5 bd 6e 1d ed bd e1 30 3d bd
       -0.075657055 -0.080952 -0.11577879 -0.046189193
000120 b6 bc 17 3e dd ac 56 bd d4 d8 a4 be fa 78 97 bc
       0.14818081 -0.05241095 -0.32196677 -0.018490303
000130 d7 2e 85 bd b4 bb 19 bd 54 27 01 be 60 69 9b 3a
       -0.065030746 -0.037532523 -0.12612659 0.0011856966
000140 5a fa bb bd 90 73 c5 bd 5a 58 3b 3e fd 43 1f 3c
       -0.0917861 -0.096411824 0.18295422 0.0097207995
000150 f3 31 95 bc 27 77 1d be 53 75 31 3e 15 8f 12 bc
       -0.018212294 -0.15377484 0.17329912 -0.008945246
000160 9c 7d 92 bd d7 4e 88 3c a6 d8 01 3d 8d 0d e1 bd
       -0.07152864 0.016639156 0.031700753 -0.10988913
000170 62 b5 23 bd c9 84 26 3e 05 17 12 3e 96 ab 13 3e
       -0.039967902 0.16261591 0.14266594 0.14420924
000180 5d c5 0e bd 46 83 a3 3d 19 b3 a0 be fc 3f d5 3d
       -0.03485619 0.07984023 -0.3138664 0.10412595
000190 2e 72 c7 3d 52 a2 13 3e 4b ff 64 bc b0 8a 8b bc
       0.09738575 0.14417389 -0.013976882 -0.017033905
0001a0 2c 6a ed bd 8a 85 c2 3c bb c6 a0 bd 91 67 d5 3d
       -0.11592516 0.023745317 -0.07850405 0.10420144
0001b0 3f 17 3c 3d fd 1d 8a 3d 92 cc e9 3c 82 b6 a4 bc
       0.045920607 0.06744001 0.02853993 -0.020106558
0001c0 88 2c ac bd 96 0b f4 bd d4 32 77 3c 4c 1b 15 ba
       -0.08406931 -0.11916272 0.015087802 -0.00056879665
0001d0 39 9a 5b bd 56 5d d5 3d 95 67 16 3e a9 a0 f8 bd
       -0.053613875 0.10418193 0.14687951 -0.121400185
0001e0 90 64 94 bd 1f a6 0d 3d c0 00 8d 3d be 98 7b bc
       -0.07245743 0.034582254 0.06884909 -0.015356241
0001f0 cd ba a4 bb d5 4e 24 3e d5 42 fb bd f0 27 aa 3d
       -0.005027151 0.16045697 -0.122686066 0.08308399
000200 aa 50 26 bd dc 6f 15 3d 26 be 18 3e fd a1 f3 3d
       -0.04060427 0.03648363 0.14916286 0.11896131
000210 57 47 8d bc d5 f7 17 3d df b9 4a bc b4 d8 d9 3d
       -0.017245932 0.037101585 -0.012373417 0.10637036
000220 1d e0 e9 3d 8d ff 14 3d 9c a4 4b 3d d9 82 21 3e
       0.11419699 0.036376525 0.04971753 0.1577257
000230 ec 19 a3 3d 85 78 14 3d 3a 51 03 3d af 40 e7 3d
       0.079639286 0.03624775 0.032059886 0.11291634
000240 15 11 17 3d 9b 98 26 3d b0 0d cf bd 03 1e 24 3e
       0.036881525 0.04067288 -0.101100326 0.16027074
000250 40 9d 81 3d 85 4d de bd 80 9f 29 3e 85 66 2b 3e
       0.06328821 -0.108546294 0.1656475 0.16738327
000260 95 30 da bd 97 07 08 3d f4 7c 16 3b 27 b3 2b 3e
       -0.106537975 0.033210363 0.0022962661 0.1676756
000270 61 eb 54 3e df df 54 3e 1a aa 40 3e 6a cf 8e 3d
       0.20792915 0.20788525 0.18814889 0.06973155
000280 cb 95 dc bb c6 b0 c5 bc 19 23 6a bd 46 54 e1 bd
       -0.006731724 -0.024132144 -0.057162378 -0.11002402
000290 4a 3b 92 bd 20 b2 09 3d 4e 1c 77 3d 05 a7 58 3d
       -0.07140215 0.03361714 0.060329728 0.052893657
0002a0 9f ad 11 bd 8f 1a 3d 3c 71 f3 73 3d 42 51 8e 3d
       -0.03556597 0.011541977 0.059558336 0.069490924
0002b0 55 65 32 bc 6e 53 7d bd 46 28 5f be 6a 95 0a 3e
       -0.010888417 -0.061847143 -0.21792707 0.1353356
0002c0 9f ea 3d bd 64 51 94 3d 9f 23 2a bc f1 b0 db bd
       -0.04636633 0.072420865 -0.010384469 -0.10727108
0002d0 02 09 9a bd 78 8b cb bd d9 75 60 3d 0b 69 7f 3d
       -0.07521249 -0.09938711 0.05479989 0.062356036
0002e0 64 af ae 3c 19 ae 14 3d 52 d5 08 3e dc 87 7c bd
       0.021323867 0.036298845 0.13362625 -0.061653003
0002f0 7f 13 12 bd 24 ac 4b 3d 7f 7a 28 bc d1 13 69 bd
       -0.035663124 0.049724713 -0.010283112 -0.056903664
000300 4e da a3 bd 8e d9 74 3e 11 24 0c bd 3b 8e c0 3b
       -0.08000623 0.23911116 -0.034214083 0.00587633
000310 92 1f 32 3e 2d 58 15 3e 40 4a 4c be 9c 3f 21 3e
       0.17394856 0.14584418 -0.19950199 0.15746921
000320 ba a3 09 bc 02 52 8f bd 22 b8 4c be 70 8f d7 3d
       -0.008400852 -0.069980636 -0.19992116 0.105254054
000330 5f f6 2e 3c 1c 46 92 3e a2 0c a9 3c 55 40 cd bd
       0.010678857 0.28569114 0.020635907 -0.10022036
000340 b1 a3 ab 3e 21 12 3b bb 85 18 e8 bd 65 9d f9 3d
       0.33523324 -0.0028544741 -0.11332802 0.12188224
000350 23 37 8e 3d 3e 75 cb 3d 45 a6 82 be d7 70 26 3e
       0.0694411 0.099344715 -0.2551748 0.16253982
000360 2d 51 3a 3e 81 90 84 be fc 47 ca bd 71 7f 9d bd
       0.18195029 -0.25891498 -0.09877011 -0.07690323
000370 ec 83 78 bc 34 3e 8b 3d f7 a2 d6 3d 1a d4 22 be
       -0.015168171 0.06798974 0.10480302 -0.15901223
000380 86 a6 c4 bd f3 cf 29 be 42 70 6f be 89 fb c2 bc
       -0.09602074 -0.16583233 -0.23382667 -0.023801582
000390 c1 b8 bd bd 10 5d 94 3d 45 c6 0f be d7 ac 20 be
       -0.09263755 0.07244313 -0.14040478 -0.15690933
0003a0 5d 79 89 3d a6 3d 0c 3e 8d 31 33 be 63 f8 df bc
       0.06712601 0.13695392 -0.17499371 -0.02734012
0003b0 1d 54 8a 3d ad 8c 55 be 22 eb 2e 3e 65 18 37 3d
       0.067543246 -0.20854445 0.17081884 0.044701
0003c0 a5 e3 79 3d 3f 0e 61 be 64 c7 e3 3d c5 e9 94 bc
       0.061008114 -0.2197809 0.11122015 -0.018177876
0003d0 6b 18 be 3c 66 bc 5e 3b 17 30 a7 3e 4c a5 09 bd
       0.023205003 0.0033986806 0.32653877 -0.033604905
0003e0 74 c7 f7 3d 10 d9 c9 3d a7 15 22 be 36 d1 50 be
       0.120985895 0.098558545 -0.15828572 -0.20392308
0003f0 8d 49 af 3d 6d 86 81 3d 4a 83 9c 3c a7 67 0f be
       0.085589506 0.06324468 0.019105572 -0.14004384

mlp2.2.bias f4 [50]
000000 33 78 bc bc 19 fe 9b be 9d 38 f7 3e e7 e4 5e be
       -0.023006534 -0.304673 0.4828538 -0.21767007
000010 92 1a 31 be b1 5c 78 be 27 22 c3 bd a5 82 04 bb
       -0.17295292 -0.24254109 -0.095279984 -0.0020219472
000020 a2 c7 b6 bd 34 77 b2 bd 17 88 c6 bc b2 51 e1 be
       -0.08924796 -0.087141424 -0.024234815 -0.4400764
000030 d1 6b 97 be 34 25 8f 3d 7a cf 89 3e f4 52 62 be
       -0.29574445 0.06989518 0.26916105 -0.22101957
000040 68 95 4f 3e bb 3e 90 3e 5f 7d 55 be 89 d1 df bd
       0.20271838 0.2817286 -0.20848607 -0.109286375
000050 80 73 0e bf 0e 3e d7 bd ab 13 ce 3d 70 e1 ff bb
       -0.5564499 -0.10509883 0.10062345 -0.0078088567
000060 0f 68 db bc 6c 7a 41 bd cc 50 3c be 6c 62 79 be
       -0.026783017 -0.04723589 -0.18390197 -0.24353951
000070 31 f0 11 be 21 9e 85 be a3 b4 08 bd be 53 98 be
       -0.14251782 -0.26097205 -0.033375394 -0.2975139
000080 e2 c3 7f 3e 89 ae 85 3c 3f 82 39 be 59 72 b4 3b
       0.24977067 0.016318576 -0.18116091 0.0055067954
000090 6a 7a 95 3e f1 6a 0c be 96 c2 f2 3e 83 c1 43 3c
       0.29194957 -0.1371267 0.47414082 0.011947992
0000a0 27 a4 2b bd ac 22 84 be b7 b2 4e 3e 1e 6e 6f be
       -0.041904595 -0.25807703 0.20185362 -0.2338185
0000b0 a6 d8 a0 3e 74 9e 07 3e c1 fb dc bc 1e 1a 20 3f
       0.3141529 0.13244039 -0.026975514 0.6253985
0000c0 ab 62 11 3e c2 fb 28 3e
       0.14197795 0.16502288

attention.0.weight f4 [100, 100]
000000 a9 09 3c 3a 8c 59 db bd e6 02 b9 3c 4d 42 cd 3d
       0.00071730703 -0.10710439 0.02258439 0.100224115
000010 0d f2 37 bd a0 c3 0c be 32 29 a7 3d ea 85 72 bd
       -0.044908572 -0.137465 0.08162154 -0.05920974
000020 d9 36 be 3b bf 6f 86 3a 91 e8 43 bd c5 b9 08 3b
       0.005804878 0.0010256692 -0.047829214 0.002086268
000030 d1 00 a4 3c b1 e8 f8 bd b4 7a 78 bc a4 ec 26 be
       0.02001992 -0.12153757 -0.015165973 -0.16301209
000040 2f 42 6d bb 61 f3 22 3d ae db 7f ba 64 46 2b 3e
       -0.0036202779 0.039782885 -0.0009760213 0.1672607
000050 5d 9e 47 3b 34 21 2b 3e 89 25 08 3d 12 6e bc bd
       0.0030459382 0.16711885 0.03323892 -0.09200682
000060 4f 3c 22 bd 54 d3 bf bd c7 42 de bd 92 6a e7 bd
       -0.039608296 -0.093664795 -0.108525805 -0.112996235
000070 a2 38 af 3b 27 9e f7 3c ac 83 18 be 3d 90 3e 3d
       0.0053473273 0.03022678 -0.14893979 0.046524275
000080 d8 29 b9 bd 80 05 53 3d 99 ba 84 bc 0a c0 8b 3d
       -0.09041184 0.051518917 -0.016202258 0.06823738
000090 03 2b 2c bd b2 ec 52 bc 07 13 22 3c 27 d4 90 3d
       -0.042033207 -0.012873815 0.009892232 0.07071715
0000a0 91 fe 9b bd b5 f2 73 3b f2 87 92 3d db b2 66 3c
       -0.07616914 0.0037223522 0.07154836 0.014080728
0000b0 8f 36 cb bd 7e 36 9f bc f6 d6 f8 bc ec d3 b5 bd
       -0.099225156 -0.019435164 -0.030375939 -0.088783115
0000c0 58 69 b7 3d 0e 93 3f bb 39 98 9e bc 87 78 c6 3d
       0.089556396 -0.0029231939 -0.019359695 0.096909575
0000d0 79 14 3d bd 44 69 e3 bd 99 cb 73 3c ea 0b 27 3c
       -0.046162102 -0.11104062 0.014880084 0.010195712
0000e0 aa ba 4f bb f5 4f e4 bd 9a 27 fe 3c ad 7d c4 3d
       -0.0031696954 -0.11148063 0.031024743 0.09594283
0000f0 f3 ae d7 3d fb 53 82 bc 24 7e 17 bd c0 80 bb 3b
       0.10531416 -0.015909186 -0.03698553 0.0057221353
000100 81 a3 79 be c6 f1 1e bd bc 0f 0c be 5d 22 93 3c
       -0.24378778 -0.038804792 -0.13677877 0.017960722
000110 92 98 eb 3d c6 8c 45 bc 19 5b a1 3b a0 1e 83 ba
       0.1150371 -0.012057489 0.0049241898 -0.0010003634
000120 f2 61 33 3c 2f 95 a0 bd df 0e d5 bd 31 58 82 bd
       0.010948645 -0.078409545 -0.10403227 -0.063644774
000130 fb 11 72 bd 53 f0 86 3d 3f 79 88 3d cb 49 b2 3d
       -0.05909918 0.06588807 0.06663751 0.08705481
000140 47 24 2c bc c1 3b 84 3c ee 4d b9 3d 6b 6e 18 bd
       -0.010506696 0.016141774 0.09048067 -0.037214678
000150 47 84 03 3d 5a 89 47 bd fb 0d c7 bc a4 f0 95 3d
       0.03210857 -0.048714973 -0.024298659 0.07321289
000160 4c 36 b4 bd a4 f5 c2 bc 97 e1 cc 3d 36 ec 74 3c
       -0.08799419 -0.023798771 0.10003965 0.014948895
000170 93 b1 09 bd 2c bf 2c 3d d0 a8 a2 3d 2b d0 01 be
       -0.033616614 0.042174503 0.07942355 -0.12677066
000180 40 fb f8 bd 55 ed ac bd fd a0 21 3d 20 f7 8f bd
       -0.12157297 -0.08443705 0.03946017 -0.07029557
000190 3b 2c eb bb 98 ad 96 bd 70 2c 51 bd a1 a7 02 bd
       -0.0071769035 -0.07357329 -0.05106777 -0.031898145
0001a0 04 78 ef bb 16 17 99 bd b9 64 34 bd 5e 84 9e bd
       -0.007308008 -0.074751064 -0.04404137 -0.07740091
0001b0 d3 18 29 bd 76 d2 94 bd a9 4c 87 bc 09 ed a0 bc
       -0.04128344 -0.07266705 -0.016516047 -0.019644277
0001c0 01 b2 ca bd 24 21 c3 3d c2 9d 48 3d 6f 44 86 3c
       -0.09897233 0.095278054 0.048978575 0.016390054
0001d0 4f f1 1f 3d db c4 9a bd 91 35 eb 3c 51 0c 30 3d
       0.03904849 -0.075570785 0.028712066 0.042980496
0001e0 0d 0f 3d bd 44 62 f9 bd 9d c9 9c bd 0b b4 05 bd
       -0.04615693 -0.12176946 -0.07655642 -0.032642405
0001f0 7d fa 20 3d 0d 4e 0b bd d2 3d 94 3d 0a 88 88 3d
       0.039301384 -0.034009982 0.07238354 0.066665724
000200 d3 ca 1c bd c6 9a 22 bd 4f e9 2c bd 3b 2a 58 3b
       -0.038279366 -0.039698385 -0.042214688 0.0032984156
000210 6a 09 80 bd 32 e9 94 bd 2e 28 9f bd f7 54 87 bd
       -0.062517956 -0.07271041 -0.077713355 -0.06608003
000220 5b e4 a2 bd e0 3c d3 3c a4 0a c7 bc 9b 78 24 3d
       -0.079537116 0.025785863 -0.024297066 0.04015408
000230 45 d8 0b bd 2d e9 40 3d e7 85 61 bd d4 3c 07 3d
       -0.034141798 0.047097374 -0.05505934 0.033016995
000240 19 db bf bd 68 d0 ad bb a6 b5 c6 bd b7 2d d3 3d
       -0.093679614 -0.005304385 -0.097026154 0.10311454
000250 c6 4b 46 bd 0e b0 38 bd e7 0d 0a 3d 96 df 94 bd
       -0.048412107 -0.045089774 0.033704665 -0.07269208
000260 e0 f3 7b bd 63 ca 92 bd 59 38 2c 3d ad 82 a4 bd
       -0.061511874 -0.071675085 0.042045925 -0.08032737
000270 73 de 40 bc 29 2e 62 bb ae b9 d9 bc d6 a0 64 3d
       -0.011771786 -0.0034512377 -0.026577797 0.055817448
000280 2c 9e 90 bb 11 b3 96 bd 7f 9f a7 bd 2a 95 27 bd
       -0.004413387 -0.07358373 -0.08184718 -0.04091374
000290 8c b8 7c 3d ec 85 6b bd 88 c9 01 bd bb 66 9c bd
       0.061699435 -0.057500765 -0.031686336 -0.07636782
0002a0 ba c4 0a 3d 8c c6 9a bd 56 05 a1 3d 9a 16 c3 bd
       0.03387902 -0.07557401 0.07862346 -0.09525795
0002b0 99 56 1f be 1b 66 53 bd d0 a6 ac bd 09 68 9d 3d
       -0.15560378 -0.051611047 -0.084302545 0.07685859
0002c0 db 56 f6 bc c6 5a eb bd b8 3a 73 bd fd a9 07 3d
       -0.030070713 -0.11491923 -0.05938217 0.033121098
0002d0 f5 ba b5 ba fc 29 31 bd d5 4b 6a bc ab 72 6e bd
       -0.0013864922 -0.04325293 -0.014300306 -0.058214825
0002e0 0f 6f da bd ef 18 82 3c 91 ed 17 3d ec f9 8b bd
       -0.10665714 0.01588103 0.037091795 -0.06834778
0002f0 41 bd 89 3c 8a 63 fd bd 32 73 27 bd 31 a3 73 bd
       0.016813876 -0.12372501 -0.040881343 -0.059481803
000300 33 b4 ef bd 2b 96 96 bd a2 2b 98 3d c4 b3 ea bd
       -0.11704292 -0.07352861 0.07430197 -0.11460069
000310 69 4c a6 3d ce 96 51 bc 8c 8c 8c bd 7a 56 9d 3d
       0.08120043 -0.012792302 -0.06862745 0.0768251
000320 4c 33 3c bd ee 97 29 be c2 7d ba 3c c0 10 ca bd
       -0.045947358 -0.16561863 0.022765044 -0.09866476
000330 4f c8 ac bd 4d 1e 86 3d b3 75 95 bd 00 52 22 3d
       -0.08436643 0.06548748 -0.0729784 0.039628983
000340 25 90 86 bd 96 f5 1e bd c5 3e 39 bc ba 73 c9 bd
       -0.06570462 -0.038808428 -0.011306469 -0.09836526
000350 67 9c ab bd 54 5d f9 bc 5b d8 bd bd 66 80 a1 bd
       -0.08379441 -0.03044001 -0.09269782 -0.07885818
000360 54 12 5c 3c fc 7a 0c be 78 10 93 bd 24 a9 79 3d
       0.013432104 -0.1371879 -0.071808755 0.06095232
000370 e1 97 05 bd 1f a3 d7 3d 8d 44 8c bb 77 75 8f bd
       -0.032615546 0.1052916 -0.004280633 -0.070048265
000380 90 48 38 bd a2 54 dc bd ce 3c df bd f5 3c 7f 3c
       -0.044991076 -0.1075833 -0.109002694 0.015578498
000390 04 76 0d 3e d2 8c a3 bd 09 ef 1e 3e c4 3b cf bd
       0.1381455 -0.07985844 0.15520872 -0.10118821
0003a0 39 5f d8 bd 36 4e 91 3d 02 8e fc 3d 6f 5b 67 3d
       -0.10565037 0.07094996 0.12331773 0.056483682
0003b0 fa 89 03 be b9 62 c5 3c c1 5c 8a 3d c1 72 ba 3d
       -0.12845603 0.024094926 0.06755973 0.09103919
0003c0 19 71 49 bb 0d 97 af 3c eb c9 e9 bd ce 38 63 bd
       -0.0030737577 0.021434331 -0.11415466 -0.055474095
0003d0 e3 be 81 bd 5e 85 7a 3d 85 04 23 3d c5 93 14 bd
       -0.06335237 0.061162345 0.039799232 -0.036273737
0003e0 a9 8d 9a bc c5 86 bb 3d 63 5e fb bd bd 9c 9c 38
       -0.018866377 0.091565646 -0.12273862 7.4678544e-05
0003f0 7d b3 d9 bd 8e 65 0d be 69 67 99 3c 1c f7 f4 bd
       -0.10629938 -0.13808271 0.018726068 -0.11961195

attention.0.bias f4 [100]
000000 97 9d 07 3e d2 04 c6 3b 31 50 9b bc db 3e 00 be
       0.1324371 0.006043055 -0.018959137 -0.12523977
000010 38 20 ea 3c 00 29 2f 3e a5 07 be bd 51 78 0d be
       0.028579816 0.17105484 -0.09278802 -0.13815428
000020 86 02 21 3c cf c1 22 be a1 b8 3e 3e 09 c5 77 be
       0.009827262 -0.15894245 0.18625118 -0.24196257
000030 84 e3 b4 bd 96 01 3a 3d 6c 58 d3 bd 57 ab d4 bd
       -0.08832458 0.04541167 -0.103195995 -0.10384243
000040 5f 9d 13 be e4 4d d5 bd 86 0c 0e be 50 27 46 be
       -0.14415501 -0.10415247 -0.13871965 -0.19350934
000050 8e c1 13 be a2 b1 b1 bd 1f 52 40 3d ec 81 70 bd
       -0.14429304 -0.08676459 0.046953317 -0.058717653
000060 3a e0 b4 bd 5e bd b5 be 13 a0 f7 bd ae 5e 16 3c
       -0.0883183 -0.35496038 -0.120910786 0.009177847
000070 45 22 5c 3d 21 cb 82 bd fa e7 f7 bd 2b c5 e8 bd
       0.05374362 -0.063864 -0.12104793 -0.11365732
000080 a9 13 97 3d a2 64 12 be 3b f5 ca bd d4 56 f1 3c
       0.07376797 -0.14296201 -0.09910055 0.029460348
000090 fd 43 0f be 23 a4 8d be 52 e7 7f be 38 74 a6 bd
       -0.13990779 -0.2766429 -0.24990585 -0.08127636
0000a0 a3 d8 4f be be 71 7e be 56 c8 86 3b c5 91 07 3d
       -0.20297484 -0.24848077 0.0041132374 0.033098
0000b0 d7 f8 51 3e 55 e0 35 be 98 c9 83 be 4b 93 8b bd
       0.20505081 -0.17761357 -0.2573974 -0.06815203
0000c0 5a 30 ee bd 85 b4 61 bd 08 4d 27 be a2 19 d6 bc
       -0.11630316 -0.055103797 -0.16337979 -0.02613527
0000d0 79 b8 bc bd 73 18 c2 bd 76 10 3a be df 4c c0 bd
       -0.09214873 -0.094773196 -0.18170342 -0.09389662
0000e0 b5 48 7c 3d 83 7f c1 bc 36 88 f2 3c b2 df 6b be
       0.061592776 -0.023620373 0.029605966 -0.23034552
0000f0 9c 29 97 be 0c 82 49 be a1 7c 1d be 12 78 c8 3b
       -0.29523933 -0.19678515 -0.15379573 0.006117829
000100 ce 25 1c be 9e 52 71 be 95 a1 05 3e 2a 25 14 bc
       -0.15248796 -0.23566672 0.1304992 -0.009042064
000110 ff 0f a2 bd e5 1b 95 bd 01 3c a8 bd 94 aa a4 3d
       -0.07913207 -0.07280711 -0.0821457 0.08040348
000120 54 f7 26 be 3b 32 ad bd ba c7 10 be 5d 2e 6f be
       -0.16305286 -0.08456846 -0.1413869 -0.2335753
000130 84 79 56 be 7c be 94 3c f8 0b 8e bd 30 4e da bd
       -0.20944792 0.018157236 -0.069358766 -0.10659444
000140 6a 05 9e bd 60 68 e1 bd e6 ae 3d 3e b6 6a e5 3d
       -0.077158764 -0.11006236 0.1852375 0.11201994
000150 fe 28 46 bd 2a 37 d0 bc 6e 27 a6 be 1b f9 a4 bd
       -0.048378937 -0.02541693 -0.32451957 -0.080553256
000160 ca c7 51 bd d0 f5 81 3e 7a a8 d4 3d bb a5 18 be
       -0.051215924 0.25382853 0.10383697 -0.14906971
000170 73 c0 81 bd b3 37 c6 bd ab c9 84 bd 42 97 49 be
       -0.06335535 -0.096785925 -0.064837776 -0.19686607
000180 46 c1 9a bd be cd 67 be ab 94 cf bd 7c bc 81 3d
       -0.07556395 -0.22637078 -0.10135778 0.06334779
