sarl_star_ros/CrowdNav-crosspath/crowd_nav/data/output_blockpath/il_model.pth (torch_old, 349196 bytes, 20 tensors)

mlp1.0.weight f4 [150, 13]
-0.12882365 -0.020692104 -0.40078065 -0.08704808 -0.04341568 -0.1364503 -0.48126185 0.06758
-0.35324946 0.24657649 -0.10932151 -0.14149643 0.020948006 -0.31709105 0.035200354 0.43139732
-0.2925013 0.09675683 0.5947005 -0.22215492 -0.9003456 -0.34106693 -0.5975665 0.1770122
-0.09747566 0.10438246 0.12629257 -0.25232488 0.031747576 -0.018552877 1.921165 0.35936102
0.68143845 0.5440014 0.99008334 2.5827382 -1.2593967 -0.32574826 -1.361282 -0.55109006
-0.16688174 0.93684894 -0.045365013 0.6127844 0.39097753 0.17449793 0.0046030446 0.1250403
-0.38636366 -0.37823227 -0.2470676 -0.23868854 -0.21180375 1.1836046 1.0109175 0.48378462
0.6821575 -0.028773544 1.8958478 1.989237 -1.209463 1.671496 0.35364172 -2.226857
0.74095416 0.052923955 -0.4028827 -0.8758641 -0.090588704 -0.36554623 0.1960814 -1.0012467
-0.0118760485 0.85919577 -0.7215408 -0.5279281 0.1696031 -0.18766515 -0.060690343 0.23274265
-1.5884182 0.20713939 2.418927 0.12273474 -1.1364824 0.3821461 -0.7472865 0.013773122
1.8973509 -0.955574 2.0459812 0.74013275 -0.15585211 -1.1685959 -0.064311065 1.1090416
-0.90200055 -1.7593205 -0.26743424 -0.47898105 -0.59187776 -0.6857506 -1.4188026 -1.00957
-1.4401176 -0.13449001 -0.63511884 0.06182016 -0.5796095 0.11160921 -0.011348571 0.24716912
-0.77280426 0.9131211 -0.57727957 1.3529989 -0.38421625 -0.10380611 -0.5389983 0.81743073
0.071600124 2.3893511 0.31647506 -1.0950819 -0.20084007 0.60385865 -0.8028149 0.41916427
-0.34118554 0.42769322 -0.2780727 0.3045404 -0.2729399 0.2234304 0.33185366 -0.17334948
0.21189265 -0.017589398 -0.05794989 0.1882711 0.021134008 -0.15740728 -0.07773989 -1.0667697
-0.28619677 -1.0631766 -0.24719658 -0.4955163 0.08340905 0.49777812 -0.29631633 -0.34195504
0.87695324 -0.4104415 0.84110403 -0.22074603 0.026097154 -0.68651134 0.3845646 0.14526758
-0.10796787 -0.25004986 -0.5020049 -1.1785512 -0.6752143 0.6597941 -0.5116193 -0.55597407
-0.3303577 -0.34521094 -0.06103045 0.36155492 0.22194183 -0.53296715 0.531699 0.14550228
-0.068304084 3.137752 0.39377466 0.42189413 0.52058566 0.25870955 -0.58056015 -0.25638792
0.054152977 0.060505774 -0.45963603 -0.30097446 0.6056562 -0.46304157 -0.08709268 -0.58777475
-0.06222795 0.2878582 -0.07223085 -0.2064808 -0.046930455 -0.43952298 0.12397671 -0.39349738
-0.6234065 -0.15044013 1.6610434 -2.0027974 -0.8556901 0.747694 -1.587094 0.84241474
0.11186971 0.2523085 0.12503637 -0.20379244 2.0067532 1.0866348 0.10378093 -2.096046
-1.7583162 -0.21331595 0.43626684 -1.6263502 0.34514558 0.8235219 -0.9047886 -1.3662859
-0.22984989 0.4049155 -0.59814405 1.8115503 1.0714262 0.50804245 1.2538165 -0.77564263
-2.1197922 -1.0709357 -0.42102996 -0.2668274 0.47421536 -0.2313874 0.2904725 0.16285002
-0.037245367 0.1036751 0.3401394 0.3869712 0.0775307 -0.043888386 -0.16574064 -1.1482295
0.6342959 0.118272126 0.0014259616 -0.14444992 0.019097254 0.8571349 0.32345665 0.7488607
00000000: 59ea 03be 7d82 a9bc 1f33 cdbe 4446 b2bd
00000010: a4d4 31bd a1b9 0bbe f467 f6be 6267 8a3d
00000020: 1ddd b4be 8c7e 7c3e f5e3 dfbd 71e4 10be
00000030: 279b ab3c c259 a2be 3f2e 103d 1ce0 dc3e
00000040: bbc2 95be 7228 c63d 4b3e 183f 947c 63be
00000050: 0d7d 66bf 53a0 aebe 1efa 18bf b042 353e
00000060: 52a1 c7bd 79c6 d53d d752 013e ba30 81be
00000070: bf09 023d 34fc 97bc bce8 f53f 2bfe b73e
00000080: c072 2e3f ad43 0b3f 1a76 7d3f 954b 2540
00000090: e933 a1bf 7ac8 a6be 7d3e aebf 3d14 0dbf
000000a0: 0ce3 2abe 55d5 6f3f aad0 39bd 70df 1c3f
000000b0: 352e c83e 96af 323e 23d5 963b 900a 003e
000000c0: 75d1 c5be a9a7 c1be 4aff 7cbe c56a 74be
000000d0: 15e3 58be 5b80 973f bf65 813f 9eb2 f73e
000000e0: e0a1 2e3f 7fb6 ebbc 24ab f23f 519f fe3f
000000f0: afcf 9abf 95f3 d53f 8710 b53e d384 0ec0
00000100: 2caf 3d3f cac6 583d a446 cebe a138 60bf
00000110: 9286 b9bd e028 bbbe 90c9 483e da28 80bf
00000120: c293 42bc 41f4 5b3f e6b6 38bf 4c26 07bf
00000130: 6fac 2d3e 4b2b 40be 7096 78bd 1754 6e3e
00000140: 4a51 cbbf 591c 543e b3cf 1a40 5a5c fb3d
00000150: 4178 91bf a7a8 c33e 2b4e 3fbf a9a8 613c
00000160: 65dc f23f 7fa0 74bf 5bf1 0240 5779 3d3f
00000170: b297 1fbe 8d94 95bf 85b5 83bd 13f5 8d3f
00000180: 82e9 66bf 6a31 e1bf 24ed 88be 013d f5be
00000190: 4d85 17bf 5a8d 2fbf 539b b5bf 9739 81bf
000001a0: c655 b8bf c0b7 09be 2697 22bf 2337 7d3d
000001b0: 4a61 14bf 5f93 e43d 5bef 39bc e719 7d3e
000001c0: 80d6 45bf 4ec2 693f 98c8 13bf 112f ad3f
000001d0: feb7 c4be 4c98 d4bd cbfb 09bf 2443 513f
000001e0: 16a3 923d 21eb 1840 0509 a23e a52b 8cbf
000001f0: 05a9 4dbe 7b96 1a3f 4785 4dbf b39c d63e
00000200: dfaf aebe 9bfa da3e 8c5f 8ebe b8ec 9b3e
00000210: c7be 8bbe f0ca 643e b9e8 a93e 8782 31be
00000220: 63fa 583e a417 90bc dd5c 6dbd 24ca 403e
00000230: 3a21 ad3c 602f 21be 1736 9fbd e98b 88bf
00000240: 6288 92be 2c16 88bf 1a21 7dbe 50b4 fdbe
00000250: 5dd2 aa3d c6dc fe3e c6b6 97be bb14 afbe
00000260: 0280 603f 6325 d2be 9852 573f 3f0b 62be
00000270: b3c9 d53c 35bf 2fbf a7e5 c43e 06c1 143e
00000280: 421e ddbd 8906 80be 6583 00bf c4da 96bf
00000290: d8da 2cbf 44e8 283f 7cf9 02bf 5154 0ebf
000002a0: a524 a9be 7dbf b0be 11fb 79bd ba1d b93e
000002b0: b844 633e 8970 08bf 6d1d 083f 8dfe 143e
000002c0: 03e3 8bbd eed0 4840 d59c c93e 8202 d83e
000002d0: 1a45 053f 9475 843e 979f 14bf 4745 83be
000002e0: 83cf 5d3d e7d4 773d 6a55 ebbe 5319 9abe
000002f0: 490c 1b3f c913 edbe a65d b2bd 6878 16bf
00000300: bce2 7ebd 2662 933e c5ed 93bd b46f 53be
00000310: 263a 40bd 2809 e1be 80e7 fd3d 7d78 c9be
00000320: 9297 1fbf fa0c 1abe 129d d43f d52d 00c0
00000330: 820e 5bbf e068 3f3f e525 cbbf 7ea8 573f
00000340: f21b e53d 942e 813e 8909 003e f7ae 50be
00000350: a56e 0040 d916 8b3f 198b d43d 9e25 06c0
00000360: 8110 e1bf 7f6f 5abe 5e5e df3e 3e2c d0bf
00000370: ecb6 b03e 55d2 523f 3aa0 67bf 75e2 aebf
00000380: c55d 6bbe 1651 cf3e f81f 19bf e1e0 e73f
00000390: 7e24 893f 120f 023f 0f7d a03f 8490 46bf
000003a0: adaa 07c0 6c14 89bf 3d91 d7be 9a9d 88be
000003b0: 5bcc f23e d2f0 6cbe d0b8 943e 28c2 263e
000003c0: 998e 18bd 9c53 d43d c026 ae3e 1721 c63e
000003d0: 6ac8 9e3d 4fc4 33bd eab7 29be 2ff9 92bf
000003e0: 3761 223f a838 f23d 55e7 ba3a aeea 13be
000003f0: d871 9c3c 316d 5b3f 1c9c a53e 56b5 3f3f

mlp1.0.bias f4 [150]
0.16401376 -0.45924652 -0.4491569 -0.5411707 1.116422 -0.45698053 0.43997568 -0.7136477
-0.5954662 -0.30177832 0.1514425 -0.5457041 -0.33105394 -0.2949773 -0.44492343 0.45698473
0.30938342 -1.0797367 -0.26252452 0.7954728 -0.122884095 -0.31917545 -0.0526026 -1.2222883
-0.55671245 0.03900224 -0.69863576 -0.44395965 -0.84198624 -0.47331804 -0.70421356 0.2626673
-1.5267572 0.47488034 0.22408998 1.0874156 0.66812694 -0.4077089 0.0893188 0.18002188
-0.16523981 0.34305272 -0.12675403 1.6276855 0.1783699 -0.68820876 -0.1477281 0.14947131
0.21178544 -0.6007558 -0.1345956 0.074065305 -0.62924975 0.07433445 -0.35162485 -0.37447026
-0.086287394 -0.8234211 -0.8264783 0.73962337 -1.1480229 -0.32470533 1.1053735 -0.590323
-0.12015702 -0.071014196 -1.5665326 0.0351919 -1.0441004 0.56071997 0.20585176 -0.12546915
0.3219766 -0.12993772 -0.09374228 0.14182839 -0.9612885 -0.90105295 -0.03179212 -0.71642804
0.3673203 0.31820002 -0.009047149 -0.12869865 0.53456026 -0.58551496 -0.20947374 0.3179923
-0.6332004 -0.3393548 -0.1240816 -0.3917225 0.49526098 -0.053043004 -0.9611552 -0.034816653
-1.3634764 0.27003112 -1.3452182 0.35911936 0.02274857 -0.10860785 1.3365976 -0.4045464
0.92206675 0.051481403 0.3042198 -0.93962044 1.1207763 -0.59148896 0.6451982 -0.6137124
-0.18621147 0.28502813 -0.50658375 0.38059708 -0.136521 0.6912051 -0.0007435114 0.22226034
0.31414148 0.07353829 0.6401533 -0.19157095 -0.31402928 0.49298772 0.06330367 -0.24631834
-0.46452573 1.2544756 -0.23234548 -1.0091413 0.6279654 -0.54838717 -0.027960343 -2.0756016
-0.15001298 -0.39655602 0.34287068 0.09367928 -1.5153722 -0.5827853 -0.9894326 1.0025495
-0.087789744 0.33783573 -0.5314282 -0.387023 -0.14354359 -0.08090006
00000000: 39f3 273e 5c22 ebbe e5f7 e5be 2a8a 0abf
00000010: ebe6 8e3f 5af9 e9be 7e44 e13e 9eb1 36bf
00000020: 7970 18bf b082 9abe be13 1b3e 44b3 0bbf
00000030: e77f a9be 4407 97be 01cd e3be e7f9 e93e
00000040: 8167 9e3e d034 8abf 9d69 86be 1ba4 4b3f
00000050: a8aa fbbd f76a a3be d375 57bd f173 9cbf
00000060: b584 0ebf d0c0 1f3d cbd9 32bf ae4e e3be
00000070: 698c 57bf be56 f2be 5747 34bf 547c 863e
00000080: c86c c3bf 8423 f33e d877 653e 6f30 8b3f
00000090: 5e0a 2b3f 39bf d0be c6ec b63d a857 383e
000000a0: a034 29be 9ba4 af3e cfcb 01be 0058 d03f
000000b0: 99a6 363e 732e 30bf 0946 17be 020f 193e
000000c0: 48de 583e 22cb 19bf 6ed3 09be 8daf 973d
000000d0: 8316 21bf a93c 983d 2c08 b4be 91ba bfbe
000000e0: 72b7 b0bd bacb 52bf 1594 53bf f557 3d3f
000000f0: 6af2 92bf c73f a6be e17c 8d3f 681f 17bf
00000100: e214 f6bd e46f 91bd 2484 c8bf 6225 103d
00000110: 15a5 85bf 588b 0f3f ceca 523e fc7a 00be
00000120: 1eda a43e 650e 05be f4fb bfbd 763b 113e
00000130: 0117 76bf 68ab 66bf 7438 02bd d467 37bf
00000140: 6811 bc3e 1deb a23e 7e3a 14bc 94c9 03be
00000150: f1d8 083f 4fe4 15bf 4980 56be e3cf a23e
00000160: 6c19 22bf eabf adbe 7e1e febd da8f c8be
00000170: d992 fd3e 9f43 59bd 440e 76bf e89b 0ebd
00000180: 6586 aebf 8541 8a3e 1c30 acbf 7ede b73e
00000190: 365b ba3c cb6d debd a115 ab3f b520 cfbe
000001a0: 910c 6c3f 2ade 523d b3c2 9b3e f78a 70bf
000001b0: 9975 8f3f d26b 17bf b62b 253f 411c 1dbf
000001c0: 38ae 3ebe 35ef 913e 79af 01bf 9fdd c23e
000001d0: 29cc 0bbe d1f2 303f 35e8 42ba 3798 633e
000001e0: 27d7 a03e 3e9b 963d 16e1 233f 2d2b 44be
000001f0: 72c8 a0be e368 fc3e 5ba5 813d e03a 7cbe
00000200: 51d6 edbe a892 a03f f9eb 6dbe 8b2b 81bf
00000210: 57c2 203f 1a63 0cbf 170d e5bc a8d6 04c0
00000220: 019d 19be 6409 cbbe bf8c af3e ecda bf3d
00000230: b7f7 c1bf 6b31 15bf 744b 7dbf 8b53 803f
00000240: 1ccb b3bd cef8 ac3e ae0b 08bf e127 c6be
00000250: 17fd 12be eeae a5bd

mlp1.2.weight f4 [100, 150]
-0.068358764 0.06398155 0.03691 -0.02388308 -0.64993674 -0.1325333 0.6118085 -0.099639475
-0.29163328 -0.2495853 -0.084641 -0.038361095 -0.18462588 -0.048630394 0.03523837 0.3001851
-0.2799876 0.14958383 0.048317485 -0.18980674 -0.06295544 -0.09631247 0.0048548975 0.43945336
-0.14005247 -0.030054452 -0.060183425 -0.25750718 -0.08698566 -0.06302664 0.11370808 -0.060939755
-0.2966071 -0.16413654 0.30763245 -0.44149637 -0.05416049 -0.15664561 -0.029043436 0.02137785
-0.05822912 0.04772781 -0.40198687 0.11794381 -0.21647586 -0.24649316 -0.27602214 -0.008311011
-1.4050054e-05 -0.2524253 -0.17865932 -0.17596503 -0.5786259 0.12587003 -0.062157493 -0.021265727
0.04142642 -0.27430934 0.2969899 0.3312913 -0.5754189 -0.04670095 0.07246711 -0.36919305
0.026705613 -0.064383425 0.16493283 -0.2786961 0.08047482 0.030817399 -0.046545777 -0.24566227
0.35964927 0.030984635 -0.3112793 0.31808624 -0.36072522 -0.3730434 -0.4856651 0.04384033
-0.026022995 -0.13287723 -0.34714454 -0.19101304 -0.02757477 -0.044653032 -0.036822118 -0.072835766
0.05180161 -0.5655009 0.013286615 0.1786738 0.09248714 0.51380724 -0.35415053 0.31052992
0.053626526 -0.054159466 0.13675693 0.0091279885 -0.124597386 -0.08539607 -0.044848155 0.18834323
0.09213531 0.29352766 0.04317759 0.2975886 0.23755214 0.036552746 -0.39773852 -0.34461161
0.065909974 0.20996112 0.15036237 -0.19019425 -0.02010672 0.2023697 -0.027841296 -0.2781078
0.114165716 -0.046474136 0.09268991 -0.0076716193 -0.02309096 0.42106524 -0.11458627 -0.027000586
-0.14807059 0.24937148 -0.06770339 -0.3824588 -0.06772014 -0.29611042 -0.14215057 -0.076344214
0.0017301216 -0.11582628 -0.23239467 -0.07171958 -0.2942661 0.3767518 0.29348937 -0.21001835
0.04243694 -0.112333424 -0.0099647455 -0.103507236 0.2661802 0.08645513 0.07114979 -0.049914286
-0.13620162 -0.056479134 -0.46183127 -0.5211449 0.30454323 0.10442076 -0.11084395 -0.20655884
-0.07007859 -0.076394185 -0.23841257 0.49643663 -0.11055277 -0.10123925 -0.34000307 -0.39578152
-0.004970966 -0.43829054 -0.3193114 0.19820094 -0.05465023 0.17247827 -0.30526835 -0.16543189
-0.22880502 -0.21096691 -0.21049911 -0.13641088 -0.22701508 -0.068214044 -0.37354237 0.048256565
0.11154875 0.1147154 0.33551183 -0.25596604 -0.1307625 0.2396082 -0.1540892 0.027947681
-0.043841954 -0.44466165 -0.33749163 0.22521801 0.10321397 -0.05412988 -0.14865789 0.25145665
-0.46840453 -0.209604 0.2689745 -0.21466337 -0.049307123 0.098096855 -0.34034893 -0.2068966
-1.0718074 -0.032731287 -0.017701298 -0.03360774 -0.303848 -0.3463325 0.06587856 0.23683894
-0.32114285 0.23396268 -0.99754333 -0.24576697 -0.319192 -0.49082577 0.51273364 -0.21253902
0.11258572 -0.3399432 0.24026425 -0.24049053 0.78071016 -0.09585202 0.095613055 -0.11975872
-0.17336819 0.1560858 -0.023230368 -0.11473796 -0.31080186 0.06922236 -0.116165936 -0.24082142
-0.10785541 -0.21920632 0.15627378 -0.6752011 -0.10072459 -0.059309773 -0.2890714 -0.026126346
0.07212704 -0.14623544 0.29890192 -0.15199074 -0.07060379 0.13249193 -0.6621233 0.051619925
00000000: aeff 8bbd c208 833d f12e 173d 73a6 c3bc
00000010: 4162 26bf cfb6 07be 7b9f 1c3f c80f ccbd
00000020: f550 95be 4a93 7fbe 4358 adbd 8620 1dbd
00000030: 910e 3dbe aa30 47bd 1c56 103d ddb1 993e
00000040: 895a 8fbe 812c 193e 8ee8 453d b35c 42be
00000050: c8ee 80bd 793f c5bd d515 9f3b 0800 e13e
00000060: ea69 0fbe c134 f6bc e582 76bd fbd7 83be
00000070: 8a25 b2bd 1c14 81bd c8df e83d f79b 79bd
00000080: e3dc 97be 6913 28be 0082 9d3e d00b e2be
00000090: 64d7 5dbd b567 20be 80ec edbc 9a20 af3c
000000a0: a881 6ebd 3c7e 433d 39d1 cdbe 868c f13d
000000b0: d9ab 5dbe b468 7cbe c652 8dbe e82a 08bc
000000c0: 86b8 6bb7 e43d 81be 78f2 36be 2d30 34be
000000d0: d420 14bf 13e4 003e db98 7ebd 7635 aebc
000000e0: c0ae 293d 4672 8cbe 0f0f 983e 039f a93e
000000f0: a74e 13bf 7f49 3fbd a369 943d df06 bdbe
00000100: bbc5 da3c 75db 83bd 27e4 283e 41b1 8ebe
00000110: fccf a43d c574 fc3c c9a6 3ebd e48e 7bbe
00000120: f323 b83e 7dd3 fd3c 0060 9fbe 33dc a23e
00000130: fab0 b8be 8bff bebe 19a9 f8be eb91 333d
00000140: 2d2e d5bc f810 08be eebc b1be ec98 43be
00000150: 7ce4 e1bc 19e6 36bd cad2 16bd eb2a 95bd
00000160: ed2d 543d abc4 10bf 1ab0 593c 44f6 363e
00000170: e669 bd3d df88 033f 3853 b5be c7fd 9e3e
00000180: 7da7 5b3d 51d6 5dbd 020a 0c3e 8f8d 153c
00000190: ea2c ffbd 22e4 aebd b3b2 37bd 0cdd 403e
000001a0: 70b1 bc3d 4249 963e fcda 303d 885d 983e
000001b0: de40 733e 55b8 153d 62a4 cbbe ef70 b0be
000001c0: cffb 863d 0c00 573e 98f8 193e 48c2 42be
000001d0: d9b6 a4bc 013a 4f3e 6e13 e4bc 2564 8ebe
000001e0: b7cf e93d aa5b 3ebd 35d4 bd3d 3562 fbbb
000001f0: 4129 bdbc dd95 d73e 35ac eabd 5530 ddbc
00000200: d19f 17be 3d5b 7f3e 13a8 8abd a4d1 c3be
00000210: dbb0 8abd c99b 97be eb8f 11be 5b5a 9cbd
00000220: 3fc5 e23a 5436 edbd def8 6dbe b7e1 92bd
00000230: 0caa 96be 9de5 c03e 3d44 963e 0d0f 57be
00000240: 5bd2 2d3d 110f e6bd 2c43 23bc 9afb d3bd
00000250: c548 883e 630f b13d fbb6 913d ec72 4cbd
00000260: 7078 0bbe aa56 67bd 2675 ecbe c169 05bf
00000270: 17ed 9b3e 8dda d53d 2702 e3bd 2984 53be
00000280: 5d85 8fbd 8e74 9cbd 6d22 74be f12c fe3e
00000290: 7e69 e2bd 8656 cfbd e214 aebe e0a3 cabe
000002a0: 7ce3 a2bb 9e67 e0be c97c a3be 30f5 4a3e
000002b0: ebd8 5fbd 259e 303e 224c 9cbe fa66 29be
000002c0: dd4b 6abe b607 58be 148d 57be 4baf 0bbe
000002d0: a476 68be ceb3 8bbd f240 bfbe ada8 453d
000002e0: ac73 e43d e8ef ea3d 35c8 ab3e fb0d 83be
000002f0: 9be6 05be da5b 753e 8fc9 1dbe 89f2 e43c
00000300: 9f93 33bd b1aa e3be b4cb acbe 8d9f 663e
00000310: d961 d33d 4bb7 5dbd c639 18be edbe 803e
00000320: b8d2 efbe 6ea2 56be 07b7 893e b7d0 5bbe
00000330: 44f6 49bd 01e7 c83d 3742 aebe b4dc 53be
00000340: fc30 89bf 3e11 06bd 5002 91bc 45a8 09bd
00000350: f791 9bbe 7e52 b1be 57eb 863d e885 723e
00000360: d66c a4be ea93 6f3e 005f 7fbf 56aa 7bbe
00000370: 226d a3be 844d fbbe 8342 033f d4a3 59be
00000380: 5893 e63d 090d aebe d507 763e 2643 76be
00000390: 9fdc 473f 104e c4bd c7d0 c33d 0f44 f5bd
000003a0: 6e87 31be f5d4 1f3e 9d4d bebc bcfb eabd
000003b0: 6c21 9fbe 74c4 8d3d 68e8 edbd e499 76be
000003c0: 4ce3 dcbd 9f77 60be 3c06 203e fbd9 2cbf
000003d0: b248 cebd ceee 72bd 2b01 94be eb06 d6bc
000003e0: 57b7 933d bebe 15be ac09 993e 76a3 1bbe
000003f0: b898 90bd f7ab 073e ea80 29bf 6a6f 533d

mlp1.2.bias f4 [100]
-0.33260965 0.39672372 0.15805285 -0.39293575 -0.0323762 -0.94242257 0.21292688 -0.18384892
-0.5227922 -1.0795764 0.6020289 -0.5574606 -0.1456283 -1.3379055 -2.122375 -1.083133
0.0073085814 -0.68220294 -0.5446055 0.5655298 -0.7173606 -0.7030839 1.6842583 -0.8372502
0.21407613 0.15065302 -0.11694214 -0.038638618 -1.0818179 0.034107633 0.48581013 0.35419694
0.6386293 0.7653718 -0.7041911 -1.1177824 -0.049651653 -0.23081303 0.5505445 1.0764651
-0.3568751 -0.35739216 -0.5129664 -0.25305906 -0.24961974 -0.18536101 0.86624044 -0.1254333
-0.095513225 0.5624497 -0.18600829 1.4017469 -0.63559276 0.25121427 -0.30116537 -0.73299336
-0.23789087 -0.073120356 -0.4319015 0.009262494 1.4026208 0.060923714 -0.20149378 -0.36537954
0.021678299 -1.2103758 -0.4060118 0.5132061 -0.9289556 -0.13890348 -0.34644768 -0.124091394
-0.89941263 0.99812824 -0.046490703 -0.043249324 0.14988723 -0.45118406 -0.38663867 0.3865938
-1.557239 -1.624797 -0.61258155 -0.17103137 0.0053632003 -0.69587755 0.009257893 -0.0045925053
0.21119235 0.13573565 -0.11508696 -0.51169443 -1.0295528 -0.52626234 -0.38231653 0.0362611
-0.6476068 -0.053496793 0.19803035 -0.90610886
00000000: d04b aabe 5f1f cb3e 9bd8 213e e02e c9be
00000010: e89c 04bd 9b42 71bf 8109 5a3e e442 3cbe
00000020: b6d5 05bf 8f2f 8abf 911e 1a3f bdb5 0ebf
00000030: 961f 15be 7d40 abbf fed4 07c0 1aa4 8abf
00000040: d37c ef3b daa4 2ebf 446b 0bbf 90c6 103f
00000050: f2a4 37bf 4efd 33bf c795 d73f 0756 56bf
00000060: c636 5b3e c944 1a3e 5c7f efbd 8743 1ebd
00000070: 0279 8abf 72b4 0b3d 1bbc f83e 4d59 b53e
00000080: 367d 233f 68ef 433f de45 34bf 7e13 8fbf
00000090: 885f 4bbd 405a 6cbe 7cf0 0c3f 9cc9 893f
000000a0: 55b8 b6be 1bfc b6be c451 03bf f590 81be
000000b0: 519c 7fbe 47cf 3dbe efc1 5d3f 9671 00be
000000c0: 709c c3bd b4fc 0f3f f578 3ebe 716c b33f
000000d0: 35b6 22bf 289f 803e 5932 9abe 74a5 3bbf
000000e0: aa99 73be 20c0 95bd 3222 ddbe b7c1 173c
000000f0: 1489 b33f 258b 793d 6354 4ebe 0713 bbbe
00000100: b096 b13c 98ed 9abf c7e0 cfbe 7a61 033f
00000110: 09d0 6dbf b73c 0ebe 9761 b1be a123 febd
00000120: e83f 66bf 5585 7f3f 096d 3ebd 3426 31bd
00000130: 0a7c 193e 9901 e7be 81f5 c5be 9fef c53e
00000140: 9c53 c7bf 59f9 cfbf 25d2 1cbf d922 2fbe
00000150: c9bd af3b 0825 32bf 6bae 173c ba7c 96bb
00000160: cf42 583e 49fe 0a3e b6b2 ebbd 68fe 02bf
00000170: 63c8 83bf 21b9 06bf febe c3be 8586 143d
00000180: 8fc9 25bf 741f 5bbd 78c8 4a3e c0f6 67bf

mlp2.0.weight f4 [100, 100]
0.1832284 -0.15282136 -0.067029625 -0.15006672 0.077148326 -0.47421333 0.654617 -0.20676039
0.01186505 0.14005665 -0.38532314 0.14415029 -0.22360519 0.35007563 -0.21385197 -0.00235971
-0.51514673 -0.31101474 0.07557139 -0.30527335 -0.19923605 -0.23389482 -0.53021353 0.24886584
0.30534443 -0.37424183 -0.2597262 0.22974344 -0.5380623 0.08777663 0.19023411 0.086115494
0.16761737 -0.46134958 0.03649624 0.052025314 -0.040739816 -0.02284696 -0.34487134 0.20801507
-0.03150683 -0.36170435 0.064467125 -0.033886567 -0.28668085 -0.11469724 0.17235817 -0.030585531
0.031202286 -0.48690102 -0.030709859 -0.18545282 -0.1538774 -0.10908717 -0.23568232 0.12514445
-0.38859773 -0.21787967 -0.12513466 0.016837299 0.40550154 -0.12149915 -0.12603894 -0.32900688
0.051422674 -0.45342126 -0.034683745 -0.028248305 -0.15628143 -0.37496495 -0.46780354 0.43270516
-0.27962294 -0.09912022 0.0019095583 -0.14919889 -0.0018417634 -0.24115086 -0.07312138 -0.008708428
-0.13589871 -0.34765732 0.19953027 -0.21068224 0.074424244 -0.056395546 -0.0990978 0.06932323
0.22825918 -0.017801704 -0.03851947 0.0077415984 -0.24579681 -0.24576983 -0.5298402 -0.10128167
-0.28516552 -0.02418746 0.36832616 -0.45804033 0.14896221 -0.15335773 -0.09125358 0.009062223
-0.08633326 -0.0016915435 0.094618 -0.20839211 -0.566856 -0.056936517 -0.21707596 0.47505242
-0.7049026 -0.38108078 0.09276978 -0.041679088 -0.21317536 -0.17971383 -0.46989477 -0.21403565
0.23835352 0.33873212 0.020662708 -0.11143591 0.09060418 0.34588277 -0.21501058 0.23489521
-0.02389921 0.056562595 -0.11096833 -0.23510833 -0.3061937 0.034576423 -0.11348898 0.110313796
0.21086411 -0.030678129 -0.31196928 -0.117494255 -0.13888238 0.052740302 -0.5867987 0.02350147
-0.17328732 -0.056053203 0.018029543 -0.11608301 0.041818578 -0.10392663 -0.04114761 -0.14192386
-0.04018814 -0.10839633 0.06624858 0.122680195 -0.15648803 -0.018692655 0.10328318 -0.025808219
-0.25512388 -0.76306033 0.5158201 -0.2875734 0.05785494 -0.57948816 0.09349451 -0.0021770669
0.06523497 -0.103476144 0.12200059 -0.011093884 -0.40318835 0.55783266 0.0720008 -0.011668389
0.28148922 -0.1329537 -0.65321505 0.41438383 -0.33235183 -0.3521534 0.104249746 -0.33951813
0.026685644 -0.19969864 0.032472692 -0.023735134 -0.40987864 -0.07878691 -0.5713551 0.030693855
-0.3857153 -0.17368451 0.25569427 0.24735212 0.02998303 -0.15918821 -0.41312557 -0.21611866
0.060769815 0.015103063 0.1761184 -0.01670049 0.09969708 0.14036587 -0.016156081 0.10356373
0.13405691 0.11755669 -0.17762671 -0.3487162 -0.09707355 -0.010043214 -0.2695128 -0.58724564
-0.062029283 0.08210972 -0.010850802 -0.02099268 -0.34108603 -0.2712395 -0.32623494 0.1689044
-0.22240962 0.037428573 -0.18463744 -0.22390075 -0.037571784 0.03868215 0.07119687 0.336628
0.31124577 -0.06403754 -0.19148816 -0.23468392 -0.09948471 0.0056573143 -0.34998286 -0.028814808
-0.06978954 -0.04812243 -0.45930177 0.04330725 -0.20918278 -0.023402708 -0.0011770182 0.015616613
-0.15706451 -0.8871965 -0.27562284 -0.457945 -0.33357516 -0.26166725 -0.3728341 0.06970905
00000000: 3aa0 3b3e 347d 1cbe d446 89bd 17ab 19be
00000010: f1ff 9d3d 17cc f2be fb94 273f ffb8 53be
00000020: a065 423c 036b 0f3e 1349 c5be 229c 133e
00000030: c2f8 64be 1d3d b33e 03fc 5abe 5da5 1abb
00000040: a8e0 03bf 533d 9fbe 2cc5 9a3d ca4c 9cbe
00000050: 8904 4cbe 2082 6fbe 13bc 07bf b0d6 7e3e
00000060: 1b56 9c3e a09c bfbe d5fa 84be dd41 6b3e
00000070: 73be 09bf 3cc4 b33d bbcc 423e 525d b03d
00000080: e3a3 2b3e 0336 ecbe 157d 153d 7f18 553d
00000090: cbde 26bd 8c29 bbbc fa92 b0be e701 553e
000000a0: 4e0d 01bd 5031 b9be 5707 843d a4cc 0abd
000000b0: d5c7 92be 63e6 eabd a97e 303e 828e fabc
000000c0: f09b ff3c 174b f9be 3e93 fbbc 58e7 3dbe
000000d0: 0a92 1dbe 1869 dfbd b556 71be de25 003e
000000e0: 48f6 c6be d91b 5fbe 4d23 00be 60ee 893c
000000f0: e69d cf3e 8cd4 f8bd 5a10 01be 9773 a8be
00000100: 95a0 523d d526 e8be 8b10 0ebd fd68 e7bc
00000110: 3d08 20be 68fb bfbe f283 efbe 888b dd3e
00000120: bd2a 8fbe 8bff cabd 254a fa3a 98c7 18be
00000130: 5367 f1ba 40f0 76be a9c0 95bd cbad 0ebc
00000140: 0829 0bbe 2400 b2be aa51 4c3e 16bd 57be
00000150: bd6b 983d 04ff 66bd caf3 cabd 56f9 8d3d
00000160: c6bc 693e e1d4 91bc 97c6 1dbd 3cad fd3b
00000170: 29b2 7bbe 16ab 7bbe 9ba3 07bf c46c cfbd
00000180: 3701 92be c824 c6bc 3f95 bc3e 4384 eabe
00000190: 8d89 183e cf09 1dbe 28e3 babd b879 143c
000001a0: 7ecf b0bd c8b6 ddba 15c7 c13d be64 55be
000001b0: 7a1d 11bf 4436 69bd 2949 5ebe 123a f33e
000001c0: 7f74 34bf 051d c3be 15fe bd3d b1b7 2abd
000001d0: a44a 5abe e706 38be 0c96 f0be 292c 5bbe
000001e0: f212 743e 4c6e ad3e d744 a93c 8338 e4bd
000001f0: af8e b93d 8c17 b13e bc2b 5cbe 5f88 703e
00000200: 47c8 c3bc 2eae 673d 5d43 e3bd 3dc0 70be
00000210: 6cc5 9cbe 02a0 0d3d e96c e8bd 33ec e13d
00000220: c3ec 573e b350 fbbc 70ba 9fbe d4a0 f0bd
00000230: 2f37 0ebe 3706 583d 7138 16bf 2886 c03c
00000240: 3b72 31be 0b98 65bd b1b2 933c eebc edbd
00000250: f549 2b3d 7cd7 d4bd 658a 28bd 7d54 11be
00000260: 529c 24bd e5fe ddbd 56ad 873d c13f fb3d
00000270: 663e 20be 5721 99bc 2286 d33d c26b d3bc
00000280: 999f 82be ec57 43bf c90c 043f d23c 93be
00000290: 4df9 6c3d 5659 14bf 0d7a bf3d 1fad 0ebb
000002a0: e999 853d 4deb d3bd 72db f93d 1fc3 35bc
000002b0: b46e cebe 1fce 0e3f 2875 933d c52c 3fbc
000002c0: 5b1f 903e 0425 08be 1a39 27bf 1e2a d43e
000002d0: 052a aabe 734d b4be e480 d53d 52d5 adbe
000002e0: da9b da3c cd7d 4cbe 1602 053d 2f70 c2bc
000002f0: 9ddb d1be 085b a1bd 5444 12bf ae71 fb3c
00000300: 7a7c c5be 5ada 31be 5cea 823e e049 7d3e
00000310: f99e f53c 3c02 23be 3285 d3be 364e 5dbe
00000320: c5e9 783d d672 773c 6258 343e 77cf 88bc
00000330: fc2d cc3d 12bc 0f3e c259 84bc 3919 d43d
00000340: 3746 093e 90c1 f03d c7e3 35be ee8a b2be
00000350: 7fce c6bd 4b8c 24bc 95fd 89be bb55 16bf
00000360: 6b12 7ebd 2429 a83d 90c7 31bc d7f8 abbc
00000370: d4a2 aebe e7df 8abe 4408 a7be 46f5 2c3e
00000380: 59bf 63be b44e 193d 9911 3dbe 3d46 65be
00000390: dfe4 19bd 2d71 1e3d aacf 913d 815a ac3e
000003a0: 9b5b 9f3e 1d26 83bd 7915 44be fb50 70be
000003b0: a4be cbbd fe60 b93b f430 b3be 080d ecbc
000003c0: d1ed 8ebd 061c 45bd 9a29 ebbe f162 313d
000003d0: 0334 56be 09b7 bfbc 2d46 9aba d3dc 7f3c
000003e0: 85d5 20be 4f1f 63bf 701e 8dbe c477 eabe
000003f0: 5dca aabe 40f9 85be 1ce4 bebe 9ec3 8e3d

mlp2.0.bias f4 [100]
-0.42456597 -0.84878665 -0.38776633 0.2303097 -0.15688178 0.04354668 -0.0040245694 1.3221563
1.6307961 0.034892686 -0.0661312 -0.20597202 0.24430801 -0.7569234 0.7303812 -0.14057405
0.9902194 -0.17516078 0.19480424 1.4103305 -0.055668976 0.5620547 0.92094404 -0.27074793
0.2262808 -0.040856708 -0.34443918 0.15472405 0.50266373 -0.42826623 -0.5466763 0.6548557
1.8891182 2.0707471 0.49017367 -0.0006532413 0.18146437 0.4412932 -0.030996442 -0.81863844
0.8283515 -0.38695237 0.014888022 0.7459804 -0.29114547 -0.377795 -0.43388182 0.08501358
-0.91144496 0.2664814 -0.37173754 -0.048106935 0.89051574 -0.41574436 0.07494703 -0.5812757
0.7869336 0.27047306 -0.58784086 -0.2947951 -0.030119576 0.98862016 0.0056878137 0.64121234
-0.13710193 -0.7358107 0.39359355 -0.24341193 0.77546126 0.066096336 -0.83595115 -0.060826305
-0.9081706 -0.24724409 -0.6516103 -0.12645233 -0.09654218 -0.40770528 0.9330703 0.14237764
-0.6522228 -0.8220207 -0.21875365 0.5595806 0.06957215 -0.08113591 0.6572722 0.59539217
1.0876042 1.2153764 -0.10882055 0.5756551 -0.16832687 -0.004645197 0.15172432 -0.034904223
0.5289127 0.59967685 0.31404582 -0.4156431
00000000: b660 d9be 154a 59bf 4f89 c6be 4ed6 6b3e
00000010: 9ea5 20be 015e 323d 89e0 83bb 6b3c a93f
00000020: edbd d03f a2eb 0e3d cb6f 87bd 54ea 52be
00000030: e12b 7a3e bbc5 41bf 43fa 3a3f a5f2 0fbe
00000040: 057f 7d3f 595d 33be c37a 473e b685 b43f
00000050: 2705 64bd d1e2 0f3f fdc2 6b3f 799f 8abe
00000060: 27b6 673e 5d59 27bd 555a b0be fb6f 1e3e
00000070: 92ae 003f b645 dbbe faf2 0bbf a0a4 273f
00000080: a0ce f13f 1f87 0440 0bf8 fa3e 483e 2bba
00000090: ccd1 393e 2ff1 e13e 40ec fdbc 4a92 51bf
000000a0: d80e 543f 9f1e c6be e4ec 733c 92f8 3e3f
000000b0: 0511 95be 596e c1be c225 debe 9a1b ae3d
000000c0: 7554 69bf 4070 883e 6254 bebe c70b 45bd
000000d0: d7f8 633f 72dc d4be d47d 993d 7cce 14bf
000000e0: 7b74 493f 727b 8a3e bd7c 16bf 62ef 96be
000000f0: 54bd f6bc 3616 7d3f d760 ba3b 7e26 243f
00000100: 7364 0cbe 175e 3cbf 1885 c93e fa40 79be
00000110: a184 463f 845d 873d e500 56bf 0125 79bd
00000120: de7d 68bf 8e2d 7dbe efcf 26bf b87c 01be
00000130: e8b7 c5bd bfbe d0be b2dd 6e3f 72cb 113e
00000140: 13f8 26bf f36f 52bf f500 60be ad40 0f3f
00000150: d87b 8e3d 952a a6bd fe42 283f 9f6b 183f
00000160: 9d36 8b3f 7491 9b3f 4fdd debd 225e 133f
00000170: e15d 2cbe bd36 98bb 9f5d 1b3e bbf7 0ebd
00000180: d366 073f 6c84 193f 9dca a03e 2ccf d4be

mlp2.2.weight f4 [50, 100]
0.043071195 -0.030287921 0.08152204 -0.14047514 -0.04948391 -0.19673796 0.060988557 0.0512066
-0.18674593 -0.07694533 0.1459878 0.12697025 0.135108 -0.02597555 -0.030131781 0.17187463
-0.27927735 0.25856024 -0.061137404 -0.08327761 0.01773819 -0.04115201 0.058757287 -0.01260086
-0.013240873 -0.09361371 0.018025024 -0.06482727 0.07998682 0.32967538 0.15612042 -0.23647307
-0.16554597 -0.26123187 -0.27582327 0.3285772 -0.024051895 0.012875777 -0.02440453 0.18399376
-0.30648077 -0.04312411 -0.01737774 -0.21792975 -0.0073829233 -0.08428612 -0.22074896 -0.065727115
0.1632493 0.27740657 -0.57585675 -0.2249179 -0.018953668 0.014487448 0.35596004 0.09773301
0.15930481 0.21350004 -0.15266109 -0.06253138 0.04784992 -0.102755405 -0.2448322 -0.0041598827
-0.1958855 0.010472734 0.0858639 0.18249655 -0.12808065 -0.17708297 0.21880588 0.10421651
-0.026731838 -0.2102005 0.17628564 -0.10618849 -0.10787862 -0.0069770617 -0.2223193 -0.27297604
-0.08389744 0.009840385 0.41295463 -0.1259185 -0.3535255 -0.35771057 0.10098145 -0.41217107
-0.23419884 0.0720626 0.19000337 -0.03102564 0.113982424 0.06275265 -0.043492433 0.058881976
0.43302867 -0.10855561 -0.28536752 0.185681 0.22699781 -0.26253086 -0.14294098 -0.07375165
0.053028017 -0.27384558 0.1549808 -0.11052327 0.07829217 -0.32615083 -0.09440568 0.21096772
-0.22913261 -0.64676946 0.031344514 -0.018602818 0.001582577 0.06850737 -0.36281443 0.06931568
-0.3126654 0.04175552 0.07039856 -0.26498014 0.009347202 0.082351476 0.03475709 0.3087805
0.006948958 -0.091431804 0.15022506 0.12898418 0.116079114 -0.3732211 0.07215597 0.062360227
0.15716685 -0.025950141 -0.20050994 -0.24863859 0.06528162 0.27321202 -0.25939876 0.16511413
0.08538851 -0.15796377 -0.17972507 -0.0883552 0.18630198 -0.28072533 -0.305539 0.12867291
0.09131674 0.025490299 0.060287997 0.21295698 -0.04118025 -0.044766117 -0.15368028 -0.015215928
-0.16177197 -0.16582735 0.18197529 -0.15833189 0.07729323 -0.01047502 0.1241586 -0.14622918
0.072923705 0.1529391 -0.08356006 0.16255529 0.09391129 0.19109094 -0.18802819 -0.27653095
-0.004742386 -0.044442035 -0.11274552 -0.16614622 -0.17939934 -0.043655414 0.039632544 -0.15328068
-0.14837542 -0.26467022 -0.17264518 -0.1277279 -0.07896183 -0.20786062 0.3892772 -0.02678582
-0.29816312 0.016874744 0.014391726 -0.0628239 -0.14892392 -0.0339321 0.009830149 0.25680396
-0.024178252 0.100445144 0.18986684 -0.1464877 -0.36200124 -0.1437476 -0.11315493 -0.08197368
0.03776364 -0.22522902 -0.31087768 0.62779135 -0.056874055 0.0025936586 -0.58662164 -0.18237826
0.19604093 0.06700954 0.099821396 -0.35177618 0.05138762 0.5869488 0.34462973 -0.22934075
-0.26257783 -0.10955593 0.13846128 -0.0055453316 0.36691514 0.06483808 -0.12613754 0.10625594
-0.24011168 0.22398844 0.023116665 0.2114731 0.13439867 0.16270868 0.010277856 0.1787151
0.047415096 0.07709874 -0.123580635 0.1622874 0.09286079 0.06852041 0.07218009 -0.08431744
0.045600146 -0.2267212 -0.10604328 0.11069073 -0.5225709 0.17913479 0.4658067 0.19619817
00000000: 6c6b 303d 601e f8bc 07f5 a63d b7d8 0fbe
00000010: a4af 4abd ad75 49be 23cf 793d 03be 513d
00000020: 533a 3fbe 8395 9dbd d37d 153e 7d04 023e
00000030: c059 0a3e adca d4bc edd6 f6bc e7ff 2f3e
00000040: 71fd 8ebe 0262 843e 376b 7abd 748d aabd
00000050: ae4f 913c 038f 28bd 7bab 703d d673 4ebc
00000060: 3ff0 58bc 8bb8 bfbd 37a9 933c 29c4 84bd
00000070: 21d0 a33d 36cb a83e 08de 1f3e ff25 72be
00000080: e284 29be 2fc0 85be b538 8dbe 453b a83e
00000090: 7b08 c5bc ecf4 523c 02ec c7bc dc68 3c3e
000000a0: 0ceb 9cbe e8a2 30bd c35b 8ebc fa28 5fbe
000000b0: 73ec f1bb 349e acbd 040c 62be f09b 86bd
000000c0: d32a 273e 3c08 8e3e 596b 13bf e150 66be
000000d0: b944 9bbc c35c 6d3c 6540 b63e 3f28 c83d
000000e0: cd20 233e c19f 5a3e 3053 1cbe 7410 80bd
000000f0: 47fe 433d 6d71 d2bd 4bb5 7abe a04f 88bb
00000100: 3596 48be d595 2b3c 6ad9 af3d 60e0 3a3e
00000110: 9327 03be 3d55 35be a60e 603e 776f d53d
00000120: bafc dabc cd3e 57be 3984 343e 5a79 d9bd
00000130: 77ef dcbd d69f e4bb aca7 63be 84c3 8bbe
00000140: 6cd2 abbd 9139 213c ca6e d33e c7f0 00be
00000150: 4b01 b5be d725 b7be 5dcf ce3d 1608 d3be
00000160: d2d1 6fbe 8e95 933d 3e90 423e 7c29 febc
00000170: 9e6f e93d 7684 803d 1f25 32bd 3a2e 713d
00000180: efb5 dd3e 6752 debd b11b 92be 2923 3e3e
00000190: 1d72 683e 726a 86be 1f5f 12be 1b0b 97bd
000001a0: e833 593d 7d35 8cbe 49b3 1e3e 065a e2bd
000001b0: a557 a03d 3efd a6be c457 c1bd ec07 583e
000001c0: bda1 6abe af92 25bf 1b63 003d f064 98bc
000001d0: 796e cf3a 984d 8c3d d0c2 b9be 61f5 8d3d
000001e0: ae15 a0be d607 2b3d 1f2d 903d 7aab 87be
000001f0: 0225 193c e4a7 a83d 735d 0e3d 7a18 9e3e
00000200: 16b4 e33b 9940 bbbd 99d4 193e 6e14 043e
00000210: e3ba ed3d d616 bfbe 82c6 933d 706d 7f3d
00000220: 59f0 203e 6495 d4bc 7a52 4dbe 1d9b 7ebe
00000230: 5fb2 853d 72e2 8b3e eacf 84be ae13 293e
00000240: 2ce0 ae3d 41c1 21be d909 38be 92f3 b4bd
00000250: f2c5 3e3e 3bbb 8fbe 9c6f 9cbe d5c2 033e
00000260: 4504 bb3d 08d1 d03c 8cf0 763d 6511 5a3e
00000270: 9fac 28bd ad5c 37bd 5d5e 1dbe 3a4c 79bc
00000280: 8da7 25be a5ce 29be bb57 3a3e c121 22be
00000290: ea4b 9e3d 6b9f 2bbc dd46 fe3d 1abd 15be
000002a0: 0659 953d 119c 1c3e 8921 abbd e574 263e
000002b0: 9054 c03d 58ad 433e 768a 40be 7795 8dbe
000002c0: 0466 9bbb da08 36bd 20e7 e6bd 3c22 2abe
000002d0: 76b4 37be 05d0 32bd bc55 223d 9cf5 1cbe
000002e0: baef 17be db82 87be e6c9 30be 1acb 02be
000002f0: bdb6 a1bd 6ad9 54be 574f c73e f06d dbbc
00000300: d6a8 98be e73c 8a3c 46cb 6b3c d1a9 80bd
00000310: 837f 18be 63fc 0abd a20e 213c cf7b 833e
00000320: 7811 c6bc 2fb6 cd3d 746c 423e df00 16be
00000330: 3a58 b9be 9232 13be c6bd e7bd d1e1 a7bd
00000340: 0cae 1a3d 70a2 66be 5c2b 9fbe efb6 203f
00000350: c5f4 68bd 5ffa 293b d62c 16bf 5ec1 3abe
00000360: f4be 483e 4c3c 893d 296f cc3d 021c b4be
00000370: d37b 523d 4742 163f 4f73 b03e 4dd8 6abe
00000380: 9a70 86be dc5e e0bd cbc8 0d3e 9db5 b5bb
00000390: 4ddc bb3e d4c9 843d 332a 01be b79c d93d
000003a0: d6df 75be 3a5d 653e 295f bd3c 688c 583e
000003b0: ce9f 093e 1b9d 263e 7464 283c 1701 373e
000003c0: 5536 423d f2e5 9d3d d817 fdbd ab2e 263e
000003d0: cc2d be3d 6e54 8c3d 28d3 933d 9fae acbd
000003e0: 38c7 3a3d 9a29 68be 382d d9bd d2b1 e23d
000003f0: 35c7 05bf 1c6f 373e 377e ee3e 2ce8 483e

mlp2.2.bias f4 [50]
0.5380097 1.2240834 -0.16915175 -0.088890694 -0.54210055 0.30593556 0.9490706 0.5334521
-0.5518694 0.5192073 -0.2127211 0.38487482 0.27426615 -0.19902968 0.2872426 0.28133214
-0.3526244 -0.59985965 0.61085737 -1.3768113 -0.30386046 -0.68240947 0.62474746 0.76341605
-0.4689648 -0.20482309 -1.2622249 -0.26455703 -1.390269 -0.99884295 0.9501048 -0.41035336
-0.18502338 0.6877859 -0.31497058 0.8515833 -0.6385052 0.39673477 0.4125526 -0.15378821
-0.7196713 -0.013850537 -0.46011114 0.048813034 0.57615703 0.9803107 1.9249816 0.9613426
0.01785165 -0.17077965
00000000: 01bb 093f c4ae 9c3f 1e36 2dbe 530c b6bd
00000010: 1ac7 0abf 96a3 9c3e 4af6 723f 5190 083f
00000020: 5047 0dbf c5ea 043f 8fd3 59be 500e c53e
00000030: 9d6c 8c3e 70ce 4bbe 7611 933e c40a 903e
00000040: 2f8b b4be 6790 19bf 2661 1c3f 5a3b b0bf
00000050: 9993 9bbe 63b2 2ebf 73ef 1f3f 3c6f 433f
00000060: 271c f0be 25bd 51be 9690 a1bf 0574 87be
00000070: 56f4 b1bf 2cb4 7fbf 113a 733f d619 d2be
00000080: c576 3dbe bd12 303f d343 a1be 5d01 5a3f
00000090: 1475 23bf d220 cb3e 183a d33e a87a 1dbe
000000a0: 613c 38bf 5ded 62bc b093 ebbe 2df0 473d
000000b0: 077f 133f a4f5 7a3f cc65 f63f 8c1a 763f
000000c0: a03d 923c dce0 2ebe

attention.0.weight f4 [100, 100]
0.14109275 -0.15594484 -0.046527237 -0.19145164 -0.28873956 0.16267696 0.29796427 0.22062953
-0.04353662 0.3803702 -0.17197968 0.003198468 -0.4404511 -0.23334338 -0.004779264 0.21411717
-0.0740644 -0.05722989 -0.2612389 -0.14927115 -0.010051971 -0.0898051 0.01936149 -0.011441207
0.100465596 -0.038955085 -0.14130732 0.008557007 -0.3633829 0.029935401 -0.14586794 0.12240659
-0.5889261 0.22768198 -0.027600925 -0.5412797 0.04423516 -0.05993745 -0.16000018 -0.25269017
-0.014900083 -0.24455322 -0.14303328 -0.44320843 0.32671267 -0.12594934 -0.398339 0.046449643
0.030983882 0.3396347 -0.18814433 0.11991672 -0.15427728 -0.253316 -0.06695307 -0.48114163
-0.2421996 -0.04321559 0.005956033 -0.04340497 -0.041866668 -0.045078088 0.101545416 -0.40167454
-0.053771216 -0.46119 -0.28684425 0.31546098 0.1911991 -0.08360732 -0.3391278 0.099400945
-0.08437767 -0.1797638 -0.075539775 -0.027298246 -0.17221668 -0.0073878327 0.23252594 0.075148255
0.16722617 -0.100460015 0.12095598 0.009097272 -0.070587166 -0.11731682 -0.077594064 0.019838937
-0.16129212 0.0527009 -0.14111723 0.073416986 -0.413665 0.23722571 0.14457387 -0.039829943
-0.097377226 -0.3810746 -0.03790811 0.039299175 -0.170338 -0.0077833124 -0.044035282 -0.18896195
-0.11607468 -0.007936331 0.13712478 0.17214102 -0.10647126 -0.35708895 -0.07593119 0.24112447
-0.107497305 -0.4232059 0.014678551 -0.049628362 -0.13123557 0.054519158 0.09703656 -0.01079176
-0.25386825 -0.1705573 -0.1774112 -0.22172885 0.016417539 -0.022713238 0.04768647 -0.08245372
0.09634434 0.015511557 -0.009717584 0.12745667 -0.29447702 -0.16114402 -0.16958128 -0.106478564
0.01878161 -0.060380172 -0.27847132 -0.11917597 0.021806283 -0.085923165 0.11300479 -0.0912211
0.0001393305 0.10394317 0.34881184 0.08364312 -0.07693667 -0.42310002 0.030399641 -0.11587814
-0.07800185 -0.12678781 -0.07504996 -0.18200241 -0.28918228 0.0005820948 0.039267175 0.031741884
-0.023828374 -0.18726943 -0.3260292 0.09251176 -0.15427071 -0.2689116 0.2614231 -0.04751537
-0.06928479 0.067026 -0.14387837 -0.215259 -0.3780779 -0.055651873 -0.22106352 0.13833062
-0.045271866 -0.14539857 0.17718634 -0.17459263 0.29891083 -0.15021521 -0.0047062114 -0.031081779
0.041981675 -0.0035958875 -0.102744065 -0.011199354 -0.30512396 0.048423674 -0.1846847 -0.25961047
-0.2677549 -0.01801892 0.2564061 0.26798105 0.16078837 -0.35118192 0.002730792 0.143674
-0.19149499 -0.034060486 0.07169677 0.14812475 0.1659511 -0.29615086 0.21486062 0.05466548
-0.063230306 -0.13121773 -0.13109063 0.035227567 -0.013414511 -0.2229712 -0.039324805 -0.05163884
-0.17567489 -0.16266692 -0.15408856 -0.025733173 -0.20009993 0.07398372 0.053540472 0.009946593
-0.11339328 -0.09047837 -0.19663653 0.040223986 -0.13474375 0.02190252 0.1639208 -0.3451285
-0.04309494 0.28221643 -0.1635119 0.04791407 -0.061126307 0.07813862 -0.080119886 -0.085714765
0.01844194 -0.004827775 -0.013968735 -0.014313507 -0.02554909 -0.26316303 0.02826083 -0.10363983
-0.05541543 -0.2928859 -0.12847392 -0.057674076 -0.06723888 -0.21506639 -0.09129727 -0.42538267
00000000: 9e7a 103e 01b0 1fbe 5893 3ebd e60b 44be
00000010: acd5 93be ca94 263e c68e 983e b5ec 613e
00000020: 7453 32bd e2bf c23e 711b 30be 639d 513b
00000030: ce82 e1be 91f1 6ebe 5f9b 9cbb 8841 5b3e
00000040: 13af 97bd e469 6abd 1bc1 85be 89da 18be
00000050: 06b1 24bc bceb b7bd fd9b 9e3c e673 3bbc
00000060: e8c0 cd3d 5e8f 1fbd deb2 10be b032 0c3c
00000070: 530d babe 163b f53c 685e 15be 4eb0 fa3d
00000080: dcc3 16bf 7725 693e 561b e2bc 4e91 0abf
00000090: ed2f 353d f980 75bd 16d7 23be 9b60 81be
000000a0: 7a1f 74bc 296c 7abe 5177 12be 37ec e2be
000000b0: e246 a73e ddf8 00be 17f3 cbbe fb41 3e3d
000000c0: e9d1 fd3c 99e4 ad3e e8a8 40be e696 f53d
000000d0: ddfa 1dbe a2b2 81be b11e 89bd 3258 f6be
000000e0: 2c03 78be d502 31bd d32a c33b 69c9 31bd
000000f0: 627c 2bbd cda3 38bd 0bf7 cf3d 49a8 cdbe
00000100: 353f 5cbd 1821 ecbe 40dd 92be 1a84 a13e
00000110: b2c9 433e 513a abbd 29a2 adbe b992 cb3d
00000120: 33ce acbd 0014 38be 99b4 9abd 92a0 dfbc
00000130: 9259 30be a215 f2bb 481b 6e3e 54e7 993d
00000140: 563d 2b3e fbbd cdbd c5b7 f73d b90c 153c
00000150: 0190 90bd cd43 f0bd a3e9 9ebd 4485 a23c
00000160: c329 25be e6dc 573d 0981 10be a55b 963d
00000170: e6cb d3be 4ceb 723e 2c0b 143e b924 23bd
00000180: b66d c7bd 361c c3be 8945 1bbd 2cf8 203d
00000190: 166d 2ebe 280b ffbb 575e 34bd 3e7f 41be
000001a0: 90b8 edbd 6307 02bc 706a 0c3e bc45 303e
000001b0: 9b0d dabd 5dd4 b6be d081 9bbd 55e9 763e
000001c0: 8c27 dcbd 72ae d8be 4e7e 703c 1c47 4bbd
000001d0: 9e62 06be 7b4f 5f3d 1bbb c63d eccf 30bc
000001e0: 05fb 81be 93a6 2ebe 48ab 35be e30c 63be
000001f0: 137e 863c 1d11 babc e352 433d 7fdd a8bd
00000200: 2e50 c53d 3024 7e3c 8036 1fbc 0084 023e
00000210: b1c5 96be f002 25be b7a6 2dbe 6f11 dabd
00000220: e4db 993c 3351 77bd cb93 8ebe 8812 f4bd
00000230: 17a3 b23c 7cf8 afbd 0e6f e73d 21d2 babd
00000240: 3f19 1239 28e0 d43d 7797 b23e 164d ab3d
00000250: f990 9dbd 91a0 d8be ab08 f93c 8551 edbd
00000260: 6fbf 9fbd aad4 01be cbb3 99bd d75e 3abe
00000270: b30f 94be b997 183a 9ed6 203d c703 023d
00000280: b933 c3bc 8fc3 3fbe 4ded a6be ce76 bd3d
00000290: 24f9 1dbe c8ae 89be 40d9 853e 7a9f 42bd
000002a0: 2fe5 8dbd ed44 893d da54 13be db6c 5cbe
000002b0: 6d93 c1be 38f3 63bd 7a5e 62be 8ba6 0d3e
000002c0: fe6e 39bd 5de3 14be 5670 353e 69c8 32be
000002d0: d70a 993e 04d2 19be 9036 9abb 379f febc
000002e0: faf4 2b3d fba8 6bbb 7b6b d2bd 7f7d 37bc
000002f0: 3539 9cbe e757 463d fc1d 3dbe aaeb 84be
00000300: 2c17 89be 6a9c 93bc a947 833e d034 893e
00000310: b5a5 243e 1ece b3be 16f7 323b 471f 133e
00000320: 4317 44be 0283 0bbd c2d5 923d 04ae 173e
00000330: 16ef 293e 16a1 97be 6c04 5c3e e9e8 5f3d
00000340: e47e 81bd f15d 06be 9f3c 06be c84a 103d
00000350: 8ac8 5bbc 9052 64be 0c13 21bd 4083 53bd
00000360: 1ee4 33be 2892 26be 64c9 1dbe 60ce d2bc
00000370: ffe6 4cbe c784 973d 414d 5b3d 09f7 223c
00000380: bc3a e8bd b94c b9bd 165b 49be e8c1 243d
00000390: 44fa 09be ea6c b33c dbda 273e afb4 b0be
000003a0: 5284 30bd ac7e 903e aa6f 27be 8b41 443d
000003b0: 945f 7abd 2407 a03d e515 a4bd 398b afbd
000003c0: 8d13 973c 5032 9ebb 1fdd 64bc 3383 6abc
000003d0: 534c d1bc 4ebd 86be 4283 e73c 1f41 d4bd
000003e0: 4afb 62bd 24f5 95be ab8e 03be a73b 6cbd
000003f0: 8ab4 89bd 5d3a 5cbe 10fa babd c2cb d9be

attention.0.bias f4 [100]
-0.18072456 -0.68202084 0.11954593 -0.19130535 -0.031867716 -0.11350213 -0.2944033 -0.35623965
-0.42456695 -0.7970442 -0.2598844 -0.43337867 -0.53756714 0.115151584 -0.69474894 -0.6190363
-0.5441398 -0.6468332 0.05511775 -0.42960817 -0.22885945 0.0073522283 -0.12196904 -0.61739147
-0.64696807 -0.23936804 -0.2538284 -0.4149247 -0.4436065 -0.4363332 -0.30585176 -0.71205616
-0.5487546 -0.3689819 -0.23106731 -0.44903812 -0.63336205 0.27100402 -0.43479034 -0.5106981
0.0176964 -0.2882538 -0.7605136 -0.18078998 -0.8880618 -0.33938926 -0.09736806 -0.6135729
-0.912554 -0.75331044 -0.0047458108 0.13871196 -0.0599515 -0.14990358 -0.33851025 -1.3059951
-0.17263964 -0.17387024 -0.39944908 0.29252243 -0.4512259 -1.0751203 -0.24453582 -1.1038244
-0.022299582 -0.3636336 -0.76670295 -0.11703426 -0.5176127 -0.32681158 -0.2141909 0.009775027
-0.13166094 -0.48051798 -0.46785432 0.040983967 0.007027888 -0.17128928 -0.14511444 0.19003229
-0.13074552 -0.08355139 -0.30317408 -0.532058 -0.31772992 -0.046634074 -0.35802156 -0.508806
-0.7570592 -0.16453584 -0.6072038 -0.2331905 -0.2177922 -0.21968786 -0.08107898 -0.8160134
-0.2156243 0.11694186 -0.93961096 -0.401405
00000000: dc0f 39be eb98 2ebf 7fd4 f43d 8de5 43be
00000010: b987 02bd ce73 e8bd 08bc 96be 0b65 b6be
00000020: d760 d9be 170b 4cbf 910f 85be cfe3 ddbe
00000030: 009e 09bf 98d4 eb3d 11db 31bf 2a79 1ebf
00000040: bf4c 0bbf dc96 25bf 26c3 613d 9af5 dbbe
00000050: 225a 6abe f6ea f03b e7ca f9bd 5e0d 1ebf
00000060: b39f 25bf e51c 75be ccf5 81be 0371 d4be
00000070: 6420 e3be 1167 dfbe 9a98 9cbe 5049 36bf
00000080: 2e7b 0cbf 32eb bcbe e99c 6cbe 53e8 e5be
00000090: 0424 22bf 0ac1 8a3e d79c debe 1cbd 02bf
000000a0: 0af8 903c 0196 93be 05b1 42bf 0221 39be
000000b0: 0558 63bf 6ec4 adbe e868 c7bd 1d13 1dbf
000000c0: 249d 69bf f4d8 40bf bf82 9bbb 820a 0e3e
000000d0: b48f 75bd 5380 19be 3751 adbe d92a a7bf
000000e0: 72c8 30be 0a0b 32be 9784 ccbe 80c5 953e
000000f0: 1507 e7be 8b9d 89bf 9967 7abe 1e4a 8dbf
00000100: 9dad b6bc 2f2e babe a546 44bf a8af efbd
00000110: 4482 04bf d953 a7be dc54 5bbe 6f27 203c
00000120: 20d2 06be 7406 f6be 9a8a efbe cede 273d
00000130: 334a e63b 7566 2fbe e198 14be d397 423e
00000140: 27e2 05be fe1c abbd a239 9bbe f434 08bf
00000150: 7fad a2be 5f03 3fbd 9a4e b7be 1c41 02bf
00000160: a2ce 41bf 157c 28be b571 1bbf 7ec9 6ebe
00000170: eb04 5fbe dbf5 60be bc0c a6bd 41e6 50bf
00000180: 9ecc 5cbe 377f ef3d 588a 70bf f584 cdbe

attention.2.weight f4 [100, 100]
-0.08811086 -0.055786118 -0.06917401 -0.16586909 -0.028960409 0.10638192 -0.3190794 0.12474963
-0.17911758 -0.26485994 0.067125976 -0.00078543246 -0.011851366 -0.046658993 -0.18226482 -0.06794317
-0.103347436 0.027686479 -0.12551482 -0.058336537 -0.1956453 -0.058476936 0.08600304 0.029353272
-0.11779821 0.1661412 -0.088739224 -0.26521042 0.052151497 -0.19173743 -0.08746169 -0.13824394
0.026806315 -0.20684232 -0.09530921 -0.080616914 0.06992876 -0.17349513 -0.06334799 -0.17451596
0.021698259 -0.045720756 -0.26857087 0.029824076 -0.15963477 -0.1846128 -0.047756165 -0.06057461
-0.34255278 0.08198334 0.13571142 -0.23249033 -0.17269407 -0.0279217 -0.10718413 -0.11055849
-0.116626136 -0.2075005 0.02125413 -0.011036518 -0.019601177 0.56497407 0.01106605 -0.028156912
0.06917793 -0.044845566 -0.058111273 0.025368465 -0.06667069 -0.20443413 -0.013480927 -0.04707265
0.08579452 -0.14110136 -0.010628771 -0.029898928 -0.017353376 0.011169069 -0.16572003 -0.041706093
-0.07857837 0.028385395 -0.026123075 -0.042507984 0.010856416 0.1169191 -0.2847087 0.09522349
-0.1458654 -0.12460755 -0.028028099 -0.12159636 -0.2518177 0.15497003 -0.15899889 0.03895755
0.03047837 0.11636613 -0.025792714 -0.15887545 -0.015038851 -0.08944443 0.110741735 0.010135697
-0.034375034 -0.0038945812 -0.12055046 0.04709936 -0.03428941 -0.15228426 -0.045954768 0.004161674
-0.0014664124 -0.09663608 -0.10896862 -0.022763452 -0.030502196 0.010926153 0.016490288 0.018128414
-0.12473278 0.06731771 -0.07572357 -0.06496862 -0.010892057 -0.004083086 -0.07605235 0.055640798
-0.06646175 0.0112529 -0.07741188 0.062827975 -0.0665733 -0.0025541529 -0.07166019 -0.12407514
-0.03599524 0.0635895 -0.011312529 -0.05303102 -0.050930854 -0.023137897 -0.008385204 0.111507036
-0.055285785 -0.01935187 -0.05358352 0.057658836 -0.12718175 -0.0034885968 0.0011369014 -0.096712746
0.05839641 -0.007534473 0.06889856 -0.05997889 -0.13085039 -0.059155304 -0.118458904 0.011512729
0.0064360565 -0.1107685 -0.06700361 -0.032157246 0.037653808 -0.09015908 -0.14577053 0.05204045
-0.0182195 -0.03799031 -0.0047218413 0.108561195 0.0710087 -0.12992224 0.015865747 0.13852423
0.01894997 0.01104081 0.14136504 -0.14714874 0.08607336 0.039602205 -0.0040671304 0.03297589
-0.1265743 -0.011665892 -0.11110269 -0.07102839 -0.0497484 -0.015810298 0.0006977374 0.06665464
0.05748735 -0.094956346 -0.123007305 -0.06443381 0.033428524 -0.09672034 -0.040454924 0.034409996
-0.06544475 0.0015009271 0.10685713 -0.09358873 -0.072783396 0.0038130756 0.071302354 0.12811533
-0.081545815 -0.03731751 0.006025675 -0.0016034787 -0.09210632 -0.039019853 0.0543304 -0.0069548497
0.040895242 0.037412446 -0.039724693 0.030207098 -0.038124144 -0.05865735 0.022526467 -0.023372807
0.05322115 0.032066368 0.033902477 -0.05246265 0.0017685383 -0.054548007 -0.08340053 0.064174525
-0.20950893 -0.13024591 -0.086803265 -0.038533513 -0.010362251 -0.092518196 -0.037496075 -0.021118985
-0.115154445 -0.034220412 -0.18926571 -0.06988769 -0.019755669 -0.04485277 0.09608738 -0.077804886
-0.1121142 0.031667694 -0.06439727 -0.03530139 -0.089333214 -0.055512965 -0.03849701 -0.068622336
00000000: 7773 b4bd fc7f 64bd 1aab 8dbd 96d9 29be
00000010: 613e edbc c4de d93d 605e a3be bc7c ff3d
00000020: 996a 37be b99b 87be 5879 893d 7be5 4dba
00000030: 3b2c 42bc 801d 3fbd a1a3 3abe ca25 8bbd
00000040: d2a7 d3bd c1ce e23c f586 00be 4bf2 6ebd
00000050: 3e57 48be 8385 6fbd 5d22 b03d 4676 f03c
00000060: 3040 f1bd eb20 2a3e e9bc b5bd a9c9 87be
00000070: cf9c 553d d156 44be 1d1f b3bd d28f 0dbe
00000080: eb98 db3c 79ce 53be 7a31 c3bd 7b1a a5bd
00000090: cf36 8f3d b5a8 31be 97bc 81bd 50b4 32be
000000a0: 8cc0 b13c b045 3bbd 1f82 89be 9f51 f43c
000000b0: 4c77 23be 230b 3dbe f89b 43bd 151d 78bd
000000c0: 1463 afbe e2e6 a73d eff7 0a3e f211 6ebe
000000d0: b7d6 30be 0dbc e4bc 5a83 dbbd 7d6c e2bd
000000e0: afd9 eebd 037b 54be 241d ae3c 83d2 34bc
000000f0: a692 a0bc 24a2 103f 614e 353c 53a9 e6bc
00000100: 29ad 8d3d fcaf 37bd 1606 6ebd 87d1 cf3c
00000110: a58a 88bd 2e57 51be 1bdf 5cbc 40cf 40bd
00000120: 0ab5 af3d e07c 10be 4c24 2ebc 99ee f4bc
00000130: ab28 8ebc 79fe 363c 83b2 29be 02d4 2abd
00000140: b2ed a0bd 7d88 e83c 0f00 d6bc da1c 2ebd
00000150: 1cdf 313c 4873 ef3d 57c5 91be 8804 c33d
00000160: bd5d 15be 3e32 ffbd 2f9b e5bc 8307 f9bd
00000170: 40ee 80be 77b0 1e3e 9bd0 22be f491 1f3d
00000180: c6ad f93c 5e51 ee3d 3e4b d3bc 3fb0 22be
00000190: 8365 76bc a42e b7bd 90cc e23d 3210 263c
000001a0: d6cc 0cbd 3b3c 7fbb 29e3 f6bd 42eb 403d
000001b0: 0d73 0cbd 68f0 1bbe 113b 3cbd a75e 883b
000001c0: a334 c0ba 23e9 c5bd f12a dfbd 6b7a babc
000001d0: bedf f9bc 9b03 333c a416 873c 0a82 943c
000001e0: e673 ffbd dedd 893d f614 9bbd 450e 85bd
000001f0: 9974 32bc 68cb 85bb 56c1 9bbd 9be7 633d
00000200: 191d 88bd 155e 383c 1f8a 9ebd f4ab 803d
00000210: 9557 88bd 9363 27bb 94c2 92bd 1b1b febd
00000220: bf6f 13bd 363b 823d 3058 39bc 0e37 59bd
00000230: df9c 50bd b08b bdbc 1862 09bc cd5d e43d
00000240: 5973 62bd d087 9ebc 657a 5bbd ac2b 6c3d
00000250: ef3b 02be f1a0 64bb 1504 953a 5511 c6bd
00000260: 1331 6f3d bee3 f6bb b01a 8d3d 6dac 75bd
00000270: a5fd 05be d54c 72bd 959a f2bd e39f 3c3c
00000280: 8ee5 d23b 98da e2bd 3039 89bd 51b7 03bd
00000290: e13a 1a3d 53a5 b8bd df44 15be 5e28 553d
000002a0: 1041 95bc ba9b 1bbd adb9 9abb 5555 de3d
000002b0: 026d 913d 560a 05be e2f8 813c 4cd9 0d3e
000002c0: f83c 9b3c 83e4 343c ffc1 103e 29ae 16be
000002d0: 3b47 b03d ec35 223d 9045 85bb ba11 073d
000002e0: b19c 01be 4c22 3fbc cf89 e3bd 5577 91bd
000002f0: fac4 4bbd 9984 81bc 5de8 363a 3a82 883d
00000300: db77 6b3d 7978 c2bd 41eb fbbd e0f5 83bd
00000310: 59ec 083d 5015 c6bd 10b4 25bd 7ff1 0c3d
00000320: e607 86bd c2ba c43a e9d7 da3d 73ab bfbd
00000330: 760f 95bd cbe4 793b f806 923d aa30 033e
00000340: 7e01 a7bd 3fda 18bd 0773 c53b d12b d2ba
00000350: 3da2 bcbd 48d3 1fbd 8e89 5e3d 82e5 e3bb
00000360: c581 273d cb3d 193d 5cb6 22bd e074 f73c
00000370: 1028 1cbd b042 70bd 6d89 b83c 5478 bfbc
00000380: 6cfe 593d 0658 033d 53dd 0a3d 13e3 56bd
00000390: 4cce e73a bb6d 5fbd e6cd aabd ef6d 833d
000003a0: 8289 56be 2f5f 05be e9c5 b1bd 51d5 1dbd
000003b0: 6ec6 29bc 2e7a bdbd 7c95 19bd b901 adbc
000003c0: 18d6 ebbd b42a 0cbd dfce 41be 4721 8fbd
000003d0: a4d6 a1bc 8ab7 37bd 76c9 c43d 2b58 9fbd
000003e0: 219c e5bd fcb5 013d b7e2 83bd 3198 10bd
000003f0: 55f4 b6bd 9061 63bd 0aaf 1dbd de89 8cbd
