sarl_star_ros/CrowdNav-nowall/crowd_nav/data/output_tesis_1/il_model.pth (torch_old, 349196 bytes, 20 tensors)

mlp1.0.weight f4 [150, 13]
000000 7c fd fb bd a1 30 29 3f f6 bb 91 be 01 8b 07 3c
       -0.12304208 0.66089827 -0.28463715 0.008272887
000010 01 64 0d bf 7b e9 e5 be e1 3f 16 3d 40 e0 9d bd
       -0.5523072 -0.44904694 0.036682013 -0.07708788
000020 24 9e a1 3e ee 99 55 3d 29 4c a2 3c 20 9a d6 be
       0.31565964 0.052148752 0.019811707 -0.41914463
000030 28 e4 e6 3e ba 8d 0b bf 4e 1e 47 be 2d 0d ec 3e
       0.45095944 -0.5451313 -0.19445154 0.46103802
000040 15 ed 6f be aa 4e 9b bd f0 2c 8f be 70 b1 a4 3e
       -0.23430283 -0.07583363 -0.27963972 0.32166624
000050 24 32 fa be 04 be 13 3e b3 ed 21 be 4d 9c 65 3e
       -0.4886638 0.14427954 -0.15813331 0.22422905
000060 4a 68 8e 3d 04 c6 0b be 6c 69 81 be 20 29 76 be
       0.06953485 -0.13649756 -0.25275743 -0.24039125
000070 28 4b 41 be 94 f5 ca 3d 75 66 a0 3c 60 02 5e 3e
       -0.18876326 0.099101216 0.019580105 0.21680593
000080 81 2b 1d 3d e2 3e 19 3e ef 46 6a be 51 84 d5 bc
       0.038371567 0.14965394 -0.22878622 -0.02606407
000090 26 ac c5 bd 2c dd 4e 3d e6 24 3b be 30 d4 2f be
       -0.09651975 0.050503895 -0.18275794 -0.17170787
0000a0 04 43 86 be cf 3c 41 bf b8 62 dc 3d 7d 18 84 be
       -0.26223004 -0.7548341 0.107610166 -0.25799933
0000b0 81 2c 3f bd 6a 6d 06 3e 8c 3a 70 bd 61 23 ce 3e
       -0.0466733 0.13127676 -0.058649585 0.40261367
0000c0 49 a0 72 be 8a b0 2b 3e 78 77 86 3e 4e 8b 21 be
       -0.23693956 0.16766563 0.26263022 -0.15775797
0000d0 a3 87 9c bf d6 32 94 3f 2e 6b ac 3d 15 c0 17 3f
       -1.2228893 1.1578014 0.084188804 0.5927747
0000e0 93 47 95 be 1d bd 9a 3e 14 28 8c 3f f6 e3 9b 3f
       -0.2915617 0.30222407 1.0949731 1.2178943
0000f0 fe 1e b2 3e 5c f3 cd bd 31 1d ad 3e 9d e6 49 be
       0.3478927 -0.10056183 0.33811334 -0.19716878
000100 52 40 d2 3e 49 6b 45 bf 8d 8d 56 3c 0c 4e de 3e
       0.41064698 -0.7711683 0.013095272 0.4341892
000110 db 4c 7e be 9f d8 60 be ec 70 d6 be 6d c2 1c 3d
       -0.24834006 -0.21957634 -0.41883028 0.038271356
000120 90 84 4b be cb 6f ab 3d 98 79 46 be 39 84 81 3e
       -0.19874787 0.08370932 -0.19382322 0.2529619
000130 50 ab c0 3d 68 f7 b7 bd a8 70 8e bf d0 12 ed 3e
       0.09407675 -0.08982736 -1.112813 0.46303415
000140 f5 b2 b0 be 9e 4c 90 3e 34 ab a3 3e 11 51 11 bf
       -0.34511533 0.28183454 0.31966555 -0.5676432
000150 99 c2 57 3f f5 90 03 bf 87 06 e5 bd ed 81 cd 3d
       0.8428131 -0.5139306 -0.111828856 0.10034547
000160 6d 1f 85 3e 75 88 e3 3d fd c2 e7 3e b4 a4 e5 be
       0.26000538 0.111100115 0.45265952 -0.4485222
000170 2f f6 81 bd 8e a8 2f 3e b3 53 3f 3e da 77 76 3d
       -0.06345784 0.17154142 0.18684272 0.060172893
000180 29 77 90 3e 94 68 fe 3e be 3f 46 3e 64 55 12 bf
       0.28215912 0.49689162 0.19360253 -0.57161546
000190 58 06 8e 3e 74 f8 38 3d 9b 17 1a be f6 23 97 3e
       0.27739215 0.04515882 -0.15048067 0.29519624
0001a0 10 db 12 be 46 0c 9e 3e 51 13 0a be 8d 45 4a be
       -0.14341378 0.3086874 -0.13483931 -0.19753094
0001b0 d8 e3 93 3f ba df c4 bf 95 5f ac 3d 5b 99 96 bf
       1.1553907 -1.5380776 0.08416668 -1.176555
0001c0 69 98 fa be a5 7f 85 bf b4 d4 f7 3b 6a 39 0d bf
       -0.48944405 -1.0429579 0.007563198 -0.5516573
0001d0 e1 d2 96 3e 41 3d d6 3e 34 9b 0f bf c7 72 04 3d
       0.29457763 0.41843608 -0.56096196 0.032336023
0001e0 b9 36 a7 be 05 79 89 3b f5 4a b3 be 31 56 1f bf
       -0.32658938 0.004195335 -0.35018125 -0.6224089
0001f0 32 e7 df 3e 89 37 4d bf ab 78 7d bf a9 d0 18 be
       0.43731076 -0.80162865 -0.9901225 -0.14923348
000200 ee 0f 79 be 9a 99 bc bd c6 62 5d bf 35 3a c9 3e
       -0.24322483 -0.09208985 -0.8647884 0.3930222
000210 13 a1 fe 3e 85 99 18 be 5a 9c e3 bd af 51 98 3e
       0.49732265 -0.14902313 -0.11113806 0.2974982
000220 56 6b 83 3e 8a b1 27 be dc 03 6b be 1c 82 9e be
       0.25667828 -0.1637632 -0.22950691 -0.3095864
000230 b4 0e 97 bb c8 d7 3a 3d 7b 1f 14 bd 38 e8 c3 3d
       -0.004609907 0.04561594 -0.036162835 0.095657766
000240 31 62 94 3d cc 9a 83 3e 13 81 4d 3e 20 37 03 bf
       0.07245291 0.25704038 0.20068769 -0.5125599
000250 09 9c 05 3e c8 75 a6 be 42 6e 55 3c 4e 85 b3 3d
       0.13047804 -0.32511735 0.013026776 0.0876566
000260 0e 44 ec 3d d5 c0 ed bc 19 7d 0b be cf 94 7e be
       0.11536418 -0.029022614 -0.1362194 -0.24861453
000270 92 29 40 3f 84 25 f2 be b9 07 af 3f 67 9c 69 3c
       0.7506343 -0.47294247 1.3674232 0.014258481
000280 33 b9 7e be e4 9d 0e 3f 37 ba 51 bf fa 2a 1b 3f
       -0.24875335 0.5570967 -0.81924766 0.6061245
000290 cc 38 a8 bf db 49 52 3c 14 cf dc bc e3 c4 98 bf
       -1.3142333 0.012834991 -0.026954211 -1.1935085
0002a0 0b ae 8d be c7 d2 8c bd 15 c1 b2 be e4 83 cc 3f
       -0.27671847 -0.0687614 -0.34912935 1.597775
0002b0 4c 5a a1 bc 37 22 30 bf b1 dc 2c 40 bc 7f 0d bf
       -0.019696377 -0.6880221 2.70097 -0.5527303
0002c0 30 7f 6e 3d 0e 15 86 3e 96 f5 56 3f f1 92 b3 be
       0.058226764 0.26187938 0.83968484 -0.35073045
0002d0 5a 14 38 3f be ed 01 bf ab 3b a6 be c1 ad 07 be
       0.71906054 -0.5075339 -0.32467398 -0.13249876
0002e0 78 cd 1d 3e 00 fd d4 3a f9 8f 57 3e 70 89 b8 3e
       0.15410411 0.0016249716 0.21051015 0.36042356
0002f0 3b 7b 82 3e f6 74 82 3d 60 c1 83 3b e5 4e e4 bd
       0.25484642 0.06369965 0.004020855 -0.111478604
000300 3b e9 85 3d 8e bb d2 bc 9f 0f a6 be d0 9b 64 3e
       0.06538626 -0.025724199 -0.32433793 0.22325063
000310 a8 0c d6 3d 0d 56 90 3e bb b1 37 be 19 60 9e bf
       0.10451633 0.28190652 -0.17938893 -1.2373077
000320 99 3b 2a c0 24 57 1a 3f 02 1f 66 3f 59 80 da 3f
       -2.6598876 0.60289216 0.89891064 1.7070419
000330 4a 99 86 40 e1 00 2d 3e 9c b3 11 bf 86 71 3f 3e
       4.206212 0.16894867 -0.5691469 0.1869565
000340 3f 65 79 3f 42 1f 20 be 3a 60 46 bf 2c 65 c4 3d
       0.97420114 -0.15636924 -0.7749058 0.095896095
000350 83 71 45 bf 6a 6a 02 3f 3f b7 5d 3f 91 aa 05 bf
       -0.7712633 0.50943625 0.86607736 -0.5221339
000360 62 e5 eb 3f b8 4b 82 bf 4c 3a c1 bd fe ae f9 bf
       1.8429377 -1.0179358 -0.09434947 -1.9506528
000370 91 3f bf be 5d 44 c6 be 22 7a 44 be e1 65 cf be
       -0.37353185 -0.38724032 -0.19187215 -0.40507415
000380 3d d6 5b be eb eb e3 be 72 0d 15 be 26 3a dc 3e
       -0.21468444 -0.4451593 -0.1455591 0.43013114
000390 e8 09 06 be ea 71 8e bc d2 ab 68 be 9a fe a6 be
       -0.13089716 -0.017388303 -0.22721794 -0.3261612
0003a0 b3 d8 88 3e d9 3c 9f be 7d cb 51 3d d7 13 fd 3e
       0.26727828 -0.3110111 0.051219452 0.494292
0003b0 26 42 9c 3e ed a1 c6 3e c7 64 2c 3f df 54 f9 be
       0.30519217 0.38795415 0.67341274 -0.48697564
0003c0 e3 58 86 bf 98 04 87 bf b7 94 28 bf 2d ba ea 3d
       -1.0495876 -1.0548277 -0.6585192 0.114612915
0003d0 47 42 3d 3e 41 4e 92 bf 9e 43 ea 3e 04 3d 62 be
       0.18482314 -1.1430131 0.45754713 -0.22093588
0003e0 30 3d fa be c0 9f eb bd c0 f0 f0 bc fc 62 01 3f
       -0.48874807 -0.11505079 -0.029411674 0.50541663
0003f0 60 71 aa 3e 1b 61 39 be a7 c6 a7 3f f9 36 30 bf
       0.33289623 -0.18103449 1.3107499 -0.6883388

mlp1.0.bias f4 [150]
000000 77 19 27 3f 83 0a 28 be 1d e2 47 be af a0 29 be
       0.6527323 -0.1641026 -0.19519849 -0.16565202
000010 a9 44 8d 3f f0 26 8f 3e f1 c7 f1 3e 66 0a ca 3d
       1.1036578 0.27959394 0.47222856 0.098652646
000020 f6 42 c3 3e 14 c0 14 bf 4e 3f 07 3f f1 ef a4 be
       0.38137025 -0.5810559 0.5283097 -0.3221431
000030 59 56 54 bd cd 0a 13 bf c1 e0 94 bd 3a a8 c3 3d
       -0.05184016 -0.57438356 -0.07269431 0.09553571
000040 63 8a fd be bb 8e e0 be d3 1a 03 3f 59 57 7c be
       -0.49519643 -0.43858895 0.51212806 -0.24642695
000050 d5 d8 e9 be ee 25 7f be ae 3a eb 3e 9b c1 1c bf
       -0.45673242 -0.24916813 0.45943207 -0.6123292
000060 72 59 51 be 3b 8f c1 bd b2 5e db be e4 01 90 bf
       -0.20444277 -0.09451147 -0.42845684 -1.1250577
000070 08 38 85 bf ef b1 2b 3e 14 12 74 bf 34 a3 fb 3e
       -1.0407724 0.16767095 -0.95340085 0.49147952
000080 4b 2b b0 bf f0 e6 58 be 88 2c a9 be 16 86 74 3f
       -1.3763212 -0.21181846 -0.33041787 0.955171
000090 69 5a eb bd 30 72 2d 3f 8e 34 52 3f b6 60 1b bf
       -0.11491854 0.6775236 0.8211144 -0.60694444
0000a0 b8 55 81 bf 4a 10 55 3f e1 54 b5 bd 70 fe e1 be
       -1.0104284 0.8322798 -0.0885408 -0.44139433
0000b0 8e 0c fd be 66 57 69 bf b1 bd e7 be 48 4f 2d bf
       -0.4942364 -0.91148984 -0.4526191 -0.676991
0000c0 48 15 83 be 11 80 7a bf 7f bc 16 bf c5 78 9f be
       -0.25602174 -0.97851664 -0.5888137 -0.31146827
0000d0 46 78 ef bd fd 0c 20 bf 36 35 9a bf 35 b6 03 be
       -0.11692862 -0.6251982 -1.2047489 -0.12862475
0000e0 fe e7 56 3e d5 dd 15 bf d2 05 b6 3e 23 03 b9 3e
       0.20986935 -0.58541614 0.35551316 0.36135206
0000f0 d0 b3 e2 3e 98 85 3a be 9a 5a 91 3e df 5d b5 3e
       0.4427781 -0.18215024 0.28389436 0.3542318
000100 57 0d 43 bd 6c 11 cf 3e 79 66 be be c9 6f 5e be
       -0.047620144 0.4044298 -0.37187555 -0.2172233
000110 d6 9a 03 bd 77 d3 89 be c7 cf 8a be 2d ee dc bc
       -0.032130085 -0.26919147 -0.27111647 -0.02696904
000120 e5 03 05 3f 12 33 22 bd e8 58 2c 3f 48 7e 74 bf
       0.5195907 -0.039599486 0.6732316 -0.9550519
000130 4c e8 8c bc 95 4a 0a 3c 1e 54 1f be 3a 2f 93 3e
       -0.017200612 0.008440633 -0.15559432 0.28746969
000140 b3 29 b5 bd 2a 15 a0 be d6 83 fe 3d 4d b9 b7 3e
       -0.08845844 -0.31266147 0.124274895 0.3588356
000150 a2 86 e6 3e c6 31 15 3f 39 b8 a4 3f b4 b8 84 3e
       0.45024592 0.58279073 1.286872 0.25922167
000160 40 91 3b 3c 62 71 50 3d 61 54 8c 3e 5c 52 83 be
       0.0114482045 0.05088938 0.27408126 -0.25648773
000170 a1 9b 87 3e ef da 9e bc 0d 97 dd bd c3 36 25 bd
       0.26485923 -0.019391505 -0.10819826 -0.040335428
000180 f9 3a 09 be b2 d0 35 be 9f 32 bd bc 18 7c 07 3f
       -0.13401403 -0.17755392 -0.023095427 0.5292373
000190 c3 17 ac 3b 1b aa ef bd c0 b0 6c 3d 04 64 17 3c
       0.005251856 -0.11702367 0.05778575 0.009240154
0001a0 6f f7 54 bf 7f 4d 6b be 59 77 e7 be 55 63 21 bf
       -0.83190054 -0.22978781 -0.45208243 -0.63042194
0001b0 4b bc 6c 3d 44 c3 90 be a5 7f da bd be 19 0c bf
       0.057796758 -0.28273976 -0.106688775 -0.5472678
0001c0 6a a8 52 bf 07 fc 47 bf ae 2f 30 3f 12 15 85 bd
       -0.8228823 -0.7811894 0.68822753 -0.064981595
0001d0 39 f9 27 bd 08 e9 fb 3b 3e ed 8e bd 2d 22 59 be
       -0.04100916 0.0076876916 -0.06978844 -0.21204443
0001e0 a8 75 82 bf ef 5a 6a be ea ee 44 3f 0a de 1e 3e
       -1.0192156 -0.22886251 0.76927054 0.15514389
0001f0 47 50 a2 3e e1 96 2d bf 40 a1 f5 3d cc 82 9e be
       0.31701872 -0.6780835 0.119936466 -0.30959165
000200 4f b9 60 bb a7 d4 6c 3f a7 58 c0 be e1 cc 2f 3d
       -0.003429014 0.9251198 -0.37567636 0.042919997
000210 89 08 45 be 19 3a cb be fa c4 d5 3e cb 86 8d ba
       -0.19241537 -0.39692762 0.41751844 -0.0010797618
000220 ad e1 f0 3e da 59 e3 be 2e f0 ac bd 5a 03 82 bf
       0.47047177 -0.4440449 -0.08444248 -1.0157273
000230 81 ae d9 3d 50 ba 1b be 30 3f 7b 3e d5 21 26 bf
       0.10628987 -0.15207791 0.24535823 -0.64895374
000240 b5 a3 a8 be 89 ed 8d bd 4f 7a 8f 3f 83 31 2a bf
       -0.329374 -0.06930072 1.1209201 -0.664818
000250 3a f9 63 3e 88 e5 8e 3d
       0.22263041 0.06977373

mlp1.2.weight f4 [100, 150]
000000 15 d2 37 3d 4c 95 d0 ba e9 63 92 3d a1 8b 46 3d
       0.044878084 -0.0015913635 0.071479626 0.048473004
000010 73 d3 35 bd d1 30 bf 3c 48 89 ab bd 5b 9f 99 bd
       -0.044391107 0.023338707 -0.08375794 -0.07501098
000020 f2 8c a6 bc 68 33 ae ba 5d 3b 3e 3d 36 fc 6b bd
       -0.02033088 -0.0013290467 0.046443332 -0.057613574
000030 a8 58 f5 3b 61 ac a4 3c fd 02 26 bd 00 3d a4 bd
       0.0074873753 0.020101728 -0.040530194 -0.08019447
000040 9a a6 50 3d 8c 28 fe bb d7 96 3d bd ac 68 a6 bd
       0.050940134 -0.0077562984 -0.04628643 -0.08125433
000050 98 a0 63 bc 8f 93 04 3c cd 3c 8a 3c 95 aa 3a bd
       -0.013893269 0.008091821 0.016874695 -0.045572836
000060 6d e2 a6 bd 34 e8 a9 3c 35 50 19 bc bc 34 84 bd
       -0.08148656 0.020740606 -0.009357502 -0.06455371
000070 25 55 4f 3d 77 2a 39 3d db cf 47 bc be d9 11 3d
       0.05061831 0.045206513 -0.012195553 0.035608046
000080 6d 51 35 3a 4d 70 05 3c 56 4c c1 3c 58 69 e1 bc
       0.00069167354 0.00814445 0.02359597 -0.027516052
000090 d5 6e 46 3c 00 e0 09 3d b0 04 ac bd 41 fd cd bd
       0.012111385 0.03366089 -0.083993316 -0.1005807
0000a0 a6 69 a0 bd 58 3d e5 3c fd db a3 bd 21 5f 80 3d
       -0.07832651 0.027983353 -0.08000944 0.062681444
0000b0 5f 68 5a bd 15 55 56 bd 44 bc 9c bd 05 c5 c5 39
       -0.053322192 -0.052327234 -0.07653096 0.0003772156
0000c0 42 9a 13 3c 18 50 93 bd 48 a6 0e 3b 9f 4c 15 3c
       0.009008946 -0.07193011 0.0021766592 0.009112506
0000d0 0a ff b9 bc ec c8 18 bd fa e4 e9 bd a9 ab 0f 3d
       -0.02270462 -0.03730099 -0.11420627 0.035075817
0000e0 74 7f 7c 3d 9e 11 c5 bd 85 46 e6 3b b0 bd c8 3c
       0.061644986 -0.09622501 0.0070274496 0.024504513
0000f0 f7 3b ae 3c 2d b1 c8 bd 69 df f9 3c b7 7d 87 3b
       0.021268828 -0.097994186 0.030502038 0.0041348594
000100 c3 52 ad bc 29 34 ae bc 33 6e e5 3c c7 e9 7b bd
       -0.021157628 -0.021265106 0.028006649 -0.061502244
000110 1c 21 f3 bc 6c 71 13 3d 43 db 0b bd dc 31 f0 3c
       -0.029678874 0.03599684 -0.03414465 0.02932065
000120 0c e0 7b 3d ae 55 fd bc 5a 1a 3f bd 65 fe 9a bd
       0.061492965 -0.030924644 -0.04665599 -0.07568053
000130 7c 47 4f bd c8 e7 bc bb 1b 0a d8 3c 99 6a ad 3c
       -0.050605282 -0.005764935 0.026372006 0.021168994
000140 54 5c 7b bc 6c a5 50 bd cb fa 44 3c 9e 32 9a bd
       -0.015341837 -0.05093901 0.012022684 -0.07529186
000150 86 70 9e bd 63 70 99 3c 77 49 4a 3d 6a 38 c3 3c
       -0.07736306 0.018730348 0.049386468 0.023830611
000160 1a 27 d1 3a ad b1 5e bd 99 f3 b9 bd 8f 8b 7e bd
       0.0015957088 -0.054368664 -0.09079666 -0.062144812
000170 4a a4 8d bd fa b1 b0 bc e3 24 c0 bd 4b 9a 50 3d
       -0.06916101 -0.02156924 -0.093820356 0.050928395
000180 9a 38 a1 bc 08 f0 06 bc a4 87 2a 3d 90 60 a2 bd
       -0.01968031 -0.008235939 0.041633263 -0.07928574
000190 e4 37 45 3d 21 e7 1b bd b1 cf 1e bd 21 a6 f3 bd
       0.048149005 -0.03806222 -0.03877229 -0.11896921
0001a0 b4 fc 78 bd 82 b5 cc bb 58 5b 86 3d 2c 01 c4 bc
       -0.06078787 -0.0062472234 0.06560391 -0.02392634
0001b0 5c 13 77 3d f3 7c aa bb 9b 24 cd 3c 00 c8 14 3d
       0.060321197 -0.0052028834 0.025041869 0.036323547
0001c0 d9 4b 35 bd 58 4a 26 3b 78 ef 6f 3d 49 7a 53 bc
       -0.044261787 0.0025373902 0.058577985 -0.012907573
0001d0 a1 ee ba bd 77 90 e4 bb 8b 44 62 bd 54 db 1a 3d
       -0.09127546 -0.0069752294 -0.05524115 0.037806824
0001e0 37 7b 7d bd 3e 18 4b 3d 99 41 3f bd 77 cb 85 3b
       -0.061885085 0.049583666 -0.04669342 0.004083093
0001f0 7c 59 b5 3c be 01 c6 bd 11 60 b7 bd 3e 88 20 bd
       0.022137396 -0.09668301 -0.0895387 -0.03919243
000200 62 b6 85 3d 06 f7 82 3b 20 5f 38 3d 54 66 3a 3d
       0.065289274 0.0039967326 0.045012593 0.045507744
000210 9a cb cb bd 7f 22 2e bd b5 e2 c8 ba 7f df 88 3b
       -0.09950943 -0.042513367 -0.0015326353 0.0041770334
000220 ff 75 f0 3c d2 3e 79 bd c1 a7 e0 3b 5a 67 0b bd
       0.02935314 -0.060850926 0.0068559353 -0.03403411
000230 b7 12 e1 3c 5f d7 a1 bd b6 bd 25 3d 40 91 8e 3c
       0.027474744 -0.07902407 0.040464126 0.017403245
000240 43 8a 59 bd 88 9a 1b bd b2 e9 6d bd 85 57 2a bd
       -0.053110372 -0.03798917 -0.058084197 -0.04158737
000250 86 60 83 3d 17 0b 03 3d d9 9c 99 3d c1 d0 af be
       0.06414895 0.031992998 0.075006194 -0.34338954
000260 ad b1 90 bc 77 86 b6 3d 23 4d 13 be 83 82 b2 bd
       -0.017662847 0.08912366 -0.14384894 -0.087162994
000270 25 7f ad be 54 36 28 bd d0 62 a7 3d 7d b9 6a be
       -0.33886066 -0.041067436 0.08173144 -0.2292232
000280 e2 c4 d4 bd 2a 3c 4f bd d7 82 82 3e bd 75 99 3e
       -0.10389115 -0.050594486 0.25490448 0.2997264
000290 4a 72 9b bd ab ae bc 3e 78 5b 2c bc 6d aa 1b 3e
       -0.07590158 0.3685201 -0.010519855 0.15201731
0002a0 6f 9b f2 bd b9 0b 2e bf 04 88 47 bd 80 2a 3b 3f
       -0.11846053 -0.6798664 -0.0487137 0.73111725
0002b0 2b e7 43 be 8d a7 f9 3c 8c 0a 13 be 9a 8d 04 bd
       -0.19131152 0.030475402 -0.14359492 -0.032361604
0002c0 e4 3c f6 bd 1b 70 29 3d ae fa a3 be 1a 2a 0c be
       -0.12023333 0.041366678 -0.3202719 -0.13687935
0002d0 73 ee d4 be 2d 8e b4 3e 64 5e ff bd 1a ec b8 bd
       -0.41588172 0.35264722 -0.124691755 -0.09029408
0002e0 ef ee 06 bd 01 be bd bd e0 08 a8 3d 31 19 13 be
       -0.03294271 -0.09264756 0.08204818 -0.14365079
0002f0 83 ed aa 3e 54 84 58 be 8e 52 8e bd 39 08 81 3e
       0.33384332 -0.21144229 -0.0694934 0.25201586
000300 22 23 00 bf d0 4e e2 3e e9 61 da 3d fa 00 7c bf
       -0.5005361 0.44200754 0.10663206 -0.9843899
000310 31 ff 12 3d 0d a4 e8 bc c2 59 15 3e 6a b9 05 bf
       0.0358879 -0.028398538 0.14585021 -0.52236044
000320 c2 5c b8 bd fc ef 33 bf 44 49 67 bd 89 f2 10 be
       -0.09002067 -0.7028806 -0.056466356 -0.1415502
000330 21 09 11 bf 5d 79 6b be 6b 6c 1b 3d bd 1d 25 bd
       -0.56654555 -0.22995515 0.037945192 -0.040311564
000340 95 90 14 3e 60 af 99 3d b6 74 42 3e 5d b3 2d 3e
       0.14508279 0.07504153 0.18989834 0.16962953
000350 51 b2 88 bd 6f 46 c0 bd f1 71 d9 bc a1 db 5d 3d
       -0.06674636 -0.09388434 -0.02654359 0.054164533
000360 a0 db 09 bf ff 9c 97 bd f3 46 4d 3c cd 7f c1 bd
       -0.53850746 -0.074029915 0.012529123 -0.09448204
000370 d4 7c 42 3d a6 6d ca bb a9 f3 ba be 57 a4 85 bc
       0.047482327 -0.006177622 -0.36514023 -0.016313715
000380 ca aa aa be 93 d3 a6 be 5f 21 a5 bd d0 d2 b4 bd
       -0.33333427 -0.32583293 -0.08063006 -0.08829272
000390 12 87 2a be 38 ce b9 3b 03 e2 d7 3e e9 da 5b 3d
       -0.16653088 0.005670335 0.4216462 0.053675566
0003a0 6c f9 a5 bc fd 05 50 3d da 4c ba 3e 75 0b 22 3f
       -0.020260535 0.05078696 0.36386758 0.6329873
0003b0 f9 dc f9 3e a0 f7 8c 3e 1f 7c 29 be 13 32 2b bd
       0.488014 0.27532673 -0.16551255 -0.0417958
0003c0 62 a7 d8 3e b5 10 82 bc f8 a9 7a be e2 eb a3 bb
       0.42315203 -0.015877107 -0.244789 -0.0050024847
0003d0 25 4b 00 3d 50 b9 da bd 3a 83 68 be cf 43 1f bf
       0.031321663 -0.10679877 -0.22706309 -0.6221284
0003e0 29 40 f7 bd 8c 63 d3 3d da 95 d0 bc 7a 14 38 bd
       -0.120727845 0.103217214 -0.02546208 -0.044941403
0003f0 70 3e 9b bd 73 3a 2e be d0 97 10 3e fa d7 39 be
       -0.075802684 -0.17014484 0.14120412 -0.18148795

mlp1.2.bias f4 [100]
000000 7a eb 99 bd b6 d3 36 3f 99 4b a8 be 79 b3 5f bd
       -0.07515617 0.71416795 -0.32870176 -0.054614518
000010 8f 4d 5e 3d 03 cc 62 3e ae 84 4c 3f 4d 84 50 3b
       0.054273184 0.22148137 0.79889953 0.0031817139
000020 f7 ac 24 be 1c 49 07 3f c5 b4 04 3e 49 20 86 bc
       -0.16081606 0.5284593 0.12959583 -0.016372817
000030 6c 98 47 bd f9 0e 8c 3e 51 8b cf bd fc 41 b5 bd
       -0.048729345 0.27355173 -0.10133994 -0.08850476
000040 89 e1 fd be 00 96 04 bd d4 f1 f0 bd e1 20 36 be
       -0.49586132 -0.032369614 -0.11764875 -0.1778598
000050 17 83 3d 3e 98 e2 1d 3f 14 e7 65 bd d1 83 37 bd
       0.18507038 0.6167388 -0.056128576 -0.044803444
000060 04 34 2d 3f e1 52 f5 bd 60 d4 5a bf 8e 4c 79 3a
       0.67657495 -0.119786985 -0.8548031 0.0009510004
000070 8b 77 23 bf 35 f2 cc 3b de a1 b1 bc d4 f1 aa be
       -0.63854283 0.0062544593 -0.02168363 -0.33387625
000080 3d 70 f5 bd d9 61 12 be a4 f5 e0 3d 81 c4 bc be
       -0.119842984 -0.14295138 0.10984352 -0.3686867
000090 5f d7 c4 3c ba cf 14 3b 55 4c 0e be a2 c4 83 bd
       0.024028478 0.0022706822 -0.13896306 -0.06433989
0000a0 61 d5 1a 3e 42 42 7e be 9d 88 5c bd f6 f9 89 be
       0.1512046 -0.24829963 -0.053841222 -0.26948518
0000b0 d8 16 c2 bd 84 8e 55 bd 4e be 24 3f 1e c8 7b bd
       -0.09477013 -0.052137867 0.6435288 -0.061470143
0000c0 11 91 0a be 6c 74 00 3f 03 4c 66 bf cd e7 4b bd
       -0.13531901 0.50177646 -0.89959735 -0.04978161
0000d0 20 e8 18 be ce 23 ac be cc 58 89 3e 3e f6 89 3c
       -0.14932299 -0.33621067 0.2682556 0.01684105
0000e0 f6 ef c9 3f 7e 0d ba be 67 d9 9c 3c 45 d2 ec bd
       1.5776355 -0.3633842 0.019146634 -0.11563543
0000f0 60 64 11 be 63 4d 8b 3b 2e 5b c2 bd 94 ea 25 be
       -0.14198446 0.0042511686 -0.094900474 -0.16202766
000100 bd 1f 1f 3e 4d 20 54 bd f0 80 b2 bc 8d 02 97 3b
       0.15539451 -0.051788617 -0.021789998 0.0046084584
000110 01 ca 2d 3d 52 7f 17 3d 89 dc 92 be 14 c4 54 bd
       0.042428974 0.036986656 -0.2868388 -0.051944807
000120 ae 8a dc 3e 0e d5 19 bd c6 80 2a 3f a7 0e 06 be
       0.43074554 -0.0375567 0.6660274 -0.13091527
000130 3f 5f 77 bd af 82 26 bf f8 5b e5 b8 d5 38 47 bd
       -0.060393568 -0.6504316 -0.000109367014 -0.048638184
000140 54 63 02 be a4 04 00 bf 8f 5d 78 bc dd ff 55 3e
       -0.12733203 -0.5000708 -0.015159025 0.20898385
000150 51 9c ba bd e9 ac 41 3d f4 53 14 3c 47 6c 77 bd
       -0.09111846 0.04728404 0.009053219 -0.060405996
000160 0a b5 6c 3b 09 0b b4 3e 9a 34 84 be 83 1c 9d bd
       0.003611865 0.3516467 -0.25821382 -0.07671454
000170 ff 73 83 3c d1 28 46 bd 74 cd 38 bf b4 84 41 bf
       0.016046522 -0.04837877 -0.72188497 -0.75593114
000180 ea 96 2b bd 83 e7 c4 bd ee 54 92 bd 2d 92 5f bd
       -0.04189197 -0.0961447 -0.07145105 -0.054582763

mlp2.0.weight f4 [100, 100]
000000 d7 56 b1 bd 81 2e c8 be d7 d9 79 3e ab 81 ec 3c
       -0.086591415 -0.3909798 0.24399506 0.028870424
000010 ba e8 2e bc c5 fb c8 3e 8a 72 13 3e f8 c0 6e bd
       -0.0106756035 0.39254585 0.14399162 -0.058289498
000020 62 e3 ad bd ae 55 ef 3d 2a 87 19 be d2 41 d6 3c
       -0.084906355 0.11686264 -0.14992967 0.026154432
000030 60 ac a9 bd ec 37 84 3d 70 cf 83 be 35 72 70 be
       -0.08284831 0.06455979 -0.257442 -0.23481067
000040 58 bd 97 bd 82 3e a6 bd f9 35 da bd ea ee 30 3d
       -0.07409161 -0.08117391 -0.10654826 0.043196596
000050 10 1a f1 3d 68 32 f6 bd 3b ca f5 bc ae fc a1 3d
       0.11772549 -0.12021333 -0.030003658 0.07909523
000060 27 24 c6 be 31 a3 9e 3c 7c 0b 83 bd 3b 50 16 bd
       -0.38699457 0.019364925 -0.06398675 -0.036697607
000070 72 99 9f bc bf b7 3a bd ba 7c 72 3d c9 45 1b 3e
       -0.019482348 -0.04558539 0.05920098 0.1516334
000080 e1 22 f5 bc 9b fa a1 3d f8 7c b4 be f5 a5 1a 3e
       -0.029923858 0.07909127 -0.35251594 0.1510237
000090 8d 12 97 3d d0 ce be bd a4 eb d7 bc a8 3e d7 3c
       0.07376585 -0.0931679 -0.02635748 0.026274994
0000a0 78 92 a4 bd c8 82 0a bc be f6 9d bd f7 e2 85 bb
       -0.08035749 -0.008454032 -0.07713078 -0.004085894
0000b0 c1 7a d5 3c 5a 78 1c 3d b8 98 e0 be 57 00 8e 3d
       0.02605951 0.038200714 -0.43866515 0.069336586
0000c0 3c 06 b9 3d d5 7b d6 ba f4 a5 f7 bc eb b9 16 bd
       0.09034392 -0.0016363809 -0.0302305 -0.0367984
0000d0 d3 f1 bd bd be e6 5d 3e fd a7 93 be b6 88 04 3d
       -0.0927464 0.21670052 -0.28839102 0.03235694
0000e0 9f e2 72 be 47 4d 2b bd 18 a7 e1 bd f5 20 91 bd
       -0.23719262 -0.041821744 -0.11018199 -0.07086364
0000f0 cf 50 b2 3d 3a 50 9b 3d 3f ee c8 bd fe c2 d3 bc
       0.08706819 0.075836614 -0.09811067 -0.025849815
000100 48 0c 12 3e e9 d2 be 3d 01 2c 03 3d b2 cf aa 3d
       0.14262497 0.09317572 0.032024387 0.08340396
000110 26 55 1c be 70 da 58 bd e4 4e 09 bd 09 3a ab bd
       -0.15266857 -0.052942693 -0.0335225 -0.08360679
000120 3f 24 3e be 6f 07 9f 3d c4 d0 59 3d 62 df bb 3c
       -0.18568514 0.0776509 0.05317761 0.022933666
000130 e3 29 a2 3b 3f 24 7b be cf 0c 20 3e 59 00 1b be
       0.004948841 -0.24525546 0.15629886 -0.15136851
000140 c2 46 07 3d b4 25 58 be 56 dc b1 bb d3 f2 b7 be
       0.033026464 -0.21108133 -0.0054278774 -0.35927448
000150 36 a3 c7 b9 b0 31 bb bd e5 b6 a1 bc e5 e6 7a bd
       -0.0003807784 -0.091403365 -0.019740531 -0.061255354
000160 8d 71 8d be 03 73 76 3e d7 84 4d be 19 40 36 3e
       -0.27625695 0.24067311 -0.20070206 0.17797889
000170 40 1b 4f be bc 87 b0 bd cd c4 a5 be d5 5d c6 3e
       -0.20225239 -0.08619639 -0.3237671 0.38743463
000180 0a 5d 9a bd 2f c0 c4 3d d4 4a a8 bd ab c7 b6 bd
       -0.07537277 0.096069686 -0.08217397 -0.089248024
000190 2f 66 80 bd 5f 02 40 bf 7c 2d 8c bc f3 76 42 be
       -0.0626949 -0.7500362 -0.017111532 -0.18990688
0001a0 91 c1 be 3c 99 ca 08 bf a9 53 6f bf 8d 03 ba bd
       0.023285659 -0.5343414 -0.9348703 -0.090827085
0001b0 ab f9 c7 bd 3b 81 58 3e da 73 23 bd b4 0b 22 be
       -0.09764417 0.21143048 -0.039905407 -0.15824777
0001c0 95 1f fd bd bc 2a 4d 3d 12 5b ef be 75 1c 51 3d
       -0.123595394 0.050089583 -0.4674917 0.05105253
0001d0 b8 e9 f2 bd c5 4a 1e bd 83 87 d5 bc 1d db 47 be
       -0.118609846 -0.038645525 -0.026065594 -0.19517179
0001e0 af 1a 90 bd 08 7e 84 be 01 d0 0a be ac 80 d1 bd
       -0.070363395 -0.25877404 -0.1355591 -0.1022962
0001f0 06 10 dd bc ba b7 a7 bd 8e cf cf be 3f 42 55 be
       -0.02698518 -0.0818934 -0.4058804 -0.20826052
000200 fc e3 97 3e af 88 d1 bd 61 12 a0 be 90 7b 23 be
       0.29666126 -0.102311485 -0.31264022 -0.15965104
000210 c6 87 19 be f2 06 21 be a5 d5 d1 be 2a b9 98 be
       -0.149932 -0.15725306 -0.4098331 -0.2982877
000220 89 2c e9 bb 34 5d ca bd 5b 3f 4b be 10 4b 20 3c
       -0.0071159047 -0.09881058 -0.19848387 0.009783521
000230 a9 2b 4c 3d 7f 53 84 be cf c8 87 bc f0 36 9f 3e
       0.049846325 -0.25844952 -0.016575245 0.310966
000240 6a 4f 1a bb 7c d1 8f 3d 38 a0 93 3d 6a 70 08 be
       -0.002354587 0.07022378 0.07208294 -0.13324133
000250 2f f1 44 be 68 12 3f be 5b 6b 99 3e 4f f1 39 be
       -0.19232629 -0.18659365 0.29964718 -0.18158458
000260 22 d9 a0 bd 9c 83 be bd b2 70 a3 be ea f4 2f 3c
       -0.07853915 -0.09302446 -0.31921917 0.010739544
000270 1e 02 13 3d c3 f7 43 3e d1 74 78 bb 66 0b 2b be
       0.03589069 0.19137482 -0.0037911425 -0.16703567
000280 96 d9 c7 bd 5c 71 46 bd be 16 f8 bc 50 ef 89 bd
       -0.09758298 -0.04844795 -0.030284282 -0.06735098
000290 25 4c 90 bc 93 9c 26 be e3 c7 c6 bd fc c0 16 be
       -0.017614434 -0.16270666 -0.09706094 -0.14722055
0002a0 a3 9b 6a 3d e7 e5 1f ba 53 ea 80 bd 07 4c b7 bd
       0.057277333 -0.0006099627 -0.06294694 -0.08950048
0002b0 3f d5 a9 3d 6b df 84 bd de fa c5 3d 61 e9 46 be
       0.082926266 -0.06487926 0.0966699 -0.19424964
0002c0 b1 3e c5 bd 9c be 82 3e 77 f7 45 bd 20 8a fd 3d
       -0.09631098 0.25536048 -0.048331704 0.12379861
0002d0 07 d8 29 bd 5c 7c 41 be cd 9f d5 bd f9 12 88 be
       -0.041465785 -0.18895096 -0.1043087 -0.26576975
0002e0 f2 67 dc 3c 51 1f d4 3e 13 3c d6 3a 2c b4 c2 bd
       0.026905034 0.41430143 0.0016344808 -0.09507021
0002f0 64 24 19 be 8d 87 ee be 94 97 9e be a7 45 d5 be
       -0.14955288 -0.46587792 -0.3097502 -0.41654703
000300 02 62 bb bc 9c a3 0a be cb e7 27 bf 5d 38 c1 bd
       -0.022873882 -0.13538975 -0.65588063 -0.094345786
000310 75 73 22 be 87 20 96 3d c5 7c f0 bd 73 ba 33 be
       -0.15864356 0.07330423 -0.11742548 -0.17551593
000320 e0 06 83 bc a4 96 80 bd ce b7 39 be 0a 8f 99 bc
       -0.01599449 -0.062787324 -0.18136522 -0.018744964
000330 c8 cf dd 3c c6 1f 7c be f9 7a 8d be e0 51 9f 3d
       0.027076617 -0.24621496 -0.27632883 0.07779288
000340 66 87 ca bd b0 ba 81 bd 19 5a fd bd 78 a2 36 bd
       -0.098891065 -0.06334436 -0.123707004 -0.044588536
000350 0d 6d b1 3d 42 e7 60 be c1 51 36 3d af 20 41 be
       0.08663378 -0.21963218 0.04451156 -0.18860124
000360 b8 68 70 3d 86 9e 77 bd f2 9c 1f 3d 58 b3 48 be
       0.058693618 -0.060453914 0.038968034 -0.19599664
000370 b6 05 e5 bd ab 20 d2 3e 85 61 87 bc 2e 79 fa bc
       -0.1118273 0.4104055 -0.016525993 -0.030575361
000380 82 22 34 3e c6 8b a8 3d 9a 1a bb be ca 1c d7 3c
       0.17591289 0.08229785 -0.36543733 0.026258845
000390 46 b2 c0 3c 58 c0 e4 35 1a 42 2d bd 60 19 7b bd
       0.023522507 1.7043303e-06 -0.042299367 -0.061303496
0003a0 5d 73 62 3d 6c 45 bd bd 87 ab 3d be 2e 6e 2a 3d
       0.0552858 -0.09241757 -0.18522464 0.04160898
0003b0 01 a9 be bd ee 7d 4a 3c f0 e5 4f 3d 7a f8 5a 3d
       -0.09309579 0.012359126 0.050756395 0.053459622
0003c0 22 2e 02 bd 42 03 5d bd f6 e0 56 3d 50 41 5b be
       -0.031782277 -0.053958185 0.052460633 -0.21411633
0003d0 bf 1d a3 bd eb d3 42 be c9 fb cd bd 9d a4 b6 bb
       -0.07964658 -0.19026153 -0.1005779 -0.0055738227
0003e0 c7 e0 b1 3d be 77 c2 bd 54 e0 5c 3e 7e 31 65 bd
       0.08685451 -0.09495495 0.2156995 -0.055955403
0003f0 d3 76 af 3c f2 45 03 3d d1 c2 5c bc 3e 70 3d 3d
       0.021418964 0.032049127 -0.013474182 0.04624962

mlp2.0.bias f4 [100]
000000 12 2c 25 be de de ba 3e 5c b0 9d 3a 46 c3 13 3f
       -0.16130093 0.3649816 0.0012030709 0.5771984
000010 f2 4f 8c 3f 00 37 06 bf fd 12 93 3e c7 94 63 3e
       1.0961897 -0.52427673 0.28725424 0.22224723
000020 bd 74 19 bf f6 63 b6 bd 81 e0 94 be ce 3c 3b be
       -0.59943753 -0.08905785 -0.29077533 -0.18284914
000030 d0 67 46 bf 1c 74 24 be 84 52 bf be 69 7e 81 be
       -0.77502155 -0.16059917 -0.37367642 -0.25291756
000040 0f 02 0c 3f d5 e5 14 bf 49 7e 16 3f ad 3d 00 3c
       0.5469064 -0.58163196 0.58786446 0.007827205
000050 2a 8e d2 3d 73 8c 37 3e 4f 67 61 be 42 ea b1 be
       0.10281022 0.17924671 -0.22012065 -0.34749037
000060 79 14 83 be 1d 2d 22 be 2c a1 9e be 43 27 af be
       -0.25601557 -0.15837522 -0.3098234 -0.34209642
000070 69 ba 7b 3e a4 52 2d be 95 94 c5 3d ad 80 3c 3d
       0.24582829 -0.16926056 0.096474804 0.046021152
000080 6b ee 86 be 89 56 fe bd 86 6c 4f 3d 02 29 a4 3e
       -0.26353773 -0.12418849 0.050640605 0.32062536
000090 49 75 58 be 11 fb 91 3f a2 c4 82 bd 5f 7e 47 be
       -0.2113849 1.1404744 -0.06385161 -0.194818
0000a0 19 40 82 be 63 de 3f be 9b ba 95 be 84 e0 9b 3d
       -0.25439528 -0.18737178 -0.2924393 0.07611182
0000b0 d3 e2 a6 be 20 e9 3e 3e de 6a 51 3e a3 e8 16 bf
       -0.32594928 0.18643618 0.20450923 -0.58948725
0000c0 85 11 01 3f 41 50 a5 be 02 d9 95 bc 5b 4d 74 be
       0.5041736 -0.3228779 -0.018291954 -0.23857634
0000d0 88 a1 92 3e d9 e8 b7 be 20 f1 a4 be 1e 88 95 3e
       0.28638864 -0.35919836 -0.32215214 0.29205412
0000e0 9e 6b 51 be f3 34 48 3e bf cf d0 bd f8 6b a2 3c
       -0.20451209 0.19551449 -0.101958744 0.019826874
0000f0 77 5e 65 be 0f 14 be 3d 72 bc 9c be 09 71 9e ba
       -0.22399317 0.092811696 -0.30612522 -0.001208813
000100 e3 1d 72 bd 28 fb 3e be de e0 28 3e 5c cc a2 3e
       -0.059110533 -0.18650496 0.1649203 0.3179654
000110 b7 f5 8d 3e 76 06 c3 3b bb 11 8b 3e 0b a4 25 3f
       0.27726528 0.005951698 0.27161965 0.64703435
000120 9a 82 88 be 95 72 de be d1 d7 ad 3e 69 99 03 bf
       -0.2666214 -0.43446794 0.33953717 -0.5140596
000130 30 a5 82 3d ba 1c fc 3e 34 02 fb bd e8 5a 2f be
       0.06379163 0.49240667 -0.122562796 -0.17124522
000140 6e c2 53 be 47 0c 60 3f d6 ad e3 bd b5 8e b2 be
       -0.20679638 0.87518734 -0.11117141 -0.34874502
000150 13 ff ff bd 1c f1 fd bd f7 cf ce 3e ed d7 3a 3f
       -0.124998234 -0.123995036 0.4039304 0.72985727
000160 dc ff a6 3f e7 f6 e9 be 95 bf c6 be 89 87 84 bf
       1.3046832 -0.45696184 -0.3881804 -1.0353862
000170 76 e2 97 3f 2b 42 c1 be 8d ac 7e 3e 98 ad 9d 3d
       1.1865985 -0.37745795 0.2487051 0.07699126
000180 5b 05 53 be 2b 86 8d bc 6c 4e bd 3f a7 f8 d7 bd
       -0.20607512 -0.01727589 1.4789557 -0.105454735

mlp2.2.weight f4 [50, 100]
000000 6d 10 1f be b5 22 2a 3e fa 4b 54 3e 87 aa 34 3e
       -0.1553361 0.16614802 0.20732108 0.17643176
000010 40 0a 60 3e f5 b2 7a 3e 50 ad 5d 3e 15 be 93 3e
       0.2187891 0.24482329 0.21648145 0.2885596
000020 80 03 a1 3e 74 74 68 3a 97 b7 c7 3e 04 48 4a be
       0.31447983 0.00088674505 0.39007255 -0.19754034
000030 0d d9 da bd a1 14 b3 3e 5b 20 a1 3e 62 d6 46 3e
       -0.106859304 0.34976676 0.31469998 0.19417718
000040 03 a4 24 be 3b b3 18 be 9f 7e 9a 3d 7f 81 ba 3e
       -0.1607819 -0.14912121 0.07543682 0.36426923
000050 28 c4 66 3c 4b 64 64 be 8d 29 05 3e 6a 38 ba 3d
       0.014084853 -0.22303884 0.13004132 0.090927914
000060 b8 53 05 be d4 72 06 be 5d f1 f3 3d 9d 3f 0c 3e
       -0.13020217 -0.13129741 0.11911271 0.13696142
000070 e9 78 27 bd c2 a7 0f 3e 0b 25 e2 bd a3 84 77 3d
       -0.040886793 0.14028838 -0.11042222 0.060429227
000080 17 73 26 bd 8e 86 0b 3c ab d5 b4 bc 09 43 1b 3e
       -0.040637102 0.008515967 -0.022074541 0.1516229
000090 16 70 07 3e 70 22 34 3e fd d3 f8 3c dc bb 87 3e
       0.13226351 0.17591262 0.030374521 0.26510513
0000a0 50 17 38 3d 65 e5 74 3e fd 41 52 3e bd 9a eb bd
       0.044944108 0.23915632 0.20532985 -0.11504123
0000b0 c4 1a 16 bd 1e 28 70 3e 9c 10 40 3e 62 dc ca bc
       -0.03664662 0.23452803 0.18756336 -0.02476329
0000c0 0e ca 2f 3e 2f f2 2d 3e 72 4c 56 3b a0 5c 46 3e
       0.17166921 0.16986917 0.0032699374 0.19371271
0000d0 d5 86 78 3d 17 8c d5 3d 98 5d de 3d 7e b5 84 3e
       0.06067546 0.10427111 0.10857695 0.25919718
0000e0 d4 e5 70 3e 74 9a 22 be ce f5 32 bc f7 9f 33 be
       0.23525172 -0.15879232 -0.010922862 -0.1754149
0000f0 77 c0 db 3d 07 60 3d 3e 11 bc 0b 3e f6 24 22 bd
       0.10730069 0.18493663 0.1364596 -0.03958603
000100 47 81 2a 3e fd 9b 3c 3e 0c 5a 34 3e 30 6b 84 be
       0.16650878 0.1841888 0.17612475 -0.25863028
000110 bc 37 9f bd c4 a2 02 bc 9e 74 9b 3e bc 42 f8 3c
       -0.07774302 -0.007973377 0.3036241 0.030305259
000120 42 82 2d 3e 3b 77 cb 3e 19 c1 c6 be 7a 97 4b bd
       0.1694422 0.39739403 -0.38819197 -0.049705006
000130 22 9f 31 be b5 a9 c8 3e a0 05 54 3e 87 ae 2f be
       -0.1734586 0.39191976 0.20705271 -0.1715642
000140 fa 4d 09 3e 0e 30 60 3e 4a bf 88 bb a3 63 f1 bc
       0.13408652 0.21893331 -0.004173194 -0.029466456
000150 2e f1 06 be bd fe 9d 3d 55 14 72 3e 25 2a f6 3d
       -0.1317794 0.07714603 0.23640569 0.12019757
000160 89 da 76 3c db ca dd 3d ab 83 d0 3d c9 7b 1a 3d
       0.015066751 0.10829707 0.10181364 0.037715707
000170 7c c4 fc bd c2 a0 09 be b6 dc 84 3d 24 72 ae 3e
       -0.12342164 -0.1344023 0.0648741 0.34071457
000180 09 75 93 3e 10 1f 3c 3d a4 77 e6 3d 6c 74 51 3e
       0.28800228 0.04592806 0.112532884 0.20454568
000190 ac 95 6f 3d e3 b9 2e be a6 e9 b9 3d 80 17 2d 3e
       0.058492348 -0.17063098 0.09077768 0.16903496
0001a0 dd 81 a8 3d 64 63 08 3d fc f2 b3 bc 85 07 c2 3d
       0.082278945 0.03329791 -0.02196645 0.094740905
0001b0 43 c3 45 be 4c 8e 90 3c 70 dc 19 3e 9e 5e 20 bc
       -0.19312768 0.017645977 0.15025496 -0.0097881835
0001c0 d3 4f 42 3d 43 6a 49 3d 61 8f 5c 3e 0f 04 a4 3d
       0.047439408 0.049173605 0.2153907 0.080085866
0001d0 81 31 d5 3d f5 de f0 3c ce f3 02 bd a6 4f d0 3d
       0.10409833 0.02940319 -0.03197079 0.10171442
0001e0 68 fc 30 3e 7a 42 24 3d f9 c8 44 3c c6 73 4b 3d
       0.17283785 0.04010246 0.012010806 0.049670957
0001f0 40 be 11 be 13 db 47 be 47 0b e3 3d ee 6d 28 3d
       -0.14232731 -0.19517164 0.11086135 0.041120462
000200 84 1d 00 3e 64 38 a6 bc bf f7 14 be 91 f6 9d 3d
       0.1251126 -0.020290561 -0.14547633 0.077130444
000210 85 b1 76 bd f3 93 64 bd d7 3c 3d 3d 5f e7 b7 3d
       -0.06022789 -0.055805158 0.0462006 0.089796774
000220 02 33 37 bd e8 e1 98 be fd d9 fb 3c da 05 01 3e
       -0.04472638 -0.29859853 0.030743593 0.12599888
000230 28 7e 15 bd ff 7b a8 bd 3d 28 8b 3d c6 18 0d be
       -0.036497265 -0.082267754 0.06794784 -0.13778982
000240 c3 90 10 3d 66 3b 28 bd 9d d3 ad 3e 76 26 1c bb
       0.035294306 -0.04107227 0.3395051 -0.0023826635
000250 14 be 1c 3e f3 47 78 3c 04 49 24 be 83 f0 a5 3c
       0.15306884 0.015153873 -0.16043478 0.020256286
000260 6f 22 0c 3d 98 a6 7c 3d a5 8d 0a be c7 f8 b0 bb
       0.034212526 0.061682314 -0.13530596 -0.0054007503
000270 f2 7a bb 3d 0b 97 70 bd bf 99 9b 3e 86 1f 90 3c
       0.09154309 -0.058737796 0.30390736 0.017593157
000280 53 46 a2 3d 8e fd f5 3d b0 76 bc bd 65 34 aa 3d
       0.079235695 0.12011252 -0.09202325 0.08310775
000290 92 e8 85 3e 9c 20 80 3d 34 e2 db bc 37 15 87 be
       0.26154 0.0625622 -0.02684126 -0.26383373
0002a0 f5 85 36 3e 3c 7d 03 3e 3e 9e 63 be 52 ed 1d 3e
       0.17824538 0.12840742 -0.22228333 0.15422562
0002b0 24 6b 92 3e 10 35 db 3d 5b 23 22 3e 9e 9a 17 bd
       0.28597367 0.1070348 0.158338 -0.03701269
0002c0 51 75 3d 3e ed c7 11 be 17 68 f1 3d e1 30 b1 3e
       0.18501784 -0.14236422 0.11787432 0.34607604
0002d0 7d 97 22 bd da aa d6 3d 30 99 0a bd 64 7f ab 3d
       -0.03969525 0.10481806 -0.033837497 0.08373907
0002e0 0f f1 14 3d 6f 83 26 3e cb f9 84 3d a7 9f 55 bc
       0.036362704 0.16261075 0.06492957 -0.013038552
0002f0 02 48 fc 3d 19 32 59 3c 5d f4 65 be fd 16 16 be
       0.12318422 0.013256573 -0.22456498 -0.14657207
000300 e2 1b 06 bd 1d 18 ca bd 04 fb ed 3b ff 89 a6 3d
       -0.032741435 -0.098678805 0.0072625894 0.081317894
000310 5b 6c 0b bd b9 84 13 bd a6 33 69 3e 99 e6 ed 3b
       -0.034038883 -0.036015246 0.22773609 0.0072601554
000320 79 13 28 be b4 03 a2 3e 99 1f c5 3d 9c b9 3e 3e
       -0.16413678 0.3164345 0.096251674 0.18625492
000330 7d 52 08 be d9 ae 3a be 5e fa 59 3c a4 87 c1 3e
       -0.13312717 -0.18230762 0.013304321 0.37798798
000340 a8 62 77 3d 04 9e 67 be 22 23 fc 3e 9e 0a cb be
       0.06039682 -0.22618872 0.49245554 -0.39656538
000350 0b eb 74 3d 54 66 20 3f ba f7 53 3d 85 72 d9 3e
       0.059794467 0.6265614 0.051749922 0.42470184
000360 42 75 fa be fa 4d ba be 3d 5b 50 3e f0 83 83 3e
       -0.48917586 -0.36387616 0.20347305 0.25686598
000370 61 82 74 3e 8b 9c 92 be 91 ae 90 3e 47 0e ba 3d
       0.2387786 -0.28635058 0.28258184 0.090847544
000380 9e ab 8c bd dd b4 68 3d f9 24 86 3e 3e 2e 43 bd
       -0.06868671 0.05681311 0.26200083 -0.04765152
000390 f0 4c 51 3d 98 d6 8c 3e 26 21 a1 3d 82 95 03 3d
       0.051098764 0.27507472 0.07867651 0.032125004
0003a0 8e 30 22 3e 0a 7c 3a 3e bb 37 0f ba ef b3 3d 3e
       0.15838835 0.1821138 -0.00054633216 0.1852567
0003b0 46 a6 17 3d 9d 4e 40 bd 6a b6 9b be 7b ac a7 3e
       0.037023805 -0.04694997 -0.30412608 0.3274878
0003c0 60 a7 9f bd a5 ca 78 3e ac 8c a5 3d 58 04 34 3e
       -0.07795596 0.24296053 0.08083472 0.17579782
0003d0 de c6 08 3d 4e a3 4c 3e ad d5 88 bd e9 4a f9 bd
       0.03339278 0.19984171 -0.066813804 -0.12172491
0003e0 19 ed 03 3e 30 58 3b 3e 7e 69 28 3e 11 6d 9c 3e
       0.12883414 0.1829536 0.16446492 0.3055196
0003f0 ce ef f5 3d 55 be 20 be 26 22 91 be 99 41 18 3e
       0.1200863 -0.15697606 -0.28346366 0.14868774

mlp2.2.bias f4 [50]
000000 02 3e 9e bf 34 d3 1a bf f4 45 28 bf ed 84 44 3e
       -1.2362673 -0.6047852 -0.6573174 0.19191332
000010 e2 44 6c bd 19 e3 24 be 65 32 e2 3e aa 8e 8d 3e
       -0.05768288 -0.16102256 0.44179073 0.27647907
000020 2e 5b 5f be 5c 09 69 bf ac ac 2d bf 21 22 d8 be
       -0.21812126 -0.91029906 -0.678416 -0.42213538
000030 65 38 66 be 3c c1 51 3c 76 7d f8 3d 55 8b 2b be
       -0.2248245 0.012802418 0.12133305 -0.1675237
000040 bf a3 4b bf cb 6a 07 3f 96 4b 25 3e 21 ba 05 bf
       -0.7954673 0.5289733 0.16142115 -0.52237135
000050 af ab 91 3e be 50 57 3f 67 91 91 3e f6 5e 13 3d
       0.28451297 0.8410758 0.28431246 0.035979234
000060 5e 77 2e 3e 10 d4 c6 3e f0 ed 92 be 69 ad 01 be
       0.17037722 0.38833666 -0.28697157 -0.12663807
000070 e1 25 56 be 53 ee 70 3d bd c3 28 3d 5e 91 ba 3e
       -0.20912887 0.058821034 0.041202296 0.3643903
000080 0b 28 91 be be c5 dd be 8f 76 62 3e 29 34 0f bf
       -0.28350863 -0.43314928 0.22115539 -0.55938965
000090 7b 6e c9 3e 77 a0 37 bf 04 df c1 bd c7 e9 cd be
       0.39342102 -0.71729225 -0.09466365 -0.4021742
0000a0 74 70 04 3f 7a 54 32 bf 39 61 40 3f 2d 25 d5 3e
       0.5173409 -0.6966015 0.7514835 0.41629925
0000b0 de cd 14 bf f4 79 64 3f 70 1a 48 be 8f bc cc 3e
       -0.5812663 0.89248586 -0.19541335 0.3998761
0000c0 09 6c a3 be d0 8c 13 be
       -0.31918362 -0.14409184

attention.0.weight f4 [100, 100]
000000 4b 8b 73 3b d0 01 23 3e 38 c0 9f be 0e 23 2f 3d
       0.0037161883 0.1591866 -0.3120134 0.04275804
000010 6a 0f a2 bd b0 86 d1 bd f6 2e e9 bd 19 4a 5b bd
       -0.07913096 -0.10230768 -0.1138591 -0.053537462
000020 30 75 c1 3c 0f 9c fa bc b7 78 14 be 6e 38 7d 3c
       0.02361545 -0.030591993 -0.14499174 0.015455348
000030 70 c8 08 3b e0 00 42 3c d3 be 90 bc 91 eb e6 bd
       0.0020871423 0.011841029 -0.017669117 -0.112753995
000040 71 5b 10 3e eb 01 41 bd dc cd ab 3d b4 56 fc 3d
       0.14097382 -0.04712097 0.08388874 0.12321225
000050 a4 e9 d9 3a a2 0b 0d be a3 b1 af bd 07 bd 7b bd
       0.0016625416 -0.13773969 -0.085788034 -0.061459567
000060 1c cd 72 be 1e 02 73 bd 64 54 0d be 84 92 3f 3d
       -0.23711056 -0.05932819 -0.13801724 0.046770588
000070 ae 56 38 3d 25 42 7b 3b 89 e2 ad 3d 1e 39 10 bd
       0.04500454 0.0038338986 0.08490474 -0.03521072
000080 ff ca e4 ba 99 39 b1 3d 32 df 3c be d4 f8 2e be
       -0.0017455517 0.08653564 -0.18444517 -0.17087108
000090 c4 c8 9f bc 9d 4e 0e 3d 2b bf 97 bc e7 39 39 bd
       -0.019504912 0.03474294 -0.018523773 -0.045221236
0000a0 6b 76 9b bd 37 29 2f bc 7a 05 cb bc 7b e8 ab bd
       -0.07590946 -0.010690979 -0.024782885 -0.083939515
0000b0 a0 a7 a5 bd db 6b 70 be c9 a4 80 be 39 48 b4 bd
       -0.080886126 -0.23478644 -0.2512572 -0.08802838
0000c0 1d d9 7e 3d e2 85 4d be 02 72 8f be 1a 34 d2 3d
       0.062218774 -0.20070603 -0.2801667 0.10263844
0000d0 14 b4 9c bd 04 cd 26 be 76 10 07 3e ca 0d a4 3d
       -0.07651535 -0.16289145 0.13189873 0.080104426
0000e0 14 ca 43 3e 77 33 34 be cd 42 b1 bd c8 c5 af 3d
       0.19120055 -0.17597757 -0.08655319 0.08582646
0000f0 5e ec 2c 3d 3f c6 a2 3c 81 05 6d 3d e3 fa 48 be
       0.042217605 0.019869922 0.057866577 -0.19626956
000100 91 3d 92 bd 2b 2d 4d 3d 21 08 11 b9 be b8 4f 3d
       -0.07140649 0.050091904 -0.00013831306 0.050713293
000110 88 be 0a be d7 85 b6 bd 36 1a a6 3d f8 ab b8 bd
       -0.13549244 -0.08912247 0.08110468 -0.090171754
000120 dc 08 d3 bd 9a 03 58 3d d9 93 02 be 8a 0a 9f bd
       -0.10304424 0.05273781 -0.12751712 -0.07765682
000130 f4 16 eb bd 55 9e e9 3e 3b 9f c6 3d 30 d2 a9 3c
       -0.11478987 0.4562861 0.096983396 0.020730108
000140 1e e3 c5 bc 3e 14 99 bc b6 86 6c bd 9a 6e ba bd
       -0.02415615 -0.01868641 -0.057745658 -0.09103127
000150 8a d4 92 bd a3 6a 7d bc f7 d6 93 bd c7 38 44 bd
       -0.07169445 -0.015467319 -0.07218736 -0.04790571
000160 8b 7f 03 be 7f e7 39 bd 33 e1 c3 bc 1d 8c 5d 3e
       -0.12841623 -0.045386788 -0.023911094 0.2163548
000170 5c 28 e7 bd 33 60 21 3d 3d ae 95 bd db 51 a2 be
       -0.11286995 0.039398383 -0.07308624 -0.31703076
000180 13 9a 5c bd 77 79 97 bd 51 bc d3 3c 4b 4c 84 bd
       -0.053857874 -0.073962145 0.025846632 -0.06459864
000190 7c 70 41 3d 6a c6 09 bf 37 08 2a 3e 32 39 2b 3d
       0.047226414 -0.5381838 0.16604696 0.041802593
0001a0 31 cd 43 bd f9 23 d5 3e 1e 4b 8c 3e 5b 25 42 bd
       -0.047803108 0.41629007 0.2740106 -0.047398906
0001b0 ce f6 cc 3b d9 a9 85 bd 30 76 fb be 9e b6 bf 3d
       0.0062550073 -0.065265365 -0.49113607 0.09361003
0001c0 f2 c2 48 bc 3f 6f 8c 3b 58 20 a0 3c db 59 3c be
       -0.01225351 0.0042857225 0.019546673 -0.18393652
0001d0 2a 19 c0 bc 6b 7f 4e 3d c9 ea a6 3b b2 0f f5 3b
       -0.0234495 0.050414484 0.0050939065 0.0074786777
0001e0 5e ce cb 3b 08 04 57 3d 11 37 be 3c 11 cc 81 3d
       0.0062196692 0.05249408 0.023219617 0.06337751
0001f0 e9 5f e5 bc c5 b2 d4 bc 2a 3d a2 bd 68 fd 39 3d
       -0.027999835 -0.02596415 -0.07921822 0.045407683
000200 9d ce 8c be 0e 4c c3 bd 26 e4 0c 3d a5 69 5a be
       -0.27501383 -0.09535991 0.034397267 -0.21329363
000210 20 50 c8 3d 47 fd 91 bb 44 e5 00 be 44 d6 01 be
       0.09780908 -0.004455242 -0.12587458 -0.12679392
000220 47 0c a2 3d 35 c4 5e bd c3 2a 08 3d 81 d8 49 3d
       0.07912498 -0.054386336 0.033243906 0.04927874
000230 4e 6c 93 be 20 e1 88 be 79 94 e4 3b 07 5c 35 bd
       -0.28793567 -0.26734257 0.006975707 -0.044277217
000240 84 7b 81 ba da 44 93 3d 26 ab 22 be 82 c6 67 bd
       -0.000987873 0.07190867 -0.158856 -0.056585796
000250 50 33 50 3c de 8b 51 be 45 1f 08 be 69 d2 ad bd
       0.012707546 -0.20463511 -0.13293178 -0.08487398
000260 bb da 21 bc 55 4e 02 3d 13 3f cb be ca e1 4a bc
       -0.00987881 0.031812984 -0.3969656 -0.012382934
000270 36 1d 1a be b7 d6 3d be 50 0e 81 bc 38 17 8b bd
       -0.15050206 -0.18538938 -0.015753895 -0.06791538
000280 6b fb 65 3d 73 c6 b6 3d 89 39 6d 3d d3 07 a8 3c
       0.056147974 0.0892457 0.057916198 0.020511543
000290 56 d5 48 3e 8a 5b de bd 88 32 85 3d 90 c7 aa 3d
       0.19612631 -0.108573034 0.06503779 0.08338845
0002a0 11 07 2b be 5e 0d c5 3d 00 ee 1c 3e dd 8f 3e 3d
       -0.16701914 0.0962169 0.15325165 0.046523917
0002b0 cc f5 03 3d 7b a1 25 bd aa bf 43 3d a3 b7 a8 3d
       0.032216832 -0.040437203 0.047790207 0.08238151
0002c0 01 6c 40 be e4 79 90 bd e5 08 72 bd 32 72 89 bd
       -0.187912 -0.07054499 -0.059090514 -0.06711234
0002d0 b9 97 69 bd 19 3c 24 bd 5e 08 32 bd 1b 6e 01 bd
       -0.05702946 -0.040096376 -0.04346501 -0.031599145
0002e0 10 1f 18 bd d7 24 cc be 0c b3 d2 3d 7a 9f 21 bd
       -0.037139 -0.39871857 0.10288057 -0.03945873
0002f0 16 b5 72 be 73 24 41 be a6 e1 92 bd 83 81 9a bc
       -0.23701891 -0.1886156 -0.07171945 -0.018860584
000300 4a 84 09 3c 12 c4 1a bd 88 00 1e bd a3 09 f5 bc
       0.008393357 -0.037784643 -0.038574725 -0.029911822
000310 4c 36 8e 3b 99 ee bb 3b 39 81 00 be 06 e8 b8 bd
       0.004339969 0.00573523 -0.12549295 -0.0902863
000320 2f a1 8d 3c bf 60 32 be 1a a7 08 3e 9d 68 bf 3c
       0.017288772 -0.17419718 0.13344994 0.023365313
000330 32 18 c3 3d c2 91 47 3e e6 57 d4 bc 66 24 a6 bd
       0.09526099 0.19489196 -0.02592082 -0.08112411
000340 f0 cc ac bd 0e 91 a4 bd 26 1a 69 be 61 e7 95 3d
       -0.08437526 -0.080354795 -0.22763881 0.07319523
000350 ab 56 b3 3d 91 82 b2 bd 51 12 d4 b9 9c 4c 95 bd
       0.08756765 -0.0871631 -0.00040449438 -0.07290003
000360 a3 4c 54 3b c5 32 5b bb 9b 67 11 bd 06 ae 51 be
       0.0032394312 -0.003344701 -0.035499196 -0.20476541
000370 33 31 d3 bd ff 28 e5 3d ba 7b a5 bd 51 d6 93 bd
       -0.103121184 0.1118946 -0.080802396 -0.07218612
000380 0e 24 36 be bc 06 cc bc 97 29 d5 bd 4a 50 e9 bc
       -0.17787191 -0.024905555 -0.10408323 -0.028480668
000390 3d ef fa bd 73 6e a2 bd 02 43 73 3d fe 29 94 3c
       -0.12252662 -0.07931223 0.059390076 0.01808643
0003a0 53 98 87 3d 3e 13 42 bd 0f 17 92 3d 25 9e 39 bd
       0.066208504 -0.047381632 0.07133304 -0.045316834
0003b0 8d 44 1e 3c 00 54 af bd 7f b4 ad bc 74 7f 97 bd
       0.0096598985 -0.085609436 -0.021204231 -0.07397357
0003c0 37 ae 47 3e ff 7d ad 3d bf 14 ca bd 8c 90 e2 bd
       0.19500051 0.084712975 -0.09867238 -0.110627264
0003d0 80 47 9a bd 5c 97 5e be 59 60 d0 3d 76 03 ba bc
       -0.07533169 -0.21737427 0.10174627 -0.022706728
0003e0 15 2f 86 3c e6 2a 51 be 7d aa c7 bd fc 36 42 bc
       0.016379872 -0.2042652 -0.09749315 -0.01185393
0003f0 15 a8 be 3d e8 5c 03 be 8f 4d 2c bd e5 0b 94 3d
       0.09309403 -0.1282841 -0.042066153 0.07228831

attention.0.bias f4 [100]
000000 ca 26 49 be c4 8c d1 bd 63 9e 73 be f4 b7 87 bf
       -0.19643703 -0.10231927 -0.23790888 -1.0603013
000010 82 d4 10 be 99 46 cf be 8a 33 04 bf 96 9c e6 3d
       -0.14143565 -0.4048355 -0.5164114 0.11260335
000020 d3 01 23 bf fa 38 00 be 81 64 df be c7 c7 c7 be
       -0.6367466 -0.12521735 -0.43631366 -0.39019606
000030 4e 8f db be 78 f7 b1 be a5 45 1c be 99 96 d9 bd
       -0.4288277 -0.34759116 -0.15260942 -0.10624427
000040 95 f4 d1 be 65 cc 93 be 94 24 9a bd 1a a5 e0 be
       -0.41006914 -0.28866878 -0.07526508 -0.43875962
000050 31 b7 ea 3c 21 70 40 be 38 cc 8e be b0 0e 84 be
       0.028651806 -0.18792774 -0.27890182 -0.25792456
000060 aa 55 79 be 51 cc 9d be f0 d7 24 3c b3 e7 b3 be
       -0.24349084 -0.30819944 0.010061249 -0.3513771
000070 bf f6 b9 be cc af b6 bc 2f e1 73 bf ab ef b7 be
       -0.36321065 -0.022300623 -0.9526548 -0.3592504
000080 2c 8c be be 63 91 0c bd b0 96 81 bf fc f4 d7 3c
       -0.37216318 -0.03431834 -1.0124111 0.026361935
000090 34 28 0e bf 39 ea d9 be 07 18 62 be 06 f4 36 bf
       -0.55530095 -0.4256151 -0.22079478 -0.714661
0000a0 e3 5d 61 bf c6 f2 f5 be 6f 51 09 bf f8 12 28 bf
       -0.88033885 -0.48036784 -0.5363988 -0.65653944
0000b0 76 61 46 bf 1c fd 94 bd 88 76 df be fa 28 e2 be
       -0.77492464 -0.07274839 -0.4364512 -0.44171888
0000c0 97 19 11 be 2f 27 e5 bd 7c 88 8a bf f8 21 60 be
       -0.14169918 -0.11189114 -1.0822902 -0.21887958
0000d0 00 78 43 bf 54 80 5f be 69 ef 64 bc 1d f8 ea be
       -0.7635498 -0.21826297 -0.013973095 -0.4589242
0000e0 68 17 5b 3e ab fa a5 be 28 42 34 be 9b e6 de be
       0.21395648 -0.32417807 -0.17603362 -0.43535313
0000f0 30 8f d3 be 9b 84 86 bd 8f 75 c9 be 82 08 32 be
       -0.4132018 -0.06568261 -0.39347503 -0.17386058
000100 44 86 e4 be 3a 0c ac bd c8 78 45 bf 56 77 76 bf
       -0.44633687 -0.084007695 -0.7713742 -0.9627584
000110 74 12 f7 be 2e 33 3d bf 24 65 54 be f2 18 df bd
       -0.48256266 -0.7390622 -0.20741707 -0.1089343
000120 fb 76 36 bf f6 e3 87 3c 8f 67 42 bf d2 b5 41 be
       -0.712753 0.016588192 -0.7593927 -0.18917015
000130 b6 12 c1 3c f9 fa 96 be cf e3 85 bf dd d3 22 3d
       0.023568492 -0.29488352 -1.0460147 0.03975283
000140 41 2b 6a bd a6 eb 56 3e 77 ce 4e 3e 86 03 48 be
       -0.057170156 0.2098833 0.20195948 -0.19532594
000150 01 1e 94 be 6c be c5 be 37 ae 46 be f4 96 64 be
       -0.2892914 -0.38621843 -0.19402395 -0.22323209
000160 77 fd 86 3e 2e ab 18 bf 84 b4 1e bf 2c 30 97 3e
       0.26365253 -0.596362 -0.61994195 0.2952894
000170 e3 c2 8a bf 01 24 a6 3d 67 b0 3b bf 2a c3 5f 3d
       -1.0840725 0.08112336 -0.73316044 0.054629482
000180 b8 9f a7 be b8 e0 33 bf 5e 3c c5 be 8c a9 b6 bd
       -0.32739043 -0.7026477 -0.3852262 -0.08919057
