sarl_star_ros/CrowdNav-crosspath/crowd_nav/data/output_thesis_1/rl_model.pth (torch_old, 349196 bytes, 20 tensors)

mlp1.0.weight f4 [150, 13]
00000000: a9f0 073f b1d1 91be 3e4b dabf 6fa5 c43d
00000010: 1d57 923f 98ee f5be 8e57 cabe d09a 5b40
00000020: 5533 fa3d f9d3 2b40 835b d7be 55ef 2ebd
00000030: 9f76 e1be baa5 233f 3bfe 37bf c206 03be
00000040: a872 cd3d 48e3 47be fe89 d93e 2730 18bf
00000050: 3f5c 493f 7e5e 91be 9cf6 123f 53f9 c5be
00000060: 61e0 1dbf 4700 b7be 35d2 55be f243 653e
00000070: 5b74 e1be 9e5c 8b3e ef78 ec3f 85ad 833e
00000080: 1e1b 93bf 2f63 b83f e581 06c0 db14 6dbf
00000090: dd52 0e3d 8310 b4bf ca0c 4fbe c892 59be
000000a0: 5646 7dbe bb82 2ebe fafc 22be ac26 613e
000000b0: 48ab 76be 8625 7cbc dfa8 c7bd b434 e8bc
000000c0: 2c18 36be 3040 863e 1379 86be 4ff1 13be
000000d0: 85de 57bf bc8f 133f e1d4 b23e e714 6b3d
000000e0: 92e8 643e 62b1 c0be 9341 c7be 0b8c 6e3f
000000f0: f3a3 5d3f bf86 703e 4f70 d2bd f9e0 e5bd
00000100: 0984 cd3e 6af9 84bd add0 5abe 1af9 41bd
00000110: c494 97be 84a9 0fbf e097 b4be e141 1d3f
00000120: a205 febe 5670 593f e962 a93f 0267 5c3e
00000130: 888b 153e 1542 01be 2442 24bf 313d de3e
00000140: 52cc 3fbe 622c 063e 892e 34bc 335b f8be
00000150: 985e b23d 2b13 553d 48a0 503f e5b1 94be
00000160: f9cb 833d 79bc ad3e 7b0d 0a3e a76a dd3f
00000170: 38ca 3bbf f91a 9b3e ec7d 07be d699 073f
00000180: cd4e 723f ef12 e13f a82c 3cbb 7dd4 4f40
00000190: 3675 5bbf a07f d1be 76d2 2ec0 9244 2fbf
000001a0: c5d1 35bf a1cf 64be 4f20 953f f83d 703c
000001b0: 1c19 5f3f 9f8e 3540 eba8 1940 9182 cebe
000001c0: 48f8 eb3f bf3c 84c0 7a17 7bbe fbed a8bf
000001d0: 6cca d1bb bced 95be 23d9 1c3e ef71 fe3e
000001e0: 1eaa 6cbe 5d67 3d3e c9bd edbd bca0 cdbe
000001f0: 4f5c e8bd e83b 6fbe 8930 343f b1fa 90bc
00000200: 3e5b 05bf 98ca f5bc 916d edbe f1c9 2e3f
00000210: d58c bdbe aa1b 243e cfb7 4cbe 8bbb 8fbe
00000220: f912 223f ac05 443f a8f2 91bf 1b87 933f
00000230: 9ce5 c63e 5277 e4be 5a36 e03e 4ed3 6cbf
00000240: e45f 623f 0eb3 4a3e e1ba d03e 058d 9a3e
00000250: e983 31bf 7349 ea3e 86f0 3d3f d08f 0d40
00000260: 572f e1be c68b 803e 31e7 883e 84a6 fe3e
00000270: c6c0 09bf 14f1 8d3e 5981 933e d28f 513e
00000280: c4ad c23e 25bb 0b3d 5cd8 983f eab2 c9be
00000290: e47c f83f 9afd a33f ac84 473e 274b 9bbf
000002a0: b8d1 923e c6a2 f23e baf8 43bf a54d bdbf
000002b0: e453 35bd ef2a e0bf 6017 0bbf a76f 8c3e
000002c0: 55fc c83e 7ad2 5540 9c51 acbf d1ad 06be
000002d0: 9e2f 8c3d 5dab 8fbe 18cd 2dba 71fb a13d
000002e0: 5387 383d 5621 b9bd 2a42 49bf 313d b03f
000002f0: 9431 93be 0128 f6be c1a1 9f3f 283a fb3d
00000300: aaeb bbbd 504d 86be 4153 79be 8110 40bf
00000310: fb6f 313e 9957 a9bf bab5 1ebe aff3 34bf
00000320: befb 9abf b46f cdbe 9bb8 ac3e 6bc0 813f
00000330: 6b9a b3be a10c 58be 9330 943e f385 233c
00000340: dc04 3ebf 3c52 a83d 4ce7 cc3e 493a 36be
00000350: 4741 9c3d 6ed7 5b3e cc23 8cbd 700e ac3e
00000360: 2d73 d9be 62f1 25be 992f 463e cdaa d73e
00000370: 1a0c 0fbd e0e8 cf3d 3646 b93f fa7e d43d
00000380: 99cb 0b3e 0448 8c3f 5559 493c a4b1 c03f
00000390: ccc9 f4bf af1d 5c3e d608 f8be db92 923e
000003a0: b8cd 51c0 c510 1f3f 46fc f33d 7b23 753e
000003b0: d9f3 abbc 9920 733e 6279 c83e ea4d f5be
000003c0: 0366 5ebf a211 963e 0e71 0a3d d275 3d3e
000003d0: 25ec b23e 0177 8cbf 0a19 a73e 7889 0ac0
000003e0: e951 4dbe 9fbd fbbe b57b ecbd 3bab c33e
000003f0: ab18 ef3f 6dcc 8c3e 5f06 e03d f7db 2b3f
0.53101593 -0.28480294 -1.7054212 0.096018665 1.1432835 -0.48033595 -0.39519924 3.431324
0.12216822 2.6848128 -0.42062005 -0.042708714 -0.44035813 0.63924754 -0.718723 -0.12795547
0.100316346 -0.19520295 0.42488092 -0.59448475 0.7865638 -0.28392404 0.57407546 -0.38666782
-0.616705 -0.357424 -0.20880969 0.223892 -0.44034085 0.272191 1.8474406 0.25718322
-1.149265 1.4405268 -2.1016781 -0.9260995 0.034746993 -1.4067539 -0.20219722 -0.21247399
-0.24733862 -0.17042057 -0.15916815 0.21987408 -0.24088776 -0.015389806 -0.097490065 -0.028345443
-0.17782658 0.26220846 -0.26264247 -0.1444752 -0.8432391 0.57641196 0.3492804 0.05739298
0.22354344 -0.37635332 -0.38917217 0.9318244 0.8657829 0.23488902 -0.102753274 -0.11224551
0.40139797 -0.064928845 -0.21368666 -0.047356702 -0.29605687 -0.56118035 -0.3527212 0.6142865
-0.49613672 0.84937036 1.323331 0.2152367 0.14604008 -0.12622865 -0.6416342 0.4340606
-0.18730286 0.13102868 -0.010997423 -0.4850708 0.087094486 0.052020233 0.8149457 -0.29041973
0.06435389 0.33932856 0.13481705 1.7298173 -0.73355436 0.30294016 -0.13231629 0.5296911
0.9465149 1.7583903 -0.002871314 3.2473443 -0.85725725 -0.40917683 -2.7315955 -0.68464005
-0.7102321 -0.22344829 1.1650485 0.014663212 0.8714769 2.83683 2.400935 -0.4033399
1.8435144 -4.1324153 -0.24520674 -1.3197626 -0.0064023044 -0.2928294 0.15317206 0.496963
-0.2311177 0.18496461 -0.11608464 -0.40161693 -0.113457315 -0.23362696 0.7038656 -0.017697664
-0.5209235 -0.03000383 -0.46372655 0.6827689 -0.3702151 0.16026178 -0.19991992 -0.2807277
0.633102 0.76571155 -1.1402178 1.1525606 0.38847053 -0.44622284 0.43791467 -0.92509925
0.8842757 0.19794866 0.40767577 0.30185714 -0.69341904 0.45759162 0.74195135 2.2119026
-0.4398143 0.2510664 0.26738885 0.49736416 -0.53809774 0.2772299 0.28809622 0.2046502
0.38023198 0.03411402 1.1941028 -0.39394313 1.9413114 1.2811768 0.19484204 -1.213231
0.28675628 0.4738981 -0.765514 -1.478932 -0.044269457 -1.7513102 -0.5433254 0.27428934
0.39255014 3.3409715 -1.3462405 -0.13152243 0.0684502 -0.28060427 -0.00066299876 0.07909287
0.04505093 -0.090395615 -0.78616583 1.3768674 -0.28748763 -0.48077396 1.2471238 0.12266952
-0.09175809 -0.2623086 -0.24348165 -0.7502518 0.17327873 -1.3229858 -0.1549901 -0.7068433
-1.2108076 -0.40124285 0.33734593 1.0136846 -0.3507875 -0.21098568 0.2894331 0.009980666
-0.74226165 0.0821881 0.40020216 -0.17795672 0.07629638 0.21468899 -0.06842765 0.33604765
-0.42470685 -0.16205361 0.19354095 0.42122498 -0.03492365 0.10151839 1.4474552 0.10375781
0.13651885 1.0959477 0.012289365 1.5054212 -1.9124084 0.21495698 -0.4844424 0.28627667
-3.278181 0.62134963 0.11913352 0.23939316 -0.020990299 0.23742904 0.39155108 -0.47911006
-0.8687441 0.29310328 0.033799224 0.18501976 0.3494579 -1.0973817 0.3263629 -2.1646404
-0.20050777 -0.49168107 -0.11547033 0.38216576 1.8679403 0.27499714 0.10938715 0.67132515

mlp1.0.bias f4 [150]
00000000: e93a 8cbe 2a1e 18bf 1bbb 943e 8fc8 903d
00000010: d67c 2a3f 786a dabe ae67 dc3d 5f15 82bf
00000020: dd4b 05bf b6af 803e c775 2a3f 327a 063f
00000030: b04d 6cbd da4d 6ebf ab12 05be fd2f 413e
00000040: 0fe4 71be 70aa b33f f64e 543e 5a8e c1be
00000050: 3bb6 ef3c 2355 6fbf aee2 f5be 0e5e 6f3f
00000060: a6e1 423f 37dc bdbf 999a 29be 60b4 4d3e
00000070: f1f5 893d 461b e3be 5a18 8abe 2fb5 6ebd
00000080: c56a 25bc bd16 1ebe 584f babd 9365 99bd
00000090: 839d 863e 5dfb 033d c497 29bd 0f01 e13e
000000a0: e519 b53f 1257 23be 7ee0 863e 7fa7 1fbe
000000b0: e5f7 a6bf 0897 963c a96e 8fbd 4c8d 283c
000000c0: 32fe 9e3e 7911 25bf 7f1f 95be 6991 803e
000000d0: f9a1 e03e be48 033b f74a 8b3e dba3 183d
000000e0: e61b f6be 27f1 64be 7b8d 203e ea38 92be
000000f0: 7daf 013f 823d 673e d28e 6b3e 43c5 8c3d
00000100: 619e 2bbf 271b 15bf bacc e63f 0945 8a3d
00000110: 119d 0e3f 6fbe a2bf 962e 02be b30b 063f
00000120: 0063 a3bc 12b2 76be 5e8d 1bbe 5d1a b33e
00000130: 3832 713f 5c40 b5be 62ee 803e df45 d6be
00000140: 6876 b43f cfe1 de3e 989c 97be b2ad 5e3d
00000150: 506d 2ebf 5f03 9dbe 7479 85bc 8e09 4abe
00000160: ef4b 09be a42f ce3f a459 e13f 1fa5 c3bf
00000170: 6f24 e6be ef6c f13c ae16 42be c43f 48bf
00000180: f8ad 1f3f 25f2 0bbf d915 993c b112 bdbe
00000190: 3dd7 b33d 44bb 78be ad29 143f a673 c1be
000001a0: e029 17bf 11bb ab3e fe1b 56bf e32e 3cbd
000001b0: 37c6 123f 17b5 b43e 5ec5 c1bf b4e4 fe3d
000001c0: b10a 903f 78b7 e4be 2f57 30be 278d 2bbe
000001d0: 382f 1ebf 7243 8abe 4dfd 3bbf c822 9d3f
000001e0: 65fc 3c3c 3430 62be 6a95 02be 17f8 0b3e
000001f0: 16c2 813e bcd4 37be f73d cfbe 47f4 a43e
00000200: 99d9 663f c1f1 183f 18e4 4abc 3c88 83be
00000210: 8ead 9dbe fa31 66be 828f fe3c 9bc1 383f
00000220: 22bf be3d f63d fb3d 7c08 96be 77b3 e93d
00000230: c58a 57be 1ae7 7d3e 5a5a fdbd bbc7 473f
00000240: f3e6 d9bd a082 16bf 4299 483e 15c8 82be
00000250: 401a 573f ec98 1c3f
-0.27388695 -0.59421027 0.29049 0.070695035 0.66596735 -0.42659354 0.10761963 -1.0162772
-0.52068883 0.25134057 0.66585964 0.52530205 -0.057691276 -0.9308754 -0.12995403 0.18865962
-0.23622154 1.4036388 0.20733246 -0.37803918 0.029261699 -0.93489283 -0.48024505 0.9350289
0.7612556 -1.4832829 -0.1656288 0.20088339 0.06736363 -0.44356745 -0.26971704 -0.05827826
-0.010096257 -0.15438361 -0.09097165 -0.07490077 0.26292047 0.03222214 -0.0414045 0.4394612
1.4148527 -0.15951183 0.2634315 -0.15591238 -1.3044401 0.018382564 -0.070035286 0.010287594
0.3105331 -0.64479786 -0.29125592 0.2511094 0.43873575 0.0020032371 0.2720563 0.03726564
-0.4806816 -0.22357617 0.1567897 -0.28559047 0.506584 0.22582057 0.230037 0.06873562
-0.6703854 -0.58244556 1.8031228 0.06751449 0.55708414 -1.2714366 -0.12713084 0.523616
-0.019944668 -0.24091366 -0.15190646 0.3498105 0.9421725 -0.35400665 0.25181872 -0.41850182
1.4098635 0.43531653 -0.2961166 0.054364868 -0.6813555 -0.30666634 -0.016293265 -0.19730207
-0.13407873 1.6108289 1.7605481 -1.5284766 -0.44949672 0.029470889 -0.18953964 -0.782223
0.6237483 -0.5466636 0.018687176 -0.36928323 0.08781288 -0.24290186 0.5787609 -0.37783545
-0.5904827 0.33541158 -0.8363646 -0.045943152 0.573337 0.3529441 -1.5138357 0.124459654
1.1253263 -0.44671226 -0.17220758 -0.16753064 -0.617908 -0.27004582 -0.7343338 1.2276239
0.011534785 -0.220887 -0.1275231 0.13668858 0.25343388 -0.17952245 -0.40476963 0.3221762
0.9017578 0.5974389 -0.012383483 -0.25689876 -0.30796474 -0.22480002 0.03107429 0.7217042
0.093137994 0.122676775 -0.29303348 0.11411183 -0.2104903 0.2479519 -0.12370749 0.7803914
-0.10639753 -0.5879307 0.19589713 -0.25543275 0.8402443 0.6117084

mlp1.2.weight f4 [100, 150]
00000000: d688 63bf 551d 0cbe 1d3b d2bc d98e a63c
00000010: de65 9a3c dfcd 0dbe a8c2 56bc 3bcf b8be
00000020: 2f25 b2be 2fee e33d 5695 6f3e 574f d13d
00000030: 1471 fb3a 6672 c6bd a80c 1cbd 7d72 c1bd
00000040: dabb 983d fbe0 493d 4a56 e03d 5bfb 13be
00000050: 592d 2f3e 42dc 44be f100 91be c1fa 953d
00000060: aaf7 573d 4d1b 4dbe 3373 93bd 6dcc df3e
00000070: 5f2d c4be d34b 5bbe f0a6 09be 0ac9 b2bc
00000080: 3f65 acbd f219 05bc fb8e a73d d8c3 73bd
00000090: 1820 b33d 66dd c43e a225 b2bc 7c95 073f
000000a0: 9ae5 093e e6fa ba3e c29f 62bb 867f 1d3d
000000b0: a3c2 0fbf f87e 2abc 477f 84bd 4a5e 023e
000000c0: 5a26 41be 1085 0c3e e0d9 e8bd fe4d 7ebc
000000d0: 46f4 333d 9c12 aabb 41f3 863e 5d38 90bd
000000e0: 1bfe 06be d14f 1dbe 99df 90bd 3f39 093e
000000f0: 89fe 04be 3dd7 e53d 2d5b 8abe 1f64 0fbe
00000100: 40cb dabc dcd4 21bf 6323 193e b99d 7cbe
00000110: 0215 093e 4a30 02be 7fd1 ac3c 9d44 babe
00000120: 8037 6f3c 26a8 103e 29d0 f03e d439 e5bb
00000130: ccc0 24bc 3ab3 59be c896 d53e 4a02 38bf
00000140: 16b3 8d3e 0019 b43d 1a28 f33c d6b0 f4ba
00000150: 2bbf 25be 4c64 0ebf 9f30 213d 96af 40bc
00000160: bc61 f33c fd95 4c3e f125 083f 4af0 2ebe
00000170: c703 a3be 7f7a 1abd 8660 b13c 11bf 47bf
00000180: 69c8 afbd a714 85be 4b11 46bd 1728 7cbe
00000190: 3938 fb3c facc 6abe 0d6b a3be 3ba1 5bbd
000001a0: 1eb7 c63c 0e58 e5bd 37a5 d2be 49c5 df3e
000001b0: 2d6e 6a3d 3b09 06be b989 01bf 9058 dfbc
000001c0: e388 843e be90 bebe cc53 74bd a61e dd3d
000001d0: e12b f5be 3919 923c b137 78be 8c7c 893e
000001e0: 1495 babc bb74 a3bd 8e03 79be 4d51 913b
000001f0: e312 38bd 37b9 f0bd 6309 83be b795 a3be
00000200: d579 103e db42 c1be 5c8f 38be 46a1 5abd
00000210: cbe9 14be 99ea 58be 5b53 8cbd aa07 bb3e
00000220: c9a6 55ba c517 dfbd 5045 a93e b041 e0be
00000230: 949e 60be ea1c 7ebd 0b69 6a3d 0284 aabd
00000240: 9c43 eb3d 6c0d 63bf a6a3 763e f843 96bd
00000250: 9944 d53d 3280 0f3e 527c 1cbc 27c2 2ebe
00000260: d4cf 0c3e 3a8f 9c3d a09e 21bd 26a4 c2bc
00000270: 854f 88bd 8c68 73bd 2c0e 803e 6f8f 64bd
00000280: 790e 3abe d867 c2bc 0087 4e3d c5c3 a5be
00000290: 6f54 8d3d 12b0 823d a463 44bd 9706 a43e
000002a0: 77d6 19be 8a88 0bbf a7e6 89be aa68 d7be
000002b0: cdfe 18bf b620 0abd 3244 bebd 921a 3d3d
000002c0: 4aca 01be d04e 90bd 1bcb 07bf a588 3c3e
000002d0: 4c7f bdbc c148 48bd 710b 66be e3bf e63d
000002e0: 5b22 84bd 8e78 033e cc0b 0bbe a7ac 78bd
000002f0: e370 613d 3c0a 78be aacf 9c3b af5c a439
00000300: ec20 a6be d4c6 95bd d64b 0b3f 1fbf d2bd
00000310: 1f8b 0fbd 5a86 b6be 127f 14be ff9b 38bf
00000320: 471d f2bd c19c 10bd 5e0a bbbb 9370 ed3c
00000330: 22e5 a5bd 2222 5e3d fe7f 24be 0ca0 333d
00000340: b848 633c 99a9 99bc 130f 49be 19db dfbd
00000350: 2d0f 983d 4c9f d53d 8e2d 71bd 6c3f ecbd
00000360: 61c5 e53c 24c2 d93c 88b9 e7bd 8ff1 00bf
00000370: 9a83 13bd 6f95 c83d f392 c73e ec3f 7ebe
00000380: bf2a 97be b5ab 573d 831f 153f edec 22be
00000390: 8e4f 41be 41af 27be fbb4 6c3e b451 8dbe
000003a0: 4a6f 57be 3c33 77bd 93d7 f03c 4365 853d
000003b0: 3512 0abe 698d 56bd 82a7 0fbd 42d4 793e
000003c0: 5aa6 91bd b66e 7cbe fea8 ca3e e5e2 123e
000003d0: ea7c 57be 3260 e63e 9a10 2ebe e1a6 fb3d
000003e0: 1607 87bd c599 be3b f0c2 8e3c 03a5 3fbe
000003f0: ee1c db3e 2365 b3bd 169f 5abe a25b c13d
-0.8888067 -0.13683064 -0.025662953 0.020331787 0.018847402 -0.13848065 -0.013107933 -0.36095604
-0.34793994 0.11129414 0.23396811 0.10220211 0.001918348 -0.096897885 -0.038098007 -0.09445665
0.07457705 0.049286824 0.10953958 -0.14451353 0.17107143 -0.19224647 -0.2832103 0.07323218
0.052726425 -0.20029946 -0.07199707 0.43710652 -0.38315865 -0.21415643 -0.13442588 -0.021824379
-0.08417749 -0.008123862 0.08181568 -0.059512943 0.08746356 0.38450164 -0.02174646 0.5296247
0.13466492 0.36519545 -0.0034580086 0.038451694 -0.5615637 -0.010406248 -0.06469589 0.12731281
-0.18862286 0.13722634 -0.11369681 -0.0155215245 0.04393413 -0.0051902067 0.26357463 -0.070420004
-0.13182871 -0.15362479 -0.07073898 0.13400744 -0.12987722 0.11222694 -0.27022687 -0.14003037
-0.026708245 -0.6321542 0.14954905 -0.24669541 0.1338692 -0.12713733 0.02109599 -0.36380473
0.014600635 0.14126644 0.47033814 -0.006995419 -0.010055732 -0.21259776 0.417166 -0.7187849
0.27675694 0.08793831 0.029682208 -0.0018668424 -0.16186206 -0.5562179 0.03935301 -0.011760613
0.02970969 0.19979091 0.53182894 -0.1708385 -0.3183882 -0.037714478 0.021652471 -0.7802592
-0.08583147 -0.2599232 -0.048356336 -0.24624668 0.030666457 -0.22929755 -0.3191761 -0.05362056
0.024257239 -0.11198436 -0.41141674 0.43705204 0.057233978 -0.13089459 -0.50600773 -0.02726391
0.25885686 -0.37219805 -0.059650227 0.10796861 -0.4788504 0.017834293 -0.24239995 0.26852834
-0.022776164 -0.07981249 -0.24317762 0.0044347406 -0.044939887 -0.11754077 -0.255931 -0.3195016
0.14108975 -0.3774632 -0.18023437 -0.05337646 -0.1454231 -0.21183242 -0.06851836 0.36529285
-0.0008150158 -0.108932056 0.33060694 -0.43800116 -0.21935493 -0.062039293 0.057229083 -0.0832596
0.11487505 -0.88692355 0.24085864 -0.07337183 0.104134746 0.14013746 -0.009551125 -0.1706625
0.13751155 0.07644506 -0.039457917 -0.023759913 -0.06655792 -0.059425876 0.25010812 -0.05580085
-0.18169583 -0.023731157 0.050421715 -0.32375923 0.0690087 0.06381239 -0.047946587 0.32036278
-0.15023218 -0.5450522 -0.26933786 -0.4207204 -0.59763795 -0.0337226 -0.09290351 0.046167918
-0.12674823 -0.07046282 -0.5304429 0.18411501 -0.023131989 -0.04889751 -0.22465302 0.11267068
-0.06451865 0.12838957 -0.13578719 -0.06071153 0.055039298 -0.24222654 0.0047854977 0.00031349572
-0.32446992 -0.07313314 0.5441259 -0.1029036 -0.035044786 -0.35649377 -0.14501598 -0.7211303
-0.118219905 -0.035305742 -0.005708023 0.028984344 -0.08100344 0.05423177 -0.1606445 0.043853804
0.013872318 -0.018757628 -0.19634657 -0.109304614 0.074247696 0.10430774 -0.058881335 -0.11535534
0.02804822 0.026581831 -0.11314684 -0.5036859 -0.036014177 0.09794127 0.389793 -0.24829072
-0.295248 0.052653987 0.5825121 -0.15910693 -0.18878004 -0.16375448 0.23115914 -0.27601397
-0.21038547 -0.060351595 0.029399669 0.06513455 -0.13483508 -0.052380953 -0.035071857 0.24397376
-0.07111807 -0.24651608 0.39582056 0.14344366 -0.21043745 0.44995266 -0.1699852 0.12287689
-0.065931484 0.0058166706 0.017426938 -0.1871529 0.4279551 -0.08759525 -0.21349749 0.09441306

mlp1.2.bias f4 [100]
00000000: 718e 243e 7249 fabd 23fb 64bd f89a 95bf
00000010: a841 52bf 55ad 8dbd 3416 04bf d85e a3be
00000020: dddb ed3c af46 32be 9876 3abc e3b2 563f
00000030: 88ae b73e 204c f83c 6f21 8ebd fc23 91bb
00000040: 7b40 c1bd 1bcb afbe 3dbc 1c3c 23fd b4bb
00000050: 9c3f 77bd 29fd a9bc 80c0 593e 9dc0 7d3d
00000060: 5627 78bf c3d9 4bbe a925 8f3d 7d56 d23d
00000070: 6c77 b03d 94d5 c1bf fee9 3c3f d762 c73e
00000080: d4af f43c 62ec 84bf 1da4 d1bf 3eb3 85be
00000090: c975 1fbd d567 7abf 277e 6a3e adb0 43bd
000000a0: faac 3ebe b43b 28be c135 5dbf a36c f03d
000000b0: 9aa0 31c0 8fda 29bf fd24 29be 7f7b ac3f
000000c0: 5a8f 0ac0 59b9 3e3e dfee d2bb 8a24 b53f
000000d0: 68c2 0bbf e131 2c3d 6c2f d5be 1688 863e
000000e0: be2d 28bf 7cb1 03bd 4c12 9fbf 2301 aebd
000000f0: 2f3e 4bbc 385b 9a3e 00ad b4be 47ad b2bd
00000100: 06d7 f6bd 96b2 01bd 76be c13d 80d7 8bbf
00000110: 722c 0dbf 8c39 863e 8cac 0c3d 50e8 cfbe
00000120: 9e17 bb3d 3cd5 58be 32d5 c2bd f240 59bf
00000130: 2704 19bd e5e1 1b3e 0fb8 133e 49b2 a3be
00000140: 3544 01bf 4574 50bf dc5f 16bf d643 943d
00000150: 4d63 3bbe 5150 ab3a 7e16 05bf eabd 8dbf
00000160: 2769 83bd e73a d4bd 4d4a d8bd 2b64 11bf
00000170: 7148 05c0 ec09 2ec0 23df ca3e d25c a63e
00000180: 2aea 70ba ccc2 8e3e 2bb4 683e 5b82 51be
0.16069962 -0.1222104 -0.055903565 -1.1687918 -0.82131433 -0.06917826 -0.5159638 -0.31908298
0.029035503 -0.17409776 -0.011380814 0.8386671 0.35875344 0.030309737 -0.06939971 -0.0044293385
-0.09436127 -0.34334645 0.009566364 -0.0055233403 -0.060363397 -0.020750599 0.21264839 0.06195127
-0.9693502 -0.19907288 0.06989605 0.102704026 0.08616528 -1.5143304 0.73794544 0.38942596
0.029868998 -1.0384638 -1.6378208 -0.26113313 -0.038930688 -0.97814685 0.22899686 -0.047775913
-0.18620673 -0.16429025 -0.86410147 0.11739471 -2.7754273 -0.6634912 -0.16518016 1.3475188
-2.1649995 0.18625392 -0.006437167 1.4151776 -0.54593515 0.042039756 -0.41637743 0.262757
-0.656948 -0.032151684 -1.2427459 -0.084963106 -0.012404962 0.3014772 -0.3528824 -0.08724456
-0.12052731 -0.031664453 0.09460156 -1.092514 -0.55145943 0.2621578 0.03434424 -0.40606928
0.09135364 -0.21175092 -0.0951332 -0.84864724 -0.037357476 0.1522289 0.14425682 -0.31971958
-0.504947 -0.81427413 -0.5874002 0.07239501 -0.18299599 0.0013070201 -0.51987445 -1.1073582
-0.064165406 -0.10362797 -0.10561047 -0.5679347 -2.0825465 -2.7193556 0.39623365 0.3249269
-0.00091901666 0.27882993 0.22724979 -0.20459883

mlp2.0.weight f4 [100, 100]
00000000: 5a05 4a3d 0892 f5bd 7cc5 ca3d ce1e a9be
00000010: 0164 dcbe 29db 5ebb 5e1c 79be b767 2fbd
00000020: 7032 17be 6fad 0f3c 18f3 d03b 7ef3 b0be
00000030: 8961 983e 16c2 8dbd f116 c23c a27e 823e
00000040: 0e20 db3d dcd6 1b3d ad55 413e 78f8 e3bc
00000050: ae59 8f3d f710 a4bd 0adc 8ebe fab0 223c
00000060: 9a6a 35be 38bc a6be 5b26 41be 76f2 9a3e
00000070: 5739 d5bd a847 113c ffb4 633c 8da0 59bd
00000080: 1be7 4cbe 5a26 72be 2c6e 953e 9aa4 32bd
00000090: e8e0 53bd 2ca4 6cbe 8817 aa3d dbe3 9e3c
000000a0: 5717 97be 9a3a 413d 06e4 9dbe 534e 033f
000000b0: 5870 d6bd 3f96 c6be 3f56 89be 581b b83d
000000c0: f565 c3bd ae18 3dbe 726f 30bd 43e1 9a3e
000000d0: 893c 423e 02f1 66be 99c6 55be d897 c0bd
000000e0: a908 4ebf ce7f e2bc 584b 07be d5b0 ba3d
000000f0: 33c5 aebd ad7b b7bd c55c 453d c454 443d
00000100: 68e8 7bbe a54b 113e f865 bfbe a8cf fbbb
00000110: 5fb9 c3be dd12 b93e 1a93 bd3d b4de 39bd
00000120: 3bd4 6b3e a5b1 6dbe c1b5 4abd 2036 60be
00000130: 3601 003e ec61 a9be cddd 9f3d a556 83be
00000140: 3e80 6fbe 2adb bc3d 773e d1bb 6169 c13d
00000150: 0ea2 b6bc d27e 26bd 4f5c c9be 5fe3 b2be
00000160: 2e32 9ebd a19a b6be 8451 19bc d425 d7be
00000170: bdf0 083d 5e91 1bbf 10fc 69be 588b 753d
00000180: 0edf d0bc e723 d73e 2edb 5f3d 86cb 82be
00000190: 3e0b 68bd fad4 3a3c 9a42 0c3d c82a e2be
000001a0: 476d e43d 234c 15bc 96eb 253e 17b1 423d
000001b0: 318f 4cbe 38db 0a3e 29dc 7dbd b8a4 a43e
000001c0: a07b 98be 6db9 dabc 6364 933d 2866 393e
000001d0: 1492 77be 0291 00bd b1fc 643b 094e ccba
000001e0: 4ead 2dbd d281 98bd 65e7 8c3d 5ddf 2c3c
000001f0: c127 50be 516f e2bc a8a8 61bd 54f7 61be
00000200: 891c 083e a62c 92be 0f23 bcbe 6b89 f6bb
00000210: 8efb 16be 5aab 60be ed00 c5bd ffcd 423d
00000220: d2a9 6e3d 5743 9fbe d892 8abd 8152 c8bd
00000230: c7cd 6bbe 0782 9cbd c90a ccbe b0ea 46bd
00000240: ba45 f7ba af32 81bd ec65 8dbe d68d 57be
00000250: 95d1 5fbd 90d2 3d3e 89ed 97bc fe96 8c3e
00000260: 4ddf 653e 2530 6fbd 519f 22be b20c 0d3b
00000270: ccbe 8d3e ff87 5bb9 f9ec 96be 7930 b5bd
00000280: 8ec6 503d 64f4 10be 7350 243f 758f 55be
00000290: fb27 85be 33b0 06bd d9ec 2bbe cd51 b5bd
000002a0: 28cb 123e a40c aabe a0e0 f53b 85c1 33be
000002b0: 0186 a33c 56d2 873d 0806 d33d 3142 5a3d
000002c0: dc5d f03b 6536 3a3f f451 0cbe 2fe8 52be
000002d0: 3ab0 b13e f863 103e ffa7 eabd 969a e1bd
000002e0: 7f27 98bd 30b6 f73c e0b0 c03c 07d6 2dbe
000002f0: 8ae4 29be caf3 1bbe 73a3 2fbc ccf3 fbbd
00000300: bf5d 07be 67d0 00be fdb1 36bd 4509 febd
00000310: 2ec9 b03d 48ce cabe 40dd 27be c86d 5d3b
00000320: 3f45 543c 7a12 f2bc e374 9f3d f58c e8bc
00000330: 676c c1be 9c42 753d 3037 64be b2b3 abbe
00000340: ab34 92bd ad57 c0be b4c9 83bd 2af1 1cbd
00000350: 99d2 1ebe 4407 e73b ae6f 893d 4624 48be
00000360: 39eb ffbd bbe3 d7bd 5031 a5bd ba13 25be
00000370: b9f2 833d e05a 44bc 22fb 423e 8bc4 13be
00000380: ade0 ebbe f070 0cbf 845a 433d 796a 813d
00000390: 5300 5c3c 5430 9cbe e15f d7bd 1f6e 62be
000003a0: ef46 143e 098d 47bd 95a9 97bd 9b33 b83c
000003b0: 7928 aabd 658d 19bf 5267 8fbe c2c2 7abc
000003c0: 69c3 cfbe fd7b 2dbe 1e01 2abf d32d 27bd
000003d0: 0dcf 34bd e135 01be 3347 513d 30a9 87be
000003e0: 5433 23be 1540 40be 02df 1c3d a8c3 e7be
000003f0: ca4c 503d 9895 fd3e 56f6 b3be 08bb 02bd
0.04932151 -0.11990744 0.099009484 -0.33031315 -0.43045047 -0.0034005141 -0.24327227 -0.04282352
-0.14765334 0.008769377 0.0063766353 -0.3456077 0.29761913 -0.069217846 0.02369258 0.25487238
0.10699473 0.038046703 0.18880339 -0.02782844 0.06999527 -0.08011048 -0.2790225 0.00992989
-0.17716447 -0.32565475 -0.18862288 0.30263108 -0.10411327 0.008867182 0.013898133 -0.05313163
-0.20010035 -0.23647442 0.29185617 -0.043614008 -0.05172816 -0.23109502 0.083052695 0.01939576
-0.29509994 0.047175027 -0.3083803 0.5129139 -0.104706466 -0.38786504 -0.26823613 0.089895904
-0.09540931 -0.18466446 -0.043075033 0.30249986 0.18968405 -0.22552875 -0.2087654 -0.09403962
-0.80481964 -0.027648833 -0.13212335 0.09115759 -0.085337065 -0.08959136 0.048184175 0.0479324
-0.24600375 0.14189012 -0.37382483 -0.0076846667 -0.38227364 0.36147204 0.09256573 -0.045378402
0.23030178 -0.23212297 -0.04948974 -0.21895647 0.12500462 -0.3308252 0.07805977 -0.25652042
-0.23388764 0.0922149 -0.00638562 0.094439276 -0.02229407 -0.04064829 -0.39328238 -0.34939095
-0.07724415 -0.35664847 -0.009357814 -0.42021048 0.03343271 -0.6076869 -0.2285006 0.05994734
-0.025496986 0.4201958 0.054652385 -0.255459 -0.056651346 0.011403317 0.034243204 -0.44173265
0.111536555 -0.009112391 0.1620315 0.047532167 -0.19976498 0.13560188 -0.06197754 0.3215692
-0.29781818 -0.026699746 0.071968816 0.18105376 -0.24176818 -0.03138829 0.0034940655 -0.0015587221
-0.042401604 -0.07446636 0.068800725 0.010551301 -0.20327665 -0.02764097 -0.055092484 -0.22067004
0.13292135 -0.2854969 -0.36745498 -0.0075237057 -0.14744398 -0.21940365 -0.09619317 0.047559734
0.058267422 -0.31106064 -0.067662895 -0.09781361 -0.23027717 -0.07641988 -0.39851978 -0.04856366
-0.0018865385 -0.06308495 -0.27616823 -0.210502 -0.054643232 0.18537354 -0.018545883 0.27458948
0.22448464 -0.058395524 -0.15881087 0.002152246 0.2768463 -0.0002093613 -0.2947767 -0.08847136
0.050970607 -0.14155728 0.64185256 -0.20855506 -0.26007065 -0.03288288 -0.16789569 -0.08853493
0.1433531 -0.3321277 0.007503584 -0.1755429 0.019961359 0.06631915 0.10303885 0.05328578
0.0073354077 0.7273925 -0.13703138 -0.20596384 0.34704763 0.14100635 -0.11457824 -0.11015813
-0.07429408 0.030238241 0.02352184 -0.16976176 -0.16591087 -0.15229717 -0.010720122 -0.1230236
-0.13219355 -0.12579499 -0.044603337 -0.12404112 0.08632122 -0.39610505 -0.16392994 0.0033787359
0.012955963 -0.029549826 0.07785966 -0.028387526 -0.37778017 0.059877977 -0.22286677 -0.33535534
-0.07138952 -0.3756689 -0.06434956 -0.03831593 -0.15510024 0.0070504267 0.06710754 -0.19545087
-0.12496037 -0.10541483 -0.08066046 -0.16120806 0.0644278 -0.011984557 0.19041112 -0.14430444
-0.46069852 -0.5485983 0.047693744 0.06319136 0.013427812 -0.3050562 -0.10516334 -0.2211232
0.14480184 -0.048718486 -0.07405392 0.022485545 -0.08308501 -0.59981376 -0.28008515 -0.015305223
-0.40578774 -0.16941829 -0.66407955 -0.040815186 -0.04414277 -0.1261821 0.05109329 -0.26496267
-0.15937549 -0.18774445 0.038298614 -0.4526646 0.05085448 0.49528193 -0.35148877 -0.03191665

mlp2.0.bias f4 [100]
00000000: 821a 373f 92c0 89bd fde4 64be 31c7 99be
00000010: a50f 96be 2f4b e53e ebe0 2f40 c51c 32be
00000020: d21b 7ebe d0f1 dabd bbdf 12bf 6e11 ee3d
00000030: 6888 83bb 975c e73e e583 55b9 d8b0 03bc
00000040: aaf4 8b3e c024 a640 4382 81be 29c2 7bbd
00000050: 1f00 93be 17d7 14bf daf6 2a3f 74de 2e3e
00000060: 6080 afbd 0eef 21be e1f2 cc3d 5d00 fcbd
00000070: 9e8e 04bf 5202 8dbf 42e1 b840 d18f 8740
00000080: 3f5d e0be c4f6 c33d ea96 6c3b 5f88 d6bd
00000090: b258 aebe 0539 9a3e 7434 82be c880 a0bd
000000a0: 4aa8 15be 7f87 64be b085 113f 326b 16bd
000000b0: cf4e 0d3f c603 06bf e7fc 723a bbd7 72be
000000c0: 4419 7abe 5f2a 8ebe 6583 ba3f 4a27 f9bd
000000d0: 3717 c73e 52dc c0be debc 73bd b6c0 99be
000000e0: 1dff 12bf 375d 9ebd 20a7 7a3c 9604 563f
000000f0: 6c36 ce3e eff7 8e3d 23aa edbd 6bf3 afbd
00000100: d5e0 a440 e0de 14be f8e4 b73e 65ab f03d
00000110: bc80 e03e ef72 fabe 2918 72bd 27b3 16be
00000120: 848a 8bbd 78d1 ef3e 948a dd3f 766c cc3f
00000130: c3af 8b3c cd5e d1bd d63c 89bf f7b4 10bf
00000140: a45a 283e 0045 573f a784 8bbc 8610 f6be
00000150: 1507 48be b113 4a3e 8924 c4bc e072 03bf
00000160: 62f6 d2be 3473 9bbe bfc8 343f 1ab3 d940
00000170: e3db b6be 9789 f9bc e7a0 a23c 3a96 89be
00000180: 5f1e af3d 633d 03be 527a 48be 838d 2140
0.7152482 -0.06726183 -0.22352977 -0.30034783 -0.2930881 0.44783923 2.748103 -0.17393787
-0.248153 -0.10690653 -0.57372636 0.11624418 -0.0040140636 0.45187828 -0.00020362397 -0.008037768
0.273351 5.191986 -0.25294694 -0.061464462 -0.2871103 -0.581407 0.66782916 0.17077047
-0.085694075 -0.15813848 0.10007263 -0.12304757 -0.51780117 -1.1016333 5.7774973 4.2363057
-0.4382114 0.09568551 0.0036100694 -0.104752295 -0.34052044 0.30121627 -0.25430644 -0.07837063
-0.14614978 -0.22317313 0.56844616 -0.036723323 0.5519838 -0.5234951 0.0009269253 -0.23715107
-0.244237 -0.27766702 1.4571348 -0.12165697 0.388849 -0.3766809 -0.05950629 -0.3002984
-0.5742052 -0.07732623 0.015298635 0.8360075 0.40275896 0.06980883 -0.11604717 -0.0859135
5.1524453 -0.14538145 0.35916877 0.11751441 0.43848217 -0.48915812 -0.059105072 -0.14716779
-0.06813529 0.468395 1.7307916 1.59706 0.017051583 -0.1022316 -1.0721691 -0.5652613
0.16440827 0.8408966 -0.017031027 -0.4805948 -0.19533952 0.19734074 -0.023943203 -0.5134716
-0.412036 -0.3036133 0.70618814 6.803113 -0.35714635 -0.030461116 0.019852115 -0.26872426
0.08550715 -0.12816386 -0.19577911 2.5242622

mlp2.2.weight f4 [50, 100]
00000000: 9d44 7e3b 7b85 753c 41cd 633d db9c 883e
00000010: 0165 69be 07e0 ee3c 5de9 993d 06c3 8bbd
00000020: 02c1 77be f435 89bc bcbf bdbd 8924 533d
00000030: 5e2c 3a3d d7e1 0ebf 917b f13d e440 ae3e
00000040: a6d3 02be 06e8 22be cd04 2bbc fca0 cb3d
00000050: 1c40 f2be caaf 12bd 88ce d6be d350 d2be
00000060: 4ed9 fe3d 3009 51be e1a9 353e b46c 55be
00000070: 984c c03d 6e71 483c a394 063e fd09 6d3f
00000080: 0cc4 4bbe 61a7 0dbe 339a 9ebd 5ace 333d
00000090: 2037 12be d7dd 783e f98a 4b3e ac43 eb3d
000000a0: fbfa 9a3e 88b2 653e b188 f83c 115c 00be
000000b0: 2501 71be 629a 90bd b37f 423e 6ce0 913e
000000c0: 71a6 40be 58fa b23d d9d1 803d 13d6 6dbe
000000d0: c03a e4bd 70a9 1dbe 142c b93d 3e56 ef3d
000000e0: e46a 99be a4c9 763e 1de0 373e 25bb 6c3e
000000f0: 5e25 a6be 3e70 ac3e 9dbf 503e 82bb 75be
00000100: 7669 933e 3bc2 bb3d c068 2b3e f3bc 313e
00000110: f5c7 89be ab9f 95be f0d1 78be e973 fabe
00000120: f633 933d 8367 593e f3f8 39be 61f0 c93d
00000130: 575b 073e 5781 6d3e 4823 01bd 5ace 8a3d
00000140: 69a7 873d 4db8 e73d b2c8 5a3d 7955 bdbe
00000150: 073f 8a3d 7f35 c4be 3425 cebd d8bd c93d
00000160: 3a52 92be 5c7f ac3d 09ca 853e e7af 2bbe
00000170: bfb3 d73e 2e31 843e 72e7 56be 3bdb 04be
00000180: 60b6 4a3e 9e87 2abe 93e9 aa3d 0b84 c33d
00000190: da15 763e 5781 7dbd 7a22 093e 6efa 713d
000001a0: 586a 3b3d 9f9b 27be 2a59 823e 80b8 cb3c
000001b0: 0197 88bd d18b 30be a83f cb3d 1f79 163e
000001c0: 5bb3 08be 130a d9bd 1ea6 dbbc 98ac e43d
000001d0: 6c15 003d d9b2 80be 524d 773e 8a87 2cbe
000001e0: 47f2 863e b18a 5c3e ff58 c9be 4b65 0fbe
000001f0: 070a 2ebe 9873 99be 4529 86be 5ac2 a4bd
00000200: 3889 043f 0447 99be 540f b03d 7c76 873e
00000210: 73cc 153f 84e5 94bc eec7 493e 9b83 073e
00000220: fd6d 123f 1a56 c5be fc91 48bc d1e9 773e
00000230: af6d bbbd ea8c b93d 4229 8a3e da0f 16be
00000240: 27bf 8cbe e799 1b3e 7503 e9bd 5d8f 65bd
00000250: 7518 02be c896 ff3d f6fd 24be 68c4 e9be
00000260: 971d dcbd d8ad f7bd 18e3 88be 9452 bfbc
00000270: 196e 093d dd33 b43e 5ac3 b93d 2713 ae3e
00000280: 2587 09bf a509 823e 8ef4 c8bd 432e eebd
00000290: cb11 dfbe 61eb 303e 1b8d 36be d6a8 3ebe
000002a0: a74a 8b3e 2584 8f3e 19f3 363d 30ad 373e
000002b0: ab35 33be 6bc5 8a3d bfea 713d 52a8 833d
000002c0: 12aa 19be b058 8cbd 5e51 e5bc 5753 57be
000002d0: 6fc9 c1bb a628 1a3e 5ade 1e3e 17c3 2d3e
000002e0: 6da6 c1bd 1bc0 3fbd 71c0 22bd 28ff 633e
000002f0: 03dd 3cbe cbc5 dfbd 9c7b 75be 6fda 16bd
00000300: fb26 633b 013e b93d cadd b1bb 20fd 853c
00000310: c1ab 953e 58ba 233e c5bf 8ebd d5ab c3be
00000320: 4188 23bd b9f2 7cbd edb1 893e cd78 cd3d
00000330: c361 4a3e 5be9 7cbd 402d 8ebe 80b5 cabc
00000340: a6c0 b4ba dafe fa3d 0570 323e 4795 263e
00000350: acea 0d3e b885 263e b86d 8cbd ab9a cdbd
00000360: 2640 bc3e 7237 06be b8c9 623e 35da 583e
00000370: d407 d7bd 887e 083e 1fe8 ee3b e978 15be
00000380: f5f8 cf3d 08e4 8d3e 57e1 9c3b 4f87 863c
00000390: ec38 94bd b957 9f3d 009d e3be 299c c6be
000003a0: c472 6c3e 5753 5ebe 7039 e23d 80f8 053e
000003b0: 1bd7 23bd b1ca 8a3e 7188 303e 2cd7 d03e
000003c0: 2821 8fbd 1eb7 4b3d 0869 aabd 24c0 06be
000003d0: e840 da3d 77d6 a03e b436 93bc 79d7 8a3c
000003e0: f331 bc3d 8a2b 01be 77eb 02bb 02b5 153e
000003f0: 8281 143e 8651 d6bd c06f a3bd 05f4 093e
0.003879822 0.0149854375 0.055615667 0.2668217 -0.22792436 0.029159559 0.07515214 -0.06824307
-0.2419472 -0.01674936 -0.09265086 0.051548515 0.045452468 -0.55813354 0.117911465 0.34033883
-0.1277605 -0.15908822 -0.010438156 0.09942815 -0.47314537 -0.035812177 -0.41954446 -0.4107729
0.12443791 -0.20413661 0.17740585 -0.20842248 0.09389609 0.012234075 0.13142638 0.92593366
-0.19899005 -0.13833381 -0.07744255 0.043897964 -0.14278841 0.24303375 0.19877233 0.11487517
0.30269608 0.22431386 0.030338617 -0.1253512 -0.23535593 -0.07060696 0.18994026 0.28491533
-0.18813492 0.087391555 0.06290025 -0.23226194 -0.11144018 -0.15396667 0.0904161 0.11686371
-0.29964364 0.24100357 0.17956586 0.23118265 -0.32450384 0.33679384 0.20385595 -0.2399731
0.28791398 0.09167906 0.16739178 0.17357235 -0.26910368 -0.2922338 -0.24298835 -0.48916557
0.07187645 0.21230893 -0.18161373 0.09860302 0.13218437 0.2319387 -0.031527787 0.0677764
0.06623728 0.113144495 0.053414054 -0.36979273 0.06750303 -0.38322064 -0.1006569 0.09850663
-0.2857836 0.084227294 0.26130703 -0.1676632 0.42129323 0.2581877 -0.20986727 -0.12974255
0.19796133 -0.16653296 0.08345332 0.095466696 0.24031773 -0.061890926 0.13392058 0.05907672
0.045755714 -0.16367958 0.25458652 0.02486825 -0.06669427 -0.17240836 0.09924251 0.14694642
-0.13349669 -0.10597625 -0.02681261 0.11165732 0.03127043 -0.2513645 0.24150589 -0.16848579
0.26356718 0.21537282 -0.3932571 -0.14003484 -0.16996013 -0.29971004 -0.2620336 -0.08044882
0.5177188 -0.29936993 0.085966736 0.26457584 0.5851509 -0.018175848 0.19705173 0.13233797
0.5719908 -0.38542253 -0.012241837 0.24210288 -0.0915178 0.0906008 0.26984602 -0.14654484
-0.27489588 0.15195428 -0.113776125 -0.056044925 -0.12704642 0.12479931 -0.16112503 -0.4565766
-0.10747831 -0.12093705 -0.2673576 -0.023354806 0.033552263 0.3519582 0.090704635 0.33998987
-0.5372184 0.25397983 -0.0981227 -0.116299175 -0.43568262 0.1727729 -0.17827265 -0.18619093
0.27205393 0.28030506 0.04466543 0.1793716 -0.17500941 0.06775936 0.059061762 0.06428589
-0.15006283 -0.06852853 -0.0279929 -0.21027885 -0.0059139053 0.15054569 0.15514508 0.16968952
-0.09455571 -0.046814065 -0.039734308 0.22265303 -0.18443684 -0.10926398 -0.23972934 -0.03682941
0.0034660685 0.090450294 -0.0054280506 0.016356051 0.292326 0.15989053 -0.06970171 -0.38217035
-0.039924864 -0.061754916 0.2689356 0.100328065 0.19763856 -0.061745983 -0.27768898 -0.02474475
-0.0013790324 0.1225564 0.17425545 0.16267882 0.13859051 0.16261947 -0.06856865 -0.10039266
0.3676769 -0.13107088 0.22147262 0.2117699 -0.1049954 0.13329518 0.0072908546 -0.14596905
0.10154907 0.27713037 0.004787605 0.016421942 -0.072374195 0.07780404 -0.4445572 -0.38791016
0.23090655 -0.21711479 0.110461116 0.13083076 -0.040000062 0.27107766 0.17239548 0.40789163
-0.06988746 0.04973518 -0.08320814 -0.13159233 0.10656911 0.31413624 -0.01797042 0.016948448
0.091892146 -0.12614265 -0.0019976774 0.1461983 0.14502528 -0.10464768 -0.07980299 0.13471992

mlp2.2.bias f4 [50]
00000000: 29fb 1cbf 38d0 7d3e 6fb4 783f 6047 3abe
00000010: f37f 83bf ba1a ba3f f607 87be 6387 723f
00000020: c050 833f 0680 37be 4498 4dbf b13f 273f
00000030: 0d75 943f f91a 36bf cf9f 753f 16df edbf
00000040: 2b22 4abc 7522 3f3e fcb8 d2bd 453a 5bbf
00000050: 93e6 1540 26ab b63f 087d b03e e517 c5be
00000060: a6ba 1a3f 1bc6 97bf 6e3d ac3f 76e8 6d3d
00000070: aa27 37bf 538c 203e daef 81be 164c 923e
00000080: 635d 1abf 4f65 11be 6a6e 5ebf 90aa 8bbf
00000090: d985 303f 466a 37bd 9686 4b3e cad7 8b3f
000000a0: f656 bd3f a991 a03f 7e60 463e 880c 3ebf
000000b0: 4623 853f 3f5e 1b3e fb64 483f 2f9b 063f
000000c0: 4a17 f1bf 09f2 523f
-0.6132074 0.2478646 0.9715032 -0.1819129 -1.0273422 1.4539406 -0.2637326 0.94737834
1.0259018 -0.17919931 -0.80310464 0.6533156 1.1598221 -0.71134907 0.95946974 -1.8583705
-0.012337248 0.18665488 -0.10289189 -0.8563579 2.3421981 1.427098 0.3447039 -0.38494793
0.6044105 -1.1857332 1.3456247 0.05808302 -0.715449 0.1567853 -0.25378305 0.28573674
-0.60298747 -0.14198802 -0.8688723 -1.0911427 0.68954235 -0.044779085 0.19875559 1.0925229
1.4792163 1.2544452 0.19372746 -0.7423787 1.040139 0.15172671 0.78279084 0.5258054
-1.8835232 0.82400566

attention.0.weight f4 [100, 100]
00000000: d6cf 563d 72c7 e63d d456 adbd 109b 85bd
00000010: 8bdc efbd 2409 88bd d582 8e3d 378c c23c
00000020: 4b2c 7d3d b239 44bd e0e6 b7bb 3b41 86bd
00000030: 5cc1 46bc b667 6a3d 6c05 48bd 4c5a 80bc
00000040: a8c0 45bd 219a 933d 14bd 7f3d 82bc 723d
00000050: 5522 bf3d 81fe d5bc 110f 46be 3f48 9dbd
00000060: a8f4 bfbd 0e7a a5bb 2ae4 b93d 19b5 bc3c
00000070: 72dc 80bd 3a6a 17be 737e 30bd a1fd 11be
00000080: cce6 f8bd 3539 2ebe b24a bdbd 6e4c bfbc
00000090: 0362 173d b031 793d f8bb ca3c 3a03 ac3d
000000a0: 1f99 e5be 1567 853d 1cf0 f3bc 6a19 dfbd
000000b0: fa96 a1be 411c cebd 0eed 0cbe c7e4 62bd
000000c0: 1787 0e3d 06be 693c 6df9 f8bb 1217 3ebe
000000d0: b464 08be 2cce dbbd 6122 5bbd 69eb 39bd
000000e0: 9950 15be bb58 7e3d dd81 c8be 3da2 c8bd
000000f0: ab40 98bc c4b7 4ebd 48fb 34bd a32c 9cbd
00000100: e78a c0bb cb6e f43b 9ade 39be c37f 17be
00000110: 7763 183e 52a2 70bd 634a f6bc 422d 18be
00000120: eb87 60bd 9160 cc3c d92e 603d 9efd 44be
00000130: 3af2 3ebd 622e b5bd 56e3 5dbe 8e97 dabd
00000140: 1f4c eebc ef7e a1bd affd 90bd 8b2d dfbd
00000150: a9d4 bb3d ba78 af3d 8638 c3bd 4eae bbbe
00000160: be57 eb3d 3dea 853d 5767 0a3c e52d d4bd
00000170: 9fe9 f8bd facd f7bd 11d2 62be f62f dabd
00000180: 4534 2cbd 9ef8 9d3d ec07 d1bd 34d1 cdbd
00000190: 87dc 79bd d534 9ebe 5af4 863c 691b 42be
000001a0: ac41 5fbe 24c4 e93b a08e 133e 26d9 9cbd
000001b0: 0c29 99be 6fc0 ffbc a2d9 5ebc 405a 29bd
000001c0: 4258 4cbd 626d 393d 7ba0 9a3d c67c 15be
000001d0: d875 313e bdb9 53bc 6c45 903d 312e 483e
000001e0: 21ab fa3c 6175 c33d 1ea0 803d 2753 21bd
000001f0: 9741 4f3e ab15 69be d2fd f63c 3c60 733c
00000200: d0b5 c13d 0caa 44be 058e c3bb 4f89 5ebc
00000210: 7519 9abd 8b9d 77be aa7d 61bd 99e8 0b3e
00000220: 3a98 903d f66a 1dbd 72d8 13be e16b 3dbd
00000230: 3b7b 7a3c 9e15 80bc 8af6 e2bd 47f8 033e
00000240: 1a88 3abd 1958 063c e463 d2bd e31a a53b
00000250: aa9b 9fbe aa75 203e ec28 47be 6166 573e
00000260: d8f6 08be 090f 1cbe c1f0 0dbe ce9a 8abd
00000270: 8f75 bbbe 04d0 d9bd 0a47 b2be b83a 99bd
00000280: 0913 d23c 6ad7 e0bc 5dbf 9cbe a528 55be
00000290: 0d77 fcbd a45b 8c3d a246 373d 0e1b 57be
000002a0: 59d6 aabd 747d e13c b58e 753d db4f 68be
000002b0: e4aa 9cbc 5c4f ddbd 1cb0 c2bd ba5c bdbd
000002c0: 14b5 033d b6c4 1bbe 5171 8abe ed37 3bbe
000002d0: 6ed4 c3bd 4150 c93e 3fd7 adbc 8cd7 29bc
000002e0: d42b 4bbd a07b 713c ee8f 8dbe 4240 a8be
000002f0: 47b9 c2bd fdb0 d9bd 2c03 ddbd 488b 993c
00000300: fbb9 7cbe c38c 9b3e ddde 82be af21 433d
00000310: 8448 8b3d af5d d53d f43b 103d f132 6c3d
00000320: ff14 29bb 0d60 83bd 32c1 8a3d 228c c0bd
00000330: adc3 13be b642 1dbd 97c7 223d bfb2 213e
00000340: 5512 e4bd 23ae 2ebe 4a75 ea3b fbf8 3b3d
00000350: 87f0 443e 4af0 14bd 2820 83bd 05c2 31be
00000360: 95af 96bd 35db 923d 9970 57be 9c6a 93bd
00000370: 69f5 4d3c be3f bebc 3331 25be 793b b5bd
00000380: ebe4 1c3c 7c0d 993d 9341 2cbd 0b5a 87be
00000390: 4e82 47bc 1f7f 4bbe da5d d53d 2c73 c5bd
000003a0: 91eb 193e 8ba6 d6bd 8af2 ba3e 71de 02be
000003b0: baf3 e1bc 3fa6 3ebe 77f6 d93d 12b2 f53c
000003c0: da18 05be 811b 25be 60fb eebd 3997 a5bb
000003d0: cb30 8fbd 3d6d 98bd 2eda 61be ce16 39bd
000003e0: b9f7 0dbe bbb3 babd 1cba 493e 0e59 a5be
000003f0: d3cd 2ebd 013d 9abd 468c 713b 248c 733c
0.0524443 0.1126851 -0.08463827 -0.065237164 -0.11711987 -0.066423684 0.06958548 0.0237485
0.06180982 -0.047906585 -0.0056122392 -0.065554105 -0.012131061 0.057227813 -0.048833296 -0.015668057
-0.048279434 0.07207132 0.06243618 0.059261806 0.0933272 -0.026122333 -0.19341685 -0.076797955
-0.09372836 -0.0050499504 0.09076722 0.023035573 -0.062920466 -0.14786616 -0.04308934 -0.14256908
-0.12153396 -0.1701401 -0.092427626 -0.023351874 0.036958706 0.0608384 0.024747834 0.08399053
-0.44843385 0.06513802 -0.029777579 -0.10893519 -0.31560498 -0.10063983 -0.13762304 -0.05539396
0.0347968 0.0142664965 -0.0075980932 -0.18563488 -0.13319665 -0.107326835 -0.053499583 -0.04539052
-0.14581527 0.06209634 -0.39161578 -0.097965695 -0.018585524 -0.05046822 -0.044184953 -0.07625701
-0.0058759334 0.0074594966 -0.18151322 -0.14794831 0.14881693 -0.05874855 -0.030064767 -0.14861014
-0.05481712 0.02494839 0.054732177 -0.19237372 -0.046617724 -0.088467374 -0.21668753 -0.10673438
-0.029089032 -0.07885539 -0.07079636 -0.108973585 0.09171421 0.08567949 -0.09532265 -0.3665642
0.11491345 0.06538818 0.00844749 -0.10360316 -0.12153935 -0.12099834 -0.22150446 -0.10653679
-0.042042036 0.077134356 -0.10206589 -0.10049668 -0.061001327 -0.30899683 0.016473938 -0.18955769
-0.21802396 0.0071339775 0.14409876 -0.07658605 -0.2991413 -0.03121969 -0.013601692 -0.041345835
-0.049888857 0.04527033 0.075501405 -0.14598379 0.1733011 -0.012922701 0.07044491 0.1954887
0.030599179 0.095438726 0.0628054 -0.03938594 0.20239864 -0.22762172 0.030150328 0.014854487
0.09458506 -0.19205493 -0.005967858 -0.013582542 -0.07524387 -0.24181192 -0.055051483 0.13662948
0.07060285 -0.038432084 -0.14438036 -0.04624546 0.0152881695 -0.015635308 -0.1108218 0.12887679
-0.045539953 0.008199715 -0.10272959 0.0050386055 -0.3117345 0.15669885 -0.19449204 0.21035148
-0.13375413 -0.1524011 -0.13861372 -0.06767808 -0.36613128 -0.10635379 -0.34819824 -0.07481903
0.025643842 -0.027446467 -0.3061475 -0.20816286 -0.12327395 0.068534166 0.044745095 -0.21006414
-0.08341665 0.027525641 0.05995055 -0.22686712 -0.019124456 -0.10806152 -0.095062464 -0.09246202
0.03215511 -0.15211758 -0.2703958 -0.18283053 -0.09562002 0.3931904 -0.021220801 -0.010366332
-0.049602345 0.014738947 -0.27648872 -0.32861525 -0.09507995 -0.10629461 -0.107916206 0.018743172
-0.24680321 0.3038083 -0.25560656 0.047639545 0.06800941 0.10418259 0.035213426 0.05766577
-0.0025799868 -0.064148046 0.0677513 -0.09401728 -0.14430113 -0.0383937 0.039741125 0.15790842
-0.11136309 -0.17058615 0.007155095 0.045891743 0.19232379 -0.03636197 -0.06402618 -0.17359169
-0.07357708 0.07170717 -0.21039046 -0.071980685 0.012570717 -0.023223754 -0.1613205 -0.08849234
0.009576063 0.07473275 -0.042054724 -0.26435885 -0.012177063 -0.19872712 0.104182914 -0.09641108
0.15031268 -0.10480984 0.36513168 -0.12780167 -0.027582038 -0.18618105 0.106427126 0.029992137
-0.12997761 -0.16123773 -0.1166904 -0.0050534275 -0.069917284 -0.074427105 -0.22055885 -0.045187764
-0.1386403 -0.09116312 0.19699901 -0.32294506 -0.042676758 -0.07531167 0.003685729 0.014864955

attention.0.bias f4 [100]
00000000: 7e86 493e 6884 3b3e fa55 0abd c170 153e
00000010: 9cc9 bdbe 8d44 ed3c 3819 aebe abb3 8abe
00000020: 1702 f0bd eabf 8dbd eec9 0ebf 4daf 5dbe
00000030: de34 94be f6db c6be 8a35 debe ec36 a1be
00000040: f6bc 29be 6bdb 27be beee 143e 37b2 85bd
00000050: c6cb f33d ef99 34be a1c6 b3be d232 a9be
00000060: 25e8 9abe 4d37 4dbe 560f ebbe 3f9e c9bd
00000070: 435c 0d3e 31e5 fbbe 5d7d 383c 78e1 01bf
00000080: b342 82be d6af cebe affb e4be 38b9 bebe
00000090: 7f11 c7bd 572c c5be c36d d3be 5685 8cbd
000000a0: 1915 5fbe 340b 7ebf ae4c dcbd 5c05 a0bc
000000b0: 1de5 f1bd e5f8 adbe f331 37be 5dde a5bd
000000c0: 473d f0be dbf9 11bf 8d37 05bd 2cc3 64be
000000d0: be28 c4bd 6da2 08bf 8a41 5ebe 6231 38be
000000e0: 280e 24be 66d8 02be fc3d 2dbe d0dc 7b3d
000000f0: 75a2 e1be da2d c8be 7e79 233e f650 6dbd
00000100: a9d8 8cbe d8d9 9f3d 3070 8dba f6e9 57bd
00000110: 8efd 79be 8df1 f2bd 2023 f73b 6c20 77be
00000120: 630f 31bf 3d10 88bd 1633 39bd c8d3 ecbe
00000130: 8482 96bd 3cb7 f43d c70c 26be 48cb a8bd
00000140: b65a 97bc 12ac 1bbf 6d2c 7ebe 395d e1be
00000150: 3c73 833d a4bd f1bd dd49 4ebe 6348 47be
00000160: b21a 63be 154d 893d 0ac4 1fbe d321 afbe
00000170: 6b34 8b3d 5fa9 f8bd 2cdb ebbd 650b f2bd
00000180: 6b32 46be 2e55 adbd 6237 eabd c880 cdbd
0.19680211 0.18312228 -0.0337734 0.14593793 -0.37067878 0.028963352 -0.34003615 -0.270902
-0.117191486 -0.0692137 -0.5577687 -0.21648903 -0.28946584 -0.38839692 -0.43400222 -0.31487215
-0.16575989 -0.16392295 0.14544198 -0.065281324 0.11904101 -0.17636846 -0.3511248 -0.33046585
-0.30255237 -0.20040627 -0.45910138 -0.09844636 0.13804726 -0.49198297 0.011260358 -0.50734663
-0.25441512 -0.40368527 -0.4472327 -0.37250686 -0.09720134 -0.3851039 -0.4129468 -0.06861369
-0.21785392 -0.99235845 -0.10756813 -0.019533806 -0.11811278 -0.33978954 -0.17890148 -0.08099053
-0.4692175 -0.57021874 -0.03252368 -0.22340077 -0.095780835 -0.5337284 -0.21704689 -0.17987588
-0.16021025 -0.12777862 -0.16918176 0.06148988 -0.44069257 -0.39097482 0.15964314 -0.05793854
-0.2750905 0.07805222 -0.0010790881 -0.052713357 -0.2441313 -0.118624784 0.007542029 -0.24133462
-0.69164103 -0.06643722 -0.045214735 -0.46255326 -0.07349113 0.11949012 -0.16215812 -0.08241898
-0.018475872 -0.60809433 -0.24821635 -0.44016436 0.064184636 -0.11803749 -0.20145364 -0.19461207
-0.22178152 0.06704155 -0.15602127 -0.34205493 0.06797107 -0.1214168 -0.11516413 -0.118185796
-0.1935517 -0.08463512 -0.11436345 -0.10034329

attention.2.weight f4 [100, 100]
00000000: d2e9 8abc 9eb0 213e 2cd7 293e 22f4 dfbd
00000010: 44da ecbb 47fa edbd 4a5b c0bd 67d1 a53d
00000020: 592f 55bd 7b85 32be 3a72 94bd 4c34 033c
00000030: bd82 9d3d 9443 1ebe 682b c83d c10a 923d
00000040: 6828 78bd b1bf 06bd d663 b13d 7890 993d
00000050: d199 1c3e e0fd df3c 876f 05be 829d 6a3d
00000060: dfe6 393d b47b 843d 82d3 57bd ad71 ffbc
00000070: e2fc aebd 4454 03bc 6960 ee3d 0ee6 d4bd
00000080: 80a3 e7bc 5c34 963a e4ea 19be b906 9a3b
00000090: b206 90bd 52e3 78bc a141 5d3c 15b4 813e
000000a0: 6028 17be bddc 27be 5021 80bd 19e3 023c
000000b0: de78 5d3e 00f1 a3ba 8612 ed3d 6581 cb3d
000000c0: 5f47 76bd f8f5 95bd 5007 2a3d 9b38 dfbd
000000d0: ecb8 06be 9d40 e5bd a73c 54bd 2f61 bf3b
000000e0: cf45 d0bd 0375 febd 619d 9c3d 5e49 5cbe
000000f0: b98e 12be 7f11 b439 a17a 5f3e 1fd5 12bd
00000100: 6cec c3bd 18b4 e73b 1372 99bc 061c 04bc
00000110: c932 c93d e1d0 80be 7dd9 8fba ff61 b1bd
00000120: c8bd ddbc 243c 98ba 9703 d3bd a819 b73c
00000130: 61a2 32be cd15 b5bd e0aa 1d3e 984f 8a3d
00000140: 94dc 37bd c117 71be 0b4f 66be 8f1e c2bd
00000150: 835c 55be 6885 053e ebf6 d5bd 9122 abbd
00000160: a8f8 143d baa3 3abd 4d17 923d 0731 e8bc
00000170: c9bc 8a3c eda9 5bbb 5ba2 243e ba46 bcbd
00000180: dbf7 babd 987b fa3d 054c 6f3d 3dbf acbd
00000190: 5403 60bd cf7c 63bc 4d8a 73bd 027d 6abd
000001a0: 3503 913c ba01 63bc f93a b9bd 7217 713d
000001b0: 6ab8 943c 15a0 67bd 23f4 d1bd 6058 2cbd
000001c0: 8297 5bbd 1019 813d 4cc4 20bd f4b4 b0bd
000001d0: 90d2 2f3c 43ca 2fbd e7da 89bd da84 9d3d
000001e0: 066c aebd 2619 b4bc 508b febc c2f2 59bb
000001f0: 90d5 dabb c3ec 273d af6b 9ebd 25fb 80bd
00000200: 82e3 b73c a26e 35bd 03da 1cbd 1155 3ebd
00000210: ceec ccbd 5871 773d 8baa 1b3d e604 923c
00000220: d875 18bc 1966 1c3d 408c 783c 8404 d03d
00000230: 836b 7abb 1000 6cbd 9072 883d da37 6cbd
00000240: 36f2 5abd 9a0e 073c 9f96 00be adff 9fbb
00000250: c3d6 07bd a1d8 90bd 62db adbd 1e86 70bc
00000260: 2449 e8bd 91d2 ebbd 7cea 48bd cf88 bdbd
00000270: 5aba 9c3c b64d c4bb 2936 01bd 8829 5abc
00000280: 83f1 ed3b 81e4 eabd 452c cabd 1111 8a3d
00000290: 2814 afbd b16a 33bd a4df d0bd 635a 92bc
000002a0: d0a0 edbc a7ab 28bd 9e81 5ebd f867 a9bd
000002b0: 1bd1 0dbe 99a6 aa3d 1213 8d3d 319c 3bbc
000002c0: cbf4 debd 1caa 99bd 6741 7abd d017 c6bc
000002d0: ba6b cdbd fe91 dcbc c3e4 1d3d ffb3 223c
000002e0: cc5f f13d 1169 90bd 6694 93bd 1313 baba
000002f0: b10a 803d c825 8dbd 0169 5cbc cf67 17bd
00000300: 3aaf 1b3c 7d47 a3bd e04f e93b 298f e4bc
00000310: 870e 6bbd 6886 febd 10cb 4abd ac25 51bd
00000320: 7ddf f4bc ee53 3ebd 3791 0cbe e05e 4c3c
00000330: 91b3 e6bd 6666 2fbb 4726 f7bc 6c62 0bbd
00000340: a610 d43c cbc0 0bbe 7755 65bd a4b7 bfbd
00000350: 7fda cfbd 63b5 a53c 2fe1 293d 7aeb e13c
00000360: fc8b 01be 988a dfbd e4e9 0abe 3b06 97bc
00000370: 150d 033d 4381 22bc 0727 a8bc 2ca3 5cbc
00000380: 3a35 5dbd e6a8 cebd 8b74 8bbd 313c 4bbd
00000390: 133a b03b 5f11 d53d add3 14be 0647 1b3d
000003a0: ab55 7ebc 265a e93c e12a 283d 388b 773c
000003b0: da7f 99bd 44b4 25bc 7fd8 ccbc 52e0 053e
000003c0: 5aa4 e33c 9f4d a1bd b1d6 aabd d0ae 5bbd
000003d0: f4de ab3d 8240 a43d 9dd6 873d 4420 0fb9
000003e0: 4569 963d 0a55 92bd 8d6b 723d be7a 83bd
000003f0: 5ae5 95bd e1c3 90bd 88b1 3bbd 6ae4 d13c
-0.016957197 0.1579003 0.16585988 -0.109352365 -0.0072281677 -0.11620002 -0.09392412 0.08096581
-0.052047107 -0.17433731 -0.072483495 0.008008074 0.07690952 -0.15455467 0.09773904 0.071309574
-0.06058541 -0.032897655 0.0866162 0.07498258 0.15293051 0.027342737 -0.13030826 0.057279117
0.04538619 0.06468907 -0.052691944 -0.031182135 -0.08544327 -0.008015696 0.116394825 -0.10395442
-0.028276205 0.0011459696 -0.1503101 0.0047005084 -0.07032527 -0.015190916 0.013504417 0.25332704
-0.14761496 -0.16392799 -0.06256354 0.007988715 0.21628138 -0.0012507737 0.11575799 0.099367894
-0.06012666 -0.073223054 0.04151088 -0.108994685 -0.1315648 -0.11193965 -0.051815655 0.0058404426
-0.10169565 -0.12424662 0.07647205 -0.21512362 -0.14312257 0.0003434531 0.21824123 -0.03584778
-0.09566578 0.0070710294 -0.018731153 -0.008063322 0.098241396 -0.25159362 -0.0010974851 -0.086612694
-0.027068034 -0.0011614603 -0.10303419 0.022351101 -0.17444755 -0.08842049 0.15397215 0.067534626
-0.044888094 -0.23544218 -0.2249109 -0.09478485 -0.20836072 0.13039172 -0.104474865 -0.083562024
0.03636995 -0.045566298 0.071333505 -0.02834369 0.016935723 -0.0033518032 0.16077559 -0.091931775
-0.09129306 0.12230605 0.058422107 -0.08434913 -0.054690674 -0.013884737 -0.059458066 -0.057248123
0.017701725 -0.013855392 -0.09044451 0.05886025 0.018154342 -0.05654915 -0.102516435 -0.04207647
-0.053611286 0.063036084 -0.039249703 -0.08628264 0.010731354 -0.0429175 -0.067312054 0.07691355
-0.085166976 -0.021984648 -0.031072289 -0.0033256267 -0.0066782907 0.040997278 -0.07735383 -0.06297902
0.022447351 -0.04429496 -0.03829385 -0.046467844 -0.100061044 0.060410827 0.03800444 0.017824601
-0.00930544 0.038183305 0.015170157 0.10157111 -0.0038211055 -0.057617247 0.06662476 -0.05767045
-0.053453647 0.008243227 -0.12557457 -0.004882774 -0.033163797 -0.07072569 -0.084891096 -0.0146804135
-0.113420755 -0.11514772 -0.049051747 -0.0925461 0.019131828 -0.005990709 -0.03154579 -0.013315566
0.0072614565 -0.11469365 -0.09871725 0.067415364 -0.085487664 -0.04380292 -0.10198906 -0.017865365
-0.029007345 -0.041179325 -0.05432283 -0.082717836 -0.13849299 0.08332557 0.06888403 -0.011450813
-0.10886534 -0.07503149 -0.06109753 -0.024181277 -0.10030313 -0.026925083 0.038548242 0.00993061
0.1178585 -0.0705129 -0.07206039 -0.0014196358 0.06252039 -0.06891972 -0.013452769 -0.036964234
0.0095022265 -0.0797262 0.0071201175 -0.027900295 -0.0573869 -0.1242798 -0.04951006 -0.051061317
-0.029891724 -0.04646676 -0.1372727 0.012473792 -0.11264718 -0.0026763915 -0.03016962 -0.03402941
0.025886845 -0.13647763 -0.05598971 -0.093611985 -0.10149097 0.020228093 0.041474517 0.027578104
-0.12651056 -0.109151065 -0.13565785 -0.018435588 0.031994898 -0.009918514 -0.020526422 -0.013466638
-0.05400584 -0.100908086 -0.06809338 -0.04961795 0.0053780167 0.10403704 -0.14533873 0.03790953
-0.0155233545 0.028485369 0.041056518 0.015108876 -0.07495089 -0.010113779 -0.025005577 0.13073853
0.02778833 -0.07876133 -0.083417304 -0.05363351 0.08392134 0.080201164 0.06632731 -0.00013649563
0.07344297 -0.07145126 0.0591846 -0.064198956 -0.07319136 -0.07068611 -0.045823604 0.025621612
