sarl_star_ros/CrowdNav/crowd_nav/data/output_3/il_model.pth (torch_old, 349196 bytes, 20 tensors)

mlp1.0.weight f4 [150, 13]
000000 bc 62 95 be 27 e5 b1 bb 39 80 ac bf 87 73 a5 3d
       -0.2917689 -0.0054289284 -1.347663 0.08078676
000010 3c 7f 21 3f db 93 19 c0 3f e6 6d 3f 53 89 8f bf
       0.6308477 -2.3996494 0.9292945 -1.1213783
000020 37 a7 02 40 f5 3e 3d bf 9f c6 8b 3f a2 9e 4d bf
       2.041456 -0.7392419 1.0919989 -0.8032018
000030 8f 13 86 3f 06 6d ab bf 55 d8 00 3e b3 33 a8 bd
       1.0474719 -1.3392646 0.12582524 -0.08212986
000040 9a 01 07 3e d6 91 bd 3e 48 bf 4e bf af 7b 0f 40
       0.13184205 0.37025326 -0.8076062 2.241924
000050 a4 19 64 3f 12 15 98 40 b1 e8 12 c0 27 67 87 bd
       0.89101624 4.752572 -2.2954524 -0.066114716
000060 53 9a 1b bf 33 81 d0 be 63 4b ed bf cb cf 85 3e
       -0.60782355 -0.4072357 -1.8538631 0.26135096
000070 8d 68 3a 3e a7 86 1b 3c e3 36 1b 3e 07 f0 20 bf
       0.18203945 0.009492553 0.15157656 -0.6286625
000080 fe 31 f1 3e 54 19 ba be f2 eb 05 3f f6 46 87 3d
       0.47108454 -0.3634745 0.5231315 0.066053316
000090 c4 55 9d 3e 27 4e 2c 3e e7 94 62 3e 28 30 7b bf
       0.30729496 0.16826688 0.22127114 -0.98120356
0000a0 ab 2d 5a bf 72 4c 10 bf 3b 2e c5 bc 00 7d 0d bf
       -0.85225934 -0.56366646 -0.024069896 -0.5526886
0000b0 5e 58 78 bd 4d c5 28 bf 64 7c c6 bf e6 61 6b bf
       -0.06063115 -0.6592606 -1.5506711 -0.91946256
0000c0 e6 2d b2 3f 59 cd 4a be 63 eb de 3e 0d 12 60 be
       1.3920257 -0.19804896 0.4353896 -0.21881886
0000d0 82 c7 01 bf df 37 83 3e 8c 77 c0 3f 60 eb 14 3e
       -0.5069505 0.25628564 1.5036483 0.14542913
0000e0 23 2b 69 3d 06 aa cd 3f e8 fd 09 c0 6b 2e 77 3f
       0.056925904 1.6067512 -2.1561222 0.96555203
0000f0 e7 23 86 3f 9c 44 ba bf ed 82 d8 3f 96 ed 16 c0
       1.0479707 -1.4552188 1.6914955 -2.358251
000100 6f fd fe 3f ec f2 a8 3e cf f1 ec 3e c9 56 1b bf
       1.9921092 0.32997835 0.46278235 -0.606793
000110 dd 36 74 3e b5 8c d8 3f 31 03 a0 bf ca 82 8a bf
       0.23849054 1.691794 -1.2500974 -1.0821164
000120 30 bf f1 bf bf 64 8d bf 01 58 2f 40 d9 a7 8f 3f
       -1.8886471 -1.104637 2.7397463 1.1223098
000130 2e 05 1e c0 b8 f1 59 3f 16 47 6d 3f 9e 6c dc bf
       -2.4690661 0.8513446 0.92686594 -1.7220647
000140 ce 0c 19 bf f8 9d 24 bf ad b8 1f 40 a6 e6 90 40
       -0.59785163 -0.6430354 2.4956467 4.5281553
000150 e3 96 34 40 cb a1 97 bf 10 4c 7b bf 21 ae 8e c0
       2.8217094 -1.184625 -0.9816294 -4.458756
000160 ee 1c db 3f 89 5d 4c c0 fc 5c b0 3f 01 13 84 be
       1.7118204 -3.193209 1.3778377 -0.2579575
000170 95 58 45 3e d8 15 30 bf 62 92 5e 3e 3c ac aa bf
       0.19272073 -0.6878333 0.21735528 -1.3333812
000180 72 5f 2d 3f 81 49 7f bd d2 ac d9 3d a3 d5 bf bf
       0.67723763 -0.06232596 0.10628666 -1.4987072
000190 83 7d 10 bf a2 bc 06 bd 2c b2 a9 be eb 86 26 be
       -0.56441516 -0.032894738 -0.33143747 -0.16262405
0001a0 d6 e1 f1 bf 90 a4 f5 3f c3 dd 4e bf 8f 4c f9 3e
       -1.8897045 1.9190845 -0.8080713 0.48691222
0001b0 56 b8 91 bf b9 b9 5e be 3a 9c 94 bf 92 ca 13 bf
       -1.138438 -0.21750535 -1.1610177 -0.5773097
0001c0 1d 39 be be 0d 04 a2 bf c6 0c d5 3e 8e 91 2b 3e
       -0.3715295 -1.2657486 0.41611308 0.16754743
0001d0 23 6a 0b 3f ac e4 8a 3e 5a 04 35 c0 5f 82 b3 be
       0.54458827 0.27127588 -2.8283906 -0.35060403
0001e0 07 b8 30 bf c6 db 2a c0 69 9c ce 3f 31 af 27 bf
       -0.69030803 -2.669664 1.6141483 -0.65501696
0001f0 50 77 93 3e ca 36 bc 3f e1 91 6b bf f1 e3 2a 40
       0.28801966 1.470422 -0.9201947 2.6701624
000200 83 d8 34 3f 18 4d 08 40 e0 79 23 bf e3 15 41 3d
       0.7064287 2.1297054 -0.6385784 0.047140013
000210 85 f9 dd 3e 47 fc 4a 3e b2 04 6b 3e 6b 15 bf 3e
       0.4335443 0.19822799 0.2295101 0.37321028
000220 be 9b 06 bf 08 6a 28 3f 46 e5 92 bd 69 57 b1 3e
       -0.52581394 0.6578679 -0.07172637 0.34637
000230 bd 5f c5 3d 2a 21 94 3c 2f 31 af bc f3 36 15 c0
       0.09637401 0.01808222 -0.021385757 -2.3314788
000240 d7 06 35 3e 30 0a 29 3f 47 f8 eb bb c4 25 c6 3f
       0.1767839 0.6603117 -0.007201228 1.5480275
000250 83 53 e4 be 38 cf 0b bf e9 60 00 bf 4b 47 fe be
       -0.44594964 -0.54613066 -0.50147873 -0.49663767
000260 aa 48 d4 be fc 2d 2b bf f4 11 0f 3f 90 43 96 be
       -0.41461688 -0.6686704 0.5588677 -0.2934842
000270 be 27 43 bf fd 94 67 bf 5a 67 08 bf 02 f0 ee bd
       -0.76232517 -0.90461713 -0.532827 -0.116668716
000280 9c f2 95 ba 6c 69 1d bf e4 83 fc 3d 76 1e 95 bf
       -0.0011440101 -0.61488986 0.12329844 -1.1649921
000290 d0 12 36 3f c5 41 59 be b7 31 1e 3c eb 56 93 3e
       0.71122456 -0.21216495 0.009655408 0.2877725
0002a0 7f 43 19 bf 2a 1e c0 3e 18 87 da be b3 ef e4 3f
       -0.59868616 0.37523013 -0.42681193 1.788565
0002b0 25 cf 01 be a7 c5 87 be fc ab 45 3f 9e 05 a1 bf
       -0.12676676 -0.26517984 0.7721555 -1.2579839
0002c0 04 ca 98 3f 45 f5 01 c0 08 e4 10 3f 52 35 5c 3e
       1.193665 -2.030595 0.5659795 0.21504715
0002d0 8b 3f 3f bf b2 d2 8e 3e e4 58 5a bf e0 91 06 3d
       -0.74706334 0.27895123 -0.85291886 0.03285396
0002e0 1d 74 88 3d e8 26 22 bd 15 51 cc be 40 12 ad 3d
       0.06662772 -0.039587885 -0.3990561 0.084507465
0002f0 37 c4 20 bf 97 be c9 3d 79 2b aa be ad 72 38 3f
       -0.627994 0.09850805 -0.33236292 0.7204998
000300 c9 61 95 be 9d 00 71 3e 90 7f 57 be 97 40 f3 be
       -0.29176167 0.2353539 -0.21044755 -0.47510216
000310 de 6c 92 3e dc ba 53 3f 73 47 79 3e 2c ff b8 3e
       0.28598684 0.82707 0.24343662 0.3613218
000320 1d 2d d9 3d ab f4 c1 3f 7e 36 43 3f df f7 ef 3f
       0.10604308 1.5152792 0.76255023 1.8747519
000330 4e aa 77 40 24 d4 94 bf 0f 16 86 bf c2 8e 96 bf
       3.8697696 -1.162724 -1.0475482 -1.1762316
000340 87 8c 28 c0 bb 2f 72 bf ab 72 61 bf 2d 69 92 be
       -2.633577 -0.9460408 -0.88065594 -0.28595868
000350 6d cc 17 be 35 ff df bd 3a 6c e3 be 5f 82 4d be
       -0.14824076 -0.10937349 -0.44418508 -0.20069264
000360 6c b8 57 bf d3 00 93 bf 67 35 af be 50 56 f5 3f
       -0.8426578 -1.1484627 -0.3422043 1.9166965
000370 9e d1 c2 be a6 17 78 3d c3 71 8d be ed d2 24 3e
       -0.3805055 0.060569428 -0.27625856 0.16096087
000380 0a 8e be 3d ad da ea 3f 20 87 c6 3f 0f 59 33 bf
       0.093044356 1.8347985 1.5509987 -0.7005777
000390 2b e3 ff bf 3d a0 06 c0 b1 f1 31 40 3c a1 e9 bd
       -1.9991201 -2.1035302 2.7803767 -0.11407706
0003a0 d7 91 0d c0 16 e3 06 3e 94 d1 e7 3e 50 d1 f1 3e
       -2.2120264 0.13172564 0.45277083 0.47230005
0003b0 0e 8b 88 c0 d4 d1 a0 3e 0d 6b 00 bd 2c dc 69 bf
       -4.2669744 0.31410086 -0.03135209 -0.9135158
0003c0 a1 f6 84 be 47 be dc 3e 32 b1 a1 3f 12 2f 11 40
       -0.25969413 0.4311392 1.2632201 2.268498
0003d0 ac 1a b9 bf 92 11 5e bf b6 64 97 bf d0 26 e2 bf
       -1.4461265 -0.8674556 -1.182761 -1.7668095
0003e0 da 6b a2 3e e3 6a c7 3e 3d e7 24 be f5 90 3d 3f
       0.3172291 0.38948736 -0.16103835 0.7404931
0003f0 70 43 7f be ee 25 93 bf 6f 42 66 bf ba 83 b2 bf
       -0.24928069 -1.149595 -0.8994512 -1.394645

mlp1.0.bias f4 [150]
000000 1f 8f 12 bf 15 0e 65 bc ac af 24 3d 6d 25 96 bf
       -0.57249635 -0.013980408 0.040206596 -1.1730171
000010 9c e7 b9 3e 21 55 c1 3b 58 2e ea bf 4b 5b b9 3c
       0.36309516 0.0059000407 -1.8295393 0.02262654
000020 5f 1d 0b 40 d6 10 44 c0 ca e8 bd be cd fd cc 3e
       2.1736677 -3.0635276 -0.37091666 0.40037385
000030 2d 3b 88 bf 0e cd a0 be ff e8 72 be 5d fa b7 3e
       -1.0643059 -0.31406444 -0.23721693 0.359332
000040 9c 05 a4 bf 4c b2 be be 3f 93 f2 3e 12 6a 2c 3f
       -1.2814212 -0.37245405 0.47377965 0.6734935
000050 05 16 4b 3e 52 9f 8c bf 01 76 0f 3d b8 43 87 bf
       0.19832619 -1.0986121 0.035024647 -1.0567541
000060 11 ba 4e ba 3f 9b f7 bd 9a 8e 35 be 59 cb c0 3f
       -0.00078860024 -0.12090158 -0.1773018 1.5062057
000070 84 ab 32 3d 71 81 f1 3e 9c d8 14 bf 63 d8 f9 3b
       0.0436206 0.47169068 -0.5814302 0.0076246723
000080 7d b8 c7 bf 47 14 53 bf cc 7b 5c bf d3 16 5d 3e
       -1.5603176 -0.82452816 -0.861264 0.21590738
000090 ce 5d 06 bf 8a fc af bd 1c ba 64 3f 6d 68 fd be
       -0.52486885 -0.0859309 0.8934648 -0.49493733
0000a0 2c b9 22 c0 f7 f3 ce 3d 15 4c 2c bf 47 be 4d bf
       -2.542552 0.10105126 -0.6730359 -0.80368465
0000b0 04 51 a3 3f 38 e3 9e 3e f3 c5 06 3f 61 24 94 bf
       1.2759099 0.3103273 0.52645797 -1.1573602
0000c0 c5 65 db bd af 16 7c 3e 7b b6 a8 be 6e f8 77 3f
       -0.107127704 0.24618028 -0.32951722 0.9686345
0000d0 2b d0 28 bf c2 f7 cd bd ca 56 89 bf 47 9f b5 be
       -0.6594264 -0.10057022 -1.0729611 -0.3547308
0000e0 d6 29 0d bf 45 34 be bf 98 dd a3 be 09 86 76 bf
       -0.5514196 -1.4859701 -0.32005 -0.9629827
0000f0 c2 76 37 3e 58 1a 97 bf 3a 49 38 c0 81 1a 3e 3f
       0.17916396 -1.1804914 -2.8794694 0.7425919
000100 a3 7b cb 3f da 39 0c bf 75 ce ef bb 06 12 1e 3e
       1.5897106 -0.54775774 -0.007318313 0.15436563
000110 81 c5 14 3e d5 5c bd bd 50 5d b0 bf 42 3d ca 3e
       0.14528467 -0.09246222 -1.3778477 0.3949986
000120 6f 10 ad 3e 9c 4b 77 bd 88 33 96 3e 93 18 fb be
       0.338016 -0.06037484 0.2933619 -0.49042186
000130 d9 f2 9e be e6 15 3c 3e dd d4 58 be b3 61 03 3e
       -0.31044653 0.18367729 -0.21174951 0.12830238
000140 14 a7 2a 3f 08 8b 1b bf f8 35 d6 be 9f 23 80 3f
       0.6666119 -0.6075902 -0.4183805 1.0010871
000150 06 af 02 bf a1 11 0e 3f 82 04 95 3f 56 0f 29 bf
       -0.51048315 0.5549565 1.1642001 -0.66039026
000160 59 3f a8 be 4f f3 c6 3e 7a 3f e4 bf ff ef 44 bf
       -0.3286083 0.38857505 -1.7831872 -0.76928705
000170 61 94 97 3e b8 1c 5f be 56 6b 6b bc 00 ee 98 bf
       0.29605392 -0.21788299 -0.014368853 -1.1947632
000180 9d c8 69 3e 17 b4 c7 be 73 ca 5a bd f0 90 15 bf
       0.22830434 -0.39004585 -0.053415727 -0.5842428
000190 c8 3a 14 be f1 4b f3 bd e0 8d 6e bf 19 2a 5e 3e
       -0.14475548 -0.11879719 -0.93185234 0.21695746
0001a0 3f 79 f9 3d e3 5a ee be 30 0d 29 3f 6e d8 70 be
       0.12181329 -0.46553716 0.6603575 -0.23520061
0001b0 cb bd f1 bd a8 86 8d 3e c0 10 49 ba 3e 5c 03 bf
       -0.11803778 0.27641797 -0.00076700374 -0.51312625
0001c0 d2 84 a4 be 12 cf 97 be e7 9a d7 bc 65 41 62 bf
       -0.32132584 -0.2965017 -0.02631898 -0.88381034
0001d0 28 aa 08 be 5b 38 c4 be 1e 3e c4 3e 46 79 f4 bf
       -0.1334616 -0.38324246 0.38328642 -1.909951
0001e0 2d cd 7a be 8b e4 9d be 8e c3 e2 3f 3f b8 aa be
       -0.24492331 -0.30838427 1.7715929 -0.33343694
0001f0 3d 6e 7a 3f b6 25 ab 3d eb 46 ac bc b5 d4 79 be
       0.9782446 0.08356802 -0.02102991 -0.24397548
000200 3f aa 54 bf 0d f2 aa 3f 82 ea 96 3f 46 a5 c1 3f
       -0.83072275 1.3355118 1.1790316 1.5128562
000210 6f 0a 07 bf 16 05 1a c0 e3 78 57 bc 72 ce 56 3f
       -0.52750295 -2.4065604 -0.01315138 0.8390876
000220 50 e1 07 bf d6 84 10 40 4f 65 34 bf 95 e6 28 be
       -0.53078175 2.2581077 -0.70467085 -0.1649421
000230 da 53 f1 3e ab 4e d6 bd 72 49 3d bf 03 2b e1 3e
       0.47134286 -0.104642235 -0.73940194 0.43978128
000240 e5 cf 5d 3f 87 57 0e c0 e8 7c 4e 40 be 91 f4 be
       0.86645347 -2.2240922 3.2263737 -0.47767442
000250 bc 52 5b bf 78 3d ea bd
       -0.8567312 -0.114375055

mlp1.2.weight f4 [100, 150]
000000 57 bd a6 3e 2f 53 0e bf 4c f7 28 3c 5b 7d 3b be
       0.3256633 -0.5559568 0.010312866 -0.18309538
000010 ed 49 bb 3e 29 18 b1 be b5 80 7b be 8a a4 e2 3e
       0.36579838 -0.34588745 -0.24560817 0.44266158
000020 de e3 9f 3e 47 aa dc 3e 78 e8 1e 3e ee bb 0f 3e
       0.31228536 0.4309866 0.15518367 0.14036533
000030 85 48 7f 3e 94 cf e2 be a2 26 86 3e d4 53 0d bf
       0.24930008 -0.44298995 0.2620135 -0.55206037
000040 8a 41 fc 3e 95 00 50 3b 6a 66 c4 bd a6 6b b8 3e
       0.49268752 0.0031738628 -0.095898464 0.3601963
000050 7d 16 89 3e ff 40 a1 3d c3 a4 16 bd df e1 0b 3f
       0.2677497 0.07873725 -0.036778223 0.54641527
000060 1b 43 04 be e5 37 43 3e 6d df c9 3e b8 f0 1a bf
       -0.12916224 0.19064291 0.39428273 -0.6052356
000070 c3 17 1a bf 10 4c 2f bf 26 12 de be 8b eb 1c bf
       -0.6019251 -0.6847544 -0.4337322 -0.6129691
000080 42 45 ae bd e9 74 15 bf 74 ae d3 be 0f 15 50 be
       -0.08509304 -0.58381516 -0.41344035 -0.20320533
000090 64 58 85 3f 00 0f 9d 3b 68 77 f1 be 33 7d 6c be
       1.04176 0.004793048 -0.47161412 -0.23094635
0000a0 02 2c 07 3f 13 14 78 3f cd eb dd 3e 33 5b 8f 3e
       0.52801526 0.9690563 0.43343964 0.27999267
0000b0 f1 61 ae bf 0a 98 35 be 8a 9e 32 bc 8f 11 34 3f
       -1.3623639 -0.1773378 -0.0109020565 0.7033929
0000c0 4e 04 1c be 2e 88 4e 3f ed ff 81 bc 2e e6 04 bf
       -0.15236017 0.80676544 -0.015869105 -0.51913726
0000d0 09 02 c6 be 80 bc 2e ba e1 ae 8a 3e 5e 96 97 bf
       -0.38673428 -0.0006665662 0.27086547 -1.1842763
0000e0 99 29 a3 3f c0 3f 05 bf de ab ef be 86 b4 41 be
       1.274707 -0.520504 -0.46810812 -0.1891652
0000f0 f7 9b 2e bf 00 33 00 bf a6 c1 47 3f a2 db 93 bf
       -0.68206733 -0.5007782 0.7802986 -1.1551402
000100 14 b3 d6 3d 28 03 c4 be d1 80 8c bc a6 d2 25 bd
       0.10483375 -0.38283658 -0.017151268 -0.040484093
000110 dc 7d 03 3e 37 c6 a7 be bc b5 3c bf ff 76 05 3e
       0.1284098 -0.32768413 -0.73714805 0.13033675
000120 d3 3d 81 3f 68 d1 08 be c6 32 90 bc 36 59 8c bd
       1.0096992 -0.13361132 -0.017602336 -0.06852953
000130 97 47 1f bf a9 06 75 be 65 4b ee bb 17 7b 20 3f
       -0.6221861 -0.23928322 -0.0072721713 0.6268782
000140 23 72 5c bd 32 31 f8 3e be 3d 51 bd 54 e6 85 be
       -0.053819787 0.48475033 -0.051084273 -0.2615229
000150 2c db ef 3b 7a f5 8f be c2 2d 17 3f f2 ca 91 3e
       0.0073198285 -0.2811697 0.59054196 0.28475147
000160 42 d8 22 3f 6d 84 2e 3f 9e 81 9e bd fe f5 8b bf
       0.63611233 0.68170816 -0.07739566 -1.0934446
000170 a5 97 5f bf 9b 29 cb 3c 80 7a 26 be ef 52 36 be
       -0.87340766 0.024800112 -0.16257668 -0.17805074
000180 91 c9 5b be 32 4a 8e be 84 c8 d6 be e3 83 ef 3c
       -0.2146361 -0.27790982 -0.41949856 0.029237693
000190 c0 f6 c4 be d3 23 c1 3e 3b 21 34 bf 44 9a 97 3d
       -0.38469505 0.37722644 -0.70363206 0.07402471
0001a0 c6 c2 c0 be 95 27 f8 3d 2a 37 e3 bf 7e 55 00 bd
       -0.376486 0.12116925 -1.775121 -0.03133153
0001b0 92 1c d6 3d b0 80 05 bd b7 d1 04 bf cb 9f 9c bd
       0.10454668 -0.03259343 -0.518825 -0.076476656
0001c0 20 96 ad 3c fd 01 ec be 01 39 cc 3d cb 47 e1 be
       0.02118975 -0.46095267 0.0997181 -0.44000086
0001d0 a0 ac 02 3e b5 58 0e 3f 23 35 0c 3d f1 34 09 be
       0.12761164 0.55604106 0.034230363 -0.13399102
0001e0 58 f0 2d bc 07 be 48 3e af ce 80 3f ac b2 a0 bf
       -0.010616384 0.1960374 1.0063075 -1.2554526
0001f0 45 d0 12 be af d1 78 be 9b b4 14 3e 40 c7 55 3d
       -0.14337261 -0.24298738 0.1452202 0.052191973
000200 28 c9 c2 3e 9d 08 6d be 11 d7 a1 bf 70 50 94 3e
       0.38044095 -0.23147817 -1.2643758 0.2896762
000210 01 3b 9b be 83 8d 50 bf 7f 1a 5d be 32 23 d4 bd
       -0.30318454 -0.8146593 -0.21592139 -0.103582755
000220 2f 45 c1 3e 48 d1 8c bf 0f e0 65 bf 6c 00 12 bf
       0.37748095 -1.1001368 -0.8979501 -0.57031894
000230 88 f0 5e 3e 50 c0 a8 bd 68 3c 5c 3e e0 20 c5 bf
       0.21771443 -0.08239806 0.21507418 -1.5400658
000240 db b2 9e be ae 57 48 3e 85 ec 51 bd 36 2f e2 be
       -0.3099583 0.19564697 -0.051250953 -0.44176644
000250 63 d5 14 3f f6 46 f9 ba 1e 1c 47 be 99 a9 9d be
       0.581381 -0.001901834 -0.1944432 -0.30793455
000260 f1 da e1 3e 82 e7 f5 bd 66 c0 03 3e 40 e2 9c 3d
       0.44112352 -0.12007047 0.12866363 0.07660341
000270 09 08 96 be f9 e0 ad bd c3 5b 5c be 93 e3 8e be
       -0.29303005 -0.08490176 -0.2151938 -0.27908
000280 04 19 e3 3d 26 dd 72 bd 1d 22 6f 3e 7a 5d f8 3e
       0.11088756 -0.059292935 0.23352857 0.48508817
000290 f0 03 df 3c cf a8 a1 3d f6 f1 0e 3f fe 70 26 be
       0.027223557 0.07893526 0.55837953 -0.1625404
0002a0 ce 56 5a 3d a7 f0 2c be 94 31 50 bf 1d df 86 be
       0.05330544 -0.16888677 -0.8132565 -0.26342097
0002b0 01 74 72 bc 68 02 df 3e df 13 16 bd b5 91 b0 bc
       -0.014798165 0.43556523 -0.036640044 -0.021553854
0002c0 3e 99 ff 3e 43 00 52 3e 28 38 10 be 48 a4 d7 be
       0.49921602 0.20507912 -0.14083922 -0.42117524
0002d0 fa 17 25 bf 8f 71 3d 3b 7c 1f 92 3f 25 80 73 bf
       -0.6448971 0.0028906798 1.1415858 -0.9511741
0002e0 4c 1a 26 3e ac 63 50 be 11 83 d2 be 2e 52 29 3d
       0.16220969 -0.20350522 -0.4111562 0.04133814
0002f0 de 45 42 bf 90 d1 17 be 35 b6 48 3e 2f fb 06 bf
       -0.7588786 -0.14826035 0.19600756 -0.52727026
000300 bd e6 10 be 45 92 7c 3f 85 e2 71 be 94 8d 43 3e
       -0.1415052 0.9866069 -0.23621567 0.19096977
000310 f1 a5 08 bf 8f 74 d6 be c9 3f 0a ba 08 b1 83 be
       -0.53378206 -0.41885802 -0.0005273787 -0.25721002
000320 05 26 8e bf 34 b3 96 bd 70 19 8d be e0 41 43 3c
       -1.1105353 -0.07358399 -0.2755847 0.011917561
000330 ac b2 b2 3c 9b 7a 51 be f8 71 07 bf 65 f2 56 be
       0.021813713 -0.20456927 -0.5290828 -0.20990904
000340 7b e9 86 3e b4 f1 87 3c 36 56 e2 be 15 36 23 bc
       0.26350006 0.016594745 -0.442064 -0.009961625
000350 9e fd 2a be d2 a3 a8 bd 0c 30 91 be 17 a2 37 3f
       -0.1669831 -0.08234371 -0.2835697 0.71731704
000360 98 67 0a bf 61 6b 63 3d 6e 58 7a bf c8 c7 5c be
       -0.5406432 0.055522326 -0.97791183 -0.21560585
000370 bf 40 be 3e a5 6b b7 bd c5 d8 14 bf 3c c8 32 be
       0.37158772 -0.089560784 -0.58143264 -0.17459196
000380 eb c4 02 be 0e 4d ab bd 50 a8 ea be 77 d6 01 bf
       -0.1277043 -0.083643064 -0.45831537 -0.5071787
000390 c8 14 1d bd 76 22 2e bf 8c 92 b7 be 37 b7 03 bf
       -0.038349897 -0.68021333 -0.35853994 -0.5145144
0003a0 41 56 82 be 41 f4 62 be 5b 2a ff bd 74 32 3e bf
       -0.25456432 -0.22163488 -0.124592505 -0.74295735
0003b0 e0 14 7b bf 1e a2 28 3f 23 34 3f bf c4 82 02 bf
       -0.9807873 0.6587237 -0.7468893 -0.5098078
0003c0 1e 8b 03 bf 18 ac e7 3e 90 a2 a4 be 75 c7 69 3e
       -0.5138415 0.45248485 -0.32155275 0.22829993
0003d0 b0 f2 57 3e fe 8f 81 3e 5a 83 31 be e8 6d 5d 3e
       0.21088672 0.2530517 -0.17335263 0.21623957
0003e0 2f 3f 40 bf ef 30 0a 3e 54 c3 dc be 9a ba d3 be
       -0.7509641 0.13495229 -0.43117774 -0.41353303
0003f0 70 5e 5e bf 73 a6 1d be c8 1c 04 3f 69 8d 30 bf
       -0.8686285 -0.15395527 0.51606417 -0.68965775

mlp1.2.bias f4 [100]
000000 cf 2c 81 bf 9d 41 04 c0 3f 03 c4 be 3a 78 13 bf
       -1.00918 -2.0665047 -0.38283727 -0.57605326
000010 51 28 53 3d c1 20 a6 3f c4 e6 43 bd 2e 50 41 3d
       0.05155212 1.2978746 -0.047827497 0.047195606
000020 48 30 95 bf af 00 29 be 54 1a a1 bf 95 46 02 bf
       -1.1655359 -0.16504167 -1.258616 -0.5088895
000030 4f 26 e8 be 43 26 9a 3b 58 01 a7 3e 14 b2 b4 bd
       -0.45341727 0.004704268 0.32618213 -0.08823028
000040 9a 79 86 3d ba 9d 3b 3f 98 eb 3b 3f 10 50 cc bc
       0.065661624 0.73287547 0.7340636 -0.02494052
000050 ef cf b0 bf 1e 49 15 bd 23 cf 25 bf d9 54 0c 40
       -1.3813456 -0.036446683 -0.6476919 2.1926787
000060 41 4f 50 bf 46 8f 89 bd df 38 06 bf be 9b ac 3d
       -0.8137093 -0.0671678 -0.5243053 0.08428143
000070 7a 1a b4 bd 7e 8e a2 3d 49 ce f1 be 74 bb 68 bf
       -0.087941125 0.079373345 -0.47227696 -0.9091103
000080 11 40 db be 10 41 13 3e 0b f4 20 be bd ee 85 be
       -0.42822316 0.14380288 -0.15718095 -0.26158705
000090 da 44 87 bf 56 71 ad bc 2f 0b 53 bd 04 cf e9 be
       -1.0567887 -0.021172207 -0.051524337 -0.45665753
0000a0 28 00 67 bc f9 98 05 bf 65 2b b9 3d c6 af 2e 3a
       -0.014099158 -0.5218654 0.0904148 0.00066637655
0000b0 f6 b2 89 bf 2a d5 15 bf 0a 79 fd be e7 23 95 bd
       -1.075774 -0.5852839 -0.49506408 -0.072822385
0000c0 8c 64 a9 3f 11 4c 8e bd d8 b9 dd 3f fa c4 6a 3d
       1.323381 -0.06948102 1.732234 0.057316758
0000d0 b2 14 78 be d3 33 31 bf 9a a6 c6 3e ed 15 72 3f
       -0.24226645 -0.692197 0.38798982 0.94564706
0000e0 e1 25 95 bf 43 d0 bf bc 0b 7d 7d be 4f 94 b2 3b
       -1.1652185 -0.023414737 -0.24754731 0.0054498087
0000f0 6b 7e 77 3e 04 d0 d4 bf 90 24 68 bf 09 98 95 bd
       0.24169318 -1.6625981 -0.9068079 -0.07304389
000100 c3 b5 c6 bf 05 aa f3 bb 1f d7 8f bf 6c 03 ff be
       -1.5524219 -0.0074360394 -1.1237525 -0.49807298
000110 f1 c1 31 3d f1 ae 38 bf 78 b5 a5 3c b5 43 ba 3e
       0.043397848 -0.7214194 0.020228133 0.3637978
000120 84 21 a6 3e c4 5f d5 bd 2b cc 16 bf 48 4f b7 be
       0.32447445 -0.104186565 -0.58905286 -0.35802674
000130 0d 84 86 3d 73 e1 6b be 6b b6 46 bd d9 e0 72 3f
       0.065681554 -0.23035221 -0.04851381 0.9487434
000140 b7 de 50 3f 58 d6 84 bd 66 39 e2 bf 2f 5e c8 3d
       0.81589836 -0.06486195 -1.7673767 0.09783589
000150 0d 73 26 3f 78 4d e0 3d 24 2e 5e bf 4b 4f 9c 3c
       0.65019304 0.10952276 -0.86789155 0.019080779
000160 e1 57 d9 bf 47 44 a6 bd cc 6e 9e be 1a 34 d0 be
       -1.6979944 -0.081184916 -0.30943906 -0.4066475
000170 d4 c3 ad 3e 82 6c b7 bd f0 55 a9 bd c4 04 d4 3e
       0.33938468 -0.08956243 -0.082683444 0.41409886
000180 3a ab 8d bf 76 07 ff bc bf 92 07 3e fd cc 92 bf
       -1.1067879 -0.031131487 0.13239573 -1.1468807

mlp2.0.weight f4 [100, 100]
000000 4a d5 34 bf 9b 0e 58 be 30 6b 4a bf ae c2 28 bf
       -0.70637953 -0.21099322 -0.79069805 -0.6592206
000010 47 72 24 bf f5 69 81 bf 9f 4d 29 3e 74 bc 4d be
       -0.64236873 -1.011046 0.16533516 -0.2009142
000020 ad c7 0f be 7b 23 43 be 71 36 32 be e7 e2 1c bb
       -0.14041014 -0.19056503 -0.1740358 -0.0023938955
000030 de 55 0e bf 1c 93 13 3c 7d 43 f9 be d6 63 47 bd
       -0.5559977 0.009007242 -0.48684302 -0.048679195
000040 21 c1 a4 bd eb d3 4f be c7 ec b2 bb ba 04 17 bd
       -0.08044649 -0.20295684 -0.005460355 -0.036869742
000050 d9 0f 67 be 17 b5 c3 3c b0 bd 42 3d b2 f2 3b bf
       -0.22564639 0.023890061 0.04754418 -0.734172
000060 2f 51 f5 be 69 64 8c 3d 49 59 21 bf af 73 da 3c
       -0.479135 0.06855089 -0.63026863 0.02666649
000070 a9 0c 9a 3b fb 0c 3e bd 4e 02 d7 3e ed e7 1a be
       0.0047012162 -0.046399098 0.41993946 -0.15127535
000080 ce 4f 66 3d 11 88 16 3f d3 d6 df 3d 82 65 28 bd
       0.05622845 0.5880137 0.10929646 -0.04111243
000090 e5 1f 8a bc 49 21 8c bc 2b e8 89 be 70 33 44 be
       -0.016860912 -0.017105715 -0.26934943 -0.19160247
0000a0 be be c0 be 77 08 ae be 48 87 94 be 62 ec 64 3e
       -0.37645525 -0.33990833 -0.2900946 0.22355798
0000b0 d4 ca 1c 3d 22 50 af be e2 9b 1a 3e e1 46 28 bf
       0.03827937 -0.34240824 0.15098527 -0.6573315
0000c0 ae e4 28 be 33 9d df 3c 27 c0 36 3c 8b 8c 3c 3f
       -0.16493484 0.027296638 0.011154211 0.7365195
0000d0 7e f8 14 3d 7d 29 1a bf 29 89 7b bf 22 31 35 3d
       0.036369793 -0.60219556 -0.98256165 0.04423631
0000e0 3b ba 95 3d f8 84 30 3f 0e 4b ee 3d 98 92 fd 3d
       0.07310911 0.68952894 0.11635409 0.12381476
0000f0 2e 75 20 3e 28 fc 01 bf 8c ce 9a bf ff 22 80 3d
       0.156697 -0.50775385 -1.2094283 0.06256675
000100 ed f7 86 3e a0 9b c6 bd fa 9b ed bd 79 c0 e4 be
       0.26361027 -0.09697652 -0.11602016 -0.44678095
000110 f5 c6 0b bd 87 bb e7 3e 2c 4c 81 3d 2f 8d 57 be
       -0.034125287 0.4526026 0.06313357 -0.21049951
000120 a1 72 97 3e f0 dd 58 3f 14 13 c2 3a de 8d 60 3e
       0.29579642 0.8471365 0.0014806711 0.21929118
000130 4a 2b 45 3e 28 56 05 3e 41 bd 9f bd 21 96 2b bf
       0.19254795 0.13021147 -0.07799769 -0.67025954
000140 44 23 31 be 82 ee 3b bd 18 5f 45 bf 2c 29 10 be
       -0.17298609 -0.045881756 -0.77098227 -0.14078206
000150 51 db dd bd 62 54 39 bf 84 d5 96 3e 48 9c 51 bd
       -0.10832847 -0.7239438 0.29459774 -0.051174432
000160 51 cd 74 be f0 6c 6a bd e8 5f ab 3d e2 c4 29 3f
       -0.23906447 -0.057232797 0.08367902 0.66316044
000170 47 52 5c be 49 fa 43 be 12 97 44 bf ad 02 fb 3e
       -0.21515761 -0.19138445 -0.76793015 0.4902548
000180 20 f1 c2 39 79 87 8b 3d 44 2c 99 3e 0f 7f 6c bf
       0.00037182216 0.06812949 0.29916584 -0.92381376
000190 16 9f 89 be 69 6b 11 be 95 d5 c1 bd 00 b1 23 bf
       -0.26879185 -0.1420113 -0.09464566 -0.63941956
0001a0 09 bf 9b be 90 83 b5 3e 1e 0f 22 3d 7f 81 f7 3b
       -0.30419186 0.35451937 0.039565198 0.007553279
0001b0 25 ef f1 be 1f 43 b7 be 2c 8f cf bc cd 89 2e 3f
       -0.47252765 -0.35793397 -0.025336824 0.6817902
0001c0 ca 88 d0 be 6e 3c 7b bd 25 59 38 bf 4e 07 1c be
       -0.40729362 -0.061336927 -0.72011024 -0.15237162
0001d0 c0 85 b0 bd ff 9d ce be 42 06 41 be 02 79 a6 bd
       -0.08619261 -0.40354916 -0.18850043 -0.08128549
0001e0 72 76 2b bd ff 1a 88 bc e2 e6 a9 be cc 46 e0 bc
       -0.041861005 -0.016614435 -0.33183962 -0.027377509
0001f0 86 28 d1 bd e2 f3 25 bd d7 6b 39 3e 07 21 42 3d
       -0.10212807 -0.040515788 0.18107544 0.04739478
000200 87 15 83 3d 39 c4 f6 be 90 04 97 be 44 44 dd bc
       0.064005904 -0.4819658 -0.29495668 -0.02701009
000210 b6 a3 c4 be 8c 80 5e be 17 61 8d bd d1 6a 4d bd
       -0.38406152 -0.21728724 -0.06903284 -0.050150696
000220 92 c6 eb be 4f f1 91 bb 45 71 55 3f 40 f2 3c 3d
       -0.46049935 -0.004453815 0.8337596 0.046129465
000230 bb ba d6 bd 56 19 11 be 5f c5 6b be 48 17 ae bc
       -0.10484835 -0.14169821 -0.2302451 -0.021251336
000240 76 3c e0 be 7b 16 85 bf 3d 07 d7 bd ba 77 ec 3e
       -0.43796128 -1.0397485 -0.104994275 0.46185094
000250 61 21 97 bf 5b 4c 50 bd 6b 8b be be b2 f6 c1 bd
       -1.1807061 -0.05085407 -0.37215742 -0.094708815
000260 37 68 0f be cf 92 e1 be aa 90 39 be c0 4d 0c bf
       -0.14004599 -0.4405732 -0.18121591 -0.5480614
000270 ba 4e 68 be 44 c5 7c be 74 59 35 bd 67 be aa bd
       -0.22686282 -0.24684626 -0.044274762 -0.083370976
000280 a2 00 cc bd f1 ba 52 be 3e 16 ce bd 60 d9 de 3c
       -0.09961058 -0.20579125 -0.10062836 0.027203262
000290 f8 cd 0e bf 87 40 5d bc e3 1a 02 bd 22 18 ac 3d
       -0.55783033 -0.013504154 -0.031763922 0.084030405
0002a0 5f 96 0e 3d d6 4d 28 bf 1f 04 60 bd d5 e8 b2 bc
       0.034811374 -0.6574377 -0.05469143 -0.021839539
0002b0 dc 53 5d be bd 4d 0a be c4 fb ac bf 78 26 c3 bd
       -0.21614021 -0.13506217 -1.3514333 -0.09528822
0002c0 23 63 95 3b 34 14 6e bf a8 84 8d bd 65 70 86 be
       0.004558937 -0.9299958 -0.06910068 -0.26257625
0002d0 b5 42 65 be 5a cf 52 bd c6 95 7b 3e 80 69 bf 3d
       -0.22388728 -0.051467277 0.24568853 0.093462944
0002e0 ee 3f 42 3f 5f 22 dc 3d c6 78 88 3e 91 b6 07 3d
       0.758788 0.10748743 0.26654643 0.033133093
0002f0 6c 84 3b 3c dd 84 42 ba 7d b8 c3 3c 70 f7 88 3d
       0.011445146 -0.0007420311 0.023891682 0.0668782
000300 58 19 52 be ea e9 0c bd 9f 48 51 bf f6 03 26 bf
       -0.2051748 -0.034402765 -0.81751436 -0.64849794
000310 1b 11 b0 be df 1f 0f ba e3 85 0f 3f 20 36 44 bf
       -0.3438805 -0.0005459766 0.5606367 -0.7664509
000320 bc 83 12 bf e1 73 03 be 61 a0 b9 be 06 eb 3b be
       -0.5723226 -0.12837173 -0.36255172 -0.18351373
000330 9c 5c c1 bd 87 4d c5 bc 9a b6 0d 3c a8 a6 95 bd
       -0.09441492 -0.02408482 0.008649493 -0.07307178
000340 b3 07 6d bf a2 39 c7 be 0c 73 a7 bb 7a 62 f6 3d
       -0.92589873 -0.38911158 -0.00511015 0.12030502
000350 e5 1c a4 be 7a 07 d2 3c 77 14 77 be 66 fd 4b bd
       -0.32053295 0.02563833 -0.241289 -0.049802206
000360 c8 dd 45 3c e0 ad bc be 8b 27 e6 be 10 0e 30 bd
       0.012076803 -0.36851406 -0.44952044 -0.04298216
000370 b4 6e bb 3c 5c 9f 87 bd 0e 0d 45 be 3e 17 d6 be
       0.022879936 -0.06622192 -0.19243261 -0.41814607
000380 9e c3 b2 bd 86 b4 62 3d 7b 7a ab bd e1 5d 53 3d
       -0.08728717 0.05534794 -0.08372971 0.0516032
000390 1b 3c b2 3d af 1b 00 3e e7 ef 8c be 5a 93 0d 3c
       0.087028705 0.1251056 -0.2752678 0.008641088
0003a0 0b 7c 08 be 0f e0 fb bd 75 a0 1f be 96 db e0 3d
       -0.13328569 -0.12298595 -0.15588553 0.10979383
0003b0 8e 06 e7 be 08 c3 ae 3d cc 9e b0 3e ea 09 0b be
       -0.45122188 0.08533293 0.34496152 -0.13578
0003c0 15 f9 9e be 5a 47 8a 3b cc 0d cc 3d f3 5e 76 bd
       -0.3104941 0.0042199316 0.09963569 -0.060149144
0003d0 38 85 d4 bd b3 50 96 be 13 b8 72 bd 30 db 81 3e
       -0.10376972 -0.29358444 -0.059257578 0.2536254
0003e0 43 04 20 bf 48 7c 25 bd 25 44 9a be 00 fd 57 be
       -0.625065 -0.040401727 -0.30130115 -0.21092606
0003f0 4e 9b b3 bd f5 96 81 be 7c 54 fa bd 9d 2e bc be
       -0.087698564 -0.25310484 -0.12223145 -0.36754313

mlp2.0.bias f4 [100]
000000 40 80 89 3f 40 b1 15 bf 96 86 19 bf c6 81 2b 40
       1.0742264 -0.5847359 -0.59970987 2.6797957
000010 bc 1d a6 bf d5 17 93 3e 58 b0 85 3f 07 35 1d bf
       -1.2977824 0.2872912 1.0444441 -0.6140904
000020 b4 c0 f8 3d c9 ee e7 bd 6a 07 c5 be 57 db 30 be
       0.1214613 -0.113248415 -0.3848222 -0.17271172
000030 8a 76 52 be bb 90 11 be 9c e9 73 be a1 cc 55 3c
       -0.20553032 -0.14215367 -0.23819584 0.013049276
000040 fa 6d a2 3d 67 82 25 bb a7 d2 c2 40 96 00 0c 3f
       0.079311326 -0.0025254728 6.0882144 0.54688394
000050 8c f2 51 bd b3 f2 7e be 8f 35 9d be dd 2d 71 be
       -0.0512567 -0.2489727 -0.30704924 -0.23552652
000060 04 8c bc be 8c 8b 21 3e 13 12 37 be 04 d7 ab bd
       -0.36825573 0.15775889 -0.17877989 -0.0839062
000070 3a 92 23 bf 0d 70 30 40 7a 0f f7 be 23 95 b0 be
       -0.63895 2.756839 -0.48253995 -0.34488782
000080 18 33 aa be af f5 e2 be 72 b2 c9 be d8 eb be be
       -0.33242106 -0.44328067 -0.39393955 -0.3728931
000090 df 2c 06 3e f0 b4 b7 3f 38 bb 45 bd 0c c3 db bd
       0.13103054 1.4352093 -0.04827425 -0.107305616
0000a0 f4 bf 35 3d c1 8d 26 be 71 61 0f bf 92 d6 0a bf
       0.044372514 -0.16265012 -0.5600806 -0.5423366
0000b0 92 b0 e1 bd 53 3e fa bd 8f ba 7c be fb b5 0c be
       -0.11020006 -0.12218919 -0.24680541 -0.13741295
0000c0 08 12 0f 3f 9a 93 b9 3f 42 81 b9 be ba 2a 38 be
       0.5588689 1.449817 -0.36231428 -0.17985049
0000d0 df 0a 94 bd 54 3b 13 c0 88 6c 75 be 7a f5 63 40
       -0.07228636 -2.300496 -0.23967183 3.5618577
0000e0 f2 c8 a3 3e f0 14 3a be ca 1f c2 3d 56 ab ce bc
       0.31989247 -0.1817205 0.094787195 -0.025228184
0000f0 70 cd a7 bf 90 c8 e5 bd cc 5e 5f be 79 5f a8 be
       -1.310957 -0.11219895 -0.21813506 -0.3288534
000100 e4 08 78 bd 26 79 8d be a7 9c 6a 3f 13 16 5c be
       -0.060555354 -0.2763149 0.9164528 -0.21492796
000110 94 4e 36 be 1c 92 97 be bf 20 67 40 18 41 65 bd
       -0.17803413 -0.2960366 3.6113737 -0.05597028
000120 fb f0 6e be cf 54 88 be 6a 7e d3 3f aa 7e c4 bd
       -0.23334114 -0.26627204 1.6522954 -0.09594472
000130 cb 7d 25 bf 35 fc 1e 40 96 8d cc be d4 b1 b0 bc
       -0.6464507 2.4841435 -0.39951771 -0.02156917
000140 f2 d0 1c 3d 83 f0 0a be 0e 9d f8 bd 0e a0 d6 bd
       0.038285203 -0.1356831 -0.12139331 -0.10479747
000150 bc 6c fd 3e a2 2f 9c 3e d0 68 88 bf 34 a7 3b bf
       0.4949702 0.3050509 -1.0656986 -0.73302007
000160 f7 7e a7 bc 23 de 27 be bf 66 b5 be d5 95 a7 bd
       -0.020446284 -0.16393332 -0.35429952 -0.08182875
000170 4e 20 54 be ab 55 21 bf 40 8c e8 3f 67 3b d7 3d
       -0.20715448 -0.63021344 1.8167801 0.10509377
000180 7e d9 aa 40 99 0d b2 bf 2e d5 47 3f 4f a3 0a bf
       5.3390493 -1.39104 0.7805966 -0.5415544

mlp2.2.weight f4 [50, 100]
000000 1c 52 6e 3e f5 87 43 bc c5 ea 13 3e 49 3a 94 be
       0.2327351 -0.01193427 0.14445026 -0.28950718
000010 df 80 1d 3e 0b bd 2a bf d0 31 29 bd 33 f2 aa 3d
       0.15381192 -0.66694707 -0.04130727 0.08346977
000020 fd e1 0d 3e a9 e7 9e be 0e 75 ab bd b1 ab 89 be
       0.13855739 -0.31036118 -0.08371936 -0.26888803
000030 27 1d 0f 3e fd ab 3b be ea 4e 22 be 99 d1 27 be
       0.13975964 -0.18327327 -0.15850416 -0.16388549
000040 10 78 81 3e 35 94 77 3c f6 a7 a3 be 35 36 bb bd
       0.25286913 0.015111019 -0.31964082 -0.091411985
000050 89 5f 96 bd e5 f9 e6 bc b3 43 98 bc ed 98 b4 3d
       -0.07342441 -0.02819533 -0.018586969 0.08818231
000060 7c e5 a3 be b2 82 be bd 7e 5b 05 3e ce b3 53 be
       -0.3201102 -0.09302272 0.13023183 -0.20674059
000070 c6 cb 91 be 98 74 b6 be d0 1f 27 3e da ce 1d bd
       -0.2847578 -0.3563583 0.1632073 -0.038527347
000080 cc 9c 45 3d c9 96 81 3c 9a 67 90 3e 17 5e 79 3e
       0.048245236 0.01581897 0.28204042 0.24352299
000090 e4 fa 70 bd d5 51 12 be 57 5e 97 3e 6f 56 85 be
       -0.058833018 -0.14289029 0.29564163 -0.26042506
0000a0 38 9c 76 3e 2a 6d 80 be f3 60 63 3d d2 28 7c be
       0.2408303 -0.25083286 0.05551238 -0.24624947
0000b0 f2 b8 42 3e 2e 6c b0 3e 70 9e b6 3e 31 4c 36 3e
       0.19015864 0.34457535 0.35667753 0.17802502
0000c0 73 b2 a3 3d 49 23 2e be 8e 82 cd 3d c7 b4 98 3e
       0.07993021 -0.17005648 0.10034667 0.29825422
0000d0 a3 a3 59 3e a4 51 be be da 74 9f 3d f3 26 89 3d
       0.21253829 -0.37171662 0.077859595 0.06696882
0000e0 94 37 1d bd 51 5d 00 3d 23 ad e1 bd b4 f1 78 be
       -0.03838308 0.031338993 -0.11019351 -0.24310952
0000f0 88 d6 9f be a7 7f 85 bd f8 1a 97 3c ba 94 27 3e
       -0.31218362 -0.065184884 0.018445477 0.16365328
000100 85 82 a5 3e 52 c0 a0 bd f1 a6 dc bd d0 76 17 3f
       0.3232614 -0.07849182 -0.10774029 0.5916567
000110 87 86 f8 bd df 4e 93 be f7 bf 5e 3d 88 f6 3a be
       -0.12135034 -0.2877111 0.05438229 -0.18258107
000120 69 c3 86 3e 73 be cd 3e 1e 10 a3 be a4 38 9c 3d
       0.2632096 0.40184364 -0.31848234 0.07627991
000130 77 e8 54 bc 78 74 61 bc 75 0d 28 3d 31 26 c2 be
       -0.012994877 -0.0137606785 0.04102846 -0.37919763
000140 78 05 07 3e 83 93 4b be bf 9a 28 bf 23 95 61 3e
       0.1318568 -0.1988049 -0.65861124 0.22029547
000150 8b df 42 3e d8 02 67 be 7d cc 12 be 9f 9e a7 bc
       0.19030587 -0.22559679 -0.14335819 -0.020461379
000160 9a 8f 94 bd a6 48 d3 bd 16 d7 ff 3d d7 8a 74 be
       -0.07253952 -0.10316591 0.12492196 -0.23881088
000170 ae 5a 0f bc e3 9b c6 3e b5 59 5d bd 84 45 97 bd
       -0.008749647 0.38790807 -0.05404063 -0.07386306
000180 55 45 37 bd e7 c1 6f 3d c9 f0 99 3e e1 49 94 3e
       -0.044743855 0.05853453 0.30066517 0.28962615
000190 cb e2 db bd ad aa 3f bd cd fc a4 be cd ca 0b 3e
       -0.10736617 -0.04679363 -0.32224122 0.13651581
0001a0 81 df 06 3e 76 e9 1b 3e aa bc 9b 3d 5e 50 b6 bd
       0.13171197 0.15225777 0.07604344 -0.089020476
0001b0 94 c5 73 be 6f 24 c4 3e 87 ef 5b 3e bf 0a a2 be
       -0.23805839 0.38309047 0.21478091 -0.31648824
0001c0 17 ed 0a 3d 13 69 4d be c7 38 89 be dd b5 d8 bd
       0.033917513 -0.20059614 -0.2680113 -0.10581563
0001d0 cb 2f ab bd b7 d9 6f be 9a cf 0c 3e 15 ec 3d 3e
       -0.08358725 -0.23422895 0.13751069 0.1854709
0001e0 44 0d 92 3d 7d 50 8b bc 31 b0 89 be 3d 2a 39 be
       0.071314365 -0.017006153 -0.26892236 -0.18082519
0001f0 cb 84 2d bf 22 c7 b6 bd 15 eb ba 3d ee 65 a3 3e
       -0.6778075 -0.089247 0.091268696 0.31913704
000200 7a 80 6d bd da 6d 00 3e e9 52 bb be 65 f3 50 be
       -0.057983853 0.12541905 -0.36586693 -0.20405348
000210 c9 0d 74 be 88 3f f8 be e5 b3 9c 3d 35 6c e6 bd
       -0.23833384 -0.4848597 0.076515 -0.112511076
000220 e9 dc cb be 96 eb 8c 3e 80 6c ca be 33 33 e9 3e
       -0.3981698 0.27523488 -0.39535904 0.45546874
000230 da e7 02 be e4 c5 95 bd 87 06 92 be cf c9 9a 3d
       -0.12783757 -0.07313135 -0.28520605 0.07558023
000240 e7 a1 88 be 98 fa 58 be 0a 1a ed 3d 1a e5 83 be
       -0.26686022 -0.21189344 0.11577232 -0.25760728
000250 f2 9f 14 3e 2a e6 c9 3d ee 68 a1 3d 11 5d f9 3e
       0.1451414 0.098583534 0.07881342 0.48703817
000260 21 2a 18 bd d4 76 aa be 57 3a 96 3e b4 9d ab be
       -0.037149552 -0.33293784 0.29341385 -0.33518755
000270 a0 66 76 3d de 27 e5 bb 9e e8 91 3e 87 6e 5b bd
       0.060156465 -0.006993278 0.28497785 -0.053572204
000280 92 bb f5 3d 45 ac 71 bd c4 66 98 bc 6a 52 b1 3d
       0.11998667 -0.05900218 -0.01860369 0.08658297
000290 3c 08 9d be fe 11 6a 3e f0 0b 32 3e 87 59 04 be
       -0.30670345 0.22858426 0.17387366 -0.12924777
0002a0 7c 70 e0 bc 11 76 c9 3d 5e 90 a4 3e c5 e6 8f be
       -0.027397387 0.098369725 0.32141393 -0.2810575
0002b0 4f 71 a0 bd 4a 3b b0 be ce 2e 1c 3f 00 9f 78 3e
       -0.07834112 -0.34420234 0.6100892 0.24279404
0002c0 4f c1 89 3d fa 71 a6 3d 6a 2e 1d be 94 42 43 bd
       0.06726324 0.08127208 -0.15349737 -0.047670916
0002d0 42 d5 e6 bd e4 5a e5 bd 44 e8 02 bf 56 9c ce 3c
       -0.112711444 -0.11198977 -0.5113566 0.025221031
0002e0 5a 17 89 3e 9c 3a a7 bd 3d 07 b9 bd 29 78 06 3e
       0.26775628 -0.08165476 -0.09034584 0.13131775
0002f0 fc cb 61 be d1 43 c5 be 46 89 1e 3e a5 66 f2 3d
       -0.2205047 -0.38528302 0.15482053 0.11835984
000300 84 c6 0a be 1f 5a 40 be e1 06 01 be e1 67 0d 3e
       -0.1355229 -0.18784378 -0.1260028 0.13809158
000310 64 19 80 3b 50 86 4b 3e 4a 21 37 3e 5f 41 14 be
       0.003909277 0.19875455 0.17883793 -0.14478062
000320 0b 58 30 3e a0 ae b5 bd d3 f9 86 be 21 db 6e bd
       0.17221086 -0.08871198 -0.26362476 -0.058314446
000330 33 b1 81 3c 0e cf b3 3e dc f6 bf 3d 04 9e 88 bd
       0.015831565 0.35118908 0.093732566 -0.06670764
000340 c8 83 c2 be 68 5e 55 be dc 64 81 be 29 4c 81 be
       -0.37991166 -0.20836794 -0.25272262 -0.25253418
000350 d9 2b ab 3c 9b d6 e0 bc ec 16 ad bb ed 75 ce 3c
       0.020894932 -0.027446082 -0.0052822735 0.025202716
000360 77 e4 58 3d ea 23 c3 be a5 97 d4 3d ff a5 0d bf
       0.052952256 -0.38113338 0.103804864 -0.55331415
000370 d7 16 4c be f4 0a a6 be ce e0 70 be 37 5c 6d 3d
       -0.19930588 -0.32430232 -0.23523256 0.05794927
000380 ab 15 75 3d e3 00 00 be ed ac 0c be c0 f0 25 3d
       0.059835117 -0.12500338 -0.13737841 0.0405128
000390 e6 05 83 3d f2 ff 61 be fd 77 f6 3b 8c 00 0d 3e
       0.063976094 -0.22070292 0.007521628 0.1376974
0003a0 88 00 78 be 72 f1 0d be 83 93 37 be 33 2f eb 3e
       -0.24218953 -0.13861635 -0.17927365 0.45934448
0003b0 3c 80 9a be 10 47 62 3e 4f d9 40 be 06 d8 83 be
       -0.3017596 0.2209742 -0.18832897 -0.2575075
0003c0 9f 07 ee bd 6c 65 9b be 54 f8 60 be 00 80 89 be
       -0.11622547 -0.30350816 -0.2196973 -0.2685547
0003d0 fe e5 27 3e 48 9c ac bd 94 a8 27 3e 98 38 a0 bd
       0.16396329 -0.08428246 0.16372901 -0.078232944
0003e0 17 46 1f 3e d4 2b 12 3f c2 1e 12 be ee ed 85 3e
       0.15554081 0.57098126 -0.14269546 0.26158088
0003f0 c3 02 83 3d 14 de fb bd ff 86 a3 3d 8f e2 a1 3e
       0.06397011 -0.122982174 0.07984733 0.31618163

mlp2.2.bias f4 [50]
000000 85 6e fd 3e 5f d9 fe 3c 00 36 8b bd 01 9f d2 be
       0.49498382 0.03110951 -0.06797409 -0.41136935
000010 5d 87 18 bf cc 85 61 3e 8d b1 40 3f 70 d4 56 bf
       -0.5958155 0.22023696 0.7527092 -0.83917904
000020 12 49 55 be 08 aa 14 3e cf 9f 41 40 30 48 8c bf
       -0.20828655 0.14517987 3.025379 -1.095953
000030 1e 05 4b bf 17 f8 23 3f fc 83 d9 be 1d 2a 30 bf
       -0.79304683 0.6405043 -0.4248351 -0.6881426
000040 f2 35 02 be 83 62 06 bf ab f0 ca bf af 8b d4 3f
       -0.12715891 -0.52494067 -1.5854696 1.6605128
000050 64 8b 33 3f 6b 10 64 3f 71 c1 13 3c 6b 8f 93 be
       0.7013457 0.8908755 0.009018288 -0.28820357
000060 3a 8a 68 3f 0b 0a c8 3f 6d f1 dc bd fc 02 32 bf
       0.90835917 1.5628065 -0.10788236 -0.69535804
000070 cb 3f 88 bf 59 55 8b 3e cc 70 0d 3e 01 2d 98 3f
       -1.0644468 0.27213553 0.1381256 1.1888734
000080 de 08 4d 3f 8d ef 87 3d a2 a1 7d 3e 0d f5 d2 bd
       0.80091655 0.066374876 0.2476869 -0.10300646
000090 78 6a 47 bf 6e 58 ad 3d 7b 8b 3a 3f c3 d0 60 bf
       -0.77896833 0.08464132 0.7286908 -0.87818545
0000a0 c2 ca 8d 3f b2 af 3f bf 61 c8 a8 3d 50 80 08 c0
       1.1077502 -0.74877465 0.08241344 -2.1328316
0000b0 6d f0 8e 3e cf 2f a5 bd 0b 01 12 be 73 d6 42 bf
       0.27917805 -0.080657594 -0.1425821 -0.76108474
0000c0 19 ca e4 3f 79 37 03 3f
       1.7874175 0.5125652

attention.0.weight f4 [100, 100]
000000 1a 1d b7 bd 8a 90 3f be 6e be 21 bd ae 01 06 3d
       -0.089410976 -0.18707481 -0.03948825 0.032716446
000010 8e 21 15 3c 4a 7f 4e 3d a6 8d c2 bd 4b 53 a5 bd
       0.009102238 0.05041436 -0.094996735 -0.080725275
000020 23 3c 7c bd 80 94 7c bc 24 72 b2 3d 04 8e a5 bb
       -0.06158079 -0.0154162645 0.08713177 -0.00505233
000030 53 4f ba bd e4 89 5f bd c3 79 d2 bd 9b 87 ac 3d
       -0.09097161 -0.054574862 -0.102771305 0.08424302
000040 f4 15 a9 3d 2c c7 11 3e db 90 fd bd 19 64 07 3d
       0.0825614 0.14236134 -0.123811446 0.033054445
000050 17 fd 80 bc 09 71 87 bd 62 e1 42 be 38 a6 9d bd
       -0.015745683 -0.066133566 -0.19031289 -0.07697719
000060 f8 fa 89 3c 3a ad 22 3c c6 ad af bd c5 ca 86 3d
       0.016843304 0.009928996 -0.085780665 0.06581644
000070 bd ca dd bc 3f 35 b7 bd 23 55 aa 3d d5 e3 a4 bd
       -0.027074212 -0.08945703 0.0831702 -0.08051268
000080 ae d9 be bd 68 99 05 bb 04 94 a4 bd 64 09 83 bd
       -0.09318863 -0.0020385627 -0.08036044 -0.063982755
000090 80 eb a5 3d 39 eb 90 bd fa ca 91 3d aa 59 8e bd
       0.08101559 -0.07076115 0.07118793 -0.06950696
0000a0 c5 b8 5e 3b 85 98 07 bd 09 1e bd bd 0c 27 56 bd
       0.0033984643 -0.03310444 -0.092342444 -0.05228333
0000b0 38 fb e6 bd 29 b1 69 3d 84 fc 84 bd 92 7f 10 3d
       -0.11278385 0.05705372 -0.06493476 0.03527791
0000c0 78 b9 22 3c 12 62 c6 3d a5 d9 ae bd 15 e1 3d bc
       0.0099319145 0.09686674 -0.08537606 -0.011589308
0000d0 a1 e1 dd bd f6 d1 4c 3d 01 f6 a8 bd b1 2d 5e bd
       -0.10834051 0.05000492 -0.082500465 -0.054242793
0000e0 a1 7c ec bd be a5 c4 3b 22 68 88 bd c4 f1 bd bd
       -0.115472086 0.0060012033 -0.06660487 -0.09274629
0000f0 d9 79 3d bd 2b 1a 2a bc 79 2f 8c bb 94 59 b3 bc
       -0.04625878 -0.0103822155 -0.00427812 -0.0218933
000100 f4 5b ef 3c 65 2e 3d bd 53 4a 1d be d8 0b 31 bd
       0.029218651 -0.046186823 -0.15360384 -0.043224186
000110 a8 19 27 3d 3d b5 d9 bd e4 3a de 3c 69 50 06 be
       0.040795952 -0.106302716 0.02712769 -0.13116612
000120 6d 8c 9c bd e2 0f 4a 3d a0 80 93 bd f0 41 db bc
       -0.076439716 0.049331553 -0.07202268 -0.02676484
000130 56 64 0d 3c d0 e2 6b bd 01 2d a4 bc 0f 56 be bc
       0.008629879 -0.057589352 -0.02004099 -0.023234395
000140 e3 b1 a1 bd 99 1f 88 3c 09 73 23 bd 19 ca 1c 3d
       -0.07895257 0.01661663 -0.039904628 0.038278673
000150 23 f7 14 be 96 f6 d9 3b 6e b9 84 3d 55 ae 27 bd
       -0.145474 0.00665171 0.064806804 -0.04093774
000160 b2 67 8c bd 75 f6 7e 3d 52 a4 b5 bd 2b 5d fd bd
       -0.06855716 0.06224676 -0.08869232 -0.12371286
000170 e9 46 43 3b c4 8d b9 3d 1c 6b 8e bd 26 37 59 3d
       0.0029796904 0.09060243 -0.06954023 0.05303111
000180 d8 79 17 be 98 62 54 bd 3f ca b0 bc cd 64 7d bd
       -0.14792573 -0.05185184 -0.021580813 -0.06186371
000190 ed 89 7d bd 9a 81 31 be 7c 03 9b 3c 56 71 36 3d
       -0.061899114 -0.17334595 0.01892256 0.04454168
0001a0 75 0a ff bd d5 2d 34 bc 98 36 91 bd 4a 3c d7 3b
       -0.124531664 -0.010997255 -0.07090491 0.0065684663
0001b0 89 c6 05 bd d8 08 1e bc 4f 97 d8 bc ad 10 8d 3c
       -0.03266004 -0.009645663 -0.026439337 0.017219866
0001c0 11 a9 84 3d 13 1f b5 bd 27 fd c6 bd a0 b3 82 3d
       0.06477559 -0.088438176 -0.09716254 0.06381917
0001d0 73 f5 69 bd 5f 45 72 3d eb e5 6d bd c7 05 df 3c
       -0.057118844 0.05914819 -0.058080595 0.027224435
0001e0 4b 05 50 bb d2 5c 15 3d e9 eb 6a bd 23 fb 94 bc
       -0.0031741436 0.036465473 -0.057353888 -0.018186158
0001f0 2d 31 64 bd 9f 87 aa bd fe 11 96 bd 0b 66 4a bd
       -0.05571096 -0.08326649 -0.073276505 -0.049413722
000200 86 dc 2f 3d 3d 2c 9d bd 61 2b b8 bd 73 9e b4 bc
       0.042934917 -0.076744534 -0.08992649 -0.02204821
000210 88 20 a3 bc a2 7c a0 ba a4 e7 a6 3d 6c d7 4c 3d
       -0.019912973 -0.0012244175 0.08149651 0.05001013
000220 df 17 8c 3c 0c 4e 3b bd 60 7a 0f bd da 61 73 3d
       0.017101226 -0.04572873 -0.035028815 0.05941949
000230 b7 82 3c 3c 67 16 a1 bd 11 87 1a 3d c7 98 13 bc
       0.011505774 -0.07865601 0.037726466 -0.009008593
000240 7f d1 c3 bc 89 20 06 3a c9 2b 79 bd c1 97 dd bc
       -0.023903606 0.00051165425 -0.060832772 -0.027049901
000250 8f 47 c1 bd 1a 38 06 bd 5d b5 ac 3b ff 4c 4e bc
       -0.09437477 -0.032768346 0.0052706436 -0.0125915995
000260 fd f8 2e bd b1 34 e7 39 c0 68 e7 3c 1d 1e b5 bd
       -0.042717922 0.00044099012 0.02824819 -0.08843634
000270 27 54 dd bb 6b b6 b9 bd bb 68 d1 3c 07 aa a4 bd
       -0.0067544165 -0.090679966 0.025562635 -0.08040243
000280 c9 3d be bd b5 66 4b 3c 6b 0d 45 3c 64 cb d5 bc
       -0.09289128 0.012414624 0.012027125 -0.02609796
000290 8a 52 2b 3c 1b 22 ac 3c ee 99 ca bd 49 ea 8a bc
       0.010456691 0.021012357 -0.09892641 -0.016957419
0002a0 de bb 7c 3d d7 cd 3c bc d2 d7 64 bd 9c 20 42 3d
       0.0617026 -0.011523685 -0.055869885 0.04739438
0002b0 bf 86 b3 bc 7c 92 c1 bd 91 77 31 3d 2b be 46 bc
       -0.021914838 -0.09451768 0.043326918 -0.0121303005
0002c0 c3 69 6f bd fa 9a 73 bd b4 37 33 3d 68 a0 8f bd
       -0.05845047 -0.05947397 0.043754295 -0.07013017
0002d0 33 b8 10 bd e2 b5 4d bd 7a 3b 0e 3c 50 0f 53 bd
       -0.035331916 -0.050222285 0.0086811725 -0.051528275
0002e0 bf 10 16 bc 94 7c 73 bd a8 73 48 bc 25 a0 c2 3c
       -0.009159266 -0.05944498 -0.012234606 0.023758003
0002f0 4e 04 ae 3b 45 60 46 3d 74 6e 28 bb 4c b3 54 3d
       0.0053105718 0.048431654 -0.00257006 0.051928803
000300 8b 18 b2 bd c5 95 34 bd d2 96 b4 bd fe ac bf bc
       -0.086960874 -0.044088144 -0.08817829 -0.023397919
000310 50 5b e4 bd cc e5 2f bd 72 a5 53 bd 0a 44 92 bd
       -0.11150229 -0.04294376 -0.051671453 -0.07141884
000320 5d 67 43 bd d8 65 27 be fb 34 ae bd 76 05 17 3e
       -0.047705997 -0.16347444 -0.08506199 0.14748177
000330 7f 3d c3 bd 86 53 53 be 6a b6 90 bd 21 48 83 bd
       -0.09533214 -0.2063733 -0.07066043 -0.06410242
000340 23 e7 57 bd ed f8 6e bd 4b 4b 8c bd 9f ea 1f bc
       -0.052710664 -0.058342863 -0.068502985 -0.009760528
000350 d1 13 c8 bd 66 78 4c bb 31 92 27 be ea f4 0e 3d
       -0.09769405 -0.0031199693 -0.16364361 0.034901537
000360 17 b3 a2 bc 01 2b 7c bd bc 1f 2b be 62 c2 8a 3d
       -0.019860787 -0.06156445 -0.16711324 0.06775357
000370 59 60 26 be f8 fd 8b bd af de 0b bd 82 49 49 bd
       -0.16247691 -0.0683555 -0.034147914 -0.04914237
000380 d8 11 c9 3d 5b f0 92 3d 90 45 fe bd 48 aa 04 bd
       0.098178566 0.071747504 -0.12415612 -0.032388955
000390 e9 88 b5 bc 5a 63 f0 bc 05 8a c2 bd d2 87 af bd
       -0.02216001 -0.02934425 -0.094989814 -0.085708275
0003a0 29 b3 db bc 95 39 76 bd d4 96 19 bd f1 16 e1 3b
       -0.026818829 -0.06011351 -0.037497357 0.00686919
0003b0 e6 ad aa bd 1b dd b3 bd e7 ca e1 bd 77 81 59 bd
       -0.0833395 -0.08782407 -0.11025029 -0.053101983
0003c0 8a ae 43 bc 4e 4a f7 bd 19 ff 69 bd 0b 81 0d bd
       -0.011943469 -0.12074719 -0.057128046 -0.034546893
0003d0 79 69 54 3d 72 c9 e9 bd 27 70 7b bd 9d b4 6d bd
       0.0518584 -0.11415376 -0.061386254 -0.058033574
0003e0 3b ba bb 3a df 19 50 bd 55 af 4d 3d fd f1 b3 3c
       0.0014322469 -0.050805923 0.050216038 0.021965975
0003f0 f3 4b a0 bd fd a6 d0 bc 76 d3 fc bd ec a6 b8 3c
       -0.07826986 -0.025470251 -0.123450205 0.022540532

attention.0.bias f4 [100]
000000 ed 52 9b bd bc fe 29 be 18 42 08 3e 59 69 6d bd
       -0.07584176 -0.1660108 0.13306463 -0.057961795
000010 4d 54 34 be 68 43 ec be 83 e3 c4 bd c7 fe ad be
       -0.17610283 -0.46145177 -0.09613707 -0.33983442
000020 38 75 5c be e0 20 10 bd 21 2d 28 be 89 e4 3d be
       -0.2152909 -0.035187602 -0.16423465 -0.1854421
000030 43 20 23 be 2b e6 92 be f5 49 9b be 6a 2f e1 be
       -0.15930276 -0.2869123 -0.30329862 -0.43981487
000040 d2 43 9e be 07 47 dd bd 0c c1 49 be b7 54 64 be
       -0.30911118 -0.10804563 -0.19702548 -0.22297941
000050 7c d8 2d be 0f 24 c2 be 30 f9 3d be 02 50 95 be
       -0.16977113 -0.37918136 -0.18552089 -0.29162604
000060 af f8 70 be 09 28 a5 be 46 7e 0e 3e 89 fc 3e be
       -0.23532365 -0.32257107 0.13915357 -0.18651022
000070 6f 7e 2a be 9d 0c f5 bd b5 5b 1c be 2a 48 e3 be
       -0.16649793 -0.119652964 -0.15269358 -0.44390994
000080 13 83 c6 bd 19 af 61 be a0 b1 e0 bd ca 56 99 bd
       -0.09692969 -0.2203945 -0.10971379 -0.07487257
000090 a7 0e 00 be 5c 8d 0f be ad 81 af be 7b 0d 23 3e
       -0.1250559 -0.14018768 -0.34278622 0.15923111
0000a0 01 f3 f6 3c e0 c5 47 be 63 f4 6c be b2 89 47 be
       0.03014517 -0.19509077 -0.23140101 -0.1948612
0000b0 e1 41 60 bd 98 c1 79 be 95 ff 51 bf 2a 5d 6e 3e
       -0.054750327 -0.24390256 -0.8203061 0.23277727
0000c0 9d 4c b6 bc ac 60 8e bd 3d 69 13 bf e0 e2 5e be
       -0.022253329 -0.069520324 -0.57582456 -0.21766233
0000d0 8d c9 52 be 71 37 a7 bd cb 17 02 be 90 67 1c be
       -0.20584698 -0.081648715 -0.12704389 -0.15273881
0000e0 17 db 5c bd 93 73 12 be ca c1 c2 be f9 fc 82 bc
       -0.053919878 -0.143019 -0.38038474 -0.015989767
0000f0 1c cb c9 be 11 14 e0 bd c9 a1 42 be 58 80 10 be
       -0.39412773 -0.10941327 -0.19007029 -0.1411146
000100 a9 d2 38 bd 5c d8 c5 be ce 1b b0 be ee 84 59 be
       -0.045122776 -0.38641632 -0.34396213 -0.21242115
000110 fc 3b b5 3c cb 07 8e 3d ce 9f 87 bd 79 ba f9 be
       0.02212333 0.0693508 -0.06622277 -0.4877508
000120 c4 50 89 bd 3e c9 17 3d 9a 25 36 be af e7 5a be
       -0.06704858 0.037057154 -0.17787781 -0.21377443
000130 55 eb 31 be 2f bd 4b bd 15 28 df be 5a 9f f6 3e
       -0.17374928 -0.049740966 -0.43585268 0.4816845
000140 af c5 40 be d6 33 95 be 66 71 c3 be bf 40 2a be
       -0.1882541 -0.2914111 -0.38172454 -0.16626261
000150 8a 23 85 be f3 48 c2 bd ca d9 07 3e d1 b3 fa be
       -0.26003677 -0.0948657 0.13266674 -0.48965314
000160 f5 e1 68 be 33 0d 5b be 29 60 a5 be 72 10 e5 bc
       -0.22742446 -0.21391754 -0.32299927 -0.027961943
000170 4a 1e d7 be 94 dd e6 bc 90 9a 14 be a0 a5 df be
       -0.42015296 -0.028181829 -0.14512086 -0.4368105
000180 5a e1 00 bd c0 0c 02 be 95 49 62 be 26 df c2 bd
       -0.031464912 -0.12700176 -0.22098382 -0.095152184
