sarl_star_ros/CrowdNav/crowd_nav/data/output_3/rl_model.pth (torch_old, 349196 bytes, 20 tensors)

mlp1.0.weight f4 [150, 13]
00000000: acfb 8cbe bdac 3abc 1d67 a9bf 1c66 a23d
00000010: b355 323f 2947 1bc0 02df 803f de15 8dbf
00000020: 5da9 ff3f 91a3 26bf 793a 8b3f c5df 69bf
00000030: d355 853f 0752 72bf 6c54 cb3d 7fde 69be
00000040: 4b36 003e 82c3 083f bf4a 59bf 37c2 0540
00000050: 364c 8c3f 0d0e 9d40 4feb 0bc0 ec79 4ebd
00000060: dd73 40bf 37dc cbbe f6c7 eabf d0f0 843e
00000070: 1e0d fe3d cf94 143c 6a74 1e3e 594f 1fbf
00000080: e5b6 2d3f 1bc5 67be 4ad1 0a3f c757 833c
00000090: 7266 9a3e e509 d23e 3c48 5c3e 84e5 6bbf
000000a0: a7d7 61bf f039 20bf 0344 01bd 2a90 06bf
000000b0: 82a0 5dbd b344 44bf aad1 d3bf 3ee4 6fbf
000000c0: efc3 a33f 1f7d 55be f075 ef3e 626b 72be
000000d0: a3ee c2be 9673 ef3e 220a af3f 120a 4b3e
000000e0: 8475 12bd 6775 d73f 7fc4 13c0 7170 853f
000000f0: e8cd 5c3f 9283 cebf f8f1 d73f b0db 22c0
00000100: 4796 0240 bd2f 63be 101d fc3e ef5b 06bf
00000110: 4acd 7b3e 71c7 a83f eb61 9fbf 8902 68bf
00000120: 024f eabf 9930 a0bf 3054 3940 30ad 8d3f
00000130: 25e6 2ac0 35e2 573f b723 2c3f d0cc dbbf
00000140: ac9a d1be 274d 24bf 4efa 2840 2ec8 8440
00000150: 4e32 4840 77c0 3ebf 201e 79bf d82a 9cc0
00000160: 907d e03f 970b 43c0 87e5 b53f 89a7 283e
00000170: 5698 aa3e 507d 43bf de45 813e 536d adbf
00000180: 45ed 373f 37ad dbbd 2344 7d3e fdd6 cbbf
00000190: cffa 24bf fb29 2c3d e197 a7be 005e 57bd
000001a0: 32df 01c0 9cac e93f 978a 5fbf 9b54 ed3e
000001b0: 3f78 90bf 45a6 58be 6ad2 87bf d841 48bf
000001c0: 962a d6be 53d0 93bf c2eb b43e 6353 65bb
000001d0: 5aba ea3e 4078 abbd 9158 3ec0 1dfc 29bf
000001e0: 3e0c 3abf e9f7 1bc0 f83e ce3f 73d6 2fbf
000001f0: e56b afbd 3fad b53f c518 46bf 5967 2a40
00000200: bb3f 703f 1579 0540 0665 21bf 0e34 393d
00000210: e4f6 d23e ba7d 4a3e 93fa 583e 7ce4 c33e
00000220: 92f8 fcbe 7045 3b3f 1079 95bd e300 ab3e
00000230: 9f44 c03d 1686 713d 738f c7bc 1342 1cc0
00000240: 0bf3 f43d e836 ca3e e117 b0bc 1ae9 c23f
00000250: 0dbf e0be ef1e 18bf ff87 b1be 8676 05bf
00000260: cd04 d8be 6262 34bf fe3c d73e 2aff afbe
00000270: 6479 69bf 49ac 6abf d738 02bf 731f f5bd
00000280: 14f2 b13b d227 1bbf 79a8 dbbb 0412 87bf
00000290: 4ced 3b3f c5f6 50be 526a 993a 4ca5 d23d
000002a0: 3f35 1cbf 6f50 413f d12e 89be 612f cd3f
000002b0: ee45 b2bd 0208 fabe 2a94 6c3f 112c afbf
000002c0: c7ed 813f 4c77 10c0 e481 683f 19b2 793e
000002d0: aadf dcbe 7be7 b13e 6bc0 53bf f88c 273d
000002e0: d555 2e3c 7ee8 19bd 631d c8be 4835 c13d
000002f0: 1c7c 28bf 3e20 d0bb bedf a5be 08f9 3e3f
00000300: 8fec 90be 7099 813e 6a85 4cbe bd79 553e
00000310: d6e2 8e3e 49c0 133f cf84 773e 35d9 183f
00000320: 112f 283e 6331 e73f 05e3 1d3f aed9 0740
00000330: a52c 7940 2b80 95bf e44a 56bf b373 97bf
00000340: a9b3 23c0 e0cc 6dbf 4214 6ebf 3937 90be
00000350: 1e3a 1dbe 5c7c 0ebe bb75 20bf cc61 12be
00000360: a20b 5abf cce3 94bf bf75 a7be 7034 0640
00000370: 49df b8be 141b 82be 31df 5cbe f77e e43e
00000380: f690 dd3d e90c cc3f eef1 bf3f e9f0 35bf
00000390: de09 ddbf 7494 11c0 de2c 3240 0e75 c5bd
000003a0: 112d 1dc0 1879 283e e831 a23e 967e ad3e
000003b0: 9035 88c0 48bc 8f3e ddea 81bd efb3 79bf
000003c0: 37f5 1b3e 14f2 3f3f d3cd 913f d585 0b40
000003d0: e61c c1bf 80b9 64bf 2bae a3bf 9076 c5bf
000003e0: d7e1 953e 5a46 723e 2f2c 2bbe c32e 383f
000003f0: 4f8e 90be 0971 b1bf f2b4 8abf 2519 b3bf
-0.2753576 -0.011393723 -1.3234593 0.07929632 0.69662017 -2.4262183 1.0068057 -1.1022298
1.997356 -0.6509333 1.087722 -0.9135707 1.0416816 -0.94656414 0.099282116 -0.22838782
0.12520711 0.5342332 -0.8487968 2.089979 1.0960758 4.907965 -2.186237 -0.050409243
-0.75176793 -0.39816448 -1.8342273 0.25964975 0.12404846 0.009068682 0.15474096 -0.6223045
0.678572 -0.22633784 0.542256 0.016033066 0.30156285 0.41023174 0.2151193 -0.9214709
-0.88219684 -0.62588406 -0.031559 -0.52563727 -0.05410815 -0.76667327 -1.6548359 -0.93707645
1.2794169 -0.20848511 0.46769667 -0.23673776 -0.3807269 0.46767873 1.3674967 0.1982806
-0.035756603 1.6832703 -2.3088682 1.0424939 0.8625169 -1.6133902 1.6870718 -2.5446587
2.0404222 -0.2218618 0.49240923 -0.5248403 0.2459003 1.3185865 -1.2451757 -0.9062887
-1.8305361 -1.2514831 2.8957634 1.1068478 -2.670297 0.8432954 0.67241997 -1.7171879
-0.40938318 -0.64180225 2.6402774 4.149436 3.1280704 -0.7451243 -0.9731159 -4.88023
1.7538319 -3.0475824 1.4210671 0.1647016 0.33319348 -0.76363087 0.25248617 -1.3548988
0.7184642 -0.107263975 0.24733023 -1.5924984 -0.64445204 0.042032223 -0.32733062 -0.05257988
-2.0292478 1.8255801 -0.87320846 0.4635361 -1.1286696 -0.21157177 -1.0611088 -0.7822547
-0.41829365 -1.154795 0.3533612 -0.003499233 0.458453 -0.08372545 -2.9741557 -0.6640032
-0.7267493 -2.4370062 1.6112967 -0.686866 -0.08565501 1.4193496 -0.77381545 2.6625578
0.93847245 2.0855153 -0.63044775 0.04521566 0.41203988 0.19774523 0.21189336 0.38260257
-0.49408394 0.7315283 -0.072984815 0.33399114 0.093880884 0.058965765 -0.024360394 -2.4415329
0.11960419 0.39495015 -0.021495761 1.5227387 -0.4389576 -0.594222 -0.3467407 -0.5213398
-0.42191163 -0.7046262 0.4203872 -0.34374362 -0.9120085 -0.91669136 -0.5086798 -0.11968889
0.0054304693 -0.60607636 -0.006703433 -1.0552373 0.7340896 -0.20406635 0.001170466 0.10285434
-0.6101875 0.75513357 -0.2679353 1.6030084 -0.08704744 -0.48834234 0.9241358 -1.3685323
1.0150689 -2.2572813 0.908232 0.24384345 -0.43139392 0.34746918 -0.8271548 0.040905923
0.010640581 -0.037575237 -0.3908492 0.09433991 -0.65814376 -0.0063515 -0.32397264 0.7459874
-0.2830548 0.25312376 -0.19972768 0.2084722 0.27907437 0.5771528 0.24171756 0.5970643
0.16424204 1.8061947 0.6167453 2.122661 3.89335 -1.1679739 -0.83708024 -1.1832184
-2.5578406 -0.9289074 -0.9299966 -0.28167132 -0.15354201 -0.13914627 -0.6267964 -0.14295119
-0.85174 -1.1632018 -0.3270702 2.0969505 -0.36107853 -0.25411284 -0.21569516 0.44628116
0.10818665 1.594144 1.4995706 -0.71070725 -1.7268636 -2.2746859 2.7839885 -0.09641467
-2.4558756 0.16452444 0.316787 0.3388564 -4.2565384 0.28073335 -0.06343625 -0.9754018
0.15230261 0.74978757 1.1390938 2.1800435 -1.5086944 -0.8934555 -1.2787527 -1.5426807
0.29273865 0.2365965 -0.16716073 0.7194635 -0.28233573 -1.386262 -1.083647 -1.3992049

mlp1.0.bias f4 [150]
00000000: e278 14bf e024 41bd 8d01 1c3d 6bf2 9abf
00000010: c598 203f 27e2 2f3d 5864 e9bf 6cfc 4a3e
00000020: 13a3 0340 bab9 4fc0 e623 bfbe 9c65 a83e
00000030: b529 8abf 5f7c ecbd b59b 68be 598d b33e
00000040: 3049 a1bf 4af1 97be ca2a 9d3e 1b94 243f
00000050: 0b2d 803e 5974 97bf 7041 103d 81a7 87bf
00000060: b03d 91bc 8ec2 07be 6b54 13be 1bc5 c73f
00000070: 4409 a73d 5cbd bd3e 85d4 31bf b905 2c3e
00000080: f750 c4bf 3c4a 63bf de22 57bf 4b66 183e
00000090: 8476 02be 8afc afbd ecb5 6e3f 9a87 efbe
000000a0: 5b28 28c0 443e 753e 61ec 35bf 0c5b 51bf
000000b0: dc4f c83f e3e0 963e e34c 183f 0022 9fbf
000000c0: e6f0 ecbd 06ca ab3e 1019 75be 1ad3 4d3f
000000d0: 929f f8be f5df cdbd 0938 86bf cac5 99be
000000e0: c41a 0fbf 9d9b d0bf af4f 52be 6e9c 7dbf
000000f0: f567 163e 9209 9bbf 17f8 3dc0 b418 4c3f
00000100: 2ac2 c03f c3da 02bf da49 2e3e 5744 253e
00000110: 8c5b cb3d 47d5 e03e b66f b9bf b6cb a43e
00000120: d346 203f fc00 70bd 0011 073f 29b2 c3be
00000130: 619c a0be 8276 373e b3be 45be 2351 cc3e
00000140: e52c 323f 0e35 1dbf 254a 89be 1db1 843f
00000150: eb6a 07bf 2a9c d33e 2e25 953f f483 1fbf
00000160: f25b 13bc 243d 5c3f 9fad e5bf 3def 58bf
00000170: b43c 8a3e 69b5 5cbe 2210 0c3b ea1b a1bf
00000180: f717 343e 319d e9be bbe2 b9bc 28cc 03bf
00000190: 70ba 6fbe fc6f 39be 03fe 67bf 5099 803e
000001a0: 734f 0c3e 3ecc 9bbe 75c1 b73e 566a 71be
000001b0: d60e dfbd f2f8 8e3e 3200 5b3e 32b5 e7be
000001c0: 5d5e 97be cbf4 eabe 9199 32bd d866 5bbf
000001d0: 5f73 00be 6992 adbe a276 ca3e 39b0 03c0
000001e0: 02f9 7abe d4bb 8bbe e5c6 d33f ecfd 9dbe
000001f0: afc2 5e3f c22c 6b3e d94f 04bc 95ec 79be
00000200: 4d22 4ebf d0a0 ab3f f7cc 863f c4b0 af3f
00000210: 524a 03bf db05 1fc0 b513 f83b 1623 813f
00000220: 3814 0abf fb42 1e40 6d6b 6dbf 0248 1cbe
00000230: 33c1 dd3e a4df 99bc 08ac 01bf 1f61 e33e
00000240: 307e 9e3f 4ecb 11c0 c062 5440 090d eabe
00000250: 8540 58bf ac5e ecbd
-0.5799695 -0.047154307 0.038087416 -1.210523 0.6273311 0.042940285 -1.8233747 0.19822854
2.0568283 -3.2457108 -0.37332076 0.32890022 -1.0793978 -0.115471594 -0.22715648 0.35068777
-1.260046 -0.29676276 0.30696708 0.6428849 0.25034365 -1.1832381 0.035218656 -1.0597993
-0.01772961 -0.1325781 -0.14387672 1.5607027 0.08156064 0.37058532 -0.69464904 0.16799058
-1.5337209 -0.8878515 -0.8403758 0.14882772 -0.12740523 -0.0859309 0.9324634 -0.46783143
-2.627463 0.23949534 -0.7106381 -0.8177955 1.5649371 0.2946845 0.5949232 -1.2432251
-0.11569385 0.3355257 -0.23935342 0.8040024 -0.48559242 -0.10052482 -1.048585 -0.30033714
-0.55900216 -1.629749 -0.2053821 -0.9906682 0.14688094 -1.2112296 -2.9682672 0.79725194
1.5059254 -0.51115054 0.1702036 0.16139351 0.099295706 0.43912718 -1.4487216 0.3218667
0.6260807 -0.05859469 0.52760315 -0.38221863 -0.31369308 0.17916301 -0.19311027 0.39905652
0.69599754 -0.6140908 -0.2681438 1.0366551 -0.5289752 0.4133008 1.1651971 -0.6231072
-0.008994089 0.86030793 -1.794361 -0.8474005 0.26999438 -0.21553577 0.002137192 -1.2586644
0.17587267 -0.4562774 -0.022691121 -0.5148339 -0.23410964 -0.18109125 -0.90621966 0.25116968
0.13702182 -0.30429262 0.35889784 -0.2357572 -0.108915016 0.27924305 0.21386793 -0.4525543
-0.2956418 -0.45889887 -0.043603484 -0.857038 -0.1254401 -0.33900765 0.39543635 -2.0576308
-0.24509051 -0.2729174 1.6545073 -0.3085779 0.87015814 0.22966293 -0.008075678 -0.24406655
-0.8052109 1.3408451 1.05313 1.372582 -0.5128528 -2.4847324 0.0075707086 1.0088832
-0.539371 2.4728382 -0.92742044 -0.15261844 0.43311462 -0.018783398 -0.50653124 0.44410035
1.2382259 -2.2780337 3.3185272 -0.4571307 -0.8447345 -0.11541495

mlp1.2.weight f4 [100, 150]
00000000: 52a2 9d3e e7a1 09bf a5dd d53b fc91 3ebe
00000010: 11c5 ba3e ddc1 9abe 8bf3 bbbe dff8 df3e
00000020: c34a 953e 733c e23e a625 033e 468d ba3d
00000030: 8d59 883e 2ce8 eabe d211 783e 70fd 0ebf
00000040: a484 e23e ef5e dc3c 2378 efbd 3ac5 c03e
00000050: 883d a13e b6c3 2b3e db2e 16bd c827 163f
00000060: 675c 1ebe d8a9 403e aecd ac3e b134 2dbf
00000070: 64bc 1cbf 0f1d 37bf 0ef1 f7be 5765 1abf
00000080: cc1b 92bd f658 1dbf a0e6 d3be c308 55be
00000090: d8d1 853f 000f 9d3b 4467 02bf 0eb0 55be
000000a0: 1868 0a3f bcda 603f a932 ba3e 4d47 9e3e
000000b0: c73e acbf ad4f 37be 94c4 9fbc 13f1 2a3f
000000c0: 2b41 1dbe 7d87 0e3f 68f7 58bd 2ee1 11bf
000000d0: f178 bfbe 80bc 2eba 5c46 4a3e de01 95bf
000000e0: 86f9 9e3f eff7 02bf 5eaa e3be 99f9 87be
000000f0: 5f59 3fbf dbe6 00bf a795 3f3f 09dd 92bf
00000100: 1373 a43d a89a 93be c7b7 9abd ccc6 27bd
00000110: 23a2 fe3d 74b7 dcbe 0939 32bf 5eec ce3d
00000120: 73b0 863f cd5d 0abe 92d6 4bbc 060f 84bc
00000130: 75b7 20bf f9ad 70be c86a 30bd 3d1a 283f
00000140: ced5 25bd 03dc dd3e c5ae d3bd 0b4d 69be
00000150: 782b cb3c 6821 3bbe 6077 fc3e 4dd5 a83e
00000160: 67a3 bf3e 1dbf 353f 91e7 c7bd 2e5e 8cbf
00000170: 00c1 62bf f296 2abc fbc5 27be 36dc 2abe
00000180: 1a27 70be 1c42 88be cf0e 01bf 7df8 2c3c
00000190: 708c c9be accd ac3e 6de7 30bf a591 953d
000001a0: b8e1 c0be aca9 d53d 0957 dcbf 7e55 00bd
000001b0: 41d4 803b 295d 06bd 2a9a 06bf bea9 fbbd
000001c0: 5d4f 0a3d 60f8 e6be ce95 8d3d 27f8 debe
000001d0: 4f01 f33d e0fe fe3e 980d 193d efd4 febd
000001e0: ef67 2dbc 15c7 6c3e 91da 5f3f f924 abbf
000001f0: aa05 23be 053f 74be e8b7 1c3e 40c7 553d
00000200: ff4b 9f3e 6cde 6bbe ba00 a2bf a0a2 7d3e
00000210: 54e8 b1be af96 43bf e392 62be 6ed5 97bd
00000220: d6a5 b03e 6555 94bf 74d3 5cbf a823 13bf
00000230: 8c99 7f3e 1bb0 cabd 7b45 2c3e 42b5 cabf
00000240: d174 9cbe f87a 283e c4de 1ebe 2f9f e9be
00000250: 9612 113f f646 f9ba eb0d 92be 8aa3 babe
00000260: 6af0 d23e 8dde 1dbe f1a5 f13d 8363 573d
00000270: 8d5f 86be fa62 90bd e23d 47be eb45 83be
00000280: 5727 d53d fb6c 81bd c121 483e ac9b 0c3f
00000290: 6745 dd3c c21e 093e 285f 123f 5e51 2dbe
000002a0: 7bc2 bd3d aef4 28be 17b2 4ebf 1d43 e2be
000002b0: 5428 73bc 8913 3b3e a0c7 19bd b546 9abc
000002c0: bae5 d63e c28a 623e 4f4a 6abd 4ea4 d8be
000002d0: 663c 2dbf 9d69 9cbc ef2c 723f cd4b 70bf
000002e0: 1df1 223e 2e0c 5ebe 9d0b c8be 2e52 293d
000002f0: a47f 2bbf 6d58 0bbe ac13 5a3e 82d9 1dbf
00000300: d491 23be 8f2b 7e3f 2bc0 7bbe dc0a 3a3e
00000310: e6ca 0dbf 42d7 b3be 38c0 1abc 9d78 92be
00000320: a4e7 93bf e5b6 aebd 4610 a6be 2836 433c
00000330: 6475 ae3c ad9b 83be e141 0abf f490 0cbe
00000340: b6ca 983e bce9 123d 1384 53be c4de cc3e
00000350: 10ad 3bbe 0c62 6c3e 01c0 b2be d14f 213f
00000360: 2354 a3be f61d 633d af2d 7bbf 4d2e 5dbe
00000370: fb26 8f3e 02ee afbd 5433 0fbf ff34 35be
00000380: 9175 21be 7eb4 c3bd 5a76 f4be 75f5 06bf
00000390: 4fe0 1fbd 76f2 2dbf 0477 b5be 393b a4be
000003a0: c454 82be 77f9 67be 137d 23be 03e6 3dbf
000003b0: e52e 89bf dfb0 2c3f 2711 45bf 2370 07bf
000003c0: f3c2 26bf f7ff 083f 14c8 21be c087 683e
000003d0: 9a7c 6c3e c2f6 813e 1ac3 3fbe ecdc 843e
000003e0: fecc 35bf c569 fe3d 210e ecbe 6f51 d6be
000003f0: e740 58bf f9ce 12be 3263 053f 2cc8 28bf
0.30787903 -0.5376267 0.006526666 -0.18610376 0.36478475 -0.3022603 -0.36709246 0.4374456
0.291586 0.44186744 0.1280733 0.09108977 0.26630822 -0.45880258 0.24225548 -0.55855465
0.44241822 0.026900737 -0.11692836 0.37650472 0.31492257 0.16773877 -0.03666578 0.5865445
-0.15464936 0.1881479 0.3375067 -0.67658526 -0.6122496 -0.71528715 -0.48426098 -0.6031088
-0.07134208 -0.6146387 -0.4138689 -0.20804124 1.0454664 0.004793048 -0.5093882 -0.20867941
0.54065084 0.8783376 0.36366776 0.30913773 -1.3456658 -0.17901488 -0.019502915 0.667741
-0.15356891 0.5567549 -0.05297032 -0.5698422 -0.37396958 -0.0006665662 0.19753402 -1.1641195
1.2419899 -0.51159567 -0.44465917 -0.26557615 -0.74745744 -0.5035226 0.74837726 -1.1473705
0.08029761 -0.2882893 -0.07554584 -0.04096107 0.12433269 -0.43108714 -0.6961828 0.10103677
1.0522598 -0.13512345 -0.012441294 -0.016120445 -0.62779933 -0.23503865 -0.043070585 0.65665036
-0.040487103 0.43331918 -0.10336069 -0.22783296 0.024801001 -0.18274462 0.49309826 0.32975236
0.37429354 0.7099474 -0.09760965 -1.0966241 -0.88575745 -0.010411965 -0.16384117 -0.16685566
-0.23452416 -0.26612937 -0.5041322 0.010557291 -0.39364958 0.33750665 -0.6910313 0.0730317
-0.3767221 0.10432753 -1.7214061 -0.03133153 0.0039315526 -0.03280369 -0.52578986 -0.12288235
0.033767093 -0.4511137 0.069133386 -0.435487 0.11865484 0.4980383 0.03736648 -0.124429576
-0.010583862 0.23122819 0.8744288 -1.3370658 -0.1592013 -0.23852165 0.1530453 0.052191973
0.31112668 -0.23034066 -1.2656472 0.24769068 -0.34747565 -0.764018 -0.22126345 -0.07413755
0.34501523 -1.158856 -0.8626015 -0.5747628 0.24960917 -0.09896871 0.1682338 -1.5836565
-0.30557874 0.16453159 -0.15514666 -0.4562926 0.56668985 -0.001901834 -0.28526244 -0.36452895
0.41199046 -0.15416928 0.11799229 0.052585136 -0.26244774 -0.07050128 -0.194572 -0.2563928
0.10407894 -0.063196145 0.19544126 0.54925036 0.027010633 0.1339064 0.57176447 -0.1692557
0.0926561 -0.16499588 -0.80740494 -0.44191828 -0.014841158 0.18269171 -0.037543893 -0.018832544
0.41972142 0.22123244 -0.057199772 -0.42312855 -0.67670286 -0.01909333 0.94599813 -0.9386566
0.1591229 -0.21684334 -0.3907136 0.04133814 -0.6699164 -0.1360795 0.21296567 -0.61660016
-0.15973598 0.99285215 -0.24585025 0.18168205 -0.55387723 -0.35125166 -0.009445243 -0.28607646
-1.1555066 -0.08530978 -0.3243429 0.011914767 0.02129621 -0.2570471 -0.54006773 -0.1372717
0.29842156 0.035867438 -0.20655851 0.40013707 -0.18327737 0.23084277 -0.34912112 0.63012415
-0.3190013 0.055448495 -0.9811658 -0.21599694 0.27959427 -0.08590318 -0.55937696 -0.17695998
-0.15767504 -0.095559105 -0.47746545 -0.5271829 -0.039032277 -0.6794809 -0.35442364 -0.32076433
-0.25455296 -0.22653757 -0.15965681 -0.74179095 -1.0717436 0.67457384 -0.769793 -0.5290548
-0.6514122 0.5351557 -0.1579898 0.22708035 0.23094407 0.25383574 -0.18726769 0.259498
-0.7101592 0.12422518 -0.4610453 -0.41859004 -0.84474033 -0.14336766 0.52104485 -0.6593044

mlp1.2.bias f4 [100]
00000000: f760 87bf d357 03c0 7cbf b3be 7834 06bf
00000010: 7411 9f3d ad7f ac3f 3ad5 2fbd 35bb 5f3d
00000020: 8dc0 85bf f0aa 2cbe af4c 9ebf 1b36 21bf
00000030: ad9c d5be dc98 893b ab3f a43e 6e10 b0bd
00000040: 9a79 863d 2dec 483f 5d9b 383f 8c40 62bc
00000050: 4599 b2bf 8c34 15bd f837 20bf c1fb 1140
00000060: 314d 42bf c3b5 33bd 3c76 04bf be9b ac3d
00000070: 5a34 b4bd 1edb 813d db01 febe 27b7 65bf
00000080: 6232 d0be ab59 f23d 2104 16be 5a66 64be
00000090: 205d 85bf 1b84 3d3d b91b 74bd 9e0c e2be
000000a0: 9a15 f03c e8ab 09bf 056a c33d 7035 913b
000000b0: ee19 8fbf a730 1ebf 800d 05bf b5c3 40bd
000000c0: 54d7 a83f 5d46 8ebd 739a dc3f 330b 783d
000000d0: dd3d 30be 778d 14bf 73eb dc3e 386e 6e3f
000000e0: b45c 90bf 995f a43c 86ce 85be 309f 2cbc
000000f0: 41d0 693e 4c2d cebf 9883 48bf 1f8f aabd
00000100: 66a7 c7bf bb27 19bc 1da0 94bf f81e fbbe
00000110: b89d 313d b1a2 42bf 4f31 b83c 210a be3e
00000120: 1601 a93e 8475 28bd a840 29bf 8703 e2be
00000130: 989f 663d b5f1 60be efbf 78bc 5532 7e3f
00000140: d819 543f 3cad 82bd 352b e1bf 1c47 073e
00000150: cc51 343f f18a bd3d b221 4bbf 4b4f 9c3c
00000160: 9339 d6bf bb47 a1bd 984d aebe 8aaf aabe
00000170: 139e bc3e e9ac a2bd 4f99 16bd f8f0 cd3e
00000180: fb79 89bf 56ee c9bb edf0 f23d 3c14 90bf
-1.0576466 -2.0522354 -0.35107028 -0.5242381 0.07767001 1.3476464 -0.042927958 0.054621894
-1.0449387 -0.16862082 -1.2367152 -0.62973183 -0.41721097 0.0041991305 0.32079825 -0.08596884
0.065661624 0.78485376 0.72112066 -0.0138093345 -1.3953024 -0.036427066 -0.625854 2.2809908
-0.75899035 -0.043874513 -0.5174291 0.08428143 -0.08799048 0.063406214 -0.4961079 -0.89732593
-0.4066344 0.11833509 -0.14650013 -0.22304669 -1.0419044 0.046268564 -0.05959675 -0.4415025
0.029307175 -0.53777933 0.09541706 0.004431419 -1.1179788 -0.6179299 -0.51973724 -0.04706164
1.3190713 -0.069470145 1.7234634 0.060557555 -0.17211099 -0.5802836 0.43148383 0.9313693
-1.1278291 0.020065116 -0.26134127 -0.010536 0.22833349 -1.6107574 -0.78325796 -0.083280794
-1.5597961 -0.009347851 -1.1611363 -0.49047065 0.043363303 -0.760295 0.02248445 0.37117103
0.3300864 -0.041127697 -0.6611428 -0.44143316 0.056304544 -0.21967204 -0.015182479 0.9929555
0.82851934 -0.06380698 -1.7591311 0.1321072 0.7043731 0.092550166 -0.7934829 0.019080779
-1.673632 -0.078750096 -0.34043574 -0.3333705 0.3683935 -0.07943136 -0.0367673 0.40222907
-1.074035 -0.006162445 0.11862359 -1.1256175

mlp2.0.weight f4 [100, 100]
00000000: f8b3 38bf cbf1 11be 7dcc 4cbf f0bd 34bf
00000010: 03f5 11bf 0ac9 52bf 198c 093e 6ca7 50be
00000020: e4f5 5e3d 92cf 51be 2e10 2abe a949 763e
00000030: 1f69 01bf 1930 7d3c 0f59 36bf 2db9 56be
00000040: 21c1 a4bd d5b8 b0be e709 c33d c322 82bd
00000050: 2ea4 6fbe 17b5 c33c 5381 353e ea3a 47bf
00000060: 9e3d 14bf 8fd2 3a3d ccc7 25bf af73 da3c
00000070: 220c 9a3b 89c2 76bd 600f d53e 68df 1fbe
00000080: 1433 993d 0395 c33e c877 713e 2094 b0bd
00000090: 910e bebd 301d 8ebd a57d 95be 4b05 03be
000000a0: 5847 cebe 4f63 a2be 32a9 86be 01f3 333e
000000b0: eb40 463d 5f1d bfbe 10d5 113e d677 0fbf
000000c0: 1ef3 d2bd 339d df3c 4338 84bd ba19 243f
000000d0: 9849 143c a722 1fbf d010 7fbf 2cde 5f3d
000000e0: 898e 983d 7f6b 413f 1476 a73e fe95 623c
000000f0: e5e8 333d 08f8 e9be c357 97bf f502 633d
00000100: d783 dfbc 0d07 c3bd eafd 69bd ec58 e4be
00000110: f5c6 0bbd 5a5a 993e fab0 7f3d ce1b d2be
00000120: f4db a93e 58ac 443f fd2b 6cbd ad7d 9d3e
00000130: c621 2d3e 0350 303d bcb6 e5bd c395 55bf
00000140: 3c4d 51be 35c4 3cbd 8c0b 1abf dc72 1dbe
00000150: b54e a3be 9142 1bbf 5635 a73e 489c 51bd
00000160: 2fe9 2ebe 3c1e 6dbd 3c04 f93d b89a 3a3f
00000170: c11b 96be 733a 5bbe 9273 3fbf e359 dc3e
00000180: a8ee be3c eb25 9b3c fd61 ff3e ad2c 6cbf
00000190: d64d 44be 7818 cabd de9d f6bd 80cf 12bf
000001a0: 5fda 96be 6a0a 103f 7948 2d3d 110d e6b7
000001b0: 97a3 d7be 0930 82be 725c dbbc e0ce 4f3f
000001c0: 1fd1 b4be 4fc6 7bbd db0a 4fbf 9ce8 19be
000001d0: c085 b0bd 1b60 a4be b2b0 64bd 1587 acbd
000001e0: d7ae 323d ff1a 88bc 31e5 2abe 836a 8ebb
000001f0: 8bed 3dbd 5e97 103c 30f5 ef3d 0721 423d
00000200: 8715 833d 87f4 05bf 3a05 63be 7ea4 a1bc
00000210: acce b5be 0822 8dbe 21a0 5e3d 8104 66bd
00000220: 1376 00bf f51c dd3c 26dd 323f dcbe 4c3e
00000230: 4cb6 18be 3108 adbd ddf4 e1bd f75f 1abd
00000240: 3ad1 bcbe 6eec 66bf e011 b9bd 2e6d 343f
00000250: 03d9 7cbf c54b 50bd 87e4 74be 4f71 e7bd
00000260: 9e87 b8bd 38de 18bf a976 26be 3674 18bf
00000270: 048d 41be 37d9 a4be 0b87 91bd d705 9dbd
00000280: ce88 30be 1f47 66be 6792 b6bd 30bf d23c
00000290: 1410 13bf 25e7 5bbc 9064 07bd 3ffc 4f3d
000002a0: 5f96 0e3d 6537 4bbf b429 5fbd ee14 4f3d
000002b0: 413b 33be 4273 6abe 9507 a4bf 3ceb f23d
000002c0: 2d26 d8bc 77ec 7fbf 43fa 8dbd a61a 6bbe
000002d0: 58cd 5dbe 00ec 52bd 5807 9e3d 225b ca3d
000002e0: 6712 3e3f a891 2d3e 534b 8d3e 91b6 073d
000002f0: b7e5 e2bb 9ead 44ba cffc 213d 19ed a7bd
00000300: 4def 4abe 5434 ce3d 2a69 5bbf 293b 1fbf
00000310: 422b 19bf c8f8 e03d 421c 033f 5634 28bf
00000320: 3ae1 efbe 9f81 7fbd 75d6 a9be 42d5 8ebe
00000330: 8638 a7bc 38df 233d 6d2d 9e3c 733a c6bd
00000340: ba5a 0abf 333b eabe 0cc6 06bd 509c 0cbe
00000350: 80b5 bcbe 7bd1 383d be24 40be bba8 38bd
00000360: c8dd 453c 8009 aebe dc9d d5be 31c8 3cbd
00000370: d981 ebbb 5c9f 87bd 2f43 53bd 934a bbbe
00000380: e66d ffbd 0b01 fe3d ebc7 25be e15d 533d
00000390: 1b3c b23d a5e6 fe3d af98 53be 3a2f 3b3c
000003a0: 465d fbbd 39b8 7b3c 7b0d 65be 02e0 e03d
000003b0: 68fe e7be 75d6 463c b887 4a3e 36ef 3bbe
000003c0: 7b27 20be 3179 f33d c079 5e3e c4c4 67bc
000003d0: 3014 90bd ade4 acbe 00fa 82bd a625 7b3d
000003e0: 481a f9be 487c 25bd 0224 39be 868c 84be
000003f0: 1f8d 04be d56a bcbe 1b33 f3bd fc5a bebe
-0.7214961 -0.14252393 -0.79999524 -0.7060232 -0.57014483 -0.8233801 0.1343235 -0.20376366
0.05443372 -0.20489338 -0.16607735 0.24051537 -0.5055103 0.015453362 -0.7122964 -0.20969076
-0.08044649 -0.34516016 0.09523373 -0.063542865 -0.23402473 0.023890061 0.17725115 -0.7782427
-0.5790652 0.04561096 -0.6475799 0.02666649 0.0047011534 -0.060244117 0.41613293 -0.15612566
0.074804455 0.38199624 0.23580849 -0.086220026 -0.09280122 -0.06939161 -0.29197422 -0.12794988
-0.40288806 -0.3171639 -0.2630096 0.17573167 0.048401754 -0.37327096 0.14241433 -0.5604223
-0.10300277 0.027296638 -0.064560436 0.64101756 0.009050749 -0.6216225 -0.9963503 0.05465524
0.074490614 0.7555465 0.32707274 0.013829706 0.043923277 -0.45697045 -1.1823658 0.055422742
-0.027284546 -0.09522829 -0.057126917 -0.44599092 -0.034125287 0.29951745 0.062424637 -0.41036838
0.33175623 0.76825476 -0.057659138 0.30759946 0.16907415 0.043045055 -0.112164944 -0.83431643
-0.20439619 -0.046085555 -0.6017387 -0.15375847 -0.31895986 -0.6064845 0.3265788 -0.051174432
-0.1708114 -0.057890162 0.12159011 0.7289233 -0.2931805 -0.21409015 -0.7478572 0.43037328
0.02330716 0.01893898 0.49879447 -0.9225567 -0.19170317 -0.09867948 -0.120418295 -0.5734787
-0.2946348 0.5626589 0.042305443 -2.7424221e-05 -0.42116997 -0.25427273 -0.02677748 0.8117504
-0.35315797 -0.06146842 -0.8087594 -0.1503014 -0.08619261 -0.32104573 -0.055832572 -0.08424202
0.04362377 -0.016614435 -0.16688992 -0.0043461933 -0.046369117 0.008825151 0.11716688 0.04739478
0.064005904 -0.52326244 -0.22169963 -0.019731756 -0.3550924 -0.27565026 0.05435193 -0.05615664
-0.50180167 0.026991347 0.69868696 0.19994682 -0.1491329 -0.08448828 -0.11033032 -0.037689175
-0.36878377 -0.90204513 -0.090366125 0.70479095 -0.98768634 -0.05085351 -0.23915301 -0.11300909
-0.09010242 -0.5971408 -0.16256203 -0.59552324 -0.1890145 -0.32196972 -0.071058355 -0.076671295
-0.17239687 -0.22488068 -0.08914643 0.02572593 -0.5744641 -0.013421808 -0.03305489 0.05077767
0.034811374 -0.793814 -0.05448313 0.05055707 -0.17503072 -0.2289553 -1.2814814 0.11861274
-0.026385391 -0.9997019 -0.06932499 -0.22959384 -0.21660364 -0.0514946 0.077162445 0.098806635
0.7424683 0.16950095 0.2759653 0.033133093 -0.006924357 -0.00075026776 0.039547738 -0.0819952
-0.19817849 0.100685745 -0.8570734 -0.62199646 -0.5983163 0.10984951 0.51214993 -0.6570486
-0.46851522 -0.062379476 -0.3317143 -0.27897078 -0.020412695 0.0400078 0.01930877 -0.09679117
-0.5404469 -0.4574829 -0.032903716 -0.13731503 -0.36857224 0.04512165 -0.18764016 -0.04508279
0.012076803 -0.33991623 -0.41722 -0.046089355 -0.00718711 -0.06622192 -0.051577743 -0.36580333
-0.12472133 0.12402543 -0.16189544 0.0516032 0.087028705 0.12446336 -0.20663713 0.011424834
-0.1227365 0.015363746 -0.22368424 0.10980226 -0.45311284 0.0121360915 0.19778335 -0.1835297
-0.1564006 0.1188835 0.21726131 -0.014146034 -0.070351005 -0.33768216 -0.0639534 0.0613152
-0.48652864 -0.040401727 -0.18080142 -0.2588846 -0.12944458 -0.36800256 -0.11874982 -0.3717879

mlp2.0.bias f4 [100]
00000000: 287e 823f e1a0 0fbf 3f84 0ebf 212b 2840
00000010: 4a65 a5bf 06a6 823e 4ec5 813f e6f0 1dbf
00000020: 2669 9e3d b253 13be f43d bbbe 4c21 26be
00000030: 5eb9 45be 9fe3 f9bd 4a14 54be 4517 9b3d
00000040: 9eac a03d c474 023c 0f97 c140 1413 103f
00000050: 8f33 85bd e80e 5cbe 7742 9abe b595 37be
00000060: 0922 a4be d325 253e 5222 2bbe b8b6 a7bd
00000070: 1f45 23bf 43b5 2b40 6f73 f5be 3d7d a0be
00000080: fe36 9abe 35c5 c4be bfbf d7be e8b7 bebe
00000090: ca24 a33d bcba b93f 970e 023b f829 88bd
000000a0: 2709 883d 26db 12be 2d7f 06bf 861a 0cbf
000000b0: f997 8bbd 9247 11be 5b75 61be 1d48 b5bd
000000c0: 638d fc3e c424 bd3f c153 b3be 7f22 1ebe
000000d0: 7d52 64bd 04a1 13c0 0450 80be bacf 6040
000000e0: 4aa3 ab3e 08c4 11be 3170 d23d 1685 cfbc
000000f0: 56a9 a4bf 597e edbd 3f5e 4dbe 17b8 aabe
00000100: 451d 0fbd 923d 85be 6f87 613f a41b 55be
00000110: 26ae 23be a433 99be c85d 6040 eaee 1cbc
00000120: 8f8e 4ebe 356e 7dbe cf98 d13f 613e bebd
00000130: f837 2abf 65cd 1e40 1206 c9be e799 97bc
00000140: e817 3d3d 87fb 05be 3466 d4bd 48e5 b2bd
00000150: 185a 003f ddbd a83e ff82 87bf 88f5 39bf
00000160: 3f51 a73b 9b46 02be f51b b2be c380 d8bd
00000170: 06ee 47be 1a71 28bf 23f2 e63f 7b2d d83d
00000180: e108 a940 7227 b0bf a74e 393f 724b 04bf
1.019475 -0.56104857 -0.5567054 2.6276324 -1.2921536 0.2551729 1.0138338 -0.61695707
0.07734899 -0.14387396 -0.36570704 -0.16223639 -0.19308993 -0.122016184 -0.20710865 0.07572798
0.07845424 0.007962409 6.04969 0.5627911 -0.06503975 -0.21490061 -0.30128834 -0.17928202
-0.32057217 0.1612771 -0.16712311 -0.08189148 -0.63777345 2.6829383 -0.4793963 -0.3134555
-0.3012008 -0.38431707 -0.42138478 -0.37249684 0.07966001 1.4510112 0.0019845122 -0.0664863
0.06642371 -0.14341411 -0.52537805 -0.5472797 -0.06816096 -0.14187458 -0.22017424 -0.08851645
0.4932662 1.4776845 -0.35024837 -0.15442847 -0.05574273 -2.3067026 -0.25061047 3.5126786
0.33523017 -0.14234936 0.10275305 -0.025332015 -1.2864177 -0.115963645 -0.20055483 -0.33343574
-0.034940023 -0.26023537 0.8809728 -0.20811325 -0.15984401 -0.2992221 3.505724 -0.009578446
-0.2017157 -0.24749072 1.6374758 -0.092892416 -0.6649165 2.4812863 -0.39262444 -0.018506004
0.046165377 -0.13084231 -0.10371056 -0.08735138 0.5013747 0.32957354 -1.0586852 -0.72640276
0.005106121 -0.12722246 -0.34786955 -0.10571434 -0.19524392 -0.6579758 1.8042644 0.1055555
5.282334 -1.3762038 0.7238564 -0.5167762

mlp2.2.weight f4 [50, 100]
00000000: 93d4 7e3e e0d1 50be 5953 893c efe6 a2be
00000010: 08aa 2abc 354f 2dbf 9206 743c 76b6 973d
00000020: 54f7 ab3d e603 b7be 621a e13d 7f05 5abe
00000030: 045b 3a3e fcff 56be 3197 c9bd 27f3 86be
00000040: 9d59 a83e a915 e5bd 9587 9ebe fc3a 8b3d
00000050: 5881 4b3d a1b3 d5bd 2904 0f3c eb4b e73d
00000060: 5472 00bf c6df 24be 9e80 e73d dca2 5dbe
00000070: d069 38be 7c3d 89be 4b4e 983d 97d4 99bc
00000080: 6f71 8ebb 5155 1c3e 532e 843e 9aab 573e
00000090: bef8 85bc c42c 1bbe 5cba 863e 7a03 8abe
000000a0: 786e 223e e65e 15be 7378 7d3d 62a5 4abe
000000b0: 66b2 a33e 18ba 6d3e da6c 993e 3bcc 80bd
000000c0: f88f b63d abfa 0cbe 0590 febc f26e a13e
000000d0: 5c59 4e3e 7df9 f9bd 4e50 bf3c 53b6 583e
000000e0: 2fa7 0dbd b6f9 943d 3ad1 3bbe 7a4b 82be
000000f0: 22b4 bebe 1543 b8bd ddb1 0bbd 4db6 153e
00000100: 71ca 923e 7adf 02be 4087 b4bd df9e 273f
00000110: 6b08 3fbe 12fb 8abe d666 fb3c 3163 5ebe
00000120: 45cf b73e eefa b93e c495 6fbe b7de 283d
00000130: 63c0 cabd 14f5 4a3e 953d cf3d bfb5 abbe
00000140: 5cc8 733d 1102 e6bd 3360 43bf 94b5 a33e
00000150: 110c 69bc 69d7 67be db92 f8bd 8469 993d
00000160: f136 103e 20ab e0bd 7ea1 6c3d 037f 33be
00000170: 259f f4bc a447 2d3f 7f2b eb3c 3931 7cbd
00000180: 7b4e a83d 5089 adbc cc38 863e 6b9a ce3e
00000190: e215 9f3d 1239 9ebd c8ae 6dbe 909a bcbd
000001a0: c8a8 cb3d 52ba 893e 55fb 9c3e 9e4d b5bd
000001b0: f3c0 7fbe e1e5 fd3e d4a0 023e 9e8a 97be
000001c0: ef12 ca3d 4041 73be 4048 92be d4a3 4bbe
000001d0: f583 44bd 0b58 8abe e7b9 0bbd 6681 253e
000001e0: 3f5d 88ba d52f 8cbd 0e23 a8be 1928 c4bd
000001f0: b3b9 54bf c20f 47bd 4428 2c3e b2af b73e
00000200: d7b5 323e 6e1f 493d d3a7 03bf 319d 2dbe
00000210: fcce 42be 1e48 0bbf 6374 ca3d bd8a 1fbe
00000220: 9e98 d0be 70e8 2e3e 6967 dbbe 00ec fa3e
00000230: 6d34 00be b347 e8bc 28e8 bbbe 8fb8 24bc
00000240: ab2f aabe 5dd5 79be 6ef7 61bd 5974 27be
00000250: 9908 83bd c36b c7bc 7a0e 13bd 1367 fe3e
00000260: 6c52 c3bd 94db 62be 5bcd 943e 33b1 e0be
00000270: 6c81 803c 7618 a1bd 333e b43e 0834 68bd
00000280: f93b 003e 7279 dcbd 8eae c9bd 80f6 3abd
00000290: e34e 81be 8b86 a33e 7067 3d3d abef 53be
000002a0: d6d3 a6bd 30b9 1d3e 5c84 833e 6436 c7be
000002b0: 80fd 0bbe 87df edbe 0bba 2c3f 8286 823e
000002c0: 64b0 3dbd 6401 c93b 5a2a 41be 4d85 85bc
000002d0: 5789 5bbe 6a16 2cbe b114 d6be 4ac4 59bc
000002e0: 96d7 863e 14d6 47be 9fe2 f7bd e086 d33d
000002f0: d0b6 1abe b8a0 fcbe 7b96 913d 6197 2b3d
00000300: ee0f 0bbe 899b 77be 182a 40be 8740 083e
00000310: 728f 353d 548f 313e 74dc 8c3e ecd0 593d
00000320: 8076 a03e 0046 ffbc 7d9f ffbd e944 313c
00000330: 4455 873c ebd8 623e 3b51 72bd ad87 7cbd
00000340: 4fe4 92be b6b2 9fbe 0282 40be 54c5 61be
00000350: 120f d1bd 8db1 a63c 3a18 1dbe 71d6 4cbd
00000360: a376 ccbc 1039 bfbe beff c93d 43ff 2bbf
00000370: bef6 40bc 3a50 a7be c803 63be 59a4 07bc
00000380: afcd 243e 011b 33bd 74ee bc3d c37e 29bd
00000390: db36 4e3e d26d 42be d989 5abe b42d 213e
000003a0: d673 36be c9cb aebd 5f71 6dbe 9d29 e73e
000003b0: c6a4 96be 6fc5 133e 3171 3ebe ff54 8cbe
000003c0: 7a03 a5bd d735 5ebe dbdb 4fbe 3cfe 8ebe
000003d0: f28b 46bd 359b 5e3d 9efb fc3d 9488 1cbe
000003e0: 16f1 9a3e b813 193f 8ef8 e8bd d2f8 693e
000003f0: a1ce 71bc f157 09be 8f6f 653d a5fb d13e
0.24885778 -0.20392561 0.016763376 -0.31816813 -0.010416515 -0.67698985 0.014894145 0.074078485
0.083967835 -0.35745162 0.1099136 -0.21291159 0.18198782 -0.20996088 -0.098432906 -0.26357386
0.3288087 -0.11185772 -0.30962816 0.0679836 0.0496839 -0.10434652 0.008729019 0.11293777
-0.5017445 -0.16100988 0.11303829 -0.21644157 -0.18009114 -0.2680472 0.07436808 -0.018778129
-0.0043470184 0.1526692 0.25816593 0.21061555 -0.016353961 -0.15153795 0.26314056 -0.26955777
0.15862453 -0.14586982 0.061882447 -0.19789651 0.31972045 0.2321552 0.2996586 -0.06288954
0.089141786 -0.13767497 -0.031074533 0.31529957 0.20151275 -0.12205789 0.023353722 0.21163301
-0.034583267 0.07274191 -0.18341532 -0.2544821 -0.37246805 -0.0899717 -0.03410517 0.14620323
0.28670076 -0.12780562 -0.088148594 0.65476793 -0.18655555 -0.27144676 0.030688684 -0.21717526
0.35900322 0.36324257 -0.23396975 0.041228022 -0.09899976 0.19820052 0.10119168 -0.335371
0.05951725 -0.11230863 -0.76318663 0.3197447 -0.014224068 -0.22640766 -0.121373855 0.07490829
0.14083458 -0.109701395 0.0577712 -0.1752892 -0.029861042 0.6768744 0.028707264 -0.06157038
0.08218094 -0.02118364 0.26215208 0.40352187 0.07767846 -0.07725729 -0.23211205 -0.09209168
0.09944302 0.26899964 0.306605 -0.08852695 -0.24975948 0.49589446 0.12756664 -0.29597944
0.098668925 -0.2375536 -0.28570747 -0.19886714 -0.047977407 -0.27020296 -0.034112837 0.16162643
-0.0010403766 -0.06845061 -0.32839245 -0.095779605 -0.83095855 -0.048599012 0.16812235 0.35876232
0.17452179 0.04910224 -0.51427954 -0.16954495 -0.19024271 -0.5440692 0.0988548 -0.15580268
-0.40741438 0.17080855 -0.42852333 0.4900818 -0.12519999 -0.028354501 -0.3670056 -0.010053768
-0.33239493 -0.24397798 -0.055167608 -0.16352977 -0.06398124 -0.024343377 -0.035902478 0.49688014
-0.09537205 -0.22154075 0.29062924 -0.43885192 0.015686713 -0.07865994 0.35203704 -0.056690246
0.12522878 -0.10765351 -0.09847747 -0.045645237 -0.25255498 0.31938586 0.046241224 -0.20696895
-0.08145873 0.15402675 0.2568692 -0.38908684 -0.13670921 -0.464596 0.6747138 0.25493246
-0.046310797 0.006134199 -0.18863812 -0.016298914 -0.2143911 -0.16805425 -0.4181266 -0.013291428
0.26336354 -0.19515258 -0.121037714 0.1032846 -0.151088 -0.4934137 0.0710878 0.041892413
-0.13580295 -0.24180426 -0.18766057 0.13305865 0.044326253 0.17339832 0.27511942 0.05317776
0.31340408 -0.031161308 -0.12481592 0.010819652 0.01652015 0.2215306 -0.0591595 -0.061652828
-0.2868981 -0.31191033 -0.18799594 -0.22047931 -0.102079526 0.020348335 -0.15341273 -0.050009195
-0.024958914 -0.37348223 0.09863232 -0.67186373 -0.011777578 -0.32678396 -0.22169411 -0.00827893
0.16094087 -0.043726925 0.09225169 -0.041380655 0.20138113 -0.18987206 -0.21341647 0.1574009
-0.17817625 -0.08534963 -0.23187779 0.45148936 -0.29422587 0.14430784 -0.18597867 -0.27408597
-0.08057304 -0.21700226 -0.20298712 -0.2792834 -0.048473306 0.054347236 0.1235268 -0.15286475
0.3026206 0.59795713 -0.11375533 0.22848824 -0.014758737 -0.13412453 0.056014594 0.41012302

mlp2.2.bias f4 [50]
00000000: 93ea 333f ab64 d73d d018 433c d43d 0ebf
00000010: 8f65 22bf 65c4 a23e 7b0a 683f bd02 73bf
00000020: b7b0 c8be 6107 443e c41a 5c40 27e8 86bf
00000030: e12d 30bf fbbc 2f3f ae05 01bf ae41 66bf
00000040: 0192 21be 2fec 14bf f7b1 e1bf bb9e 0340
00000050: 00d8 603f 1fd7 943f 1b12 2d3e 0334 aebe
00000060: 6838 7c3f cdf3 eb3f 2c4d 5ebe c587 49bf
00000070: 0f03 91bf 0ad7 743e 8c84 c33c 825e a93f
00000080: 7623 933f 6dd2 793d 676f 163f f836 3ebe
00000090: d5ca 30bf 4236 d7bd 6dea 413f 3546 5bbf
000000a0: e482 ac3f 5e43 5bbf 1a91 443e c37e 1cc0
000000b0: cedd a93e 3504 d23d 8812 38bd db05 75bf
000000c0: 9e09 0840 1280 053f
0.70279807 0.10517248 0.011907771 -0.5556309 -0.63436216 0.31790462 0.9064099 -0.94926053
-0.39197323 0.1914344 3.4391336 -1.0539597 -0.68820006 0.68647736 -0.5039929 -0.8994397
-0.15778352 -0.5817289 -1.7632436 2.0565631 0.8782959 1.162815 0.16901438 -0.34024057
0.9852357 1.8433777 -0.21709126 -0.7872279 -1.1329058 0.23910156 0.023866914 1.3231966
1.1495197 0.060991693 0.58763736 -0.18575656 -0.690595 -0.10508396 0.7574833 -0.85654
1.3477445 -0.8564967 0.19195977 -2.445237 0.33177036 0.10254709 -0.044939548 -0.9571206
2.125587 0.52148545

attention.0.weight f4 [100, 100]
00000000: c5ef b6bd 03e4 49be e7e7 22bd 9ec0 973c
00000010: 943c 9e3b 94d1 5f3d 65cc c2bd fb67 a5bd
00000020: 066d 71bd 3aa6 7fbc 4716 b33d 2886 a0bb
00000030: 9ff8 b6bd d79a 5fbd ca03 05be 232d aa3d
00000040: f415 a93d a520 a53d 05e5 f9bd 8e19 083d
00000050: 39c6 aebc 0971 87bd bb4d 43be 83ee 9fbd
00000060: 3e9b 8d3c cb4a 2a3c 5458 b9bd c5ca 863d
00000070: bdca ddbc 8de0 b6bd 4a97 a73d d145 a4bd
00000080: 26f8 bcbd 773b adba 3f78 a2bd 3c46 84bd
00000090: 1dbe 8a3d 43b7 96bd daaf 903d 335b 8ebd
000000a0: 9b59 723b 1b10 08bd 5e55 c1bd d3f5 55bd
000000b0: c919 e7bd 8363 683d 3a02 85bd 60f6 0e3d
000000c0: 4d6e 2b3c 1262 c63d 0bd9 acbd 592d 58bc
000000d0: 5beb ddbd b026 4a3d c9ca aabd b575 95bd
000000e0: 4319 edbd fc9a d83b ac57 88bd f188 bdbd
000000f0: 4035 44bd 15ba 2fbc 2c8e c6bb 1f55 b2bc
00000100: 50e0 ed3c 652e 3dbd e193 1dbe 8f75 3cbd
00000110: a819 273d dc65 d9bd e43a de3c 5828 06be
00000120: 80c2 9cbd a895 4c3d aaa3 93bd 9c04 bcbc
00000130: aee9 443b 8a08 6cbd 8b97 a4bc d64a c4bc
00000140: caa0 a5bd b31f 883c 8da7 25bd 1aa7 fe3c
00000150: 1ab0 14be 5282 f63b 6051 853d 55ae 27bd
00000160: 5c8d 8bbd e9f6 7e3d 48a0 b5bd ce3c fdbd
00000170: 613e 1abc 6dd5 b23d b0df 8dbd c15a 663d
00000180: 486b 17be ede3 58bd 4105 b0bc a08a 7dbd
00000190: c4b1 81bd 4d5e 34be 8f7a a63c 53d6 293d
000001a0: b69a 00be f7b3 133d 1325 93bd 7912 ce3b
000001b0: 6334 69bd d37b 16bc 8dba d5bc f34a 8abc
000001c0: 3d16 773d 6153 b3bd 35ad 36bd 08bb 953d
000001d0: 73f5 69bd c45d 633d 4fc8 90bd 94fd db3c
000001e0: e087 223d d25c 153d 2732 e73c 0831 3bbd
000001f0: c4a8 7bbd 536a 7bbd a9cf 59bc 0b66 4abd
00000200: 86dc 2f3d 2ce0 96bd 971e c0bd bf0f 16bd
00000210: b32f e5bc c511 053c 39ad cf3d 6797 853d
00000220: 5080 1b3c 36ee 29bd f67b 14bd b9ed 603d
00000230: 7041 7e3d 723f a0bd d04d e43d 1184 1f3d
00000240: f0dd 7bbc 8595 a23d 8b74 67bd 6848 083c
00000250: f66c cbbd 1a38 06bd 83a1 f53a 2181 f0bb
00000260: 982a f2bc 5000 33bc 68b3 e93c c969 a5bd
00000270: 4c87 1ebd 5bd0 c2bd 3f0f 793d 733b a5bd
00000280: fd60 32bd 44d7 543c 7d6b ec3c a5fe b4bc
00000290: f9cf 433c ea1b ac3c 6ea6 20bd 66df 6dbc
000002a0: debb 7c3d 73e0 8abc 46d0 64bd f72e e73c
000002b0: 8bea a7bc e449 cabd 9be0 313d 68b6 013d
000002c0: 0eae 15bd 2b51 40bd 7487 b63d ee4f 90bd
000002d0: 79ad 7bbc dcb5 4dbd 4ff1 0d3c 0689 f2bc
000002e0: ced0 89bc fdf1 87bd 778e 4abc 25a0 c23c
000002f0: 2d6d ed3d 2312 463d ab36 ebbb 30be 0b3e
00000300: f85a b2bd ad0c 31bc 5392 27bc 17bc 59bc
00000310: 04ac d1bd 74fe b4bc ce44 20bb ecda 92bd
00000320: f789 43bd 1b8a 1bbe 84c5 aebd 7da4 393e
00000330: 04e4 babd 2ab0 50be 9532 91bd 28eb 87bd
00000340: a573 0ebd a2db 6fbd 0ccf 8dbd ea6b 69bc
00000350: 4cec c0bd df0b 42bb 4439 07be 8e21 233d
00000360: 17b3 a2bc e686 88bd a358 29be 0941 8b3d
00000370: 4b60 27be f8fd 8bbd c46a 02bd efb6 50bd
00000380: 4ef4 cb3d 9045 893d 81b7 fcbd 48aa 04bd
00000390: e988 b5bc 8620 e7bc dfe7 c2bd 0d2a b0bd
000003a0: c68e dcbc e1e5 74bd 0c02 24bd cae0 923c
000003b0: 9664 93bd fab5 b2bd f091 e2bd ad83 5bbd
000003c0: 28c3 47bb bc0e eabd a6fd 6dbd 7035 04bd
000003d0: 0cc8 6c3d feab eabd 3c75 78bd 204a 77bd
000003e0: 5238 803b df19 50bd 6464 403d 9a44 d93c
000003f0: 7844 9cbd 5682 d3bc 159e 00be 4c3d 893d
-0.08932451 -0.19715886 -0.03977194 0.018524464 0.004828999 0.05464323 -0.095116414 -0.08076473
-0.058941863 -0.015603596 0.087444834 -0.004898805 -0.089341395 -0.054591026 -0.12989727 0.083093904
0.0825614 0.08062867 -0.12201885 0.033227496 -0.021334754 -0.066133566 -0.1907262 -0.078091644
0.01728594 0.010393809 -0.090500504 0.06581644 -0.027074212 -0.089295484 0.08183153 -0.08021129
-0.09227018 -0.0013216574 -0.07933091 -0.06458709 0.067745425 -0.07359173 0.07064791 -0.069509886
0.0036979679 -0.033218484 -0.094401106 -0.05223639 -0.11284215 0.056735527 -0.06494565 0.03490293
0.0104633095 0.09686674 -0.08439835 -0.0131944055 -0.10835906 0.0493533 -0.083394594 -0.072978415
-0.11577084 0.0066102725 -0.06657347 -0.09254635 -0.047902346 -0.010725518 -0.0060594287 -0.021769105
0.029037625 -0.046186823 -0.15388443 -0.04601055 0.040795952 -0.10615131 0.02712769 -0.13101327
-0.076542854 0.04994741 -0.07208951 -0.022951417 0.003004651 -0.05762533 -0.020091793 -0.023961466
-0.08087309 0.016616678 -0.040442992 0.03108554 -0.14520302 0.0075228596 0.06509662 -0.04093774
-0.068140715 0.06224719 -0.08868462 -0.12365113 -0.009414286 0.08732114 -0.06927431 0.056238893
-0.14787018 -0.052951742 -0.02148688 -0.06189978 -0.06332734 -0.17614098 0.020322112 0.04146416
-0.12559018 0.0360603 -0.07184806 0.006288823 -0.056934725 -0.009184795 -0.02608993 -0.016881442
0.060323942 -0.08756138 -0.044598777 0.07311064 -0.057118844 0.055509344 -0.07069456 0.026854314
0.03968036 0.036465473 0.028222157 -0.045701057 -0.061440244 -0.061380696 -0.013294139 -0.049413722
0.042934917 -0.07366976 -0.093808345 -0.03663611 -0.027976846 0.008121912 0.101404615 0.06523018
0.009491041 -0.04148694 -0.03625103 0.05491421 0.062074125 -0.07824601 0.11147654 0.038944308
-0.015372738 0.07938675 -0.05650763 0.008318044 -0.09932892 -0.032768346 0.0018740151 -0.007339612
-0.029561326 -0.0109253675 0.02852793 -0.080768175 -0.038703248 -0.09512397 0.060805555 -0.0806798
-0.043549526 0.012990776 0.028859848 -0.02209408 0.01195144 0.021009404 -0.03922122 -0.014518594
0.0617026 -0.016952729 -0.055862688 0.028220637 -0.020497581 -0.09877375 0.04342709 0.031668097
-0.036542945 -0.046952408 0.089125544 -0.070464954 -0.015361183 -0.050222263 0.0086634895 -0.029606353
-0.016823199 -0.066379525 -0.012363068 0.023758003 0.11593089 0.04835714 -0.007178148 0.1364677
-0.08708757 -0.010806245 -0.0102277575 -0.013289473 -0.102378875 -0.022093989 -0.0024455073 -0.07170662
-0.047738995 -0.15189402 -0.08533767 0.18129154 -0.09125522 -0.20379701 -0.07089726 -0.06636649
-0.034778256 -0.058559068 -0.06924257 -0.01424692 -0.0942007 -0.0029609127 -0.13205439 0.039826922
-0.019860787 -0.06666355 -0.16537718 0.06799514 -0.16345327 -0.0683555 -0.0318401 -0.05095571
0.09958707 0.06702721 -0.12339688 -0.032388955 -0.02216001 -0.02821375 -0.09516882 -0.086017706
-0.026923548 -0.059789542 -0.040041015 0.017929453 -0.071969196 -0.087261155 -0.110629916 -0.053592373
-0.0030481312 -0.114285916 -0.058103226 -0.032277524 0.057807967 -0.11458586 -0.06065868 -0.060373425
0.003912964 -0.050805923 0.04697074 0.02652197 -0.07630247 -0.025818985 -0.12560304 0.067011446

attention.0.bias f4 [100]
00000000: b546 a4bd a7b8 24be fb83 093e 7274 74bd
00000010: 2088 36be a94e ecbe 158d c5bd 68d1 aebe
00000020: b2f7 66be ad1f 06bd 431a 27be 734b 3bbe
00000030: 039f 1fbe 07e0 91be c783 9bbe 1a38 e2be
00000040: 6d1b 98be aed3 d3bd 5c75 46be 00e2 64be
00000050: 2d02 2dbe 53e1 c4be 07db 4bbe e8b1 90be
00000060: e414 76be 0f21 a5be 62ad 043e 6904 3cbe
00000070: 69d7 2dbe c52e fabd 133e 1dbe 091b e0be
00000080: 602b cabd 385e 60be 2196 e2bd 2b76 9abd
00000090: 04e4 f6bd 5a1f 12be 3fc7 a7be 39a7 253e
000000a0: 2eb3 ff3c 266e 49be 2fdf 61be f42f 4ebe
000000b0: 73c7 54bd 1a5f 77be 6d28 53bf 1201 6f3e
000000c0: 5900 8ebc 3abe 88bd 4d66 13bf d635 52be
000000d0: 6f4a 4fbe af3a 79bd 4199 05be b543 09be
000000e0: c571 a1bd 9f4c 09be 0b56 c5be 0406 88bc
000000f0: 264a c8be 5c47 aabd 39b9 3ebe 2038 11be
00000100: c477 0fbd 6fdc c1be 49c6 b0be 80d4 54be
00000110: dae3 b53c 85cd 743d da28 84bd dbc1 03bf
00000120: 7a51 90bd 091e 213d e3e0 33be 4a68 59be
00000130: 0ebd 23be e2f2 50bd 4506 e1be 09a1 f53e
00000140: 897b 38be 94cd 94be 13e0 bdbe dbb7 2abe
00000150: ac4e 86be 94a3 cabd ad2f 0d3e 37dc fcbe
00000160: 3e6a 68be b66a 4ebe 109d a1be 1041 eabc
00000170: 7a24 d7be a835 f1bc 1433 12be b7ec debe
00000180: 5a8d 12bd a8da 02be b5e9 59be 08a6 c0bd
-0.08021299 -0.16086064 0.13429253 -0.059681363 -0.17825365 -0.46153763 -0.0964605 -0.3414414
-0.22555426 -0.032745052 -0.16318612 -0.182905 -0.15588002 -0.28491232 -0.30373976 -0.44183427
-0.29708424 -0.10343109 -0.19380707 -0.22351837 -0.16895361 -0.3845316 -0.19907771 -0.28260732
-0.24031407 -0.32251784 0.12956765 -0.18361057 -0.16976704 -0.12215952 -0.1535571 -0.43770626
-0.098715544 -0.21910942 -0.11063791 -0.0754207 -0.12055209 -0.14269772 -0.327692 0.16177072
0.03121337 -0.19670925 -0.22057794 -0.2013548 -0.051948022 -0.24157372 -0.8248356 0.23340252
-0.01733415 -0.06676908 -0.57577974 -0.2052835 -0.20243238 -0.06084698 -0.13046743 -0.13404734
-0.07883028 -0.13408135 -0.38542208 -0.016604431 -0.3911907 -0.08314392 -0.18625344 -0.14181566
-0.035026327 -0.3786349 -0.3452628 -0.20784187 0.022203375 0.05976631 -0.06453104 -0.51467675
-0.070467904 0.039335284 -0.17566256 -0.2123119 -0.15990087 -0.05101288 -0.43950096 0.47974423
-0.18015875 -0.29063094 -0.37085018 -0.16671698 -0.26231897 -0.09894481 0.13787718 -0.4938676
-0.22696778 -0.20157894 -0.31565142 -0.028595477 -0.42020017 -0.02944453 -0.14277297 -0.43539974
-0.035779335 -0.12778723 -0.21280558 -0.09406668

attention.2.weight f4 [100, 100]
00000000: 29e6 37bd 5c7f 9b3d 59a4 92bd 3c80 f8bc
00000010: 9ac4 86bd b598 28bc 22fd 8c39 731b 77bd
00000020: 9ca3 02bd 8147 12bd 434b d43c ce7e 043d
00000030: 6ebc 46bd e851 27bd bdab 50bd f498 3ebb
00000040: 6fc7 b3bd c7b9 6abd 6bbb 48bd 4798 24be
00000050: ef06 37bd c32a dabd 89d6 b1bd 100d 8abd
00000060: 93af 96bd 5e07 32bd 367b bbbd 4562 4dbd
00000070: 167b 1abe a1ac 88bd c455 e3bd c017 5d3d
00000080: cb36 f7bc 0ea0 3fbd c4ae acbd 0272 24bd
00000090: 420f 55bc 617d 4f3d 2cc9 03be 16e1 f93c
000000a0: 0083 ce3c 3ac0 043d 40d7 5e3d bdfd 853d
000000b0: ae2a eebd 67dd 87bd 4c93 ecbd f70f 74bd
000000c0: 7aa2 84bd 638b 693b 6ad5 8cbd 8738 16be
000000d0: ad1d 2dbd dced e9bd caf3 74bd 53a9 293d
000000e0: 41f5 93bd 9eb4 b8bd 0818 ccbd 32ce ccbd
000000f0: 25c2 03bd 2364 89be 95e6 8f3d 4a7d d6bd
00000100: d09e 9b3d 74a7 82bc afa8 45bd 24af 56bd
00000110: 6c91 47bb 70b0 173e 1500 25bd 88aa e5bd
00000120: 00f2 1d3d d460 bdbd 4218 9abd 8e6f 143c
00000130: 2926 393d b99a f4bd 8729 93bd e868 a1bd
00000140: 0737 6d3b 9602 0f3c 96d3 cabc e350 f4bd
00000150: 1fe0 583d d786 e9bc ad9b 8abd 3014 81bd
00000160: 751f 813c 5f83 8ebd fa75 2ebe d0d8 5e3d
00000170: ac1a 14bd 61d0 743d d8b4 97bd fd7b 74bd
00000180: 9ca3 983d dec3 c1be e60d e6bc 91d4 9e3b
00000190: 4c1b b73d 4e58 913d dbed 8ebd 92aa a03b
000001a0: 6090 cebd a16e 263d a666 173d f22c 83bd
000001b0: 14d2 7a3c ece0 eebc 2fcc 8ebc 4d0c 07be
000001c0: 61a9 fa3c 4f57 c1bc 3fda b9bb 4485 8bbb
000001d0: 8f8d 5ebe ff5e 6fbd d331 293d c9c9 88bd
000001e0: 7a68 083d 2eb6 83bc 410a 56be 6911 de3b
000001f0: 2369 d1bd a72c c7bd ba5d 15bd e775 6fbd
00000200: 2a84 6abd 591f debc cb95 9ebd 599d 103d
00000210: 79f7 063e 503c bc3c 41a3 adbd 23d7 4f3c
00000220: 9115 96bc 11c9 6abd 9226 6dba 845f bdbc
00000230: a3e4 bdbd 7445 a03d ccf9 49bd 3788 98bc
00000240: b7cf 13bd fcc7 5a3a 68fe a8bd 4a35 053d
00000250: 60b5 12be 6f08 efbd 61b9 a1bd b747 ccbb
00000260: 1280 90bc 9774 98bd 1497 1b3c 7e2e ec3b
00000270: 7496 c6bd 8f07 0cbc 9492 cd3c e85a 1dbe
00000280: e420 e7bc 8f39 30be f8e2 40bd 05ea b03c
00000290: 2e39 c8bc b645 df3c a8d6 ce3c ade2 7a3d
000002a0: 9400 1b3d 6cdf 193d 6e44 b6bd 0a2a 6fbd
000002b0: e681 483d 52db ec3a 1ce4 3f3b a0c6 1fbd
000002c0: 1746 68bc 251f 01be 664a e33d 9e8e 973c
000002d0: 2003 3bbd 1e92 81bd cf49 1abd 3c61 7fbc
000002e0: 755e 8cbd 2185 fbbc 8ae3 54bc bc10 35bc
000002f0: 4cd8 a1bd c733 30bd e906 3ebd 702e f93c
00000300: 7f3d b9bc e6bd 883b dcc0 283c ac07 75bd
00000310: b28b c0bc 541d 1ebe dd6c c93c 4e17 e0bc
00000320: 0ead 55bd 8313 d03d 804c 1fbd a2a3 37bd
00000330: 80d4 c13d 1983 a1bd 8008 31bc c385 3b3d
00000340: 512f 97bd 6b7f 38bd 3c54 2fbc aa00 3f3d
00000350: 995c e93c 9c4d b8bd 0044 153d 768e 11bd
00000360: 9ef6 e6bd ea85 d43c 6d45 043c 6abd 30bd
00000370: 83b6 a13a 034e 143d b074 aabd 23cb 5e3c
00000380: d3f5 c1bd 1707 9e3d 97e8 4ebd 742c 81bd
00000390: c47d 163c bfe0 02bd 76d1 b0bc 8e4e 11bc
000003a0: 54ab 84bd 5ae5 32bd f4f6 57bd e50f 23bd
000003b0: 9cfd db3b 47a7 403d fcb4 42bd caa7 b0bd
000003c0: 34af eebb dc0a f63c cf41 d2bd 23ee 223c
000003d0: a233 3b3d 5c83 a6bd 5075 30bd 9df6 363c
000003e0: aaf9 5cbd a019 993d 67ab 213c d8f2 13bd
000003f0: 86b3 77bb 3885 dd3c 1bcc fcbc 974b 4abd
-0.044897232 0.07592651 -0.07160253 -0.030334584 -0.065804675 -0.010290314 0.0002689148 -0.060328912
-0.03189431 -0.035712723 0.025914794 0.032347493 -0.048519544 -0.040849596 -0.050945032 -0.0029082866
-0.08778273 -0.057306077 -0.04900686 -0.16073714 -0.044684347 -0.106526874 -0.086834975 -0.06740773
-0.07357707 -0.043464057 -0.0915436 -0.050142545 -0.15086016 -0.06673551 -0.11100343 0.053977728
-0.030177495 -0.0467835 -0.084317714 -0.04014779 -0.013004126 0.05065668 -0.1286971 0.030502837
0.02520895 0.032409884 0.054404497 0.06542537 -0.11629234 -0.06634026 -0.11551532 -0.059585538
-0.064763024 0.003563606 -0.06876643 -0.14670001 -0.04226463 -0.11422321 -0.059802808 0.041421246
-0.07224513 -0.09018825 -0.09965521 -0.10000266 -0.032167573 -0.2683421 0.07026402 -0.10473116
0.075986505 -0.015948988 -0.048256572 -0.05241312 -0.0030451668 0.148134 -0.04028328 -0.11214167
0.038560867 -0.09246984 -0.07524158 0.0090598 0.045202408 -0.119435735 -0.07185655 -0.078813374
0.003619613 0.008728644 -0.024759095 -0.119294904 0.052948114 -0.02850668 -0.06767974 -0.063026786
0.01576207 -0.06958651 -0.17037192 0.054405987 -0.03615825 0.059769038 -0.0740754 -0.059688557
0.07453081 -0.37844747 -0.0280828 0.0048471172 0.08940753 0.07096921 -0.06978961 0.004903146
-0.10086131 0.040632848 0.036963128 -0.06405057 0.015308876 -0.029159985 -0.017431347 -0.13188286
0.030598344 -0.023601202 -0.005671769 -0.00425783 -0.21733688 -0.058440205 0.04130728 -0.066791125
0.03330276 -0.016078081 -0.20902349 0.006776978 -0.10225131 -0.09725314 -0.036466338 -0.05846205
-0.057254948 -0.027114557 -0.077434145 0.03530631 0.13180341 0.022977978 -0.08478404 0.01268557
-0.01832083 -0.057320658 -0.000904658 -0.023116834 -0.092721246 0.07825747 -0.04931049 -0.01861964
-0.036086764 0.000834584 -0.08251649 0.032521524 -0.14327002 -0.116715305 -0.07896686 -0.006234135
-0.017639194 -0.07444113 0.009496469 0.0072076907 -0.096966654 -0.008546724 0.025094308 -0.15366709
-0.028213926 -0.17209457 -0.047091454 0.021595964 -0.024441328 0.02725492 0.02524884 0.06125133
0.03784235 0.037566587 -0.08899771 -0.0583897 0.048952006 0.0018070734 0.002928025 -0.039007783
-0.014176867 -0.12609537 0.11098175 0.018500622 -0.045657277 -0.06326698 -0.037668046 -0.015587147
-0.06853954 -0.03070313 -0.012993703 -0.011051353 -0.079025835 -0.04301813 -0.04639331 0.030417651
-0.022612331 0.0041730283 0.0102998875 -0.05982177 -0.023504112 -0.15440875 0.024588043 -0.027354863
-0.05216699 0.101599716 -0.038891315 -0.044833787 0.09464359 -0.07886333 -0.010805249 0.045781862
-0.07382072 -0.04504339 -0.010701235 0.046631493 0.028486537 -0.08999178 0.036441803 -0.035536252
-0.11277507 0.025942761 0.008073193 -0.04314939 0.0012337718 0.03620721 -0.083230376 0.013598236
-0.094707154 0.07716196 -0.050514784 -0.06307307 0.009185258 -0.031952616 -0.021584254 -0.008868827
-0.06477991 -0.043675758 -0.052725747 -0.03981008 0.006713582 0.047034528 -0.04753588 -0.08625753
-0.0072840694 0.030034475 -0.10266458 0.0099444715 0.045703538 -0.081305236 -0.043080628 0.011167196
-0.053949036 0.07475591 0.009867526 -0.036120266 -0.0037796213 0.027041063 -0.030859044 -0.049388494
