sarl_star_ros/CrowdNav-nowall/crowd_nav/data/sub/output_R0.4_f1/rl_model.pth (torch_old, 349196 bytes, 20 tensors)

mlp1.0.weight f4 [150, 13]
-1.3681462 0.28755784 0.30916244 -0.0028312758 -0.35489658 0.6536568 -0.9373979 1.4671029
0.20197973 -1.305215 0.025007509 -0.09698719 0.08693395 -0.0787549 0.17667758 0.34398845
0.27327898 -0.026127174 -0.029819146 0.06476194 0.05089865 0.16435704 -0.27674478 0.27929318
-0.22543591 0.055470362 -1.082098 0.029868897 0.22246437 0.07324129 -0.09930199 -0.0127088465
-0.9504654 0.6102257 0.48016906 -0.17949273 -0.13872492 0.5455728 0.26386622 -0.20035788
-0.10991013 -0.24714884 0.20269647 0.022493213 0.22137961 0.055497438 0.12624198 0.005014032
-0.109131336 -0.14471716 -0.18554987 -0.15332623 -1.36638 -0.07422804 -0.4136603 0.32391858
0.14013112 -0.03544583 -0.7848556 -0.49359342 0.16618116 0.19855335 0.06929821 1.2104138
0.3840235 -1.0324892 0.5770515 -2.1087089 0.6669976 3.3021219 -2.5945244 -1.1313317
1.0527537 -5.9228535 5.0891824 0.59667414 0.8932709 1.1776234 0.023183994 -0.05822322
-0.16761112 0.030986099 -0.3070924 0.23829432 0.25882116 -0.045296013 0.44200286 0.1879056
-0.1074249 -0.3001865 -0.38040033 0.6466178 0.43828225 0.8967262 0.39825463 -0.81563073
0.6041575 -1.8092563 3.1573467 0.25194353 2.3759935 0.6865469 -4.548348 0.9360754
0.26642838 0.1280338 0.43519947 0.09417511 -0.7867724 -0.022036567 1.0141252 1.3665116
-0.37671828 -1.7407475 0.20207778 -1.2945011 -0.03229299 -0.14640626 -0.10456366 -0.004703371
0.03453882 0.24570213 0.2305831 0.032031886 0.13230592 -0.2479106 0.26046768 -0.04056641
-0.12922452 -0.07947673 -2.8350916 0.6644251 -0.66453844 0.3275511 -0.2735813 -0.30282888
-0.45150173 0.4203428 0.16739008 -0.676447 0.37495768 1.9876615 0.5204568 -0.30994308
-0.20716557 -0.37035072 0.0880971 -1.7333465 -0.7413568 -1.182851 1.5918897 0.856758
-1.2832634 -0.4413507 -0.5737732 -0.93295 -0.33937234 -0.11399553 0.15761386 0.24363446
0.067053966 0.3604176 -0.02232229 0.24669628 -0.052194085 -0.74744695 -0.1760169 -0.4879886
-0.14325106 -0.7023925 -0.07211838 -0.8114738 0.23918389 0.04941815 0.033459067 0.9249852
-1.5731065 -0.19567733 -0.79595864 0.1395792 0.25984818 0.18901856 -1.4120812 0.24330677
1.3266535 0.33849472 -0.90949667 0.9981323 -0.01891824 -0.5968836 0.8269174 0.92101043
0.38356087 0.64261675 0.48838946 0.45835593 -0.129117 0.27273542 0.09530172 0.55399776
2.7886534 0.8798 -0.9715758 4.0064983 -4.970511 0.28167486 -0.4547344 0.13290025
0.99117774 -1.3868788 0.34898275 -0.8762829 -2.1266725 1.055147 -0.23751341 -0.080742
1.0512736 -0.46174332 -1.1963233 0.47070143 -2.4108284 -0.040077683 -0.21657683 0.038602754
-0.13122413 0.0427429 0.21660191 -0.02043349 0.2596702 0.089199305 0.04138287 -0.1368206
-0.26708353 -0.0008153678 -0.5633304 0.2036738 0.29746184 -0.14311932 -0.19255489 -0.20810278
-0.7878092 0.35292143 0.28132698 -0.26203334 -0.17793554 -0.10683393 0.2612685 0.40241897
0.31345323 1.1023508 0.29664564 0.5184009 1.043913 -0.40539786 2.4528797 0.45229712
00000000: 6a1f afbf c83a 933e 8a4a 9e3e ed8c 39bb
00000010: 01b5 b5be 0d56 273f 4ff9 6fbf 07ca bb3f
00000020: c6d3 4e3e 4911 a7bf 8cdc cc3c 38a1 c6bd
00000030: 6d0a b23d 404a a1bd f8ea 343e 411f b03e
00000040: 39eb 8b3e a808 d6bc 4847 f4bc e8a1 843d
00000050: 1a7b 503d 364d 283e 7eb1 8dbe 84ff 8e3e
00000060: acd8 66be e434 633d 3082 8abf 9eaf f43c
00000070: b3cd 633e 88ff 953d d75e cbbd c438 50bc
00000080: b351 73bf c037 1c3f b8d8 f53e f1cc 37be
00000090: e80d 0ebe a9aa 0b3f 7919 873e 9e2a 4dbe
000000a0: 9018 e1bd 9614 7dbe aa8f 4f3e b043 b83c
000000b0: 56b1 623e 4851 633d 9445 013e c04c a43b
000000c0: 4080 dfbd bc30 14be c900 3ebe 8d01 1dbe
000000d0: 8ae5 aebf df04 98bd 48cb d3be a8d8 a53e
000000e0: 887e 0f3e a62f 11bd 4cec 48bf 47b8 fcbe
000000f0: 652b 2a3e 9251 4b3e 38ec 8d3d d7ee 9a3f
00000100: ba9e c43e 9b28 84bf a6b9 133f 16f5 06c0
00000110: 5bc0 2a3f f755 5340 b00c 26c0 7acf 90bf
00000120: a2c0 863f 0488 bdc0 95da a240 a3bf 183f
00000130: 67ad 643f 5dbc 963f 5cec bd3c 797b 6ebd
00000140: 40a2 2bbe 8fd6 fd3c 373b 9dbe 6d03 743e
00000150: 3584 843e 5088 39bd 334e e23e 536a 403e
00000160: 9601 dcbd 0cb2 99be d5c3 c2be bf88 253f
00000170: 8866 e03e d98f 653f 08e8 cb3e 2dcd 50bf
00000180: 11aa 1a3f b695 e7bf f811 4a40 befe 803e
00000190: 4710 1840 8ac1 2f3f 118c 91c0 a3a2 6f3f
000001a0: 4d69 883e 4b1b 033e 77d2 de3e e1de c03d
000001b0: ea69 49bf 0886 b4bc dbce 813f dae9 ae3f
000001c0: 38e1 c0be d0d0 debf 7aed 4e3e 36b2 a5bf
000001d0: a745 04bd 86eb 15be 7925 d6bd bc1e 9abb
000001e0: 9478 0d3d 5799 7b3e fa1d 6c3e de33 033d
000001f0: 347b 073e 47dc 7dbe 055c 853e f728 26bd
00000200: 6f53 04be b2c4 a2bd 2472 35c0 c317 2a3f
00000210: 311f 2abf c7b4 a73e d912 8cbe 630c 9bbe
00000220: 3c2b e7be 2c37 d73e 4e68 2b3e a12b 2dbf
00000230: 74fa bf3e b16b fe3f a83c 053f dcb0 9ebe
00000240: 3623 54be 9c9e bdbe 416c b43d 4cde ddbf
00000250: 8fc9 3dbf a967 97bf 0bc3 cb3f 7e54 5b3f
00000260: fa41 a4bf b8f8 e1be cde2 12bf d0d5 6ebf
00000270: 36c2 adbe 7d76 e9bd 8765 213e 507b 793e
00000280: 9753 893d a888 b83e 3cdd b6bc f39d 7c3e
00000290: 77c9 55bd af58 3fbf c63d 34be a4d9 f9be
000002a0: 68b0 12be ffcf 33bf cdb2 93bd bfbc 4fbf
000002b0: 9fec 743e b06a 4a3d 600c 093d d4cb 6c3f
000002c0: 8e5b c9bf a35f 48be f2c3 4bbf daed 0e3e
000002d0: d20a 853e 158e 413e 14bf b4bf 6925 793e
000002e0: c8cf a93f 2e4f ad3e c6d4 68bf 9985 7f3f
000002f0: 6dfa 9abc 5dcd 18bf dcb0 533f 57c7 6b3f
00000300: 1762 c43e 8882 243f 2f0e fa3e a1ad ea3e
00000310: 3f37 04be faa3 8b3e 8c2d c33d ccd2 0d3f
00000320: 4c79 3240 933a 613f 31b9 78bf 3c35 8040
00000330: 6d0e 9fc0 b037 903e f3d2 e8be 0117 083e
00000340: d3bd 7d3f 3f85 b1bf dead b23e 1354 60bf
00000350: 671b 08c0 0f0f 873f b736 73be 105c a5bd
00000360: 2290 863f 9f69 ecbe 1f21 99bf c7ff f03e
00000370: 034b 1ac0 7f28 24bd 51c6 5dbe ec1d 1e3d
00000380: 9e5f 06be 2e13 2f3d e4cc 5d3e 2264 a7bc
00000390: 7ef3 843e 20ae b63d 1681 293d b31a 0cbe
000003a0: 2cbf 88be 68be 55ba 6c36 10bf dd8f 503e
000003b0: eb4c 983e df8d 12be 1c2d 45be e518 55be
000003c0: ddad 49bf 1eb2 b43e 170a 903e 3c29 86be
000003d0: bc34 36be bfcb dabd fcc4 853e dc09 ce3e
000003e0: f17c a03e d519 8d3f f0e1 973e ecb5 043f
000003f0: f19e 853f 4f90 cfbe fbfb 1c40 7d93 e73e

mlp1.0.bias f4 [150]
0.19478741 0.046544448 0.26666752 -0.08867973 0.6841762 1.7743057 -0.34250656 1.209288
-0.11147727 -0.21948783 1.3240198 -0.65206647 0.036777087 0.12070348 0.35992998 0.17340586
-3.2175922 0.16585259 0.4024204 1.37238 0.89024264 -0.15705712 -1.9031228 0.8725475
0.41050318 0.66332704 0.41274068 -0.94455963 -1.5222636 0.12808572 -0.81657207 1.0515487
-0.21428548 0.45098326 1.0839343 0.22254884 -0.18108293 -0.33663344 0.49615613 -0.15278606
0.024413627 0.02837416 -0.06978698 0.3223258 -0.57592016 -1.7886281 0.46612307 0.03465601
-0.2425179 -0.37652513 -0.11035083 0.86292803 -2.1538522 0.47109327 0.054310266 0.3979604
0.93531626 0.50777864 -0.10392236 0.22784787 0.90624756 2.3951683 0.70149225 -1.2115891
-0.37796798 -0.2974819 -3.2268977 -0.23980686 1.1453098 0.07049531 0.06940388 0.16653544
0.7037133 0.6708439 -0.040535126 0.038567476 0.98333025 -0.24693961 1.997179 1.0952089
0.6673767 0.09182239 0.62232774 -0.878649 -0.20301086 -0.12978941 0.14822218 -0.3679538
-0.24201897 0.00037059683 2.3921578 0.00751635 -1.54651 0.7173904 -0.8886271 -0.21053466
-0.08300041 -0.24047361 0.7737286 0.2085367 0.34899914 0.20508581 0.46386763 0.17600352
-0.12952796 -7.091892 -3.079482 1.4429957 -0.72459686 -0.026533855 0.7258087 0.6686894
-0.8589337 -2.548261 -0.08045922 -1.2299887 0.15572946 -3.6931622 -0.10212093 0.39964715
-0.25118333 0.07890995 -0.7547393 -0.010064806 0.42885116 -0.13821574 -1.1334119 -3.1691816
-0.9423368 0.35350394 -0.4159901 1.8006933 0.67593807 -0.11115362 0.31705165 0.80062586
-0.8888401 0.28006297 -0.26581275 0.2906443 -0.9212563 -0.09973916 -0.26267102 0.80374753
-0.24588932 -0.7255073 -0.82612044 -0.38886753 -0.5890517 0.3776287
00000000: 5a76 473e 64a5 3e3d a588 883e b89d b5bd
00000010: 2c26 2f3f 731c e33f 055d afbe f3c9 9a3f
00000020: 324e e4bd 6bc1 60be 7b79 a93f d4ed 26bf
00000030: 92a3 163d 6333 f73d be48 b83e 4e91 313e
00000040: 08ed 4dc0 43d5 293e 0c0a ce3e 26aa af3f
00000050: f1e6 633f 95d3 20be 8799 f3bf 465f 5f3f
00000060: 792d d23e cdcf 293f bf52 d33e a9ce 71bf
00000070: 89d9 c2bf e728 033e de0a 51bf 2699 863f
00000080: a76d 5bbe 47e7 e63e 5cbe 8a3f d8e3 633e
00000090: ce6d 39be 385b acbe 2d08 fe3e f373 1cbe
000000a0: 16ff c73c ed70 e83c 7aec 8ebd e307 a53e
000000b0: 816f 13bf c4f1 e4bf afa7 ee3e 76f3 0d3d
000000c0: 9d56 78be e7c7 c0be 9eff e1bd dae8 5c3f
000000d0: b7d8 09c0 2333 f13e 7174 5e3d 77c1 cb3e
000000e0: e370 6f3f c8fd 013f 3fd5 d4bd f450 693e
000000f0: d7ff 673f 704a 1940 ff94 333f 5a15 9bbf
00000100: 0585 c1be 8c4f 98be 7e85 4ec0 ee8f 75be
00000110: 8399 923f d85f 903d 9f23 8e3d 4488 2a3e
00000120: 8e26 343f 6dbc 2b3f 2908 26bd eef8 1d3d
00000130: 88bb 7b3f bddd 7cbe 90a3 ff3f ce2f 8c3f
00000140: 33d9 2a3f 610d bc3d df50 1f3f 24ef 60bf
00000150: 14e2 4fbe 84e7 04be 8ec7 173e 7164 bcbe
00000160: d2d3 77be aa4c c239 1d19 1940 b74b f63b
00000170: 0af4 c5bf e6a6 373f 117d 63bf 6696 57be
00000180: 1efc a9bd b73e 76be 1413 463f a58a 553e
00000190: 04b0 b23e 0402 523e 0f80 ed3e 443a 343e
000001a0: faa2 04be c7f0 e2c0 3c16 45c0 15b4 b83f
000001b0: 2e7f 39bf 875d d9bc 99ce 393f 3b2f 2b3f
000001c0: 14e3 5bbf b516 23c0 cec7 a4bd 4570 9dbf
000001d0: 8b77 1f3e c55c 6cc0 c724 d1bd 8d9e cc3e
000001e0: 1a9b 80be 8a9b a13d 9836 41bf dbe6 24bc
000001f0: 6192 db3e 6d88 0dbe a413 91bf dfd3 4ac0
00000200: fc3c 71bf 78fe b43e a8fc d4be 1e7d e63f
00000210: 470a 2d3f 82a4 e3bd 9854 a23e d1f5 4c3f
00000220: 068b 63bf 6a64 8f3e 9c18 88be 54cf 943e
00000230: 74d7 6bbf 0b44 ccbd d17c 86be 66c2 4d3f
00000240: 69ca 7bbe d9ba 39bf a17c 53bf a519 c7be
00000250: 18cc 16bf 8d58 c13e

mlp1.2.weight f4 [100, 150]
0.33678854 0.031876735 0.16408813 -0.06448676 -0.2737051 -0.024677206 -0.0154199125 0.57441014
-0.13015021 -0.052683342 -0.08081473 0.40549514 0.06184379 0.009762296 -0.074144825 -0.2566858
0.084432356 0.007617415 0.07254267 -0.20816429 0.11540798 -0.027265623 -0.07360122 0.15253724
-0.015623683 -0.7071796 -0.1635242 -0.17192577 -0.21207611 -0.14592035 -0.7762777 -0.09241991
-0.020845002 -0.018629583 -0.08839344 -0.066240154 -0.012233476 0.015222355 0.32346648 -0.117536895
-0.017120577 0.01977812 -0.00533621 0.5076438 -0.20559284 -0.11208081 0.07217154 -0.50639266
-0.060545564 0.25289527 -0.0788628 0.4721852 0.16398026 0.064952105 -0.25486544 -0.076555654
-0.37226245 0.035906006 -0.03137624 -0.0076370235 -0.08523589 -0.5372844 -0.0123848105 -0.38656256
0.053756814 -0.43494353 -0.43713143 -0.22612731 0.017713573 0.07425109 -0.032088816 0.043792166
-0.078139685 -0.105672084 0.07905465 0.100261524 0.08152273 -0.0034740865 -0.24041359 -0.53507406
-0.014639643 0.05588172 -0.043926336 -0.35297903 -0.05460663 -0.056826733 -0.06575778 -0.22408947
0.012611459 -0.12677051 -0.2771129 -0.04012916 0.5821998 -0.22493929 -0.6188145 0.0414455
-0.3845518 -0.117100075 -0.031443436 -0.15379015 -0.04903839 -0.047283884 -0.30738553 -0.10976367
-0.01733316 -0.2749945 -0.09150988 -0.15995827 -0.4634131 0.24900445 0.06369132 -0.37578568
-0.007838154 0.06882114 -0.054814707 -0.07657944 -0.0808004 0.14103697 -0.055492297 -0.04233375
0.16383615 0.07279515 -0.21153447 -0.04038652 -0.2272834 -0.10140032 -0.18374608 -0.028823601
0.1010413 -0.08117823 0.33197555 -0.34344956 -0.07822489 -0.1770475 0.2291453 0.021762094
0.022403797 -0.12243812 0.03913307 -0.11348172 -0.34232414 0.051149234 -0.3503693 -0.22052667
-0.020229183 -0.08545431 0.054966506 -0.10201786 -0.15152292 -0.15323555 0.040238775 -0.0037303364
0.029504837 -0.0134084 -0.091646746 0.097400635 0.034177043 -0.12734924 -0.18715724 0.0594268
-0.10071908 -0.06442541 -0.082912855 -0.21592481 -0.085184686 -0.4066293 -0.1246101 -0.07587289
-0.019222155 -0.021560721 -0.038439494 -0.010958105 -0.24680075 0.07128861 -0.060336277 -0.027953232
0.008298439 -0.28225812 0.66075295 0.09455183 0.01495225 0.0072578453 0.014890924 -0.07582071
-0.07410346 -0.036004383 -0.05749565 -0.13156852 -0.12290488 0.16536324 -0.07054438 -0.03153981
0.057485297 -0.24574916 -0.06964351 -0.31419748 0.44441536 -0.2797969 -0.06376941 -0.106337056
0.025775444 0.076888405 -0.24286364 -0.042402133 -0.1538211 -0.0497739 -0.059298012 0.046927717
0.07457384 0.20542693 0.22084036 0.03378725 0.08601745 -0.45942613 -0.28132448 0.013569751
-0.27551556 0.20703237 -0.08601277 0.02131861 -0.25044852 -0.05535874 -0.098128125 -0.05987137
0.025596134 0.24728332 -0.107778214 0.0771175 -0.23297188 0.17654844 -0.117028974 0.16778615
0.055919923 0.3554881 -0.008125812 -0.015701696 0.029107913 -0.22488068 0.06921025 0.04343133
-0.08342682 -0.013958632 -0.21328764 -0.018344933 -0.2735224 -0.0705223 -0.2835058 -0.14255202
0.04142814 -0.20792025 0.017100658 0.039124634 0.091731295 -0.07140606 0.005888716 -0.46110854
00000000: 8c6f ac3e 2e91 023d b806 283e a211 84bd
00000010: 1323 8cbe da27 cabc cda3 7cbc 8b0c 133f
00000020: 1946 05be 7dca 57bd 3182 a5bd 0f9d cf3e
00000030: ea4f 7d3d 0af2 1f3c 3ed9 97bd 526c 83be
00000040: dfea ac3d 829b f93b 4091 943d 0529 55be
00000050: 055b ec3d 285c dfbc 3dbc 96bd b932 1c3e
00000060: 7afa 7fbc b909 35bf e372 27be 4f0d 30be
00000070: 7b2a 59be 256c 15be 23ba 46bf a646 bdbd
00000080: 23c3 aabc 119d 98bc 9f07 b5bd eba8 87bd
00000090: eb6e 48bc 2f67 793c 669d a53e 2fb7 f0bd
000000a0: 7440 8cbc b905 a23c 60db aebb f2f4 013f
000000b0: ee86 52be a08a e5bd acce 933d f3a2 01bf
000000c0: a0fe 77bd 7d7b 813e d282 a1bd 42c2 f13e
000000d0: 71ea 273e 9c05 853d b97d 82be 36c9 9cbd
000000e0: 2f99 bebe 2d12 133d 5f84 00bd ff3f fabb
000000f0: 2790 aebd 788b 09bf a9e9 4abc 87eb c5be
00000100: 1b30 5c3d ebb0 debe b1cf dfbe eb8d 67be
00000110: 0e1c 913c f510 983d 906f 03bd 6a5f 333d
00000120: b307 a0bd 9b6a d8bd 68e7 a13d ea55 cd3d
00000130: 64f5 a63d 80ad 63bb fb2e 76be 9dfa 08bf
00000140: 1ddb 6fbc 3be4 643d 1aec 33bd abb9 b4be
00000150: 34ab 5fbd 26c3 68bd 04ac 86bd b677 65be
00000160: 4ba0 4e3c 21d0 01be bee1 8dbe 795e 24bd
00000170: 0c0b 153f 7c56 66be a16a 1ebf c2c2 293d
00000180: f9e3 c4be 2ad2 efbd d5ca 00bd 2a7b 1dbe
00000190: 7bdc 48bd bfac 41bd a361 9dbe c6cb e0bd
000001a0: 45fe 8dbc 14cc 8cbe 8869 bbbd 1acc 23be
000001b0: 7b44 edbe 06fb 7e3e 9870 823d fb66 c0be
000001c0: 9a6b 00bc 19f2 8c3d 6385 60bd aed5 9cbd
000001d0: ae7a a5bd ff6b 103e e44b 63bd 2766 2dbd
000001e0: aac4 273e a015 953d 7e9c 58be 566c 25bd
000001f0: fbbc 68be f9aa cfbd ef27 3cbe 791f ecbc
00000200: beee ce3d c640 a6bd b3f8 a93e 9fd8 afbe
00000210: 5f34 a0bd f14b 35be 11a5 6a3e 6b46 b23c
00000220: 2b88 b73c d6c0 fabd ff49 203d 1b69 e8bd
00000230: 1c45 afbe dc81 513d 9b63 b3be bed1 61be
00000240: acb7 a5bc ab02 afbd 8f24 613d bdee d0bd
00000250: d328 1bbe c8e9 1cbe 6ad1 243d a978 74bb
00000260: 21b4 f13c e8ae 5bbc 4ab1 bbbd fc79 c73d
00000270: 3afd 0b3d d767 02be 26a6 3fbe 8469 733d
00000280: ce45 cebd 78f1 83bd 37ce a9bd 651b 5dbe
00000290: 4f75 aebd b731 d0be 9533 ffbd 3f63 9bbd
000002a0: c877 9dbc 1ca0 b0bc bb72 1dbd a089 33bc
000002b0: 56b9 7cbe c3ff 913d 2c23 77bd 2dfe e4bc
000002c0: 2df6 073c 2384 90be 1b27 293f 64a4 c13d
000002d0: 48fa 743c 38d3 ed3b 10f9 733c e347 9bbd
000002e0: 8ec3 97bd 5579 13bd 8f80 6bbd e6b9 06be
000002f0: 8eb5 fbbd fb54 293e 9279 90bd e32f 01bd
00000300: b475 6b3d aba5 7bbe 42a1 8ebd 7ede a0be
00000310: 698a e33e 8a41 8fbe 8999 82bd 3ec7 d9bd
00000320: 0627 d33c ab77 9d3d 3fb1 78be dcad 2dbd
00000330: 4783 1dbe b8df 4bbd 79e2 72bd 4737 403d
00000340: 2bba 983d 705b 523e fa23 623e 8064 0a3d
00000350: eb29 b03d e739 ebbe c309 90be a953 5e3c
00000360: 6010 8dbe 4b00 543e 7727 b0bd 5ea4 ae3c
00000370: ca3a 80be d9bf 62bd 66f7 c8bd af3b 75bd
00000380: fcae d13c d737 7d3e d3ba dcbd c8ef 9d3d
00000390: 2e90 6ebe 1dc9 343e e3ac efbd 22d0 2b3e
000003a0: 4a0c 653d 8902 b63e 2022 05bc d8a0 80bc
000003b0: b873 ee3c 1f47 66be 1bbe 8d3d 0de5 313d
000003c0: aedb aabd bfb2 64bc 1368 5abe 1d48 96bc
000003d0: 210b 8cbe ff6d 90bd ac27 91be 28f9 11be
000003e0: 8eb0 293d 0ce9 54be ae16 8c3c 2741 203d
000003f0: 9edd bb3d 573d 92bd 21f6 c03b 6b16 ecbe

mlp1.2.bias f4 [100]
-0.1659534 0.038136452 -1.2090824 0.7120572 -0.20203573 -0.17033386 -1.6709499 -0.9200259
-0.018035298 -0.08922389 -0.41052848 0.13709916 -0.52829874 -0.042332444 -0.89156485 -0.40714425
0.03851489 0.000997747 -0.05137368 -0.8114265 -0.23151313 0.16287173 0.23194014 -0.5717103
-0.05141168 -0.06798168 1.1626292 0.5769061 -0.011585405 0.42509913 0.0055381735 0.20827265
-0.107507445 -0.10659513 1.426825 1.8718877 -0.4122738 -0.5182766 -1.1749808 0.044623893
0.2311533 -0.39181107 -0.13062039 -0.032763828 -0.09251241 0.04055891 0.007204709 -0.54647195
0.24847066 -0.32204133 -0.35612723 0.17756462 -0.14291799 -0.058488544 0.30345324 -0.03234998
-0.0600847 0.3643277 0.038351845 0.16409957 -0.012864582 -1.050003 -0.73616517 -0.22668478
0.03650478 -0.06884199 -0.057929352 -0.76466286 0.507095 -0.95980823 -0.9262484 -0.13514552
-1.0078906 -1.2550035 0.23292565 -0.40416405 0.4921894 -0.07401191 -0.472372 -0.12227933
-0.027843589 -1.2509096 0.13491595 -0.8214661 0.17622572 0.434432 -0.062136594 -0.035388533
-1.1859245 0.9553361 -0.25063875 -1.3464457 0.24320547 -0.031743936 0.32523367 -0.008550375
0.36254528 -0.074584536 -0.12565981 -0.050338008
00000000: b0ef 29be f834 1c3d 36c3 9abf 6149 363f
00000010: 74e2 4ebe 006c 2ebe b0e1 d5bf d186 6bbf
00000020: c3be 93bc 04bb b6bd ca30 d2be b963 0c3e
00000030: 963e 07bf c964 2dbd 983d 64bf 3675 d0be
00000040: cac1 1d3d d5c6 823a 356d 52bd a6b9 4fbf
00000050: c711 6dbe d9c7 263e b781 6d3e 9b5b 12bf
00000060: 0e95 52bd fb39 8bbd 09d1 943f 1eb0 133f
00000070: b6d0 3dbc 98a6 d93e 9179 b53b 6d45 553e
00000080: dd2c dcbd 8c4e dabd 34a2 b63f 049a ef3f
00000090: 8d15 d3be c6ad 04bf c565 96bf 8bc7 363d
000000a0: 73b3 6c3e 769b c8be 5ac1 05be 5d33 06bd
000000b0: 2577 bdbd 1a21 263d 7b15 ec3b 96e5 0bbf
000000c0: 186f 7e3e 9ae2 a4be 4f56 b6be 80d3 353e
000000d0: 1859 12be af91 6fbd 395e 9b3e 6a81 04bd
000000e0: 601b 76bd 2989 ba3e d316 1d3d b809 283e
000000f0: f8c5 52bc 8066 86bf 5275 3cbf 0e20 68be
00000100: 0986 153d 07fd 8cbd 5447 6dbd f2c0 43bf
00000110: fad0 013f feb5 75bf 9d1e 6dbf 9663 0abe
00000120: 8f02 81bf f4a3 a0bf 1084 6e3e 97ee cebe
00000130: 4000 fc3e 8e93 97bd beda f1be 966d fabd
00000140: 3d18 e4bc ce1d a0bf 6827 0a3e 9a4b 52bf
00000150: 8474 343e df6d de3e f182 7ebd 91f3 10bd
00000160: 60cc 97bf e890 743f b953 80be 5558 acbf
00000170: db0a 793e ee05 02bd 0785 a63e df16 0cbc
00000180: 899f b93e c7bf 98bd f7ac 00be 3a2f 4ebd

mlp2.0.weight f4 [100, 100]
-0.27170992 -0.10732461 -0.49007696 -0.13612121 -0.12351447 -0.13741659 -0.6352245 -0.30979425
0.09012418 -0.1904749 -0.16730843 -0.10111431 -0.2591766 -0.11521681 -0.82534367 -0.44829237
0.06343452 -0.06981553 0.05693058 -0.45751297 0.03273267 0.48632106 -0.2189687 0.016354742
-0.10900835 -0.099247 -0.17158853 -0.041438717 -0.057427514 0.07675619 0.047067575 -0.056604955
0.033193197 -0.13476683 -0.38369197 -0.02660749 0.6251656 -0.029857477 -0.79267603 -0.26731142
-0.5789771 -0.07272456 -0.09940493 -0.038332134 -0.07553992 -0.037676167 0.03386557 -0.09567417
-0.33921826 -0.3464841 -0.09237688 -0.17854396 0.40504476 -0.28603512 0.16925806 -0.053600766
0.08769711 -0.02901602 0.02913515 -0.47566763 -0.080333486 -0.16093455 -0.4915766 -0.27851486
-0.058782842 -0.1324733 -0.1868628 -0.34244853 0.10387516 -0.05710445 -0.41264233 -0.0019384659
-0.632669 -0.33683127 0.85061103 -0.46345043 0.87264276 -0.059820753 -0.57946515 -0.10196686
-0.07048869 -0.14906317 -0.5718125 -0.403204 -0.085841596 -0.6028922 -0.06205787 -0.25977224
-0.37268123 0.8441596 0.0103246225 -0.56375116 0.064427495 -0.019519962 -0.06579739 0.06053319
0.14243498 -0.09552868 -0.43528697 -0.45732683 -0.2510638 0.65025765 -0.9400865 0.25421482
-0.085683174 -0.29671404 -0.90547055 -0.829881 -0.025505582 0.34894475 -0.93934363 0.018163417
-0.7006896 0.315022 -1.3736444 -0.7133053 0.07497532 0.107254446 0.0018279908 -1.0903823
-0.21305452 0.28094447 0.18496251 -0.17693563 -0.073963195 0.040905304 0.49629062 -0.29569894
-0.22640209 -0.23107764 -0.03088594 -0.94956994 -0.41900262 -0.5802223 0.520625 -0.3644853
-0.7882129 -0.4107977 -0.5822375 0.07256104 -0.7994161 -0.22788073 -0.15248397 -0.5679653
0.05562943 -0.24489526 -0.017886426 -0.1056469 0.29872695 -0.3753855 -0.31349936 1.1882164
-0.23883767 -0.46064255 0.30543634 -0.092391595 -0.098630786 -0.8760875 -0.03255611 -0.13724978
0.012925029 -0.6037985 -0.5396136 -0.110650085 -0.16241463 -0.8113037 -0.48137218 1.033983
1.4484358 -0.0330023 -1.0475408 0.16399108 -0.49174753 -0.65191966 0.52191955 -0.3557274
0.65871704 -0.4928589 0.41940057 0.123694 0.026765747 -0.69600475 0.5572917 -0.5933343
-0.29743555 0.27128658 -0.08850842 0.9831922 -0.72110784 -0.44461375 -0.15888003 -0.9195298
0.93500614 -0.056817338 0.23466417 -0.06979877 0.25855616 -0.029153531 -0.1828874 -0.41491222
0.63081455 -0.08697212 -0.36042383 0.15439664 0.3438105 -0.10781642 -1.0582868 -0.03271469
-0.01470087 -0.10107044 -0.14110988 0.025037725 -0.4865946 -0.105094045 -0.58249694 -0.33474794
0.058925968 -0.027251322 -0.0072926776 -0.5555267 -0.8909864 0.5272333 0.010681503 -0.17676201
-0.056647424 -0.042738095 -0.217194 -0.54164064 -0.511806 0.54977596 0.06437551 -0.702438
0.167897 -0.2710574 -0.5992305 0.30930966 -0.29434666 0.62028205 -0.035559896 -0.041261606
0.036901757 -0.12186027 -0.4445069 -0.085581675 -0.09489335 0.21827225 -0.085973516 -0.61701196
0.009282439 0.03901909 -0.35047987 -0.4425026 0.19834307 -0.23504719 -0.117646165 0.030939497
00000000: 901d 8bbe 01cd dbbd 5eeb fabe 5c63 0bbe
00000010: 28f5 fcbd efb6 0cbe 139e 22bf 5a9d 9ebe
00000020: 0793 b83d da0b 43be e752 2bbe 0515 cfbd
00000030: ccb2 84be caf6 ebbd b949 53bf 9486 e5be
00000040: f5e9 813d 72fb 8ebd 0a30 693d 243f eabe
00000050: b112 063d 13ff f83e 5539 60be 61fa 853c
00000060: c53f dfbd 0342 cbbd e7b4 2fbe a5bb 29bd
00000070: 1d39 6bbd 5932 9d3d eec9 403d 99da 67bd
00000080: 97f5 073d 5100 0abe 4673 c4be f3f7 d9bc
00000090: da0a 203f ab97 f4bc d1ec 4abf 0bdd 88be
000000a0: d837 14bf 9df0 94bd d094 cbbd 2802 1dbd
000000b0: acb4 9abd 5352 1abd a0b6 0a3d d2f0 c3bd
000000c0: 04ae adbe 5d66 b1be 1730 bdbd 3ad4 36be
000000d0: 0762 cf3e 3273 92be fc51 2d3e 7a8c 5bbd
000000e0: 8b9a b33d 01b3 edbc d7ac ee3c b58a f3be
000000f0: e285 a4bd 07cc 24be eeaf fbbe 8099 8ebe
00000100: 47c6 70bd 15a7 07be f658 3fbe 6a55 afbe
00000110: 80bc d43d 5be6 69bd db45 d3be 1f14 feba
00000120: 98f6 21bf 2675 acbe a5c1 593f 6049 edbe
00000130: 8465 5f3f 9b06 75bd d457 14bf 00d4 d0bd
00000140: 605c 90bd 04a4 18be 4e62 12bf c170 cebe
00000150: b8cd afbd 2557 1abf 6530 7ebd de00 85be
00000160: 13d0 bebe d81a 583f 9b28 293c ff51 10bf
00000170: 90f2 833d 54e8 9fbc c8c0 86bd a6f1 773d
00000180: 7ada 113e 8aa4 c3bd efdd debe be26 eabe
00000190: 6f8b 80be 4977 263f 82a9 70bf 7228 823e
000001a0: a97a afbd e7ea 97be ebcc 67bf 1573 54bf
000001b0: 15f1 d0bc e3a8 b23e d378 70bf 72cb 943c
000001c0: 6560 33bf 904a a13e 94d3 afbf 2d9b 36bf
000001d0: a98c 993d 38a8 db3d 3199 ef3a a691 8bbf
000001e0: f72a 5abe f4d7 8f3e d066 3d3e 9d2e 35be
000001f0: 047a 97bd 528c 273d ce19 fe3e da65 97be
00000200: f3d5 67be 9e9f 6cbe 8304 fdbc 0417 73bf
00000210: 8387 d6be 7389 14bf ae47 053f d19d babe
00000220: 52c8 49bf 1354 d2be 840d 15bf e29a 943d
00000230: 89a6 4cbf 9159 69be c224 1cbe 2d66 11bf
00000240: afdb 633d d3c5 7abe 8e86 92bc 675d d8bd
00000250: bdf2 983e 8732 c0be fd82 a0be 7a17 983f
00000260: dd91 74be 57d9 ebbe 2762 9c3e ce37 bdbd
00000270: f0fe c9bd 4547 60bf 8e59 05bd 358b 0cbe
00000280: 80c3 533c 8a92 1abf 1e24 0abf 839c e2bd
00000290: 0550 26be 99b1 4fbf 6a76 f6be 8e59 843f
000002a0: 5866 b93f 6b2d 07bd d115 86bf 47ed 273e
000002b0: 55c6 fbbe 35e4 26bf 859c 053f e721 b6be
000002c0: aea1 283f 0058 fcbe acbb d63e 4853 fd3d
000002d0: d743 db3c 5e2d 32bf abaa 0e3f c2e4 17bf
000002e0: 7949 98be 13e6 8a3e e743 b5bd 7cb2 7b3f
000002f0: 869a 38bf 6aa4 e3be 72b1 22be 4e66 6bbf
00000300: 905c 6f3f 4cb9 68bd ce4b 703e a8f2 8ebd
00000310: 7961 843e 63d3 eebc d646 3bbe 606f d4be
00000320: 107d 213f 701e b2bd 7989 b8be 271a 1e3e
00000330: ee07 b03e dbce dcbd f175 87bf d7ff 05bd
00000340: ebdb 70bc 05fe cebd 1c7f 10be ea1b cd3c
00000350: ed22 f9be 8c3b d7bd 851e 15bf 1564 abbe
00000360: 5b5c 713d 2a3e dfbc 6af7 eebb ff36 0ebf
00000370: af17 64bf c3f8 063f 7901 2f3c 1a01 35be
00000380: 2107 68bd 240e 2fbd 1b68 5ebe f6a8 0abf
00000390: b805 03bf 1ebe 0c3f 4fd7 833d fad2 33bf
000003a0: 31ed 2b3e 09c8 8abe 2c67 19bf d65d 9e3e
000003b0: 9bb4 96be ceca 1e3f 41a7 11bd ee01 29bd
000003c0: 4c26 173d e191 f9bd 6996 e3be 7245 afbd
000003d0: 7257 c2bd c382 5f3e e212 b0bd 7ff4 1dbf
000003e0: 5f15 183c 7bd2 1f3d 1972 b3be b38f e2be
000003f0: 721a 4b3e 36b0 70be 79f0 f0bd d474 fd3c

mlp2.0.bias f4 [100]
-0.0057463297 4.093662 -0.019751297 0.71451515 0.0070391987 0.09427637 0.28942582 0.2699625
-0.03567207 0.19113487 0.066633835 -0.04123788 3.3689966 0.72071815 1.6240207 -0.5585342
0.058636688 3.3140013 1.9367375 0.0036359818 2.4509683 0.8628142 0.0568899 0.049486242
-0.104940586 -0.16502967 -0.044231985 -0.24190375 0.093089215 2.6510572 0.7612565 0.430621
-0.08959609 -0.011378245 0.068419285 0.3245099 -0.30532858 0.64163804 -0.27191165 0.011595077
-0.11580598 0.24051702 0.107131004 -0.26769823 -0.032652874 0.036264826 0.34609085 -0.23280726
-0.12126032 -0.2305203 0.12918372 -0.3129706 -0.49515915 -0.07069051 -0.5029656 -0.116593175
0.32460403 0.14810044 0.18397689 -0.45809886 0.14413883 0.31812862 -0.5074543 -0.50409704
-0.31119934 0.866382 -0.07303556 0.4216761 -0.34238303 0.8263104 0.06172014 -0.3070409
3.1492414 -0.13086651 0.40708458 0.23818387 0.5880023 2.7072039 -0.4612065 -0.11714282
-0.17347199 -0.66674584 -0.44028386 1.5566543 3.8614628 -0.104345694 2.7256951 0.14656062
0.038223524 0.5018798 -0.21228811 0.51469564 0.18019755 0.19097157 -0.23623195 -0.6133097
0.28157517 -0.65518904 -0.1417459 -0.15629625
00000000: b54b bcbb 47ff 8240 79cd a1bc 77ea 363f
00000010: 14a9 e63b f813 c13d 9f2f 943e 8638 8a3e
00000020: e01c 12bd dcb8 433e 5277 883d 0de9 28bd
00000030: a49d 5740 fc80 383f e9df cf3f 19fc 0ebf
00000040: 062d 703d 9918 5440 04e7 f73f a749 6e3b
00000050: aadc 1c40 64e1 5c3f 6205 693d 16b2 4a3d
00000060: 17eb d6bd 8afd 28be 992c 35bd 9eb5 77be
00000070: 8fa5 be3d ecaa 2940 b5e1 423f 5b7a dc3e
00000080: 287e b7bd d26b 3abc 691f 8c3d 2926 a63e
00000090: 0754 9cbe 6442 243f 0138 8bbe 47f9 3d3c
000000a0: b02b edbd 184a 763e 8067 db3d be0f 89be
000000b0: 05bf 05bd 6d8a 143d d232 b13e 0765 6ebe
000000c0: 5557 f8bd 830d 6cbe bd48 043e af3d a0be
000000d0: 8085 fdbe 30c6 90bd 5bc2 00bf 67c8 eebd
000000e0: 8032 a63e a4a7 173e 7064 3c3e ef8b eabe
000000f0: 2199 133e c1e1 a23e 86e8 01bf 810c 01bf
00000100: 8555 9fbe 36cb 5d3f ab93 95bd eee5 d73e
00000110: d44c afbe 1489 533f 42ce 7c3d 7734 9dbe
00000120: 2c8d 4940 df01 06be 646d d03e 79e6 733e
00000130: 5287 163f d442 2d40 4223 ecbe 93e8 efbd
00000140: a4a2 31be dbaf 2abf e36c e1be 7340 c73f
00000150: 3522 7740 32b3 d5bd ca71 2e40 fd13 163e
00000160: 4590 1c3d 327b 003f 0e62 59be 18c3 033f
00000170: b585 383e 0d8e 433e cae6 71be dd01 1dbf
00000180: 9f2a 903e 78ba 27bf d625 11be 200c 20be

mlp2.2.weight f4 [50, 100]
-0.27582836 -0.27575916 0.17234637 -0.09513886 -0.01481356 -0.69325304 0.13113502 -0.59785646
0.1967975 -0.18607773 -0.022716742 0.042918615 0.14533795 -0.91468656 -0.02745239 0.46045142
-0.04262193 -0.29476565 0.119677186 -0.41994298 0.26912844 -0.9666037 -0.35832623 0.15820599
0.008459358 -0.0748176 -0.13073371 0.11519543 -0.1347822 -0.10300238 0.20636535 -0.12242146
-0.45837054 0.40658513 0.37139663 -0.29473224 -0.0778195 -0.25482917 -0.09331109 -0.031216295
-0.77057105 -0.35449883 0.30983207 0.044265367 -0.21095745 0.2817304 -0.25687498 -0.3934893
-0.67305565 -0.3184326 0.34679797 0.039199 0.27622598 -0.21408495 0.20202866 0.2548771
0.09192271 0.6086778 0.32123563 0.18370336 0.36193594 -0.19740474 0.64205164 -0.18133074
-0.07728902 -0.22177614 -0.47046494 0.112437576 -0.053894244 0.47138628 -0.8332206 0.08565956
-0.8245469 0.45559564 0.16985038 0.6264352 0.053096835 0.68192893 0.7763206 -0.0842258
0.21334752 0.059910033 0.30797252 0.09091181 -0.07383193 -0.07875248 -0.04482048 0.28761098
0.22167882 0.20719099 0.36902225 -0.21605529 0.67305803 -0.16978355 0.13835083 0.14721319
0.0819402 0.20525637 -0.25343663 0.11042917 -0.4237704 -0.66340315 0.61298954 -0.38697606
0.73499227 0.070552394 0.65531194 0.07292762 -0.13217255 0.16876888 -0.101249136 -0.1001392
-0.09675142 0.086332254 0.43771142 0.10011176 0.29038283 -0.14825279 -0.35807866 0.2428312
-0.15942697 -0.15803307 -0.05736944 0.59807134 0.09296456 -0.19473834 -0.28609666 0.039524797
-0.14861353 -0.6672576 0.3803042 0.21492217 0.10006913 0.2714507 -0.2553639 -0.051518507
-0.45173216 0.46136165 0.15309824 0.0571739 0.3072556 0.10113497 0.42486942 0.33480057
0.41434053 -0.074690536 -0.021000324 0.17843032 0.14601153 0.062325187 -0.38462743 -0.038626794
0.22776459 0.07978346 0.22704622 0.042088468 -0.27703097 -0.028298536 -0.2531952 0.3891906
0.07497639 0.36024025 -0.030006783 -0.18353231 0.024335999 -0.11746821 0.43585578 0.1730267
-0.15211508 0.106671385 0.57460284 0.35185978 -0.032917738 0.21671368 0.43282443 0.180243
0.19397424 0.4511454 0.05247675 0.0139816115 0.19865873 0.25233114 0.035664897 0.42770258
-0.19271548 -0.041492086 0.035094857 0.011193713 0.0056038564 0.02663472 0.2770784 0.48163542
0.45974123 -0.104888596 0.13188936 -0.21517384 -0.39886197 0.37156275 -0.403743 0.02544612
0.13959277 0.03114116 -0.60157835 1.4403824 -0.4167127 -0.6832726 0.09202149 -0.17796618
0.043165173 0.06533113 0.24215963 -0.10037238 -0.23055191 -0.19412646 -0.008498399 0.08253172
-0.09312578 0.12273914 0.039709423 -0.043052666 -0.29430878 -0.58857787 -0.37706292 0.2587629
-0.073172875 0.29825756 -0.42675605 -0.51434594 -0.34618685 -0.07342321 -0.52980626 -0.6762654
-0.046727557 0.06974757 0.11649933 0.34098518 0.7920487 -0.39804354 0.21657598 -0.09498926
-0.23064716 -0.12861335 0.4676307 -0.21580401 -0.14674549 0.015110042 -0.34749854 0.4834156
-0.5915423 -0.14689648 0.34610346 0.26941338 -0.021518048 -0.06847438 0.22558245 0.0051590456
00000000: 6039 8dbe 4e30 8dbe 917b 303e 2ad8 c2bd
00000010: 93b4 72bc 0879 31bf 4248 063e 1f0d 19bf
00000020: 4985 493e 298b 3ebe 7618 babc 6ecb 2f3d
00000030: 79d3 143e e628 6abf d6e3 e0bc 4ac0 eb3e
00000040: 5594 2ebd 86eb 96be 5019 f53d c402 d7be
00000050: 34cb 893e 5773 77bf 8976 b7be c000 223e
00000060: 1e99 0a3c f839 99bd 0fdf 05be 95eb eb3d
00000070: 5804 0abe e9f2 d2bd 7051 533e 1ab8 fabd
00000080: 8baf eabe ed2b d03e b327 be3e 25e7 96be
00000090: d45f 9fbd f878 82be e219 bfbd 51b9 ffbc
000000a0: 2544 45bf df80 b5be 4fa2 9e3e 9a4f 353d
000000b0: 3b05 58be f83e 903e 1e85 83be 6e77 c9be
000000c0: 604d 2cbf 9909 a3be 818f b13e 218f 203d
000000d0: 7e6d 8d3e 1639 5bbe 9ae0 4e3e 407f 823e
000000e0: f941 bc3d 4fd2 1b3f ff78 a43e bc1c 3c3e
000000f0: ab4f b93e 7824 4abe 7f5d 243f c4ae 39be
00000100: b549 9ebd 4919 63be c8e0 f0be ac45 e63d
00000110: 36c0 5cbd 8b59 f13e f24d 55bf 486e af3d
00000120: 8115 53bf d543 e93e 42ed 2d3e 0f5e 203f
00000130: 117c 593d e592 2e3f f2bc 463f 947e acbd
00000140: c677 5a3e 3964 753d 93ae 9d3e f92f ba3d
00000150: 3235 97bd fb48 a1bd ae95 37bd bf41 933e
00000160: c6ff 623e e029 543e 7cf0 bc3e 993d 5dbe
00000170: 884d 2c3f bddb 2dbe d7ab 0d3e 0ebf 163e
00000180: 43d0 a73d ba2e 523e 72c2 81be b028 e23d
00000190: 6ff8 d8be cad4 29bf e2ec 1c3f ba21 c6be
000001a0: 7428 3c3f c67d 903d 86c2 273f 135b 953d
000001b0: 3e58 07be c0d1 2c3e b55b cfbd c815 cdbd
000001c0: 9c25 c6bd f7ce b03d b61b e03e 6507 cd3d
000001d0: 0fad 943e 94cf 17be 1656 b7be bea8 783e
000001e0: d340 23be 6cd3 21be 38fc 6abd 341b 193f
000001f0: 3464 be3d 7d69 47be 437b 92be c1e4 213d
00000200: 252e 18be 65d1 2abf 3bb7 c23e 8f14 5c3e
00000210: 0bf1 cc3d 96fb 8a3e 0fbf 82be 1205 53bd
00000220: 7049 e7be 9837 ec3e c9c5 1c3e 2e2f 6a3d
00000230: 9b50 9d3e da1f cf3d 7c88 d93e fb6a ab3e
00000240: 7124 d43e 5af7 98bd df08 acbc 70b6 363e
00000250: 0c84 153e b248 7f3d e3ed c4be 2137 1ebd
00000260: 1f3b 693e 8365 a33d ce7e 683e f564 2c3d
00000270: 01d7 8dbe 55d2 e7bc cda2 81be fe43 c73e
00000280: 398d 993d 6971 b83e c9d0 f5bc e5ef 3bbe
00000290: 4a5c c73c 2c93 f0bd 7d28 df3e e92d 313e
000002a0: 0ec4 1bbe 8776 da3d 2c19 133f f726 b43e
000002b0: c0d4 06bd 31ea 5d3e 2a9b dd3e 9f91 383e
000002c0: 2fa1 463e 88fc e63e dcf1 563d 2113 653c
000002d0: 326d 4b3e 8c31 813e 5b15 123d d5fb da3e
000002e0: 3557 45be 9bf3 29bd a0bf 0f3d d665 373c
000002f0: 8ea0 b73b 0e31 da3c 38dd 8d3e eb98 f63e
00000300: 3463 eb3e d5cf d6bd 010e 073e 8856 5cbe
00000310: a337 ccbe 793d be3e 67b7 cebe 6274 d03c
00000320: 68f1 0e3e bf1b ff3c 0a01 1abf 735e b83f
00000330: 5e5b d5be f4ea 2ebf c375 bc3d c43c 36be
00000340: f7cd 303d 54cc 853d b2f8 773e 0990 cdbd
00000350: cd15 6cbe 16c9 46be de3c 0bbc 6406 a93d
00000360: bbb8 bebd a95e fb3d 59a6 223d fe57 30bd
00000370: a4af 96be 0aad 16bf 640e c1be 927c 843e
00000380: a9db 95bd 37b5 983e c57f dabe 2dac 03bf
00000390: 673f b1be e85e 96bd 62a1 07bf bb1f 2dbf
000003a0: 6565 3fbd d0d7 8e3d 3397 ee3d 9c95 ae3e
000003b0: b4c3 4a3f 5dcc cbbe 18c6 5d3e bb89 c2bd
000003c0: c52e 6cbe 38b3 03be 4b6d ef3e bafb 5cbe
000003d0: 7344 16be 1c90 773c 54eb b1be 4082 f73e
000003e0: 516f 17bf 086c 16be 7934 b13e 8df0 893e
000003f0: 9e46 b0bc 4c3c 8cbd 16ff 663e 360d a93b

mlp2.2.bias f4 [50]
0.4837082 0.30110025 1.2319446 -0.3793847 -1.218052 -0.54476154 0.09119089 1.1193246
2.540014 1.2767997 -0.6399772 -1.5446728 2.0381625 -0.5253003 0.59466267 0.95586926
0.66071934 -0.09509129 -0.49422073 -0.310694 0.73868066 0.5356747 -0.24151123 0.95144314
-1.4392928 0.5036886 0.94442165 1.3437278 1.3971636 0.6248264 -0.6338021 1.4299295
0.53378767 1.6029768 1.2317244 -3.4071596 -1.4081899 -0.4140715 -0.40129676 0.2424507
-0.58424866 0.29540175 -0.07926074 -0.47783196 1.0930576 -0.74166834 0.52747035 0.7898372
-1.3055159 -0.3135671
00000000: 9aa8 f73e d029 9a3e 5cb0 9d3f b63e c2be
00000010: 21e9 9bbf 7e75 0bbf 4ac2 ba3d 0746 8f3f
00000020: 978f 2240 2c6e a33f 8cd5 23bf d7b7 c5bf
00000030: 4171 0240 157a 06bf d03b 183f d9b3 743f
00000040: e724 293f 39bf c2bd 800a fdbe 4913 9fbe
00000050: 2d1a 3d3f fa21 093f b84e 77be c791 733f
00000060: bf3a b8bf bcf1 003f 9ec5 713f 46ff ab3f
00000070: 42d6 b23f 9ff4 1f3f db40 22bf ee07 b73f
00000080: 4fa6 083f 582e cd3f 25a9 9d3f e70e 5ac0
00000090: 913f b4bf 2e01 d4be c576 cdbe ff44 783e
000000a0: 5291 15bf e63e 973e 7453 a2bd 64a6 f4be
000000b0: 50e9 8b3f fadd 3dbf 4c08 073f c532 4a3f
000000c0: 251b a7bf de8b a0be

attention.0.weight f4 [100, 100]
-0.2559011 0.07948067 -0.59609187 -0.15534396 -0.3076837 0.21481363 -0.38834348 -0.64966434
-0.026842885 0.13856845 0.45752382 0.0014829035 -0.1739119 0.24911274 -0.3641534 -0.37516472
0.081029855 0.05589342 0.03442768 -0.27150667 0.3030294 -0.05113506 0.27994946 -0.45080692
-0.08116327 0.11293959 0.631245 -0.3943974 0.50631416 -0.30526292 0.09453577 -0.21292575
-0.19860266 -0.18018478 0.019417115 -0.18052864 -0.084099315 -0.25444084 -0.58873975 -0.03276489
-0.28957713 -0.19036674 -0.17076132 -0.29459038 0.030177541 0.22333612 -0.096854195 0.22752303
0.12238988 -0.11157785 -0.13120437 -0.23990782 -0.14720549 -0.24140981 -0.13419801 -0.050936233
-0.045124076 -0.117582545 0.06525113 -0.3112631 -0.10014142 -0.740879 -0.1459617 -0.6142239
0.04199035 -0.44663298 0.5350074 -0.4417907 -0.1291263 -0.24628805 -0.2019009 0.21073237
-1.0870552 -0.90977126 -0.4561944 -0.3024851 -0.15429394 -0.14124389 -0.36616036 -0.36191967
-0.06155223 -0.10427669 -0.13562858 -0.2933248 0.13525462 -0.11163227 -0.0129073765 0.23335923
-0.038744505 0.23297665 -0.11670435 0.30214208 -0.034398563 0.00051246514 0.27969795 -0.08309022
0.020264495 0.08242518 -0.45983997 -0.36118928 0.04856589 -0.06573718 -0.0978179 0.20457885
-0.0018862641 0.0649756 -0.11350479 -0.15039267 -0.007843148 -0.049238533 -0.12237999 0.0751345
-0.030872159 0.013545267 -0.1850408 0.008297563 0.076737046 -0.1113301 0.033506785 -0.056798078
-0.09167322 -0.102357134 0.021786243 -0.11186412 -0.07758678 -0.041148104 -0.053063635 0.045052294
-0.047827028 -0.10035543 0.00562954 -0.059845634 -0.039296564 0.030212676 0.14862426 -0.1569796
0.04787348 -0.08337513 -0.22600779 0.010310526 -0.10724727 -0.02649955 0.1129274 -0.00092106767
-0.04107937 -0.06779857 0.06263659 -0.077610634 0.011517462 -0.10201428 -0.04849985 -0.019722203
0.018220847 -0.0649298 -0.062876664 0.024567764 -0.007149546 -0.08553813 -0.06396409 -0.04605797
-0.023004573 -0.0559476 -0.28638148 -0.046411734 -0.09565408 -0.011704755 -0.033877034 -0.05146196
-0.09428382 0.07387903 -0.11378425 -0.003129762 -0.043596443 -0.21204929 -0.08980531 -0.15794866
0.00016618654 -0.059613533 -0.06649579 -0.00029033492 -0.012507111 -0.033492003 -0.054252382 -0.14910622
-0.20446423 0.052708596 -0.0767852 0.0036015867 -0.16309084 -0.14460382 -0.044883676 -0.11710211
0.0020325736 -0.02194899 -0.07076116 -0.021014925 -0.06390903 0.005716765 -0.14354663 0.039020393
-0.12312915 -0.062103726 -0.21622264 -0.061726514 -0.02276939 -0.07061291 -0.25821272 -0.084431395
0.013175036 -0.050905082 -0.24448815 0.048501324 -0.031862076 0.035672043 -0.097545214 -0.077768974
0.02814399 -0.04404842 0.027757617 -0.101238534 0.023357537 -0.26192752 -0.0125086745 -0.22107361
0.095992334 0.013877256 0.0014355488 0.17748387 0.027272908 -0.20273344 0.07425272 -0.07605308
0.025053555 -0.084352545 -0.13760608 -0.22781157 -0.23425196 -0.087702975 -0.47402397 0.12231475
0.14688484 -0.08932509 -0.07287326 0.044671528 -0.045986604 0.07246587 0.029402012 -0.22973438
-0.22701825 0.02581497 -0.024752168 -0.29982588 -0.028367544 -0.18608615 -0.077491306 -0.021784963
00000000: 7805 83be c3c6 a23d 7a99 18bf 7d12 1fbe
00000010: b888 9dbe 1bf8 5b3e f5d4 c6be 6750 26bf
00000020: 9ce5 dbbc e3e4 0d3e 9040 ea3e fc5d c23a
00000030: f615 32be 6917 7f3e 5072 babe 9715 c0be
00000040: fbf2 a53d 80f0 643d 0a04 0d3d ec02 8bbe
00000050: ab26 9b3e ff72 51bd 8955 8f3e 2ad0 e6be
00000060: ee38 a6bd df4c e73d 4699 213f 75ee c9be
00000070: ce9d 013f 6c4b 9cbe f89b c13d 3509 5abe
00000080: 7f5e 4bbe 5c82 38be a410 9f3c 80dc 38be
00000090: 433c acbd 1246 82be a6b7 16bf 7a34 06bd
000000a0: 7443 94be 80ef 42be 0edc 2ebe 8dd4 96be
000000b0: e436 f73c 39b2 643e 7e5b c6bd ccfb 683e
000000c0: 8ca7 fa3d ee82 e4bd 705a 06be 65aa 75be
000000d0: 09bd 16be 2234 77be 346b 09be 83a2 50bd
000000e0: 06d4 38bd 1ecf f0bd 62a2 853d e15d 9fbe
000000f0: f216 cdbd 3faa 3dbf fc76 15be c73d 1dbf
00000100: 13fe 2b3d 14ad e4be 3ff6 083f 6432 e2be
00000110: af39 04be ef32 7cbe 1cbf 4ebe 3aca 573e
00000120: a024 8bbf c5e6 68bf 5092 e9be 54df 9abe
00000130: 3bff 1dbe 3da2 10be 5f79 bbbe 894d b9be
00000140: 311e 7cbd 048f d5bd 38e2 0abe ab2e 96be
00000150: 3080 0a3e 769f e4bd 7679 53bc b9f5 6e3e
00000160: 8fb2 1ebd 6e91 6e3e b102 efbd 5eb2 9a3e
00000170: 82e5 0cbd f456 063a 9234 8f3e 352b aabd
00000180: ba01 a63c 88ce a83d 2570 ebbe cded b8be
00000190: 07ed 463d 37a1 86bd c054 c8bd 1e7d 513e
000001a0: 853c f7ba ed11 853d 3375 e8bd 8900 1abe
000001b0: 8c80 00bc 58ae 49bd 5ca2 fabd 1ee0 993d
000001c0: 9ce7 fcbc f8ec 5d3c 567b 3dbe 80f2 073c
000001d0: 5028 9d3d 0901 e4bd 693e 093d 1aa5 68bd
000001e0: 2bbf bbbd 9ea0 d1bd 1079 b23c 0419 e5bd
000001f0: d1e5 9ebd ea8a 28bd 4159 59bd c188 383d
00000200: 46e6 43bd 2687 cdbd 0178 b83b b220 75bd
00000210: 6ff5 20bd 9380 f73c f530 183e 43bf 20be
00000220: fb16 443d 95c0 aabd 966e 67be 7bed 283c
00000230: 75a4 dbbd 9615 d9bc 7b46 e73d ce73 71ba
00000240: d742 28bd fad9 8abd 9d47 803d 53f2 9ebd
00000250: bdb3 3c3c ddec d0bd c7a7 46bd 7590 a1bc
00000260: e343 953c eaf9 84bd 7bc5 80bd 5642 c93c
00000270: bd46 eabb 9d2e afbd 9bff 82bd 48a7 3cbd
00000280: 1674 bcbc 5029 65bd 98a0 92be 3b1a 3ebd
00000290: 49e6 c3bd 4dc5 3fbc a5c2 0abd c7c9 52bd
000002a0: e017 c1bd e44d 973d b807 e9bd b11c 4dbb
000002b0: 2f92 32bd 7323 59be d9eb b7bd 4bbd 21be
000002c0: 5c42 2e39 522d 74bd f22e 88bd 1838 98b9
000002d0: a0ea 4cbc e92e 09bd bf37 5ebd 4daf 18be
000002e0: 125f 51be f8e4 573d 8f41 9dbd 9908 6c3b
000002f0: 4901 27be 0613 14be f2d7 37bd 3bd3 efbd
00000300: ed34 053b 5ece b3bc 3aeb 90bd 7e27 acbc
00000310: bde2 82bd b353 bb3b e3fd 12be d9d3 1f3d
00000320: 232b fcbd 7a60 7ebd 7869 5dbe f1d4 7cbd
00000330: df86 babc 809d 90bd 7534 84be 5eea acbd
00000340: 1bdc 573c d981 50bd 1a5b 7abe 53a9 463d
00000350: cf81 02bd d91c 123d c9c5 c7bd 5745 9fbd
00000360: 3a8e e63c 1e6c 34bd f163 e33c 2656 cfbd
00000370: 4e58 bf3c 5d1b 86be 2ff1 4cbc 1f61 62be
00000380: a197 c43d 6e5d 633c 0629 bc3a 55be 353e
00000390: 6f6b df3c 5b99 4fbe cf11 983d b8c1 9bbd
000003a0: 1d3d cd3c 07c1 acbd 9ce8 0cbe 7047 69be
000003b0: bfdf 6fbe 9e9d b3bd 45b3 f2be 2880 fa3d
000003c0: fb68 163e 13f0 b6bd 933e 95bd 7ef9 363d
000003d0: 735c 3cbd fc68 943d 7ddc f03c 7d3f 6bbe
000003e0: 7977 68be ea79 d33c 0fc5 cabc c782 99be
000003f0: 0d63 e8bc 5e8d 3ebe c3b3 9ebd 6176 b2bc

attention.0.bias f4 [100]
-0.55197644 -0.2897413 0.046102945 -0.058112513 -0.0037255492 -0.10182681 -0.35007504 -0.13080251
-0.1508102 -0.04109865 -0.121884674 -0.023718039 -0.18510094 -0.24961227 0.12578994 -0.6822301
-0.0036075073 -0.14203875 -0.49718532 -0.7341165 -0.044738024 -0.17670406 -0.23141566 -0.15683676
-0.13821916 -0.18968399 -0.7545703 0.007869433 -0.33549783 -0.5609236 -0.12641114 -0.19917646
-0.13023955 -0.2504566 -0.2762053 -0.20086917 -0.28554955 -0.083014674 -0.33793306 0.004996064
-0.26634118 0.0005071989 -0.26030308 -0.25183254 -0.07798102 -0.10624044 -0.18015878 -0.20952415
-0.65843755 -0.17608649 -0.44036064 -0.4139219 0.009095753 -0.25547904 0.014465799 -0.3929771
-0.15795115 -0.24488749 -0.13893439 -0.18612145 -0.40177038 -0.2892307 -0.2626155 -0.0704236
-0.17516823 -0.07800383 -0.08916607 -0.23037626 -0.09606074 -0.091172665 -0.10352598 -0.33500195
-0.08271637 0.13220167 -0.4988668 -0.21021612 -0.37406814 -0.18349773 -0.17963538 -0.51469034
-0.44891238 -0.18978988 -0.24635904 0.106477164 -0.6067932 -0.36968675 -0.30229643 -0.21693076
-0.06343236 -0.48830536 -0.15768087 -0.47656837 -0.5123191 -0.45386523 -0.09294904 -0.29972693
-0.12478541 -0.11760563 -0.47169077 -0.081153244
00000000: 544e 0dbf f958 94be 71d6 3c3d 6307 6ebd
00000010: 5828 74bb 938a d0bd 093d b3be 18f1 05be
00000020: fd6d 1abe 0f57 28bd ac9e f9bd 554c c2bc
00000030: 1a8b 3dbe 5c9a 7fbe 14cf 003e a2a6 2ebf
00000040: ee6b 6cbb 9b72 11be 138f febe 0fef 3bbf
00000050: 383f 37bd e9f1 34be 3af8 6cbe d199 20be
00000060: 5389 0dbe 853c 42be 852b 41bf cbee 003c
00000070: 5fc6 abbe b098 0fbf ec71 01be eaf4 4bbe
00000080: 845d 05be d93b 80be c86a 8dbe a6b0 4dbe
00000090: 8d33 92be 9903 aabd 9005 adbe 06b6 a33b
000000a0: df5d 88be 8bf5 043a 7246 85be 32f0 80be
000000b0: 83b4 9fbd 9694 d9bd 8b7b 38be 808d 56be
000000c0: 5d8f 28bf 0450 34be f376 e1be 92ed d3be
000000d0: 5a06 153c 26ce 82be f501 6d3c 4b34 c9be
000000e0: f2bd 21be c9c3 7abe d144 0ebe 9f96 3ebe
000000f0: d9b4 cdbe 0c16 94be 8a75 86be 403a 90bd
00000100: 4d5f 33be 79c0 9fbd b39c b6bd c1e7 6bbe
00000110: 7ebb c4bd bcb8 babd 6e05 d4bd 6085 abbe
00000120: 3367 a9bd e05f 073e 786b ffbe e542 57be
00000130: dc85 bfbe d4e6 3bbe 56f2 37be bfc2 03bf
00000140: d8d7 e5be 4758 42be 8b45 7cbe b310 da3d
00000150: cd56 1bbf 9547 bdbe 99c6 9abe 1923 5ebe
00000160: d3e8 81bd 2903 fabe 1877 21be c500 f4be
00000170: 5827 03bf 0661 e8be 115c bebd cf75 99be
00000180: 7e8f ffbd 38db f0bd 7481 f1be ac33 a6bd

attention.2.weight f4 [100, 100]
-0.055066172 0.035039883 -0.30463672 -0.21079418 0.21168265 0.020731177 0.017444061 -0.1755153
-0.107156344 0.112365425 -0.28435582 -0.091342255 0.05210216 -0.1442763 -0.06216013 -0.31994048
0.0001976691 0.03656913 0.32340777 0.021339728 -0.004925516 -0.26804474 0.033256106 -0.31794098
-0.02611592 -0.104023956 -0.16220053 -0.12829396 0.041551437 0.13045323 -0.003733391 -0.12896936
-0.20896283 0.002425554 -0.12229411 -0.11361258 -0.13383198 0.014382672 -0.047225457 0.03129398
0.0830843 0.0049429815 0.15600073 -0.09310067 -0.029434118 -0.054189716 0.047461465 -0.044167966
-0.122209094 -0.03581761 -0.047034785 -0.0054422244 -0.049230564 -0.0953578 -0.021752775 0.051584058
-0.1604741 -0.011420239 -0.07782378 -0.09031766 0.019827725 -0.001247387 0.08756152 -0.07514754
-0.11295428 0.05389031 -0.022659808 -0.026526947 0.08719984 -0.08513002 -0.08068898 0.014406328
-0.087484784 -0.32841855 -0.08854173 0.035348326 0.024465872 -0.1047274 -0.024493739 -0.07550723
-0.33901253 -0.050290495 -0.03556535 -0.0853958 -0.37835795 -0.16448937 0.0045991633 -0.055608843
-0.16571714 0.038588926 -0.015280388 -0.12486426 0.043338265 -0.15689674 0.43894368 -0.06433349
0.041755356 0.09393234 -0.03786619 -0.080176495 -0.12232254 0.0322746 -0.057588596 -0.0019883693
0.024123216 -0.091058575 -0.008099665 -0.08765773 -0.076350324 0.03472818 -0.10325295 -0.06273559
-0.04902022 0.0035333945 0.028312266 -0.09445618 -0.1353582 0.044994865 0.0077214255 0.0019006203
0.0063868924 -0.034151264 0.022379754 0.002699878 -0.03988336 -0.05691161 -0.025159396 0.008230872
0.034546927 -0.1197634 0.021901892 0.00461135 -0.013185471 -0.019048989 -0.06622582 -0.05095778
-0.07316332 -0.08244372 0.044039484 0.06419889 -0.02332946 -0.056621928 0.006558308 -0.015871128
0.03662179 -0.07758861 -0.0709129 -0.06720532 -0.09931101 -0.023517968 -0.051910147 -0.08912146
0.052252565 -0.11743909 -0.015358829 -0.0742554 -0.07290425 -0.044662118 -0.0020033068 -0.013584696
0.025532005 -0.09802216 -0.024257557 -0.024380954 -0.08183443 -0.083152995 0.031980433 0.0052861813
-0.026323752 -0.14169122 0.031179 -0.07967856 -0.06684556 -0.104032025 0.01040734 -0.08852228
0.015351725 -0.009542839 0.0038764619 -0.031792574 -0.024923673 -0.06267916 0.004443997 0.0018616744
-0.051736183 -0.056143988 0.057715617 0.045212854 -0.08963082 -0.073909104 0.0058172764 -0.054889876
-0.052965887 -0.11666673 -0.035306834 -0.06261203 0.014971318 -0.063076094 -0.024570158 -0.035332162
-0.17488869 -0.06262724 -0.05255048 -0.027041381 -0.10857758 -0.012642881 -0.009429951 -0.12134512
-0.13197091 -0.1280686 -0.08979576 -0.1145058 0.058817014 -0.10419701 0.010786218 -0.075164035
-0.16471674 -0.06325445 -0.26342317 -0.19521041 -0.06646067 -0.044648357 -0.10904081 -0.116818465
-0.015701594 -0.055808485 -0.17008707 -0.1095788 0.021670498 -0.13738295 -0.13584644 -0.0023405494
0.00038699602 -0.03304864 0.016365053 0.04223437 -0.058714516 0.07389317 -0.118180044 -0.10126903
-0.019770376 -0.06318082 -0.015650902 -0.1149954 -0.10858801 -0.115461625 -0.014557649 -0.018138822
-0.01276127 -0.03807414 -0.003776491 -0.018346764 -0.10654335 -0.034706682 -0.00015284774 -0.09920736
00000000: 118d 61bd fb85 0f3d 58f9 9bbe 6eda 57be
00000010: 56c3 583e 6ed4 a93c d9e6 8e3c 48ba 33be
00000020: c974 dbbd d81f e63d 1697 91be a611 bbbd
00000030: 1369 553d 2bbd 13be 9f9b 7ebd 3dcf a3be
00000040: 6545 4f39 83c9 153d b495 a53e a7d0 ae3c
00000050: 3966 a1bb 293d 89be 8e37 083d 29c9 a2be
00000060: 0ef1 d5bc 830a d5bd e517 26be 7e5f 03be
00000070: d731 2a3d 8895 053e e8ab 74bb 8b10 04be
00000080: 5afa 55be 0bf6 1e3b 5675 fabd b6ad e8bd
00000090: 400b 09be 4ca5 6b3c 7b6f 41bd 1e2e 003d
000000a0: 1a28 aa3d bcf8 a13b a8be 1f3e 90ab bebd
000000b0: d21f f1bc 09f6 5dbd f466 423d 78e9 34bd
000000c0: c348 fabd 7cb5 12bd 8ca7 40bd b054 b2bb
000000d0: fda5 49bd f34a c3bd e032 b2bc ce49 533d
000000e0: 5353 24be f41b 3bbc 1362 9fbd 77f8 b8bd
000000f0: c16d a23c 5d7f a3ba 7453 b33d f4e6 99bd
00000100: 9354 e7bd 16bc 5c3d 10a1 b9bc 0a4f d9bc
00000110: d495 b23d a658 aebd 4440 a5bd 8508 6c3c
00000120: 392b b3bd 7a26 a8be 5e55 b5bd 68c9 103d
00000130: a76c c83c 527b d6bd 18a7 c8bc 89a3 9abd
00000140: 0d93 adbe 68fd 4dbd f9ac 11bd fee3 aebd
00000150: 22b8 c1be e76f 28be 94b4 963b 19c6 63bd
00000160: c1b1 29be 6c0f 1e3d 985a 7abc d5b8 ffbd
00000170: 7783 313d 8aa9 20be 3abd e03e 47c1 83bd
00000180: aa07 2b3d 995f c03d 9419 1bbd 9333 a4bd
00000190: 3d84 fabd 5f32 043d 05e2 6bbd 4d4f 02bb
000001a0: 0d9e c53c eb7c babd 75b4 04bc e585 b3bd
000001b0: 8f5d 9cbd 233f 0e3d 4876 d3bd 847b 80bd
000001c0: 6dc9 48bd 8690 673b 20ef e73c 3e72 c1bd
000001d0: 579b 0abe 894c 383d 0304 fd3b 3c1e f93a
000001e0: 2349 d13b 32e2 0bbd bf55 b73c 70f0 303b
000001f0: bc5c 23bd 261c 69bd 141b cebc c8da 063c
00000200: 1481 0d3d 8346 f5bd 996b b33c cf1a 973b
00000210: e007 58bc a00c 9cbc 67a1 87bd 1bb9 50bd
00000220: a7d6 95bd 41d8 a8bd bf62 343d b57a 833d
00000230: 6c1d bfbc 65ec 67bd 13e7 d63b 2b04 82bc
00000240: bb00 163d c7e6 9ebd c83a 91bd f1a2 89bd
00000250: 9263 cbbd c1a8 c0bc bc9f 54bd 5085 b6bd
00000260: c906 563d e883 f0bd 99a3 7bbc 3713 98bd
00000270: d34e 95bd a0ef 36bd e949 03bb 5892 5ebc
00000280: 7f28 d13c d8bf c8bd c9b7 c6bc 91ba c7bc
00000290: cf98 a7bd 1e4c aabd eafd 023d b437 ad3b
000002a0: e9a4 d7bc 8117 11be 1a6b ff3c 832e a3bd
000002b0: 53e6 88bd be0e d5bd 8c83 2a3c 2b4b b5bd
000002c0: cd85 7b3c 9159 1cbc 3d0c 7e3b ee38 02bd
000002d0: bb2c ccbc ee5d 80bd f39e 913b 6d03 f43a
000002e0: 52e9 53bd 3df7 65bd 3667 6c3d 1d31 393d
000002f0: 5d90 b7bd a85d 97bd da9e be3b 35d4 60bd
00000300: c2f2 58bd f7ee eebd e69d 10bd bc3a 80bd
00000310: 424a 753c 0a2e 81bd 5b47 c9bc 75b8 10bd
00000320: 0516 33be b642 80bd 2c3f 57bd e385 ddbc
00000330: ec5d debd 1624 4fbc 1580 1abc ca83 f8bd
00000340: 6223 07be 6a24 03be d7e6 b7bd 0482 eabd
00000350: 1cea 703d 3e65 d5bd adb8 303c 9aef 99bd
00000360: 81ab 28be 8d8b 81bd 67df 86be 3de5 47be
00000370: 881c 88bd 32e1 36bd ca50 dfbd 853e efbd
00000380: a1a0 80bc 7097 64bd 4e2b 2ebe da6a e0bd
00000390: 5486 b13c 1eae 0cbe 541b 0bbe e763 19bb
000003a0: bae5 ca39 035e 07bd 0110 863c f2fd 2c3d
000003b0: a27e 70bd 4d55 973d 6108 f2bd 2366 cfbd
000003c0: 7cf5 a1bc f264 81bd 5236 80bc b582 ebbd
000003d0: 6463 debd 2577 ecbd 3583 6ebc de97 94bc
000003e0: a514 51bc a1f3 1bbd 017f 77bb f44b 96bc
000003f0: 6633 dabd 9828 0ebd c145 20b9 3a2d cbbd
