sarl_star_ros/CrowdNav/crowd_nav/data/train_mateo_2/rl_model.pth (torch_old, 349196 bytes, 20 tensors)

mlp1.0.weight f4 [150, 13]
0.029691922 0.0066728904 0.0026970177 -0.15091753 0.11792565 -0.10732847 -0.18705003 -0.17897823
-0.43193734 0.68176097 0.2055015 -0.015565785 0.16047037 -0.24320848 -0.22164182 0.16356845
0.16224481 -0.078655 0.24106926 -0.08505838 -0.13961363 0.00028660707 -0.2674983 0.24437822
0.0068775117 -0.27975672 0.11467341 -0.23934522 0.108083576 0.2730734 -0.17768209 -0.958649
0.6277428 0.37679005 -0.4407167 0.11972524 0.27119848 -0.4572202 0.088493235 0.5076889
-0.6455509 -0.36864206 -0.13649322 0.08277273 -0.06057954 0.04303501 -0.6158384 0.73755896
0.21763119 0.12683815 -0.16195439 0.115481876 -0.36132395 0.38761565 -0.21278048 0.037353296
-0.47773954 0.10097744 0.01897673 0.639359 0.016977916 -0.25652832 -0.21126802 0.23562126
0.30846208 -0.04677716 0.17563874 0.16381899 0.21715905 0.1303446 0.22585046 0.024522623
-0.17205137 -0.73268384 -0.16710638 -0.07129732 -0.17252415 0.16324408 -0.35607237 -0.12724595
0.012610499 -0.03028886 0.4782571 -0.61019397 -0.4524752 -0.48494503 0.40438035 0.45986658
-0.059393574 -0.19360475 -0.08699866 -0.5198083 -0.14407508 -0.4738691 0.11081552 0.46475327
-0.17008412 0.032543786 0.0038119198 0.8199945 0.6536085 0.01969435 0.48469537 0.01432402
0.4027673 -0.5124908 -0.20963868 0.18025841 0.5077901 0.3191398 0.28657237 -0.67593
-0.52259636 0.32484692 0.10640321 -0.18303305 0.047818508 0.26737553 -0.41424268 0.27857247
-0.21541454 -0.080751374 0.30888554 -0.43379298 -0.015506196 0.23280711 0.09518313 -0.32838267
-0.28269497 -0.00042402325 -0.35968673 -0.038634196 0.18336782 -0.15099636 -0.6594995 -0.27177876
-0.28001216 -0.22566262 0.1568233 0.2384784 -0.16579856 -0.107313044 -0.03044149 0.30532366
0.023289878 0.22554253 -0.15652412 0.24359013 0.66864836 -0.0734614 -0.5135881 0.62958604
-0.3657756 -0.108522564 -1.144799 0.17844181 0.07660086 -0.27981722 0.025477033 -0.070235685
0.36292994 -0.72302234 -0.16534838 0.36309865 -0.27931803 0.7774294 0.18872292 0.504564
0.14269854 0.25224304 -0.14190409 0.15543109 0.073904864 -0.0021244625 -0.09065505 -0.5538895
-1.0166235 1.0390096 -0.012898172 -0.06666142 -0.8811654 0.07778949 -0.17315474 0.4730014
-0.07991279 -0.0683942 -0.17787807 -0.18331899 -0.25487646 0.5354311 -0.78888774 0.66303015
0.15920807 -0.15400578 0.19357699 -0.51926476 0.4811968 0.6743249 -0.0058982735 -0.08824018
0.20608503 0.3148414 0.34288627 0.3045892 -0.45809934 -0.0373016 -0.4627987 -0.053179428
0.15761204 0.58206147 0.2741052 0.25852552 0.087172866 0.24463071 0.0925009 0.5598265
0.4575918 0.51730853 0.1804149 -0.9952962 -0.05472267 -0.41881698 0.09887415 -0.23954904
0.1084887 -0.0831321 0.88911843 0.21738204 0.49220413 0.15874521 0.10215831 -0.1512232
0.082980044 0.002873344 0.3553182 -0.51468337 0.20102811 0.08791208 0.44418022 0.4986692
-0.19014734 -0.43121132 0.4735875 -0.15026698 -0.10946148 -0.49497992 0.10531295 -0.7082863
-0.10163086 -0.38909948 0.25113562 -0.19515443 0.06706915 0.39199075 0.77242863 0.90642893
00000000: 793c f33c 43a8 da3b 73c0 303b 208a 1abe
00000010: 0183 f13d 07cf dbbd 0b8a 3fbe 1246 37be
00000020: e426 ddbe e387 2e3f fc6e 523e a207 7fbc
00000030: 5852 243e a50b 79be 13f6 62be 7d7e 273e
00000040: 8123 263e df15 a1bd dcda 763e 1733 aebd
00000050: e0f6 0ebe c043 9639 8af5 88be 493e 7a3e
00000060: c05c e13b 463c 8fbe e5d9 ea3d ea16 75be
00000070: ec5a dd3d 47d0 8b3e 4bf2 35be 056a 75bf
00000080: c1b3 203f a0ea c03e 9fa5 e1be 8232 f53d
00000090: 87da 8a3e c418 eabe f13b b53d e6f7 013f
000000a0: d342 25bf a7be bcbe e1c4 0bbe c084 a93d
000000b0: 4022 78bd 7b45 303d 96a7 1dbf aad0 3c3f
000000c0: b6da 5e3e dce1 013e 5fd7 25be c381 ec3d
000000d0: 74ff b8be 8f75 c63e 20e3 59be c5ff 183d
000000e0: 479a f4be 43cd ce3d 1675 9b3c 08ad 233f
000000f0: 4515 8b3c ae57 83be a556 58be b346 713e
00000100: beee 9d3e 6899 3fbd a4da 333e 2ac0 273e
00000110: f15e 5e3e 0e79 053e 5845 673e abe3 c83c
00000120: 3c2e 30be 2b91 3bbf ef1d 2bbe 5404 92bd
00000130: 2caa 30be 7529 273e 1e4f b6be c34c 02be
00000140: 449c 4e3c 5820 f8bc 1dde f43e ac35 1cbf
00000150: d4aa e7be b74a f8be f10a cf3e a273 eb3e
00000160: ad46 73bd 5340 46be 5a2c b2bd 2812 05bf
00000170: 6b88 13be f89e f2be 3ff3 e23d 24f4 ed3e
00000180: 882a 2ebe a24c 053d 67d1 793b 29eb 513f
00000190: e352 273f 0c56 a13c fe29 f83e 4baf 6a3c
000001a0: 8437 ce3e 9932 03bf 86ab 56be a995 383e
000001b0: 88fe 013f 4b66 a33e 9db9 923e c009 2dbf
000001c0: e0c8 05bf 5652 a63e ede9 d93d 046d 3bbe
000001d0: 57dd 433d 72e5 883e 9e17 d4be 0da1 8e3e
000001e0: a195 5cbe fa60 a5bd 3f26 9e3e 1d1a debe
000001f0: b30d 7ebc fd64 6e3e 5fef c23d c621 a8be
00000200: 65bd 90be 704f deb9 dc28 b8be e43e 1ebd
00000210: c6c4 3b3e ca9e 1abe f6d4 28bf 9626 8bbe
00000220: c15d 8fbe 1a14 67be 4a96 203e af33 743e
00000230: 19c7 29be f1c6 dbbd 6e60 f9bc 6253 9c3e
00000240: 6aca be3c 9ff4 663e dc47 20be b16f 793e
00000250: 8a2c 2b3f ee72 96bd 827a 03bf 8d2c 213f
00000260: f046 bbbe 1441 debd c688 92bf 73b9 363e
00000270: e9e0 9c3d 3444 8fbe 36b5 d03c bad7 8fbd
00000280: f4d1 b93e fe17 39bf 1651 29be 11e8 b93e
00000290: c602 8fbe 9d05 473f 9540 413e 1b2b 013f
000002a0: 911f 123e 0026 813e 4e4f 11be 5429 1f3e
000002b0: 6f5b 973d 913a 0bbb 5ba9 b9bd b4cb 0dbf
000002c0: b820 82bf 44fe 843f db52 53bc c885 88bd
000002d0: 0e94 61bf 1950 9f3d 7a4f 31be 3d2d f23e
000002e0: 51a9 a3bd 4212 8cbd ab25 36be f9b7 3bbe
000002f0: 2b7f 82be 0312 093f 8cf4 49bf 58bc 293f
00000300: 7107 233e b1b3 1dbe 0c39 463e 89ee 04bf
00000310: 6d5f f63e 8fa0 2c3f 4e46 c1bb 44b7 b4bd
00000320: f407 533e e432 a13e ca8e af3e 1ef3 9b3e
00000330: ff8b eabe 90c9 18bd f4f3 ecbe acd2 59bd
00000340: 0d65 213e fb01 153f 8457 8c3e 755d 843e
00000350: b087 b23d 7980 7a3e 1d71 bd3d ca50 0f3f
00000360: 7949 ea3e 556e 043f afbe 383e bbcb 7ebf
00000370: e124 60bd 2e6f d6be 887e ca3d 584c 75be
00000380: 532f de3d 2a41 aabd 449d 633f 6699 5e3e
00000390: 2e02 fc3e 1b8e 223e 6038 d13d 41da 1abe
000003a0: 71f1 a93d b74e 3c3b 44ec b53e 4ac2 03bf
000003b0: 50da 4d3e 400b b43d 976b e33e 9251 ff3e
000003c0: fcb5 42be bbc7 dcbe 107a f23e 96df 19be
000003d0: 572d e0bd 026e fdbe 51ae d73d 4052 35bf
000003e0: d723 d0bd 0c38 c7be d994 803e 90d6 47be
000003f0: 8d5b 893d 03b3 c83e e2bd 453f ba0b 683f

mlp1.0.bias f4 [150]
0.09017847 0.0997662 0.096602775 -0.021397732 0.06457079 0.24240348 0.14982064 0.004717366
-0.047156736 0.17867392 0.08730087 0.018850038 -0.2434097 -0.13525304 0.111990005 0.17694823
0.050302237 -0.2709651 -0.25836834 -0.15979145 -0.27738327 0.2057922 -0.17660692 0.042231742
0.08973173 0.021202093 0.094088145 0.14958464 -0.056507394 0.18161538 0.15438353 -0.12110811
-0.075809866 0.04651751 0.22003873 0.06582406 0.11082753 -0.08774748 0.16586967 -0.048172824
-0.1305252 -0.03306394 -0.19853313 0.16400321 0.25179756 -0.15794756 -0.20791213 0.18098448
-0.11387598 -0.08756978 0.045146734 -0.0053986753 0.09781468 -0.04865583 -0.10705897 -0.035963945
0.07681402 0.2405004 0.16873182 0.17885412 0.09003191 -0.2012262 -0.18047902 0.118337885
0.015933037 -0.16023314 0.18342218 0.24984702 -0.240429 -0.28264117 -0.14220718 0.23933806
-0.09677368 0.10231962 -0.095180385 0.22690588 -0.05996449 -0.24751733 -0.07832347 0.0131630665
0.15118092 0.086836204 -0.1553378 0.073848754 -0.19594347 -0.0051800697 -0.28048557 0.23882918
-0.22841787 0.06962486 0.2528596 -0.043983478 -0.120252475 0.1764909 0.25010687 -0.2601201
0.04278632 -0.09719054 0.013470884 -0.11163622 -0.13993779 -0.16620561 0.15270054 0.31852227
-0.12338248 -0.047080927 0.20742029 -0.03830766 -0.2692754 -0.11967061 0.11156673 -0.15532076
-0.08216047 -0.15530941 -0.2542488 -0.088336945 0.29547846 0.13274336 -0.17407808 -0.18077016
-0.19129172 0.13471009 0.17076613 0.22618973 -0.12620096 0.12675194 -0.12041683 0.11315939
-0.23886058 -0.27004334 -0.09950732 -0.29120076 0.15283227 0.01695151 -0.19999133 -0.16816746
0.2314032 -0.28235212 -0.036920387 -0.07095455 0.25062028 -0.20620936 0.017879685 0.21278095
0.14606385 0.042549063 -0.06921516 -0.20107198 0.06940101 0.011340219
00000000: 7daf b83d 3952 cc3d add7 c53d 4c4a afbc
00000010: b13d 843d 9e38 783e 956a 193e 2294 9a3b
00000020: 6c27 41bd 4cf6 363e ccca b23d 656b 9a3c
00000030: 6440 79be c67f 0abe 045b e53d eb31 353e
00000040: b809 4e3d f0bb 8abe db48 84be 5fa0 23be
00000050: 2e05 8ebe 31bb 523e 72d8 34be 31fb 2c3d
00000060: 45c5 b73d 03b0 ad3c 49b1 c03d b72c 193e
00000070: 4c74 67bd 62f9 393e b716 1e3e 8707 f8bd
00000080: 3442 9bbd 2589 3e3d d551 613e c4ce 863d
00000090: 8bf9 e23d f3b4 b3bd bdd9 293e de50 45bd
000000a0: 66a8 05be 0e6e 07bd 454c 4bbe 75f0 273e
000000b0: 9ceb 803e 01bd 21be ebe6 54be ff53 393e
000000c0: cf37 e9bd c957 b3bd c8eb 383d 5fe7 b0bb
000000d0: 1053 c83d 564b 47bd bc41 dbbd ee4e 13bd
000000e0: ab50 9d3d bd45 763e 09c8 2c3e 8925 373e
000000f0: a662 b83d 3e0e 4ebe 7ecf 38be 225b f23d
00000100: 0086 823c 2814 24be 06d3 3b3e e6d7 7f3e
00000110: 0533 76be 58b6 90be c29e 11be 0915 753e
00000120: 4731 c6bd f38c d13d efed c2bd 045a 683e
00000130: 539d 75bd 2f75 7dbe 0e68 a0bd e7a9 573c
00000140: 2ccf 1a3e 2ed7 b13d df10 1fbe 043e 973d
00000150: 68a5 48be 93bd a9bb ce9b 8fbe a38f 743e
00000160: 60e6 69be 7b97 8e3d d076 813e 0528 34bd
00000170: ee46 f6bd 08ba 343e 020e 803e 762e 85be
00000180: b540 2f3d d50b c7bd fcb4 5c3c 88a1 e4bd
00000190: da4b 0fbe ce31 2abe 885d 1c3e 5a15 a33e
000001a0: f4af fcbd eed7 40bd fc65 543e 7ee8 1cbd
000001b0: 77de 89be dd15 f5bd 197d e43d 680c 1fbe
000001c0: c043 a8bd 6e09 1fbe e62c 82be 00ea b4bd
000001d0: f448 973e e0ed 073e 8641 32be d01b 39be
000001e0: fae1 43be 71f1 093e 51dd 2e3e 489e 673e
000001f0: d33a 01be 43cb 013e 199d f6bd 1cc0 e73d
00000200: de97 74be 1f43 8abe 7eca cbbd 4418 95be
00000210: 1080 1c3e e5dd 8a3c 87ca 4cbe 1734 2cbe
00000220: f6f4 6c3e 7590 90be d539 17bd 9e50 91bd
00000230: 4d51 803e 8c28 53be 6b78 923c 40e3 593e
00000240: c391 153e ed47 2e3d aec0 8dbd d0e5 4dbe
00000250: 1e22 8e3d 53cc 393c

mlp1.2.weight f4 [100, 150]
-0.036998153 -0.08401543 -0.0043466906 -0.04284923 0.10103354 0.04814745 -0.16440336 -0.003090811
-0.16440429 0.027524404 0.063940234 0.1693609 0.11829604 -0.11335685 -0.43393758 -0.06983165
0.10095843 -0.09995367 0.09058353 -0.0077978293 -0.023478262 -0.2815602 0.0330322 -0.111378945
0.14829962 0.11095813 0.0028862045 0.031300172 -0.07299612 0.0016552552 -0.03220417 0.083840206
0.051937852 0.04545218 -0.21127458 -0.06137859 0.18189077 0.024797399 0.044241212 -0.17840697
-0.07969502 0.11253491 0.08883127 -0.023091659 0.13217267 0.0965499 0.006130406 -0.13888445
0.0043454343 -0.1275321 -0.12360972 -0.12356753 0.036906667 0.051911205 -0.07398123 0.0053673745
0.0029804974 0.033195365 0.15840144 -0.03918288 0.10378038 0.018834505 -0.036648385 -0.024693323
0.029350631 0.045836553 0.08726057 -0.06913495 -0.097908035 -0.34898227 -0.03024228 -0.019357666
0.06874419 0.010377249 -0.21431145 0.054264154 0.10229258 -0.060069982 0.03382329 0.00701343
0.021347327 0.13460596 -0.08960414 0.10342833 0.15664299 0.04146311 -0.03334977 0.16250867
0.03088698 -0.4148518 -0.0030603812 0.076793656 -0.14497288 -0.18678164 0.038439497 0.024549915
0.14709711 0.090479106 0.03998849 0.23355946 0.16752602 0.055143267 0.105026364 0.057837512
0.06128989 -0.100966424 0.00895194 -0.020851796 -0.29475144 -0.05619023 0.095974945 0.29427183
-0.006280165 -0.105286315 0.05291083 -0.015753468 -0.37647417 0.03363729 -0.08342843 -0.048730053
-0.123003766 -0.018817538 0.09691841 0.07540247 0.03741552 0.28518695 0.109342396 0.102947995
0.08393722 -0.023997232 -0.019643927 0.20546286 -0.08370892 -0.07360604 0.06041828 0.06413098
0.031860758 0.055752713 -0.014860498 0.0420768 -0.012379752 -0.2299849 0.14916995 -0.11370739
-0.06655526 0.035169326 0.006350965 -0.15250269 -0.22241585 -0.15764865 0.041452855 0.024981836
-0.027867524 -0.03885451 0.05375624 0.08448206 0.003937454 -0.029723985 -0.33094162 0.07374458
0.015173944 -0.17394188 0.008921936 -0.17675021 -0.022373116 -0.08580249 -0.19810668 -0.061795555
-0.12945174 -0.051671673 -0.10936844 0.17104867 0.059586667 -0.078678176 -0.029603312 -0.011966857
-0.045133106 0.027585264 -0.29990906 -0.10018193 0.060009893 -0.17384253 -0.28279462 0.09710754
0.14190413 0.2948566 -0.055183057 -0.03055339 -0.061021082 0.08817312 -0.049150616 0.26294455
-0.06983055 -0.023690853 -0.12125627 0.007943177 0.20685662 0.060866263 -0.06633511 0.29158786
-0.30732757 -0.026853131 -0.037019532 0.06424209 -0.097586796 -0.12639213 -0.052965604 0.052171096
-0.12886235 0.062693186 0.0007594133 0.21096599 0.12392747 0.20521699 0.057212904 0.0886343
0.07850538 0.07478652 -0.28287622 0.198471 0.14498007 0.20911354 0.06890761 -0.25278226
0.3393219 -0.10837454 0.1379876 -0.44839025 0.05539283 0.14112666 -0.1945052 -0.0072344732
-0.012593868 0.043777246 0.1017766 0.15480351 0.09354976 0.060297716 -0.06558428 -0.1238107
0.08930726 0.1354822 0.15452302 0.014450492 -0.011616441 0.008304607 -0.1938999 -0.011725835
-0.06994158 -0.057718094 -0.028748848 0.037706666 0.10639725 0.12544961 -0.110493734 0.19823585
00000000: 608b 17bd 4810 acbd af6e 8ebb ad82 2fbd
00000010: acea ce3d 4336 453d 5b59 28be 348f 4abb
00000020: 9959 28be dc7a e13c 19f3 823d f26c 2d3e
00000030: 3245 f23d a327 e8bd 112d debe e503 8fbd
00000040: 4bc3 ce3d 82b4 ccbd dc83 b93d ef84 ffbb
00000050: 7c55 c0bc a928 90be c64c 073d a51a e4bd
00000060: dbdb 173e 043e e33d 7a26 3d3b 9c34 003d
00000070: fd7e 95bd 26f5 d83a 85e8 03bd 6ab4 ab3d
00000080: c9bc 543d 112c 3a3d 5d58 58be 1e68 7bbd
00000090: 9341 3a3e ea23 cb3c 4636 353d 51b0 36be
000000a0: 2537 a3bd b478 e63d 2bed b53d b82a bdbc
000000b0: 4658 073e f4bb c53d 93e1 c83b ba37 0ebe
000000c0: 2564 8e3b c697 02be 1827 fdbd f910 fdbd
000000d0: 722b 173d d8a0 543d 7983 97bd cde0 af3b
000000e0: 7354 433b ddf7 073d fd33 223e 3a7e 20bd
000000f0: cf8a d43d d24a 9a3c 9e1c 16bd a749 cabc
00000100: bc70 f03c 1cbf 3b3d abb5 b23d a096 8dbd
00000110: 0284 c8bd cead b2be a8be f7bc f893 9ebc
00000120: c1c9 8c3d 5605 2a3c 7674 5bbe 1744 5e3d
00000130: c67e d13d f10b 76bd 4a8a 0a3d ead0 e53b
00000140: 97e0 ae3c 25d6 093e 6082 b7bd 3bd2 d33d
00000150: 0567 203e 39d5 293d c599 08bd ac68 263e
00000160: b106 fd3c 7567 d4be ad90 48bb fe45 9d3d
00000170: c573 14be b043 3fbe bc72 1d3d e71c c93c
00000180: a0a0 163e 1c4d b93d f9ca 233d 362a 6f3e
00000190: f18b 2b3e e8dd 613d 1018 d73d 07e7 6c3d
000001a0: 1c0b 7b3d 7cc7 cebd 28ab 123c 63d1 aabc
000001b0: a9e9 96be ba27 66bd 838e c43d ccaa 963e
000001c0: d8c9 cdbb 5aa0 d7bd 07b9 583d 6b0d 81bc
000001d0: 39c1 c0be 41c7 093d 86dc aabd 2a99 47bd
000001e0: 66e9 fbbd 3d27 9abc 297d c63d 9c6c 9a3d
000001f0: 0441 193d 0604 923e e8ee df3d 66d6 d23d
00000200: 47e7 ab3d d895 c4bc 4dec a0bc db64 523e
00000210: 956f abbd c3be 96bd 2979 773d 1a57 833d
00000220: 6d80 023d f55c 643d 7279 73bc b958 2c3d
00000230: 71d4 4abc 2981 6bbe 02c0 183e 6cdf e8bd
00000240: 204e 88bd b60d 103d c11b d03b aa29 1cbe
00000250: fbc0 63be a66e 21be 78ca 293d b5a6 cc3c
00000260: 6f4a e4bc e825 1fbd 812f 5c3d ee04 ad3d
00000270: c205 813b b77f f3bc 2e71 a9be 6607 973d
00000280: 229c 783c d21d 32be 502d 123c 02fe 34be
00000290: d347 b7bc 37b9 afbd 7adc 4abe 561d 7dbd
000002a0: ff8e 04be ada5 53bd 90fc dfbd 6227 2f3e
000002b0: 2611 743d 0622 a1bd a582 f2bc a310 44bc
000002c0: 7edd 38bd 7efa e13c ae8d 99be 2f2c cdbd
000002d0: efcc 753d c703 32be 75ca 90be 51e0 c63d
000002e0: 514f 113e 72f7 963e a107 62bd 1a4b fabc
000002f0: 3ef1 79bd 1c94 b43d 2852 49bd aba0 863e
00000300: 5203 8fbd 5213 c2bc 3555 f8bd 1924 023c
00000310: 39d2 533e e74e 793d b4da 87bd 014b 953e
00000320: 0a5a 9dbe 19fb dbbc cba1 17bd 5b91 833d
00000330: 96db c7bd f06c 01be 76f2 58bd 5cb1 553d
00000340: 7ef4 03be 4965 803d 5d13 473a 7807 583e
00000350: afcd fd3d 6724 523e 1458 6a3d e685 b53d
00000360: 6ec7 a03d ad29 993d 27d5 90be fb3b 4b3e
00000370: a875 143e dc21 563e 6f1f 8d3d ad6c 81be
00000380: 9abb ad3e 79f3 ddbd 9f4c 0d3e 6893 e5be
00000390: 98e3 623d 8283 103e 5f2c 47be 290f edbb
000003a0: 8356 4ebc c54f 333d 4070 d03d d084 1e3e
000003b0: 0497 bf3d bdfa 763d 0d51 86bd 7790 fdbd
000003c0: bae6 b63d d9bb 0a3e 483b 1e3e c2c1 6c3c
000003d0: e352 3ebc 0c10 083c b28d 46be b71d 40bc
000003e0: 883d 8fbd cf69 6cbd b482 ebbc 4e72 1a3d
000003f0: cde6 d93d dd75 003e 8a4a e2bd 57fe 4a3e

mlp1.2.bias f4 [100]
0.08206553 -0.03894686 -0.06129581 0.0032803665 0.0042518107 0.024863865 -0.04001455 0.004175314
-0.049071312 -0.053708006 0.084547535 0.03807997 -0.070579164 -0.010600318 0.023337953 0.08943787
0.077669434 0.013238742 0.3223617 0.07697893 0.0174021 -0.051603645 0.07170924 -0.12315179
-0.18146831 0.09511685 -0.20184234 -0.09075212 -0.26339272 -0.19763735 -0.031507548 0.14137496
-0.019990997 0.05915272 -0.009415139 0.0141091235 0.049697686 0.039660096 0.06254466 -0.030190457
0.039570596 0.08584907 0.11764651 -0.060292263 0.053498156 -0.092497624 -0.1073491 -0.08990969
0.03549943 0.08872787 -0.05645107 0.038498722 0.07790738 -0.028281923 -0.04837045 0.07416355
-0.0586229 0.022143641 0.052887764 -0.035185274 -0.0019078606 -0.108878344 -0.14881316 -0.11213097
0.114081815 0.014281467 0.09106018 -0.09351847 -0.050663266 0.19053869 0.05189229 0.10791055
-0.1252865 -0.123776875 -0.10734575 -0.026599849 -0.07145999 0.022693632 0.35501757 -0.08219022
0.004844932 0.037635468 0.12197513 0.21595784 -0.028020013 0.19857779 0.03906148 -0.14694488
0.076025546 -0.110329054 -0.0046276767 -0.014925949 0.035248805 0.071288414 -0.03094217 -0.24956313
0.14007998 0.06293379 -0.08708941 0.029823791
00000000: f911 a83d be86 1fbd 5111 7bbd 6bfb 563b
00000010: c652 8b3b 4eaf cb3c 4ce6 23bd 13d1 883b
00000020: 00ff 48bd edfc 5bbd 4227 ad3d bef9 1b3d
00000030: cf8b 90bd f5ac 2dbc 3c2f bf3c 342b b73d
00000040: 2711 9f3d 4fe7 583c 980c a53e 21a7 9d3d
00000050: d98e 8e3c 585e 53bd 4bdc 923d 0137 fcbd
00000060: d4d2 39be a0cc c23d c2af 4ebe 3fdc b9bd
00000070: 69db 86be 7261 4abe 0f0e 01bd 99c4 103e
00000080: 29c4 a3bc 1f4a 723d f541 1abc f429 673c
00000090: cd8f 4b3d a072 223d 6a17 803d fa51 f7bc
000000a0: c714 223d a3d1 af3d a7f0 f03d 05f5 76bd
000000b0: e220 5b3d 656f bdbd d8d9 dbbd 9222 b8bd
000000c0: da67 113d f5b6 b53d 3d39 67bd d6b0 1d3d
000000d0: e88d 9f3d 7eaf e7bc 1820 46bd 0fe3 973d
000000e0: 911e 70bd 9566 b53c d7a0 583d 6f1e 10bd
000000f0: 2e11 faba 9cfb debd 7a62 18be eca4 e5bd
00000100: baa3 e93d d0fc 693c c27d ba3d 9d86 bfbd
00000110: 4984 4fbd 931c 433e 038d 543d 3500 dd3d
00000120: 1b4b 00be bb7e fdbd 17d8 dbbd ede7 d9bc
00000130: 9e59 92bd ffe7 b93c ddc4 b53e 5953 a8bd
00000140: 3cc2 9e3b a627 1a3d 19ce f93d 0d24 5d3e
00000150: 3a8a e5bc fa57 4b3e eefe 1f3d b878 16be
00000160: 48b3 9b3d 33f4 e1bd c4a3 97bb f88b 74bc
00000170: 0d61 103d a9ff 913d 6f7a fdbc 7a8d 7fbe
00000180: 2071 0f3e 6ee3 803d ef5b b2bd 0651 f43c

mlp2.0.weight f4 [100, 100]
-0.09793615 0.10057026 -0.15716118 0.03365886 -0.0531143 0.14539006 -0.20703694 -0.07212763
0.00078443356 -0.01250217 -0.013650396 -0.04178227 0.06494312 -0.0092116855 -0.16719337 -0.0313035
0.2877281 -0.21395282 0.062046394 0.0796642 -0.018186213 0.13325363 -0.17517996 -0.15211217
-0.088072136 -0.048740804 -0.0058287145 0.097966455 -0.1124151 -0.11512465 -0.015511429 0.11115878
0.0081549445 -0.11854797 -0.2649856 -0.07387479 -0.076459 -0.062099792 0.057222035 -0.07866345
-0.005688963 0.05572197 -0.05711895 0.060884897 0.06577755 -0.061632063 0.011739156 0.12972575
0.07894539 -0.0640202 -0.12777759 -0.038973175 0.18480094 -0.063617244 0.057073962 0.028680163
-0.023359349 0.3483276 0.06329157 0.13228284 0.033000797 0.044456765 0.14894187 -0.23121363
0.034101278 -0.046209507 -0.05735066 0.2279392 -0.07278026 -0.16731799 -0.08795166 0.085925825
0.16812484 0.057264794 0.02270113 -0.20168763 -0.007850987 -0.14198802 -0.0958439 0.101785585
0.12238758 -0.3820202 -0.047384374 -0.029393312 -0.054145105 0.081780605 0.09674418 0.0022468118
-0.00042934273 -0.08745207 -0.18237722 0.03933771 0.2209044 0.07514271 -0.12472278 -0.09371391
-0.07566413 0.12259956 0.116164185 -0.058041256 0.05601726 0.2362146 0.025728824 0.22485553
0.076593205 -0.07745396 0.08343215 0.19358912 0.12655011 0.002904939 0.05907954 -0.2256976
0.014570881 -0.08667135 -0.15243205 0.19037801 0.086397685 -0.36139914 -0.04518761 0.018701637
0.008900617 0.012509396 0.04900138 -0.052301772 -0.0067645307 -0.027317364 -0.08775711 0.03032133
0.06488081 -0.008273815 0.28431022 0.16609818 -0.13212487 -0.17591919 0.055668823 0.043655675
0.14906758 0.018685736 0.009780766 0.038548876 -0.05029834 0.13924125 -0.07098901 -0.0590357
-0.15984027 -0.22696124 -0.086790696 -0.28767118 -0.15609236 0.012543111 -0.113277905 0.16782242
0.019623328 -0.017993255 -0.05304378 -0.05424426 0.1460984 -0.014248748 -0.14002222 -0.113714464
0.049935415 -0.15518767 0.34218577 0.102065295 0.1545262 -0.31983042 0.065193705 0.091769576
-0.24200802 0.056709196 -0.059598275 -0.12603374 0.29450715 -0.10855122 -0.055700667 -0.022602268
-0.2729542 0.17007275 0.036694765 -0.011833103 0.061069496 -0.1304246 -0.08046798 0.24368994
0.0054488746 0.027877294 -0.29226142 0.024256809 -0.20805207 -0.081667736 -0.091801465 0.017526528
-0.18176624 0.10112066 -0.011043476 -0.008257109 -0.15183474 -0.24218524 -0.03096661 -0.0015406113
0.13379118 -0.2512233 0.0080062235 -0.06750498 -0.1019932 -0.057082735 0.15947631 0.12596376
-0.058876842 0.1732986 -0.12388177 0.025022218 -0.21084052 0.023482172 -0.020190308 -0.022119919
-0.07726482 -0.088772155 0.004267137 -0.05031158 -0.025407683 0.06632683 -0.015135116 0.016053656
-0.008166766 -0.052559555 -0.05618331 -0.25427935 -0.06256984 0.14507717 -0.19750972 -0.13778852
-0.032292783 -0.11633588 0.08984098 0.16915238 0.06264926 0.52523017 0.08729484 -0.14115146
-0.0067627304 0.2109102 -0.014124245 -0.21206373 -0.024127072 0.13586347 0.29933143 0.06761244
0.103298895 -0.08363185 0.026422543 -0.055862907 0.009204238 -0.11112132 -0.023607487 -0.14818098
00000000: c092 c8bd c8f7 cd3d dcee 20be dfdd 093d
00000010: 618e 59bd 22e1 143e 7e01 54be a7b7 93bd
00000020: 72a2 4d3a e7d5 4cbc e9a5 5fbc e323 2bbd
00000030: e600 853d 9cec 16bc bd34 2bbe 1938 00bd
00000040: 1951 933e 7316 5bbe 5c24 7e3d fc26 a33d
00000050: 41fb 94bc a473 083e 6062 33be 4bc3 1bbe
00000060: 2a5f b4bd 70a4 47bd cdfe bebb a3a2 c83d
00000070: e339 e6bd 79c6 ebbd a623 7ebc 37a7 e33d
00000080: 519c 053c 47c9 f2bd 31ac 87be aa4b 97bd
00000090: 8996 9cbd 5a5c 7ebd a761 6a3d 4e1a a1bd
000000a0: 7b6a babb b83c 643d 8ff5 69bd 7162 793d
000000b0: 61b6 863d e771 7cbd 9755 403c d4d6 043e
000000c0: 1fae a13d 061d 83bd 21d8 02be 56a2 1fbd
000000d0: 753c 3d3e c249 82bd 63c6 693d a9f2 ea3c
000000e0: 1b5c bfbc ff57 b23e 039f 813d 2775 073e
000000f0: d82b 073d 4c18 363d 3884 183e 44c3 6cbe
00000100: c8ad 0b3d 2e46 3dbd 87e8 6abd e568 693e
00000110: d10d 95bd 6855 2bbe 0020 b4bd e1f9 af3d
00000120: eb28 2c3e 7d8e 6a3d b8f7 b93c 3487 4ebe
00000130: 6da1 00bc 4f65 11be cf49 c4bd f674 d03d
00000140: 57a6 fa3d 2798 c3be 1e16 42bd 3eca f0bc
00000150: 42c7 5dbd 977c a73d d021 c63d 3f3f 133b
00000160: 6819 e1b9 121a b3bd 18c1 3abe 9420 213d
00000170: c334 623e 6ce4 993d a86e ffbd 14ed bfbd
00000180: ccf5 9abd 7a15 fb3d 7de7 ed3d abbc 6dbd
00000190: 5b72 653d 3de2 713e 41c5 d23c 8740 663e
000001a0: e6dc 9c3d 2fa0 9ebd 7ade aa3d 3a3c 463e
000001b0: 5a96 013e ca60 3e3b 63fd 713d 461d 67be
000001c0: b4ba 6e3c c080 b1bd 2617 1cbe 74f2 423e
000001d0: 45f1 b03d 4f09 b9be a516 39bd 2d34 993c
000001e0: e5d3 113c 36f4 4c3c acb5 483d 623a 56bd
000001f0: ffa8 ddbb aac8 dfbc 00ba b3bd 7064 f83c
00000200: 3be0 843d e58e 07bc 1c91 913e a415 2a3e
00000210: be4b 07be 2924 34be fe04 643d 4bd0 323d
00000220: 2ca5 183e d412 993c 823f 203c 6de5 1d3d
00000230: a205 4ebd 4295 0e3e b062 91bd 6bcf 71bd
00000240: 2bad 23be 8768 68be 52bf b1bd a349 93be
00000250: add6 1fbe 9f81 4d3c 3ffe e7bd a4d9 2b3e
00000260: 1ac1 a03c 9766 93bc 6f44 59bd 3b2f 5ebd
00000270: d29a 153e 9573 69bc fc61 0fbe 21e3 e8bd
00000280: 1489 4c3d 84e9 1ebe f932 af3e 9c07 d13d
00000290: 1e3c 1e3e d0c0 a3be 4784 853d b0f1 bb3d
000002a0: f3d0 77be e747 683d 521d 74bd fd0e 01be
000002b0: a4c9 963e 1a50 debd 6226 64bd 6428 b9bc
000002c0: a7c0 8bbe 8d27 2e3e 404d 163d a2df 41bc
000002d0: 0224 7a3d 078e 05be 65cc a4bd db89 793e
000002e0: 798c b23b ec5e e43c 4aa3 95be 37b6 c63c
000002f0: 9a0b 55be 6a41 a7bd 6802 bcbd cb93 8f3c
00000300: ee20 3abe 5918 cf3d b2ef 34bc d348 07bc
00000310: 917a 1bbe 68ff 77be b0ad fdbc 56ee c9ba
00000320: 8e00 093e 57a0 80be 892c 033c 0d40 8abd
00000330: d0e1 d0bd 96cf 69bd c24d 233e a5fc 003e
00000340: d828 71bd 3075 313e bab5 fdbd 65fb cc3c
00000350: 94e6 57be af5d c03c 2566 a5bc d534 b5bc
00000360: 053d 9ebd 2dce b5bd 57d3 8b3b 8413 4ebd
00000370: c623 d0bc 5cd6 873d 47f9 77bc f582 833c
00000380: e6cd 05bc b048 57bd 7820 66bd e730 82be
00000390: 9e24 80bd 1c8f 143e fd3f 4abe 6f18 0dbe
000003a0: 7045 04bd 8141 eebd 8cfe b73d 4836 2d3e
000003b0: 414e 803d 7c75 063f a3c7 b23d 028a 10be
000003c0: e599 ddbb d8f8 573e 6169 67bc 3c27 59be
000003d0: 23a6 c5bc cb1f 0b3e f841 993e 6478 8a3d
000003e0: 5f8e d33d 2d47 abbd 1774 d83c 81d0 64bd
000003f0: 5fcd 163c 9393 e3bd 7d64 c1bc c1bc 17be

mlp2.0.bias f4 [100]
0.07430284 -0.12547266 -0.045574356 -0.097483106 -0.19992802 0.02957093 0.03159271 -0.040955365
0.03421608 0.07688385 0.05665528 -0.08433463 -0.023835117 0.04643846 -0.016843695 -0.04213829
-0.049984243 -0.0887293 -0.07279697 -0.023441972 0.08402868 0.008365936 -0.008122554 -0.071935974
0.019956976 0.13469313 0.1708618 -0.0065040034 0.09197221 0.1221854 0.09540734 0.04604094
0.021850165 0.028638626 -0.08544234 0.0118883215 0.011701551 0.121220626 0.1566227 -0.081770524
-0.0012536414 -0.14741607 -0.0559887 -0.009765963 -0.020382542 -0.040411033 -0.12731487 -0.014066025
-0.05791961 -0.0569186 -0.22500442 0.1608105 -0.115048125 -0.0779738 0.047378913 0.15168075
0.08242087 -0.0013263886 0.11021369 -0.026032714 0.08964248 0.04536726 0.15497695 -0.016069815
0.1888148 -0.06326321 -0.06868536 0.15887885 0.20564368 0.18302804 0.15211879 0.031840254
-0.05490529 0.08416672 -0.041865814 -0.14317448 -0.035014346 0.025791626 0.080243975 0.07932923
-0.034000922 0.160527 0.10139565 -0.0023679165 -0.013562949 0.03524954 -0.06488417 -0.044903267
0.008993682 -0.0870675 -0.018636096 0.08738964 0.033063717 -0.039109424 0.0042041065 -0.04240661
0.20921779 0.019536803 -0.06410385 -0.005263987
00000000: 162c 983d e87b 00be 2dac 3abd 39a5 c7bd
00000010: eeb9 4cbe bc3e f23c 5c67 013d d0c0 27bd
00000020: 2926 0c3d 4875 9d3d 5e0f 683d a2b7 acbd
00000030: dd41 c3bc 4136 3e3d cafb 89bc 3399 2cbd
00000040: 47bc 4cbd b5b7 b5bd 9416 95bd 6109 c0bc
00000050: 3b17 ac3d 4711 093c 7614 05bc 2b53 93bd
00000060: d07c a33c ffec 093e 65f6 2e3e 891f d5bb
00000070: ed5b bc3d 573c fa3d ec64 c33d 6d95 3c3d
00000080: 1eff b23c 8d9b ea3c 65fc aebd 3cc7 423c
00000090: ddb7 3f3c 8542 f83d b361 203e 4e77 a7bd
000000a0: 3a51 a4ba 3df4 16be 6854 65bd 6b01 20bc
000000b0: 4af9 a6bc 0a86 25bd d45e 02be 2f75 66bc
000000c0: 1d3d 6dbd 7a23 69bd 8f67 66be 82ab 243e
000000d0: 5a9e ebbd bab0 9fbd 6410 423d 3352 1b3e
000000e0: 46cc a83d 37da adba b7b7 e13d 8f42 d5bc
000000f0: 7a96 b73d 05d3 393d 47b2 1e3e d8a4 83bc
00000100: ab58 413e 2490 81bd e9aa 8cbd 23b1 223e
00000110: 4294 523e b46b 3b3e 07c5 1b3e ed6a 023d
00000120: 5fe4 60bd 9a5f ac3d 7d7b 2bbd 559c 12be
00000130: 346b 0fbd f648 d33c f456 a43d 5d77 a23d
00000140: 8d44 0bbd 3161 243e 86a8 cf3d 0c2f 1bbb
00000150: 2237 5ebc d261 103d fee1 84bd 7dec 37bd
00000160: 3d5a 133c 7250 b2bd baaa 98bc 57f9 b23d
00000170: d26d 073d 3431 20bd 9ac2 893b 8eb2 2dbd
00000180: 303d 563e a50b a03c e148 83bd 867d acbb

mlp2.2.weight f4 [50, 100]
0.06728232 0.20432751 -0.05718572 0.15227486 0.13060343 0.20859636 -0.019320972 0.20557442
0.05515083 -0.35071567 0.04614796 -0.014107568 0.19795829 -0.12692386 0.050298683 -0.195076
-0.14680631 0.0010459438 -0.14234038 0.011131361 -0.14754516 0.2743728 -0.19260086 -0.027801605
-0.07190885 -0.07773041 0.20034933 -0.18942003 -0.20797426 0.17157991 0.31108335 -0.015248839
0.10219331 0.23089881 0.072765686 0.009025665 -0.0054190597 0.27228418 -0.1388113 -0.13167322
-0.34503365 0.040765215 0.10397671 0.085414305 0.13854942 0.18027164 0.092669204 -0.20764577
0.03878952 0.06472881 0.15134062 0.08646454 -0.008179574 0.23791185 -0.08074765 0.122188605
0.0786003 0.03222258 0.08702839 0.117885955 0.28857055 0.07816469 0.050775275 -0.035680607
-0.19602919 -0.1010882 -0.0028500394 -0.2595729 -0.23888269 -0.2275356 0.06309525 -0.085505106
-0.07831939 0.07971768 -0.21308224 -0.14104342 -0.22190465 -0.2532624 0.025873926 0.04779917
-0.09700732 -0.1499131 -0.021327047 -0.2146755 -0.14164911 -0.13396211 0.16151628 -0.16815051
0.091056354 0.1942549 -0.22431992 0.10749201 -0.017683167 -0.14121233 -0.13313796 -0.05322411
0.060680542 0.15743439 -0.23299512 -0.17408925 0.11500819 -0.1146159 0.20421912 -0.08355243
-0.025952173 0.009013072 0.09369902 0.0527993 -0.3589885 0.18503284 -0.004318448 -0.00061219704
0.046563793 -0.04233002 -0.1574825 -0.112029776 -0.13578346 0.12049052 0.11690642 -0.0965664
0.004607632 0.013784934 0.123501725 -0.07705352 0.13894355 -0.15566652 0.14517666 0.15741375
-0.022930084 0.08324624 -0.12283411 -0.188304 0.15721965 0.14541931 -0.12928551 0.0147563545
-0.10208053 0.045583926 0.13471137 0.08717539 0.09778463 -0.08050874 0.21872212 -0.0005416292
-0.058161017 0.13981108 -0.2753509 -0.044424593 0.18329082 -0.035924613 0.17144339 0.05114303
0.20879062 0.06556999 0.11920098 -0.102351576 0.072119445 -0.06172813 0.08063744 -0.15785128
0.036876395 0.051142 0.09422337 0.118259154 -0.1363924 0.037603695 0.1801795 0.19011322
-0.010144591 0.12106923 -0.24028993 0.16126557 -0.0793572 0.10959636 0.24124795 0.07612504
-0.07166224 -0.02038897 -0.09364486 -0.259031 -0.09228127 -0.22082113 -0.06552948 -0.13604672
0.015798913 -0.088065885 -0.12415801 0.13333112 -0.11729687 0.09930912 -0.19810195 -0.19091782
0.032350942 -0.15917523 -0.014818062 -0.19463843 -0.23490313 0.13056482 0.31986633 -0.12708415
-0.16827396 0.23260693 0.035666842 0.14573199 0.2166885 0.01114996 -0.015224499 0.13404204
-0.14876637 0.032913223 -0.12994674 0.033556 0.026663972 0.042647053 -0.087038934 0.13017523
0.10694517 0.20292191 0.024396356 0.07273315 0.10719816 0.253201 -0.05455316 0.23063743
-0.06657494 -0.11273318 0.059546452 -0.007936408 -0.18583299 0.19337402 -0.027090834 -0.053392395
-0.32286316 -0.15428923 -0.14554079 0.109040566 -0.109779365 0.25347763 -0.34240338 -0.183871
0.12384017 0.283567 0.09243812 -0.08936669 0.07184885 -0.22979577 -0.013830644 -0.043057777
0.24553105 0.006556468 0.007339217 -0.26724085 -0.044481985 0.13545772 -0.090429686 -0.01742365
00000000: 50cb 893d 3b3b 513e 933b 6abd f1ed 1b3e
00000010: e8bc 053e 499a 553e 0447 9ebc 1a82 523e
00000020: d6e5 613d 0191 b3be a505 3d3d 6e23 67bc
00000030: 94b5 4a3e 54f8 01be fe05 4e3d 01c2 47be
00000040: 6554 16be 0d18 893a adc1 11be 5060 363c
00000050: 1416 17be 977a 8c3e 2939 45be 31c0 e3bc
00000060: f244 93bd 1f31 9fbd 6028 4d3e 53f7 41be
00000070: 34f7 54be a5b2 2f3e 5146 9f3e 44d6 79bc
00000080: ba4a d13d bd70 6c3e 2d06 953d 62e0 133c
00000090: 5e92 b1bb d568 8b3e 8d24 0ebe 58d5 06be
000000a0: 40a8 b0be 6df9 263d bef1 d43d b2ed ae3d
000000b0: e6df 0d3e 2199 383e 5ac9 bd3d 18a1 54be
000000c0: c2e1 1e3d 8a90 843d 09f9 1a3e 5214 b13d
000000d0: 9f03 06bc 2a9f 733e 065f a5bd 053e fa3d
000000e0: 32f9 a03d d3fb 033d f13b b23d 316e f13d
000000f0: 85bf 933e cf14 a03d bcf9 4f3d d425 12bd
00000100: e0bb 48be 5507 cfbd bac7 3abb bde6 84be
00000110: aa9d 74be 18ff 68be 1538 813d 4d1d afbd
00000120: eb65 a0bd 0643 a33d 3b32 5abe b06d 10be
00000130: f93a 63be 9cab 81be 8ef5 d33c 10c9 433d
00000140: c6ab c6bd d282 19be 0fb6 aebc e5d3 5bbe
00000150: 770c 11be 5d2d 09be 8664 253e a62f 2cbe
00000160: c17b ba3d c2ea 463e 1fb4 65be c524 dc3d
00000170: 4adc 90bc f799 10be 5155 08be 8601 5abd
00000180: 298c 783d 7b36 213e 4696 6ebe 7444 32be
00000190: 6a89 eb3d bebb eabd d11e 513e 891d abbd
000001a0: a799 d4bc 90ab 133c 46e5 bf3d 1444 583d
000001b0: 57cd b7be 4079 3d3e c481 8dbb d97b 20ba
000001c0: adb9 3e3d 3e62 2dbd 1843 21be de6f e5bd
000001d0: d20a 0bbe bcc3 f63d a26c ef3d 9bc4 c5bd
000001e0: 9efb 963b 34da 613c 79ee fc3d 3cce 9dbd
000001f0: 3847 0e3e 0b67 1fbe 31a9 143e 1231 213e
00000200: dfd7 bbbc 017d aa3d 7390 fbbd c4d2 40be
00000210: 30fe 203e cde8 143e 6c63 04be a3c4 713c
00000220: 990f d1bd 36b6 3a3d c7f1 093e 0389 b23d
00000230: 4f43 c83d c4e1 a4bd b1f8 5f3e 1ffc 0dba
00000240: 3f3a 6ebd a32a 0f3e cbfa 8cbe 90f6 35bd
00000250: 97b0 3b3e b025 13bd db8e 2f3e 5b7b 513d
00000260: 35cd 553e 8f49 863d a51f f43d b49d d1bd
00000270: 5cb3 933d a3d6 7cbd 3e25 a53d c4a3 21be
00000280: b40b 173d 467a 513d 2ff8 c03d db31 f23d
00000290: 73aa 0bbe 5506 1a3d fa80 383e 0aad 423e
000002a0: 8035 26bc 25f3 f73d 900e 76be cd22 253e
000002b0: 0786 a2bd 0e74 e03d b409 773e 72e7 9b3d
000002c0: a7c3 92bd c506 a7bc e0c8 bfbd b69f 84be
000002d0: f6fd bcbd ef1e 62be 5234 86bd d54f 0bbe
000002e0: b96c 813c e35b b4bd 8e46 febd f487 083e
000002f0: 5739 f0bd 9462 cb3d 3ddb 4abe f67f 43be
00000300: 6c82 043d d5fe 22be 75c7 72bc 4c4f 47be
00000310: 728a 70be c9b2 053e 85c5 a33e 5922 02be
00000320: 0250 2cbe 8330 6e3e 6517 123d c43a 153e
00000330: 97e3 5d3e 52ae 363c 2d70 79bc 5142 093e
00000340: 3656 18be 04d0 063d c210 05be 0472 093d
00000350: 676e da3c adae 2e3d 7841 b2bd a84c 053e
00000360: 1206 db3d c3ca 4f3e deda c73c 1ef5 943d
00000370: b58a db3d 90a3 813e 2273 5fbd 382c 6c3e
00000380: 7158 88bd a7e0 e6bd fbe6 733d b507 02bc
00000390: 014b 3ebe d703 463e 99ed ddbc fcb1 5abd
000003a0: 524e a5be fffd 1dbe a508 15be a950 df3d
000003b0: 01d4 e0bd d2c7 813e 7f4f afbe ae48 3cbe
000003c0: ea9f fd3d b22f 913e 3250 bd3d e205 b7bd
000003d0: 7d25 933d 954f 6bbe ed99 62bc 5a5d 30bd
000003e0: 7e6c 7b3e a4d7 d63b d07d f03b cbd3 88be
000003f0: be32 36bd 6eb5 0a3e 3333 b9bd 0bbc 8ebc

mlp2.2.bias f4 [50]
0.18930061 -0.22194278 -0.103449136 0.074896134 -0.13659497 0.0018127842 -0.231596 -0.29599872
-0.2277559 0.06120505 0.14937338 -0.10623069 0.095455565 -0.014641097 -0.019456951 -0.049043212
0.058929387 -0.105118304 -0.015400032 -0.1754774 -0.057696562 -0.21214464 0.042252365 -0.059211712
-0.041746154 0.14789265 0.06455619 0.10201894 0.0071966927 0.07487183 0.07213192 0.15388857
-0.121154495 0.084574245 -0.27937916 -0.030133598 -0.017642682 0.11149279 0.04158789 -0.067149654
-0.034813125 0.015803533 -0.10301794 0.021592017 0.14779633 0.12660143 0.081169695 -0.068644896
-0.27267468 -0.118606456
00000000: 05d8 413e f844 63be 24dd d3bd 2563 993d
00000010: 8ddf 0bbe f29a ed3a 8027 6dbe 258d 97be
00000020: d838 69be 26b2 7a3d 56f5 183e 7a8f d9bd
00000030: 357e c33d 36e1 6fbc 2f64 9fbc 89e1 48bd
00000040: f15f 713d 4448 d7bd 6a50 7cbc 59b0 33be
00000050: 3b53 6cbd 723c 59be d110 2d3d fb87 72bd
00000060: 04fe 2abd 2c71 173e 0936 843d 4eef d03d
00000070: 3cd2 eb3b 6756 993d e6b9 933d f794 1d3e
00000080: d91f f8bd 4335 ad3d c90a 8fbe bcda f6bc
00000090: 6387 90bc 5556 e43d 1058 2a3d c285 89bd
000000a0: 3598 0ebd 6976 813c 12fb d2bd bee1 b03c
000000b0: ec57 173e cea3 013e 4c3c a63d b295 8cbd
000000c0: 049c 8bbe f1e7 f2bd

attention.0.weight f4 [100, 100]
-0.024097955 0.06521945 -0.20502919 -0.02119021 0.27703416 0.22580251 -0.023310816 0.112475775
-0.2003474 0.17919414 0.19656144 -0.1502001 -0.20064135 0.17191288 -0.13501644 -0.0902358
-0.03537778 -0.042704176 0.2587963 0.14081182 0.017272454 -0.08949611 0.1984383 0.15824768
-0.17706454 0.04209665 -0.078256324 0.046187423 -0.1828415 -0.23886971 -0.025592687 -0.018700669
-0.000692286 0.039581332 -0.048079085 -0.040841807 -0.15096602 0.21310252 -0.1218946 -0.19298118
-0.02835487 -0.14074047 0.11174094 -0.15357578 0.0331758 0.0052633607 -0.116767615 -0.05178908
-0.0008778198 -0.019259889 0.00063217554 0.12024495 0.20459683 -0.038296852 0.029381935 0.070573404
0.025086066 0.04344146 0.09432354 0.087737836 -0.09301294 -0.12393898 -0.107897826 0.07458513
0.27915677 -0.18477863 0.19402789 0.11061828 -0.20495903 -0.37196556 -0.0958549 -0.072983846
0.038990628 -0.3788575 -0.09959662 0.05943955 0.11473213 -0.043114424 0.38753 -0.15743493
0.12692785 0.10711578 0.043709267 0.0756749 0.1506151 0.25526416 -0.021758378 -0.071042955
-0.048428986 -0.13521266 -0.07777722 0.11793371 0.11594069 0.07449248 0.00379361 -0.17202759
0.051780444 -0.5169935 0.051462032 -0.026351478 -0.1033224 -0.012216354 0.1524806 -0.012388866
-0.14650445 -0.05132892 -0.14143775 -0.23493497 0.09261483 -0.037915844 -0.024530007 0.036142983
0.0677279 0.14309117 0.12617275 0.06789551 -0.1828336 -0.01517585 -0.11841938 0.012033216
0.07735728 0.008304611 -0.030290896 0.21076007 0.08926806 -0.13114189 -0.1149893 0.12859467
-0.09502845 0.08409165 0.13799451 -0.042169612 0.107820034 -0.028913967 -0.11347026 0.23272449
0.0915623 0.32979676 0.23259038 0.15879206 -0.014396555 -0.22274132 0.08156542 0.1678924
-0.007547643 -0.019871617 -0.10377399 -0.11328143 0.10452603 0.10074022 -0.0759556 -0.12831411
-0.027562547 0.12643883 -0.054142945 -0.1472716 -0.06525877 -0.07435135 0.015656054 -0.011454064
0.09646375 0.063437246 0.18182607 -0.07216984 -0.003671951 -0.13696435 -0.021929204 0.0023056376
0.028075203 -0.01366048 0.19684821 -0.115800865 -0.054108493 -0.08541534 0.089146376 0.038888007
0.039656892 0.17784601 -0.033503313 0.08674932 0.08890565 0.030072747 -0.18033765 -0.13231379
0.0041951956 0.20420402 -0.067352116 -0.17213841 0.113728486 0.10797955 0.117490016 0.008545726
-0.044940043 -0.15091953 -0.1792358 -0.091373645 0.12537125 -0.09438209 0.15364619 0.003243726
0.007923647 0.18692389 0.074818715 -0.110316865 0.005834648 -0.14229651 -0.043553084 0.0020320814
0.035624173 -0.04532572 -0.073354304 -0.019644497 0.023030933 -0.04245105 -0.09085257 -0.07709259
0.08115652 -0.04841928 -0.018744033 0.025936631 -0.068443365 -0.16265836 -0.05980583 0.0906938
-0.1953 -0.05982858 0.035497356 0.054417882 -0.066118576 0.07360898 0.054340143 0.049072497
0.059520315 0.112208776 0.024327748 -0.081698135 0.07177898 -0.12698564 -0.12892328 0.02786682
0.046189867 0.14283843 -0.13116221 0.11983675 -0.18115467 0.024751686 -0.053033303 0.14786771
-0.104755394 0.083588816 -0.12554276 -0.10800561 0.10407164 0.04360387 -0.044496607 0.15884814
00000000: 1369 c5bc c691 853d 2cf3 51be 1797 adbc
00000010: 6cd7 8d3e c638 673e 53f6 bebc b359 e63d
00000020: de27 4dbe ab7e 373e 6747 493e 0ece 19be
00000030: ed74 4dbe ee09 303e c041 0abe 8ccd b8bd
00000040: 4be8 10bd 93ea 2ebd f380 843e f930 103e
00000050: f67e 8d3c bd49 b7bd 6933 4b3e ae0b 223e
00000060: 6850 35be 896d 2c3d da44 a0bd 062f 3d3d
00000070: cd3a 3bbe 439a 74be c1a7 d1bc 2532 99bc
00000080: 877a 35ba 0920 223d 93ee 44bd bd49 27bd
00000090: d696 1abe 8c37 5a3e e0a3 f9bd dc9c 45be
000000a0: 7948 e8bc 451e 10be 6fd8 e43d f842 1dbe
000000b0: 59e3 073d 4578 ac3b dc23 efbd c920 54bd
000000c0: 7d1d 66ba eac6 9dbc 95b8 253a fc42 f63d
000000d0: d581 513e 29dd 1cbd 62b2 f03c ca88 903d
000000e0: 4b81 cd3c acef 313d b32c c13d e5af b33d
000000f0: 917d bebd b8d3 fdbd 89f9 dcbd 17c0 983d
00000100: a3ed 8e3e 9c36 3dbe 3faf 463e d68b e23d
00000110: c8e0 51be 4572 bebe 934f c4bd 8e78 95bd
00000120: a3b4 1f3d 9cf9 c1be 50f9 cbbd e376 733d
00000130: aef8 ea3d c098 30bd 556a c63e 9f36 21be
00000140: 60f9 013e 855f db3d 7d08 333d 71fb 9a3d
00000150: d83a 1a3e fcb1 823e a03e b2bc f87e 91bd
00000160: 795d 46bd 3075 0abe aa49 9fbd 3b87 f13d
00000170: 5072 ed3d 838f 983d 379e 783b 0028 30be
00000180: bb17 543d b059 04bf dac9 523d 0edf d7bc
00000190: b29a d3bd 1a27 48bc e023 1c3e acfa 4abc
000001a0: 4305 16be 463e 52bd 0fd5 10be cb92 70be
000001b0: d8ac bd3d a54d 1bbd 27f3 c8bc aa0a 143d
000001c0: edb4 8a3d 7e86 123e 6e33 013e cd0c 8b3d
000001d0: bb38 3bbe 21a4 78bc dc85 f2bd f726 453c
000001e0: 7e6d 9e3d 1010 083c 9d24 f8bc 7dd1 573e
000001f0: 2cd2 b63d 0f4a 06be 837f ebbd 52ae 033e
00000200: 479e c2bd 3e38 ac3d 6f4e 0d3e 0bba 2cbd
00000210: c0d0 dc3d fcdc ecbc 1863 e8bd 544f 6e3e
00000220: 0485 bb3d 1fdb a83e 2c2c 6e3e 639a 223e
00000230: 87df 6bbc 4d16 64be c50b a73d fceb 2b3e
00000240: 3852 f7bb cdc9 a2bc 7587 d4bd 1800 e8bd
00000250: be11 d63d e350 ce3d 9c8e 9bbd c664 03be
00000260: daca e1bc 2e79 013e fec4 5dbd 5ece 16be
00000270: 64a6 85bd 8545 98bd 2041 803c d4a9 3bbc
00000280: c98e c53d 63eb 813d 9d30 3a3e c8cd 93bd
00000290: 1da5 70bb 6240 0cbe e0a4 b3bc 2e1a 173b
000002a0: f8fd e53c 35d0 5fbc 9492 493e 0129 edbd
000002b0: dea0 5dbd 3dee aebd 6092 b63d 0849 1f3d
000002c0: 446f 223d 441d 363e c53a 09bd a1a9 b13d
000002d0: 2a14 b63d 1f5b f63c 6faa 38be 447d 07be
000002e0: da77 893b dc1a 513e e8ef 89bd 0d45 30be
000002f0: 7bea e83d 6224 dd3d 9b9e f03d 5f03 0c3c
00000300: 0d13 38bd a68a 1abe 9789 37be 1b22 bbbd
00000310: 5261 003e 664b c1bd 6d55 1d3e b194 543b
00000320: 2fd2 013c fa68 3f3e 8e3a 993d cfed e1bd
00000330: 9330 bf3b 2db6 11be b864 32bd ab2c 053b
00000340: a7ea 113d 76a7 39bd c83a 96bd 7fed a0bc
00000350: 5eab bc3c 27e1 2dbd ea10 babd b8e2 9dbd
00000360: 6435 a63d 4c53 46bd 168d 99bc 0f79 d43c
00000370: 092c 8cbd ea8f 26be f5f6 74bd acbd b93d
00000380: b9fc 47be d00e 75bd ad65 113d 49e5 5e3d
00000390: 2d69 87bd 4ec0 963d c593 5e3d 3e00 493d
000003a0: 93cb 733d b7cd e53d fc4a c73c 5a51 a7bd
000003b0: dc00 933d 8608 02be 7704 04be f548 e43c
000003c0: 9631 3d3d 3d44 123e 634f 06be f86c f53d
000003d0: 9c80 39be 0cc4 ca3c 7339 59bd a26a 173e
000003e0: ff89 d6bd 9d30 ab3d 488e 00be 0c32 ddbd
000003f0: 8323 d53d f999 323d 1342 36bd 16a9 223e

attention.0.bias f4 [100]
0.102322 0.008871955 -0.031947445 -0.11896481 0.10165353 0.20208712 0.021949401 0.0476026
0.015637161 -0.008774406 0.055452798 -0.08140463 0.04975905 0.026890852 -0.21509619 0.057034787
0.1872037 -0.015348053 -0.092128746 -0.006761274 0.003983669 -0.02477877 0.03359028 -0.10925185
-0.03873629 0.057719532 -0.06929781 0.06130459 -0.16072702 0.08468586 -0.03239614 0.09774382
-0.02886115 0.0655693 -0.042103536 0.06236198 0.06967476 -0.02557989 -0.07002463 -0.014203877
-0.08633214 0.0068114814 0.037013415 0.0052473205 -0.111216 -0.10034642 -0.015562335 -0.1158421
0.05851708 0.013418238 0.015388804 -0.10912641 -0.028166795 0.17682956 -0.111509 0.039678928
-0.0017849911 0.06267921 -0.11507863 -0.056783427 -0.081149876 -0.00090374704 -0.10578168 0.006091755
-0.0037390548 0.13835698 -0.04405228 0.06774106 -0.00661676 -0.067693695 0.06632184 0.121272616
-0.07483619 -0.007055262 0.15506387 0.10526835 0.06806554 0.04395549 -0.056553297 0.063568644
0.11955369 0.041847087 0.12437228 -0.031868063 0.08372928 -0.10900887 0.09422008 -0.028781218
0.09864955 -0.18623364 -0.10548435 -0.041595552 0.07661204 0.014950791 -0.043157704 0.06828772
0.07064315 -0.14803734 0.12631552 0.0064465157
00000000: 328e d13d ad5b 113c 53db 02bd d3a3 f3bd
00000010: ba2f d03d edef 4e3e 3bcf b33c f2fa 423d
00000020: 8119 803c 87c2 0fbc 7922 633d 78b7 a6bd
00000030: 25d0 4b3d 344a dc3c 2d42 5cbe 4f9d 693d
00000040: 54b2 3f3e 6676 7bbc ffad bcbd ad8d ddbb
00000050: 7089 823b d9fc cabc f695 093d 6fbf dfbd
00000060: f2a9 1ebd 516b 6c3d 03ec 8dbd 861a 7b3d
00000070: a095 24be c86f ad3d d1b1 04bd e92d c83d
00000080: 386e ecbc 3249 863d c274 2cbd 476f 7f3d
00000090: a4b1 8e3d eb8c d1bc 1369 8fbd 61b7 68bc
000000a0: e8ce b0bd d932 df3b 619b 173d b7f1 ab3b
000000b0: 37c5 e3bd 6d82 cdbd 2af9 7ebc 9f3e edbd
000000c0: 9baf 6f3d 2bd8 5b3c 5221 7c3c ab7d dfbd
000000d0: 0dbe e6bc cf12 353e d55e e4bd 5f86 223d
000000e0: 5df6 e9ba f55d 803d 58ae ebbd bd95 68bd
000000f0: e831 a6bd 70e9 6cba 11a4 d8bd 589d c73b
00000100: ee0a 75bb 74ad 0d3e 2a70 34bd d3bb 8a3d
00000110: 68d1 d8bb fea2 8abd bfd3 873d c75d f83d
00000120: b743 99bd d42f e7bb 10c9 1e3e ef96 d73d
00000130: f265 8b3d ac0a 343d 6ea4 67bd 4730 823d
00000140: 91d8 f43d da67 2b3d e5b6 fe3d 1688 02bd
00000150: 427a ab3d 0b40 dfbd 75f6 c03d 97c6 ebbc
00000160: c608 ca3d 08b4 3ebe 2e08 d8bd 1960 2abd
00000170: c6e6 9c3d 2af4 743c 22c6 30bd 6fda 8b3d
00000180: 5bad 903d 1a97 17be db58 013e 4b3d d33b

attention.2.weight f4 [100, 100]
0.06045225 0.011231405 -0.07622481 0.12802318 0.11896696 -0.008090612 0.014017584 -0.29856154
-0.040629376 -0.030596359 -0.037510127 -0.033288106 0.14292994 -0.003518965 -0.0010712775 0.15757754
-0.04622797 -0.08167231 -0.031561233 -0.037139002 0.07990917 0.14183353 0.06766018 0.101851866
0.05837501 -0.14966162 -0.13572855 -0.062981464 0.104692526 0.050679218 -0.1304842 -0.03561973
-0.001994041 -0.17791677 0.08743043 0.03924982 0.047020655 0.012810505 -0.04372902 -0.021047067
-0.00812132 -0.13061088 0.0066614435 0.11929526 -0.04989313 -0.20587385 0.051736746 0.054377954
0.062383465 -0.060485683 0.15685238 -0.008364256 -0.059537128 0.028826093 0.07779351 0.05855467
0.13318229 0.0037723111 0.07864974 0.018601578 -0.06448734 -0.19350377 -0.07258436 -0.045058757
-0.14154992 0.13045716 0.10357561 0.0032880756 -0.10071987 0.007478093 -0.086105816 0.12090405
-0.0900577 0.007486556 0.035996675 0.12839125 -0.09709614 -0.039547693 -0.027470004 0.044604648
-0.19456358 0.14950988 -0.07116789 0.024503993 0.011009011 -0.010579826 -0.08927863 -0.08174167
-0.13594893 0.10160635 -0.02686811 -0.016027996 0.07362319 0.057492938 0.07512202 0.020263651
0.02631215 0.029494623 0.020426799 0.005738534 -0.043152075 0.080897324 0.039780978 -0.095096864
0.006430091 -0.099474564 0.08527212 0.052981034 -0.10751406 0.0057277703 -0.054430418 -0.09875505
0.01860159 -0.106618725 -4.0163708e-05 0.097807124 -0.114227 -0.12338461 -0.10340879 0.009654424
-0.016763639 -0.1457523 -0.0726463 -0.15033261 -0.0007157251 -0.08226987 0.09739682 -0.122222096
0.030185161 -0.05502312 0.058213923 -0.013499717 0.000766252 0.10087865 -0.04450825 -0.068484284
-0.026822228 -0.027114267 -0.105627194 -0.12805678 0.02729528 -0.056494597 0.038371436 -0.025486168
-0.13699593 -0.04778591 -0.040976122 -0.024148302 0.12582685 0.04907165 -0.054934062 0.12416857
-0.13113979 0.10423834 0.032758784 0.0024399036 -0.05854107 0.028955106 -0.033475943 0.04075713
0.11489679 0.030398797 -0.032682627 0.06393544 -0.02121179 0.13789906 0.025119275 -0.08619983
-0.08438519 -0.15260191 -0.06118479 -0.0029707202 -0.041496348 -0.10337446 0.0056877504 -0.009275559
-0.08421126 0.01262506 0.040781762 -0.012996004 -0.07454888 0.1138011 -0.004071752 -0.049758993
-0.018150875 0.08617985 0.027398076 -0.05960708 -0.1291844 0.07510776 -0.022245202 0.06607802
0.0063414453 0.052144483 -0.0963059 -0.09780732 0.015377655 0.043387752 0.0740503 -0.020527234
-0.07911674 0.17006639 0.057771903 0.05634167 -0.109626874 0.1988033 -0.15724847 0.15210116
-0.121365264 -0.043721344 0.022897182 -0.045908686 0.026046947 0.13993205 0.057846144 -0.13208923
-0.025800714 0.009524155 -0.1338581 -0.22681323 -0.20227158 0.081542045 0.10141493 0.109970465
0.10279251 0.18627591 -0.12675853 -0.03649772 0.024757233 -0.02423083 0.15357743 0.0088231675
0.04010092 0.021898512 0.04961387 0.08223679 0.053430397 -0.056571014 -0.0076289866 0.058742188
0.0569577 -0.20368819 -0.17565209 -0.27514264 -0.17941362 0.0036176878 0.041233566 0.13388897
-0.18891998 0.027189003 0.0948129 -0.00081998814 0.13430306 -0.07231483 0.075195305 -0.42169964
00000000: c79c 773d ed03 383c c11b 9cbd 8218 033e
00000010: f3a4 f33d 7c8e 04bc 02aa 653c 0fdd 98be
00000020: fd6a 26bd 37a5 fabc 38a4 19bd 1c59 08bd
00000030: 3a5c 123e 709e 66bb 1c6a 8cba 025c 213e
00000040: 8a59 3dbd d043 a7bd 5a46 01bd 111f 18bd
00000050: 6ba7 a33d cf3c 113e 6c91 8a3d b697 d03d
00000060: a21a 6f3d e540 19be 6dfc 0abe 6dfc 80bd
00000070: 0969 d63d 0395 4f3d a69d 05be fee5 11bd
00000080: 75ae 02bb d02f 36be ba0e b33d 6bc4 203d
00000090: bb98 403d 27e3 513c 331d 33bd e66a acbc
000000a0: 490f 05bc dcbe 05be 3d48 da3b 1351 f43d
000000b0: bd5c 4cbd 98d0 52be e9e9 533d 6bbb 5e3d
000000c0: ce85 7f3d d6bf 77bd e99d 203e 3b0a 09bc
000000d0: 34dd 73bd b324 ec3c 3452 9f3d 06d7 6f3d
000000e0: f060 083e e138 773b 1d13 a13d 5662 983c
000000f0: f011 84bd da25 46be 1ca7 94bd 888f 38bd
00000100: 76f2 10be 9096 053e 731f d43d c17c 573b
00000110: 3846 cebd ca0a f53b 3f58 b0bd 8b9c f73d
00000120: 2c70 b8bd c951 f53b 4071 133d ff78 033e
00000130: 57da c6bd c3fc 21bd c608 e1bc 5db3 363d
00000140: ad3b 47be 1e19 193e 79c0 91bd 99bc c83c
00000150: 245f 343c 0257 2dbc b7d7 b6bd 2d68 a7bd
00000160: 3236 0bbe fd16 d03d 831a dcbc 254d 83bc
00000170: c1c7 963d b77d 6b3d 93d9 993d f5ff a53c
00000180: 948c d73c b59e f13c 1a56 a73c 500a bc3b
00000190: 3bc0 30bd 7fad a53d 61f1 223d 25c2 c2bd
000001a0: 83b3 d23b 52b9 cbbd 26a3 ae3d a402 593d
000001b0: 5530 dcbd 05b0 bb3b 6ef2 5ebd 1640 cabd
000001c0: 5d62 983c eb5a dabd 7475 28b8 1a4f c83d
000001d0: d8ef e9bd 12b1 fcbd fdc7 d3bd 972d 1e3c
000001e0: e653 89bc 1740 15be 95c7 94bd cbf0 19be
000001f0: 809f 3bba 1b7d a8bd fc77 c73d 944f fabd
00000200: df46 f73c ec5f 61bd b971 6e3d eb2d 5dbc
00000210: 4dde 483a 7799 ce3d 484e 36bd 7d41 8cbd
00000220: 4aba dbbc bd1e debc 1253 d8bd 5121 03be
00000230: 5a9a df3c e166 67bd 5e2b 1d3d 5ec8 d0bc
00000240: a948 0cbe 29bb 43bd 94d6 27bd a9d2 c5bc
00000250: c1d8 003e 5bff 483d 8a02 61bd 174c fe3d
00000260: 8249 06be e97a d53d 132e 063d cae6 1f3b
00000270: c3c8 6fbd 4233 ed3c 121e 09bd f3f0 263d
00000280: 024f eb3d e606 f93c 38de 05bd 95f0 823d
00000290: 59c4 adbc 6935 0d3e f0c6 cd3c 8989 b0bd
000002a0: 24d2 acbd ad43 1cbe e79c 7abd 6ab0 42bb
000002b0: 13f8 29bd fdb5 d3bd 4f60 ba3b 84f8 17bc
000002c0: f476 acbd 57d9 4e3c c70a 273d 31ed 54bc
000002d0: 15ad 98bd 8d10 e93d 556c 85bb 16d0 4bbd
000002e0: 25b1 94bc 107f b03d ee71 e03c 8e26 74bd
000002f0: ea48 04be 19d2 993d 923b b6bc ea53 873d
00000300: e6cb cf3b 7495 553d 073c c5bd 344f c8bd
00000310: 8ff2 7b3c 5bb7 313d afa7 973d bb28 a8bc
00000320: f507 a2bd e225 2e3e 3ba2 6c3d 86c6 663d
00000330: 0e84 e0bd 1893 4b3e be05 21be 68c0 1b3e
00000340: 5a8e f8bd 2715 33bd df92 bb3c bf0a 3cbd
00000350: 6860 d53c 594a 0f3e 14f0 6c3d 6642 07be
00000360: 055c d3bc 340b 1c3c 1912 09be ba41 68be
00000370: 4820 4fbe 84ff a63d a1b2 cf3d 3238 e13d
00000380: e184 d23d 1dbf 3e3e fdcc 01be a27e 15bd
00000390: aecf ca3c bc7f c6bc 6743 1d3e 0c8f 103c
000003a0: dd40 243d 8264 b33c ea37 4b3d c36b a83d
000003b0: d5d9 5a3d 02b7 67bd 94fc f9bb a69b 703d
000003c0: 7a4c 693d a393 50be 24de 33be 7fdf 8cbe
000003d0: 34b8 37be bb16 6d3b 87e4 283d 311a 093e
000003e0: 3d74 41be 79bb de3c 442d c23d 79f4 56ba
000003f0: be86 093e cc19 94bd ffff 993d 04e9 d7be
