sarl_star_ros/CrowdNav/crowd_nav/data/output_4/il_model.pth (torch_old, 349196 bytes, 20 tensors)

mlp1.0.weight f4 [150, 13]
0	0x3fbeccb9	1.4906226
1	0xbfe3ef51	-1.7807409
2	0xbe48158c	-0.1953947
3	0xbe1448d7	-0.14480911
4	0xc029370e	-2.6439853
5	0x3f91a80b	1.1379408
6	0x40437dcc	3.054553
7	0xbf4b0d5d	-0.79317266
8	0x40349e14	2.8221483
9	0xc1037f45	-8.218572
10	0xbfb47207	-1.4097298
11	0xc01e1475	-2.4699986
12	0xbfe9a0b2	-1.8252165
13	0xbdd60b1f	-0.1045134
14	0xbf868700	-1.0509949
15	0x3f39b63f	0.7254371
16	0xbee94a9b	-0.45564732
17	0xbdf0b2b2	-0.117528334
18	0xbfc054d0	-1.5025883
19	0x3d9aee38	0.07564968
20	0xbe66e115	-0.225468
21	0x3f90cf67	1.1313294
22	0x400d4dab	2.2078655
23	0x3fd07b87	1.6287698
24	0x3da9f203	0.08298113
25	0x3fa29673	1.2702163
26	0xbfa30c9e	-1.2738225
27	0x3e1f7730	0.1557281
28	0xbf57d57c	-0.84310126
29	0x3e272907	0.16324244
30	0x3f14c282	0.58109295
31	0x3eb6b7ca	0.35687095
32	0xbf111724	-0.56675935
33	0xbf086b42	-0.5328866
34	0x3ebd7d02	0.37009436
35	0x3ed99381	0.4249535
36	0x3efd206f	0.49438807
37	0x3de3d4ea	0.111245945
38	0x3e7f7b15	0.24949296
39	0xbf14a142	-0.5805856
40	0xbe1e9f92	-0.15490559
41	0x3e803ed6	0.2504794
42	0x3e11e838	0.1424874
43	0xbedd3351	-0.43203214
44	0xbe8bc15f	-0.27295968
45	0xbf4d1250	-0.8010607
46	0x3bc1395b	0.00589673
47	0x3e203691	0.15645815
48	0xbe245c43	-0.1605082
49	0x3e853347	0.26015684
50	0x3e40a468	0.18812716
51	0xbe84179e	-0.25799268
52	0x3f73f8ac	0.9530132
53	0xbfb0987c	-1.3796535
54	0xbef474c2	-0.4774533
55	0xbf1f4552	-0.6221515
56	0xbffcf361	-1.9761773
57	0x3ff6da10	1.9285297
58	0x3dec1279	0.11526961
59	0x3df2c00d	0.11853037
60	0x4082f800	4.0927734
61	0xc086f959	-4.217938
62	0xc005a864	-2.0884027
63	0x3f08a80a	0.5338141
64	0xc01be54d	-2.4358704
65	0xbe622eac	-0.22088116
66	0xbda8978f	-0.082320325
67	0xbe0df0fb	-0.13861458
68	0x3c4de3f9	0.01256656
69	0x3d7d854f	0.06189471
70	0x3e8a79a2	0.27045923
71	0xbdded9f5	-0.10881416
72	0x3e3e071b	0.18557398
73	0xbe66cef0	-0.22539878
74	0xbe08c312	-0.13355663
75	0xbe7f7acc	-0.24949187
76	0xbe309a7b	-0.1724643
77	0xbd9316c7	-0.07182079
78	0x3e685892	0.22690037
79	0x3e9216ca	0.28533012
80	0xbead5f7f	-0.3386192
81	0xbc7b9308	-0.015354879
82	0xc0a73fa4	-5.2265186
83	0x40043fec	2.0664015
84	0x3fbc1d68	1.4696474
85	0xbe4bcc2d	-0.19902106
86	0x41178cfc	9.47192
87	0xbf4cebe3	-0.80047435
88	0x3f3e3df5	0.7431329
89	0xbd2604a7	-0.04053178
90	0x3f6e7a30	0.93155193
91	0xbf3bca7b	-0.73355836
92	0xbf0770f1	-0.5290671
93	0xbf7be6f3	-0.98399276
94	0xbe42c220	-0.19019365
95	0x3f3107b6	0.6915239
96	0x3f309451	0.6897631
97	0xbf17fa35	-0.5936616
98	0xbfb16330	-1.3858395
99	0x3fc38f19	1.5278045
100	0x3f5fce58	0.8742423
101	0x3d656b3e	0.056010477
102	0xbeefbf84	-0.46825802
103	0x3e121962	0.14267495
104	0xbf1702e8	-0.5898881
105	0xbf089ba6	-0.533625
106	0xbee8d8b7	-0.4547784
107	0xbe8274f5	-0.25479856
108	0xbfa8750b	-1.3160719
109	0x3fa787df	1.308834
110	0x3f9324aa	1.1495564
111	0xbe94af49	-0.29039982
112	0xbe0a31e9	-0.13495602
113	0xc0177a7d	-2.366851
114	0x3f45e07f	0.7729568
115	0xbf25f437	-0.6482577
116	0x3f6070b1	0.87671953
117	0x3f27d269	0.65555435
118	0xbef5ca9f	-0.4800615
119	0x3f2937fb	0.66101044
120	0xbcf9dcd1	-0.030500801
121	0xc0459235	-3.0870488
122	0x3d673232	0.056444354
123	0xbd63d61c	-0.055624112
124	0x3f27d504	0.6555941
125	0x402110a9	2.5166419
126	0x3f457ffb	0.7714841
127	0xbe18f933	-0.14938812
128	0xbe9dfdf6	-0.3085782
129	0xbf0cbbcc	-0.54974055
130	0x3e41949e	0.18904349
131	0x3fd2d483	1.6471103
132	0xbf8fa97f	-1.1223601
133	0x3ea4d514	0.32193816
134	0x409dced9	4.9315
135	0xc0a174af	-5.0454936
136	0xbfc19c55	-1.5125834
137	0x3fa285e9	1.2697116
138	0xc09cb86b	-4.897512
139	0x405f45ce	3.4886355
140	0xc0a146c3	-5.039888
141	0x3ba748c0	0.005105108
142	0xc08dc0b0	-4.4297714
143	0x3c8ecfcc	0.01743307
144	0x3ed06baf	0.40707156
145	0xbd49b900	-0.049248695
146	0x3e4add8f	0.1981108
147	0xbe513659	-0.20430888
148	0xbe3cf6a0	-0.18453455
149	0xbee56ca8	-0.4480946
150	0x3aff2164	0.0019464907
151	0x3f0120fd	0.5044096
152	0x3f572d72	0.8405372
153	0x3f1182f3	0.5684044
154	0xbf6505d4	-0.8946202
155	0x3e2262ca	0.15857998
156	0x3ec65c37	0.3874223
157	0x3f0f6e4b	0.5602767
158	0xbf974efe	-1.1820982
159	0x3de3b33f	0.11118173
160	0x3f9f344c	1.2437835
161	0x407a5fdc	3.9121008
162	0x3e41f618	0.18941534
163	0xbfb12bbc	-1.3841472
164	0xc040edfa	-3.014525
165	0x3f1cc35c	0.61235595
166	0xbfa81d2c	-1.3133903
167	0xbfb82302	-1.4385684
168	0xbfa01448	-1.2506189
169	0xbe5dfdb5	-0.21678813
170	0xbe697f9a	-0.22802582
171	0xbe248164	-0.16064984
172	0xbe72c5f4	-0.23708326
173	0x3fcdb9a3	1.6072277
174	0x401d1d10	2.4548988
175	0xbf2ff112	-0.6872722
176	0x402678c1	2.6011202
177	0xc011a435	-2.2756474
178	0xbfcfe546	-1.6241844
179	0x3fcc8101	1.5976869
180	0xbfe42b2e	-1.7825677
181	0x3fb15659	1.3854476
182	0xbe89bd7b	-0.26902375
183	0xbe5809a9	-0.21097435
184	0x3d9f9467	0.077919774
185	0xbe4d604c	-0.20056266
186	0x3e5f7003	0.21820073
187	0xbda3f8ef	-0.08006465
188	0x3e552404	0.2081452
189	0x3e8b8b51	0.27254727
190	0xbe2e34cb	-0.17012326
191	0x3dbf771d	0.09348891
192	0xbe51329a	-0.20429459
193	0xbe3160f1	-0.17322136
194	0xbe3dcff7	-0.18536364
195	0x3f092bf1	0.53582674
196	0xbfafc219	-1.3731109
197	0xc09976c6	-4.7957487
198	0xbf15c8e5	-0.58509666
199	0xc091245a	-4.5356874
200	0xc081369e	-4.037917
201	0xbcabd78d	-0.020976806
202	0xbe7df191	-0.24799182
203	0x409690c6	4.7051725
204	0x3f99b32d	1.2007805
205	0xbef43d2c	-0.4770292
206	0x3f84b35d	1.0367237
207	0xbf8026d9	-1.0011855
208	0xbf02b091	-0.5105067
209	0xbfc27628	-1.5192308
210	0xbf17dc7e	-0.5932082
211	0xbed73e7a	-0.42039853
212	0xbfe2a97b	-1.7707971
213	0x3fdc8e63	1.7230953
214	0x3e943f23	0.2895442
215	0x3ed9da84	0.42549527
216	0x4092876c	4.579031
217	0x40646efe	3.5692744
218	0x4006029a	2.0939088
219	0x3f657247	0.896275
220	0x3fb0e5a2	1.3820078
221	0x3f105e5b	0.56393975
222	0x3f2f5c9b	0.6850068
223	0x3dfbc1a6	0.12292795
224	0xbc90393c	-0.017605416
225	0xbfc417fb	-1.5319818
226	0xc090b330	-4.5218735
227	0x3fbb5122	1.4634135
228	0x3fce035c	1.6094775
229	0xbec1e1d4	-0.37867606
230	0x40b2a8ac	5.58309
231	0x3e63c8a1	0.22244503
232	0xbfe313be	-1.77404
233	0x3e7e8069	0.24853672
234	0xbe694de1	-0.22783615
235	0xbe8436f0	-0.25823164
236	0xbccd26a0	-0.025042832
237	0x3da79810	0.081833005
238	0xbdcfffa2	-0.1015618
239	0xbdf612dc	-0.12015316
240	0xbb4b5780	-0.0031027496
241	0xbe278e62	-0.16362908
242	0xbb4c5180	-0.0031176507
243	0xbe0007fd	-0.12503047
244	0xbac70a00	-0.0015185475
245	0xbe759298	-0.23981702
246	0xbdb3f32c	-0.08786616
247	0x3e27d8ce	0.16391298
248	0x3ea5f439	0.3241289
249	0xbfe85a1a	-1.8152497
250	0x3d8c7aa4	0.06859329
251	0xbf81cdee	-1.014097
252	0xbeaa61be	-0.33277696
253	0xbea970ca	-0.33093864
254	0xbf41f3e8	-0.75762796
255	0xbf0809aa	-0.53139746

mlp1.0.bias f4 [150]
0	0xbfff09bc	-1.9924846
1	0xbfd3d300	-1.6548767
2	0xbe279624	-0.16365868
3	0x3c483ae5	0.012221073
4	0xbffb56b7	-1.9635838
5	0x3d03cd40	0.032178164
6	0xbbaff59d	-0.0053698556
7	0xbf179af7	-0.5922083
8	0xbf073a9e	-0.5282382
9	0xbf657be8	-0.8964219
10	0x40266506	2.599916
11	0x3de6b0f0	0.11264217
12	0x3f507b3d	0.81438047
13	0xbd9b74e1	-0.07590652
14	0xbe70b7a9	-0.23507561
15	0xc000f82f	-2.015148
16	0xc01a1f63	-2.4081657
17	0x3f7efff1	0.99609286
18	0xbe06e4b4	-0.13173181
19	0x3e38ac9b	0.18034594
20	0xbdc45d84	-0.09588149
21	0xbe32e63c	-0.1747064
22	0xc0058469	-2.0862067
23	0x402c9662	2.6966786
24	0xbf31c1bb	-0.69436234
25	0x3ff1521b	1.8853182
26	0x3d7973aa	0.06090132
27	0x3e256c12	0.16154507
28	0x3f841509	1.031892
29	0xbed308dd	-0.412177
30	0xbfc1af64	-1.513165
31	0x3ee2de25	0.44310108
32	0x3f5e6c9d	0.8688448
33	0xbecc20ba	-0.39868718
34	0x3fc7f71b	1.5622286
35	0x3ea55e0b	0.32298312
36	0xc02c6bea	-2.6940866
37	0x3e08993d	0.13339706
38	0xbe2bc7db	-0.16775458
39	0xbf5c56a2	-0.8606969
40	0x400c7aee	2.195003
41	0xbfc511ad	-1.5396019
42	0xbfb71692	-1.4303763
43	0xbd717401	-0.05894852
44	0xbfd9bfeb	-1.7011694
45	0x3ef17952	0.47162873
46	0x3ee909a7	0.45515177
47	0xbd3e365d	-0.046438564
48	0x4043355e	3.0501323
49	0xbfc7c99c	-1.5608401
50	0x3fcd2133	1.6025757
51	0x3e80731c	0.2508782
52	0xbf5cb9b2	-0.8622085
53	0xbe0523c3	-0.13001923
54	0xbfac900b	-1.3481458
55	0x3ef4b06e	0.47790855
56	0xbdf74caa	-0.120751694
57	0xbec1dc7a	-0.37863523
58	0xbfb08467	-1.3790406
59	0xbe015bd3	-0.12632684
60	0x3f954dbf	1.1664351
61	0x3fb45a79	1.409011
62	0x3dd4862f	0.10377156
63	0xbde603b8	-0.11231178
64	0x3f171342	0.5901376
65	0xbf9204fd	-1.1407772
66	0xbf742071	-0.95362
67	0xbf9ae476	-1.2100971
68	0x3f923785	1.1423193
69	0xbec6c35c	-0.38820922
70	0xbfafd567	-1.3737
71	0xbf435ec8	-0.763165
72	0xbf4d63be	-0.8023032
73	0xbf97637f	-1.1827239
74	0xbeaa042f	-0.33206317
75	0xbfc7a3ef	-1.5596904
76	0x3ef53c1e	0.47897428
77	0x3e13df38	0.1444062
78	0x3c04fa6f	0.008116349
79	0xbe614540	-0.21999073
80	0xbd7b606d	-0.061371256
81	0xbf930947	-1.1487206
82	0x3e0e88c8	0.13919365
83	0x3edd4ccf	0.43222663
84	0x3e36a285	0.17835434
85	0xbea7421f	-0.32667634
86	0xbd8ce479	-0.06879515
87	0x3eba49fb	0.36384568
88	0xbf644463	-0.8916685
89	0x3fbf2ac3	1.4934925
90	0x3dbf4071	0.09338463
91	0x3f2f12c5	0.68388015
92	0xbffd997e	-1.9812467
93	0xbeaa8510	-0.33304644
94	0xbe7ca815	-0.24673493
95	0xbfb112c1	-1.3833848
96	0x3f8622a8	1.0479326
97	0x3d8e2614	0.069408566
98	0x3f3de185	0.7417224
99	0xbe200622	-0.1562734
100	0xbf6425c9	-0.89120156
101	0x3ed94757	0.4243724
102	0xbfda6f44	-1.7065206
103	0xbf70d838	-0.94079924
104	0x3efedf70	0.49779844
105	0xbea75c01	-0.3268738
106	0x3d2222cb	0.039583962
107	0xbfc5ee5b	-1.5463365
108	0x3f3baaea	0.7330767
109	0xbdad7334	-0.08469239
110	0x3e62d435	0.22151263
111	0xbe5804e2	-0.21095613
112	0xbd271c09	-0.04079822
113	0xbf158ec6	-0.5842098
114	0xbedb0b8f	-0.42782256
115	0xbf5008ec	-0.81263614
116	0xbf8d1f15	-1.102511
117	0xbe499286	-0.196848
118	0x3e390f77	0.18072306
119	0xbdc0b07b	-0.09408661
120	0x3f93ea8b	1.1555952
121	0xbecbe5ba	-0.39823705
122	0xbfb02f56	-1.3764446
123	0xbf857ed1	-1.0429326
124	0x3f563a22	0.83682454
125	0xbd1bd6bc	-0.038046584
126	0x3daafb68	0.08348733
127	0x3f2ee9fc	0.6832578
128	0x3f7978ff	0.9745025
129	0x3d30d0b5	0.04316779
130	0xbfdb5a88	-1.7137003
131	0x3d21d250	0.03950721
132	0xbf39b660	-0.7254391
133	0x3d86cc12	0.06581892
134	0x3e77c3cb	0.24195783
135	0xbf8af5e6	-1.0856292
136	0x3f8789a0	1.0588875
137	0x3f564b50	0.8370867
138	0xbf9cf862	-1.22633
139	0xbe3cd6c8	-0.18441308
140	0x3fec20c3	1.8447498
141	0x3f4bd925	0.7962821
142	0xbe4279c9	-0.1899177
143	0x3e0f4d83	0.13994412
144	0xbf07c67a	-0.53037226
145	0xbfa3c3f4	-1.2794175
146	0x3f0fa84f	0.56116194
147	0x3f41ff03	0.7577974
148	0x3e5e9d85	0.21739776
149	0x3f32a91f	0.6978931

mlp1.2.weight f4 [100, 150]
0	0xbf85c0f5	-1.0449511
1	0xbf223160	-0.6335659
2	0xbed104f5	-0.40824094
3	0x3c67cd48	0.014148064
4	0xbfbd065e	-1.4767568
5	0xbd02c27a	-0.03192375
6	0x3ada9eb9	0.0016679383
7	0xbf0a8c10	-0.5411997
8	0xbdcbf21e	-0.099582896
9	0x3d0f3dff	0.034971233
10	0xbf063fd2	-0.5244113
11	0xbecf5255	-0.40492502
12	0xbf11c47f	-0.56940454
13	0xbf3e1f14	-0.7426617
14	0xbd81802a	-0.063232735
15	0xbe8a61cb	-0.27027735
16	0x3df9e04f	0.122009866
17	0x3f0940c2	0.5361444
18	0xbda308ce	-0.07960664
19	0xbc8bd50d	-0.017069364
20	0x3f0c7106	0.5485996
21	0x3d633c25	0.05547728
22	0xbdf75907	-0.120775275
23	0x3c36714c	0.0111354105
24	0xbe74adc5	-0.23894413
25	0xbed86f6c	-0.42272508
26	0xbecb8927	-0.39753076
27	0x3ec32b81	0.38119128
28	0x3df212d3	0.11819997
29	0xbd5083fe	-0.050907128
30	0xbce575aa	-0.028010208
31	0x3f1634a1	0.58674055
32	0xbf492a7c	-0.7858045
33	0xbf101049	-0.5627485
34	0xbe209b86	-0.15684327
35	0xbe049ce3	-0.12950473
36	0xbf0bd411	-0.5462046
37	0xbf1221c2	-0.5708276
38	0x3cb5ea18	0.022206351
39	0x3f5d2ed3	0.86399573
40	0xbf122822	-0.5709249
41	0xbfd0f4bf	-1.632469
42	0xbf3374f0	-0.7010031
43	0x3cef33be	0.029199477
44	0xbe58659f	-0.21132515
45	0xbe0c5c8c	-0.13707179
46	0xbe9b7917	-0.30365822
47	0x3e25b11e	0.16180846
48	0x3edf3c87	0.43600866
49	0xbeff9e19	-0.49925306
50	0x3e8cbf8e	0.27489895
51	0xbd90e8c6	-0.07075648
52	0xbf72667f	-0.94687647
53	0xbea638d3	-0.32465228
54	0xbe6cd151	-0.23126723
55	0xbe89fe4d	-0.2695183
56	0xbe0a386e	-0.13498089
57	0xbee95acc	-0.45577085
58	0x3dc9bdd1	0.09850658
59	0x3f1c88f7	0.6114649
60	0x3e959a47	0.29219267
61	0x3f1b5e26	0.60690534
62	0xbbe2267a	-0.0069015594
63	0xbf29a96c	-0.6627414
64	0xbedd0362	-0.43166643
65	0xbf1f6b53	-0.6227314
66	0xbed7601b	-0.4206551
67	0x3ee44d7e	0.44590372
68	0x3d0685ab	0.03284232
69	0xba02df5b	-0.0004992389
70	0xbe54d79f	-0.20785378
71	0x3e53e81e	0.20694014
72	0x3eb37947	0.35053465
73	0xbde2a913	-0.110674046
74	0x3eff70cc	0.49890745
75	0xbf814a35	-1.0100771
76	0x3e211949	0.15732302
77	0xbef4bea7	-0.47801706
78	0x3ef6b7e7	0.4818718
79	0xbf18d454	-0.59698987
80	0x3e14ffc6	0.14550695
81	0xbf400e53	-0.7502186
82	0x3b3c6d4e	0.0028751674
83	0x3e341d33	0.17589264
84	0xbf3c5dc4	-0.73580575
85	0xbf3c3c80	-0.73529816
86	0x3c0856c2	0.008321466
87	0x3df048f5	0.117326654
88	0xbd0386cf	-0.032110985
89	0x3f18be4a	0.5966536
90	0xbeeb104d	-0.45910874
91	0xbec9eeb1	-0.3943992
92	0xbf3aa851	-0.7291308
93	0xbca429ac	-0.020039402
94	0xbd94ff8d	-0.07275305
95	0xbe9823f5	-0.29714933
96	0xbefa6662	-0.48906237
97	0x3fc19538	1.5123663
98	0x3ed2d8a8	0.4118092
99	0xbf1a7423	-0.6033346
100	0xbe9542bd	-0.2915248
101	0xbda92fa8	-0.08261043
102	0xbf00bccb	-0.50288075
103	0x3ec8b09e	0.39197248
104	0x3f155a80	0.5834122
105	0xbbac14f4	-0.0052515212
106	0xbf26c965	-0.65151054
107	0xbf16bfbd	-0.5888632
108	0xbdd056f1	-0.10172833
109	0x3f1a6b77	0.6032023
110	0xbe93d3c6	-0.28872508
111	0xbf452246	-0.7700542
112	0xbe0a19a8	-0.1348635
113	0xbeec61e3	-0.46168432
114	0x3e91b4bf	0.2845821
115	0x3e7c745e	0.24653766
116	0x3f42b715	0.7606061
117	0xbd1826aa	-0.037146248
118	0xbd240035	-0.04003926
119	0xbe6a205b	-0.22863905
120	0xbf88c21d	-1.0684239
121	0xbc96d903	-0.018414026
122	0xbfaadb29	-1.3348132
123	0x3f57517e	0.8410872
124	0xbfb1c50c	-1.3888259
125	0xbef70bc4	-0.48251164
126	0x3f11344c	0.56720424
127	0x3f51c963	0.81947917
128	0xbfe2eb6d	-1.7728096
129	0xbd461cbe	-0.048367254
130	0xbedfc056	-0.43701428
131	0x3f9432c4	1.1577992
132	0xbeaaeb6f	-0.33382747
133	0xbf9edb89	-1.2410747
134	0xbcfe2a5f	-0.031026063
135	0x3f2225a3	0.6333868
136	0xbe8e33a7	-0.27773783
137	0xbe9c0672	-0.30473667
138	0xbee2cd05	-0.44297042
139	0xbd0ef595	-0.034902174
140	0xbed259dd	-0.41084185
141	0xbeb60a69	-0.35554817
142	0x3dce1d07	0.1006413
143	0xbedbe972	-0.42951542
144	0xbf0327fd	-0.5123289
145	0xbf4d8a1f	-0.8028888
146	0x3df72372	0.120673075
147	0x3f57bac9	0.84269387
148	0x3f7ceb3b	0.98796433
149	0xbf0a9fe4	-0.54150224
150	0xbf64a2c0	-0.89310837
151	0xbed41ffe	-0.41430658
152	0x3d00bfe8	0.031433016
153	0x3d437fc7	0.04772928
154	0xbf16065d	-0.5860346
155	0xbda3173d	-0.07963417
156	0xbf384a9a	-0.7198883
157	0xbcfeedc4	-0.031119235
158	0xbe8990a8	-0.26868176
159	0xbe8682f2	-0.26271778
160	0x3ef47c6b	0.47751173
161	0xbd9f4fe3	-0.07778909
162	0xbf569624	-0.83822846
163	0xbdca038e	-0.09863959
164	0x3cbf4693	0.023349082
165	0xbcc5cafc	-0.024144642
166	0xbeaa95c7	-0.33317396
167	0x3f273389	0.6531301
168	0xbcc10e36	-0.023566347
169	0xbdfa9184	-0.12234786
170	0x3dbc8ebe	0.092069134
171	0xbe1fc5e5	-0.15602835
172	0x3b6ede17	0.0036448294
173	0xbea0e0ca	-0.314215
174	0xbeb9007a	-0.36133176
175	0xbf4334d9	-0.76252514
176	0xbb9f3686	-0.0048587946
177	0xbd207e22	-0.03918279
178	0xbea7d39a	-0.32778627
179	0xbe0ecd14	-0.13945419
180	0x3ea8579e	0.32879347
181	0x3d56846c	0.05237238
182	0xbebc8a57	-0.36824295
183	0xbd423b0d	-0.047419596
184	0x3ddee292	0.108830586
185	0xbdb5f6b6	-0.08884947
186	0xbf90029a	-1.1250794
187	0xbf1c7455	-0.6111501
188	0xbd10519b	-0.035234075
189	0xbf8c76d1	-1.097376
190	0xbe94cb23	-0.2906123
191	0xbe938ab1	-0.2881675
192	0xbe49422f	-0.19654153
193	0x3d4c5b63	0.04989184
194	0xbf392c9d	-0.723337
195	0xbd909e26	-0.070614144
196	0x3e37b09c	0.17938465
197	0xbe954673	-0.2915531
198	0xbf0ece1a	-0.55783236
199	0x3e07b8be	0.13254067
200	0xbe6d94de	-0.2320132
201	0xbd2ed73b	-0.04268573
202	0xbe6b3c2a	-0.2297217
203	0x3e957a33	0.29194793
204	0xbf02463f	-0.5088844
205	0xbddfc1b0	-0.10925615
206	0xbe69173d	-0.22762771
207	0x3d85ea8a	0.065388754
208	0x3dbdcc2c	0.09267458
209	0x3e9336d1	0.2875276
210	0xbe511cc3	-0.20421128
211	0xbe3a0ba1	-0.18168499
212	0xbebf64c9	-0.3738158
213	0x3e2e925e	0.17048022
214	0x3f05ac53	0.5221607
215	0xbe03c021	-0.1286626
216	0x3f74a405	0.95562774
217	0xbd7b064a	-0.061285295
218	0x3cccb38c	0.024987958
219	0x3f32c374	0.6982949
220	0xbd842360	-0.0645206
221	0x3ef3ae4b	0.47593912
222	0xbf81695e	-1.011028
223	0x3e2cab2c	0.16862172
224	0x3df3217f	0.11871623
225	0xbe968f7f	-0.29406354
226	0xbe05db3b	-0.13071911
227	0xbeb74579	-0.3579519
228	0xbebb089c	-0.36530006
229	0xbf800ecc	-1.0004516
230	0x3e82cfaa	0.2554906
231	0xbf02423f	-0.50882334
232	0xbd1f065d	-0.038824428
233	0x3cc1aeed	0.023642981
234	0x3d7bc308	0.061465293
235	0xbc2a8f99	-0.010410213
236	0xbd89cbbd	-0.06728313
237	0xbc8e1f64	-0.017348953
238	0x3ed72a15	0.42024294
239	0x3e0f37f3	0.13986187
240	0xbe6ac338	-0.22926033
241	0x3e517915	0.20456345
242	0xbf963505	-1.173493
243	0xbcd1b05f	-0.025596796
244	0xbd0efbdd	-0.034908164
245	0xbee4d19a	-0.44691163
246	0x3ebdea2a	0.37092716
247	0xbf359bdf	-0.70940965
248	0x3dd41724	0.10355976
249	0x3ea587d9	0.32330206
250	0xbed407b0	-0.41412115
251	0xbb382a40	-0.0028101355
252	0xbf2b39c6	-0.6688503
253	0x3f652a29	0.89517456
254	0xbe685cd4	-0.22691661
255	0xbd54b0c1	-0.05192638

mlp1.2.bias f4 [100]
0	0xbf4099f7	-0.7523493
1	0xbf73c7cb	-0.95226735
2	0xbf942bbc	-1.1575847
3	0xc00467a1	-2.068825
4	0xbf7871a5	-0.9704841
5	0xbeb8ebd8	-0.36117435
6	0xbd2a0440	-0.04150796
7	0xbf0b331e	-0.54374874
8	0xbf4d4c50	-0.8019457
9	0xbe838ec2	-0.25694853
10	0x3de0a21b	0.10968419
11	0xbce73922	-0.028225485
12	0x3c9ecba9	0.019384222
13	0xbede3f9b	-0.43407902
14	0xbfa6ebca	-1.3040707
15	0xbd39fc3b	-0.04540656
16	0xbdee6382	-0.11640073
17	0xbef645ee	-0.48100227
18	0x3f9dc797	1.2326535
19	0xbe160186	-0.14649019
20	0xbf523ab2	-0.8212081
21	0xbfadc615	-1.3576075
22	0x3de19dee	0.11016451
23	0xbf0235fd	-0.5086363
24	0xbe27d5f4	-0.1639021
25	0xbd270d8c	-0.040784404
26	0x3e13d8ef	0.14438222
27	0xbf0251ee	-0.50906265
28	0x3edadc5c	0.42746246
29	0xbd103a40	-0.0352118
30	0x3e3a04b5	0.18165858
31	0xbf6a6bc7	-0.91570705
32	0xbf42bce4	-0.76069474
33	0x3c9318aa	0.017956097
34	0xbdb5166f	-0.088421695
35	0xbf37d2db	-0.71806115
36	0xbee25df7	-0.44212314
37	0xbf666e2b	-0.9001185
38	0xbf6fa8f3	-0.9361717
39	0xbe7f06e8	-0.24904978
40	0xbf543dd7	-0.8290686
41	0x3bd0b5e1	0.006369338
42	0xbf9a2f12	-1.2045615
43	0x3d605a6c	0.054773733
44	0xbd8acd67	-0.06777459
45	0x3f20f150	0.62868214
46	0x3ef7b3db	0.48379406
47	0xbf424a40	-0.75894547
48	0xbe33c6c2	-0.17556289
49	0xbe94bcb3	-0.29050216
50	0x3df7f428	0.12107116
51	0xbe0c938f	-0.13728164
52	0x3f76a67c	0.96347785
53	0xbc7b7fe1	-0.015350313
54	0xbef85a78	-0.48506522
55	0xbeba9a49	-0.36445835
56	0xbeb38c25	-0.3506786
57	0x3f9d267d	1.2277371
58	0xbddab4aa	-0.1067899
59	0x3c4f1a6e	0.012640579
60	0xbda09d5e	-0.078425154
61	0xbe2af9fa	-0.16696921
62	0xbfb8b1d6	-1.4429271
63	0xbf3ca3bf	-0.73687357
64	0xbece61cc	-0.40308988
65	0xbe010327	-0.12598859
66	0xbd4f1af9	-0.050562833
67	0xbde02c5a	-0.109459594
68	0x3e59a1a3	0.21253066
69	0xbe36e646	-0.1786128
70	0xbf60031c	-0.87504745
71	0xbf2cae53	-0.674535
72	0x3ccf061b	0.025271466
73	0x3d22ca31	0.039743606
74	0xbe7503e0	-0.2392726
75	0xbf6896a4	-0.9085486
76	0x3e4f37e6	0.20236167
77	0x3c9dca21	0.019261422
78	0xbf407bcf	-0.75188917
79	0xbfb88cc4	-1.4417958
80	0xbee29476	-0.44253892
81	0xbf62ea68	-0.88638926
82	0xbfb1df5a	-1.3896286
83	0xbf3fa009	-0.7485357
84	0xbfb0bcd4	-1.3807626
85	0xbea3e83d	-0.3201312
86	0xbe57ed8b	-0.21086709
87	0xbd9a4fbd	-0.0753474
88	0xbdb33c71	-0.08751763
89	0xbf83ac4d	-1.0286957
90	0xbfeaf785	-1.8356787
91	0xbf73e7ff	-0.9527587
92	0xbf08b08f	-0.5339441
93	0x3ebf9f93	0.37426433
94	0xbe1cbd66	-0.15306625
95	0xbf95be74	-1.1698747
96	0x3c39e867	0.011346913
97	0xbed73e53	-0.42039737
98	0x3f8f46c4	1.1193471
99	0xbe2e71fd	-0.1703567

mlp2.0.weight f4 [100, 100]
0	0xbf2635a9	-0.6492563
1	0x3c1bce9d	0.00950971
2	0xbe8729ed	-0.26399174
3	0xbf0cf2aa	-0.55057776
4	0x3f11421d	0.56741506
5	0xbe886a21	-0.2664347
6	0xbe131ac9	-0.14365686
7	0xbeac07f2	-0.33599812
8	0xbea69595	-0.32535997
9	0xbec91070	-0.39270353
10	0xbf20f7ff	-0.6287841
11	0xbe75f947	-0.24020873
12	0x3db83f9b	0.08996507
13	0xbeb494e4	-0.35269845
14	0x3d27a5f1	0.04092974
15	0xbeb8914b	-0.3604835
16	0x3edd6771	0.43242982
17	0xbf411486	-0.7542194
18	0x3e688873	0.22708301
19	0xbe939e8f	-0.28831908
20	0xbe09c200	-0.13452911
21	0xbf31c885	-0.69446594
22	0x3b67a6bd	0.0035347186
23	0x3d7e60cb	0.062104028
24	0xbd485553	-0.048909497
25	0x3d3011a6	0.04298558
26	0x3d738e2a	0.05946175
27	0x3f23d7a1	0.640009
28	0xbf36b737	-0.71373314
29	0xbcec4a48	-0.028844014
30	0xbde2f342	-0.11081554
31	0xbda54c9b	-0.08071252
32	0xbe0046ae	-0.12526962
33	0xbdb719d3	-0.089404725
34	0xbf181871	-0.59412295
35	0xbec09079	-0.37610224
36	0x3eabab06	0.33528918
37	0xbd8e9069	-0.06961138
38	0x3cc79978	0.024365172
39	0x3f4e6633	0.80624694
40	0xbe9ee5b1	-0.31034616
41	0x3efda8d0	0.49542856
42	0x3bc031eb	0.0058653257
43	0xbd172c1c	-0.0369073
44	0xbdf2e989	-0.118609495
45	0x3f00a751	0.50255305
46	0x3ea43c3a	0.320772
47	0xbe0ba74d	-0.13638039
48	0xbd72b36a	-0.059253134
49	0x3e809cec	0.25119722
50	0xbdd4bf25	-0.103880204
51	0x3de9c4ce	0.11414491
52	0x3ef6bad7	0.48189422
53	0xbcad5b18	-0.021161601
54	0xbf18c7dd	-0.5967997
55	0xbe5a9fae	-0.21349975
56	0xbf00320f	-0.50076383
57	0xbea2ec39	-0.3182085
58	0xbebbcd78	-0.36680198
59	0x3d0a3f39	0.0337517
60	0x3d94fdc6	0.07274966
61	0xbcd63dfe	-0.026152607
62	0xbe14f10b	-0.14545076
63	0x3c312ffe	0.010814665
64	0xbe9fee21	-0.31236365
65	0x3e01f3f8	0.12690723
66	0x3d990655	0.07471911
67	0xbd8756c4	-0.06608346
68	0xbcb4bb14	-0.022061862
69	0x3e541f17	0.20714985
70	0xbe1d5480	-0.15364265
71	0xbd625ce0	-0.055264354
72	0x3b0fb4c6	0.0021927818
73	0x3e416107	0.18884669
74	0xbe56f506	-0.20991907
75	0xbe3cc37c	-0.18433946
76	0xbed3b787	-0.41350958
77	0x3d73195e	0.059350364
78	0xbe1bc850	-0.15213132
79	0xbe56292b	-0.20914142
80	0xbe8127bf	-0.25225636
81	0x3e6b7e8a	0.2299749
82	0x3f438ea4	0.7638953
83	0x3edaef99	0.42760924
84	0xbf219159	-0.6311241
85	0xbeba6474	-0.36404765
86	0xbe12304c	-0.14276236
87	0xbd90c8e3	-0.07069566
88	0xbd9287c5	-0.07154802
89	0xbeeaca6a	-0.45857555
90	0xbe700857	-0.23440681
91	0x3f170eeb	0.5900714
92	0xbd111064	-0.035416022
93	0xbf00f580	-0.50374603
94	0x3dc569ea	0.09639342
95	0xbd9025aa	-0.07038434
96	0xbd83ca65	-0.06435088
97	0x3c8fbaa8	0.01754506
98	0xbd751207	-0.059831645
99	0xbf0d6449	-0.5523115
100	0xbe4c6c4d	-0.19963188
101	0x3dac69e7	0.08418637
102	0xbef459d8	-0.47724795
103	0xbe838b07	-0.25692007
104	0xbd89761a	-0.06711979
105	0xbe608c86	-0.21928605
106	0x3ca36681	0.019946339
107	0xbda16bb3	-0.0788187
108	0xbcbdbf63	-0.02316255
109	0x3d004300	0.031313896
110	0xbf4d6882	-0.8023759
111	0xbe96491c	-0.29352653
112	0x3ae6568b	0.0017573399
113	0xbe153c3a	-0.14573756
114	0xbe4d978e	-0.20077345
115	0x3cf9434d	0.0304276
116	0x3cdfc127	0.027313782
117	0x3cd4ae24	0.025961943
118	0xbe4433ac	-0.19160336
119	0x3db0a245	0.086247005
120	0x3d3c3b76	0.045955144
121	0xbe919ca1	-0.2843981
122	0xbd8ab0a0	-0.0677197
123	0xbd97aae3	-0.07405641
124	0x3d0df75e	0.034659736
125	0x3d8a4928	0.06752235
126	0x3da990ba	0.082795575
127	0xbdf277cb	-0.11839255
128	0xbda7b740	-0.08189249
129	0xbda1a4c8	-0.07892758
130	0x3c59aa0d	0.013285172
131	0xbed10f8a	-0.40832168
132	0x3d8643be	0.065558895
133	0xbdbb880b	-0.091568075
134	0xbd91d09d	-0.07119868
135	0xbe790a60	-0.24320364
136	0x3bf27329	0.007398982
137	0x3f0c96e8	0.54917765
138	0xbe985c02	-0.29757696
139	0xbd4cad09	-0.049969707
140	0xbe083608	-0.13301861
141	0x3d848c8c	0.0647212
142	0xbda4a19a	-0.080386356
143	0x3e62f13b	0.22162335
144	0xbdb97f6d	-0.09057508
145	0x3d15bc02	0.03655625
146	0xbea5a1b1	-0.32349923
147	0xbe0376a0	-0.1283822
148	0xbdcf6cc3	-0.101281665
149	0xbc81ca9c	-0.015843682
150	0x3cb39554	0.021921791
151	0xbdcf5cd9	-0.10125131
152	0xbe8e55fe	-0.27799982
153	0x3d00d046	0.031448625
154	0xbea91746	-0.3302557
155	0xbdd649ee	-0.1046332
156	0xbdeb76e2	-0.114972845
157	0xbe2b1510	-0.16707253
158	0xbd822edb	-0.06356593
159	0xbdb30e90	-0.08743012
160	0x3be1da31	0.0068924655
161	0xbd9f3e99	-0.077756114
162	0x3ced38d9	0.028957771
163	0xbdb85a83	-0.09001639
164	0x3d9978a9	0.07493717
165	0xbd478371	-0.048709337
166	0x3d85dba3	0.06536033
167	0x3c7e1d2e	0.015509887
168	0xbca5bb58	-0.020230934
169	0xbe46203e	-0.19348237
170	0xbedc91ec	-0.4308008
171	0xbc66d8b8	-0.014089756
172	0xbe445f1c	-0.19176906
173	0x3c3a3a05	0.011366372
174	0xbdd17016	-0.10226457
175	0xbeecfbea	-0.46285945
176	0xbd95b024	-0.07308987
177	0x3dcf3967	0.101183705
178	0xbdacb7a7	-0.084334664
179	0xbe4d8230	-0.20069194
180	0xbd98dae2	-0.074636236
181	0xbdad4078	-0.08459562
182	0xbdcbe28a	-0.09955318
183	0xbee5f4a4	-0.44913208
184	0xbc3d45d3	-0.011552292
185	0xbe839465	-0.25699154
186	0xbd9e1f8f	-0.07720863
187	0xbc45536e	-0.012043817
188	0x3da09d24	0.07842472
189	0x3ce11b92	0.027478967
190	0xbda30937	-0.07960742
191	0xbd9c47b1	-0.076308616
192	0xbe1f1c31	-0.15538098
193	0xbd7f98eb	-0.062401693
194	0xbdb24202	-0.08703996
195	0xbd803ff9	-0.06262202
196	0x3d8af71f	0.06785416
197	0xbb32b3d5	-0.0027267833
198	0xbe031c47	-0.12803756
199	0xbe045890	-0.12924409
200	0xbda4e1f7	-0.08050912
201	0xbddb442f	-0.10706364
202	0xbe9bf596	-0.30460805
203	0xbe8a30e7	-0.26990435
204	0xbe553db2	-0.20824316
205	0x3ec60ce3	0.38681707
206	0xbe0b3ed3	-0.13598184
207	0x3f5c90f3	0.86158675
208	0xbe12838a	-0.1430799
209	0xbe13815a	-0.14404812
210	0xbdc62806	-0.096756026
211	0xbe94addc	-0.29038894
212	0xbd6b9914	-0.057519034
213	0xbe05a315	-0.13050492
214	0xbe7c27e7	-0.24624597
215	0xbe8388de	-0.2569036
216	0x3ea220bb	0.31665596
217	0xbe388e6f	-0.18023084
218	0x3c6b4310	0.014359251
219	0xbcc0cbd3	-0.023534691
220	0xbe2fcce9	-0.17168011
221	0xbe766218	-0.24060857
222	0x3defdc1d	0.11711905
223	0xbe897d27	-0.26853296
224	0x3bbb5d6b	0.0057179234
225	0xbd1dec30	-0.038555324
226	0xbe31ee72	-0.17376116
227	0xba2a4400	-0.0006495118
228	0xbc7aabc9	-0.015299746
229	0x3d8c7e2a	0.068600014
230	0x3e43d7c7	0.19125281
231	0xbf20a30b	-0.62748784
232	0x3d7bc6aa	0.061468758
233	0xbd8c3e81	-0.06847859
234	0xbe8eed18	-0.27915263
235	0xbcfb0104	-0.030640133
236	0xba989e43	-0.0011643845
237	0xbd487d49	-0.048947606
238	0xbec88a88	-0.3916819
239	0xbd5f600c	-0.054534957
240	0xbed16729	-0.40899017
241	0xbe506eff	-0.20354842
242	0xbeef29af	-0.4671149
243	0x3e59513b	0.21222393
244	0xbe1f7e5d	-0.15575548
245	0xbe2909e5	-0.1650768
246	0xbd952ff4	-0.07284537
247	0xbf08e9a3	-0.534815
248	0x3ce83ae3	0.028348392
249	0xbd92e712	-0.071729794
250	0xbd811a4f	-0.06303846
251	0xbe1cf603	-0.15328221
252	0xbe6480a9	-0.22314705
253	0x3b911d0c	0.0044285115
254	0xbc22132e	-0.009892268
255	0xbe3c3cc5	-0.18382557

mlp2.0.bias f4 [100]
0	0xbe8d897b	-0.27643952
1	0xbdf7963b	-0.12089201
2	0xbe630c46	-0.2217265
3	0xbe8ad43f	-0.27115056
4	0x3f1122d4	0.5669377
5	0xbdda0780	-0.10645962
6	0x3d213570	0.039357603
7	0xbe2f79be	-0.17136285
8	0xbd09b62c	-0.033621
9	0x3eb815df	0.35954186
10	0xbe8137f1	-0.25237992
11	0x40869e52	4.206826
12	0x4087ba7e	4.241515
13	0x4016cc15	2.3562062
14	0x3f913737	1.1344975
15	0xbe59215e	-0.21204135
16	0x3c8b3cc8	0.016996756
17	0x3f44c583	0.7686388
18	0x3c9cea56	0.019154709
19	0xbe73fe68	-0.23827517
20	0xbd802f6d	-0.06259046
21	0x40495722	3.1459432
22	0xbf9f08d7	-1.2424573
23	0xbf6ec2fb	-0.93266267
24	0xbe50d390	-0.20393205
25	0x3eaf5b3e	0.342493
26	0x3dbc623e	0.09198426
27	0x4037a2f3	2.8693206
28	0xbe09c90c	-0.134556
29	0x3f9f6430	1.245245
30	0x3fdd4b27	1.728856
31	0x403c8e7e	2.946197
32	0xbf8ef414	-1.1168237
33	0x3f5ee75b	0.8707177
34	0xbf16f421	-0.5896626
35	0x3ee064fd	0.43827048
36	0xbee626e8	-0.44951558
37	0x3e26f373	0.16303806
38	0xbe916cd0	-0.2840333
39	0x3dc0c351	0.09412254
40	0x3fa2d9d8	1.2722731
41	0xbdb95ffb	-0.0905151
42	0xbf1a55d6	-0.60287225
43	0xbe00b5b5	-0.12569316
44	0xbe0b4e76	-0.13604149
45	0x3cd89927	0.026440216
46	0x3f2a99d6	0.66640985
47	0x3ed2ea0b	0.41194186
48	0xbe613fc5	-0.21996982
49	0x3f6cc94c	0.92494655
50	0x3f962846	1.173104
51	0x4108485b	8.517665
52	0x3fcf9532	1.6217406
53	0x3d9c4d84	0.076319724
54	0xbe26347f	-0.16230963
55	0xbe864fc0	-0.2623272
56	0xbe6addc7	-0.22936164
57	0xbe089f3e	-0.13341996
58	0xbf2aef29	-0.6677118
59	0xbf4e514a	-0.8059279
60	0xbde79f70	-0.11309707
61	0xbf4096fc	-0.75230384
62	0xbede0b71	-0.43368104
63	0x3e294233	0.16529159
64	0xbe6cd402	-0.2312775
65	0xbee3d2fc	-0.44496906
66	0x3cd159d1	0.025555523
67	0xbe9580b6	-0.2919976
68	0xbe92ea0c	-0.2869419
69	0x3de29846	0.110642
70	0x3fea4a1c	1.8303866
71	0xbf8c1950	-1.0945225
72	0x3e065f30	0.13122249
73	0xbd768817	-0.06018838
74	0x3db71f7e	0.089415535
75	0xbe8b895e	-0.2725324
76	0x3f81b65e	1.0133779
77	0x3f5598f5	0.8343652
78	0xbda9ab4d	-0.08284626
79	0xbed58560	-0.4170332
80	0xbea8564b	-0.32878336
81	0x3d84019c	0.064456195
82	0xbed3c927	-0.41364405
83	0xbe7976cb	-0.24361722
84	0xbf151de5	-0.5824874
85	0x3fb6d689	1.4284221
86	0x3d5e0fb6	0.054214202
87	0xbfaf2771	-1.3683912
88	0xbd89bab3	-0.06725063
89	0xbed1c5c4	-0.40971196
90	0x3ef29e46	0.47386378
91	0xbee9b3e1	-0.4564505
92	0x3ce19d60	0.027540863
93	0xbfa1743a	-1.2613595
94	0xbda1332d	-0.07871089
95	0xbdb99d95	-0.090632595
96	0x406fad19	3.74494
97	0xc00e6a53	-2.2252395
98	0xbd77d56a	-0.060506262
99	0xbe1b1bb6	-0.1514729

mlp2.2.weight f4 [50, 100]
0	0x3e0d94c0	0.13826275
1	0xbe2ce2b0	-0.1688335
2	0x3c9bf1e3	0.019036239
3	0xbd1c071a	-0.03809271
4	0xbe094192	-0.1340392
5	0x3e436234	0.1908043
6	0x3e178449	0.14796557
7	0xbe083b28	-0.13303816
8	0xbe44c8ec	-0.1921727
9	0x3e564708	0.20925534
10	0x3d61622b	0.05502526
11	0xbd3ab904	-0.0455866
12	0x3e09bb2b	0.13450305
13	0xba1a4ab2	-0.0005885764
14	0x3de36806	0.11103825
15	0xbde1d7e5	-0.11027507
16	0x3dada54b	0.08478793
17	0xbcc3a5ef	-0.023882834
18	0xbbe8781b	-0.007094396
19	0x3e64b010	0.22332788
20	0xbd5ba85e	-0.053627364
21	0xbe2ceada	-0.16886464
22	0xba49b21e	-0.0007694083
23	0xbdfca07d	-0.12335298
24	0x3e6134c1	0.2199278
25	0x3ef88fe7	0.4854729
26	0xbe2bc99a	-0.16776124
27	0xbe68dd07	-0.22740565
28	0xbd39c85e	-0.0453571
29	0x3e9340a2	0.28760248
30	0xbeb69e52	-0.35667664
31	0xbe61cbb2	-0.2205036
32	0x3e899fbb	0.26879677
33	0xbea40d1a	-0.32041246
34	0xbd898ed9	-0.06716699
35	0x3e99dbcf	0.30050513
36	0x3e923984	0.28559506
37	0x3e903807	0.28167745
38	0x3ed4b8bc	0.4154719
39	0x3d8a01d2	0.067386284
40	0xbf29c86f	-0.6632146
41	0x3eb277f7	0.3485715
42	0x3e6ee2c8	0.23328698
43	0xbd707c7a	-0.05871246
44	0x3e3b96a5	0.18319185
45	0x3de24cfa	0.11049838
46	0xbed81964	-0.42206872
47	0xbe5dc66e	-0.21657726
48	0x3e1208f5	0.1426123
49	0xbe19df91	-0.1502669
50	0xbe931c16	-0.28732365
51	0xbe3f44a3	-0.18678527
52	0xb98ae170	-0.00026489375
53	0xbdbe03c1	-0.0927806
54	0x3e5c0c3e	0.21489045
55	0x3d555da1	0.052091245
56	0xbcad099e	-0.02112275
57	0xbdbe8d5b	-0.09304305
58	0x3ccb0606	0.024783146
59	0xbdea4bac	-0.114402145
60	0xbda80454	-0.082039505
61	0xb8f6a53b	-0.00011760971
62	0xbd712e39	-0.058881972
63	0x3dd6c8f5	0.10487548
64	0x3e03c781	0.12869073
65	0x3e1ff711	0.15621592
66	0xbd5bcd1e	-0.053662412
67	0xbe7d97f7	-0.24765001
68	0x3f0ba447	0.5454754
69	0x3e0519a8	0.12998068
70	0xbe9341b0	-0.28761053
71	0xbd2acb0b	-0.041697543
72	0x3cbbde76	0.022933226
73	0x3e025d61	0.12730934
74	0x3e9d50f6	0.3072583
75	0x3cc6a3ad	0.024247969
76	0xbdca63e1	-0.09882332
77	0xbe1735f2	-0.14766672
78	0x3d9ae3b6	0.07562964
79	0xbda98951	-0.08278144
80	0x3dcd71f2	0.10031499
81	0xbeb2ba0e	-0.34907573
82	0x3d2a5769	0.041587267
83	0x3e2152fb	0.15754311
84	0x3e93692b	0.28791174
85	0x3c7b3f75	0.015334954
86	0xbe010787	-0.12600528
87	0xbd7815fa	-0.060567833
88	0x3e3535d8	0.17696321
89	0x3e9fe782	0.31231314
90	0xbbae7bb6	-0.005324806
91	0xbc8feefe	-0.017570015
92	0x3d361bc9	0.04446009
93	0xbe7eb265	-0.2487274
94	0x3d79e138	0.0610058
95	0x3cdc34c9	0.026880639
96	0x3dd1ec7a	0.102501824
97	0xbe6c8e2f	-0.23101114
98	0xbc873aa2	-0.01650745
99	0xbdc2bfd1	-0.09509242
100	0x3ea343f5	0.31887785
101	0x3e79c307	0.24390803
102	0x3e53b18a	0.20673195
103	0x3e614186	0.21997651
104	0x3dfef4c0	0.12449026
105	0x3e7b6660	0.24550772
106	0xbdcbedd1	-0.09957469
107	0xbea69c60	-0.3254118
108	0xbc88f107	-0.016716493
109	0x3e4bf38a	0.19917122
110	0x3c4d9671	0.012548075
111	0xbed121f0	-0.40846205
112	0xbdac1be2	-0.08403756
113	0xbeaf87df	-0.3428335
114	0xbd4a0b2c	-0.04932706
115	0xbd118451	-0.035526577
116	0x3e36d41d	0.17854352
117	0xbea98007	-0.3310549
118	0xbdce58a5	-0.10075501
119	0x3d05d344	0.03267218
120	0xbd85f997	-0.06541746
121	0xbd969f31	-0.07354582
122	0xbe1785db	-0.14797156
123	0x3f219424	0.6311667
124	0x3e90eaca	0.2830413
125	0x3f026656	0.509374
126	0x3e9be629	0.30449036
127	0xbcda71e0	-0.026665628
128	0xbdd8039b	-0.10547563
129	0xbdc813c5	-0.09769396
130	0xbeb31918	-0.34980083
131	0xbeb05270	-0.34437895
132	0xbe20fe78	-0.15722072
133	0xbdfc131a	-0.12308331
134	0x3db2a1bb	0.08722254
135	0x3cc3bf67	0.023894979
136	0x3e407f90	0.18798661
137	0x3ec0503a	0.37561208
138	0x3e54745d	0.20747514
139	0x3e5e56d0	0.21712804
140	0xbf08bf4a	-0.53416884
141	0x3caa3045	0.02077497
142	0x3e67cca0	0.22636652
143	0x3e6ce048	0.23132432
144	0xbd5c39ec	-0.053766176
145	0x3e5c3187	0.21503268
146	0xbf121bf7	-0.5707392
147	0xbeaea26a	-0.34108287
148	0xbd757aef	-0.05993169
149	0x3ccb1751	0.024791392
150	0xbf0c7c20	-0.548769
151	0xbe53b9f8	-0.2067641
152	0xbdf60764	-0.120131284
153	0x3ec0d304	0.37660992
154	0x3e2137dd	0.15743966
155	0x3c7ee609	0.015557774
156	0xbdf5a8b8	-0.11995071
157	0x3e1f8239	0.1557702
158	0xbcfa8bda	-0.030584265
159	0xbe78d4ca	-0.24299923
160	0xbead769c	-0.33879554
161	0xbe64b618	-0.22335088
162	0x3c1ecb48	0.009692021
163	0x3e88e5f0	0.26737928
164	0xbd2c1fdc	-0.04202257
165	0x3e11a5e2	0.14223436
166	0x3e20cc14	0.1570285
167	0x3d875934	0.06608811
168	0xbd369714	-0.044577673
169	0xbd879b32	-0.06621398
170	0xbf0a9227	-0.5412926
171	0xbdd32fa6	-0.103118226
172	0xbe156eea	-0.14593092
173	0xbe8c48d4	-0.27399313
174	0x37ae98a3	2.0813493e-05
175	0x3ead575b	0.3385571
176	0xbeebf288	-0.46083474
177	0xbe008466	-0.12550506
178	0xbdf3f978	-0.11912817
179	0x3f1ad9ef	0.6048879
180	0x3ebe6319	0.3718498
181	0xbe4db51f	-0.20088623
182	0xbc5ad05e	-0.013355343
183	0x3eb095bb	0.34489235
184	0x3eeee738	0.4666078
185	0xbcb3d202	-0.021950725
186	0x3bd4b862	0.0064917067
187	0x3e187f63	0.14892344
188	0x3c3763de	0.011193244
189	0x3e94c0ad	0.2905325
190	0xbccb30c0	-0.02480352
191	0x3f029bca	0.51018965
192	0xbe1f9869	-0.15585484
193	0x3df5c005	0.119995154
194	0x3ee6fffd	0.4511718
195	0x3db45c18	0.08806628
196	0xbdf32c28	-0.118736565
197	0xbbf65f3a	-0.007518676
198	0x3e9026bb	0.2815455
199	0xbe8af801	-0.27142337
200	0x3e04f7e4	0.12985188
201	0xbd148895	-0.036263067
202	0x3dabd45d	0.083901145
203	0xbe2d783a	-0.16940394
204	0xbe395afe	-0.18101117
205	0x3e90ff80	0.2831993
206	0xbe3128bc	-0.17300695
207	0x3c70ef18	0.014705442
208	0x3e472902	0.19449237
209	0xbe2be776	-0.16787514
210	0xbdb5d912	-0.088792935
211	0xbed5eb1f	-0.41780946
212	0xbdc173ef	-0.09445941
213	0xbc97e79e	-0.01854306
214	0xbe4f5e45	-0.20250805
215	0x3dbc60aa	0.09198125
216	0xbe06aa6f	-0.13150953
217	0xbd7604d3	-0.060063194
218	0xbc84611e	-0.01615959
219	0x3e8f6ab6	0.280111
220	0xbe313e99	-0.17309035
221	0xbe35e15a	-0.17761746
222	0xbe800bf6	-0.25009125
223	0x3cc9fd5b	0.024656942
224	0x3cd8a3b7	0.026445253
225	0x3de7d9eb	0.113208614
226	0xbdc4b99d	-0.096057154
227	0xbe374bdd	-0.17900033
228	0xbe3878fd	-0.18014903
229	0xbe9e7d94	-0.30955184
230	0xbdea5796	-0.11442487
231	0x3c68e79d	0.014215377
232	0x3e375550	0.17903638
233	0x3dbb093d	0.091326214
234	0xbe7b092c	-0.24515218
235	0x3bfd5f49	0.007732306
236	0x3e927047	0.28601286
237	0x3d5315be	0.051534407
238	0x3ec4fb00	0.38472748
239	0x3e56dc54	0.20982486
240	0xbecbf686	-0.3983652
241	0x3ede2512	0.43387657
242	0x3c6c620c	0.014427673
243	0x3d4b3b22	0.04961694
244	0xbd6bf57d	-0.057607163
245	0x3dd7209f	0.10504269
246	0xbed4f93d	-0.41596404
247	0xbe7f41e0	-0.24927473
248	0xbd3cacbf	-0.04606318
249	0xbe8661f3	-0.26246604
250	0xbe6d4738	-0.23171699
251	0xbdcfa64e	-0.10139142
252	0xbe86f746	-0.2636053
253	0x3dc9bb23	0.098501466
254	0x3e0bebde	0.13664195
255	0x3e28c2dd	0.16480584

mlp2.2.bias f4 [50]
0	0x3ec9f52d	0.39444867
1	0x3f39c2ac	0.7256267
2	0x3f9167a6	1.1359756
3	0xbf2a1bdd	-0.66448766
4	0xbf3eda2a	-0.7455164
5	0x3f836b74	1.0267167
6	0x3f1334c8	0.5750241
7	0x3e133165	0.14374311
8	0x3f85d106	1.0454414
9	0xbfe8890b	-1.8166822
10	0x3fa57583	1.2926487
11	0xbe8287ed	-0.25494328
12	0xbea5f7bd	-0.32415572
13	0x3ed7827e	0.42091745
14	0xbf90304c	-1.1264739
15	0xc00695d2	-2.1028943
16	0x3f486d80	0.78292084
17	0x3db921a5	0.0903962
18	0x3d192dab	0.037397068
19	0x3ddf1afe	0.1089382
20	0xc003f5c7	-2.061876
21	0xbe90f453	-0.28311405
22	0xbeaeb9ad	-0.34126034
23	0xbfec38d3	-1.8454841
24	0xbf825be2	-1.018429
25	0x3e12f502	0.14351276
26	0x3e88178c	0.26580465
27	0xbf5ccc99	-0.8624969
28	0x3f0c2f31	0.5475951
29	0x3f957035	1.1674868
30	0x3f879eb4	1.0595307
31	0xbe28e833	-0.16494827
32	0x3f9ac276	1.2090595
33	0xbf0eb8b1	-0.55750567
34	0xbfa4b1d5	-1.286677
35	0x4018d4e5	2.387994
36	0xc020305d	-2.5029519
37	0x3fcf9c8c	1.6219649
38	0xbf4cea7f	-0.8004531
39	0x3ef08497	0.46976158
40	0x3ebdb1a6	0.37049598
41	0x3fcc7d3c	1.5975718
42	0xbf90336b	-1.1265692
43	0x3f7a6e49	0.9782453
44	0xbe999b9e	-0.3000154
45	0x3fc7bfa3	1.5605358
46	0x3ee2c69c	0.44292152
47	0x3eedae70	0.46422148
48	0x3f9845fd	1.1896359
49	0xc01a34eb	-2.4094799

attention.0.weight f4 [100, 100]
0	0xbe2c0d92	-0.16802052
1	0xbdcd700a	-0.100311354
2	0xbe2f4cd8	-0.17119157
3	0x3dcc1040	0.09964037
4	0xbd14f9f9	-0.036371205
5	0x3d7eade9	0.062177572
6	0xbdcb27bf	-0.0991969
7	0x3d548bcd	0.051891137
8	0x3d122815	0.035682756
9	0xbd68c5ed	-0.05682938
10	0xbd9cf879	-0.0766458
11	0xbdd17ec7	-0.10229259
12	0x3dc38451	0.09546722
13	0x3a453ef8	0.00075243367
14	0xbde19ca8	-0.11016208
15	0xbd96cbd5	-0.073630966
16	0x3d561602	0.052267082
17	0xbe12fdc5	-0.14354618
18	0xbe25b49d	-0.1618218
19	0xbdf7e37c	-0.12103936
20	0xbd7c702e	-0.06163042
21	0xbd14f347	-0.03636482
22	0xbda5eb9f	-0.08101582
23	0x3ddf598f	0.10905754
24	0xbd9b57fa	-0.075851396
25	0xbc0af09b	-0.008480216
26	0xbc2d22af	-0.010567351
27	0xbe2192c4	-0.15778643
28	0xbcae2f3c	-0.021262757
29	0x3d5648f6	0.052315675
30	0x3dda9410	0.10672772
31	0xbdb9d902	-0.09074594
32	0xbd9cbf98	-0.07653731
33	0x3cf27508	0.02959682
34	0xbd8887e5	-0.06666545
35	0xbea484ee	-0.32132667
36	0xbd8b761d	-0.06809638
37	0xbcacd678	-0.02109836
38	0xbe1a554a	-0.15071598
39	0xbbb08f0e	-0.005388147
40	0xbe29979b	-0.16561739
41	0xbe2d8a49	-0.16947283
42	0xbe88b2aa	-0.2669881
43	0x3bb50e18	0.0055253617
44	0xbbd47396	-0.0064835055
45	0x3cae5cff	0.021284578
46	0xbdb01a32	-0.08598746
47	0x3d6d09be	0.05787062
48	0x3d13e04d	0.03610258
49	0xbd31d390	-0.043414652
50	0xbc862fc4	-0.016380198
51	0x3da4546e	0.08023916
52	0xbc8530eb	-0.016258677
53	0x3c678d97	0.014132879
54	0x3e0ec35c	0.13941711
55	0xbcfd8654	-0.030947842
56	0x3e18d544	0.14925104
57	0x3d28ec89	0.041241203
58	0xbe2a92d4	-0.16657573
59	0xbd69b226	-0.05705466
60	0xbd683fd6	-0.056701504
61	0xbd7118f7	-0.0588617
62	0x3c40640f	0.011742606
63	0xbd7f1594	-0.062276438
64	0xbd846181	-0.0646391
65	0xbdb912e3	-0.090368055
66	0xbcccc06e	-0.024994101
67	0xbde82dd0	-0.11336863
68	0xbdcf182e	-0.10112034
69	0x3d25f0e9	0.040512953
70	0xbdaa4589	-0.08314044
71	0x3e5e878e	0.21731398
72	0xbdf26fe4	-0.11837748
73	0x3c23d5e1	0.009999723
74	0xbdb519d5	-0.08842818
75	0xbd490836	-0.049080096
76	0xbd35d50d	-0.044392634
77	0xbd0b69f5	-0.034036595
78	0xbe47878a	-0.19485298
79	0x3d92b8e4	0.07164171
80	0xbc943e67	-0.018096162
81	0xbd4a18d6	-0.04934009
82	0xbe02b023	-0.12762503
83	0xbdb37c6b	-0.08763965
84	0xbe76fb08	-0.24119198
85	0x3db77fba	0.08959909
86	0xbde145e0	-0.10999656
87	0x3e12fad7	0.143535
88	0x3d3beab0	0.045878112
89	0xbd688163	-0.056764018
90	0x3d459d02	0.048245437
91	0xbe2ec452	-0.17067078
92	0xbd419465	-0.04726066
93	0xbda81341	-0.082067974
94	0x3db86dbb	0.090053044
95	0x3d9e171b	0.07719251
96	0xbcf746af	-0.030185072
97	0x3d2d5fdb	0.042327743
98	0xbde3f965	-0.111315526
99	0x3d8ac2fe	0.06775473
100	0xbf35d9af	-0.71035284
101	0xbe481fd5	-0.19543393
102	0xbf262f02	-0.6491548
103	0x3e2205c8	0.15822518
104	0xbdff940e	-0.12479411
105	0x3dc1c204	0.09460834
106	0x3d957b41	0.072988994
107	0x3cb4cddc	0.022070818
108	0xbc3b5eb1	-0.01143615
109	0x3e1c0d1c	0.15239376
110	0xbcdc5d9d	-0.026900107
111	0x3ca5635e	0.020188984
112	0x3d681117	0.056656923
113	0xbd38e739	-0.045142386
114	0xbe1e3e1f	-0.15453385
115	0xbdfae38e	-0.12250434
116	0x3d7a6f3a	0.06114123
117	0xbeb925ad	-0.36161557
118	0xbeb94d4e	-0.3619179
119	0x3dd0c0e3	0.1019304
120	0xbe336ddd	-0.17522378
121	0xbe5813c2	-0.21101287
122	0xbe7ab6b7	-0.24483763
123	0xbf019d6c	-0.5063083
124	0xbe24251c	-0.16029781
125	0xbd362023	-0.04446424
126	0xbce78530	-0.028261751
127	0xbf148c17	-0.5802626
128	0xbef09319	-0.46987227
129	0x3d1debcc	0.03855495
130	0xbe3eafe1	-0.1862178
131	0x3d298cb8	0.041393965
132	0xbe263f41	-0.16235067
133	0xbd31f9fd	-0.043451298
134	0xbe18083e	-0.14846894
135	0xbee5655d	-0.44803897
136	0x3da8e3ce	0.08246575
137	0x3ec1ae49	0.37828282
138	0xbf394be1	-0.7238141
139	0xbe8af51d	-0.27140132
140	0x3e35fdef	0.17772649
141	0x3e9d53a7	0.30727884
142	0x3d28da35	0.041223723
143	0x3df67dd8	0.120357215
144	0xbe2ae1b1	-0.16687657
145	0x3ecbeae4	0.39827645
146	0xbee52689	-0.44755962
147	0xbebdd567	-0.37076876
148	0x3d3748f4	0.044747308
149	0xbf22882d	-0.6348904
150	0xbe1d755a	-0.15376797
151	0xbdf8a3ab	-0.12140592
152	0x3f4bf6f3	0.7967369
153	0xbd2e01f9	-0.04248235
154	0x3f144d02	0.57930005
155	0xbea19e73	-0.315662
156	0x3f14cdab	0.58126324
157	0xbe65d5d4	-0.2244485
158	0xbea4a607	-0.3215792
159	0x3da52b02	0.08064844
160	0xbd3be9d1	-0.04587728
161	0xbe445f31	-0.19176938
162	0xbe315a3b	-0.17319576
163	0x3e661806	0.22470102
164	0xbda8e3c0	-0.08246565
165	0xbcddbd85	-0.027067909
166	0xbda99f3a	-0.08282323
167	0x3aec6ce6	0.0018037825
168	0xbe40d41b	-0.18830912
169	0x3dc626b8	0.09675354
170	0xbe0293aa	-0.12751642
171	0x3d8ab9fb	0.06773754
172	0x3e87a550	0.2649331
173	0x3e1daeff	0.15398787
174	0xbead3c64	-0.33835137
175	0xbee7af10	-0.4525075
176	0xbf36da2b	-0.7142665
177	0x3cf0495b	0.029331854
178	0x3d87ecbc	0.066369504
179	0xbe58de98	-0.21178663
180	0xbec926bf	-0.39287373
181	0x3dd91508	0.105997145
182	0xbb18a912	-0.0023294133
183	0xbd00c64e	-0.031439118
184	0x3f59574a	0.8489882
185	0x3d1f565d	0.03890072
186	0xbd08f65f	-0.033438083
187	0xbefb04d6	-0.49027127
188	0xbda87545	-0.082254924
189	0xbde11efc	-0.10992238
190	0x3f452c56	0.77020776
191	0xbf134dc5	-0.5754054
192	0x3e12bd2c	0.14329976
193	0xbd2ad62c	-0.041708156
194	0xbe74723a	-0.23871699
195	0xbefe302a	-0.4964612
196	0xb9bcc2ab	-0.00036003193
197	0xbd15ac52	-0.03654129
198	0xbeaadc02	-0.33370978
199	0xbf29855b	-0.6621911
200	0x3dd22766	0.10261421
201	0xbf298156	-0.66212976
202	0xbe9546d4	-0.291556
203	0xbeb8fb24	-0.36129105
204	0x3e8a8cdf	0.270606
205	0x3e62cb61	0.22147895
206	0xbec4da5d	-0.38447848
207	0x3eee22cd	0.46510926
208	0x3ce573b9	0.028009282
209	0x3dcf4975	0.10121433
210	0x3e93cfc2	0.28869444
211	0x3e7148d1	0.23562934
212	0xbd82d58d	-0.06388388
213	0x3d51ac43	0.051189672
214	0xbe45b4ae	-0.19307205
215	0xbcda9094	-0.026680268
216	0xbca75aa1	-0.020428957
217	0xbd9674d6	-0.073465034
218	0x3f0ea3af	0.5571851
219	0x3e0da90a	0.13834015
220	0x3d6967ad	0.05698364
221	0x3dfc4b99	0.123191066
222	0xbda7fdec	-0.08202729
223	0x3f537c1c	0.8261125
224	0x3ccd086c	0.02502843
225	0xbd8bb8f0	-0.068223834
226	0xbd54aa2b	-0.051920097
227	0xbf01841a	-0.50592196
228	0xbee1c414	-0.44094908
229	0x3e0764c2	0.1322203
230	0xbdbe38c8	-0.09288174
231	0x3e0fd79b	0.1404709
232	0x3e8ccc89	0.27499798
233	0xbc930e14	-0.017951049
234	0xbda6926f	-0.08133399
235	0xbe7441f8	-0.2385329
236	0xbd4caada	-0.049967624
237	0x3e8ceb6b	0.2752336
238	0xbc7638e1	-0.015028209
239	0xbe90d9fb	-0.28291306
240	0xbec43f62	-0.38329607
241	0xbf05d009	-0.5227056
242	0xbf07211e	-0.5278491
243	0x3b9c3eaa	0.0047682123
244	0xbde47f2c	-0.111570686
245	0xbe94a074	-0.29028666
246	0xbf63f67f	-0.89048
247	0x3e6044c6	0.21901235
248	0x3dba809a	0.0910656
249	0x3de3b54b	0.11118563
250	0xbe9d861a	-0.30766374
251	0x3e003d1d	0.12523313
252	0xbe5819f1	-0.21103646
253	0x3c35111c	0.0110514425
254	0xbed1ad70	-0.40952635
255	0xbd23257d	-0.039830673

attention.0.bias f4 [100]
0	0xbdd0c740	-0.10194254
1	0xbf27a3b9	-0.65484196
2	0xbf04325d	-0.5163935
3	0xbf027279	-0.5095592
4	0xbd6c1b14	-0.05764301
5	0xbe62bbcf	-0.22141956
6	0xbee52f6e	-0.44762748
7	0xbe9970a2	-0.29968745
8	0xbd18b068	-0.03727761
9	0xbe2b5437	-0.16731344
10	0xbee66d2b	-0.45005164
11	0xbeda11dd	-0.42591754
12	0x3cd71728	0.026256159
13	0xbee14396	-0.43996876
14	0xbe9e1fe0	-0.30883694
15	0xbe3d7495	-0.18501504
16	0xbe794baf	-0.24345277
17	0xbed3ac0b	-0.41342196
18	0xbe231223	-0.15924887
19	0xbe7a9870	-0.24472213
20	0xbed41f6d	-0.41430226
21	0xbe99d47e	-0.3004493
22	0xbebf14a1	-0.37320426
23	0xbea06963	-0.31330404
24	0xbbe1621e	-0.0068781516
25	0xbe89fc57	-0.26950333
26	0x3cd03c8a	0.025419492
27	0xbe399fff	-0.1812744
28	0xbee5c253	-0.4487482
29	0xbede5072	-0.4342075
30	0xbea003e8	-0.3125298
31	0xbe1b0d44	-0.15141779
32	0xbec74921	-0.3892298
33	0xbdc0ce50	-0.09414351
34	0xbcbc5455	-0.022989431
35	0xbedc6f7a	-0.430538
36	0xbe64f51c	-0.22359127
37	0xbf6847fe	-0.9073485
38	0x3e84628d	0.25856438
39	0xbda902e7	-0.08252507
40	0xbe3cc5e8	-0.1843487
41	0xbe83154f	-0.25602195
42	0xbeb5fcb6	-0.35544366
43	0xbdd93920	-0.10606599
44	0xbd1be07b	-0.038055878
45	0xbe3b6f6b	-0.18304221
46	0xbe39c8ef	-0.18143056
47	0xbe571116	-0.21002612
48	0xbf0122ae	-0.5044354
49	0xbf6ceb7a	-0.9254681
50	0xbf638b45	-0.88884383
51	0xbe44b7eb	-0.19210784
52	0xbe636e3f	-0.22210024
53	0xbcc1032e	-0.023561087
54	0xbec633ab	-0.38711295
55	0xbdc6c1fe	-0.0970497
56	0xbccd0fd8	-0.025031969
57	0xbe615d6a	-0.22008291
58	0xbe79b9e4	-0.24387318
59	0xbea0c38b	-0.31399187
60	0xbe7418af	-0.23837541
61	0xbdc578a0	-0.09642148
62	0xbe8f05f3	-0.27934226
63	0xbebe3a0e	-0.37153667
64	0xbe1bb581	-0.15205957
65	0xbebb20e5	-0.36548534
66	0xbe604666	-0.21901855
67	0xbe777181	-0.24164392
68	0xbf4fd137	-0.8117861
69	0xbf1c3873	-0.61023635
70	0xbef8d264	-0.48598015
71	0x3d0180a2	0.031616814
72	0xbebef8e5	-0.37299266
73	0xbf643cf0	-0.89155483
74	0xbecabd3f	-0.39597508
75	0xbe467910	-0.19382119
76	0x3e7dc91e	0.24783751
77	0x3d246944	0.04013945
78	0xbf33805c	-0.70117736
79	0xbe100d06	-0.14067468
80	0xbec651ee	-0.38734382
81	0xbe14ccec	-0.14531296
82	0xbe6834cd	-0.22676392
83	0xbe5c506e	-0.21515056
84	0xbea18904	-0.31549847
85	0xbee40139	-0.44532183
86	0xbe787080	-0.24261665
87	0xbf04d51d	-0.51887685
88	0xbd94de66	-0.07268982
89	0xbf192df2	-0.5983573
90	0xbe8e12c4	-0.27748692
91	0xbe479208	-0.194893
92	0xbdc0ec4f	-0.09420072
93	0xbde6baaa	-0.11266072
94	0xbe6e2b77	-0.23258768
95	0xbd4417ea	-0.04787437
96	0xbeb3d783	-0.3512536
97	0xbe69f71d	-0.22848172
98	0xbdf2c40b	-0.118537985
99	0xbf094f9a	-0.5363709
