sarl_star_ros/CrowdNav-crosspath/crowd_nav/data/output_alisher_blockpath_5_1/rl_model.pth (torch_old, 349196 bytes, 20 tensors)

mlp1.0.weight f4 [150, 13]
0.016639693 -0.08881534 0.53958946 0.09115694 1.0955905 -2.0817451 0.7135459 0.9530671
-1.5216721 3.4900277 -0.5803169 -0.46960318 -0.50326794 -0.47175914 -0.5761321 -0.45484555
0.032658026 -1.0676738 -1.2009746 0.05953762 -0.1140499 1.4150844 -1.0225173 -0.12224853
0.94676346 -0.6386854 -0.43468273 -0.12545383 0.013271432 -0.016797513 -0.56473297 0.26588604
-0.3523656 0.42841348 0.2415216 0.34764704 -0.08974232 -0.11480038 0.0784032 -1.1597165
-0.3737075 -0.17732066 0.18986146 -0.48666185 0.15080917 -0.20625505 -0.45906845 -0.7903704
-0.4529893 0.06651868 1.0662289 -0.14345013 0.40669924 -0.14998458 0.48670718 -0.2045966
0.4410012 -0.7633091 -1.4435798 1.6017548 0.80552214 -0.47477397 -0.26422757 -2.39344
-0.5718738 0.8257944 -1.2943821 0.057390973 -0.07709952 1.2384772 3.0743525 2.117061
-1.1936265 -2.6595578 0.2356041 0.9268657 -2.166547 1.0438359 -0.48416492 0.43686816
-0.4551177 -0.2062561 -0.07573151 -0.5684118 -0.23238535 -0.5344346 -1.6183449 -1.6395756
0.972931 -0.020672087 1.0135766 -0.1656784 0.33921665 -0.94572896 -0.15720569 1.4875531
-1.2680848 -0.015290829 2.0702255 -0.13240606 0.3615279 -0.6245898 -1.2368536 -0.56548655
-0.59256196 -0.033378556 -0.22639738 0.038976174 0.29242358 -0.10181664 -0.43243304 0.44247422
-0.8304042 -0.70996356 0.21338715 0.20360938 0.5231126 -0.6408559 0.5557712 -0.43734106
-0.040414277 -0.63016975 0.07135126 -0.53644645 0.62738997 0.013016498 -0.2509296 0.32510674
0.18941899 0.37559494 -1.336369 -0.7691804 0.6851162 -0.06861345 0.32549065 0.88304925
1.0774294 0.46590465 0.62225354 1.7391742 -0.12386111 0.58933914 -0.2765743 0.047656775
0.2681232 -0.05404772 0.34467158 0.17941204 0.5895411 -0.7486644 0.33969113 -0.9908774
-0.5198081 0.2572925 -1.1104395 0.461737 -0.44258025 0.19159634 -0.016913982 -0.12115797
0.0860425 0.23141448 1.4415084 0.73582083 -0.65947556 -0.55667776 0.75166297 -0.6472229
0.26785603 0.47575253 0.68243974 -2.1692705 -0.07773056 0.48924112 0.6509994 -0.91996074
-0.8787547 0.27763465 0.2418999 -0.7415934 -1.1406809 -0.46191934 -0.33567902 -0.120569296
0.585417 -0.14462782 -0.30325288 -0.22297059 0.15516381 -0.6382541 -0.042328075 0.08717174
0.095828384 -0.52580327 -0.083846465 -0.05306259 0.063936904 -0.21806574 0.26584613 0.13703327
0.4787671 -1.6771581 0.67965794 1.3361107 -0.4547641 0.5387302 -1.3927783 0.55990916
-0.14021802 -0.13127652 -0.21961446 0.15918238 0.13575388 0.093359515 -0.02669542 0.1627632
-0.081154376 0.04009097 -0.13042808 -0.27204636 0.14730194 0.030662037 0.389159 0.12816116
0.055828013 1.4144603 0.23617508 -0.30056453 0.80409896 -1.023525 1.243601 0.008798079
-0.69233507 -0.053598236 -0.16150823 0.42218527 -0.1638602 0.22267973 -0.38093942 0.46619007
0.2968124 -0.37292373 -0.036338795 0.33723703 0.2801435 -0.08805196 -0.11908198 0.42256585
0.10433453 -0.07883478 0.16064645 -0.5177462 0.49695867 -1.3931189 0.17654349 -0.4751744
00000000: f74f 883c d1e4 b5bd 8922 0a3f 7db0 ba3d
00000010: 4f3c 8c3f 503b 05c0 f2aa 363f 35fc 733f
00000020: 27c6 c2bf 9d5c 5f40 a68f 14bf d46f f0be
00000030: 2bd6 00bf 6a8a f1be 657d 13bf 84e1 e8be
00000040: 6cc4 053d 89a9 88bf 89b9 99bf b8dd 733d
00000050: fe92 e9bd 7c21 b53f d9e1 82bf 705d fabd
00000060: 175f 723f e380 23bf bc8e debe f876 00be
00000070: 6c70 593c f09a 89bc 5792 10bf 3722 883e
00000080: 4469 b4be 0359 db3e 7051 773e cbfe b13e
00000090: d2ca b7bd 761c ebbd db91 a03d 9771 94bf
000000a0: 9756 bfbe 8c93 35be 0b6b 423e be2b f9be
000000b0: b86d 1a3e 8634 53be 050b ebbe b755 4abf
000000c0: 37ee e7be f23a 883d 307a 883f 97e4 12be
000000d0: e23a d03e 8f95 19be af31 f93e c581 51be
000000e0: e9ca e13e 3a68 43bf 39c7 b8bf 4d06 cd3f
000000f0: b336 4e3f 9315 f3be d648 87be 1f2e 19c0
00000100: 5266 12bf 4367 533f 50ae a5bf cc12 6b3d
00000110: 5ae6 9dbd 6c86 9e3f 31c2 4440 ed7d 0740
00000120: c1c8 98bf 3236 2ac0 3442 713e 1247 6d3f
00000130: b5a8 0ac0 6a9c 853f 77e4 f7be 2fad df3e
00000140: 3005 e9be cd34 53be 1f19 9bbd 7083 11bf
00000150: 6df6 6dbe b5d0 08bf ed25 cfbf 9ddd d1bf
00000160: 0212 793f 8258 a9bc e1bc 813f 99a7 29be
00000170: cead ad3e 4b1b 72bf 87fa 20be 2468 be3f
00000180: 9a50 a2bf 6386 7abc 937e 0440 7495 07be
00000190: 2f1a b93e 1ee5 1fbf 3851 9ebf bac3 10bf
000001a0: 24b2 17bf f4b7 08bd b7d4 67be 7ba5 1f3d
000001b0: 8bb8 953e 3e85 d0bd dd67 ddbe fb8b e23e
000001c0: 5f95 54bf 2cc0 35bf 2982 5a3e fa7e 503e
000001d0: b5ea 053f 220f 24bf 0547 0e3f 2beb dfbe
000001e0: 7189 25bd ce52 21bf 9c20 923d 8e54 09bf
000001f0: a19c 203f 2643 553c d879 80be 6474 a63e
00000200: 0df7 413e fb4d c03e 240e abbf 02e9 44bf
00000210: c663 2f3f 3585 8cbd b6a6 a63e 840f 623f
00000220: 35e9 893f 0e8b ee3e 024c 1f3f 439d de3f
00000230: e5aa fdbd eede 163f 269b 8dbe c033 433d
00000240: 7247 893e 2461 5dbd cb78 b03e cab7 373e
00000250: 2aec 163f 78a8 3fbf ffeb ad3e 24aa 7dbf
00000260: 2512 05bf d8bb 833e e222 8ebf cb68 ec3e
00000270: e199 e2be d531 443e 318f 8abc ab21 f8bd
00000280: 0d37 b03d ebf7 6c3e 5983 b83f c15e 3c3f
00000290: 64d3 28bf 6f82 0ebf fc6c 403f 66b0 25bf
000002a0: 6d24 893e d695 f33e 5fb4 2e3f 54d5 0ac0
000002b0: 3331 9fbd d07d fa3e e6a7 263f 8c82 6bbf
000002c0: 11f6 60bf 2126 8e3e 9bb4 773e 11d9 3dbf
000002d0: d501 92bf b180 ecbe 1fde abbe 09ed f6bd
000002e0: e3dd 153f 5119 14be f643 9bbe 6752 64be
000002f0: 43e3 1e3e 9f64 23bf 3460 2dbd 1987 b23d
00000300: ac41 c43d 0b9b 06bf b2b7 abbd 2958 59bd
00000310: 5af1 823d a04c 5fbe fc1c 883e 7352 0c3e
00000320: f620 f53e 1ead d6bf 10fe 2d3f ad05 ab3f
00000330: d7d6 e8be 39ea 093f 8f46 b2bf 3556 0f3f
00000340: 5095 0fbe 5a6d 06be 9de2 60be b500 233e
00000350: 1103 0b3e 4633 bf3d 5ab0 dabc 65ab 263e
00000360: 4434 a6bd 6e36 243d f08e 05be a949 8bbe
00000370: 52d6 163e f42e fb3c d93f c73e ae3c 033e
00000380: eaab 643d 090d b53f e1d7 713e 98e3 99be
00000390: 6ed9 4d3f de02 83bf 512e 9f3f d125 103c
000003a0: df3c 31bf d389 5bbd 6a62 25be ab28 d83e
000003b0: f8ca 27be 2806 643e 7e0a c3be 77b0 ee3e
000003c0: cbf7 973e dcef bebe fdd7 14bd 55aa ac3e
000003d0: f86e 8f3e 9654 b4bd 41e1 f3bd 8d5a d83e
000003e0: 58ad d53d 2174 a1bd 8180 243e 048b 04bf
000003f0: 5e71 fe3e b851 b2bf d1c7 343e 0f4a f3be

mlp1.0.bias f4 [150]
0.21296999 -1.0404197 0.34700125 -0.118233964 -0.2463294 -1.3691387 0.27733907 -0.02508105
0.4002243 0.71654314 -0.60549086 0.80625385 0.23708127 0.90267944 -0.34658325 0.27659672
-0.10926958 0.49226138 0.56333417 0.10121737 0.051636625 0.14822097 0.0030767769 0.45760447
-0.30239695 0.2951622 -0.16902417 0.10248742 -0.111777596 0.053608898 0.656818 0.7893559
-0.50189626 -0.25378197 0.5559889 -0.29750696 -0.0707346 -0.24143532 -0.65510285 -0.042199913
-0.6937404 0.56260633 0.07899741 0.43322757 0.08197116 -0.39452255 -0.05784896 0.17428832
-0.5020978 -0.6437283 0.465924 -0.011660901 -1.2529411 0.3749302 0.21796629 -0.3533099
1.1252847 -1.9927453 -0.03864892 -0.19975358 0.6923859 0.29694787 -1.070047 0.53125876
-0.15132102 -0.40227103 -1.1474882 0.56202674 -0.98106045 0.05906371 0.25890714 0.2339899
-0.5598346 -0.22867803 0.07136043 0.34739104 0.018771203 -0.080279425 -1.6323164 0.39786243
-0.9132014 0.003948838 0.13893144 -0.13571328 0.103730015 0.56638044 0.15167539 -0.73570687
-0.11073538 -0.09060875 0.10429163 -0.90886563 -0.3330038 -0.00840817 -0.31740358 -0.25825655
-0.063233085 0.41730124 -0.0012420801 -0.23387784 0.64889014 -0.4454976 -0.91765046 -0.572965
-0.12661187 -0.25810787 0.3151615 -0.43286085 -0.25569317 0.25512955 -0.20596777 0.1559043
-0.09773237 -0.036975596 0.6956978 0.292981 0.7892497 -1.7019234 -0.24882364 -0.35278183
0.5196524 -0.38823175 -1.6517074 0.35046473 0.05624509 -0.29227915 -0.1418654 -0.9462178
-0.20103575 0.103184246 -0.24721518 0.79256874 -0.072929695 0.050765976 1.1999748 -0.66573477
-0.61061203 0.4011945 -1.2905427 -0.54459184 0.97335374 0.23811124 0.55807406 -0.4688399
-0.4604372 -1.1655194 -0.60583645 0.13851313 0.022035353 0.9920062
00000000: ce14 5a3e 792c 85bf 26aa b13e a624 f2bd
00000010: c63d 7cbe f03f afbf 63ff 8d3e c676 cdbc
00000020: 33ea cc3e 5f6f 373f 7301 1bbf a766 4e3f
00000030: 6fc5 723e 0016 673f 5c73 b1be 169e 8d3e
00000040: bbc8 dfbd af09 fc3e ab36 103f 0d4b cf3d
00000050: ed80 533d 3dc7 173e c0a3 493b 224b ea3e
00000060: c6d3 9abe 801f 973e ac14 2dbe ede4 d13d
00000070: a7eb e4bd 0195 5b3d 3925 283f 3a13 4a3f
00000080: 467c 00bf b6ef 81be 4a55 0e3f d552 98be
00000090: 4ddd 90bd d23a 77be d2b4 27bf d1d9 2cbd
000000a0: f998 31bf f806 103f 65c9 a13d 01d0 dd3e
000000b0: 7fe0 a73d dcfe c9be 08f3 6cbd a378 323e
000000c0: 7b89 00bf 61cb 24bf 978d ee3e 5d0d 3fbc
000000d0: 6060 a0bf daf6 bf3e 8e32 5f3e 09e5 b4be
000000e0: 5409 903f 4712 ffbf 544e 1ebd 348c 4cbe
000000f0: 3440 313f 8d09 983e 4df7 88bf 9300 083f
00000100: e6f3 1abe 78f6 cdbe e5e0 92bf fce0 0f3f
00000110: c726 7bbf caec 713d 7a8f 843e 0c9b 6f3e
00000120: 5251 0fbf 932a 6abe 6b25 923d 3ddd b13e
00000130: 11c6 993c 8a69 a4bd beef d0bf a0b4 cb3e
00000140: 91c7 69bf 4165 813b 0b44 0e3e 6cf8 0abe
00000150: 6770 d43d 4ffe 103f cb50 1b3e 4957 3cbf
00000160: 3bc9 e2bd 1591 b9bd da96 d53d 6bab 68bf
00000170: 797f aabe 6cc2 09bc b982 a2be 343a 84be
00000180: 5980 81bd 82a8 d53e 4bcd a2ba ac7d 6fbe
00000190: aa1d 263f 4318 e4be 24eb 6abf d6ad 12bf
000001a0: 8ba6 01be b726 84be d95c a13e f09f ddbe
000001b0: 37ea 82be 57a0 823e 37e9 52be 60a5 1f3e
000001c0: e927 c8bd b973 17bd 4019 323f 9b01 963e
000001d0: 450c 4a3f a0d8 d9bf a0cb 7ebe d29f b4be
000001e0: f107 053f 50c6 c6be 266b d3bf 1d70 b33e
000001f0: 4061 663d 9da5 95be 2a45 11be 543b 72bf
00000200: 51dc 4dbe 4352 d33d fa25 7dbe c9e5 4a3f
00000210: 2a5c 95bd fcef 4f3d c698 993f 986d 2abf
00000220: 1251 1cbf 5e69 cd3e 8130 a5bf 5f6a 0bbf
00000230: b62d 793f 6fd3 733e f1dd 0e3f c90b f0be
00000240: 6dbe ebbe bd2f 95bf 1918 1bbf 63d6 0d3e
00000250: 7c83 b43c 1ef4 7d3f

mlp1.2.weight f4 [100, 150]
-0.6623941 -0.15769736 0.05348709 -0.20143232 0.418568 0.14275458 -0.13943915 -0.12832394
-0.0024898644 0.06765474 -0.03558933 0.12772733 -0.14289124 -0.04704499 -0.014455577 0.12452087
0.05186798 0.02014856 0.01870335 -0.06073165 0.24011552 0.4773202 -0.28220153 0.0068610203
0.114855245 -0.07366687 -0.11368153 0.09409224 0.299645 -0.13240354 -0.28967422 -0.20466527
0.13896143 0.06853876 0.020117808 -0.02539159 0.024224969 -0.12105494 -0.11386282 0.030482896
-0.0021899426 -0.22014268 0.07804137 -0.1943884 -0.0506248 0.5130343 -0.0661596 -0.28063646
0.013367453 0.22297336 -0.2788299 -0.06823463 -0.28643745 0.36713463 0.010156307 -0.32658267
-0.2537729 -0.18090236 -0.031714275 -0.27459037 0.28119546 0.07991567 0.33898827 -0.13828428
0.059849072 0.36324945 -0.23131439 0.39665118 0.1435665 -0.13927592 0.19556694 0.53526473
-0.7032405 -0.22548327 -0.06855892 -0.081260264 -0.20581426 -0.16475125 -0.64846843 -0.08029681
-0.008734593 0.0117756035 -0.12537539 -0.08713437 0.014557792 0.113890134 -0.1223781 -0.03961012
0.41611457 0.2777267 -0.07975302 -0.27621973 0.6741584 0.09220964 0.032956373 -0.5342912
-0.18403326 -0.077752344 -0.031339396 0.07305543 0.16927287 -0.13794646 -0.06398825 0.3154635
-0.13982828 -0.060257502 -0.011499734 -0.010178014 -0.13442752 0.030322138 -0.03240245 0.0072850906
-0.045276474 0.0019075959 -0.0871449 -0.09859793 -0.088385604 -0.12896085 0.12030863 0.20909902
0.13938488 -0.03969436 -0.2424866 -0.19985999 0.22967622 -0.12673709 -0.13692494 -0.10897142
-0.078967206 0.10582945 0.039457195 -0.64137745 0.045575604 -0.13511169 -0.027123291 -0.22153279
-0.07589601 -0.037755974 -0.46742597 -0.18302594 -0.10223753 -0.14470018 0.008313782 -0.06822618
-0.19924039 0.28213486 -0.1767995 -0.07302503 0.044266444 0.120654576 -0.0039222473 0.16898827
0.024951477 -0.24379201 -0.24981979 -0.20352718 0.14300905 -0.2670679 -0.023970922 -0.16511634
0.1589845 0.07548156 -0.270085 -0.2733234 -0.0170342 -0.18482785 -0.06520656 -0.15584631
-0.06765219 0.16716836 0.3654197 0.030619238 -0.41099492 -0.08009518 0.04291912 -0.16808355
-0.21667066 -0.10162336 -0.12704682 -0.08452258 -0.21544099 -0.23713104 0.14082581 0.047940925
-0.06600783 0.054921135 -0.059720866 0.051848114 0.43386805 -0.06842869 -0.1471908 0.1574757
-0.10795742 -0.20231365 -0.07892529 -0.17063172 -0.038597032 0.51284796 -0.06939821 0.21488191
-0.5055643 -0.13626023 0.13154082 -0.25284046 -0.08497714 -0.12646139 0.024003498 0.20927137
0.09406446 -0.092753254 0.21712157 -0.16842662 -0.493189 -0.026753262 -0.016779229 -0.6553634
-0.18960956 -0.0871558 -0.017622191 -0.012584642 -0.12568495 -0.03830239 0.59285986 -0.16760747
-0.0743844 -0.22037816 0.035449978 -0.038611542 -0.30851278 -0.029125934 0.20531006 -0.10976393
0.098441295 0.17437907 -0.032019157 -0.25908023 -0.27541956 0.10801953 -0.63311493 -0.13116963
-0.11333355 -0.24419795 0.004136219 -0.353322 0.24948217 -0.24261099 -0.51352364 -0.075893745
-0.19847916 0.07364077 -0.11928128 -0.018043721 -0.25771114 -0.03420167 -0.09876685 -0.015990434
00000000: a992 29bf 6b7b 21be 4715 5b3d 4644 4ebe
00000010: 8b4e d63e 422e 123e 23c9 0ebe 5a67 03be
00000020: fe2c 23bb 918e 8a3d 1ec6 11bd f4ca 023e
00000030: 1552 12be 3fb2 40bd 16d7 6cbc cc04 ff3d
00000040: 8573 543d 980e a53c c537 993c c0c1 78bd
00000050: d8e0 753e 5063 f43e b87c 90be 69d2 e03b
00000060: 3a39 eb3d a8de 96bd ddd1 e8bd 6fb3 c03d
00000070: 126b 993e cb94 07be 2e50 94be c693 51be
00000080: e84b 0e3e 0d5e 8c3d 1ace a43c 0602 d0bc
00000090: 7173 c63c a7eb f7bd e930 e9bd 44b7 f93c
000000a0: 2485 0fbb 156d 61be 27d4 9f3d c10d 47be
000000b0: f35b 4fbd 3756 033f af7e 87bd 95af 8fbe
000000c0: 2903 5b3c 2153 643e cbc2 8ebe 99be 8bbd
000000d0: eea7 92be 12f9 bb3e a466 263c d835 a7be
000000e0: 86ee 81be 783e 39be d4e6 01bd 1c97 8cbe
000000f0: daf8 8f3e d4aa a33d df8f ad3e 659a 0dbe
00000100: 4d24 753d d5fb b93e aedd 6cbe dd15 cb3e
00000110: 1903 133e 599e 0ebe b342 483e 1c07 093f
00000120: 9207 34bf 16e5 66be 9e68 8cbd c86b a6bd
00000130: f9c0 52be 8db4 28be 0702 26bf a772 a4bd
00000140: 8a1b 0fbc 76ee 403c 6862 00be 8173 b2bd
00000150: ce83 6e3c 3b3f e93d 5fa1 fabd 393e 22bd
00000160: f80c d53e 3232 8e3e 8d55 a3bd ac6c 8dbe
00000170: a595 2c3f 68d8 bc3d 43fd 063d 4fc7 08bf
00000180: 3773 3cbe 9f3c 9fbd bd5d 00bd 169e 953d
00000190: de55 2d3e d641 0dbe 460c 83bd 6f84 a13e
000001a0: 252f 0fbe 92d0 76bd 6169 3cbc afc1 26bc
000001b0: 5ea7 09be 2266 f83c 6eb8 04bd c5b7 ee3b
000001c0: d373 39bd 4c08 fa3a 0679 b2bd b6ed c9bd
000001d0: 8303 b5bd 500e 04be 5f64 f63d 0e1e 563e
000001e0: e9ba 0e3e 8e96 22bd 684e 78be 19a8 4cbe
000001f0: 3e30 6b3e 5ec7 01be 0d36 0cbe 682c dfbd
00000200: 8fb9 a1bd 1cbd d83d de9d 213d 5031 24bf
00000210: 7cad 3a3d b85a 0abe aa31 debc 7ed9 62be
00000220: 5e6f 9bbd 02a6 1abd 7552 efbe 276b 3bbe
00000230: e961 d1bd 492c 14be 8736 083c 2bba 8bbd
00000240: ac05 4cbe fb73 903e ee0a 35be 268e 95bd
00000250: bb50 353d bf19 f73d 3286 80bb 430b 2d3e
00000260: 0a67 cc3c 9da4 79be c2d0 7fbe 6e69 50be
00000270: f770 123e 20bd 88be ab5e c4bc 4214 29be
00000280: d5cc 223e 1396 9a3d 9548 8abe 0bf1 8bbe
00000290: 4e8b 8bbc 8343 3dbe 048b 85bd 2d96 1fbe
000002a0: 3b8d 8abd 2f2e 2b3e 4a18 bb3e 32d5 fa3c
000002b0: ed6d d2be f108 a4bd f6cb 2f3d 181e 2cbe
000002c0: eade 5dbe e81f d0bd 9018 02be 2d1a adbd
000002d0: 909c 5cbe 7bd2 72be a434 103e b45d 443d
000002e0: 1d2f 87bd fcf4 603d de9d 74bd b05e 543d
000002f0: f423 de3e 5724 8cbd 2fb9 16be 4f41 213e
00000300: c818 ddbd 4f2b 4fbe 95a3 a1bd 15ba 2ebe
00000310: ec17 1ebd 014a 033f a620 8ebd 010a 5c3e
00000320: a96c 01bf cd87 0bbe a3b2 063e 4e74 81be
00000330: 7f08 aebd 187f 01be fca2 c43c 3c4b 563e
00000340: dea4 c03d 6bf5 bdbd 1e55 5e3e 0778 2cbe
00000350: 4583 fcbe a829 dbbc 9874 89bc e5c5 27bf
00000360: 0229 42be bd7e b2bd 6a5c 90bc d02f 4ebc
00000370: 8eb3 00be f8e2 1cbd aac5 173f 4ba1 2bbe
00000380: d956 98bd d0aa 61be ff33 113d 2327 1ebd
00000390: 63f5 9dbe 8399 eebc cd3c 523e e9cb e0bd
000003a0: 979b c93d 6d90 323e 8526 03bd 2aa6 84be
000003b0: cb03 8dbe 5839 dd3d d213 22bf 5551 06be
000003c0: 6c1b e8bd 070f 7abe 1f89 873b 9fe6 b4be
000003d0: 4178 7f3e 046f 78be 4976 03bf 2e6e 9bbd
000003e0: 1f3e 4bbe f9d0 963d be49 f4bd 6dd0 93bc
000003f0: b7f2 83be 0d17 0cbd 4646 cabd 5ffe 82bc

mlp1.2.bias f4 [100]
-0.054123316 -0.62602955 -0.23308572 0.071646355 0.54045373 0.5744194 -0.026063358 -0.8499358
0.7431411 -0.29625434 0.021008117 0.07203639 -0.17172894 0.2199794 0.25999835 -0.41288954
0.07303525 0.23739854 -0.1253638 -1.011705 -0.01059909 -0.38559946 0.28842774 -0.5436123
-1.7158625 -0.14758459 -0.14985014 -1.8055729 0.16649322 -0.21713214 -0.082504064 0.045853466
-0.53441304 -0.48375234 0.5844213 -1.1835984 0.3344334 -0.553878 -0.6591536 0.28124145
-1.4826338 -0.11801738 1.0625046 0.15884408 -0.2726684 0.01837275 -0.43591273 -0.5274195
-0.2837362 -0.062497906 -0.24875103 -0.23249848 -0.88600194 -0.4802069 -0.79873365 -0.19815156
0.37915462 -0.06270493 -0.2060685 -0.27009606 0.46681538 0.28870645 0.25927192 -0.2500889
-0.0101669105 0.06655876 -0.025271634 0.44655725 0.2615948 0.41231647 0.3489987 -0.5815038
-0.24370162 -0.21937686 -0.1650812 -1.5876709 -0.25590736 -0.7013574 -1.4375832 -0.34819555
0.6001874 -0.40595517 0.8101278 -0.5388183 1.1437129 -1.4562484 -0.29040703 -0.57841873
-0.7798861 -0.16703624 -0.18454492 0.16082464 -0.1755691 -0.2000644 0.2041057 -0.012385961
-0.24681205 -1.5794538 -1.1843134 0.46485314
00000000: 69b0 5dbd 7943 20bf 06ae 6ebe 53bb 923d
00000010: 2d5b 0a3f 260d 133f d382 d5bc 6595 59bf
00000020: 7f3e 3e3f a6ae 97be 3719 ac3c d187 933d
00000030: b6d9 2fbe 4842 613e 811e 853e 4266 d3be
00000040: 8193 953d 9a18 733e 5e5f 00be 8d7f 81bf
00000050: cea7 2dbc 4b6d c5be cdac 933e 2d2a 0bbf
00000060: 62a1 dbbf 6a20 17be 5172 19be 031d e7bf
00000070: 337d 2a3e e357 5ebe e4f7 a8bd d8d0 3b3d
00000080: 4bcf 08bf 63ae f7be a29c 153f 2780 97bf
00000090: db3a ab3e f3ca 0dbf 4abe 28bf e1fe 8f3e
000000a0: f2c6 bdbf 19b3 f1bd 2700 883f 06a8 223e
000000b0: 319b 8bbe 7382 963c f42f dfbe f704 07bf
000000c0: df45 91be cefd 7fbd 97b8 7ebe 1514 6ebe
000000d0: 06d1 62bf aedd f5be cf79 4cbf 3ee8 4abe
000000e0: 8e20 c23e 716b 80bd 9f03 53be 084a 8abe
000000f0: 6d02 ef3e 55d1 933e 4abf 843e a70b 80be
00000100: 1d93 26bc f64f 883d 7506 cfbc 27a3 e43e
00000110: c1ef 853e 251b d33e f5af b23e 6fdd 14bf
00000120: eb8c 79be 54a4 60be 0c0b 29be cd38 cbbf
00000130: 4a06 83be 298c 33bf ba02 b8bf b046 b2be
00000140: e2a5 193f 5bd9 cfbe 8964 4f3f ffef 09bf
00000150: 2f65 923f 5966 babf 3bb0 94be 4013 14bf
00000160: 9ea6 47bf 8c0b 2bbe 58f9 3cbe 37af 243e
00000170: 63c8 33be afdd 4cbe 1601 513e 7cee 4abc
00000180: 4cbc 7cbe 8b2b cabf 9597 97bf 3b01 ee3e

mlp2.0.weight f4 [100, 100]
0.23297192 -0.021092521 -0.29511017 -0.06917615 0.4631563 -0.08654549 -0.15400326 -0.11648779
-0.11902754 0.44071692 -0.09619373 -0.18004782 -0.3714593 -0.13558193 -0.049379453 0.010368505
0.011752457 0.010124623 -0.09799285 0.13268156 -0.34903428 0.118934564 -0.09308201 -0.07412401
-0.3830807 -0.12481197 0.0485348 0.20702544 -0.22638649 0.18344972 -0.11917027 -0.07092431
0.22279254 -0.20485814 -0.16767474 -0.18104324 -0.25746483 -0.06777376 0.11818519 -0.36551026
-0.2392706 -0.1316579 -0.12288918 -0.110703215 0.017168999 -0.005320864 -0.12444388 -0.22556295
-0.3986179 -0.1490052 -0.09609312 0.12988803 -0.16275534 -0.29575285 -0.14642371 -0.16721015
0.27735212 0.08837944 0.13015936 -0.03043234 0.029425602 0.0031150044 -0.13240063 0.48939952
-0.025099188 0.038168572 -0.060096562 -0.2850191 -0.07475925 0.03832733 -0.18317245 -0.12645812
-0.11609068 -0.05775628 -0.103977315 -0.015890855 -0.008278021 -0.22678074 -0.4032376 -0.22537111
-0.036500234 0.10633537 0.22027925 -0.37249666 0.14782454 -0.26128972 0.17308399 0.15528853
-0.31417936 0.26089603 -0.11258643 -0.43612543 -0.26961774 0.014424241 -0.2807277 0.15482347
0.06471075 0.38746753 -0.020335654 -0.13323827 0.0043506236 -0.023159198 0.35757223 -0.034144446
0.087720715 -0.15528595 -0.09151993 -0.1877502 0.3676471 -0.21011315 0.37776923 -0.034762364
-0.17278251 -0.2606002 0.17716362 -0.040974975 -0.011427413 -0.11355957 -0.00805897 -0.68493444
0.026194498 -0.017435625 -0.10177723 -0.11847636 -0.3542007 -0.19506401 0.24323013 -0.12454345
0.20734757 -0.2156421 -0.123301044 0.000502354 -0.31607887 -0.19646816 0.094326645 0.18416569
0.32095343 0.12024814 -0.116521545 -0.11607775 -0.15688576 0.0109972125 0.30917233 0.1836471
-0.18323626 0.034306966 0.048225667 0.1479587 -0.038086332 0.07932389 0.16839069 -0.30740452
0.18738881 -0.40088835 -0.3293593 -0.053016517 0.14333299 -0.10557286 -0.23799767 -0.045579057
-0.13591626 0.35068867 0.23402773 -0.09244307 0.2949484 0.27385655 0.17089841 0.25177974
-0.20279287 0.046771966 -0.37943316 0.016761791 -0.22035171 0.079915434 0.06515432 -0.018553685
0.006845893 -0.20493408 -0.25063246 -0.31269494 0.21576548 -0.1689142 0.2414573 -0.25093564
-0.1343532 -0.18458875 -0.28883442 -0.32674977 0.10457183 0.287092 0.11561839 -0.0026627635
0.1015773 -0.26829022 -0.2587387 0.05572826 -0.025796546 -0.5201577 -0.30090982 -0.006996957
-0.16212107 -0.083569996 -0.42257988 -0.12302679 0.20566358 0.24624872 -0.27549595 0.16925962
-0.076003745 -0.24979658 0.2681318 -0.05415793 0.24541931 0.12670459 -0.15864742 -0.37649015
0.111195765 -0.331199 -0.29468513 -0.51813537 -0.08166634 -0.28665602 -0.28343976 -0.23238571
-0.5201689 -0.15641388 -0.3888617 0.14927918 -0.11313085 0.09566638 0.4968858 -0.26467228
0.6578791 0.35402206 -0.15415484 -0.49808282 -0.046232052 0.39501417 -0.5205955 0.14600195
-0.12531202 -0.21151447 0.22101209 -0.3582494 -0.385527 -0.29794553 -0.05485272 -0.07715735
-0.54528266 -0.099223554 -0.05400636 -0.14476661 -0.38490066 0.14670944 -0.523938 0.53329724
00000000: 3190 6e3e 39ca acbc ae18 97be 3aac 8dbd
00000010: d322 ed3e c33e b1bd 08b3 1dbe 2791 eebd
00000020: b6c4 f3bd a6a5 e13e 3801 c5bd 755e 38be
00000030: ea2f bebe fdd5 0abe 1c42 4abd a9e0 293c
00000040: 618d 403c bfe1 253c 7ab0 c8bd addd 073e
00000050: 9fb4 b2be f793 f33d c8a1 bebd 54ce 97bd
00000060: 2723 c4be 6b9d ffbd 6dcc 463d 7afe 533e
00000070: dcd1 67be 3eda 3b3e 8b0f f4bd c440 91bd
00000080: ba23 643e 55c6 51be edb2 2bbe 6663 39be
00000090: 6ed2 83be f8cc 8abd 140b f23d 2924 bbbe
000000a0: 5a03 75be 54d1 06be 53ad fbbd 5eb8 e2bd
000000b0: 00a6 8c3c a45a aebb 6fdc febd f9f9 66be
000000c0: a517 ccbe d294 18be 78cc c4bd 5e01 053e
000000d0: 56a9 26be eb6c 97be 19f0 15be 2339 2bbe
000000e0: 1901 8e3e 4800 b53d 7f48 053e 3e4d f9bc
000000f0: f60d f13c 1a25 4c3b 0894 07be 9392 fa3e
00000100: d09c cdbc a656 1c3d d027 76bd 06ee 91be
00000110: 611b 99bd 1efd 1c3d 8f91 3bbe 3d7e 01be
00000120: f3c0 edbd d991 6cbd 0ff2 d4bd 8a2d 82bc
00000130: 89a0 07bc 3639 68be 2975 cebe afc7 66be
00000140: 4581 15bd 5cc6 d93d e290 613e e2b7 bebe
00000150: 515f 173e c4c7 85be ee3c 313e f503 1f3e
00000160: 1edc a0be 2a94 853e b793 e6bd d54b dfbe
00000170: 560b 8abe a753 6c3c 8bbb 8fbe 0b8a 1e3e
00000180: 1287 843d 2562 c63e f596 a6bc 9d6f 08be
00000190: ad8f 8e3b 5cb8 bdbc b513 b73e 0cdb 0bbd
000001a0: eba6 b33d 4803 1fbe cd6e bbbd 9741 40be
000001b0: 3e3c bc3e e727 57be f86a c13e fb62 0ebd
000001c0: e6ed 30be 646d 85be 616a 353e 60d5 27bd
000001d0: 0b3a 3bbc eb91 e8bd c509 04bc dd57 2fbf
000001e0: d895 d63c 28d5 8ebc 9570 d0bd bca3 f2bd
000001f0: cb59 b5be dcbe 47be 5211 793e a310 ffbd
00000200: ec52 543e 48d1 5cbe 4285 fcbd 68b0 033a
00000210: 17d5 a1be f32e 49be 542e c13d ee95 3c3e
00000220: 0254 a43e a844 f63d d9a2 eebd 2cba edbd
00000230: a9a6 20be a72d 343c d64b 9e3e fc0d 3c3e
00000240: 49a2 3bbe 7685 0c3d 4788 453d 7c82 173e
00000250: 6a00 1cbd 9074 a23d 9c6e 2c3e 2064 9dbe
00000260: dae2 3f3e 3d41 cdbe c8a1 a8be d927 59bd
00000270: e2c5 123e 9536 d8bd a9b5 73be 1bb1 3abd
00000280: a22d 0bbe 778d b33e f7a4 6f3e cb52 bdbd
00000290: 7a03 973e ed36 8c3e feff 2e3e 46e9 803e
000002a0: efa8 4fbe f693 3f3d 1045 c2be 0650 893c
000002b0: e1a3 61be b4aa a33d a16f 853d e6fd 97bc
000002c0: 8353 e03b 3dda 51be e652 80be 8d19 a0be
000002d0: a0f1 5c3e d8f7 2cbe 9540 773e a37a 80be
000002e0: e393 09be d504 3dbe 1be2 93be bf4b a7be
000002f0: c129 d63d b9fd 923e 56c9 ec3d c281 2ebb
00000300: c207 d03d 565d 89be 6679 84be 5143 643d
00000310: 4753 d3bc 0e29 05bf da10 9abe bb46 e5bb
00000320: 1103 26be bf26 abbd 645c d8be 78f5 fbbd
00000330: 7999 523e a028 7c3e ce0d 8dbe 6552 2d3e
00000340: daa7 9bbd adca 7fbe 9248 893e b5d4 5dbd
00000350: 334f 7b3e d9be 013e 7874 22be 51c3 c0be
00000360: 9bba e33d ea92 a9be f8e0 96be 85a4 04bf
00000370: af40 a7bd 94c4 92be 041f 91be 85f6 6dbe
00000380: ca29 05bf f62a 20be e118 c7be a4dc 183e
00000390: 26b1 e7bd bcec c33d d167 fe3e 2083 87be
000003a0: c46a 283f 6142 b53e c4da 1dbe b604 ffbe
000003b0: d25d 3dbd 4c3f ca3e bf45 05bf 8981 153e
000003c0: cb51 00be 4097 58be fe50 623e 776c b7be
000003d0: cc63 c5be 518c 98be 3fad 60bd ac04 9ebd
000003e0: a597 0bbf b835 cbbd c635 5dbd b33d 14be
000003f0: b311 c5be 003b 163e cd20 06bf 2b86 083f

mlp2.0.bias f4 [100]
-0.3592639 0.2080806 0.54088163 -0.2829513 0.26627082 -0.09959372 -0.057101153 0.24201314
-0.2881627 -0.37855756 0.020253066 0.90163374 0.4495355 -0.51867115 0.14838883 -0.114337064
0.56661797 -0.1664 1.0149502 -0.25177383 0.034681775 0.3325518 -0.1749132 -0.12822412
0.70863146 0.33566597 0.7073863 0.56398237 0.60161734 2.458238 -0.40026158 0.059708685
0.72102535 -0.34554562 -0.05853858 -0.0019844798 0.05865846 0.056561954 -0.11888363 0.7695824
0.06567409 2.1373465 0.09404412 -0.09432941 -0.3539452 -0.03285541 -0.5957342 0.14864177
0.66184205 -0.5664345 -0.06521456 -0.23559113 -0.12747002 0.8006703 -0.21504456 -0.09344136
-0.13418666 -0.21098547 -0.18492356 1.1568245 -0.78208613 -0.0430693 0.06510348 -0.35295704
-0.34998116 -0.19191325 0.039856393 0.12755363 -0.11627322 0.12481692 0.6959119 1.2007476
-0.06786243 -0.13215758 0.36879003 0.034177307 0.074907124 0.4549338 0.098737694 -0.1658385
-0.25747824 0.17959964 -0.0147059485 0.02696994 1.4748625 0.08166282 -0.20523347 0.08049079
0.08533173 -0.31257692 -0.20261425 0.5586916 -0.44847253 -0.21257761 0.24551405 0.8850661
2.7520537 0.051916804 -0.39774185 -0.38686883
00000000: 70f1 b7be 1513 553e 3877 0a3f fede 90be
00000010: a654 883e cbf7 cbbd e6e2 69bd 4bd2 773e
00000020: 108a 93be 4cd2 c1be c2e9 a53c 78d1 663f
00000030: 8429 e63e a2c7 04bf 3ef3 173e 8d29 eabd
00000040: e00d 113f c364 2abe e3e9 813f 80e8 80be
00000050: 7a0e 0e3d 3b44 aa3e 721c 33be 2f4d 03be
00000060: df68 353f 69dc ab3e 4517 353f 2661 103f
00000070: 9803 1a3f c553 1d40 16ef ccbe 1891 743d
00000080: 1e95 383f 5beb b0be 26c6 6fbd 0c0e 02bb
00000090: da43 703d 82ad 673d 4379 f3bd 5a03 453f
000000a0: 2380 863d 49ca 0840 349a c03d c72f c1bd
000000b0: 4e38 b5be 6593 06bd 0982 18bf 8c35 183e
000000c0: 7b6e 293f da01 11bf 368f 85bd cd3e 71be
000000d0: 8087 02be bbf8 4c3f a434 5cbe 2f5e bfbd
000000e0: 3a68 09be 930c 58be 9a5c 3dbe d312 943f
000000f0: cc36 48bf 6f69 30bd f954 853d c9b6 b4be
00000100: bb30 b3be e884 44be 7540 233d 6b9d 023e
00000110: a720 eebd 03a0 ff3d 4827 323f 19b2 993f
00000120: 75fb 8abd 5154 07be 0cd2 bc3e 81fd 0b3d
00000130: e868 993d 15ed e83e fd36 ca3d 91d1 29be
00000140: 30d4 83be f8e8 373e 38f1 70bc 10f0 dc3c
00000150: 4bc8 bc3f d63e a73d b928 52be 5bd8 a43d
00000160: 67c2 ae3d 150a a0be 1c7a 4fbe 6a06 0f3f
00000170: 319e e5be f2ad 59be 0968 7b3e b193 623f
00000180: a621 3040 b7a6 543d d2a4 cbbe ac13 c6be

mlp2.2.weight f4 [50, 100]
0.03844797 0.04102826 0.10358137 0.020261006 -0.20830478 0.18550497 0.14085025 0.0152972145
-0.12049438 0.070373684 -0.106236845 0.17937006 -0.20571057 0.15431003 0.15843473 0.19371851
0.17828569 -0.2714658 -0.30403498 -0.06133523 -0.30604225 -0.0072990316 -0.06397376 0.120515384
-0.3625638 0.20731471 -0.15984996 0.16582038 0.13930692 -0.012022946 -0.19595177 0.085463285
0.033497438 0.4103391 -0.29860952 0.33591446 0.053722914 -0.040460806 0.36287972 0.17725092
0.02500491 -0.13533176 -0.058207605 -0.07364233 -0.027339647 0.110679425 0.11646556 -0.0056488193
0.13809156 -0.007111936 -0.073758304 -0.2881035 -0.05842234 -0.13079563 0.03437345 0.16544992
0.07161584 0.097905755 -0.07491422 0.098566 0.2795835 0.008395638 -0.25445837 0.012342104
-0.2460041 -0.100259036 0.116546445 -0.07993547 0.0022679998 0.1018189 -0.022027107 0.17960207
0.024592174 0.16694689 -0.043623794 0.0073974603 0.12394595 -0.361993 0.24967764 -0.07373568
-0.16466625 0.07265124 0.30107334 0.122808605 -0.2256898 -0.007894988 -0.23955907 0.037429843
0.078544445 -0.2183237 0.07516825 -0.18025978 -0.22464304 0.22775169 -0.17934528 0.04812421
-0.12481285 0.1492847 0.12982523 0.10437095 0.15048935 0.071310684 -0.407248 0.07715013
-0.08114544 -0.1781185 0.37380672 0.1486167 -0.06346648 -0.049328934 0.11433705 -0.2958221
0.040151156 0.10933844 0.04064407 -0.089666836 -0.21546921 -0.14246817 -0.14778753 -0.1818385
0.13802391 0.27118573 -0.1785414 0.059075505 -0.29382333 0.17776896 -0.39951876 -0.1851425
0.14494792 -0.3421305 -0.36705345 0.47032595 -0.08056973 -0.12561218 -0.026977835 -0.32341227
0.24155013 0.4186014 0.08692111 0.04425137 0.033568792 -0.3333081 -0.097275645 0.12123801
-0.2514603 0.011336597 -0.32681388 -0.22349466 0.07602163 -0.091031715 -0.14455089 0.14258026
0.31910366 -0.3162251 -0.2784069 -0.017483538 0.15731251 0.05238237 -0.26114058 0.24748886
-0.15004057 -0.013006635 0.20109469 -0.030260919 0.030267123 0.30386832 0.15769799 -0.41718474
0.21407415 0.1341723 0.13846435 0.048457343 -0.055170547 0.34843102 0.012228268 0.0030018962
0.0852189 -0.09252107 -0.054521184 0.09721485 -0.15167299 0.19001411 -0.09982495 0.046961337
-0.37688065 -0.24824573 0.07264805 -0.12907028 -0.13179797 -0.009621953 0.23967512 0.11723887
0.11958071 -0.04514841 0.34390855 -0.19273219 -0.08161657 0.06966205 0.09253624 0.02535259
0.08773286 -0.3318775 0.0503858 -0.3484601 -0.27655 0.042075016 -0.13091789 -0.12245554
-0.28128505 0.2102264 0.09470482 -0.14370745 -0.04939582 -0.15974307 -0.080332 0.040816616
-0.09850041 -0.26145765 0.44910035 -0.21364129 0.10220641 0.19604841 -0.09919281 0.0015637936
0.6929099 -0.13536139 -0.05082921 0.17155904 -0.24114224 0.02726096 0.12218144 0.19717108
0.27978382 0.18015365 0.111955464 -0.0057348213 -0.1375624 0.15853253 0.07286189 -0.12362631
-0.2909561 0.277706 0.07083386 -0.11382946 -0.186947 0.2839764 -0.3239727 0.015991023
-0.16015674 0.4099232 0.1979216 0.04294475 -0.28167042 0.22305925 0.16402024 -0.32747102
00000000: 9e7b 1d3d 400d 283d 7822 d43d 69fa a53c
00000010: d94d 55be 04f5 3d3e 0c3b 103e 2ba1 7a3c
00000020: c2c5 f6bd 1420 903d b492 d9bd c9ac 373e
00000030: cba5 52be 7303 1e3e b73c 223e 255e 463e
00000040: 8690 363e 91fd 8abe 79aa 9bbe a63a 7bbd
00000050: 92b1 9cbe b72c efbb ad04 83bd c5d0 f63d
00000060: f6a1 b9be 4f4a 543e b5af 23be d1cc 293e
00000070: 79a6 0e3e e4fb 44bc 95a7 48be 6007 af3d
00000080: 9c34 093d f717 d23e 59e3 98be fbfc ab3e
00000090: 8f0c 5c3d 3bba 25bd 5fcb b93e 4481 353e
000000a0: 19d7 cc3c 6994 0abe 196b 6ebd cad1 96bd
000000b0: 65f7 dfbc e5ab e23d 7f85 ee3d bb19 b9bb
000000c0: e067 0d3e 3e0b e9bb 980e 97bd 4d82 93be
000000d0: 434c 6fbd 4aef 05be 2dcb 0c3d b46b 293e
000000e0: 53ab 923d d082 c83d a06c 99bd f9dc c93d
000000f0: 9225 8f3e dc8d 093c 5e48 82be 8936 4a3c
00000100: 80e8 7bbe 9c54 cdbd e7af ee3d 35b5 a3bd
00000110: b9a2 143b 6d86 d03d 3172 b4bc 9be9 373e
00000120: 8775 c93c 20f4 2a3e ddae 32bd 6566 f23b
00000130: 60d7 fd3d 2657 b9be 7fab 7f3e bb02 97bd
00000140: 459e 28be 2cca 943d 4926 9a3e 1483 fb3d
00000150: 3a1b 67be fb59 01bc f94e 75be 0950 193d
00000160: e9db a03d 3f90 5fbe d0f1 993d 0596 38be
00000170: d308 66be bd37 693e 4aa6 37be e41d 453d
00000180: e19d ffbd 17de 183e e8f0 043e 70c0 d53d
00000190: e119 1a3e 560b 923d cf82 d0be e300 9e3d
000001a0: 952f a6bd b264 36be 9863 bf3e fa2e 183e
000001b0: b7fa 81bd 230d 4abd 8b29 ea3d ff75 97be
000001c0: 8a75 243d d5ec df3d 657a 263d 3fa3 b7bd
000001d0: f6a3 5cbe 2de3 11be 9d55 17be df33 3abe
000001e0: 2456 0d3e dbd8 8a3e 8fd3 36be 28f9 713d
000001f0: 0370 96be 1109 363e b98d ccbe ff95 3dbe
00000200: 3a6d 143e bb2b afbe 6eee bbbe 90ce f03e
00000210: be01 a5bd 7ba0 00be 9f00 ddbc 4b96 a5be
00000220: eb58 773e ec52 d63e b203 b23d ed40 353d
00000230: 6e7f 093d 5ca7 aabe 7438 c7bd a24b f83d
00000240: 68bf 80be 22bd 393c 2654 a7be c9db 64be
00000250: 3ab1 9b3d d66e babd 2605 14be 8f00 123e
00000260: 8e61 a33e 42e8 a1be 598b 8ebe a339 8fbc
00000270: 8816 213e e58e 563d 38b4 85be b86d 7d3e
00000280: 3ca4 19be c819 55bc c4eb 4d3e bfe5 f7bc
00000290: c2f2 f73c a194 9b3e 957b 213e 3d99 d5be
000002a0: 4136 5b3e 7764 093e 99c9 0d3e 357b 463d
000002b0: 83fa 61bd 8d65 b23e 1359 483c 76bb 443b
000002c0: 3f87 ae3d b07b bdbd 9b51 5fbd 9418 c73d
000002d0: 2a50 1bbe 0f93 423e 0671 ccbd 885a 403d
000002e0: 80f6 c0be 2134 7ebe 80c8 943d 002b 04be
000002f0: 0cf6 06be 65a5 1dbc 656d 753e ef1a f03d
00000300: bbe6 f43d 8aed 38bd c814 b03e 965b 45be
00000310: 9726 a7bd faaa 8e3d a483 bd3d 3cb0 cf3c
00000320: 49ad b33d d9eb a9be 5761 4e3d 5d69 b2be
00000330: f697 8dbe da56 2c3d 570f 06be f8c9 fabd
00000340: 9804 90be 9745 573e 9af4 c13d 0c28 13be
00000350: 4553 4abd b093 23be 1b85 a4bd 532f 273d
00000360: 95ba c9bd c7dd 85be 7bf0 e53e c8c4 5abe
00000370: 9851 d13d eac0 483e 9a25 cbbd 35f8 cc3a
00000380: 8b62 313f 2d9c 0abe 4a32 50bd 2cad 2f3e
00000390: feed 76be 6052 df3c 433a fa3d 37e7 493e
000003a0: d33f 8f3e 337a 383e e848 e53d 2beb bbbb
000003b0: 28dd 0cbe 5a56 223e 9d38 953d ca2f fdbd
000003c0: 33f8 94be 7b2f 8e3e 5811 913d 6c1f e9bd
000003d0: 096f 3fbe 5b65 913e c0df a5be 9bff 823c
000003e0: 2100 24be 74e1 d13e f6ab 4a3e d6e6 2f3d
000003f0: 1b37 90be a569 643e ecf4 273e 48aa a7be

mlp2.2.bias f4 [50]
0.3440862 1.139208 0.11727307 0.25837126 -0.8836563 0.27106 -0.1594689 -1.0557963
0.16679472 -0.82812935 0.78350997 0.4415611 -0.5738747 -0.31135306 0.21621415 -0.85746545
0.47195232 0.6934789 -1.0498747 0.15471691 -0.1279835 0.29963568 0.103643805 0.8449259
0.13930953 -0.22372 -0.29678798 0.051816862 -0.067525424 0.19938639 -0.59798324 -0.9651787
1.194011 -0.6507772 -0.10670738 0.59115034 0.06072226 -0.58140564 -0.51169884 0.33589897
0.8600745 -0.2765316 0.072028995 0.21195216 1.2489847 -0.24716826 0.671782 -0.8860654
-0.59797794 0.52415687
00000000: 112c b03e 91d1 913f dd2c f03d 3d49 843e
00000010: 4d37 62bf 60c8 8a3e d14b 23be 5524 87bf
00000020: 3ccc 2a3e 4900 54bf 1c94 483f 4c14 e23e
00000030: 74e9 12bf ab69 9fbe 3e67 5d3e db82 5bbf
00000040: bca3 f13e d587 313f 4b62 86bf 1c6e 1e3e
00000050: 1b0e 03be d969 993e 3443 d43d 104d 583f
00000060: 28a7 0e3e db16 65be 98f4 97be eb3d 543d
00000070: c54a 8abd f22b 4c3e 6e15 19bf f415 77bf
00000080: 5ad5 983f 5699 26bf 6689 dabd a155 173f
00000090: e8b7 783d 00d7 14bf b2fe 02bf f3fa ab3e
000000a0: d82d 5c3f 8d95 8dbe f083 933d fd09 593e
000000b0: bbde 9f3f ad19 7dbe e8f9 2b3f 2fd5 62bf
000000c0: 1515 19bf 252f 063f

attention.0.weight f4 [100, 100]
0.019808637 -0.21438475 -0.1270694 0.22516158 -0.04293859 0.35596287 -0.026278744 -0.43666977
0.17824772 -0.11384342 0.115538605 0.021513047 0.006759585 -0.06777359 -0.03575707 0.09472545
-0.22102831 0.13508675 0.14438131 -0.13571222 -0.30421835 0.3043759 0.27065274 0.09383674
-0.019048952 0.4547711 -0.14060986 0.12805595 -0.07884057 0.08081849 -0.2919057 -0.24903575
-0.14954221 -0.23320456 0.005589899 -0.2693638 0.19657792 -0.08357636 -0.3412324 -0.0729015
-0.46658853 -0.06129662 -0.109205894 -0.049284562 -0.07131489 0.013959834 -0.19014148 -0.0040991674
-0.18855985 0.029125122 -0.061810907 0.13450587 -0.12545317 -0.32668012 0.16833301 0.10027268
0.0011587306 -0.03194451 0.16316465 0.088531464 0.22086968 -0.22439983 -0.197648 0.03668287
-0.102385536 0.09312261 0.25443104 -0.17183062 -0.076015115 -0.07181896 0.18512718 -0.4173668
0.001026009 -0.11677966 -0.0724071 0.37738523 -0.054670304 -0.34772852 0.02331907 -0.40079093
0.090333745 -0.18684295 -0.21284302 1.1045772e-05 -0.18959585 -0.2232205 -0.054343447 -0.41478994
0.20898758 -0.019485122 -0.43585953 -0.19944414 0.08822125 -0.3119831 -0.26813427 -0.14366712
0.19359568 0.07282423 -0.20487231 0.21614863 0.23485115 0.45902228 -0.068525545 -0.32951078
0.096552044 -0.18318495 -0.13393253 -0.007046363 0.36018148 -0.1177522 -0.4016412 -0.20654522
-0.20622548 -0.031261284 0.0076581584 -0.41700825 0.26539883 -0.42421135 -0.12741545 0.13234074
-0.13791762 -0.1424442 0.20784782 0.0343666 -0.12630287 -0.033486243 -0.3377803 0.18093963
0.25489256 0.0052586673 -0.20046835 0.29988763 -0.11023549 -0.009871355 0.1568583 -0.14902176
0.20906329 -0.38491055 -0.30445814 -0.17632799 0.46495694 0.003725092 0.4364189 0.154151
0.13866243 0.2369668 -0.15312456 0.06711423 0.05900996 0.0644712 0.0067424756 -0.23117328
-0.07811168 -0.16934933 -0.20074604 -0.0134549625 -0.36508507 0.20141903 -0.0010048983 -0.2368207
-0.25261533 0.10488982 0.34774888 0.021512145 -0.5019645 -0.0770188 -0.48980188 0.071262114
0.1947338 0.28756526 -0.120441996 0.090484545 -0.33041254 0.25515226 -0.09758665 -0.12707286
-0.08040929 -0.3338958 -0.12038767 0.2708777 0.22466648 -0.53451586 0.21374506 -0.09624885
-0.36389548 -0.20156933 0.04827217 -0.17790422 0.07988821 0.12747231 0.05676957 0.2831225
-0.08537047 -0.009145409 -0.058483604 0.19909725 -0.2732906 -0.43226472 -0.4229581 -0.25175148
0.053808667 0.35567194 -0.04466461 -0.11192646 0.2757435 -0.19073272 -0.13419043 -0.40087748
-0.119232774 0.044793207 -0.13671532 -0.17399032 0.021095289 0.011342031 0.21410015 -0.468618
-0.115705766 0.034180883 -0.21521771 -0.20630129 0.11764611 0.3584203 0.14661485 0.03602998
-0.07656465 -0.06820758 0.10197698 0.083495766 0.033373386 -0.035688993 -0.30512688 -0.15368465
-0.31079924 0.17037977 0.12687124 -0.23902439 0.052462157 -0.060748428 -0.22682284 0.008959931
0.28107506 -0.09030661 -0.021395944 0.04926583 0.032677893 -0.28359303 -0.30518928 -0.0901997
0.1703574 -0.08878416 0.053380035 -0.089356996 -0.11455721 -0.1599191 -0.1304679 -0.18198873
00000000: b945 a23c ad87 5bbe 7b1e 02be c290 663e
00000010: 60e0 2fbd c440 b63e 8546 d7bc 2e93 dfbe
00000020: 9286 363e bd26 e9bd 819f ec3d 213c b03c
00000030: 827f dd3b e1cc 8abd 0176 12bd 6bff c13d
00000040: 3f55 62be 2e54 0a3e b2d8 133e 25f8 0abe
00000050: 82c2 9bbe 28d7 9b3e ff92 8a3e 7a2d c03d
00000060: 8c0c 9cbc c2d7 e83e 08fc 0fbe 1921 033e
00000070: 2a77 a1bd 2a84 a53d aa74 95be 3a03 7fbe
00000080: 9821 19be 2dcd 6ebe 792b b73b 0dea 89be
00000090: b94b 493e 152a abbd 03b6 aebe 624d 95bd
000000a0: b1e4 eebe 2a12 7bbd 57a7 dfbd 9cde 49bd
000000b0: 8b0d 92bd cab7 643c 73b4 42be 4f52 86bb
000000c0: d515 41be cf97 ee3c 6f2d 7dbd e8bb 093e
000000d0: cc76 00be 9e42 a7be 7d5f 2c3e c35b cd3d
000000e0: 8ce0 973a 3fd8 02bd a214 273e fc4f b53d
000000f0: a92b 623e 12c9 65be 3d64 4abe c740 163d
00000100: 82af d1bd 11b7 be3d c944 823e 5ef4 2fbe
00000110: d0ad 9bbd d215 93bd fb91 3d3e 1ab1 d5be
00000120: 267b 863a 2d2a efbd 2c4a 94bd a338 c13e
00000130: f8ed 5fbd 7909 b2be a207 bf3c 7834 cdbe
00000140: e600 b93d c253 3fbe 85f3 59be 3b51 3937
00000150: 6a25 42be ea93 64be 3c97 5ebd 595f d4be
00000160: d700 563e 439f 9fbc fb28 dfbe 163b 4cbe
00000170: 58ad b43d 40bc 9fbe e548 89be 791d 13be
00000180: f23d 463e df24 953d 0cca 51be 1156 5d3e
00000190: d27c 703e f804 eb3e 1f57 8cbd a3b5 a8be
000001a0: 14bd c53d d694 3bbe 9c25 09be 2de5 e6bb
000001b0: b569 b83e 1128 f1bd eaa3 cdbe 9780 53be
000001c0: c62c 53be d50b 00bd 4af1 fa3b 1b82 d5be
000001d0: 5be2 873e 3b32 d9be 3279 02be 5584 073e
000001e0: 473a 0dbe e4dc 11be 0fd6 543e fec3 0c3d
000001f0: 8a55 01be df28 09bd 8af1 acbe 3d48 393e
00000200: 4781 823e e650 ac3b 9347 4dbe df8a 993e
00000210: 25c3 e1bd 77bb 21bc 769f 203e 2999 18be
00000220: b014 563e ff12 c5be f0e1 9bbe 538f 34be
00000230: d60e ee3e ac20 743b 4c72 df3e c2d9 1d3e
00000240: 86fd 0d3e 6da7 723e afcc 1cbe 2f73 893d
00000250: 6eb4 713d 7a09 843d fcef dc3b b0b8 6cbe
00000260: 04f9 9fbd e969 2dbe 5f90 4dbe 3472 5cbc
00000270: 6eec babe ca40 4e3e cbb6 83ba 2081 72be
00000280: cc56 81be 79d0 d63d 240c b23e 3d3a b03c
00000290: bf80 00bf 08bc 9dbd 50c7 fabe dff1 913d
000002a0: 4c68 473e c13b 933e 4baa f6bd f64f b93d
000002b0: d52b a9be 51a3 823e 82db c7bd 631f 02be
000002c0: a0ad a4bd 64f4 aabe d08d f6bd 7bb0 8a3e
000002d0: f80e 663e 08d6 08bf fcdf 5a3e 1e1e c5bd
000002e0: 8250 babe 3168 4ebe 0ab9 453d 862c 36be
000002f0: 6e9c a33d 1a88 023e 3587 683d 6ff5 903e
00000300: b7d6 aebd a0d6 15bc 818c 6fbd 26e0 4b3e
00000310: bfec 8bbe cd51 ddbe f78d d8be 92e5 80be
00000320: 7a66 5c3d a21a b63e 3df2 36bd b339 e5bd
00000330: 412e 8d3e 704f 43be 3769 09be d03f cdbe
00000340: 5030 f4bd 1579 373d 1aff 0bbe 852a 32be
00000350: 07d0 ac3c edd3 393c 123d 5b3e b3ee efbe
00000360: 25f7 ecbd 4101 0c3d 0862 5cbe a540 53be
00000370: 72f0 f03d de82 b73e 3422 163e 2c94 133d
00000380: edcd 9cbd 6ab0 8bbd 4fd9 d03d d4ff aa3d
00000390: 88b2 083d 9f2e 12bd 9739 9cbe 825f 1dbe
000003a0: 1421 9fbe 0978 2e3e 89ea 013e cfc2 74be
000003b0: 8fe2 563d 58d3 78bd 3f44 68be adcc 123c
000003c0: 12e9 8f3e acf2 b8bd 8c46 afbc f8ca 493d
000003d0: 41d9 053d 1b33 91be c541 9cbe 9fba b8bd
000003e0: 2c72 2e3e 78d4 b5bd 06a5 5a3d cd00 b7bd
000003f0: f89c eabd d5c1 23be 6199 05be 415b 3abe

attention.0.bias f4 [100]
0.5291393 -0.24401376 -0.58267516 -1.0771402 -0.64182013 -0.16838795 -0.19274692 -0.780205
-0.64989406 0.0507557 0.12223629 -0.025035536 -0.26566672 -0.4238754 -0.14088212 -0.682514
-0.07759302 0.16024657 -1.037996 -0.5902293 -0.2777736 0.8678656 -0.81156534 -0.24027951
-0.52874124 -0.10563245 -0.3725887 0.006778787 -0.5236265 -0.29699126 -0.8320614 -0.08788084
0.039624967 -0.22155476 -0.27631232 0.28837305 0.11316574 -0.17001906 -0.05718029 0.053629946
-0.42421722 0.013771002 -0.549531 -0.2634525 0.12578155 0.4451732 -0.19569433 -0.3464166
-0.19996382 -0.054234404 -0.30902287 -0.1963167 -0.14528184 0.06364921 -0.2691382 -0.66287076
-0.47104025 -1.1338367 -0.19016272 -0.4370183 -0.2815828 -0.0082792975 -0.38732278 0.047342528
-0.29748648 -0.19464812 -0.17571858 -0.11975643 -0.4384791 -0.5610059 -0.25275582 -0.67018694
-0.9575512 -0.21147248 -0.514335 -0.5465373 -0.021178892 -0.1958698 0.078918785 -0.25949705
-0.61261505 0.40195498 -0.039144054 -0.93340033 -0.8888396 -0.19589451 -0.2652954 -0.79809165
-0.4987477 -0.30199867 -0.016252307 -0.12432721 -0.8440248 -0.32303172 -0.2222352 1.6791044e-05
-0.47105122 -0.78696567 0.18415733 -0.19768178
00000000: ac75 073f bede 79be 332a 15bf bbdf 89bf
00000010: 534e 24bf e46d 2cbe 735f 45be 84bb 47bf
00000020: 755f 26bf 35e5 4f3d 0557 fa3d 5317 cdbc
00000030: 7805 88be 3206 d9be 6743 10be 3db9 2ebf
00000040: 17e9 9ebd ad17 243e 0edd 84bf 4419 17bf
00000050: 5738 8ebe 712c 5e3f bfc2 4fbf d50b 76be
00000060: 965b 07bf d355 d8bd f2c3 bebe 9620 de3b
00000070: 630c 06bf 3d0f 98be fa01 55bf dffa b3bd
00000080: ca4d 223d 40df 62be cf78 8dbe a2a5 933e
00000090: 71c3 e73d 7a19 2ebe e135 6abd 13ab 5b3d
000000a0: 0033 d9be c59f 613c 10ae 0cbf 3fe3 86be
000000b0: e1cc 003e beed e33e 1864 48be 845d b1be
000000c0: 51c3 4cbe e524 5ebd 3f38 9ebe 3f07 49be
000000d0: c3c4 14be 845a 823d 7bcc 89be e6b1 29bf
000000e0: 302c f1be 9021 91bf 04ba 42be ddc0 dfbe
000000f0: 9f2b 90be e4a5 07bc 2c4f c6be 3dea 413d
00000100: 2650 98be d651 47be 92ef 33be dc42 f5bd
00000110: 5580 e0be 159e 0fbf 3669 81be 5f91 2bbf
00000120: 1322 75bf 3e8c 58be 75ab 03bf dee9 0bbf
00000130: 5b7f adbc 1892 48be 2ca0 a13d ccdc 84be
00000140: 57d4 1cbf 0bcd cd3e 8455 20bd 53f3 6ebf
00000150: fe8a 63bf 9298 48be ccd4 87be bc4f 4cbf
00000160: dc5b ffbe 929f 9abe 8f23 85bc 449f febd
00000170: 0212 58bf 6a64 a5be a091 63be 7eda 8c37
00000180: a02d f1be 9576 49bf bd93 3c3e 186d 4abe

attention.2.weight f4 [100, 100]
-0.26931417 0.14127792 -0.008619229 0.14720969 0.18554133 0.0888952 -0.160509 -0.09310533
0.05758232 -0.2635099 -0.32890314 -0.12915798 -0.081852525 -0.1027093 -0.31419805 -0.22053318
-0.035875913 -0.17159505 -0.08840594 -0.108517736 0.23458175 0.116087794 -0.072832 -0.29575774
-0.057365924 0.051242813 -0.08858276 0.3323791 -0.049426924 0.08069941 -0.09349408 -0.13842572
-0.3593714 -0.27065068 0.1432048 0.19781943 0.025023984 -0.13665557 -0.26260346 0.33318827
0.13003229 -0.18631203 0.22194386 -0.2975705 -0.0705802 -0.07043858 0.028377835 -0.024133686
-0.064672366 0.19556707 -0.19424975 -0.0024271978 -0.21107699 -0.13136303 -0.1849251 0.05869064
-0.27472958 0.03587192 -0.08677412 -0.025633356 0.123921245 -0.09140858 0.06711874 0.015248717
-0.2927378 0.025700517 -0.022857605 0.00397431 -0.28710622 -0.22469038 0.04545032 0.19129446
-0.24277127 -0.09853385 0.062985055 -0.08085627 0.16185568 -0.06369225 -0.18596826 0.17203622
0.12549731 0.07606889 -0.33903116 0.27685413 0.028400993 -0.22235756 -0.29405132 0.13845158
0.031185739 -0.05718644 0.120493546 -0.018430185 0.12460754 0.012291764 -0.14614613 0.07110397
-0.11809281 0.15804 -0.14180718 0.018801479 -0.012556477 -0.099794164 -0.0020195 -0.09317968
0.081276305 0.044963855 -0.05021325 -0.027048891 -0.039231826 0.06017199 -0.06378872 -0.068905056
0.009596987 -0.034922134 -0.12988782 0.028913092 -0.012091484 0.06270061 0.19783427 0.08316609
-0.16599445 0.070545375 -0.091858976 -0.0071053496 0.03631539 -0.09851212 -0.08614514 -0.116157494
0.063179396 -0.092293255 0.032229267 -0.11397845 0.03491005 -0.14581223 0.080219604 0.041793585
-0.110848404 -0.079582796 0.22012506 -0.013074255 -0.048073385 0.021407789 0.044841275 -0.0395085
-0.010385145 -0.062423535 0.20837921 -0.054666687 -0.027134081 0.0038593241 -0.10783396 0.019220073
0.01581635 -0.08343522 0.035974395 0.016210165 -0.08429622 -0.1687468 -0.09217021 0.034003753
0.15201674 0.0043918667 -0.0187906 -0.039347764 -0.0029910663 -0.08005056 -0.027113361 0.023491712
-0.12702888 -0.1619098 -0.0015281151 -0.13489945 -0.08349867 -0.07193012 -0.08790428 0.08303759
-0.00028828913 -0.07075384 0.014425732 -0.07305337 -0.09952853 -0.0067095445 -0.036900394 -0.20872588
0.09931963 0.04256917 -0.052043397 -0.049044084 -0.07764607 -0.031903673 -0.024957497 -0.07046378
0.063734844 -0.035411447 -0.13505955 -0.06301137 -0.064241156 -0.0033233652 0.022045288 -0.095794596
-0.27278766 0.0836137 -0.027182523 -0.27729237 -0.14797758 -0.10020544 -0.03769401 -0.10861325
-0.07668609 -0.18037537 -0.047657814 -0.2833523 0.07591574 -0.028091844 -0.15306148 -0.1240376
0.007890374 -0.04704274 -0.19326098 0.037079155 0.015796538 0.12263382 -0.17289838 -0.09518279
-0.17784119 0.012743708 -0.07996754 0.13470325 0.02210481 -0.13788272 -0.22345014 -0.051768832
0.049634133 -0.14165469 -0.069955096 0.12875652 -0.027563166 -0.11099367 -0.010342719 0.01929841
-0.16694862 -0.103474 0.0643615 -0.2623155 -0.07763759 -0.2899331 -0.18470243 0.107771486
-0.09379903 -0.042352606 -0.08854814 -0.020737048 -0.27297238 -0.01718647 0.05733771 -0.09644506
00000000: 8ce3 89be 29ab 103e ab37 0dbc 23be 163e
00000010: 8cfe 3d3e b00e b63d 795c 24be 02ae bebd
00000020: 70db 6b3d c5ea 86be fe65 a8be fd41 04be
00000030: 4ca2 a7bd 4159 d2bd 91de a0be 73d3 61be
00000040: 9ff2 12bd 9db6 2fbe 2c0e b5bd 8c3e debd
00000050: 3336 703e 70bf ed3d f228 95bd 8f6d 97be
00000060: 88f8 6abd fce3 513d e16a b5bd 982d aa3e
00000070: e373 4abd bb45 a53d d379 bfbd 79bf 0dbe
00000080: 87ff b7be ba92 8abe 47a4 123e 2d91 4a3e
00000090: 19ff cc3c 70ef 0bbe f673 86be a797 aa3e
000000a0: 2f27 053e 95c8 3ebe 4045 633e 295b 98be
000000b0: 5a8c 90bd 1a42 90bd a278 e83c 02b4 c5bc
000000c0: f272 84bd bc42 483e 68e9 46be 9f11 1fbb
000000d0: 9124 58be 0884 06be 015d 3dbe 9965 703d
000000e0: 5ba9 8cbe 6fee 123d a1b6 b1bd 0bfd d1bc
000000f0: 6cca fd3d 6c34 bbbd 8d75 893d c1d5 793c
00000100: bbe1 95be e489 d23c df3f bbbc ee3a 823b
00000110: 96ff 92be 3c15 66be 1d2a 3a3d b2e2 433e
00000120: 0899 78be 1dcc c9bd 4ffe 803d f997 a5bd
00000130: 7fbd 253e 1571 82bd 776e 3ebe 432a 303e
00000140: 5e82 003e 02ca 9b3d 7e95 adbe d3bf 8d3e
00000150: 33a9 e83c b3b1 63be e58d 96be 40c6 0d3e
00000160: 3c79 ff3c 543c 6abd 52c5 f63d e6fa 96bc
00000170: 3d32 ff3d 6563 493c 55a7 15be f59e 913d
00000180: a5da f1bd 3dd5 213e e735 11be 8f05 9a3c
00000190: afb9 4dbc e260 ccbd 9659 04bb fdd4 bebd
000001a0: 3174 a63d 052c 383d 69ac 4dbd a395 ddbc
000001b0: 8db1 20bd e876 763d a9a3 82bd 181e 8dbd
000001c0: ae3c 1d3c 830a 0fbd 5001 05be 26db ec3c
000001d0: 5c1b 46bc 2d69 803d 1195 4a3e fc52 aa3d
000001e0: 73fa 29be 187a 903d 8f20 bcbd fed3 e8bb
000001f0: 72bf 143d b9c0 c9bd dd6c b0bd fbe3 edbd
00000200: 3364 813d 3f04 bdbd d602 043d 896d e9bd
00000210: d7fd 0e3d cd4f 15be 2d4a a43d c02f 2b3d
00000220: 7d04 e3bd 4efc a2bd 7768 613e 6635 56bc
00000230: 99e8 44bd 635f af3c 7cab 373d aad3 21bd
00000240: 7526 2abc d2af 7fbd 5c61 553e 2dea 5fbd
00000250: 4b48 debc b7ec 7c3b 0dd8 dcbd 6a73 9d3c
00000260: 4a91 813c 16e0 aabd e359 133d 2ecb 843c
00000270: 7fa3 acbd f6cb 2cbe bcc3 bcbd 8547 0b3d
00000280: 47aa 1b3e a6e9 8f3b bfee 99bc 1f2b 21bd
00000290: c405 44bb 8cf1 a3bd d71c debc b171 c03c
000002a0: dc13 02be afcb 25be 094b c8ba 1523 0abe
000002b0: 5a01 abbd 1950 93bd 2907 b4bd 9d0f aa3d
000002c0: 8325 97b9 64e7 90bd e859 6c3c 019d 95bd
000002d0: 9dd5 cbbd bddb dbbb de24 17bd 3dbc 55be
000002e0: 1768 cb3d 035d 2e3d 752b 55bd 73e2 48bd
000002f0: e704 9fbd 6dad 02bd aa73 ccbc 504f 90bd
00000300: 6a87 823d 980b 11bd 0d4d 0abe 1b0c 81bd
00000310: de90 83bd d1cc 59bb 5298 b43c f52f c4bd
00000320: d3aa 8bbe a93d ab3d e2ad debc 44f9 8dbe
00000330: 6f87 17be 8238 cdbd 0965 1abd a070 debd
00000340: 990d 9dbd 52b4 38be d734 43bd 8d13 91be
00000350: b679 9b3d de20 e6bc 26bc 1cbe 6d07 febd
00000360: a146 013c e3af 40bd 35e6 45be 50e0 173d
00000370: be67 813c 7127 fb3d 460c 31be 32ef c2bd
00000380: 001c 36be fcca 503c 06c6 a3bd a6ef 093e
00000390: 2615 b53c 2131 0dbe 1dd0 64be 8e0b 54bd
000003a0: 294d 4b3d ed0d 11be 9e44 8fbd c0d8 033e
000003b0: 26cc e1bc a650 e3bd 8274 29bc b317 9e3c
000003c0: 94f4 2abe 2dea d3bd f6cf 833d 384e 86be
000003d0: 7500 9fbd 1c72 94be a222 3dbe 4cb7 dc3d
000003e0: b519 c0bd ed79 2dbd ba58 b5bd bee0 a9bc
000003f0: 09c3 8bbe a4ca 8cbc f2da 6a3d fd84 c5bd
