sarl_star_ros/CrowdNav-nowall/crowd_nav/data/output_new3_0.7_f1/il_model.pth (torch_old, 349196 bytes, 20 tensors)

mlp1.0.weight f4 [150, 13]
-0.13460793 0.1814175 -0.16188341 0.18069403 -0.024458366 0.13475718 -0.11992626 -0.057493098
-0.21324189 0.18313515 -0.072708815 -0.13789779 -0.090233736 -0.3892032 -0.8536618 -0.51061094
-0.30394968 -1.0406374 1.2339293 1.2097265 -0.5388231 1.196341 4.085546 1.3169388
-0.38617286 0.6588565 -0.12872662 -0.02728139 -0.06706343 0.18976066 -0.105897665 -0.19956245
-0.2358436 0.16890964 0.25975478 0.022880528 0.24392043 -0.19759487 -0.21840356 0.16711634
0.2429348 -0.4619654 -0.08955762 1.3349282 0.54158854 -0.5020117 -1.4829645 -1.9735907
-2.3181982 -0.430676 -0.7643978 0.052704617 -0.5811385 0.19816102 -0.2906469 0.06268497
0.0949267 -0.23481308 0.21255954 0.4603668 -0.52958894 0.23992087 -0.36712596 0.41477278
-0.032566607 -0.22088344 -0.19108884 -0.042818617 -0.22807212 -0.1580939 -0.14264451 -0.17635857
-0.22250494 0.25262043 -0.2735083 -0.048423145 -0.21122546 0.09068938 -0.32882267 0.3047536
-0.16277817 0.3318574 -0.02356413 -0.7586491 -1.4952486 -0.21128674 0.9309113 -0.5159157
0.7819871 -0.092970595 0.54061735 0.44060564 0.4615464 1.7384597 0.23432347 0.622979
-1.3992101 2.4176917 1.756917 -1.536101 3.3563828 0.32264093 -2.762852 -0.061298154
-0.63725793 -0.013105699 -0.08030684 0.03677662 -0.09717758 -0.6424689 0.19569205 -1.0936562
-0.61913615 -0.4776985 0.050756343 0.48379895 0.50218505 0.052766733 -0.050824616 -0.17837255
0.1526132 1.6701634 0.7114782 -0.8287278 -1.5513334 -0.52003556 0.9285029 -0.11958637
-1.5902252 0.3316421 -0.5765361 0.13821603 1.1351684 0.104715325 0.6560636 -0.4887188
0.5566977 -0.075407095 0.027385782 -0.72878474 0.28238428 0.121343166 0.23794831 -0.2872616
0.48417303 -1.9226054 0.21528743 3.2187843 -0.38560542 -0.8838057 0.3332519 -3.1440866
2.0661173 0.109982476 0.6549066 0.08498272 -0.9423783 -0.27521506 -0.12238178 -0.4164272
-0.5703202 0.9130851 1.0812424 -0.18261243 -0.12689674 1.4814546 0.20698233 0.33460817
0.28233874 -0.2757043 -0.21759203 0.048420466 -0.09033751 0.0691968 0.120968044 -0.106624186
-0.0026873616 0.17862196 0.2610093 -0.066889726 -0.22367932 -0.20598607 -1.1393961 -0.6046681
0.057799168 0.11873404 -0.86033416 0.720941 0.46091393 -0.72033083 0.5156363 0.44729143
0.8782583 1.1240255 0.655249 -0.26872393 -0.124253 -0.47622925 -0.005959343 0.32347375
0.119880274 -0.17453697 -0.3440466 0.12526229 -0.24477895 -0.108947776 -0.033664897 0.17862552
0.37935525 -0.536204 0.07887165 -0.2679688 0.28200907 -1.0387832 -1.3847208 0.76812816
-1.6903635 -0.9653916 -0.67952555 -0.21249203 -0.5646481 -0.20828919 0.26385826 -0.069423884
-0.09862948 0.046468806 0.14687307 0.28142056 0.30438352 0.2010395 -0.15511523 -0.22561082
-0.2024172 -0.106430836 -0.55357987 -0.33431304 -1.0702473 -0.17630532 0.022615872 -0.40717062
0.16334406 -0.35277584 0.46761414 0.06370847 0.05096231 0.6619476 -0.32523605 -0.02509422
-0.02333493 -0.21251026 -0.24410373 -0.08247561 0.051721867 -0.101843424 0.002346027 -0.26968807
00000000: a9d6 09be 82c5 393e c4c4 25be db07 393e
00000010: e95c c8bc c9fd 093e e69b f5bd e27d 6bbd
00000020: 155c 5abe c887 3b3e 5ce8 94bd 1435 0dbe
00000030: 77cc b8bd a445 c7be 9489 5abf 66b7 02bf
00000040: 4b9f 9bbe 9b33 85bf 65f1 9d3f 51d8 9a3f
00000050: 50f0 09bf b421 993f cbbc 8240 7391 a83f
00000060: 73b8 c5be d2aa 283f e9d0 03be 397d dfbc
00000070: 8d58 89bd 9e50 423e e0e0 d8bd 195a 4cbe
00000080: fc80 71be a6f6 2c3e 94fe 843e f26f bb3c
00000090: 47c6 793e 4f56 4abe 2fa5 5fbe 8c20 2b3e
000000a0: e6c3 783e bb86 ecbe fc69 b7bd edde aa3f
000000b0: 8ca5 0a3f d783 00bf c8d1 bdbf 9f9e fcbf
000000c0: 5c5d 14c0 9181 dcbe 93af 43bf cce0 573d
000000d0: 7ec5 14bf b9ea 4a3e accf 94be fa60 803d
000000e0: ee68 c23d d772 70be 35a9 593e 32b5 eb3e
000000f0: 2493 07bf d1ad 753e eff7 bbbe 195d d43e
00000100: 9064 05bd 452f 62be cbac 43be 9362 2fbd
00000110: bd8b 69be 5ee3 21be 6711 12be 5797 34be
00000120: 56d8 63be 7757 813e 4809 8cbe 5957 46bd
00000130: 7d4b 58be 5bbb b93d 725b a8be aa08 9c3e
00000140: 52af 26be 37e9 a93e 9009 c1bc d436 42bf
00000150: 4e64 bfbf 8d5b 58be 3450 6e3f 0d13 04bf
00000160: 4e30 483f 5e67 bebd e665 0a3f 1097 e13e
00000170: cf4f ec3e d985 de3f 7ef2 6f3e 8d7b 1f3f
00000180: 5119 b3bf 76bb 1a40 a8e2 e03f f59e c4bf
00000190: face 5640 3131 a53e 91d2 30c0 c613 7bbd
000001a0: 5623 23bf 49b9 56bc ea77 a4bd 15a3 163d
000001b0: 0a05 c7bd d878 24bf 7f63 483e edfc 8bbf
000001c0: b57f 1ebf e694 f4be e2e5 4f3d 7fb4 f73e
000001d0: 338f 003f ee21 583d 792d 50bd 4ba7 36be
000001e0: a246 1c3e eac7 d53f 6f23 363f 8127 54bf
000001f0: 1892 c6bf 0d21 05bf 5eb2 6d3f b3e9 f4bd
00000200: 808c cbbf fecc a93e df97 13bf 8188 0d3e
00000210: 334d 913f fd74 d63d c9f3 273f 5a39 fabe
00000220: be83 0e3f 096f 9abd 2658 e03c a391 3abf
00000230: ac94 903e c482 f83d b9a8 733e f413 93be
00000240: 87e5 f73e ef17 f6bf 4f74 5c3e 9000 4e40
00000250: 136e c5be 1741 62bf fe9f aa3e b738 49c0
00000260: 443b 0440 7e3e e13d f5a7 273f 6c0b ae3d
00000270: b43f 71bf fde8 8cbe 4ca3 fabd f235 d5be
00000280: 8100 12bf f2bf 693f 2766 8a3f c1fe 3abe
00000290: 38f1 01be 4ea0 bd3f 2df3 533e c351 ab3e
000002a0: b48e 903e 1d29 8dbe 72d0 5ebe 8a54 463d
000002b0: df02 b9bd 0db7 8d3d 18be f73d c85d dabd
000002c0: 721e 30bb ade8 363e 03a3 853e 7bfd 88bd
000002d0: 310c 65be 03ee 52be bbd7 91bf 87cb 1abf
000002e0: d2be 6c3d d52a f33d dc3e 5cbf 978f 383f
000002f0: e9fc eb3e 9a67 38bf be00 043f 6203 e53e
00000300: 89d5 603f 11e0 8f3f 66be 273f 2f96 89be
00000310: 5b78 febd 52d4 f3be 9846 c3bb 5a9e a53e
00000320: ca83 f53d d2b9 32be e026 b0be c244 003e
00000330: 55a7 7abe 0320 dfbd 34e4 09bd 9ce9 363e
00000340: da3a c23e aa44 09bf 7687 a13d 3533 89be
00000350: 7e63 903e d9f6 84bf 883e b1bf 0ca4 443f
00000360: d55d d8bf e723 77bf 63f5 2dbf 8397 59be
00000370: c78c 10bf c349 55be 6e18 873e 1c2e 8ebd
00000380: 41fe c9bd 1356 3e3d e565 163e 5b16 903e
00000390: 28d8 9b3e 4cdd 4d3e 87d6 1ebe 8606 67be
000003a0: 7446 4fbe 69f8 d9bd 69b7 0dbf 142b abbe
000003b0: ddfd 88bf 6289 34be ec44 b93c ab78 d0be
000003c0: aa43 273e 099f b4be 1f6b ef3e 9679 823d
000003d0: dbbd 503d 6675 293f 5785 a6be 6592 cdbc
000003e0: e528 bfbc 4a9c 59be 54f6 79be f9e8 a8bd
000003f0: 4fda 533d 4993 d0bd cdbf 193b 8e14 8abe

mlp1.0.bias f4 [150]
0.08934148 -1.2267094 0.17404538 0.2829614 -0.2171463 -0.26100355 0.7531293 0.48193413
-0.079181425 0.42357066 0.5784272 0.19846523 -0.40898967 0.16168024 -0.6082414 0.07420924
-0.65044546 -0.18535475 -0.22758582 0.09131845 0.746848 0.13300398 0.2184216 -0.47440973
-0.12126764 0.32799459 0.0397278 -0.95229334 -0.14784004 0.016182113 0.27840674 -0.4105224
-0.17660213 -0.07368913 -0.9912204 0.4221291 -0.073568836 -0.023907745 -0.31931993 0.9096226
0.5238701 -0.027291102 -1.1464038 -0.13375627 -0.014448572 -0.097615905 0.010823176 -0.48287755
0.5723098 -0.109924935 2.5145824e-05 -0.26141417 0.20934267 -0.6134203 0.23412216 -0.9656035
0.39353108 0.019952396 1.005886 -0.23581313 0.51656526 -0.102375016 1.5866681 0.06916794
0.3719107 -0.7747859 1.116204 0.016976545 -2.2243407 0.12580955 0.12921819 -0.7662293
-0.7580546 0.08673747 0.34586757 -0.7619887 -0.24190462 -0.6225077 -0.5080863 -0.55900437
-0.22628495 0.115091756 0.114009604 -0.2776195 0.24327244 -0.44175532 0.36857274 0.11505655
1.4528977 -0.40749407 0.24278754 0.3739798 0.71470356 -0.6401572 -0.2663373 0.14331983
0.24576728 -0.45808208 -0.37533048 -1.0305313 -0.34703663 -0.70871496 -0.3236747 1.5738542
0.11383893 0.48906344 1.0018306 0.31294447 -0.46301463 -0.032183565 0.061770625 0.352545
0.5022301 -0.18294066 0.021515502 0.107284345 0.072985426 0.7347798 -0.3921898 0.5231446
0.29291075 0.06862874 -0.3462909 -0.259807 -0.7112958 0.22735973 -0.31954035 -0.17068256
0.63952464 -0.14354827 -0.8847576 -0.22913791 -0.7053098 -0.6119607 2.2968163 -0.09972336
0.54034454 0.03893485 -0.49880505 0.27980435 0.30185953 -0.860105 0.4023353 -0.0008797144
0.6913363 -1.041119 0.49306095 0.059545092 -0.1834212 0.40983516
00000000: aaf8 b63d d004 9dbf f438 323e 51e0 903e
00000010: 9a5b 5ebe 42a2 85be 15cd 403f 12c0 f63e
00000020: df29 a2bd 41de d83e ce13 143f 783a 4b3e
00000030: 1867 d1be 818f 253e b5b5 1bbf 04fb 973d
00000040: 9883 26bf a3cd 3dbe 420c 69be 2b05 bb3d
00000050: 6e31 3f3f 3232 083e e9a9 5f3e d5e5 f2be
00000060: 2b5b f8bd e8ee a73e 9eb9 223d 7fc9 73bf
00000070: 6163 17be 5a90 843c 548b 8e3e fe2f d2be
00000080: 30d7 34be 54ea 96bd 9fc0 7dbf 4e21 d83e
00000090: 42ab 96bd 2dda c3bc e77d a3be 07dd 683f
000000a0: 5a1c 063f 9791 dfbc 5cbd 92bf 67f7 08be
000000b0: b4b9 6cbc d9ea c7bd b153 313c ba3b f7be
000000c0: e582 123f 5320 e1bd 3ff0 d237 14d8 85be
000000d0: ed5d 563e 1d09 1dbf b8bd 6f3e ca31 77bf
000000e0: e87c c93e 3573 a33c dfc0 803f ff78 71be
000000f0: 9f3d 043f fea9 d1bd f117 cb3f eca7 8d3d
00000100: 146b be3e 5e58 46bf c6df 8e3f 6512 8b3c
00000110: 995b 0ec0 38d4 003e c651 043e 9a27 44bf
00000120: de0f 42bf 6aa3 b13d 8e15 b13e b111 43bf
00000130: d8b5 77be aa5c 1fbf f211 02bf e91a 0fbf
00000140: 3eb7 67be 3ab5 eb3d de7d e93d 2524 8ebe
00000150: 691c 793e c12d e2be 91b5 bc3e c5a2 eb3d
00000160: 8df8 b93f 10a3 d0be 4c9d 783e 487a bf3e
00000170: d0f6 363f 58e1 23bf 5d5d 88be 6fc2 123e
00000180: 6baa 7b3e bc89 eabe 512b c0be 73e8 83bf
00000190: c9ae b1be 586e 35bf b1b8 a5be 0e74 c93f
000001a0: 6324 e93d 8666 fa3e fc3b 803f 423a a03e
000001b0: 4110 edbe ead2 03bd 3203 7d3d c780 b43e
000001c0: 2792 003f cc54 3bbe 4741 b03c e5b7 db3d
000001d0: 6279 953d 871a 3c3f 1acd c8be ceec 053f
000001e0: 66f8 953e 3a8d 8c3d 0a4d b1be 6c05 85be
000001f0: 7b17 36bf fdd0 683e cb9a a3be 69c7 2ebe
00000200: e3b7 233f 51fe 12be 797f 62bf 21a3 6abe
00000210: 2f8f 34bf 75a9 1cbf 0aff 1240 c33b ccbd
00000220: 0554 0a3f 267a 1f3d 6063 ffbe 8442 8f3e
00000230: 558d 9a3e d72f 5cbf e4fe cd3e a29c 66ba
00000240: 6afb 303f 6343 85bf 7c72 fc3e 8ee5 733d
00000250: c4d2 3bbe ead5 d13e

mlp1.2.weight f4 [100, 150]
0.066992 -0.14355351 -0.079376504 0.09678813 -0.004836719 0.072588876 0.13764936 -0.2740978
-0.07692781 -0.05750869 0.05143333 -0.009552609 -0.014407044 0.07073197 -0.17587425 -0.03563311
0.051480085 -0.018174905 -0.11666339 -0.06861191 0.2214612 0.115285 -0.032631505 -0.1280314
0.04762769 0.08772245 0.27429882 -0.0715883 0.026748097 -0.04371015 0.06618953 -0.28059447
-0.24326794 -0.15379623 -0.001478438 0.13554364 -0.019005693 0.29771775 -0.12707396 0.22205712
-0.04054135 0.013166538 -0.10576098 0.025982266 -0.28772122 -0.05534354 -0.00798617 -0.26147974
-0.22150366 -0.07404276 0.021054866 -0.017569719 -0.12746449 0.3135057 -0.27010188 0.20189278
0.02736582 0.004962351 0.013891562 0.0040800855 -0.3400122 0.0031221707 0.43292096 0.24997318
-0.32785872 -0.094140515 -0.012066677 0.08822259 -0.18282826 -0.042619757 -0.06663332 -0.06371745
-0.12226289 -0.19654371 -0.031436127 -0.11329865 0.08501087 -0.07827095 -0.08000827 -0.34480768
-0.026446644 0.0724842 -0.030164022 -0.2836898 -0.013981512 -0.27124542 0.027185436 -0.020423379
-0.28310716 0.01491958 0.053769886 0.103835136 -0.042896017 -0.10632089 -0.07257663 -0.0017923709
-0.05849238 -0.11860012 -0.004864356 0.18559316 -0.024404217 -0.1604087 0.0047491374 -0.026141493
-0.008433282 -0.06082314 -0.005597838 -0.019570367 -0.12452902 -0.0797779 0.035310917 0.02291452
-0.015055941 0.020884253 0.095595986 0.036663514 0.017658621 0.094342805 -0.09461399 0.25542876
-0.053884894 0.30398825 -0.43911517 -0.21427228 -0.25786537 -0.037439276 -0.14428568 -0.234514
-0.24233073 -0.10572034 -0.12772384 -0.14501129 -0.1813362 -0.004765327 0.14613356 -0.062451255
0.09577581 0.018617775 0.4602992 0.08714483 0.062073033 0.28929505 -0.02961552 0.030990528
0.18219243 -0.28491712 0.33364 0.017952323 0.35939288 -0.36705968 0.017419148 0.14006649
-0.012040456 -0.13167182 -0.13723436 -0.048043717 -0.44888425 -1.5270969 0.18528341 0.47626534
0.008307787 0.024169797 0.08680277 -0.07595889 -0.0512616 -0.04474041 -0.09314084 -0.042758882
0.25325674 -0.011585236 -0.0631797 -0.26897016 -0.26353922 -0.18661715 0.0330828 -0.0056715636
0.06892455 -0.02211013 -0.16893016 0.0047077807 0.11645296 0.089797 0.039024003 -0.22484154
0.113122515 -0.44942963 0.0038158072 -0.18569918 0.1272506 0.039003864 -0.44982702 -0.20494142
-0.31414726 0.057884354 -0.10900315 0.048937686 0.049539216 -0.30289093 -0.016377347 -0.11800698
-0.11450275 -0.06958529 -0.36168408 -0.13357267 0.49784103 -0.31662384 0.20727317 -0.072846405
-0.23240122 0.04813455 -0.2666912 -0.009970801 -0.7602401 0.19967869 -0.35139543 -0.34917146
-0.2806142 -0.052267067 0.5437701 0.00014825165 -0.3529847 -0.56735444 -0.21734251 -0.5837761
0.015579529 -0.16570365 -0.014628724 -0.30206466 -0.38515568 -0.42706186 0.07066013 -0.04213662
-0.14956345 0.12995857 0.019915385 0.17678092 -0.3890474 0.021204598 0.37374705 0.19554296
0.008222497 -0.3157534 -0.2677691 -0.22293113 -0.086020246 -0.029722355 0.06388467 -0.37185767
-0.25372568 0.15637037 -0.12247652 0.2697121 -0.031458408 0.1645132 -0.15157735 -0.45000538
00000000: 1a33 893d b1ff 12be 2690 a2bd db38 c63d
00000010: 577d 9ebb 7aa9 943d f4f3 0c3e 8c56 8cbe
00000020: 548c 9dbd 3b8e 6bbd c1ab 523d 8c82 1cbc
00000030: 860b 6cbc ecdb 903d 6118 34be 06f4 11bd
00000040: c8dc 523d 8ae3 94bc 37ed eebd 6784 8cbd
00000050: bac6 623e 8b1a ec3d 9da8 05bd aa1a 03be
00000060: 4115 433d d4a7 b33d e570 8c3e e39c 92bd
00000070: d31e db3c 6a09 33bd 608e 873d 14aa 8fbe
00000080: 3b1b 79be c27c 1dbe 26c8 c1ba f4cb 0a3e
00000090: d4b1 9bbc 766e 983e ad1f 02be f162 633e
000000a0: b00e 26bd 77b8 573c 3699 d8bd c3d8 d43c
000000b0: 3250 93be e8af 62bd 6dd8 02bc ace0 85be
000000c0: dbd1 62be bba3 97bd 417b ac3c 5fee 8fbc
000000d0: 0d86 02be d283 a03e cb4a 8abe fbbc 4e3e
000000e0: 492e e03c 389b a23b 6f99 633c 3db2 853b
000000f0: 1416 aebe 559d 4c3b d1a7 dd3e f8f8 7f3e
00000100: 19dd a7be becc c0bd 50b3 45bc 0cae b43d
00000110: 5537 3bbe 0e92 2ebd 0d77 88bd 4b7e 82bd
00000120: f764 fabd c142 49be 2bc3 00bd 1f09 e8bd
00000130: 2e1a ae3d 854c a0bd 60db a3bd a28a b0be
00000140: a2a6 d8bc 9972 943d 8a1a f7bc ca3f 91be
00000150: b612 65bc aee0 8abe feb3 de3c ee4e a7bc
00000160: 6cf3 90be 4171 743c d03d 5c3d 84a7 d43d
00000170: bcb3 2fbd c4be d9bd 0ea3 94bd fded eaba
00000180: b595 6fbd 9fe4 f2bd 2d65 9fbb 220c 3e3e
00000190: 5aeb c7bc 2e42 24be a79e 9b3b af26 d6bc
000001a0: c02b 0abc af21 79bd 126e b7bb 0952 a0bc
000001b0: 1209 ffbd 9862 a3bd 2ea2 103d 3bb7 bb3c
000001c0: 32ad 76bc 7415 ab3c d4c7 c33d 7b2c 163d
000001d0: d0a8 903c cd36 c13d fbc4 c1bd 8fc7 823e
000001e0: 68b6 5cbd 59a4 9b3e b4d3 e0be 316a 5bbe
000001f0: ee06 84be ed59 19bd a0bf 13be 7024 70be
00000200: 8c25 78be e883 d8bd 0aca 02be d77d 14be
00000210: 32b0 39be 7626 9cbb 09a4 153e e3cc 7fbd
00000220: 1c26 c43d 4e84 983c 56ac eb3e fd78 b23d
00000230: 4b40 7e3d 7b1e 943e 3f9c f2bc d9df fd3c
00000240: a790 3a3e a8e0 91be ddd2 aa3e c010 933c
00000250: 5802 b83e 3fef bbbe 9ab2 8e3c 976d 0f3e
00000260: 5545 45bc fad4 06be 2a87 0cbe 7dc9 44bd
00000270: 28d4 e5be e977 c3bf efba 3d3e 0dd9 f33e
00000280: 621d 083c bdff c53c a7c5 b13d 5690 9bbd
00000290: aff7 51bd b841 37bd a0c0 bebd f023 2fbd
000002a0: deaa 813e 00d0 3dbc 5c64 81bd 75b6 89be
000002b0: 9dee 86be 9118 3fbe d581 073d 86d8 b9bb
000002c0: 5128 8d3d 4e20 b5bc 07fc 2cbe ba43 9a3b
000002d0: e47e ee3d 7de7 b73d a2d7 1f3d dc3c 66be
000002e0: c7ac e73d a41b e6be 9f12 7a3b ed27 3ebe
000002f0: fb4d 023e 84c2 1f3d ba4f e6be 2adc 51be
00000300: e9d7 a0be 2518 6d3d 0b3d dfbd e272 483d
00000310: a2e9 4a3d 8514 9bbe c929 86bc a5ad f1bd
00000320: 6b80 eabd bc82 8ebd a82e b9be 46c7 08be
00000330: 05e5 fe3e 851c a2be 6b3f 543e 7f30 95bd
00000340: 96fa 6dbe bc28 453d c08b 88be 925c 23bc
00000350: 189f 42bf 9278 4c3e 1aea b3be 9ac6 b2be
00000360: aaac 8fbe fe15 56bd 8434 0b3f 0074 1b39
00000370: 69ba b4be 243e 11bf 098f 5ebe 5a72 15bf
00000380: 4841 7f3c 38ae 29be 51ad 6fbc 38a8 9abe
00000390: 2033 c5be daa7 dabe 42b6 903d 7397 2cbd
000003a0: 2927 19be dc13 053e 9725 a33c 0f06 353e
000003b0: 3931 c7be 44b5 ad3c c65b bf3e 6a3c 483e
000003c0: a7b7 063c 6eaa a1be 0819 89be 0f48 64be
000003d0: 622b b0bd 4c7c f3bc f7d5 823d 2164 bebe
000003e0: 55e8 81be 8e1f 203e f8d4 fabd b417 8a3e
000003f0: 88da 00bd 2676 283e 1837 1bbe 1b67 e6be

mlp1.2.bias f4 [100]
-0.1223027 -0.35165676 -0.64420503 -0.5216596 0.89693123 -0.183728 -0.046554875 -0.4012301
-0.3005498 -0.17173056 0.87260383 0.6802182 0.0062434264 -0.17434856 -0.791685 -0.23659949
-0.6792844 -0.43965578 -0.05749861 -0.26788965 -0.9947156 0.0473708 -0.041320156 0.01924484
-1.4118168 -0.03129488 0.66745436 -0.43330088 -0.0955795 -0.5603319 0.04769656 -0.932023
-0.27253333 0.46129993 -0.34547824 0.06773493 0.10104263 0.11504435 -0.47833398 -0.20640506
-0.16825923 0.16827017 -0.5346872 -0.3551583 -0.25648394 1.120996 -0.30564758 -1.230011
-0.36277294 -0.10099428 -0.0627785 -0.41585606 -0.1244041 -0.03374312 -0.5745248 -0.24648029
0.13516146 -0.03974329 -0.002267303 0.014151834 -0.12859412 -1.5564398 -0.26320994 -0.29639962
-0.02845425 0.21619055 0.5023108 -0.37886584 -0.25741863 -0.20963605 -0.10093403 0.11356703
-0.06664275 0.023075549 0.30092385 -0.59300816 -0.04359653 0.03308347 -0.37318668 -0.061770294
-0.48418576 0.33818895 0.07566837 -0.85616577 -0.9488304 -0.040928356 0.5553881 -0.36922017
-0.51306105 -0.0057859044 -0.027486205 -0.68857443 -0.70025873 0.028425869 -0.046178594 -0.919986
-0.00028425042 -0.2431952 -0.08486118 -0.09482465
00000000: d779 fabd 5b0c b4be 9fea 24bf 7c8b 05bf
00000010: 499d 653f 3123 3cbe 53b0 3ebd 086e cdbe
00000020: aae1 99be 23da 2fbe f762 5f3f c822 2e3f
00000030: a895 cc3b 6e88 32be deab 4abf 2347 72be
00000040: 95e5 2dbf 901a e1be aa83 6bbd d528 89be
00000050: aea5 7ebf e207 423d 533f 29bd 5ba7 9d3c
00000060: 6ab6 b4bf 0f2f 00bd 4ade 2a3f 9dd9 ddbe
00000070: 2fbf c3bd e971 0fbf 785d 433d 0f99 6ebf
00000080: 7d89 8bbe 812f ec3e 86e2 b0be 9cb8 8a3d
00000090: 70ef ce3d 5f9c eb3d 31e8 f4be d95b 53be
000000a0: 264c 2cbe 044f 2c3e 43e1 08bf 4fd7 b5be
000000b0: dd51 83be cc7c 8f3f d77d 9cbe 0071 9dbf
000000c0: 60bd b9be 17d6 cebd 0492 80bd 16eb d4be
000000d0: 94c7 febd 3a36 0abd 0f14 13bf 5465 7cbe
000000e0: c467 0a3e dcc9 22bd 0897 14bb 18dd 673c
000000f0: 2dae 03be 6b39 c7bf 74c3 86be b1c1 97be
00000100: e318 e9bc 0e61 5d3e 7197 003f b4fa c1be
00000110: 60cc 83be d5aa 56be 80b6 cebd d595 e83d
00000120: fe7b 88bd ef08 bd3c b112 9a3e 62cf 17bf
00000130: 4692 32bd 8882 073d 5312 bfbe d902 7dbd
00000140: 32e7 f7be 1a27 ad3e 05f8 9a3d ae2d 5bbf
00000150: 8de6 72bf 7ea4 27bd ea2d 0e3f 6d0a bdbe
00000160: f857 03bf af97 bdbb c02a e1bc 6a46 30bf
00000170: 2844 33bf 5edd e83c c425 3dbd 3484 6bbf
00000180: 7207 95b9 2a08 79be b3cb adbd 6d33 c2bd

mlp2.0.weight f4 [100, 100]
0.0007880213 0.12940477 -0.43966177 -0.3012821 0.47600412 -0.44607383 0.21418391 0.0661822
-0.20187038 0.61827207 -0.03399597 -0.28089142 0.012202675 0.15016328 -0.76612747 0.2152054
0.30681038 -0.118661106 0.37050426 -0.57797927 0.2146 0.056756612 0.57714283 0.02414053
-0.7081838 0.035520516 -0.057232894 -0.43362635 0.12907377 0.043902997 -0.32170692 -0.22279531
-0.41308442 -0.15618077 -0.15261796 0.05086008 0.03923237 -0.141364 0.16335179 -0.29855257
-0.09952374 0.26317 -0.17605309 -0.027722485 -0.47063652 0.0012813674 0.3113035 0.026826018
-0.2471239 0.15995376 -0.28899014 -0.43821573 -0.031117538 -0.0875997 -0.5451742 -0.12464411
-0.47573474 -0.5414082 0.32430997 -0.097717114 0.350555 -0.3499624 -0.34716368 -0.60706776
-0.08104678 0.4106506 -0.63359743 -0.38146862 -0.29749572 0.0631322 0.29600415 -0.3562736
0.04715659 0.2521059 0.19857138 -0.07893976 0.07613991 0.30649945 -0.18297434 -0.022246784
-0.41654223 0.30408645 0.16843812 -0.18224908 0.14184119 -0.28838715 0.29930395 -0.5327995
-0.45645335 -0.2843197 0.011442112 0.09995767 -0.69681615 -0.0077279205 -0.29946125 0.04853465
-0.16503698 0.19343702 0.0017064761 0.030828932 0.021716166 -0.3014769 -0.23544557 -0.16187225
0.1580482 -0.044584606 0.13625464 -0.021789368 -0.18505625 0.17095819 0.4785909 -0.11783224
-0.060099244 0.124242306 0.1315691 -0.28984383 -0.347176 -0.172117 -0.3225873 -0.14851508
-0.32397053 0.005468868 -0.21421665 0.1856991 -0.17026821 0.058207016 -0.13455962 -0.036461685
0.066955864 0.28458393 0.096638784 -0.016182873 -0.17569625 -0.11285524 0.15616982 0.27503076
-0.2762574 0.1806994 -0.12014162 0.08814504 0.15873182 -0.13423455 -0.028636834 -0.034659658
-0.15895216 -0.28100008 0.12140519 -0.24039209 -0.1994338 -0.30433583 0.06717844 0.05322689
-0.030794028 0.14711526 -0.033910427 -0.101123765 0.04990771 0.11215177 -0.26811433 0.16423003
0.3023644 -0.3731398 -0.26718435 -0.101900175 0.08998478 0.19604525 0.21305348 -0.28991994
0.09166728 -0.052527472 0.15218304 -0.13144481 -0.100268334 -0.013394395 0.044683576 -0.054510113
0.04212866 -0.1992335 -0.21711788 0.06338625 -0.27902675 0.35812834 0.011834319 -0.18510641
-0.13969046 -0.36128035 -0.18931907 -0.2873546 -0.16751982 -0.30203313 -0.07551993 -0.33409467
0.17352009 0.19130282 -0.050582867 -0.21078165 0.060965065 -0.11126178 -0.1626232 -0.02297953
-0.02605637 0.0106265955 -0.8226795 -0.6928425 0.30215752 -0.26809487 0.46806952 0.31964323
0.5929999 -0.19138016 0.15465163 -0.5922943 0.012536255 0.6403843 -0.6298387 -0.18392837
0.0041089747 -0.41339043 0.30949625 -0.0051949783 0.5009356 0.17928176 -0.74351376 -0.02421696
-0.26887256 0.2897334 -0.3851144 -0.05678033 0.14614423 0.14397608 -0.18696721 -0.5812
-0.13184407 -0.9029955 -0.24774617 -0.042326752 0.033871666 -0.0010530674 -0.32103342 0.14365637
-0.41665918 0.11028458 -0.41158366 -0.1344632 -0.3028745 -0.7271298 0.31204712 -0.29588282
-0.2200795 0.39114085 0.09983306 0.49351862 0.10276785 0.16971917 -0.27497324 -0.38612816
00000000: 3793 4e3a af82 043e 591b e1be a641 9abe
00000010: d0b6 f33e ca63 e4be 0753 5b3e 898a 873d
00000020: 1cb7 4ebe 1447 1e3f 5c3f 0bbd 00d1 8fbe
00000030: bbed 473c 67c4 193e ee20 44bf ce5e 5c3e
00000040: 4016 9d3e 9804 f3bd bcb2 bd3e 73f6 13bf
00000050: 1ac0 5b3e 9f79 683d a2bf 133f 5cc2 c53c
00000060: 894b 35bf f67d 113d 0a6d 6abd 4604 debe
00000070: ea2b 043e a1d3 333d c5b6 a4be 7424 64be
00000080: cd7f d3be daed 1fbe e247 1cbe a952 503d
00000090: 1fb2 203d b9c1 10be b145 273e e2db 98be
000000a0: 1ad3 cbbd 38be 863e 4347 34be 441a e3bc
000000b0: 45f7 f0be 8ef3 a73a 2c63 9f3e 3dc2 db3c
000000c0: 0c0e 7dbe ebca 233e 84f6 93be d05d e0be
000000d0: 35ea febc 7967 b3bd 8990 0bbf 6945 ffbd
000000e0: 8193 f3be ba99 0abf f50b a63e e91f c8bd
000000f0: f27b b33e 462e b3be 70bf b1be cb68 1bbf
00000100: dbfb a5bd cc40 d23e 7133 22bf db4f c3be
00000110: 5c51 98be 744b 813d db8d 973e 7e69 b6be
00000120: 4527 413d 0614 813e 4c56 4b3e 2bab a1bd
00000130: 3eef 9b3d 7fed 9c3e a05d 3bbe e33e b6bc
00000140: 0645 d5be 38b1 9b3e 0b7b 2c3e 819f 3abe
00000150: d13e 113e 7ba7 93be 5e3e 993e 8c65 08bf
00000160: 41b4 e9be 5a92 91be b277 3b3c 9bb6 cc3d
00000170: 8b62 32bf 7f3a fdbb fc52 99be 45cc 463d
00000180: 74ff 28be 5b14 463e d6ab df3a f58c fc3c
00000190: 1ae6 b13c 2e5b 9abe a518 71be d7c1 25be
000001a0: 63d7 213e 599e 36bd 5686 0b3e 9e7f b2bc
000001b0: 637f 3dbe aa0f 2f3e de09 f53e 0852 f1bd
000001c0: a02a 76bd c072 fe3d 0dba 063e 6966 94be
000001d0: 0dc1 b1be 703f 30be 2a2a a5be 5614 18be
000001e0: 77df a5be 3134 b33b 9c5b 5bbe e827 3e3e
000001f0: ca5a 2ebe 7b6a 6e3d ffc9 09be d958 15bd
00000200: 2820 893d fcb4 913e 8eea c53d f291 84bc
00000210: b8e9 33be a620 e7bd fbea 1f3e d5d0 8c3e
00000220: 9c71 8dbe 4309 393e cf0c f6bd 6385 b43d
00000230: 988a 223e c874 09be cb97 eabc 49f7 0dbd
00000240: 5bc4 22be 3edf 8fbe 49a3 f83d 5829 76be
00000250: 6038 4cbe e8d1 9bbe da94 893d 7004 5a3d
00000260: c243 fcbc 62a5 163e a9e5 0abd fa19 cfbd
00000270: 076c 4c3d d4af e53d 4846 89be eb2b 283e
00000280: 82cf 9a3e 2e0c bfbe 63cc 88be 0ab1 d0bd
00000290: f149 b83d 16c0 483e b12a 5a3e 6370 94be
000002a0: 0ebc bb3d 0c27 57bd dfd5 1b3e 7899 06be
000002b0: 7c59 cdbd 2a74 5bbc 2006 373d ff45 5fbd
000002c0: 1a8f 2c3d de03 4cbe 2654 5ebe a6d0 813d
000002d0: 98dc 8ebe 995c b73e bbe4 413c 898c 3dbe
000002e0: 040b 0fbe bdf9 b8be dcdc 41be 2420 93be
000002f0: 518a 2bbe 16a4 9abe 31aa 9abd 750e abbe
00000300: 40af 313e e3e4 433e fb2f 4fbd 25d7 57be
00000310: 81b6 793d 37dd e3bd b286 26be 913f bcbc
00000320: 2b74 d5bc 2c1b 2e3c 209b 52bf 205e 31bf
00000330: 64b4 9a3e bb43 89be cfa6 ef3e 47a8 a33e
00000340: d7ce 173f 29f9 43be ff5c 1e3e 99a0 17bf
00000350: dd64 4d3c 3af0 233f 1c3d 21bf b857 3cbe
00000360: 94a4 863b e9a7 d3be 4b76 9e3e a33a aabb
00000370: 513d 003f a395 373e eb56 3ebf a562 c6bc
00000380: aaa9 89be f057 943e b72d c5be 7e92 68bd
00000390: d5a6 153e 776e 133e 5574 3fbe 86c9 14bf
000003a0: 2202 07be b72a 67bf 2cb1 7dbe d15e 2dbd
000003b0: 04bd 0a3d 1407 8aba 7e5e a4be a81a 133e
000003c0: 5a54 d5be e2dc e13d 18bb d2be b9b0 09be
000003d0: 5e12 9bbe 2e25 3abf a4c4 9f3e f47d 97be
000003e0: 855c 61be 9d43 c83e 4675 cc3d 79ae fc3e
000003f0: f377 d23d ddca 2d3e 4bc9 8cbe 97b2 c5be

mlp2.0.bias f4 [100]
0.986129 0.0915614 1.2833028 0.22924413 -0.73041314 -0.21335532 -0.4367409 -0.3119076
-0.4953379 -0.6972402 0.085294336 0.43576106 0.92920554 0.19056982 0.7460497 -0.10781302
1.5214243 0.7997172 1.8241328 -1.1779156 -1.0363932 0.21531102 0.1188458 0.27848497
0.026045721 -0.33680958 -0.22166842 -0.1836693 -0.14304203 0.4007558 -0.18763088 -0.4777283
-0.18778071 -0.0016072135 0.8345834 -0.31895393 -0.2175446 0.06973866 -0.3039017 0.39209315
-0.1539782 -0.3666814 0.118464366 -0.2337199 1.4338101 0.0687027 -1.0502725 0.014476423
0.17637247 -0.078574955 0.01559154 -0.7549525 -1.179315 0.80522186 2.7260168 -0.7078431
0.2349927 -0.6954449 -0.2903748 0.03173824 -0.07535225 -0.3069511 0.10127533 1.3727714
-0.5345835 0.08524693 0.4529003 0.005973514 0.07502368 0.24565926 -0.4899867 -1.0365262
1.7270273 -0.47768712 1.1504441 -0.18252355 1.0113428 -0.36683926 0.0041681672 0.40608913
1.1308799 -0.08067551 0.04269281 -0.2166943 -0.15741839 -0.26780668 -0.31829292 -0.51465017
-0.13397549 2.293222 0.23104827 -0.22615683 -0.42791325 0.3375195 -0.13845389 0.004579891
-0.18155721 -0.30974993 0.27660114 -0.33876655
00000000: f372 7c3f 8b84 bb3d 4443 a43f f9be 6a3e
00000010: 5bfc 3abf d179 5abe 819c dfbe 5ab2 9fbe
00000020: ee9c fdbe 557e 32bf ccae ae3d 131c df3e
00000030: 6ae0 6d3f bc24 433e 1dfd 3e3f 13cd dcbd
00000040: 08be c23f 44ba 4c3f 2f7d e93f f0c5 96bf
00000050: 88a8 84bf 7e7a 5c3e 6d65 f33d 9595 8e3e
00000060: d65d d53c 4e72 acbe 0cfd 62be ce13 3cbe
00000070: 9c79 12be dd2f cd3e 4f22 40be ce98 f4be
00000080: 9649 40be 23a9 d2ba 42a7 553f ee4d a3be
00000090: 03c4 5ebe 24d3 8e3d 0199 9bbe 6fc0 c83e
000000a0: 76ac 1dbe aabd bbbe 729d f23d 4554 6fbe
000000b0: 1787 b73f 00b4 8c3d 546f 86bf 852e 6d3c
000000c0: fc9a 343e e8eb a0bd a973 7f3c 9144 41bf
000000d0: cbf3 96bf 0523 4e3f 0f77 2e40 3535 35bf
000000e0: eda1 703e ad08 32bf 01ac 94be f5ff 013d
000000f0: 4852 9abd b228 9dbe 7169 cf3d f9b6 af3f
00000100: 77da 08bf f195 ae3d 8ce2 e73e 78bd c33b
00000110: 04a6 993d 1a8e 7b3e 89df fabe e4ac 84bf
00000120: 3b0f dd3f 6893 f4be c141 933f 74e7 3abe
00000130: ae73 813f 5bd2 bbbe 1f95 883b eaea cf3e
00000140: acc0 903f 3439 a5bd a8de 2e3d 1ce5 5dbe
00000150: 4932 21be f51d 89be 4af7 a2be 1dc0 03bf
00000160: df30 09be 26c4 1240 eb97 6c3e a895 67be
00000170: 7217 dbbe 5bcf ac3e dbc6 0dbe e912 963b
00000180: 22ea 39be 8b97 9ebe aa9e 8d3e cf72 adbe

mlp2.2.weight f4 [50, 100]
-0.18077232 0.17733298 -0.25546148 0.13673852 -0.06236712 0.25867432 0.06465073 0.13585581
0.13802941 0.21786197 -0.030326456 0.15450624 -0.51059806 -0.06389744 0.16370165 0.06157886
-0.25094146 -0.018521208 -0.01612603 0.08882118 -0.10855011 0.1532247 -0.02052767 -0.14723015
0.21306515 -0.03123505 0.29960802 -0.24363771 0.28447846 0.49586743 -0.32000673 0.011937969
-0.04880896 0.063049644 0.13476992 0.13108975 0.032531537 0.11732048 -0.0039627138 -0.09440105
0.014395348 0.107222125 0.101557605 0.08047005 -0.11353839 -0.24100932 0.008344311 -0.13321884
0.2564554 0.21012837 -0.13758549 0.48934272 -0.13472226 0.13681866 0.050051764 -0.0062230728
-0.02133531 -0.07332487 0.23574951 0.0034160337 0.21804197 0.26648495 0.13324884 0.06860898
0.14151832 0.113383204 -0.34254295 0.2569482 -0.036560863 -0.27198246 -0.03679588 0.29052332
-0.16869214 -0.25277278 -0.05840382 -0.07139627 -0.30241364 0.06707151 0.23904079 -0.023343645
-0.12052179 0.211182 0.2108177 0.1253818 -0.25317863 -0.0871772 0.09737315 -0.0148909325
-0.07878038 -0.10949719 -0.40231338 0.11578086 0.026915617 0.033410545 -0.4626153 0.042307958
0.054861244 0.013514195 -0.12783282 0.22100334 0.104933836 0.4199419 -0.05128821 0.050239284
-0.0035475167 -0.09474747 -0.115901954 0.33677515 -0.07518753 -0.33119842 0.049185604 -0.07793026
-0.1737274 0.09662724 0.16325453 -0.016619066 -0.0013288392 0.22046843 0.2982861 0.062562026
0.14984523 -0.27229655 -0.26222727 0.114871964 0.13895871 0.17162651 0.46872586 -0.009415535
0.0063322773 0.2950391 -0.08856859 -0.094445445 0.027734894 -0.10845842 0.1440969 -0.24557051
0.03502384 -0.37644383 0.3338851 -0.21454175 0.00027878833 0.23752396 -0.12564616 -0.07072418
-0.056843948 0.17290789 -0.04713057 0.107027784 -0.21244076 -0.009813547 -0.19490486 -0.49648374
-0.09888639 0.27941608 -0.12745081 -0.10985466 -0.20749824 -0.07481415 -0.03271288 -0.34379786
-0.29336116 -0.37698725 0.11998506 0.32523587 0.32402736 -0.18197122 -0.113897674 0.41763717
-0.022463793 0.127555 -0.0061236904 0.31469506 0.28675604 -0.43536854 -0.24547917 0.1498888
0.10101304 -0.21748728 0.14045788 -0.18024245 0.08848784 -0.056643564 0.25287947 0.24891274
-0.28744382 -0.028564507 0.25089508 -0.44704613 0.131409 0.068264864 -0.07606155 -0.13329676
-0.1957023 -0.13854861 0.14552231 -0.063626215 0.1649986 0.3157731 0.06580641 -0.38956
0.14712736 -0.14888442 0.11184243 -0.036792766 0.3294227 -0.11660615 -0.19912869 -0.25653183
-0.11241068 -0.06703377 -0.020874819 0.33020997 -0.16073395 0.29496616 -0.18090278 0.07828881
-0.16787973 -0.112935014 0.1427115 -0.20734964 -0.24970914 0.19279033 0.1973234 0.17307836
0.02654686 -0.06663364 -0.27381438 -0.21502313 0.11290745 -0.11764618 0.18116707 -0.035112128
-0.0115146255 0.19696264 0.14134783 -0.25185817 -0.23100549 0.34135306 -0.107844524 0.21402456
-0.12049321 -0.42211497 -0.06571533 -0.22908874 0.33449867 0.012251898 0.05358141 0.16847578
0.0945045 -0.08603537 0.18146312 -0.0047566337 -0.34716642 0.13792074 0.35734853 0.14571057
00000000: 611c 39be c796 353e d9cb 82be 2f05 0c3e
00000010: aa74 7fbd f670 843e 9a67 843d c91d 0b3e
00000020: 9557 0d3e 3517 5f3e 306f f8bc e236 1e3e
00000030: 8eb6 02bf a9dc 82bd 68a1 273e 1d3a 7c3d
00000040: 667b 80be cab9 97bc bc1a 84bc e1e7 b53d
00000050: 854f debd f0e6 1c3e a529 a8bc 80c3 16be
00000060: c02d 5a3e a6e0 ffbc 3966 993e 2a7c 79be
00000070: 29a7 913e 56e2 fd3e ecd7 a3be 7997 433c
00000080: e7eb 47bd 2c20 813d 2001 0a3e 643c 063e
00000090: ca3f 053d b845 f03d a7d9 81bb 5655 c1bd
000000a0: 77da 6b3c 4697 db3d 6ffd cf3d 7bcd a43d
000000b0: d186 e8bd 26cb 76be 94b6 083c 856a 08be
000000c0: 1f4e 833e e42b 573e 36e3 0cbe 218b fa3e
000000d0: a2f4 09be 311a 0c3e 1403 4d3d ebea cbbb
000000e0: 63c7 aebc 592b 96bd 5268 713e 89df 5f3b
000000f0: 6546 5f3e b770 883e 6272 083e dd82 8c3d
00000100: 2eea 103e 7435 e83d ca61 afbe b78e 833e
00000110: d8c0 15bd 4941 8bbe 47b7 16bd 79bf 943e
00000120: a2bd 2cbe 6f6b 81be d838 6fbd 3538 92bd
00000130: f6d5 9abe ca5c 893d 1cc7 743e 2c3b bfbc
00000140: 21d4 f6bd 1840 583e 98e0 573e 1664 003e
00000150: a1a0 81be f689 b2bd 936b c73d 19f9 73bc
00000160: 9c57 a1bd 1040 e0bd 05fc cdbe 841e ed3d
00000170: 247e dc3c 7fd9 083d eadb ecbe 1c4b 2d3d
00000180: 2fb6 603d a46a 5d3c 9be6 02be b34e 623e
00000190: 8de7 d63d a002 d73e 9613 52bd b5c7 4d3d
000001a0: 747d 68bb f60a c2bd 015e edbd cb6d ac3e
000001b0: ebfb 99bd d792 a9be d876 493d e699 9fbd
000001c0: 98e5 31be 81e4 c53d 322c 273e b524 88bc
000001d0: 722c aeba 7ac2 613e f5b8 983e 8520 803d
000001e0: 0771 193e 746a 8bbe a742 86be fe41 eb3d
000001f0: 314b 0e3e dcbe 2f3e d6fc ef3e 9e43 1abc
00000200: fe7e cf3b 5d0f 973e 7363 b5bd 9d6c c1bd
00000210: 4a34 e33c 731f debd 238e 133e d676 7bbe
00000220: 2875 0f3d 3fbd c0be fdf2 aa3e d5b0 5bbe
00000230: 562a 9239 7b39 733e 63a9 00be d7d7 90bd
00000240: 33d5 68bd c40e 313e fc0b 41bd 6231 db3d
00000250: 128a 59be 00c9 20bc 2495 47be 1e33 febe
00000260: f384 cabd a00f 8f3e 7782 02be 7bfb e0bd
00000270: 6b7a 54be 2938 99bd f1fd 05bd 4606 b0be
00000280: 6f33 96be 7904 c1be baba f53d 5185 a63e
00000290: eae6 a53e aa56 3abe 2f43 e9bd 8ad4 d53e
000002a0: fd05 b8bc c79d 023e 3da9 c8bb b61f a13e
000002b0: b0d1 923e a0e8 debe e45e 7bbe 737c 193e
000002c0: eddf ce3d fcb4 5ebe 31d4 0f3e 7a91 38be
000002d0: 1d39 b53d 1503 68bd 6b79 813e fbe2 7e3e
000002e0: d62b 93be 1d00 eabc 5275 803e 3be3 e4be
000002f0: 1590 063e 73ce 8b3d 28c6 9bbd f27e 08be
00000300: 2f66 48be b0df 0dbe cd03 153e 764e 82bd
00000310: 65f5 283e 03ad a13e 83c5 863d 6974 c7be
00000320: 8ea8 163e 2875 18be a50d e53d 03b4 16bd
00000330: 18aa a83e 35cf eebd 64e8 4bbe 2458 83be
00000340: 9237 e6bd 0049 89bd ab01 abbc 4811 a93e
00000350: 7197 24be ce05 973e 943e 39be e255 a03d
00000360: aae8 2bbe 794a e7bd f722 123e 7753 54be
00000370: c1b3 7fbe d46a 453e 250f 4a3e 743b 313e
00000380: cd78 d93c 3877 88bd 6631 8cbe 062f 5cbe
00000390: 053c e73d 7bf0 f0bd dc83 393e bcd1 0fbd
000003a0: d7a7 3cbc 93b0 493e 7cbd 103e 8ef3 80be
000003b0: b48c 6cbe d4c5 ae3e 97dd dcbd 4129 5b3e
000003c0: 25c5 f6bd 741f d8be c295 86bd 3d96 6abe
000003d0: 6943 ab3e 2fbc 483c 2e78 5b3d ea84 2c3e
000003e0: 938b c13d 5033 b0bd 78d1 393e 89dd 9bbb
000003f0: ccbf b1be 183b 0d3e 63f6 b63e 2735 153e

mlp2.2.bias f4 [50]
-0.573367 -0.58889943 0.53459764 0.49478102 1.223524 0.1854318 -0.30642655 -0.4737715
-0.114468835 -0.65583897 -0.10581626 -1.0170543 -0.9324099 0.0013884375 -0.6350562 0.040916584
0.82485235 -0.4607048 0.6108215 -0.2937586 0.28332898 -0.45374954 -1.0073508 0.841445
-0.23857313 0.8722812 0.014559639 -0.20347302 0.5906254 -1.0961742 0.78912884 0.3936086
1.2492467 0.053192113 0.28395486 -0.4765949 0.89026785 0.020842383 0.8888669 -0.71254116
-1.112637 -0.8573756 0.28975263 0.65431774 -0.13924256 0.5641549 -0.11228119 0.4581678
-0.7783012 0.31170067
00000000: 2ec8 12bf 1dc2 16bf 64db 083f f053 fd3e
00000010: 6f9c 9c3f d5e1 3d3e f1e3 9cbe 2e92 f2be
00000020: a36e eabd 10e5 27bf 32b6 d8bd d62e 82bf
00000030: 6ab2 6ebf 3bfc b53a 0b93 22bf 2698 273d
00000040: 8629 533f 80e1 ebbe cc5e 1c3f 8767 96be
00000050: 7f10 913e dc51 e8be dff0 80bf f168 573f
00000060: 844c 74be d24d 5f3f 8d8b 6e3c 3b5b 50be
00000070: 3a33 173f 704f 8cbf 5904 4a3f 1187 c93e
00000080: 51e7 9f3f f9df 593d 8862 913e 3f04 f4be
00000090: 98e8 633f a5bd aa3c c88c 633f 1969 36bf
000000a0: e46a 8ebf f87c 5bbf 755a 943e 5e81 273f
000000b0: 9a95 0ebe 756c 103f aef3 e5bd f894 ea3e
000000c0: bf3e 47bf 3b97 9f3e

attention.0.weight f4 [100, 100]
-0.17286985 -0.16749506 -0.05937199 -0.087508716 0.004820527 -0.021407995 -0.0074175186 -0.02288854
0.09021006 -0.03353295 0.2345289 0.22598541 0.027103385 -0.19171502 0.05534268 -0.16317189
-0.15363179 -0.09832393 -0.41612357 -0.24179806 0.15524699 -0.0006121867 0.065491654 -0.00806053
0.09631786 0.03915439 0.0122566 -0.23140664 -0.097576804 0.083132125 0.16061914 -0.06407237
-0.095792666 -0.034979347 -0.059035834 0.07538514 -0.09126693 -0.16475436 -0.032760873 -0.039729558
-0.05955303 0.065566614 -0.03536617 -0.11258961 -0.11868959 0.089796305 -0.25278318 -0.34716704
-0.1684304 -0.12785996 0.0044590454 -0.12061558 -0.14947312 -0.009147361 -0.18309249 -0.05074013
-0.18267098 -0.04396379 0.077896744 -0.0084562255 0.37469453 -0.19840457 0.0054944046 -0.25924122
0.0012080506 0.11452486 -0.045784093 -0.06152465 -0.08821759 -0.04237916 0.14618123 0.007385303
0.038588177 -0.10060329 -0.16985303 -0.13277324 -0.109355874 -0.10134962 -0.0074824053 0.08421501
-0.28888515 -0.21606329 -0.13558581 -0.14659467 -0.24379563 0.03492177 0.13119389 -0.121140316
-0.43503085 0.29618886 0.09085592 -0.080115445 -0.045912642 0.008399796 0.23520683 -0.12213187
0.059502635 -0.12446589 -0.1442067 -0.079882726 -0.034650266 -0.113063335 -0.30078492 -0.1835435
-0.05861993 0.16186938 -0.094146036 -0.008230305 0.32389155 0.1849084 -0.42076465 0.10025441
-0.06935736 -0.0051195077 -0.29669482 -0.3681824 -0.15801305 -0.05267578 -0.23742147 0.03687958
0.02383251 -0.010160307 -0.17414859 0.536094 0.03884916 0.021737788 0.14205539 -0.21521907
0.10587736 0.10680599 -0.07987603 -0.26019704 0.11516488 -0.16937746 -0.0007832363 -0.041757297
0.030492958 -0.13557196 0.18441364 -0.11317779 0.111484095 0.13159905 -0.009332555 -0.22522107
-0.112337746 -0.02625993 -0.20960036 -0.490557 -0.17831162 0.029329991 0.011084782 -0.117563725
-0.049952418 -0.123174414 -0.17047204 -0.120978974 -0.20887764 -0.17387852 0.19784127 0.034742042
-0.1727243 -0.16836816 0.10139369 -0.169259 -0.03601517 -0.026348945 0.26872888 -0.1624974
-0.088446505 -0.003831925 -0.1843619 -0.13962263 0.093423426 0.1024638 0.08388106 -0.32583445
-0.5515196 0.05921016 0.17069049 0.094151445 -0.114214785 -0.24612248 -0.2317457 -0.08867163
-0.37737274 -0.27627778 0.2092662 -0.28923798 -0.33320346 -0.2123876 0.011067715 0.12046276
-0.2774136 -0.06512412 -0.009403663 0.21660262 -0.016287334 0.0063560097 -0.10196001 -0.043446
-0.10367241 -0.023002535 -0.08041939 -0.05430797 -0.046902377 0.049609173 0.104411736 0.08286937
0.3446871 -0.24767019 0.38208368 -0.19649127 -0.13551895 -0.028816154 -0.05296136 -0.15320253
-0.09673538 -0.029366234 -0.01885859 -0.26490447 0.23794207 0.053813767 -0.24715415 0.020498851
-0.11728615 0.06060976 0.010659938 -0.08675366 -0.09724765 -0.030585129 -0.057806026 -0.09567096
-0.09557022 -0.1206888 -0.060324892 0.045280896 -0.020071834 -0.15979743 -0.042673323 0.0040148254
-0.008384136 -0.031805277 -0.043120027 -0.069364235 -0.07114288 0.025366323 -0.13686284 -0.4068144
-0.1166695 0.07441692 -0.03877582 -0.16357619 -0.13620642 0.009135735 -0.13341379 -0.051973913
00000000: cb04 31be d383 2bbe 0b30 73bd c537 b3bd
00000010: 83f5 9d3b d25f afbc a80e f3bb bf80 bbbc
00000020: 0dc0 b83d d959 09bd 5828 703e b868 673e
00000030: eb07 de3c f150 44be 02af 623d 8816 27be
00000040: a751 1dbe 0e5e c9bd 260e d5be e999 77be
00000050: 11f9 1e3e 277b 20ba 7d20 863d 5010 04bc
00000060: 4c42 c53d 5b60 203d e8cf 483c ddf5 6cbe
00000070: 59d6 c7bd 2d41 aa3d 5879 243e 6038 83bd
00000080: f22e c4bd 8146 0fbd 8fcf 71bd 8663 9a3d
00000090: 28ea babd 5eb5 28be 4430 06bd 76bb 22bd
000000a0: e1ed 73bd ca47 863d 1edc 10bd 6295 e6bd
000000b0: 8713 f3bd 20e7 b73d cc6c 81be e1bf b1be
000000c0: 0579 2cbe b9ed 02be 2f1d 923b 4d05 f7bd
000000d0: 7b0f 19be d0de 15bc 997c 3bbe e2d4 4fbd
000000e0: 1a0e 3bbe 6013 34bd 5488 9f3d fb8b 0abc
000000f0: f6d7 bf3e 912a 4bbe 680a b43b 44bb 84be
00000100: 7457 9e3a 038c ea3d 1a88 3bbd 4501 7cbd
00000110: 6cab b4bd c595 2dbd 88b0 153e 6900 f23b
00000120: a30e 1e3d 1909 cebd f4ed 2dbe b5f5 07be
00000130: f9f5 dfbd 6490 cfbd f72e f5bb eb78 ac3d
00000140: c1e8 93be b23f 5dbe 02d7 0abe ea1c 16be
00000150: 90a5 79be 210a 0f3d b157 063e 6a18 f8bd
00000160: 5dbc debe 11a6 973e ab12 ba3d 9113 a4bd
00000170: e50e 3cbd 4c9f 093c 0fda 703e 4620 fabd
00000180: 09b9 733d f9e7 febd ecaa 13be 8e99 a3bd
00000190: 70ed 0dbd c08d e7bd 7b00 9abe d4f2 3bbe
000001a0: 741b 70bd 16c1 253e a3cf c0bd 67d8 06bc
000001b0: 1dd5 a53e a158 3d3e 776e d7be 2f52 cd3d
000001c0: 3b0b 8ebd 8bc1 a7bb 62e8 97be 6782 bcbe
000001d0: 2cce 21be 8fc2 57bd 9d1e 73be 0b0f 173d
000001e0: 653c c33c 6b77 26bc 0254 32be 753d 093f
000001f0: 4c20 1f3d 7213 b23c f876 113e 6362 5cbe
00000200: 3bd6 d83d 19bd da3d 0b96 a3bd 8c38 85be
00000210: 91db eb3d 4971 2dbe 1952 4dba b309 2bbd
00000220: 5ecc f93c 60d3 0abe eed6 3c3e c2c9 e7bd
00000230: c651 e43d e7c1 063e 93e7 18bc 5aa0 66be
00000240: 5511 e6bd 111f d7bc 7aa1 56be 492a fbbe
00000250: 5297 36be 7345 f03c f29c 353c 40c5 f0bd
00000260: e89a 4cbd de42 fcbd 3990 2ebe d3c3 f7bd
00000270: 05e4 55be 360d 32be e796 4a3e ac4d 0e3d
00000280: a4de 30be b468 2cbe 7fa7 cf3d 3b52 2dbe
00000290: a584 13bd bed9 d7bc d596 893e b865 26be
000002a0: 7123 b5bd 0921 7bbb 5ec9 3cbe 3cf9 0ebe
000002b0: c854 bf3d 8ad8 d13d d5c9 ab3d c6d3 a6be
000002c0: 6330 0dbf 5a86 723d 7dc9 2e3e 79d2 c03d
000002d0: 71e9 e9bd 8807 7cbe bf4e 6dbe 7999 b5bd
000002e0: 0037 c1be 4874 8dbe e149 563e 0017 94be
000002f0: a599 aabe 237c 59be 5c55 353c 2eb5 f63d
00000300: 2809 8ebe cb5f 85bd d211 1abc 14cd 5d3e
00000310: 046d 85bc 1346 d03b 69d0 d0bd 6ff4 31bd
00000320: 3352 d4bd d06f bcbc ecb2 a4bd 0972 5ebd
00000330: b51c 40bd fd32 4b3d d2d5 d53d 6bb7 a93d
00000340: d47a b03e 419d 7dbe 79a0 c33e 0235 49be
00000350: 7bc5 0abe db0f ecbc 03ee 58bd 20e1 1cbe
00000360: 331d c6bd 7591 f0bc 547d 9abc 8fa1 87be
00000370: 16a7 733e d36b 5c3d fa15 7dbe 35ed a73c
00000380: b933 f0bd f141 783d 05a7 2e3c e7ab b1bd
00000390: c729 c7bd aa8d fabc 03c6 6cbd 23ef c3bd
000003a0: 52ba c3bd b12b f7bd 3c17 77bd 7678 393d
000003b0: b06d a4bc f0a1 23be 39ca 2ebd cc8e 833b
000003c0: 9d5d 09bc 4046 02bd a09e 30bd d60e 8ebd
000003d0: 5cb3 91bd 09cd cf3c c625 0cbe fa49 d0be
000003e0: 6bf0 eebd e667 983d 65d3 1ebd 8480 27be
000003f0: b279 0bbe 0dae 153c a09d 08be 99e2 54bd

attention.0.bias f4 [100]
0.07736899 -0.37476677 -0.21610424 -0.26933816 -0.16345716 -0.1285311 0.13212927 -0.28042793
0.022127105 -0.21669224 0.18315102 -0.40562385 -0.13830115 -0.28582108 -0.3847007 -0.4326973
-0.3693316 -0.43002656 -0.093851365 -0.25754914 0.40360138 -0.15574048 -0.10539407 -0.04863701
-0.39484358 -0.043653682 -0.32480586 -0.22939807 -0.29602516 -0.09348041 -0.34895232 -0.44011465
-0.45721218 -0.11519001 -0.23557763 -0.020038495 0.21529166 -0.080647774 -0.072184406 -0.10580991
-0.12095238 -0.16250683 -0.05747909 -0.0135233905 -0.19009268 -0.12485642 -0.26557687 -0.572732
0.02676994 -0.05015555 -0.2739791 -0.49359295 0.05320001 -0.40221995 -0.21004921 0.14946042
-0.37800017 -0.3607487 -0.3210909 -0.079673365 0.02474594 -0.04818167 -0.10326713 0.052266825
-0.20785461 -0.097309135 -0.369937 -0.16895503 0.011259427 -0.039286595 -0.040161412 -0.23074158
-0.28045845 0.0114236325 -0.41033128 -0.2946416 -0.29858726 -0.02002007 -0.18446505 0.011317596
-0.076725006 0.20658822 0.3781408 -0.060464967 0.41880804 -0.098660976 -0.09529886 -0.26535666
0.052504443 -0.19438866 -0.22754176 0.041440293 -0.19747725 -0.18434437 -0.19553444 -0.12053827
0.07047141 0.1306927 -0.17498735 -0.76592636
00000000: a273 9e3d 6ee1 bfbe 6e4a 5dbe b1e6 89be
00000010: 5061 27be a89d 03be e54c 073e 4094 8fbe
00000020: e743 b53c 92e4 5dbe f18b 3b3e eead cfbe
00000030: d19e 0dbe 2457 92be 7df7 c4be 808a ddbe
00000040: 0819 bdbe 712c dcbe 2535 c0bd 7bdd 83be
00000050: d7a4 ce3e 6f7a 1fbe d9d8 d7bd 9a37 47bd
00000060: f028 cabe 34ce 32bd f44c a6be 54e7 6abe
00000070: 9c90 97be a872 bfbd e1a9 b2be b556 e1be
00000080: b717 eabe bde8 ebbd 433b 71be c527 a4bc
00000090: 6b75 5c3e a92a a5bd 6bd5 93bd deb2 d8bd
000000a0: e2b5 f7bd 3168 26be 326f 6bbd 3691 5dbc
000000b0: a8a7 42be b9b4 ffbd b1f9 87be 909e 12bf
000000c0: a24c db3c e86f 4dbd fd46 8cbe 37b8 fcbe
000000d0: 41e8 593d c6ef cdbe 2417 57be 270c 193e
000000e0: 3d89 c1be 0eb4 b8be 0766 a4be ca2b a3bd
000000f0: ffb7 ca3c 255a 45bd b87d d3bd bd15 563d
00000100: d7d7 54be 034a c7bd 6268 bdbe 8c02 2dbe
00000110: 7679 383c fbea 20bd 4b80 24bd 8547 6cbe
00000120: 4098 8fbe 302a 3b3c f116 d2be 44db 96be
00000130: 6ee0 98be 2101 a4bc 68e4 3cbe 706d 393c
00000140: 0022 9dbd dd8b 533e ac9b c13e 1daa 77bd
00000150: 026e d63e c40e cabd 0c2c c3bd d4dc 87be
00000160: e60e 573d d20d 47be b500 69be 4cbd 293d
00000170: 7a37 4abe c5c4 3cbe 2e3a 48be c5dc f6bd
00000180: 5153 903d 4fd4 053e e22f 33be c013 44bf

attention.2.weight f4 [100, 100]
0.021226307 -0.01890394 -0.22127773 -0.09167102 0.28977436 0.10357162 0.089588396 -0.09153842
0.061239775 -0.042633384 -0.061896835 -0.10288233 0.0406009 0.04729301 -0.022553766 -0.13269372
-0.18336448 -0.1112737 -0.034586504 -0.13731007 -0.059096873 -0.0077607846 0.020775149 0.009048966
-0.036300555 -0.11344256 0.02836552 -0.1302978 0.060244933 0.15599115 0.110521935 -0.013537354
-0.019500976 0.014120757 -0.056817498 -0.07314536 0.026419511 0.0061851353 -0.009034461 -0.10679833
0.038439088 -0.082554355 -0.08852483 -0.10238445 -0.07214757 0.12851167 -0.16209035 0.03254065
0.032042515 -0.06278555 -0.22795433 -0.027274182 -0.018584406 -0.093781844 -0.095625386 -0.2701256
-0.16184615 -0.115206584 -0.03765289 0.061322685 -0.034386605 -0.05289835 -0.012183983 -0.12986985
-0.065276906 0.022582574 -0.057043184 -0.1851183 0.14890943 0.07707843 0.050722476 -0.022369679
0.013469997 -0.036416255 -0.11772024 -0.10226629 0.0944074 0.015194345 0.1202027 0.19657342
-0.11258349 -0.13155955 -0.02565393 -0.018283749 -0.061244067 -0.03969308 -0.024783222 -0.019318664
-0.05174312 -0.12878133 -0.072538435 -0.07422034 0.021669455 0.061287116 -0.231784 -0.012518082
-0.09847654 -0.0469962 0.020136314 -0.09545698 -0.024767198 0.029929815 0.06812869 0.012328005
-0.048096213 0.041564822 -0.10789184 -0.050564393 -0.0027518242 0.062710226 -0.047903363 -0.08766062
-0.053688016 -0.03584089 -0.020861639 -0.024315694 -0.07563431 -0.10944343 -0.060021844 0.049430605
-0.07458644 0.0740324 0.013662704 -0.046779625 -0.10110375 -0.06258901 0.014435347 -0.027541956
-0.016813125 0.0113424435 -0.026700605 -0.07690206 0.019211544 -0.056358173 0.013148691 0.009440865
-0.03944681 0.06620186 0.0364748 -0.09060477 0.045767203 -0.07654789 -0.0739674 0.0032759344
0.007045021 -0.08907585 -0.0931471 -0.022981998 0.07353772 -0.089606635 -0.0857305 -0.056693345
0.02225225 -0.022110807 0.030170634 -0.096459016 0.021187337 0.03310789 -0.003842948 0.015748417
0.0019833606 -0.077341124 0.108837076 0.04695544 -0.036929842 0.04753112 0.07091572 -0.0805693
-0.0037305183 0.006374589 -0.08928068 -0.06627749 0.06608187 -0.021052688 -0.023063932 0.07961038
0.013622345 0.017469894 -0.03478214 -0.024106106 0.041402977 -0.0123527795 -0.037797913 0.040185258
-0.031823292 -0.09605799 -0.1007091 -0.10342497 0.016096512 0.06125944 0.008220162 -0.044698406
-0.062060237 -0.10972373 -0.07022149 0.025907746 -0.0487037 -0.09947917 -0.08137099 -0.08065027
-0.0799798 -0.060756095 -0.07127581 -0.062916815 0.057193805 -0.019650888 0.07634997 -0.094586805
-0.0074931 -0.036436282 0.09615808 0.0044319886 -0.031527333 -0.12959579 0.0070381705 -0.12326942
0.0055300356 0.045293435 0.012939234 0.050700266 -0.082385115 0.021230742 -0.11713182 -0.07175116
-0.060367253 -0.0035098833 -0.11964627 0.11289649 -0.109116994 0.012271865 -0.07217998 -0.1264552
0.012650216 -0.039423134 -0.032041874 -0.06451715 -0.0940699 0.022821939 0.09334147 -0.075800925
0.024699705 0.09692814 0.021502798 -0.0283295 -0.022438137 0.07291867 -0.026986107 -0.0071407612
0.038190767 0.013668192 -0.018135566 -0.05967185 -0.052824013 -0.045239184 -0.01750761 -0.051394586
00000000: cbe2 ad3c 70dc 9abc a196 62be 04be bbbd
00000010: 4e5d 943e 5c1d d43d 1f7a b73d 7f78 bbbd
00000020: 8fd6 7a3d 58a0 2ebd 8987 7dbd f9b3 d2bd
00000030: 214d 263d 51b6 413d adc2 b8bc dde0 07be
00000040: e6c3 3bbe 77e3 e3bd 94aa 0dbd 039b 0cbe
00000050: 900f 72bd 2e4e febb a530 aa3c 1d42 143c
00000060: e4af 14bd 9354 e8bd cf5e e83c c96c 05be
00000070: 64c3 763d 25bc 1f3e 5359 e23d c7cb 5dbc
00000080: 83c0 9fbc bf5a 673c 77b9 68bd 3ccd 95bd
00000090: bb6d d83c adac ca3b 4705 14bc 15b9 dabd
000000a0: 4e72 1d3d 4212 a9bd 824c b5bd f0ae d1bd
000000b0: 1bc2 93bd 9098 033e 03fb 25be 5849 053d
000000c0: 033f 033d b695 80bd dc6c 69be 1b6e dfbc
000000d0: 533e 98bc b210 c0bd 3ed7 c3bd e74d 8abe
000000e0: ffba 25be 6ef1 ebbd eb39 1abd 7f2d 7b3d
000000f0: f8d8 0cbd f1ab 58bd 549f 47bc 9afc 04be
00000100: e6af 85bd 17ff b83c 1da6 69bd a78f 3dbe
00000110: b77b 183e 4cdb 9d3d 5fc2 4f3d 9e40 b7bc
00000120: 43b1 5c3c 3629 15bd 4f17 f1bd fd70 d1bd
00000130: ab58 c13d b4f1 783c d52c f63d 8b4a 493e
00000140: 2c92 e6bd 8cb7 06be 3128 d2bc cdc7 95bc
00000150: 0fdb 7abd 3695 22bd 2f06 cbbc 2d42 9ebc
00000160: 98f0 53bd 41df 03be 088f 94bd d500 98bd
00000170: 2484 b13c 3308 7b3d c958 6dbe a418 4dbc
00000180: 11ae c9bd 167f 40bd e9f4 a43c f37e c3bd
00000190: 94e4 cabc 5f2f f53c 0e87 8b3d 67fb 493c
000001a0: 8900 45bd e03f 2a3d 66f6 dcbd 9c1c 4fbd
000001b0: f357 34bb 386e 803d 5136 44bd 6987 b3bd
000001c0: f7e7 5bbd e6cd 12bd 07e6 aabc b531 c7bc
000001d0: 29e6 9abd e123 e0bd 77d9 75bd bf77 4a3d
000001e0: c7c0 98bd 4d9e 973d 89d9 5f3c fe9b 3fbd
000001f0: 7c0f cfbd ab2e 80bd 3c82 6c3c ab9f e1bc
00000200: aebb 89bc a8d5 393c 3abb dabc d47e 9dbd
00000210: 8761 9d3c d4d7 66bd 9b6d 573c dcad 1a3c
00000220: fa92 21bd d794 873d 9a66 153d fe8e b9bd
00000230: 6476 3b3d 24c5 9cbd 387c 97bd 0fb1 563b
00000240: ebd9 e63b 666d b6bd e8c3 bebd be44 bcbc
00000250: f29a 963d af83 b7bd 7993 afbd 4837 68bd
00000260: 5a4a b63c b921 b5bc 6828 f73c 4e8c c5bd
00000270: 1191 ad3c 249c 073d f8d9 7bbb d302 813c
00000280: 45fb 013b 0665 9ebd f9e5 de3d 5954 403d
00000290: bf43 17bd feaf 423d 433c 913d 8401 a5bd
000002a0: b67b 74bb eee1 d03b cad8 b6bd 7ebc 87bd
000002b0: ee55 873d b076 acbc 92f0 bcbc c40a a33d
000002c0: 4230 5f3c 061d 8f3c b877 0ebd 2b7a c5bc
000002d0: 2b96 293d 5063 4abc fcd1 1abd 4c99 243d
000002e0: 2459 02bd 0dba c4bd 9340 cebd 78d0 d3bd
000002f0: d5dc 833c 2eeb 7a3d dcad 063c ad15 37bd
00000300: e032 7ebd d6b6 e0bd 49d0 8fbd 7b3c d43c
00000310: 887d 47bd bcbb cbbd d5a5 a6bd f82b a5bd
00000320: 73cc a3bd 62db 78bd 0df9 91bd 88da 80bd
00000330: 0d44 6a3d e6fa a0bc 605d 9c3d bab6 c1bd
00000340: ae88 f5bb 363e 15bd 87ee c43d 373a 913b
00000350: ce22 01bd c2b4 04be 74a0 e63b ad74 fcbd
00000360: 4d35 b53b 9c85 393d 15ff 533c 15ab 4f3d
00000370: 87b9 a8bd 18ec ad3c cfe2 efbd 46f2 92bd
00000380: a743 77bd 1206 66bb 1b09 f5bd 4636 e73d
00000390: bb78 dfbd ef0f 493c 19d3 93bd 797d 01be
000003a0: da42 4f3c 277a 21bd 573e 03bd 9121 84bd
000003b0: b8a7 c0bd 13f5 ba3c d029 bf3d 843d 9bbd
000003c0: 0957 ca3c 4382 c63d a326 b03c 4513 e8bc
000003d0: 2fd0 b7bc 6256 953d f811 ddbc 0cfd e9bb
000003e0: ec6d 1c3d 8df0 5f3c 0a91 94bc 786a 74bd
000003f0: fe5d 58bd b94c 39bd 1f6c 8fbc 2183 52bd
