sarl_star_ros/CrowdNav-crosspath/crowd_nav/data/output_alisher_blockpath_2/rl_model.pth (torch_old, 349196 bytes, 20 tensors)

mlp1.0.weight f4 [150, 13]
000000 05 e9 16 bf 60 18 d1 3d df 7d bd 3e 2e 92 46 3e
       -0.5894931 0.10209727 0.37010095 0.193917
000010 6c 02 b6 be 35 6c b3 3e 5f 40 57 3e 33 ba b4 be
       -0.35548723 0.35043493 0.2102065 -0.3529831
000020 58 d2 46 3f a5 33 27 bf 4c 88 ca bd e2 48 d8 be
       0.7766471 -0.6531318 -0.09889278 -0.42243105
000030 83 fb 7e bd 38 0a 50 bf 3e c5 dc 3e 3e 48 06 bf
       -0.06225158 -0.8126559 0.43119234 -0.5245398
000040 c0 a4 85 bd 1e a3 39 3f 64 48 a9 bf b0 cd b0 3e
       -0.06525564 0.7251452 -1.3225217 0.34531927
000050 86 56 b7 3f 60 7a b1 3e 85 c9 22 3f 3d c6 34 bf
       1.432328 0.34663677 0.63588744 -0.7061499
000060 93 25 df 3d 67 5c 00 bf b0 f9 54 be 10 04 46 be
       0.108958386 -0.50140995 -0.20798373 -0.19337487
000070 a4 13 21 bd dc 38 1a 3c aa ad d4 bb a7 19 b4 bc
       -0.03932537 0.00941297 -0.006490429 -0.021984888
000080 2c 2e c2 3d 74 c4 0e bc 36 28 84 be 3a 72 3b be
       0.09481463 -0.00871383 -0.2581193 -0.18305293
000090 4b 24 45 be 17 c0 58 be 60 2e 75 bd ce af 2b bf
       -0.19252126 -0.21167026 -0.05985868 -0.6706513
0000a0 1e e8 2f 3e a4 70 07 bf d8 8d 09 3e 5c 8d 52 3e
       0.1717839 -0.5290625 0.13433015 0.20561737
0000b0 3e fc ee be 4a d5 d7 be ab e1 ba 3e 14 45 8e 3e
       -0.4667682 -0.42154914 0.36500296 0.27787077
0000c0 1e 9b 9c be 7b da 5e 3e d3 c7 11 bd 22 31 8b 3e
       -0.30587095 0.21763031 -0.035590958 0.27185923
0000d0 85 9e 87 3d 62 db ae be f9 5a 3d bf fa 86 81 be
       0.06622032 -0.3415175 -0.7396694 -0.2529829
0000e0 e1 44 eb bf 7a 39 4f 3f ab c4 03 bf 8a a7 e1 bf
       -1.8380395 0.8094708 -0.51471967 -1.7629254
0000f0 16 54 f8 3b 68 fe aa bf 02 8d cc 3e f1 8e 56 bd
       0.007578383 -1.3358889 0.3995133 -0.052382413
000100 04 cd 93 bd bf a5 9c bf 8d ee 49 bf 07 6a da 3e
       -0.07216838 -1.2238082 -0.78879625 0.42659017
000110 40 81 22 be 3a 77 1e bf b8 9b 1e 3f 21 2a f2 3f
       -0.15869617 -0.61900675 0.6195636 1.8919107
000120 4c 3a 68 3f 21 ae 33 c0 40 5c ae 3e 9f b5 58 bf
       0.90713954 -2.807503 0.34054756 -0.8465213
000130 10 de de be 57 f3 82 bf f2 32 ad be b7 a4 c1 3c
       -0.43528795 -1.0230511 -0.3382793 0.023638112
000140 e0 69 b9 be 8e 5b 12 3d 92 54 ba 3e 0c 30 a5 be
       -0.3621359 0.035731845 0.36392647 -0.3226322
000150 7d b0 19 bd af 26 bc be 50 6a c6 be 7d 84 c1 3e
       -0.037521828 -0.36748263 -0.38752985 0.37796393
000160 4e 7f c8 3e 2c 58 00 3b 78 6b 10 3f f9 99 d5 3f
       0.39159626 0.0019583805 0.56413984 1.6687614
000170 8d ea bd bf 19 40 58 c0 b6 cd 3c be 76 9b 45 3b
       -1.4837204 -3.3789122 -0.18437847 0.0030152476
000180 f9 77 a1 bf 10 b5 7f bf a0 f8 62 bf 19 dc 05 c0
       -1.2614738 -0.99885654 -0.8866062 -2.0915587
000190 75 40 f6 bf 87 b6 ed bf 9b bd 45 bf d8 6b 07 c0
       -1.9238421 -1.8571328 -0.7724244 -2.1159573
0001a0 00 2d d4 3e 04 26 38 3e e1 c8 8c 3d be fb 42 be
       0.41440582 0.17983252 0.06874252 -0.19041345
0001b0 cc a2 ab 3e e5 e2 95 3e 31 94 23 c0 81 64 f5 be
       0.33522642 0.2927467 -2.55592 -0.4792824
0001c0 3a 94 bc bf 27 f6 43 be 2a a3 06 3f 7a 35 a1 bf
       -1.4732735 -0.19136868 0.5259272 -1.2594445
0001d0 16 2b 14 3f ce f9 3c bf 7f 20 18 bf 82 2f 2e 3f
       0.57878244 -0.7381867 -0.59424585 0.6804124
0001e0 54 84 ac bb 4f ca bf bf 3d 72 1e bf 0a 93 c3 3f
       -0.005264798 -1.4983615 -0.61893064 1.5279248
0001f0 80 c1 ce bf 21 c7 e9 be f7 65 d1 3d 5e 09 79 3f
       -1.6152802 -0.45659736 0.102245264 0.9727992
000200 5d 82 93 bf 43 f7 03 3f b5 46 c8 3f cb 01 28 c0
       -1.1524159 0.51549166 1.5646578 -2.6251094
000210 f6 52 14 3f 3c 6f 05 bf 83 41 2c c0 fd b7 30 bc
       0.5793909 -0.52122855 -2.6914985 -0.010786054
000220 6b 20 c0 be d9 83 95 3e 14 0f d5 40 19 79 6d 3f
       -0.37524733 0.29202154 6.6580906 0.92762905
000230 33 2f e2 bf e8 46 19 3f c2 23 29 c0 a8 aa 92 be
       -1.7670654 0.5987382 -2.6428075 -0.28645825
000240 46 58 3c be 0a 18 a0 3e 68 f6 1c be f7 34 12 be
       -0.18393049 0.3126834 -0.15328372 -0.14278017
000250 be de 5a 3e 9c ee 7a 3e 9b f1 47 be 40 94 ad 3e
       0.21374032 0.24505085 -0.19525759 0.33902168
000260 96 aa 39 bd 40 59 5e 3d ec 5c 4d be 1b 8e 88 bc
       -0.0453287 0.054284334 -0.20054978 -0.016669324
000270 9c 8b ae 3e 7a ab 05 3f 53 12 b9 3d 00 ea 77 3e
       0.34090889 0.5221478 0.09036698 0.24210358
000280 72 74 96 3f 79 02 b8 bf d8 85 a3 bf 9b 1c a3 3f
       1.1754286 -1.4375755 -1.2775221 1.2743105
000290 ac f6 7a 3d 94 4c d6 be 34 d6 74 3f 63 49 15 c0
       0.0612704 -0.418553 0.9563935 -2.3326042
0002a0 de e8 84 3f 77 db 5a bd c6 2e 24 be 2c 9f 31 3f
       1.0383565 -0.053431954 -0.16033468 0.693835
0002b0 68 9a 19 3e bf f1 3b 3f c4 e2 5b 3f a9 86 89 bf
       0.15000308 0.7341575 0.8589289 -1.074422
0002c0 2e 8a 20 be f7 00 08 3f 15 2b 9d 3d a4 34 e6 3e
       -0.15677711 0.5312647 0.07674233 0.44962037
0002d0 e4 f0 d1 bf 29 94 ec 3e c2 8b c7 be c6 31 2e be
       -1.6401639 0.46206787 -0.38973814 -0.17011175
0002e0 f7 0f ff be 22 c2 3d be 19 80 79 bd da 55 a3 3d
       -0.49816868 -0.18531087 -0.06091318 0.07975359
0002f0 12 b1 6d be 17 09 01 3e 47 24 b7 3e bf ae 0c be
       -0.23212078 0.12601124 0.35769865 -0.13738535
000300 ac 0f c7 bd 9c 45 0c 3e 3a 15 63 3a 81 a2 1f be
       -0.09719786 0.13698429 0.0008662526 -0.15589334
000310 eb a1 4a bf 30 62 8d 3f 81 8e 92 be e3 ba 77 3e
       -0.7915332 1.104559 -0.28624347 0.24192385
000320 50 89 f3 be 6e 03 ca 3e 4c c9 07 bf 42 1c 58 3f
       -0.475657 0.39455742 -0.5304153 0.8441812
000330 92 c0 8a 40 50 a4 e8 3f 6c b7 13 bf be 47 d1 3f
       4.336007 1.8175144 -0.57701755 1.6350019
000340 07 dd f7 bd fa f1 2e be 7c a6 48 3e 3c 27 9b be
       -0.121027045 -0.17084494 0.19594759 -0.3030337
000350 54 f1 d3 3e 35 a4 8c 3d 50 d9 83 3f d5 d3 4f bf
       0.41395056 0.068672575 1.0300694 -0.81182605
000360 92 3f de bf d7 c2 40 3f 80 8f d4 3f a9 6b 94 bf
       -1.736315 0.752973 1.6606293 -1.1595355
000370 8d f1 bd 3f 01 b4 3a 3d 82 ab 69 be 11 d7 0f 3e
       1.483934 0.04558182 -0.22819331 0.14046885
000380 50 5f 0a be 76 ca c2 be d6 ec bc be 45 e0 b6 3e
       -0.13512921 -0.3804509 -0.3689944 0.3571798
000390 43 05 8d 3e 8c f0 80 bf 7d 78 a9 bf c6 83 cf 3e
       0.27543077 -1.0073409 -1.3239895 0.40530223
0003a0 b2 22 94 bf 96 41 05 3f e4 aa 98 3e 74 86 62 3e
       -1.1573088 0.520532 0.2981788 0.22121602
0003b0 f0 9c 35 bd cf dc 5d 3e fe a7 5d bf 07 1c 24 3e
       -0.04433912 0.21666263 -0.8658446 0.16026317
0003c0 f8 2b ea be b0 0a 57 3d a0 36 bd bf bf c0 8a bf
       -0.4573667 0.052500427 -1.4782295 -1.0840071
0003d0 fc 2e 5d 3e 9f 3a 21 bf 53 b1 ff 3e a8 80 4b 3e
       0.21599954 -0.62980074 0.49939975 0.19873297
0003e0 c7 78 87 3f 3a 3f a6 3f 0d 0b e1 3e 59 6c d2 3f
       1.0583733 1.2988045 0.43953744 1.6439315
0003f0 56 75 9f 40 b6 7d 82 3d 73 78 51 bf 3b c6 f5 3f
       4.983073 0.06371634 -0.81824416 1.920112

mlp1.0.bias f4 [150]
000000 64 43 4c 3d 5f 4d 2e 3f 87 99 36 3c 60 e5 94 be
       0.049868956 0.6808681 0.011145002 -0.2908125
000010 9b 74 4b bf fa 57 24 bf 42 91 9b 3d 89 3d cb bf
       -0.794748 -0.6419674 0.07596065 -1.5878154
000020 1f 0c 17 3e 9a 26 71 bf b1 f0 4d c0 4b 4f 4f be
       0.14750718 -0.94199526 -3.2178156 -0.20245092
000030 2a 55 4e 3f 1a 5e d0 3d ac d3 8c bd c9 b8 1d bf
       0.805987 0.101741984 -0.06876311 -0.61610085
000040 2f 2a 17 bf 0f ad de 3d 89 2a 96 3e 76 de 9a 3f
       -0.5904874 0.10872852 0.29329327 1.209914
000050 7d 88 88 3f be 98 b0 3e d9 80 cf 3c 19 06 8c 3e
       1.0666653 0.34491533 0.025329994 0.27348402
000060 23 8f 3d bd b3 30 42 3f 38 83 60 3f 53 41 5a 3e
       -0.046279084 0.7585556 0.87700224 0.21313982
000070 ec 59 08 3f 51 dd 89 3f 8e 1c 01 3d 67 60 06 c0
       0.5326221 1.0770665 0.031521372 -2.099634
000080 28 c9 c7 3e 0b d0 9e 3e ca fd 99 be d5 53 4c 3d
       0.39020658 0.310181 -0.30076438 0.049884636
000090 06 6e c8 3d aa 75 4f bf 89 f2 fd 3d 76 e9 ed 3e
       0.0978661 -0.81038916 0.123997755 0.4646718
0000a0 7a 6f ee be 79 01 9a 3f 87 a7 fb 3e 78 4b 69 bd
       -0.46569425 1.20317 0.4915125 -0.05695674
0000b0 ca 79 de bd 16 cc b6 bf 1e 4a 95 3d 1d f0 e9 bf
       -0.10863073 -1.4281032 0.07289527 -1.8276402
0000c0 83 13 fb 3e c9 2c 44 bd 78 60 c9 bd 2d 80 4d bf
       0.49038324 -0.047894273 -0.09832853 -0.80273706
0000d0 76 90 93 be 7b 17 69 3e f2 7b 58 3f 5d aa e4 3d
       -0.28821152 0.22762863 0.84564126 0.11165307
0000e0 cf 55 a4 bf cf 6f e1 3f 5a 67 0a bf f0 ea c1 bf
       -1.2838687 1.7612246 -0.5406395 -1.5149822
0000f0 58 04 d8 be 4d 79 37 3f 88 27 65 3e 92 01 15 be
       -0.42190814 0.71669465 0.22378361 -0.1455138
000100 50 4d de 3d 61 56 bf be 77 12 47 bf 21 9b 5b 3f
       0.1085459 -0.3737059 -0.7776255 0.8578358
000110 ae 35 29 bf ea 0b 07 3f 62 0c bf bd 6f 18 1f 3d
       -0.66097534 0.52752554 -0.09328534 0.03884166
000120 27 22 84 bd cf 60 96 bd c4 d2 46 be 46 d4 75 be
       -0.064518265 -0.073426835 -0.19416338 -0.24006757
000130 20 60 8b be ac 24 98 bd 88 fb 01 3e e2 9c bb be
       -0.27221775 -0.074288696 0.12693608 -0.3664313
000140 c9 8d d0 be c6 b9 5b c0 b6 47 d0 3e 41 86 ab be
       -0.40733173 -3.4332137 0.4067971 -0.33500865
000150 93 a3 34 bf 8c 6c 64 3d 44 6d 8b 3f 43 4d 57 bf
       -0.70562094 0.05576758 1.089272 -0.8410227
000160 ab 12 b3 be cd 7d 4c 3f f2 22 8b bc 9e e4 8c bd
       -0.3497518 0.79879457 -0.016984437 -0.06879543
000170 65 fb 71 be 21 9f 89 3d f5 ff 86 3e bd 6f 0d 3c
       -0.23631056 0.067198046 0.26367155 0.0086325975
000180 8e c1 28 be 8d ec 6f 3e 88 ec 8f bf f3 00 a5 bd
       -0.16480085 0.2343008 -1.1244059 -0.08056822
000190 56 44 56 3e 96 09 5e be 0e 63 c1 3e 4d 04 40 bf
       0.20924506 -0.21683344 0.37770885 -0.7500656
0001a0 c7 fa 91 bd 0a 77 32 3f 9e 68 bd be be e6 86 be
       -0.0712791 0.6971289 -0.3699388 -0.26347917
0001b0 a1 63 9d bc ac 60 ec bd b2 b4 a1 bd 08 6c 2e be
       -0.019212546 -0.11541876 -0.07895793 -0.17033398
0001c0 13 d8 31 3f 86 93 30 3e f7 73 77 3f a6 80 47 3f
       0.6947033 0.17243776 0.96661323 0.77930677
0001d0 29 1f ee 3e d4 7e b4 3f 90 6d 28 3e b8 7b 9d be
       0.46508148 1.4101205 0.16448045 -0.30758452
0001e0 15 eb 8b be 23 f6 29 be 8a 54 bd be 6a b0 15 bf
       -0.2732779 -0.165978 -0.3697856 -0.5847231
0001f0 f4 e6 6c 3e b0 e4 2c bd 8e 62 2a 3f 0d cc 92 3e
       0.23134977 -0.04221028 0.6655663 0.28671303
000200 d6 b1 88 bf 54 60 5b bf 45 cc e1 bd 12 25 7d bc
       -1.0679271 -0.8569386 -0.110252894 -0.015450733
000210 f3 99 84 be f7 3b 51 3f 2b c1 3f 3d d7 e9 6e 3f
       -0.25898704 0.81732124 0.04681508 0.9332556
000220 23 40 af bf 88 ea e6 be 8a 19 2a bf b7 9d 9f be
       -1.3691448 -0.45100808 -0.6644522 -0.31175014
000230 c3 be 73 bf 2f da cf bd c2 ee da bf 20 2f 18 bf
       -0.95212954 -0.10149037 -1.7104113 -0.5944691
000240 21 de f3 be 6d 74 9e 3e bd fe 0e 3e 66 95 a0 3e
       -0.47630408 0.309482 0.13964362 0.31363982
000250 c2 4f 78 3b a9 41 61 be
       0.0037889336 -0.21997704

mlp1.2.weight f4 [100, 150]
000000 cd 7f d1 3c 82 98 c0 bd ff 6a aa bd c8 65 08 3d
       0.025573635 -0.094040886 -0.08321189 0.03330019
000010 1a 7e 5c be 93 8a 63 be e6 78 35 3e 0f 85 9a 3d
       -0.21532479 -0.2222083 0.177219 0.0754491
000020 d6 5c 13 3e ae 05 4f be 37 9c d3 bd 70 77 b6 bb
       0.14390883 -0.2021701 -0.1033253 -0.0055684373
000030 42 f5 0a bc fb 5b c9 bc f7 f0 a4 3d de a0 96 bd
       -0.008481326 -0.024579993 0.08053773 -0.07354902
000040 07 c3 58 bc ce cd f8 3c ec 87 27 bc 5b 2d f4 be
       -0.013230092 0.030371573 -0.010225277 -0.47690853
000050 f7 11 7e be 45 18 36 bd 15 f9 43 bd bb bf 04 3e
       -0.2481154 -0.04445674 -0.047844965 0.12963764
000060 91 cc 58 3c b3 6b 64 bd 48 1b 75 bd 5f fd e0 bd
       0.013232366 -0.055766772 -0.05984047 -0.10985827
000070 81 55 2b bd 92 d8 8e 3d 3f 4e bb bc a3 42 ae bd
       -0.04182959 0.06974901 -0.02286446 -0.08508804
000080 ce d0 5c bd f1 7d b0 bd 43 4a 2d be 8c 89 d0 bc
       -0.05391007 -0.086177714 -0.1692286 -0.025456212
000090 2a 98 27 3d bf f4 09 bc d9 79 50 bd 32 dd 1c bd
       0.0409166 -0.008420168 -0.050897453 -0.038296886
0000a0 48 6f 11 bc 41 d8 f3 3b cf c4 38 3e 62 7c d7 3c
       -0.008876629 0.007441551 0.18043827 0.026304428
0000b0 84 d7 9f 3d 82 ef 40 be 9e 21 2e be 32 0a 09 be
       0.07804778 -0.18841365 -0.17005011 -0.13382795
0000c0 fa 5f a3 3c 88 ee d3 bd 21 3e b6 3c cb 1b e6 bc
       0.019943226 -0.103482306 0.022246422 -0.028089425
0000d0 ba 15 c0 3c 98 11 7c bb f6 be dd 3d c9 88 7b 3d
       0.02344786 -0.0038462635 0.108274385 0.061409745
0000e0 27 37 36 be d7 70 56 3e 91 32 ab bd 47 3a 57 3e
       -0.17794476 0.20941482 -0.08359254 0.21018325
0000f0 07 7a ca 3d 52 18 fd bd c5 91 b3 3d a8 d1 c2 bd
       0.09886556 -0.12358154 0.08768038 -0.09512645
000100 23 ea 93 3c 4a c7 33 bc 09 9e 9f bc 72 16 28 bd
       0.018055981 -0.010972807 -0.019484537 -0.04103703
000110 eb e4 2d bd 32 0d be 3c 87 76 02 bd 29 3a c1 bd
       -0.04245464 0.023199651 -0.031851318 -0.09434921
000120 6a cf c6 3c 3c f2 0a be eb d5 17 bd f0 8b 0f 3e
       0.024268825 -0.13568968 -0.037069242 0.14018226
000130 b3 e0 cd b9 e6 78 68 bd 58 4e 3b bc 2d f9 99 bd
       -0.0003926806 -0.056755923 -0.011432253 -0.0751823
000140 0d 34 4b 3d 7a ff eb 3c 73 1f 00 3e 23 21 0c 3e
       0.049610186 0.028808344 0.12511997 0.13684516
000150 2c d3 29 be eb 02 2e bd 45 25 bb bd 1a 47 a1 3c
       -0.16584462 -0.04248325 -0.09137968 0.019687224
000160 dd 3f 97 3d ec bd fa bd fd d6 12 3d d6 bb 34 3d
       0.07385228 -0.12243256 0.03584956 0.044124447
000170 6b ad 82 3c 07 d7 2e 3d 37 84 d4 bc eb da b8 3c
       0.015951833 0.042685535 -0.025941951 0.022565326
000180 cc cb ba bd 51 f1 29 3e 8a 26 31 3d 9a 38 d2 ba
       -0.091209024 0.16595961 0.043249644 -0.0016038597
000190 7f d7 80 bd eb 42 13 3e 12 79 e0 3c 2d 79 24 3c
       -0.062911026 0.14380996 0.02740148 0.010038656
0001a0 ce ed 10 be c8 78 1d 3e ba 40 b8 bc b9 c4 8e 3d
       -0.14153215 0.15378106 -0.022491802 0.069711156
0001b0 3e 36 6a bc 66 b6 f6 bd 4b 35 66 3d c9 61 59 3e
       -0.014295159 -0.120465085 0.056203168 0.21228708
0001c0 1f 04 9e bd f4 66 25 bd 70 86 a0 3d 8f a4 2a 3d
       -0.0771563 -0.040381387 0.07838142 0.04166084
0001d0 99 f7 db bc 81 ea 29 bc fa 9a ff 3c d4 cd 3e 3e
       -0.026851462 -0.0103708515 0.031201828 0.18633205
0001e0 5d 70 98 3c 73 f3 03 3d ab 17 9e bc cd ed 68 bd
       0.018608266 0.032214593 -0.019298395 -0.05686741
0001f0 58 1f fa 3d 86 5b 4a bc ee 5e 3e 3e 22 6a 08 be
       0.122130096 -0.012350922 0.185909 -0.13321736
000200 9a 01 89 bd 2f 9a 56 bc ad fe ef 3c 00 00 55 3d
       -0.066897586 -0.013098284 0.029296244 0.052001953
000210 59 6d a3 3d 6c f9 00 3f 48 3e b3 3d 30 68 0f bd
       0.07979841 0.5038059 0.087521136 -0.03501147
000220 de 49 5f bd 94 29 ab bb e1 6c 95 3d 3c a2 b2 3d
       -0.054513805 -0.0052234624 0.07296158 0.0872235
000230 a7 3d 8e 3b a3 0f 8f bd 6d 29 c0 bd 93 3b 20 3d
       0.0043408456 -0.06985404 -0.09382901 0.039119314
000240 08 d3 5a bc c7 8f 68 3d fb a2 b2 bd aa 4e 6a 3b
       -0.013355978 0.05677774 -0.08722492 0.0035752454
000250 68 63 7c bd 43 3c 75 3d e1 40 ca 3d c4 a8 c6 bd
       -0.06161824 0.059871923 0.09875656 -0.09700158
000260 2a 3f cc 3c df 6d fe 3b a3 82 62 be 88 4b a0 be
       0.024932463 0.0077645625 -0.22120146 -0.31307626
000270 74 5c 8c 3d 84 1c c1 be c1 d6 87 be cd 17 df be
       0.068535715 -0.37717068 -0.26531032 -0.43572846
000280 61 62 08 bf af 20 22 3d 6c 4a b2 3d c3 15 6a 3e
       -0.53275114 0.03958195 0.08705601 0.22859864
000290 c4 b3 bb bd 60 91 31 bf 0a 73 5e be 1d 61 31 3e
       -0.09165147 -0.6936245 -0.21723571 0.17322202
0002a0 4e 9b 55 3c 96 30 48 3f 96 84 65 3e 24 c3 8d bd
       0.013037516 0.78199136 0.22413859 -0.06921986
0002b0 d8 fd 52 bd c6 64 45 3d c0 ff b8 bd 78 04 62 bf
       -0.051511616 0.04819181 -0.090331554 -0.8828807
0002c0 2f 52 6b be b2 a6 9b bd 87 67 8e 3e 5e ed 82 3c
       -0.2298057 -0.07600154 0.2781336 0.015982326
0002d0 2e 7b c5 3e d3 7a c2 be 7b 91 4e 3d c5 e1 90 3e
       0.3857054 -0.37984332 0.05043171 0.28297248
0002e0 cb d0 4d be 0a e2 9a bb a4 83 2c 3b a1 ca 98 bd
       -0.2009918 -0.004726653 0.002632358 -0.074605234
0002f0 fb fd 11 bc dc 7c c7 bc 13 95 95 bd fd 2a 7d be
       -0.008910651 -0.02435153 -0.07303824 -0.2472343
000300 45 0a 2b 3d c9 6c a6 3d 75 fe 3f 3b b4 49 84 bf
       0.04175784 0.08126218 0.0029295955 -1.0334992
000310 10 15 49 3f 53 3d 3c be 8c 10 a9 3e bf 8d 85 3e
       0.78547764 -0.18382768 0.33020437 0.26084706
000320 a3 29 88 3d db 04 5b bf 50 45 5d 3d 89 8f 1e bd
       0.066485666 -0.85554284 0.05402118 -0.038711105
000330 eb f2 f8 3e 93 aa b6 bd 69 0b 01 bf f1 b4 b8 be
       0.48622832 -0.08919253 -0.50408036 -0.36075547
000340 0e 94 62 bc b9 d6 0f 3d 35 13 24 be c1 5f bf bc
       -0.013829244 0.035116885 -0.16022952 -0.023361089
000350 fa 37 1f be 03 e7 d8 bd 16 df 42 3a a1 44 20 3e
       -0.15548697 -0.10590937 0.0007433755 0.1565118
000360 c4 17 f3 3d ee cb b5 3e 90 41 0c 3e 19 a2 b9 3c
       0.11869767 0.35507149 0.13696885 0.022660302
000370 80 1d ca ba 83 7d 8a bd dd 07 77 3a f2 47 4a bd
       -0.0015420169 -0.06762221 0.0009423474 -0.04938502
000380 cf a8 c9 3c 1d 89 a4 3d 4a e0 49 bd 8d e1 2a bf
       0.024616627 0.08033965 -0.049286164 -0.66750413
000390 5c 3a 30 3e 02 ac 7d 3e ec c5 98 3e 19 87 16 bf
       0.17209762 0.24772647 0.29838502 -0.5879989
0003a0 11 bf 48 be e2 53 ae bd 73 36 81 3e da b2 be 3c
       -0.19604136 -0.08512093 0.25236854 0.023278642
0003b0 8d 02 56 3e 0d 29 d8 be 52 d2 40 bd 38 1f 09 be
       0.2089941 -0.4221882 -0.047075577 -0.13390815
0003c0 cc 55 63 3d 03 4d b6 3c 82 b6 8e bd a9 26 83 bd
       0.055501744 0.022253519 -0.06968404 -0.06403858
0003d0 04 bc f8 bd 2e d6 1a be 92 ed f1 bd 0d fb 3b 3e
       -0.12145236 -0.15120766 -0.11812891 0.18357487
0003e0 4d 06 3e bd b7 57 4f bd 90 20 8a bd 88 b5 24 be
       -0.046392728 -0.05062076 -0.06744492 -0.16084874
0003f0 34 2b 7a be 74 db d9 bd e6 12 a4 be 2d aa c5 bc
       -0.24430543 -0.106375605 -0.32045668 -0.024128998

mlp1.2.bias f4 [100]
000000 9c 51 e4 3c 71 53 c8 3e 9d ee 99 bd e1 b7 d0 3f
       0.027870946 0.3912616 -0.07516215 1.6306115
000010 08 0f dd bf f9 7a 31 3e 6d 06 b8 be 7b e6 b4 bc
       -1.7270212 0.17332067 -0.35942402 -0.022082558
000020 ce 6e 5c be 58 46 f0 be b5 73 03 bd 79 a8 18 40
       -0.21526644 -0.46928668 -0.03209277 2.3852828
000030 12 99 01 3e 5b 17 56 bd 33 b6 c4 be 1d 62 36 bd
       0.12656048 -0.052268367 -0.38420257 -0.044527162
000040 99 99 f7 bd a5 52 83 3e 1e 3a c4 bf 79 77 de 3c
       -0.12089843 0.2564899 -1.5330236 0.027156578
000050 1d c5 80 bd e3 26 a7 be 7d 69 81 bd 13 20 3b be
       -0.062875964 -0.32646856 -0.063189484 -0.18273954
000060 c2 06 b9 bd 72 48 25 bf 9e fd f9 be d7 29 3f 3d
       -0.09034492 -0.6456367 -0.48826307 0.04667076
000070 3a 8e e6 bd e7 6f 66 bf b7 72 ed bd 0e a9 bd bc
       -0.11257596 -0.900145 -0.11594146 -0.0231519
000080 93 5c 45 bf 85 3e 55 be 50 c2 88 be 40 55 13 3f
       -0.7709438 -0.2082463 -0.2671075 0.57551956
000090 bc 9a 54 3f fe b8 35 3e 0f b1 83 3e b8 07 5b bf
       0.83048606 0.1774635 0.25721022 -0.8555865
0000a0 d6 b3 20 40 5a 84 25 3e 61 9f 84 3f 25 a0 9f be
       2.5109763 0.1616377 1.0361139 -0.31176868
0000b0 1f 20 25 be 4c 86 98 bd 97 26 30 be 87 8e 8d 3f
       -0.16125534 -0.0744749 -0.17202221 1.1059121
0000c0 d6 ac 85 3e 74 a2 2c bf 89 33 7c bf 8b c8 86 bd
       0.26108426 -0.67435384 -0.98516136 -0.06581219
0000d0 0b 36 ec 3c ba ec 6b be 31 05 e2 3e 01 1d 93 bf
       0.028834363 -0.23039523 0.44144586 -1.1493226
0000e0 0a 3b 37 be 6b 69 05 bf 03 35 18 3d 14 6e ef bf
       -0.17893615 -0.5211398 0.03715993 -1.8705468
0000f0 ef 7a b9 3f 00 15 8f be 00 0c ea bd 70 1a 83 be
       1.4490641 -0.2794571 -0.1142807 -0.25606108
000100 e5 eb 54 bd 73 24 48 bd 59 45 4e 3f d9 6f 6d 3d
       -0.05198278 -0.048862886 0.80574566 0.057967994
000110 5a db f9 bd cb 35 4a bf a9 03 f4 bd b8 a5 9a bf
       -0.12200041 -0.7898833 -0.119147606 -1.2081823
000120 6a 29 a8 bf 49 ac 23 3f 30 0c 40 bd 92 da 9b bf
       -1.3137639 0.6393476 -0.046886623 -1.2176077
000130 2d a7 a7 3d 9f c7 21 bf 02 ce 8f bf b9 4e 5e 3f
       0.08186183 -0.6319522 -1.1234744 0.8683887
000140 e4 13 91 be 10 10 be 3f 58 7f 4c bf d3 1c 82 3c
       -0.28335488 1.4848652 -0.7988181 0.015882885
000150 f5 d1 b1 be f9 ee a2 bd d8 09 9e 3f 5d 42 70 be
       -0.34730497 -0.07955737 1.2346754 -0.23462816
000160 eb c8 26 3e e0 02 30 3f fe f2 c9 be e8 af 0b bf
       0.16287582 0.68754387 -0.394432 -0.54565287
000170 55 91 34 bf aa c0 a5 bf 9f f6 68 bd b6 19 a8 3d
       -0.7053426 -1.2949421 -0.05687582 0.08208029
000180 1b e5 1e bf e3 55 a6 3e 5f 86 0d be 8f da 38 bf
       -0.6206834 0.324874 -0.1382079 -0.72208494

mlp2.0.weight f4 [100, 100]
000000 49 e5 b2 3d cb dc 17 3e e8 39 58 3d a2 36 2a be
       0.08735139 0.1483032 0.0527896 -0.16622403
000010 ea e0 fe bd fd 7d 20 3e 20 b8 ac bd bf 50 1f 3c
       -0.12445243 0.1567306 -0.084335566 0.009723841
000020 54 b8 54 be 22 4d 06 be 94 95 51 be 28 d2 c4 3e
       -0.2077344 -0.13115361 -0.20467216 0.38441586
000030 6c 81 d0 3e 68 15 f3 bd 85 d7 af 3d 7b 3d b4 3d
       0.4072374 -0.11869317 0.08586029 0.08800789
000040 ed d4 38 bd 01 60 f9 bc 45 57 11 be f6 1a fc bd
       -0.045124937 -0.030441286 -0.14193447 -0.1230983
000050 98 6d d7 bd 7d d9 13 3e ec 14 4d bd ae a8 64 bd
       -0.1051895 0.14438434 -0.05006878 -0.055824928
000060 2b c5 c7 3d ff ef 52 3e d6 74 33 be 93 8a 78 be
       0.09754404 0.20599364 -0.17525038 -0.24271612
000070 19 fc 52 be c9 2c 81 be a8 d9 6c 3c 3f 5b 5e 3e
       -0.2060398 -0.2522948 0.01445619 0.21714495
000080 39 8f 94 be de e3 10 3d ce 36 e7 3d 56 31 4f be
       -0.2901552 0.03537356 0.1128975 -0.20233664
000090 2e cb de bd 86 2f a2 3d c1 10 5d 3e c6 10 b3 be
       -0.10878597 0.079192206 0.21588422 -0.34973735
0000a0 89 be 2d be 60 61 80 bd 8a 22 6f be db c4 55 be
       -0.16967215 -0.06268573 -0.2335302 -0.20875876
0000b0 8c c2 5e bd d8 c8 8f bc df cf c8 bd 85 5f b5 be
       -0.054384753 -0.017551824 -0.09805273 -0.35424438
0000c0 bc b8 06 3e d0 d6 49 be 94 17 c7 be aa ec 89 bc
       0.13156408 -0.1971085 -0.38885176 -0.016836483
0000d0 ab ed f0 bc ed ee b5 bd f4 73 dc bd 2d 7e 2d 3e
       -0.029410204 -0.08883462 -0.10764304 0.16942663
0000e0 7d 56 87 3c 91 9d ef 3c 59 4d 1e 3e 26 ad 79 be
       0.016520733 0.029249938 0.15459193 -0.24382457
0000f0 79 4e 39 be ce 6d c1 3d ae 4a 4c bd 21 6b 62 3e
       -0.18096341 0.09444772 -0.049875908 0.22111179
000100 d9 ff c8 3d e6 8a 07 bd 55 87 0c bd e2 3e 72 3d
       0.09814424 -0.03309145 -0.03430875 0.059142
000110 8e 78 71 3d 6d 34 29 bc 06 ec 09 bd 55 aa 0f bf
       0.05895286 -0.010327441 -0.033672355 -0.5611928
000120 45 81 e7 be 58 68 c7 bd e1 09 13 bd 00 f0 6b 3e
       -0.45215812 -0.09736699 -0.035898093 0.23040771
000130 a0 7f 5f bd 13 77 26 3f da 21 03 be 05 39 96 be
       -0.054565072 0.6502544 -0.12805882 -0.29340377
000140 8e 68 e6 3d ee db ca bd 02 61 95 3e 31 20 02 bd
       0.11250411 -0.099052295 0.29175574 -0.03176898
000150 54 4b 9c 3d 16 93 e0 bd b4 12 2a be 78 7d ca bd
       0.07631555 -0.109655544 -0.16608697 -0.098872125
000160 2d 54 c0 3d 1f 0c ce be 8b 80 66 be db 35 a3 3d
       0.09391055 -0.40243623 -0.22509973 0.079692565
000170 9b d2 d7 be 4f bb a0 be c3 64 0b bd 9a fd 39 bd
       -0.42152867 -0.31392905 -0.03403164 -0.04540787
000180 d2 af e3 be 76 07 4c be 60 17 fd 39 e4 0a bc 3e
       -0.44470078 -0.19924721 0.00048273336 0.3672706
000190 07 84 ed 3c d4 3a af be 6c 4e 09 be 65 47 23 3e
       0.02899362 -0.3422457 -0.13408822 0.15945204
0001a0 79 42 81 bd ee e9 02 3c 97 48 73 be 76 13 60 be
       -0.06311507 0.0079903435 -0.2375816 -0.21882424
0001b0 60 c7 82 be 7d 5d 29 3e 7e c6 09 be 34 82 20 3f
       -0.25542736 0.16539569 -0.13454625 0.62698674
0001c0 99 5c 37 3e 2c 4d 02 bf 3c 61 d9 be 79 e3 24 bc
       0.17906417 -0.50899005 -0.42456996 -0.010063999
0001d0 ed 38 75 bd 75 1c fd 3c d0 a6 05 bf 0c 8a 22 3d
       -0.05986874 0.030897358 -0.5220766 0.039682433
0001e0 a6 b1 cf bd a9 32 06 be 56 87 b1 bd 35 b8 bb bd
       -0.101413056 -0.13105263 -0.086683914 -0.09165994
0001f0 86 68 50 3d 4d f9 1c bf 62 f1 74 3e 8e ae 10 3e
       0.05088093 -0.613179 0.23920205 0.14129087
000200 3b 57 43 be 62 58 8c bd e6 f9 c9 bc c6 59 6e be
       -0.19076245 -0.06852795 -0.024655294 -0.23276433
000210 0d b2 86 be 80 44 82 be bc f7 b1 3d 19 78 b4 bc
       -0.26307717 -0.25442886 0.0868983 -0.022029923
000220 25 1e 47 3d 8c 13 3c bb 6e d5 5c be 80 09 3c be
       0.048612732 -0.0028698174 -0.21565792 -0.18362999
000230 e8 58 68 3e 81 8f c7 bc e1 9b a4 bb 78 84 1d be
       0.22690165 -0.02436042 -0.005023465 -0.15382564
000240 a0 99 8a 3e b4 76 e7 bb 2d 1c a8 bd 30 c2 3d be
       0.27070332 -0.007063711 -0.08208499 -0.18531108
000250 96 08 25 3e 22 c2 36 3e 2a a6 37 be 3b e7 bf bd
       0.16116557 0.17847493 -0.1793448 -0.093702756
000260 3e 8d b1 3d 57 1c 9d bd b4 22 4d 3d eb 47 af be
       0.08669518 -0.07671421 0.050081924 -0.34234557
000270 c1 20 e5 3c 27 5d 75 3e 4e 93 8a bc 76 4b 50 bf
       0.02796972 0.23961316 -0.016915943 -0.81365144
000280 05 ea 8b 3e dc 2e 42 bf 25 6f d6 bd 66 74 ad be
       0.2732698 -0.7585275 -0.10470418 -0.33877867
000290 86 1c ae be 4e 0f ba 3d 55 bb 7f 3e 3c c7 a2 3d
       -0.34006137 0.090849504 0.24973805 0.07948157
0002a0 37 14 c9 bd fc ad c0 be c0 35 c3 bd cb 5b 55 3c
       -0.09818309 -0.3763274 -0.095317364 0.013022373
0002b0 00 07 55 be 75 46 30 3e 72 82 09 3d 95 d6 f2 be
       -0.20803452 0.17214377 0.033571668 -0.47429338
0002c0 bb 88 c3 bd 8f 13 29 bd dd ae 7d 3e 90 d0 cf 3e
       -0.09547564 -0.04127842 0.24773736 0.40588808
0002d0 fd 8c fd be 51 5f 4a 3d d6 2c 1c be 55 5b 8e bd
       -0.49521628 0.049407307 -0.15251479 -0.06951014
0002e0 92 53 56 be c6 f5 00 be d2 48 2c 3e e3 69 f6 bc
       -0.20930317 -0.12593755 0.16824654 -0.030079788
0002f0 e0 95 20 bd 3a fb b7 3e 52 57 24 be 39 56 ee bd
       -0.039205432 0.35933858 -0.16048935 -0.116375394
000300 0f 02 8d ba af d4 c6 3d 4d 23 04 3d 11 e8 81 3d
       -0.001075806 0.09708535 0.032260228 0.06343091
000310 26 c3 1c be 23 13 a8 3e 2e 3b bf be fe 48 76 3e
       -0.15308818 0.328271 -0.37349838 0.24051282
000320 47 e0 1f be 79 4e 3a 3e ac 5d b6 bd 2a 99 06 bd
       -0.15612899 0.18193997 -0.08904585 -0.032860912
000330 63 a7 2c 3c 2d 81 e2 bd bf 64 7c bd 30 aa 3e 3b
       0.010537955 -0.110597946 -0.061619516 0.002909314
000340 a8 6b c5 be 74 86 c3 3e 5e fe db bd eb c2 6c be
       -0.38558698 0.38188517 -0.10741876 -0.2312123
000350 ea f8 3e 3c af af f7 be c3 54 49 3c 0d f6 d1 bd
       0.011656025 -0.48376223 0.012288275 -0.102520086
000360 cf 04 8e bd 70 f1 56 bd 92 79 30 bd 7b 32 42 be
       -0.06934511 -0.052476346 -0.04308469 -0.1896457
000370 b7 24 54 3d 61 d4 f9 bd 93 2f 96 3c 96 fb b7 3e
       0.051792827 -0.12198711 0.018333232 0.35934132
000380 34 f8 98 bd a4 5f 91 3c 82 25 ca be 09 5f 14 3f
       -0.07469216 0.0177458 -0.3948174 0.5795751
000390 eb 7f 4f be 16 66 8d be c9 21 f6 3b 28 ec 40 3e
       -0.2026364 -0.27616948 0.0075113517 0.18840086
0003a0 20 71 91 be de a0 38 3e d0 eb 27 be 23 92 c7 be
       -0.2840662 0.18030116 -0.16398549 -0.3897868
0003b0 11 7b cc 3d ea 68 2c 3d bc 79 c4 be 50 4a 78 3e
       0.099844106 0.04209224 -0.38374126 0.24247098
0003c0 d8 99 9a be 66 51 b6 bd 16 e9 8b bd 8e 8a 94 be
       -0.30195498 -0.08902244 -0.06831567 -0.2901196
0003d0 8e 2c 35 be 9a 2d 98 bd 60 f4 0e 3d 2d 4a 6a be
       -0.17692778 -0.07430573 0.034901023 -0.22879858
0003e0 8b a7 77 be 54 55 45 be 11 0e 02 bd 3e 00 7c bd
       -0.24185006 -0.19270831 -0.031751696 -0.06152367
0003f0 49 ca cd 3c 70 1e 01 be 53 c0 ca 3e 49 d7 00 bf
       0.025120871 -0.12609267 0.39599857 -0.503285

mlp2.0.bias f4 [100]
000000 b0 82 0b bf 7b 0b ba 3e 30 d2 18 bf 53 bc 74 3f
       -0.5449629 0.36336884 -0.5969572 0.9559986
000010 11 ff 70 be 45 8a c4 3e 1a 59 81 3f 3d 81 dd be
       -0.235348 0.3838674 1.0105317 -0.43262663
000020 de a3 3b 3d 38 f2 cc be 50 b2 ac 3f d6 38 af 3f
       0.045810573 -0.40028548 1.3491917 1.368922
000030 f9 11 8b 3e d3 51 3d 3f f8 67 a8 3c b7 31 2d 3f
       0.2716215 0.7395298 0.020557389 0.67653984
000040 08 49 de be 62 7a b9 be 81 91 13 bd 6e 76 0b bf
       -0.43415093 -0.36226183 -0.036027435 -0.54477584
000050 72 13 17 3e fe 21 12 bf 96 72 fc bd eb 2e f7 bd
       0.14753512 -0.5708312 -0.12326543 -0.12069496
000060 cf e9 e6 bd df 5d 75 be e5 d8 3d 3f ec ef e8 be
       -0.11275064 -0.2396159 0.7415908 -0.45495546
000070 5f 7d 1b bf 01 56 0a bf e4 b1 56 bf 83 e9 b6 bc
       -0.60738176 -0.5403748 -0.8386519 -0.022328144
000080 5e 93 c1 be df 01 7b be 6f 76 0d bf e8 a1 69 3f
       -0.37807745 -0.24512433 -0.5525884 0.91262674
000090 aa 60 03 bf e2 4b 91 3e 0f 07 9d be 36 89 3e be
       -0.5131937 0.28378206 -0.30669448 -0.1860703
0000a0 7c 13 c5 3f dd ee 3a 3d 81 fe 60 bf d0 39 2a be
       1.5396571 0.045637954 -0.8788834 -0.16623616
0000b0 56 d8 81 3f 43 6d 5c bf be 12 80 3f f5 52 87 3d
       1.0144145 -0.8610422 1.000572 0.0660762
0000c0 63 30 1b bf 9d ec ad be b9 57 36 bf b9 32 84 bc
       -0.6062071 -0.33969584 -0.71227604 -0.016137468
0000d0 a2 42 a3 bd eb 3e 3e bf 08 26 33 be f4 fb aa 3e
       -0.079716936 -0.74314755 -0.17494977 0.3339535
0000e0 9b 1e 9d 3f d6 99 45 bf 19 cc e1 be e6 d4 92 bd
       1.2274965 -0.7718786 -0.44101027 -0.071695134
0000f0 b1 66 98 bd 0c 19 09 bd bf 1d 72 be 50 be 6e be
       -0.07441462 -0.033471152 -0.2364416 -0.23314786
000100 97 21 ac be d7 ad ac bc dc 63 e6 bd 2f e4 51 bf
       -0.33619377 -0.021078987 -0.112495154 -0.81988806
000110 5f 6c 9d 3e 0b 91 16 be 14 d7 05 bf 73 0a ba 3e
       0.30746743 -0.14703767 -0.5228131 0.36336097
000120 cd 05 d4 3d 37 f2 d1 be 2e e6 3d 3e 5f 1c 55 3e
       0.10352669 -0.41005108 0.18544838 0.20811604
000130 75 84 54 be 39 eb 44 be b0 39 21 bf 19 2f 5c 3e
       -0.20753653 -0.19230355 -0.6297865 0.21502341
000140 f1 c2 c3 3e 0f b3 21 3f 03 ce 8d be 09 96 6d be
       0.38234666 0.63163847 -0.27696237 -0.23201765
000150 e4 ef 86 be 37 d3 08 be c9 5e 02 c0 4a 6d 1a 3e
       -0.26354897 -0.13361822 -2.0370352 0.15080753
000160 9b 2a 3a 3e 83 c3 82 be 93 09 6d 3f be d5 61 be
       0.18180315 -0.2553979 0.92592734 -0.22054192
000170 46 63 b9 3d 3d 78 aa 3e 3d 41 dc be 28 0b 98 be
       0.09052138 0.3329486 -0.43018523 -0.29696012
000180 59 b4 0b bf bc 41 12 bf f6 43 c6 3d bd d6 0b be
       -0.54572064 -0.5713155 0.09680931 -0.13656135

mlp2.2.weight f4 [50, 100]
000000 04 7e 2e 3e 1d 1a ec 3d 7c d6 f4 3d 2b 67 1f 3e
       0.17040259 0.11528418 0.11954972 0.15566699
000010 c0 26 eb 3d c2 bb 37 3e 01 fd 31 3e ed a4 81 3e
       0.11482 0.17942718 0.1738167 0.2532114
000020 5e 43 4a 3d 61 87 08 bc b8 ec e9 3d 82 3c 10 3e
       0.049380653 -0.008333058 0.11422104 0.14085582
000030 38 f9 28 3e 6a f5 8f bb 7b 07 2a be b9 74 ba ba
       0.1650132 -0.0043932693 -0.16604416 -0.001422546
000040 00 34 7b 3e c5 f4 2a 3e 8a 10 12 be b2 73 22 be
       0.24531555 0.16694935 -0.14264122 -0.15864447
000050 c3 56 b3 3d aa b3 50 be 46 bb 2b bd a6 17 15 3e
       0.08756783 -0.20381036 -0.041926645 0.14559802
000060 19 96 82 be 2c 0d 91 3e 9c 2d ad 3d 1c 2a 24 bc
       -0.2550514 0.28330362 0.08455965 -0.010019805
000070 3f ff d4 bc 20 9c 0e 3d 06 c9 05 3e 15 7d 01 bd
       -0.026000617 0.03481686 0.13064966 -0.03161343
000080 dc 93 87 3e 9b 36 64 bd e3 c9 ff 3d 52 c1 86 bd
       0.26479995 -0.05571614 0.12489679 -0.06579842
000090 be e9 e0 3d 79 db e5 bc 7b 3c a3 bd b4 48 76 be
       0.10982083 -0.028058754 -0.0797052 -0.24051172
0000a0 07 cc c3 3d 05 82 15 3e a7 6c 5c bc c0 83 5d 3d
       0.095603995 0.1460038 -0.013453639 0.054080725
0000b0 be a4 dc 3d fe 2c 2d bc 1d 7e ee bc fa c7 1a be
       0.107736096 -0.010569809 -0.02911287 -0.15115348
0000c0 17 3b a2 39 00 63 06 3e 2c e8 61 3d 70 2a ce 3d
       0.00030943073 0.13123703 0.055153057 0.10066688
0000d0 dd 45 1c be 90 79 96 3d 13 8e 8c bc db ad f2 bd
       -0.15261026 0.07347405 -0.01715759 -0.118495665
0000e0 6e e9 1f be 6f d7 82 bd 7f ae bb bd d1 3e 10 be
       -0.1561639 -0.06388747 -0.09164142 -0.14086463
0000f0 6e 8e c3 3c b2 8d c6 bd bd d3 8d be bd f3 83 3e
       0.023871627 -0.09694995 -0.27700606 0.25771895
000100 d6 76 55 be f6 4c 72 be 66 65 6f bd cb b9 0a 3d
       -0.20846114 -0.23662171 -0.05844631 0.033868592
000110 0c ae a2 3d 61 91 8a 3d de 75 c6 3c 45 0f f1 3d
       0.07943353 0.0676601 0.024226125 0.117704906
000120 0b 27 91 3d 69 6a 3a be bc 95 6a bd 1e 3d 4e 3e
       0.07087525 -0.18204655 -0.057271704 0.20140502
000130 1a ac d1 bd d6 5b 09 bd 25 26 24 be 5c f7 02 be
       -0.10237904 -0.033534847 -0.16030176 -0.12789673
000140 6b 2c 1d 3e 6b a9 80 bd 4a ac 8c bd 84 05 a1 bd
       0.15348975 -0.06282314 -0.06868799 -0.0786238
000150 d3 bb 38 be 1f 3e 24 3d ef b2 e2 bc 23 15 06 be
       -0.18040399 0.040098306 -0.027673213 -0.13094
000160 56 f5 8b 3c 42 19 2f 3e bb 1d 4f be 7d 2e 07 3e
       0.017084759 0.17099479 -0.20226185 0.13201328
000170 5c e4 36 3e 0b 20 34 3d e6 4a 0d bc 91 0f 50 be
       0.1786055 0.04397587 -0.008623814 -0.20318438
000180 80 82 1e 3e f6 cf 5d 3c 5b 5c 9e bd e8 f3 11 3c
       0.1547947 0.013538351 -0.07732459 0.008908249
000190 a8 42 9f 3d 97 92 ae bc 1f f2 2e 3d 15 e1 8f 3d
       0.077763855 -0.021310134 0.042711373 0.07025353
0001a0 00 d4 e4 bb ad b7 b1 be d0 83 f6 3d 56 66 b0 bd
       -0.00698328 -0.34710446 0.1203686 -0.08613269
0001b0 35 34 df 3d 0f 2b b8 3d bb ca 7a be 42 bc e2 bd
       0.108986296 0.08992588 -0.24491398 -0.110710636
0001c0 3a 20 66 be dc 1e 30 be 03 d3 d6 3d ba b7 44 be
       -0.22473231 -0.17199272 0.10489466 -0.19210711
0001d0 ff 4d 55 be 18 10 0d 3e 35 b2 08 bd 7a 7c 70 3e
       -0.20830534 0.1377567 -0.033373076 0.23484984
0001e0 9c 3c ad 3e d0 7e f4 3c 93 c7 3c 3d d5 ce 5b 3e
       0.33835304 0.029845625 0.046088766 0.21465619
0001f0 35 8a 3d be 57 c4 88 bd 4a 33 be bd c8 39 93 bd
       -0.18509753 -0.06678074 -0.09287126 -0.07188755
000200 1f b4 03 3d df 38 8c bd fc bf c2 bd b3 61 85 bd
       0.0321542 -0.06846785 -0.09509274 -0.06512775
000210 63 79 f2 bd da 50 1d 3d c8 1a 29 bc 12 bd 2f be
       -0.11839559 0.038407184 -0.010321327 -0.17161968
000220 d7 3d 4a 3d c9 33 64 bd 13 47 91 3e fb 8f 26 bd
       0.04937538 -0.05571345 0.28374538 -0.040664654
000230 c8 e2 af 3d b2 89 a7 3d 49 65 45 3e fd fb 08 be
       0.08588177 0.0818056 0.19276918 -0.13377376
000240 4e cb 2e 3d e8 21 9e 3e 4f 9f 15 3f c7 d5 13 be
       0.042674355 0.30885243 0.5844621 -0.14437018
000250 cd b2 af 3d ed d7 4b be e4 00 42 3e ca cb 53 3d
       0.085790254 -0.19906588 0.18945652 0.05170802
000260 c0 f6 bb 3d 41 4a 64 3d fa 03 ab 3e 29 da 2b be
       0.09177923 0.055734877 0.3340147 -0.1678244
000270 f4 b0 b7 3c eb 0b 18 be 25 ce b4 bd 7d 36 b4 3d
       0.022423245 -0.14848296 -0.088283814 0.08799455
000280 8c 52 56 3e 50 1f 7c bc 6f 0d f8 bc 2e 25 93 bd
       0.20929927 -0.015388325 -0.030279843 -0.07184826
000290 ba ce 3f be 21 73 11 be 64 d5 64 3e 67 e0 1e 3c
       -0.18731204 -0.14204074 0.22347027 0.009697056
0002a0 15 eb a8 3e 1a c8 81 3d 7e cc 3c 3d 9e 43 ef be
       0.32991853 0.063369945 0.046093456 -0.46731275
0002b0 d9 7c 8e bd a3 8d 96 3d 6f 4f d1 3d 82 c0 40 3e
       -0.069574066 0.07351234 0.10220229 0.18823436
0002c0 3f 0a 0e 3f 7b cd 0a be db 99 e1 bd ca be 61 3e
       0.55484384 -0.13554947 -0.11015674 0.22045437
0002d0 ec 01 2c bd 08 84 12 3c 7f db f5 bb 20 de 08 3d
       -0.04199402 0.0089426115 -0.0075029726 0.03341496
0002e0 0b 5e e1 3c 96 64 df bd 8b ab 73 be a5 f1 1f 3e
       0.027510663 -0.10907857 -0.23795907 0.15619524
0002f0 04 f4 4e 3e 85 f2 43 3d 61 cd a9 bd 4d 37 0e bd
       0.20210272 0.047838707 -0.08291126 -0.034720708
000300 4f 3b ae bb 83 41 01 3d c5 76 fd bb 1b 42 f5 bd
       -0.0053171287 0.031556617 -0.0077351057 -0.11975499
000310 b5 9b 89 bd 50 d7 13 be b2 cc 02 bd 14 50 c6 3c
       -0.06719152 -0.14437604 -0.031933494 0.024208106
000320 12 54 93 3d 9b 93 2b 3e 43 99 c8 3d ee b9 a0 3d
       0.071937695 0.16755526 0.09794857 0.07847963
000330 42 2c dd 3d 13 88 54 3e fb 29 06 be 86 2a b9 bd
       0.10799457 0.20755033 -0.13101952 -0.09041314
000340 7a ef 86 bd f8 c2 23 3d f5 75 62 3d 6b 7b 47 3d
       -0.06588645 0.03998086 0.055288274 0.048701685
000350 20 bc e9 3d 30 01 21 3e 18 17 56 3d 77 13 f4 3b
       0.11412835 0.15723109 0.052268118 0.0074486095
000360 18 78 11 3e 97 91 cc 3c 49 a7 7b be 00 a0 87 bd
       0.14205968 0.024971766 -0.24575533 -0.066223145
000370 2e 03 5e 3e b8 41 cc bb 39 4a 13 3e 82 5f 0c 3e
       0.216809 -0.00623342 0.14383782 0.13708308
000380 35 a0 c3 bd bb db cf bc 20 e3 11 3e 6b d9 e2 bd
       -0.095520414 -0.02537333 0.14246798 -0.110766254
000390 54 49 03 3e 47 31 11 3e f5 02 d3 3d 84 e8 6a be
       0.12820941 0.14178954 0.103032984 -0.2294026
0003a0 2c 57 47 3e 4b 6e 85 bd 8a 9d 49 bd 22 df 68 bd
       0.19466847 -0.06515177 -0.049222507 -0.05685342
0003b0 80 4b 83 3e 27 74 b9 bd 7c c0 9a 3d 6a ee 8b 3b
       0.2564354 -0.090553574 0.07556245 0.0042703645
0003c0 92 ce 04 3e 8f 07 71 bd 9d a2 8a bd b6 97 e9 bd
       0.12969425 -0.0588451 -0.06769297 -0.1140589
0003d0 5b a3 cd bd 3c f3 fc 3c 5e a9 af bd 94 6d 92 be
       -0.10040923 0.030877702 -0.08577226 -0.28599226
0003e0 6e ac 8c 3d e8 96 f5 bd 34 96 ba 3c 47 4b 6d bc
       0.06868826 -0.11991674 0.0227767 -0.01448328
0003f0 35 1a 11 be 97 11 1d be 37 34 af 3d 34 15 87 3d
       -0.14170153 -0.15338741 0.08554881 0.06595841

mlp2.2.bias f4 [50]
000000 00 02 19 3f 57 ce 7f 3e 9e bd 13 bf 1f b1 98 3d
       0.59768677 0.24981056 -0.5771121 0.07455658
000010 ec 34 f3 be 70 b9 c4 3e fc 9c 8f bf c3 61 87 3e
       -0.47501314 0.38422728 -1.1219783 0.26441774
000020 50 0a 38 be 89 e7 32 bf 41 95 c9 3e 10 ad 8f 3f
       -0.17972684 -0.69884545 0.39371684 1.122469
000030 9d c5 b4 3e f5 1a 2b 3f 08 3f 33 bf 2f 0f aa 3f
       0.35307017 0.6683801 -0.70018053 1.3285884
000040 62 98 08 bf 8c 1e 36 bf ac ef 6d 3f a7 29 7e bf
       -0.5335752 -0.7114036 0.92943835 -0.99282306
000050 fd fc 55 3f c4 76 16 be 33 36 9d 3f dc 7d 70 be
       0.83589154 -0.14693743 1.2282165 -0.23485512
000060 df b0 d2 bf 67 fd 70 3f 02 80 f1 be 23 41 04 bf
       -1.6460227 0.9413666 -0.47167975 -0.5166189
000070 e8 92 a3 bf 35 e0 f7 3f f3 e1 9d 3d c3 8b d8 bf
       -1.2779207 1.9365298 0.07709112 -1.6917652
000080 cc 57 00 bf 41 de 82 bf dc 72 4c 3f 2d e4 b8 3f
       -0.5013397 -1.0224077 0.7986276 1.4444634
000090 3c 00 c1 3f aa 69 a3 bf 4f a7 bf 3e 58 f2 80 be
       1.5078197 -1.2766621 0.37432334 -0.25184894
0000a0 bf e0 b0 be 04 99 72 bf a4 6c 96 be bf 2a 1f 3f
       -0.34546468 -0.94764733 -0.2937976 0.621746
0000b0 2f 4e d7 be a3 ae ff be 26 d9 6f bf f0 cf 1b 40
       -0.42051837 -0.49937925 -0.9369072 2.4345665
0000c0 48 e8 aa 3e 79 6e f2 3d
       0.33380342 0.11837477

attention.0.weight f4 [100, 100]
000000 95 46 da bd ea 66 e1 bd 95 66 ac 3d 11 53 3c bd
       -0.10657994 -0.110059574 0.084180035 -0.045977656
000010 6a da ac be 74 73 73 bd 3b b0 4b 3e 05 bb c4 3d
       -0.33760387 -0.059436277 0.19891445 0.09605984
000020 60 08 d0 be bb 64 2f be fd a3 cb bb 87 b6 0c 3f
       -0.4063139 -0.1712827 -0.0062146173 0.54966015
000030 ab 13 47 be d5 51 02 3e b1 f8 88 be db c2 8d bd
       -0.19441096 0.12726529 -0.26752236 -0.06921931
000040 45 bc 3d 3d 6c 0c 45 bd ce 48 92 be 87 18 7b be
       0.046322126 -0.04810755 -0.2857117 -0.24521075
000050 5c 66 06 bd 68 8e 5d bb e1 95 b5 bd 38 3f 8a 3d
       -0.03281246 -0.0033806805 -0.08866478 0.06750339
000060 1b 63 50 be cf 21 94 be 2e 17 a5 be 34 63 43 bd
       -0.20350306 -0.28932044 -0.32244247 -0.04770203
000070 07 33 2e 3e 54 26 2f 3d 5c 0b bf 3d a4 1a a5 bd
       0.17011653 0.042761162 0.093283385 -0.08061722
000080 62 f1 b6 bd 3f e8 53 be 40 77 62 3d 8d 99 0b 3e
       -0.08932759 -0.20694064 0.055289507 0.13632794
000090 63 9f 19 3f 33 42 08 3e 11 74 17 be 36 2d e6 be
       0.6000883 0.13306503 -0.1479037 -0.44956368
0000a0 50 5d 99 be 81 0c 10 3e 26 92 c0 bd 4c 50 83 bd
       -0.29954004 0.1406727 -0.094028756 -0.064118
0000b0 74 24 8b 3e eb 10 fd 3c 17 8b 42 3d 0e ef 8f 3e
       0.2717625 0.030891856 0.047495928 0.28112072
0000c0 89 03 15 be af d9 d4 bd 13 ce 84 3e f4 d6 68 3c
       -0.1455213 -0.10393082 0.25938472 0.014211405
0000d0 b9 07 6b 3d 59 6a 67 be ea 07 da be ad 59 7e be
       0.05738041 -0.22599162 -0.42584163 -0.24838896
0000e0 1a 80 0a ba 7c 9a 41 3e fe 66 6c 3a c5 29 a5 3e
       -0.0005283371 0.18906587 0.00090180326 0.3225843
0000f0 37 6c b4 be 02 ce c4 be ef 11 ba 3c c3 5f 60 be
       -0.3523881 -0.3843842 0.02271363 -0.2191153
000100 0b 37 ab be 1d b4 e3 bc 5f 82 fb be 84 a8 42 3d
       -0.33440432 -0.027795846 -0.49122903 0.04752399
000110 f4 a1 34 3e 6d 42 db 3d 17 15 a7 bd b3 ce 95 3c
       0.17639905 0.10706029 -0.081583194 0.018287038
000120 38 9f 8d 3d 54 6c f3 bd 1d 87 4d bd a9 e2 35 bc
       0.06915134 -0.11885896 -0.050177682 -0.011101403
000130 79 42 86 bd 5c 39 96 bb 0d d1 17 3e 1f 06 0d 3e
       -0.065556474 -0.0045844745 0.1482584 0.13771866
000140 85 0a e9 bd 72 f2 5d bd df 65 9e 3d e4 ce 2b bc
       -0.113789596 -0.054186292 0.07734274 -0.010486338
000150 18 4e e0 be 5d 5b 4c bb 88 3e 9e be 96 70 21 3c
       -0.4380958 -0.0031182386 -0.30907083 0.009853503
000160 5a 6a 8d 3d 4e 75 a7 be a8 b7 ce 3d 7f de 20 3d
       0.069050506 -0.32706684 0.100936234 0.03927469
000170 00 84 21 be e8 a6 d5 be 71 a6 90 3d c3 ba 59 bd
       -0.1577301 -0.41728902 0.07062996 -0.053156625
000180 ec 5c d8 3d 15 9d b2 be b1 7f 3c bc 87 90 a9 be
       0.105645984 -0.3488547 -0.011505053 -0.33118078
000190 fb be 75 3d 95 07 1f be a8 f7 f1 bb f2 83 4a 3d
       0.059996586 -0.15530236 -0.0073842593 0.04944224
0001a0 36 b6 50 be d5 b4 61 3d 6b f8 f1 bd a0 81 d0 bd
       -0.20382008 0.055104095 -0.1181496 -0.10180974
0001b0 f0 08 27 be b8 10 ac be 42 bb e4 bd 5e 6e 0d be
       -0.16312003 -0.33606505 -0.11168529 -0.13811633
0001c0 fe e0 e5 bc 7d 36 09 be 17 43 60 be 89 02 33 bd
       -0.028061386 -0.13399692 -0.21900593 -0.04370359
0001d0 25 3d 18 3d a4 47 6a be 3f 24 a1 bd d4 dd 36 be
       0.037167687 -0.22878891 -0.078682415 -0.17858058
0001e0 fc 48 30 3d 93 52 da 3e 01 81 90 3d 18 f2 83 be
       0.043038353 0.42641124 0.070558555 -0.2577064
0001f0 ce a0 56 3e 10 9e 07 be 64 15 a1 be e4 54 37 bc
       0.2095978 -0.1324389 -0.31461632 -0.011189673
000200 b1 f5 52 bc 40 4d 29 be a6 fe 4c 3d 63 a6 26 be
       -0.01287596 -0.16533375 0.05004754 -0.16274409
000210 25 07 b6 bd 87 cf 14 be fc 54 94 bc 6e b0 8f 3e
       -0.088880815 -0.1453229 -0.01810693 0.28064293
000220 5e f4 87 3d 9e ff 93 bd e7 88 c5 3d d8 6c 8b be
       0.06638406 -0.072264895 0.09645253 -0.2723148
000230 a9 5e 1e 3e 0d 41 9c bc 93 37 48 3e 0e 80 0b be
       0.15465797 -0.019073987 0.1955245 -0.13623068
000240 11 35 20 be 0a 4a c7 3c 02 48 2a bd 15 a2 54 be
       -0.15645243 0.024327297 -0.04157258 -0.20764954
000250 32 b1 29 3d 77 9f 23 3d d0 69 27 bf 91 52 69 bc
       0.041428752 0.039947 -0.6539583 -0.014240877
000260 4b 59 6a 3c ef aa 84 3d 1b 56 72 3e ea d0 db be
       0.014303516 0.064779155 0.23665659 -0.42932826
000270 d0 e3 05 bd 60 0d 00 3e bc 16 ef bd 4e 4b a2 be
       -0.032687962 0.12505102 -0.11674258 -0.31698078
000280 ec 85 e9 bd a7 71 aa 3d 1d d8 c5 bc 4c d5 8f bb
       -0.11402497 0.08322459 -0.024150902 -0.0043894406
000290 a3 85 ca bd fc 36 d0 bb 00 af d2 be 1c 34 5e 3e
       -0.098887704 -0.006354211 -0.4114914 0.21699566
0002a0 4f 4a 1c 3c 4b e2 16 bd eb db 51 bd 5f 9e 3e be
       0.009539201 -0.036836904 -0.05123512 -0.18615101
0002b0 4e be 01 be 29 82 7d be aa 81 83 bc 4d b7 8c be
       -0.12670252 -0.24756683 -0.01605304 -0.27483597
0002c0 8c 12 56 3d 99 ff d9 3d a2 2f fc 3c e6 0e d3 be
       0.05226378 0.106444545 0.030784432 -0.41222304
0002d0 d6 a0 3d be 50 c7 b6 be 35 ee 2e be 54 88 02 3d
       -0.18518385 -0.35698938 -0.17083056 0.031868294
0002e0 83 16 71 be 71 a3 28 bc 4b d1 c8 3d 81 47 0d bb
       -0.23543744 -0.010292874 0.098055445 -0.0021557512
0002f0 dd f6 1c bc 91 49 22 3e 48 d4 90 bd 58 72 37 bd
       -0.009580341 0.15848376 -0.070717394 -0.04478678
000300 e3 b7 68 3d e2 4a 07 bf 9b 6a 7a 3d 58 e4 b7 3d
       0.056815993 -0.5284864 0.061136823 0.089791
000310 fd d5 a2 bc fd 5d ad 3e 07 28 81 be 5c 97 5b be
       -0.019877428 0.3386077 -0.2522585 -0.21444458
000320 01 9e 83 3b c3 02 dc 3c 2a 88 8e bd a2 dd 9c be
       0.0040166383 0.026856786 -0.06959565 -0.30637842
000330 72 fa ca be 73 cb 31 be e9 40 79 be 02 b4 94 3c
       -0.396442 -0.17362766 -0.24341168 0.01815224
000340 51 f8 8d be 81 a4 fd be 11 d0 d6 bc d9 a7 63 3e
       -0.27728513 -0.4953957 -0.02622226 0.22231998
000350 ae bd 09 be ee 93 25 3d ad da a9 be 88 7b ea 3b
       -0.13451263 0.04042428 -0.3317465 0.0071558394
000360 fb 17 db bc bd 39 5a be a6 bf 22 bf 4c cb 64 3c
       -0.026744833 -0.21311088 -0.6357368 0.013964485
000370 7a 37 da 3c 53 8b 2c bd 2f 03 b0 bd 11 62 57 bd
       0.026637781 -0.042125057 -0.08594357 -0.052583758
000380 06 b9 32 bc f7 37 0a be cc 2f 4b be 4f ed 39 3e
       -0.010908371 -0.13497911 -0.19842452 0.18156932
000390 2c fe 9e be 4f f2 15 3e 29 a0 7f 3d 7f 2a 01 be
       -0.31053293 0.14643215 0.0624086 -0.12613867
0003a0 07 94 84 bd 9e 56 57 3e 4f 73 0e bd 24 8b 54 be
       -0.064735465 0.21029136 -0.034777936 -0.20756203
0003b0 0c 38 1d 3f 39 35 c9 bd 3f 6f 32 be 2c 82 04 be
       0.61413646 -0.098246045 -0.1742525 -0.12940282
0003c0 12 96 a1 bd 99 e1 ff 3d 56 b7 61 3f a1 16 1c be
       -0.07889952 0.12494201 0.88170373 -0.15243007
0003d0 3a 71 31 bd 63 9d b9 bd f7 92 87 bd 43 bb 75 bd
       -0.043320872 -0.09063222 -0.06619828 -0.05999304
0003e0 2e c0 89 be f6 ee d7 bd 33 3a 0a bf 48 0c 65 bb
       -0.26904434 -0.10543625 -0.53995055 -0.0034949947
0003f0 06 06 c2 bc ed 5c 90 3c 90 75 8d be 08 7d 36 be
       -0.023684513 0.017622435 -0.27628756 -0.17821133

attention.0.bias f4 [100]
000000 ed b6 17 bf f3 fb 93 be d4 52 14 bf db 88 76 bf
       -0.592635 -0.2890316 -0.57938886 -0.96302575
000010 6e a9 f4 bd 1d 21 fb be bd 88 7c be 81 c6 76 bd
       -0.11946379 -0.490487 -0.24661537 -0.0602479
000020 95 44 d4 be 8e d7 74 be 7b cd 40 3e ee 5f bc be
       -0.41458574 -0.23910353 0.18828385 -0.3679194
000030 34 ac 40 be 47 fc 86 bf 68 83 d2 bc 3e e4 db be
       -0.1881569 -1.0545739 -0.025697425 -0.42947572
000040 f3 c7 cd be a9 ae 0a bf 36 34 15 bf ef 8f 0d bf
       -0.40191612 -0.5417276 -0.5828279 -0.5529775
000050 ab 0a aa 3e 55 18 18 be a3 26 8a 3e 5e 59 30 bf
       0.33211264 -0.14853032 0.26982602 -0.68886364
000060 bc e3 fa be ea b4 1f bf 34 b1 25 bf 90 0e 09 bc
       -0.49001873 -0.6238543 -0.64723516 -0.008365288
000070 e9 d2 32 bf 01 38 00 bf 1c 19 eb bc 91 b0 1d bf
       -0.69853073 -0.50085455 -0.028698497 -0.61597544
000080 62 e4 b1 3e be 5f 9b be bf 16 c1 3d 1f 16 8e bf
       0.34744555 -0.30346483 0.094281666 -1.1100501
000090 ac 54 10 3e e4 6f 34 bf a5 54 eb 3e d9 a8 7a 3e
       0.140948 -0.7048323 0.45963016 0.24478473
0000a0 53 3d 81 be ad 9a bf be df 55 2e bf 57 cc 08 be
       -0.252421 -0.37422696 -0.6809978 -0.133592
0000b0 80 c5 c6 be 85 e3 42 bf 69 47 1c be ee 39 76 be
       -0.38822556 -0.7612842 -0.15261616 -0.24045536
0000c0 32 24 93 3e 72 2a 67 be 66 eb 66 3e 65 c6 76 be
       0.28738552 -0.22574785 0.22550735 -0.24099119
0000d0 1a d1 0a bf db 02 24 bf 2c 1a d8 be 7e e6 37 bf
       -0.54225314 -0.6406686 -0.42207468 -0.7183608
0000e0 e9 27 b4 be 44 51 0c bf 80 17 7b bf 96 03 3b be
       -0.351867 -0.548115 -0.98082733 -0.18263087
0000f0 08 9b 97 bd c3 b6 28 3d d3 99 cb be d6 3d 2e bf
       -0.07402617 0.04118992 -0.39765796 -0.68063104
000100 7c a5 cd 3d 3b ae 32 3f eb d8 3a bf a1 fd 32 be
       0.10041329 0.69797105 -0.7298724 -0.17479564
000110 0e 85 80 bf b6 c2 8e 3e 79 5d 65 be 25 52 5c bf
       -1.0040605 0.27882928 -0.22398938 -0.8606284
000120 6a 8b 2d bf 46 36 9e be d0 c6 61 3f 30 26 6c be
       -0.67790854 -0.30900782 0.8819399 -0.23061442
000130 2a 02 e1 be 1a 55 c3 be 3f 74 11 bf 0e c8 68 be
       -0.43946964 -0.38150865 -0.56818 -0.22732565
000140 34 56 c7 bd 45 b5 9a be 2e 4f 2e bf 55 4c e9 be
       -0.09733239 -0.30216423 -0.6808957 -0.4556605
000150 f6 6a b7 be 04 8b c4 3e d5 cd 0c be f2 37 20 be
       -0.35823792 0.3838731 -0.13750394 -0.15646341
000160 b8 b4 43 bf 3f 2d 59 bf 55 3c 22 bf 1a b3 c1 be
       -0.7644763 -0.84834665 -0.6337331 -0.37831956
000170 59 fe 7c bc 49 a8 a1 be 21 30 d8 bd c0 0f 6d bf
       -0.015441501 -0.31573704 -0.10556055 -0.9260216
000180 22 2f 1d bf ed d1 9c be 39 59 a0 be 19 64 23 be
       -0.61400044 -0.3062891 -0.3131807 -0.15956153
