sarl_star_ros/CrowdNav-nowall/crowd_nav/data/output/rl_model.pth (torch_old, 349196 bytes, 20 tensors)

mlp1.0.weight f4 [150, 13]
0	0xbe425528	-0.18977797
1	0x3ede0989	0.4336665
2	0x3f56070d	0.8360451
3	0xbbe5babb	-0.0070107854
4	0xbfd04787	-1.6271828
5	0x3f02220e	0.50833213
6	0xbecab8cc	-0.39594114
7	0xbe9dfc21	-0.30856422
8	0xbfb487cc	-1.4103942
9	0x3fa99328	1.3248034
10	0x3f86787e	1.0505521
11	0xbf9efabc	-1.2420268
12	0x3f8858b2	1.0652068
13	0xbe0f0d41	-0.139699
14	0xbf9a129f	-1.2036933
15	0xbdebc2a5	-0.11511735
16	0xbf5e3224	-0.8679526
17	0xbdebcf0d	-0.11514101
18	0xbf9eda2b	-1.241033
19	0x3edc64d7	0.43045685
20	0x3de9665f	0.11396479
21	0xbfd2a5d9	-1.6456863
22	0xc07d0e8a	-3.9540124
23	0x40b9eb74	5.809992
24	0xbe476247	-0.19471084
25	0x40a0bf3d	5.0233445
26	0xbfc10193	-1.5078605
27	0x3e65656a	0.22401968
28	0x3d2c4baa	0.042064346
29	0x3e41a527	0.18910657
30	0x3dabeba9	0.08394558
31	0x3eae2aa5	0.3401691
32	0xbc968871	-0.018375607
33	0x3d83cb5b	0.06435271
34	0x3e97e46b	0.29666457
35	0x3d968b50	0.073507905
36	0x3f6787d9	0.9044166
37	0x3f7cbb9e	0.9872378
38	0x3f7b41cd	0.9814728
39	0x3e369527	0.17830335
40	0xbd16fba1	-0.036861066
41	0x4011f436	2.2805305
42	0x3d8af3a0	0.06784749
43	0x3f8d3497	1.1031674
44	0x3f184b18	0.59489584
45	0x3d92039d	0.071295954
46	0xc027dc4f	-2.6228216
47	0x3f0f2954	0.55922437
48	0xbf2164b9	-0.63044316
49	0x40119308	2.274599
50	0xc02def3d	-2.717727
51	0x4017517a	2.364348
52	0xbee46c97	-0.44614097
53	0x402a0929	2.656809
54	0x3fbc5513	1.4713463
55	0x3fdc8706	1.7228706
56	0x3fc0a80e	1.5051286
57	0x3ef01c0b	0.46896395
58	0x400e063c	2.2191305
59	0xbe53b6fa	-0.20675269
60	0x40c01b83	6.0033584
61	0xbf8ddcc1	-1.1082994
62	0xc0719eef	-3.7753255
63	0xbfd94654	-1.6974587
64	0xbffca116	-1.973666
65	0xbf07dbb6	-0.5306963
66	0xbd81476f	-0.06312453
67	0x3b641bfa	0.0034806714
68	0x3df451bd	0.11929653
69	0xbe5132e0	-0.20429564
70	0x3e913bf4	0.28366053
71	0x3e6e9fca	0.23303142
72	0xbd48201e	-0.048858754
73	0x3f087a82	0.5331193
74	0x3f665699	0.8997589
75	0x3f189844	0.5960734
76	0xbea83e04	-0.32859814
77	0x3e7c6b5a	0.24650326
78	0xbe73ef76	-0.23821816
79	0x3f40c737	0.7530398
80	0xbf9880b9	-1.1914283
81	0x3efe3bc0	0.4965496
82	0xbf2ecee6	-0.6828445
83	0xbe8ae010	-0.2712407
84	0x3fbb0370	1.4610424
85	0x3fcdc02f	1.6074275
86	0x3f9be7e4	1.2180142
87	0xbfd34d18	-1.6507902
88	0xbd33c23b	-0.043886404
89	0xc02190c4	-2.5244608
90	0x3ef64f07	0.48107168
91	0xbe4d3cfc	-0.20042795
92	0xbda2ea09	-0.07954795
93	0xbc88d178	-0.016701445
94	0xbe3c42a3	-0.18384795
95	0x3d73f25b	0.0595573
96	0xbd5e5ded	-0.054288793
97	0x3b2a3ab6	0.0025974936
98	0x3e65fcfc	0.22459787
99	0x3e4783e2	0.19483903
100	0x3e4dd1c3	0.20099549
101	0xbdac20b5	-0.08404676
102	0xbd09fce2	-0.033688433
103	0xbe3fa74c	-0.18716162
104	0x3f53110c	0.82447886
105	0x3da8a3eb	0.0823439
106	0xbf3e0b03	-0.7423555
107	0x3e9f97c1	0.31170467
108	0x3fe60b7c	1.7972255
109	0xbeaf3d28	-0.34226346
110	0xc01ce6d2	-2.4515882
111	0xbeec5ef9	-0.46166208
112	0xc043e4f4	-3.0608492
113	0xbdbfcce2	-0.0936525
114	0xbdb1d7f5	-0.08683769
115	0xc02d7df0	-2.7108116
116	0x3dd56cea	0.10421164
117	0x3dd6f10c	0.10495195
118	0x3ccb132f	0.02478942
119	0xc0a920e7	-5.2852664
120	0x3e66c734	0.22536927
121	0xbfa0c203	-1.2559208
122	0xc0712917	-3.768133
123	0xbee48bbc	-0.4463786
124	0xbe8a3eb8	-0.27000976
125	0x3f81f9f6	1.0154407
126	0x3f947308	1.1597605
127	0xc056fd6f	-3.3592184
128	0x3f180317	0.59379715
129	0xc055f448	-3.3430347
130	0x3f7f64c7	0.9976315
131	0xbf1a2fb0	-0.60229015
132	0x3f8e2630	1.1105404
133	0xbf00d59f	-0.5032596
134	0x3f8d3dfe	1.1034544
135	0x3f31347e	0.6922072
136	0xbf886ef8	-1.0658865
137	0xc02cbbc3	-2.69896
138	0xbfa5aa4d	-1.2942597
139	0x401234b5	2.284467
140	0xbfc09ec1	-1.5048448
141	0xc01ef67c	-2.4837942
142	0xbffa7c47	-1.9569176
143	0x3e1d5126	0.15362987
144	0xbf86b0bc	-1.0522685
145	0x3d2b6848	0.041847497
146	0xbf5cfec8	-0.86326265
147	0x3da22844	0.07917836
148	0xbf529b1f	-0.82267946
149	0xbf71f9db	-0.94521874
150	0x3f25c648	0.6475568
151	0xc09e2109	-4.9415326
152	0x405c459f	3.4417493
153	0x40197dd2	2.3983045
154	0x3d925beb	0.07146438
155	0x40067d58	2.1014004
156	0x3e85a237	0.26100323
157	0x3f68d237	0.9094576
158	0x3fddfdff	1.7343138
159	0x3f3d64f6	0.7398218
160	0xbf54e97e	-0.8316878
161	0xbf321ebf	-0.69578165
162	0xc007d252	-2.122212
163	0x3f10f050	0.5661669
164	0xbecc2a95	-0.39876238
165	0x3df45e4c	0.11932048
166	0x3fa8f412	1.3199484
167	0xc041fdc6	-3.031114
168	0x3fe60b72	1.7972243
169	0x4002e50d	2.0452302
170	0xbfd7f478	-1.6871481
171	0x3fd095b0	1.6295681
172	0xbfc16bd7	-1.5111035
173	0xbc1ab2c4	-0.009442035
174	0xbbecabfe	-0.0072226515
175	0x3f6a3af4	0.91496205
176	0x3e4d1217	0.20026432
177	0xc087c406	-4.2426786
178	0xbfeb330b	-1.8374952
179	0x3f3da464	0.74078965
180	0xc011b1e3	-2.2764823
181	0xbecddb85	-0.40206543
182	0xbfee88cc	-1.8635497
183	0xbeab17c4	-0.3341657
184	0x3fb3de9d	1.4052311
185	0xbe9343e5	-0.28762737
186	0x3f861a63	1.0476803
187	0xbf0c1657	-0.5472159
188	0xbc0a5314	-0.008442659
189	0xbef4e73a	-0.47832662
190	0xbe8ed1e5	-0.27894512
191	0x3e73daee	0.23813984
192	0xbf639f95	-0.8891538
193	0x3fe24f6c	1.7680488
194	0xbf2b26f7	-0.6685633
195	0xbe119548	-0.14217103
196	0x3e49086d	0.1963212
197	0x3eb0a2c7	0.3449919
198	0xbdd94c99	-0.10610313
199	0xbdf2da0e	-0.11857997
200	0xbe3d7ce7	-0.18504678
201	0xbe16a9a8	-0.14713156
202	0xbe41dafa	-0.18931189
203	0x3e178c41	0.14799596
204	0xbe8539cb	-0.26020655
205	0x3dad10bf	0.0845046
206	0xbdeaba9a	-0.11461373
207	0xbe1ecdd5	-0.15508206
208	0xbe134fb2	-0.1438587
209	0x3e060c30	0.13090587
210	0xbe288b9b	-0.16459505
211	0x3e8730bf	0.26404378
212	0xbe4a8f98	-0.19781339
213	0x3df3e409	0.11908729
214	0xbce77d13	-0.028257882
215	0xbb4b0708	-0.0030979533
216	0xbdb31fd6	-0.087463066
217	0x3e1ac39b	0.1511368
218	0x3e86aadf	0.2630224
219	0xbe57ac8b	-0.21061914
220	0x3d7851d2	0.060624905
221	0xbfc2f1b4	-1.5230012
222	0x3d28a4b7	0.04117271
223	0xbea39fa6	-0.3195774
224	0x3e4d0659	0.20021953
225	0x3e197728	0.14986861
226	0xbed7bc31	-0.42135766
227	0x3f42d356	0.76103723
228	0x3d5d9cbe	0.05410456
229	0xbdaadc84	-0.08342841
230	0x3d089a5a	0.033350326
231	0x3cf8a6a2	0.030352894
232	0x3f09809b	0.5371186
233	0x3eb2a73d	0.34893218
234	0xbf073b89	-0.5282522
235	0x3d5bbd63	0.05364741
236	0xbe8dfbb1	-0.27731088
237	0x3e36208a	0.1778585
238	0xbebdae57	-0.37047073
239	0x3eb3cbfe	0.3511657
240	0xbe14a5c3	-0.14516358
241	0xbe6fdddb	-0.23424475
242	0x3c028c4b	0.007968019
243	0x3e7e658d	0.24843426
244	0x3e07d083	0.13263135
245	0xbd727ab6	-0.059199058
246	0x3e496062	0.19665673
247	0xbe9b8365	-0.30373684
248	0x3f124892	0.57141984
249	0xc0655821	-3.583504
250	0x3e77d59b	0.24202578
251	0x40a00531	5.0006337
252	0xc019eaea	-2.404963
253	0xbeab5cf7	-0.33469364
254	0xbe791d71	-0.24327637
255	0xc0957eb3	-4.671716

mlp1.0.bias f4 [150]
0	0x3f41af2c	0.75657916
1	0xc02e9d38	-2.7283459
2	0x3d9a41da	0.075320914
3	0x3e13927e	0.14411351
4	0x40cc5412	6.3852625
5	0x3e03ca86	0.12870225
6	0x3fa8fbfd	1.3201901
7	0xbda87296	-0.082249805
8	0x3eee97d1	0.46600202
9	0x3eb90be9	0.361419
10	0xbf9f249c	-1.2433047
11	0xc011d3ef	-2.2785604
12	0x40052546	2.0804
13	0xc08cc25f	-4.398727
14	0xbd9e3375	-0.077246584
15	0xbe0a0eb6	-0.13482174
16	0xbe2e2584	-0.17006499
17	0x3dbf36d7	0.09336632
18	0xbcef6de6	-0.029227208
19	0x3fec6d2c	1.8470817
20	0x3d6bb2af	0.057543453
21	0x3eaad015	0.3336188
22	0x3f502425	0.8130515
23	0xbe8f20f6	-0.27954835
24	0x3f5a90bf	0.85377115
25	0xbd84c038	-0.06481975
26	0xbd855bf7	-0.065116815
27	0x3f0e1d2c	0.5551326
28	0xbf203c8e	-0.625924
29	0xbf8685b0	-1.0509548
30	0x3f28ac07	0.6588749
31	0xc00fec30	-2.2487907
32	0xbfdd3eeb	-1.7284826
33	0x3f50600f	0.81396574
34	0x3f052b85	0.5201953
35	0x3ee7e4b1	0.45291665
36	0x40021d17	2.0330255
37	0xc0417887	-3.0229814
38	0xbf46c6d5	-0.77647144
39	0xbe460d56	-0.19341025
40	0x3fd33b7a	1.6502526
41	0x3eb9cb64	0.36287987
42	0x3e9cb982	0.3061028
43	0xbfee3310	-1.8609333
44	0xc08d897b	-4.4230323
45	0x3f81ab5f	1.0130423
46	0x3f4467aa	0.7672068
47	0xbefe2322	-0.4963618
48	0xbf574c5c	-0.8410089
49	0x3fc7c5f4	1.5607285
50	0xbfbf122c	-1.4927421
51	0x3eac5f11	0.3366628
52	0xbfb3520d	-1.4009415
53	0xbf41adfb	-0.756561
54	0x3e2172cb	0.15766446
55	0xbee858e6	-0.45380324
56	0xc0057c52	-2.085713
57	0xbf955b79	-1.166854
58	0xbf7b9550	-0.9827471
59	0x3f07a215	0.5298169
60	0xbf15a54d	-0.58455354
61	0x3e228547	0.15871154
62	0x3dbcbada	0.092153266
63	0x3f737e72	0.95114815
64	0xbe8d6c36	-0.2762162
65	0x3ed630af	0.41834018
66	0x3eed210a	0.4631427
67	0xbed851f0	-0.42250013
68	0xbf84e5be	-1.0382612
69	0xbf2f8dda	-0.68575823
70	0xbfb37a72	-1.4021742
71	0xbd764428	-0.060123593
72	0xbf957474	-1.1676164
73	0xbf9d409c	-1.2285342
74	0x3f4e5839	0.8060337
75	0x3ed03f5f	0.40673348
76	0xbf13f353	-0.5779316
77	0xbf2ec8f5	-0.68275386
78	0x3e68db5a	0.22739926
79	0x3ea2bd97	0.3178527
80	0x3f5e7458	0.86896276
81	0xbe8c841a	-0.27444535
82	0xbd6b572a	-0.057456173
83	0x3d7f9a64	0.062403098
84	0x3d9e6c03	0.07735445
85	0x3fcebb5c	1.6150928
86	0xbd9c5537	-0.07633441
87	0x3dc5fef0	0.09667766
88	0xbe76a8d9	-0.24087848
89	0x3f801a03	1.0007938
90	0xbe328f6e	-0.17437527
91	0xbc3c1043	-0.0114784865
92	0x3f89d006	1.0766609
93	0xc01f0c70	-2.4851341
94	0xbcf6dc73	-0.030134415
95	0xbfb09516	-1.3795497
96	0xbeb764bb	-0.3581904
97	0xc0a3b19b	-5.1154304
98	0xbf094234	-0.5361664
99	0x3e29a6cb	0.16567533
100	0x3faa5244	1.3306355
101	0xbfa984d9	-1.3243667
102	0xbe4e4153	-0.20142107
103	0xc013e9af	-2.311138
104	0x3ef94037	0.48681805
105	0x3faaf0eb	1.3354772
106	0xbf36d1d5	-0.7141393
107	0xbde27c13	-0.110588215
108	0x3f97ca53	1.185862
109	0xc0013457	-2.0188196
110	0xbf75fc94	-0.9608853
111	0x3e7ea463	0.24867396
112	0x3ec6e08d	0.38843194
113	0x3fccdd91	1.6005117
114	0x3f65bc92	0.8974086
115	0xbe524f9f	-0.20538186
116	0x3e45fe77	0.19335352
117	0xbfa5a0cd	-1.2939698
118	0x3ef7a3c0	0.4836712
119	0xbd98a8f9	-0.07454104
120	0x3e5679be	0.20944878
121	0xbe1fd8fd	-0.15610118
122	0x3fc0c51c	1.5060153
123	0x4019c60f	2.4027135
124	0x3fc8ae16	1.5678127
125	0xc0a60099	-5.187573
126	0xbd51c642	-0.051214464
127	0xbf8ac094	-1.084002
128	0xbf86041a	-1.0470002
129	0x3f70e1ce	0.9409455
130	0xc09265ad	-4.5749116
131	0xbf2cce10	-0.67501926
132	0x3ed23ade	0.41060537
133	0x3e8e64ca	0.2781127
134	0xbc36378a	-0.01112164
135	0x3df6cbec	0.12050614
136	0xbda19926	-0.07890539
137	0xc0798965	-3.899011
138	0x3f5b9258	0.8577018
139	0x3faa4ad9	1.3304092
140	0x3f8d28ba	1.1028054
141	0xbe821295	-0.25404802
142	0xbef055de	-0.4694051
143	0xbeb7e806	-0.35919207
144	0x3f05418f	0.5205316
145	0xc008ffb6	-2.1406074
146	0xbeaf2c95	-0.342137
147	0xbe1dadcb	-0.15398328
148	0x3f504ace	0.8136414
149	0xbf6dfe86	-0.92966497

mlp1.2.weight f4 [100, 150]
0	0xbde850d0	-0.11343539
1	0x3e688e82	0.22710612
2	0xbcd175d6	-0.025568884
3	0xbdcb546d	-0.09928212
4	0xbf83f53d	-1.0309216
5	0xbd83d613	-0.06437316
6	0xbe07a8e7	-0.13248025
7	0x3d40b99a	0.047052003
8	0xbe4ba252	-0.19886139
9	0xbe9da122	-0.30786997
10	0x3b4c4cf3	0.0031173795
11	0x3ef54adb	0.47908673
12	0x3edd90d6	0.43274564
13	0xbf515161	-0.817648
14	0xbd061cb8	-0.032742232
15	0xbcf52065	-0.029922673
16	0x3d87d113	0.066316746
17	0xbbc74eac	-0.0060823765
18	0x3c9c77b5	0.01910005
19	0xbdc41fb5	-0.0957636
20	0xbc44ffc7	-0.012023873
21	0x3e924727	0.2856991
22	0xbd7c3341	-0.061572317
23	0xbe0dde9e	-0.13854453
24	0x3dca8ded	0.098903514
25	0xbd3a1b19	-0.045436
26	0xbd50188f	-0.05080467
27	0xbebe5789	-0.3717616
28	0xbd3b89c5	-0.045785684
29	0x3e8d73aa	0.27627307
30	0xbe1f4145	-0.15552242
31	0x3e74be18	0.2390064
32	0xbd232f44	-0.039839998
33	0xbe1fad6e	-0.15593502
34	0xbddee622	-0.10883738
35	0xbd1661e8	-0.036714464
36	0xbdaac00c	-0.08337411
37	0xbeaed893	-0.34149608
38	0x3f27574c	0.6536758
39	0xbeb0fed6	-0.34569424
40	0xbdfa75ac	-0.122294754
41	0xbe49e436	-0.19715962
42	0xbe859ba1	-0.26095298
43	0xbf2a5850	-0.66541004
44	0x3da8899b	0.08229371
45	0xbf0cf9a6	-0.55068433
46	0xbed84277	-0.4223821
47	0xbf1e93f8	-0.6194453
48	0xbe2d6d38	-0.16936195
49	0xbb2346f6	-0.0024914122
50	0x3ec870a2	0.39148432
51	0xbd1f92fe	-0.038958542
52	0xbc88ddd5	-0.01670734
53	0xbebd7c22	-0.37008768
54	0xbdbd01d8	-0.09228867
55	0xbd2bf683	-0.04198314
56	0xbe41f28c	-0.1894018
57	0xbf001959	-0.5003868
58	0xbc6ff1e7	-0.014645076
59	0xbe73802b	-0.23779361
60	0x3d044520	0.032292485
61	0xbed2ee50	-0.41197443
62	0xbccc29b8	-0.024922237
63	0x3d683957	0.05669531
64	0xbceddb36	-0.029035192
65	0x3b81e0a6	0.0039635478
66	0x3f69ff55	0.9140523
67	0x3de462a1	0.111516245
68	0xbec6e14f	-0.38843772
69	0xbe25cd6a	-0.1619164
70	0xbe045cc1	-0.12926008
71	0x3cc859d8	0.024456903
72	0x3ed607bc	0.41802776
73	0xbefa6b7a	-0.48910123
74	0x3de5c710	0.11219609
75	0xbee72cfc	-0.45151508
76	0xbc367618	-0.011136554
77	0xbe6f2b5d	-0.23356386
78	0x3d9e719a	0.077365115
79	0xbd91f1b5	-0.0712618
80	0x3ee24e8a	0.44200546
81	0xbd365d38	-0.044522494
82	0xbf147444	-0.5798991
83	0xbed5b8df	-0.41742608
84	0xbd6113fe	-0.054950707
85	0xbe0d1ccc	-0.13780516
86	0xbd9dcb62	-0.07704808
87	0xbd06e1ba	-0.032930113
88	0xbd9b1b1a	-0.075735286
89	0xbf475f0b	-0.778794
90	0x3b1b267c	0.0023674062
91	0x3da52cef	0.08065211
92	0x3cf16744	0.029468186
93	0xbe0408bc	-0.12893957
94	0x3eecdee5	0.46263805
95	0x3eec3075	0.4613072
96	0xbee8aa30	-0.45442343
97	0xbf5fe350	-0.87456226
98	0x3e038df6	0.12847123
99	0x3c240301	0.010010482
100	0xbf6caad3	-0.9244816
101	0xbe883897	-0.26605675
102	0xbd76f061	-0.060287837
103	0xbe21eec7	-0.15813743
104	0xbe9c4569	-0.30521706
105	0xbe7b973b	-0.24569409
106	0xbdca6838	-0.098831594
107	0x3de0879c	0.109633654
108	0xbe8b6a08	-0.27229333
109	0x3bc00a66	0.0058606146
110	0xbf1a964e	-0.60385597
111	0xbf33ac92	-0.70185196
112	0x3ec4e76f	0.3845782
113	0xbe9a1e65	-0.30101314
114	0xbe0de0ce	-0.13855287
115	0x3d2655f1	0.040609304
116	0x3b936341	0.004497916
117	0x3d190adf	0.037363883
118	0xbe8aaac0	-0.27083397
119	0xbda4bc17	-0.08043688
120	0xbd33556c	-0.043782637
121	0x3d3bb441	0.0458262
122	0xbe41c512	-0.18922833
123	0x3db323ed	0.08747087
124	0xbdc14e7c	-0.09438798
125	0xbd451b56	-0.048121773
126	0xbd907db6	-0.070552275
127	0xbe90e950	-0.28303003
128	0xbef7d5df	-0.48405358
129	0x3e8eb62e	0.27873367
130	0xbf262e05	-0.6491397
131	0xbf4cb09f	-0.79957
132	0xbe4b75d9	-0.19869174
133	0x3d2a3130	0.041550815
134	0xbe2a1c5e	-0.16612384
135	0x3c26d48b	0.01018251
136	0x3e1ae340	0.15125751
137	0x3c9f8b13	0.019475495
138	0xbdd0cb0c	-0.10194978
139	0xbe93d1e9	-0.28871086
140	0x3f135cfa	0.57563746
141	0xbc1234c9	-0.008923718
142	0x3e50a40d	0.2037508
143	0x3e2d5f56	0.16930899
144	0xbe2df60c	-0.1698839
145	0xbdaf0f32	-0.0854782
146	0xbd2d4d4d	-0.042310048
147	0x3dfdc703	0.12391474
148	0xbe0bf8d4	-0.13669139
149	0x3c9c836c	0.019105636
150	0x3ea878bc	0.32904613
151	0xbe0a3257	-0.13495766
152	0x3be3a42f	0.0069470624
153	0xbe5845e0	-0.21120405
154	0xbe09240a	-0.13392654
155	0xbc95ad76	-0.01827119
156	0x3d577d41	0.052609686
157	0xbcd252dd	-0.025674278
158	0xbe1abb9c	-0.1511063
159	0xbe9b2780	-0.30303574
160	0xbeb51b6b	-0.3537248
161	0x3e4e91a0	0.20172739
162	0x3ea599e1	0.32343963
163	0xbe323494	-0.1740287
164	0x3d1fdba9	0.039027844
165	0xbc94b5a7	-0.018153025
166	0x3d4ba495	0.049717505
167	0x3ce7e582	0.02830768
168	0xbcbc07c2	-0.022952918
169	0xbe19077e	-0.14944264
170	0xbb98230b	-0.0046428493
171	0xbdb8c1cd	-0.090213396
172	0xbd079932	-0.033105083
173	0xbd6e4a80	-0.058176517
174	0x3db6ebc1	0.08931685
175	0xbdb729fe	-0.08943556
176	0x3d910652	0.07081284
177	0xbe5b7c6e	-0.21434185
178	0x3d043182	0.032273777
179	0xbdbcd28c	-0.09219846
180	0x3d9385fc	0.0720329
181	0xbe810808	-0.2520144
182	0xbcaa74ee	-0.02080771
183	0x3ee6780e	0.4501347
184	0x3d87d8d8	0.066331565
185	0xbceea8ab	-0.029133162
186	0x3e9ffdae	0.3124823
187	0xbe4f81ae	-0.20264313
188	0x3e38a113	0.18030195
189	0x3d9d63ff	0.07685088
190	0x3eac5563	0.33658895
191	0x3dd0237e	0.101630196
192	0x3ece1d24	0.40256608
193	0xbcf3f7e3	-0.029781288
194	0xbe9b1c81	-0.30295184
195	0xbdafc4fe	-0.08582495
196	0x3e157514	0.14595443
197	0xbe68c628	-0.2273184
198	0xbdf5edea	-0.12008269
199	0xbceffcd3	-0.02929536
200	0xbd39c551	-0.04535419
201	0xbe3761b7	-0.17908369
202	0xbe98c76f	-0.29839656
203	0xbe835f50	-0.25658655
204	0xbe0ec3d2	-0.13941887
205	0x3b680ea9	0.0035409129
206	0xbdfc7699	-0.12327308
207	0xbe557b59	-0.20847835
208	0x3e09eed8	0.13470018
209	0xbda01da8	-0.078181565
210	0xbd90c927	-0.07069617
211	0xbbac426a	-0.0052569406
212	0x3d5b806d	0.053589273
213	0x3c4b092c	0.012392323
214	0xbc47bf1f	-0.012191563
215	0xbd727bf7	-0.059200253
216	0xbe328eba	-0.17437258
217	0x3d7de31b	0.061984163
218	0xbe209048	-0.15680039
219	0xbd85ce76	-0.0653352
220	0xbe2b256e	-0.16713497
221	0x3c2bc34d	0.010483575
222	0xba593af4	-0.0008286678
223	0xbe29ef70	-0.16595244
224	0x3d7a36e2	0.061087497
225	0xbb7d46a4	-0.0038646841
226	0x3e73b02d	0.23797674
227	0x3cc9f100	0.02465105
228	0xbaa8abd0	-0.0012868587
229	0x3cbddbf9	0.02317618
230	0x3d7983a4	0.060916558
231	0xbadb3638	-0.0016724532
232	0xbd2ef08e	-0.04270988
233	0x3bfe3fc7	0.0077590677
234	0xbd47f719	-0.048819635
235	0xbd942555	-0.07233683
236	0xbc00b07f	-0.00785458
237	0x3d83eaed	0.06441293
238	0xbd26cffd	-0.040725697
239	0xbe05cf7d	-0.13067432
240	0x3d9326a1	0.07185102
241	0x3c8812b1	0.016610475
242	0x3e118542	0.1421099
243	0x3dcf55d5	0.10123793
244	0x3e7dd3ca	0.24787822
245	0xbdcec132	-0.10095443
246	0xbe41f3a2	-0.18940595
247	0xbed2ef10	-0.41198015
248	0xbd6859e7	-0.056726363
249	0x3cdb5c34	0.026777364
250	0xbe09d693	-0.1346076
251	0xbe26992d	-0.1626937
252	0xbd0a71d4	-0.03379996
253	0xbddf08e0	-0.10890365
254	0x3d10b00e	0.03532415
255	0x3e227eb8	0.15868652

mlp1.2.bias f4 [100]
0	0x3f56ae1d	0.83859426
1	0x3cac6b67	0.021047307
2	0xbd86c9cb	-0.06581458
3	0xbf1880b5	-0.5957139
4	0xbfc7026c	-1.5547614
5	0xbfc53e59	-1.5409652
6	0xbef178a8	-0.47162366
7	0x3ccd7440	0.025079846
8	0x3e0f4d88	0.1399442
9	0x3fd5b528	1.669591
10	0x3e823cc2	0.2543698
11	0xbcd09879	-0.02546333
12	0xbe3af1c1	-0.18256284
13	0xbd74c7c8	-0.05976084
14	0xbf5c7c80	-0.8612747
15	0xbdff00e5	-0.124513425
16	0xbeaeae80	-0.34117508
17	0x40014e29	2.0203955
18	0x3ee0760d	0.43840066
19	0xbd8b66d9	-0.06806726
20	0xbff81714	-1.9382043
21	0xbde16b27	-0.11006766
22	0xbd4fe534	-0.050755695
23	0xc0384ab8	-2.8795605
24	0x3dc0fbac	0.094230026
25	0x3e1e525f	0.1546111
26	0xbe970841	-0.29498485
27	0xbe895e24	-0.26829636
28	0xbc84648d	-0.016161228
29	0x3ff28b99	1.8948852
30	0xbe18ff7e	-0.14941213
31	0xbe1a6d15	-0.15080674
32	0xbe15da02	-0.14633945
33	0x3e3163e4	0.17323261
34	0x3f3a42f2	0.727584
35	0xbf26e60d	-0.6519478
36	0xbd13780b	-0.036003154
37	0xbed00ab3	-0.40633163
38	0x3d3bf4a9	0.045887623
39	0xbeabf1a5	-0.33582798
40	0xbfc58eec	-1.5434241
41	0xbe2b4203	-0.167244
42	0xbe363644	-0.17794138
43	0x3f977870	1.183363
44	0xbdb5fde5	-0.08886317
45	0xc0318ef3	-2.77435
46	0xbf28a48f	-0.65876096
47	0xbea58c2d	-0.32333508
48	0x3e3e9392	0.18610981
49	0xbc95f08b	-0.018303176
50	0xbfc50bcc	-1.5394225
51	0xbfda86a8	-1.7072344
52	0x3c88eb52	0.016713772
53	0xbe889f28	-0.26683927
54	0xbe3f9d03	-0.18712239
55	0x3d0a24da	0.03372655
56	0xbd38a6dc	-0.045081005
57	0xc00753e3	-2.114495
58	0x3d314b97	0.04328498
59	0x3d9f1707	0.07768064
60	0xbfbb75b1	-1.4645292
61	0xbfc3571f	-1.5260962
62	0xbe4930d2	-0.1964753
63	0xbda6ab4d	-0.08138142
64	0xbd6b329a	-0.057421304
65	0xbe4667f7	-0.19375597
66	0x3f871454	1.0553079
67	0xbe62e6e7	-0.22158395
68	0xbe8525e3	-0.26005468
69	0x3f452599	0.77010494
70	0xbf05827d	-0.52152234
71	0x3f1bf960	0.6092739
72	0xbd0f048c	-0.034916446
73	0xc0012e18	-2.0184383
74	0x3cd1e71e	0.0256229
75	0xbed1081b	-0.40826496
76	0xbfd4887e	-1.6604154
77	0xbf2e14d1	-0.68000513
78	0x3d8396c2	0.06425239
79	0x3f162af9	0.5865932
80	0x3e1a7375	0.15083106
81	0xbf82ea85	-1.022782
82	0xc012cd3d	-2.2937768
83	0x3f094d37	0.53633446
84	0x3d71f9c7	0.059076097
85	0xbe6e6fd1	-0.23284842
86	0x3e84ede6	0.25962752
87	0xbd3ab20b	-0.04557995
88	0xbce788b9	-0.028263437
89	0xbf8a0621	-1.078312
90	0xbf98f676	-1.1950214
91	0xbbd4f9c9	-0.0064995033
92	0xbf921010	-1.1411152
93	0x3fbd558f	1.4791735
94	0x3f0138be	0.50477207
95	0x3e3b3443	0.18281655
96	0xbeacf540	-0.3378086
97	0xbe0716de	-0.13192317
98	0xbe9c5c7b	-0.30539307
99	0xbdef1caf	-0.11675393

mlp2.0.weight f4 [100, 100]
0	0xbed9235a	-0.42409784
1	0xbe352b63	-0.17692332
2	0xbd3b7846	-0.045769
3	0xbf110ddb	-0.56661767
4	0x3eb8f540	0.3612461
5	0x3e45c696	0.19314036
6	0xbf3717be	-0.715206
7	0xbf7fa191	-0.99855906
8	0x3cf782c8	0.030213729
9	0x3e597582	0.21236232
10	0xbe1ba3c9	-0.15199198
11	0x3e9d475a	0.307185
12	0xbf5a7d6c	-0.8534763
13	0xbccb3d50	-0.02480951
14	0x3ece31cb	0.40272364
15	0x3f04dc5c	0.5189874
16	0x3efc5f09	0.49291256
17	0xbf260780	-0.64855194
18	0xbf47290d	-0.77797014
19	0xbc437574	-0.0119298585
20	0xbf05f18c	-0.52321696
21	0xbf0c4d6e	-0.5480565
22	0xbdb747e1	-0.08949257
23	0x3c027095	0.007961412
24	0x3e8d395a	0.27582818
25	0xbdf11634	-0.11771813
26	0xbf682747	-0.9068493
27	0xbe072583	-0.13197903
28	0x3d266cca	0.040631093
29	0x3ed05603	0.40690622
30	0xbf3e02b4	-0.74222875
31	0xb81d5bed	-3.751733e-05
32	0xbb57c2d5	-0.0032922525
33	0xbe8c373a	-0.27385885
34	0xbdf21ceb	-0.11821922
35	0xbec4297d	-0.38312903
36	0x3cf3e416	0.029771846
37	0xbf0a94df	-0.5413341
38	0xbdd35bfd	-0.1032028
39	0x3e3b8c7c	0.1831531
40	0xbf11ab6e	-0.56902206
41	0xbea7d3a7	-0.32778665
42	0x3e997196	0.29969472
43	0xbf8a34a9	-1.0797321
44	0xbd815407	-0.06314855
45	0xbf826717	-1.018771
46	0xbe9293f2	-0.28628498
47	0xbe8b0f9a	-0.2716034
48	0x3e1ccc61	0.1531234
49	0x39706db9	0.00022929058
50	0x3f0e0b8c	0.5548637
51	0x3f0062b6	0.5015062
52	0xb9c4649b	-0.0003745899
53	0x3eae7852	0.34076172
54	0x3d7774f1	0.06041426
55	0xbd93fe3a	-0.07226224
56	0xbe84e982	-0.25959402
57	0xbef21d3f	-0.47287938
58	0xbc3acb6b	-0.011401038
59	0xbd19af33	-0.0375206
60	0xbf283619	-0.65707546
61	0xbebb3b33	-0.36568603
62	0xbeddc7cf	-0.43316504
63	0x3dc06aa6	0.093953416
64	0x3ed685c3	0.41898927
65	0x3d8907b1	0.0669092
66	0xbf45a927	-0.7721123
67	0xbdb7d69b	-0.089764796
68	0xbf0a8bec	-0.54119754
69	0xbf3a4db5	-0.7277482
70	0x3ca53386	0.02016617
71	0xbe4d4ae0	-0.20048094
72	0xbeb9fa63	-0.36323842
73	0xbf7efe6f	-0.99606985
74	0xbe539921	-0.20663883
75	0xbe4386a0	-0.19094324
76	0xbe0173a7	-0.12641774
77	0x3e12aecc	0.14324492
78	0x3e0e9741	0.13924886
79	0x3e68ddab	0.2274081
80	0x3e539888	0.20663655
81	0x3f06192d	0.52382165
82	0x3f365a42	0.7123147
83	0xbf53ebef	-0.8278188
84	0xbf1875bc	-0.5955465
85	0xbe568b1c	-0.20951504
86	0xbe992a96	-0.29915303
87	0xbe11548e	-0.14192411
88	0xbf37d0ab	-0.7180278
89	0xbeba0e35	-0.36338964
90	0x3e591fa6	0.21203479
91	0xbda02867	-0.07820206
92	0xbdddeec6	-0.10836558
93	0xbe6167f9	-0.22012319
94	0xbd6f8c5f	-0.058483478
95	0xbec81888	-0.39081216
96	0xbf5e113a	-0.86745036
97	0xbe38b076	-0.18036065
98	0x3f80bbd2	1.0057318
99	0x3d907d3f	0.07055139
100	0xbeb2ec1d	-0.34945765
101	0x3e6da94c	0.23209113
102	0x3d1015b1	0.035176937
103	0x3d191129	0.03736988
104	0xbdd5956c	-0.104288906
105	0xbe5ad88c	-0.21371669
106	0xbebd1331	-0.36928704
107	0x3dafc0f4	0.08581725
108	0x3da8aba6	0.08235864
109	0x3f072a6c	0.52799106
110	0xbe344252	-0.17603424
111	0xbe60f551	-0.21968581
112	0xbecf956c	-0.40543687
113	0xbb343722	-0.0027498682
114	0xbc28d8ef	-0.010305627
115	0xbee1d6af	-0.44109103
116	0x3ecbda08	0.39814782
117	0xbeabe69b	-0.33574376
118	0xbe27b843	-0.16378884
119	0xbe07a184	-0.13245207
120	0xbe7d0702	-0.24709705
121	0xbeb97e67	-0.3622925
122	0xbd43d581	-0.047811035
123	0xbed2325b	-0.41054043
124	0x3d3b5fcf	0.045745667
125	0x3daac2c8	0.08337933
126	0xbe8129bc	-0.25227153
127	0x3c90ce10	0.017676383
128	0x3c5120fe	0.012764214
129	0x3f0f570f	0.55992216
130	0xbe0a08cc	-0.13479918
131	0xbd8b9553	-0.06815591
132	0xbddea84e	-0.10871945
133	0x3f058a66	0.52164304
134	0xbd49fbbd	-0.049312342
135	0x3e338179	0.17529859
136	0xbcba5fa5	-0.022750685
137	0xbc65a306	-0.014015919
138	0xbd5eeb10	-0.05442339
139	0xbd4b154f	-0.04958087
140	0xbf2f2162	-0.68410313
141	0xbe0348b3	-0.12820701
142	0xbf40f1ec	-0.75369143
143	0xbef5bf7d	-0.47997656
144	0xbd58a12d	-0.052888084
145	0xbed79a52	-0.42109925
146	0xbf0bf3b9	-0.54668766
147	0x3d1b0655	0.037847836
148	0xbdb2c921	-0.087297685
149	0xbaa27ffa	-0.0012397759
150	0xbd55f790	-0.052238047
151	0xbe42d3d2	-0.19026116
152	0xbd4ee9e6	-0.05051603
153	0xbf00d818	-0.5032973
154	0xbdcf257b	-0.10114571
155	0xbcebb8bb	-0.02877461
156	0xbdc0f31c	-0.094213694
157	0xbdee2350	-0.11627829
158	0xbd4c77d4	-0.049918965
159	0xbd85932a	-0.0652221
160	0xbef96a31	-0.4871383
161	0xbeaeb671	-0.34123567
162	0xbce559ba	-0.027996887
163	0x3d81d8f2	0.06340207
164	0xbee34fe4	-0.4439689
165	0xbe3b8248	-0.18311417
166	0xbea9bf76	-0.33153886
167	0xbdb6c24b	-0.08923777
168	0xbe8456a4	-0.25847352
169	0xbee1041a	-0.43948442
170	0x3d20324f	0.039110478
171	0xbe76b43a	-0.24092188
172	0xbcfe5eca	-0.031051058
173	0xbeb2397e	-0.34809488
174	0x3c085930	0.008322045
175	0xbbd44bb1	-0.0064787497
176	0xbe1d7efd	-0.15380473
177	0xbf118a0e	-0.5685128
178	0xbe565802	-0.2093201
179	0x3f2f087b	0.68372315
180	0xbe218274	-0.1577242
181	0x3e7c314c	0.2462818
182	0xbeb6b685	-0.35686126
183	0xbe87ff59	-0.26562002
184	0xbe7ccafb	-0.24686806
185	0xbdf02232	-0.11725272
186	0xbea98867	-0.3311188
187	0x3c0094e5	0.007847999
188	0x3e9ba55c	0.30399597
189	0xbe5dda68	-0.21665347
190	0x3e978518	0.2959373
191	0xbb69c932	-0.00356729
192	0x3f0335bc	0.5125387
193	0x3e5591b4	0.20856363
194	0xbee260e2	-0.4421454
195	0x3db09778	0.0862264
196	0xbf050f18	-0.51976156
197	0xbd93ddcc	-0.07220039
198	0xbe4e1c16	-0.20127901
199	0xbc329df7	-0.01090192
200	0xbf1d667c	-0.61484504
201	0xbdc88350	-0.09790671
202	0x3c210aa8	0.009829201
203	0x3dce2541	0.10065699
204	0x3f2481db	0.64260644
205	0xbf858381	-1.0430757
206	0xbecf6ed1	-0.40514234
207	0xbecf64ae	-0.405065
208	0xbd147219	-0.036241625
209	0x3e82b392	0.25527626
210	0xbef3f8c8	-0.47650743
211	0xbf17cfd8	-0.5930152
212	0x3c30bfe3	0.010787937
213	0x3d7526d6	0.05985149
214	0xbf0d8ba8	-0.55291224
215	0x3e772050	0.2413342
216	0xbd103799	-0.035209272
217	0xbf861875	-1.0476214
218	0xbe8b52d7	-0.2721164
219	0xbdec0f79	-0.11526389
220	0xbdfc0c69	-0.123070545
221	0xbe094805	-0.1340638
222	0xbdc6dda4	-0.09710243
223	0x3df23871	0.118271716
224	0xbe01fd2b	-0.12694232
225	0x39b19234	0.00033869
226	0xbec40630	-0.3828597
227	0xbd899777	-0.06718343
228	0xbe170847	-0.14749251
229	0x3e0ebe88	0.1393987
230	0xbf38dc10	-0.7221079
231	0xbe255a83	-0.16147809
232	0x3da104e2	0.078622594
233	0x3e2dd5a0	0.16976023
234	0x3f0db947	0.55360836
235	0x3ee2ce63	0.44298086
236	0x3dcc6d4b	0.099817835
237	0xbe8226d7	-0.25420257
238	0x3e174407	0.14772044
239	0xbea7857e	-0.32719034
240	0xbebc1d68	-0.36741185
241	0xbe2d5b4a	-0.16929355
242	0xbe54bc9e	-0.20775077
243	0x3e9d7282	0.30751425
244	0x3d5a90a8	0.05336061
245	0xbf454623	-0.77060145
246	0x3f05cb6e	0.52263534
247	0xbe340d4b	-0.17583196
248	0xbf0b87c4	-0.54504037
249	0xbc63a8ba	-0.013895208
250	0x3d19e251	0.037569348
251	0x3eb36f91	0.35046056
252	0xbd61cfa5	-0.055129666
253	0xbf6719a5	-0.90273505
254	0x3d87961a	0.066204265
255	0xbe0821c9	-0.13294138

mlp2.0.bias f4 [100]
0	0x3e87cac5	0.26521888
1	0xbeb7c01f	-0.35888764
2	0x3fa5da5a	1.2957261
3	0x3f127644	0.5721171
4	0xbe4e9c04	-0.20176703
5	0xbe4a8339	-0.1977662
6	0x3e923cde	0.28562063
7	0x3d2affad	0.041747738
8	0xbe19922f	-0.14997171
9	0x3ffe5205	1.986878
10	0xbf2a2229	-0.66458374
11	0x3ff73aa5	1.9314772
12	0xbf5e1919	-0.86757046
13	0x3dd76b6a	0.105185345
14	0x3f8d5ea5	1.1044508
15	0x3e11e939	0.14249124
16	0xbe127ef4	-0.14306241
17	0x3fd18a5c	1.6370349
18	0xbe9a4a50	-0.3013482
19	0xbe9bd03a	-0.30432302
20	0xbcf5bc3d	-0.029996986
21	0xbe3e4f89	-0.18585028
22	0x3d047e55	0.032347042
23	0x3f77d0e7	0.96803135
24	0x3f2c5f3d	0.6733282
25	0xbe4e446b	-0.20143287
26	0x3f33c1c8	0.7021756
27	0x3f4611d1	0.77370936
28	0xbe27f277	-0.16401087
29	0xbd8b23a4	-0.06793907
30	0xbef9a6f0	-0.48760176
31	0xbbadc096	-0.005302499
32	0xbee4cf7f	-0.44689557
33	0x3dc4a0cf	0.09600984
34	0xbf3636d7	-0.7117743
35	0x3ee17489	0.44034222
36	0x3fa3d16b	1.2798284
37	0x3ea00f14	0.31261504
38	0xbecebfd4	-0.40380728
39	0x402f61dd	2.740348
40	0x3ee07b1f	0.43843934
41	0xbedd20b2	-0.43189007
42	0x3ee8b912	0.45453697
43	0x3ff16ec6	1.886193
44	0x3f9d4729	1.2287341
45	0xbefb81d1	-0.4912248
46	0xbdc9a64e	-0.09846173
47	0xbe4abf81	-0.19799615
48	0xbe77452c	-0.2414748
49	0xbf01e115	-0.5073407
50	0xbe993952	-0.29926544
51	0xbe829eae	-0.25511688
52	0xbdb605b7	-0.08887809
53	0xbddf1f0f	-0.10894596
54	0x3e8845ed	0.2661585
55	0xbc995555	-0.018717447
56	0x3d9bc1e7	0.07605343
57	0x3f4484da	0.76765215
58	0xbec9550f	-0.39322707
59	0xbf44505e	-0.7668513
60	0x3e8fdbfb	0.2809752
61	0xbe617623	-0.22017722
62	0x3d64eecc	0.055891797
63	0xbe942792	-0.2893644
64	0xbddc18e3	-0.10746934
65	0x3fc59f0d	1.5439163
66	0xbdb3acfc	-0.087732285
67	0xbe9b5445	-0.3033773
68	0x3f9135d8	1.1344557
69	0xbe7b2106	-0.24524316
70	0xbef810fd	-0.4845046
71	0xbe3bc05d	-0.183351
72	0x3df9aba8	0.12190944
73	0xbe89fc5a	-0.2695034
74	0xbef3e2d8	-0.47634006
75	0xbdc3abb2	-0.09554233
76	0xbe99e750	-0.3005929
77	0xbe0b63a9	-0.13612236
78	0xbf5f9fee	-0.8735341
79	0x3e365c7a	0.17808715
80	0x3f68ac32	0.9088775
81	0xbd9fa06c	-0.0779427
82	0x3edfa336	0.43679208
83	0x3eb6a713	0.35674343
84	0x404d86e1	3.2113574
85	0xbba95458	-0.0051675253
86	0xbd594d91	-0.05305249
87	0xbf8560fd	-1.0420223
88	0xbf00a539	-0.5025211
89	0xbe6c8acb	-0.2309982
90	0x3ede6e32	0.43443447
91	0x3fad39da	1.353328
92	0xbe93d975	-0.28876844
93	0xbc97cd93	-0.018530643
94	0xbb8ce5d4	-0.0042998586
95	0x3f3f491a	0.7472092
96	0xbe89a497	-0.26883385
97	0xbeacdb6c	-0.33761156
98	0x3d26ec58	0.04075274
99	0xbf02d919	-0.51112515

mlp2.2.weight f4 [50, 100]
0	0x3e6e3199	0.23261108
1	0x3e8c6804	0.27423108
2	0x3f0094df	0.5022716
3	0xbd8a1ce5	-0.067437924
4	0xbe0506c3	-0.1299086
5	0x3e5124cb	0.20424192
6	0x3f39880d	0.7247322
7	0x3df130ea	0.11776908
8	0x3dc0f85a	0.09422369
9	0x3e163301	0.14667894
10	0x3cb9a230	0.022660345
11	0xbcf7d428	-0.030252531
12	0x3dc2c3c8	0.095099986
13	0xbdbbe66f	-0.09174811
14	0x3da6e61f	0.08149361
15	0xbda67be1	-0.08129097
16	0xbe8a3a18	-0.26997447
17	0x37c6d9b9	2.3704824e-05
18	0x3f1d69ac	0.6148937
19	0x3dac3215	0.0840799
20	0xbea25c59	-0.3171108
21	0x3ce38eb3	0.027778005
22	0x3eb9a82a	0.36261111
23	0x3e756990	0.2396605
24	0x3ee11837	0.43963787
25	0x3e92ffd0	0.28710794
26	0x3dca5f15	0.09881417
27	0xbeb24db0	-0.34824896
28	0x3ebf219a	0.37330323
29	0xbdf5655a	-0.11982222
30	0xbdee6330	-0.11640012
31	0x3c21dd5b	0.009879435
32	0xbeeffcca	-0.4687255
33	0xbf43b4e0	-0.7644787
34	0x3d820adf	0.0634973
35	0x3e31056e	0.17287228
36	0xbdc2dc84	-0.09514716
37	0xbebe4b5e	-0.37166876
38	0x3de38cae	0.11110817
39	0xbe219752	-0.1578038
40	0xbdacdb7a	-0.08440299
41	0x3e10cea8	0.14141333
42	0xbe8bf791	-0.27337316
43	0x3c5c6b15	0.013453265
44	0xbdd9de33	-0.10638084
45	0x3efb14de	0.49039358
46	0xbdfc5490	-0.123208165
47	0xbf26a787	-0.65099376
48	0xbca4aac7	-0.020100964
49	0x3e19ad72	0.1500757
50	0x3e82c4c2	0.2554074
51	0xbdc2c564	-0.095103055
52	0xbe6bd82e	-0.23031685
53	0x3e533c12	0.20628384
54	0x3ebed5f6	0.37272614
55	0xbef3bbe7	-0.47604296
56	0xbd0e8d96	-0.034802996
57	0xbea780a3	-0.3271533
58	0xbe72017a	-0.23633376
59	0x3f1cb61a	0.61215365
60	0xbf368617	-0.71298355
61	0x3ed507e0	0.4160757
62	0xbd9a33e2	-0.07529427
63	0x3e3fb373	0.18720798
64	0x3e31fe8a	0.17382255
65	0x3efb9aeb	0.4914163
66	0x3e08f34f	0.13374065
67	0x3e2893cd	0.16462632
68	0x3e1544e3	0.1457706
69	0xbec9e182	-0.3942986
70	0xbebb27ee	-0.365539
71	0xbd2bab8e	-0.041911654
72	0x3ebabca6	0.36472052
73	0x3e51ff0e	0.20507452
74	0xbcefea86	-0.029286634
75	0xbe1e0b4c	-0.15433997
76	0xbf27f279	-0.6560436
77	0xbd968b2d	-0.073507644
78	0xbf2d384d	-0.67664033
79	0x3ce37221	0.027764382
80	0xbdffdfee	-0.12493883
81	0x3d19c969	0.037545595
82	0xbe2b9494	-0.16755897
83	0xbd9b1eb7	-0.07574218
84	0x3e147df9	0.1450118
85	0xbe7c4ad3	-0.24637918
86	0x3cc5b8a9	0.024135904
87	0x3ddb988c	0.107224554
88	0xbe84f0f0	-0.2596507
89	0xbe1f96d8	-0.15584886
90	0x3edf52db	0.436179
91	0x3e7de413	0.24794035
92	0xbd626052	-0.05526764
93	0xbd33e524	-0.043919697
94	0x3eba3312	0.3636709
95	0xbca9c068	-0.02072163
96	0x3ddaf5cf	0.106914155
97	0xbd0320c5	-0.032013673
98	0x3e01b51c	0.12666744
99	0x3e239191	0.15973498
100	0xbf044a24	-0.5167563
101	0xbe2262c7	-0.15857993
102	0xbd9401f3	-0.07226934
103	0xbd9697ff	-0.0735321
104	0x3e7a79c5	0.24460514
105	0xbedc117f	-0.42982098
106	0xbeb72050	-0.3576684
107	0xbda79004	-0.08181766
108	0x3eadd7f0	0.3395381
109	0x3e1df046	0.15423688
110	0xbc916ee4	-0.017753072
111	0xbedf9f78	-0.43676353
112	0xbdc13cf2	-0.094354525
113	0x3e39faf6	0.1816214
114	0x3d855a39	0.06511349
115	0x3cd054c9	0.025431054
116	0x3dc6bf6f	0.09704482
117	0x3e105458	0.14094675
118	0xbe663197	-0.22479855
119	0xbe0fa897	-0.14029156
120	0x3ed763e6	0.42068404
121	0xbebced62	-0.3689986
122	0xbed35836	-0.41278237
123	0xbeff5e0f	-0.4987645
124	0xbe4bc98f	-0.19901107
125	0x3d6b1f4f	0.057402905
126	0xbe57c7b6	-0.21072277
127	0x3e7f4df2	0.24932078
128	0xbe7247d1	-0.23660208
129	0xbe959efc	-0.29222858
130	0x3dd652f1	0.104650386
131	0xbe50f8c0	-0.2040739
132	0x3d9015c8	0.070354044
133	0x3df697f2	0.120407
134	0x3d4a4ec6	0.04939153
135	0x3f2d96f6	0.67808473
136	0x3e62db0f	0.22153877
137	0x3e850e11	0.25987294
138	0xbee2fd3d	-0.4433383
139	0x3f120d63	0.57051677
140	0xbdce51fd	-0.10074232
141	0xbe9da136	-0.30787057
142	0x3eb62421	0.3557444
143	0x3ef10e9e	0.47081465
144	0xbf247b77	-0.6425089
145	0x3d6889f0	0.056772172
146	0x3e18a5a1	0.14906932
147	0x3e198bfd	0.14994808
148	0xbe319ecd	-0.17345734
149	0x3dc0bfaf	0.09411561
150	0xbec4f9d6	-0.3847186
151	0xbedcdf0c	-0.4313892
152	0xbd11918c	-0.035539195
153	0xbe714515	-0.23561509
154	0xbd27b890	-0.040947497
155	0xbef13415	-0.47110048
156	0xbd0abd42	-0.033871897
157	0xbe04fc2b	-0.1298682
158	0x3f28f412	0.6599742
159	0xbc9c0d46	-0.019049298
160	0xbdea2f22	-0.11434771
161	0xbe949604	-0.29020703
162	0xbe82f45c	-0.25577056
163	0x3e0f25bb	0.13979237
164	0xbdb0904f	-0.08621275
165	0x3e1cf5eb	0.15328185
166	0x3b399d82	0.0028322642
167	0xbdc58986	-0.09645371
168	0x3f0c4ecd	0.5480774
169	0x3e8a4889	0.27008465
170	0x3f3b840d	0.7324837
171	0x3cd1000d	0.02551272
172	0xbdc7a1d7	-0.097476654
173	0xbef94f24	-0.48693192
174	0xbe032220	-0.12805986
175	0xbf0bc98a	-0.546044
176	0xbd95ee7b	-0.07320877
177	0x3e01fe05	0.12694557
178	0x3f18bbe6	0.5966171
179	0xbe735073	-0.23761158
180	0xbe8e7a4f	-0.2782769
181	0x3d42356a	0.04741422
182	0xbdb8dbc0	-0.09026289
183	0x3f0ecce6	0.557814
184	0xbf273299	-0.6531158
185	0xbe0b4e28	-0.13604033
186	0xbef6a95a	-0.4817608
187	0xbe06d309	-0.13166441
188	0x3cfce87e	0.03087258
189	0xbe231c98	-0.15928876
190	0xbf46ca5c	-0.77652526
191	0xbf15738e	-0.5837945
192	0xbda96505	-0.08271221
193	0xbe136ef0	-0.14397788
194	0xbea0c742	-0.31402022
195	0x3e83ac66	0.25717467
196	0xbea684d4	-0.32523215
197	0xbc6c6868	-0.014429189
198	0x3eb819c3	0.35957155
199	0xbd18f0c0	-0.037338972
200	0xbea543d8	-0.32278323
201	0xbe39ab0f	-0.1813166
202	0x3e8563d5	0.26052728
203	0xbd850beb	-0.06496414
204	0xbdfb1ab6	-0.12260954
205	0x3dae0756	0.08497493
206	0x3db5f459	0.08884496
207	0xbe368875	-0.17825492
208	0xbe6dac0d	-0.23210163
209	0xbe74a98d	-0.23892803
210	0xbd355e22	-0.044279225
211	0x3e811544	0.25211537
212	0x3c2bd2e1	0.010487289
213	0xbd701373	-0.0586123
214	0x3e7aa8ed	0.24478503
215	0xbebe016d	-0.37110463
216	0x3ebe497d	0.37165442
217	0x3d62e3c0	0.05539298
218	0x3e42d923	0.19028144
219	0x3e282f65	0.1642433
220	0x3eb62882	0.3557778
221	0xbeb0d0b4	-0.34534228
222	0xbf181139	-0.5940128
223	0xbe70ed1c	-0.2352795
224	0xbeb79df7	-0.35862705
225	0xbe9bef55	-0.30456033
226	0x3d2d35ae	0.04228752
227	0xbf2865d1	-0.6578036
228	0xbe84285d	-0.25812045
229	0xbec8219c	-0.39088142
230	0x3e9be0cc	0.30444944
231	0xbe88d6e1	-0.2672644
232	0xbea64a6f	-0.32478663
233	0x3ed26266	0.41090697
234	0x3f131ea9	0.5746866
235	0x3efa1110	0.48841143
236	0xbf540e4a	-0.82834303
237	0xbe76f291	-0.24115969
238	0x3e17e7ba	0.1483449
239	0x3ee8a5c3	0.45438966
240	0xbe82b093	-0.2552534
241	0xbe591b39	-0.21201791
242	0xbf4dcb1c	-0.80388045
243	0xbee8ac60	-0.45444012
244	0xbdee111c	-0.11624357
245	0x3c439c71	0.011939154
246	0xbe2f433f	-0.17115496
247	0x3c9a3a57	0.018826647
248	0xbe8a1d87	-0.26975653
249	0x3d1e72fa	0.03868387
250	0xbdad5f02	-0.08465387
251	0x3e270b13	0.16312818
252	0xbdb1479b	-0.08656236
253	0x3f378976	0.71694124
254	0xbea05d03	-0.31320962
255	0xbcdd111d	-0.0269857

mlp2.2.bias f4 [50]
0	0x3faf08ac	1.3674521
1	0x3f136c49	0.57587105
2	0x3f152907	0.5826573
3	0xc0122de2	-2.2840505
4	0x3eccfa3a	0.40034658
5	0xbe5329b1	-0.20621373
6	0x3f5600f5	0.8359521
7	0xbed3c444	-0.41360676
8	0xc0159ccc	-2.3376951
9	0xbf097021	-0.5368672
10	0x3f2c7c9c	0.6737764
11	0x3da2eaac	0.07954916
12	0x3f8ba059	1.0908309
13	0xbf043dc9	-0.51656777
14	0x3f93b405	1.1539313
15	0xbfbbd083	-1.4673008
16	0x3d680e6d	0.056654382
17	0xbed0d3af	-0.40786502
18	0xc026cbb1	-2.6061823
19	0x3e8c4a6c	0.2740053
20	0x3f5183fd	0.81842023
21	0xbc977dbd	-0.018492574
22	0xbf0687fb	-0.5255124
23	0x3f85d193	1.0454582
24	0xbe757325	-0.23969705
25	0x3fb40908	1.4065256
26	0xbe7eb4cd	-0.24873658
27	0xbf3b99f6	-0.732818
28	0xbfd72761	-1.6808892
29	0xbfd45fff	-1.6591796
30	0xbfb1d4b2	-1.3893034
31	0x3e3251e4	0.17414051
32	0x3fd98b68	1.6995668
33	0x3da29a49	0.07939584
34	0x3f512181	0.8169175
35	0x3f3e43a9	0.7432199
36	0x3f3fa3ec	0.748595
37	0xbfa502c3	-1.2891468
38	0xbfe34ce5	-1.7757841
39	0x3f6e4d07	0.93086284
40	0xbed1d30a	-0.40981323
41	0x3e84548c	0.25845754
42	0x3f3542e6	0.70805204
43	0xc003cc8f	-2.0593603
44	0x3e6f61f9	0.23377217
45	0xbd0ad303	-0.033892643
46	0xbf28875d	-0.6583155
47	0xbe86793e	-0.26264375
48	0x3e71c74c	0.23611182
49	0xbf36898a	-0.7130362

attention.0.weight f4 [100, 100]
0	0xbcd46bdd	-0.02593034
1	0xbd882b0d	-0.06648836
2	0x3d93e380	0.072211266
3	0xbd3b2ff4	-0.04570003
4	0xbe33a93c	-0.17545027
5	0xbbde27f7	-0.0067796665
6	0xbe4b46b1	-0.19851185
7	0xbdc1db87	-0.094657
8	0x3d5ec744	0.054389253
9	0xbcdb2dfd	-0.026755327
10	0xbb29abdf	-0.0025889797
11	0x3d4616d3	0.04836161
12	0x3d1b4da9	0.03791586
13	0xbcbd195a	-0.023083378
14	0x3c1ddac4	0.009634677
15	0xbdad3464	-0.08457258
16	0xbc01525c	-0.007893171
17	0xbe59ba68	-0.21262515
18	0xbce2b377	-0.027673466
19	0x3d2c319a	0.04203949
20	0xbe3f0c33	-0.18656997
21	0xbe1e6f09	-0.15472044
22	0x3bd097e4	0.006365763
23	0xbe3a8fc4	-0.18218905
24	0xbaf7a5e2	-0.0018894041
25	0xbd136693	-0.035986494
26	0xbdbeeca7	-0.093224816
27	0xbd8e1094	-0.06936756
28	0x3d6e1851	0.05812866
29	0xbc9ffbae	-0.01952919
30	0xbd4da544	-0.050206438
31	0x3d604665	0.054754633
32	0x3d9c0316	0.07617776
33	0xbe8eaae4	-0.27864754
34	0x3df2cf40	0.11855936
35	0xbc2fcce6	-0.010730004
36	0x3d7871c9	0.06065539
37	0xbd0e36f8	-0.03472039
38	0x3c02b8d8	0.0079786405
39	0x3dacbd2b	0.084345184
40	0xbdc254cb	-0.09488829
41	0x3d430bf9	0.04761884
42	0x3c43ea29	0.011957684
43	0xbe440132	-0.19141081
44	0xbb468b04	-0.0030295262
45	0xb9cb4c2c	-0.0003877593
46	0xbe588b6c	-0.21146935
47	0xbdab4000	-0.083618164
48	0xbe018a43	-0.12650399
49	0xbd5bf988	-0.05370477
50	0xbdd4ac43	-0.10384419
51	0xbe56b386	-0.2096692
52	0xbdbd9e6c	-0.09258732
53	0xbd91f60d	-0.071270086
54	0xbd1e39d8	-0.038629383
55	0xbd812138	-0.06305164
56	0x3d655d5b	0.055997234
57	0xbca71aa7	-0.020398451
58	0x3cd53b45	0.026029238
59	0x3caac707	0.020846857
60	0xbd87519e	-0.06607364
61	0xbc9072b3	-0.017632818
62	0x3e3e5882	0.1858845
63	0xbd46f92c	-0.048577473
64	0xbbd2734e	-0.006422437
65	0xbce0435a	-0.027375866
66	0xbd7005b1	-0.058599178
67	0xbd20e4b3	-0.039280605
68	0xbd9a57ed	-0.07536302
69	0xbe41d368	-0.18928301
70	0xbcc05605	-0.023478517
71	0xbd9f57e4	-0.07780436
72	0x3d102745	0.0351937
73	0xbc89ab83	-0.016805416
74	0x3cd97c07	0.026548399
75	0x3c291504	0.010319952
76	0xbd4644de	-0.04840552
77	0xbe183b1e	-0.14866301
78	0xbcf9da30	-0.030499548
79	0xbcc69369	-0.024240213
80	0xbd5c2ccc	-0.05375366
81	0x3e046e48	0.12932694
82	0xbc8b66e7	-0.017016841
83	0xbe017a46	-0.126443
84	0xbe779341	-0.24177267
85	0x3d105fc6	0.035247587
86	0xbd074b28	-0.03303066
87	0x3da04e3e	0.078274235
88	0xbdc88640	-0.09791231
89	0xbdb6dff8	-0.089294374
90	0xbd60a89c	-0.0548483
91	0xbd04d3a3	-0.032428395
92	0xbda8f55b	-0.08249923
93	0xbd4f7a27	-0.050653603
94	0xbdea7af3	-0.11449232
95	0xbce3d8ee	-0.027813401
96	0xbea01b27	-0.31270716
97	0x3d0d4a4a	0.034494676
98	0x3d3dbf68	0.046325117
99	0xbb6f9093	-0.0036554679
100	0x3c76bf39	0.0150602395
101	0x3d026d37	0.031842437
102	0x3d263895	0.040581305
103	0xbd90c44a	-0.07068689
104	0xbd85c979	-0.065325685
105	0xbddf8680	-0.10914326
106	0x3ca832cb	0.020532032
107	0xbd29e9b5	-0.041482646
108	0x3c0f9764	0.008764122
109	0x3cb022c3	0.02150095
110	0x3c518cbf	0.012789904
111	0xbe56cf21	-0.20977451
112	0xbdde4887	-0.10853677
113	0x3cb8471f	0.02249485
114	0xbdd76441	-0.10517169
115	0xbe2b79f4	-0.1674574
116	0x3c850df2	0.016242001
117	0xbcf908ec	-0.030399762
118	0xbcc69a84	-0.0242436
119	0x3dbc1981	0.09184552
120	0xbe2cd842	-0.16879371
121	0xbd0628dd	-0.032753814
122	0x3d5f4dc3	0.05451752
123	0xbcc551e9	-0.02408691
124	0xbd876175	-0.06610385
125	0xbc21b3a8	-0.009869494
126	0xbcdd055a	-0.02698009
127	0xbdca173e	-0.09867714
128	0xbc9d104e	-0.019172814
129	0xbdcf85d2	-0.10132946
130	0x3d8c7418	0.068580806
131	0x3c486b1a	0.012232566
132	0x3cddb413	0.027063405
133	0x3e13f438	0.14448631
134	0xbd2f4f5f	-0.042800304
135	0xbd955029	-0.0729068
136	0xbd913ae1	-0.070913084
137	0xbd1819fa	-0.03713415
138	0x3d24d253	0.040239643
139	0x3c8bb9d3	0.017056381
140	0xbd2bd973	-0.041955423
141	0x3d30a41f	0.043125268
142	0xbd1d9b6e	-0.038478307
143	0xbd478f5d	-0.048720706
144	0x3ccf5bc0	0.025312304
145	0xbd8c282e	-0.06843601
146	0x3da3c183	0.07995894
147	0xbbedd391	-0.0072578867
148	0xbde58a4a	-0.11208017
149	0x3a0bc0e2	0.0005331171
150	0x3dcaab86	0.09895997
151	0xbe118daf	-0.14214204
152	0xbd1f0b84	-0.03882934
153	0xbd460b00	-0.048350334
154	0x3d70155a	0.058614112
155	0x3d61033b	0.05493472
156	0xbcbb704e	-0.0228807
157	0xbc87dbd7	-0.01658432
158	0xbdab35bd	-0.08359859
159	0xbd004b9e	-0.031322114
160	0xbcfa9f8f	-0.030593662
161	0xbde64c07	-0.1124497
162	0x3bdc55f6	0.0067241145
163	0xbc1ce494	-0.009575982
164	0x3db36771	0.08759964
165	0xbd55affd	-0.05216979
166	0xbe7ffb65	-0.24998243
167	0x3ca5ed49	0.020254748
168	0xbdc5695f	-0.096392386
169	0xbe0809a3	-0.13284926
170	0xbddc209d	-0.10748408
171	0xbdb5b9c7	-0.08873325
172	0xbd982d8d	-0.07430563
173	0x3d6e5f11	0.05819613
174	0x3dd33c2f	0.103142135
175	0xbdc08d93	-0.09402003
176	0xbd7390da	-0.059464313
177	0xbd8ab95a	-0.06773634
178	0xbd8750fe	-0.06607245
179	0xbd53adc5	-0.05167939
180	0xbc5d4d51	-0.013507203
181	0xbe08c728	-0.13357222
182	0xbe2cd847	-0.16879378
183	0xbe34daee	-0.1766164
184	0x3dbbc12b	0.09167703
185	0xbcb8062e	-0.022463884
186	0xbdaa11ca	-0.08304174
187	0xbd8cdebd	-0.068784215
188	0x3e8e36e3	0.2777625
189	0xbdc63726	-0.096784875
190	0xbdc8eb08	-0.09810454
191	0x3d3ee1da	0.046602108
192	0xbdf64845	-0.12025503
193	0xbd4886cf	-0.04895669
194	0xbd1558a0	-0.036461473
195	0x3d942598	0.07233733
196	0x3c2c6853	0.01052292
197	0x3d5abe32	0.05340404
198	0xbe1044dc	-0.14088768
199	0xbcbff3ea	-0.023431737
200	0xbdf686fc	-0.12037465
201	0x3d95bfb5	0.07311956
202	0xbc7a978f	-0.015294923
203	0xbebea899	-0.37238005
204	0xbdbe9f30	-0.09307706
205	0x3cf0f162	0.029411975
206	0xbe0652cc	-0.13117522
207	0xbd8d2207	-0.06891256
208	0x3d5821c4	0.052766576
209	0xbe9f2664	-0.31083977
210	0x3ce6cb83	0.028173214
211	0xbe27720e	-0.16352102
212	0xbe965b09	-0.2936633
213	0xbcc53bc7	-0.024076356
214	0x3d875fbc	0.06610057
215	0x39852cb0	0.00025401032
216	0x3ba9f044	0.0051861126
217	0x3dc4dc2e	0.096123084
218	0xbd9ef3a3	-0.07761314
219	0x3e2900df	0.16504239
220	0xbd71701b	-0.058944803
221	0xbe18b413	-0.14912443
222	0x3b90ae4e	0.00441531
223	0xbd227099	-0.039658163
224	0xbd438093	-0.04773004
225	0xbdabc8f2	-0.08387937
226	0x3c981c65	0.018568227
227	0xbdc465c3	-0.09589722
228	0xbde153bb	-0.110022984
229	0x3d6f1e44	0.058378473
230	0x3e8cb2dd	0.27480212
231	0xbc3c8e1b	-0.01150849
232	0x3d9370f4	0.071992785
233	0xbe8a439c	-0.27004707
234	0xbb6e6c60	-0.0036380515
235	0x3d9a8479	0.075447984
236	0xbdc8895a	-0.09791823
237	0x3ee64552	0.44974762
238	0xbcd09641	-0.025462272
239	0x3e278c8f	0.16362213
240	0x3e05fe6c	0.13085335
241	0xbbc39c26	-0.005969542
242	0x3d7fb6df	0.06243026
243	0xbe3557ec	-0.17709321
244	0xbd9b108e	-0.07571517
245	0xbe6da09c	-0.23205799
246	0x3cedd432	0.029031847
247	0x3e7d3da1	0.24730541
248	0xbe23c3df	-0.15992688
249	0xbd28e78d	-0.04123645
250	0x3e56be1b	0.20970957
251	0x3d47424e	0.048647217
252	0xbc309158	-0.01077684
253	0xbd5a35ec	-0.05327408
254	0x3c2c7c5b	0.0105276955
255	0x3ca6fb60	0.020383537

attention.0.bias f4 [100]
0	0xbe942936	-0.2893769
1	0xbe7deaf5	-0.2479666
2	0xbe8da95d	-0.27668276
3	0xbd5ca657	-0.05386957
4	0xbe9f9dc9	-0.31175068
5	0xbe444b32	-0.1916931
6	0xbdcaa1a4	-0.09894112
7	0x3dcf09f0	0.10109317
8	0xbeba03fd	-0.36331168
9	0xbcdb1224	-0.026742049
10	0xba6f8f43	-0.0009138474
11	0xbdb8864b	-0.09009989
12	0xbeae575d	-0.34051028
13	0xbeeccf92	-0.46252114
14	0xbd3b6f2d	-0.045760322
15	0xbe89236e	-0.26784843
16	0xbdc1b5c4	-0.09458497
17	0xbe1a47de	-0.15066478
18	0xbee01e7d	-0.4377326
19	0xbe359f31	-0.17736508
20	0x3da15abb	0.078786336
21	0xbe45833d	-0.19288345
22	0xbd3da68f	-0.04630142
23	0xbd9ec6c7	-0.077527575
24	0xbe31b702	-0.17354968
25	0xbd696c22	-0.05698789
26	0xbe1cc573	-0.15309696
27	0xbe557f3c	-0.20849317
28	0xbe916e3e	-0.2840442
29	0xbe96459a	-0.29349977
30	0xbe8abf96	-0.27099293
31	0x38dd5247	0.000105534265
32	0xbdf6e223	-0.12054851
33	0x3d00a4cd	0.031407166
34	0x3e290548	0.16505921
35	0xbe821346	-0.2540533
36	0xbcdedd04	-0.027204998
37	0xbee98a3f	-0.45613286
38	0xbe1054c4	-0.14094836
39	0xbe57c9c8	-0.21073067
40	0xbdd4b7ca	-0.103866175
41	0xbee3fee7	-0.44530413
42	0xbe1aa9d5	-0.15103848
43	0x3e53da11	0.20688654
44	0xbea04107	-0.31299612
45	0xbe5695f3	-0.20955639
46	0xbde865af	-0.113475196
47	0xbe1766d5	-0.14785321
48	0xbe711651	-0.2354367
49	0xbe6bf13a	-0.2304124
50	0xbe880ad9	-0.26570776
51	0x3cd43516	0.02590422
52	0x3d933732	0.07188262
53	0x3e326a8d	0.17423458
54	0xbe805f5c	-0.25072753
55	0xbdc7f9f1	-0.097644694
56	0xbe4f4b60	-0.20243597
57	0xbdad01f8	-0.08447641
58	0xbea495ae	-0.32145447
59	0x3db0f056	0.086395904
60	0xbe8ce837	-0.27520916
61	0xbe910b45	-0.2832891
62	0xbeac380d	-0.33636513
63	0x3ee42dd9	0.4456623
64	0xbcafc2f6	-0.02145527
65	0xbde89810	-0.113571286
66	0xbedde92c	-0.4334196
67	0xbe874b85	-0.26424804
68	0xbe353318	-0.17695272
69	0xbe52663b	-0.2054681
70	0xbe991ef8	-0.2990644
71	0xbeed919a	-0.46400148
72	0xbe54d093	-0.2078269
73	0xbe5b1b7d	-0.21397205
74	0xbe676085	-0.22595413
75	0xbcec3d86	-0.02883793
76	0xbe83e196	-0.25758046
77	0x3d8b3621	0.06797434
78	0xbdacfdb0	-0.084468246
79	0xbdb1225a	-0.0864913
80	0xbdd7e3ea	-0.10541518
81	0xbd94e0ad	-0.07269416
82	0xbea56f54	-0.323115
83	0xbedd3753	-0.43206272
84	0xbe9ca9bc	-0.30598247
85	0xbe1778fa	-0.14792243
86	0xbf10fc85	-0.56635314
87	0xbef0ffe1	-0.4707022
88	0x3d526f51	0.05137569
89	0xbebe2cc4	-0.37143528
90	0xbe6079e0	-0.21921492
91	0xbd29be97	-0.041441526
92	0x3da512ab	0.08060201
93	0xbeb95f96	-0.3620574
94	0x3e94efa6	0.29089087
95	0xb90f2e55	-0.00013654803
96	0x3d875384	0.06607726
97	0x3df9e4a2	0.122018114
98	0x3e4f76f3	0.2026022
99	0xbe936be9	-0.28793266
