sarl_star_ros/CrowdNav-crosspath/crowd_nav/data/output_alisher_blockpath_5_4/rl_model.pth (torch_old, 349196 bytes, 20 tensors)

mlp1.0.weight f4 [150, 13]
000000 9b ae c6 3d ff 6e 1d 3e 45 34 9b 3e 8b de d2 bd
       0.09701272 0.15374373 0.30313316 -0.10296353
000010 a2 54 21 bf 2a e7 fb be f3 3b 24 bf 34 a9 2c be
       -0.63019764 -0.49199802 -0.64153975 -0.16861421
000020 3a 82 1f 3e de e3 21 bf 98 1d 94 3e 1d 0d 36 bf
       0.15577021 -0.6323832 0.28928828 -0.7111376
000030 96 06 33 3e 49 da 08 3f 47 47 fc bd 30 31 3e 3f
       0.17482981 0.53458077 -0.123182826 0.74293804
000040 8a 04 03 be 56 f4 85 bf 8a 62 f8 be 0b 97 8b bf
       -0.127947 -1.046519 -0.4851268 -1.090547
000050 72 2c 10 bf 20 54 c1 3e 0a 6d de be da 95 b7 be
       -0.5631782 0.37759495 -0.43442565 -0.35856515
000060 25 48 7a bf 38 d4 0d bf 49 16 24 3f 42 0c 81 bf
       -0.97766334 -0.55401945 0.64096504 -1.0081866
000070 52 ef 4b 3f e6 16 11 be 2b 77 df bf d8 1b a5 3f
       0.7966205 -0.14168891 -1.7458242 1.2899122
000080 ff d8 ff be 7c 45 2b be 84 8a 86 3f 77 37 a1 bf
       -0.49970242 -0.16725725 1.0511022 -1.2595052
000090 8e a2 cf bf cc 2c b5 3e be e3 02 c0 b8 33 ba 3d
       -1.6221483 0.3538574 -2.0451503 0.09091896
0000a0 14 50 b4 be fe 89 10 3f dd b3 93 be 75 3e 30 bf
       -0.35217345 0.5646056 -0.28848162 -0.688453
0000b0 68 55 a7 be d0 b2 3e 3e c6 46 ae bf 03 68 0c c0
       -0.32682347 0.18622899 -1.3615348 -2.1938484
0000c0 18 55 d0 bf e1 7d 04 3f 27 75 60 bf 38 13 49 3f
       -1.6275969 0.51754576 -0.8767876 0.7854495
0000d0 09 fe 52 bf 1f 15 f8 3e 33 5e 2f c0 ef 69 8a 3e
       -0.82418877 0.48453614 -2.7401245 0.27033946
0000e0 75 23 67 bf f3 b5 21 bf a4 a9 09 3f f4 8a 20 c0
       -0.9028848 -0.6316826 0.53774476 -2.508481
0000f0 66 30 2a 3e 29 dd 2e 40 bb f2 8e be aa a1 35 bf
       0.16620025 2.7322485 -0.27919564 -0.70949805
000100 dc ce c6 be ce 89 8e bd cb 1f 63 be 7b b7 cd 3c
       -0.38829696 -0.06959878 -0.22180097 0.025111904
000110 9b 74 40 be 5b 91 fb 3d 2c 46 db bd f4 01 32 be
       -0.18794481 0.12283584 -0.107067436 -0.17383558
000120 7f 9d 36 3e 4f 77 0b be 3d fe 7d be df 4c 69 3d
       0.17833517 -0.13619731 -0.24804015 0.056958076
000130 05 04 96 be 08 c7 cb bd bd 5e de 3d 49 f2 ef 3e
       -0.29299942 -0.099500716 0.10857914 0.46864536
000140 1c 1f 31 be c4 7d 09 be c2 a4 02 bf f2 e4 a5 be
       -0.17297024 -0.13426882 -0.5103265 -0.32401234
000150 25 fc a7 bf 89 1d 67 bc 7d 76 07 3f 59 7f 8b be
       -1.3123823 -0.014106163 0.52915174 -0.27245596
000160 f8 f5 d7 3e 6f 34 40 bf 23 68 09 3f ed e0 a1 bf
       0.42179847 -0.7508001 0.53674525 -1.2646767
000170 97 a4 22 3f c7 32 10 3e 8a e6 47 3e b3 bd 48 3f
       0.63532394 0.1408187 0.19521537 0.7841446
000180 15 b4 06 3f 6d 25 93 be 04 87 0f 3f a8 10 43 bf
       0.52618533 -0.2873949 0.5606539 -0.7619729
000190 ba 45 fc 3e ba 50 83 be b6 f3 6a 3e 46 e3 ff 3c
       0.49271947 -0.25647527 0.22944531 0.031236302
0001a0 f8 44 df 3d 3f 91 7d bf dd 4b fb bf 49 49 d0 be
       0.109018266 -0.9904975 -1.9632527 -0.40680912
0001b0 30 87 ad 3e aa e9 0b c0 56 ef 24 3e b5 7a 83 be
       0.33892202 -2.1861367 0.16106924 -0.25679556
0001c0 03 04 55 40 49 74 c4 3f 42 c1 86 bf 6e 4e 8e bd
       3.3283699 1.5347987 -1.0527728 -0.06948553
0001d0 37 d4 ce bf b9 9f 0b bf fe 17 0f bc d7 ab 2d 3e
       -1.6158513 -0.5454059 -0.0087337475 0.16960083
0001e0 22 e1 83 bd a1 25 8e bf cc a4 d1 be 50 00 b6 3e
       -0.06439425 -1.1105233 -0.40946043 0.35547113
0001f0 6f 87 75 3f ce 56 8b 3e 68 1e 91 be c8 96 e5 3c
       0.9590978 0.27214664 -0.2834351 0.028026
000200 d0 f3 78 3e 98 f2 05 bf b4 60 ae 3e 44 90 82 be
       0.24311757 -0.52323294 0.34058154 -0.2550069
000210 d8 b6 4f 3f d1 36 7d bd 11 5f 3b 3f 8f a4 b4 3f
       0.8113837 -0.061819855 0.73191935 1.4112719
000220 01 2b 29 bf 0a c8 95 bf e8 1b 64 3f f7 37 8b 3f
       -0.66081244 -1.1701672 0.8910508 1.0876454
000230 e8 89 03 bf ad 7f ac bf a5 df 69 bf 3d 92 4a 3e
       -0.51382303 -1.3476464 -0.9135688 0.19782348
000240 92 a7 ad bd 3d 60 8b 3e f0 1a 05 be d3 54 16 3e
       -0.08479227 0.2722186 -0.12998557 0.14680795
000250 94 d2 a4 bd aa 4c 50 3f 0b 9b b1 3f 72 8a 96 be
       -0.08047977 0.8136698 1.387544 -0.294025
000260 d7 7f ae 3f f6 06 14 be 64 bd 3f bf 01 03 ca 3d
       1.3632764 -0.1445578 -0.7489836 0.09863854
000270 ec c5 98 3d ba ae 3d 3f a1 c3 85 3e 7e ac 0a be
       0.074596256 0.74094737 0.26125816 -0.13542363
000280 e5 e0 0c 3f e3 99 ac be 0e 34 2a 3d 45 c2 0f bf
       0.5503066 -0.33711156 0.04155355 -0.56155807
000290 79 02 49 bf 3c f7 bc bf b0 a6 3a 3f 7c 29 0c c0
       -0.785194 -1.476295 0.72910595 -2.190032
0002a0 c1 17 61 3f f7 1f 8b 3e ed b9 14 bf 41 7a 70 3e
       0.8792687 0.27172825 -0.580962 0.23484136
0002b0 63 0e 5c bd 06 71 06 c0 8b bc 0c bf 6e 3c 9c 3e
       -0.053724658 -2.1006484 -0.54975194 0.30514854
0002c0 d1 ce 48 bf 41 df 05 c0 9e 54 83 40 19 78 13 3f
       -0.78440577 -2.0917513 4.1040792 0.5760513
0002d0 12 23 c1 bf da 98 eb 3e a1 29 7f 3f 39 f9 91 be
       -1.5088828 0.46015054 0.99672896 -0.28510454
0002e0 9e d0 c3 bf 04 8f 8b bd 8d ac 11 c0 8a 24 0a 3d
       -1.529804 -0.068143874 -2.2761567 0.033726253
0002f0 90 0b 97 3f 0a 2f 11 3f 97 b8 01 40 01 f4 f4 3f
       1.1800404 0.567124 2.0268915 1.9136964
000300 30 5c a1 bf 07 9e da bf da a1 a8 bf f0 b7 83 be
       -1.2606258 -1.7079476 -1.3174393 -0.2572627
000310 bc 30 15 3e 81 c4 2c 3d aa 74 7c 3e 47 40 b1 bf
       0.14569372 0.04217959 0.24653879 -1.3847741
000320 5d ae 5d ba d0 3d b5 3e 3e e3 12 3f 8f ff 23 bf
       -0.0008456463 0.35398722 0.57377994 -0.64061826
000330 68 17 8d 3f 34 ce 1e bf 9e a2 64 3e d0 05 24 bf
       1.1022768 -0.6203339 0.22327659 -0.6407137
000340 e4 af 91 be 77 f5 0f be 08 85 13 3d 42 81 73 3e
       -0.28454506 -0.14058481 0.03601554 0.23779777
000350 e7 db f8 bd 64 33 8e 3f 72 2c 8a 3f d2 2b 5a 3f
       -0.12151318 1.1109433 1.0794814 0.85223114
000360 7f 17 62 bf e8 6b 1d be d2 04 74 3e dd 4a 6a bf
       -0.883171 -0.15373194 0.23829964 -0.9152048
000370 19 6f ef bd d3 c7 f4 bf c4 0c 5d be 4a 45 4b 3e
       -0.11691112 -1.9123482 -0.21586901 0.1985065
000380 ce 03 88 be 6b 4d 62 bf 72 97 f2 be 7a 5d ca 3f
       -0.26565403 -0.8839938 -0.4738117 1.5809777
000390 2d 22 6f be 4c 41 03 bd ad 21 e3 be f3 4e 3a be
       -0.23352881 -0.032044694 -0.4436163 -0.18194179
0003a0 f7 2d ea 3e 01 f6 ad be 6a 09 17 be de 7a 86 3b
       0.45738193 -0.3397675 -0.14749685 0.0041040024
0003b0 ab 65 f0 bd 8c d3 4a be b5 d2 09 bf a1 40 07 c0
       -0.117381416 -0.19807261 -0.5383714 -2.1133196
0003c0 8f 47 a0 3f f6 d0 a9 3f f6 5c 20 c0 83 eb 9f 3f
       1.2521838 1.3266895 -2.505674 1.2493747
0003d0 a5 8b 26 bf 2f 1b 87 bf 08 94 77 bf 8b d2 aa be
       -0.6505683 -1.0555171 -0.9671025 -0.33363757
0003e0 c4 b7 d7 bd 10 b8 68 be 8c 41 3c bd 1e 8d 8c be
       -0.105330974 -0.22726464 -0.045960948 -0.27451414
0003f0 b2 0a 8b bd cb 81 e4 be d9 44 95 bd 9d 51 60 3e
       -0.06789149 -0.44630274 -0.07288522 0.21906133

mlp1.0.bias f4 [150]
000000 d8 75 8c be f3 43 f1 be bb ee a9 bf a4 78 3f bf
       -0.27433658 -0.47122154 -1.327598 -0.7479346
000010 3e 4e 76 3f b3 eb 39 bd b5 75 7b 3e 66 bd 3b 3f
       0.9621314 -0.045390796 0.2455662 0.73335874
000020 86 40 96 bf 92 61 9d be ed d2 af bd 6b 01 c7 be
       -1.1738441 -0.30738503 -0.08585153 -0.3886827
000030 82 e6 61 3f d2 15 9a be d2 59 f0 be 01 54 a9 be
       0.8824235 -0.30094773 -0.46943527 -0.33071902
000040 54 74 83 3d 13 42 24 bf 77 7a 80 be e3 de 87 bd
       0.06418672 -0.6416332 -0.25093433 -0.06634309
000050 d6 82 aa 3e 75 e9 9d be ce 15 44 be dd 0b 71 bf
       0.33302945 -0.30842176 -0.19148943 -0.94158727
000060 c0 53 f1 3c 1e e7 60 be ad cd 0d be 4a 95 c5 3e
       0.02945888 -0.21963164 -0.1384799 0.3859046
000070 d7 47 e1 be f4 54 f3 be c0 ec e2 bf 1f e2 ac 3e
       -0.44000122 -0.47525752 -1.77285 0.33766267
000080 60 dd 06 3f 2c 03 5c 3f 99 68 76 3e ea 61 86 be
       0.5268154 0.8594234 0.24063338 -0.26246578
000090 ea ec 9a bd 4c 54 a6 3f 7c 18 ba 3d 34 35 77 bd
       -0.07564719 1.2994475 0.09086701 -0.060353473
0000a0 be bb bc be 51 a6 9d be a7 5d 85 be 2d 39 60 3e
       -0.36861986 -0.30790952 -0.26048014 0.21896811
0000b0 ad ef 0b 3e 62 c8 9c be 43 ff 5b bf e1 9d 7c be
       0.13665648 -0.3062163 -0.85936373 -0.24669601
0000c0 4c 21 7d bf 7a 6c 09 bf 08 5d d6 3d 60 d8 1c be
       -0.9887893 -0.5368115 0.10466963 -0.15316916
0000d0 d9 95 fb 3e b9 72 17 bf 3f db c3 3e 8b e3 97 3d
       0.49137762 -0.5915943 0.3825321 0.07416447
0000e0 10 73 b8 3e 0f a5 b7 bd 10 cf c3 be a5 41 29 bf
       0.36025286 -0.08967029 -0.38243914 -0.6611579
0000f0 36 bf 25 3f d1 26 ae 3e 45 3e 6c be 0b 71 b6 3c
       0.6474489 0.3401399 -0.23070629 0.0222707
000100 7e 25 24 3e 06 3a 12 bf 6c 4b 9b bf fd a7 58 be
       0.16029927 -0.57119787 -1.2132392 -0.21157832
000110 ac 37 20 be 74 7f 59 bf 51 fe 15 3e f9 35 13 be
       -0.15646237 -0.84960103 0.14647795 -0.14376058
000120 fc da e8 be b5 ab 00 3f 68 82 45 bd 1d b5 8b 3f
       -0.45479572 0.50262004 -0.04822007 1.0914646
000130 ed 70 ac bc 42 4d 30 3f 08 dd 10 3f f5 d4 e1 be
       -0.021049941 0.68867886 0.56587267 -0.44107786
000140 6f 07 25 bd 9a 2c bc be 38 4c 45 c0 6d 82 f0 3e
       -0.040290292 -0.36752778 -3.082777 0.46974507
000150 79 47 2c bf 5c ef 80 be bd c2 53 3e 3f 15 ed bf
       -0.6729656 -0.25182617 0.20679756 -1.8522109
000160 ce 02 95 be a9 92 a7 3e b4 5c e2 bf bd 67 22 3f
       -0.29103702 0.3272908 -1.7684541 0.6343954
000170 0b f2 57 3e 0d cc 1a 3f 3a 45 14 be 88 65 60 3e
       0.21088426 0.60467607 -0.14479533 0.21913731
000180 be b4 9a bd 10 17 7e 3d f9 cc aa be 43 da 37 bf
       -0.07554005 0.062033713 -0.33359507 -0.71817416
000190 66 7f 72 3e 5a 3c ce bf 0f b9 a2 be bf 1a a2 be
       0.23681411 -1.6112168 -0.31781814 -0.3166103
0001a0 2e 46 18 3f f9 78 85 3f 6d 21 ef be 92 c0 cf be
       0.59482086 1.0427543 -0.4670519 -0.40576607
0001b0 da 3e ba 3e 2b 20 5e be 4e a9 19 3e 3a fb 82 bf
       0.36376077 -0.21691959 0.15005991 -1.0232918
0001c0 2b 99 60 bf f3 99 9c be e3 f2 11 be 4b 57 d4 bf
       -0.87733716 -0.30586204 -0.1425281 -1.658914
0001d0 aa ad 4a be ab 12 19 bf 89 d6 b4 3e e2 db d9 be
       -0.1979281 -0.5979411 0.35319927 -0.4255057
0001e0 1e 17 a3 be b5 d5 79 bf 7b 04 4b 3f 79 bd 22 3e
       -0.31853575 -0.97591716 0.7930371 0.1589259
0001f0 e8 ef e1 be 1e bc ae be 8f ac 28 3e af 42 8a 3e
       -0.44128346 -0.34127897 0.16472076 0.27004
000200 ff a8 41 be eb ad bb 3e ae b3 77 3e 22 c4 24 be
       -0.18912123 0.36656126 0.24189636 -0.16090444
000210 35 07 ef be 72 61 97 bf 06 f9 91 3f dc e2 90 3f
       -0.46685186 -1.1826613 1.1404121 1.1319232
000220 c2 fb 72 bf 36 fb 53 bf 51 a7 1b 3e bd ce 5c be
       -0.949154 -0.8280519 0.15200545 -0.2156324
000230 71 84 fa be 07 81 5f be 91 62 97 bd 6b da 6f be
       -0.4892917 -0.21826564 -0.07391847 -0.23423164
000240 ba 24 6d be 2a c3 cb be 15 f7 24 be 34 45 08 3e
       -0.23158541 -0.39797336 -0.1610988 0.13307649
000250 be 38 0b bf 3b 13 c8 3e
       -0.54383457 0.39077172

mlp1.2.weight f4 [100, 150]
000000 b4 66 8e be 8e 5e 68 be 92 08 e3 bd e5 ac 55 be
       -0.2781273 -0.2269232 -0.11085619 -0.20866735
000010 f9 d8 df 3d 91 15 6a bd fb 46 15 be 43 00 c1 3c
       0.10930056 -0.057149474 -0.14577858 0.023559695
000020 4e b2 09 bd 99 62 a8 3d 71 19 0a bf bd 60 e2 be
       -0.03361731 0.08221931 -0.5394507 -0.4421443
000030 69 50 b2 bc 9d 94 ce bd 55 c6 8d 3d fb 8d 78 bd
       -0.021766858 -0.100869395 0.069225945 -0.060682278
000040 3a 93 14 be a5 59 55 be aa fa e4 bd c0 93 8a bd
       -0.14509287 -0.20834978 -0.11180623 -0.06766462
000050 3b 2e 5c bd 23 5a f4 bd 93 ff 36 bd d4 de d5 be
       -0.053755026 -0.11931255 -0.04467733 -0.41771567
000060 3f d4 ca 3d 8b 95 d3 3d 0c bc c7 3c 80 41 94 bc
       0.09903764 0.103312574 0.02438166 -0.01809764
000070 47 d4 e1 be cd 91 3b be c8 b2 39 3e 6d 87 46 be
       -0.44107267 -0.18317337 0.18134606 -0.19387598
000080 52 6a 90 be 4c d4 ae be 12 9c 84 3e a1 13 f5 bd
       -0.28206116 -0.34146345 0.25900322 -0.119666345
000090 0b 2f c6 3b d1 73 61 3e c8 a8 dd bd 77 46 a7 bd
       0.0060480884 0.22016837 -0.10823208 -0.08167737
0000a0 17 c3 85 be d3 19 45 bd 25 89 c3 3c 77 04 cd bd
       -0.26125404 -0.04812033 0.023869107 -0.10010617
0000b0 b0 99 d0 3d 54 9e 1c 3e b3 23 fb be fc 5e e8 bb
       0.101855636 0.15294772 -0.49050674 -0.007091401
0000c0 4b 33 1f 3e 22 ca 21 bd 6e 07 e7 be 2e 13 21 3f
       0.1554691 -0.03949941 -0.45122856 0.6291989
0000d0 28 92 c8 bd eb a1 bc be fd 26 96 bd 10 3f c4 3d
       -0.09793502 -0.36842284 -0.07331655 0.09582341
0000e0 8e 18 d0 be b0 3c 68 be c9 20 a9 be 19 08 b3 3d
       -0.40643734 -0.226794 -0.33032826 0.08741779
0000f0 e2 3a 2b 3d 19 24 4e bd 94 dd e6 bd e4 08 34 3e
       0.041804202 -0.050327394 -0.112727314 0.17581517
000100 61 99 85 be 13 d2 06 bd 1a 4c 2d bf 1b 99 ba 3d
       -0.2609358 -0.032915186 -0.67694247 0.09111234
000110 b2 fb bd bd 58 50 bc bd a6 0d 57 3e c4 03 9e 3d
       -0.09276523 -0.09195012 0.210013 0.07715562
000120 55 c5 9c 3e fd d3 13 3e 76 ea 61 3d d9 9d 98 3e
       0.30619302 0.14436336 0.05515524 0.29807928
000130 42 55 d4 bd b0 d8 fa 3e 77 0d d2 bc 88 e4 8b bd
       -0.10367824 0.48993444 -0.025641186 -0.06830698
000140 0b 36 33 bd 07 6e 10 3d 8d ee 2c bf 90 17 5b be
       -0.04375271 0.03526118 -0.675515 -0.21395707
000150 f9 9c 0c 3d 81 8c 3e bd 58 ce 5f be 12 77 52 3e
       0.03432939 -0.046520714 -0.21856058 0.20553234
000160 5a ac 90 3e 3f 01 46 3d 65 c7 28 bd 1d b2 1e 3c
       0.28256494 0.048341032 -0.041205782 0.00968602
000170 19 2a ed 3b 1d 0c 19 3d c8 00 7c be d9 f0 5d 3d
       0.0072376844 0.037365068 -0.24609673 0.05418477
000180 56 8c 42 3f c1 17 80 3d 90 75 c0 3d 85 96 51 be
       0.75995386 0.06254531 0.09397423 -0.20467575
000190 aa 0e 73 be 3b 39 6c 3e 17 f6 82 3e d4 92 6a 3e
       -0.23736063 0.23068707 0.25578377 0.22907573
0001a0 23 a6 6a 3a ec e0 67 be 0d 0e d5 3d 53 e7 77 bd
       0.0008951148 -0.22644395 0.104030706 -0.060523342
0001b0 b6 15 13 bc c7 b8 94 bd 9f 52 3f 3e ad 09 35 3e
       -0.008977344 -0.07261806 0.18683861 0.17679472
0001c0 e3 c3 1f be ab eb 8e be 0b 68 bf 3c 47 e1 12 bf
       -0.15602069 -0.27914175 0.023365041 -0.57374996
0001d0 51 a6 08 bf c8 82 ee bd c8 0a 63 bd 6e 5a f7 3e
       -0.5337878 -0.11646038 -0.055430204 0.4831118
0001e0 83 7f 6b 3c e4 50 ec bd 74 4c e4 bd bc 9e 31 3d
       0.014373663 -0.11538866 -0.11147395 0.04336427
0001f0 95 07 7c bd 57 5f 6b 3d ba a5 68 3d 09 3c 34 3d
       -0.06153067 0.05746397 0.056798674 0.044002566
000200 83 cd 1f be 8a 2b 75 3e 43 e1 0d bf e0 52 9e bd
       -0.1560574 0.2394239 -0.5542185 -0.07730651
000210 38 98 a8 bd 2e 45 42 bf fb 8a b2 be 0f 16 a9 3d
       -0.082321584 -0.7588681 -0.3487166 0.082561605
000220 28 b8 85 bd 92 85 47 3d d1 77 84 3e b7 ad c5 be
       -0.06529266 0.048711367 0.25872663 -0.38609096
000230 21 15 26 3f b5 0d 83 3d 6f 45 1b bf 1c 10 6a 3d
       0.6487599 0.06399099 -0.6065282 0.05714427
000240 bc e9 52 bd 3f 9a ab 3e 77 83 00 bf 0d 54 8a 3d
       -0.051492438 0.33516118 -0.502006 0.06754313
000250 f6 b2 0b 3e e1 9d e0 bd b1 49 23 3e ce 5f e1 3e
       0.13642487 -0.10967613 0.1594608 0.44018406
000260 2a 94 42 be 09 ca 01 bf f2 ef 5d bd c3 c4 7f 3d
       -0.19001833 -0.50698906 -0.054183908 0.062443506
000270 25 26 25 3d 12 f0 62 be 9c 71 2d 3e 8c 15 74 be
       0.04031958 -0.22161892 0.1693787 -0.23836344
000280 d2 77 69 3e 74 6f b2 be 34 de ef 3d 7f 18 0b 3f
       0.22799614 -0.34850657 0.11712304 0.54334253
000290 85 9c 82 3b 0e 79 15 3c 27 88 27 be 0f 9b 15 3e
       0.0039859437 0.0091231 -0.16360532 0.14609931
0002a0 c3 cf d4 3d 41 5d be bb 78 a8 6c 3d 40 a1 9f bd
       0.1039119 -0.0058094566 0.05777785 -0.07794428
0002b0 ab 14 8e 3d c8 02 0e bf 30 f4 e5 3c 38 89 0f bd
       0.06937536 -0.55472994 0.02807054 -0.03504297
0002c0 bf 3a fc bd 01 0f 80 3c 40 8c d4 be 08 8a 7e 3e
       -0.123158924 0.015632154 -0.41513252 0.24857342
0002d0 49 7c de 3c 29 9a 12 be 3c 1c 44 3d 03 0e fd bd
       0.027158873 -0.1431662 0.04787849 -0.12356188
0002e0 c8 c8 da be be 4d 35 be 97 70 d4 3d b7 fe 71 3e
       -0.4273131 -0.17705438 0.10373037 0.23632322
0002f0 14 49 8d 3e 56 e0 8a 3d 0a 6f 14 3e 05 e0 12 be
       0.27594817 0.0678107 0.14495483 -0.14343269
000300 6e 8c 85 bd dd 96 a6 3e 95 db 2f bd 5c 19 bd bd
       -0.065209255 0.32536975 -0.04293402 -0.092333525
000310 68 1b 3b bd 90 71 5f be d0 08 e4 bc c9 4e 2b 3f
       -0.045680434 -0.21820664 -0.027836233 0.6691709
000320 78 ad f3 3d a4 89 f8 be b0 99 64 3c 04 ac 2d 3e
       0.11898321 -0.4854251 0.013952658 0.1696015
000330 45 16 57 bf 75 e7 a2 bd cb 34 e3 be 98 0a 16 bf
       -0.84018356 -0.07954303 -0.44376215 -0.58609915
000340 12 78 9b be d8 6c de bd f9 c1 aa 3d c0 3d 7d bd
       -0.30365044 -0.10860604 0.083377786 -0.061826468
000350 c5 a2 2e 3e ad d2 c0 bb 39 c8 84 3d cb 21 8f be
       0.17054279 -0.0058844895 0.06483502 -0.2795547
000360 60 cb 86 be 59 db c9 be 08 20 26 bd 3c 54 b8 3e
       -0.26327038 -0.3942516 -0.04055789 0.36001766
000370 3e 58 b2 3e 0b 85 77 3e 77 99 19 3d a9 5b e5 3d
       0.34832948 0.24171846 0.03749987 0.111991234
000380 1a d1 57 3d 40 c9 de 3e 52 9b 62 3e c6 83 87 bd
       0.05268965 0.43512917 0.22129562 -0.06616931
000390 35 5e b4 be fc 9a 65 be a6 e1 b9 bc 0e 0d c8 bd
       -0.35228124 -0.22422403 -0.022690605 -0.09768115
0003a0 d1 e9 cf bd 41 b5 81 be 97 0a a0 3e 97 22 6d bd
       -0.10152019 -0.25333598 0.3125808 -0.057894316
0003b0 36 61 e4 bd 5d a6 2a bf 9a 44 78 3e 7d 6e e8 3d
       -0.11151354 -0.666601 0.2424492 0.11349199
0003c0 14 10 a8 ba f7 d7 24 be 8b ca 95 bd a2 e8 d9 bd
       -0.0012822174 -0.16098009 -0.07314023 -0.10640074
0003d0 70 7d 90 bd 01 fd 88 bd f4 36 a5 3b 38 fd a0 3d
       -0.07055175 -0.06688882 0.0050419513 0.07860798
0003e0 08 33 c2 bd 86 e9 18 bf 16 a9 f6 be e7 0a 8a 3e
       -0.0948239 -0.5973133 -0.48175877 0.26961443
0003f0 2b e0 44 3e 2f e7 03 bc 6a c4 cd 3d 6c d3 78 bd
       0.19226138 -0.008050724 0.10047229 -0.060748503

mlp1.2.bias f4 [100]
000000 93 ec 5d bf df 17 d5 be 9f 01 3e 3e 9f 5e e6 3d
       -0.8668911 -0.41619775 0.18555306 0.11248516
000010 f6 e5 9b bf aa 5c 00 40 85 ec 29 bf e0 b2 14 3e
       -1.2179554 2.0056558 -0.66376525 0.1452136
000020 2e 3d 65 3e 1f e4 30 bf a6 fc ec bd e3 cc 90 be
       0.2238662 -0.69098085 -0.11571626 -0.28281316
000030 50 f8 dc be 2a 5d 61 3e 30 8a 04 bf 88 4d ff bd
       -0.43158197 0.22008196 -0.5177336 -0.1246596
000040 53 73 38 be d9 4e f4 bd 04 1a 94 be 84 84 3a bf
       -0.18012743 -0.119291015 -0.28926098 -0.7285845
000050 4d 81 4d be 3a cc ee be ba 05 22 bf b9 77 a4 3e
       -0.20068856 -0.46640188 -0.6328999 0.3212259
000060 fc 4a 06 3f da 07 62 be af 21 e6 3d 87 29 04 be
       0.5245817 -0.22073308 0.112368934 -0.12906466
000070 67 c9 52 be 2e c2 b7 be 47 74 0f be da aa 52 3f
       -0.20584641 -0.35890335 -0.140092 0.8229195
000080 35 81 14 3f 61 44 21 3f 96 d1 b0 be 2f 06 a9 3d
       0.58009654 0.6299496 -0.345349 0.082531326
000090 ad f2 1f 3d 89 46 8b be 11 91 cd bf ca 6a 47 3d
       0.039049793 -0.27202252 -1.6059896 0.048685826
0000a0 8a 0c 4a bf b0 75 1b bf 25 e0 45 3f 69 e2 eb be
       -0.78925383 -0.6072645 0.7729514 -0.46071175
0000b0 c6 30 2e be c4 1f e4 bf 43 6d c6 bf 5f e9 db be
       -0.17010793 -1.7822194 -1.5502094 -0.42951486
0000c0 9f e0 df be 5b 79 5c be 58 99 03 3f 36 4d 4f bf
       -0.4372606 -0.21530668 0.5140586 -0.8097719
0000d0 9a 77 c0 3d 0c c2 45 bf d6 d4 2d c0 74 82 58 bf
       0.09397812 -0.7724922 -2.7161155 -0.84574056
0000e0 e5 14 b5 3f d8 f9 0e c0 0d 0f 8d bf 2a 8a 94 bf
       1.4147002 -2.2339993 -1.1020218 -1.1604664
0000f0 33 c2 b2 3e 7f 37 0b 3d 9c a8 0c 3e a7 13 f5 3e
       0.34913787 0.033988472 0.13736194 0.47866556
000100 a2 e4 a2 3e a9 56 10 3e 45 00 0f be f7 86 f1 3d
       0.31815058 0.14095558 -0.13964947 0.117933206
000110 9c c3 81 bf 3a bd e9 3c 77 f2 11 3e 06 09 9b 3d
       -1.013782 0.028532613 0.14252649 0.075700805
000120 8c 71 fd 3d 5d 4b 30 bf 7e 74 dd 3e f8 a1 7c bd
       0.12375173 -0.68864995 0.4325294 -0.061677903
000130 df f7 bf 3f d8 0f 8a bf 3a 71 9a be 78 f2 04 bf
       1.4997519 -1.0786085 -0.3016451 -0.5193248
000140 d2 0b a1 be bc 7e fb bd bf 01 2e be 85 03 ba 3c
       -0.3145433 -0.12280032 -0.16992854 0.022706756
000150 b5 00 ba bb eb a0 0e 3e 41 35 e3 be b7 47 ae bd
       -0.005676354 0.13928573 -0.44376567 -0.08509772
000160 3e 39 a7 be 98 00 80 bf b0 47 6b be 91 2b ac bd
       -0.3266086 -1.0000181 -0.22976565 -0.08406747
000170 aa 95 4e 3f 53 56 fc 3d ef b7 44 3f 2a 96 51 3e
       0.8069712 0.123211525 0.7684316 0.2046744
000180 a4 b2 86 bf a5 8e ad be d0 9c f4 be 4e 8c 1b be
       -1.0523267 -0.33897892 -0.47775888 -0.1519024

mlp2.0.weight f4 [100, 100]
000000 21 79 ee bd de 4d 6a be a3 31 8b bd 4f 1b b5 bd
       -0.11644197 -0.22881266 -0.06796577 -0.08843099
000010 af 39 1f bf f5 7c 87 3e 26 6e ff bd c5 a3 35 bd
       -0.62197393 0.26462522 -0.12472181 -0.044345636
000020 f2 e5 75 3e 88 8e 56 be 9f da ef 3d e6 3b 6b bd
       0.24013498 -0.20952809 0.117116205 -0.05743017
000030 0e 9b f9 3c 26 14 4f bd ae 8f 10 be 34 a1 e7 bd
       0.030469444 -0.050556324 -0.1411731 -0.11310044
000040 7d a6 56 3e 72 9d 0b bf 1d 43 9f 3e a6 b6 5f be
       0.20961948 -0.5453712 0.3110589 -0.21847019
000050 22 c6 0a bc d6 8f 21 be 5e 70 9f bd 6b 86 08 3e
       -0.00847009 -0.15777525 -0.07785104 0.13332526
000060 c8 74 b7 bd ae 0e 95 be f5 0f 81 3e 6e 05 10 be
       -0.08957821 -0.29112762 0.25207487 -0.14064571
000070 73 94 90 be 36 44 76 be 41 22 08 be 7e e8 22 be
       -0.28238258 -0.24049458 -0.13294317 -0.15909001
000080 35 ef 82 be ee a7 a7 bd 25 40 5a 3c 08 d5 39 3e
       -0.25573125 -0.08186327 0.013320957 0.18147671
000090 f5 25 9c bd 69 9a 62 be 90 6d fc be 83 2b 8e 3d
       -0.07624427 -0.22129215 -0.4930234 0.06941893
0000a0 b2 6c fe be b4 af 6f be 1e 76 55 3c 77 67 1d bd
       -0.49692303 -0.23406869 0.01302865 -0.03842875
0000b0 76 08 e8 bc 81 fc de be 7c 57 43 be 33 08 41 be
       -0.028324347 -0.4355202 -0.19076341 -0.18850784
0000c0 71 e8 e2 bd 11 1e 01 be 11 d3 2e 3e 8b e6 07 bf
       -0.11079491 -0.12609126 0.17072703 -0.53086156
0000d0 68 2e f1 3c 2c 8e 06 bf cf 0c 6f 3d 04 95 7d be
       0.029441074 -0.5256069 0.058361825 -0.24763876
0000e0 5f ed 24 3e 6e 03 42 3b d2 e1 ad 3d 2e 2d 05 3f
       0.16106175 0.0029604095 0.084903374 0.52022064
0000f0 cd 34 3a be ed c1 88 3d cd 0b 29 3e 5b d7 c0 bd
       -0.18184204 0.066776134 0.16508408 -0.09416076
000100 3f 2a 87 bd 2d 1a b1 bb b7 1b 84 bb 5e 91 d4 3e
       -0.06599855 -0.0054047317 -0.004031624 0.41517156
000110 14 69 28 be cd 10 7a bd a1 4a 13 be ac 92 2b bc
       -0.16446334 -0.06105118 -0.14383937 -0.010471981
000120 e3 38 ed bd f7 24 db be 61 56 fe bd 5f 12 64 3a
       -0.11583116 -0.4280164 -0.12418819 0.0008700247
000130 ae 6e d7 3e 23 d8 bd be 11 d1 6c be e3 34 c9 bd
       0.4207663 -0.37078962 -0.23126628 -0.098245405
000140 93 8f 63 3e ec 6f 33 3b 67 0e fb bd bd a9 b7 3d
       0.22222738 0.0027379943 -0.122586064 0.08967922
000150 c1 ae e9 3c 29 e1 c2 be b7 2a a9 be 0d 61 5d be
       0.028525712 -0.3806241 -0.330404 -0.21619053
000160 5f ef 7e be 20 5a 16 be 18 47 8c 3d 28 f1 7c 3c
       -0.24896 -0.14682817 0.068494976 0.0154383555
000170 18 9d 06 be 64 77 18 be c2 61 55 3d b6 29 9f be
       -0.13145864 -0.14889294 0.052095182 -0.3108651
000180 7d 09 2c be 1b 81 03 bd 46 75 3c be 11 ee 07 bf
       -0.16800494 -0.032105546 -0.18404111 -0.53097636
000190 60 c4 90 bd 4d 89 69 3d 85 73 ad 3d bc ea 95 be
       -0.070687056 0.057015706 0.08469299 -0.2928065
0001a0 a0 13 72 be ba f3 6a 3e bf d7 d1 be 70 c6 d3 bc
       -0.23640299 0.22944537 -0.40984914 -0.025851458
0001b0 d5 06 2f bf 86 87 f6 3e 2b da da bd f8 0c b0 3d
       -0.683698 0.4815027 -0.106861435 0.085962236
0001c0 ce 4b 6e be cb 3c f7 be ff 7a 9a 3e b4 c2 84 bd
       -0.23271105 -0.4828857 0.30171964 -0.06482449
0001d0 91 12 88 bd 2b e4 ad 3e a6 d3 ee 3d c0 b2 de 3d
       -0.06644166 0.3396314 0.116614625 0.108739376
0001e0 87 3c 0f 3e a1 32 12 be bc 58 55 3d 9e de 4b 3e
       0.13987933 -0.14277126 0.052086577 0.1990914
0001f0 7c 17 84 3d 46 87 88 3e 49 f3 d6 bd 9c 78 da bd
       0.06449792 0.26665705 -0.10495622 -0.10667536
000200 95 d3 3a be 4e fc e8 bd 93 2a 19 be 7b 02 07 bf
       -0.18244775 -0.11376248 -0.14957647 -0.5273816
000210 c5 a8 3b b9 b2 e2 b9 bc 21 f3 84 be d9 67 c8 bd
       -0.00017896581 -0.022691105 -0.25966743 -0.09785432
000220 cc b9 87 3d e1 a1 28 bd 79 e4 b8 bd b5 56 dd 3e
       0.06627235 -0.041170005 -0.09027953 0.43230215
000230 49 2f c5 be ad 1c 0a bf c3 f0 75 3d 2a ef 79 be
       -0.38512638 -0.53950006 0.06004406 -0.2440764
000240 00 7e 9d be 19 52 05 bf 8a af 50 be 01 08 e0 be
       -0.30760193 -0.52078396 -0.20379463 -0.43756106
000250 72 51 7a bf ed 03 d7 bd 79 a7 58 3e f1 a4 96 be
       -0.97780526 -0.10498796 0.21157636 -0.29422715
000260 ff e2 37 bc 36 63 e0 be 64 d0 2b 3c fe f1 22 3d
       -0.011223554 -0.43825692 0.010486696 0.039781563
000270 dc 07 e8 be 4e 2e b0 be d9 f9 c6 bd fa b2 81 be
       -0.45318496 -0.34410328 -0.097156234 -0.2533186
000280 e7 a7 de 3c c1 96 23 be 2f ea 32 3e de f1 83 be
       0.027179671 -0.15975477 0.17472146 -0.25770468
000290 78 e8 ed be 16 cc a1 3d 20 16 b8 be ca 2c 2d bf
       -0.46466422 0.079002544 -0.3595438 -0.6764647
0002a0 4b ad e1 bd 48 f6 2e be a1 9a 80 bd 44 c9 c8 3b
       -0.11019381 -0.17086136 -0.06279493 0.0061275084
0002b0 36 81 91 3e 3c 36 06 3f 3a cc d6 3e 37 24 33 3c
       0.28418893 0.52426505 0.41952688 0.010933927
0002c0 88 0c 3d 3d 6e e6 c8 be 08 b7 e7 3e 26 08 56 3d
       0.04615453 -0.39238304 0.4525683 0.052253865
0002d0 be 71 a5 be 7b a0 6d be ee e0 f5 bd e7 18 84 3e
       -0.3231334 -0.2320575 -0.120057926 0.2580025
0002e0 34 e5 69 3e f6 45 17 3f a2 53 f5 bd 4e 11 bb 3d
       0.2284134 0.59091127 -0.11978842 0.0913416
0002f0 ba 64 f2 3d 85 9a 24 be 9c a3 cc 3d d7 b2 9d be
       0.11835618 -0.1607457 0.099921435 -0.30800506
000300 ee 41 85 3e c3 85 ab bd 44 b4 6a be 00 db 47 bb
       0.26026863 -0.083751224 -0.22920328 -0.0030495524
000310 ed 32 94 be 73 70 af 3d eb a1 7a 3d f4 7d 16 3e
       -0.28945103 0.0856637 0.061189573 0.14696485
000320 66 28 74 3d 07 65 2a 3d 49 1f ec bc d5 e8 fa be
       0.05960884 0.041600253 -0.028823512 -0.49005762
000330 6f 12 99 bd c9 86 43 3e bb 91 b9 be 92 11 88 3d
       -0.07474219 0.19094385 -0.36243996 0.06643976
000340 27 40 3d bf 38 b9 53 bf af bc 11 be ae 96 ee bc
       -0.73926014 -0.82704496 -0.14232133 -0.029124584
000350 f6 05 c6 3d 8b a0 5e be f6 50 d0 bd d7 d7 ec 3c
       0.09669106 -0.2174093 -0.10171692 0.028911514
000360 04 55 19 3e 61 f4 bc be b9 e0 fe bd a1 16 32 be
       0.14973837 -0.36905196 -0.12445206 -0.17391445
000370 1a 9a 02 3e 26 0d 52 3e ea 79 c5 3d 03 ba 6e be
       0.12754098 0.20512828 0.09642394 -0.23313145
000380 65 2b 5d be 23 b2 cf bd 94 49 ff 3e 23 38 9b 3d
       -0.21598585 -0.10141399 0.49860823 0.075790666
000390 41 4b fb bd a1 39 3a bd 0e cf 2e 3c 72 f9 b6 be
       -0.12270213 -0.045465115 0.010669483 -0.35737187
0003a0 6d 87 92 bd 3d 6f ac 3e ff e3 7e bc 92 67 08 3e
       -0.07154737 0.33678618 -0.015557288 0.13320759
0003b0 c4 64 6f be a5 96 b3 bd bb ec 80 3c 05 96 cc 3d
       -0.23378283 -0.087689675 0.015737882 0.099895515
0003c0 9c 4b 33 bf 38 2b c6 be b8 45 c1 3c 7c 7b eb bd
       -0.70037246 -0.38704848 0.023592815 -0.11498162
0003d0 11 12 ac bd 88 9c f0 be ba 1e 5c 3e 50 68 ef be
       -0.084018834 -0.46994424 0.21496096 -0.46759272
0003e0 13 85 76 be ed 53 98 be 89 79 a3 3e 41 d1 d0 3e
       -0.24074201 -0.2975153 0.3192866 0.40784648
0003f0 f2 fd 4c 3e 01 c2 87 bd 88 fd f8 be b6 95 82 be
       0.20018747 -0.066288 -0.4863093 -0.25504845

mlp2.0.bias f4 [100]
000000 9e 64 f0 3d c1 c3 2a 3f f6 79 6e 3f 1b d6 a8 be
       0.11737941 0.66704947 0.9315485 -0.3297585
000010 42 81 67 3e 0d 38 08 3f 19 c0 4d 3d 34 49 27 3f
       0.22607902 0.53210527 0.050232027 0.65346074
000020 11 61 50 3e f2 26 c0 3c 29 2b cc be 54 f9 29 3f
       0.20349528 0.02345607 -0.3987668 0.6639607
000030 52 6e 16 40 8d 42 94 3f 07 38 0b bf b3 f3 0b 3f
       2.3504834 1.158281 -0.54382366 0.5466873
000040 e2 64 a4 be 2e fc 16 3f a3 02 58 be 07 cd 81 3d
       -0.32108217 0.58978546 -0.21094756 0.06337934
000050 da f9 0e 40 83 1b ae 3f bb 29 77 be ac e5 a1 be
       2.2339997 1.3602146 -0.24137013 -0.31620538
000060 1d e5 bd 3e 5b be 2d bc d5 1d 8a 3e 41 11 9a be
       0.37088862 -0.010604466 0.26975885 -0.3009129
000070 d8 fd d8 be 7b 76 d3 bc 1b 9d 37 bd 7c f9 9a 3d
       -0.42381167 -0.025813332 -0.04482756 0.075671166
000080 d6 bf c7 3e 02 22 be 3f bc 5d fc bd a7 03 35 3e
       0.39013547 1.4854128 -0.12322566 0.17677175
000090 a1 f5 48 3f b2 f0 08 3e d9 c2 d2 3e f7 e8 18 bf
       0.784998 0.13373068 0.41164282 -0.59730476
0000a0 3f 17 c7 3f 64 1b 4d be d1 a7 84 be cd 83 fb be
       1.5553969 -0.2002998 -0.25909284 -0.49123994
0000b0 0b 18 6e be 18 6b dd be 63 55 57 bd 40 1f 8a 3e
       -0.23251359 -0.4324577 -0.052571665 0.26976967
0000c0 ff 8f 39 3e f7 52 e4 3e f8 a4 45 be 0b b5 86 3f
       0.18121336 0.44594547 -0.19301212 1.0524
0000d0 f9 e7 02 bf 5a 87 b1 3d 91 0a 68 3e d9 72 82 be
       -0.5113521 0.086683944 0.22660281 -0.25478247
0000e0 03 5f e5 be 00 a9 1b bb f6 e7 7d be 35 16 ff 3e
       -0.4479905 -0.0023751855 -0.24795517 0.4982163
0000f0 49 28 6c be 57 27 40 3e b7 ce 56 be 8d be fd be
       -0.23062243 0.18765007 -0.20977293 -0.4955944
000100 c7 67 6f 3f ee 79 94 bd d2 4c bd 3e da 84 19 3f
       0.93517727 -0.07249819 0.36972672 0.5996834
000110 f8 9f 2f be 91 29 ab be 6c 59 28 3f 5e d3 f9 3e
       -0.17150867 -0.3343015 0.65761447 0.48794073
000120 b9 5d 7d 3e b9 3d b4 bd b5 0c ee 3e 61 9b 07 be
       0.24742784 -0.08800835 0.4649407 -0.13242866
000130 bd 9b bc bc e0 47 85 3e 2d b1 03 bf d2 3a 63 be
       -0.02302348 0.260314 -0.51442224 -0.22190407
000140 e4 2a eb 3f 4e 50 03 3f 61 74 6c be 5e 39 d7 be
       1.8372464 0.5129441 -0.2309127 -0.42035955
000150 68 5f 3a bf 6b 1e 83 3e b7 0b e0 3e 71 a0 1b 3e
       -0.7280183 0.25609145 0.43758938 0.15197922
000160 ab fb 06 bf 77 d2 f4 3e 25 42 de 3e 93 a0 0f be
       -0.52727765 0.47816822 0.4340984 -0.14026098
000170 17 dc c0 be 73 8b 0b 3e d5 c7 aa 3e 4a 01 6c 3f
       -0.37667915 0.13627414 0.33355585 0.92189467
000180 e7 56 15 40 25 ef 1a bf dc 01 cd 3f 7b 59 f0 be
       2.333429 -0.60521156 1.6016192 -0.46943268

mlp2.2.weight f4 [50, 100]
000000 c5 4b 5e 3d 99 b2 9c 3d 3b 31 29 bd 4c 7a 9a 3e
       0.05427148 0.07651252 -0.041306715 0.3017143
000010 e4 32 5a 3b 3a c1 97 be b6 15 f1 3d 9d 3f 07 3d
       0.0033294493 -0.29639608 0.11771719 0.03301965
000020 da 2e 40 bd 49 1a 0a 3e 1e 46 74 3e 94 bd 1a 3e
       -0.04691968 0.1348659 0.23854873 0.15111381
000030 da 07 1f 3f 35 25 d4 3c 38 d6 8b be 9e db a6 bb
       0.62121356 0.025896648 -0.27311873 -0.0050920984
000040 34 96 9a 3e 00 2a 2e 3e 45 a7 7f be b3 e4 e7 3d
       0.3019272 0.17008209 -0.24966152 0.11322918
000050 0e 80 8f 3d 02 ff b8 3c dd c3 38 be f9 58 7b 3d
       0.07006846 0.022582535 -0.18043466 0.061364148
000060 c5 e2 10 bd 09 59 be 3d ba 2a 21 3d 11 9b a1 3d
       -0.035372514 0.09294326 0.039347388 0.07890905
000070 21 2e b3 bc 05 ea f5 bd 7a 53 97 3e 29 7c ac 3e
       -0.021872582 -0.12007526 0.29555875 0.33688477
000080 93 1c 3c 3e 6c 77 bf 3e bd 1e 36 3e 6d 2d 8d bd
       0.18370275 0.373958 0.17785163 -0.0689343
000090 6f f5 2d 3b 5b 05 17 be 70 4c c0 be c2 b5 f8 bd
       0.0026543995 -0.14748137 -0.37558317 -0.121440426
0000a0 ad 2b d7 be 91 4d 17 bd 22 55 52 3b b6 c3 58 3e
       -0.4202551 -0.036939207 0.00320942 0.21168408
0000b0 a6 61 62 be 3e 50 aa 3b b2 10 c0 3d 79 a2 46 be
       -0.22107562 0.005197554 0.093781844 -0.19397916
0000c0 38 e8 c6 be 34 df c9 3c 53 a1 3b 3d e5 27 f7 3e
       -0.38849044 0.024642564 0.045808148 0.48272625
0000d0 fd 82 56 bc a7 c8 83 3e ed 37 f2 bd c9 fb dc 3e
       -0.0130927535 0.25739023 -0.11827073 0.43160847
0000e0 94 b7 73 be 87 de ff bc 03 28 ea 3d 00 bd 44 3d
       -0.23800498 -0.031234039 0.11433413 0.048031807
0000f0 31 e9 bd bd 25 80 33 3e 52 d4 80 be 37 d4 6d be
       -0.09272993 0.17529352 -0.25161988 -0.23225485
000100 46 f8 b6 bd 4b c6 8f bd 42 59 56 3e ba 45 a2 bc
       -0.08934073 -0.07020243 0.20932487 -0.019808639
000110 4b e6 19 be 25 2b bf bd c8 51 9c 3c 31 cf 9f 3c
       -0.15029256 -0.09334401 0.019081965 0.019507976
000120 28 04 8d 3d b0 a7 32 be 3e 61 1e be b6 7e 34 3e
       0.06885558 -0.1744678 -0.15466782 0.17626461
000130 9c c2 c6 3d 1f 1b 87 bd 0f f0 8a 3c 41 41 9e be
       0.097050875 -0.0659697 0.016960172 -0.3090916
000140 f0 95 9a 3d bc 8c a4 bd 46 e3 6c be 6a 15 f3 be
       0.075481296 -0.080346555 -0.23133573 -0.47477275
000150 10 2e 90 3e 08 4e 4a be 77 2b 95 3e 7b a5 af 3d
       0.28160143 -0.19756329 0.29134724 0.08576485
000160 69 2e 83 be e3 48 1d bd 0a 9d c1 3d d0 ab b7 3e
       -0.25621346 -0.03839959 0.09453781 0.3587327
000170 5b 17 e6 bc ac fe 82 3e 17 d5 96 3e 24 da 91 3e
       -0.028087309 0.25584924 0.2945945 0.2848674
000180 66 a5 87 3e 01 bb 40 3e 5a 22 fc bd 2d fd 2b 3e
       0.26493376 0.18821336 -0.123112395 0.16795798
000190 3a 4e dc 3c ea fb 61 3e a7 0e 32 3e b7 16 91 be
       0.02689277 0.22068754 0.17388402 -0.28337643
0001a0 d6 d9 1a bf 2c 4f ef 3c eb 1c a7 3c 55 46 be 3e
       -0.6048864 0.029212557 0.020399531 0.37163034
0001b0 71 69 3f 3e 72 39 13 be ca 1b cb 3e 3e 04 89 be
       0.18692566 -0.14377382 0.3966964 -0.2676105
0001c0 1f 63 3a be 98 43 6c bd 82 83 dc bc 33 47 8a be
       -0.18201874 -0.05768165 -0.026918177 -0.27007446
0001d0 d8 38 37 be ad 8d 16 be 87 3e bb be 59 d1 b7 bd
       -0.17892778 -0.14702483 -0.36571142 -0.08975477
0001e0 82 71 3b be 09 70 20 be fa 97 2f be 34 6d 28 bf
       -0.18305019 -0.15667738 -0.17147818 -0.6579163
0001f0 04 76 e2 3e ef fd d7 bd 34 74 0e bc 5b 67 46 3e
       0.44230664 -0.10546481 -0.008694697 0.19375364
000200 f2 98 14 3e 34 c3 8e 3e 10 c8 0a 3d 0c c7 2b 3d
       0.14511469 0.27883303 0.0338822 0.041937873
000210 3b e8 e4 3d 2b dc 91 bd 77 0d 92 3d d8 3a 68 be
       0.11177107 -0.07122072 0.071314745 -0.22678697
000220 47 a7 03 3e ca ba 91 3e d1 91 bf 3e bd 83 58 3c
       0.1285678 0.2846282 0.37415937 0.013215003
000230 61 53 74 be b9 e4 a0 be 2d 93 51 3e da ec 74 be
       -0.23859932 -0.31424502 0.204663 -0.23918477
000240 c1 92 e6 3d b1 7a 0e 3f 97 78 73 be ca db 60 3e
       0.1125846 0.5565596 -0.2377647 0.21958843
000250 7b 0f 02 bd b3 b5 19 bd 5c 8e 80 be 38 20 23 be
       -0.031753045 -0.037526798 -0.25108612 -0.15930259
000260 c1 ce ee 3c 03 21 75 3c a9 d9 1f be 14 b3 28 be
       0.029151322 0.014961484 -0.15610375 -0.16474563
000270 1d 12 fc bd 58 08 63 be 72 fa 9c be e9 b7 b4 bb
       -0.12308142 -0.22171152 -0.30659825 -0.005515088
000280 1c f8 0c 3d 20 0d b6 3e 7e b0 68 bd 4a 89 b3 3d
       0.034416303 0.3555689 -0.05680894 0.0876642
000290 a9 1c cb bb 5d 6d 96 bc 06 a6 21 bf 21 3b b2 be
       -0.006198485 -0.018362695 -0.63143957 -0.34810737
0002a0 39 b2 a4 3d ef 86 b5 bc b9 08 71 3d 8d 49 91 3c
       0.08041806 -0.022159068 0.05884621 0.017735267
0002b0 da e6 d6 3e c3 4e a6 bd 7a 85 05 be 5f e9 17 3d
       0.41973 -0.08120491 -0.13039199 0.037087794
0002c0 72 a8 5c be e3 f2 32 be 2e 22 6d 3d 5a af 67 3e
       -0.21548632 -0.17475466 0.057893924 0.22625485
0002d0 66 9c 73 be da a8 61 3b 33 85 ae 3d e2 f2 33 3e
       -0.2379013 0.0034432919 0.085214995 0.17573121
0002e0 bd 33 c0 3e 87 09 1d 3e f4 27 26 be 3e 31 18 be
       0.37539473 0.15335666 -0.16226178 -0.14862534
0002f0 59 22 88 be a4 ff a1 3d e4 16 d4 3e 39 b8 a5 3e
       -0.26588705 0.07910088 0.41423714 0.32367113
000300 7c 07 06 3d d8 ba aa 3e b4 66 82 be cc 77 00 be
       0.03272198 0.33345675 -0.2546898 -0.12545699
000310 8b 89 74 3d c8 ba ee bd 1d 58 a9 be 2c 98 c4 3e
       0.059701484 -0.116567194 -0.33075038 0.38397348
000320 74 67 a7 3e 2a 82 d1 3e 4d 12 91 be 61 ba 90 be
       0.32696116 0.4091962 -0.28334275 -0.28267196
000330 67 57 83 bc 9f a0 9f bd ac 04 cd 3c ef 4e 39 bc
       -0.016032888 -0.07794308 0.025026642 -0.011310323
000340 06 5c a2 3e 04 ea c5 3d f8 de d8 3e e7 d4 b0 bd
       0.31710833 0.096637756 0.42357612 -0.08634358
000350 e0 eb a7 be 61 00 ad 3e 83 a9 7f be 83 a5 8e be
       -0.32797146 0.33789352 -0.24967007 -0.2786065
000360 62 26 c1 bd e9 66 54 be 31 89 2d 3e ee ac 62 bd
       -0.09431149 -0.20742382 0.16946866 -0.0553407
000370 61 a1 5d be d9 ca 5b be 5e 62 b3 3e ab 22 4c 3e
       -0.21643592 -0.21464099 0.35035986 0.199351
000380 0a fc 4b 3e bc 8d 15 be be 79 97 be 8d 42 10 3e
       0.19920364 -0.14604849 -0.2958507 0.14087887
000390 22 42 cb 3e 09 62 33 bd 57 17 9c be 28 f3 d3 be
       0.39698893 -0.043794665 -0.30486557 -0.4139645
0003a0 b2 8d 3a be f1 7d fd bd 35 87 31 3d 93 fb a5 39
       -0.18218115 -0.12377537 0.043341834 0.0003165869
0003b0 52 9a bc be 0e 1e 13 bf 13 36 95 be a7 99 3f 3e
       -0.36836487 -0.57467735 -0.29142818 0.18710957
0003c0 ef 73 d4 bd 2e ba b0 3e 3a dc 27 be 7a a4 6b 3d
       -0.10373675 0.34517044 -0.16392604 0.057529904
0003d0 2b ae 99 3d 50 f4 20 be 55 ee 43 3e 7d 63 a6 3e
       0.07503923 -0.15718198 0.19133885 0.3249778
0003e0 35 58 06 be 0f 11 91 3c f5 1d c4 3e f6 30 3b bd
       -0.13119586 0.01770833 0.38304105 -0.04570099
0003f0 18 53 c5 3e a8 7b a2 3e ab 88 fd bd 44 76 95 3b
       0.38539958 0.31734967 -0.12379583 0.0045612175

mlp2.2.bias f4 [50]
000000 d6 70 1c bf cf d6 be 3e 0a d5 64 bf ae 20 5e bf
       -0.61109674 0.3727326 -0.8938757 -0.86768615
000010 59 9c 83 3f d9 8b a2 3f 51 95 dd be 95 13 f1 3e
       1.0282089 1.2698928 -0.43277982 0.47085252
000020 b0 e1 aa 3f 73 c8 24 3f d3 18 f4 bb 14 1c 74 be
       1.3350124 0.6436836 -0.0074492483 -0.23838836
000030 c2 03 d5 3e d2 5d 97 3e 71 40 66 be ee 28 ee bc
       0.4160443 0.29563767 -0.2248552 -0.029072251
000040 6a bb ac 3f 60 83 a9 3e 42 6f e0 3e 66 11 b9 bf
       1.3494694 0.33108044 0.43834883 -1.4458435
000050 1c f4 65 3f 0b bf 9d 3f 10 4f 62 3f a8 97 a9 3e
       0.89825606 1.2323927 0.8840189 0.33123517
000060 ed e4 d2 be fe e6 c6 3f 9b 59 b4 3e d1 66 35 3f
       -0.41190282 1.5539243 0.35224614 0.7086001
000070 32 90 fa be 65 7f 2a 3f 59 95 88 bf 8c 05 55 3f
       -0.48938137 0.6660064 -1.0670577 0.8321159
000080 02 b7 b6 3e 1b 69 88 bf bd ad 04 bf 1f b3 9a bd
       0.356865 -1.0657076 -0.51827604 -0.07553696
000090 9e 82 87 3f c3 f5 b9 be 80 b6 2e 3f a9 52 98 3e
       1.0586736 -0.36320314 0.6824722 0.29750565
0000a0 56 90 91 3e 5d 38 db be ab 28 fb 3f d7 9c 28 3f
       0.28430432 -0.4281644 1.9621786 0.6586432
0000b0 c7 58 2b 3f 12 69 8d be 93 f7 94 3f 36 56 58 bf
       0.6693234 -0.27619225 1.1638054 -0.8450655
0000c0 d1 dc b9 bf f9 07 9c 3f
       -1.4520513 1.2189933

attention.0.weight f4 [100, 100]
000000 77 89 a7 be 5c ce c9 3e 64 03 c1 bd 5b 64 71 be
       -0.32722065 0.39415252 -0.09424475 -0.23573439
000010 14 9b ca be 32 9e f6 be 19 c2 ff be 3b e0 8c 3d
       -0.3957144 -0.48167568 -0.49952772 0.06878706
000020 27 cf d6 bd d1 06 0b bf f7 4d 9e 3d ab 2c 08 be
       -0.1048873 -0.54307276 0.07729714 -0.1329829
000030 cf fd 5c be 53 29 be be c0 a6 4a 3d 82 ba b0 bd
       -0.21581195 -0.37140903 0.04947543 -0.086293235
000040 b0 e8 28 3d ea 27 44 be 53 5d 87 bd 26 06 07 3e
       0.041237533 -0.19155851 -0.06609597 0.13185939
000050 9b d1 97 be b7 45 d5 3e cb 7a 07 be 0f db e5 3c
       -0.29652104 0.4165475 -0.13230436 0.028058557
000060 1b c2 b8 bd 75 60 9c 3e b1 e2 68 bd 73 68 80 bd
       -0.09021398 0.3054234 -0.056856815 -0.06269922
000070 41 52 aa 3c d1 22 27 be 0a d0 0c 3c 71 42 29 be
       0.020791175 -0.16321875 0.008594522 -0.16529252
000080 bf 7d 28 3e 5c 0e 7c 3e 7b b6 0c be 53 32 2b be
       0.16454218 0.24614853 -0.13741486 -0.16718416
000090 84 9e 7f bd b8 c7 9d bd c2 84 d0 be 29 e2 51 3d
       -0.06240703 -0.07704109 -0.40726286 0.051241074
0000a0 a7 84 ea bd e2 21 29 3e fe e8 50 3d 55 3d a7 be
       -0.11451083 0.16516832 0.05100345 -0.3266398
0000b0 6d 66 20 be ba 7a 44 3d 46 3e 6e be e4 4a 4d be
       -0.15664072 0.047968604 -0.23265943 -0.200481
0000c0 15 6e 04 bf 32 cc 84 3d 1d 1f bb bd e8 9f c2 bd
       -0.5173047 0.0648426 -0.09136794 -0.09503156
0000d0 ab 78 94 be 16 cc 6d be 92 2d e1 be b7 e4 e0 bd
       -0.28998312 -0.23222384 -0.4398008 -0.10981124
0000e0 c4 30 dc bd 5c f6 47 be 39 8a c1 3d ba 59 05 3d
       -0.10751489 -0.19527572 0.09450192 0.032556273
0000f0 e9 f9 55 3e 48 bf 4f be 1b 3e b1 bd f3 a8 8d bd
       0.20896114 -0.20287812 -0.08654424 -0.0691699
000100 82 d7 59 bd fc d8 84 3b 1a 57 ee bd 3a 88 31 3d
       -0.05318404 0.004054187 -0.11637707 0.043342806
000110 78 a2 a0 3e 16 f8 1a 3d 9d 2d 8b bc 57 59 7f 3c
       0.31373954 0.03783425 -0.016989524 0.015585265
000120 f5 26 6c bd 76 3d 1c bd 85 3e 72 be 3c 9b c5 bc
       -0.05765434 -0.03814455 -0.23656662 -0.024121873
000130 0e a2 69 bd 5f 14 7d bd 3c 75 f9 bd 0d 51 7d be
       -0.057039313 -0.061787006 -0.12180564 -0.2473795
000140 81 37 1f be 31 1f 0d 3e b7 4b e6 bd 9f 41 a5 bd
       -0.15548517 0.1378143 -0.1124491 -0.08069157
000150 cd 7d 42 3d f9 a1 20 3e a5 14 0a 3d 8f db 44 3c
       0.047483254 0.15686788 0.033711094 0.0120152375
000160 f3 5e df 3d cd a0 e9 bd ee 66 54 be bd bb 38 be
       0.10906782 -0.114076234 -0.2074239 -0.18040366
000170 7d 8d ab be 84 f3 13 be 76 1a 95 be a3 10 a8 be
       -0.33506384 -0.14448363 -0.2912175 -0.32825193
000180 d3 63 a4 3e ea 6d a4 3d f6 ff 7d 3e 9d af e2 3e
       0.3210741 0.08028777 0.24804673 0.44274607
000190 49 3d a1 bd ee 81 bc 3c a2 1f ae bd 13 36 30 bd
       -0.07873017 0.023011174 -0.08502127 -0.04302032
0001a0 78 ff 33 be b9 31 41 be b2 36 a3 bd 75 ce ba 3d
       -0.17577922 -0.18866624 -0.07969417 0.0912141
0001b0 b9 4d c6 bd 62 16 a3 bd f9 ee 1c 3a 36 bd 85 3d
       -0.09682793 -0.079632536 0.00059865374 0.0653023
0001c0 3e d1 30 3c e4 9f 1b be a8 53 8f bc 6d 6a c1 bd
       0.010792075 -0.15197712 -0.017495945 -0.09444127
0001d0 ba d5 02 be 60 c3 d5 bb 81 f7 30 bc 8f 2f 15 3d
       -0.12776843 -0.0065235347 -0.010801197 0.03642231
0001e0 be 86 f3 bd c8 dc 03 be 42 94 a8 bd e2 c2 0e bd
       -0.118909344 -0.1287719 -0.08231403 -0.034853823
0001f0 a8 9e 09 bd c8 f8 e9 3d 53 c8 c6 3a 93 22 80 bd
       -0.033598572 0.114244044 0.0015165902 -0.062565945
000200 f9 2c 3c bd 44 c1 53 bc 0b e6 1e bd 83 f6 f7 bd
       -0.045941327 -0.012924496 -0.038793605 -0.12107565
000210 f8 81 1c bc 98 a5 7a be 31 f3 bd bd fd 4a 77 bd
       -0.009552471 -0.24477232 -0.09274901 -0.06037425
000220 68 a1 cd 3d af 39 93 3d 2e fa 4b 3d d1 a3 1a 3d
       0.100405514 0.07188737 0.049799137 0.037753884
000230 04 1c 36 be 88 20 af bc db d6 c8 bd 36 44 c2 bb
       -0.17784125 -0.021377817 -0.098066054 -0.0059285415
000240 7a e8 16 be d4 58 32 be fb 10 98 be 31 f7 7c bc
       -0.1473712 -0.17416698 -0.29700455 -0.015439794
000250 99 34 b1 3d e6 16 44 3d b4 80 18 be 17 e0 2b bd
       0.0865261 0.0478734 -0.14892846 -0.041961756
000260 f7 b1 c9 bc 6b db 2e be 25 e2 d4 bd 6c 10 3b bd
       -0.024620993 -0.17075889 -0.10394696 -0.045669958
000270 e0 62 d8 3d 2c 02 ce bd fe ae 0c bd 67 22 ad bd
       0.10565734 -0.10059008 -0.034346573 -0.08453827
000280 a3 bc 05 bd 5d 8c 7f bd 82 25 14 bd e9 db 7a bd
       -0.0326506 -0.06238972 -0.036168583 -0.06124488
000290 22 7d fb bd 3b 6b 9a bd e6 a2 36 bd f2 68 47 bd
       -0.122797266 -0.07539984 -0.044588946 -0.048684068
0002a0 9e 1f 54 be a3 21 9f 3d ac 16 00 bd 1e 55 03 3d
       -0.20715186 0.077700876 -0.03127162 0.032063596
0002b0 5a 71 de 3c f5 55 06 bc 9e c7 eb bd 1d 9c 6a bd
       0.02715366 -0.008199205 -0.11512683 -0.057277787
0002c0 8f 76 4c bd 2f a3 45 bd b9 c3 d0 bd 6d 68 77 3d
       -0.049917754 -0.048251327 -0.10193581 0.060402323
0002d0 a5 85 1e be b3 7c 2b bd a5 e9 70 3d 35 f9 f0 bc
       -0.15480669 -0.04186697 0.05881657 -0.029415706
0002e0 20 31 8c bd 2e a3 a7 bd 61 a8 f0 bd 66 fd 7e bd
       -0.06845307 -0.08185421 -0.11750866 -0.06225338
0002f0 8f a1 5a ba 82 22 37 bd 3b fa dd bd 6d 2f d1 3d
       -0.0008340114 -0.044710644 -0.10838743 0.10214124
000300 3a c4 c2 bc 0a 49 93 bd 20 08 66 bd 80 ce 7a 3c
       -0.023775209 -0.071916655 -0.056160092 0.0153080225
000310 bc 02 d2 bd 80 d1 af 3c cd 87 a1 39 f9 5a 1b bc
       -0.10254428 0.021462202 0.00030809492 -0.009482139
000320 c1 48 07 be 38 0a 64 3e eb 08 3f be bd c1 39 bd
       -0.13211347 0.22269523 -0.18655746 -0.04535078
000330 99 94 6e bb 03 33 11 be 67 e2 9a be 27 31 03 be
       -0.003640449 -0.14179616 -0.30250856 -0.12811719
000340 be 1a f0 bd ba c5 ac 3e 7c fa 3b bd cb ca 9c bd
       -0.11723851 0.33744603 -0.045893177 -0.07655867
000350 00 22 9d 3c d4 24 0c 3d 74 61 88 be d4 5b d9 bc
       0.019181252 0.03421481 -0.2663685 -0.026533045
000360 5d f2 0b be 4d ca 98 be c5 0e b1 3c 66 82 bb ba
       -0.13666673 -0.29841843 0.021613488 -0.001430583
000370 ac dc 0f 3e ab bf 49 bd 45 13 92 3c 81 66 c1 be
       0.14049023 -0.049255054 0.017831454 -0.37773517
000380 82 dd a0 bd 38 28 68 be 00 b3 13 3e 44 6e 35 3e
       -0.07854749 -0.22671592 0.14423752 0.17717844
000390 38 a5 43 3b b3 89 9a bc 30 9f 69 3e 62 5e 7e be
       0.0029853117 -0.018864488 0.22814631 -0.24840692
0003a0 8d 91 95 be 52 6c 9f be 20 f3 4b 3e e4 21 8d bc
       -0.2921261 -0.3113733 0.19916964 -0.017228074
0003b0 f0 14 45 3e e9 ad 52 3e ca d1 cc 3d ed 4d 8d 3e
       0.19246268 0.20574154 0.100009516 0.27598515
0003c0 61 78 3e be 28 b4 45 3e b8 33 c7 be 91 f2 a9 3d
       -0.18600608 0.19307005 -0.38906646 0.08298219
0003d0 50 5c 1c be 75 c4 bf bd a2 b5 eb be e8 2a 0b be
       -0.1526959 -0.09363643 -0.46037012 -0.13590586
0003e0 0b 70 89 be dd 37 b6 3e 04 87 34 be eb 64 aa 3e
       -0.26843295 0.35589495 -0.1762963 0.3328012
0003f0 48 67 43 bd 69 12 b2 bd 53 76 84 bc 1d 05 80 3d
       -0.04770592 -0.08694918 -0.016169703 0.06250975

attention.0.bias f4 [100]
000000 f9 5a 34 bd b1 49 be bd d7 66 ab be f1 48 60 be
       -0.04403207 -0.09291399 -0.33476898 -0.21902825
000010 74 df 6e be e9 74 ee be 44 91 16 3f 73 10 8e bf
       -0.23327428 -0.4657357 0.5881541 -1.109877
000020 b5 43 50 be 4c e4 1b bf bc 72 4d bf 3a 14 e9 be
       -0.20338328 -0.6089523 -0.80253196 -0.45523244
000030 37 a0 20 bf dd c8 67 bd ce 5c 72 bf 81 1b 60 bf
       -0.6274447 -0.056588043 -0.9467286 -0.8754197
000040 c7 a5 d9 be 3b 4d 4b be be 26 eb be c9 4e 03 3f
       -0.4250929 -0.1985368 -0.45927995 0.5129209
000050 c2 2f 54 be 3b c3 7e bf bf 1d 98 be fa b3 1a bf
       -0.20721343 -0.9951665 -0.29710194 -0.6043087
000060 fb 20 4f 3e e6 f2 33 3e 25 9f 1d bf 91 69 22 bf
       0.20227425 0.17573127 -0.6157096 -0.6344233
000070 90 a5 b6 be e1 c2 85 be e3 df b1 be ee b0 22 be
       -0.3567319 -0.26125243 -0.34741125 -0.15887806
000080 82 b8 48 3d 59 79 b0 be 00 c0 a2 bd 8c be d4 be
       0.049004085 -0.3446758 -0.07946777 -0.41551626
000090 9d 73 f4 bc f3 af 72 3e 24 78 9c bf 4a 93 9a 3d
       -0.029840285 0.23699932 -1.2224164 0.075476244
0000a0 c3 01 ac bf 19 ac c6 3d f3 97 95 3e ed f5 1e bf
       -1.3438038 0.09700794 0.2921749 -0.62094
0000b0 4f 68 13 be 95 69 01 bf 3e de 15 bf ea b5 3b bf
       -0.1439526 -0.5055173 -0.5854224 -0.73324454
0000c0 d8 77 f3 bd 43 7c 9f be 81 0f 27 be e6 aa 0c bf
       -0.11888093 -0.31149492 -0.16314508 -0.5494827
0000d0 e4 f2 80 bf 56 2c 10 bf ad 78 fa 3d 34 9a fb be
       -1.0074124 -0.5631765 0.12230048 -0.49141085
0000e0 34 5f 54 be c0 7a 09 bf 1c c2 62 bf ce 4e 0f bf
       -0.20739442 -0.53702927 -0.8857744 -0.5597962
0000f0 af a4 aa be 70 d4 11 3e ec 3b 6e 3f bd 0c e6 3c
       -0.3332877 0.14241195 0.93060184 0.028082246
000100 89 1b 04 be 1e 49 35 bf f5 c9 9b bf ba b7 74 be
       -0.12901129 -0.7081469 -1.2171007 -0.23898211
000110 07 be 01 c0 f2 43 e3 be 0f 5d 56 3e 89 48 d3 bd
       -2.0272233 -0.44387776 0.20933937 -0.10316569
000120 fc 29 2b be 00 3a c0 3c c1 e4 d6 3d 33 37 1d bd
       -0.16715235 0.023465157 0.1049285 -0.03838272
000130 4b 88 57 be 6b 57 7a bd 27 97 77 3e 7f ee 48 be
       -0.21048085 -0.061118525 0.24178754 -0.19622229
000140 39 fc 60 bf 2b eb 94 be bd de 09 bf 38 8f 9d bf
       -0.8788486 -0.2908567 -0.53855497 -1.2309332
000150 40 c3 38 bf 72 62 84 be ff ba 7e be c9 da f9 be
       -0.7217293 -0.25856358 -0.24876021 -0.48799732
000160 22 61 9c 3e 08 01 5d bf 0d 1a 3c be fd a2 a4 be
       0.30542856 -0.863297 -0.18369313 -0.321556
000170 77 1c 00 3e 28 d4 45 be 80 2b a5 3e da c8 1c bf
       0.12510858 -0.19319212 0.3225975 -0.61243975
000180 1c 2f 4f be 6f 41 45 be de 2f 7b be fe 36 94 be
       -0.20232815 -0.19263242 -0.24529979 -0.28948206
