sarl_star_ros/CrowdNav-nowall/crowd_nav/data/sub/output_RR0.8/rl_model.pth (torch_old, 349196 bytes, 20 tensors)

mlp1.0.weight f4 [150, 13]
000000 a6 d4 81 3c 6e 9d da 3c b1 a4 34 bd d2 50 80 bd
       0.015848469 0.026686396 -0.044102374 -0.06265415
000010 9b 0d 47 3e 0b 72 0f be 8a bc 93 3d e3 63 91 bd
       0.19438784 -0.14008348 0.07213695 -0.0709913
000020 44 fa bd be 2c 4f 78 3d 39 3d 82 3d 39 ae 9e bd
       -0.37105 0.06062238 0.063593335 -0.07748074
000030 08 e8 29 bd da 31 31 3e 5e dc 3d 3d 1b c1 bc bd
       -0.041481048 0.17304173 0.046352737 -0.092165194
000040 72 4d d2 bd aa 3f fd 3d a5 a1 36 3e d3 58 88 3e
       -0.10268678 0.123656586 0.178351 0.26630268
000050 76 4c f4 3d 42 a6 95 bd 60 be 9e be 5f e6 b9 bd
       0.11928646 -0.07307102 -0.3100462 -0.09077143
000060 cf 43 83 be 35 b8 21 3e 30 6a 3b be c1 47 d6 bd
       -0.2563767 0.15792926 -0.18302226 -0.10462905
000070 e2 c2 7e be aa db 23 3c fd b2 30 be b8 e3 5e 3e
       -0.2487903 0.010001102 -0.17255779 0.21766555
000080 83 a3 61 3d 8c 31 9e bc 71 a2 66 be 3a 9b 58 3e
       0.055087578 -0.019310735 -0.22522904 0.21152964
000090 b2 9e 26 3e 2b fd 30 be 69 d1 50 be c9 c7 aa bd
       0.16271475 -0.17284076 -0.20392384 -0.08338887
0000a0 18 56 57 3d 0e 8d 88 3e b0 a2 64 be 60 77 55 3d
       0.05257234 0.26670116 -0.22327685 0.052115798
0000b0 99 82 b7 3c ea ba 43 be 01 b8 d7 3c 1e 1e 0e 3e
       0.022401141 -0.19114271 0.026332857 0.13878676
0000c0 8a 68 5d 3e b8 80 28 3e e6 7b 50 be f9 5d 00 be
       0.2162191 0.16455352 -0.20359764 -0.12535848
0000d0 5f 11 07 3e e1 32 99 be 0c 7e d6 3e da 19 8a be
       0.1319022 -0.2992163 0.4189304 -0.26972848
0000e0 00 a3 24 3e 2d 2c 85 be 06 e9 e2 3d 6b e8 a8 bd
       0.16077805 -0.26010266 0.11079602 -0.08247455
0000f0 94 e4 fe 3e 59 ca a1 3e aa 9c b0 bc 6d 3f dd 3d
       0.49783766 0.31599692 -0.021559078 0.10803113
000100 c0 30 a0 bd 34 6b 8b bc 92 6d fc bc 3b c6 f0 bc
       -0.07821798 -0.017018892 -0.030813966 -0.029391399
000110 34 cb 46 3e 4b 29 78 bd 64 5a 3e bd c8 4e e0 3d
       0.19413453 -0.060586255 -0.046472922 0.10952526
000120 81 e0 5c 3e 7e b4 84 be 3d 6e 63 be 20 dc 4c 3e
       0.21570016 -0.25918955 -0.22210021 0.20005846
000130 d0 ae 21 be 0f f0 f4 bd 03 8c 63 be 11 7d 6a be
       -0.15789342 -0.1195985 -0.22221379 -0.22899272
000140 88 0c 90 3e de d5 f4 bc 94 b5 0e be 7f a8 86 3c
       0.2813456 -0.029887136 -0.13936454 0.016437767
000150 49 8a 84 bd 36 5f c5 3d b0 0b 4f be b5 e6 e0 3d
       -0.06471688 0.09637301 -0.20219302 0.10981504
000160 9f 8e 5e bd 71 ec 48 be 94 93 16 3e e8 a1 30 be
       -0.054335233 -0.19621445 0.14704734 -0.17249262
000170 a7 b7 4b 3d 9d b4 69 be d1 10 93 3d 1f 95 c9 3d
       0.04973569 -0.22822805 0.07180942 0.09842896
000180 c3 38 1f 3e a5 1a 92 be 37 ac 32 3e b5 7c 02 3e
       0.15548997 -0.28535953 0.17448507 0.12742884
000190 e9 98 5e be 9e 12 cb bd bd 5e 0f 3d ec e8 24 3d
       -0.21738018 -0.0991566 0.03500246 0.040261194
0001a0 1a 44 1e 3d f6 50 87 bd ad 2c a6 be b3 3f 23 be
       0.038639165 -0.06607239 -0.3245596 -0.15942268
0001b0 71 19 2b be 49 0d a7 be fa 48 9c 3e c4 e9 51 be
       -0.16708924 -0.32627323 0.30524427 -0.20499331
0001c0 d8 09 43 3e 07 62 54 be aa 07 c0 bc bd f1 97 be
       0.19046724 -0.2074052 -0.023441155 -0.2967662
0001d0 d2 b9 63 bd 6c 21 03 3e 03 f3 cc 3d 7e 7a 2a 3e
       -0.055597134 0.12805718 0.10007288 0.1664829
0001e0 5b b1 ed 3c 30 de 6e bd c9 d2 5e be e4 25 03 be
       0.029015234 -0.058317363 -0.21760096 -0.12807423
0001f0 50 0e 9c bc a8 82 b9 be 1e 95 78 be 25 61 91 3d
       -0.019049793 -0.36232495 -0.24275634 0.07098607
000200 31 c7 ee be d4 5d 5b 3e c5 b3 7f 3e 17 a2 2a 3e
       -0.46636346 0.21422511 0.2497092 0.16663395
000210 bc 53 d5 3d 9c c5 88 be b1 9a 54 be 40 0d 99 be
       0.10416362 -0.26713264 -0.20762135 -0.2989292
000220 e3 e6 0e be 07 09 a8 3e 8d 18 99 be 61 3e 1d be
       -0.13955264 0.32819387 -0.29901543 -0.15355827
000230 08 6d a7 bc ad b5 37 be b2 60 65 3e f1 23 df bd
       -0.020437732 -0.17940398 0.22400168 -0.10895527
000240 1f a5 8b 3e ea 90 51 3d 0d e9 cf 3d a1 f4 48 3e
       0.27274415 0.05116359 0.10151873 0.19624569
000250 72 55 4b be ad eb b1 3e b7 fe d0 be 20 fc 3d be
       -0.19856814 0.3475012 -0.40819332 -0.1855321
000260 b6 df a3 3e 22 d6 3f 3d 12 09 59 be 65 38 11 3e
       0.32006615 0.046835072 -0.21194866 0.14181669
000270 86 90 b5 3d d8 65 51 3e 56 fd a9 be 53 55 11 3e
       0.08865456 0.20449007 -0.33201092 0.14192705
000280 e0 a8 79 bc 5c 01 fd bd 95 46 a4 bc 53 35 91 bd
       -0.015238017 -0.12353775 -0.020053187 -0.07090249
000290 d6 14 a1 3e 51 4f cd 3d 66 1a 27 be e5 78 40 be
       0.3146121 0.10024894 -0.16318664 -0.18796118
0002a0 2e 86 10 3e 31 6d 44 3e 74 40 8f 3d 6e ee 1e bd
       0.14113685 0.19182278 0.06994715 -0.038801603
0002b0 39 87 2d bc 11 6b 79 be 71 b1 38 3e 8f ad 64 3e
       -0.010591322 -0.24357249 0.18036439 0.22331832
0002c0 72 dd a7 3d 46 b0 85 bd 35 90 ed bb 65 01 95 be
       0.08196534 -0.06527762 -0.007249857 -0.29102626
0002d0 87 8c 48 be 55 1b 0e be 28 b5 9c 3e 0d 64 42 3c
       -0.19584857 -0.13877614 0.3060696 0.011864674
0002e0 33 d6 93 3e 03 a2 61 3e 58 70 82 be 56 54 90 3e
       0.2887436 0.22034459 -0.25476336 0.28189343
0002f0 ad 65 af bd e5 fb 66 be 16 26 16 3e ab 21 0a be
       -0.08564315 -0.22557028 0.14662966 -0.13489406
000300 51 cf ff 3d 5d 6d fc bd be a7 85 be 53 2f 54 3d
       0.12490714 -0.12325547 -0.2610454 0.051802944
000310 eb 33 19 3e 4c cd 64 bd e2 4b 37 3d fc 99 b5 be
       0.14961211 -0.05585985 0.044750102 -0.35469043
000320 18 e1 31 3e 9c 9f 0f be fe ae 4f be f8 4a 79 3e
       0.17371023 -0.1402573 -0.20281598 0.24345005
000330 38 9c 91 3e 44 12 cf 3d 26 b1 4a 3d 90 50 13 be
       0.28439498 0.10110906 0.04948535 -0.14386201
000340 f6 8e a3 be 79 a2 f4 3d fc f8 c3 3d 14 e4 e7 bd
       -0.31945008 0.11945052 0.095689744 -0.11322799
000350 46 6e 38 3e 11 b6 a2 3d 04 57 63 3e 78 c0 13 be
       0.18010816 0.07944883 0.22201163 -0.1442889
000360 0b e8 64 be 85 50 69 be ab 73 9d 3d a9 3b 5a 3e
       -0.22354142 -0.22784622 0.076880775 0.21311821
000370 ac e6 24 bd e3 77 91 bd 7f da 14 be 37 92 43 3d
       -0.04025905 -0.07102945 -0.14536475 0.047746863
000380 77 a7 91 3e 90 e4 c4 bb 29 a6 49 be b7 a1 a1 3e
       0.28448078 -0.006008692 -0.19692291 0.3156869
000390 b1 63 6a be 00 14 2e 3e 8e 07 60 3e 43 d5 07 3e
       -0.22889592 0.16999817 0.21877882 0.13264947
0003a0 73 e3 61 be 9c 61 0a 3e 18 d1 0b 3e cb bd e4 3c
       -0.22059421 0.13513798 0.13653982 0.027922532
0003b0 a3 99 d1 3d 94 f3 ad 3d d7 ed 05 be 95 76 62 3d
       0.10234382 0.084937245 -0.1307901 0.05528887
0003c0 5a 6a 15 3b e8 77 3e be e2 25 88 3e e2 b4 16 3d
       0.0022798986 -0.18600428 0.26591402 0.036793597
0003d0 78 59 81 bd 1a a2 90 bd 1c c1 32 bd 3a 8f 97 3e
       -0.06315893 -0.070621684 -0.043641195 0.2960146
0003e0 21 47 d3 bd af 79 9e bd d6 1d 00 be fd fe 46 be
       -0.10316301 -0.07738053 -0.12511382 -0.19433208
0003f0 99 5d 58 3d 37 ac 19 3c 2f 78 76 3e 84 15 f9 3e
       0.052823637 0.009379438 0.24069284 0.48649228

mlp1.0.bias f4 [150]
000000 82 0b b5 3d 0a 61 a4 be cf 26 75 be 19 f9 1b 3c
       0.088400856 -0.32105285 -0.23940586 0.009519839
000010 03 a2 b0 be 1b e5 3a bd dd 5e 66 3e 6d d7 1d 3e
       -0.34498605 -0.04562865 0.22497125 0.1541421
000020 0e bb 77 3e 1f 69 ff bd 39 0d 32 be 40 20 41 3e
       0.2419245 -0.12471222 -0.17387857 0.18859959
000030 c7 b4 13 3e 28 5e 54 be c0 04 8b be 3d 7b 2a 3e
       0.1442443 -0.20739043 -0.2715206 0.16648574
000040 7a 75 1a be 91 19 0f 3e 09 5b 57 bc 7b a4 a8 be
       -0.15083876 0.13974597 -0.013144263 -0.3293799
000050 2c aa bc bd 21 72 35 3d 5f 5c 8f 3c 7a 77 8d be
       -0.09212145 0.044298295 0.0175001 -0.27630216
000060 35 d7 66 bd be 26 28 3e 04 dd 73 be 6c f9 7c 3e
       -0.05635758 0.16421029 -0.2381478 0.24704522
000070 dd 5e 5c 3e 6b 4f 29 3e 09 cf 90 3e ff 18 1e be
       0.21520562 0.16534202 0.28282955 -0.15439223
000080 3f 02 01 be 60 78 0d be cf 00 3a be 05 6e 95 be
       -0.12598513 -0.1381545 -0.18164371 -0.291855
000090 45 03 22 be ed 46 47 3e a1 eb 47 bd c7 eb 97 3d
       -0.1582156 0.1946065 -0.048808698 0.07418018
0000a0 15 91 bf be 1b af 92 be c4 0e 74 be 7c 17 c8 bd
       -0.37415376 -0.2864922 -0.23833758 -0.09770104
0000b0 69 6c 67 be c5 5c 6b 3e 77 d1 65 be a4 73 18 3d
       -0.22599949 0.22984608 -0.22443186 0.03721966
0000c0 a4 03 6a 3e 50 3e f2 3d 51 e5 27 bd 80 f3 44 3e
       0.22852951 0.118282914 -0.040990178 0.19233513
0000d0 9d 9f 57 be 24 ca aa 3a f2 28 1a be 54 61 22 be
       -0.21056981 0.0013030213 -0.15054682 -0.1585744
0000e0 59 52 0f 3c 7f 24 65 be a9 63 92 bd e7 c3 e5 3b
       0.008747661 -0.22377203 -0.07147915 0.007011879
0000f0 1a fa 88 3e b5 4a 68 be a4 db ce bc b3 13 2c 3e
       0.26753312 -0.22684748 -0.025251217 0.1680439
000100 91 82 fe bc 6b 9f 4c 3d 89 6c 12 3e da 9b e2 3c
       -0.031068118 0.04995672 0.14299215 0.027662206
000110 85 68 24 3e 82 04 21 3e 46 31 37 3e 4c da 56 be
       0.16055496 0.15724376 0.1788989 -0.20981711
000120 00 70 8f 3d ee b1 5a 3e c9 64 83 3e cc dc 3e be
       0.07003784 0.21356937 0.2566283 -0.18638915
000130 26 95 91 be 46 ca 15 be f2 a6 23 be 9f 6e 95 be
       -0.28434104 -0.14627942 -0.15981653 -0.2918596
000140 b4 15 3f 3e 35 76 a5 3e c4 0d 25 be e2 f7 a3 be
       0.18660623 0.32316747 -0.16118532 -0.32025057
000150 2f 9c 86 bd 1e cb 28 be 99 8d 96 bc 4c bc 5f be
       -0.065727584 -0.16483733 -0.018378066 -0.21849173
000160 22 fc fd bd 51 b9 2d 3e 95 8b 61 be ad 5d 55 3e
       -0.12401606 0.16965224 -0.22025903 0.20836516
000170 aa 58 7c 3e 05 f6 8d bd 69 0d 86 3c 03 9c 8a bc
       0.24643198 -0.0693169 0.016363816 -0.016920095
000180 fe 3d 1f 3e 6b 55 8a be f1 77 0c 3e 02 51 76 be
       0.15550992 -0.27018294 0.13717629 -0.2405434
000190 37 92 82 3e 5c 14 92 be a8 71 96 bd 7d e5 29 bd
       0.25502178 -0.28531158 -0.07345897 -0.041478623
0001a0 04 47 d7 3d a8 7e 75 3e f5 2e be be 3a 90 a0 3e
       0.10511592 0.23974097 -0.371452 0.31360036
0001b0 c1 b6 a9 be d2 87 c2 3d 21 02 3a 3e fb 02 31 be
       -0.33147243 0.09498562 0.18164875 -0.17286293
0001c0 7f b9 85 be 16 04 ab 3d 1b 01 2c be 91 3b 80 3d
       -0.26118085 0.08350389 -0.16797297 0.062613614
0001d0 e3 f3 86 bd 90 fb 8d be 69 5a 5e 3e 7f fb 44 3e
       -0.065894864 -0.2773099 0.21714176 0.19236563
0001e0 f8 91 29 3d 44 8b 81 3e eb af 9d be a7 2b 60 3e
       0.041398972 0.25301564 -0.30798277 0.21891652
0001f0 25 c3 c7 bd a8 32 80 3d 16 73 43 3e f6 85 6a 3e
       -0.09754018 0.06259662 0.1908687 0.22902665
000200 ed 58 3f 3e da c1 ba 3d d4 59 11 be 4a 29 0f be
       0.18686266 0.091190055 -0.14194423 -0.13980594
000210 8b 47 b7 be 0f 78 97 bd 85 77 ab 3d ef 44 f2 3d
       -0.3579677 -0.07395946 0.08372406 0.11829554
000220 b2 92 0c be 87 d0 41 3e 52 6f 45 be 66 68 4f be
       -0.13727835 0.18927203 -0.19280747 -0.20254669
000230 02 71 1d 3c 47 59 9b bd 96 3d ea 3d 7a 88 a8 bc
       0.009609463 -0.07585388 0.11437528 -0.02057289
000240 f2 2b de bd b7 64 2a 3e 55 fb d2 3b b4 f3 a6 3d
       -0.10848226 0.16639982 0.0064386525 0.081519514
000250 c0 b4 44 be 4e 2b ae 3d
       -0.19209576 0.085043535

mlp1.2.weight f4 [100, 150]
000000 b7 a0 01 bd d9 27 c5 bd 85 71 34 3d 80 1b 7a 3d
       -0.03164741 -0.09626741 0.044053573 0.061061382
000010 07 f6 b1 bd 63 e7 4f 3d 66 e7 81 3d ad 89 85 bc
       -0.08689504 0.050757777 0.06342964 -0.016301
000020 e2 06 05 3d ad 5a 99 3d ce e0 92 3d ff 7d ad 3d
       0.032477267 0.07487998 0.07171784 0.084712975
000030 42 c9 55 bd e8 cf 65 bc 02 8e c1 bd 92 92 f0 bc
       -0.052193888 -0.0140266195 -0.09450914 -0.029366765
000040 46 15 54 bd b5 4a bd bc 5b 03 22 3d 8a 7c 28 bd
       -0.0517781 -0.023106912 0.03955398 -0.041134395
000050 19 b3 b0 3d 31 7d 98 3d d7 46 1a 3c 36 94 fd 3d
       0.0862791 0.07445753 0.009416304 0.123817846
000060 86 0b b5 bc da 09 8e 3c 50 01 4e bd c0 f8 3c bd
       -0.022100221 0.017338682 -0.05029422 -0.046135664
000070 7c 9e 6f bd b6 ec 11 bd ff 0a bb 3d 14 42 b3 bc
       -0.05850075 -0.035626136 0.09132957 -0.021882094
000080 6e 2a 0f bb 31 48 2d 3b d2 56 8b 3d 77 ee 74 ba
       -0.0021845358 0.0026440735 0.06803669 -0.00093433954
000090 f3 ab 2c 3d 8a ca 24 bd 6a 20 12 3d c6 35 17 bc
       0.04215617 -0.04023222 0.035675444 -0.009229129
0000a0 27 f4 1d bd 4c 5b 58 3d e3 78 c4 bd 60 ee 83 3c
       -0.03856292 0.052821442 -0.0959337 0.016104877
0000b0 fe 9b 84 bd 00 5f f5 bc b2 b7 81 bd fb 64 01 bc
       -0.06475066 -0.029952526 -0.06333865 -0.007897611
0000c0 89 57 43 3d c8 69 2c 3c 0c ed 24 3d c9 2a de 3c
       0.047690902 0.010523267 0.040265128 0.02712001
0000d0 a3 1c 9b 3d a6 02 90 3d 7a de 86 bd 84 7b f4 3c
       0.075738214 0.07031755 -0.06585403 0.029844053
0000e0 b4 f8 27 3d 6d 48 cf 3c 07 11 b6 bd fb 4d 61 bd
       0.041008666 0.02530309 -0.088899665 -0.05500601
0000f0 b4 af bf 3d 6c 0b 21 3d d5 b9 aa 3d ff 7b 7e bd
       0.093596846 0.039317533 0.08336226 -0.06212997
000100 66 8e c2 3b 63 23 46 3c 8a 1c 04 3d 43 d5 0c bd
       0.0059373854 0.012093398 0.03225378 -0.03438307
000110 39 9b 8c 3c 4d e2 68 3d f6 67 a0 bb bb 78 85 bd
       0.01716386 0.056856442 -0.0048952056 -0.06517168
000120 73 c9 64 bd f0 35 c4 bb 1b 56 af 3c 96 1a 34 bd
       -0.05585618 -0.005987875 0.021403363 -0.043970667
000130 3b 5e ca bc 1a 60 22 3a 78 06 30 3d ab 41 6d 3d
       -0.024703136 0.000619413 0.04297492 0.057923954
000140 c3 e3 ff bc 21 61 4f 3b f6 8c 2f bd 45 6b 8e bd
       -0.031236535 0.0031643587 -0.04285904 -0.06954054
000150 29 1e 6a bd 7d 3a 2c bd cd 27 2a bd 96 aa 33 bd
       -0.05715767 -0.042047966 -0.041541863 -0.043863855
000160 69 c1 f0 bb b2 fe 35 3d 57 20 31 bc c3 e5 e1 3c
       -0.007347275 0.04443235 -0.010810933 0.02757538
000170 1e 44 22 3d 0d ec 5e 3c f1 19 4a 3d da 92 6a 3d
       0.039615743 0.013606084 0.049341146 0.057268955
000180 57 d0 d8 3c 8b b3 bd bd bc d7 93 bb 2a 23 9f bd
       0.026466532 -0.09262761 -0.0045118015 -0.07770379
000190 7d db ac 3a b3 d8 8d 3d 75 60 7d 3d 51 ef 17 3d
       0.0013187971 0.06926098 0.061859567 0.037093464
0001a0 14 9a b2 3c 7b b2 05 3d b3 6c 2f bd e6 30 c7 bd
       0.021801986 0.032640915 -0.042828273 -0.097261235
0001b0 76 43 d6 bd 6d fd 83 bd 37 2c 8c 3d 3f fd 52 bd
       -0.10462086 -0.064448215 0.06844371 -0.051511046
0001c0 69 a7 23 bd 70 c4 84 bd ec 99 2e bd e8 3f ca bc
       -0.039954577 -0.0648278 -0.04262726 -0.024688676
0001d0 3c aa 83 3d 2b 4d c9 bd 5a 00 08 bd 1c 35 c5 3d
       0.06428954 -0.09829172 -0.03320346 0.096292704
0001e0 dd 52 26 bd 11 89 b4 bc 3c c7 ae bd d3 e4 81 3d
       -0.04060637 -0.022038015 -0.08534095 0.06342473
0001f0 45 e4 73 bc 5d 6d a2 3d a9 6d ec 3d f6 dc b8 bd
       -0.014885967 0.07931016 0.115443535 -0.0902652
000200 c5 54 e3 3c b2 31 c1 3a b7 61 dc 3c 7e 79 f4 3c
       0.027750382 0.0014739542 0.026902063 0.029843088
000210 b6 8d ae bb 53 87 d4 bc ed 24 1e 3d 5e 20 97 3d
       -0.005326952 -0.025943434 0.038609434 0.073792204
000220 d0 33 0e 3d 08 6f 9a bd ed bc 28 3d 4a e9 ac bd
       0.03471738 -0.07540709 0.0411958 -0.08442934
000230 37 71 8f bd 8b 20 66 3d dd a4 9b bd d7 1e 8f 3b
       -0.07004016 0.05618338 -0.075998046 0.00436769
000240 37 ce 81 bc 5a 5c c3 3b cf 5a 41 bd 41 57 cb bd
       -0.015845401 0.005961937 -0.047205742 -0.09928752
000250 b2 33 c8 3c 82 28 09 3b 6c de 46 bd 58 6d b0 3c
       0.024438713 0.0020928686 -0.04855196 0.021536514
000260 2d bc a3 3d 95 df e4 3a 0f ab fb bb 3f 98 87 3d
       0.07994876 0.0017461652 -0.007680304 0.066208355
000270 5e a4 0a bd 64 ff 44 bd d9 32 db 3b e6 43 09 bd
       -0.03384816 -0.048095122 0.006689411 -0.03351202
000280 1f f9 0d 3d d5 62 12 bc 24 35 b5 bc 1f 8f 61 3c
       0.03466141 -0.008934696 -0.022120066 0.013767033
000290 f2 e5 97 bd e4 f3 ee 3c 02 9c 9f bc 0a c5 b6 bd
       -0.074169055 0.02916903 -0.01948357 -0.08924301
0002a0 9a 49 2b 3c c6 8a c2 3d 11 49 e4 bc 14 18 14 bd
       0.01045456 0.09499125 -0.027866872 -0.036155775
0002b0 de 92 00 bd 9d 84 76 3d 60 81 38 3d bf ca a9 3b
       -0.031390063 0.060185064 0.045045257 0.00518164
0002c0 2e d8 29 3d 17 76 82 3d 78 c5 e1 bd 10 91 9c 3c
       0.04146593 0.0637018 -0.11023992 0.01911214
0002d0 3b 79 aa 3b 5b a7 82 bb 11 08 54 bd e8 3f 23 3d
       0.00520244 -0.0039872355 -0.051765505 0.039855868
0002e0 0d 27 2a bc 17 b8 64 3d 7e 1f 15 3d 21 79 b0 3c
       -0.010385287 0.055839624 0.036406986 0.021542134
0002f0 3d 52 65 3c 2c a0 20 bd b1 51 54 bd ff 3e 73 bd
       0.013996658 -0.03921525 -0.05183572 -0.05938625
000300 69 77 91 bb 1a 89 9e bd 56 fc 6f bd 3d c7 a1 bb
       -0.0044392836 -0.07740994 -0.058590256 -0.004937081
000310 d3 a5 9e bc 2c 0e b6 bd 69 a6 06 bd aa aa a8 3d
       -0.01936618 -0.08889422 -0.032873545 0.082356766
000320 f6 ec 8d 3d de 9d 50 ba 62 32 a6 3d bd a9 9f 3d
       0.06929962 -0.00079580944 0.081150785 0.07796047
000330 1c 0c cc ba 24 ed 93 3d b2 36 58 3d 8b 36 3a 3c
       -0.0015567574 0.07222965 0.052786537 0.011365543
000340 eb 3b 5a 3d 31 2e 5c bd 48 5a 01 bc 56 ba 54 bd
       0.0532798 -0.05375499 -0.00789506 -0.051935516
000350 07 49 ca 3d 36 c6 52 3d 85 b6 f8 bc 54 10 03 3d
       0.0987721 0.05145856 -0.03036047 0.031997994
000360 cc 32 5e 3d 9d a6 c6 bc 9a 3a 9b bd ba 95 cb bd
       0.054247662 -0.02424937 -0.07579537 -0.099406675
000370 73 92 c8 3d 08 cd 84 3d fa a2 bd bc f0 63 03 be
       0.09793558 0.06484419 -0.023149002 -0.12831092
000380 32 18 54 3d 80 0a 82 bd 43 21 57 bd 29 e7 ea 3b
       0.051780887 -0.06349659 -0.052521955 0.0071686697
000390 06 a2 08 3c d6 74 3e 3d da d0 04 bc 87 25 26 3d
       0.008339411 0.046498142 -0.008106435 0.040563133
0003a0 7e 89 a7 3d c1 f4 07 3d 95 d9 00 bd dc de df 3c
       0.081805214 0.0331924 -0.031457502 0.027327947
0003b0 b3 a0 52 bd c4 2c 84 bd ba 36 a1 bd a9 f4 ed ba
       -0.051422786 -0.06453851 -0.078717664 -0.001815458
0003c0 ee 68 54 3d 5c 77 39 bc 6c 33 04 bd 63 9c 42 3d
       0.05185788 -0.011319961 -0.032275602 0.047512423
0003d0 f0 96 0d 3d b4 c1 cf 3c 47 74 d9 bc b6 d7 5f 3b
       0.034567773 0.02536092 -0.026544703 0.0034155673
0003e0 7b 22 12 3d a2 16 b2 3a 45 ba 40 bd 6e 0d 16 3d
       0.035677414 0.0013587067 -0.04705264 0.0366339
0003f0 e3 a1 43 3d 29 ce 08 3d e5 a8 2f 3d ea e9 77 3d
       0.04776181 0.033399735 0.04288568 0.060525812

mlp1.2.bias f4 [100]
000000 b4 bc c1 3d 3e 37 dd bd 0c 02 a6 3c 8b 4d b9 3c
       0.094598204 -0.10801552 0.020264648 0.022619983
000010 fd b0 b7 bd 8d 95 a0 bd a5 94 16 3c cf 55 2f 3d
       -0.08969305 -0.078410245 0.009190713 0.042806443
000020 09 ac 5d bd 6f 62 e2 3d e8 32 c6 3d 5e d9 a3 bc
       -0.054119144 0.11053931 0.09677678 -0.02000111
000030 14 34 a5 3c ee e1 12 3d 81 91 a3 3d ee fc 9a bd
       0.020166434 0.035859995 0.07986737 -0.07567774
000040 a3 b8 52 bc 83 5e 1b 3e 2e e2 2f bd df ad 48 3c
       -0.012861404 0.15172772 -0.04294031 0.012248485
000050 7f 67 fc 39 98 07 b3 bd f4 e1 51 3e fc 21 57 3c
       0.00048142296 -0.08741683 0.2049635 0.013130661
000060 a5 46 20 3a 7d 67 a7 3d 68 ce ab 3d df 3b 08 3e
       0.00061140425 0.08174036 0.08388978 0.13304089
000070 31 18 04 bd 8a 9c 10 3b e3 eb 5a 3c 95 99 8b 3c
       -0.032249633 0.002206596 0.013361904 0.017041007
000080 7d 2b 6b bd 13 00 e9 bd 1f 34 bf 3d e3 a2 9d 3d
       -0.05741452 -0.11376967 0.09336113 0.07697084
000090 5c 48 33 3d ea fc 56 3d 1f 33 f6 bd 2b 4e 6b 3d
       0.04377018 0.05248729 -0.12021469 0.057447594
0000a0 75 78 92 3d 58 c8 82 3c b2 53 99 3d f3 20 64 bd
       0.071518816 0.015964672 0.07486667 -0.055695485
0000b0 45 ee d2 3c 34 2f 0b 3e 37 e9 c2 3c 36 ad 0d be
       0.025748381 0.13592225 0.023792846 -0.13835606
0000c0 5c 64 1e 3d 73 26 1a bb 8a 5d d4 ba 88 12 4c 3c
       0.03866993 -0.0023521453 -0.0016202193 0.01245559
0000d0 15 bf b1 3c 60 48 8c bd 00 66 8d 3d be 63 b1 bd
       0.02169756 -0.06849742 0.069042206 -0.086616024
0000e0 5d f7 07 3b da b6 47 bc 98 4e 1b be 74 30 6f bd
       0.0020746805 -0.012189591 -0.151667 -0.058395818
0000f0 1b 6d af bb 18 b8 df bd d1 da 1d bc 3d 1e b1 3d
       -0.0053535826 -0.10923785 -0.009634689 0.086483456
000100 3d a7 62 3d d3 fb 86 3d 1d 72 86 3d ad 26 42 3d
       0.055335272 0.065910004 0.06564734 0.047400165
000110 09 8f 8d 3d f0 8e cf bc 88 de 0e 3e 56 fd e5 3c
       0.069120474 -0.025336713 0.13952076 0.028074902
000120 00 3c c2 bc 7b 07 f4 bd c5 84 87 3d 79 73 5c bb
       -0.02371025 -0.11915489 0.06617121 -0.0033638163
000130 c8 88 83 bd cb 73 20 3e 08 bd b4 3d 06 78 cd bd
       -0.06422573 0.15669172 0.08825117 -0.10032658
000140 22 37 af bc f9 92 9e bd dc d2 04 3d 41 18 9d 3d
       -0.021388594 -0.077428766 0.032427654 0.07670642
000150 50 49 4c bb 83 33 21 3d e2 6a 52 bd 4a 17 18 3e
       -0.0031171627 0.039355766 -0.051371463 0.14852634
000160 f3 1d cc bd e2 ce de bc ea 85 a8 3c 6f 98 fb bc
       -0.0996665 -0.027198259 0.020571668 -0.030712334
000170 70 f3 b0 bd 1d ad 9e 3d 3a b4 24 bd 5f 1f a6 bd
       -0.08640182 0.077478625 -0.04021094 -0.08111452
000180 be 3e f0 bc 4c 81 5d bc 4e b7 ad 3d 60 9b 95 3d
       -0.029326793 -0.013519596 0.08482228 0.07305026

mlp2.0.weight f4 [100, 100]
000000 b6 e1 e4 3d c6 ab 8d bd ff 33 0e be 70 91 f3 3d
       0.111758634 -0.06917529 -0.13887022 0.118929744
000010 61 97 d8 3d 78 62 a4 bc d6 77 03 bd 07 3e f1 3c
       0.10575748 -0.020066485 -0.032096706 0.029448522
000020 e5 46 64 ba 9c e1 ad 3c 75 ae 7a 3d 6e 76 c7 3d
       -0.0008708074 0.021225743 0.06120153 0.097393855
000030 81 a4 80 3d 14 da b1 bd f8 b3 08 3d 02 8f 0a 3d
       0.06281377 -0.08684173 0.033374757 0.03382779
000040 c0 ad 62 3c cc 29 33 bc 8c 14 b7 3d d4 97 6a 3a
       0.013835371 -0.010935258 0.08939466 0.0008949016
000050 64 a7 b2 bb f0 85 66 3d 8f 64 e5 3c 33 32 9f bd
       -0.0054520834 0.056280077 0.028002052 -0.077732466
000060 97 02 97 3d 5d 04 c9 3d 03 5b ae 3d dc dd 94 3d
       0.07373541 0.09815285 0.08513453 0.07268879
000070 c0 c8 ce bc ad 46 4a 3c 7b 2c 6f 3c ee 88 42 bd
       -0.02524221 0.012345952 0.014598007 -0.047493868
000080 ef cf 52 bc a5 59 05 3e 57 98 d6 3d 99 e3 d8 bd
       -0.012866958 0.13022478 0.10478275 -0.10590286
000090 ba 97 a8 3d b4 48 b5 3b 52 ec 8d 3d 86 66 79 3c
       0.082320645 0.0055323485 0.0692984 0.015222197
0000a0 a5 08 89 bd 4d 2c 27 bd 4e 17 80 bd b9 1b f7 3b
       -0.06691102 -0.040813733 -0.06254445 0.0075411466
0000b0 18 55 7f bd b4 63 55 3d a1 e3 33 bd 15 b2 94 bd
       -0.06233701 0.052097037 -0.043918256 -0.07260529
0000c0 fb 3a 9a 3d 00 ec ab 3c 7b 49 9d bc a4 c8 0f bd
       0.07530781 0.020986557 -0.019200077 -0.035103455
0000d0 3b 0c c1 3d 1f c1 9b bd 9c 18 3e bd ca f7 2c bd
       0.09426161 -0.07605194 -0.046410188 -0.042228498
0000e0 d7 9b a7 bd 00 c1 9b 3d 82 6d d4 3c 96 72 3d bd
       -0.08184021 0.07605171 0.025931124 -0.046251856
0000f0 1d a5 80 3d 6d eb 04 3e a5 64 e4 3c 61 0b 98 3d
       0.06281493 0.12980433 0.027880022 0.07424045
000100 26 20 d9 3c 0b d5 ae 3d 8f 16 84 bc 2a 7b 81 bd
       0.026504587 0.085367285 -0.016124038 -0.0632232
000110 a6 83 93 3c a5 4b 95 bd ba 94 e1 3b e2 5f bc 3d
       0.01800711 -0.07289819 0.0068841847 0.09197976
000120 10 92 4d bd 99 ff 72 bc 87 1d 30 bd f8 ca 71 3d
       -0.050188124 -0.014831447 -0.04299691 0.059031457
000130 b8 e5 a6 bd 74 67 17 3d e9 89 2e 3d 9e 12 8a 3d
       -0.08149284 0.036963895 0.04261199 0.06741832
000140 34 eb ad bc 63 15 2e bd ab cb b9 3d f6 82 0b bc
       -0.021230318 -0.042500865 0.0907205 -0.00851511
000150 39 87 e5 bd d9 c4 94 3d f9 fd 83 bd b8 2c 70 bd
       -0.11207432 0.07264108 -0.06444926 -0.058636397
000160 40 f4 f2 3d 60 81 21 3d 09 96 a9 bb 5c bd c4 bd
       0.11862993 0.039430022 -0.0051753563 -0.0960643
000170 28 2c a8 bd 3c eb 06 3d 89 be 89 bd 29 74 05 3e
       -0.08211547 0.03293918 -0.06725795 0.13032593
000180 98 82 54 3c fa dc dc 3d 0e a5 a8 3d 3c ec 41 bd
       0.012970589 0.107843354 0.08234607 -0.04734443
000190 6e 58 5d bd 93 ac 2b 3d 28 a9 95 bd 6a e8 62 bd
       -0.05403941 0.041912626 -0.073076546 -0.05539743
0001a0 47 77 72 bc 36 9e 2c 3d 05 e3 a1 bd f8 2d a9 3d
       -0.014798946 0.04214307 -0.07904629 0.08260721
0001b0 85 aa df 3c 91 cd ac bc 35 32 e8 3c e2 7d bb bd
       0.02730299 -0.021094115 0.028344253 -0.091548696
0001c0 ab 4f 83 3d cf 92 b2 3c 69 56 81 3d d0 52 a8 3c
       0.0641168 0.02179852 0.063153096 0.0205473
0001d0 fd 4f 91 3a c6 f0 a8 3d 6f 44 8f bc 93 03 46 bd
       0.001108646 0.08249049 -0.017488686 -0.048343252
0001e0 5b 6c 27 bd 54 9f 91 bd 4f 9d 9c bd ab ed 7d 3d
       -0.04087482 -0.071104676 -0.07647192 0.061994236
0001f0 fb 9a 7c 3c c0 d2 d8 3d e1 b0 8b bd ad 4d 8a 3d
       0.01541781 0.10587072 -0.06820846 0.06753097
000200 f9 aa 7a 3d 3f 4e b2 3d 89 b1 7e 3d 75 bb 8c bc
       0.06119821 0.087063305 0.06218103 -0.01717923
000210 f0 bc 83 3d 82 a4 9f 3d 40 26 91 3d 02 ee b5 bd
       0.06432521 0.07795049 0.07087374 -0.08883287
000220 41 fd 11 bd 5e 23 5a bc 7e 73 ac 3d 1f 36 8e bb
       -0.035641912 -0.013314096 0.08420466 -0.004339948
000230 fe 1f 30 3d 6d d2 6c bd bd a9 b3 b9 f4 95 19 3d
       0.04299926 -0.057817865 -0.00034268005 0.037496522
000240 d0 60 f1 bd 3f c4 7c bd 19 e2 91 3d 65 ba 5f 3c
       -0.11786044 -0.061710592 0.07123203 0.01365528
000250 cf 35 fe bc dd 44 42 bd 9c 2f c6 bd df 9b 0f bd
       -0.031031517 -0.047428954 -0.096770495 -0.03506076
000260 5f c9 70 3d b7 47 f7 bc ee 05 33 bd 36 4e 9b 3d
       0.058785792 -0.030185563 -0.043706827 0.07583277
000270 b9 1e ad bd e8 2d 74 bc 5a cd 55 3d 18 f5 99 bc
       -0.084531255 -0.014903523 0.05219779 -0.018793628
000280 6e ff bf 3d 1b 3d 76 bd da 69 72 3c 68 b5 a4 3d
       0.09374891 -0.06011687 0.014795745 0.08042413
000290 6d 22 81 3d 93 18 bf 3d ce 9f cd 3d d1 6b 22 3d
       0.06305394 0.09330859 0.10040246 0.039653603
0002a0 03 1d a0 bc 7a d2 02 bd b9 c5 25 3d ff e5 b7 3c
       -0.019545084 -0.031939007 0.040471766 0.022448538
0002b0 74 41 d3 3d c4 fb 0a bd 25 d7 db bb 62 cb a2 bd
       0.103152186 -0.03393151 -0.006708997 -0.079489484
0002c0 5b 29 57 3d 6b 8f 77 3d 40 e8 86 3b 47 f8 ac bd
       0.052529674 0.06043951 0.004117042 -0.08445793
0002d0 40 de 2c 3c e7 c4 49 bd bb 74 7c 3c be c1 44 3c
       0.010551035 -0.049260046 0.01540869 0.012009082
0002e0 dd 3c aa 3d 5f 5f 50 bd a0 05 88 3d 68 4a 46 bc
       0.0831239 -0.050872203 0.06641698 -0.012102701
0002f0 0a 2a d9 3d 4d ac 90 3d 1b bf 54 3d 0b 07 98 bd
       0.106037214 0.07064114 0.051940065 -0.07423218
000300 33 fe d3 3d 03 e5 83 3c 81 b8 25 bd aa 6d 9a 3d
       0.10351219 0.016100412 -0.04045916 0.07540448
000310 1c 54 c1 3d 7e 7a 27 3c 1b ce 8f bc 0c 1e 50 bd
       0.09439871 0.0102220755 -0.017554333 -0.050809905
000320 80 b6 d3 3c 95 fb c6 3c 92 f6 ef 3c dd 0f db bd
       0.025843859 0.024289886 0.029292379 -0.10696385
000330 15 36 46 3d d8 06 4a bd 51 aa a1 3d 97 71 b2 3c
       0.04839142 -0.049322933 0.078938134 0.02178268
000340 3e 3a 75 bd ab e5 62 bd 1e ab 0c 3e 75 3c b7 39
       -0.059869997 -0.05539481 0.13737151 0.00034949524
000350 ae 1f 65 bd 13 62 f4 3c 41 8b b3 3d dd 55 9e bd
       -0.055938415 0.029831922 0.08766795 -0.07731221
000360 be d5 71 3d f0 7d 35 bd cb 3d cb 3c 07 e2 c0 3c
       0.05904173 -0.044309556 0.024809739 0.023545278
000370 f9 0d cd bd 3e 41 92 3d 31 95 8f 3d e8 89 c6 3d
       -0.10012431 0.0714135 0.07010878 0.09694272
000380 5c a8 ef 3d 6a 4e 8b bd fb 22 81 bd 31 dc 88 3d
       0.11702034 -0.06802066 -0.063055 0.06682623
000390 5e ba 05 3d 85 80 ae bd 71 1c 0a bd 25 17 62 3b
       0.032648437 -0.08520607 -0.03371853 0.0034498658
0003a0 a1 13 c8 3c 0a 3d 51 3b 7c 3c a0 3d 6e 71 2d bd
       0.024423422 0.0031927251 0.078240365 -0.042344503
0003b0 10 3b 51 3d 0c 49 e8 bd f9 27 57 bc c3 e9 50 3d
       0.051081717 -0.113420576 -0.013132089 0.051004183
0003c0 99 cf dc bd 55 a6 b8 bd 85 85 a6 3d 89 bf d1 bd
       -0.107817836 -0.090161 0.081309356 -0.102416106
0003d0 53 7d d4 bd 0b ca 06 3d c7 49 5d bc 51 38 8e 3c
       -0.10375466 0.032907527 -0.013506359 0.017360838
0003e0 9e c5 a4 bd 4b fa a6 3d 94 be c8 3d c5 20 11 3b
       -0.08045505 0.08153208 0.09801975 0.0022144776
0003f0 9f 8a 91 bd 2c fd ed bd 0d 47 98 3c 1d 36 0f bb
       -0.07106518 -0.11620554 0.018588567 -0.0021852322

mlp2.0.bias f4 [100]
000000 f7 9f 01 3e b8 14 3d 3d 4a a1 b8 bb 0b 91 aa 3c
       0.12658678 0.046162337 -0.0056344615 0.020821115
000010 26 09 df bd c0 7b 9f 3d 47 0f 82 bd ce 38 13 3e
       -0.10890417 0.07787275 -0.0635057 0.14377138
000020 56 37 96 bd be 88 ba bb 7d 45 c3 3d e2 c1 0b 3d
       -0.07334773 -0.0056925705 0.09534738 0.034120448
000030 89 16 8e 39 81 b2 ff bd 57 09 ad bd 6a 5c bf bc
       0.0002710114 -0.12485219 -0.08449047 -0.023359496
000040 3a 48 0f 3d bb 0d aa bb 57 00 b7 bd be 06 a5 3c
       0.03498099 -0.005189625 -0.08935612 0.020144816
000050 0f 62 c8 3c 30 aa a6 3d 83 f0 8e 3d f3 a6 70 3d
       0.02446082 0.081379294 0.06979468 0.058752965
000060 ff 8c 55 3d 09 6e 2a 3d d9 62 c2 3c f1 05 0a be
       0.052136417 0.041608844 0.023728775 -0.13478829
000070 52 38 7b bd 5a 6f b4 bd fe 72 1d bc ad 3b 08 bc
       -0.061333008 -0.08810301 -0.009609936 -0.008315009
000080 9a b5 a5 3d 80 fa f6 bc 00 09 0f ba 01 d7 cd 3c
       0.080912784 -0.030148745 -0.0005456358 0.025126936
000090 e4 f2 f3 3c de 49 6b bd c7 9d b6 3d c2 47 59 bc
       0.029778905 -0.057443492 0.089168124 -0.013261737
0000a0 f5 aa 9f 3d 3d d4 17 bd c5 48 aa 3b 2c af 1c 3d
       0.07796279 -0.03706764 0.005196663 0.038252994
0000b0 41 da 89 bd 93 93 e6 3c 1c 45 9f bd 24 49 d4 bd
       -0.06731082 0.02814654 -0.077768534 -0.10365513
0000c0 61 ce 5b bd c9 34 6f 3d bd 5d c4 bd 1a e9 11 bd
       -0.053663615 0.05839995 -0.09588192 -0.035622694
0000d0 a3 c5 ad bc 59 d8 b3 3d 8c ed 22 3d 6f ba 8e 3b
       -0.021212405 0.087814994 0.039777324 0.0043557207
0000e0 94 10 8d 3c a2 7b ee 3d c2 09 63 bd ea 2b de bc
       0.01721982 0.11644675 -0.055429228 -0.02712055
0000f0 41 d8 42 3d 88 fd 98 3d ee 29 4b 3e 40 bd 0b bd
       0.047569517 0.07470232 0.19840214 -0.03411603
000100 4e fe 0e 3e 21 30 8a 3d 0a d0 e7 bd b6 f6 9c bc
       0.13964197 0.06747461 -0.11318977 -0.01916061
000110 32 22 e6 3b 40 f8 0f 3e 34 9a d9 bc 9f 7b 1e 3e
       0.0070231194 0.14059544 -0.026562788 0.15476845
000120 f3 a4 94 bd 93 dd 14 3e e7 ba c5 bd 24 82 cc bd
       -0.07258024 0.14537649 -0.096547894 -0.0998576
000130 e7 78 0c 3e 2e fb f8 3d d4 cb cd bd 4a c7 fc bc
       0.13717996 0.12157284 -0.10048643 -0.030856747
000140 7f 0a bd 3d c9 da ab bd 0c 08 89 bd 65 bb 14 be
       0.092305176 -0.08391339 -0.06690988 -0.1452461
000150 f3 36 11 3e 41 04 ab 3c e9 0d 83 3b b7 10 04 be
       0.14181118 0.020876052 0.003999461 -0.12897001
000160 04 c8 25 3d 30 3b 92 3d 07 d1 be bc 6a 8d e9 bd
       0.040473953 0.07140195 -0.023293031 -0.11403926
000170 68 ec 0d 3e ef 51 0c bd ec 1b b5 3d ee fd b7 3d
       0.13859713 -0.034257825 0.08843216 0.0898398
000180 d9 27 1e bb 4e 92 61 3d 4f e0 2a 3d fd 73 84 bc
       -0.0024132638 0.055071168 0.041717824 -0.016168589

mlp2.2.weight f4 [50, 100]
000000 71 da 5f bd 0e 71 09 bd 10 b8 ef 3d bd d3 9b 3d
       -0.05465168 -0.033555083 0.11705029 0.07608745
000010 d6 a8 e6 bc 3a 43 21 bc a5 78 68 3d 4c fb 19 bc
       -0.02815668 -0.009842688 0.05675568 -0.009398293
000020 23 1d c2 39 33 3b 2d bc 60 13 ec 3c 8b a6 14 bd
       0.00037024272 -0.010573196 0.028817832 -0.03629164
000030 47 5a 84 3d e9 79 9e bd bd 00 6d bd 19 83 c5 bd
       0.064625315 -0.07738096 -0.057862032 -0.096441455
000040 bd 3c 43 bd 83 c1 89 bd e0 20 b0 bd 20 df d2 bd
       -0.047665346 -0.067263626 -0.086000204 -0.10296464
000050 4b d9 fa 3a 0d aa 6d 3d 43 79 7e bd ac c3 c7 3d
       0.0019138245 0.0580235 -0.062127363 0.09754118
000060 42 1a ee bc d2 3a 0d bd cd 81 66 bd a4 87 64 3d
       -0.029065255 -0.034479924 -0.05627613 0.05579342
000070 98 48 75 3d c4 6a d4 3d 2e b1 d6 3d 88 11 a4 bd
       0.059883684 0.103719264 0.10483013 -0.08011156
000080 04 72 ae 3c cb 58 61 bc 41 6c 2f 3c 95 e3 d8 3d
       0.021294601 -0.01375408 0.010706962 0.10590283
000090 cc 17 8a 3c fa d8 b6 bd 29 f7 a6 3b 1e af 84 3d
       0.01685705 -0.08928104 0.0050953818 0.064787135
0000a0 62 94 19 bd e1 7a 1d bc ac 7b c3 bd 5b b6 ae bb
       -0.037495025 -0.009611816 -0.09545073 -0.005331797
0000b0 47 18 77 3d 0c d0 3d bd 36 c9 23 bd 61 23 1c 3d
       0.060325887 -0.046340987 -0.03998681 0.038119677
0000c0 ac f9 92 3d e1 ab 9e 3d 06 c9 cb bd bd a3 49 bc
       0.071765274 0.07747627 -0.099504516 -0.012307105
0000d0 8d 92 02 3d 34 3f 41 bd d4 8f 89 3d 69 0f cf bd
       0.031878043 -0.047179416 0.06716886 -0.10110361
0000e0 a7 11 b5 bd 2d 37 14 3d d7 d9 95 bc 48 e6 d2 bd
       -0.088412575 0.036185432 -0.01829235 -0.10297829
0000f0 6f 79 5d 3d 7f f7 cb bd 01 24 8d bc 43 22 68 bd
       0.054070886 -0.099593155 -0.017229082 -0.0566733
000100 a1 d2 d2 3c d6 92 be bc 86 d9 0b bd c1 6f bd bd
       0.025735201 -0.023263376 -0.034142993 -0.09249831
000110 57 e5 0e 3d 97 10 94 bd 61 1a 42 bd 63 37 9c 3d
       0.034886684 -0.07229727 -0.047388438 0.07627752
000120 91 56 2c 3c ce 69 a3 3d 9c ab 9d bd fa ae a6 bd
       0.010518686 0.07979165 -0.076987475 -0.08138843
000130 73 c1 5a bc 30 0c 66 bd 18 a9 c9 bc 15 7a 8f 3d
       -0.013351786 -0.056163967 -0.024616763 0.07005707
000140 3b c3 ff bd bd ba 73 bc 37 32 d2 bd 46 2d dc bc
       -0.12488409 -0.014876065 -0.10263484 -0.026877057
000150 70 47 bd bd e3 db d7 3c 98 70 3c bd 4c a0 60 bd
       -0.09242141 0.026349967 -0.046005815 -0.05484037
000160 76 4c c0 bd 64 ef 08 bd eb b4 df 3d 4e a0 23 3c
       -0.09389584 -0.033431426 0.10923179 0.00998695
000170 76 8f 3f bd ce 6b db 3c 89 5d ae bc ae d6 75 3d
       -0.046767674 0.026784804 -0.021284835 0.060019188
000180 30 de 54 bd 1c c1 01 3e 04 c9 50 3d 66 b9 ca bd
       -0.051969707 0.12671322 0.050972953 -0.09898643
000190 d1 97 c4 bd e3 4a a5 3b 30 44 5a bd d1 eb 80 bd
       -0.09599269 0.0050443276 -0.053287685 -0.062949784
0001a0 4a f3 30 bc f5 7b fb bd aa 41 20 3c 5f 01 56 3c
       -0.010800192 -0.12279502 0.0097812805 0.01306185
0001b0 b0 d5 28 bd e9 71 ff 3b 19 a0 a3 3d a6 e6 8c 3d
       -0.041219413 0.0077955616 0.079895206 0.0687993
0001c0 89 a3 bc bd a8 3a 7b 3c ef ee 5b bd 8c de cd bc
       -0.09210879 0.015333809 -0.05369466 -0.025130533
0001d0 27 9c 06 3d 14 46 1c bc 78 f5 73 3c f9 d1 c5 3d
       0.032863762 -0.009538192 0.014890067 0.0965919
0001e0 43 c2 f5 3d c7 93 dc 3d 7c 16 af 3c b3 00 80 3d
       0.11999943 0.10770374 0.021373026 0.06250133
0001f0 e5 f4 d7 3d 75 0d d7 bd 98 87 5b bd 1c 28 55 3d
       0.10544757 -0.105006136 -0.05359611 0.052040204
000200 ee ec 95 bd a1 71 43 3d 78 3b c0 3d b1 de c0 bd
       -0.073205814 0.047715787 0.09386343 -0.09417475
000210 be db 8f 3d 54 0e 3c bd f8 ad 86 3c f8 9f 82 bc
       0.07024334 -0.045912102 0.016440377 -0.01594542
000220 52 6b 0f be 9c 10 e1 3b 05 30 28 3e c7 99 f4 3c
       -0.14005783 0.006868435 0.16424568 0.029858483
000230 a7 9c 01 3d ce 13 18 bd e6 c7 fb 3b cf 20 c7 3d
       0.031643536 -0.037128262 0.007683742 0.097230546
000240 f7 4a 84 bc 25 52 39 3d ba 58 0d bd 00 3a 22 3d
       -0.016149027 0.045244355 -0.034508444 0.039606094
000250 94 96 5f 3d b7 ef ce bc b6 b4 ba bc fd 08 85 bc
       0.054586962 -0.02526079 -0.022791248 -0.016239638
000260 f1 40 1a 3d 7a 26 70 3c bb 6f a6 bd 33 f1 c2 3c
       0.03765959 0.014657611 -0.0812678 0.023796653
000270 a9 c3 ca bd 20 62 b0 3c 51 37 4c bb 05 d6 5a bd
       -0.099006005 0.021531165 -0.00311609 -0.05342676
000280 f8 b9 ac bd b0 f5 a3 bd 3d c5 22 bd a9 33 96 3d
       -0.08433908 -0.080058455 -0.039738882 0.07334072
000290 ce 97 8a 3d 66 04 63 bc 06 2f e6 3d 1b 1e c7 bd
       0.06767236 -0.013856029 0.11239438 -0.09722539
0002a0 4b 32 cc bd 80 fe be bd 1e 52 d4 bd 38 49 0d bd
       -0.0997053 -0.09325886 -0.10367225 -0.034493655
0002b0 36 aa 95 3d 9b 97 b0 bd 09 7b f1 3d 6a 95 cb 3a
       0.07307856 -0.086226664 0.11791045 0.00155322
0002c0 f7 e4 4e 3d 41 1b f3 3b c9 c2 bf 3d 80 42 d9 3a
       0.050511327 0.0074190204 0.09363324 0.0016575605
0002d0 ff 11 52 bd 48 75 77 3d 9c 92 c1 bc f3 b5 27 3c
       -0.051286694 0.060414582 -0.02362948 0.010236251
0002e0 04 09 90 3d 2c 96 09 3d 72 37 bb 3d 4c 99 9b bd
       0.070329696 0.03359048 0.09141435 -0.075975984
0002f0 e2 b6 01 be 85 85 ae 3d ec 00 d8 3c 5a 31 72 bc
       -0.1266742 0.085215606 0.026367627 -0.014782274
000300 ee 5c cb 3d f3 27 b7 bc 16 9a dd 3d 01 83 7d 3d
       0.09929834 -0.022357916 0.10820405 0.061892513
000310 ea f7 b2 bd 04 27 c7 bd 4c a8 15 bd 27 ad 07 bc
       -0.08738692 -0.097242385 -0.036537454 -0.008281029
000320 69 21 e9 bd 8a d9 11 3d 16 5a eb bd 5f 71 0a 3d
       -0.113833256 0.035607852 -0.11491792 0.033799525
000330 7e e6 99 3d 59 88 bd 3c b8 a9 83 bd ef 7a 13 3d
       0.07514666 0.023136305 -0.06428856 0.03600591
000340 23 fe 90 3d ba 19 be bd 45 86 3d 3d a4 af af bc
       0.07079723 -0.09282251 0.046270628 -0.021446057
000350 f4 23 21 3e e1 80 b8 bd 9b 75 1a 3c 83 ce 33 bd
       0.15736371 -0.09008957 0.009427453 -0.043898117
000360 ab 7d 8e 3b 54 5b 27 3c ae 4d e4 bd d2 05 84 3d
       0.004348477 0.010214645 -0.11147629 0.06446423
000370 fc b9 ed 3d c2 42 9e bd c9 7b 86 3d c7 77 4e 3d
       0.11607739 -0.07727577 0.06566579 0.050407197
000380 27 c2 d0 bd 1a 72 0c bd 0d 4c c2 bb 91 b7 1b bd
       -0.101932816 -0.034288503 -0.005929476 -0.03801686
000390 6a 23 80 bd 5e e8 50 bd d1 2e 91 bc 42 fa a2 3d
       -0.06256755 -0.051002853 -0.01772252 0.07957889
0003a0 84 6e 79 3c db 98 a8 3d 93 0c ef 3d be 70 97 bd
       0.015224103 0.0823228 0.1167232 -0.07394551
0003b0 60 e1 d0 3c e6 25 b9 3d 37 dd 26 bd cb 4e f9 3d
       0.025498092 0.09040432 -0.04073831 0.12173232
0003c0 dd c3 bc 3d 07 11 24 bd 3e 87 86 bc 52 9f 89 3c
       0.092170455 -0.0400553 -0.01642191 0.016799603
0003d0 60 78 0f 3d d1 53 3c 3d 72 28 21 3c 8c 6f bd bd
       0.035026908 0.04597837 0.009836303 -0.092497915
0003e0 44 c6 4b 3c aa 2e 6f 3d 94 94 ee 3c e0 fc a7 bc
       0.012437407 0.05839411 0.029123582 -0.020506322
0003f0 63 46 c2 3d 38 c4 9b bd e0 98 d4 3d bd 42 0b 3e
       0.094860815 -0.07605785 0.10380721 0.13599677

mlp2.2.bias f4 [50]
000000 44 5c a0 3c 48 12 4e bd 3c cc 34 bd cc b7 db 3b
       0.019575246 -0.050310403 -0.044140086 0.00670526
000010 69 ec 8f bd b4 61 32 3e 13 ac d1 3d 05 2e 95 3d
       -0.070275135 0.17420083 0.10237899 0.07284168
000020 59 ac 47 bd 6a c7 a6 bd 55 db a2 3d 0c c7 7e bd
       -0.048748348 -0.08143504 0.079519905 -0.062201545
000030 f7 eb 43 bc 62 db 79 bd f5 27 58 bd 5c 63 6e bd
       -0.011958114 -0.061000235 -0.05277248 -0.058200225
000040 ec 46 6a 3c 62 e8 d6 bc ba ea 24 3d 5a 41 20 bd
       0.014299136 -0.026233856 0.040262915 -0.039124824
000050 20 2a 0c 3d 0f 03 ef 3d 8e d2 34 3d c1 68 77 bd
       0.03421986 0.11670505 0.044146113 -0.060402635
000060 eb d9 5b bd ee ff ff 3d 41 96 69 bd 01 89 da 3d
       -0.05367462 0.124999866 -0.05702806 0.10670663
000070 ff c7 7b bd 7c 79 db bd 02 9b dd 3b a0 89 ea 3d
       -0.061470028 -0.10716531 0.006762863 0.11452031
000080 25 b8 13 bd 45 10 4c bd d0 72 7e 3d 01 c8 02 bc
       -0.036064286 -0.049820203 0.062121212 -0.007982255
000090 29 be 19 3d ed 8b 02 bd 0a 02 8b bd aa 95 78 bd
       0.037534866 -0.031871725 -0.06787498 -0.060689606
0000a0 09 d0 07 3e bb 78 0f 3d 09 db 50 bb 09 ea 12 bd
       0.13262953 0.035027247 -0.0031868836 -0.035867725
0000b0 53 95 22 bd 55 c4 16 39 d4 87 3e bd a9 90 09 3e
       -0.039693188 0.00014378254 -0.046516255 0.1343409
0000c0 f9 bc 44 bc 46 9e 1c bd
       -0.012007945 -0.03823688

attention.0.weight f4 [100, 100]
000000 1d 8a ab bd d5 ec 12 3d b8 f7 d2 3d bc 70 bf bd
       -0.083759524 0.035870392 0.10301155 -0.09347674
000010 0f aa 82 bd b9 cb fc bc d0 eb 85 bd 1d a8 31 3c
       -0.06380092 -0.030858861 -0.06539118 0.010843304
000020 29 0b 66 3d ea e8 17 bd d4 5a 86 3d 08 4b 8c bc
       0.056162987 -0.03708736 0.06560293 -0.017125621
000030 ef 15 81 bd 78 6b 29 bd 90 a9 73 3c b3 5a 3c bc
       -0.063030116 -0.041362256 0.01487197 -0.011496234
000040 d6 74 bb 3c fb 9f a0 bb f7 9e aa 3d 1e 3a 30 bd
       0.02288286 -0.0049018837 0.083311014 -0.043024175
000050 bc 2b 51 bd 90 be 99 bd 95 84 b6 3d 21 a2 2c bb
       -0.0510671 -0.0750705 0.08912007 -0.0026341754
000060 b5 b0 b5 3d ad 5c 51 3c c7 a1 9c bd 81 fd 91 3d
       0.08871595 0.012778443 -0.07648044 0.0712843
000070 41 d0 68 bd 88 9f 29 3d 3d 89 1a 3c fc 5f 7f 3d
       -0.05683923 0.041411906 0.009432134 0.062347397
000080 e3 2d 35 3c 7f b7 89 3d 22 fb a6 bd 34 45 6d bd
       0.0110583035 0.06724452 -0.081533685 -0.057927325
000090 85 c8 63 bd 35 c5 89 bd 13 90 0d bc 1c de 0a 3d
       -0.055611152 -0.067270674 -0.008640307 0.033903226
0000a0 0e 83 7d bd 49 d3 6f bd 85 e6 83 3d 03 b4 00 3d
       -0.06189256 -0.058551107 0.064404525 0.031421673
0000b0 bb 40 14 ba 12 88 7f 3c 68 16 9e bd ef ef ca bb
       -0.00056553975 0.0155964065 -0.077191174 -0.006193153
0000c0 a2 b6 c2 bd 10 f9 b6 3d e4 24 e1 3c 8e 63 c6 bd
       -0.09507491 0.08934224 0.027483411 -0.09686957
0000d0 e5 a7 27 3d 83 36 9f 3c 86 96 31 3d 4b df c6 bd
       0.0409316 0.019435173 0.04335644 -0.097105585
0000e0 c9 11 5b bd 23 3c a6 bd c9 1b 25 3d cb a7 7d 3d
       -0.053483758 -0.08116939 0.0403097 0.061927598
0000f0 6e e7 4a bd 83 25 0e bc eb e6 c8 bc f6 ac aa 3d
       -0.049537115 -0.008675936 -0.024524173 0.08333771
000100 41 65 90 3b 83 29 a3 3c e1 c6 90 3b 67 0f b2 bd
       0.0044066017 0.019917255 0.0044182395 -0.08694344
000110 54 53 a3 bd 12 d1 95 3d ef 07 1b ba c2 f1 93 3d
       -0.07974878 0.073152676 -0.0005913963 0.07223846
000120 70 3e 5d 3b a3 54 86 3d f8 ec 01 3d 63 a9 c7 bc
       0.003375914 0.06559112 0.03172013 -0.024372762
000130 8e a3 a6 bc a3 41 3d 3d 7c 5a c3 bd 10 ba 93 3d
       -0.02034166 0.046205174 -0.09538743 0.07213223
000140 84 72 a1 bd df 4c 87 bc 2e ac db bc d4 de b6 bd
       -0.0788317 -0.016516147 -0.0268155 -0.0892922
000150 a1 3d 1f 3d ca 2f f9 3b dd 6d b9 3d 70 db b7 3d
       0.038877133 0.007604574 0.09054158 0.08977401
000160 fe 8a 04 3d 74 a4 f1 3c 31 8b 2c bd 14 2d 8d 3d
       0.032359116 0.029497363 -0.04212493 0.068933636
000170 c0 8c 99 3d 4e 80 a9 bd 46 98 8e 3b 0b 8c b8 3d
       0.07497549 -0.08276425 0.0043516485 0.09011086
000180 2a 14 a7 bd 03 85 3a bd 7b 8e 64 3d 7b 89 a5 bb
       -0.08158143 -0.045537006 0.055799942 -0.0050517893
000190 e2 d0 e1 3c 71 5a 3c bd 9e 75 a5 bd 15 2f 7e bd
       0.027565423 -0.04598469 -0.08079074 -0.06205662
0001a0 f7 63 0e bd 6e 19 84 bd 3b ee 9b bd 40 86 b4 bc
       -0.034763303 -0.06450163 -0.07613798 -0.022036672
0001b0 3d 05 37 bd dd 0b 09 3d 82 92 bd bd 9f d5 28 bd
       -0.04468273 0.03345858 -0.0925646 -0.04121935
0001c0 66 f6 81 3d 9d 68 60 bd c0 4e c1 3b f7 12 73 bd
       0.06345825 -0.054787267 0.0058992803 -0.05934426
0001d0 18 5f 77 bc 19 bc bc 3d ba 05 e0 3c c8 b7 00 bc
       -0.015098356 0.09215564 0.02734648 -0.007856317
0001e0 67 5d c4 bd 86 66 8e bd f7 b7 af bd 2b 55 41 bd
       -0.095881276 -0.069531485 -0.085800104 -0.047200363
0001f0 6b 18 8e 3d 0e 6b b4 bd f0 45 72 3d f3 c6 1b 3c
       0.06938251 -0.088094816 0.05914873 0.009507882
000200 1e b0 4f bd e2 d2 e7 3c 05 c0 3e bc 74 7f 05 bd
       -0.050705068 0.028298799 -0.011642461 -0.032592252
000210 c1 ba 3c bb 76 3e bb ba e4 bc 67 3d ba a3 38 bb
       -0.0028797837 -0.0014285583 0.056576625 -0.002817376
000220 65 06 bb bd 91 73 9e bd 31 f5 d4 3c 7d 75 aa bc
       -0.09132079 -0.07736886 0.025995823 -0.020807976
000230 4b 4d a9 bc 6e 7b c4 bd c1 71 43 3c d7 3c 74 3c
       -0.020666739 -0.09593855 0.0119289765 0.0149070835
000240 0e 3a b7 bd 35 fc 88 bd d0 1c cc 3b 65 77 1c bd
       -0.0894662 -0.0668873 0.0062290207 -0.0381998
000250 ce 46 a9 bd 8b ee aa bd 09 27 98 3d c2 8b b6 3c
       -0.08265458 -0.0834628 0.0742932 0.022283439
000260 43 f1 ee 3c 1b 31 ef 3c e1 3a ea bc cf 0d bb 3b
       0.029167777 0.02919822 -0.028592529 0.005708433
000270 20 8c a7 3c cd e5 55 bd ad 74 6e 3d 46 dc 5a 3d
       0.020452559 -0.05222111 0.05821674 0.053432725
000280 d2 81 7c bc d7 32 86 3d d0 55 2e 3c b9 2c b0 3c
       -0.015411811 0.06552666 0.0106405765 0.0215057
000290 c0 94 31 3b 37 d5 0f bd ea 36 92 bd 73 20 42 bd
       0.0027096719 -0.035115447 -0.0713938 -0.047394227
0002a0 98 34 b6 bd 5b fe a8 bd 09 6d 80 bd 7a c3 01 bd
       -0.0889675 -0.082516395 -0.06270797 -0.03168056
0002b0 a1 0c 85 3d 88 a5 8e bd 19 18 81 bc af 30 17 bc
       0.064965494 -0.06965166 -0.015758561 -0.009227916
0002c0 74 36 5f 3b 56 76 67 3d 24 40 11 bd 17 2e 3c bc
       0.0034059556 0.05650934 -0.03546156 -0.011485598
0002d0 a5 15 93 bd bf 31 f4 3b e2 68 c4 bd 9f 44 1e 3d
       -0.07181863 0.0074522193 -0.09590317 0.03863966
0002e0 89 ef 5e 3c 8e 5e c9 bc 91 7d c5 3d 36 da cc 3a
       0.013606914 -0.02458122 0.096430905 0.0015628997
0002f0 cb 73 11 ba 2d 30 c4 3d 2e c3 4a 3d b0 6b 99 bd
       -0.00055485655 0.09579501 0.049502544 -0.07491243
000300 73 8b 18 3c cd 95 a1 bd ef 28 8a 3d 42 8f 40 3d
       0.009310591 -0.078899 0.06746089 0.04701162
000310 40 af ad ba 86 f1 55 3d fb 0f 98 bd 99 8f 88 bd
       -0.0013251081 0.052232288 -0.07424923 -0.06668014
000320 08 90 31 bd 68 19 8d bd e1 97 e7 ba fc ce 2b 3c
       -0.04335025 -0.068896115 -0.0017669165 0.010486361
000330 54 d9 8b 3d 9a af 32 3d 53 86 a5 bb 20 39 b0 3d
       0.068285614 0.043624498 -0.005051413 0.08604646
000340 85 ba 46 bd b7 ff 8e 3d fe 89 ca 3c 60 5c 4a bd
       -0.048517723 0.069823675 0.024724003 -0.049404502
000350 37 3d e9 3c 29 2b ac bd 7c 11 53 3d 63 68 26 bd
       0.028471572 -0.0840667 0.051530346 -0.040626895
000360 40 cb 27 bd 1b 27 bc 3d 16 0c c3 3d de 56 a3 3c
       -0.04096532 0.09187146 0.095237896 0.019938882
000370 1b 96 40 3d 54 f4 fa 3c f2 8c c1 bc b2 38 97 bd
       0.04701815 0.030634083 -0.023626778 -0.07383861
000380 79 e1 35 3d ed 2b 9b bc 01 53 e1 bc 78 fd 80 3b
       0.04440448 -0.018941844 -0.0275054 0.003936466
000390 da a0 fa 3c e3 ab bb bd 0a f6 c4 bd ac 78 2d 3d
       0.030594278 -0.09163644 -0.09617241 0.04235141
0003a0 3d 97 9d 3d 74 c3 ce bd e6 e5 d3 3d 27 c3 1d bc
       0.07694862 -0.100958735 0.10346584 -0.0096290475
0003b0 67 ce 87 bd 03 c3 87 bd 2d 34 11 bd 69 d1 9d 3c
       -0.06631165 -0.066289924 -0.03545015 0.019264894
0003c0 1c ae 05 bc e3 f6 e5 bc 6d 29 0c bd 45 c7 07 bd
       -0.008159187 -0.028071826 -0.034219194 -0.033149023
0003d0 4b d0 45 bd 85 82 9d bd 2c 4b b4 3c e5 24 ad 3d
       -0.048294347 -0.0769091 0.022008501 0.08454303
0003e0 6d da 30 ba 89 1a 5d 3d a6 73 9e bd 29 68 15 bd
       -0.0006746415 0.053980384 -0.07736902 -0.036476288
0003f0 6e 68 a5 3d f6 4d 73 bd 5e ce 27 3d 42 0b 72 bd
       0.08076559 -0.05940052 0.04096829 -0.059092768

attention.0.bias f4 [100]
000000 5f 8d a0 bc 2e c1 b9 bd 2a b1 d4 bd 7e 59 b6 3c
       -0.019598661 -0.09070049 -0.10385354 0.02225947
000010 09 91 8b bd 04 ba 0a be 84 89 6e bd 46 83 3e bd
       -0.06814773 -0.13547522 -0.058236614 -0.04651191
000020 83 ad 36 3d 24 e0 8a 3d fc 62 c9 bd fe 7c cd bc
       0.044599067 0.06781033 -0.09833333 -0.025084015
000030 e4 85 3d bd 8d ee 9b bd 06 c1 61 3c ae 33 a1 3d
       -0.046270266 -0.07613859 0.0137789305 0.07871185
000040 11 7d b2 bd 6c 31 a0 3d 9f 95 80 3c a6 fa e6 3d
       -0.08715261 0.078219265 0.015696345 0.11278276
000050 a6 a2 ac bd ef eb 91 3d 13 da 4e 3d 0b ea 77 3d
       -0.0842946 0.07125079 0.05050094 0.060525935
000060 4c 0e 2c 3d 60 46 bb 3d 6b d3 94 bd 27 85 d4 3d
       0.042005822 0.09144282 -0.07266887 0.10376959
000070 5e d9 c4 3c d3 d1 fd bd 4b 1b 58 3d 56 07 b1 3c
       0.02402943 -0.123935364 0.052760404 0.021609943
000080 ac d5 5b bd 31 71 36 bd e9 e3 42 3d ff d9 99 bc
       -0.05367057 -0.04454154 0.047580633 -0.018780706
000090 ec 41 33 bd 76 0f 41 3b db 73 1a be 6b 0b 78 bb
       -0.04376404 0.0029458678 -0.15083258 -0.0037848603
0000a0 14 58 98 3d 61 05 44 3c 1a a2 c0 3d c4 6f 64 3d
       0.074386746 0.011964173 0.094059184 0.05577065
0000b0 58 f8 8a bd 33 03 e4 3c 32 4e b7 3d 44 9a b3 3b
       -0.06785649 0.027833557 0.089504614 0.0054810364
0000c0 ba 9e d7 3d 1d 80 b6 bd 6f ae d7 3c 1d 71 08 3e
       0.105283216 -0.089111544 0.026328294 0.133244
0000d0 7a f9 26 bd 7f dd 8d bd 6d a5 b3 bd f1 cb bf bc
       -0.040765263 -0.06927013 -0.08771787 -0.023412677
0000e0 6f 62 35 3d fd 75 40 3d ce 3c 56 3d b7 33 c1 3d
       0.044283327 0.046987522 0.05230408 0.09433692
0000f0 0d 8f 41 bd e0 4e e0 bc e4 e4 5a 3c 6d 94 73 3d
       -0.047255564 -0.02738136 0.013360236 0.05946772
000100 0e 01 87 bd 5f a7 d1 3c a8 30 c6 3d 1c d9 d6 bd
       -0.06591998 0.025592504 0.09677249 -0.10490629
000110 6b ba d3 3d 33 c0 f2 bd 1a 87 62 bd 94 b5 b0 bd
       0.10338291 -0.11853065 -0.055304624 -0.08628383
000120 5f 83 99 3b bb 83 e1 bb 1b b5 ba 3c 4b b0 43 3d
       0.00468485 -0.0068821586 0.022791436 0.047775548
000130 be 30 55 3c 0a 83 a7 3d 42 61 d4 3b c1 2c c4 3d
       0.013012109 0.081792906 0.0064813206 0.09578849
000140 b2 6e 4a bd d0 13 a7 bd 01 ae bf 3d de b0 a3 3d
       -0.049421974 -0.08158076 0.093593605 0.07992719
000150 d5 7b d0 bd 33 b9 4d 3b cb 99 07 3e 61 55 16 bc
       -0.10179869 0.0031390905 0.13242261 -0.009175629
000160 a9 f2 d7 bd 26 08 51 bd 26 1c ac bc ea f2 b9 bc
       -0.105443306 -0.05103316 -0.021009516 -0.022698838
000170 3d 1c 9d 3d 2d 87 fa 3d 40 12 a8 3d 27 81 6d bd
       0.07671402 0.12232814 0.08206606 -0.057984497
000180 a1 74 56 3d ba 42 6b 3d be aa 00 3e 24 1d 61 bd
       0.05235732 0.057436682 0.12565133 -0.05495943
